…
    batch_sampler {
      sampler {
        min_scale: 0.3
        max_scale: 1
        min_aspect_ratio: 0.5
        max_aspect_ratio: 2
      }
      sample_constraint {
        min_jaccard_overlap: 0.9
      }
      max_sample: 1
      max_trials: 50
    }
    batch_sampler {
      sampler {
        min_scale: 0.3
        max_scale: 1
        min_aspect_ratio: 0.5
        max_aspect_ratio: 2
      }
      sample_constraint {
        max_jaccard_overlap: 1
      }
      max_sample: 1
      max_trials: 50
    }
    label_map_file: "labelmap.prototxt"
  }
}
layer {
  name: "Conv"
  type: "Convolution"
  bottom: "data"
  top: "Conv"
  param {
    lr_mult: 0.1
    decay_mult: 0.1
  }
  convolution_param {
    num_output: 32
    bias_term: false
    pad: 1
    kernel_size: 3
    stride: 2
    weight_filler {
      type: "msra"
    }
  }
}
layer {
  name: "Conv/bn"
  type: "BatchNorm"
  bottom: "Conv"
  top: "Conv"
}
layer {
  name: "Conv/scale"
  type: "Scale"
  bottom: "Conv"
  top: "Conv"
  param {
    lr_mult: 0.1
    decay_mult: 0
  }
  param {
    lr_mult: 0.2
    decay_mult: 0
  }
  scale_param {
    filler {
      value: 1
    }
    bias_term: true
    bias_filler {
      value: 0
    }
  }
}
layer {
  name: "Conv/relu"
  type: "ReLU"
  bottom: "Conv"
  top: "Conv"
}
layer {
  name: "conv/depthwise"
  type: "Convolution"
  bottom: "Conv"
  top: "conv/depthwise"
  param {
    lr_mult: 0.1
    decay_mult: 0.1
  }
  convolution_param {
    num_output: 32
    bias_term: false
    pad: 1
    kernel_size: 3
    group: 32
    weight_filler {
      type: "msra"
    }
    engine: CAFFE
  }
}
layer {
  name: "conv/depthwise/bn"
  type: "BatchNorm"
  bottom: "conv/depthwise"
  top: "conv/depthwise"
}
layer {
  name: "conv/depthwise/scale"
  type: "Scale"
  bottom: "conv/depthwise"
  top: "conv/depthwise"
  param {
    lr_mult: 0.1
    decay_mult: 0
  }
  param {
    lr_mult: 0.2
    decay_mult: 0
  }
  scale_param {
    filler {
      value: 1
    }
    bias_term: true
    bias_filler {
      value: 0
    }
  }
}
layer {
  name: "conv/depthwise/relu"
  type: "ReLU"
  bottom: "conv/depthwise"
  top: "conv/depthwise"
}
layer {
  name: "conv/project"
  type: "Convolution"
  bottom: "conv/depthwise"
  top: "conv/project"
  param {
    lr_mult: 0.1
    decay_mult: 0.1
  }
  convolution_param {
    num_output: 16
    bias_term: false
    kernel_size: 1
    weight_filler {
      type: "msra"
    }
  }
}
layer {
  name: "conv/project/bn"
  type: "BatchNorm"
  bottom: "conv/project"
  top: "conv/project"
}
layer {
  name: "conv/project/scale"
  type: "Scale"
  bottom: "conv/project"
  top: "conv/project"
  param {
    lr_mult: 0.1
    decay_mult: 0
  }
  param {
    lr_mult: 0.2
    decay_mult: 0
  }
  scale_param {
    filler {
      value: 1
    }
    bias_term: true
    bias_filler {
      value: 0
    }
  }
}
layer {
  name: "conv_1/expand"
  type: "Convolution"
  bottom: "conv/project"
  top: "conv_1/expand"
  param {
    lr_mult: 0.1
    decay_mult: 0.1
  }
  convolution_param {
    num_output: 96
    bias_term: false
    kernel_size: 1
    weight_filler {
      type: "msra"
    }
  }
}
layer {
  name: "conv_1/expand/bn"
  type: "BatchNorm"
  bottom: "conv_1/expand"
  top: "conv_1/expand"
}
layer {
  name: "conv_1/expand/scale"
  type: "Scale"
  bottom: "conv_1/expand"
  top: "conv_1/expand"
  param {
    lr_mult: 0.1
    decay_mult: 0
  }
  param {
    lr_mult: 0.2
    decay_mult: 0
  }
  scale_param {
    filler {
      value: 1
    }
    bias_term: true
    bias_filler {
      value: 0
    }
  }
}
layer {
  name: "conv_1/expand/relu"
  type: "ReLU"
  bottom: "conv_1/expand"
  top: "conv_1/expand"
}
layer {
  name: "conv_1/depthwise"
  type: "Convolution"
  bottom: "conv_1/expand"
  top: "conv_1/depthwise"
  param {
    lr_mult: 0.1
    decay_mult: 0.1
  }
  convolution_param {
    num_output: 96
    bias_term: false
    pad: 1
    kernel_size: 3
    group: 96
    stride: 2
    weight_filler {
      type: "msra"
    }
    engine: CAFFE
  }
}
layer {
  name: "conv_1/depthwise/bn"
  type: "BatchNorm"
  bottom: "conv_1/depthwise"
  top: "conv_1/depthwise"
}
layer {
  name: "conv_1/depthwise/scale"
  type: "Scale"
  bottom: "conv_1/depthwise"
  top: "conv_1/depthwise"
  param {
    lr_mult: 0.1
    decay_mult: 0
  }
  param {
    lr_mult: 0.2
    decay_mult: 0
  }
  scale_param {
    filler {
      value: 1
    }
    bias_term: true
    bias_filler {
      value: 0
    }
  }
}
layer {
  name: "conv_1/depthwise/relu"
  type: "ReLU"
  bottom: "conv_1/depthwise"
  top: "conv_1/depthwise"
}
layer {
  name: "conv_1/project"
  type: "Convolution"
  bottom: "conv_1/depthwise"
  top: "conv_1/project"
  param {
    lr_mult: 0.1
    decay_mult: 0.1
  }
  convolution_param {
    num_output: 24
    bias_term: false
    kernel_size: 1
    weight_filler {
      type: "msra"
    }
  }
}
layer {
  name: "conv_1/project/bn"
  type: "BatchNorm"
  bottom: "conv_1/project"
  top: "conv_1/project"
}
layer {
  name: "conv_1/project/scale"
  type: "Scale"
  bottom: "conv_1/project"
  top: "conv_1/project"
  param {
    lr_mult: 0.1
    decay_mult: 0
  }
  param {
    lr_mult: 0.2
    decay_mult: 0
  }
  scale_param {
    filler {
      value: 1
    }
    bias_term: true
    bias_filler {
      value: 0
    }
  }
}
layer {
  name: "conv_2/expand"
  type: "Convolution"
  bottom: "conv_1/project"
  top: "conv_2/expand"
  param {
    lr_mult: 0.1
    decay_mult: 0.1
  }
  convolution_param {
    num_output: 144
    bias_term: false
    kernel_size: 1
    weight_filler {
      type: "msra"
    }
  }
}
layer {
  name: "conv_2/expand/bn"
  type: "BatchNorm"
  bottom: "conv_2/expand"
  top: "conv_2/expand"
}
layer {
  name: "conv_2/expand/scale"
  type: "Scale"
  bottom: "conv_2/expand"
  top: "conv_2/expand"
  param {
    lr_mult: 0.1
    decay_mult: 0
  }
  param {
    lr_mult: 0.2
    decay_mult: 0
  }
  scale_param {
    filler {
      value: 1
    }
    bias_term: true
    bias_filler {
      value: 0
    }
  }
}
layer {
  name: "conv_2/expand/relu"
  type: "ReLU"
  bottom: "conv_2/expand"
  top: "conv_2/expand"
}
layer {
  name: "conv_2/depthwise"
  type: "Convolution"
  bottom: "conv_2/expand"
  top: "conv_2/depthwise"
  param {
    lr_mult: 0.1
    decay_mult: 0.1
  }
  convolution_param {
    num_output: 144
    bias_term: false
    pad: 1
    kernel_size: 3
    group: 144
    weight_filler {
      type: "msra"
    }
    engine: CAFFE
  }
}
layer {
  name: "conv_2/depthwise/bn"
  type: "BatchNorm"
  bottom: "conv_2/depthwise"
  top: "conv_2/depthwise"
}
layer {
  name: "conv_2/depthwise/scale"
  type: "Scale"
  bottom: "conv_2/depthwise"
  top: "conv_2/depthwise"
  param {
    lr_mult: 0.1
    decay_mult: 0
  }
  param {
    lr_mult: 0.2
    decay_mult: 0
  }
  scale_param {
    filler {
      value: 1
    }
    bias_term: true
    bias_filler {
      value: 0
    }
  }
}
layer {
  name: "conv_2/depthwise/relu"
  type: "ReLU"
  bottom: "conv_2/depthwise"
  top: "conv_2/depthwise"
}
layer {
  name: "conv_2/project"
  type: "Convolution"
  bottom: "conv_2/depthwise"
  top: "conv_2/project"
  param {
    lr_mult: 0.1
    decay_mult: 0.1
  }
  convolution_param {
    num_output: 24
    bias_term: false
    kernel_size: 1
    weight_filler {
      type: "msra"
    }
  }
}
layer {
  name: "conv_2/project/bn"
  type: "BatchNorm"
  bottom: "conv_2/project"
  top: "conv_2/project"
}
layer {
  name: "conv_2/project/scale"
  type: "Scale"
  bottom: "conv_2/project"
  top: "conv_2/project"
  param {
    lr_mult: 0.1
    decay_mult: 0
  }
  param {
    lr_mult: 0.2
    decay_mult: 0
  }
  scale_param {
    filler {
      value: 1
    }
    bias_term: true
    bias_filler {
      value: 0
    }
  }
}
layer {
  name: "conv_2project/sum"
  type: "Eltwise"
  bottom: "conv_1/project"
  bottom: "conv_2/project"
  top: "conv_2project"
}
layer {
  name: "conv_3/expand"
  type: "Convolution"
  bottom: "conv_2project"
  top: "conv_3/expand"
  param {
    lr_mult: 0.1
    decay_mult: 0.1
  }
  convolution_param {
    num_output: 144
    bias_term: false
    kernel_size: 1
    weight_filler {
      type: "msra"
    }
  }
}
layer {
  name: "conv_3/expand/bn"
  type: "BatchNorm"
  bottom: "conv_3/expand"
  top: "conv_3/expand"
}
layer {
  name: "conv_3/expand/scale"
  type: "Scale"
  bottom: "conv_3/expand"
  top: "conv_3/expand"
  param {
    lr_mult: 0.1
    decay_mult: 0
  }
  param {
    lr_mult: 0.2
    decay_mult: 0
  }
  scale_param {
    filler {
      value: 1
    }
    bias_term: true
    bias_filler {
      value: 0
    }
  }
}
layer {
  name: "conv_3/expand/relu"
  type: "ReLU"
  bottom: "conv_3/expand"
  top: "conv_3/expand"
}
layer {
  name: "conv_3/depthwise"
  type: "Convolution"
  bottom: "conv_3/expand"
  top: "conv_3/depthwise"
  param {
    lr_mult: 0.1
    decay_mult: 0.1
  }
  convolution_param {
    num_output: 144
    bias_term: false
    pad: 1
    kernel_size: 3
    group: 144
    stride: 2
    weight_filler {
      type: "msra"
    }
    engine: CAFFE
  }
}
layer {
  name: "conv_3/depthwise/bn"
  type: "BatchNorm"
  bottom: "conv_3/depthwise"
  top: "conv_3/depthwise"
}
layer {
  name: "conv_3/depthwise/scale"
  type: "Scale"
  bottom: "conv_3/depthwise"
  top: "conv_3/depthwise"
  param {
    lr_mult: 0.1
    decay_mult: 0
  }
  param {
    lr_mult: 0.2
    decay_mult: 0
  }
  scale_param {
    filler {
      value: 1
    }
    bias_term: true
    bias_filler {
      value: 0
    }
  }
}
layer {
  name: "conv_3/depthwise/relu"
  type: "ReLU"
  bottom: "conv_3/depthwise"
  top: "conv_3/depthwise"
}
layer {
  name: "conv_3/project"
  type: "Convolution"
  bottom: "conv_3/depthwise"
  top: "conv_3/project"
  param {
    lr_mult: 0.1
    decay_mult: 0.1
  }
  convolution_param {
    num_output: 32
    bias_term: false
    kernel_size: 1
    weight_filler {
      type: "msra"
    }
  }
}
layer {
  name: "conv_3/project/bn"
  type: "BatchNorm"
  bottom: "conv_3/project"
  top: "conv_3/project"
}
layer {
  name: "conv_3/project/scale"
  type: "Scale"
  bottom: "conv_3/project"
  top: "conv_3/project"
  param {
    lr_mult: 0.1
    decay_mult: 0
  }
  param {
    lr_mult: 0.2
    decay_mult: 0
  }
  scale_param {
    filler {
      value: 1
    }
    bias_term: true
    bias_filler {
      value: 0
    }
  }
}
layer {
  name: "conv_4/expand"
  type: "Convolution"
  bottom: "conv_3/project"
  top: "conv_4/expand"
  param {
    lr_mult: 0.1
    decay_mult: 0.1
  }
  convolution_param {
    num_output: 192
    bias_term: false
    kernel_size: 1
    weight_filler {
      type: "msra"
    }
  }
}
layer {
  name: "conv_4/expand/bn"
  type: "BatchNorm"
  bottom: "conv_4/expand"
  top: "conv_4/expand"
}
layer {
  name: "conv_4/expand/scale"
  type: "Scale"
  bottom: "conv_4/expand"
  top: "conv_4/expand"
  param {
    lr_mult: 0.1
    decay_mult: 0
  }
  param {
    lr_mult: 0.2
    decay_mult: 0
  }
  scale_param {
    filler {
      value: 1
    }
    bias_term: true
    bias_filler {
      value: 0
    }
  }
}
layer {
  name: "conv_4/expand/relu"
  type: "ReLU"
  bottom: "conv_4/expand"
  top: "conv_4/expand"
}
layer {
  name: "conv_4/depthwise"
  type: "Convolution"
  bottom: "conv_4/expand"
  top: "conv_4/depthwise"
  param {
    lr_mult: 0.1
    decay_mult: 0.1
  }
  convolution_param {
    num_output: 192
    bias_term: false
    pad: 1
    kernel_size: 3
    group: 192
    weight_filler {
      type: "msra"
    }
    engine: CAFFE
  }
}
layer {
  name: "conv_4/depthwise/bn"
  type: "BatchNorm"
  bottom: "conv_4/depthwise"
  top: "conv_4/depthwise"
}
layer {
  name: "conv_4/depthwise/scale"
  type: "Scale"
  bottom: "conv_4/depthwise"
  top: "conv_4/depthwise"
  param {
    lr_mult: 0.1
    decay_mult: 0
  }
  param {
    lr_mult: 0.2
    decay_mult: 0
  }
  scale_param {
    filler {
      value: 1
    }
    bias_term: true
    bias_filler {
      value: 0
    }
  }
}
layer {
  name: "conv_4/depthwise/relu"
  type: "ReLU"
  bottom: "conv_4/depthwise"
  top: "conv_4/depthwise"
}
layer {
  name: "conv_4/project"
  type: "Convolution"
  bottom: "conv_4/depthwise"
  top: "conv_4/project"
  param {
    lr_mult: 0.1
    decay_mult: 0.1
  }
  convolution_param {
    num_output: 32
    bias_term: false
    kernel_size: 1
    weight_filler {
      type: "msra"
    }
  }
}
layer {
  name: "conv_4/project/bn"
  type: "BatchNorm"
  bottom: "conv_4/project"
  top: "conv_4/project"
}
layer {
  name: "conv_4/project/scale"
  type: "Scale"
  bottom: "conv_4/project"
  top: "conv_4/project"
  param {
    lr_mult: 0.1
    decay_mult: 0
  }
  param {
    lr_mult: 0.2
    decay_mult: 0
  }
  scale_param {
    filler {
      value: 1
    }
    bias_term: true
    bias_filler {
      value: 0
    }
  }
}
layer {
  name: "conv_4project/sum"
  type: "Eltwise"
  bottom: "conv_3/project"
  bottom: "conv_4/project"
  top: "conv_4project"
}
layer {
  name: "conv_5/expand"
  type: "Convolution"
  bottom: "conv_4project"
  top: "conv_5/expand"
  param {
    lr_mult: 0.1
    decay_mult: 0.1
  }
  convolution_param {
    num_output: 192
    bias_term: false
    kernel_size: 1
    weight_filler {
      type: "msra"
    }
  }
}
layer {
  name: "conv_5/expand/bn"
  type: "BatchNorm"
  bottom: "conv_5/expand"
  top: "conv_5/expand"
}
layer {
  name: "conv_5/expand/scale"
  type: "Scale"
  bottom: "conv_5/expand"
  top: "conv_5/expand"
  param {
    lr_mult: 0.1
    decay_mult: 0
  }
  param {
    lr_mult: 0.2
    decay_mult: 0
  }
  scale_param {
    filler {
      value: 1
    }
    bias_term: true
    bias_filler {
      value: 0
    }
  }
}
layer {
  name: "conv_5/expand/relu"
  type: "ReLU"
  bottom: "conv_5/expand"
  top: "conv_5/expand"
}
layer {
  name: "conv_5/depthwise"
  type: "Convolution"
  bottom: "conv_5/expand"
  top: "conv_5/depthwise"
  param {
    lr_mult: 0.1
    decay_mult: 0.1
  }
  convolution_param {
    num_output: 192
    bias_term: false
    pad: 1
    kernel_size: 3
    group: 192
    weight_filler {
      type: "msra"
    }
    engine: CAFFE
  }
}
layer {
  name: "conv_5/depthwise/bn"
  type: "BatchNorm"
  bottom: "conv_5/depthwise"
  top: "conv_5/depthwise"
}
layer {
  name: "conv_5/depthwise/scale"
  type: "Scale"
  bottom: "conv_5/depthwise"
  top: "conv_5/depthwise"
  param {
    lr_mult: 0.1
    decay_mult: 0
  }
  param {
    lr_mult: 0.2
    decay_mult: 0
  }
  scale_param {
    filler {
      value: 1
    }
    bias_term: true
    bias_filler {
      value: 0
    }
  }
}
layer {
  name: "conv_5/depthwise/relu"
  type: "ReLU"
  bottom: "conv_5/depthwise"
  top: "conv_5/depthwise"
}
layer {
  name: "conv_5/project"
  type: "Convolution"
  bottom: "conv_5/depthwise"
  top: "conv_5/project"
  param {
    lr_mult: 0.1
    decay_mult: 0.1
  }
  convolution_param {
    num_output: 32
    bias_term: false
    kernel_size: 1
    weight_filler {
      type: "msra"
    }
  }
}
layer {
  name: "conv_5/project/bn"
  type: "BatchNorm"
  bottom: "conv_5/project"
  top: "conv_5/project"
}
layer {
  name: "conv_5/project/scale"
  type: "Scale"
  bottom: "conv_5/project"
  top: "conv_5/project"
  param {
    lr_mult: 0.1
    decay_mult: 0
  }
  param {
    lr_mult: 0.2
    decay_mult: 0
  }
  scale_param {
    filler {
      value: 1
    }
    bias_term: true
    bias_filler {
      value: 0
    }
  }
}
layer {
  name: "conv_5project/sum"
  type: "Eltwise"
  bottom: "conv_4project"
  bottom: "conv_5/project"
  top: "conv_5project"
}
layer {
  name: "conv_6/expand"
  type: "Convolution"
  bottom: "conv_5project"
  top: "conv_6/expand"
  param {
    lr_mult: 0.1
    decay_mult: 0.1
  }
  convolution_param {
    num_output: 192
    bias_term: false
    kernel_size: 1
    weight_filler {
      type: "msra"
    }
  }
}
layer {
  name: "conv_6/expand/bn"
  type: "BatchNorm"
  bottom: "conv_6/expand"
  top: "conv_6/expand"
}
layer {
  name: "conv_6/expand/scale"
  type: "Scale"
  bottom: "conv_6/expand"
  top: "conv_6/expand"
  param {
    lr_mult: 0.1
    decay_mult: 0
  }
  param {
    lr_mult: 0.2
    decay_mult: 0
  }
  scale_param {
    filler {
      value: 1
    }
    bias_term: true
    bias_filler {
      value: 0
    }
  }
}
layer {
  name: "conv_6/expand/relu"
  type: "ReLU"
  bottom: "conv_6/expand"
  top: "conv_6/expand"
}
layer {
  name: "conv_6/depthwise"
  type: "Convolution"
  bottom: "conv_6/expand"
  top: "conv_6/depthwise"
  param {
    lr_mult: 0.1
    decay_mult: 0.1
  }
  convolution_param {
    num_output: 192
    bias_term: false
    pad: 1
    kernel_size: 3
    group: 192
    stride: 2
    weight_filler {
      type: "msra"
    }
    engine: CAFFE
  }
}
layer {
  name: "conv_6/depthwise/bn"
  type: "BatchNorm"
  bottom: "conv_6/depthwise"
  top: "conv_6/depthwise"
}
layer {
  name: "conv_6/depthwise/scale"
  type: "Scale"
  bottom: "conv_6/depthwise"
  top: "conv_6/depthwise"
  param {
    lr_mult: 0.1
    decay_mult: 0
  }
  param {
    lr_mult: 0.2
    decay_mult: 0
  }
  scale_param {
    filler {
      value: 1
    }
    bias_term: true
    bias_filler {
      value: 0
    }
  }
}
layer {
  name: "conv_6/depthwise/relu"
  type: "ReLU"
  bottom: "conv_6/depthwise"
  top: "conv_6/depthwise"
}
layer {
  name: "conv_6/project"
  type: "Convolution"
  bottom: "conv_6/depthwise"
  top: "conv_6/project"
  param {
    lr_mult: 0.1
    decay_mult: 0.1
  }
  convolution_param {
    num_output: 64
    bias_term: false
    kernel_size: 1
    weight_filler {
      type: "msra"
    }
  }
}
layer {
  name: "conv_6/project/bn"
  type: "BatchNorm"
  bottom: "conv_6/project"
  top: "conv_6/project"
}
layer {
  name: "conv_6/project/scale"
  type: "Scale"
  bottom: "conv_6/project"
  top: "conv_6/project"
  param {
    lr_mult: 0.1
    decay_mult: 0
  }
  param {
    lr_mult: 0.2
    decay_mult: 0
  }
  scale_param {
    filler {
      value: 1
    }
    bias_term: true
    bias_filler {
      value: 0
    }
  }
}
layer {
  name: "conv_7/expand"
  type: "Convolution"
  bottom: "conv_6/project"
  top: "conv_7/expand"
  param {
    lr_mult: 0.1
    decay_mult: 0.1
  }
  convolution_param {
    num_output: 384
    bias_term: false
    kernel_size: 1
    weight_filler {
      type: "msra"
    }
  }
}
layer {
  name: "conv_7/expand/bn"
  type: "BatchNorm"
  bottom: "conv_7/expand"
  top: "conv_7/expand"
}
layer {
  name: "conv_7/expand/scale"
  type: "Scale"
  bottom: "conv_7/expand"
  top: "conv_7/expand"
  param {
    lr_mult: 0.1
    decay_mult: 0
  }
  param {
    lr_mult: 0.2
    decay_mult: 0
  }
  scale_param {
    filler {
      value: 1
    }
    bias_term: true
    bias_filler {
      value: 0
    }
  }
}
layer {
  name: "conv_7/expand/relu"
  type: "ReLU"
  bottom: "conv_7/expand"
  top: "conv_7/expand"
}
layer {
  name: "conv_7/depthwise"
  type: "Convolution"
  bottom: "conv_7/expand"
  top: "conv_7/depthwise"
  param {
    lr_mult: 0.1
    decay_mult: 0.1
  }
  convolution_param {
    num_output: 384
    bias_term: false
    pad: 1
    kernel_size: 3
    group: 384
    weight_filler {
      type: "msra"
    }
    engine: CAFFE
  }
}
layer {
  name: "conv_7/depthwise/bn"
  type: "BatchNorm"
  bottom: "conv_7/depthwise"
  top: "conv_7/depthwise"
}
layer {
  name: "conv_7/depthwise/scale"
  type: "Scale"
  bottom: "conv_7/depthwise"
  top: "conv_7/depthwise"
  param {
    lr_mult: 0.1
    decay_mult: 0
  }
  param {
    lr_mult: 0.2
    decay_mult: 0
  }
  scale_param {
    filler {
      value: 1
    }
    bias_term: true
    bias_filler {
      value: 0
    }
  }
}
layer {
  name: "conv_7/depthwise/relu"
  type: "ReLU"
  bottom: "conv_7/depthwise"
  top: "conv_7/depthwise"
}
layer {
  name: "conv_7/project"
  type: "Convolution"
  bottom: "conv_7/depthwise"
  top: "conv_7/project"
  param {
    lr_mult: 0.1
    decay_mult: 0.1
  }
  convolution_param {
    num_output: 64
    bias_term: false
    kernel_size: 1
    weight_filler {
      type: "msra"
    }
  }
}
layer {
  name: "conv_7/project/bn"
  type: "BatchNorm"
  bottom: "conv_7/project"
  top: "conv_7/project"
}
layer {
  name: "conv_7/project/scale"
  type: "Scale"
  bottom: "conv_7/project"
  top: "conv_7/project"
  param {
    lr_mult: 0.1
    decay_mult: 0
  }
  param {
    lr_mult: 0.2
    decay_mult: 0
  }
  scale_param {
    filler {
      value: 1
    }
    bias_term: true
    bias_filler {
      value: 0
    }
  }
}
layer {
  name: "conv_7project/sum"
  type: "Eltwise"
  bottom: "conv_6/project"
  bottom: "conv_7/project"
  top: "conv_7project"
}
layer {
  name: "conv_8/expand"
  type: "Convolution"
  bottom: "conv_7project"
  top: "conv_8/expand"
  param {
    lr_mult: 0.1
    decay_mult: 0.1
  }
  convolution_param {
    num_output: 384
    bias_term: false
    kernel_size: 1
    weight_filler {
      type: "msra"
    }
  }
}
layer {
  name: "conv_8/expand/bn"
  type: "BatchNorm"
  bottom: "conv_8/expand"
  top: "conv_8/expand"
}
layer {
  name: "conv_8/expand/scale"
  type: "Scale"
  bottom: "conv_8/expand"
  top: "conv_8/expand"
  param {
    lr_mult: 0.1
    decay_mult: 0
  }
  param {
    lr_mult: 0.2
    decay_mult: 0
  }
  scale_param {
    filler {
      value: 1
    }
    bias_term: true
    bias_filler {
      value: 0
    }
  }
}
layer {
  name: "conv_8/expand/relu"
  type: "ReLU"
  bottom: "conv_8/expand"
  top: "conv_8/expand"
}
layer {
  name: "conv_8/depthwise"
  type: "Convolution"
  bottom: "conv_8/expand"
  top: "conv_8/depthwise"
  param {
    lr_mult: 0.1
    decay_mult: 0.1
  }
  convolution_param {
    num_output: 384
    bias_term: false
    pad: 1
    kernel_size: 3
    group: 384
    weight_filler {
      type: "msra"
    }
    engine: CAFFE
  }
}
layer {
  name: "conv_8/depthwise/bn"
  type: "BatchNorm"
  bottom: "conv_8/depthwise"
  top: "conv_8/depthwise"
}
layer {
  name: "conv_8/depthwise/scale"
  type: "Scale"
  bottom: "conv_8/depthwise"
  top: "conv_8/depthwise"
  param {
    lr_mult: 0.1
    decay_mult: 0
  }
  param {
    lr_mult: 0.2
    decay_mult: 0
  }
  scale_param {
    filler {
      value: 1
    }
    bias_term: true
    bias_filler {
      value: 0
    }
  }
}
layer {
  name: "conv_8/depthwise/relu"
  type: "ReLU"
  bottom: "conv_8/depthwise"
  top: "conv_8/depthwise"
}
layer {
  name: "conv_8/project"
  type: "Convolution"
  bottom: "conv_8/depthwise"
  top: "conv_8/project"
  param {
    lr_mult: 0.1
    decay_mult: 0.1
  }
  convolution_param {
    num_output: 64
    bias_term: false
    kernel_size: 1
    weight_filler {
      type: "msra"
    }
  }
}
layer {
  name: "conv_8/project/bn"
  type: "BatchNorm"
  bottom: "conv_8/project"
  top: "conv_8/project"
}
layer {
  name: "conv_8/project/scale"
  type: "Scale"
  bottom: "conv_8/project"
  top: "conv_8/project"
  param {
    lr_mult: 0.1
    decay_mult: 0
  }
  param {
    lr_mult: 0.2
    decay_mult: 0
  }
  scale_param {
    filler {
      value: 1
    }
    bias_term: true
    bias_filler {
      value: 0
    }
  }
}
layer {
  name: "conv_8project/sum"
  type: "Eltwise"
  bottom: "conv_7project"
  bottom: "conv_8/project"
  top: "conv_8project"
}
layer {
  name: "conv_9/expand"
  type: "Convolution"
  bottom: "conv_8project"
  top: "conv_9/expand"
  param {
    lr_mult: 0.1
    decay_mult: 0.1
  }
  convolution_param {
    num_output: 384
    bias_term: false
    kernel_size: 1
    weight_filler {
      type: "msra"
    }
  }
}
layer {
  name: "conv_9/expand/bn"
  type: "BatchNorm"
  bottom: "conv_9/expand"
  top: "conv_9/expand"
}
layer {
  name: "conv_9/expand/scale"
  type: "Scale"
  bottom: "conv_9/expand"
  top: "conv_9/expand"
  param {
    lr_mult: 0.1
    decay_mult: 0
  }
  param {
    lr_mult: 0.2
    decay_mult: 0
  }
  scale_param {
    filler {
      value: 1
    }
    bias_term: true
    bias_filler {
      value: 0
    }
  }
}
layer {
  name: "conv_9/expand/relu"
  type: "ReLU"
  bottom: "conv_9/expand"
  top: "conv_9/expand"
}
layer {
  name: "conv_9/depthwise"
  type: "Convolution"
  bottom: "conv_9/expand"
  top: "conv_9/depthwise"
  param {
    lr_mult: 0.1
    decay_mult: 0.1
  }
  convolution_param {
    num_output: 384
    bias_term: false
    pad: 1
    kernel_size: 3
    group: 384
    weight_filler {
      type: "msra"
    }
    engine: CAFFE
  }
}
layer {
  name: "conv_9/depthwise/bn"
  type: "BatchNorm"
  bottom: "conv_9/depthwise"
  top: "conv_9/depthwise"
}
layer {
  name: "conv_9/depthwise/scale"
  type: "Scale"
  bottom: "conv_9/depthwise"
  top: "conv_9/depthwise"
  param {
    lr_mult: 0.1
    decay_mult: 0
  }
  param {
    lr_mult: 0.2
    decay_mult: 0
  }
  scale_param {
    filler {
      value: 1
    }
    bias_term: true
    bias_filler {
      value: 0
    }
  }
}
layer {
  name: "conv_9/depthwise/relu"
  type: "ReLU"
  bottom: "conv_9/depthwise"
  top: "conv_9/depthwise"
}
layer {
  name: "conv_9/project"
  type: "Convolution"
  bottom: "conv_9/depthwise"
  top: "conv_9/project"
  param {
    lr_mult: 0.1
    decay_mult: 0.1
  }
  convolution_param {
    num_output: 64
    bias_term: false
    kernel_size: 1
    weight_filler {
      type: "msra"
    }
  }
}
layer {
  name: "conv_9/project/bn"
  type: "BatchNorm"
  bottom: "conv_9/project"
  top: "conv_9/project"
}
layer {
  name: "conv_9/project/scale"
  type: "Scale"
  bottom: "conv_9/project"
  top: "conv_9/project"
  param {
    lr_mult: 0.1
    decay_mult: 0
  }
  param {
    lr_mult: 0.2
    decay_mult: 0
  }
  scale_param {
    filler {
      value: 1
    }
    bias_term: true
    bias_filler {
      value: 0
    }
  }
}
layer {
  name: "conv_9project/sum"
  type: "Eltwise"
  bottom: "conv_8project"
  bottom: "conv_9/project"
  top: "conv_9project"
}
layer {
  name: "conv_10/expand"
  type: "Convolution"
  bottom: "conv_9project"
  top: "conv_10/expand"
  param {
    lr_mult: 0.1
    decay_mult: 0.1
  }
  convolution_param {
    num_output: 384
    bias_term: false
    kernel_size: 1
    weight_filler {
      type: "msra"
    }
  }
}
layer {
  name: "conv_10/expand/bn"
  type: "BatchNorm"
  bottom: "conv_10/expand"
  top: "conv_10/expand"
}
layer {
  name: "conv_10/expand/scale"
  type: "Scale"
  bottom: "conv_10/expand"
  top: "conv_10/expand"
  param {
    lr_mult: 0.1
    decay_mult: 0
  }
  param {
    lr_mult: 0.2
    decay_mult: 0
  }
  scale_param {
    filler {
      value: 1
    }
    bias_term: true
    bias_filler {
      value: 0
    }
  }
}
layer {
  name: "conv_10/expand/relu"
  type: "ReLU"
  bottom: "conv_10/expand"
  top: "conv_10/expand"
}
layer {
  name: "conv_10/depthwise"
  type: "Convolution"
  bottom: "conv_10/expand"
  top: "conv_10/depthwise"
  param {
    lr_mult: 0.1
    decay_mult: 0.1
  }
  convolution_param {
    num_output: 384
    bias_term: false
    pad: 1
    kernel_size: 3
    group: 384
    weight_filler {
      type: "msra"
    }
    engine: CAFFE
  }
}
layer {
  name: "conv_10/depthwise/bn"
  type: "BatchNorm"
  bottom: "conv_10/depthwise"
  top: "conv_10/depthwise"
}
layer {
  name: "conv_10/depthwise/scale"
  type: "Scale"
  bottom: "conv_10/depthwise"
  top: "conv_10/depthwise"
  param {
    lr_mult: 0.1
    decay_mult: 0
  }
  param {
    lr_mult: 0.2
    decay_mult: 0
  }
  scale_param {
    filler {
      value: 1
    }
    bias_term: true
    bias_filler {
      value: 0
    }
  }
}
layer {
  name: "conv_10/depthwise/relu"
  type: "ReLU"
  bottom: "conv_10/depthwise"
  top: "conv_10/depthwise"
}
layer {
  name: "conv_10/project"
  type: "Convolution"
  bottom: "conv_10/depthwise"
  top: "conv_10/project"
  param {
    lr_mult: 0.1
    decay_mult: 0.1
  }
  convolution_param {
    num_output: 96
    bias_term: false
    kernel_size: 1
    weight_filler {
      type: "msra"
    }
  }
}
layer {
  name: "conv_10/project/bn"
  type: "BatchNorm"
  bottom: "conv_10/project"
  top: "conv_10/project"
}
layer {
  name: "conv_10/project/scale"
  type: "Scale"
  bottom: "conv_10/project"
  top: "conv_10/project"
  param {
    lr_mult: 0.1
    decay_mu
I0425 11:34:54.877794  5381 layer_factory.hpp:77] Creating layer data
I0425 11:34:54.877928  5381 net.cpp:100] Creating Layer data
I0425 11:34:54.877940  5381 net.cpp:408] data -> data
I0425 11:34:54.877969  5381 net.cpp:408] data -> label
I0425 11:34:54.878680  5395 db_lmdb.cpp:35] Opened lmdb trainval_lmdb
I0425 11:34:54.890081  5381 annotated_data_layer.cpp:62] output data size: 2,3,300,300
I0425 11:34:54.894245  5381 net.cpp:150] Setting up data
I0425 11:34:54.894273  5381 net.cpp:157] Top shape: 2 3 300 300 (540000)
I0425 11:34:54.894282  5381 net.cpp:157] Top shape: 1 1 1 8 (8)
I0425 11:34:54.894287  5381 net.cpp:165] Memory required for data: 2160032
I0425 11:34:54.894300  5381 layer_factory.hpp:77] Creating layer data_data_0_split
I0425 11:34:54.894315  5381 net.cpp:100] Creating Layer data_data_0_split
I0425 11:34:54.894322  5381 net.cpp:434] data_data_0_split <- data
I0425 11:34:54.894337  5381 net.cpp:408] data_data_0_split -> data_data_0_split_0
I0425 11:34:54.894349  5381 net.cpp:408] data_data_0_split -> data_data_0_split_1
I0425 11:34:54.894357  5381 net.cpp:408] data_data_0_split -> data_data_0_split_2
I0425 11:34:54.894366  5381 net.cpp:408] data_data_0_split -> data_data_0_split_3
I0425 11:34:54.894373  5381 net.cpp:408] data_data_0_split -> data_data_0_split_4
I0425 11:34:54.894381  5381 net.cpp:408] data_data_0_split -> data_data_0_split_5
I0425 11:34:54.894388  5381 net.cpp:408] data_data_0_split -> data_data_0_split_6
I0425 11:34:54.894456  5381 net.cpp:150] Setting up data_data_0_split
I0425 11:34:54.894464  5381 net.cpp:157] Top shape: 2 3 300 300 (540000)
I0425 11:34:54.894471  5381 net.cpp:157] Top shape: 2 3 300 300 (540000)
I0425 11:34:54.894495  5381 net.cpp:157] Top shape: 2 3 300 300 (540000)
I0425 11:34:54.894502  5381 net.cpp:157] Top shape: 2 3 300 300 (540000)
I0425 11:34:54.894508  5381 net.cpp:157] Top shape: 2 3 300 300 (540000)
I0425 11:34:54.894515  5381 net.cpp:157] Top shape: 2 3 300 300 (540000)
I0425 11:34:54.894521  5381 net.cpp:157] Top shape: 2 3 300 300 (540000)
I0425 11:34:54.894526  5381 net.cpp:165] Memory required for data: 17280032
I0425 11:34:54.894531  5381 layer_factory.hpp:77] Creating layer Conv
I0425 11:34:54.894548  5381 net.cpp:100] Creating Layer Conv
I0425 11:34:54.894553  5381 net.cpp:434] Conv <- data_data_0_split_0
I0425 11:34:54.894560  5381 net.cpp:408] Conv -> Conv
I0425 11:34:55.189182  5381 net.cpp:150] Setting up Conv
I0425 11:34:55.189208  5381 net.cpp:157] Top shape: 2 32 150 150 (1440000)
I0425 11:34:55.189225  5381 net.cpp:165] Memory required for data: 23040032
I0425 11:34:55.189244  5381 layer_factory.hpp:77] Creating layer Conv/bn
I0425 11:34:55.189256  5381 net.cpp:100] Creating Layer Conv/bn
I0425 11:34:55.189262  5381 net.cpp:434] Conv/bn <- Conv
I0425 11:34:55.189271  5381 net.cpp:395] Conv/bn -> Conv (in-place)
I0425 11:34:55.189944  5381 net.cpp:150] Setting up Conv/bn
I0425 11:34:55.189955  5381 net.cpp:157] Top shape: 2 32 150 150 (1440000)
I0425 11:34:55.189970  5381 net.cpp:165] Memory required for data: 28800032
I0425 11:34:55.189988  5381 layer_factory.hpp:77] Creating layer Conv/scale
I0425 11:34:55.189999  5381 net.cpp:100] Creating Layer Conv/scale
I0425 11:34:55.190003  5381 net.cpp:434] Conv/scale <- Conv
I0425 11:34:55.190008  5381 net.cpp:395] Conv/scale -> Conv (in-place)
I0425 11:34:55.190053  5381 layer_factory.hpp:77] Creating layer Conv/scale
I0425 11:34:55.190222  5381 net.cpp:150] Setting up Conv/scale
I0425 11:34:55.190229  5381 net.cpp:157] Top shape: 2 32 150 150 (1440000)
I0425 11:34:55.190243  5381 net.cpp:165] Memory required for data: 34560032
I0425 11:34:55.190248  5381 layer_factory.hpp:77] Creating layer Conv/relu
I0425 11:34:55.190265  5381 net.cpp:100] Creating Layer Conv/relu
I0425 11:34:55.190269  5381 net.cpp:434] Conv/relu <- Conv
I0425 11:34:55.190274  5381 net.cpp:395] Conv/relu -> Conv (in-place)
I0425 11:34:55.190625  5381 net.cpp:150] Setting up Conv/relu
I0425 11:34:55.190636  5381 net.cpp:157] Top shape: 2 32 150 150 (1440000)
I0425 11:34:55.190649  5381 net.cpp:165] Memory required for data: 40320032
I0425 11:34:55.190654  5381 layer_factory.hpp:77] Creating layer conv/depthwise
I0425 11:34:55.190676  5381 net.cpp:100] Creating Layer conv/depthwise
I0425 11:34:55.190690  5381 net.cpp:434] conv/depthwise <- Conv
I0425 11:34:55.190698  5381 net.cpp:408] conv/depthwise -> conv/depthwise
I0425 11:34:55.190862  5381 net.cpp:150] Setting up conv/depthwise
I0425 11:34:55.190871  5381 net.cpp:157] Top shape: 2 32 150 150 (1440000)
I0425 11:34:55.190886  5381 net.cpp:165] Memory required for data: 46080032
I0425 11:34:55.190893  5381 layer_factory.hpp:77] Creating layer conv/depthwise/bn
I0425 11:34:55.190899  5381 net.cpp:100] Creating Layer conv/depthwise/bn
I0425 11:34:55.190904  5381 net.cpp:434] conv/depthwise/bn <- conv/depthwise
I0425 11:34:55.190910  5381 net.cpp:395] conv/depthwise/bn -> conv/depthwise (in-place)
I0425 11:34:55.191068  5381 net.cpp:150] Setting up conv/depthwise/bn
I0425 11:34:55.191076  5381 net.cpp:157] Top shape: 2 32 150 150 (1440000)
I0425 11:34:55.191092  5381 net.cpp:165] Memory required for data: 51840032
I0425 11:34:55.191102  5381 layer_factory.hpp:77] Creating layer conv/depthwise/scale
I0425 11:34:55.191109  5381 net.cpp:100] Creating Layer conv/depthwise/scale
I0425 11:34:55.191114  5381 net.cpp:434] conv/depthwise/scale <- conv/depthwise
I0425 11:34:55.191121  5381 net.cpp:395] conv/depthwise/scale -> conv/depthwise (in-place)
I0425 11:34:55.191160  5381 layer_factory.hpp:77] Creating layer conv/depthwise/scale
I0425 11:34:55.191298  5381 net.cpp:150] Setting up conv/depthwise/scale
I0425 11:34:55.191305  5381 net.cpp:157] Top shape: 2 32 150 150 (1440000)
I0425 11:34:55.191337  5381 net.cpp:165] Memory required for data: 57600032
I0425 11:34:55.191345  5381 layer_factory.hpp:77] Creating layer conv/depthwise/relu
I0425 11:34:55.191352  5381 net.cpp:100] Creating Layer conv/depthwise/relu
I0425 11:34:55.191357  5381 net.cpp:434] conv/depthwise/relu <- conv/depthwise
I0425 11:34:55.191365  5381 net.cpp:395] conv/depthwise/relu -> conv/depthwise (in-place)
I0425 11:34:55.191517  5381 net.cpp:150] Setting up conv/depthwise/relu
I0425 11:34:55.191525  5381 net.cpp:157] Top shape: 2 32 150 150 (1440000)
I0425 11:34:55.191539  5381 net.cpp:165] Memory required for data: 63360032
I0425 11:34:55.191541  5381 layer_factory.hpp:77] Creating layer conv/project
I0425 11:34:55.191566  5381 net.cpp:100] Creating Layer conv/project
I0425 11:34:55.191581  5381 net.cpp:434] conv/project <- conv/depthwise
I0425 11:34:55.191587  5381 net.cpp:408] conv/project -> conv/project
I0425 11:34:55.192562  5381 net.cpp:150] Setting up conv/project
I0425 11:34:55.192574  5381 net.cpp:157] Top shape: 2 16 150 150 (720000)
I0425 11:34:55.192590  5381 net.cpp:165] Memory required for data: 66240032
I0425 11:34:55.192598  5381 layer_factory.hpp:77] Creating layer conv/project/bn
I0425 11:34:55.192605  5381 net.cpp:100] Creating Layer conv/project/bn
I0425 11:34:55.192621  5381 net.cpp:434] conv/project/bn <- conv/project
I0425 11:34:55.192628  5381 net.cpp:395] conv/project/bn -> conv/project (in-place)
I0425 11:34:55.192809  5381 net.cpp:150] Setting up conv/project/bn
I0425 11:34:55.192816  5381 net.cpp:157] Top shape: 2 16 150 150 (720000)
I0425 11:34:55.192828  5381 net.cpp:165] Memory required for data: 69120032
I0425 11:34:55.192834  5381 layer_factory.hpp:77] Creating layer conv/project/scale
I0425 11:34:55.192850  5381 net.cpp:100] Creating Layer conv/project/scale
I0425 11:34:55.192855  5381 net.cpp:434] conv/project/scale <- conv/project
I0425 11:34:55.192859  5381 net.cpp:395] conv/project/scale -> conv/project (in-place)
I0425 11:34:55.192896  5381 layer_factory.hpp:77] Creating layer conv/project/scale
I0425 11:34:55.193064  5381 net.cpp:150] Setting up conv/project/scale
I0425 11:34:55.193070  5381 net.cpp:157] Top shape: 2 16 150 150 (720000)
I0425 11:34:55.193084  5381 net.cpp:165] Memory required for data: 72000032
I0425 11:34:55.193090  5381 layer_factory.hpp:77] Creating layer conv_1/expand
I0425 11:34:55.193107  5381 net.cpp:100] Creating Layer conv_1/expand
I0425 11:34:55.193111  5381 net.cpp:434] conv_1/expand <- conv/project
I0425 11:34:55.193115  5381 net.cpp:408] conv_1/expand -> conv_1/expand
I0425 11:34:55.194496  5381 net.cpp:150] Setting up conv_1/expand
I0425 11:34:55.194509  5381 net.cpp:157] Top shape: 2 96 150 150 (4320000)
I0425 11:34:55.194525  5381 net.cpp:165] Memory required for data: 89280032
I0425 11:34:55.194532  5381 layer_factory.hpp:77] Creating layer conv_1/expand/bn
I0425 11:34:55.194540  5381 net.cpp:100] Creating Layer conv_1/expand/bn
I0425 11:34:55.194546  5381 net.cpp:434] conv_1/expand/bn <- conv_1/expand
I0425 11:34:55.194552  5381 net.cpp:395] conv_1/expand/bn -> conv_1/expand (in-place)
I0425 11:34:55.194720  5381 net.cpp:150] Setting up conv_1/expand/bn
I0425 11:34:55.194728  5381 net.cpp:157] Top shape: 2 96 150 150 (4320000)
I0425 11:34:55.194743  5381 net.cpp:165] Memory required for data: 106560032
I0425 11:34:55.194752  5381 layer_factory.hpp:77] Creating layer conv_1/expand/scale
I0425 11:34:55.194759  5381 net.cpp:100] Creating Layer conv_1/expand/scale
I0425 11:34:55.194764  5381 net.cpp:434] conv_1/expand/scale <- conv_1/expand
I0425 11:34:55.194772  5381 net.cpp:395] conv_1/expand/scale -> conv_1/expand (in-place)
I0425 11:34:55.194811  5381 layer_factory.hpp:77] Creating layer conv_1/expand/scale
I0425 11:34:55.195369  5381 net.cpp:150] Setting up conv_1/expand/scale
I0425 11:34:55.195380  5381 net.cpp:157] Top shape: 2 96 150 150 (4320000)
I0425 11:34:55.195397  5381 net.cpp:165] Memory required for data: 123840032
I0425 11:34:55.195406  5381 layer_factory.hpp:77] Creating layer conv_1/expand/relu
I0425 11:34:55.195425  5381 net.cpp:100] Creating Layer conv_1/expand/relu
I0425 11:34:55.195441  5381 net.cpp:434] conv_1/expand/relu <- conv_1/expand
I0425 11:34:55.195458  5381 net.cpp:395] conv_1/expand/relu -> conv_1/expand (in-place)
I0425 11:34:55.195812  5381 net.cpp:150] Setting up conv_1/expand/relu
I0425 11:34:55.195824  5381 net.cpp:157] Top shape: 2 96 150 150 (4320000)
I0425 11:34:55.195839  5381 net.cpp:165] Memory required for data: 141120032
I0425 11:34:55.195845  5381 layer_factory.hpp:77] Creating layer conv_1/depthwise
I0425 11:34:55.195868  5381 net.cpp:100] Creating Layer conv_1/depthwise
I0425 11:34:55.195874  5381 net.cpp:434] conv_1/depthwise <- conv_1/expand
I0425 11:34:55.195880  5381 net.cpp:408] conv_1/depthwise -> conv_1/depthwise
I0425 11:34:55.196056  5381 net.cpp:150] Setting up conv_1/depthwise
I0425 11:34:55.196064  5381 net.cpp:157] Top shape: 2 96 75 75 (1080000)
I0425 11:34:55.196077  5381 net.cpp:165] Memory required for data: 145440032
I0425 11:34:55.196084  5381 layer_factory.hpp:77] Creating layer conv_1/depthwise/bn
I0425 11:34:55.196100  5381 net.cpp:100] Creating Layer conv_1/depthwise/bn
I0425 11:34:55.196105  5381 net.cpp:434] conv_1/depthwise/bn <- conv_1/depthwise
I0425 11:34:55.196110  5381 net.cpp:395] conv_1/depthwise/bn -> conv_1/depthwise (in-place)
I0425 11:34:55.196719  5381 net.cpp:150] Setting up conv_1/depthwise/bn
I0425 11:34:55.196730  5381 net.cpp:157] Top shape: 2 96 75 75 (1080000)
I0425 11:34:55.196744  5381 net.cpp:165] Memory required for data: 149760032
I0425 11:34:55.196753  5381 layer_factory.hpp:77] Creating layer conv_1/depthwise/scale
I0425 11:34:55.196777  5381 net.cpp:100] Creating Layer conv_1/depthwise/scale
I0425 11:34:55.196784  5381 net.cpp:434] conv_1/depthwise/scale <- conv_1/depthwise
I0425 11:34:55.196790  5381 net.cpp:395] conv_1/depthwise/scale -> conv_1/depthwise (in-place)
I0425 11:34:55.196823  5381 layer_factory.hpp:77] Creating layer conv_1/depthwise/scale
I0425 11:34:55.196923  5381 net.cpp:150] Setting up conv_1/depthwise/scale
I0425 11:34:55.196930  5381 net.cpp:157] Top shape: 2 96 75 75 (1080000)
I0425 11:34:55.196935  5381 net.cpp:165] Memory required for data: 154080032
I0425 11:34:55.196943  5381 layer_factory.hpp:77] Creating layer conv_1/depthwise/relu
I0425 11:34:55.196950  5381 net.cpp:100] Creating Layer conv_1/depthwise/relu
I0425 11:34:55.196955  5381 net.cpp:434] conv_1/depthwise/relu <- conv_1/depthwise
I0425 11:34:55.196961  5381 net.cpp:395] conv_1/depthwise/relu -> conv_1/depthwise (in-place)
I0425 11:34:55.197113  5381 net.cpp:150] Setting up conv_1/depthwise/relu
I0425 11:34:55.197122  5381 net.cpp:157] Top shape: 2 96 75 75 (1080000)
I0425 11:34:55.197134  5381 net.cpp:165] Memory required for data: 158400032
I0425 11:34:55.197139  5381 layer_factory.hpp:77] Creating layer conv_1/project
I0425 11:34:55.197146  5381 net.cpp:100] Creating Layer conv_1/project
I0425 11:34:55.197149  5381 net.cpp:434] conv_1/project <- conv_1/depthwise
I0425 11:34:55.197162  5381 net.cpp:408] conv_1/project -> conv_1/project
I0425 11:34:55.198346  5381 net.cpp:150] Setting up conv_1/project
I0425 11:34:55.198357  5381 net.cpp:157] Top shape: 2 24 75 75 (270000)
I0425 11:34:55.198374  5381 net.cpp:165] Memory required for data: 159480032
I0425 11:34:55.198381  5381 layer_factory.hpp:77] Creating layer conv_1/project/bn
I0425 11:34:55.198400  5381 net.cpp:100] Creating Layer conv_1/project/bn
I0425 11:34:55.198403  5381 net.cpp:434] conv_1/project/bn <- conv_1/project
I0425 11:34:55.198411  5381 net.cpp:395] conv_1/project/bn -> conv_1/project (in-place)
I0425 11:34:55.198573  5381 net.cpp:150] Setting up conv_1/project/bn
I0425 11:34:55.198581  5381 net.cpp:157] Top shape: 2 24 75 75 (270000)
I0425 11:34:55.198596  5381 net.cpp:165] Memory required for data: 160560032
I0425 11:34:55.198608  5381 layer_factory.hpp:77] Creating layer conv_1/project/scale
I0425 11:34:55.198616  5381 net.cpp:100] Creating Layer conv_1/project/scale
I0425 11:34:55.198621  5381 net.cpp:434] conv_1/project/scale <- conv_1/project
I0425 11:34:55.198627  5381 net.cpp:395] conv_1/project/scale -> conv_1/project (in-place)
I0425 11:34:55.198670  5381 layer_factory.hpp:77] Creating layer conv_1/project/scale
I0425 11:34:55.198792  5381 net.cpp:150] Setting up conv_1/project/scale
I0425 11:34:55.198801  5381 net.cpp:157] Top shape: 2 24 75 75 (270000)
I0425 11:34:55.198806  5381 net.cpp:165] Memory required for data: 161640032
I0425 11:34:55.198813  5381 layer_factory.hpp:77] Creating layer conv_1/project_conv_1/project/scale_0_split
I0425 11:34:55.198820  5381 net.cpp:100] Creating Layer conv_1/project_conv_1/project/scale_0_split
I0425 11:34:55.198825  5381 net.cpp:434] conv_1/project_conv_1/project/scale_0_split <- conv_1/project
I0425 11:34:55.198832  5381 net.cpp:408] conv_1/project_conv_1/project/scale_0_split -> conv_1/project_conv_1/project/scale_0_split_0
I0425 11:34:55.198840  5381 net.cpp:408] conv_1/project_conv_1/project/scale_0_split -> conv_1/project_conv_1/project/scale_0_split_1
I0425 11:34:55.198891  5381 net.cpp:150] Setting up conv_1/project_conv_1/project/scale_0_split
I0425 11:34:55.198896  5381 net.cpp:157] Top shape: 2 24 75 75 (270000)
I0425 11:34:55.198910  5381 net.cpp:157] Top shape: 2 24 75 75 (270000)
I0425 11:34:55.198915  5381 net.cpp:165] Memory required for data: 163800032
I0425 11:34:55.198917  5381 layer_factory.hpp:77] Creating layer conv_2/expand
I0425 11:34:55.198923  5381 net.cpp:100] Creating Layer conv_2/expand
I0425 11:34:55.198927  5381 net.cpp:434] conv_2/expand <- conv_1/project_conv_1/project/scale_0_split_0
I0425 11:34:55.198932  5381 net.cpp:408] conv_2/expand -> conv_2/expand
I0425 11:34:55.199934  5381 net.cpp:150] Setting up conv_2/expand
I0425 11:34:55.199945  5381 net.cpp:157] Top shape: 2 144 75 75 (1620000)
I0425 11:34:55.199949  5381 net.cpp:165] Memory required for data: 170280032
I0425 11:34:55.199954  5381 layer_factory.hpp:77] Creating layer conv_2/expand/bn
I0425 11:34:55.199959  5381 net.cpp:100] Creating Layer conv_2/expand/bn
I0425 11:34:55.199962  5381 net.cpp:434] conv_2/expand/bn <- conv_2/expand
I0425 11:34:55.199968  5381 net.cpp:395] conv_2/expand/bn -> conv_2/expand (in-place)
I0425 11:34:55.200129  5381 net.cpp:150] Setting up conv_2/expand/bn
I0425 11:34:55.200135  5381 net.cpp:157] Top shape: 2 144 75 75 (1620000)
I0425 11:34:55.200139  5381 net.cpp:165] Memory required for data: 176760032
I0425 11:34:55.200145  5381 layer_factory.hpp:77] Creating layer conv_2/expand/scale
I0425 11:34:55.200151  5381 net.cpp:100] Creating Layer conv_2/expand/scale
I0425 11:34:55.200155  5381 net.cpp:434] conv_2/expand/scale <- conv_2/expand
I0425 11:34:55.200160  5381 net.cpp:395] conv_2/expand/scale -> conv_2/expand (in-place)
I0425 11:34:55.200191  5381 layer_factory.hpp:77] Creating layer conv_2/expand/scale
I0425 11:34:55.200281  5381 net.cpp:150] Setting up conv_2/expand/scale
I0425 11:34:55.200287  5381 net.cpp:157] Top shape: 2 144 75 75 (1620000)
I0425 11:34:55.200290  5381 net.cpp:165] Memory required for data: 183240032
I0425 11:34:55.200295  5381 layer_factory.hpp:77] Creating layer conv_2/expand/relu
I0425 11:34:55.200299  5381 net.cpp:100] Creating Layer conv_2/expand/relu
I0425 11:34:55.200304  5381 net.cpp:434] conv_2/expand/relu <- conv_2/expand
I0425 11:34:55.200309  5381 net.cpp:395] conv_2/expand/relu -> conv_2/expand (in-place)
I0425 11:34:55.200649  5381 net.cpp:150] Setting up conv_2/expand/relu
I0425 11:34:55.200660  5381 net.cpp:157] Top shape: 2 144 75 75 (1620000)
I0425 11:34:55.200664  5381 net.cpp:165] Memory required for data: 189720032
I0425 11:34:55.200669  5381 layer_factory.hpp:77] Creating layer conv_2/depthwise
I0425 11:34:55.200675  5381 net.cpp:100] Creating Layer conv_2/depthwise
I0425 11:34:55.200680  5381 net.cpp:434] conv_2/depthwise <- conv_2/expand
I0425 11:34:55.200685  5381 net.cpp:408] conv_2/depthwise -> conv_2/depthwise
I0425 11:34:55.200845  5381 net.cpp:150] Setting up conv_2/depthwise
I0425 11:34:55.200852  5381 net.cpp:157] Top shape: 2 144 75 75 (1620000)
I0425 11:34:55.200855  5381 net.cpp:165] Memory required for data: 196200032
I0425 11:34:55.200860  5381 layer_factory.hpp:77] Creating layer conv_2/depthwise/bn
I0425 11:34:55.200881  5381 net.cpp:100] Creating Layer conv_2/depthwise/bn
I0425 11:34:55.200886  5381 net.cpp:434] conv_2/depthwise/bn <- conv_2/depthwise
I0425 11:34:55.200891  5381 net.cpp:395] conv_2/depthwise/bn -> conv_2/depthwise (in-place)
I0425 11:34:55.201042  5381 net.cpp:150] Setting up conv_2/depthwise/bn
I0425 11:34:55.201050  5381 net.cpp:157] Top shape: 2 144 75 75 (1620000)
I0425 11:34:55.201052  5381 net.cpp:165] Memory required for data: 202680032
I0425 11:34:55.201058  5381 layer_factory.hpp:77] Creating layer conv_2/depthwise/scale
I0425 11:34:55.201066  5381 net.cpp:100] Creating Layer conv_2/depthwise/scale
I0425 11:34:55.201069  5381 net.cpp:434] conv_2/depthwise/scale <- conv_2/depthwise
I0425 11:34:55.201073  5381 net.cpp:395] conv_2/depthwise/scale -> conv_2/depthwise (in-place)
I0425 11:34:55.201100  5381 layer_factory.hpp:77] Creating layer conv_2/depthwise/scale
I0425 11:34:55.201192  5381 net.cpp:150] Setting up conv_2/depthwise/scale
I0425 11:34:55.201198  5381 net.cpp:157] Top shape: 2 144 75 75 (1620000)
I0425 11:34:55.201201  5381 net.cpp:165] Memory required for data: 209160032
I0425 11:34:55.201206  5381 layer_factory.hpp:77] Creating layer conv_2/depthwise/relu
I0425 11:34:55.201217  5381 net.cpp:100] Creating Layer conv_2/depthwise/relu
I0425 11:34:55.201222  5381 net.cpp:434] conv_2/depthwise/relu <- conv_2/depthwise
I0425 11:34:55.201231  5381 net.cpp:395] conv_2/depthwise/relu -> conv_2/depthwise (in-place)
I0425 11:34:55.201581  5381 net.cpp:150] Setting up conv_2/depthwise/relu
I0425 11:34:55.201593  5381 net.cpp:157] Top shape: 2 144 75 75 (1620000)
I0425 11:34:55.201599  5381 net.cpp:165] Memory required for data: 215640032
I0425 11:34:55.201606  5381 layer_factory.hpp:77] Creating layer conv_2/project
I0425 11:34:55.201617  5381 net.cpp:100] Creating Layer conv_2/project
I0425 11:34:55.201622  5381 net.cpp:434] conv_2/project <- conv_2/depthwise
I0425 11:34:55.201627  5381 net.cpp:408] conv_2/project -> conv_2/project
I0425 11:34:55.202613  5381 net.cpp:150] Setting up conv_2/project
I0425 11:34:55.202625  5381 net.cpp:157] Top shape: 2 24 75 75 (270000)
I0425 11:34:55.202628  5381 net.cpp:165] Memory required for data: 216720032
I0425 11:34:55.202633  5381 layer_factory.hpp:77] Creating layer conv_2/project/bn
I0425 11:34:55.202638  5381 net.cpp:100] Creating Layer conv_2/project/bn
I0425 11:34:55.202643  5381 net.cpp:434] conv_2/project/bn <- conv_2/project
I0425 11:34:55.202648  5381 net.cpp:395] conv_2/project/bn -> conv_2/project (in-place)
I0425 11:34:55.202813  5381 net.cpp:150] Setting up conv_2/project/bn
I0425 11:34:55.202819  5381 net.cpp:157] Top shape: 2 24 75 75 (270000)
I0425 11:34:55.202833  5381 net.cpp:165] Memory required for data: 217800032
I0425 11:34:55.202838  5381 layer_factory.hpp:77] Creating layer conv_2/project/scale
I0425 11:34:55.202845  5381 net.cpp:100] Creating Layer conv_2/project/scale
I0425 11:34:55.202848  5381 net.cpp:434] conv_2/project/scale <- conv_2/project
I0425 11:34:55.202858  5381 net.cpp:395] conv_2/project/scale -> conv_2/project (in-place)
I0425 11:34:55.202888  5381 layer_factory.hpp:77] Creating layer conv_2/project/scale
I0425 11:34:55.202989  5381 net.cpp:150] Setting up conv_2/project/scale
I0425 11:34:55.202996  5381 net.cpp:157] Top shape: 2 24 75 75 (270000)
I0425 11:34:55.202999  5381 net.cpp:165] Memory required for data: 218880032
I0425 11:34:55.203004  5381 layer_factory.hpp:77] Creating layer conv_2project/sum
I0425 11:34:55.203009  5381 net.cpp:100] Creating Layer conv_2project/sum
I0425 11:34:55.203013  5381 net.cpp:434] conv_2project/sum <- conv_1/project_conv_1/project/scale_0_split_1
I0425 11:34:55.203018  5381 net.cpp:434] conv_2project/sum <- conv_2/project
I0425 11:34:55.203023  5381 net.cpp:408] conv_2project/sum -> conv_2project
I0425 11:34:55.203045  5381 net.cpp:150] Setting up conv_2project/sum
I0425 11:34:55.203052  5381 net.cpp:157] Top shape: 2 24 75 75 (270000)
I0425 11:34:55.203055  5381 net.cpp:165] Memory required for data: 219960032
I0425 11:34:55.203059  5381 layer_factory.hpp:77] Creating layer conv_3/expand
I0425 11:34:55.203076  5381 net.cpp:100] Creating Layer conv_3/expand
I0425 11:34:55.203081  5381 net.cpp:434] conv_3/expand <- conv_2project
I0425 11:34:55.203086  5381 net.cpp:408] conv_3/expand -> conv_3/expand
I0425 11:34:55.204138  5381 net.cpp:150] Setting up conv_3/expand
I0425 11:34:55.204154  5381 net.cpp:157] Top shape: 2 144 75 75 (1620000)
I0425 11:34:55.204159  5381 net.cpp:165] Memory required for data: 226440032
I0425 11:34:55.204169  5381 layer_factory.hpp:77] Creating layer conv_3/expand/bn
I0425 11:34:55.204175  5381 net.cpp:100] Creating Layer conv_3/expand/bn
I0425 11:34:55.204182  5381 net.cpp:434] conv_3/expand/bn <- conv_3/expand
I0425 11:34:55.204190  5381 net.cpp:395] conv_3/expand/bn -> conv_3/expand (in-place)
I0425 11:34:55.204355  5381 net.cpp:150] Setting up conv_3/expand/bn
I0425 11:34:55.204362  5381 net.cpp:157] Top shape: 2 144 75 75 (1620000)
I0425 11:34:55.204367  5381 net.cpp:165] Memory required for data: 232920032
I0425 11:34:55.204377  5381 layer_factory.hpp:77] Creating layer conv_3/expand/scale
I0425 11:34:55.204390  5381 net.cpp:100] Creating Layer conv_3/expand/scale
I0425 11:34:55.204394  5381 net.cpp:434] conv_3/expand/scale <- conv_3/expand
I0425 11:34:55.204401  5381 net.cpp:395] conv_3/expand/scale -> conv_3/expand (in-place)
I0425 11:34:55.204434  5381 layer_factory.hpp:77] Creating layer conv_3/expand/scale
I0425 11:34:55.204538  5381 net.cpp:150] Setting up conv_3/expand/scale
I0425 11:34:55.204546  5381 net.cpp:157] Top shape: 2 144 75 75 (1620000)
I0425 11:34:55.204551  5381 net.cpp:165] Memory required for data: 239400032
I0425 11:34:55.204560  5381 layer_factory.hpp:77] Creating layer conv_3/expand/relu
I0425 11:34:55.204567  5381 net.cpp:100] Creating Layer conv_3/expand/relu
I0425 11:34:55.204572  5381 net.cpp:434] conv_3/expand/relu <- conv_3/expand
I0425 11:34:55.204579  5381 net.cpp:395] conv_3/expand/relu -> conv_3/expand (in-place)
I0425 11:34:55.204718  5381 net.cpp:150] Setting up conv_3/expand/relu
I0425 11:34:55.204728  5381 net.cpp:157] Top shape: 2 144 75 75 (1620000)
I0425 11:34:55.204733  5381 net.cpp:165] Memory required for data: 245880032
I0425 11:34:55.204740  5381 layer_factory.hpp:77] Creating layer conv_3/depthwise
I0425 11:34:55.204749  5381 net.cpp:100] Creating Layer conv_3/depthwise
I0425 11:34:55.204754  5381 net.cpp:434] conv_3/depthwise <- conv_3/expand
I0425 11:34:55.204762  5381 net.cpp:408] conv_3/depthwise -> conv_3/depthwise
I0425 11:34:55.204929  5381 net.cpp:150] Setting up conv_3/depthwise
I0425 11:34:55.204938  5381 net.cpp:157] Top shape: 2 144 38 38 (415872)
I0425 11:34:55.204943  5381 net.cpp:165] Memory required for data: 247543520
I0425 11:34:55.204952  5381 layer_factory.hpp:77] Creating layer conv_3/depthwise/bn
I0425 11:34:55.204957  5381 net.cpp:100] Creating Layer conv_3/depthwise/bn
I0425 11:34:55.204963  5381 net.cpp:434] conv_3/depthwise/bn <- conv_3/depthwise
I0425 11:34:55.204970  5381 net.cpp:395] conv_3/depthwise/bn -> conv_3/depthwise (in-place)
I0425 11:34:55.205122  5381 net.cpp:150] Setting up conv_3/depthwise/bn
I0425 11:34:55.205130  5381 net.cpp:157] Top shape: 2 144 38 38 (415872)
I0425 11:34:55.205135  5381 net.cpp:165] Memory required for data: 249207008
I0425 11:34:55.205144  5381 layer_factory.hpp:77] Creating layer conv_3/depthwise/scale
I0425 11:34:55.205152  5381 net.cpp:100] Creating Layer conv_3/depthwise/scale
I0425 11:34:55.205157  5381 net.cpp:434] conv_3/depthwise/scale <- conv_3/depthwise
I0425 11:34:55.205164  5381 net.cpp:395] conv_3/depthwise/scale -> conv_3/depthwise (in-place)
I0425 11:34:55.205200  5381 layer_factory.hpp:77] Creating layer conv_3/depthwise/scale
I0425 11:34:55.205294  5381 net.cpp:150] Setting up conv_3/depthwise/scale
I0425 11:34:55.205301  5381 net.cpp:157] Top shape: 2 144 38 38 (415872)
I0425 11:34:55.205303  5381 net.cpp:165] Memory required for data: 250870496
I0425 11:34:55.205312  5381 layer_factory.hpp:77] Creating layer conv_3/depthwise/relu
I0425 11:34:55.205317  5381 net.cpp:100] Creating Layer conv_3/depthwise/relu
I0425 11:34:55.205322  5381 net.cpp:434] conv_3/depthwise/relu <- conv_3/depthwise
I0425 11:34:55.205340  5381 net.cpp:395] conv_3/depthwise/relu -> conv_3/depthwise (in-place)
I0425 11:34:55.205675  5381 net.cpp:150] Setting up conv_3/depthwise/relu
I0425 11:34:55.205687  5381 net.cpp:157] Top shape: 2 144 38 38 (415872)
I0425 11:34:55.205693  5381 net.cpp:165] Memory required for data: 252533984
I0425 11:34:55.205699  5381 layer_factory.hpp:77] Creating layer conv_3/project
I0425 11:34:55.205709  5381 net.cpp:100] Creating Layer conv_3/project
I0425 11:34:55.205714  5381 net.cpp:434] conv_3/project <- conv_3/depthwise
I0425 11:34:55.205724  5381 net.cpp:408] conv_3/project -> conv_3/project
I0425 11:34:55.206888  5381 net.cpp:150] Setting up conv_3/project
I0425 11:34:55.206902  5381 net.cpp:157] Top shape: 2 32 38 38 (92416)
I0425 11:34:55.206907  5381 net.cpp:165] Memory required for data: 252903648
I0425 11:34:55.206915  5381 layer_factory.hpp:77] Creating layer conv_3/project/bn
I0425 11:34:55.206923  5381 net.cpp:100] Creating Layer conv_3/project/bn
I0425 11:34:55.206928  5381 net.cpp:434] conv_3/project/bn <- conv_3/project
I0425 11:34:55.206934  5381 net.cpp:395] conv_3/project/bn -> conv_3/project (in-place)
I0425 11:34:55.207136  5381 net.cpp:150] Setting up conv_3/project/bn
I0425 11:34:55.207146  5381 net.cpp:157] Top shape: 2 32 38 38 (92416)
I0425 11:34:55.207151  5381 net.cpp:165] Memory required for data: 253273312
I0425 11:34:55.207161  5381 layer_factory.hpp:77] Creating layer conv_3/project/scale
I0425 11:34:55.207170  5381 net.cpp:100] Creating Layer conv_3/project/scale
I0425 11:34:55.207175  5381 net.cpp:434] conv_3/project/scale <- conv_3/project
I0425 11:34:55.207181  5381 net.cpp:395] conv_3/project/scale -> conv_3/project (in-place)
I0425 11:34:55.207216  5381 layer_factory.hpp:77] Creating layer conv_3/project/scale
I0425 11:34:55.207304  5381 net.cpp:150] Setting up conv_3/project/scale
I0425 11:34:55.207310  5381 net.cpp:157] Top shape: 2 32 38 38 (92416)
I0425 11:34:55.207314  5381 net.cpp:165] Memory required for data: 253642976
I0425 11:34:55.207319  5381 layer_factory.hpp:77] Creating layer conv_3/project_conv_3/project/scale_0_split
I0425 11:34:55.207324  5381 net.cpp:100] Creating Layer conv_3/project_conv_3/project/scale_0_split
I0425 11:34:55.207329  5381 net.cpp:434] conv_3/project_conv_3/project/scale_0_split <- conv_3/project
I0425 11:34:55.207332  5381 net.cpp:408] conv_3/project_conv_3/project/scale_0_split -> conv_3/project_conv_3/project/scale_0_split_0
I0425 11:34:55.207339  5381 net.cpp:408] conv_3/project_conv_3/project/scale_0_split -> conv_3/project_conv_3/project/scale_0_split_1
I0425 11:34:55.207371  5381 net.cpp:150] Setting up conv_3/project_conv_3/project/scale_0_split
I0425 11:34:55.207377  5381 net.cpp:157] Top shape: 2 32 38 38 (92416)
I0425 11:34:55.207381  5381 net.cpp:157] Top shape: 2 32 38 38 (92416)
I0425 11:34:55.207386  5381 net.cpp:165] Memory required for data: 254382304
I0425 11:34:55.207389  5381 layer_factory.hpp:77] Creating layer conv_4/expand
I0425 11:34:55.207396  5381 net.cpp:100] Creating Layer conv_4/expand
I0425 11:34:55.207399  5381 net.cpp:434] conv_4/expand <- conv_3/project_conv_3/project/scale_0_split_0
I0425 11:34:55.207404  5381 net.cpp:408] conv_4/expand -> conv_4/expand
I0425 11:34:55.208451  5381 net.cpp:150] Setting up conv_4/expand
I0425 11:34:55.208464  5381 net.cpp:157] Top shape: 2 192 38 38 (554496)
I0425 11:34:55.208470  5381 net.cpp:165] Memory required for data: 256600288
I0425 11:34:55.208478  5381 layer_factory.hpp:77] Creating layer conv_4/expand/bn
I0425 11:34:55.208487  5381 net.cpp:100] Creating Layer conv_4/expand/bn
I0425 11:34:55.208492  5381 net.cpp:434] conv_4/expand/bn <- conv_4/expand
I0425 11:34:55.208499  5381 net.cpp:395] conv_4/expand/bn -> conv_4/expand (in-place)
I0425 11:34:55.208672  5381 net.cpp:150] Setting up conv_4/expand/bn
I0425 11:34:55.208680  5381 net.cpp:157] Top shape: 2 192 38 38 (554496)
I0425 11:34:55.208686  5381 net.cpp:165] Memory required for data: 258818272
I0425 11:34:55.208695  5381 layer_factory.hpp:77] Creating layer conv_4/expand/scale
I0425 11:34:55.208714  5381 net.cpp:100] Creating Layer conv_4/expand/scale
I0425 11:34:55.208719  5381 net.cpp:434] conv_4/expand/scale <- conv_4/expand
I0425 11:34:55.208726  5381 net.cpp:395] conv_4/expand/scale -> conv_4/expand (in-place)
I0425 11:34:55.208762  5381 layer_factory.hpp:77] Creating layer conv_4/expand/scale
I0425 11:34:55.208853  5381 net.cpp:150] Setting up conv_4/expand/scale
I0425 11:34:55.208859  5381 net.cpp:157] Top shape: 2 192 38 38 (554496)
I0425 11:34:55.208863  5381 net.cpp:165] Memory required for data: 261036256
I0425 11:34:55.208868  5381 layer_factory.hpp:77] Creating layer conv_4/expand/relu
I0425 11:34:55.208873  5381 net.cpp:100] Creating Layer conv_4/expand/relu
I0425 11:34:55.208876  5381 net.cpp:434] conv_4/expand/relu <- conv_4/expand
I0425 11:34:55.208880  5381 net.cpp:395] conv_4/expand/relu -> conv_4/expand (in-place)
I0425 11:34:55.209019  5381 net.cpp:150] Setting up conv_4/expand/relu
I0425 11:34:55.209029  5381 net.cpp:157] Top shape: 2 192 38 38 (554496)
I0425 11:34:55.209035  5381 net.cpp:165] Memory required for data: 263254240
I0425 11:34:55.209041  5381 layer_factory.hpp:77] Creating layer conv_4/depthwise
I0425 11:34:55.209050  5381 net.cpp:100] Creating Layer conv_4/depthwise
I0425 11:34:55.209055  5381 net.cpp:434] conv_4/depthwise <- conv_4/expand
I0425 11:34:55.209064  5381 net.cpp:408] conv_4/depthwise -> conv_4/depthwise
I0425 11:34:55.209245  5381 net.cpp:150] Setting up conv_4/depthwise
I0425 11:34:55.209259  5381 net.cpp:157] Top shape: 2 192 38 38 (554496)
I0425 11:34:55.209264  5381 net.cpp:165] Memory required for data: 265472224
I0425 11:34:55.209272  5381 layer_factory.hpp:77] Creating layer conv_4/depthwise/bn
I0425 11:34:55.209278  5381 net.cpp:100] Creating Layer conv_4/depthwise/bn
I0425 11:34:55.209282  5381 net.cpp:434] conv_4/depthwise/bn <- conv_4/depthwise
I0425 11:34:55.209288  5381 net.cpp:395] conv_4/depthwise/bn -> conv_4/depthwise (in-place)
I0425 11:34:55.209441  5381 net.cpp:150] Setting up conv_4/depthwise/bn
I0425 11:34:55.209450  5381 net.cpp:157] Top shape: 2 192 38 38 (554496)
I0425 11:34:55.209455  5381 net.cpp:165] Memory required for data: 267690208
I0425 11:34:55.209463  5381 layer_factory.hpp:77] Creating layer conv_4/depthwise/scale
I0425 11:34:55.209470  5381 net.cpp:100] Creating Layer conv_4/depthwise/scale
I0425 11:34:55.209475  5381 net.cpp:434] conv_4/depthwise/scale <- conv_4/depthwise
I0425 11:34:55.209482  5381 net.cpp:395] conv_4/depthwise/scale -> conv_4/depthwise (in-place)
I0425 11:34:55.209522  5381 layer_factory.hpp:77] Creating layer conv_4/depthwise/scale
I0425 11:34:55.209619  5381 net.cpp:150] Setting up conv_4/depthwise/scale
I0425 11:34:55.209626  5381 net.cpp:157] Top shape: 2 192 38 38 (554496)
I0425 11:34:55.209631  5381 net.cpp:165] Memory required for data: 269908192
I0425 11:34:55.209640  5381 layer_factory.hpp:77] Creating layer conv_4/depthwise/relu
I0425 11:34:55.209646  5381 net.cpp:100] Creating Layer conv_4/depthwise/relu
I0425 11:34:55.209651  5381 net.cpp:434] conv_4/depthwise/relu <- conv_4/depthwise
I0425 11:34:55.209658  5381 net.cpp:395] conv_4/depthwise/relu -> conv_4/depthwise (in-place)
I0425 11:34:55.210005  5381 net.cpp:150] Setting up conv_4/depthwise/relu
I0425 11:34:55.210016  5381 net.cpp:157] Top shape: 2 192 38 38 (554496)
I0425 11:34:55.210019  5381 net.cpp:165] Memory required for data: 272126176
I0425 11:34:55.210024  5381 layer_factory.hpp:77] Creating layer conv_4/project
I0425 11:34:55.210031  5381 net.cpp:100] Creating Layer conv_4/project
I0425 11:34:55.210036  5381 net.cpp:434] conv_4/project <- conv_4/depthwise
I0425 11:34:55.210041  5381 net.cpp:408] conv_4/project -> conv_4/project
I0425 11:34:55.211035  5381 net.cpp:150] Setting up conv_4/project
I0425 11:34:55.211046  5381 net.cpp:157] Top shape: 2 32 38 38 (92416)
I0425 11:34:55.211050  5381 net.cpp:165] Memory required for data: 272495840
I0425 11:34:55.211056  5381 layer_factory.hpp:77] Creating layer conv_4/project/bn
I0425 11:34:55.211062  5381 net.cpp:100] Creating Layer conv_4/project/bn
I0425 11:34:55.211074  5381 net.cpp:434] conv_4/project/bn <- conv_4/project
I0425 11:34:55.211081  5381 net.cpp:395] conv_4/project/bn -> conv_4/project (in-place)
I0425 11:34:55.211251  5381 net.cpp:150] Setting up conv_4/project/bn
I0425 11:34:55.211256  5381 net.cpp:157] Top shape: 2 32 38 38 (92416)
I0425 11:34:55.211261  5381 net.cpp:165] Memory required for data: 272865504
I0425 11:34:55.211267  5381 layer_factory.hpp:77] Creating layer conv_4/project/scale
I0425 11:34:55.211273  5381 net.cpp:100] Creating Layer conv_4/project/scale
I0425 11:34:55.211277  5381 net.cpp:434] conv_4/project/scale <- conv_4/project
I0425 11:34:55.211282  5381 net.cpp:395] conv_4/project/scale -> conv_4/project (in-place)
I0425 11:34:55.211318  5381 layer_factory.hpp:77] Creating layer conv_4/project/scale
I0425 11:34:55.211418  5381 net.cpp:150] Setting up conv_4/project/scale
I0425 11:34:55.211426  5381 net.cpp:157] Top shape: 2 32 38 38 (92416)
I0425 11:34:55.211432  5381 net.cpp:165] Memory required for data: 273235168
I0425 11:34:55.211441  5381 layer_factory.hpp:77] Creating layer conv_4project/sum
I0425 11:34:55.211447  5381 net.cpp:100] Creating Layer conv_4project/sum
I0425 11:34:55.211452  5381 net.cpp:434] conv_4project/sum <- conv_3/project_conv_3/project/scale_0_split_1
I0425 11:34:55.211459  5381 net.cpp:434] conv_4project/sum <- conv_4/project
I0425 11:34:55.211467  5381 net.cpp:408] conv_4project/sum -> conv_4project
I0425 11:34:55.211489  5381 net.cpp:150] Setting up conv_4project/sum
I0425 11:34:55.211498  5381 net.cpp:157] Top shape: 2 32 38 38 (92416)
I0425 11:34:55.211503  5381 net.cpp:165] Memory required for data: 273604832
I0425 11:34:55.211508  5381 layer_factory.hpp:77] Creating layer conv_4project_conv_4project/sum_0_split
I0425 11:34:55.211514  5381 net.cpp:100] Creating Layer conv_4project_conv_4project/sum_0_split
I0425 11:34:55.211519  5381 net.cpp:434] conv_4project_conv_4project/sum_0_split <- conv_4project
I0425 11:34:55.211526  5381 net.cpp:408] conv_4project_conv_4project/sum_0_split -> conv_4project_conv_4project/sum_0_split_0
I0425 11:34:55.211534  5381 net.cpp:408] conv_4project_conv_4project/sum_0_split -> conv_4project_conv_4project/sum_0_split_1
I0425 11:34:55.211565  5381 net.cpp:150] Setting up conv_4project_conv_4project/sum_0_split
I0425 11:34:55.211572  5381 net.cpp:157] Top shape: 2 32 38 38 (92416)
I0425 11:34:55.211578  5381 net.cpp:157] Top shape: 2 32 38 38 (92416)
I0425 11:34:55.211583  5381 net.cpp:165] Memory required for data: 274344160
I0425 11:34:55.211588  5381 layer_factory.hpp:77] Creating layer conv_5/expand
I0425 11:34:55.211602  5381 net.cpp:100] Creating Layer conv_5/expand
I0425 11:34:55.211607  5381 net.cpp:434] conv_5/expand <- conv_4project_conv_4project/sum_0_split_0
I0425 11:34:55.211616  5381 net.cpp:408] conv_5/expand -> conv_5/expand
I0425 11:34:55.212651  5381 net.cpp:150] Setting up conv_5/expand
I0425 11:34:55.212664  5381 net.cpp:157] Top shape: 2 192 38 38 (554496)
I0425 11:34:55.212671  5381 net.cpp:165] Memory required for data: 276562144
I0425 11:34:55.212678  5381 layer_factory.hpp:77] Creating layer conv_5/expand/bn
I0425 11:34:55.212687  5381 net.cpp:100] Creating Layer conv_5/expand/bn
I0425 11:34:55.212692  5381 net.cpp:434] conv_5/expand/bn <- conv_5/expand
I0425 11:34:55.212699  5381 net.cpp:395] conv_5/expand/bn -> conv_5/expand (in-place)
I0425 11:34:55.212867  5381 net.cpp:150] Setting up conv_5/expand/bn
I0425 11:34:55.212874  5381 net.cpp:157] Top shape: 2 192 38 38 (554496)
I0425 11:34:55.212880  5381 net.cpp:165] Memory required for data: 278780128
I0425 11:34:55.212889  5381 layer_factory.hpp:77] Creating layer conv_5/expand/scale
I0425 11:34:55.212906  5381 net.cpp:100] Creating Layer conv_5/expand/scale
I0425 11:34:55.212913  5381 net.cpp:434] conv_5/expand/scale <- conv_5/expand
I0425 11:34:55.212919  5381 net.cpp:395] conv_5/expand/scale -> conv_5/expand (in-place)
I0425 11:34:55.212967  5381 layer_factory.hpp:77] Creating layer conv_5/expand/scale
I0425 11:34:55.213079  5381 net.cpp:150] Setting up conv_5/expand/scale
I0425 11:34:55.213096  5381 net.cpp:157] Top shape: 2 192 38 38 (554496)
I0425 11:34:55.213102  5381 net.cpp:165] Memory required for data: 280998112
I0425 11:34:55.213110  5381 layer_factory.hpp:77] Creating layer conv_5/expand/relu
I0425 11:34:55.213117  5381 net.cpp:100] Creating Layer conv_5/expand/relu
I0425 11:34:55.213122  5381 net.cpp:434] conv_5/expand/relu <- conv_5/expand
I0425 11:34:55.213129  5381 net.cpp:395] conv_5/expand/relu -> conv_5/expand (in-place)
I0425 11:34:55.213479  5381 net.cpp:150] Setting up conv_5/expand/relu
I0425 11:34:55.213490  5381 net.cpp:157] Top shape: 2 192 38 38 (554496)
I0425 11:34:55.213496  5381 net.cpp:165] Memory required for data: 283216096
I0425 11:34:55.213502  5381 layer_factory.hpp:77] Creating layer conv_5/depthwise
I0425 11:34:55.213518  5381 net.cpp:100] Creating Layer conv_5/depthwise
I0425 11:34:55.213524  5381 net.cpp:434] conv_5/depthwise <- conv_5/expand
I0425 11:34:55.213532  5381 net.cpp:408] conv_5/depthwise -> conv_5/depthwise
I0425 11:34:55.213716  5381 net.cpp:150] Setting up conv_5/depthwise
I0425 11:34:55.213726  5381 net.cpp:157] Top shape: 2 192 38 38 (554496)
I0425 11:34:55.213730  5381 net.cpp:165] Memory required for data: 285434080
I0425 11:34:55.213739  5381 layer_factory.hpp:77] Creating layer conv_5/depthwise/bn
I0425 11:34:55.213745  5381 net.cpp:100] Creating Layer conv_5/depthwise/bn
I0425 11:34:55.213750  5381 net.cpp:434] conv_5/depthwise/bn <- conv_5/depthwise
I0425 11:34:55.213758  5381 net.cpp:395] conv_5/depthwise/bn -> conv_5/depthwise (in-place)
I0425 11:34:55.213919  5381 net.cpp:150] Setting up conv_5/depthwise/bn
I0425 11:34:55.213927  5381 net.cpp:157] Top shape: 2 192 38 38 (554496)
I0425 11:34:55.213932  5381 net.cpp:165] Memory required for data: 287652064
I0425 11:34:55.213943  5381 layer_factory.hpp:77] Creating layer conv_5/depthwise/scale
I0425 11:34:55.213949  5381 net.cpp:100] Creating Layer conv_5/depthwise/scale
I0425 11:34:55.213953  5381 net.cpp:434] conv_5/depthwise/scale <- conv_5/depthwise
I0425 11:34:55.213961  5381 net.cpp:395] conv_5/depthwise/scale -> conv_5/depthwise (in-place)
I0425 11:34:55.213995  5381 layer_factory.hpp:77] Creating layer conv_5/depthwise/scale
I0425 11:34:55.214093  5381 net.cpp:150] Setting up conv_5/depthwise/scale
I0425 11:34:55.214102  5381 net.cpp:157] Top shape: 2 192 38 38 (554496)
I0425 11:34:55.214107  5381 net.cpp:165] Memory required for data: 289870048
I0425 11:34:55.214115  5381 layer_factory.hpp:77] Creating layer conv_5/depthwise/relu
I0425 11:34:55.214121  5381 net.cpp:100] Creating Layer conv_5/depthwise/relu
I0425 11:34:55.214126  5381 net.cpp:434] conv_5/depthwise/relu <- conv_5/depthwise
I0425 11:34:55.214133  5381 net.cpp:395] conv_5/depthwise/relu -> conv_5/depthwise (in-place)
I0425 11:34:55.214273  5381 net.cpp:150] Setting up conv_5/depthwise/relu
I0425 11:34:55.214282  5381 net.cpp:157] Top shape: 2 192 38 38 (554496)
I0425 11:34:55.214285  5381 net.cpp:165] Memory required for data: 292088032
I0425 11:34:55.214288  5381 layer_factory.hpp:77] Creating layer conv_5/project
I0425 11:34:55.214294  5381 net.cpp:100] Creating Layer conv_5/project
I0425 11:34:55.214301  5381 net.cpp:434] conv_5/project <- conv_5/depthwise
I0425 11:34:55.214309  5381 net.cpp:408] conv_5/project -> conv_5/project
I0425 11:34:55.215323  5381 net.cpp:150] Setting up conv_5/project
I0425 11:34:55.215337  5381 net.cpp:157] Top shape: 2 32 38 38 (92416)
I0425 11:34:55.215342  5381 net.cpp:165] Memory required for data: 292457696
I0425 11:34:55.215351  5381 layer_factory.hpp:77] Creating layer conv_5/project/bn
I0425 11:34:55.215358  5381 net.cpp:100] Creating Layer conv_5/project/bn
I0425 11:34:55.215363  5381 net.cpp:434] conv_5/project/bn <- conv_5/project
I0425 11:34:55.215370  5381 net.cpp:395] conv_5/project/bn -> conv_5/project (in-place)
I0425 11:34:55.215545  5381 net.cpp:150] Setting up conv_5/project/bn
I0425 11:34:55.215553  5381 net.cpp:157] Top shape: 2 32 38 38 (92416)
I0425 11:34:55.215559  5381 net.cpp:165] Memory required for data: 292827360
I0425 11:34:55.215567  5381 layer_factory.hpp:77] Creating layer conv_5/project/scale
I0425 11:34:55.215584  5381 net.cpp:100] Creating Layer conv_5/project/scale
I0425 11:34:55.215589  5381 net.cpp:434] conv_5/project/scale <- conv_5/project
I0425 11:34:55.215595  5381 net.cpp:395] conv_5/project/scale -> conv_5/project (in-place)
I0425 11:34:55.215637  5381 layer_factory.hpp:77] Creating layer conv_5/project/scale
I0425 11:34:55.215744  5381 net.cpp:150] Setting up conv_5/project/scale
I0425 11:34:55.215754  5381 net.cpp:157] Top shape: 2 32 38 38 (92416)
I0425 11:34:55.215759  5381 net.cpp:165] Memory required for data: 293197024
I0425 11:34:55.215765  5381 layer_factory.hpp:77] Creating layer conv_5project/sum
I0425 11:34:55.215772  5381 net.cpp:100] Creating Layer conv_5project/sum
I0425 11:34:55.215776  5381 net.cpp:434] conv_5project/sum <- conv_4project_conv_4project/sum_0_split_1
I0425 11:34:55.215782  5381 net.cpp:434] conv_5project/sum <- conv_5/project
I0425 11:34:55.215790  5381 net.cpp:408] conv_5project/sum -> conv_5project
I0425 11:34:55.215809  5381 net.cpp:150] Setting up conv_5project/sum
I0425 11:34:55.215817  5381 net.cpp:157] Top shape: 2 32 38 38 (92416)
I0425 11:34:55.215821  5381 net.cpp:165] Memory required for data: 293566688
I0425 11:34:55.215826  5381 layer_factory.hpp:77] Creating layer conv_6/expand
I0425 11:34:55.215839  5381 net.cpp:100] Creating Layer conv_6/expand
I0425 11:34:55.215845  5381 net.cpp:434] conv_6/expand <- conv_5project
I0425 11:34:55.215852  5381 net.cpp:408] conv_6/expand -> conv_6/expand
I0425 11:34:55.216862  5381 net.cpp:150] Setting up conv_6/expand
I0425 11:34:55.216876  5381 net.cpp:157] Top shape: 2 192 38 38 (554496)
I0425 11:34:55.216881  5381 net.cpp:165] Memory required for data: 295784672
I0425 11:34:55.216888  5381 layer_factory.hpp:77] Creating layer conv_6/expand/bn
I0425 11:34:55.216902  5381 net.cpp:100] Creating Layer conv_6/expand/bn
I0425 11:34:55.216907  5381 net.cpp:434] conv_6/expand/bn <- conv_6/expand
I0425 11:34:55.216913  5381 net.cpp:395] conv_6/expand/bn -> conv_6/expand (in-place)
I0425 11:34:55.217083  5381 net.cpp:150] Setting up conv_6/expand/bn
I0425 11:34:55.217092  5381 net.cpp:157] Top shape: 2 192 38 38 (554496)
I0425 11:34:55.217097  5381 net.cpp:165] Memory required for data: 298002656
I0425 11:34:55.217105  5381 layer_factory.hpp:77] Creating layer conv_6/expand/scale
I0425 11:34:55.217113  5381 net.cpp:100] Creating Layer conv_6/expand/scale
I0425 11:34:55.217116  5381 net.cpp:434] conv_6/expand/scale <- conv_6/expand
I0425 11:34:55.217123  5381 net.cpp:395] conv_6/expand/scale -> conv_6/expand (in-place)
I0425 11:34:55.217167  5381 layer_factory.hpp:77] Creating layer conv_6/expand/scale
I0425 11:34:55.217270  5381 net.cpp:150] Setting up conv_6/expand/scale
I0425 11:34:55.217279  5381 net.cpp:157] Top shape: 2 192 38 38 (554496)
I0425 11:34:55.217283  5381 net.cpp:165] Memory required for data: 300220640
I0425 11:34:55.217291  5381 layer_factory.hpp:77] Creating layer conv_6/expand/relu
I0425 11:34:55.217303  5381 net.cpp:100] Creating Layer conv_6/expand/relu
I0425 11:34:55.217308  5381 net.cpp:434] conv_6/expand/relu <- conv_6/expand
I0425 11:34:55.217314  5381 net.cpp:395] conv_6/expand/relu -> conv_6/expand (in-place)
I0425 11:34:55.217689  5381 net.cpp:150] Setting up conv_6/expand/relu
I0425 11:34:55.217701  5381 net.cpp:157] Top shape: 2 192 38 38 (554496)
I0425 11:34:55.217706  5381 net.cpp:165] Memory required for data: 302438624
I0425 11:34:55.217712  5381 layer_factory.hpp:77] Creating layer conv_6/depthwise
I0425 11:34:55.217721  5381 net.cpp:100] Creating Layer conv_6/depthwise
I0425 11:34:55.217727  5381 net.cpp:434] conv_6/depthwise <- conv_6/expand
I0425 11:34:55.217734  5381 net.cpp:408] conv_6/depthwise -> conv_6/depthwise
I0425 11:34:55.217922  5381 net.cpp:150] Setting up conv_6/depthwise
I0425 11:34:55.217931  5381 net.cpp:157] Top shape: 2 192 19 19 (138624)
I0425 11:34:55.217936  5381 net.cpp:165] Memory required for data: 302993120
I0425 11:34:55.217942  5381 layer_factory.hpp:77] Creating layer conv_6/depthwise/bn
I0425 11:34:55.217949  5381 net.cpp:100] Creating Layer conv_6/depthwise/bn
I0425 11:34:55.217964  5381 net.cpp:434] conv_6/depthwise/bn <- conv_6/depthwise
I0425 11:34:55.217972  5381 net.cpp:395] conv_6/depthwise/bn -> conv_6/depthwise (in-place)
I0425 11:34:55.218186  5381 net.cpp:150] Setting up conv_6/depthwise/bn
I0425 11:34:55.218195  5381 net.cpp:157] Top shape: 2 192 19 19 (138624)
I0425 11:34:55.218200  5381 net.cpp:165] Memory required for data: 303547616
I0425 11:34:55.218209  5381 layer_factory.hpp:77] Creating layer conv_6/depthwise/scale
I0425 11:34:55.218216  5381 net.cpp:100] Creating Layer conv_6/depthwise/scale
I0425 11:34:55.218221  5381 net.cpp:434] conv_6/depthwise/scale <- conv_6/depthwise
I0425 11:34:55.218228  5381 net.cpp:395] conv_6/depthwise/scale -> conv_6/depthwise (in-place)
I0425 11:34:55.218262  5381 layer_factory.hpp:77] Creating layer conv_6/depthwise/scale
I0425 11:34:55.218366  5381 net.cpp:150] Setting up conv_6/depthwise/scale
I0425 11:34:55.218375  5381 net.cpp:157] Top shape: 2 192 19 19 (138624)
I0425 11:34:55.218380  5381 net.cpp:165] Memory required for data: 304102112
I0425 11:34:55.218389  5381 layer_factory.hpp:77] Creating layer conv_6/depthwise/relu
I0425 11:34:55.218394  5381 net.cpp:100] Creating Layer conv_6/depthwise/relu
I0425 11:34:55.218400  5381 net.cpp:434] conv_6/depthwise/relu <- conv_6/depthwise
I0425 11:34:55.218406  5381 net.cpp:395] conv_6/depthwise/relu -> conv_6/depthwise (in-place)
I0425 11:34:55.218581  5381 net.cpp:150] Setting up conv_6/depthwise/relu
I0425 11:34:55.218592  5381 net.cpp:157] Top shape: 2 192 19 19 (138624)
I0425 11:34:55.218598  5381 net.cpp:165] Memory required for data: 304656608
I0425 11:34:55.218605  5381 layer_factory.hpp:77] Creating layer conv_6/project
I0425 11:34:55.218613  5381 net.cpp:100] Creating Layer conv_6/project
I0425 11:34:55.218618  5381 net.cpp:434] conv_6/project <- conv_6/depthwise
I0425 11:34:55.218626  5381 net.cpp:408] conv_6/project -> conv_6/project
I0425 11:34:55.219821  5381 net.cpp:150] Setting up conv_6/project
I0425 11:34:55.219842  5381 net.cpp:157] Top shape: 2 64 19 19 (46208)
I0425 11:34:55.219846  5381 net.cpp:165] Memory required for data: 304841440
I0425 11:34:55.219853  5381 layer_factory.hpp:77] Creating layer conv_6/project/bn
I0425 11:34:55.219864  5381 net.cpp:100] Creating Layer conv_6/project/bn
I0425 11:34:55.219871  5381 net.cpp:434] conv_6/project/bn <- conv_6/project
I0425 11:34:55.219878  5381 net.cpp:395] conv_6/project/bn -> conv_6/project (in-place)
I0425 11:34:55.220068  5381 net.cpp:150] Setting up conv_6/project/bn
I0425 11:34:55.220077  5381 net.cpp:157] Top shape: 2 64 19 19 (46208)
I0425 11:34:55.220079  5381 net.cpp:165] Memory required for data: 305026272
I0425 11:34:55.220085  5381 layer_factory.hpp:77] Creating layer conv_6/project/scale
I0425 11:34:55.220093  5381 net.cpp:100] Creating Layer conv_6/project/scale
I0425 11:34:55.220099  5381 net.cpp:434] conv_6/project/scale <- conv_6/project
I0425 11:34:55.220108  5381 net.cpp:395] conv_6/project/scale -> conv_6/project (in-place)
I0425 11:34:55.220144  5381 layer_factory.hpp:77] Creating layer conv_6/project/scale
I0425 11:34:55.220268  5381 net.cpp:150] Setting up conv_6/project/scale
I0425 11:34:55.220278  5381 net.cpp:157] Top shape: 2 64 19 19 (46208)
I0425 11:34:55.220283  5381 net.cpp:165] Memory required for data: 305211104
I0425 11:34:55.220293  5381 layer_factory.hpp:77] Creating layer conv_6/project_conv_6/project/scale_0_split
I0425 11:34:55.220300  5381 net.cpp:100] Creating Layer conv_6/project_conv_6/project/scale_0_split
I0425 11:34:55.220305  5381 net.cpp:434] conv_6/project_conv_6/project/scale_0_split <- conv_6/project
I0425 11:34:55.220314  5381 net.cpp:408] conv_6/project_conv_6/project/scale_0_split -> conv_6/project_conv_6/project/scale_0_split_0
I0425 11:34:55.220324  5381 net.cpp:408] conv_6/project_conv_6/project/scale_0_split -> conv_6/project_conv_6/project/scale_0_split_1
I0425 11:34:55.220357  5381 net.cpp:150] Setting up conv_6/project_conv_6/project/scale_0_split
I0425 11:34:55.220363  5381 net.cpp:157] Top shape: 2 64 19 19 (46208)
I0425 11:34:55.220389  5381 net.cpp:157] Top shape: 2 64 19 19 (46208)
I0425 11:34:55.220392  5381 net.cpp:165] Memory required for data: 305580768
I0425 11:34:55.220396  5381 layer_factory.hpp:77] Creating layer conv_7/expand
I0425 11:34:55.220404  5381 net.cpp:100] Creating Layer conv_7/expand
I0425 11:34:55.220408  5381 net.cpp:434] conv_7/expand <- conv_6/project_conv_6/project/scale_0_split_0
I0425 11:34:55.220414  5381 net.cpp:408] conv_7/expand -> conv_7/expand
I0425 11:34:55.221702  5381 net.cpp:150] Setting up conv_7/expand
I0425 11:34:55.221714  5381 net.cpp:157] Top shape: 2 384 19 19 (277248)
I0425 11:34:55.221719  5381 net.cpp:165] Memory required for data: 306689760
I0425 11:34:55.221724  5381 layer_factory.hpp:77] Creating layer conv_7/expand/bn
I0425 11:34:55.221730  5381 net.cpp:100] Creating Layer conv_7/expand/bn
I0425 11:34:55.221735  5381 net.cpp:434] conv_7/expand/bn <- conv_7/expand
I0425 11:34:55.221740  5381 net.cpp:395] conv_7/expand/bn -> conv_7/expand (in-place)
I0425 11:34:55.221910  5381 net.cpp:150] Setting up conv_7/expand/bn
I0425 11:34:55.221917  5381 net.cpp:157] Top shape: 2 384 19 19 (277248)
I0425 11:34:55.221920  5381 net.cpp:165] Memory required for data: 307798752
I0425 11:34:55.221935  5381 layer_factory.hpp:77] Creating layer conv_7/expand/scale
I0425 11:34:55.221941  5381 net.cpp:100] Creating Layer conv_7/expand/scale
I0425 11:34:55.221946  5381 net.cpp:434] conv_7/expand/scale <- conv_7/expand
I0425 11:34:55.221951  5381 net.cpp:395] conv_7/expand/scale -> conv_7/expand (in-place)
I0425 11:34:55.221984  5381 layer_factory.hpp:77] Creating layer conv_7/expand/scale
I0425 11:34:55.222071  5381 net.cpp:150] Setting up conv_7/expand/scale
I0425 11:34:55.222077  5381 net.cpp:157] Top shape: 2 384 19 19 (277248)
I0425 11:34:55.222080  5381 net.cpp:165] Memory required for data: 308907744
I0425 11:34:55.222086  5381 layer_factory.hpp:77] Creating layer conv_7/expand/relu
I0425 11:34:55.222091  5381 net.cpp:100] Creating Layer conv_7/expand/relu
I0425 11:34:55.222095  5381 net.cpp:434] conv_7/expand/relu <- conv_7/expand
I0425 11:34:55.222100  5381 net.cpp:395] conv_7/expand/relu -> conv_7/expand (in-place)
I0425 11:34:55.222452  5381 net.cpp:150] Setting up conv_7/expand/relu
I0425 11:34:55.222463  5381 net.cpp:157] Top shape: 2 384 19 19 (277248)
I0425 11:34:55.222476  5381 net.cpp:165] Memory required for data: 310016736
I0425 11:34:55.222481  5381 layer_factory.hpp:77] Creating layer conv_7/depthwise
I0425 11:34:55.222489  5381 net.cpp:100] Creating Layer conv_7/depthwise
I0425 11:34:55.222493  5381 net.cpp:434] conv_7/depthwise <- conv_7/expand
I0425 11:34:55.222499  5381 net.cpp:408] conv_7/depthwise -> conv_7/depthwise
I0425 11:34:55.222712  5381 net.cpp:150] Setting up conv_7/depthwise
I0425 11:34:55.222718  5381 net.cpp:157] Top shape: 2 384 19 19 (277248)
I0425 11:34:55.222731  5381 net.cpp:165] Memory required for data: 311125728
I0425 11:34:55.222738  5381 layer_factory.hpp:77] Creating layer conv_7/depthwise/bn
I0425 11:34:55.222743  5381 net.cpp:100] Creating Layer conv_7/depthwise/bn
I0425 11:34:55.222746  5381 net.cpp:434] conv_7/depthwise/bn <- conv_7/depthwise
I0425 11:34:55.222751  5381 net.cpp:395] conv_7/depthwise/bn -> conv_7/depthwise (in-place)
I0425 11:34:55.222947  5381 net.cpp:150] Setting up conv_7/depthwise/bn
I0425 11:34:55.222954  5381 net.cpp:157] Top shape: 2 384 19 19 (277248)
I0425 11:34:55.222959  5381 net.cpp:165] Memory required for data: 312234720
I0425 11:34:55.222965  5381 layer_factory.hpp:77] Creating layer conv_7/depthwise/scale
I0425 11:34:55.222972  5381 net.cpp:100] Creating Layer conv_7/depthwise/scale
I0425 11:34:55.222976  5381 net.cpp:434] conv_7/depthwise/scale <- conv_7/depthwise
I0425 11:34:55.222981  5381 net.cpp:395] conv_7/depthwise/scale -> conv_7/depthwise (in-place)
I0425 11:34:55.223017  5381 layer_factory.hpp:77] Creating layer conv_7/depthwise/scale
I0425 11:34:55.223114  5381 net.cpp:150] Setting up conv_7/depthwise/scale
I0425 11:34:55.223121  5381 net.cpp:157] Top shape: 2 384 19 19 (277248)
I0425 11:34:55.223134  5381 net.cpp:165] Memory required for data: 313343712
I0425 11:34:55.223141  5381 layer_factory.hpp:77] Creating layer conv_7/depthwise/relu
I0425 11:34:55.223147  5381 net.cpp:100] Creating Layer conv_7/depthwise/relu
I0425 11:34:55.223151  5381 net.cpp:434] conv_7/depthwise/relu <- conv_7/depthwise
I0425 11:34:55.223157  5381 net.cpp:395] conv_7/depthwise/relu -> conv_7/depthwise (in-place)
I0425 11:34:55.223518  5381 net.cpp:150] Setting up conv_7/depthwise/relu
I0425 11:34:55.223531  5381 net.cpp:157] Top shape: 2 384 19 19 (277248)
I0425 11:34:55.223534  5381 net.cpp:165] Memory required for data: 314452704
I0425 11:34:55.223539  5381 layer_factory.hpp:77] Creating layer conv_7/project
I0425 11:34:55.223546  5381 net.cpp:100] Creating Layer conv_7/project
I0425 11:34:55.223551  5381 net.cpp:434] conv_7/project <- conv_7/depthwise
I0425 11:34:55.223558  5381 net.cpp:408] conv_7/project -> conv_7/project
I0425 11:34:55.225224  5381 net.cpp:150] Setting up conv_7/project
I0425 11:34:55.225237  5381 net.cpp:157] Top shape: 2 64 19 19 (46208)
I0425 11:34:55.225244  5381 net.cpp:165] Memory required for data: 314637536
I0425 11:34:55.225253  5381 layer_factory.hpp:77] Creating layer conv_7/project/bn
I0425 11:34:55.225261  5381 net.cpp:100] Creating Layer conv_7/project/bn
I0425 11:34:55.225266  5381 net.cpp:434] conv_7/project/bn <- conv_7/project
I0425 11:34:55.225273  5381 net.cpp:395] conv_7/project/bn -> conv_7/project (in-place)
I0425 11:34:55.225457  5381 net.cpp:150] Setting up conv_7/project/bn
I0425 11:34:55.225466  5381 net.cpp:157] Top shape: 2 64 19 19 (46208)
I0425 11:34:55.225471  5381 net.cpp:165] Memory required for data: 314822368
I0425 11:34:55.225481  5381 layer_factory.hpp:77] Creating layer conv_7/project/scale
I0425 11:34:55.225493  5381 net.cpp:100] Creating Layer conv_7/project/scale
I0425 11:34:55.225498  5381 net.cpp:434] conv_7/project/scale <- conv_7/project
I0425 11:34:55.225505  5381 net.cpp:395] conv_7/project/scale -> conv_7/project (in-place)
I0425 11:34:55.225543  5381 layer_factory.hpp:77] Creating layer conv_7/project/scale
I0425 11:34:55.225649  5381 net.cpp:150] Setting up conv_7/project/scale
I0425 11:34:55.225658  5381 net.cpp:157] Top shape: 2 64 19 19 (46208)
I0425 11:34:55.225664  5381 net.cpp:165] Memory required for data: 315007200
I0425 11:34:55.225672  5381 layer_factory.hpp:77] Creating layer conv_7project/sum
I0425 11:34:55.225679  5381 net.cpp:100] Creating Layer conv_7project/sum
I0425 11:34:55.225685  5381 net.cpp:434] conv_7project/sum <- conv_6/project_conv_6/project/scale_0_split_1
I0425 11:34:55.225692  5381 net.cpp:434] conv_7project/sum <- conv_7/project
I0425 11:34:55.225698  5381 net.cpp:408] conv_7project/sum -> conv_7project
I0425 11:34:55.225721  5381 net.cpp:150] Setting up conv_7project/sum
I0425 11:34:55.225728  5381 net.cpp:157] Top shape: 2 64 19 19 (46208)
I0425 11:34:55.225733  5381 net.cpp:165] Memory required for data: 315192032
I0425 11:34:55.225739  5381 layer_factory.hpp:77] Creating layer conv_7project_conv_7project/sum_0_split
I0425 11:34:55.225746  5381 net.cpp:100] Creating Layer conv_7project_conv_7project/sum_0_split
I0425 11:34:55.225751  5381 net.cpp:434] conv_7project_conv_7project/sum_0_split <- conv_7project
I0425 11:34:55.225759  5381 net.cpp:408] conv_7project_conv_7project/sum_0_split -> conv_7project_conv_7project/sum_0_split_0
I0425 11:34:55.225766  5381 net.cpp:408] conv_7project_conv_7project/sum_0_split -> conv_7project_conv_7project/sum_0_split_1
I0425 11:34:55.225796  5381 net.cpp:150] Setting up conv_7project_conv_7project/sum_0_split
I0425 11:34:55.225803  5381 net.cpp:157] Top shape: 2 64 19 19 (46208)
I0425 11:34:55.225811  5381 net.cpp:157] Top shape: 2 64 19 19 (46208)
I0425 11:34:55.225816  5381 net.cpp:165] Memory required for data: 315561696
I0425 11:34:55.225821  5381 layer_factory.hpp:77] Creating layer conv_8/expand
I0425 11:34:55.225831  5381 net.cpp:100] Creating Layer conv_8/expand
I0425 11:34:55.225836  5381 net.cpp:434] conv_8/expand <- conv_7project_conv_7project/sum_0_split_0
I0425 11:34:55.225842  5381 net.cpp:408] conv_8/expand -> conv_8/expand
I0425 11:34:55.227075  5381 net.cpp:150] Setting up conv_8/expand
I0425 11:34:55.227089  5381 net.cpp:157] Top shape: 2 384 19 19 (277248)
I0425 11:34:55.227095  5381 net.cpp:165] Memory required for data: 316670688
I0425 11:34:55.227104  5381 layer_factory.hpp:77] Creating layer conv_8/expand/bn
I0425 11:34:55.227111  5381 net.cpp:100] Creating Layer conv_8/expand/bn
I0425 11:34:55.227116  5381 net.cpp:434] conv_8/expand/bn <- conv_8/expand
I0425 11:34:55.227123  5381 net.cpp:395] conv_8/expand/bn -> conv_8/expand (in-place)
I0425 11:34:55.227293  5381 net.cpp:150] Setting up conv_8/expand/bn
I0425 11:34:55.227300  5381 net.cpp:157] Top shape: 2 384 19 19 (277248)
I0425 11:34:55.227306  5381 net.cpp:165] Memory required for data: 317779680
I0425 11:34:55.227315  5381 layer_factory.hpp:77] Creating layer conv_8/expand/scale
I0425 11:34:55.227322  5381 net.cpp:100] Creating Layer conv_8/expand/scale
I0425 11:34:55.227329  5381 net.cpp:434] conv_8/expand/scale <- conv_8/expand
I0425 11:34:55.227335  5381 net.cpp:395] conv_8/expand/scale -> conv_8/expand (in-place)
I0425 11:34:55.227372  5381 layer_factory.hpp:77] Creating layer conv_8/expand/scale
I0425 11:34:55.227473  5381 net.cpp:150] Setting up conv_8/expand/scale
I0425 11:34:55.227481  5381 net.cpp:157] Top shape: 2 384 19 19 (277248)
I0425 11:34:55.227486  5381 net.cpp:165] Memory required for data: 318888672
I0425 11:34:55.227494  5381 layer_factory.hpp:77] Creating layer conv_8/expand/relu
I0425 11:34:55.227501  5381 net.cpp:100] Creating Layer conv_8/expand/relu
I0425 11:34:55.227506  5381 net.cpp:434] conv_8/expand/relu <- conv_8/expand
I0425 11:34:55.227512  5381 net.cpp:395] conv_8/expand/relu -> conv_8/expand (in-place)
I0425 11:34:55.227659  5381 net.cpp:150] Setting up conv_8/expand/relu
I0425 11:34:55.227669  5381 net.cpp:157] Top shape: 2 384 19 19 (277248)
I0425 11:34:55.227674  5381 net.cpp:165] Memory required for data: 319997664
I0425 11:34:55.227680  5381 layer_factory.hpp:77] Creating layer conv_8/depthwise
I0425 11:34:55.227690  5381 net.cpp:100] Creating Layer conv_8/depthwise
I0425 11:34:55.227695  5381 net.cpp:434] conv_8/depthwise <- conv_8/expand
I0425 11:34:55.227704  5381 net.cpp:408] conv_8/depthwise -> conv_8/depthwise
I0425 11:34:55.227915  5381 net.cpp:150] Setting up conv_8/depthwise
I0425 11:34:55.227924  5381 net.cpp:157] Top shape: 2 384 19 19 (277248)
I0425 11:34:55.227929  5381 net.cpp:165] Memory required for data: 321106656
I0425 11:34:55.227937  5381 layer_factory.hpp:77] Creating layer conv_8/depthwise/bn
I0425 11:34:55.227943  5381 net.cpp:100] Creating Layer conv_8/depthwise/bn
I0425 11:34:55.227948  5381 net.cpp:434] conv_8/depthwise/bn <- conv_8/depthwise
I0425 11:34:55.227954  5381 net.cpp:395] conv_8/depthwise/bn -> conv_8/depthwise (in-place)
I0425 11:34:55.228134  5381 net.cpp:150] Setting up conv_8/depthwise/bn
I0425 11:34:55.228142  5381 net.cpp:157] Top shape: 2 384 19 19 (277248)
I0425 11:34:55.228154  5381 net.cpp:165] Memory required for data: 322215648
I0425 11:34:55.228160  5381 layer_factory.hpp:77] Creating layer conv_8/depthwise/scale
I0425 11:34:55.228166  5381 net.cpp:100] Creating Layer conv_8/depthwise/scale
I0425 11:34:55.228170  5381 net.cpp:434] conv_8/depthwise/scale <- conv_8/depthwise
I0425 11:34:55.228175  5381 net.cpp:395] conv_8/depthwise/scale -> conv_8/depthwise (in-place)
I0425 11:34:55.228224  5381 layer_factory.hpp:77] Creating layer conv_8/depthwise/scale
I0425 11:34:55.228335  5381 net.cpp:150] Setting up conv_8/depthwise/scale
I0425 11:34:55.228341  5381 net.cpp:157] Top shape: 2 384 19 19 (277248)
I0425 11:34:55.228354  5381 net.cpp:165] Memory required for data: 323324640
I0425 11:34:55.228359  5381 layer_factory.hpp:77] Creating layer conv_8/depthwise/relu
I0425 11:34:55.228365  5381 net.cpp:100] Creating Layer conv_8/depthwise/relu
I0425 11:34:55.228369  5381 net.cpp:434] conv_8/depthwise/relu <- conv_8/depthwise
I0425 11:34:55.228374  5381 net.cpp:395] conv_8/depthwise/relu -> conv_8/depthwise (in-place)
I0425 11:34:55.228708  5381 net.cpp:150] Setting up conv_8/depthwise/relu
I0425 11:34:55.228727  5381 net.cpp:157] Top shape: 2 384 19 19 (277248)
I0425 11:34:55.228732  5381 net.cpp:165] Memory required for data: 324433632
I0425 11:34:55.228736  5381 layer_factory.hpp:77] Creating layer conv_8/project
I0425 11:34:55.228742  5381 net.cpp:100] Creating Layer conv_8/project
I0425 11:34:55.228746  5381 net.cpp:434] conv_8/project <- conv_8/depthwise
I0425 11:34:55.228751  5381 net.cpp:408] conv_8/project -> conv_8/project
I0425 11:34:55.229956  5381 net.cpp:150] Setting up conv_8/project
I0425 11:34:55.229969  5381 net.cpp:157] Top shape: 2 64 19 19 (46208)
I0425 11:34:55.229976  5381 net.cpp:165] Memory required for data: 324618464
I0425 11:34:55.229984  5381 layer_factory.hpp:77] Creating layer conv_8/project/bn
I0425 11:34:55.229992  5381 net.cpp:100] Creating Layer conv_8/project/bn
I0425 11:34:55.229997  5381 net.cpp:434] conv_8/project/bn <- conv_8/project
I0425 11:34:55.230005  5381 net.cpp:395] conv_8/project/bn -> conv_8/project (in-place)
I0425 11:34:55.230190  5381 net.cpp:150] Setting up conv_8/project/bn
I0425 11:34:55.230199  5381 net.cpp:157] Top shape: 2 64 19 19 (46208)
I0425 11:34:55.230213  5381 net.cpp:165] Memory required for data: 324803296
I0425 11:34:55.230222  5381 layer_factory.hpp:77] Creating layer conv_8/project/scale
I0425 11:34:55.230231  5381 net.cpp:100] Creating Layer conv_8/project/scale
I0425 11:34:55.230235  5381 net.cpp:434] conv_8/project/scale <- conv_8/project
I0425 11:34:55.230242  5381 net.cpp:395] conv_8/project/scale -> conv_8/project (in-place)
I0425 11:34:55.230286  5381 layer_factory.hpp:77] Creating layer conv_8/project/scale
I0425 11:34:55.230388  5381 net.cpp:150] Setting up conv_8/project/scale
I0425 11:34:55.230397  5381 net.cpp:157] Top shape: 2 64 19 19 (46208)
I0425 11:34:55.230402  5381 net.cpp:165] Memory required for data: 324988128
I0425 11:34:55.230410  5381 layer_factory.hpp:77] Creating layer conv_8project/sum
I0425 11:34:55.230422  5381 net.cpp:100] Creating Layer conv_8project/sum
I0425 11:34:55.230427  5381 net.cpp:434] conv_8project/sum <- conv_7project_conv_7project/sum_0_split_1
I0425 11:34:55.230444  5381 net.cpp:434] conv_8project/sum <- conv_8/project
I0425 11:34:55.230461  5381 net.cpp:408] conv_8project/sum -> conv_8project
I0425 11:34:55.230499  5381 net.cpp:150] Setting up conv_8project/sum
I0425 11:34:55.230504  5381 net.cpp:157] Top shape: 2 64 19 19 (46208)
I0425 11:34:55.230516  5381 net.cpp:165] Memory required for data: 325172960
I0425 11:34:55.230520  5381 layer_factory.hpp:77] Creating layer conv_8project_conv_8project/sum_0_split
I0425 11:34:55.230525  5381 net.cpp:100] Creating Layer conv_8project_conv_8project/sum_0_split
I0425 11:34:55.230530  5381 net.cpp:434] conv_8project_conv_8project/sum_0_split <- conv_8project
I0425 11:34:55.230533  5381 net.cpp:408] conv_8project_conv_8project/sum_0_split -> conv_8project_conv_8project/sum_0_split_0
I0425 11:34:55.230538  5381 net.cpp:408] conv_8project_conv_8project/sum_0_split -> conv_8project_conv_8project/sum_0_split_1
I0425 11:34:55.230567  5381 net.cpp:150] Setting up conv_8project_conv_8project/sum_0_split
I0425 11:34:55.230572  5381 net.cpp:157] Top shape: 2 64 19 19 (46208)
I0425 11:34:55.230577  5381 net.cpp:157] Top shape: 2 64 19 19 (46208)
I0425 11:34:55.230581  5381 net.cpp:165] Memory required for data: 325542624
I0425 11:34:55.230584  5381 layer_factory.hpp:77] Creating layer conv_9/expand
I0425 11:34:55.230590  5381 net.cpp:100] Creating Layer conv_9/expand
I0425 11:34:55.230594  5381 net.cpp:434] conv_9/expand <- conv_8project_conv_8project/sum_0_split_0
I0425 11:34:55.230599  5381 net.cpp:408] conv_9/expand -> conv_9/expand
I0425 11:34:55.231789  5381 net.cpp:150] Setting up conv_9/expand
I0425 11:34:55.231801  5381 net.cpp:157] Top shape: 2 384 19 19 (277248)
I0425 11:34:55.231806  5381 net.cpp:165] Memory required for data: 326651616
I0425 11:34:55.231813  5381 layer_factory.hpp:77] Creating layer conv_9/expand/bn
I0425 11:34:55.231822  5381 net.cpp:100] Creating Layer conv_9/expand/bn
I0425 11:34:55.231827  5381 net.cpp:434] conv_9/expand/bn <- conv_9/expand
I0425 11:34:55.231843  5381 net.cpp:395] conv_9/expand/bn -> conv_9/expand (in-place)
I0425 11:34:55.232030  5381 net.cpp:150] Setting up conv_9/expand/bn
I0425 11:34:55.232039  5381 net.cpp:157] Top shape: 2 384 19 19 (277248)
I0425 11:34:55.232044  5381 net.cpp:165] Memory required for data: 327760608
I0425 11:34:55.232054  5381 layer_factory.hpp:77] Creating layer conv_9/expand/scale
I0425 11:34:55.232061  5381 net.cpp:100] Creating Layer conv_9/expand/scale
I0425 11:34:55.232067  5381 net.cpp:434] conv_9/expand/scale <- conv_9/expand
I0425 11:34:55.232074  5381 net.cpp:395] conv_9/expand/scale -> conv_9/expand (in-place)
I0425 11:34:55.232117  5381 layer_factory.hpp:77] Creating layer conv_9/expand/scale
I0425 11:34:55.232209  5381 net.cpp:150] Setting up conv_9/expand/scale
I0425 11:34:55.232218  5381 net.cpp:157] Top shape: 2 384 19 19 (277248)
I0425 11:34:55.232223  5381 net.cpp:165] Memory required for data: 328869600
I0425 11:34:55.232233  5381 layer_factory.hpp:77] Creating layer conv_9/expand/relu
I0425 11:34:55.232239  5381 net.cpp:100] Creating Layer conv_9/expand/relu
I0425 11:34:55.232244  5381 net.cpp:434] conv_9/expand/relu <- conv_9/expand
I0425 11:34:55.232250  5381 net.cpp:395] conv_9/expand/relu -> conv_9/expand (in-place)
I0425 11:34:55.232394  5381 net.cpp:150] Setting up conv_9/expand/relu
I0425 11:34:55.232404  5381 net.cpp:157] Top shape: 2 384 19 19 (277248)
I0425 11:34:55.232410  5381 net.cpp:165] Memory required for data: 329978592
I0425 11:34:55.232416  5381 layer_factory.hpp:77] Creating layer conv_9/depthwise
I0425 11:34:55.232425  5381 net.cpp:100] Creating Layer conv_9/depthwise
I0425 11:34:55.232430  5381 net.cpp:434] conv_9/depthwise <- conv_9/expand
I0425 11:34:55.232439  5381 net.cpp:408] conv_9/depthwise -> conv_9/depthwise
I0425 11:34:55.232635  5381 net.cpp:150] Setting up conv_9/depthwise
I0425 11:34:55.232645  5381 net.cpp:157] Top shape: 2 384 19 19 (277248)
I0425 11:34:55.232650  5381 net.cpp:165] Memory required for data: 331087584
I0425 11:34:55.232657  5381 layer_factory.hpp:77] Creating layer conv_9/depthwise/bn
I0425 11:34:55.232664  5381 net.cpp:100] Creating Layer conv_9/depthwise/bn
I0425 11:34:55.232669  5381 net.cpp:434] conv_9/depthwise/bn <- conv_9/depthwise
I0425 11:34:55.232676  5381 net.cpp:395] conv_9/depthwise/bn -> conv_9/depthwise (in-place)
I0425 11:34:55.232847  5381 net.cpp:150] Setting up conv_9/depthwise/bn
I0425 11:34:55.232856  5381 net.cpp:157] Top shape: 2 384 19 19 (277248)
I0425 11:34:55.232861  5381 net.cpp:165] Memory required for data: 332196576
I0425 11:34:55.232870  5381 layer_factory.hpp:77] Creating layer conv_9/depthwise/scale
I0425 11:34:55.232877  5381 net.cpp:100] Creating Layer conv_9/depthwise/scale
I0425 11:34:55.232882  5381 net.cpp:434] conv_9/depthwise/scale <- conv_9/depthwise
I0425 11:34:55.232889  5381 net.cpp:395] conv_9/depthwise/scale -> conv_9/depthwise (in-place)
I0425 11:34:55.232926  5381 layer_factory.hpp:77] Creating layer conv_9/depthwise/scale
I0425 11:34:55.233037  5381 net.cpp:150] Setting up conv_9/depthwise/scale
I0425 11:34:55.233047  5381 net.cpp:157] Top shape: 2 384 19 19 (277248)
I0425 11:34:55.233052  5381 net.cpp:165] Memory required for data: 333305568
I0425 11:34:55.233060  5381 layer_factory.hpp:77] Creating layer conv_9/depthwise/relu
I0425 11:34:55.233067  5381 net.cpp:100] Creating Layer conv_9/depthwise/relu
I0425 11:34:55.233072  5381 net.cpp:434] conv_9/depthwise/relu <- conv_9/depthwise
I0425 11:34:55.233079  5381 net.cpp:395] conv_9/depthwise/relu -> conv_9/depthwise (in-place)
I0425 11:34:55.233422  5381 net.cpp:150] Setting up conv_9/depthwise/relu
I0425 11:34:55.233434  5381 net.cpp:157] Top shape: 2 384 19 19 (277248)
I0425 11:34:55.233440  5381 net.cpp:165] Memory required for data: 334414560
I0425 11:34:55.233448  5381 layer_factory.hpp:77] Creating layer conv_9/project
I0425 11:34:55.233464  5381 net.cpp:100] Creating Layer conv_9/project
I0425 11:34:55.233469  5381 net.cpp:434] conv_9/project <- conv_9/depthwise
I0425 11:34:55.233477  5381 net.cpp:408] conv_9/project -> conv_9/project
I0425 11:34:55.234678  5381 net.cpp:150] Setting up conv_9/project
I0425 11:34:55.234688  5381 net.cpp:157] Top shape: 2 64 19 19 (46208)
I0425 11:34:55.234702  5381 net.cpp:165] Memory required for data: 334599392
I0425 11:34:55.234710  5381 layer_factory.hpp:77] Creating layer conv_9/project/bn
I0425 11:34:55.234735  5381 net.cpp:100] Creating Layer conv_9/project/bn
I0425 11:34:55.234740  5381 net.cpp:434] conv_9/project/bn <- conv_9/project
I0425 11:34:55.234747  5381 net.cpp:395] conv_9/project/bn -> conv_9/project (in-place)
I0425 11:34:55.234925  5381 net.cpp:150] Setting up conv_9/project/bn
I0425 11:34:55.234933  5381 net.cpp:157] Top shape: 2 64 19 19 (46208)
I0425 11:34:55.234938  5381 net.cpp:165] Memory required for data: 334784224
I0425 11:34:55.234948  5381 layer_factory.hpp:77] Creating layer conv_9/project/scale
I0425 11:34:55.234956  5381 net.cpp:100] Creating Layer conv_9/project/scale
I0425 11:34:55.234961  5381 net.cpp:434] conv_9/project/scale <- conv_9/project
I0425 11:34:55.234983  5381 net.cpp:395] conv_9/project/scale -> conv_9/project (in-place)
I0425 11:34:55.235049  5381 layer_factory.hpp:77] Creating layer conv_9/project/scale
I0425 11:34:55.235163  5381 net.cpp:150] Setting up conv_9/project/scale
I0425 11:34:55.235170  5381 net.cpp:157] Top shape: 2 64 19 19 (46208)
I0425 11:34:55.235183  5381 net.cpp:165] Memory required for data: 334969056
I0425 11:34:55.235188  5381 layer_factory.hpp:77] Creating layer conv_9project/sum
I0425 11:34:55.235193  5381 net.cpp:100] Creating Layer conv_9project/sum
I0425 11:34:55.235196  5381 net.cpp:434] conv_9project/sum <- conv_8project_conv_8project/sum_0_split_1
I0425 11:34:55.235201  5381 net.cpp:434] conv_9project/sum <- conv_9/project
I0425 11:34:55.235206  5381 net.cpp:408] conv_9project/sum -> conv_9project
I0425 11:34:55.235234  5381 net.cpp:150] Setting up conv_9project/sum
I0425 11:34:55.235242  5381 net.cpp:157] Top shape: 2 64 19 19 (46208)
I0425 11:34:55.235247  5381 net.cpp:165] Memory required for data: 335153888
I0425 11:34:55.235254  5381 layer_factory.hpp:77] Creating layer conv_10/expand
I0425 11:34:55.235261  5381 net.cpp:100] Creating Layer conv_10/expand
I0425 11:34:55.235266  5381 net.cpp:434] conv_10/expand <- conv_9project
I0425 11:34:55.235275  5381 net.cpp:408] conv_10/expand -> conv_10/expand
I0425 11:34:55.236477  5381 net.cpp:150] Setting up conv_10/expand
I0425 11:34:55.236490  5381 net.cpp:157] Top shape: 2 384 19 19 (277248)
I0425 11:34:55.236496  5381 net.cpp:165] Memory required for data: 336262880
I0425 11:34:55.236505  5381 layer_factory.hpp:77] Creating layer conv_10/expand/bn
I0425 11:34:55.236512  5381 net.cpp:100] Creating Layer conv_10/expand/bn
I0425 11:34:55.236517  5381 net.cpp:434] conv_10/expand/bn <- conv_10/expand
I0425 11:34:55.236524  5381 net.cpp:395] conv_10/expand/bn -> conv_10/expand (in-place)
I0425 11:34:55.236696  5381 net.cpp:150] Setting up conv_10/expand/bn
I0425 11:34:55.236704  5381 net.cpp:157] Top shape: 2 384 19 19 (277248)
I0425 11:34:55.236709  5381 net.cpp:165] Memory required for data: 337371872
I0425 11:34:55.236719  5381 layer_factory.hpp:77] Creating layer conv_10/expand/scale
I0425 11:34:55.236726  5381 net.cpp:100] Creating Layer conv_10/expand/scale
I0425 11:34:55.236732  5381 net.cpp:434] conv_10/expand/scale <- conv_10/expand
I0425 11:34:55.236739  5381 net.cpp:395] conv_10/expand/scale -> conv_10/expand (in-place)
I0425 11:34:55.236783  5381 layer_factory.hpp:77] Creating layer conv_10/expand/scale
I0425 11:34:55.236876  5381 net.cpp:150] Setting up conv_10/expand/scale
I0425 11:34:55.236886  5381 net.cpp:157] Top shape: 2 384 19 19 (277248)
I0425 11:34:55.236891  5381 net.cpp:165] Memory required for data: 338480864
I0425 11:34:55.236899  5381 layer_factory.hpp:77] Creating layer conv_10/expand/relu
I0425 11:34:55.236905  5381 net.cpp:100] Creating Layer conv_10/expand/relu
I0425 11:34:55.236910  5381 net.cpp:434] conv_10/expand/relu <- conv_10/expand
I0425 11:34:55.236917  5381 net.cpp:395] conv_10/expand/relu -> conv_10/expand (in-place)
I0425 11:34:55.237279  5381 net.cpp:150] Setting up conv_10/expand/relu
I0425 11:34:55.237291  5381 net.cpp:157] Top shape: 2 384 19 19 (277248)
I0425 11:34:55.237298  5381 net.cpp:165] Memory required for data: 339589856
I0425 11:34:55.237304  5381 layer_factory.hpp:77] Creating layer conv_10/depthwise
I0425 11:34:55.237329  5381 net.cpp:100] Creating Layer conv_10/depthwise
I0425 11:34:55.237334  5381 net.cpp:434] conv_10/depthwise <- conv_10/expand
I0425 11:34:55.237344  5381 net.cpp:408] conv_10/depthwise -> conv_10/depthwise
I0425 11:34:55.237547  5381 net.cpp:150] Setting up conv_10/depthwise
I0425 11:34:55.237556  5381 net.cpp:157] Top shape: 2 384 19 19 (277248)
I0425 11:34:55.237561  5381 net.cpp:165] Memory required for data: 340698848
I0425 11:34:55.237571  5381 layer_factory.hpp:77] Creating layer conv_10/depthwise/bn
I0425 11:34:55.237577  5381 net.cpp:100] Creating Layer conv_10/depthwise/bn
I0425 11:34:55.237581  5381 net.cpp:434] conv_10/depthwise/bn <- conv_10/depthwise
I0425 11:34:55.237589  5381 net.cpp:395] conv_10/depthwise/bn -> conv_10/depthwise (in-place)
I0425 11:34:55.237757  5381 net.cpp:150] Setting up conv_10/depthwise/bn
I0425 11:34:55.237766  5381 net.cpp:157] Top shape: 2 384 19 19 (277248)
I0425 11:34:55.237771  5381 net.cpp:165] Memory required for data: 341807840
I0425 11:34:55.237781  5381 layer_factory.hpp:77] Creating layer conv_10/depthwise/scale
I0425 11:34:55.237787  5381 net.cpp:100] Creating Layer conv_10/depthwise/scale
I0425 11:34:55.237792  5381 net.cpp:434] conv_10/depthwise/scale <- conv_10/depthwise
I0425 11:34:55.237800  5381 net.cpp:395] conv_10/depthwise/scale -> conv_10/depthwise (in-place)
I0425 11:34:55.237866  5381 layer_factory.hpp:77] Creating layer conv_10/depthwise/scale
I0425 11:34:55.237982  5381 net.cpp:150] Setting up conv_10/depthwise/scale
I0425 11:34:55.237988  5381 net.cpp:157] Top shape: 2 384 19 19 (277248)
I0425 11:34:55.238001  5381 net.cpp:165] Memory required for data: 342916832
I0425 11:34:55.238006  5381 layer_factory.hpp:77] Creating layer conv_10/depthwise/relu
I0425 11:34:55.238018  5381 net.cpp:100] Creating Layer conv_10/depthwise/relu
I0425 11:34:55.238023  5381 net.cpp:434] conv_10/depthwise/relu <- conv_10/depthwise
I0425 11:34:55.238036  5381 net.cpp:395] conv_10/depthwise/relu -> conv_10/depthwise (in-place)
I0425 11:34:55.238196  5381 net.cpp:150] Setting up conv_10/depthwise/relu
I0425 11:34:55.238204  5381 net.cpp:157] Top shape: 2 384 19 19 (277248)
I0425 11:34:55.238217  5381 net.cpp:165] Memory required for data: 344025824
I0425 11:34:55.238220  5381 layer_factory.hpp:77] Creating layer conv_10/project
I0425 11:34:55.238229  5381 net.cpp:100] Creating Layer conv_10/project
I0425 11:34:55.238234  5381 net.cpp:434] conv_10/project <- conv_10/depthwise
I0425 11:34:55.238252  5381 net.cpp:408] conv_10/project -> conv_10/project
I0425 11:34:55.239537  5381 net.cpp:150] Setting up conv_10/project
I0425 11:34:55.239549  5381 net.cpp:157] Top shape: 2 96 19 19 (69312)
I0425 11:34:55.239555  5381 net.cpp:165] Memory required for data: 344303072
I0425 11:34:55.239564  5381 layer_factory.hpp:77] Creating layer conv_10/project/bn
I0425 11:34:55.239572  5381 net.cpp:100] Creating Layer conv_10/project/bn
I0425 11:34:55.239576  5381 net.cpp:434] conv_10/project/bn <- conv_10/project
I0425 11:34:55.239583  5381 net.cpp:395] conv_10/project/bn -> conv_10/project (in-place)
I0425 11:34:55.239797  5381 net.cpp:150] Setting up conv_10/project/bn
I0425 11:34:55.239806  5381 net.cpp:157] Top shape: 2 96 19 19 (69312)
I0425 11:34:55.239811  5381 net.cpp:165] Memory required for data: 344580320
I0425 11:34:55.239830  5381 layer_factory.hpp:77] Creating layer conv_10/project/scale
I0425 11:34:55.239836  5381 net.cpp:100] Creating Layer conv_10/project/scale
I0425 11:34:55.239841  5381 net.cpp:434] conv_10/project/scale <- conv_10/project
I0425 11:34:55.239846  5381 net.cpp:395] conv_10/project/scale -> conv_10/project (in-place)
I0425 11:34:55.239881  5381 layer_factory.hpp:77] Creating layer conv_10/project/scale
I0425 11:34:55.239985  5381 net.cpp:150] Setting up conv_10/project/scale
I0425 11:34:55.240001  5381 net.cpp:157] Top shape: 2 96 19 19 (69312)
I0425 11:34:55.240005  5381 net.cpp:165] Memory required for data: 344857568
I0425 11:34:55.240010  5381 layer_factory.hpp:77] Creating layer conv_10/project_conv_10/project/scale_0_split
I0425 11:34:55.240016  5381 net.cpp:100] Creating Layer conv_10/project_conv_10/project/scale_0_split
I0425 11:34:55.240020  5381 net.cpp:434] conv_10/project_conv_10/project/scale_0_split <- conv_10/project
I0425 11:34:55.240025  5381 net.cpp:408] conv_10/project_conv_10/project/scale_0_split -> conv_10/project_conv_10/project/scale_0_split_0
I0425 11:34:55.240031  5381 net.cpp:408] conv_10/project_conv_10/project/scale_0_split -> conv_10/project_conv_10/project/scale_0_split_1
I0425 11:34:55.240070  5381 net.cpp:150] Setting up conv_10/project_conv_10/project/scale_0_split
I0425 11:34:55.240077  5381 net.cpp:157] Top shape: 2 96 19 19 (69312)
I0425 11:34:55.240082  5381 net.cpp:157] Top shape: 2 96 19 19 (69312)
I0425 11:34:55.240084  5381 net.cpp:165] Memory required for data: 345412064
I0425 11:34:55.240088  5381 layer_factory.hpp:77] Creating layer conv_11/expand
I0425 11:34:55.240095  5381 net.cpp:100] Creating Layer conv_11/expand
I0425 11:34:55.240099  5381 net.cpp:434] conv_11/expand <- conv_10/project_conv_10/project/scale_0_split_0
I0425 11:34:55.240104  5381 net.cpp:408] conv_11/expand -> conv_11/expand
I0425 11:34:55.242046  5381 net.cpp:150] Setting up conv_11/expand
I0425 11:34:55.242059  5381 net.cpp:157] Top shape: 2 576 19 19 (415872)
I0425 11:34:55.242063  5381 net.cpp:165] Memory required for data: 347075552
I0425 11:34:55.242069  5381 layer_factory.hpp:77] Creating layer conv_11/expand/bn
I0425 11:34:55.242075  5381 net.cpp:100] Creating Layer conv_11/expand/bn
I0425 11:34:55.242080  5381 net.cpp:434] conv_11/expand/bn <- conv_11/expand
I0425 11:34:55.242085  5381 net.cpp:395] conv_11/expand/bn -> conv_11/expand (in-place)
I0425 11:34:55.242271  5381 net.cpp:150] Setting up conv_11/expand/bn
I0425 11:34:55.242280  5381 net.cpp:157] Top shape: 2 576 19 19 (415872)
I0425 11:34:55.242285  5381 net.cpp:165] Memory required for data: 348739040
I0425 11:34:55.242296  5381 layer_factory.hpp:77] Creating layer conv_11/expand/scale
I0425 11:34:55.242303  5381 net.cpp:100] Creating Layer conv_11/expand/scale
I0425 11:34:55.242310  5381 net.cpp:434] conv_11/expand/scale <- conv_11/expand
I0425 11:34:55.242316  5381 net.cpp:395] conv_11/expand/scale -> conv_11/expand (in-place)
I0425 11:34:55.242357  5381 layer_factory.hpp:77] Creating layer conv_11/expand/scale
I0425 11:34:55.242476  5381 net.cpp:150] Setting up conv_11/expand/scale
I0425 11:34:55.242486  5381 net.cpp:157] Top shape: 2 576 19 19 (415872)
I0425 11:34:55.242491  5381 net.cpp:165] Memory required for data: 350402528
I0425 11:34:55.242499  5381 layer_factory.hpp:77] Creating layer conv_11/expand/relu
I0425 11:34:55.242506  5381 net.cpp:100] Creating Layer conv_11/expand/relu
I0425 11:34:55.242511  5381 net.cpp:434] conv_11/expand/relu <- conv_11/expand
I0425 11:34:55.242517  5381 net.cpp:395] conv_11/expand/relu -> conv_11/expand (in-place)
I0425 11:34:55.242856  5381 net.cpp:150] Setting up conv_11/expand/relu
I0425 11:34:55.242867  5381 net.cpp:157] Top shape: 2 576 19 19 (415872)
I0425 11:34:55.242873  5381 net.cpp:165] Memory required for data: 352066016
I0425 11:34:55.242879  5381 layer_factory.hpp:77] Creating layer conv_11/depthwise
I0425 11:34:55.242889  5381 net.cpp:100] Creating Layer conv_11/depthwise
I0425 11:34:55.242895  5381 net.cpp:434] conv_11/depthwise <- conv_11/expand
I0425 11:34:55.242913  5381 net.cpp:408] conv_11/depthwise -> conv_11/depthwise
I0425 11:34:55.243170  5381 net.cpp:150] Setting up conv_11/depthwise
I0425 11:34:55.243177  5381 net.cpp:157] Top shape: 2 576 19 19 (415872)
I0425 11:34:55.243191  5381 net.cpp:165] Memory required for data: 353729504
I0425 11:34:55.243199  5381 layer_factory.hpp:77] Creating layer conv_11/depthwise/bn
I0425 11:34:55.243218  5381 net.cpp:100] Creating Layer conv_11/depthwise/bn
I0425 11:34:55.243237  5381 net.cpp:434] conv_11/depthwise/bn <- conv_11/depthwise
I0425 11:34:55.243244  5381 net.cpp:395] conv_11/depthwise/bn -> conv_11/depthwise (in-place)
I0425 11:34:55.243425  5381 net.cpp:150] Setting up conv_11/depthwise/bn
I0425 11:34:55.243433  5381 net.cpp:157] Top shape: 2 576 19 19 (415872)
I0425 11:34:55.243439  5381 net.cpp:165] Memory required for data: 355392992
I0425 11:34:55.243448  5381 layer_factory.hpp:77] Creating layer conv_11/depthwise/scale
I0425 11:34:55.243454  5381 net.cpp:100] Creating Layer conv_11/depthwise/scale
I0425 11:34:55.243459  5381 net.cpp:434] conv_11/depthwise/scale <- conv_11/depthwise
I0425 11:34:55.243466  5381 net.cpp:395] conv_11/depthwise/scale -> conv_11/depthwise (in-place)
I0425 11:34:55.243502  5381 layer_factory.hpp:77] Creating layer conv_11/depthwise/scale
I0425 11:34:55.243618  5381 net.cpp:150] Setting up conv_11/depthwise/scale
I0425 11:34:55.243625  5381 net.cpp:157] Top shape: 2 576 19 19 (415872)
I0425 11:34:55.243630  5381 net.cpp:165] Memory required for data: 357056480
I0425 11:34:55.243638  5381 layer_factory.hpp:77] Creating layer conv_11/depthwise/relu
I0425 11:34:55.243645  5381 net.cpp:100] Creating Layer conv_11/depthwise/relu
I0425 11:34:55.243660  5381 net.cpp:434] conv_11/depthwise/relu <- conv_11/depthwise
I0425 11:34:55.243666  5381 net.cpp:395] conv_11/depthwise/relu -> conv_11/depthwise (in-place)
I0425 11:34:55.243820  5381 net.cpp:150] Setting up conv_11/depthwise/relu
I0425 11:34:55.243829  5381 net.cpp:157] Top shape: 2 576 19 19 (415872)
I0425 11:34:55.243842  5381 net.cpp:165] Memory required for data: 358719968
I0425 11:34:55.243846  5381 layer_factory.hpp:77] Creating layer conv_11/project
I0425 11:34:55.243854  5381 net.cpp:100] Creating Layer conv_11/project
I0425 11:34:55.243858  5381 net.cpp:434] conv_11/project <- conv_11/depthwise
I0425 11:34:55.243863  5381 net.cpp:408] conv_11/project -> conv_11/project
I0425 11:34:55.245491  5381 net.cpp:150] Setting up conv_11/project
I0425 11:34:55.245502  5381 net.cpp:157] Top shape: 2 96 19 19 (69312)
I0425 11:34:55.245517  5381 net.cpp:165] Memory required for data: 358997216
I0425 11:34:55.245523  5381 layer_factory.hpp:77] Creating layer conv_11/project/bn
I0425 11:34:55.245532  5381 net.cpp:100] Creating Layer conv_11/project/bn
I0425 11:34:55.245548  5381 net.cpp:434] conv_11/project/bn <- conv_11/project
I0425 11:34:55.245554  5381 net.cpp:395] conv_11/project/bn -> conv_11/project (in-place)
I0425 11:34:55.245739  5381 net.cpp:150] Setting up conv_11/project/bn
I0425 11:34:55.245748  5381 net.cpp:157] Top shape: 2 96 19 19 (69312)
I0425 11:34:55.245753  5381 net.cpp:165] Memory required for data: 359274464
I0425 11:34:55.245761  5381 layer_factory.hpp:77] Creating layer conv_11/project/scale
I0425 11:34:55.245769  5381 net.cpp:100] Creating Layer conv_11/project/scale
I0425 11:34:55.245774  5381 net.cpp:434] conv_11/project/scale <- conv_11/project
I0425 11:34:55.245780  5381 net.cpp:395] conv_11/project/scale -> conv_11/project (in-place)
I0425 11:34:55.245816  5381 layer_factory.hpp:77] Creating layer conv_11/project/scale
I0425 11:34:55.245926  5381 net.cpp:150] Setting up conv_11/project/scale
I0425 11:34:55.245934  5381 net.cpp:157] Top shape: 2 96 19 19 (69312)
I0425 11:34:55.245939  5381 net.cpp:165] Memory required for data: 359551712
I0425 11:34:55.245947  5381 layer_factory.hpp:77] Creating layer conv_11project/sum
I0425 11:34:55.245954  5381 net.cpp:100] Creating Layer conv_11project/sum
I0425 11:34:55.245959  5381 net.cpp:434] conv_11project/sum <- conv_10/project_conv_10/project/scale_0_split_1
I0425 11:34:55.245976  5381 net.cpp:434] conv_11project/sum <- conv_11/project
I0425 11:34:55.245988  5381 net.cpp:408] conv_11project/sum -> conv_11project
I0425 11:34:55.246021  5381 net.cpp:150] Setting up conv_11project/sum
I0425 11:34:55.246026  5381 net.cpp:157] Top shape: 2 96 19 19 (69312)
I0425 11:34:55.246038  5381 net.cpp:165] Memory required for data: 359828960
I0425 11:34:55.246042  5381 layer_factory.hpp:77] Creating layer conv_11project_conv_11project/sum_0_split
I0425 11:34:55.246069  5381 net.cpp:100] Creating Layer conv_11project_conv_11project/sum_0_split
I0425 11:34:55.246074  5381 net.cpp:434] conv_11project_conv_11project/sum_0_split <- conv_11project
I0425 11:34:55.246081  5381 net.cpp:408] conv_11project_conv_11project/sum_0_split -> conv_11project_conv_11project/sum_0_split_0
I0425 11:34:55.246099  5381 net.cpp:408] conv_11project_conv_11project/sum_0_split -> conv_11project_conv_11project/sum_0_split_1
I0425 11:34:55.246132  5381 net.cpp:150] Setting up conv_11project_conv_11project/sum_0_split
I0425 11:34:55.246140  5381 net.cpp:157] Top shape: 2 96 19 19 (69312)
I0425 11:34:55.246146  5381 net.cpp:157] Top shape: 2 96 19 19 (69312)
I0425 11:34:55.246150  5381 net.cpp:165] Memory required for data: 360383456
I0425 11:34:55.246156  5381 layer_factory.hpp:77] Creating layer conv_12/expand
I0425 11:34:55.246165  5381 net.cpp:100] Creating Layer conv_12/expand
I0425 11:34:55.246181  5381 net.cpp:434] conv_12/expand <- conv_11project_conv_11project/sum_0_split_0
I0425 11:34:55.246187  5381 net.cpp:408] conv_12/expand -> conv_12/expand
I0425 11:34:55.247665  5381 net.cpp:150] Setting up conv_12/expand
I0425 11:34:55.247678  5381 net.cpp:157] Top shape: 2 576 19 19 (415872)
I0425 11:34:55.247684  5381 net.cpp:165] Memory required for data: 362046944
I0425 11:34:55.247702  5381 layer_factory.hpp:77] Creating layer conv_12/expand/bn
I0425 11:34:55.247709  5381 net.cpp:100] Creating Layer conv_12/expand/bn
I0425 11:34:55.247714  5381 net.cpp:434] conv_12/expand/bn <- conv_12/expand
I0425 11:34:55.247725  5381 net.cpp:395] conv_12/expand/bn -> conv_12/expand (in-place)
I0425 11:34:55.247917  5381 net.cpp:150] Setting up conv_12/expand/bn
I0425 11:34:55.247925  5381 net.cpp:157] Top shape: 2 576 19 19 (415872)
I0425 11:34:55.247928  5381 net.cpp:165] Memory required for data: 363710432
I0425 11:34:55.247936  5381 layer_factory.hpp:77] Creating layer conv_12/expand/scale
I0425 11:34:55.247941  5381 net.cpp:100] Creating Layer conv_12/expand/scale
I0425 11:34:55.247946  5381 net.cpp:434] conv_12/expand/scale <- conv_12/expand
I0425 11:34:55.247951  5381 net.cpp:395] conv_12/expand/scale -> conv_12/expand (in-place)
I0425 11:34:55.247990  5381 layer_factory.hpp:77] Creating layer conv_12/expand/scale
I0425 11:34:55.248102  5381 net.cpp:150] Setting up conv_12/expand/scale
I0425 11:34:55.248111  5381 net.cpp:157] Top shape: 2 576 19 19 (415872)
I0425 11:34:55.248116  5381 net.cpp:165] Memory required for data: 365373920
I0425 11:34:55.248126  5381 layer_factory.hpp:77] Creating layer conv_12/expand/relu
I0425 11:34:55.248132  5381 net.cpp:100] Creating Layer conv_12/expand/relu
I0425 11:34:55.248136  5381 net.cpp:434] conv_12/expand/relu <- conv_12/expand
I0425 11:34:55.248143  5381 net.cpp:395] conv_12/expand/relu -> conv_12/expand (in-place)
I0425 11:34:55.248489  5381 net.cpp:150] Setting up conv_12/expand/relu
I0425 11:34:55.248502  5381 net.cpp:157] Top shape: 2 576 19 19 (415872)
I0425 11:34:55.248507  5381 net.cpp:165] Memory required for data: 367037408
I0425 11:34:55.248512  5381 layer_factory.hpp:77] Creating layer conv_12/depthwise
I0425 11:34:55.248522  5381 net.cpp:100] Creating Layer conv_12/depthwise
I0425 11:34:55.248527  5381 net.cpp:434] conv_12/depthwise <- conv_12/expand
I0425 11:34:55.248534  5381 net.cpp:408] conv_12/depthwise -> conv_12/depthwise
I0425 11:34:55.248764  5381 net.cpp:150] Setting up conv_12/depthwise
I0425 11:34:55.248773  5381 net.cpp:157] Top shape: 2 576 19 19 (415872)
I0425 11:34:55.248778  5381 net.cpp:165] Memory required for data: 368700896
I0425 11:34:55.248786  5381 layer_factory.hpp:77] Creating layer conv_12/depthwise/bn
I0425 11:34:55.248792  5381 net.cpp:100] Creating Layer conv_12/depthwise/bn
I0425 11:34:55.248797  5381 net.cpp:434] conv_12/depthwise/bn <- conv_12/depthwise
I0425 11:34:55.248803  5381 net.cpp:395] conv_12/depthwise/bn -> conv_12/depthwise (in-place)
I0425 11:34:55.248987  5381 net.cpp:150] Setting up conv_12/depthwise/bn
I0425 11:34:55.248994  5381 net.cpp:157] Top shape: 2 576 19 19 (415872)
I0425 11:34:55.249008  5381 net.cpp:165] Memory required for data: 370364384
I0425 11:34:55.249018  5381 layer_factory.hpp:77] Creating layer conv_12/depthwise/scale
I0425 11:34:55.249030  5381 net.cpp:100] Creating Layer conv_12/depthwise/scale
I0425 11:34:55.249037  5381 net.cpp:434] conv_12/depthwise/scale <- conv_12/depthwise
I0425 11:34:55.249043  5381 net.cpp:395] conv_12/depthwise/scale -> conv_12/depthwise (in-place)
I0425 11:34:55.249081  5381 layer_factory.hpp:77] Creating layer conv_12/depthwise/scale
I0425 11:34:55.249192  5381 net.cpp:150] Setting up conv_12/depthwise/scale
I0425 11:34:55.249202  5381 net.cpp:157] Top shape: 2 576 19 19 (415872)
I0425 11:34:55.249205  5381 net.cpp:165] Memory required for data: 372027872
I0425 11:34:55.249213  5381 layer_factory.hpp:77] Creating layer conv_12/depthwise/relu
I0425 11:34:55.249219  5381 net.cpp:100] Creating Layer conv_12/depthwise/relu
I0425 11:34:55.249224  5381 net.cpp:434] conv_12/depthwise/relu <- conv_12/depthwise
I0425 11:34:55.249231  5381 net.cpp:395] conv_12/depthwise/relu -> conv_12/depthwise (in-place)
I0425 11:34:55.249578  5381 net.cpp:150] Setting up conv_12/depthwise/relu
I0425 11:34:55.249590  5381 net.cpp:157] Top shape: 2 576 19 19 (415872)
I0425 11:34:55.249595  5381 net.cpp:165] Memory required for data: 373691360
I0425 11:34:55.249601  5381 layer_factory.hpp:77] Creating layer conv_12/project
I0425 11:34:55.249610  5381 net.cpp:100] Creating Layer conv_12/project
I0425 11:34:55.249616  5381 net.cpp:434] conv_12/project <- conv_12/depthwise
I0425 11:34:55.249631  5381 net.cpp:408] conv_12/project -> conv_12/project
I0425 11:34:55.251142  5381 net.cpp:150] Setting up conv_12/project
I0425 11:34:55.251155  5381 net.cpp:157] Top shape: 2 96 19 19 (69312)
I0425 11:34:55.251163  5381 net.cpp:165] Memory required for data: 373968608
I0425 11:34:55.251170  5381 layer_factory.hpp:77] Creating layer conv_12/project/bn
I0425 11:34:55.251178  5381 net.cpp:100] Creating Layer conv_12/project/bn
I0425 11:34:55.251184  5381 net.cpp:434] conv_12/project/bn <- conv_12/project
I0425 11:34:55.251193  5381 net.cpp:395] conv_12/project/bn -> conv_12/project (in-place)
I0425 11:34:55.251395  5381 net.cpp:150] Setting up conv_12/project/bn
I0425 11:34:55.251405  5381 net.cpp:157] Top shape: 2 96 19 19 (69312)
I0425 11:34:55.251410  5381 net.cpp:165] Memory required for data: 374245856
I0425 11:34:55.251420  5381 layer_factory.hpp:77] Creating layer conv_12/project/scale
I0425 11:34:55.251428  5381 net.cpp:100] Creating Layer conv_12/project/scale
I0425 11:34:55.251433  5381 net.cpp:434] conv_12/project/scale <- conv_12/project
I0425 11:34:55.251441  5381 net.cpp:395] conv_12/project/scale -> conv_12/project (in-place)
I0425 11:34:55.251482  5381 layer_factory.hpp:77] Creating layer conv_12/project/scale
I0425 11:34:55.251605  5381 net.cpp:150] Setting up conv_12/project/scale
I0425 11:34:55.251616  5381 net.cpp:157] Top shape: 2 96 19 19 (69312)
I0425 11:34:55.251621  5381 net.cpp:165] Memory required for data: 374523104
I0425 11:34:55.251629  5381 layer_factory.hpp:77] Creating layer conv_12project/sum
I0425 11:34:55.251636  5381 net.cpp:100] Creating Layer conv_12project/sum
I0425 11:34:55.251641  5381 net.cpp:434] conv_12project/sum <- conv_11project_conv_11project/sum_0_split_1
I0425 11:34:55.251648  5381 net.cpp:434] conv_12project/sum <- conv_12/project
I0425 11:34:55.251655  5381 net.cpp:408] conv_12project/sum -> conv_12project
I0425 11:34:55.251679  5381 net.cpp:150] Setting up conv_12project/sum
I0425 11:34:55.251688  5381 net.cpp:157] Top shape: 2 96 19 19 (69312)
I0425 11:34:55.251693  5381 net.cpp:165] Memory required for data: 374800352
I0425 11:34:55.251698  5381 layer_factory.hpp:77] Creating layer conv_13/expand
I0425 11:34:55.251708  5381 net.cpp:100] Creating Layer conv_13/expand
I0425 11:34:55.251713  5381 net.cpp:434] conv_13/expand <- conv_12project
I0425 11:34:55.251729  5381 net.cpp:408] conv_13/expand -> conv_13/expand
I0425 11:34:55.253888  5381 net.cpp:150] Setting up conv_13/expand
I0425 11:34:55.253909  5381 net.cpp:157] Top shape: 2 576 19 19 (415872)
I0425 11:34:55.253931  5381 net.cpp:165] Memory required for data: 376463840
I0425 11:34:55.253942  5381 layer_factory.hpp:77] Creating layer conv_13/expand/bn
I0425 11:34:55.253952  5381 net.cpp:100] Creating Layer conv_13/expand/bn
I0425 11:34:55.253958  5381 net.cpp:434] conv_13/expand/bn <- conv_13/expand
I0425 11:34:55.253965  5381 net.cpp:395] conv_13/expand/bn -> conv_13/expand (in-place)
I0425 11:34:55.254163  5381 net.cpp:150] Setting up conv_13/expand/bn
I0425 11:34:55.254173  5381 net.cpp:157] Top shape: 2 576 19 19 (415872)
I0425 11:34:55.254178  5381 net.cpp:165] Memory required for data: 378127328
I0425 11:34:55.254185  5381 layer_factory.hpp:77] Creating layer conv_13/expand/scale
I0425 11:34:55.254194  5381 net.cpp:100] Creating Layer conv_13/expand/scale
I0425 11:34:55.254199  5381 net.cpp:434] conv_13/expand/scale <- conv_13/expand
I0425 11:34:55.254205  5381 net.cpp:395] conv_13/expand/scale -> conv_13/expand (in-place)
I0425 11:34:55.254272  5381 layer_factory.hpp:77] Creating layer conv_13/expand/scale
I0425 11:34:55.254443  5381 net.cpp:150] Setting up conv_13/expand/scale
I0425 11:34:55.254462  5381 net.cpp:157] Top shape: 2 576 19 19 (415872)
I0425 11:34:55.254464  5381 net.cpp:165] Memory required for data: 379790816
I0425 11:34:55.254487  5381 layer_factory.hpp:77] Creating layer conv_13/expand/relu
I0425 11:34:55.254493  5381 net.cpp:100] Creating Layer conv_13/expand/relu
I0425 11:34:55.254498  5381 net.cpp:434] conv_13/expand/relu <- conv_13/expand
I0425 11:34:55.254504  5381 net.cpp:395] conv_13/expand/relu -> conv_13/expand (in-place)
I0425 11:34:55.254679  5381 net.cpp:150] Setting up conv_13/expand/relu
I0425 11:34:55.254688  5381 net.cpp:157] Top shape: 2 576 19 19 (415872)
I0425 11:34:55.254691  5381 net.cpp:165] Memory required for data: 381454304
I0425 11:34:55.254695  5381 layer_factory.hpp:77] Creating layer conv_13/expand_conv_13/expand/relu_0_split
I0425 11:34:55.254701  5381 net.cpp:100] Creating Layer conv_13/expand_conv_13/expand/relu_0_split
I0425 11:34:55.254706  5381 net.cpp:434] conv_13/expand_conv_13/expand/relu_0_split <- conv_13/expand
I0425 11:34:55.254712  5381 net.cpp:408] conv_13/expand_conv_13/expand/relu_0_split -> conv_13/expand_conv_13/expand/relu_0_split_0
I0425 11:34:55.254719  5381 net.cpp:408] conv_13/expand_conv_13/expand/relu_0_split -> conv_13/expand_conv_13/expand/relu_0_split_1
I0425 11:34:55.254729  5381 net.cpp:408] conv_13/expand_conv_13/expand/relu_0_split -> conv_13/expand_conv_13/expand/relu_0_split_2
I0425 11:34:55.254736  5381 net.cpp:408] conv_13/expand_conv_13/expand/relu_0_split -> conv_13/expand_conv_13/expand/relu_0_split_3
I0425 11:34:55.254804  5381 net.cpp:150] Setting up conv_13/expand_conv_13/expand/relu_0_split
I0425 11:34:55.254812  5381 net.cpp:157] Top shape: 2 576 19 19 (415872)
I0425 11:34:55.254819  5381 net.cpp:157] Top shape: 2 576 19 19 (415872)
I0425 11:34:55.254824  5381 net.cpp:157] Top shape: 2 576 19 19 (415872)
I0425 11:34:55.254832  5381 net.cpp:157] Top shape: 2 576 19 19 (415872)
I0425 11:34:55.254837  5381 net.cpp:165] Memory required for data: 388108256
I0425 11:34:55.254842  5381 layer_factory.hpp:77] Creating layer conv_13/depthwise
I0425 11:34:55.254853  5381 net.cpp:100] Creating Layer conv_13/depthwise
I0425 11:34:55.254858  5381 net.cpp:434] conv_13/depthwise <- conv_13/expand_conv_13/expand/relu_0_split_0
I0425 11:34:55.254865  5381 net.cpp:408] conv_13/depthwise -> conv_13/depthwise
I0425 11:34:55.255121  5381 net.cpp:150] Setting up conv_13/depthwise
I0425 11:34:55.255131  5381 net.cpp:157] Top shape: 2 576 10 10 (115200)
I0425 11:34:55.255136  5381 net.cpp:165] Memory required for data: 388569056
I0425 11:34:55.255144  5381 layer_factory.hpp:77] Creating layer conv_13/depthwise/bn
I0425 11:34:55.255156  5381 net.cpp:100] Creating Layer conv_13/depthwise/bn
I0425 11:34:55.255162  5381 net.cpp:434] conv_13/depthwise/bn <- conv_13/depthwise
I0425 11:34:55.255168  5381 net.cpp:395] conv_13/depthwise/bn -> conv_13/depthwise (in-place)
I0425 11:34:55.255378  5381 net.cpp:150] Setting up conv_13/depthwise/bn
I0425 11:34:55.255405  5381 net.cpp:157] Top shape: 2 576 10 10 (115200)
I0425 11:34:55.255424  5381 net.cpp:165] Memory required for data: 389029856
I0425 11:34:55.255432  5381 layer_factory.hpp:77] Creating layer conv_13/depthwise/scale
I0425 11:34:55.255444  5381 net.cpp:100] Creating Layer conv_13/depthwise/scale
I0425 11:34:55.255448  5381 net.cpp:434] conv_13/depthwise/scale <- conv_13/depthwise
I0425 11:34:55.255455  5381 net.cpp:395] conv_13/depthwise/scale -> conv_13/depthwise (in-place)
I0425 11:34:55.255511  5381 layer_factory.hpp:77] Creating layer conv_13/depthwise/scale
I0425 11:34:55.255683  5381 net.cpp:150] Setting up conv_13/depthwise/scale
I0425 11:34:55.255697  5381 net.cpp:157] Top shape: 2 576 10 10 (115200)
I0425 11:34:55.255723  5381 net.cpp:165] Memory required for data: 389490656
I0425 11:34:55.255733  5381 layer_factory.hpp:77] Creating layer conv_13/depthwise/relu
I0425 11:34:55.255743  5381 net.cpp:100] Creating Layer conv_13/depthwise/relu
I0425 11:34:55.255748  5381 net.cpp:434] conv_13/depthwise/relu <- conv_13/depthwise
I0425 11:34:55.255753  5381 net.cpp:395] conv_13/depthwise/relu -> conv_13/depthwise (in-place)
I0425 11:34:55.256175  5381 net.cpp:150] Setting up conv_13/depthwise/relu
I0425 11:34:55.256186  5381 net.cpp:157] Top shape: 2 576 10 10 (115200)
I0425 11:34:55.256191  5381 net.cpp:165] Memory required for data: 389951456
I0425 11:34:55.256194  5381 layer_factory.hpp:77] Creating layer conv_13/project
I0425 11:34:55.256202  5381 net.cpp:100] Creating Layer conv_13/project
I0425 11:34:55.256207  5381 net.cpp:434] conv_13/project <- conv_13/depthwise
I0425 11:34:55.256213  5381 net.cpp:408] conv_13/project -> conv_13/project
I0425 11:34:55.258535  5381 net.cpp:150] Setting up conv_13/project
I0425 11:34:55.258549  5381 net.cpp:157] Top shape: 2 160 10 10 (32000)
I0425 11:34:55.258556  5381 net.cpp:165] Memory required for data: 390079456
I0425 11:34:55.258565  5381 layer_factory.hpp:77] Creating layer conv_13/project/bn
I0425 11:34:55.258572  5381 net.cpp:100] Creating Layer conv_13/project/bn
I0425 11:34:55.258579  5381 net.cpp:434] conv_13/project/bn <- conv_13/project
I0425 11:34:55.258585  5381 net.cpp:395] conv_13/project/bn -> conv_13/project (in-place)
I0425 11:34:55.258795  5381 net.cpp:150] Setting up conv_13/project/bn
I0425 11:34:55.258803  5381 net.cpp:157] Top shape: 2 160 10 10 (32000)
I0425 11:34:55.258818  5381 net.cpp:165] Memory required for data: 390207456
I0425 11:34:55.258827  5381 layer_factory.hpp:77] Creating layer conv_13/project/scale
I0425 11:34:55.258836  5381 net.cpp:100] Creating Layer conv_13/project/scale
I0425 11:34:55.258841  5381 net.cpp:434] conv_13/project/scale <- conv_13/project
I0425 11:34:55.258848  5381 net.cpp:395] conv_13/project/scale -> conv_13/project (in-place)
I0425 11:34:55.258894  5381 layer_factory.hpp:77] Creating layer conv_13/project/scale
I0425 11:34:55.259001  5381 net.cpp:150] Setting up conv_13/project/scale
I0425 11:34:55.259009  5381 net.cpp:157] Top shape: 2 160 10 10 (32000)
I0425 11:34:55.259016  5381 net.cpp:165] Memory required for data: 390335456
I0425 11:34:55.259023  5381 layer_factory.hpp:77] Creating layer conv_13/project_conv_13/project/scale_0_split
I0425 11:34:55.259030  5381 net.cpp:100] Creating Layer conv_13/project_conv_13/project/scale_0_split
I0425 11:34:55.259035  5381 net.cpp:434] conv_13/project_conv_13/project/scale_0_split <- conv_13/project
I0425 11:34:55.259042  5381 net.cpp:408] conv_13/project_conv_13/project/scale_0_split -> conv_13/project_conv_13/project/scale_0_split_0
I0425 11:34:55.259052  5381 net.cpp:408] conv_13/project_conv_13/project/scale_0_split -> conv_13/project_conv_13/project/scale_0_split_1
I0425 11:34:55.259093  5381 net.cpp:150] Setting up conv_13/project_conv_13/project/scale_0_split
I0425 11:34:55.259101  5381 net.cpp:157] Top shape: 2 160 10 10 (32000)
I0425 11:34:55.259109  5381 net.cpp:157] Top shape: 2 160 10 10 (32000)
I0425 11:34:55.259112  5381 net.cpp:165] Memory required for data: 390591456
I0425 11:34:55.259119  5381 layer_factory.hpp:77] Creating layer conv_14/expand
I0425 11:34:55.259143  5381 net.cpp:100] Creating Layer conv_14/expand
I0425 11:34:55.259150  5381 net.cpp:434] conv_14/expand <- conv_13/project_conv_13/project/scale_0_split_0
I0425 11:34:55.259163  5381 net.cpp:408] conv_14/expand -> conv_14/expand
I0425 11:34:55.261461  5381 net.cpp:150] Setting up conv_14/expand
I0425 11:34:55.261474  5381 net.cpp:157] Top shape: 2 960 10 10 (192000)
I0425 11:34:55.261481  5381 net.cpp:165] Memory required for data: 391359456
I0425 11:34:55.261488  5381 layer_factory.hpp:77] Creating layer conv_14/expand/bn
I0425 11:34:55.261495  5381 net.cpp:100] Creating Layer conv_14/expand/bn
I0425 11:34:55.261502  5381 net.cpp:434] conv_14/expand/bn <- conv_14/expand
I0425 11:34:55.261519  5381 net.cpp:395] conv_14/expand/bn -> conv_14/expand (in-place)
I0425 11:34:55.261728  5381 net.cpp:150] Setting up conv_14/expand/bn
I0425 11:34:55.261734  5381 net.cpp:157] Top shape: 2 960 10 10 (192000)
I0425 11:34:55.261737  5381 net.cpp:165] Memory required for data: 392127456
I0425 11:34:55.261742  5381 layer_factory.hpp:77] Creating layer conv_14/expand/scale
I0425 11:34:55.261749  5381 net.cpp:100] Creating Layer conv_14/expand/scale
I0425 11:34:55.261762  5381 net.cpp:434] conv_14/expand/scale <- conv_14/expand
I0425 11:34:55.261767  5381 net.cpp:395] conv_14/expand/scale -> conv_14/expand (in-place)
I0425 11:34:55.261817  5381 layer_factory.hpp:77] Creating layer conv_14/expand/scale
I0425 11:34:55.261937  5381 net.cpp:150] Setting up conv_14/expand/scale
I0425 11:34:55.261943  5381 net.cpp:157] Top shape: 2 960 10 10 (192000)
I0425 11:34:55.261946  5381 net.cpp:165] Memory required for data: 392895456
I0425 11:34:55.261976  5381 layer_factory.hpp:77] Creating layer conv_14/expand/relu
I0425 11:34:55.261981  5381 net.cpp:100] Creating Layer conv_14/expand/relu
I0425 11:34:55.261994  5381 net.cpp:434] conv_14/expand/relu <- conv_14/expand
I0425 11:34:55.261997  5381 net.cpp:395] conv_14/expand/relu -> conv_14/expand (in-place)
I0425 11:34:55.262176  5381 net.cpp:150] Setting up conv_14/expand/relu
I0425 11:34:55.262183  5381 net.cpp:157] Top shape: 2 960 10 10 (192000)
I0425 11:34:55.262187  5381 net.cpp:165] Memory required for data: 393663456
I0425 11:34:55.262189  5381 layer_factory.hpp:77] Creating layer conv_14/depthwise
I0425 11:34:55.262195  5381 net.cpp:100] Creating Layer conv_14/depthwise
I0425 11:34:55.262200  5381 net.cpp:434] conv_14/depthwise <- conv_14/expand
I0425 11:34:55.262217  5381 net.cpp:408] conv_14/depthwise -> conv_14/depthwise
I0425 11:34:55.262481  5381 net.cpp:150] Setting up conv_14/depthwise
I0425 11:34:55.262488  5381 net.cpp:157] Top shape: 2 960 10 10 (192000)
I0425 11:34:55.262501  5381 net.cpp:165] Memory required for data: 394431456
I0425 11:34:55.262506  5381 layer_factory.hpp:77] Creating layer conv_14/depthwise/bn
I0425 11:34:55.262512  5381 net.cpp:100] Creating Layer conv_14/depthwise/bn
I0425 11:34:55.262516  5381 net.cpp:434] conv_14/depthwise/bn <- conv_14/depthwise
I0425 11:34:55.262521  5381 net.cpp:395] conv_14/depthwise/bn -> conv_14/depthwise (in-place)
I0425 11:34:55.262723  5381 net.cpp:150] Setting up conv_14/depthwise/bn
I0425 11:34:55.262732  5381 net.cpp:157] Top shape: 2 960 10 10 (192000)
I0425 11:34:55.262747  5381 net.cpp:165] Memory required for data: 395199456
I0425 11:34:55.262755  5381 layer_factory.hpp:77] Creating layer conv_14/depthwise/scale
I0425 11:34:55.262763  5381 net.cpp:100] Creating Layer conv_14/depthwise/scale
I0425 11:34:55.262768  5381 net.cpp:434] conv_14/depthwise/scale <- conv_14/depthwise
I0425 11:34:55.262775  5381 net.cpp:395] conv_14/depthwise/scale -> conv_14/depthwise (in-place)
I0425 11:34:55.262825  5381 layer_factory.hpp:77] Creating layer conv_14/depthwise/scale
I0425 11:34:55.262938  5381 net.cpp:150] Setting up conv_14/depthwise/scale
I0425 11:34:55.262948  5381 net.cpp:157] Top shape: 2 960 10 10 (192000)
I0425 11:34:55.262953  5381 net.cpp:165] Memory required for data: 395967456
I0425 11:34:55.262961  5381 layer_factory.hpp:77] Creating layer conv_14/depthwise/relu
I0425 11:34:55.262967  5381 net.cpp:100] Creating Layer conv_14/depthwise/relu
I0425 11:34:55.262981  5381 net.cpp:434] conv_14/depthwise/relu <- conv_14/depthwise
I0425 11:34:55.262989  5381 net.cpp:395] conv_14/depthwise/relu -> conv_14/depthwise (in-place)
I0425 11:34:55.263340  5381 net.cpp:150] Setting up conv_14/depthwise/relu
I0425 11:34:55.263352  5381 net.cpp:157] Top shape: 2 960 10 10 (192000)
I0425 11:34:55.263358  5381 net.cpp:165] Memory required for data: 396735456
I0425 11:34:55.263365  5381 layer_factory.hpp:77] Creating layer conv_14/project
I0425 11:34:55.263373  5381 net.cpp:100] Creating Layer conv_14/project
I0425 11:34:55.263379  5381 net.cpp:434] conv_14/project <- conv_14/depthwise
I0425 11:34:55.263387  5381 net.cpp:408] conv_14/project -> conv_14/project
I0425 11:34:55.266196  5381 net.cpp:150] Setting up conv_14/project
I0425 11:34:55.266208  5381 net.cpp:157] Top shape: 2 160 10 10 (32000)
I0425 11:34:55.266212  5381 net.cpp:165] Memory required for data: 396863456
I0425 11:34:55.266218  5381 layer_factory.hpp:77] Creating layer conv_14/project/bn
I0425 11:34:55.266224  5381 net.cpp:100] Creating Layer conv_14/project/bn
I0425 11:34:55.266229  5381 net.cpp:434] conv_14/project/bn <- conv_14/project
I0425 11:34:55.266233  5381 net.cpp:395] conv_14/project/bn -> conv_14/project (in-place)
I0425 11:34:55.266419  5381 net.cpp:150] Setting up conv_14/project/bn
I0425 11:34:55.266427  5381 net.cpp:157] Top shape: 2 160 10 10 (32000)
I0425 11:34:55.266430  5381 net.cpp:165] Memory required for data: 396991456
I0425 11:34:55.266439  5381 layer_factory.hpp:77] Creating layer conv_14/project/scale
I0425 11:34:55.266448  5381 net.cpp:100] Creating Layer conv_14/project/scale
I0425 11:34:55.266454  5381 net.cpp:434] conv_14/project/scale <- conv_14/project
I0425 11:34:55.266463  5381 net.cpp:395] conv_14/project/scale -> conv_14/project (in-place)
I0425 11:34:55.266500  5381 layer_factory.hpp:77] Creating layer conv_14/project/scale
I0425 11:34:55.266610  5381 net.cpp:150] Setting up conv_14/project/scale
I0425 11:34:55.266619  5381 net.cpp:157] Top shape: 2 160 10 10 (32000)
I0425 11:34:55.266624  5381 net.cpp:165] Memory required for data: 397119456
I0425 11:34:55.266633  5381 layer_factory.hpp:77] Creating layer conv_14project/sum
I0425 11:34:55.266639  5381 net.cpp:100] Creating Layer conv_14project/sum
I0425 11:34:55.266645  5381 net.cpp:434] conv_14project/sum <- conv_13/project_conv_13/project/scale_0_split_1
I0425 11:34:55.266651  5381 net.cpp:434] conv_14project/sum <- conv_14/project
I0425 11:34:55.266659  5381 net.cpp:408] conv_14project/sum -> conv_14project
I0425 11:34:55.266683  5381 net.cpp:150] Setting up conv_14project/sum
I0425 11:34:55.266691  5381 net.cpp:157] Top shape: 2 160 10 10 (32000)
I0425 11:34:55.266696  5381 net.cpp:165] Memory required for data: 397247456
I0425 11:34:55.266701  5381 layer_factory.hpp:77] Creating layer conv_14project_conv_14project/sum_0_split
I0425 11:34:55.266710  5381 net.cpp:100] Creating Layer conv_14project_conv_14project/sum_0_split
I0425 11:34:55.266715  5381 net.cpp:434] conv_14project_conv_14project/sum_0_split <- conv_14project
I0425 11:34:55.266721  5381 net.cpp:408] conv_14project_conv_14project/sum_0_split -> conv_14project_conv_14project/sum_0_split_0
I0425 11:34:55.266728  5381 net.cpp:408] conv_14project_conv_14project/sum_0_split -> conv_14project_conv_14project/sum_0_split_1
I0425 11:34:55.266772  5381 net.cpp:150] Setting up conv_14project_conv_14project/sum_0_split
I0425 11:34:55.266778  5381 net.cpp:157] Top shape: 2 160 10 10 (32000)
I0425 11:34:55.266784  5381 net.cpp:157] Top shape: 2 160 10 10 (32000)
I0425 11:34:55.266789  5381 net.cpp:165] Memory required for data: 397503456
I0425 11:34:55.266804  5381 layer_factory.hpp:77] Creating layer conv_15/expand
I0425 11:34:55.266813  5381 net.cpp:100] Creating Layer conv_15/expand
I0425 11:34:55.266829  5381 net.cpp:434] conv_15/expand <- conv_14project_conv_14project/sum_0_split_0
I0425 11:34:55.266841  5381 net.cpp:408] conv_15/expand -> conv_15/expand
I0425 11:34:55.269693  5381 net.cpp:150] Setting up conv_15/expand
I0425 11:34:55.269719  5381 net.cpp:157] Top shape: 2 960 10 10 (192000)
I0425 11:34:55.269726  5381 net.cpp:165] Memory required for data: 398271456
I0425 11:34:55.269734  5381 layer_factory.hpp:77] Creating layer conv_15/expand/bn
I0425 11:34:55.269742  5381 net.cpp:100] Creating Layer conv_15/expand/bn
I0425 11:34:55.269748  5381 net.cpp:434] conv_15/expand/bn <- conv_15/expand
I0425 11:34:55.269754  5381 net.cpp:395] conv_15/expand/bn -> conv_15/expand (in-place)
I0425 11:34:55.269945  5381 net.cpp:150] Setting up conv_15/expand/bn
I0425 11:34:55.269954  5381 net.cpp:157] Top shape: 2 960 10 10 (192000)
I0425 11:34:55.269959  5381 net.cpp:165] Memory required for data: 399039456
I0425 11:34:55.269968  5381 layer_factory.hpp:77] Creating layer conv_15/expand/scale
I0425 11:34:55.269976  5381 net.cpp:100] Creating Layer conv_15/expand/scale
I0425 11:34:55.269981  5381 net.cpp:434] conv_15/expand/scale <- conv_15/expand
I0425 11:34:55.269989  5381 net.cpp:395] conv_15/expand/scale -> conv_15/expand (in-place)
I0425 11:34:55.270035  5381 layer_factory.hpp:77] Creating layer conv_15/expand/scale
I0425 11:34:55.270149  5381 net.cpp:150] Setting up conv_15/expand/scale
I0425 11:34:55.270159  5381 net.cpp:157] Top shape: 2 960 10 10 (192000)
I0425 11:34:55.270164  5381 net.cpp:165] Memory required for data: 399807456
I0425 11:34:55.270184  5381 layer_factory.hpp:77] Creating layer conv_15/expand/relu
I0425 11:34:55.270195  5381 net.cpp:100] Creating Layer conv_15/expand/relu
I0425 11:34:55.270200  5381 net.cpp:434] conv_15/expand/relu <- conv_15/expand
I0425 11:34:55.270202  5381 net.cpp:395] conv_15/expand/relu -> conv_15/expand (in-place)
I0425 11:34:55.270561  5381 net.cpp:150] Setting up conv_15/expand/relu
I0425 11:34:55.270572  5381 net.cpp:157] Top shape: 2 960 10 10 (192000)
I0425 11:34:55.270586  5381 net.cpp:165] Memory required for data: 400575456
I0425 11:34:55.270589  5381 layer_factory.hpp:77] Creating layer conv_15/depthwise
I0425 11:34:55.270617  5381 net.cpp:100] Creating Layer conv_15/depthwise
I0425 11:34:55.270622  5381 net.cpp:434] conv_15/depthwise <- conv_15/expand
I0425 11:34:55.270637  5381 net.cpp:408] conv_15/depthwise -> conv_15/depthwise
I0425 11:34:55.270905  5381 net.cpp:150] Setting up conv_15/depthwise
I0425 11:34:55.270912  5381 net.cpp:157] Top shape: 2 960 10 10 (192000)
I0425 11:34:55.270925  5381 net.cpp:165] Memory required for data: 401343456
I0425 11:34:55.270931  5381 layer_factory.hpp:77] Creating layer conv_15/depthwise/bn
I0425 11:34:55.270936  5381 net.cpp:100] Creating Layer conv_15/depthwise/bn
I0425 11:34:55.270941  5381 net.cpp:434] conv_15/depthwise/bn <- conv_15/depthwise
I0425 11:34:55.270944  5381 net.cpp:395] conv_15/depthwise/bn -> conv_15/depthwise (in-place)
I0425 11:34:55.271132  5381 net.cpp:150] Setting up conv_15/depthwise/bn
I0425 11:34:55.271139  5381 net.cpp:157] Top shape: 2 960 10 10 (192000)
I0425 11:34:55.271142  5381 net.cpp:165] Memory required for data: 402111456
I0425 11:34:55.271148  5381 layer_factory.hpp:77] Creating layer conv_15/depthwise/scale
I0425 11:34:55.271155  5381 net.cpp:100] Creating Layer conv_15/depthwise/scale
I0425 11:34:55.271162  5381 net.cpp:434] conv_15/depthwise/scale <- conv_15/depthwise
I0425 11:34:55.271179  5381 net.cpp:395] conv_15/depthwise/scale -> conv_15/depthwise (in-place)
I0425 11:34:55.271229  5381 layer_factory.hpp:77] Creating layer conv_15/depthwise/scale
I0425 11:34:55.271345  5381 net.cpp:150] Setting up conv_15/depthwise/scale
I0425 11:34:55.271353  5381 net.cpp:157] Top shape: 2 960 10 10 (192000)
I0425 11:34:55.271359  5381 net.cpp:165] Memory required for data: 402879456
I0425 11:34:55.271368  5381 layer_factory.hpp:77] Creating layer conv_15/depthwise/relu
I0425 11:34:55.271374  5381 net.cpp:100] Creating Layer conv_15/depthwise/relu
I0425 11:34:55.271379  5381 net.cpp:434] conv_15/depthwise/relu <- conv_15/depthwise
I0425 11:34:55.271386  5381 net.cpp:395] conv_15/depthwise/relu -> conv_15/depthwise (in-place)
I0425 11:34:55.271530  5381 net.cpp:150] Setting up conv_15/depthwise/relu
I0425 11:34:55.271548  5381 net.cpp:157] Top shape: 2 960 10 10 (192000)
I0425 11:34:55.271554  5381 net.cpp:165] Memory required for data: 403647456
I0425 11:34:55.271560  5381 layer_factory.hpp:77] Creating layer conv_15/project
I0425 11:34:55.271569  5381 net.cpp:100] Creating Layer conv_15/project
I0425 11:34:55.271575  5381 net.cpp:434] conv_15/project <- conv_15/depthwise
I0425 11:34:55.271592  5381 net.cpp:408] conv_15/project -> conv_15/project
I0425 11:34:55.274593  5381 net.cpp:150] Setting up conv_15/project
I0425 11:34:55.274607  5381 net.cpp:157] Top shape: 2 160 10 10 (32000)
I0425 11:34:55.274613  5381 net.cpp:165] Memory required for data: 403775456
I0425 11:34:55.274622  5381 layer_factory.hpp:77] Creating layer conv_15/project/bn
I0425 11:34:55.274629  5381 net.cpp:100] Creating Layer conv_15/project/bn
I0425 11:34:55.274634  5381 net.cpp:434] conv_15/project/bn <- conv_15/project
I0425 11:34:55.274641  5381 net.cpp:395] conv_15/project/bn -> conv_15/project (in-place)
I0425 11:34:55.274832  5381 net.cpp:150] Setting up conv_15/project/bn
I0425 11:34:55.274840  5381 net.cpp:157] Top shape: 2 160 10 10 (32000)
I0425 11:34:55.274845  5381 net.cpp:165] Memory required for data: 403903456
I0425 11:34:55.274855  5381 layer_factory.hpp:77] Creating layer conv_15/project/scale
I0425 11:34:55.274863  5381 net.cpp:100] Creating Layer conv_15/project/scale
I0425 11:34:55.274868  5381 net.cpp:434] conv_15/project/scale <- conv_15/project
I0425 11:34:55.274885  5381 net.cpp:395] conv_15/project/scale -> conv_15/project (in-place)
I0425 11:34:55.274932  5381 layer_factory.hpp:77] Creating layer conv_15/project/scale
I0425 11:34:55.275048  5381 net.cpp:150] Setting up conv_15/project/scale
I0425 11:34:55.275055  5381 net.cpp:157] Top shape: 2 160 10 10 (32000)
I0425 11:34:55.275060  5381 net.cpp:165] Memory required for data: 404031456
I0425 11:34:55.275068  5381 layer_factory.hpp:77] Creating layer conv_15project/sum
I0425 11:34:55.275075  5381 net.cpp:100] Creating Layer conv_15project/sum
I0425 11:34:55.275090  5381 net.cpp:434] conv_15project/sum <- conv_14project_conv_14project/sum_0_split_1
I0425 11:34:55.275096  5381 net.cpp:434] conv_15project/sum <- conv_15/project
I0425 11:34:55.275100  5381 net.cpp:408] conv_15project/sum -> conv_15project
I0425 11:34:55.275132  5381 net.cpp:150] Setting up conv_15project/sum
I0425 11:34:55.275138  5381 net.cpp:157] Top shape: 2 160 10 10 (32000)
I0425 11:34:55.275151  5381 net.cpp:165] Memory required for data: 404159456
I0425 11:34:55.275154  5381 layer_factory.hpp:77] Creating layer conv_16/expand
I0425 11:34:55.275161  5381 net.cpp:100] Creating Layer conv_16/expand
I0425 11:34:55.275164  5381 net.cpp:434] conv_16/expand <- conv_15project
I0425 11:34:55.275169  5381 net.cpp:408] conv_16/expand -> conv_16/expand
I0425 11:34:55.277950  5381 net.cpp:150] Setting up conv_16/expand
I0425 11:34:55.277962  5381 net.cpp:157] Top shape: 2 960 10 10 (192000)
I0425 11:34:55.277966  5381 net.cpp:165] Memory required for data: 404927456
I0425 11:34:55.277976  5381 layer_factory.hpp:77] Creating layer conv_16/expand/bn
I0425 11:34:55.277983  5381 net.cpp:100] Creating Layer conv_16/expand/bn
I0425 11:34:55.277989  5381 net.cpp:434] conv_16/expand/bn <- conv_16/expand
I0425 11:34:55.277997  5381 net.cpp:395] conv_16/expand/bn -> conv_16/expand (in-place)
I0425 11:34:55.278194  5381 net.cpp:150] Setting up conv_16/expand/bn
I0425 11:34:55.278203  5381 net.cpp:157] Top shape: 2 960 10 10 (192000)
I0425 11:34:55.278208  5381 net.cpp:165] Memory required for data: 405695456
I0425 11:34:55.278218  5381 layer_factory.hpp:77] Creating layer conv_16/expand/scale
I0425 11:34:55.278225  5381 net.cpp:100] Creating Layer conv_16/expand/scale
I0425 11:34:55.278231  5381 net.cpp:434] conv_16/expand/scale <- conv_16/expand
I0425 11:34:55.278239  5381 net.cpp:395] conv_16/expand/scale -> conv_16/expand (in-place)
I0425 11:34:55.278280  5381 layer_factory.hpp:77] Creating layer conv_16/expand/scale
I0425 11:34:55.278400  5381 net.cpp:150] Setting up conv_16/expand/scale
I0425 11:34:55.278409  5381 net.cpp:157] Top shape: 2 960 10 10 (192000)
I0425 11:34:55.278426  5381 net.cpp:165] Memory required for data: 406463456
I0425 11:34:55.278435  5381 layer_factory.hpp:77] Creating layer conv_16/expand/relu
I0425 11:34:55.278442  5381 net.cpp:100] Creating Layer conv_16/expand/relu
I0425 11:34:55.278448  5381 net.cpp:434] conv_16/expand/relu <- conv_16/expand
I0425 11:34:55.278465  5381 net.cpp:395] conv_16/expand/relu -> conv_16/expand (in-place)
I0425 11:34:55.278822  5381 net.cpp:150] Setting up conv_16/expand/relu
I0425 11:34:55.278833  5381 net.cpp:157] Top shape: 2 960 10 10 (192000)
I0425 11:34:55.278839  5381 net.cpp:165] Memory required for data: 407231456
I0425 11:34:55.278846  5381 layer_factory.hpp:77] Creating layer conv_16/depthwise
I0425 11:34:55.278856  5381 net.cpp:100] Creating Layer conv_16/depthwise
I0425 11:34:55.278861  5381 net.cpp:434] conv_16/depthwise <- conv_16/expand
I0425 11:34:55.278868  5381 net.cpp:408] conv_16/depthwise -> conv_16/depthwise
I0425 11:34:55.279126  5381 net.cpp:150] Setting up conv_16/depthwise
I0425 11:34:55.279135  5381 net.cpp:157] Top shape: 2 960 10 10 (192000)
I0425 11:34:55.279140  5381 net.cpp:165] Memory required for data: 407999456
I0425 11:34:55.279148  5381 layer_factory.hpp:77] Creating layer conv_16/depthwise/bn
I0425 11:34:55.279155  5381 net.cpp:100] Creating Layer conv_16/depthwise/bn
I0425 11:34:55.279160  5381 net.cpp:434] conv_16/depthwise/bn <- conv_16/depthwise
I0425 11:34:55.279166  5381 net.cpp:395] conv_16/depthwise/bn -> conv_16/depthwise (in-place)
I0425 11:34:55.279350  5381 net.cpp:150] Setting up conv_16/depthwise/bn
I0425 11:34:55.279357  5381 net.cpp:157] Top shape: 2 960 10 10 (192000)
I0425 11:34:55.279362  5381 net.cpp:165] Memory required for data: 408767456
…
I0425 11:34:55.499395  5381 layer_factory.hpp:77] Creating layer layer_19_2_3/bn
I0425 11:34:55.499403  5381 net.cpp:100] Creating Layer layer_19_2_3/bn
I0425 11:34:55.499408  5381 net.cpp:434] layer_19_2_3/bn <- layer_19_2_3
I0425 11:34:55.499414  5381 net.cpp:395] layer_19_2_3/bn -> layer_19_2_3 (in-place)
I0425 11:34:55.499579  5381 net.cpp:150] Setting up layer_19_2_3/bn
I0425 11:34:55.499588  5381 net.cpp:157] Top shape: 2 256 3 3 (4608)
I0425 11:34:55.499591  5381 net.cpp:165] Memory required for data: 421282784
I0425 11:34:55.499600  5381 layer_factory.hpp:77] Creating layer layer_19_2_3/scale
I0425 11:34:55.499608  5381 net.cpp:100] Creating Layer layer_19_2_3/scale
I0425 11:34:55.499613  5381 net.cpp:434] layer_19_2_3/scale <- layer_19_2_3
I0425 11:34:55.499619  5381 net.cpp:395] layer_19_2_3/scale -> layer_19_2_3 (in-place)
I0425 11:34:55.499656  5381 layer_factory.hpp:77] Creating layer layer_19_2_3/scale
I0425 11:34:55.499784  5381 net.cpp:150] Setting up layer_19_2_3/scale
I0425 11:34:55.499794  5381 net.cpp:157] Top shape: 2 256 3 3 (4608)
I0425 11:34:55.499799  5381 net.cpp:165] Memory required for data: 421301216
I0425 11:34:55.499819  5381 layer_factory.hpp:77] Creating layer layer_19_2_3/relu
I0425 11:34:55.499827  5381 net.cpp:100] Creating Layer layer_19_2_3/relu
I0425 11:34:55.499833  5381 net.cpp:434] layer_19_2_3/relu <- layer_19_2_3
I0425 11:34:55.499840  5381 net.cpp:395] layer_19_2_3/relu -> layer_19_2_3 (in-place)
I0425 11:34:55.500084  5381 net.cpp:150] Setting up layer_19_2_3/relu
I0425 11:34:55.500094  5381 net.cpp:157] Top shape: 2 256 3 3 (4608)
I0425 11:34:55.500100  5381 net.cpp:165] Memory required for data: 421319648
I0425 11:34:55.500105  5381 layer_factory.hpp:77] Creating layer layer_19_2_3_layer_19_2_3/relu_0_split
I0425 11:34:55.500114  5381 net.cpp:100] Creating Layer layer_19_2_3_layer_19_2_3/relu_0_split
I0425 11:34:55.500118  5381 net.cpp:434] layer_19_2_3_layer_19_2_3/relu_0_split <- layer_19_2_3
I0425 11:34:55.500126  5381 net.cpp:408] layer_19_2_3_layer_19_2_3/relu_0_split -> layer_19_2_3_layer_19_2_3/relu_0_split_0
I0425 11:34:55.500135  5381 net.cpp:408] layer_19_2_3_layer_19_2_3/relu_0_split -> layer_19_2_3_layer_19_2_3/relu_0_split_1
I0425 11:34:55.500144  5381 net.cpp:408] layer_19_2_3_layer_19_2_3/relu_0_split -> layer_19_2_3_layer_19_2_3/relu_0_split_2
I0425 11:34:55.500150  5381 net.cpp:408] layer_19_2_3_layer_19_2_3/relu_0_split -> layer_19_2_3_layer_19_2_3/relu_0_split_3
I0425 11:34:55.500214  5381 net.cpp:150] Setting up layer_19_2_3_layer_19_2_3/relu_0_split
I0425 11:34:55.500221  5381 net.cpp:157] Top shape: 2 256 3 3 (4608)
I0425 11:34:55.500223  5381 net.cpp:157] Top shape: 2 256 3 3 (4608)
I0425 11:34:55.500227  5381 net.cpp:157] Top shape: 2 256 3 3 (4608)
I0425 11:34:55.500231  5381 net.cpp:157] Top shape: 2 256 3 3 (4608)
I0425 11:34:55.500234  5381 net.cpp:165] Memory required for data: 421393376
I0425 11:34:55.500241  5381 layer_factory.hpp:77] Creating layer layer_19_1_4
I0425 11:34:55.500248  5381 net.cpp:100] Creating Layer layer_19_1_4
I0425 11:34:55.500252  5381 net.cpp:434] layer_19_1_4 <- layer_19_2_3_layer_19_2_3/relu_0_split_0
I0425 11:34:55.500257  5381 net.cpp:408] layer_19_1_4 -> layer_19_1_4
I0425 11:34:55.501809  5381 net.cpp:150] Setting up layer_19_1_4
I0425 11:34:55.501838  5381 net.cpp:157] Top shape: 2 128 3 3 (2304)
I0425 11:34:55.501842  5381 net.cpp:165] Memory required for data: 421402592
I0425 11:34:55.501850  5381 layer_factory.hpp:77] Creating layer layer_19_1_4/bn
I0425 11:34:55.501860  5381 net.cpp:100] Creating Layer layer_19_1_4/bn
I0425 11:34:55.501875  5381 net.cpp:434] layer_19_1_4/bn <- layer_19_1_4
I0425 11:34:55.501883  5381 net.cpp:395] layer_19_1_4/bn -> layer_19_1_4 (in-place)
I0425 11:34:55.502104  5381 net.cpp:150] Setting up layer_19_1_4/bn
I0425 11:34:55.502113  5381 net.cpp:157] Top shape: 2 128 3 3 (2304)
I0425 11:34:55.502131  5381 net.cpp:165] Memory required for data: 421411808
I0425 11:34:55.502141  5381 layer_factory.hpp:77] Creating layer layer_19_1_4/scale
I0425 11:34:55.502154  5381 net.cpp:100] Creating Layer layer_19_1_4/scale
I0425 11:34:55.502159  5381 net.cpp:434] layer_19_1_4/scale <- layer_19_1_4
I0425 11:34:55.502166  5381 net.cpp:395] layer_19_1_4/scale -> layer_19_1_4 (in-place)
I0425 11:34:55.502229  5381 layer_factory.hpp:77] Creating layer layer_19_1_4/scale
I0425 11:34:55.502326  5381 net.cpp:150] Setting up layer_19_1_4/scale
I0425 11:34:55.502333  5381 net.cpp:157] Top shape: 2 128 3 3 (2304)
I0425 11:34:55.502338  5381 net.cpp:165] Memory required for data: 421421024
I0425 11:34:55.502346  5381 layer_factory.hpp:77] Creating layer layer_19_1_4/relu
I0425 11:34:55.502354  5381 net.cpp:100] Creating Layer layer_19_1_4/relu
I0425 11:34:55.502358  5381 net.cpp:434] layer_19_1_4/relu <- layer_19_1_4
I0425 11:34:55.502364  5381 net.cpp:395] layer_19_1_4/relu -> layer_19_1_4 (in-place)
I0425 11:34:55.502827  5381 net.cpp:150] Setting up layer_19_1_4/relu
I0425 11:34:55.502838  5381 net.cpp:157] Top shape: 2 128 3 3 (2304)
I0425 11:34:55.502845  5381 net.cpp:165] Memory required for data: 421430240
I0425 11:34:55.502849  5381 layer_factory.hpp:77] Creating layer layer_19_2_4/depthwise
I0425 11:34:55.502877  5381 net.cpp:100] Creating Layer layer_19_2_4/depthwise
I0425 11:34:55.502883  5381 net.cpp:434] layer_19_2_4/depthwise <- layer_19_1_4
I0425 11:34:55.502892  5381 net.cpp:408] layer_19_2_4/depthwise -> layer_19_2_4/depthwise
I0425 11:34:55.503111  5381 net.cpp:150] Setting up layer_19_2_4/depthwise
I0425 11:34:55.503119  5381 net.cpp:157] Top shape: 2 128 2 2 (1024)
I0425 11:34:55.503121  5381 net.cpp:165] Memory required for data: 421434336
I0425 11:34:55.503126  5381 layer_factory.hpp:77] Creating layer layer_19_2_4/depthwise/bn
I0425 11:34:55.503130  5381 net.cpp:100] Creating Layer layer_19_2_4/depthwise/bn
I0425 11:34:55.503135  5381 net.cpp:434] layer_19_2_4/depthwise/bn <- layer_19_2_4/depthwise
I0425 11:34:55.503155  5381 net.cpp:395] layer_19_2_4/depthwise/bn -> layer_19_2_4/depthwise (in-place)
I0425 11:34:55.503355  5381 net.cpp:150] Setting up layer_19_2_4/depthwise/bn
I0425 11:34:55.503365  5381 net.cpp:157] Top shape: 2 128 2 2 (1024)
I0425 11:34:55.503370  5381 net.cpp:165] Memory required for data: 421438432
I0425 11:34:55.503378  5381 layer_factory.hpp:77] Creating layer layer_19_2_4/depthwise/scale
I0425 11:34:55.503386  5381 net.cpp:100] Creating Layer layer_19_2_4/depthwise/scale
I0425 11:34:55.503391  5381 net.cpp:434] layer_19_2_4/depthwise/scale <- layer_19_2_4/depthwise
I0425 11:34:55.503398  5381 net.cpp:395] layer_19_2_4/depthwise/scale -> layer_19_2_4/depthwise (in-place)
I0425 11:34:55.503432  5381 layer_factory.hpp:77] Creating layer layer_19_2_4/depthwise/scale
I0425 11:34:55.503528  5381 net.cpp:150] Setting up layer_19_2_4/depthwise/scale
I0425 11:34:55.503536  5381 net.cpp:157] Top shape: 2 128 2 2 (1024)
I0425 11:34:55.503541  5381 net.cpp:165] Memory required for data: 421442528
I0425 11:34:55.503549  5381 layer_factory.hpp:77] Creating layer layer_19_2_4/depthwise/relu
I0425 11:34:55.503556  5381 net.cpp:100] Creating Layer layer_19_2_4/depthwise/relu
I0425 11:34:55.503571  5381 net.cpp:434] layer_19_2_4/depthwise/relu <- layer_19_2_4/depthwise
I0425 11:34:55.503577  5381 net.cpp:395] layer_19_2_4/depthwise/relu -> layer_19_2_4/depthwise (in-place)
I0425 11:34:55.504207  5381 net.cpp:150] Setting up layer_19_2_4/depthwise/relu
I0425 11:34:55.504218  5381 net.cpp:157] Top shape: 2 128 2 2 (1024)
I0425 11:34:55.504231  5381 net.cpp:165] Memory required for data: 421446624
I0425 11:34:55.504235  5381 layer_factory.hpp:77] Creating layer layer_19_2_4
I0425 11:34:55.504242  5381 net.cpp:100] Creating Layer layer_19_2_4
I0425 11:34:55.504247  5381 net.cpp:434] layer_19_2_4 <- layer_19_2_4/depthwise
I0425 11:34:55.504252  5381 net.cpp:408] layer_19_2_4 -> layer_19_2_4
I0425 11:34:55.505625  5381 net.cpp:150] Setting up layer_19_2_4
I0425 11:34:55.505635  5381 net.cpp:157] Top shape: 2 256 2 2 (2048)
I0425 11:34:55.505650  5381 net.cpp:165] Memory required for data: 421454816
I0425 11:34:55.505656  5381 layer_factory.hpp:77] Creating layer layer_19_2_4/bn
I0425 11:34:55.505666  5381 net.cpp:100] Creating Layer layer_19_2_4/bn
I0425 11:34:55.505681  5381 net.cpp:434] layer_19_2_4/bn <- layer_19_2_4
I0425 11:34:55.505686  5381 net.cpp:395] layer_19_2_4/bn -> layer_19_2_4 (in-place)
I0425 11:34:55.505877  5381 net.cpp:150] Setting up layer_19_2_4/bn
I0425 11:34:55.505887  5381 net.cpp:157] Top shape: 2 256 2 2 (2048)
I0425 11:34:55.505901  5381 net.cpp:165] Memory required for data: 421463008
I0425 11:34:55.505910  5381 layer_factory.hpp:77] Creating layer layer_19_2_4/scale
I0425 11:34:55.505918  5381 net.cpp:100] Creating Layer layer_19_2_4/scale
I0425 11:34:55.505923  5381 net.cpp:434] layer_19_2_4/scale <- layer_19_2_4
I0425 11:34:55.505929  5381 net.cpp:395] layer_19_2_4/scale -> layer_19_2_4 (in-place)
I0425 11:34:55.505981  5381 layer_factory.hpp:77] Creating layer layer_19_2_4/scale
I0425 11:34:55.506103  5381 net.cpp:150] Setting up layer_19_2_4/scale
I0425 11:34:55.506114  5381 net.cpp:157] Top shape: 2 256 2 2 (2048)
I0425 11:34:55.506129  5381 net.cpp:165] Memory required for data: 421471200
I0425 11:34:55.506137  5381 layer_factory.hpp:77] Creating layer layer_19_2_4/relu
I0425 11:34:55.506153  5381 net.cpp:100] Creating Layer layer_19_2_4/relu
I0425 11:34:55.506160  5381 net.cpp:434] layer_19_2_4/relu <- layer_19_2_4
I0425 11:34:55.506165  5381 net.cpp:395] layer_19_2_4/relu -> layer_19_2_4 (in-place)
I0425 11:34:55.506378  5381 net.cpp:150] Setting up layer_19_2_4/relu
I0425 11:34:55.506386  5381 net.cpp:157] Top shape: 2 256 2 2 (2048)
I0425 11:34:55.506400  5381 net.cpp:165] Memory required for data: 421479392
I0425 11:34:55.506403  5381 layer_factory.hpp:77] Creating layer layer_19_2_4_layer_19_2_4/relu_0_split
I0425 11:34:55.506410  5381 net.cpp:100] Creating Layer layer_19_2_4_layer_19_2_4/relu_0_split
I0425 11:34:55.506415  5381 net.cpp:434] layer_19_2_4_layer_19_2_4/relu_0_split <- layer_19_2_4
I0425 11:34:55.506420  5381 net.cpp:408] layer_19_2_4_layer_19_2_4/relu_0_split -> layer_19_2_4_layer_19_2_4/relu_0_split_0
I0425 11:34:55.506428  5381 net.cpp:408] layer_19_2_4_layer_19_2_4/relu_0_split -> layer_19_2_4_layer_19_2_4/relu_0_split_1
I0425 11:34:55.506436  5381 net.cpp:408] layer_19_2_4_layer_19_2_4/relu_0_split -> layer_19_2_4_layer_19_2_4/relu_0_split_2
I0425 11:34:55.506443  5381 net.cpp:408] layer_19_2_4_layer_19_2_4/relu_0_split -> layer_19_2_4_layer_19_2_4/relu_0_split_3
I0425 11:34:55.506512  5381 net.cpp:150] Setting up layer_19_2_4_layer_19_2_4/relu_0_split
I0425 11:34:55.506520  5381 net.cpp:157] Top shape: 2 256 2 2 (2048)
I0425 11:34:55.506537  5381 net.cpp:157] Top shape: 2 256 2 2 (2048)
I0425 11:34:55.506542  5381 net.cpp:157] Top shape: 2 256 2 2 (2048)
I0425 11:34:55.506548  5381 net.cpp:157] Top shape: 2 256 2 2 (2048)
I0425 11:34:55.506552  5381 net.cpp:165] Memory required for data: 421512160
I0425 11:34:55.506558  5381 layer_factory.hpp:77] Creating layer layer_19_1_5
I0425 11:34:55.506568  5381 net.cpp:100] Creating Layer layer_19_1_5
I0425 11:34:55.506573  5381 net.cpp:434] layer_19_1_5 <- layer_19_2_4_layer_19_2_4/relu_0_split_0
I0425 11:34:55.506580  5381 net.cpp:408] layer_19_1_5 -> layer_19_1_5
I0425 11:34:55.507886  5381 net.cpp:150] Setting up layer_19_1_5
I0425 11:34:55.507902  5381 net.cpp:157] Top shape: 2 64 2 2 (512)
I0425 11:34:55.507920  5381 net.cpp:165] Memory required for data: 421514208
I0425 11:34:55.507926  5381 layer_factory.hpp:77] Creating layer layer_19_1_5/bn
I0425 11:34:55.507932  5381 net.cpp:100] Creating Layer layer_19_1_5/bn
I0425 11:34:55.507937  5381 net.cpp:434] layer_19_1_5/bn <- layer_19_1_5
I0425 11:34:55.507942  5381 net.cpp:395] layer_19_1_5/bn -> layer_19_1_5 (in-place)
I0425 11:34:55.508141  5381 net.cpp:150] Setting up layer_19_1_5/bn
I0425 11:34:55.508150  5381 net.cpp:157] Top shape: 2 64 2 2 (512)
I0425 11:34:55.508155  5381 net.cpp:165] Memory required for data: 421516256
I0425 11:34:55.508165  5381 layer_factory.hpp:77] Creating layer layer_19_1_5/scale
I0425 11:34:55.508196  5381 net.cpp:100] Creating Layer layer_19_1_5/scale
I0425 11:34:55.508201  5381 net.cpp:434] layer_19_1_5/scale <- layer_19_1_5
I0425 11:34:55.508210  5381 net.cpp:395] layer_19_1_5/scale -> layer_19_1_5 (in-place)
I0425 11:34:55.508249  5381 layer_factory.hpp:77] Creating layer layer_19_1_5/scale
I0425 11:34:55.508342  5381 net.cpp:150] Setting up layer_19_1_5/scale
I0425 11:34:55.508349  5381 net.cpp:157] Top shape: 2 64 2 2 (512)
I0425 11:34:55.508354  5381 net.cpp:165] Memory required for data: 421518304
I0425 11:34:55.508363  5381 layer_factory.hpp:77] Creating layer layer_19_1_5/relu
I0425 11:34:55.508369  5381 net.cpp:100] Creating Layer layer_19_1_5/relu
I0425 11:34:55.508375  5381 net.cpp:434] layer_19_1_5/relu <- layer_19_1_5
I0425 11:34:55.508381  5381 net.cpp:395] layer_19_1_5/relu -> layer_19_1_5 (in-place)
I0425 11:34:55.508771  5381 net.cpp:150] Setting up layer_19_1_5/relu
I0425 11:34:55.508783  5381 net.cpp:157] Top shape: 2 64 2 2 (512)
I0425 11:34:55.508788  5381 net.cpp:165] Memory required for data: 421520352
I0425 11:34:55.508795  5381 layer_factory.hpp:77] Creating layer layer_19_2_5/depthwise
I0425 11:34:55.508805  5381 net.cpp:100] Creating Layer layer_19_2_5/depthwise
I0425 11:34:55.508810  5381 net.cpp:434] layer_19_2_5/depthwise <- layer_19_1_5
I0425 11:34:55.508831  5381 net.cpp:408] layer_19_2_5/depthwise -> layer_19_2_5/depthwise
I0425 11:34:55.509021  5381 net.cpp:150] Setting up layer_19_2_5/depthwise
I0425 11:34:55.509029  5381 net.cpp:157] Top shape: 2 64 1 1 (128)
I0425 11:34:55.509034  5381 net.cpp:165] Memory required for data: 421520864
I0425 11:34:55.509042  5381 layer_factory.hpp:77] Creating layer layer_19_2_5/depthwise/bn
I0425 11:34:55.509049  5381 net.cpp:100] Creating Layer layer_19_2_5/depthwise/bn
I0425 11:34:55.509054  5381 net.cpp:434] layer_19_2_5/depthwise/bn <- layer_19_2_5/depthwise
I0425 11:34:55.509061  5381 net.cpp:395] layer_19_2_5/depthwise/bn -> layer_19_2_5/depthwise (in-place)
I0425 11:34:55.509248  5381 net.cpp:150] Setting up layer_19_2_5/depthwise/bn
I0425 11:34:55.509256  5381 net.cpp:157] Top shape: 2 64 1 1 (128)
I0425 11:34:55.509261  5381 net.cpp:165] Memory required for data: 421521376
I0425 11:34:55.509269  5381 layer_factory.hpp:77] Creating layer layer_19_2_5/depthwise/scale
I0425 11:34:55.509277  5381 net.cpp:100] Creating Layer layer_19_2_5/depthwise/scale
I0425 11:34:55.509281  5381 net.cpp:434] layer_19_2_5/depthwise/scale <- layer_19_2_5/depthwise
I0425 11:34:55.509289  5381 net.cpp:395] layer_19_2_5/depthwise/scale -> layer_19_2_5/depthwise (in-place)
I0425 11:34:55.509330  5381 layer_factory.hpp:77] Creating layer layer_19_2_5/depthwise/scale
I0425 11:34:55.509423  5381 net.cpp:150] Setting up layer_19_2_5/depthwise/scale
I0425 11:34:55.509431  5381 net.cpp:157] Top shape: 2 64 1 1 (128)
I0425 11:34:55.509436  5381 net.cpp:165] Memory required for data: 421521888
I0425 11:34:55.509444  5381 layer_factory.hpp:77] Creating layer layer_19_2_5/depthwise/relu
I0425 11:34:55.509451  5381 net.cpp:100] Creating Layer layer_19_2_5/depthwise/relu
I0425 11:34:55.509456  5381 net.cpp:434] layer_19_2_5/depthwise/relu <- layer_19_2_5/depthwise
I0425 11:34:55.509464  5381 net.cpp:395] layer_19_2_5/depthwise/relu -> layer_19_2_5/depthwise (in-place)
I0425 11:34:55.509620  5381 net.cpp:150] Setting up layer_19_2_5/depthwise/relu
I0425 11:34:55.509629  5381 net.cpp:157] Top shape: 2 64 1 1 (128)
I0425 11:34:55.509635  5381 net.cpp:165] Memory required for data: 421522400
I0425 11:34:55.509640  5381 layer_factory.hpp:77] Creating layer layer_19_2_5
I0425 11:34:55.509650  5381 net.cpp:100] Creating Layer layer_19_2_5
I0425 11:34:55.509654  5381 net.cpp:434] layer_19_2_5 <- layer_19_2_5/depthwise
I0425 11:34:55.509662  5381 net.cpp:408] layer_19_2_5 -> layer_19_2_5
I0425 11:34:55.510851  5381 net.cpp:150] Setting up layer_19_2_5
I0425 11:34:55.510862  5381 net.cpp:157] Top shape: 2 128 1 1 (256)
I0425 11:34:55.510876  5381 net.cpp:165] Memory required for data: 421523424
I0425 11:34:55.510884  5381 layer_factory.hpp:77] Creating layer layer_19_2_5/bn
I0425 11:34:55.510907  5381 net.cpp:100] Creating Layer layer_19_2_5/bn
I0425 11:34:55.510913  5381 net.cpp:434] layer_19_2_5/bn <- layer_19_2_5
I0425 11:34:55.510920  5381 net.cpp:395] layer_19_2_5/bn -> layer_19_2_5 (in-place)
I0425 11:34:55.511101  5381 net.cpp:150] Setting up layer_19_2_5/bn
I0425 11:34:55.511108  5381 net.cpp:157] Top shape: 2 128 1 1 (256)
I0425 11:34:55.511121  5381 net.cpp:165] Memory required for data: 421524448
I0425 11:34:55.511127  5381 layer_factory.hpp:77] Creating layer layer_19_2_5/scale
I0425 11:34:55.511134  5381 net.cpp:100] Creating Layer layer_19_2_5/scale
I0425 11:34:55.511138  5381 net.cpp:434] layer_19_2_5/scale <- layer_19_2_5
I0425 11:34:55.511145  5381 net.cpp:395] layer_19_2_5/scale -> layer_19_2_5 (in-place)
I0425 11:34:55.511190  5381 layer_factory.hpp:77] Creating layer layer_19_2_5/scale
I0425 11:34:55.511301  5381 net.cpp:150] Setting up layer_19_2_5/scale
I0425 11:34:55.511307  5381 net.cpp:157] Top shape: 2 128 1 1 (256)
I0425 11:34:55.511322  5381 net.cpp:165] Memory required for data: 421525472
I0425 11:34:55.511330  5381 layer_factory.hpp:77] Creating layer layer_19_2_5/relu
I0425 11:34:55.511337  5381 net.cpp:100] Creating Layer layer_19_2_5/relu
I0425 11:34:55.511343  5381 net.cpp:434] layer_19_2_5/relu <- layer_19_2_5
I0425 11:34:55.511358  5381 net.cpp:395] layer_19_2_5/relu -> layer_19_2_5 (in-place)
I0425 11:34:55.511771  5381 net.cpp:150] Setting up layer_19_2_5/relu
I0425 11:34:55.511783  5381 net.cpp:157] Top shape: 2 128 1 1 (256)
I0425 11:34:55.511790  5381 net.cpp:165] Memory required for data: 421526496
I0425 11:34:55.511795  5381 layer_factory.hpp:77] Creating layer layer_19_2_5_layer_19_2_5/relu_0_split
I0425 11:34:55.511803  5381 net.cpp:100] Creating Layer layer_19_2_5_layer_19_2_5/relu_0_split
I0425 11:34:55.511808  5381 net.cpp:434] layer_19_2_5_layer_19_2_5/relu_0_split <- layer_19_2_5
I0425 11:34:55.511816  5381 net.cpp:408] layer_19_2_5_layer_19_2_5/relu_0_split -> layer_19_2_5_layer_19_2_5/relu_0_split_0
I0425 11:34:55.511826  5381 net.cpp:408] layer_19_2_5_layer_19_2_5/relu_0_split -> layer_19_2_5_layer_19_2_5/relu_0_split_1
I0425 11:34:55.511832  5381 net.cpp:408] layer_19_2_5_layer_19_2_5/relu_0_split -> layer_19_2_5_layer_19_2_5/relu_0_split_2
I0425 11:34:55.511888  5381 net.cpp:150] Setting up layer_19_2_5_layer_19_2_5/relu_0_split
I0425 11:34:55.511894  5381 net.cpp:157] Top shape: 2 128 1 1 (256)
I0425 11:34:55.511907  5381 net.cpp:157] Top shape: 2 128 1 1 (256)
I0425 11:34:55.511911  5381 net.cpp:157] Top shape: 2 128 1 1 (256)
I0425 11:34:55.511915  5381 net.cpp:165] Memory required for data: 421529568
I0425 11:34:55.511919  5381 layer_factory.hpp:77] Creating layer conv_13/expand_mbox_loc
I0425 11:34:55.511934  5381 net.cpp:100] Creating Layer conv_13/expand_mbox_loc
I0425 11:34:55.511940  5381 net.cpp:434] conv_13/expand_mbox_loc <- conv_13/expand_conv_13/expand/relu_0_split_1
I0425 11:34:55.511947  5381 net.cpp:408] conv_13/expand_mbox_loc -> conv_13/expand_mbox_loc
I0425 11:34:55.513655  5381 net.cpp:150] Setting up conv_13/expand_mbox_loc
I0425 11:34:55.513669  5381 net.cpp:157] Top shape: 2 12 19 19 (8664)
I0425 11:34:55.513675  5381 net.cpp:165] Memory required for data: 421564224
I0425 11:34:55.513684  5381 layer_factory.hpp:77] Creating layer conv_13/expand_mbox_loc_perm
I0425 11:34:55.513700  5381 net.cpp:100] Creating Layer conv_13/expand_mbox_loc_perm
I0425 11:34:55.513706  5381 net.cpp:434] conv_13/expand_mbox_loc_perm <- conv_13/expand_mbox_loc
I0425 11:34:55.513715  5381 net.cpp:408] conv_13/expand_mbox_loc_perm -> conv_13/expand_mbox_loc_perm
I0425 11:34:55.513803  5381 net.cpp:150] Setting up conv_13/expand_mbox_loc_perm
I0425 11:34:55.513811  5381 net.cpp:157] Top shape: 2 19 19 12 (8664)
I0425 11:34:55.513816  5381 net.cpp:165] Memory required for data: 421598880
I0425 11:34:55.513823  5381 layer_factory.hpp:77] Creating layer conv_13/expand_mbox_loc_flat
I0425 11:34:55.513830  5381 net.cpp:100] Creating Layer conv_13/expand_mbox_loc_flat
I0425 11:34:55.513835  5381 net.cpp:434] conv_13/expand_mbox_loc_flat <- conv_13/expand_mbox_loc_perm
I0425 11:34:55.513842  5381 net.cpp:408] conv_13/expand_mbox_loc_flat -> conv_13/expand_mbox_loc_flat
I0425 11:34:55.513880  5381 net.cpp:150] Setting up conv_13/expand_mbox_loc_flat
I0425 11:34:55.513888  5381 net.cpp:157] Top shape: 2 4332 (8664)
I0425 11:34:55.513893  5381 net.cpp:165] Memory required for data: 421633536
I0425 11:34:55.513900  5381 layer_factory.hpp:77] Creating layer conv_13/expand_mbox_conf
I0425 11:34:55.513907  5381 net.cpp:100] Creating Layer conv_13/expand_mbox_conf
I0425 11:34:55.513912  5381 net.cpp:434] conv_13/expand_mbox_conf <- conv_13/expand_conv_13/expand/relu_0_split_2
I0425 11:34:55.513921  5381 net.cpp:408] conv_13/expand_mbox_conf -> conv_13/expand_mbox_conf
I0425 11:34:55.516057  5381 net.cpp:150] Setting up conv_13/expand_mbox_conf
I0425 11:34:55.516070  5381 net.cpp:157] Top shape: 2 21 19 19 (15162)
I0425 11:34:55.516077  5381 net.cpp:165] Memory required for data: 421694184
I0425 11:34:55.516085  5381 layer_factory.hpp:77] Creating layer conv_13/expand_mbox_conf_perm
I0425 11:34:55.516093  5381 net.cpp:100] Creating Layer conv_13/expand_mbox_conf_perm
I0425 11:34:55.516099  5381 net.cpp:434] conv_13/expand_mbox_conf_perm <- conv_13/expand_mbox_conf
I0425 11:34:55.516108  5381 net.cpp:408] conv_13/expand_mbox_conf_perm -> conv_13/expand_mbox_conf_perm
I0425 11:34:55.516214  5381 net.cpp:150] Setting up conv_13/expand_mbox_conf_perm
I0425 11:34:55.516223  5381 net.cpp:157] Top shape: 2 19 19 21 (15162)
I0425 11:34:55.516228  5381 net.cpp:165] Memory required for data: 421754832
I0425 11:34:55.516234  5381 layer_factory.hpp:77] Creating layer conv_13/expand_mbox_conf_flat
I0425 11:34:55.516242  5381 net.cpp:100] Creating Layer conv_13/expand_mbox_conf_flat
I0425 11:34:55.516247  5381 net.cpp:434] conv_13/expand_mbox_conf_flat <- conv_13/expand_mbox_conf_perm
I0425 11:34:55.516252  5381 net.cpp:408] conv_13/expand_mbox_conf_flat -> conv_13/expand_mbox_conf_flat
I0425 11:34:55.516273  5381 net.cpp:150] Setting up conv_13/expand_mbox_conf_flat
I0425 11:34:55.516278  5381 net.cpp:157] Top shape: 2 7581 (15162)
I0425 11:34:55.516281  5381 net.cpp:165] Memory required for data: 421815480
I0425 11:34:55.516284  5381 layer_factory.hpp:77] Creating layer conv_13/expand_mbox_priorbox
I0425 11:34:55.516291  5381 net.cpp:100] Creating Layer conv_13/expand_mbox_priorbox
I0425 11:34:55.516296  5381 net.cpp:434] conv_13/expand_mbox_priorbox <- conv_13/expand_conv_13/expand/relu_0_split_3
I0425 11:34:55.516314  5381 net.cpp:434] conv_13/expand_mbox_priorbox <- data_data_0_split_1
I0425 11:34:55.516320  5381 net.cpp:408] conv_13/expand_mbox_priorbox -> conv_13/expand_mbox_priorbox
I0425 11:34:55.516355  5381 net.cpp:150] Setting up conv_13/expand_mbox_priorbox
I0425 11:34:55.516362  5381 net.cpp:157] Top shape: 1 2 4332 (8664)
I0425 11:34:55.516367  5381 net.cpp:165] Memory required for data: 421850136
I0425 11:34:55.516372  5381 layer_factory.hpp:77] Creating layer Conv_1_mbox_loc
I0425 11:34:55.516382  5381 net.cpp:100] Creating Layer Conv_1_mbox_loc
I0425 11:34:55.516387  5381 net.cpp:434] Conv_1_mbox_loc <- Conv_1_Conv_1/relu_0_split_1
I0425 11:34:55.516394  5381 net.cpp:408] Conv_1_mbox_loc -> Conv_1_mbox_loc
I0425 11:34:55.520655  5381 net.cpp:150] Setting up Conv_1_mbox_loc
I0425 11:34:55.520679  5381 net.cpp:157] Top shape: 2 24 10 10 (4800)
I0425 11:34:55.520685  5381 net.cpp:165] Memory required for data: 421869336
I0425 11:34:55.520696  5381 layer_factory.hpp:77] Creating layer Conv_1_mbox_loc_perm
I0425 11:34:55.520706  5381 net.cpp:100] Creating Layer Conv_1_mbox_loc_perm
I0425 11:34:55.520714  5381 net.cpp:434] Conv_1_mbox_loc_perm <- Conv_1_mbox_loc
I0425 11:34:55.520721  5381 net.cpp:408] Conv_1_mbox_loc_perm -> Conv_1_mbox_loc_perm
I0425 11:34:55.520819  5381 net.cpp:150] Setting up Conv_1_mbox_loc_perm
I0425 11:34:55.520828  5381 net.cpp:157] Top shape: 2 10 10 24 (4800)
I0425 11:34:55.520833  5381 net.cpp:165] Memory required for data: 421888536
I0425 11:34:55.520838  5381 layer_factory.hpp:77] Creating layer Conv_1_mbox_loc_flat
I0425 11:34:55.520846  5381 net.cpp:100] Creating Layer Conv_1_mbox_loc_flat
I0425 11:34:55.520851  5381 net.cpp:434] Conv_1_mbox_loc_flat <- Conv_1_mbox_loc_perm
I0425 11:34:55.520858  5381 net.cpp:408] Conv_1_mbox_loc_flat -> Conv_1_mbox_loc_flat
I0425 11:34:55.520880  5381 net.cpp:150] Setting up Conv_1_mbox_loc_flat
I0425 11:34:55.520885  5381 net.cpp:157] Top shape: 2 2400 (4800)
I0425 11:34:55.520889  5381 net.cpp:165] Memory required for data: 421907736
I0425 11:34:55.520892  5381 layer_factory.hpp:77] Creating layer Conv_1_mbox_conf
I0425 11:34:55.520902  5381 net.cpp:100] Creating Layer Conv_1_mbox_conf
I0425 11:34:55.520907  5381 net.cpp:434] Conv_1_mbox_conf <- Conv_1_Conv_1/relu_0_split_2
I0425 11:34:55.520915  5381 net.cpp:408] Conv_1_mbox_conf -> Conv_1_mbox_conf
I0425 11:34:55.527025  5381 net.cpp:150] Setting up Conv_1_mbox_conf
I0425 11:34:55.527045  5381 net.cpp:157] Top shape: 2 42 10 10 (8400)
I0425 11:34:55.527050  5381 net.cpp:165] Memory required for data: 421941336
I0425 11:34:55.527061  5381 layer_factory.hpp:77] Creating layer Conv_1_mbox_conf_perm
I0425 11:34:55.527071  5381 net.cpp:100] Creating Layer Conv_1_mbox_conf_perm
I0425 11:34:55.527077  5381 net.cpp:434] Conv_1_mbox_conf_perm <- Conv_1_mbox_conf
I0425 11:34:55.527086  5381 net.cpp:408] Conv_1_mbox_conf_perm -> Conv_1_mbox_conf_perm
I0425 11:34:55.527201  5381 net.cpp:150] Setting up Conv_1_mbox_conf_perm
I0425 11:34:55.527210  5381 net.cpp:157] Top shape: 2 10 10 42 (8400)
I0425 11:34:55.527215  5381 net.cpp:165] Memory required for data: 421974936
I0425 11:34:55.527220  5381 layer_factory.hpp:77] Creating layer Conv_1_mbox_conf_flat
I0425 11:34:55.527228  5381 net.cpp:100] Creating Layer Conv_1_mbox_conf_flat
I0425 11:34:55.527233  5381 net.cpp:434] Conv_1_mbox_conf_flat <- Conv_1_mbox_conf_perm
I0425 11:34:55.527240  5381 net.cpp:408] Conv_1_mbox_conf_flat -> Conv_1_mbox_conf_flat
I0425 11:34:55.527261  5381 net.cpp:150] Setting up Conv_1_mbox_conf_flat
I0425 11:34:55.527268  5381 net.cpp:157] Top shape: 2 4200 (8400)
I0425 11:34:55.527273  5381 net.cpp:165] Memory required for data: 422008536
I0425 11:34:55.527279  5381 layer_factory.hpp:77] Creating layer Conv_1_mbox_priorbox
I0425 11:34:55.527287  5381 net.cpp:100] Creating Layer Conv_1_mbox_priorbox
I0425 11:34:55.527292  5381 net.cpp:434] Conv_1_mbox_priorbox <- Conv_1_Conv_1/relu_0_split_3
I0425 11:34:55.527299  5381 net.cpp:434] Conv_1_mbox_priorbox <- data_data_0_split_2
I0425 11:34:55.527307  5381 net.cpp:408] Conv_1_mbox_priorbox -> Conv_1_mbox_priorbox
I0425 11:34:55.527333  5381 net.cpp:150] Setting up Conv_1_mbox_priorbox
I0425 11:34:55.527340  5381 net.cpp:157] Top shape: 1 2 2400 (4800)
I0425 11:34:55.527345  5381 net.cpp:165] Memory required for data: 422027736
I0425 11:34:55.527350  5381 layer_factory.hpp:77] Creating layer layer_19_2_2_mbox_loc
I0425 11:34:55.527360  5381 net.cpp:100] Creating Layer layer_19_2_2_mbox_loc
I0425 11:34:55.527367  5381 net.cpp:434] layer_19_2_2_mbox_loc <- layer_19_2_2_layer_19_2_2/relu_0_split_1
I0425 11:34:55.527375  5381 net.cpp:408] layer_19_2_2_mbox_loc -> layer_19_2_2_mbox_loc
I0425 11:34:55.530108  5381 net.cpp:150] Setting up layer_19_2_2_mbox_loc
I0425 11:34:55.530122  5381 net.cpp:157] Top shape: 2 24 5 5 (1200)
I0425 11:34:55.530129  5381 net.cpp:165] Memory required for data: 422032536
I0425 11:34:55.530138  5381 layer_factory.hpp:77] Creating layer layer_19_2_2_mbox_loc_perm
I0425 11:34:55.530146  5381 net.cpp:100] Creating Layer layer_19_2_2_mbox_loc_perm
I0425 11:34:55.530153  5381 net.cpp:434] layer_19_2_2_mbox_loc_perm <- layer_19_2_2_mbox_loc
I0425 11:34:55.530159  5381 net.cpp:408] layer_19_2_2_mbox_loc_perm -> layer_19_2_2_mbox_loc_perm
I0425 11:34:55.530256  5381 net.cpp:150] Setting up layer_19_2_2_mbox_loc_perm
I0425 11:34:55.530264  5381 net.cpp:157] Top shape: 2 5 5 24 (1200)
I0425 11:34:55.530268  5381 net.cpp:165] Memory required for data: 422037336
I0425 11:34:55.530274  5381 layer_factory.hpp:77] Creating layer layer_19_2_2_mbox_loc_flat
I0425 11:34:55.530282  5381 net.cpp:100] Creating Layer layer_19_2_2_mbox_loc_flat
I0425 11:34:55.530287  5381 net.cpp:434] layer_19_2_2_mbox_loc_flat <- layer_19_2_2_mbox_loc_perm
I0425 11:34:55.530293  5381 net.cpp:408] layer_19_2_2_mbox_loc_flat -> layer_19_2_2_mbox_loc_flat
I0425 11:34:55.530315  5381 net.cpp:150] Setting up layer_19_2_2_mbox_loc_flat
I0425 11:34:55.530323  5381 net.cpp:157] Top shape: 2 600 (1200)
I0425 11:34:55.530326  5381 net.cpp:165] Memory required for data: 422042136
I0425 11:34:55.530331  5381 layer_factory.hpp:77] Creating layer layer_19_2_2_mbox_conf
I0425 11:34:55.530340  5381 net.cpp:100] Creating Layer layer_19_2_2_mbox_conf
I0425 11:34:55.530345  5381 net.cpp:434] layer_19_2_2_mbox_conf <- layer_19_2_2_layer_19_2_2/relu_0_split_2
I0425 11:34:55.530352  5381 net.cpp:408] layer_19_2_2_mbox_conf -> layer_19_2_2_mbox_conf
I0425 11:34:55.534072  5381 net.cpp:150] Setting up layer_19_2_2_mbox_conf
I0425 11:34:55.534107  5381 net.cpp:157] Top shape: 2 42 5 5 (2100)
I0425 11:34:55.534113  5381 net.cpp:165] Memory required for data: 422050536
I0425 11:34:55.534126  5381 layer_factory.hpp:77] Creating layer layer_19_2_2_mbox_conf_perm
I0425 11:34:55.534138  5381 net.cpp:100] Creating Layer layer_19_2_2_mbox_conf_perm
I0425 11:34:55.534147  5381 net.cpp:434] layer_19_2_2_mbox_conf_perm <- layer_19_2_2_mbox_conf
I0425 11:34:55.534180  5381 net.cpp:408] layer_19_2_2_mbox_conf_perm -> layer_19_2_2_mbox_conf_perm
I0425 11:34:55.534291  5381 net.cpp:150] Setting up layer_19_2_2_mbox_conf_perm
I0425 11:34:55.534298  5381 net.cpp:157] Top shape: 2 5 5 42 (2100)
I0425 11:34:55.534304  5381 net.cpp:165] Memory required for data: 422058936
I0425 11:34:55.534309  5381 layer_factory.hpp:77] Creating layer layer_19_2_2_mbox_conf_flat
I0425 11:34:55.534318  5381 net.cpp:100] Creating Layer layer_19_2_2_mbox_conf_flat
I0425 11:34:55.534323  5381 net.cpp:434] layer_19_2_2_mbox_conf_flat <- layer_19_2_2_mbox_conf_perm
I0425 11:34:55.534332  5381 net.cpp:408] layer_19_2_2_mbox_conf_flat -> layer_19_2_2_mbox_conf_flat
I0425 11:34:55.534354  5381 net.cpp:150] Setting up layer_19_2_2_mbox_conf_flat
I0425 11:34:55.534363  5381 net.cpp:157] Top shape: 2 1050 (2100)
I0425 11:34:55.534368  5381 net.cpp:165] Memory required for data: 422067336
I0425 11:34:55.534373  5381 layer_factory.hpp:77] Creating layer layer_19_2_2_mbox_priorbox
I0425 11:34:55.534381  5381 net.cpp:100] Creating Layer layer_19_2_2_mbox_priorbox
I0425 11:34:55.534387  5381 net.cpp:434] layer_19_2_2_mbox_priorbox <- layer_19_2_2_layer_19_2_2/relu_0_split_3
I0425 11:34:55.534394  5381 net.cpp:434] layer_19_2_2_mbox_priorbox <- data_data_0_split_3
I0425 11:34:55.534402  5381 net.cpp:408] layer_19_2_2_mbox_priorbox -> layer_19_2_2_mbox_priorbox
I0425 11:34:55.534440  5381 net.cpp:150] Setting up layer_19_2_2_mbox_priorbox
I0425 11:34:55.534447  5381 net.cpp:157] Top shape: 1 2 600 (1200)
I0425 11:34:55.534453  5381 net.cpp:165] Memory required for data: 422072136
I0425 11:34:55.534458  5381 layer_factory.hpp:77] Creating layer layer_19_2_3_mbox_loc
I0425 11:34:55.534473  5381 net.cpp:100] Creating Layer layer_19_2_3_mbox_loc
I0425 11:34:55.534479  5381 net.cpp:434] layer_19_2_3_mbox_loc <- layer_19_2_3_layer_19_2_3/relu_0_split_1
I0425 11:34:55.534488  5381 net.cpp:408] layer_19_2_3_mbox_loc -> layer_19_2_3_mbox_loc
I0425 11:34:55.537096  5381 net.cpp:150] Setting up layer_19_2_3_mbox_loc
I0425 11:34:55.537120  5381 net.cpp:157] Top shape: 2 24 3 3 (432)
I0425 11:34:55.537127  5381 net.cpp:165] Memory required for data: 422073864
I0425 11:34:55.537138  5381 layer_factory.hpp:77] Creating layer layer_19_2_3_mbox_loc_perm
I0425 11:34:55.537155  5381 net.cpp:100] Creating Layer layer_19_2_3_mbox_loc_perm
I0425 11:34:55.537163  5381 net.cpp:434] layer_19_2_3_mbox_loc_perm <- layer_19_2_3_mbox_loc
I0425 11:34:55.537173  5381 net.cpp:408] layer_19_2_3_mbox_loc_perm -> layer_19_2_3_mbox_loc_perm
I0425 11:34:55.537267  5381 net.cpp:150] Setting up layer_19_2_3_mbox_loc_perm
I0425 11:34:55.537276  5381 net.cpp:157] Top shape: 2 3 3 24 (432)
I0425 11:34:55.537281  5381 net.cpp:165] Memory required for data: 422075592
I0425 11:34:55.537286  5381 layer_factory.hpp:77] Creating layer layer_19_2_3_mbox_loc_flat
I0425 11:34:55.537298  5381 net.cpp:100] Creating Layer layer_19_2_3_mbox_loc_flat
I0425 11:34:55.537304  5381 net.cpp:434] layer_19_2_3_mbox_loc_flat <- layer_19_2_3_mbox_loc_perm
I0425 11:34:55.537312  5381 net.cpp:408] layer_19_2_3_mbox_loc_flat -> layer_19_2_3_mbox_loc_flat
I0425 11:34:55.537341  5381 net.cpp:150] Setting up layer_19_2_3_mbox_loc_flat
I0425 11:34:55.537348  5381 net.cpp:157] Top shape: 2 216 (432)
I0425 11:34:55.537353  5381 net.cpp:165] Memory required for data: 422077320
I0425 11:34:55.537358  5381 layer_factory.hpp:77] Creating layer layer_19_2_3_mbox_conf
I0425 11:34:55.537369  5381 net.cpp:100] Creating Layer layer_19_2_3_mbox_conf
I0425 11:34:55.537374  5381 net.cpp:434] layer_19_2_3_mbox_conf <- layer_19_2_3_layer_19_2_3/relu_0_split_2
I0425 11:34:55.537384  5381 net.cpp:408] layer_19_2_3_mbox_conf -> layer_19_2_3_mbox_conf
I0425 11:34:55.539311  5381 net.cpp:150] Setting up layer_19_2_3_mbox_conf
I0425 11:34:55.539324  5381 net.cpp:157] Top shape: 2 42 3 3 (756)
I0425 11:34:55.539340  5381 net.cpp:165] Memory required for data: 422080344
I0425 11:34:55.539347  5381 layer_factory.hpp:77] Creating layer layer_19_2_3_mbox_conf_perm
I0425 11:34:55.539355  5381 net.cpp:100] Creating Layer layer_19_2_3_mbox_conf_perm
I0425 11:34:55.539388  5381 net.cpp:434] layer_19_2_3_mbox_conf_perm <- layer_19_2_3_mbox_conf
I0425 11:34:55.539407  5381 net.cpp:408] layer_19_2_3_mbox_conf_perm -> layer_19_2_3_mbox_conf_perm
I0425 11:34:55.539495  5381 net.cpp:150] Setting up layer_19_2_3_mbox_conf_perm
I0425 11:34:55.539503  5381 net.cpp:157] Top shape: 2 3 3 42 (756)
I0425 11:34:55.539510  5381 net.cpp:165] Memory required for data: 422083368
I0425 11:34:55.539515  5381 layer_factory.hpp:77] Creating layer layer_19_2_3_mbox_conf_flat
I0425 11:34:55.539521  5381 net.cpp:100] Creating Layer layer_19_2_3_mbox_conf_flat
I0425 11:34:55.539527  5381 net.cpp:434] layer_19_2_3_mbox_conf_flat <- layer_19_2_3_mbox_conf_perm
I0425 11:34:55.539535  5381 net.cpp:408] layer_19_2_3_mbox_conf_flat -> layer_19_2_3_mbox_conf_flat
I0425 11:34:55.539556  5381 net.cpp:150] Setting up layer_19_2_3_mbox_conf_flat
I0425 11:34:55.539563  5381 net.cpp:157] Top shape: 2 378 (756)
I0425 11:34:55.539568  5381 net.cpp:165] Memory required for data: 422086392
I0425 11:34:55.539574  5381 layer_factory.hpp:77] Creating layer layer_19_2_3_mbox_priorbox
I0425 11:34:55.539582  5381 net.cpp:100] Creating Layer layer_19_2_3_mbox_priorbox
I0425 11:34:55.539587  5381 net.cpp:434] layer_19_2_3_mbox_priorbox <- layer_19_2_3_layer_19_2_3/relu_0_split_3
I0425 11:34:55.539594  5381 net.cpp:434] layer_19_2_3_mbox_priorbox <- data_data_0_split_4
I0425 11:34:55.539618  5381 net.cpp:408] layer_19_2_3_mbox_priorbox -> layer_19_2_3_mbox_priorbox
I0425 11:34:55.539644  5381 net.cpp:150] Setting up layer_19_2_3_mbox_priorbox
I0425 11:34:55.539649  5381 net.cpp:157] Top shape: 1 2 216 (432)
I0425 11:34:55.539652  5381 net.cpp:165] Memory required for data: 422088120
I0425 11:34:55.539656  5381 layer_factory.hpp:77] Creating layer layer_19_2_4_mbox_loc
I0425 11:34:55.539664  5381 net.cpp:100] Creating Layer layer_19_2_4_mbox_loc
I0425 11:34:55.539667  5381 net.cpp:434] layer_19_2_4_mbox_loc <- layer_19_2_4_layer_19_2_4/relu_0_split_1
I0425 11:34:55.539674  5381 net.cpp:408] layer_19_2_4_mbox_loc -> layer_19_2_4_mbox_loc
I0425 11:34:55.541477  5381 net.cpp:150] Setting up layer_19_2_4_mbox_loc
I0425 11:34:55.541491  5381 net.cpp:157] Top shape: 2 24 2 2 (192)
I0425 11:34:55.541496  5381 net.cpp:165] Memory required for data: 422088888
I0425 11:34:55.541505  5381 layer_factory.hpp:77] Creating layer layer_19_2_4_mbox_loc_perm
I0425 11:34:55.541513  5381 net.cpp:100] Creating Layer layer_19_2_4_mbox_loc_perm
I0425 11:34:55.541519  5381 net.cpp:434] layer_19_2_4_mbox_loc_perm <- layer_19_2_4_mbox_loc
I0425 11:34:55.541527  5381 net.cpp:408] layer_19_2_4_mbox_loc_perm -> layer_19_2_4_mbox_loc_perm
I0425 11:34:55.541620  5381 net.cpp:150] Setting up layer_19_2_4_mbox_loc_perm
I0425 11:34:55.541628  5381 net.cpp:157] Top shape: 2 2 2 24 (192)
I0425 11:34:55.541633  5381 net.cpp:165] Memory required for data: 422089656
I0425 11:34:55.541638  5381 layer_factory.hpp:77] Creating layer layer_19_2_4_mbox_loc_flat
I0425 11:34:55.541646  5381 net.cpp:100] Creating Layer layer_19_2_4_mbox_loc_flat
I0425 11:34:55.541651  5381 net.cpp:434] layer_19_2_4_mbox_loc_flat <- layer_19_2_4_mbox_loc_perm
I0425 11:34:55.541658  5381 net.cpp:408] layer_19_2_4_mbox_loc_flat -> layer_19_2_4_mbox_loc_flat
I0425 11:34:55.541682  5381 net.cpp:150] Setting up layer_19_2_4_mbox_loc_flat
I0425 11:34:55.541687  5381 net.cpp:157] Top shape: 2 96 (192)
I0425 11:34:55.541692  5381 net.cpp:165] Memory required for data: 422090424
I0425 11:34:55.541698  5381 layer_factory.hpp:77] Creating layer layer_19_2_4_mbox_conf
I0425 11:34:55.541712  5381 net.cpp:100] Creating Layer layer_19_2_4_mbox_conf
I0425 11:34:55.541718  5381 net.cpp:434] layer_19_2_4_mbox_conf <- layer_19_2_4_layer_19_2_4/relu_0_split_2
I0425 11:34:55.541725  5381 net.cpp:408] layer_19_2_4_mbox_conf -> layer_19_2_4_mbox_conf
I0425 11:34:55.543884  5381 net.cpp:150] Setting up layer_19_2_4_mbox_conf
I0425 11:34:55.543898  5381 net.cpp:157] Top shape: 2 42 2 2 (336)
I0425 11:34:55.543905  5381 net.cpp:165] Memory required for data: 422091768
I0425 11:34:55.543926  5381 layer_factory.hpp:77] Creating layer layer_19_2_4_mbox_conf_perm
I0425 11:34:55.543934  5381 net.cpp:100] Creating Layer layer_19_2_4_mbox_conf_perm
I0425 11:34:55.543941  5381 net.cpp:434] layer_19_2_4_mbox_conf_perm <- layer_19_2_4_mbox_conf
I0425 11:34:55.543947  5381 net.cpp:408] layer_19_2_4_mbox_conf_perm -> layer_19_2_4_mbox_conf_perm
I0425 11:34:55.544050  5381 net.cpp:150] Setting up layer_19_2_4_mbox_conf_perm
I0425 11:34:55.544059  5381 net.cpp:157] Top shape: 2 2 2 42 (336)
I0425 11:34:55.544064  5381 net.cpp:165] Memory required for data: 422093112
I0425 11:34:55.544070  5381 layer_factory.hpp:77] Creating layer layer_19_2_4_mbox_conf_flat
I0425 11:34:55.544076  5381 net.cpp:100] Creating Layer layer_19_2_4_mbox_conf_flat
I0425 11:34:55.544081  5381 net.cpp:434] layer_19_2_4_mbox_conf_flat <- layer_19_2_4_mbox_conf_perm
I0425 11:34:55.544088  5381 net.cpp:408] layer_19_2_4_mbox_conf_flat -> layer_19_2_4_mbox_conf_flat
I0425 11:34:55.544111  5381 net.cpp:150] Setting up layer_19_2_4_mbox_conf_flat
I0425 11:34:55.544117  5381 net.cpp:157] Top shape: 2 168 (336)
I0425 11:34:55.544122  5381 net.cpp:165] Memory required for data: 422094456
I0425 11:34:55.544127  5381 layer_factory.hpp:77] Creating layer layer_19_2_4_mbox_priorbox
I0425 11:34:55.544136  5381 net.cpp:100] Creating Layer layer_19_2_4_mbox_priorbox
I0425 11:34:55.544140  5381 net.cpp:434] layer_19_2_4_mbox_priorbox <- layer_19_2_4_layer_19_2_4/relu_0_split_3
I0425 11:34:55.544147  5381 net.cpp:434] layer_19_2_4_mbox_priorbox <- data_data_0_split_5
I0425 11:34:55.544154  5381 net.cpp:408] layer_19_2_4_mbox_priorbox -> layer_19_2_4_mbox_priorbox
I0425 11:34:55.544178  5381 net.cpp:150] Setting up layer_19_2_4_mbox_priorbox
I0425 11:34:55.544185  5381 net.cpp:157] Top shape: 1 2 96 (192)
I0425 11:34:55.544189  5381 net.cpp:165] Memory required for data: 422095224
I0425 11:34:55.544195  5381 layer_factory.hpp:77] Creating layer layer_19_2_5_mbox_loc
I0425 11:34:55.544204  5381 net.cpp:100] Creating Layer layer_19_2_5_mbox_loc
I0425 11:34:55.544209  5381 net.cpp:434] layer_19_2_5_mbox_loc <- layer_19_2_5_layer_19_2_5/relu_0_split_0
I0425 11:34:55.544216  5381 net.cpp:408] layer_19_2_5_mbox_loc -> layer_19_2_5_mbox_loc
I0425 11:34:55.545600  5381 net.cpp:150] Setting up layer_19_2_5_mbox_loc
I0425 11:34:55.545614  5381 net.cpp:157] Top shape: 2 24 1 1 (48)
I0425 11:34:55.545619  5381 net.cpp:165] Memory required for data: 422095416
I0425 11:34:55.545629  5381 layer_factory.hpp:77] Creating layer layer_19_2_5_mbox_loc_perm
I0425 11:34:55.545636  5381 net.cpp:100] Creating Layer layer_19_2_5_mbox_loc_perm
I0425 11:34:55.545641  5381 net.cpp:434] layer_19_2_5_mbox_loc_perm <- layer_19_2_5_mbox_loc
I0425 11:34:55.545650  5381 net.cpp:408] layer_19_2_5_mbox_loc_perm -> layer_19_2_5_mbox_loc_perm
I0425 11:34:55.545745  5381 net.cpp:150] Setting up layer_19_2_5_mbox_loc_perm
I0425 11:34:55.545754  5381 net.cpp:157] Top shape: 2 1 1 24 (48)
I0425 11:34:55.545759  5381 net.cpp:165] Memory required for data: 422095608
I0425 11:34:55.545765  5381 layer_factory.hpp:77] Creating layer layer_19_2_5_mbox_loc_flat
I0425 11:34:55.545773  5381 net.cpp:100] Creating Layer layer_19_2_5_mbox_loc_flat
I0425 11:34:55.545778  5381 net.cpp:434] layer_19_2_5_mbox_loc_flat <- layer_19_2_5_mbox_loc_perm
I0425 11:34:55.545785  5381 net.cpp:408] layer_19_2_5_mbox_loc_flat -> layer_19_2_5_mbox_loc_flat
I0425 11:34:55.545809  5381 net.cpp:150] Setting up layer_19_2_5_mbox_loc_flat
I0425 11:34:55.545814  5381 net.cpp:157] Top shape: 2 24 (48)
I0425 11:34:55.545819  5381 net.cpp:165] Memory required for data: 422095800
I0425 11:34:55.545822  5381 layer_factory.hpp:77] Creating layer layer_19_2_5_mbox_conf
I0425 11:34:55.545830  5381 net.cpp:100] Creating Layer layer_19_2_5_mbox_conf
I0425 11:34:55.545835  5381 net.cpp:434] layer_19_2_5_mbox_conf <- layer_19_2_5_layer_19_2_5/relu_0_split_1
I0425 11:34:55.545843  5381 net.cpp:408] layer_19_2_5_mbox_conf -> layer_19_2_5_mbox_conf
I0425 11:34:55.547400  5381 net.cpp:150] Setting up layer_19_2_5_mbox_conf
I0425 11:34:55.547420  5381 net.cpp:157] Top shape: 2 42 1 1 (84)
I0425 11:34:55.547425  5381 net.cpp:165] Memory required for data: 422096136
I0425 11:34:55.547431  5381 layer_factory.hpp:77] Creating layer layer_19_2_5_mbox_conf_perm
I0425 11:34:55.547438  5381 net.cpp:100] Creating Layer layer_19_2_5_mbox_conf_perm
I0425 11:34:55.547444  5381 net.cpp:434] layer_19_2_5_mbox_conf_perm <- layer_19_2_5_mbox_conf
I0425 11:34:55.547453  5381 net.cpp:408] layer_19_2_5_mbox_conf_perm -> layer_19_2_5_mbox_conf_perm
I0425 11:34:55.547539  5381 net.cpp:150] Setting up layer_19_2_5_mbox_conf_perm
I0425 11:34:55.547547  5381 net.cpp:157] Top shape: 2 1 1 42 (84)
I0425 11:34:55.547552  5381 net.cpp:165] Memory required for data: 422096472
I0425 11:34:55.547559  5381 layer_factory.hpp:77] Creating layer layer_19_2_5_mbox_conf_flat
I0425 11:34:55.547565  5381 net.cpp:100] Creating Layer layer_19_2_5_mbox_conf_flat
I0425 11:34:55.547570  5381 net.cpp:434] layer_19_2_5_mbox_conf_flat <- layer_19_2_5_mbox_conf_perm
I0425 11:34:55.547576  5381 net.cpp:408] layer_19_2_5_mbox_conf_flat -> layer_19_2_5_mbox_conf_flat
I0425 11:34:55.547598  5381 net.cpp:150] Setting up layer_19_2_5_mbox_conf_flat
I0425 11:34:55.547605  5381 net.cpp:157] Top shape: 2 42 (84)
I0425 11:34:55.547610  5381 net.cpp:165] Memory required for data: 422096808
I0425 11:34:55.547617  5381 layer_factory.hpp:77] Creating layer layer_19_2_5_mbox_priorbox
I0425 11:34:55.547624  5381 net.cpp:100] Creating Layer layer_19_2_5_mbox_priorbox
I0425 11:34:55.547629  5381 net.cpp:434] layer_19_2_5_mbox_priorbox <- layer_19_2_5_layer_19_2_5/relu_0_split_2
I0425 11:34:55.547636  5381 net.cpp:434] layer_19_2_5_mbox_priorbox <- data_data_0_split_6
I0425 11:34:55.547643  5381 net.cpp:408] layer_19_2_5_mbox_priorbox -> layer_19_2_5_mbox_priorbox
I0425 11:34:55.547667  5381 net.cpp:150] Setting up layer_19_2_5_mbox_priorbox
I0425 11:34:55.547675  5381 net.cpp:157] Top shape: 1 2 24 (48)
I0425 11:34:55.547680  5381 net.cpp:165] Memory required for data: 422097000
I0425 11:34:55.547685  5381 layer_factory.hpp:77] Creating layer mbox_loc
I0425 11:34:55.547693  5381 net.cpp:100] Creating Layer mbox_loc
I0425 11:34:55.547699  5381 net.cpp:434] mbox_loc <- conv_13/expand_mbox_loc_flat
I0425 11:34:55.547705  5381 net.cpp:434] mbox_loc <- Conv_1_mbox_loc_flat
I0425 11:34:55.547713  5381 net.cpp:434] mbox_loc <- layer_19_2_2_mbox_loc_flat
I0425 11:34:55.547739  5381 net.cpp:434] mbox_loc <- layer_19_2_3_mbox_loc_flat
I0425 11:34:55.547744  5381 net.cpp:434] mbox_loc <- layer_19_2_4_mbox_loc_flat
I0425 11:34:55.547749  5381 net.cpp:434] mbox_loc <- layer_19_2_5_mbox_loc_flat
I0425 11:34:55.547765  5381 net.cpp:408] mbox_loc -> mbox_loc
I0425 11:34:55.547797  5381 net.cpp:150] Setting up mbox_loc
I0425 11:34:55.547806  5381 net.cpp:157] Top shape: 2 7668 (15336)
I0425 11:34:55.547811  5381 net.cpp:165] Memory required for data: 422158344
I0425 11:34:55.547816  5381 layer_factory.hpp:77] Creating layer mbox_conf
I0425 11:34:55.547822  5381 net.cpp:100] Creating Layer mbox_conf
I0425 11:34:55.547828  5381 net.cpp:434] mbox_conf <- conv_13/expand_mbox_conf_flat
I0425 11:34:55.547833  5381 net.cpp:434] mbox_conf <- Conv_1_mbox_conf_flat
I0425 11:34:55.547839  5381 net.cpp:434] mbox_conf <- layer_19_2_2_mbox_conf_flat
I0425 11:34:55.547844  5381 net.cpp:434] mbox_conf <- layer_19_2_3_mbox_conf_flat
I0425 11:34:55.547849  5381 net.cpp:434] mbox_conf <- layer_19_2_4_mbox_conf_flat
I0425 11:34:55.547865  5381 net.cpp:434] mbox_conf <- layer_19_2_5_mbox_conf_flat
I0425 11:34:55.547873  5381 net.cpp:408] mbox_conf -> mbox_conf
I0425 11:34:55.547895  5381 net.cpp:150] Setting up mbox_conf
I0425 11:34:55.547904  5381 net.cpp:157] Top shape: 2 13419 (26838)
I0425 11:34:55.547909  5381 net.cpp:165] Memory required for data: 422265696
I0425 11:34:55.547914  5381 layer_factory.hpp:77] Creating layer mbox_priorbox
I0425 11:34:55.547920  5381 net.cpp:100] Creating Layer mbox_priorbox
I0425 11:34:55.547925  5381 net.cpp:434] mbox_priorbox <- conv_13/expand_mbox_priorbox
I0425 11:34:55.547931  5381 net.cpp:434] mbox_priorbox <- Conv_1_mbox_priorbox
I0425 11:34:55.547945  5381 net.cpp:434] mbox_priorbox <- layer_19_2_2_mbox_priorbox
I0425 11:34:55.547951  5381 net.cpp:434] mbox_priorbox <- layer_19_2_3_mbox_priorbox
I0425 11:34:55.547957  5381 net.cpp:434] mbox_priorbox <- layer_19_2_4_mbox_priorbox
I0425 11:34:55.547963  5381 net.cpp:434] mbox_priorbox <- layer_19_2_5_mbox_priorbox
I0425 11:34:55.547971  5381 net.cpp:408] mbox_priorbox -> mbox_priorbox
I0425 11:34:55.547994  5381 net.cpp:150] Setting up mbox_priorbox
I0425 11:34:55.548012  5381 net.cpp:157] Top shape: 1 2 7668 (15336)
I0425 11:34:55.548025  5381 net.cpp:165] Memory required for data: 422327040
I0425 11:34:55.548032  5381 layer_factory.hpp:77] Creating layer mbox_conf_reshape
I0425 11:34:55.548040  5381 net.cpp:100] Creating Layer mbox_conf_reshape
I0425 11:34:55.548044  5381 net.cpp:434] mbox_conf_reshape <- mbox_conf
I0425 11:34:55.548051  5381 net.cpp:408] mbox_conf_reshape -> mbox_conf_reshape
I0425 11:34:55.548082  5381 net.cpp:150] Setting up mbox_conf_reshape
I0425 11:34:55.548090  5381 net.cpp:157] Top shape: 2 1917 7 (26838)
I0425 11:34:55.548095  5381 net.cpp:165] Memory required for data: 422434392
I0425 11:34:55.548100  5381 layer_factory.hpp:77] Creating layer mbox_conf_softmax
I0425 11:34:55.548108  5381 net.cpp:100] Creating Layer mbox_conf_softmax
I0425 11:34:55.548113  5381 net.cpp:434] mbox_conf_softmax <- mbox_conf_reshape
I0425 11:34:55.548120  5381 net.cpp:408] mbox_conf_softmax -> mbox_conf_softmax
I0425 11:34:55.548575  5381 net.cpp:150] Setting up mbox_conf_softmax
I0425 11:34:55.548588  5381 net.cpp:157] Top shape: 2 1917 7 (26838)
I0425 11:34:55.548594  5381 net.cpp:165] Memory required for data: 422541744
I0425 11:34:55.548600  5381 layer_factory.hpp:77] Creating layer mbox_conf_flatten
I0425 11:34:55.548609  5381 net.cpp:100] Creating Layer mbox_conf_flatten
I0425 11:34:55.548614  5381 net.cpp:434] mbox_conf_flatten <- mbox_conf_softmax
I0425 11:34:55.548620  5381 net.cpp:408] mbox_conf_flatten -> mbox_conf_flatten
I0425 11:34:55.548645  5381 net.cpp:150] Setting up mbox_conf_flatten
I0425 11:34:55.548652  5381 net.cpp:157] Top shape: 2 13419 (26838)
I0425 11:34:55.548657  5381 net.cpp:165] Memory required for data: 422649096
I0425 11:34:55.548663  5381 layer_factory.hpp:77] Creating layer detection_out
I0425 11:34:55.548681  5381 net.cpp:100] Creating Layer detection_out
I0425 11:34:55.548686  5381 net.cpp:434] detection_out <- mbox_loc
I0425 11:34:55.548691  5381 net.cpp:434] detection_out <- mbox_conf_flatten
I0425 11:34:55.548698  5381 net.cpp:434] detection_out <- mbox_priorbox
I0425 11:34:55.548705  5381 net.cpp:408] detection_out -> detection_out
I0425 11:34:55.548756  5381 net.cpp:150] Setting up detection_out
I0425 11:34:55.548764  5381 net.cpp:157] Top shape: 1 1 1 7 (7)
I0425 11:34:55.548769  5381 net.cpp:165] Memory required for data: 422649124
I0425 11:34:55.548775  5381 layer_factory.hpp:77] Creating layer detection_eval
I0425 11:34:55.548790  5381 net.cpp:100] Creating Layer detection_eval
I0425 11:34:55.548795  5381 net.cpp:434] detection_eval <- detection_out
I0425 11:34:55.548801  5381 net.cpp:434] detection_eval <- label
I0425 11:34:55.548810  5381 net.cpp:408] detection_eval -> detection_eval
I0425 11:34:55.548847  5381 net.cpp:150] Setting up detection_eval
I0425 11:34:55.548854  5381 net.cpp:157] Top shape: 1 1 7 5 (35)
I0425 11:34:55.548859  5381 net.cpp:165] Memory required for data: 422649264
I0425 11:34:55.548866  5381 net.cpp:228] detection_eval does not need backward computation.
I0425 11:34:55.548871  5381 net.cpp:228] detection_out does not need backward computation.
I0425 11:34:55.548885  5381 net.cpp:228] mbox_conf_flatten does not need backward computation.
I0425 11:34:55.548890  5381 net.cpp:228] mbox_conf_softmax does not need backward computation.
…
