…
    batch_sampler {
      sampler {
        min_scale: 0.3
        max_scale: 1
        min_aspect_ratio: 0.5
        max_aspect_ratio: 2
      }
      sample_constraint {
        min_jaccard_overlap: 0.9
      }
      max_sample: 1
      max_trials: 50
    }
    batch_sampler {
      sampler {
        min_scale: 0.3
        max_scale: 1
        min_aspect_ratio: 0.5
        max_aspect_ratio: 2
      }
      sample_constraint {
        max_jaccard_overlap: 1
      }
      max_sample: 1
      max_trials: 50
    }
    label_map_file: "labelmap.prototxt"
  }
}
layer {
  name: "Conv"
  type: "Convolution"
  bottom: "data"
  top: "Conv"
  param {
    lr_mult: 0.1
    decay_mult: 0.1
  }
  convolution_param {
    num_output: 32
    bias_term: false
    pad: 1
    kernel_size: 3
    stride: 2
    weight_filler {
      type: "msra"
    }
  }
}
layer {
  name: "Conv/bn"
  type: "BatchNorm"
  bottom: "Conv"
  top: "Conv"
}
layer {
  name: "Conv/scale"
  type: "Scale"
  bottom: "Conv"
  top: "Conv"
  param {
    lr_mult: 0.1
    decay_mult: 0
  }
  param {
    lr_mult: 0.2
    decay_mult: 0
  }
  scale_param {
    filler {
      value: 1
    }
    bias_term: true
    bias_filler {
      value: 0
    }
  }
}
layer {
  name: "Conv/relu"
  type: "ReLU"
  bottom: "Conv"
  top: "Conv"
}
layer {
  name: "conv/depthwise"
  type: "Convolution"
  bottom: "Conv"
  top: "conv/depthwise"
  param {
    lr_mult: 0.1
    decay_mult: 0.1
  }
  convolution_param {
    num_output: 32
    bias_term: false
    pad: 1
    kernel_size: 3
    group: 32
    weight_filler {
      type: "msra"
    }
    engine: CAFFE
  }
}
layer {
  name: "conv/depthwise/bn"
  type: "BatchNorm"
  bottom: "conv/depthwise"
  top: "conv/depthwise"
}
layer {
  name: "conv/depthwise/scale"
  type: "Scale"
  bottom: "conv/depthwise"
  top: "conv/depthwise"
  param {
    lr_mult: 0.1
    decay_mult: 0
  }
  param {
    lr_mult: 0.2
    decay_mult: 0
  }
  scale_param {
    filler {
      value: 1
    }
    bias_term: true
    bias_filler {
      value: 0
    }
  }
}
layer {
  name: "conv/depthwise/relu"
  type: "ReLU"
  bottom: "conv/depthwise"
  top: "conv/depthwise"
}
layer {
  name: "conv/project"
  type: "Convolution"
  bottom: "conv/depthwise"
  top: "conv/project"
  param {
    lr_mult: 0.1
    decay_mult: 0.1
  }
  convolution_param {
    num_output: 16
    bias_term: false
    kernel_size: 1
    weight_filler {
      type: "msra"
    }
  }
}
layer {
  name: "conv/project/bn"
  type: "BatchNorm"
  bottom: "conv/project"
  top: "conv/project"
}
layer {
  name: "conv/project/scale"
  type: "Scale"
  bottom: "conv/project"
  top: "conv/project"
  param {
    lr_mult: 0.1
    decay_mult: 0
  }
  param {
    lr_mult: 0.2
    decay_mult: 0
  }
  scale_param {
    filler {
      value: 1
    }
    bias_term: true
    bias_filler {
      value: 0
    }
  }
}
layer {
  name: "conv_1/expand"
  type: "Convolution"
  bottom: "conv/project"
  top: "conv_1/expand"
  param {
    lr_mult: 0.1
    decay_mult: 0.1
  }
  convolution_param {
    num_output: 96
    bias_term: false
    kernel_size: 1
    weight_filler {
      type: "msra"
    }
  }
}
layer {
  name: "conv_1/expand/bn"
  type: "BatchNorm"
  bottom: "conv_1/expand"
  top: "conv_1/expand"
}
layer {
  name: "conv_1/expand/scale"
  type: "Scale"
  bottom: "conv_1/expand"
  top: "conv_1/expand"
  param {
    lr_mult: 0.1
    decay_mult: 0
  }
  param {
    lr_mult: 0.2
    decay_mult: 0
  }
  scale_param {
    filler {
      value: 1
    }
    bias_term: true
    bias_filler {
      value: 0
    }
  }
}
layer {
  name: "conv_1/expand/relu"
  type: "ReLU"
  bottom: "conv_1/expand"
  top: "conv_1/expand"
}
layer {
  name: "conv_1/depthwise"
  type: "Convolution"
  bottom: "conv_1/expand"
  top: "conv_1/depthwise"
  param {
    lr_mult: 0.1
    decay_mult: 0.1
  }
  convolution_param {
    num_output: 96
    bias_term: false
    pad: 1
    kernel_size: 3
    group: 96
    stride: 2
    weight_filler {
      type: "msra"
    }
    engine: CAFFE
  }
}
layer {
  name: "conv_1/depthwise/bn"
  type: "BatchNorm"
  bottom: "conv_1/depthwise"
  top: "conv_1/depthwise"
}
layer {
  name: "conv_1/depthwise/scale"
  type: "Scale"
  bottom: "conv_1/depthwise"
  top: "conv_1/depthwise"
  param {
    lr_mult: 0.1
    decay_mult: 0
  }
  param {
    lr_mult: 0.2
    decay_mult: 0
  }
  scale_param {
    filler {
      value: 1
    }
    bias_term: true
    bias_filler {
      value: 0
    }
  }
}
layer {
  name: "conv_1/depthwise/relu"
  type: "ReLU"
  bottom: "conv_1/depthwise"
  top: "conv_1/depthwise"
}
layer {
  name: "conv_1/project"
  type: "Convolution"
  bottom: "conv_1/depthwise"
  top: "conv_1/project"
  param {
    lr_mult: 0.1
    decay_mult: 0.1
  }
  convolution_param {
    num_output: 24
    bias_term: false
    kernel_size: 1
    weight_filler {
      type: "msra"
    }
  }
}
layer {
  name: "conv_1/project/bn"
  type: "BatchNorm"
  bottom: "conv_1/project"
  top: "conv_1/project"
}
layer {
  name: "conv_1/project/scale"
  type: "Scale"
  bottom: "conv_1/project"
  top: "conv_1/project"
  param {
    lr_mult: 0.1
    decay_mult: 0
  }
  param {
    lr_mult: 0.2
    decay_mult: 0
  }
  scale_param {
    filler {
      value: 1
    }
    bias_term: true
    bias_filler {
      value: 0
    }
  }
}
layer {
  name: "conv_2/expand"
  type: "Convolution"
  bottom: "conv_1/project"
  top: "conv_2/expand"
  param {
    lr_mult: 0.1
    decay_mult: 0.1
  }
  convolution_param {
    num_output: 144
    bias_term: false
    kernel_size: 1
    weight_filler {
      type: "msra"
    }
  }
}
layer {
  name: "conv_2/expand/bn"
  type: "BatchNorm"
  bottom: "conv_2/expand"
  top: "conv_2/expand"
}
layer {
  name: "conv_2/expand/scale"
  type: "Scale"
  bottom: "conv_2/expand"
  top: "conv_2/expand"
  param {
    lr_mult: 0.1
    decay_mult: 0
  }
  param {
    lr_mult: 0.2
    decay_mult: 0
  }
  scale_param {
    filler {
      value: 1
    }
    bias_term: true
    bias_filler {
      value: 0
    }
  }
}
layer {
  name: "conv_2/expand/relu"
  type: "ReLU"
  bottom: "conv_2/expand"
  top: "conv_2/expand"
}
layer {
  name: "conv_2/depthwise"
  type: "Convolution"
  bottom: "conv_2/expand"
  top: "conv_2/depthwise"
  param {
    lr_mult: 0.1
    decay_mult: 0.1
  }
  convolution_param {
    num_output: 144
    bias_term: false
    pad: 1
    kernel_size: 3
    group: 144
    weight_filler {
      type: "msra"
    }
    engine: CAFFE
  }
}
layer {
  name: "conv_2/depthwise/bn"
  type: "BatchNorm"
  bottom: "conv_2/depthwise"
  top: "conv_2/depthwise"
}
layer {
  name: "conv_2/depthwise/scale"
  type: "Scale"
  bottom: "conv_2/depthwise"
  top: "conv_2/depthwise"
  param {
    lr_mult: 0.1
    decay_mult: 0
  }
  param {
    lr_mult: 0.2
    decay_mult: 0
  }
  scale_param {
    filler {
      value: 1
    }
    bias_term: true
    bias_filler {
      value: 0
    }
  }
}
layer {
  name: "conv_2/depthwise/relu"
  type: "ReLU"
  bottom: "conv_2/depthwise"
  top: "conv_2/depthwise"
}
layer {
  name: "conv_2/project"
  type: "Convolution"
  bottom: "conv_2/depthwise"
  top: "conv_2/project"
  param {
    lr_mult: 0.1
    decay_mult: 0.1
  }
  convolution_param {
    num_output: 24
    bias_term: false
    kernel_size: 1
    weight_filler {
      type: "msra"
    }
  }
}
layer {
  name: "conv_2/project/bn"
  type: "BatchNorm"
  bottom: "conv_2/project"
  top: "conv_2/project"
}
layer {
  name: "conv_2/project/scale"
  type: "Scale"
  bottom: "conv_2/project"
  top: "conv_2/project"
  param {
    lr_mult: 0.1
    decay_mult: 0
  }
  param {
    lr_mult: 0.2
    decay_mult: 0
  }
  scale_param {
    filler {
      value: 1
    }
    bias_term: true
    bias_filler {
      value: 0
    }
  }
}
layer {
  name: "conv_2project/sum"
  type: "Eltwise"
  bottom: "conv_1/project"
  bottom: "conv_2/project"
  top: "conv_2project"
}
layer {
  name: "conv_3/expand"
  type: "Convolution"
  bottom: "conv_2project"
  top: "conv_3/expand"
  param {
    lr_mult: 0.1
    decay_mult: 0.1
  }
  convolution_param {
    num_output: 144
    bias_term: false
    kernel_size: 1
    weight_filler {
      type: "msra"
    }
  }
}
layer {
  name: "conv_3/expand/bn"
  type: "BatchNorm"
  bottom: "conv_3/expand"
  top: "conv_3/expand"
}
layer {
  name: "conv_3/expand/scale"
  type: "Scale"
  bottom: "conv_3/expand"
  top: "conv_3/expand"
  param {
    lr_mult: 0.1
    decay_mult: 0
  }
  param {
    lr_mult: 0.2
    decay_mult: 0
  }
  scale_param {
    filler {
      value: 1
    }
    bias_term: true
    bias_filler {
      value: 0
    }
  }
}
layer {
  name: "conv_3/expand/relu"
  type: "ReLU"
  bottom: "conv_3/expand"
  top: "conv_3/expand"
}
layer {
  name: "conv_3/depthwise"
  type: "Convolution"
  bottom: "conv_3/expand"
  top: "conv_3/depthwise"
  param {
    lr_mult: 0.1
    decay_mult: 0.1
  }
  convolution_param {
    num_output: 144
    bias_term: false
    pad: 1
    kernel_size: 3
    group: 144
    stride: 2
    weight_filler {
      type: "msra"
    }
    engine: CAFFE
  }
}
layer {
  name: "conv_3/depthwise/bn"
  type: "BatchNorm"
  bottom: "conv_3/depthwise"
  top: "conv_3/depthwise"
}
layer {
  name: "conv_3/depthwise/scale"
  type: "Scale"
  bottom: "conv_3/depthwise"
  top: "conv_3/depthwise"
  param {
    lr_mult: 0.1
    decay_mult: 0
  }
  param {
    lr_mult: 0.2
    decay_mult: 0
  }
  scale_param {
    filler {
      value: 1
    }
    bias_term: true
    bias_filler {
      value: 0
    }
  }
}
layer {
  name: "conv_3/depthwise/relu"
  type: "ReLU"
  bottom: "conv_3/depthwise"
  top: "conv_3/depthwise"
}
layer {
  name: "conv_3/project"
  type: "Convolution"
  bottom: "conv_3/depthwise"
  top: "conv_3/project"
  param {
    lr_mult: 0.1
    decay_mult: 0.1
  }
  convolution_param {
    num_output: 32
    bias_term: false
    kernel_size: 1
    weight_filler {
      type: "msra"
    }
  }
}
layer {
  name: "conv_3/project/bn"
  type: "BatchNorm"
  bottom: "conv_3/project"
  top: "conv_3/project"
}
layer {
  name: "conv_3/project/scale"
  type: "Scale"
  bottom: "conv_3/project"
  top: "conv_3/project"
  param {
    lr_mult: 0.1
    decay_mult: 0
  }
  param {
    lr_mult: 0.2
    decay_mult: 0
  }
  scale_param {
    filler {
      value: 1
    }
    bias_term: true
    bias_filler {
      value: 0
    }
  }
}
layer {
  name: "conv_4/expand"
  type: "Convolution"
  bottom: "conv_3/project"
  top: "conv_4/expand"
  param {
    lr_mult: 0.1
    decay_mult: 0.1
  }
  convolution_param {
    num_output: 192
    bias_term: false
    kernel_size: 1
    weight_filler {
      type: "msra"
    }
  }
}
layer {
  name: "conv_4/expand/bn"
  type: "BatchNorm"
  bottom: "conv_4/expand"
  top: "conv_4/expand"
}
layer {
  name: "conv_4/expand/scale"
  type: "Scale"
  bottom: "conv_4/expand"
  top: "conv_4/expand"
  param {
    lr_mult: 0.1
    decay_mult: 0
  }
  param {
    lr_mult: 0.2
    decay_mult: 0
  }
  scale_param {
    filler {
      value: 1
    }
    bias_term: true
    bias_filler {
      value: 0
    }
  }
}
layer {
  name: "conv_4/expand/relu"
  type: "ReLU"
  bottom: "conv_4/expand"
  top: "conv_4/expand"
}
layer {
  name: "conv_4/depthwise"
  type: "Convolution"
  bottom: "conv_4/expand"
  top: "conv_4/depthwise"
  param {
    lr_mult: 0.1
    decay_mult: 0.1
  }
  convolution_param {
    num_output: 192
    bias_term: false
    pad: 1
    kernel_size: 3
    group: 192
    weight_filler {
      type: "msra"
    }
    engine: CAFFE
  }
}
layer {
  name: "conv_4/depthwise/bn"
  type: "BatchNorm"
  bottom: "conv_4/depthwise"
  top: "conv_4/depthwise"
}
layer {
  name: "conv_4/depthwise/scale"
  type: "Scale"
  bottom: "conv_4/depthwise"
  top: "conv_4/depthwise"
  param {
    lr_mult: 0.1
    decay_mult: 0
  }
  param {
    lr_mult: 0.2
    decay_mult: 0
  }
  scale_param {
    filler {
      value: 1
    }
    bias_term: true
    bias_filler {
      value: 0
    }
  }
}
layer {
  name: "conv_4/depthwise/relu"
  type: "ReLU"
  bottom: "conv_4/depthwise"
  top: "conv_4/depthwise"
}
layer {
  name: "conv_4/project"
  type: "Convolution"
  bottom: "conv_4/depthwise"
  top: "conv_4/project"
  param {
    lr_mult: 0.1
    decay_mult: 0.1
  }
  convolution_param {
    num_output: 32
    bias_term: false
    kernel_size: 1
    weight_filler {
      type: "msra"
    }
  }
}
layer {
  name: "conv_4/project/bn"
  type: "BatchNorm"
  bottom: "conv_4/project"
  top: "conv_4/project"
}
layer {
  name: "conv_4/project/scale"
  type: "Scale"
  bottom: "conv_4/project"
  top: "conv_4/project"
  param {
    lr_mult: 0.1
    decay_mult: 0
  }
  param {
    lr_mult: 0.2
    decay_mult: 0
  }
  scale_param {
    filler {
      value: 1
    }
    bias_term: true
    bias_filler {
      value: 0
    }
  }
}
layer {
  name: "conv_4project/sum"
  type: "Eltwise"
  bottom: "conv_3/project"
  bottom: "conv_4/project"
  top: "conv_4project"
}
layer {
  name: "conv_5/expand"
  type: "Convolution"
  bottom: "conv_4project"
  top: "conv_5/expand"
  param {
    lr_mult: 0.1
    decay_mult: 0.1
  }
  convolution_param {
    num_output: 192
    bias_term: false
    kernel_size: 1
    weight_filler {
      type: "msra"
    }
  }
}
layer {
  name: "conv_5/expand/bn"
  type: "BatchNorm"
  bottom: "conv_5/expand"
  top: "conv_5/expand"
}
layer {
  name: "conv_5/expand/scale"
  type: "Scale"
  bottom: "conv_5/expand"
  top: "conv_5/expand"
  param {
    lr_mult: 0.1
    decay_mult: 0
  }
  param {
    lr_mult: 0.2
    decay_mult: 0
  }
  scale_param {
    filler {
      value: 1
    }
    bias_term: true
    bias_filler {
      value: 0
    }
  }
}
layer {
  name: "conv_5/expand/relu"
  type: "ReLU"
  bottom: "conv_5/expand"
  top: "conv_5/expand"
}
layer {
  name: "conv_5/depthwise"
  type: "Convolution"
  bottom: "conv_5/expand"
  top: "conv_5/depthwise"
  param {
    lr_mult: 0.1
    decay_mult: 0.1
  }
  convolution_param {
    num_output: 192
    bias_term: false
    pad: 1
    kernel_size: 3
    group: 192
    weight_filler {
      type: "msra"
    }
    engine: CAFFE
  }
}
layer {
  name: "conv_5/depthwise/bn"
  type: "BatchNorm"
  bottom: "conv_5/depthwise"
  top: "conv_5/depthwise"
}
layer {
  name: "conv_5/depthwise/scale"
  type: "Scale"
  bottom: "conv_5/depthwise"
  top: "conv_5/depthwise"
  param {
    lr_mult: 0.1
    decay_mult: 0
  }
  param {
    lr_mult: 0.2
    decay_mult: 0
  }
  scale_param {
    filler {
      value: 1
    }
    bias_term: true
    bias_filler {
      value: 0
    }
  }
}
layer {
  name: "conv_5/depthwise/relu"
  type: "ReLU"
  bottom: "conv_5/depthwise"
  top: "conv_5/depthwise"
}
layer {
  name: "conv_5/project"
  type: "Convolution"
  bottom: "conv_5/depthwise"
  top: "conv_5/project"
  param {
    lr_mult: 0.1
    decay_mult: 0.1
  }
  convolution_param {
    num_output: 32
    bias_term: false
    kernel_size: 1
    weight_filler {
      type: "msra"
    }
  }
}
layer {
  name: "conv_5/project/bn"
  type: "BatchNorm"
  bottom: "conv_5/project"
  top: "conv_5/project"
}
layer {
  name: "conv_5/project/scale"
  type: "Scale"
  bottom: "conv_5/project"
  top: "conv_5/project"
  param {
    lr_mult: 0.1
    decay_mult: 0
  }
  param {
    lr_mult: 0.2
    decay_mult: 0
  }
  scale_param {
    filler {
      value: 1
    }
    bias_term: true
    bias_filler {
      value: 0
    }
  }
}
layer {
  name: "conv_5project/sum"
  type: "Eltwise"
  bottom: "conv_4project"
  bottom: "conv_5/project"
  top: "conv_5project"
}
layer {
  name: "conv_6/expand"
  type: "Convolution"
  bottom: "conv_5project"
  top: "conv_6/expand"
  param {
    lr_mult: 0.1
    decay_mult: 0.1
  }
  convolution_param {
    num_output: 192
    bias_term: false
    kernel_size: 1
    weight_filler {
      type: "msra"
    }
  }
}
layer {
  name: "conv_6/expand/bn"
  type: "BatchNorm"
  bottom: "conv_6/expand"
  top: "conv_6/expand"
}
layer {
  name: "conv_6/expand/scale"
  type: "Scale"
  bottom: "conv_6/expand"
  top: "conv_6/expand"
  param {
    lr_mult: 0.1
    decay_mult: 0
  }
  param {
    lr_mult: 0.2
    decay_mult: 0
  }
  scale_param {
    filler {
      value: 1
    }
    bias_term: true
    bias_filler {
      value: 0
    }
  }
}
layer {
  name: "conv_6/expand/relu"
  type: "ReLU"
  bottom: "conv_6/expand"
  top: "conv_6/expand"
}
layer {
  name: "conv_6/depthwise"
  type: "Convolution"
  bottom: "conv_6/expand"
  top: "conv_6/depthwise"
  param {
    lr_mult: 0.1
    decay_mult: 0.1
  }
  convolution_param {
    num_output: 192
    bias_term: false
    pad: 1
    kernel_size: 3
    group: 192
    stride: 2
    weight_filler {
      type: "msra"
    }
    engine: CAFFE
  }
}
layer {
  name: "conv_6/depthwise/bn"
  type: "BatchNorm"
  bottom: "conv_6/depthwise"
  top: "conv_6/depthwise"
}
layer {
  name: "conv_6/depthwise/scale"
  type: "Scale"
  bottom: "conv_6/depthwise"
  top: "conv_6/depthwise"
  param {
    lr_mult: 0.1
    decay_mult: 0
  }
  param {
    lr_mult: 0.2
    decay_mult: 0
  }
  scale_param {
    filler {
      value: 1
    }
    bias_term: true
    bias_filler {
      value: 0
    }
  }
}
layer {
  name: "conv_6/depthwise/relu"
  type: "ReLU"
  bottom: "conv_6/depthwise"
  top: "conv_6/depthwise"
}
layer {
  name: "conv_6/project"
  type: "Convolution"
  bottom: "conv_6/depthwise"
  top: "conv_6/project"
  param {
    lr_mult: 0.1
    decay_mult: 0.1
  }
  convolution_param {
    num_output: 64
    bias_term: false
    kernel_size: 1
    weight_filler {
      type: "msra"
    }
  }
}
layer {
  name: "conv_6/project/bn"
  type: "BatchNorm"
  bottom: "conv_6/project"
  top: "conv_6/project"
}
layer {
  name: "conv_6/project/scale"
  type: "Scale"
  bottom: "conv_6/project"
  top: "conv_6/project"
  param {
    lr_mult: 0.1
    decay_mult: 0
  }
  param {
    lr_mult: 0.2
    decay_mult: 0
  }
  scale_param {
    filler {
      value: 1
    }
    bias_term: true
    bias_filler {
      value: 0
    }
  }
}
layer {
  name: "conv_7/expand"
  type: "Convolution"
  bottom: "conv_6/project"
  top: "conv_7/expand"
  param {
    lr_mult: 0.1
    decay_mult: 0.1
  }
  convolution_param {
    num_output: 384
    bias_term: false
    kernel_size: 1
    weight_filler {
      type: "msra"
    }
  }
}
layer {
  name: "conv_7/expand/bn"
  type: "BatchNorm"
  bottom: "conv_7/expand"
  top: "conv_7/expand"
}
layer {
  name: "conv_7/expand/scale"
  type: "Scale"
  bottom: "conv_7/expand"
  top: "conv_7/expand"
  param {
    lr_mult: 0.1
    decay_mult: 0
  }
  param {
    lr_mult: 0.2
    decay_mult: 0
  }
  scale_param {
    filler {
      value: 1
    }
    bias_term: true
    bias_filler {
      value: 0
    }
  }
}
layer {
  name: "conv_7/expand/relu"
  type: "ReLU"
  bottom: "conv_7/expand"
  top: "conv_7/expand"
}
layer {
  name: "conv_7/depthwise"
  type: "Convolution"
  bottom: "conv_7/expand"
  top: "conv_7/depthwise"
  param {
    lr_mult: 0.1
    decay_mult: 0.1
  }
  convolution_param {
    num_output: 384
    bias_term: false
    pad: 1
    kernel_size: 3
    group: 384
    weight_filler {
      type: "msra"
    }
    engine: CAFFE
  }
}
layer {
  name: "conv_7/depthwise/bn"
  type: "BatchNorm"
  bottom: "conv_7/depthwise"
  top: "conv_7/depthwise"
}
layer {
  name: "conv_7/depthwise/scale"
  type: "Scale"
  bottom: "conv_7/depthwise"
  top: "conv_7/depthwise"
  param {
    lr_mult: 0.1
    decay_mult: 0
  }
  param {
    lr_mult: 0.2
    decay_mult: 0
  }
  scale_param {
    filler {
      value: 1
    }
    bias_term: true
    bias_filler {
      value: 0
    }
  }
}
layer {
  name: "conv_7/depthwise/relu"
  type: "ReLU"
  bottom: "conv_7/depthwise"
  top: "conv_7/depthwise"
}
layer {
  name: "conv_7/project"
  type: "Convolution"
  bottom: "conv_7/depthwise"
  top: "conv_7/project"
  param {
    lr_mult: 0.1
    decay_mult: 0.1
  }
  convolution_param {
    num_output: 64
    bias_term: false
    kernel_size: 1
    weight_filler {
      type: "msra"
    }
  }
}
layer {
  name: "conv_7/project/bn"
  type: "BatchNorm"
  bottom: "conv_7/project"
  top: "conv_7/project"
}
layer {
  name: "conv_7/project/scale"
  type: "Scale"
  bottom: "conv_7/project"
  top: "conv_7/project"
  param {
    lr_mult: 0.1
    decay_mult: 0
  }
  param {
    lr_mult: 0.2
    decay_mult: 0
  }
  scale_param {
    filler {
      value: 1
    }
    bias_term: true
    bias_filler {
      value: 0
    }
  }
}
layer {
  name: "conv_7project/sum"
  type: "Eltwise"
  bottom: "conv_6/project"
  bottom: "conv_7/project"
  top: "conv_7project"
}
layer {
  name: "conv_8/expand"
  type: "Convolution"
  bottom: "conv_7project"
  top: "conv_8/expand"
  param {
    lr_mult: 0.1
    decay_mult: 0.1
  }
  convolution_param {
    num_output: 384
    bias_term: false
    kernel_size: 1
    weight_filler {
      type: "msra"
    }
  }
}
layer {
  name: "conv_8/expand/bn"
  type: "BatchNorm"
  bottom: "conv_8/expand"
  top: "conv_8/expand"
}
layer {
  name: "conv_8/expand/scale"
  type: "Scale"
  bottom: "conv_8/expand"
  top: "conv_8/expand"
  param {
    lr_mult: 0.1
    decay_mult: 0
  }
  param {
    lr_mult: 0.2
    decay_mult: 0
  }
  scale_param {
    filler {
      value: 1
    }
    bias_term: true
    bias_filler {
      value: 0
    }
  }
}
layer {
  name: "conv_8/expand/relu"
  type: "ReLU"
  bottom: "conv_8/expand"
  top: "conv_8/expand"
}
layer {
  name: "conv_8/depthwise"
  type: "Convolution"
  bottom: "conv_8/expand"
  top: "conv_8/depthwise"
  param {
    lr_mult: 0.1
    decay_mult: 0.1
  }
  convolution_param {
    num_output: 384
    bias_term: false
    pad: 1
    kernel_size: 3
    group: 384
    weight_filler {
      type: "msra"
    }
    engine: CAFFE
  }
}
layer {
  name: "conv_8/depthwise/bn"
  type: "BatchNorm"
  bottom: "conv_8/depthwise"
  top: "conv_8/depthwise"
}
layer {
  name: "conv_8/depthwise/scale"
  type: "Scale"
  bottom: "conv_8/depthwise"
  top: "conv_8/depthwise"
  param {
    lr_mult: 0.1
    decay_mult: 0
  }
  param {
    lr_mult: 0.2
    decay_mult: 0
  }
  scale_param {
    filler {
      value: 1
    }
    bias_term: true
    bias_filler {
      value: 0
    }
  }
}
layer {
  name: "conv_8/depthwise/relu"
  type: "ReLU"
  bottom: "conv_8/depthwise"
  top: "conv_8/depthwise"
}
layer {
  name: "conv_8/project"
  type: "Convolution"
  bottom: "conv_8/depthwise"
  top: "conv_8/project"
  param {
    lr_mult: 0.1
    decay_mult: 0.1
  }
  convolution_param {
    num_output: 64
    bias_term: false
    kernel_size: 1
    weight_filler {
      type: "msra"
    }
  }
}
layer {
  name: "conv_8/project/bn"
  type: "BatchNorm"
  bottom: "conv_8/project"
  top: "conv_8/project"
}
layer {
  name: "conv_8/project/scale"
  type: "Scale"
  bottom: "conv_8/project"
  top: "conv_8/project"
  param {
    lr_mult: 0.1
    decay_mult: 0
  }
  param {
    lr_mult: 0.2
    decay_mult: 0
  }
  scale_param {
    filler {
      value: 1
    }
    bias_term: true
    bias_filler {
      value: 0
    }
  }
}
layer {
  name: "conv_8project/sum"
  type: "Eltwise"
  bottom: "conv_7project"
  bottom: "conv_8/project"
  top: "conv_8project"
}
layer {
  name: "conv_9/expand"
  type: "Convolution"
  bottom: "conv_8project"
  top: "conv_9/expand"
  param {
    lr_mult: 0.1
    decay_mult: 0.1
  }
  convolution_param {
    num_output: 384
    bias_term: false
    kernel_size: 1
    weight_filler {
      type: "msra"
    }
  }
}
layer {
  name: "conv_9/expand/bn"
  type: "BatchNorm"
  bottom: "conv_9/expand"
  top: "conv_9/expand"
}
layer {
  name: "conv_9/expand/scale"
  type: "Scale"
  bottom: "conv_9/expand"
  top: "conv_9/expand"
  param {
    lr_mult: 0.1
    decay_mult: 0
  }
  param {
    lr_mult: 0.2
    decay_mult: 0
  }
  scale_param {
    filler {
      value: 1
    }
    bias_term: true
    bias_filler {
      value: 0
    }
  }
}
layer {
  name: "conv_9/expand/relu"
  type: "ReLU"
  bottom: "conv_9/expand"
  top: "conv_9/expand"
}
layer {
  name: "conv_9/depthwise"
  type: "Convolution"
  bottom: "conv_9/expand"
  top: "conv_9/depthwise"
  param {
    lr_mult: 0.1
    decay_mult: 0.1
  }
  convolution_param {
    num_output: 384
    bias_term: false
    pad: 1
    kernel_size: 3
    group: 384
    weight_filler {
      type: "msra"
    }
    engine: CAFFE
  }
}
layer {
  name: "conv_9/depthwise/bn"
  type: "BatchNorm"
  bottom: "conv_9/depthwise"
  top: "conv_9/depthwise"
}
layer {
  name: "conv_9/depthwise/scale"
  type: "Scale"
  bottom: "conv_9/depthwise"
  top: "conv_9/depthwise"
  param {
    lr_mult: 0.1
    decay_mult: 0
  }
  param {
    lr_mult: 0.2
    decay_mult: 0
  }
  scale_param {
    filler {
      value: 1
    }
    bias_term: true
    bias_filler {
      value: 0
    }
  }
}
layer {
  name: "conv_9/depthwise/relu"
  type: "ReLU"
  bottom: "conv_9/depthwise"
  top: "conv_9/depthwise"
}
layer {
  name: "conv_9/project"
  type: "Convolution"
  bottom: "conv_9/depthwise"
  top: "conv_9/project"
  param {
    lr_mult: 0.1
    decay_mult: 0.1
  }
  convolution_param {
    num_output: 64
    bias_term: false
    kernel_size: 1
    weight_filler {
      type: "msra"
    }
  }
}
layer {
  name: "conv_9/project/bn"
  type: "BatchNorm"
  bottom: "conv_9/project"
  top: "conv_9/project"
}
layer {
  name: "conv_9/project/scale"
  type: "Scale"
  bottom: "conv_9/project"
  top: "conv_9/project"
  param {
    lr_mult: 0.1
    decay_mult: 0
  }
  param {
    lr_mult: 0.2
    decay_mult: 0
  }
  scale_param {
    filler {
      value: 1
    }
    bias_term: true
    bias_filler {
      value: 0
    }
  }
}
layer {
  name: "conv_9project/sum"
  type: "Eltwise"
  bottom: "conv_8project"
  bottom: "conv_9/project"
  top: "conv_9project"
}
layer {
  name: "conv_10/expand"
  type: "Convolution"
  bottom: "conv_9project"
  top: "conv_10/expand"
  param {
    lr_mult: 0.1
    decay_mult: 0.1
  }
  convolution_param {
    num_output: 384
    bias_term: false
    kernel_size: 1
    weight_filler {
      type: "msra"
    }
  }
}
layer {
  name: "conv_10/expand/bn"
  type: "BatchNorm"
  bottom: "conv_10/expand"
  top: "conv_10/expand"
}
layer {
  name: "conv_10/expand/scale"
  type: "Scale"
  bottom: "conv_10/expand"
  top: "conv_10/expand"
  param {
    lr_mult: 0.1
    decay_mult: 0
  }
  param {
    lr_mult: 0.2
    decay_mult: 0
  }
  scale_param {
    filler {
      value: 1
    }
    bias_term: true
    bias_filler {
      value: 0
    }
  }
}
layer {
  name: "conv_10/expand/relu"
  type: "ReLU"
  bottom: "conv_10/expand"
  top: "conv_10/expand"
}
layer {
  name: "conv_10/depthwise"
  type: "Convolution"
  bottom: "conv_10/expand"
  top: "conv_10/depthwise"
  param {
    lr_mult: 0.1
    decay_mult: 0.1
  }
  convolution_param {
    num_output: 384
    bias_term: false
    pad: 1
    kernel_size: 3
    group: 384
    weight_filler {
      type: "msra"
    }
    engine: CAFFE
  }
}
layer {
  name: "conv_10/depthwise/bn"
  type: "BatchNorm"
  bottom: "conv_10/depthwise"
  top: "conv_10/depthwise"
}
layer {
  name: "conv_10/depthwise/scale"
  type: "Scale"
  bottom: "conv_10/depthwise"
  top: "conv_10/depthwise"
  param {
    lr_mult: 0.1
    decay_mult: 0
  }
  param {
    lr_mult: 0.2
    decay_mult: 0
  }
  scale_param {
    filler {
      value: 1
    }
    bias_term: true
    bias_filler {
      value: 0
    }
  }
}
layer {
  name: "conv_10/depthwise/relu"
  type: "ReLU"
  bottom: "conv_10/depthwise"
  top: "conv_10/depthwise"
}
layer {
  name: "conv_10/project"
  type: "Convolution"
  bottom: "conv_10/depthwise"
  top: "conv_10/project"
  param {
    lr_mult: 0.1
    decay_mult: 0.1
  }
  convolution_param {
    num_output: 96
    bias_term: false
    kernel_size: 1
    weight_filler {
      type: "msra"
    }
  }
}
layer {
  name: "conv_10/project/bn"
  type: "BatchNorm"
  bottom: "conv_10/project"
  top: "conv_10/project"
}
layer {
  name: "conv_10/project/scale"
  type: "Scale"
  bottom: "conv_10/project"
  top: "conv_10/project"
  param {
    lr_mult: 0.1
    decay_mu
I0425 21:02:26.928032 13721 layer_factory.hpp:77] Creating layer data
I0425 21:02:26.928165 13721 net.cpp:100] Creating Layer data
I0425 21:02:26.928177 13721 net.cpp:408] data -> data
I0425 21:02:26.928207 13721 net.cpp:408] data -> label
I0425 21:02:26.928911 13735 db_lmdb.cpp:35] Opened lmdb trainval_lmdb
I0425 21:02:26.941668 13721 annotated_data_layer.cpp:62] output data size: 2,3,300,300
I0425 21:02:26.945755 13721 net.cpp:150] Setting up data
I0425 21:02:26.945780 13721 net.cpp:157] Top shape: 2 3 300 300 (540000)
I0425 21:02:26.945788 13721 net.cpp:157] Top shape: 1 1 1 8 (8)
I0425 21:02:26.945793 13721 net.cpp:165] Memory required for data: 2160032
I0425 21:02:26.945806 13721 layer_factory.hpp:77] Creating layer data_data_0_split
I0425 21:02:26.945823 13721 net.cpp:100] Creating Layer data_data_0_split
I0425 21:02:26.945832 13721 net.cpp:434] data_data_0_split <- data
I0425 21:02:26.945849 13721 net.cpp:408] data_data_0_split -> data_data_0_split_0
I0425 21:02:26.945863 13721 net.cpp:408] data_data_0_split -> data_data_0_split_1
I0425 21:02:26.945874 13721 net.cpp:408] data_data_0_split -> data_data_0_split_2
I0425 21:02:26.945884 13721 net.cpp:408] data_data_0_split -> data_data_0_split_3
I0425 21:02:26.945894 13721 net.cpp:408] data_data_0_split -> data_data_0_split_4
I0425 21:02:26.945902 13721 net.cpp:408] data_data_0_split -> data_data_0_split_5
I0425 21:02:26.945911 13721 net.cpp:408] data_data_0_split -> data_data_0_split_6
I0425 21:02:26.945983 13721 net.cpp:150] Setting up data_data_0_split
I0425 21:02:26.945992 13721 net.cpp:157] Top shape: 2 3 300 300 (540000)
I0425 21:02:26.946022 13721 net.cpp:157] Top shape: 2 3 300 300 (540000)
I0425 21:02:26.946032 13721 net.cpp:157] Top shape: 2 3 300 300 (540000)
I0425 21:02:26.946048 13721 net.cpp:157] Top shape: 2 3 300 300 (540000)
I0425 21:02:26.946055 13721 net.cpp:157] Top shape: 2 3 300 300 (540000)
I0425 21:02:26.946063 13721 net.cpp:157] Top shape: 2 3 300 300 (540000)
I0425 21:02:26.946070 13721 net.cpp:157] Top shape: 2 3 300 300 (540000)
I0425 21:02:26.946075 13721 net.cpp:165] Memory required for data: 17280032
I0425 21:02:26.946080 13721 layer_factory.hpp:77] Creating layer Conv
I0425 21:02:26.946099 13721 net.cpp:100] Creating Layer Conv
I0425 21:02:26.946107 13721 net.cpp:434] Conv <- data_data_0_split_0
I0425 21:02:26.946123 13721 net.cpp:408] Conv -> Conv
I0425 21:02:27.241420 13721 net.cpp:150] Setting up Conv
I0425 21:02:27.241461 13721 net.cpp:157] Top shape: 2 32 150 150 (1440000)
I0425 21:02:27.241468 13721 net.cpp:165] Memory required for data: 23040032
I0425 21:02:27.241499 13721 layer_factory.hpp:77] Creating layer Conv/bn
I0425 21:02:27.241513 13721 net.cpp:100] Creating Layer Conv/bn
I0425 21:02:27.241519 13721 net.cpp:434] Conv/bn <- Conv
I0425 21:02:27.241528 13721 net.cpp:395] Conv/bn -> Conv (in-place)
I0425 21:02:27.242187 13721 net.cpp:150] Setting up Conv/bn
I0425 21:02:27.242199 13721 net.cpp:157] Top shape: 2 32 150 150 (1440000)
I0425 21:02:27.242205 13721 net.cpp:165] Memory required for data: 28800032
I0425 21:02:27.242220 13721 layer_factory.hpp:77] Creating layer Conv/scale
I0425 21:02:27.242235 13721 net.cpp:100] Creating Layer Conv/scale
I0425 21:02:27.242241 13721 net.cpp:434] Conv/scale <- Conv
I0425 21:02:27.242249 13721 net.cpp:395] Conv/scale -> Conv (in-place)
I0425 21:02:27.242293 13721 layer_factory.hpp:77] Creating layer Conv/scale
I0425 21:02:27.242430 13721 net.cpp:150] Setting up Conv/scale
I0425 21:02:27.242439 13721 net.cpp:157] Top shape: 2 32 150 150 (1440000)
I0425 21:02:27.242445 13721 net.cpp:165] Memory required for data: 34560032
I0425 21:02:27.242455 13721 layer_factory.hpp:77] Creating layer Conv/relu
I0425 21:02:27.242465 13721 net.cpp:100] Creating Layer Conv/relu
I0425 21:02:27.242471 13721 net.cpp:434] Conv/relu <- Conv
I0425 21:02:27.242480 13721 net.cpp:395] Conv/relu -> Conv (in-place)
I0425 21:02:27.242826 13721 net.cpp:150] Setting up Conv/relu
I0425 21:02:27.242838 13721 net.cpp:157] Top shape: 2 32 150 150 (1440000)
I0425 21:02:27.242843 13721 net.cpp:165] Memory required for data: 40320032
I0425 21:02:27.242849 13721 layer_factory.hpp:77] Creating layer conv/depthwise
I0425 21:02:27.242862 13721 net.cpp:100] Creating Layer conv/depthwise
I0425 21:02:27.242869 13721 net.cpp:434] conv/depthwise <- Conv
I0425 21:02:27.242882 13721 net.cpp:408] conv/depthwise -> conv/depthwise
I0425 21:02:27.243052 13721 net.cpp:150] Setting up conv/depthwise
I0425 21:02:27.243062 13721 net.cpp:157] Top shape: 2 32 150 150 (1440000)
I0425 21:02:27.243067 13721 net.cpp:165] Memory required for data: 46080032
I0425 21:02:27.243074 13721 layer_factory.hpp:77] Creating layer conv/depthwise/bn
I0425 21:02:27.243083 13721 net.cpp:100] Creating Layer conv/depthwise/bn
I0425 21:02:27.243090 13721 net.cpp:434] conv/depthwise/bn <- conv/depthwise
I0425 21:02:27.243108 13721 net.cpp:395] conv/depthwise/bn -> conv/depthwise (in-place)
I0425 21:02:27.243268 13721 net.cpp:150] Setting up conv/depthwise/bn
I0425 21:02:27.243276 13721 net.cpp:157] Top shape: 2 32 150 150 (1440000)
I0425 21:02:27.243283 13721 net.cpp:165] Memory required for data: 51840032
I0425 21:02:27.243294 13721 layer_factory.hpp:77] Creating layer conv/depthwise/scale
I0425 21:02:27.243306 13721 net.cpp:100] Creating Layer conv/depthwise/scale
I0425 21:02:27.243314 13721 net.cpp:434] conv/depthwise/scale <- conv/depthwise
I0425 21:02:27.243321 13721 net.cpp:395] conv/depthwise/scale -> conv/depthwise (in-place)
I0425 21:02:27.243360 13721 layer_factory.hpp:77] Creating layer conv/depthwise/scale
I0425 21:02:27.243494 13721 net.cpp:150] Setting up conv/depthwise/scale
I0425 21:02:27.243504 13721 net.cpp:157] Top shape: 2 32 150 150 (1440000)
I0425 21:02:27.243532 13721 net.cpp:165] Memory required for data: 57600032
I0425 21:02:27.243542 13721 layer_factory.hpp:77] Creating layer conv/depthwise/relu
I0425 21:02:27.243551 13721 net.cpp:100] Creating Layer conv/depthwise/relu
I0425 21:02:27.243557 13721 net.cpp:434] conv/depthwise/relu <- conv/depthwise
I0425 21:02:27.243566 13721 net.cpp:395] conv/depthwise/relu -> conv/depthwise (in-place)
I0425 21:02:27.243693 13721 net.cpp:150] Setting up conv/depthwise/relu
I0425 21:02:27.243703 13721 net.cpp:157] Top shape: 2 32 150 150 (1440000)
I0425 21:02:27.243710 13721 net.cpp:165] Memory required for data: 63360032
I0425 21:02:27.243733 13721 layer_factory.hpp:77] Creating layer conv/project
I0425 21:02:27.243746 13721 net.cpp:100] Creating Layer conv/project
I0425 21:02:27.243752 13721 net.cpp:434] conv/project <- conv/depthwise
I0425 21:02:27.243762 13721 net.cpp:408] conv/project -> conv/project
I0425 21:02:27.244731 13721 net.cpp:150] Setting up conv/project
I0425 21:02:27.244745 13721 net.cpp:157] Top shape: 2 16 150 150 (720000)
I0425 21:02:27.244750 13721 net.cpp:165] Memory required for data: 66240032
I0425 21:02:27.244760 13721 layer_factory.hpp:77] Creating layer conv/project/bn
I0425 21:02:27.244768 13721 net.cpp:100] Creating Layer conv/project/bn
I0425 21:02:27.244774 13721 net.cpp:434] conv/project/bn <- conv/project
I0425 21:02:27.244782 13721 net.cpp:395] conv/project/bn -> conv/project (in-place)
I0425 21:02:27.244951 13721 net.cpp:150] Setting up conv/project/bn
I0425 21:02:27.244961 13721 net.cpp:157] Top shape: 2 16 150 150 (720000)
I0425 21:02:27.244966 13721 net.cpp:165] Memory required for data: 69120032
I0425 21:02:27.244976 13721 layer_factory.hpp:77] Creating layer conv/project/scale
I0425 21:02:27.244987 13721 net.cpp:100] Creating Layer conv/project/scale
I0425 21:02:27.244992 13721 net.cpp:434] conv/project/scale <- conv/project
I0425 21:02:27.245000 13721 net.cpp:395] conv/project/scale -> conv/project (in-place)
I0425 21:02:27.245043 13721 layer_factory.hpp:77] Creating layer conv/project/scale
I0425 21:02:27.245167 13721 net.cpp:150] Setting up conv/project/scale
I0425 21:02:27.245175 13721 net.cpp:157] Top shape: 2 16 150 150 (720000)
I0425 21:02:27.245180 13721 net.cpp:165] Memory required for data: 72000032
I0425 21:02:27.245191 13721 layer_factory.hpp:77] Creating layer conv_1/expand
I0425 21:02:27.245203 13721 net.cpp:100] Creating Layer conv_1/expand
I0425 21:02:27.245208 13721 net.cpp:434] conv_1/expand <- conv/project
I0425 21:02:27.245218 13721 net.cpp:408] conv_1/expand -> conv_1/expand
I0425 21:02:27.246603 13721 net.cpp:150] Setting up conv_1/expand
I0425 21:02:27.246616 13721 net.cpp:157] Top shape: 2 96 150 150 (4320000)
I0425 21:02:27.246623 13721 net.cpp:165] Memory required for data: 89280032
I0425 21:02:27.246631 13721 layer_factory.hpp:77] Creating layer conv_1/expand/bn
I0425 21:02:27.246657 13721 net.cpp:100] Creating Layer conv_1/expand/bn
I0425 21:02:27.246675 13721 net.cpp:434] conv_1/expand/bn <- conv_1/expand
I0425 21:02:27.246681 13721 net.cpp:395] conv_1/expand/bn -> conv_1/expand (in-place)
I0425 21:02:27.246871 13721 net.cpp:150] Setting up conv_1/expand/bn
I0425 21:02:27.246881 13721 net.cpp:157] Top shape: 2 96 150 150 (4320000)
I0425 21:02:27.246893 13721 net.cpp:165] Memory required for data: 106560032
I0425 21:02:27.246901 13721 layer_factory.hpp:77] Creating layer conv_1/expand/scale
I0425 21:02:27.246911 13721 net.cpp:100] Creating Layer conv_1/expand/scale
I0425 21:02:27.246917 13721 net.cpp:434] conv_1/expand/scale <- conv_1/expand
I0425 21:02:27.246925 13721 net.cpp:395] conv_1/expand/scale -> conv_1/expand (in-place)
I0425 21:02:27.246973 13721 layer_factory.hpp:77] Creating layer conv_1/expand/scale
I0425 21:02:27.247524 13721 net.cpp:150] Setting up conv_1/expand/scale
I0425 21:02:27.247536 13721 net.cpp:157] Top shape: 2 96 150 150 (4320000)
I0425 21:02:27.247542 13721 net.cpp:165] Memory required for data: 123840032
I0425 21:02:27.247551 13721 layer_factory.hpp:77] Creating layer conv_1/expand/relu
I0425 21:02:27.247563 13721 net.cpp:100] Creating Layer conv_1/expand/relu
I0425 21:02:27.247586 13721 net.cpp:434] conv_1/expand/relu <- conv_1/expand
I0425 21:02:27.247594 13721 net.cpp:395] conv_1/expand/relu -> conv_1/expand (in-place)
I0425 21:02:27.247975 13721 net.cpp:150] Setting up conv_1/expand/relu
I0425 21:02:27.247987 13721 net.cpp:157] Top shape: 2 96 150 150 (4320000)
I0425 21:02:27.247992 13721 net.cpp:165] Memory required for data: 141120032
I0425 21:02:27.247998 13721 layer_factory.hpp:77] Creating layer conv_1/depthwise
I0425 21:02:27.248010 13721 net.cpp:100] Creating Layer conv_1/depthwise
I0425 21:02:27.248018 13721 net.cpp:434] conv_1/depthwise <- conv_1/expand
I0425 21:02:27.248026 13721 net.cpp:408] conv_1/depthwise -> conv_1/depthwise
I0425 21:02:27.248211 13721 net.cpp:150] Setting up conv_1/depthwise
I0425 21:02:27.248220 13721 net.cpp:157] Top shape: 2 96 75 75 (1080000)
I0425 21:02:27.248234 13721 net.cpp:165] Memory required for data: 145440032
I0425 21:02:27.248239 13721 layer_factory.hpp:77] Creating layer conv_1/depthwise/bn
I0425 21:02:27.248246 13721 net.cpp:100] Creating Layer conv_1/depthwise/bn
I0425 21:02:27.248253 13721 net.cpp:434] conv_1/depthwise/bn <- conv_1/depthwise
I0425 21:02:27.248260 13721 net.cpp:395] conv_1/depthwise/bn -> conv_1/depthwise (in-place)
I0425 21:02:27.248854 13721 net.cpp:150] Setting up conv_1/depthwise/bn
I0425 21:02:27.248865 13721 net.cpp:157] Top shape: 2 96 75 75 (1080000)
I0425 21:02:27.248872 13721 net.cpp:165] Memory required for data: 149760032
I0425 21:02:27.248883 13721 layer_factory.hpp:77] Creating layer conv_1/depthwise/scale
I0425 21:02:27.248893 13721 net.cpp:100] Creating Layer conv_1/depthwise/scale
I0425 21:02:27.248899 13721 net.cpp:434] conv_1/depthwise/scale <- conv_1/depthwise
I0425 21:02:27.248908 13721 net.cpp:395] conv_1/depthwise/scale -> conv_1/depthwise (in-place)
I0425 21:02:27.248950 13721 layer_factory.hpp:77] Creating layer conv_1/depthwise/scale
I0425 21:02:27.249059 13721 net.cpp:150] Setting up conv_1/depthwise/scale
I0425 21:02:27.249068 13721 net.cpp:157] Top shape: 2 96 75 75 (1080000)
I0425 21:02:27.249073 13721 net.cpp:165] Memory required for data: 154080032
I0425 21:02:27.249083 13721 layer_factory.hpp:77] Creating layer conv_1/depthwise/relu
I0425 21:02:27.249090 13721 net.cpp:100] Creating Layer conv_1/depthwise/relu
I0425 21:02:27.249096 13721 net.cpp:434] conv_1/depthwise/relu <- conv_1/depthwise
I0425 21:02:27.249104 13721 net.cpp:395] conv_1/depthwise/relu -> conv_1/depthwise (in-place)
I0425 21:02:27.249246 13721 net.cpp:150] Setting up conv_1/depthwise/relu
I0425 21:02:27.249256 13721 net.cpp:157] Top shape: 2 96 75 75 (1080000)
I0425 21:02:27.249261 13721 net.cpp:165] Memory required for data: 158400032
I0425 21:02:27.249267 13721 layer_factory.hpp:77] Creating layer conv_1/project
I0425 21:02:27.249279 13721 net.cpp:100] Creating Layer conv_1/project
I0425 21:02:27.249285 13721 net.cpp:434] conv_1/project <- conv_1/depthwise
I0425 21:02:27.249303 13721 net.cpp:408] conv_1/project -> conv_1/project
I0425 21:02:27.250478 13721 net.cpp:150] Setting up conv_1/project
I0425 21:02:27.250489 13721 net.cpp:157] Top shape: 2 24 75 75 (270000)
I0425 21:02:27.250495 13721 net.cpp:165] Memory required for data: 159480032
I0425 21:02:27.250504 13721 layer_factory.hpp:77] Creating layer conv_1/project/bn
I0425 21:02:27.250514 13721 net.cpp:100] Creating Layer conv_1/project/bn
I0425 21:02:27.250520 13721 net.cpp:434] conv_1/project/bn <- conv_1/project
I0425 21:02:27.250527 13721 net.cpp:395] conv_1/project/bn -> conv_1/project (in-place)
I0425 21:02:27.250689 13721 net.cpp:150] Setting up conv_1/project/bn
I0425 21:02:27.250699 13721 net.cpp:157] Top shape: 2 24 75 75 (270000)
I0425 21:02:27.250705 13721 net.cpp:165] Memory required for data: 160560032
I0425 21:02:27.250718 13721 layer_factory.hpp:77] Creating layer conv_1/project/scale
I0425 21:02:27.250730 13721 net.cpp:100] Creating Layer conv_1/project/scale
I0425 21:02:27.250735 13721 net.cpp:434] conv_1/project/scale <- conv_1/project
I0425 21:02:27.250743 13721 net.cpp:395] conv_1/project/scale -> conv_1/project (in-place)
I0425 21:02:27.250804 13721 layer_factory.hpp:77] Creating layer conv_1/project/scale
I0425 21:02:27.250911 13721 net.cpp:150] Setting up conv_1/project/scale
I0425 21:02:27.250919 13721 net.cpp:157] Top shape: 2 24 75 75 (270000)
I0425 21:02:27.250926 13721 net.cpp:165] Memory required for data: 161640032
I0425 21:02:27.250934 13721 layer_factory.hpp:77] Creating layer conv_1/project_conv_1/project/scale_0_split
I0425 21:02:27.250942 13721 net.cpp:100] Creating Layer conv_1/project_conv_1/project/scale_0_split
I0425 21:02:27.250959 13721 net.cpp:434] conv_1/project_conv_1/project/scale_0_split <- conv_1/project
I0425 21:02:27.250968 13721 net.cpp:408] conv_1/project_conv_1/project/scale_0_split -> conv_1/project_conv_1/project/scale_0_split_0
I0425 21:02:27.250978 13721 net.cpp:408] conv_1/project_conv_1/project/scale_0_split -> conv_1/project_conv_1/project/scale_0_split_1
I0425 21:02:27.251030 13721 net.cpp:150] Setting up conv_1/project_conv_1/project/scale_0_split
I0425 21:02:27.251039 13721 net.cpp:157] Top shape: 2 24 75 75 (270000)
I0425 21:02:27.251052 13721 net.cpp:157] Top shape: 2 24 75 75 (270000)
I0425 21:02:27.251057 13721 net.cpp:165] Memory required for data: 163800032
I0425 21:02:27.251062 13721 layer_factory.hpp:77] Creating layer conv_2/expand
I0425 21:02:27.251082 13721 net.cpp:100] Creating Layer conv_2/expand
I0425 21:02:27.251091 13721 net.cpp:434] conv_2/expand <- conv_1/project_conv_1/project/scale_0_split_0
I0425 21:02:27.251099 13721 net.cpp:408] conv_2/expand -> conv_2/expand
I0425 21:02:27.252082 13721 net.cpp:150] Setting up conv_2/expand
I0425 21:02:27.252095 13721 net.cpp:157] Top shape: 2 144 75 75 (1620000)
I0425 21:02:27.252101 13721 net.cpp:165] Memory required for data: 170280032
I0425 21:02:27.252110 13721 layer_factory.hpp:77] Creating layer conv_2/expand/bn
I0425 21:02:27.252118 13721 net.cpp:100] Creating Layer conv_2/expand/bn
I0425 21:02:27.252125 13721 net.cpp:434] conv_2/expand/bn <- conv_2/expand
I0425 21:02:27.252132 13721 net.cpp:395] conv_2/expand/bn -> conv_2/expand (in-place)
I0425 21:02:27.252363 13721 net.cpp:150] Setting up conv_2/expand/bn
I0425 21:02:27.252374 13721 net.cpp:157] Top shape: 2 144 75 75 (1620000)
I0425 21:02:27.252380 13721 net.cpp:165] Memory required for data: 176760032
I0425 21:02:27.252390 13721 layer_factory.hpp:77] Creating layer conv_2/expand/scale
I0425 21:02:27.252399 13721 net.cpp:100] Creating Layer conv_2/expand/scale
I0425 21:02:27.252406 13721 net.cpp:434] conv_2/expand/scale <- conv_2/expand
I0425 21:02:27.252413 13721 net.cpp:395] conv_2/expand/scale -> conv_2/expand (in-place)
I0425 21:02:27.252455 13721 layer_factory.hpp:77] Creating layer conv_2/expand/scale
I0425 21:02:27.252580 13721 net.cpp:150] Setting up conv_2/expand/scale
I0425 21:02:27.252590 13721 net.cpp:157] Top shape: 2 144 75 75 (1620000)
I0425 21:02:27.252595 13721 net.cpp:165] Memory required for data: 183240032
I0425 21:02:27.252604 13721 layer_factory.hpp:77] Creating layer conv_2/expand/relu
I0425 21:02:27.252612 13721 net.cpp:100] Creating Layer conv_2/expand/relu
I0425 21:02:27.252619 13721 net.cpp:434] conv_2/expand/relu <- conv_2/expand
I0425 21:02:27.252625 13721 net.cpp:395] conv_2/expand/relu -> conv_2/expand (in-place)
I0425 21:02:27.253072 13721 net.cpp:150] Setting up conv_2/expand/relu
I0425 21:02:27.253087 13721 net.cpp:157] Top shape: 2 144 75 75 (1620000)
I0425 21:02:27.253094 13721 net.cpp:165] Memory required for data: 189720032
I0425 21:02:27.253100 13721 layer_factory.hpp:77] Creating layer conv_2/depthwise
I0425 21:02:27.253111 13721 net.cpp:100] Creating Layer conv_2/depthwise
I0425 21:02:27.253118 13721 net.cpp:434] conv_2/depthwise <- conv_2/expand
I0425 21:02:27.253127 13721 net.cpp:408] conv_2/depthwise -> conv_2/depthwise
I0425 21:02:27.253365 13721 net.cpp:150] Setting up conv_2/depthwise
I0425 21:02:27.253376 13721 net.cpp:157] Top shape: 2 144 75 75 (1620000)
I0425 21:02:27.253381 13721 net.cpp:165] Memory required for data: 196200032
I0425 21:02:27.253391 13721 layer_factory.hpp:77] Creating layer conv_2/depthwise/bn
I0425 21:02:27.253412 13721 net.cpp:100] Creating Layer conv_2/depthwise/bn
I0425 21:02:27.253419 13721 net.cpp:434] conv_2/depthwise/bn <- conv_2/depthwise
I0425 21:02:27.253427 13721 net.cpp:395] conv_2/depthwise/bn -> conv_2/depthwise (in-place)
I0425 21:02:27.253644 13721 net.cpp:150] Setting up conv_2/depthwise/bn
I0425 21:02:27.253656 13721 net.cpp:157] Top shape: 2 144 75 75 (1620000)
I0425 21:02:27.253661 13721 net.cpp:165] Memory required for data: 202680032
I0425 21:02:27.253672 13721 layer_factory.hpp:77] Creating layer conv_2/depthwise/scale
I0425 21:02:27.253690 13721 net.cpp:100] Creating Layer conv_2/depthwise/scale
I0425 21:02:27.253696 13721 net.cpp:434] conv_2/depthwise/scale <- conv_2/depthwise
I0425 21:02:27.253705 13721 net.cpp:395] conv_2/depthwise/scale -> conv_2/depthwise (in-place)
I0425 21:02:27.253752 13721 layer_factory.hpp:77] Creating layer conv_2/depthwise/scale
I0425 21:02:27.253883 13721 net.cpp:150] Setting up conv_2/depthwise/scale
I0425 21:02:27.253893 13721 net.cpp:157] Top shape: 2 144 75 75 (1620000)
I0425 21:02:27.253897 13721 net.cpp:165] Memory required for data: 209160032
I0425 21:02:27.253906 13721 layer_factory.hpp:77] Creating layer conv_2/depthwise/relu
I0425 21:02:27.253917 13721 net.cpp:100] Creating Layer conv_2/depthwise/relu
I0425 21:02:27.253923 13721 net.cpp:434] conv_2/depthwise/relu <- conv_2/depthwise
I0425 21:02:27.253931 13721 net.cpp:395] conv_2/depthwise/relu -> conv_2/depthwise (in-place)
I0425 21:02:27.254386 13721 net.cpp:150] Setting up conv_2/depthwise/relu
I0425 21:02:27.254401 13721 net.cpp:157] Top shape: 2 144 75 75 (1620000)
I0425 21:02:27.254406 13721 net.cpp:165] Memory required for data: 215640032
I0425 21:02:27.254412 13721 layer_factory.hpp:77] Creating layer conv_2/project
I0425 21:02:27.254423 13721 net.cpp:100] Creating Layer conv_2/project
I0425 21:02:27.254429 13721 net.cpp:434] conv_2/project <- conv_2/depthwise
I0425 21:02:27.254438 13721 net.cpp:408] conv_2/project -> conv_2/project
I0425 21:02:27.255775 13721 net.cpp:150] Setting up conv_2/project
I0425 21:02:27.255794 13721 net.cpp:157] Top shape: 2 24 75 75 (270000)
I0425 21:02:27.255801 13721 net.cpp:165] Memory required for data: 216720032
I0425 21:02:27.255810 13721 layer_factory.hpp:77] Creating layer conv_2/project/bn
I0425 21:02:27.255820 13721 net.cpp:100] Creating Layer conv_2/project/bn
I0425 21:02:27.255827 13721 net.cpp:434] conv_2/project/bn <- conv_2/project
I0425 21:02:27.255836 13721 net.cpp:395] conv_2/project/bn -> conv_2/project (in-place)
I0425 21:02:27.256016 13721 net.cpp:150] Setting up conv_2/project/bn
I0425 21:02:27.256026 13721 net.cpp:157] Top shape: 2 24 75 75 (270000)
I0425 21:02:27.256031 13721 net.cpp:165] Memory required for data: 217800032
I0425 21:02:27.256042 13721 layer_factory.hpp:77] Creating layer conv_2/project/scale
I0425 21:02:27.256052 13721 net.cpp:100] Creating Layer conv_2/project/scale
I0425 21:02:27.256059 13721 net.cpp:434] conv_2/project/scale <- conv_2/project
I0425 21:02:27.256067 13721 net.cpp:395] conv_2/project/scale -> conv_2/project (in-place)
I0425 21:02:27.256109 13721 layer_factory.hpp:77] Creating layer conv_2/project/scale
I0425 21:02:27.256237 13721 net.cpp:150] Setting up conv_2/project/scale
I0425 21:02:27.256247 13721 net.cpp:157] Top shape: 2 24 75 75 (270000)
I0425 21:02:27.256251 13721 net.cpp:165] Memory required for data: 218880032
I0425 21:02:27.256260 13721 layer_factory.hpp:77] Creating layer conv_2project/sum
I0425 21:02:27.256270 13721 net.cpp:100] Creating Layer conv_2project/sum
I0425 21:02:27.256278 13721 net.cpp:434] conv_2project/sum <- conv_1/project_conv_1/project/scale_0_split_1
I0425 21:02:27.256284 13721 net.cpp:434] conv_2project/sum <- conv_2/project
I0425 21:02:27.256292 13721 net.cpp:408] conv_2project/sum -> conv_2project
I0425 21:02:27.256323 13721 net.cpp:150] Setting up conv_2project/sum
I0425 21:02:27.256331 13721 net.cpp:157] Top shape: 2 24 75 75 (270000)
I0425 21:02:27.256336 13721 net.cpp:165] Memory required for data: 219960032
I0425 21:02:27.256342 13721 layer_factory.hpp:77] Creating layer conv_3/expand
I0425 21:02:27.256369 13721 net.cpp:100] Creating Layer conv_3/expand
I0425 21:02:27.256377 13721 net.cpp:434] conv_3/expand <- conv_2project
I0425 21:02:27.256386 13721 net.cpp:408] conv_3/expand -> conv_3/expand
I0425 21:02:27.257400 13721 net.cpp:150] Setting up conv_3/expand
I0425 21:02:27.257412 13721 net.cpp:157] Top shape: 2 144 75 75 (1620000)
I0425 21:02:27.257418 13721 net.cpp:165] Memory required for data: 226440032
I0425 21:02:27.257426 13721 layer_factory.hpp:77] Creating layer conv_3/expand/bn
I0425 21:02:27.257436 13721 net.cpp:100] Creating Layer conv_3/expand/bn
I0425 21:02:27.257442 13721 net.cpp:434] conv_3/expand/bn <- conv_3/expand
I0425 21:02:27.257450 13721 net.cpp:395] conv_3/expand/bn -> conv_3/expand (in-place)
I0425 21:02:27.257617 13721 net.cpp:150] Setting up conv_3/expand/bn
I0425 21:02:27.257627 13721 net.cpp:157] Top shape: 2 144 75 75 (1620000)
I0425 21:02:27.257632 13721 net.cpp:165] Memory required for data: 232920032
I0425 21:02:27.257642 13721 layer_factory.hpp:77] Creating layer conv_3/expand/scale
I0425 21:02:27.257650 13721 net.cpp:100] Creating Layer conv_3/expand/scale
I0425 21:02:27.257658 13721 net.cpp:434] conv_3/expand/scale <- conv_3/expand
I0425 21:02:27.257665 13721 net.cpp:395] conv_3/expand/scale -> conv_3/expand (in-place)
I0425 21:02:27.257706 13721 layer_factory.hpp:77] Creating layer conv_3/expand/scale
I0425 21:02:27.257825 13721 net.cpp:150] Setting up conv_3/expand/scale
I0425 21:02:27.257833 13721 net.cpp:157] Top shape: 2 144 75 75 (1620000)
I0425 21:02:27.257838 13721 net.cpp:165] Memory required for data: 239400032
I0425 21:02:27.257848 13721 layer_factory.hpp:77] Creating layer conv_3/expand/relu
I0425 21:02:27.257856 13721 net.cpp:100] Creating Layer conv_3/expand/relu
I0425 21:02:27.257863 13721 net.cpp:434] conv_3/expand/relu <- conv_3/expand
I0425 21:02:27.257870 13721 net.cpp:395] conv_3/expand/relu -> conv_3/expand (in-place)
I0425 21:02:27.258028 13721 net.cpp:150] Setting up conv_3/expand/relu
I0425 21:02:27.258040 13721 net.cpp:157] Top shape: 2 144 75 75 (1620000)
I0425 21:02:27.258045 13721 net.cpp:165] Memory required for data: 245880032
I0425 21:02:27.258052 13721 layer_factory.hpp:77] Creating layer conv_3/depthwise
I0425 21:02:27.258065 13721 net.cpp:100] Creating Layer conv_3/depthwise
I0425 21:02:27.258072 13721 net.cpp:434] conv_3/depthwise <- conv_3/expand
I0425 21:02:27.258080 13721 net.cpp:408] conv_3/depthwise -> conv_3/depthwise
I0425 21:02:27.258334 13721 net.cpp:150] Setting up conv_3/depthwise
I0425 21:02:27.258343 13721 net.cpp:157] Top shape: 2 144 38 38 (415872)
I0425 21:02:27.258349 13721 net.cpp:165] Memory required for data: 247543520
I0425 21:02:27.258357 13721 layer_factory.hpp:77] Creating layer conv_3/depthwise/bn
I0425 21:02:27.258365 13721 net.cpp:100] Creating Layer conv_3/depthwise/bn
I0425 21:02:27.258373 13721 net.cpp:434] conv_3/depthwise/bn <- conv_3/depthwise
I0425 21:02:27.258379 13721 net.cpp:395] conv_3/depthwise/bn -> conv_3/depthwise (in-place)
I0425 21:02:27.258533 13721 net.cpp:150] Setting up conv_3/depthwise/bn
I0425 21:02:27.258543 13721 net.cpp:157] Top shape: 2 144 38 38 (415872)
I0425 21:02:27.258548 13721 net.cpp:165] Memory required for data: 249207008
I0425 21:02:27.258558 13721 layer_factory.hpp:77] Creating layer conv_3/depthwise/scale
I0425 21:02:27.258574 13721 net.cpp:100] Creating Layer conv_3/depthwise/scale
I0425 21:02:27.258580 13721 net.cpp:434] conv_3/depthwise/scale <- conv_3/depthwise
I0425 21:02:27.258589 13721 net.cpp:395] conv_3/depthwise/scale -> conv_3/depthwise (in-place)
I0425 21:02:27.258647 13721 layer_factory.hpp:77] Creating layer conv_3/depthwise/scale
I0425 21:02:27.258779 13721 net.cpp:150] Setting up conv_3/depthwise/scale
I0425 21:02:27.258786 13721 net.cpp:157] Top shape: 2 144 38 38 (415872)
I0425 21:02:27.258800 13721 net.cpp:165] Memory required for data: 250870496
I0425 21:02:27.258812 13721 layer_factory.hpp:77] Creating layer conv_3/depthwise/relu
I0425 21:02:27.258831 13721 net.cpp:100] Creating Layer conv_3/depthwise/relu
I0425 21:02:27.258860 13721 net.cpp:434] conv_3/depthwise/relu <- conv_3/depthwise
I0425 21:02:27.258868 13721 net.cpp:395] conv_3/depthwise/relu -> conv_3/depthwise (in-place)
I0425 21:02:27.259227 13721 net.cpp:150] Setting up conv_3/depthwise/relu
I0425 21:02:27.259238 13721 net.cpp:157] Top shape: 2 144 38 38 (415872)
I0425 21:02:27.259243 13721 net.cpp:165] Memory required for data: 252533984
I0425 21:02:27.259250 13721 layer_factory.hpp:77] Creating layer conv_3/project
I0425 21:02:27.259260 13721 net.cpp:100] Creating Layer conv_3/project
I0425 21:02:27.259268 13721 net.cpp:434] conv_3/project <- conv_3/depthwise
I0425 21:02:27.259276 13721 net.cpp:408] conv_3/project -> conv_3/project
I0425 21:02:27.260473 13721 net.cpp:150] Setting up conv_3/project
I0425 21:02:27.260485 13721 net.cpp:157] Top shape: 2 32 38 38 (92416)
I0425 21:02:27.260491 13721 net.cpp:165] Memory required for data: 252903648
I0425 21:02:27.260499 13721 layer_factory.hpp:77] Creating layer conv_3/project/bn
I0425 21:02:27.260509 13721 net.cpp:100] Creating Layer conv_3/project/bn
I0425 21:02:27.260516 13721 net.cpp:434] conv_3/project/bn <- conv_3/project
I0425 21:02:27.260524 13721 net.cpp:395] conv_3/project/bn -> conv_3/project (in-place)
I0425 21:02:27.260713 13721 net.cpp:150] Setting up conv_3/project/bn
I0425 21:02:27.260723 13721 net.cpp:157] Top shape: 2 32 38 38 (92416)
I0425 21:02:27.260728 13721 net.cpp:165] Memory required for data: 253273312
I0425 21:02:27.260740 13721 layer_factory.hpp:77] Creating layer conv_3/project/scale
I0425 21:02:27.260749 13721 net.cpp:100] Creating Layer conv_3/project/scale
I0425 21:02:27.260756 13721 net.cpp:434] conv_3/project/scale <- conv_3/project
I0425 21:02:27.260763 13721 net.cpp:395] conv_3/project/scale -> conv_3/project (in-place)
I0425 21:02:27.260804 13721 layer_factory.hpp:77] Creating layer conv_3/project/scale
I0425 21:02:27.260906 13721 net.cpp:150] Setting up conv_3/project/scale
I0425 21:02:27.260915 13721 net.cpp:157] Top shape: 2 32 38 38 (92416)
I0425 21:02:27.260921 13721 net.cpp:165] Memory required for data: 253642976
I0425 21:02:27.260929 13721 layer_factory.hpp:77] Creating layer conv_3/project_conv_3/project/scale_0_split
I0425 21:02:27.260938 13721 net.cpp:100] Creating Layer conv_3/project_conv_3/project/scale_0_split
I0425 21:02:27.260946 13721 net.cpp:434] conv_3/project_conv_3/project/scale_0_split <- conv_3/project
I0425 21:02:27.260953 13721 net.cpp:408] conv_3/project_conv_3/project/scale_0_split -> conv_3/project_conv_3/project/scale_0_split_0
I0425 21:02:27.260963 13721 net.cpp:408] conv_3/project_conv_3/project/scale_0_split -> conv_3/project_conv_3/project/scale_0_split_1
I0425 21:02:27.261003 13721 net.cpp:150] Setting up conv_3/project_conv_3/project/scale_0_split
I0425 21:02:27.261010 13721 net.cpp:157] Top shape: 2 32 38 38 (92416)
I0425 21:02:27.261018 13721 net.cpp:157] Top shape: 2 32 38 38 (92416)
I0425 21:02:27.261023 13721 net.cpp:165] Memory required for data: 254382304
I0425 21:02:27.261029 13721 layer_factory.hpp:77] Creating layer conv_4/expand
I0425 21:02:27.261039 13721 net.cpp:100] Creating Layer conv_4/expand
I0425 21:02:27.261045 13721 net.cpp:434] conv_4/expand <- conv_3/project_conv_3/project/scale_0_split_0
I0425 21:02:27.261054 13721 net.cpp:408] conv_4/expand -> conv_4/expand
I0425 21:02:27.262074 13721 net.cpp:150] Setting up conv_4/expand
I0425 21:02:27.262087 13721 net.cpp:157] Top shape: 2 192 38 38 (554496)
I0425 21:02:27.262094 13721 net.cpp:165] Memory required for data: 256600288
I0425 21:02:27.262101 13721 layer_factory.hpp:77] Creating layer conv_4/expand/bn
I0425 21:02:27.262111 13721 net.cpp:100] Creating Layer conv_4/expand/bn
I0425 21:02:27.262118 13721 net.cpp:434] conv_4/expand/bn <- conv_4/expand
I0425 21:02:27.262126 13721 net.cpp:395] conv_4/expand/bn -> conv_4/expand (in-place)
I0425 21:02:27.262300 13721 net.cpp:150] Setting up conv_4/expand/bn
I0425 21:02:27.262310 13721 net.cpp:157] Top shape: 2 192 38 38 (554496)
I0425 21:02:27.262315 13721 net.cpp:165] Memory required for data: 258818272
I0425 21:02:27.262326 13721 layer_factory.hpp:77] Creating layer conv_4/expand/scale
I0425 21:02:27.262347 13721 net.cpp:100] Creating Layer conv_4/expand/scale
I0425 21:02:27.262356 13721 net.cpp:434] conv_4/expand/scale <- conv_4/expand
I0425 21:02:27.262363 13721 net.cpp:395] conv_4/expand/scale -> conv_4/expand (in-place)
I0425 21:02:27.262413 13721 layer_factory.hpp:77] Creating layer conv_4/expand/scale
I0425 21:02:27.262523 13721 net.cpp:150] Setting up conv_4/expand/scale
I0425 21:02:27.262532 13721 net.cpp:157] Top shape: 2 192 38 38 (554496)
I0425 21:02:27.262537 13721 net.cpp:165] Memory required for data: 261036256
I0425 21:02:27.262547 13721 layer_factory.hpp:77] Creating layer conv_4/expand/relu
I0425 21:02:27.262555 13721 net.cpp:100] Creating Layer conv_4/expand/relu
I0425 21:02:27.262562 13721 net.cpp:434] conv_4/expand/relu <- conv_4/expand
I0425 21:02:27.262570 13721 net.cpp:395] conv_4/expand/relu -> conv_4/expand (in-place)
I0425 21:02:27.262714 13721 net.cpp:150] Setting up conv_4/expand/relu
I0425 21:02:27.262724 13721 net.cpp:157] Top shape: 2 192 38 38 (554496)
I0425 21:02:27.262730 13721 net.cpp:165] Memory required for data: 263254240
I0425 21:02:27.262737 13721 layer_factory.hpp:77] Creating layer conv_4/depthwise
I0425 21:02:27.262748 13721 net.cpp:100] Creating Layer conv_4/depthwise
I0425 21:02:27.262754 13721 net.cpp:434] conv_4/depthwise <- conv_4/expand
I0425 21:02:27.262763 13721 net.cpp:408] conv_4/depthwise -> conv_4/depthwise
I0425 21:02:27.262955 13721 net.cpp:150] Setting up conv_4/depthwise
I0425 21:02:27.262964 13721 net.cpp:157] Top shape: 2 192 38 38 (554496)
I0425 21:02:27.262969 13721 net.cpp:165] Memory required for data: 265472224
I0425 21:02:27.262977 13721 layer_factory.hpp:77] Creating layer conv_4/depthwise/bn
I0425 21:02:27.262985 13721 net.cpp:100] Creating Layer conv_4/depthwise/bn
I0425 21:02:27.262992 13721 net.cpp:434] conv_4/depthwise/bn <- conv_4/depthwise
I0425 21:02:27.263000 13721 net.cpp:395] conv_4/depthwise/bn -> conv_4/depthwise (in-place)
I0425 21:02:27.263164 13721 net.cpp:150] Setting up conv_4/depthwise/bn
I0425 21:02:27.263173 13721 net.cpp:157] Top shape: 2 192 38 38 (554496)
I0425 21:02:27.263178 13721 net.cpp:165] Memory required for data: 267690208
I0425 21:02:27.263188 13721 layer_factory.hpp:77] Creating layer conv_4/depthwise/scale
I0425 21:02:27.263198 13721 net.cpp:100] Creating Layer conv_4/depthwise/scale
I0425 21:02:27.263206 13721 net.cpp:434] conv_4/depthwise/scale <- conv_4/depthwise
I0425 21:02:27.263213 13721 net.cpp:395] conv_4/depthwise/scale -> conv_4/depthwise (in-place)
I0425 21:02:27.263259 13721 layer_factory.hpp:77] Creating layer conv_4/depthwise/scale
I0425 21:02:27.263373 13721 net.cpp:150] Setting up conv_4/depthwise/scale
I0425 21:02:27.263381 13721 net.cpp:157] Top shape: 2 192 38 38 (554496)
I0425 21:02:27.263387 13721 net.cpp:165] Memory required for data: 269908192
I0425 21:02:27.263396 13721 layer_factory.hpp:77] Creating layer conv_4/depthwise/relu
I0425 21:02:27.263403 13721 net.cpp:100] Creating Layer conv_4/depthwise/relu
I0425 21:02:27.263411 13721 net.cpp:434] conv_4/depthwise/relu <- conv_4/depthwise
I0425 21:02:27.263417 13721 net.cpp:395] conv_4/depthwise/relu -> conv_4/depthwise (in-place)
I0425 21:02:27.263783 13721 net.cpp:150] Setting up conv_4/depthwise/relu
I0425 21:02:27.263795 13721 net.cpp:157] Top shape: 2 192 38 38 (554496)
I0425 21:02:27.263801 13721 net.cpp:165] Memory required for data: 272126176
I0425 21:02:27.263808 13721 layer_factory.hpp:77] Creating layer conv_4/project
I0425 21:02:27.263818 13721 net.cpp:100] Creating Layer conv_4/project
I0425 21:02:27.263825 13721 net.cpp:434] conv_4/project <- conv_4/depthwise
I0425 21:02:27.263834 13721 net.cpp:408] conv_4/project -> conv_4/project
I0425 21:02:27.264848 13721 net.cpp:150] Setting up conv_4/project
I0425 21:02:27.264861 13721 net.cpp:157] Top shape: 2 32 38 38 (92416)
I0425 21:02:27.264866 13721 net.cpp:165] Memory required for data: 272495840
I0425 21:02:27.264875 13721 layer_factory.hpp:77] Creating layer conv_4/project/bn
I0425 21:02:27.264890 13721 net.cpp:100] Creating Layer conv_4/project/bn
I0425 21:02:27.264909 13721 net.cpp:434] conv_4/project/bn <- conv_4/project
I0425 21:02:27.264917 13721 net.cpp:395] conv_4/project/bn -> conv_4/project (in-place)
I0425 21:02:27.265105 13721 net.cpp:150] Setting up conv_4/project/bn
I0425 21:02:27.265113 13721 net.cpp:157] Top shape: 2 32 38 38 (92416)
I0425 21:02:27.265120 13721 net.cpp:165] Memory required for data: 272865504
I0425 21:02:27.265130 13721 layer_factory.hpp:77] Creating layer conv_4/project/scale
I0425 21:02:27.265139 13721 net.cpp:100] Creating Layer conv_4/project/scale
I0425 21:02:27.265156 13721 net.cpp:434] conv_4/project/scale <- conv_4/project
I0425 21:02:27.265163 13721 net.cpp:395] conv_4/project/scale -> conv_4/project (in-place)
I0425 21:02:27.265204 13721 layer_factory.hpp:77] Creating layer conv_4/project/scale
I0425 21:02:27.265311 13721 net.cpp:150] Setting up conv_4/project/scale
I0425 21:02:27.265321 13721 net.cpp:157] Top shape: 2 32 38 38 (92416)
I0425 21:02:27.265326 13721 net.cpp:165] Memory required for data: 273235168
I0425 21:02:27.265334 13721 layer_factory.hpp:77] Creating layer conv_4project/sum
I0425 21:02:27.265342 13721 net.cpp:100] Creating Layer conv_4project/sum
I0425 21:02:27.265349 13721 net.cpp:434] conv_4project/sum <- conv_3/project_conv_3/project/scale_0_split_1
I0425 21:02:27.265357 13721 net.cpp:434] conv_4project/sum <- conv_4/project
I0425 21:02:27.265364 13721 net.cpp:408] conv_4project/sum -> conv_4project
I0425 21:02:27.265393 13721 net.cpp:150] Setting up conv_4project/sum
I0425 21:02:27.265400 13721 net.cpp:157] Top shape: 2 32 38 38 (92416)
I0425 21:02:27.265405 13721 net.cpp:165] Memory required for data: 273604832
I0425 21:02:27.265411 13721 layer_factory.hpp:77] Creating layer conv_4project_conv_4project/sum_0_split
I0425 21:02:27.265419 13721 net.cpp:100] Creating Layer conv_4project_conv_4project/sum_0_split
I0425 21:02:27.265426 13721 net.cpp:434] conv_4project_conv_4project/sum_0_split <- conv_4project
I0425 21:02:27.265434 13721 net.cpp:408] conv_4project_conv_4project/sum_0_split -> conv_4project_conv_4project/sum_0_split_0
I0425 21:02:27.265442 13721 net.cpp:408] conv_4project_conv_4project/sum_0_split -> conv_4project_conv_4project/sum_0_split_1
I0425 21:02:27.265480 13721 net.cpp:150] Setting up conv_4project_conv_4project/sum_0_split
I0425 21:02:27.265487 13721 net.cpp:157] Top shape: 2 32 38 38 (92416)
I0425 21:02:27.265494 13721 net.cpp:157] Top shape: 2 32 38 38 (92416)
I0425 21:02:27.265499 13721 net.cpp:165] Memory required for data: 274344160
I0425 21:02:27.265506 13721 layer_factory.hpp:77] Creating layer conv_5/expand
I0425 21:02:27.265516 13721 net.cpp:100] Creating Layer conv_5/expand
I0425 21:02:27.265522 13721 net.cpp:434] conv_5/expand <- conv_4project_conv_4project/sum_0_split_0
I0425 21:02:27.265530 13721 net.cpp:408] conv_5/expand -> conv_5/expand
I0425 21:02:27.266649 13721 net.cpp:150] Setting up conv_5/expand
I0425 21:02:27.266660 13721 net.cpp:157] Top shape: 2 192 38 38 (554496)
I0425 21:02:27.266674 13721 net.cpp:165] Memory required for data: 276562144
I0425 21:02:27.266681 13721 layer_factory.hpp:77] Creating layer conv_5/expand/bn
I0425 21:02:27.266690 13721 net.cpp:100] Creating Layer conv_5/expand/bn
I0425 21:02:27.266697 13721 net.cpp:434] conv_5/expand/bn <- conv_5/expand
I0425 21:02:27.266705 13721 net.cpp:395] conv_5/expand/bn -> conv_5/expand (in-place)
I0425 21:02:27.266904 13721 net.cpp:150] Setting up conv_5/expand/bn
I0425 21:02:27.266913 13721 net.cpp:157] Top shape: 2 192 38 38 (554496)
I0425 21:02:27.266919 13721 net.cpp:165] Memory required for data: 278780128
I0425 21:02:27.266929 13721 layer_factory.hpp:77] Creating layer conv_5/expand/scale
I0425 21:02:27.266953 13721 net.cpp:100] Creating Layer conv_5/expand/scale
I0425 21:02:27.266960 13721 net.cpp:434] conv_5/expand/scale <- conv_5/expand
I0425 21:02:27.266968 13721 net.cpp:395] conv_5/expand/scale -> conv_5/expand (in-place)
I0425 21:02:27.267009 13721 layer_factory.hpp:77] Creating layer conv_5/expand/scale
I0425 21:02:27.267117 13721 net.cpp:150] Setting up conv_5/expand/scale
I0425 21:02:27.267134 13721 net.cpp:157] Top shape: 2 192 38 38 (554496)
I0425 21:02:27.267140 13721 net.cpp:165] Memory required for data: 280998112
I0425 21:02:27.267149 13721 layer_factory.hpp:77] Creating layer conv_5/expand/relu
I0425 21:02:27.267158 13721 net.cpp:100] Creating Layer conv_5/expand/relu
I0425 21:02:27.267164 13721 net.cpp:434] conv_5/expand/relu <- conv_5/expand
I0425 21:02:27.267172 13721 net.cpp:395] conv_5/expand/relu -> conv_5/expand (in-place)
I0425 21:02:27.267524 13721 net.cpp:150] Setting up conv_5/expand/relu
I0425 21:02:27.267534 13721 net.cpp:157] Top shape: 2 192 38 38 (554496)
I0425 21:02:27.267540 13721 net.cpp:165] Memory required for data: 283216096
I0425 21:02:27.267546 13721 layer_factory.hpp:77] Creating layer conv_5/depthwise
I0425 21:02:27.267556 13721 net.cpp:100] Creating Layer conv_5/depthwise
I0425 21:02:27.267563 13721 net.cpp:434] conv_5/depthwise <- conv_5/expand
I0425 21:02:27.267571 13721 net.cpp:408] conv_5/depthwise -> conv_5/depthwise
I0425 21:02:27.267844 13721 net.cpp:150] Setting up conv_5/depthwise
I0425 21:02:27.267855 13721 net.cpp:157] Top shape: 2 192 38 38 (554496)
I0425 21:02:27.267861 13721 net.cpp:165] Memory required for data: 285434080
I0425 21:02:27.267869 13721 layer_factory.hpp:77] Creating layer conv_5/depthwise/bn
I0425 21:02:27.267877 13721 net.cpp:100] Creating Layer conv_5/depthwise/bn
I0425 21:02:27.267884 13721 net.cpp:434] conv_5/depthwise/bn <- conv_5/depthwise
I0425 21:02:27.267891 13721 net.cpp:395] conv_5/depthwise/bn -> conv_5/depthwise (in-place)
I0425 21:02:27.268113 13721 net.cpp:150] Setting up conv_5/depthwise/bn
I0425 21:02:27.268123 13721 net.cpp:157] Top shape: 2 192 38 38 (554496)
I0425 21:02:27.268128 13721 net.cpp:165] Memory required for data: 287652064
I0425 21:02:27.268138 13721 layer_factory.hpp:77] Creating layer conv_5/depthwise/scale
I0425 21:02:27.268147 13721 net.cpp:100] Creating Layer conv_5/depthwise/scale
I0425 21:02:27.268153 13721 net.cpp:434] conv_5/depthwise/scale <- conv_5/depthwise
I0425 21:02:27.268160 13721 net.cpp:395] conv_5/depthwise/scale -> conv_5/depthwise (in-place)
I0425 21:02:27.268203 13721 layer_factory.hpp:77] Creating layer conv_5/depthwise/scale
I0425 21:02:27.268337 13721 net.cpp:150] Setting up conv_5/depthwise/scale
I0425 21:02:27.268347 13721 net.cpp:157] Top shape: 2 192 38 38 (554496)
I0425 21:02:27.268352 13721 net.cpp:165] Memory required for data: 289870048
I0425 21:02:27.268360 13721 layer_factory.hpp:77] Creating layer conv_5/depthwise/relu
I0425 21:02:27.268368 13721 net.cpp:100] Creating Layer conv_5/depthwise/relu
I0425 21:02:27.268374 13721 net.cpp:434] conv_5/depthwise/relu <- conv_5/depthwise
I0425 21:02:27.268381 13721 net.cpp:395] conv_5/depthwise/relu -> conv_5/depthwise (in-place)
I0425 21:02:27.268563 13721 net.cpp:150] Setting up conv_5/depthwise/relu
I0425 21:02:27.268574 13721 net.cpp:157] Top shape: 2 192 38 38 (554496)
I0425 21:02:27.268579 13721 net.cpp:165] Memory required for data: 292088032
I0425 21:02:27.268585 13721 layer_factory.hpp:77] Creating layer conv_5/project
I0425 21:02:27.268595 13721 net.cpp:100] Creating Layer conv_5/project
I0425 21:02:27.268602 13721 net.cpp:434] conv_5/project <- conv_5/depthwise
I0425 21:02:27.268620 13721 net.cpp:408] conv_5/project -> conv_5/project
I0425 21:02:27.270041 13721 net.cpp:150] Setting up conv_5/project
I0425 21:02:27.270056 13721 net.cpp:157] Top shape: 2 32 38 38 (92416)
I0425 21:02:27.270061 13721 net.cpp:165] Memory required for data: 292457696
I0425 21:02:27.270069 13721 layer_factory.hpp:77] Creating layer conv_5/project/bn
I0425 21:02:27.270078 13721 net.cpp:100] Creating Layer conv_5/project/bn
I0425 21:02:27.270084 13721 net.cpp:434] conv_5/project/bn <- conv_5/project
I0425 21:02:27.270092 13721 net.cpp:395] conv_5/project/bn -> conv_5/project (in-place)
I0425 21:02:27.270330 13721 net.cpp:150] Setting up conv_5/project/bn
I0425 21:02:27.270342 13721 net.cpp:157] Top shape: 2 32 38 38 (92416)
I0425 21:02:27.270349 13721 net.cpp:165] Memory required for data: 292827360
I0425 21:02:27.270359 13721 layer_factory.hpp:77] Creating layer conv_5/project/scale
I0425 21:02:27.270380 13721 net.cpp:100] Creating Layer conv_5/project/scale
I0425 21:02:27.270387 13721 net.cpp:434] conv_5/project/scale <- conv_5/project
I0425 21:02:27.270395 13721 net.cpp:395] conv_5/project/scale -> conv_5/project (in-place)
I0425 21:02:27.270467 13721 layer_factory.hpp:77] Creating layer conv_5/project/scale
I0425 21:02:27.270637 13721 net.cpp:150] Setting up conv_5/project/scale
I0425 21:02:27.270651 13721 net.cpp:157] Top shape: 2 32 38 38 (92416)
I0425 21:02:27.270656 13721 net.cpp:165] Memory required for data: 293197024
I0425 21:02:27.270664 13721 layer_factory.hpp:77] Creating layer conv_5project/sum
I0425 21:02:27.270673 13721 net.cpp:100] Creating Layer conv_5project/sum
I0425 21:02:27.270678 13721 net.cpp:434] conv_5project/sum <- conv_4project_conv_4project/sum_0_split_1
I0425 21:02:27.270685 13721 net.cpp:434] conv_5project/sum <- conv_5/project
I0425 21:02:27.270691 13721 net.cpp:408] conv_5project/sum -> conv_5project
I0425 21:02:27.270732 13721 net.cpp:150] Setting up conv_5project/sum
I0425 21:02:27.270742 13721 net.cpp:157] Top shape: 2 32 38 38 (92416)
I0425 21:02:27.270757 13721 net.cpp:165] Memory required for data: 293566688
I0425 21:02:27.270763 13721 layer_factory.hpp:77] Creating layer conv_6/expand
I0425 21:02:27.270781 13721 net.cpp:100] Creating Layer conv_6/expand
I0425 21:02:27.270789 13721 net.cpp:434] conv_6/expand <- conv_5project
I0425 21:02:27.270798 13721 net.cpp:408] conv_6/expand -> conv_6/expand
I0425 21:02:27.272127 13721 net.cpp:150] Setting up conv_6/expand
I0425 21:02:27.272156 13721 net.cpp:157] Top shape: 2 192 38 38 (554496)
I0425 21:02:27.272161 13721 net.cpp:165] Memory required for data: 295784672
I0425 21:02:27.272171 13721 layer_factory.hpp:77] Creating layer conv_6/expand/bn
I0425 21:02:27.272181 13721 net.cpp:100] Creating Layer conv_6/expand/bn
I0425 21:02:27.272189 13721 net.cpp:434] conv_6/expand/bn <- conv_6/expand
I0425 21:02:27.272197 13721 net.cpp:395] conv_6/expand/bn -> conv_6/expand (in-place)
I0425 21:02:27.272405 13721 net.cpp:150] Setting up conv_6/expand/bn
I0425 21:02:27.272414 13721 net.cpp:157] Top shape: 2 192 38 38 (554496)
I0425 21:02:27.272429 13721 net.cpp:165] Memory required for data: 298002656
I0425 21:02:27.272439 13721 layer_factory.hpp:77] Creating layer conv_6/expand/scale
I0425 21:02:27.272449 13721 net.cpp:100] Creating Layer conv_6/expand/scale
I0425 21:02:27.272456 13721 net.cpp:434] conv_6/expand/scale <- conv_6/expand
I0425 21:02:27.272464 13721 net.cpp:395] conv_6/expand/scale -> conv_6/expand (in-place)
I0425 21:02:27.272506 13721 layer_factory.hpp:77] Creating layer conv_6/expand/scale
I0425 21:02:27.272621 13721 net.cpp:150] Setting up conv_6/expand/scale
I0425 21:02:27.272630 13721 net.cpp:157] Top shape: 2 192 38 38 (554496)
I0425 21:02:27.272635 13721 net.cpp:165] Memory required for data: 300220640
I0425 21:02:27.272644 13721 layer_factory.hpp:77] Creating layer conv_6/expand/relu
I0425 21:02:27.272660 13721 net.cpp:100] Creating Layer conv_6/expand/relu
I0425 21:02:27.272666 13721 net.cpp:434] conv_6/expand/relu <- conv_6/expand
I0425 21:02:27.272675 13721 net.cpp:395] conv_6/expand/relu -> conv_6/expand (in-place)
I0425 21:02:27.273048 13721 net.cpp:150] Setting up conv_6/expand/relu
I0425 21:02:27.273061 13721 net.cpp:157] Top shape: 2 192 38 38 (554496)
I0425 21:02:27.273066 13721 net.cpp:165] Memory required for data: 302438624
I0425 21:02:27.273072 13721 layer_factory.hpp:77] Creating layer conv_6/depthwise
I0425 21:02:27.273092 13721 net.cpp:100] Creating Layer conv_6/depthwise
I0425 21:02:27.273100 13721 net.cpp:434] conv_6/depthwise <- conv_6/expand
I0425 21:02:27.273109 13721 net.cpp:408] conv_6/depthwise -> conv_6/depthwise
I0425 21:02:27.273303 13721 net.cpp:150] Setting up conv_6/depthwise
I0425 21:02:27.273313 13721 net.cpp:157] Top shape: 2 192 19 19 (138624)
I0425 21:02:27.273317 13721 net.cpp:165] Memory required for data: 302993120
I0425 21:02:27.273337 13721 layer_factory.hpp:77] Creating layer conv_6/depthwise/bn
I0425 21:02:27.273366 13721 net.cpp:100] Creating Layer conv_6/depthwise/bn
I0425 21:02:27.273375 13721 net.cpp:434] conv_6/depthwise/bn <- conv_6/depthwise
I0425 21:02:27.273382 13721 net.cpp:395] conv_6/depthwise/bn -> conv_6/depthwise (in-place)
I0425 21:02:27.273596 13721 net.cpp:150] Setting up conv_6/depthwise/bn
I0425 21:02:27.273604 13721 net.cpp:157] Top shape: 2 192 19 19 (138624)
I0425 21:02:27.273610 13721 net.cpp:165] Memory required for data: 303547616
I0425 21:02:27.273620 13721 layer_factory.hpp:77] Creating layer conv_6/depthwise/scale
I0425 21:02:27.273630 13721 net.cpp:100] Creating Layer conv_6/depthwise/scale
I0425 21:02:27.273648 13721 net.cpp:434] conv_6/depthwise/scale <- conv_6/depthwise
I0425 21:02:27.273656 13721 net.cpp:395] conv_6/depthwise/scale -> conv_6/depthwise (in-place)
I0425 21:02:27.273708 13721 layer_factory.hpp:77] Creating layer conv_6/depthwise/scale
I0425 21:02:27.273834 13721 net.cpp:150] Setting up conv_6/depthwise/scale
I0425 21:02:27.273843 13721 net.cpp:157] Top shape: 2 192 19 19 (138624)
I0425 21:02:27.273847 13721 net.cpp:165] Memory required for data: 304102112
I0425 21:02:27.273856 13721 layer_factory.hpp:77] Creating layer conv_6/depthwise/relu
I0425 21:02:27.273865 13721 net.cpp:100] Creating Layer conv_6/depthwise/relu
I0425 21:02:27.273871 13721 net.cpp:434] conv_6/depthwise/relu <- conv_6/depthwise
I0425 21:02:27.273880 13721 net.cpp:395] conv_6/depthwise/relu -> conv_6/depthwise (in-place)
I0425 21:02:27.274034 13721 net.cpp:150] Setting up conv_6/depthwise/relu
I0425 21:02:27.274044 13721 net.cpp:157] Top shape: 2 192 19 19 (138624)
I0425 21:02:27.274047 13721 net.cpp:165] Memory required for data: 304656608
I0425 21:02:27.274053 13721 layer_factory.hpp:77] Creating layer conv_6/project
I0425 21:02:27.274071 13721 net.cpp:100] Creating Layer conv_6/project
I0425 21:02:27.274080 13721 net.cpp:434] conv_6/project <- conv_6/depthwise
I0425 21:02:27.274088 13721 net.cpp:408] conv_6/project -> conv_6/project
I0425 21:02:27.275270 13721 net.cpp:150] Setting up conv_6/project
I0425 21:02:27.275286 13721 net.cpp:157] Top shape: 2 64 19 19 (46208)
I0425 21:02:27.275292 13721 net.cpp:165] Memory required for data: 304841440
I0425 21:02:27.275302 13721 layer_factory.hpp:77] Creating layer conv_6/project/bn
I0425 21:02:27.275311 13721 net.cpp:100] Creating Layer conv_6/project/bn
I0425 21:02:27.275319 13721 net.cpp:434] conv_6/project/bn <- conv_6/project
I0425 21:02:27.275327 13721 net.cpp:395] conv_6/project/bn -> conv_6/project (in-place)
I0425 21:02:27.275513 13721 net.cpp:150] Setting up conv_6/project/bn
I0425 21:02:27.275523 13721 net.cpp:157] Top shape: 2 64 19 19 (46208)
I0425 21:02:27.275528 13721 net.cpp:165] Memory required for data: 305026272
I0425 21:02:27.275539 13721 layer_factory.hpp:77] Creating layer conv_6/project/scale
I0425 21:02:27.275550 13721 net.cpp:100] Creating Layer conv_6/project/scale
I0425 21:02:27.275558 13721 net.cpp:434] conv_6/project/scale <- conv_6/project
I0425 21:02:27.275566 13721 net.cpp:395] conv_6/project/scale -> conv_6/project (in-place)
I0425 21:02:27.275631 13721 layer_factory.hpp:77] Creating layer conv_6/project/scale
I0425 21:02:27.275763 13721 net.cpp:150] Setting up conv_6/project/scale
I0425 21:02:27.275773 13721 net.cpp:157] Top shape: 2 64 19 19 (46208)
I0425 21:02:27.275777 13721 net.cpp:165] Memory required for data: 305211104
I0425 21:02:27.275785 13721 layer_factory.hpp:77] Creating layer conv_6/project_conv_6/project/scale_0_split
I0425 21:02:27.275794 13721 net.cpp:100] Creating Layer conv_6/project_conv_6/project/scale_0_split
I0425 21:02:27.275801 13721 net.cpp:434] conv_6/project_conv_6/project/scale_0_split <- conv_6/project
I0425 21:02:27.275810 13721 net.cpp:408] conv_6/project_conv_6/project/scale_0_split -> conv_6/project_conv_6/project/scale_0_split_0
I0425 21:02:27.275822 13721 net.cpp:408] conv_6/project_conv_6/project/scale_0_split -> conv_6/project_conv_6/project/scale_0_split_1
I0425 21:02:27.275864 13721 net.cpp:150] Setting up conv_6/project_conv_6/project/scale_0_split
I0425 21:02:27.275872 13721 net.cpp:157] Top shape: 2 64 19 19 (46208)
I0425 21:02:27.275898 13721 net.cpp:157] Top shape: 2 64 19 19 (46208)
I0425 21:02:27.275904 13721 net.cpp:165] Memory required for data: 305580768
I0425 21:02:27.275912 13721 layer_factory.hpp:77] Creating layer conv_7/expand
I0425 21:02:27.275921 13721 net.cpp:100] Creating Layer conv_7/expand
I0425 21:02:27.275928 13721 net.cpp:434] conv_7/expand <- conv_6/project_conv_6/project/scale_0_split_0
I0425 21:02:27.275938 13721 net.cpp:408] conv_7/expand -> conv_7/expand
I0425 21:02:27.277153 13721 net.cpp:150] Setting up conv_7/expand
I0425 21:02:27.277166 13721 net.cpp:157] Top shape: 2 384 19 19 (277248)
I0425 21:02:27.277173 13721 net.cpp:165] Memory required for data: 306689760
I0425 21:02:27.277181 13721 layer_factory.hpp:77] Creating layer conv_7/expand/bn
I0425 21:02:27.277190 13721 net.cpp:100] Creating Layer conv_7/expand/bn
I0425 21:02:27.277197 13721 net.cpp:434] conv_7/expand/bn <- conv_7/expand
I0425 21:02:27.277213 13721 net.cpp:395] conv_7/expand/bn -> conv_7/expand (in-place)
I0425 21:02:27.277393 13721 net.cpp:150] Setting up conv_7/expand/bn
I0425 21:02:27.277402 13721 net.cpp:157] Top shape: 2 384 19 19 (277248)
I0425 21:02:27.277407 13721 net.cpp:165] Memory required for data: 307798752
I0425 21:02:27.277429 13721 layer_factory.hpp:77] Creating layer conv_7/expand/scale
I0425 21:02:27.277441 13721 net.cpp:100] Creating Layer conv_7/expand/scale
I0425 21:02:27.277446 13721 net.cpp:434] conv_7/expand/scale <- conv_7/expand
I0425 21:02:27.277456 13721 net.cpp:395] conv_7/expand/scale -> conv_7/expand (in-place)
I0425 21:02:27.277500 13721 layer_factory.hpp:77] Creating layer conv_7/expand/scale
I0425 21:02:27.277602 13721 net.cpp:150] Setting up conv_7/expand/scale
I0425 21:02:27.277611 13721 net.cpp:157] Top shape: 2 384 19 19 (277248)
I0425 21:02:27.277616 13721 net.cpp:165] Memory required for data: 308907744
I0425 21:02:27.277626 13721 layer_factory.hpp:77] Creating layer conv_7/expand/relu
I0425 21:02:27.277634 13721 net.cpp:100] Creating Layer conv_7/expand/relu
I0425 21:02:27.277640 13721 net.cpp:434] conv_7/expand/relu <- conv_7/expand
I0425 21:02:27.277648 13721 net.cpp:395] conv_7/expand/relu -> conv_7/expand (in-place)
I0425 21:02:27.278012 13721 net.cpp:150] Setting up conv_7/expand/relu
I0425 21:02:27.278024 13721 net.cpp:157] Top shape: 2 384 19 19 (277248)
I0425 21:02:27.278029 13721 net.cpp:165] Memory required for data: 310016736
I0425 21:02:27.278036 13721 layer_factory.hpp:77] Creating layer conv_7/depthwise
I0425 21:02:27.278048 13721 net.cpp:100] Creating Layer conv_7/depthwise
I0425 21:02:27.278054 13721 net.cpp:434] conv_7/depthwise <- conv_7/expand
I0425 21:02:27.278064 13721 net.cpp:408] conv_7/depthwise -> conv_7/depthwise
I0425 21:02:27.278281 13721 net.cpp:150] Setting up conv_7/depthwise
I0425 21:02:27.278291 13721 net.cpp:157] Top shape: 2 384 19 19 (277248)
I0425 21:02:27.278296 13721 net.cpp:165] Memory required for data: 311125728
I0425 21:02:27.278304 13721 layer_factory.hpp:77] Creating layer conv_7/depthwise/bn
I0425 21:02:27.278313 13721 net.cpp:100] Creating Layer conv_7/depthwise/bn
I0425 21:02:27.278321 13721 net.cpp:434] conv_7/depthwise/bn <- conv_7/depthwise
I0425 21:02:27.278329 13721 net.cpp:395] conv_7/depthwise/bn -> conv_7/depthwise (in-place)
I0425 21:02:27.278504 13721 net.cpp:150] Setting up conv_7/depthwise/bn
I0425 21:02:27.278513 13721 net.cpp:157] Top shape: 2 384 19 19 (277248)
I0425 21:02:27.278519 13721 net.cpp:165] Memory required for data: 312234720
I0425 21:02:27.278529 13721 layer_factory.hpp:77] Creating layer conv_7/depthwise/scale
I0425 21:02:27.278539 13721 net.cpp:100] Creating Layer conv_7/depthwise/scale
I0425 21:02:27.278547 13721 net.cpp:434] conv_7/depthwise/scale <- conv_7/depthwise
I0425 21:02:27.278554 13721 net.cpp:395] conv_7/depthwise/scale -> conv_7/depthwise (in-place)
I0425 21:02:27.278599 13721 layer_factory.hpp:77] Creating layer conv_7/depthwise/scale
I0425 21:02:27.278702 13721 net.cpp:150] Setting up conv_7/depthwise/scale
I0425 21:02:27.278709 13721 net.cpp:157] Top shape: 2 384 19 19 (277248)
I0425 21:02:27.278726 13721 net.cpp:165] Memory required for data: 313343712
I0425 21:02:27.278738 13721 layer_factory.hpp:77] Creating layer conv_7/depthwise/relu
I0425 21:02:27.278746 13721 net.cpp:100] Creating Layer conv_7/depthwise/relu
I0425 21:02:27.278753 13721 net.cpp:434] conv_7/depthwise/relu <- conv_7/depthwise
I0425 21:02:27.278761 13721 net.cpp:395] conv_7/depthwise/relu -> conv_7/depthwise (in-place)
I0425 21:02:27.279105 13721 net.cpp:150] Setting up conv_7/depthwise/relu
I0425 21:02:27.279116 13721 net.cpp:157] Top shape: 2 384 19 19 (277248)
I0425 21:02:27.279122 13721 net.cpp:165] Memory required for data: 314452704
I0425 21:02:27.279129 13721 layer_factory.hpp:77] Creating layer conv_7/project
I0425 21:02:27.279139 13721 net.cpp:100] Creating Layer conv_7/project
I0425 21:02:27.279147 13721 net.cpp:434] conv_7/project <- conv_7/depthwise
I0425 21:02:27.279156 13721 net.cpp:408] conv_7/project -> conv_7/project
I0425 21:02:27.280761 13721 net.cpp:150] Setting up conv_7/project
I0425 21:02:27.280773 13721 net.cpp:157] Top shape: 2 64 19 19 (46208)
I0425 21:02:27.280779 13721 net.cpp:165] Memory required for data: 314637536
I0425 21:02:27.280788 13721 layer_factory.hpp:77] Creating layer conv_7/project/bn
I0425 21:02:27.280797 13721 net.cpp:100] Creating Layer conv_7/project/bn
I0425 21:02:27.280804 13721 net.cpp:434] conv_7/project/bn <- conv_7/project
I0425 21:02:27.280812 13721 net.cpp:395] conv_7/project/bn -> conv_7/project (in-place)
I0425 21:02:27.280999 13721 net.cpp:150] Setting up conv_7/project/bn
I0425 21:02:27.281008 13721 net.cpp:157] Top shape: 2 64 19 19 (46208)
I0425 21:02:27.281014 13721 net.cpp:165] Memory required for data: 314822368
I0425 21:02:27.281025 13721 layer_factory.hpp:77] Creating layer conv_7/project/scale
I0425 21:02:27.281035 13721 net.cpp:100] Creating Layer conv_7/project/scale
I0425 21:02:27.281042 13721 net.cpp:434] conv_7/project/scale <- conv_7/project
I0425 21:02:27.281050 13721 net.cpp:395] conv_7/project/scale -> conv_7/project (in-place)
I0425 21:02:27.281093 13721 layer_factory.hpp:77] Creating layer conv_7/project/scale
I0425 21:02:27.281210 13721 net.cpp:150] Setting up conv_7/project/scale
I0425 21:02:27.281219 13721 net.cpp:157] Top shape: 2 64 19 19 (46208)
I0425 21:02:27.281224 13721 net.cpp:165] Memory required for data: 315007200
I0425 21:02:27.281234 13721 layer_factory.hpp:77] Creating layer conv_7project/sum
I0425 21:02:27.281242 13721 net.cpp:100] Creating Layer conv_7project/sum
I0425 21:02:27.281250 13721 net.cpp:434] conv_7project/sum <- conv_6/project_conv_6/project/scale_0_split_1
I0425 21:02:27.281256 13721 net.cpp:434] conv_7project/sum <- conv_7/project
I0425 21:02:27.281265 13721 net.cpp:408] conv_7project/sum -> conv_7project
I0425 21:02:27.281294 13721 net.cpp:150] Setting up conv_7project/sum
I0425 21:02:27.281302 13721 net.cpp:157] Top shape: 2 64 19 19 (46208)
I0425 21:02:27.281307 13721 net.cpp:165] Memory required for data: 315192032
I0425 21:02:27.281313 13721 layer_factory.hpp:77] Creating layer conv_7project_conv_7project/sum_0_split
I0425 21:02:27.281322 13721 net.cpp:100] Creating Layer conv_7project_conv_7project/sum_0_split
I0425 21:02:27.281329 13721 net.cpp:434] conv_7project_conv_7project/sum_0_split <- conv_7project
I0425 21:02:27.281338 13721 net.cpp:408] conv_7project_conv_7project/sum_0_split -> conv_7project_conv_7project/sum_0_split_0
I0425 21:02:27.281347 13721 net.cpp:408] conv_7project_conv_7project/sum_0_split -> conv_7project_conv_7project/sum_0_split_1
I0425 21:02:27.281386 13721 net.cpp:150] Setting up conv_7project_conv_7project/sum_0_split
I0425 21:02:27.281394 13721 net.cpp:157] Top shape: 2 64 19 19 (46208)
I0425 21:02:27.281401 13721 net.cpp:157] Top shape: 2 64 19 19 (46208)
I0425 21:02:27.281406 13721 net.cpp:165] Memory required for data: 315561696
I0425 21:02:27.281412 13721 layer_factory.hpp:77] Creating layer conv_8/expand
I0425 21:02:27.281424 13721 net.cpp:100] Creating Layer conv_8/expand
I0425 21:02:27.281430 13721 net.cpp:434] conv_8/expand <- conv_7project_conv_7project/sum_0_split_0
I0425 21:02:27.281451 13721 net.cpp:408] conv_8/expand -> conv_8/expand
I0425 21:02:27.282707 13721 net.cpp:150] Setting up conv_8/expand
I0425 21:02:27.282719 13721 net.cpp:157] Top shape: 2 384 19 19 (277248)
I0425 21:02:27.282726 13721 net.cpp:165] Memory required for data: 316670688
I0425 21:02:27.282734 13721 layer_factory.hpp:77] Creating layer conv_8/expand/bn
I0425 21:02:27.282742 13721 net.cpp:100] Creating Layer conv_8/expand/bn
I0425 21:02:27.282750 13721 net.cpp:434] conv_8/expand/bn <- conv_8/expand
I0425 21:02:27.282759 13721 net.cpp:395] conv_8/expand/bn -> conv_8/expand (in-place)
I0425 21:02:27.282938 13721 net.cpp:150] Setting up conv_8/expand/bn
I0425 21:02:27.282948 13721 net.cpp:157] Top shape: 2 384 19 19 (277248)
I0425 21:02:27.282953 13721 net.cpp:165] Memory required for data: 317779680
I0425 21:02:27.282963 13721 layer_factory.hpp:77] Creating layer conv_8/expand/scale
I0425 21:02:27.282980 13721 net.cpp:100] Creating Layer conv_8/expand/scale
I0425 21:02:27.282989 13721 net.cpp:434] conv_8/expand/scale <- conv_8/expand
I0425 21:02:27.282996 13721 net.cpp:395] conv_8/expand/scale -> conv_8/expand (in-place)
I0425 21:02:27.283041 13721 layer_factory.hpp:77] Creating layer conv_8/expand/scale
I0425 21:02:27.283151 13721 net.cpp:150] Setting up conv_8/expand/scale
I0425 21:02:27.283159 13721 net.cpp:157] Top shape: 2 384 19 19 (277248)
I0425 21:02:27.283165 13721 net.cpp:165] Memory required for data: 318888672
I0425 21:02:27.283174 13721 layer_factory.hpp:77] Creating layer conv_8/expand/relu
I0425 21:02:27.283182 13721 net.cpp:100] Creating Layer conv_8/expand/relu
I0425 21:02:27.283190 13721 net.cpp:434] conv_8/expand/relu <- conv_8/expand
I0425 21:02:27.283196 13721 net.cpp:395] conv_8/expand/relu -> conv_8/expand (in-place)
I0425 21:02:27.283351 13721 net.cpp:150] Setting up conv_8/expand/relu
I0425 21:02:27.283362 13721 net.cpp:157] Top shape: 2 384 19 19 (277248)
I0425 21:02:27.283367 13721 net.cpp:165] Memory required for data: 319997664
I0425 21:02:27.283373 13721 layer_factory.hpp:77] Creating layer conv_8/depthwise
I0425 21:02:27.283385 13721 net.cpp:100] Creating Layer conv_8/depthwise
I0425 21:02:27.283391 13721 net.cpp:434] conv_8/depthwise <- conv_8/expand
I0425 21:02:27.283401 13721 net.cpp:408] conv_8/depthwise -> conv_8/depthwise
I0425 21:02:27.283602 13721 net.cpp:150] Setting up conv_8/depthwise
I0425 21:02:27.283612 13721 net.cpp:157] Top shape: 2 384 19 19 (277248)
I0425 21:02:27.283617 13721 net.cpp:165] Memory required for data: 321106656
I0425 21:02:27.283624 13721 layer_factory.hpp:77] Creating layer conv_8/depthwise/bn
I0425 21:02:27.283641 13721 net.cpp:100] Creating Layer conv_8/depthwise/bn
I0425 21:02:27.283649 13721 net.cpp:434] conv_8/depthwise/bn <- conv_8/depthwise
I0425 21:02:27.283656 13721 net.cpp:395] conv_8/depthwise/bn -> conv_8/depthwise (in-place)
I0425 21:02:27.283835 13721 net.cpp:150] Setting up conv_8/depthwise/bn
I0425 21:02:27.283844 13721 net.cpp:157] Top shape: 2 384 19 19 (277248)
I0425 21:02:27.283849 13721 net.cpp:165] Memory required for data: 322215648
I0425 21:02:27.283860 13721 layer_factory.hpp:77] Creating layer conv_8/depthwise/scale
I0425 21:02:27.283879 13721 net.cpp:100] Creating Layer conv_8/depthwise/scale
I0425 21:02:27.283886 13721 net.cpp:434] conv_8/depthwise/scale <- conv_8/depthwise
I0425 21:02:27.283902 13721 net.cpp:395] conv_8/depthwise/scale -> conv_8/depthwise (in-place)
I0425 21:02:27.283948 13721 layer_factory.hpp:77] Creating layer conv_8/depthwise/scale
I0425 21:02:27.284052 13721 net.cpp:150] Setting up conv_8/depthwise/scale
I0425 21:02:27.284061 13721 net.cpp:157] Top shape: 2 384 19 19 (277248)
I0425 21:02:27.284066 13721 net.cpp:165] Memory required for data: 323324640
I0425 21:02:27.284075 13721 layer_factory.hpp:77] Creating layer conv_8/depthwise/relu
I0425 21:02:27.284083 13721 net.cpp:100] Creating Layer conv_8/depthwise/relu
I0425 21:02:27.284090 13721 net.cpp:434] conv_8/depthwise/relu <- conv_8/depthwise
I0425 21:02:27.284097 13721 net.cpp:395] conv_8/depthwise/relu -> conv_8/depthwise (in-place)
I0425 21:02:27.284488 13721 net.cpp:150] Setting up conv_8/depthwise/relu
I0425 21:02:27.284499 13721 net.cpp:157] Top shape: 2 384 19 19 (277248)
I0425 21:02:27.284505 13721 net.cpp:165] Memory required for data: 324433632
I0425 21:02:27.284512 13721 layer_factory.hpp:77] Creating layer conv_8/project
I0425 21:02:27.284523 13721 net.cpp:100] Creating Layer conv_8/project
I0425 21:02:27.284529 13721 net.cpp:434] conv_8/project <- conv_8/depthwise
I0425 21:02:27.284538 13721 net.cpp:408] conv_8/project -> conv_8/project
I0425 21:02:27.285724 13721 net.cpp:150] Setting up conv_8/project
I0425 21:02:27.285737 13721 net.cpp:157] Top shape: 2 64 19 19 (46208)
I0425 21:02:27.285742 13721 net.cpp:165] Memory required for data: 324618464
I0425 21:02:27.285750 13721 layer_factory.hpp:77] Creating layer conv_8/project/bn
I0425 21:02:27.285759 13721 net.cpp:100] Creating Layer conv_8/project/bn
I0425 21:02:27.285766 13721 net.cpp:434] conv_8/project/bn <- conv_8/project
I0425 21:02:27.285773 13721 net.cpp:395] conv_8/project/bn -> conv_8/project (in-place)
I0425 21:02:27.285984 13721 net.cpp:150] Setting up conv_8/project/bn
I0425 21:02:27.285991 13721 net.cpp:157] Top shape: 2 64 19 19 (46208)
I0425 21:02:27.286005 13721 net.cpp:165] Memory required for data: 324803296
I0425 21:02:27.286012 13721 layer_factory.hpp:77] Creating layer conv_8/project/scale
I0425 21:02:27.286021 13721 net.cpp:100] Creating Layer conv_8/project/scale
I0425 21:02:27.286028 13721 net.cpp:434] conv_8/project/scale <- conv_8/project
I0425 21:02:27.286036 13721 net.cpp:395] conv_8/project/scale -> conv_8/project (in-place)
I0425 21:02:27.286095 13721 layer_factory.hpp:77] Creating layer conv_8/project/scale
I0425 21:02:27.286203 13721 net.cpp:150] Setting up conv_8/project/scale
I0425 21:02:27.286211 13721 net.cpp:157] Top shape: 2 64 19 19 (46208)
I0425 21:02:27.286217 13721 net.cpp:165] Memory required for data: 324988128
I0425 21:02:27.286226 13721 layer_factory.hpp:77] Creating layer conv_8project/sum
I0425 21:02:27.286242 13721 net.cpp:100] Creating Layer conv_8project/sum
I0425 21:02:27.286249 13721 net.cpp:434] conv_8project/sum <- conv_7project_conv_7project/sum_0_split_1
I0425 21:02:27.286257 13721 net.cpp:434] conv_8project/sum <- conv_8/project
I0425 21:02:27.286264 13721 net.cpp:408] conv_8project/sum -> conv_8project
I0425 21:02:27.286293 13721 net.cpp:150] Setting up conv_8project/sum
I0425 21:02:27.286300 13721 net.cpp:157] Top shape: 2 64 19 19 (46208)
I0425 21:02:27.286306 13721 net.cpp:165] Memory required for data: 325172960
I0425 21:02:27.286312 13721 layer_factory.hpp:77] Creating layer conv_8project_conv_8project/sum_0_split
I0425 21:02:27.286319 13721 net.cpp:100] Creating Layer conv_8project_conv_8project/sum_0_split
I0425 21:02:27.286336 13721 net.cpp:434] conv_8project_conv_8project/sum_0_split <- conv_8project
I0425 21:02:27.286345 13721 net.cpp:408] conv_8project_conv_8project/sum_0_split -> conv_8project_conv_8project/sum_0_split_0
I0425 21:02:27.286355 13721 net.cpp:408] conv_8project_conv_8project/sum_0_split -> conv_8project_conv_8project/sum_0_split_1
I0425 21:02:27.286427 13721 net.cpp:150] Setting up conv_8project_conv_8project/sum_0_split
I0425 21:02:27.286434 13721 net.cpp:157] Top shape: 2 64 19 19 (46208)
I0425 21:02:27.286448 13721 net.cpp:157] Top shape: 2 64 19 19 (46208)
I0425 21:02:27.286453 13721 net.cpp:165] Memory required for data: 325542624
I0425 21:02:27.286459 13721 layer_factory.hpp:77] Creating layer conv_9/expand
I0425 21:02:27.286468 13721 net.cpp:100] Creating Layer conv_9/expand
I0425 21:02:27.286475 13721 net.cpp:434] conv_9/expand <- conv_8project_conv_8project/sum_0_split_0
I0425 21:02:27.286484 13721 net.cpp:408] conv_9/expand -> conv_9/expand
I0425 21:02:27.287685 13721 net.cpp:150] Setting up conv_9/expand
I0425 21:02:27.287698 13721 net.cpp:157] Top shape: 2 384 19 19 (277248)
I0425 21:02:27.287704 13721 net.cpp:165] Memory required for data: 326651616
I0425 21:02:27.287712 13721 layer_factory.hpp:77] Creating layer conv_9/expand/bn
I0425 21:02:27.287727 13721 net.cpp:100] Creating Layer conv_9/expand/bn
I0425 21:02:27.287746 13721 net.cpp:434] conv_9/expand/bn <- conv_9/expand
I0425 21:02:27.287756 13721 net.cpp:395] conv_9/expand/bn -> conv_9/expand (in-place)
I0425 21:02:27.287950 13721 net.cpp:150] Setting up conv_9/expand/bn
I0425 21:02:27.287959 13721 net.cpp:157] Top shape: 2 384 19 19 (277248)
I0425 21:02:27.287966 13721 net.cpp:165] Memory required for data: 327760608
I0425 21:02:27.287976 13721 layer_factory.hpp:77] Creating layer conv_9/expand/scale
I0425 21:02:27.287986 13721 net.cpp:100] Creating Layer conv_9/expand/scale
I0425 21:02:27.287992 13721 net.cpp:434] conv_9/expand/scale <- conv_9/expand
I0425 21:02:27.288002 13721 net.cpp:395] conv_9/expand/scale -> conv_9/expand (in-place)
I0425 21:02:27.288046 13721 layer_factory.hpp:77] Creating layer conv_9/expand/scale
I0425 21:02:27.288153 13721 net.cpp:150] Setting up conv_9/expand/scale
I0425 21:02:27.288161 13721 net.cpp:157] Top shape: 2 384 19 19 (277248)
I0425 21:02:27.288167 13721 net.cpp:165] Memory required for data: 328869600
I0425 21:02:27.288177 13721 layer_factory.hpp:77] Creating layer conv_9/expand/relu
I0425 21:02:27.288185 13721 net.cpp:100] Creating Layer conv_9/expand/relu
I0425 21:02:27.288192 13721 net.cpp:434] conv_9/expand/relu <- conv_9/expand
I0425 21:02:27.288199 13721 net.cpp:395] conv_9/expand/relu -> conv_9/expand (in-place)
I0425 21:02:27.288353 13721 net.cpp:150] Setting up conv_9/expand/relu
I0425 21:02:27.288364 13721 net.cpp:157] Top shape: 2 384 19 19 (277248)
I0425 21:02:27.288369 13721 net.cpp:165] Memory required for data: 329978592
I0425 21:02:27.288375 13721 layer_factory.hpp:77] Creating layer conv_9/depthwise
I0425 21:02:27.288386 13721 net.cpp:100] Creating Layer conv_9/depthwise
I0425 21:02:27.288393 13721 net.cpp:434] conv_9/depthwise <- conv_9/expand
I0425 21:02:27.288403 13721 net.cpp:408] conv_9/depthwise -> conv_9/depthwise
I0425 21:02:27.288609 13721 net.cpp:150] Setting up conv_9/depthwise
I0425 21:02:27.288617 13721 net.cpp:157] Top shape: 2 384 19 19 (277248)
I0425 21:02:27.288622 13721 net.cpp:165] Memory required for data: 331087584
I0425 21:02:27.288630 13721 layer_factory.hpp:77] Creating layer conv_9/depthwise/bn
I0425 21:02:27.288640 13721 net.cpp:100] Creating Layer conv_9/depthwise/bn
I0425 21:02:27.288646 13721 net.cpp:434] conv_9/depthwise/bn <- conv_9/depthwise
I0425 21:02:27.288655 13721 net.cpp:395] conv_9/depthwise/bn -> conv_9/depthwise (in-place)
I0425 21:02:27.288831 13721 net.cpp:150] Setting up conv_9/depthwise/bn
I0425 21:02:27.288841 13721 net.cpp:157] Top shape: 2 384 19 19 (277248)
I0425 21:02:27.288846 13721 net.cpp:165] Memory required for data: 332196576
I0425 21:02:27.288856 13721 layer_factory.hpp:77] Creating layer conv_9/depthwise/scale
I0425 21:02:27.288866 13721 net.cpp:100] Creating Layer conv_9/depthwise/scale
I0425 21:02:27.288872 13721 net.cpp:434] conv_9/depthwise/scale <- conv_9/depthwise
I0425 21:02:27.288880 13721 net.cpp:395] conv_9/depthwise/scale -> conv_9/depthwise (in-place)
I0425 21:02:27.288926 13721 layer_factory.hpp:77] Creating layer conv_9/depthwise/scale
I0425 21:02:27.289039 13721 net.cpp:150] Setting up conv_9/depthwise/scale
I0425 21:02:27.289047 13721 net.cpp:157] Top shape: 2 384 19 19 (277248)
I0425 21:02:27.289053 13721 net.cpp:165] Memory required for data: 333305568
I0425 21:02:27.289062 13721 layer_factory.hpp:77] Creating layer conv_9/depthwise/relu
I0425 21:02:27.289070 13721 net.cpp:100] Creating Layer conv_9/depthwise/relu
I0425 21:02:27.289077 13721 net.cpp:434] conv_9/depthwise/relu <- conv_9/depthwise
I0425 21:02:27.289085 13721 net.cpp:395] conv_9/depthwise/relu -> conv_9/depthwise (in-place)
I0425 21:02:27.289433 13721 net.cpp:150] Setting up conv_9/depthwise/relu
I0425 21:02:27.289445 13721 net.cpp:157] Top shape: 2 384 19 19 (277248)
I0425 21:02:27.289451 13721 net.cpp:165] Memory required for data: 334414560
I0425 21:02:27.289458 13721 layer_factory.hpp:77] Creating layer conv_9/project
I0425 21:02:27.289469 13721 net.cpp:100] Creating Layer conv_9/project
I0425 21:02:27.289475 13721 net.cpp:434] conv_9/project <- conv_9/depthwise
I0425 21:02:27.289495 13721 net.cpp:408] conv_9/project -> conv_9/project
I0425 21:02:27.290699 13721 net.cpp:150] Setting up conv_9/project
I0425 21:02:27.290712 13721 net.cpp:157] Top shape: 2 64 19 19 (46208)
I0425 21:02:27.290719 13721 net.cpp:165] Memory required for data: 334599392
I0425 21:02:27.290727 13721 layer_factory.hpp:77] Creating layer conv_9/project/bn
I0425 21:02:27.290736 13721 net.cpp:100] Creating Layer conv_9/project/bn
I0425 21:02:27.290743 13721 net.cpp:434] conv_9/project/bn <- conv_9/project
I0425 21:02:27.290751 13721 net.cpp:395] conv_9/project/bn -> conv_9/project (in-place)
I0425 21:02:27.290940 13721 net.cpp:150] Setting up conv_9/project/bn
I0425 21:02:27.290949 13721 net.cpp:157] Top shape: 2 64 19 19 (46208)
I0425 21:02:27.290954 13721 net.cpp:165] Memory required for data: 334784224
I0425 21:02:27.290966 13721 layer_factory.hpp:77] Creating layer conv_9/project/scale
I0425 21:02:27.290983 13721 net.cpp:100] Creating Layer conv_9/project/scale
I0425 21:02:27.290992 13721 net.cpp:434] conv_9/project/scale <- conv_9/project
I0425 21:02:27.290999 13721 net.cpp:395] conv_9/project/scale -> conv_9/project (in-place)
I0425 21:02:27.291044 13721 layer_factory.hpp:77] Creating layer conv_9/project/scale
I0425 21:02:27.291153 13721 net.cpp:150] Setting up conv_9/project/scale
I0425 21:02:27.291162 13721 net.cpp:157] Top shape: 2 64 19 19 (46208)
I0425 21:02:27.291168 13721 net.cpp:165] Memory required for data: 334969056
I0425 21:02:27.291177 13721 layer_factory.hpp:77] Creating layer conv_9project/sum
I0425 21:02:27.291185 13721 net.cpp:100] Creating Layer conv_9project/sum
I0425 21:02:27.291193 13721 net.cpp:434] conv_9project/sum <- conv_8project_conv_8project/sum_0_split_1
I0425 21:02:27.291200 13721 net.cpp:434] conv_9project/sum <- conv_9/project
I0425 21:02:27.291208 13721 net.cpp:408] conv_9project/sum -> conv_9project
I0425 21:02:27.291239 13721 net.cpp:150] Setting up conv_9project/sum
I0425 21:02:27.291245 13721 net.cpp:157] Top shape: 2 64 19 19 (46208)
I0425 21:02:27.291251 13721 net.cpp:165] Memory required for data: 335153888
I0425 21:02:27.291257 13721 layer_factory.hpp:77] Creating layer conv_10/expand
I0425 21:02:27.291267 13721 net.cpp:100] Creating Layer conv_10/expand
I0425 21:02:27.291275 13721 net.cpp:434] conv_10/expand <- conv_9project
I0425 21:02:27.291283 13721 net.cpp:408] conv_10/expand -> conv_10/expand
I0425 21:02:27.292505 13721 net.cpp:150] Setting up conv_10/expand
I0425 21:02:27.292517 13721 net.cpp:157] Top shape: 2 384 19 19 (277248)
I0425 21:02:27.292532 13721 net.cpp:165] Memory required for data: 336262880
I0425 21:02:27.292541 13721 layer_factory.hpp:77] Creating layer conv_10/expand/bn
I0425 21:02:27.292559 13721 net.cpp:100] Creating Layer conv_10/expand/bn
I0425 21:02:27.292567 13721 net.cpp:434] conv_10/expand/bn <- conv_10/expand
I0425 21:02:27.292573 13721 net.cpp:395] conv_10/expand/bn -> conv_10/expand (in-place)
I0425 21:02:27.292745 13721 net.cpp:150] Setting up conv_10/expand/bn
I0425 21:02:27.292754 13721 net.cpp:157] Top shape: 2 384 19 19 (277248)
I0425 21:02:27.292759 13721 net.cpp:165] Memory required for data: 337371872
I0425 21:02:27.292769 13721 layer_factory.hpp:77] Creating layer conv_10/expand/scale
I0425 21:02:27.292779 13721 net.cpp:100] Creating Layer conv_10/expand/scale
I0425 21:02:27.292785 13721 net.cpp:434] conv_10/expand/scale <- conv_10/expand
I0425 21:02:27.292803 13721 net.cpp:395] conv_10/expand/scale -> conv_10/expand (in-place)
I0425 21:02:27.292856 13721 layer_factory.hpp:77] Creating layer conv_10/expand/scale
I0425 21:02:27.292959 13721 net.cpp:150] Setting up conv_10/expand/scale
I0425 21:02:27.292968 13721 net.cpp:157] Top shape: 2 384 19 19 (277248)
I0425 21:02:27.292973 13721 net.cpp:165] Memory required for data: 338480864
I0425 21:02:27.292982 13721 layer_factory.hpp:77] Creating layer conv_10/expand/relu
I0425 21:02:27.292990 13721 net.cpp:100] Creating Layer conv_10/expand/relu
I0425 21:02:27.292996 13721 net.cpp:434] conv_10/expand/relu <- conv_10/expand
I0425 21:02:27.293004 13721 net.cpp:395] conv_10/expand/relu -> conv_10/expand (in-place)
I0425 21:02:27.293380 13721 net.cpp:150] Setting up conv_10/expand/relu
I0425 21:02:27.293392 13721 net.cpp:157] Top shape: 2 384 19 19 (277248)
I0425 21:02:27.293398 13721 net.cpp:165] Memory required for data: 339589856
I0425 21:02:27.293404 13721 layer_factory.hpp:77] Creating layer conv_10/depthwise
I0425 21:02:27.293431 13721 net.cpp:100] Creating Layer conv_10/depthwise
I0425 21:02:27.293437 13721 net.cpp:434] conv_10/depthwise <- conv_10/expand
I0425 21:02:27.293445 13721 net.cpp:408] conv_10/depthwise -> conv_10/depthwise
I0425 21:02:27.293655 13721 net.cpp:150] Setting up conv_10/depthwise
I0425 21:02:27.293665 13721 net.cpp:157] Top shape: 2 384 19 19 (277248)
I0425 21:02:27.293670 13721 net.cpp:165] Memory required for data: 340698848
I0425 21:02:27.293678 13721 layer_factory.hpp:77] Creating layer conv_10/depthwise/bn
I0425 21:02:27.293687 13721 net.cpp:100] Creating Layer conv_10/depthwise/bn
I0425 21:02:27.293694 13721 net.cpp:434] conv_10/depthwise/bn <- conv_10/depthwise
I0425 21:02:27.293702 13721 net.cpp:395] conv_10/depthwise/bn -> conv_10/depthwise (in-place)
I0425 21:02:27.293881 13721 net.cpp:150] Setting up conv_10/depthwise/bn
I0425 21:02:27.293890 13721 net.cpp:157] Top shape: 2 384 19 19 (277248)
I0425 21:02:27.293895 13721 net.cpp:165] Memory required for data: 341807840
I0425 21:02:27.293905 13721 layer_factory.hpp:77] Creating layer conv_10/depthwise/scale
I0425 21:02:27.293915 13721 net.cpp:100] Creating Layer conv_10/depthwise/scale
I0425 21:02:27.293922 13721 net.cpp:434] conv_10/depthwise/scale <- conv_10/depthwise
I0425 21:02:27.293931 13721 net.cpp:395] conv_10/depthwise/scale -> conv_10/depthwise (in-place)
I0425 21:02:27.293972 13721 layer_factory.hpp:77] Creating layer conv_10/depthwise/scale
I0425 21:02:27.294085 13721 net.cpp:150] Setting up conv_10/depthwise/scale
I0425 21:02:27.294095 13721 net.cpp:157] Top shape: 2 384 19 19 (277248)
I0425 21:02:27.294100 13721 net.cpp:165] Memory required for data: 342916832
I0425 21:02:27.294108 13721 layer_factory.hpp:77] Creating layer conv_10/depthwise/relu
I0425 21:02:27.294134 13721 net.cpp:100] Creating Layer conv_10/depthwise/relu
I0425 21:02:27.294142 13721 net.cpp:434] conv_10/depthwise/relu <- conv_10/depthwise
I0425 21:02:27.294148 13721 net.cpp:395] conv_10/depthwise/relu -> conv_10/depthwise (in-place)
I0425 21:02:27.294306 13721 net.cpp:150] Setting up conv_10/depthwise/relu
I0425 21:02:27.294314 13721 net.cpp:157] Top shape: 2 384 19 19 (277248)
I0425 21:02:27.294328 13721 net.cpp:165] Memory required for data: 344025824
I0425 21:02:27.294332 13721 layer_factory.hpp:77] Creating layer conv_10/project
I0425 21:02:27.294340 13721 net.cpp:100] Creating Layer conv_10/project
I0425 21:02:27.294348 13721 net.cpp:434] conv_10/project <- conv_10/depthwise
I0425 21:02:27.294363 13721 net.cpp:408] conv_10/project -> conv_10/project
I0425 21:02:27.295682 13721 net.cpp:150] Setting up conv_10/project
I0425 21:02:27.295694 13721 net.cpp:157] Top shape: 2 96 19 19 (69312)
I0425 21:02:27.295698 13721 net.cpp:165] Memory required for data: 344303072
I0425 21:02:27.295703 13721 layer_factory.hpp:77] Creating layer conv_10/project/bn
I0425 21:02:27.295709 13721 net.cpp:100] Creating Layer conv_10/project/bn
I0425 21:02:27.295722 13721 net.cpp:434] conv_10/project/bn <- conv_10/project
I0425 21:02:27.295728 13721 net.cpp:395] conv_10/project/bn -> conv_10/project (in-place)
I0425 21:02:27.295933 13721 net.cpp:150] Setting up conv_10/project/bn
I0425 21:02:27.295943 13721 net.cpp:157] Top shape: 2 96 19 19 (69312)
I0425 21:02:27.295955 13721 net.cpp:165] Memory required for data: 344580320
I0425 21:02:27.295964 13721 layer_factory.hpp:77] Creating layer conv_10/project/scale
I0425 21:02:27.295974 13721 net.cpp:100] Creating Layer conv_10/project/scale
I0425 21:02:27.295981 13721 net.cpp:434] conv_10/project/scale <- conv_10/project
I0425 21:02:27.295989 13721 net.cpp:395] conv_10/project/scale -> conv_10/project (in-place)
I0425 21:02:27.296043 13721 layer_factory.hpp:77] Creating layer conv_10/project/scale
I0425 21:02:27.296193 13721 net.cpp:150] Setting up conv_10/project/scale
I0425 21:02:27.296202 13721 net.cpp:157] Top shape: 2 96 19 19 (69312)
I0425 21:02:27.296207 13721 net.cpp:165] Memory required for data: 344857568
I0425 21:02:27.296216 13721 layer_factory.hpp:77] Creating layer conv_10/project_conv_10/project/scale_0_split
I0425 21:02:27.296232 13721 net.cpp:100] Creating Layer conv_10/project_conv_10/project/scale_0_split
I0425 21:02:27.296238 13721 net.cpp:434] conv_10/project_conv_10/project/scale_0_split <- conv_10/project
I0425 21:02:27.296252 13721 net.cpp:408] conv_10/project_conv_10/project/scale_0_split -> conv_10/project_conv_10/project/scale_0_split_0
I0425 21:02:27.296262 13721 net.cpp:408] conv_10/project_conv_10/project/scale_0_split -> conv_10/project_conv_10/project/scale_0_split_1
I0425 21:02:27.296329 13721 net.cpp:150] Setting up conv_10/project_conv_10/project/scale_0_split
I0425 21:02:27.296336 13721 net.cpp:157] Top shape: 2 96 19 19 (69312)
I0425 21:02:27.296350 13721 net.cpp:157] Top shape: 2 96 19 19 (69312)
I0425 21:02:27.296355 13721 net.cpp:165] Memory required for data: 345412064
I0425 21:02:27.296360 13721 layer_factory.hpp:77] Creating layer conv_11/expand
I0425 21:02:27.296377 13721 net.cpp:100] Creating Layer conv_11/expand
I0425 21:02:27.296386 13721 net.cpp:434] conv_11/expand <- conv_10/project_conv_10/project/scale_0_split_0
I0425 21:02:27.296394 13721 net.cpp:408] conv_11/expand -> conv_11/expand
I0425 21:02:27.298343 13721 net.cpp:150] Setting up conv_11/expand
I0425 21:02:27.298357 13721 net.cpp:157] Top shape: 2 576 19 19 (415872)
I0425 21:02:27.298362 13721 net.cpp:165] Memory required for data: 347075552
I0425 21:02:27.298372 13721 layer_factory.hpp:77] Creating layer conv_11/expand/bn
I0425 21:02:27.298380 13721 net.cpp:100] Creating Layer conv_11/expand/bn
I0425 21:02:27.298388 13721 net.cpp:434] conv_11/expand/bn <- conv_11/expand
I0425 21:02:27.298395 13721 net.cpp:395] conv_11/expand/bn -> conv_11/expand (in-place)
I0425 21:02:27.298593 13721 net.cpp:150] Setting up conv_11/expand/bn
I0425 21:02:27.298604 13721 net.cpp:157] Top shape: 2 576 19 19 (415872)
I0425 21:02:27.298609 13721 net.cpp:165] Memory required for data: 348739040
I0425 21:02:27.298619 13721 layer_factory.hpp:77] Creating layer conv_11/expand/scale
I0425 21:02:27.298629 13721 net.cpp:100] Creating Layer conv_11/expand/scale
I0425 21:02:27.298636 13721 net.cpp:434] conv_11/expand/scale <- conv_11/expand
I0425 21:02:27.298645 13721 net.cpp:395] conv_11/expand/scale -> conv_11/expand (in-place)
I0425 21:02:27.298691 13721 layer_factory.hpp:77] Creating layer conv_11/expand/scale
I0425 21:02:27.298815 13721 net.cpp:150] Setting up conv_11/expand/scale
I0425 21:02:27.298825 13721 net.cpp:157] Top shape: 2 576 19 19 (415872)
I0425 21:02:27.298830 13721 net.cpp:165] Memory required for data: 350402528
I0425 21:02:27.298838 13721 layer_factory.hpp:77] Creating layer conv_11/expand/relu
I0425 21:02:27.298847 13721 net.cpp:100] Creating Layer conv_11/expand/relu
I0425 21:02:27.298854 13721 net.cpp:434] conv_11/expand/relu <- conv_11/expand
I0425 21:02:27.298862 13721 net.cpp:395] conv_11/expand/relu -> conv_11/expand (in-place)
I0425 21:02:27.299230 13721 net.cpp:150] Setting up conv_11/expand/relu
I0425 21:02:27.299243 13721 net.cpp:157] Top shape: 2 576 19 19 (415872)
I0425 21:02:27.299249 13721 net.cpp:165] Memory required for data: 352066016
I0425 21:02:27.299255 13721 layer_factory.hpp:77] Creating layer conv_11/depthwise
I0425 21:02:27.299266 13721 net.cpp:100] Creating Layer conv_11/depthwise
I0425 21:02:27.299273 13721 net.cpp:434] conv_11/depthwise <- conv_11/expand
I0425 21:02:27.299283 13721 net.cpp:408] conv_11/depthwise -> conv_11/depthwise
I0425 21:02:27.299509 13721 net.cpp:150] Setting up conv_11/depthwise
I0425 21:02:27.299518 13721 net.cpp:157] Top shape: 2 576 19 19 (415872)
I0425 21:02:27.299523 13721 net.cpp:165] Memory required for data: 353729504
I0425 21:02:27.299532 13721 layer_factory.hpp:77] Creating layer conv_11/depthwise/bn
I0425 21:02:27.299540 13721 net.cpp:100] Creating Layer conv_11/depthwise/bn
I0425 21:02:27.299558 13721 net.cpp:434] conv_11/depthwise/bn <- conv_11/depthwise
I0425 21:02:27.299567 13721 net.cpp:395] conv_11/depthwise/bn -> conv_11/depthwise (in-place)
I0425 21:02:27.299768 13721 net.cpp:150] Setting up conv_11/depthwise/bn
I0425 21:02:27.299777 13721 net.cpp:157] Top shape: 2 576 19 19 (415872)
I0425 21:02:27.299783 13721 net.cpp:165] Memory required for data: 355392992
I0425 21:02:27.299793 13721 layer_factory.hpp:77] Creating layer conv_11/depthwise/scale
I0425 21:02:27.299810 13721 net.cpp:100] Creating Layer conv_11/depthwise/scale
I0425 21:02:27.299818 13721 net.cpp:434] conv_11/depthwise/scale <- conv_11/depthwise
I0425 21:02:27.299826 13721 net.cpp:395] conv_11/depthwise/scale -> conv_11/depthwise (in-place)
I0425 21:02:27.299873 13721 layer_factory.hpp:77] Creating layer conv_11/depthwise/scale
I0425 21:02:27.299995 13721 net.cpp:150] Setting up conv_11/depthwise/scale
I0425 21:02:27.300004 13721 net.cpp:157] Top shape: 2 576 19 19 (415872)
I0425 21:02:27.300009 13721 net.cpp:165] Memory required for data: 357056480
I0425 21:02:27.300019 13721 layer_factory.hpp:77] Creating layer conv_11/depthwise/relu
I0425 21:02:27.300027 13721 net.cpp:100] Creating Layer conv_11/depthwise/relu
I0425 21:02:27.300034 13721 net.cpp:434] conv_11/depthwise/relu <- conv_11/depthwise
I0425 21:02:27.300042 13721 net.cpp:395] conv_11/depthwise/relu -> conv_11/depthwise (in-place)
I0425 21:02:27.300192 13721 net.cpp:150] Setting up conv_11/depthwise/relu
I0425 21:02:27.300204 13721 net.cpp:157] Top shape: 2 576 19 19 (415872)
I0425 21:02:27.300209 13721 net.cpp:165] Memory required for data: 358719968
I0425 21:02:27.300215 13721 layer_factory.hpp:77] Creating layer conv_11/project
I0425 21:02:27.300225 13721 net.cpp:100] Creating Layer conv_11/project
I0425 21:02:27.300231 13721 net.cpp:434] conv_11/project <- conv_11/depthwise
I0425 21:02:27.300240 13721 net.cpp:408] conv_11/project -> conv_11/project
I0425 21:02:27.301867 13721 net.cpp:150] Setting up conv_11/project
I0425 21:02:27.301880 13721 net.cpp:157] Top shape: 2 96 19 19 (69312)
I0425 21:02:27.301887 13721 net.cpp:165] Memory required for data: 358997216
I0425 21:02:27.301895 13721 layer_factory.hpp:77] Creating layer conv_11/project/bn
I0425 21:02:27.301903 13721 net.cpp:100] Creating Layer conv_11/project/bn
I0425 21:02:27.301910 13721 net.cpp:434] conv_11/project/bn <- conv_11/project
I0425 21:02:27.301918 13721 net.cpp:395] conv_11/project/bn -> conv_11/project (in-place)
I0425 21:02:27.302175 13721 net.cpp:150] Setting up conv_11/project/bn
I0425 21:02:27.302184 13721 net.cpp:157] Top shape: 2 96 19 19 (69312)
I0425 21:02:27.302189 13721 net.cpp:165] Memory required for data: 359274464
I0425 21:02:27.302199 13721 layer_factory.hpp:77] Creating layer conv_11/project/scale
I0425 21:02:27.302208 13721 net.cpp:100] Creating Layer conv_11/project/scale
I0425 21:02:27.302214 13721 net.cpp:434] conv_11/project/scale <- conv_11/project
I0425 21:02:27.302222 13721 net.cpp:395] conv_11/project/scale -> conv_11/project (in-place)
I0425 21:02:27.302268 13721 layer_factory.hpp:77] Creating layer conv_11/project/scale
I0425 21:02:27.302418 13721 net.cpp:150] Setting up conv_11/project/scale
I0425 21:02:27.302428 13721 net.cpp:157] Top shape: 2 96 19 19 (69312)
I0425 21:02:27.302433 13721 net.cpp:165] Memory required for data: 359551712
I0425 21:02:27.302443 13721 layer_factory.hpp:77] Creating layer conv_11project/sum
I0425 21:02:27.302450 13721 net.cpp:100] Creating Layer conv_11project/sum
I0425 21:02:27.302456 13721 net.cpp:434] conv_11project/sum <- conv_10/project_conv_10/project/scale_0_split_1
I0425 21:02:27.302464 13721 net.cpp:434] conv_11project/sum <- conv_11/project
I0425 21:02:27.302479 13721 net.cpp:408] conv_11project/sum -> conv_11project
I0425 21:02:27.302507 13721 net.cpp:150] Setting up conv_11project/sum
I0425 21:02:27.302516 13721 net.cpp:157] Top shape: 2 96 19 19 (69312)
I0425 21:02:27.302521 13721 net.cpp:165] Memory required for data: 359828960
I0425 21:02:27.302527 13721 layer_factory.hpp:77] Creating layer conv_11project_conv_11project/sum_0_split
I0425 21:02:27.302546 13721 net.cpp:100] Creating Layer conv_11project_conv_11project/sum_0_split
I0425 21:02:27.302553 13721 net.cpp:434] conv_11project_conv_11project/sum_0_split <- conv_11project
I0425 21:02:27.302561 13721 net.cpp:408] conv_11project_conv_11project/sum_0_split -> conv_11project_conv_11project/sum_0_split_0
I0425 21:02:27.302569 13721 net.cpp:408] conv_11project_conv_11project/sum_0_split -> conv_11project_conv_11project/sum_0_split_1
I0425 21:02:27.302613 13721 net.cpp:150] Setting up conv_11project_conv_11project/sum_0_split
I0425 21:02:27.302621 13721 net.cpp:157] Top shape: 2 96 19 19 (69312)
I0425 21:02:27.302628 13721 net.cpp:157] Top shape: 2 96 19 19 (69312)
I0425 21:02:27.302634 13721 net.cpp:165] Memory required for data: 360383456
I0425 21:02:27.302639 13721 layer_factory.hpp:77] Creating layer conv_12/expand
I0425 21:02:27.302649 13721 net.cpp:100] Creating Layer conv_12/expand
I0425 21:02:27.302654 13721 net.cpp:434] conv_12/expand <- conv_11project_conv_11project/sum_0_split_0
I0425 21:02:27.302662 13721 net.cpp:408] conv_12/expand -> conv_12/expand
I0425 21:02:27.304586 13721 net.cpp:150] Setting up conv_12/expand
I0425 21:02:27.304601 13721 net.cpp:157] Top shape: 2 576 19 19 (415872)
I0425 21:02:27.304605 13721 net.cpp:165] Memory required for data: 362046944
I0425 21:02:27.304610 13721 layer_factory.hpp:77] Creating layer conv_12/expand/bn
I0425 21:02:27.304625 13721 net.cpp:100] Creating Layer conv_12/expand/bn
I0425 21:02:27.304631 13721 net.cpp:434] conv_12/expand/bn <- conv_12/expand
I0425 21:02:27.304636 13721 net.cpp:395] conv_12/expand/bn -> conv_12/expand (in-place)
I0425 21:02:27.304829 13721 net.cpp:150] Setting up conv_12/expand/bn
I0425 21:02:27.304837 13721 net.cpp:157] Top shape: 2 576 19 19 (415872)
I0425 21:02:27.304841 13721 net.cpp:165] Memory required for data: 363710432
I0425 21:02:27.304847 13721 layer_factory.hpp:77] Creating layer conv_12/expand/scale
I0425 21:02:27.304852 13721 net.cpp:100] Creating Layer conv_12/expand/scale
I0425 21:02:27.304857 13721 net.cpp:434] conv_12/expand/scale <- conv_12/expand
I0425 21:02:27.304862 13721 net.cpp:395] conv_12/expand/scale -> conv_12/expand (in-place)
I0425 21:02:27.304898 13721 layer_factory.hpp:77] Creating layer conv_12/expand/scale
I0425 21:02:27.305007 13721 net.cpp:150] Setting up conv_12/expand/scale
I0425 21:02:27.305014 13721 net.cpp:157] Top shape: 2 576 19 19 (415872)
I0425 21:02:27.305017 13721 net.cpp:165] Memory required for data: 365373920
I0425 21:02:27.305022 13721 layer_factory.hpp:77] Creating layer conv_12/expand/relu
I0425 21:02:27.305027 13721 net.cpp:100] Creating Layer conv_12/expand/relu
I0425 21:02:27.305030 13721 net.cpp:434] conv_12/expand/relu <- conv_12/expand
I0425 21:02:27.305035 13721 net.cpp:395] conv_12/expand/relu -> conv_12/expand (in-place)
I0425 21:02:27.305389 13721 net.cpp:150] Setting up conv_12/expand/relu
I0425 21:02:27.305402 13721 net.cpp:157] Top shape: 2 576 19 19 (415872)
I0425 21:02:27.305405 13721 net.cpp:165] Memory required for data: 367037408
I0425 21:02:27.305409 13721 layer_factory.hpp:77] Creating layer conv_12/depthwise
I0425 21:02:27.305418 13721 net.cpp:100] Creating Layer conv_12/depthwise
I0425 21:02:27.305421 13721 net.cpp:434] conv_12/depthwise <- conv_12/expand
I0425 21:02:27.305428 13721 net.cpp:408] conv_12/depthwise -> conv_12/depthwise
I0425 21:02:27.305657 13721 net.cpp:150] Setting up conv_12/depthwise
I0425 21:02:27.305665 13721 net.cpp:157] Top shape: 2 576 19 19 (415872)
I0425 21:02:27.305670 13721 net.cpp:165] Memory required for data: 368700896
I0425 21:02:27.305675 13721 layer_factory.hpp:77] Creating layer conv_12/depthwise/bn
I0425 21:02:27.305680 13721 net.cpp:100] Creating Layer conv_12/depthwise/bn
I0425 21:02:27.305685 13721 net.cpp:434] conv_12/depthwise/bn <- conv_12/depthwise
I0425 21:02:27.305690 13721 net.cpp:395] conv_12/depthwise/bn -> conv_12/depthwise (in-place)
I0425 21:02:27.305869 13721 net.cpp:150] Setting up conv_12/depthwise/bn
I0425 21:02:27.305876 13721 net.cpp:157] Top shape: 2 576 19 19 (415872)
I0425 21:02:27.305893 13721 net.cpp:165] Memory required for data: 370364384
I0425 21:02:27.305900 13721 layer_factory.hpp:77] Creating layer conv_12/depthwise/scale
I0425 21:02:27.305907 13721 net.cpp:100] Creating Layer conv_12/depthwise/scale
I0425 21:02:27.305912 13721 net.cpp:434] conv_12/depthwise/scale <- conv_12/depthwise
I0425 21:02:27.305917 13721 net.cpp:395] conv_12/depthwise/scale -> conv_12/depthwise (in-place)
I0425 21:02:27.305954 13721 layer_factory.hpp:77] Creating layer conv_12/depthwise/scale
I0425 21:02:27.306067 13721 net.cpp:150] Setting up conv_12/depthwise/scale
I0425 21:02:27.306074 13721 net.cpp:157] Top shape: 2 576 19 19 (415872)
I0425 21:02:27.306077 13721 net.cpp:165] Memory required for data: 372027872
I0425 21:02:27.306083 13721 layer_factory.hpp:77] Creating layer conv_12/depthwise/relu
I0425 21:02:27.306089 13721 net.cpp:100] Creating Layer conv_12/depthwise/relu
I0425 21:02:27.306093 13721 net.cpp:434] conv_12/depthwise/relu <- conv_12/depthwise
I0425 21:02:27.306098 13721 net.cpp:395] conv_12/depthwise/relu -> conv_12/depthwise (in-place)
I0425 21:02:27.306459 13721 net.cpp:150] Setting up conv_12/depthwise/relu
I0425 21:02:27.306473 13721 net.cpp:157] Top shape: 2 576 19 19 (415872)
I0425 21:02:27.306476 13721 net.cpp:165] Memory required for data: 373691360
I0425 21:02:27.306480 13721 layer_factory.hpp:77] Creating layer conv_12/project
I0425 21:02:27.306495 13721 net.cpp:100] Creating Layer conv_12/project
I0425 21:02:27.306500 13721 net.cpp:434] conv_12/project <- conv_12/depthwise
I0425 21:02:27.306506 13721 net.cpp:408] conv_12/project -> conv_12/project
I0425 21:02:27.308194 13721 net.cpp:150] Setting up conv_12/project
I0425 21:02:27.308213 13721 net.cpp:157] Top shape: 2 96 19 19 (69312)
I0425 21:02:27.308230 13721 net.cpp:165] Memory required for data: 373968608
I0425 21:02:27.308238 13721 layer_factory.hpp:77] Creating layer conv_12/project/bn
I0425 21:02:27.308246 13721 net.cpp:100] Creating Layer conv_12/project/bn
I0425 21:02:27.308251 13721 net.cpp:434] conv_12/project/bn <- conv_12/project
I0425 21:02:27.308259 13721 net.cpp:395] conv_12/project/bn -> conv_12/project (in-place)
I0425 21:02:27.308518 13721 net.cpp:150] Setting up conv_12/project/bn
I0425 21:02:27.308533 13721 net.cpp:157] Top shape: 2 96 19 19 (69312)
I0425 21:02:27.308539 13721 net.cpp:165] Memory required for data: 374245856
I0425 21:02:27.308550 13721 layer_factory.hpp:77] Creating layer conv_12/project/scale
I0425 21:02:27.308569 13721 net.cpp:100] Creating Layer conv_12/project/scale
I0425 21:02:27.308578 13721 net.cpp:434] conv_12/project/scale <- conv_12/project
I0425 21:02:27.308595 13721 net.cpp:395] conv_12/project/scale -> conv_12/project (in-place)
I0425 21:02:27.308681 13721 layer_factory.hpp:77] Creating layer conv_12/project/scale
I0425 21:02:27.308879 13721 net.cpp:150] Setting up conv_12/project/scale
I0425 21:02:27.308893 13721 net.cpp:157] Top shape: 2 96 19 19 (69312)
I0425 21:02:27.308912 13721 net.cpp:165] Memory required for data: 374523104
I0425 21:02:27.308923 13721 layer_factory.hpp:77] Creating layer conv_12project/sum
I0425 21:02:27.308931 13721 net.cpp:100] Creating Layer conv_12project/sum
I0425 21:02:27.308938 13721 net.cpp:434] conv_12project/sum <- conv_11project_conv_11project/sum_0_split_1
I0425 21:02:27.308948 13721 net.cpp:434] conv_12project/sum <- conv_12/project
I0425 21:02:27.308956 13721 net.cpp:408] conv_12project/sum -> conv_12project
I0425 21:02:27.308993 13721 net.cpp:150] Setting up conv_12project/sum
I0425 21:02:27.309003 13721 net.cpp:157] Top shape: 2 96 19 19 (69312)
I0425 21:02:27.309006 13721 net.cpp:165] Memory required for data: 374800352
I0425 21:02:27.309011 13721 layer_factory.hpp:77] Creating layer conv_13/expand
I0425 21:02:27.309020 13721 net.cpp:100] Creating Layer conv_13/expand
I0425 21:02:27.309026 13721 net.cpp:434] conv_13/expand <- conv_12project
I0425 21:02:27.309033 13721 net.cpp:408] conv_13/expand -> conv_13/expand
I0425 21:02:27.311875 13721 net.cpp:150] Setting up conv_13/expand
I0425 21:02:27.311898 13721 net.cpp:157] Top shape: 2 576 19 19 (415872)
I0425 21:02:27.311926 13721 net.cpp:165] Memory required for data: 376463840
I0425 21:02:27.311938 13721 layer_factory.hpp:77] Creating layer conv_13/expand/bn
I0425 21:02:27.311947 13721 net.cpp:100] Creating Layer conv_13/expand/bn
I0425 21:02:27.311954 13721 net.cpp:434] conv_13/expand/bn <- conv_13/expand
I0425 21:02:27.311964 13721 net.cpp:395] conv_13/expand/bn -> conv_13/expand (in-place)
I0425 21:02:27.312235 13721 net.cpp:150] Setting up conv_13/expand/bn
I0425 21:02:27.312247 13721 net.cpp:157] Top shape: 2 576 19 19 (415872)
I0425 21:02:27.312252 13721 net.cpp:165] Memory required for data: 378127328
I0425 21:02:27.312260 13721 layer_factory.hpp:77] Creating layer conv_13/expand/scale
I0425 21:02:27.312270 13721 net.cpp:100] Creating Layer conv_13/expand/scale
I0425 21:02:27.312278 13721 net.cpp:434] conv_13/expand/scale <- conv_13/expand
I0425 21:02:27.312284 13721 net.cpp:395] conv_13/expand/scale -> conv_13/expand (in-place)
I0425 21:02:27.312337 13721 layer_factory.hpp:77] Creating layer conv_13/expand/scale
I0425 21:02:27.312489 13721 net.cpp:150] Setting up conv_13/expand/scale
I0425 21:02:27.312499 13721 net.cpp:157] Top shape: 2 576 19 19 (415872)
I0425 21:02:27.312503 13721 net.cpp:165] Memory required for data: 379790816
I0425 21:02:27.312511 13721 layer_factory.hpp:77] Creating layer conv_13/expand/relu
I0425 21:02:27.312520 13721 net.cpp:100] Creating Layer conv_13/expand/relu
I0425 21:02:27.312525 13721 net.cpp:434] conv_13/expand/relu <- conv_13/expand
I0425 21:02:27.312531 13721 net.cpp:395] conv_13/expand/relu -> conv_13/expand (in-place)
I0425 21:02:27.312727 13721 net.cpp:150] Setting up conv_13/expand/relu
I0425 21:02:27.312739 13721 net.cpp:157] Top shape: 2 576 19 19 (415872)
I0425 21:02:27.312746 13721 net.cpp:165] Memory required for data: 381454304
I0425 21:02:27.312750 13721 layer_factory.hpp:77] Creating layer conv_13/expand_conv_13/expand/relu_0_split
I0425 21:02:27.312759 13721 net.cpp:100] Creating Layer conv_13/expand_conv_13/expand/relu_0_split
I0425 21:02:27.312765 13721 net.cpp:434] conv_13/expand_conv_13/expand/relu_0_split <- conv_13/expand
I0425 21:02:27.312772 13721 net.cpp:408] conv_13/expand_conv_13/expand/relu_0_split -> conv_13/expand_conv_13/expand/relu_0_split_0
I0425 21:02:27.312783 13721 net.cpp:408] conv_13/expand_conv_13/expand/relu_0_split -> conv_13/expand_conv_13/expand/relu_0_split_1
I0425 21:02:27.312790 13721 net.cpp:408] conv_13/expand_conv_13/expand/relu_0_split -> conv_13/expand_conv_13/expand/relu_0_split_2
I0425 21:02:27.312798 13721 net.cpp:408] conv_13/expand_conv_13/expand/relu_0_split -> conv_13/expand_conv_13/expand/relu_0_split_3
I0425 21:02:27.312885 13721 net.cpp:150] Setting up conv_13/expand_conv_13/expand/relu_0_split
I0425 21:02:27.312894 13721 net.cpp:157] Top shape: 2 576 19 19 (415872)
I0425 21:02:27.312901 13721 net.cpp:157] Top shape: 2 576 19 19 (415872)
I0425 21:02:27.312906 13721 net.cpp:157] Top shape: 2 576 19 19 (415872)
I0425 21:02:27.312912 13721 net.cpp:157] Top shape: 2 576 19 19 (415872)
I0425 21:02:27.312917 13721 net.cpp:165] Memory required for data: 388108256
I0425 21:02:27.312923 13721 layer_factory.hpp:77] Creating layer conv_13/depthwise
I0425 21:02:27.312933 13721 net.cpp:100] Creating Layer conv_13/depthwise
I0425 21:02:27.312940 13721 net.cpp:434] conv_13/depthwise <- conv_13/expand_conv_13/expand/relu_0_split_0
I0425 21:02:27.312948 13721 net.cpp:408] conv_13/depthwise -> conv_13/depthwise
I0425 21:02:27.313266 13721 net.cpp:150] Setting up conv_13/depthwise
I0425 21:02:27.313275 13721 net.cpp:157] Top shape: 2 576 10 10 (115200)
I0425 21:02:27.313282 13721 net.cpp:165] Memory required for data: 388569056
I0425 21:02:27.313288 13721 layer_factory.hpp:77] Creating layer conv_13/depthwise/bn
I0425 21:02:27.313297 13721 net.cpp:100] Creating Layer conv_13/depthwise/bn
I0425 21:02:27.313302 13721 net.cpp:434] conv_13/depthwise/bn <- conv_13/depthwise
I0425 21:02:27.313309 13721 net.cpp:395] conv_13/depthwise/bn -> conv_13/depthwise (in-place)
I0425 21:02:27.313562 13721 net.cpp:150] Setting up conv_13/depthwise/bn
I0425 21:02:27.313585 13721 net.cpp:157] Top shape: 2 576 10 10 (115200)
I0425 21:02:27.313591 13721 net.cpp:165] Memory required for data: 389029856
I0425 21:02:27.313601 13721 layer_factory.hpp:77] Creating layer conv_13/depthwise/scale
I0425 21:02:27.313609 13721 net.cpp:100] Creating Layer conv_13/depthwise/scale
I0425 21:02:27.313616 13721 net.cpp:434] conv_13/depthwise/scale <- conv_13/depthwise
I0425 21:02:27.313623 13721 net.cpp:395] conv_13/depthwise/scale -> conv_13/depthwise (in-place)
I0425 21:02:27.313674 13721 layer_factory.hpp:77] Creating layer conv_13/depthwise/scale
I0425 21:02:27.313840 13721 net.cpp:150] Setting up conv_13/depthwise/scale
I0425 21:02:27.313850 13721 net.cpp:157] Top shape: 2 576 10 10 (115200)
I0425 21:02:27.313855 13721 net.cpp:165] Memory required for data: 389490656
I0425 21:02:27.313863 13721 layer_factory.hpp:77] Creating layer conv_13/depthwise/relu
I0425 21:02:27.313870 13721 net.cpp:100] Creating Layer conv_13/depthwise/relu
I0425 21:02:27.313876 13721 net.cpp:434] conv_13/depthwise/relu <- conv_13/depthwise
I0425 21:02:27.313882 13721 net.cpp:395] conv_13/depthwise/relu -> conv_13/depthwise (in-place)
I0425 21:02:27.314360 13721 net.cpp:150] Setting up conv_13/depthwise/relu
I0425 21:02:27.314375 13721 net.cpp:157] Top shape: 2 576 10 10 (115200)
I0425 21:02:27.314381 13721 net.cpp:165] Memory required for data: 389951456
I0425 21:02:27.314388 13721 layer_factory.hpp:77] Creating layer conv_13/project
I0425 21:02:27.314397 13721 net.cpp:100] Creating Layer conv_13/project
I0425 21:02:27.314404 13721 net.cpp:434] conv_13/project <- conv_13/depthwise
I0425 21:02:27.314412 13721 net.cpp:408] conv_13/project -> conv_13/project
I0425 21:02:27.317200 13721 net.cpp:150] Setting up conv_13/project
I0425 21:02:27.317214 13721 net.cpp:157] Top shape: 2 160 10 10 (32000)
I0425 21:02:27.317219 13721 net.cpp:165] Memory required for data: 390079456
I0425 21:02:27.317224 13721 layer_factory.hpp:77] Creating layer conv_13/project/bn
I0425 21:02:27.317230 13721 net.cpp:100] Creating Layer conv_13/project/bn
I0425 21:02:27.317235 13721 net.cpp:434] conv_13/project/bn <- conv_13/project
I0425 21:02:27.317240 13721 net.cpp:395] conv_13/project/bn -> conv_13/project (in-place)
I0425 21:02:27.317435 13721 net.cpp:150] Setting up conv_13/project/bn
I0425 21:02:27.317441 13721 net.cpp:157] Top shape: 2 160 10 10 (32000)
I0425 21:02:27.317445 13721 net.cpp:165] Memory required for data: 390207456
I0425 21:02:27.317452 13721 layer_factory.hpp:77] Creating layer conv_13/project/scale
I0425 21:02:27.317458 13721 net.cpp:100] Creating Layer conv_13/project/scale
I0425 21:02:27.317463 13721 net.cpp:434] conv_13/project/scale <- conv_13/project
I0425 21:02:27.317468 13721 net.cpp:395] conv_13/project/scale -> conv_13/project (in-place)
I0425 21:02:27.317504 13721 layer_factory.hpp:77] Creating layer conv_13/project/scale
I0425 21:02:27.317605 13721 net.cpp:150] Setting up conv_13/project/scale
I0425 21:02:27.317611 13721 net.cpp:157] Top shape: 2 160 10 10 (32000)
I0425 21:02:27.317615 13721 net.cpp:165] Memory required for data: 390335456
I0425 21:02:27.317620 13721 layer_factory.hpp:77] Creating layer conv_13/project_conv_13/project/scale_0_split
I0425 21:02:27.317626 13721 net.cpp:100] Creating Layer conv_13/project_conv_13/project/scale_0_split
I0425 21:02:27.317631 13721 net.cpp:434] conv_13/project_conv_13/project/scale_0_split <- conv_13/project
I0425 21:02:27.317636 13721 net.cpp:408] conv_13/project_conv_13/project/scale_0_split -> conv_13/project_conv_13/project/scale_0_split_0
I0425 21:02:27.317642 13721 net.cpp:408] conv_13/project_conv_13/project/scale_0_split -> conv_13/project_conv_13/project/scale_0_split_1
I0425 21:02:27.317680 13721 net.cpp:150] Setting up conv_13/project_conv_13/project/scale_0_split
I0425 21:02:27.317687 13721 net.cpp:157] Top shape: 2 160 10 10 (32000)
I0425 21:02:27.317692 13721 net.cpp:157] Top shape: 2 160 10 10 (32000)
I0425 21:02:27.317695 13721 net.cpp:165] Memory required for data: 390591456
I0425 21:02:27.317699 13721 layer_factory.hpp:77] Creating layer conv_14/expand
I0425 21:02:27.317723 13721 net.cpp:100] Creating Layer conv_14/expand
I0425 21:02:27.317729 13721 net.cpp:434] conv_14/expand <- conv_13/project_conv_13/project/scale_0_split_0
I0425 21:02:27.317735 13721 net.cpp:408] conv_14/expand -> conv_14/expand
I0425 21:02:27.320080 13721 net.cpp:150] Setting up conv_14/expand
I0425 21:02:27.320093 13721 net.cpp:157] Top shape: 2 960 10 10 (192000)
I0425 21:02:27.320097 13721 net.cpp:165] Memory required for data: 391359456
I0425 21:02:27.320103 13721 layer_factory.hpp:77] Creating layer conv_14/expand/bn
I0425 21:02:27.320111 13721 net.cpp:100] Creating Layer conv_14/expand/bn
I0425 21:02:27.320116 13721 net.cpp:434] conv_14/expand/bn <- conv_14/expand
I0425 21:02:27.320121 13721 net.cpp:395] conv_14/expand/bn -> conv_14/expand (in-place)
I0425 21:02:27.320327 13721 net.cpp:150] Setting up conv_14/expand/bn
I0425 21:02:27.320333 13721 net.cpp:157] Top shape: 2 960 10 10 (192000)
I0425 21:02:27.320338 13721 net.cpp:165] Memory required for data: 392127456
I0425 21:02:27.320344 13721 layer_factory.hpp:77] Creating layer conv_14/expand/scale
I0425 21:02:27.320350 13721 net.cpp:100] Creating Layer conv_14/expand/scale
I0425 21:02:27.320355 13721 net.cpp:434] conv_14/expand/scale <- conv_14/expand
I0425 21:02:27.320361 13721 net.cpp:395] conv_14/expand/scale -> conv_14/expand (in-place)
I0425 21:02:27.320399 13721 layer_factory.hpp:77] Creating layer conv_14/expand/scale
I0425 21:02:27.320502 13721 net.cpp:150] Setting up conv_14/expand/scale
I0425 21:02:27.320508 13721 net.cpp:157] Top shape: 2 960 10 10 (192000)
I0425 21:02:27.320511 13721 net.cpp:165] Memory required for data: 392895456
I0425 21:02:27.320529 13721 layer_factory.hpp:77] Creating layer conv_14/expand/relu
I0425 21:02:27.320535 13721 net.cpp:100] Creating Layer conv_14/expand/relu
I0425 21:02:27.320540 13721 net.cpp:434] conv_14/expand/relu <- conv_14/expand
I0425 21:02:27.320544 13721 net.cpp:395] conv_14/expand/relu -> conv_14/expand (in-place)
I0425 21:02:27.320694 13721 net.cpp:150] Setting up conv_14/expand/relu
I0425 21:02:27.320703 13721 net.cpp:157] Top shape: 2 960 10 10 (192000)
I0425 21:02:27.320708 13721 net.cpp:165] Memory required for data: 393663456
I0425 21:02:27.320711 13721 layer_factory.hpp:77] Creating layer conv_14/depthwise
I0425 21:02:27.320719 13721 net.cpp:100] Creating Layer conv_14/depthwise
I0425 21:02:27.320724 13721 net.cpp:434] conv_14/depthwise <- conv_14/expand
I0425 21:02:27.320729 13721 net.cpp:408] conv_14/depthwise -> conv_14/depthwise
I0425 21:02:27.320988 13721 net.cpp:150] Setting up conv_14/depthwise
I0425 21:02:27.320996 13721 net.cpp:157] Top shape: 2 960 10 10 (192000)
I0425 21:02:27.320999 13721 net.cpp:165] Memory required for data: 394431456
I0425 21:02:27.321004 13721 layer_factory.hpp:77] Creating layer conv_14/depthwise/bn
I0425 21:02:27.321010 13721 net.cpp:100] Creating Layer conv_14/depthwise/bn
I0425 21:02:27.321015 13721 net.cpp:434] conv_14/depthwise/bn <- conv_14/depthwise
I0425 21:02:27.321020 13721 net.cpp:395] conv_14/depthwise/bn -> conv_14/depthwise (in-place)
I0425 21:02:27.321204 13721 net.cpp:150] Setting up conv_14/depthwise/bn
I0425 21:02:27.321213 13721 net.cpp:157] Top shape: 2 960 10 10 (192000)
I0425 21:02:27.321215 13721 net.cpp:165] Memory required for data: 395199456
I0425 21:02:27.321223 13721 layer_factory.hpp:77] Creating layer conv_14/depthwise/scale
I0425 21:02:27.321228 13721 net.cpp:100] Creating Layer conv_14/depthwise/scale
I0425 21:02:27.321233 13721 net.cpp:434] conv_14/depthwise/scale <- conv_14/depthwise
I0425 21:02:27.321238 13721 net.cpp:395] conv_14/depthwise/scale -> conv_14/depthwise (in-place)
I0425 21:02:27.321280 13721 layer_factory.hpp:77] Creating layer conv_14/depthwise/scale
I0425 21:02:27.321380 13721 net.cpp:150] Setting up conv_14/depthwise/scale
I0425 21:02:27.321386 13721 net.cpp:157] Top shape: 2 960 10 10 (192000)
I0425 21:02:27.321390 13721 net.cpp:165] Memory required for data: 395967456
I0425 21:02:27.321395 13721 layer_factory.hpp:77] Creating layer conv_14/depthwise/relu
I0425 21:02:27.321411 13721 net.cpp:100] Creating Layer conv_14/depthwise/relu
I0425 21:02:27.321416 13721 net.cpp:434] conv_14/depthwise/relu <- conv_14/depthwise
I0425 21:02:27.321421 13721 net.cpp:395] conv_14/depthwise/relu -> conv_14/depthwise (in-place)
I0425 21:02:27.321775 13721 net.cpp:150] Setting up conv_14/depthwise/relu
I0425 21:02:27.321786 13721 net.cpp:157] Top shape: 2 960 10 10 (192000)
I0425 21:02:27.321790 13721 net.cpp:165] Memory required for data: 396735456
I0425 21:02:27.321794 13721 layer_factory.hpp:77] Creating layer conv_14/project
I0425 21:02:27.321801 13721 net.cpp:100] Creating Layer conv_14/project
I0425 21:02:27.321806 13721 net.cpp:434] conv_14/project <- conv_14/depthwise
I0425 21:02:27.321812 13721 net.cpp:408] conv_14/project -> conv_14/project
I0425 21:02:27.324733 13721 net.cpp:150] Setting up conv_14/project
I0425 21:02:27.324748 13721 net.cpp:157] Top shape: 2 160 10 10 (32000)
I0425 21:02:27.324753 13721 net.cpp:165] Memory required for data: 396863456
I0425 21:02:27.324759 13721 layer_factory.hpp:77] Creating layer conv_14/project/bn
I0425 21:02:27.324766 13721 net.cpp:100] Creating Layer conv_14/project/bn
I0425 21:02:27.324771 13721 net.cpp:434] conv_14/project/bn <- conv_14/project
I0425 21:02:27.324776 13721 net.cpp:395] conv_14/project/bn -> conv_14/project (in-place)
I0425 21:02:27.324968 13721 net.cpp:150] Setting up conv_14/project/bn
I0425 21:02:27.324980 13721 net.cpp:157] Top shape: 2 160 10 10 (32000)
I0425 21:02:27.324985 13721 net.cpp:165] Memory required for data: 396991456
I0425 21:02:27.324995 13721 layer_factory.hpp:77] Creating layer conv_14/project/scale
I0425 21:02:27.325003 13721 net.cpp:100] Creating Layer conv_14/project/scale
I0425 21:02:27.325009 13721 net.cpp:434] conv_14/project/scale <- conv_14/project
I0425 21:02:27.325016 13721 net.cpp:395] conv_14/project/scale -> conv_14/project (in-place)
I0425 21:02:27.325069 13721 layer_factory.hpp:77] Creating layer conv_14/project/scale
I0425 21:02:27.325222 13721 net.cpp:150] Setting up conv_14/project/scale
I0425 21:02:27.325234 13721 net.cpp:157] Top shape: 2 160 10 10 (32000)
I0425 21:02:27.325240 13721 net.cpp:165] Memory required for data: 397119456
I0425 21:02:27.325249 13721 layer_factory.hpp:77] Creating layer conv_14project/sum
I0425 21:02:27.325258 13721 net.cpp:100] Creating Layer conv_14project/sum
I0425 21:02:27.325265 13721 net.cpp:434] conv_14project/sum <- conv_13/project_conv_13/project/scale_0_split_1
I0425 21:02:27.325273 13721 net.cpp:434] conv_14project/sum <- conv_14/project
I0425 21:02:27.325280 13721 net.cpp:408] conv_14project/sum -> conv_14project
I0425 21:02:27.325314 13721 net.cpp:150] Setting up conv_14project/sum
I0425 21:02:27.325325 13721 net.cpp:157] Top shape: 2 160 10 10 (32000)
I0425 21:02:27.325330 13721 net.cpp:165] Memory required for data: 397247456
I0425 21:02:27.325335 13721 layer_factory.hpp:77] Creating layer conv_14project_conv_14project/sum_0_split
I0425 21:02:27.325345 13721 net.cpp:100] Creating Layer conv_14project_conv_14project/sum_0_split
I0425 21:02:27.325350 13721 net.cpp:434] conv_14project_conv_14project/sum_0_split <- conv_14project
I0425 21:02:27.325357 13721 net.cpp:408] conv_14project_conv_14project/sum_0_split -> conv_14project_conv_14project/sum_0_split_0
I0425 21:02:27.325367 13721 net.cpp:408] conv_14project_conv_14project/sum_0_split -> conv_14project_conv_14project/sum_0_split_1
I0425 21:02:27.325420 13721 net.cpp:150] Setting up conv_14project_conv_14project/sum_0_split
I0425 21:02:27.325433 13721 net.cpp:157] Top shape: 2 160 10 10 (32000)
I0425 21:02:27.325439 13721 net.cpp:157] Top shape: 2 160 10 10 (32000)
I0425 21:02:27.325444 13721 net.cpp:165] Memory required for data: 397503456
I0425 21:02:27.325451 13721 layer_factory.hpp:77] Creating layer conv_15/expand
I0425 21:02:27.325461 13721 net.cpp:100] Creating Layer conv_15/expand
I0425 21:02:27.325469 13721 net.cpp:434] conv_15/expand <- conv_14project_conv_14project/sum_0_split_0
I0425 21:02:27.325486 13721 net.cpp:408] conv_15/expand -> conv_15/expand
I0425 21:02:27.328655 13721 net.cpp:150] Setting up conv_15/expand
I0425 21:02:27.328686 13721 net.cpp:157] Top shape: 2 960 10 10 (192000)
I0425 21:02:27.328691 13721 net.cpp:165] Memory required for data: 398271456
I0425 21:02:27.328698 13721 layer_factory.hpp:77] Creating layer conv_15/expand/bn
I0425 21:02:27.328706 13721 net.cpp:100] Creating Layer conv_15/expand/bn
I0425 21:02:27.328711 13721 net.cpp:434] conv_15/expand/bn <- conv_15/expand
I0425 21:02:27.328716 13721 net.cpp:395] conv_15/expand/bn -> conv_15/expand (in-place)
I0425 21:02:27.328914 13721 net.cpp:150] Setting up conv_15/expand/bn
I0425 21:02:27.328922 13721 net.cpp:157] Top shape: 2 960 10 10 (192000)
I0425 21:02:27.328927 13721 net.cpp:165] Memory required for data: 399039456
I0425 21:02:27.328933 13721 layer_factory.hpp:77] Creating layer conv_15/expand/scale
I0425 21:02:27.328940 13721 net.cpp:100] Creating Layer conv_15/expand/scale
I0425 21:02:27.328944 13721 net.cpp:434] conv_15/expand/scale <- conv_15/expand
I0425 21:02:27.328949 13721 net.cpp:395] conv_15/expand/scale -> conv_15/expand (in-place)
I0425 21:02:27.328997 13721 layer_factory.hpp:77] Creating layer conv_15/expand/scale
I0425 21:02:27.329107 13721 net.cpp:150] Setting up conv_15/expand/scale
I0425 21:02:27.329114 13721 net.cpp:157] Top shape: 2 960 10 10 (192000)
I0425 21:02:27.329118 13721 net.cpp:165] Memory required for data: 399807456
I0425 21:02:27.329124 13721 layer_factory.hpp:77] Creating layer conv_15/expand/relu
I0425 21:02:27.329134 13721 net.cpp:100] Creating Layer conv_15/expand/relu
I0425 21:02:27.329139 13721 net.cpp:434] conv_15/expand/relu <- conv_15/expand
I0425 21:02:27.329144 13721 net.cpp:395] conv_15/expand/relu -> conv_15/expand (in-place)
I0425 21:02:27.329501 13721 net.cpp:150] Setting up conv_15/expand/relu
I0425 21:02:27.329512 13721 net.cpp:157] Top shape: 2 960 10 10 (192000)
I0425 21:02:27.329516 13721 net.cpp:165] Memory required for data: 400575456
I0425 21:02:27.329520 13721 layer_factory.hpp:77] Creating layer conv_15/depthwise
I0425 21:02:27.329550 13721 net.cpp:100] Creating Layer conv_15/depthwise
I0425 21:02:27.329557 13721 net.cpp:434] conv_15/depthwise <- conv_15/expand
I0425 21:02:27.329563 13721 net.cpp:408] conv_15/depthwise -> conv_15/depthwise
I0425 21:02:27.329835 13721 net.cpp:150] Setting up conv_15/depthwise
I0425 21:02:27.329843 13721 net.cpp:157] Top shape: 2 960 10 10 (192000)
I0425 21:02:27.329846 13721 net.cpp:165] Memory required for data: 401343456
I0425 21:02:27.329852 13721 layer_factory.hpp:77] Creating layer conv_15/depthwise/bn
I0425 21:02:27.329857 13721 net.cpp:100] Creating Layer conv_15/depthwise/bn
I0425 21:02:27.329862 13721 net.cpp:434] conv_15/depthwise/bn <- conv_15/depthwise
I0425 21:02:27.329867 13721 net.cpp:395] conv_15/depthwise/bn -> conv_15/depthwise (in-place)
I0425 21:02:27.330054 13721 net.cpp:150] Setting up conv_15/depthwise/bn
I0425 21:02:27.330062 13721 net.cpp:157] Top shape: 2 960 10 10 (192000)
I0425 21:02:27.330065 13721 net.cpp:165] Memory required for data: 402111456
I0425 21:02:27.330072 13721 layer_factory.hpp:77] Creating layer conv_15/depthwise/scale
I0425 21:02:27.330078 13721 net.cpp:100] Creating Layer conv_15/depthwise/scale
I0425 21:02:27.330083 13721 net.cpp:434] conv_15/depthwise/scale <- conv_15/depthwise
I0425 21:02:27.330088 13721 net.cpp:395] conv_15/depthwise/scale -> conv_15/depthwise (in-place)
I0425 21:02:27.330124 13721 layer_factory.hpp:77] Creating layer conv_15/depthwise/scale
I0425 21:02:27.330233 13721 net.cpp:150] Setting up conv_15/depthwise/scale
I0425 21:02:27.330240 13721 net.cpp:157] Top shape: 2 960 10 10 (192000)
I0425 21:02:27.330245 13721 net.cpp:165] Memory required for data: 402879456
I0425 21:02:27.330250 13721 layer_factory.hpp:77] Creating layer conv_15/depthwise/relu
I0425 21:02:27.330255 13721 net.cpp:100] Creating Layer conv_15/depthwise/relu
I0425 21:02:27.330260 13721 net.cpp:434] conv_15/depthwise/relu <- conv_15/depthwise
I0425 21:02:27.330265 13721 net.cpp:395] conv_15/depthwise/relu -> conv_15/depthwise (in-place)
I0425 21:02:27.330410 13721 net.cpp:150] Setting up conv_15/depthwise/relu
I0425 21:02:27.330427 13721 net.cpp:157] Top shape: 2 960 10 10 (192000)
I0425 21:02:27.330432 13721 net.cpp:165] Memory required for data: 403647456
I0425 21:02:27.330436 13721 layer_factory.hpp:77] Creating layer conv_15/project
I0425 21:02:27.330448 13721 net.cpp:100] Creating Layer conv_15/project
I0425 21:02:27.330454 13721 net.cpp:434] conv_15/project <- conv_15/depthwise
I0425 21:02:27.330459 13721 net.cpp:408] conv_15/project -> conv_15/project
I0425 21:02:27.333510 13721 net.cpp:150] Setting up conv_15/project
I0425 21:02:27.333524 13721 net.cpp:157] Top shape: 2 160 10 10 (32000)
I0425 21:02:27.333528 13721 net.cpp:165] Memory required for data: 403775456
I0425 21:02:27.333534 13721 layer_factory.hpp:77] Creating layer conv_15/project/bn
I0425 21:02:27.333545 13721 net.cpp:100] Creating Layer conv_15/project/bn
I0425 21:02:27.333551 13721 net.cpp:434] conv_15/project/bn <- conv_15/project
I0425 21:02:27.333556 13721 net.cpp:395] conv_15/project/bn -> conv_15/project (in-place)
I0425 21:02:27.333745 13721 net.cpp:150] Setting up conv_15/project/bn
I0425 21:02:27.333751 13721 net.cpp:157] Top shape: 2 160 10 10 (32000)
I0425 21:02:27.333755 13721 net.cpp:165] Memory required for data: 403903456
I0425 21:02:27.333762 13721 layer_factory.hpp:77] Creating layer conv_15/project/scale
I0425 21:02:27.333768 13721 net.cpp:100] Creating Layer conv_15/project/scale
I0425 21:02:27.333773 13721 net.cpp:434] conv_15/project/scale <- conv_15/project
I0425 21:02:27.333778 13721 net.cpp:395] conv_15/project/scale -> conv_15/project (in-place)
I0425 21:02:27.333812 13721 layer_factory.hpp:77] Creating layer conv_15/project/scale
I0425 21:02:27.333927 13721 net.cpp:150] Setting up conv_15/project/scale
I0425 21:02:27.333933 13721 net.cpp:157] Top shape: 2 160 10 10 (32000)
I0425 21:02:27.333937 13721 net.cpp:165] Memory required for data: 404031456
I0425 21:02:27.333943 13721 layer_factory.hpp:77] Creating layer conv_15project/sum
I0425 21:02:27.333950 13721 net.cpp:100] Creating Layer conv_15project/sum
I0425 21:02:27.333953 13721 net.cpp:434] conv_15project/sum <- conv_14project_conv_14project/sum_0_split_1
I0425 21:02:27.333958 13721 net.cpp:434] conv_15project/sum <- conv_15/project
I0425 21:02:27.333963 13721 net.cpp:408] conv_15project/sum -> conv_15project
I0425 21:02:27.333986 13721 net.cpp:150] Setting up conv_15project/sum
I0425 21:02:27.333992 13721 net.cpp:157] Top shape: 2 160 10 10 (32000)
I0425 21:02:27.333994 13721 net.cpp:165] Memory required for data: 404159456
I0425 21:02:27.333998 13721 layer_factory.hpp:77] Creating layer conv_16/expand
I0425 21:02:27.334005 13721 net.cpp:100] Creating Layer conv_16/expand
I0425 21:02:27.334009 13721 net.cpp:434] conv_16/expand <- conv_15project
I0425 21:02:27.334014 13721 net.cpp:408] conv_16/expand -> conv_16/expand
I0425 21:02:27.336859 13721 net.cpp:150] Setting up conv_16/expand
I0425 21:02:27.336874 13721 net.cpp:157] Top shape: 2 960 10 10 (192000)
I0425 21:02:27.336877 13721 net.cpp:165] Memory required for data: 404927456
I0425 21:02:27.336884 13721 layer_factory.hpp:77] Creating layer conv_16/expand/bn
I0425 21:02:27.336889 13721 net.cpp:100] Creating Layer conv_16/expand/bn
I0425 21:02:27.336894 13721 net.cpp:434] conv_16/expand/bn <- conv_16/expand
I0425 21:02:27.336899 13721 net.cpp:395] conv_16/expand/bn -> conv_16/expand (in-place)
I0425 21:02:27.337090 13721 net.cpp:150] Setting up conv_16/expand/bn
I0425 21:02:27.337097 13721 net.cpp:157] Top shape: 2 960 10 10 (192000)
I0425 21:02:27.337101 13721 net.cpp:165] Memory required for data: 405695456
I0425 21:02:27.337107 13721 layer_factory.hpp:77] Creating layer conv_16/expand/scale
I0425 21:02:27.337115 13721 net.cpp:100] Creating Layer conv_16/expand/scale
I0425 21:02:27.337118 13721 net.cpp:434] conv_16/expand/scale <- conv_16/expand
I0425 21:02:27.337123 13721 net.cpp:395] conv_16/expand/scale -> conv_16/expand (in-place)
I0425 21:02:27.337167 13721 layer_factory.hpp:77] Creating layer conv_16/expand/scale
I0425 21:02:27.337278 13721 net.cpp:150] Setting up conv_16/expand/scale
I0425 21:02:27.337285 13721 net.cpp:157] Top shape: 2 960 10 10 (192000)
I0425 21:02:27.337302 13721 net.cpp:165] Memory required for data: 406463456
I0425 21:02:27.337309 13721 layer_factory.hpp:77] Creating layer conv_16/expand/relu
I0425 21:02:27.337316 13721 net.cpp:100] Creating Layer conv_16/expand/relu
I0425 21:02:27.337319 13721 net.cpp:434] conv_16/expand/relu <- conv_16/expand
I0425 21:02:27.337324 13721 net.cpp:395] conv_16/expand/relu -> conv_16/expand (in-place)
I0425 21:02:27.337687 13721 net.cpp:150] Setting up conv_16/expand/relu
I0425 21:02:27.337698 13721 net.cpp:157] Top shape: 2 960 10 10 (192000)
I0425 21:02:27.337702 13721 net.cpp:165] Memory required for data: 407231456
I0425 21:02:27.337707 13721 layer_factory.hpp:77] Creating layer conv_16/depthwise
I0425 21:02:27.337719 13721 net.cpp:100] Creating Layer conv_16/depthwise
I0425 21:02:27.337724 13721 net.cpp:434] conv_16/depthwise <- conv_16/expand
I0425 21:02:27.337729 13721 net.cpp:408] conv_16/depthwise -> conv_16/depthwise
I0425 21:02:27.337992 13721 net.cpp:150] Setting up conv_16/depthwise
I0425 21:02:27.338001 13721 net.cpp:157] Top shape: 2 960 10 10 (192000)
I0425 21:02:27.338004 13721 net.cpp:165] Memory required for data: 407999456
I0425 21:02:27.338009 13721 layer_factory.hpp:77] Creating layer conv_16/depthwise/bn
I0425 21:02:27.338016 13721 net.cpp:100] Creating Layer conv_16/depthwise/bn
I0425 21:02:27.338019 13721 net.cpp:434] conv_16/depthwise/bn <- conv_16/depthwise
I0425 21:02:27.338024 13721 net.cpp:395] conv_16/depthwise/bn -> conv_16/depthwise (in-place)
I0425 21:02:27.338209 13721 net.cpp:150] Setting up conv_16/depthwise/bn
I0425 21:02:27.338217 13721 net.cpp:157] Top shape: 2 960 10 10 (192000)
I0425 21:02:27.338220 13721 net.cpp:165] Memory required for data: 408767456
…
I0425 21:02:27.570191 13721 layer_factory.hpp:77] Creating layer layer_19_2_3/bn
I0425 21:02:27.570200 13721 net.cpp:100] Creating Layer layer_19_2_3/bn
I0425 21:02:27.570207 13721 net.cpp:434] layer_19_2_3/bn <- layer_19_2_3
I0425 21:02:27.570215 13721 net.cpp:395] layer_19_2_3/bn -> layer_19_2_3 (in-place)
I0425 21:02:27.570394 13721 net.cpp:150] Setting up layer_19_2_3/bn
I0425 21:02:27.570402 13721 net.cpp:157] Top shape: 2 256 3 3 (4608)
I0425 21:02:27.570408 13721 net.cpp:165] Memory required for data: 421282784
I0425 21:02:27.570418 13721 layer_factory.hpp:77] Creating layer layer_19_2_3/scale
I0425 21:02:27.570436 13721 net.cpp:100] Creating Layer layer_19_2_3/scale
I0425 21:02:27.570443 13721 net.cpp:434] layer_19_2_3/scale <- layer_19_2_3
I0425 21:02:27.570452 13721 net.cpp:395] layer_19_2_3/scale -> layer_19_2_3 (in-place)
I0425 21:02:27.570497 13721 layer_factory.hpp:77] Creating layer layer_19_2_3/scale
I0425 21:02:27.570598 13721 net.cpp:150] Setting up layer_19_2_3/scale
I0425 21:02:27.570607 13721 net.cpp:157] Top shape: 2 256 3 3 (4608)
I0425 21:02:27.570612 13721 net.cpp:165] Memory required for data: 421301216
I0425 21:02:27.570636 13721 layer_factory.hpp:77] Creating layer layer_19_2_3/relu
I0425 21:02:27.570646 13721 net.cpp:100] Creating Layer layer_19_2_3/relu
I0425 21:02:27.570652 13721 net.cpp:434] layer_19_2_3/relu <- layer_19_2_3
I0425 21:02:27.570659 13721 net.cpp:395] layer_19_2_3/relu -> layer_19_2_3 (in-place)
I0425 21:02:27.570828 13721 net.cpp:150] Setting up layer_19_2_3/relu
I0425 21:02:27.570838 13721 net.cpp:157] Top shape: 2 256 3 3 (4608)
I0425 21:02:27.570844 13721 net.cpp:165] Memory required for data: 421319648
I0425 21:02:27.570850 13721 layer_factory.hpp:77] Creating layer layer_19_2_3_layer_19_2_3/relu_0_split
I0425 21:02:27.570859 13721 net.cpp:100] Creating Layer layer_19_2_3_layer_19_2_3/relu_0_split
I0425 21:02:27.570866 13721 net.cpp:434] layer_19_2_3_layer_19_2_3/relu_0_split <- layer_19_2_3
I0425 21:02:27.570874 13721 net.cpp:408] layer_19_2_3_layer_19_2_3/relu_0_split -> layer_19_2_3_layer_19_2_3/relu_0_split_0
I0425 21:02:27.570884 13721 net.cpp:408] layer_19_2_3_layer_19_2_3/relu_0_split -> layer_19_2_3_layer_19_2_3/relu_0_split_1
I0425 21:02:27.570894 13721 net.cpp:408] layer_19_2_3_layer_19_2_3/relu_0_split -> layer_19_2_3_layer_19_2_3/relu_0_split_2
I0425 21:02:27.570904 13721 net.cpp:408] layer_19_2_3_layer_19_2_3/relu_0_split -> layer_19_2_3_layer_19_2_3/relu_0_split_3
I0425 21:02:27.570977 13721 net.cpp:150] Setting up layer_19_2_3_layer_19_2_3/relu_0_split
I0425 21:02:27.570986 13721 net.cpp:157] Top shape: 2 256 3 3 (4608)
I0425 21:02:27.570993 13721 net.cpp:157] Top shape: 2 256 3 3 (4608)
I0425 21:02:27.571000 13721 net.cpp:157] Top shape: 2 256 3 3 (4608)
I0425 21:02:27.571007 13721 net.cpp:157] Top shape: 2 256 3 3 (4608)
I0425 21:02:27.571013 13721 net.cpp:165] Memory required for data: 421393376
I0425 21:02:27.571019 13721 layer_factory.hpp:77] Creating layer layer_19_1_4
I0425 21:02:27.571029 13721 net.cpp:100] Creating Layer layer_19_1_4
I0425 21:02:27.571036 13721 net.cpp:434] layer_19_1_4 <- layer_19_2_3_layer_19_2_3/relu_0_split_0
I0425 21:02:27.571045 13721 net.cpp:408] layer_19_1_4 -> layer_19_1_4
I0425 21:02:27.572499 13721 net.cpp:150] Setting up layer_19_1_4
I0425 21:02:27.572511 13721 net.cpp:157] Top shape: 2 128 3 3 (2304)
I0425 21:02:27.572517 13721 net.cpp:165] Memory required for data: 421402592
I0425 21:02:27.572526 13721 layer_factory.hpp:77] Creating layer layer_19_1_4/bn
I0425 21:02:27.572535 13721 net.cpp:100] Creating Layer layer_19_1_4/bn
I0425 21:02:27.572542 13721 net.cpp:434] layer_19_1_4/bn <- layer_19_1_4
I0425 21:02:27.572551 13721 net.cpp:395] layer_19_1_4/bn -> layer_19_1_4 (in-place)
I0425 21:02:27.572767 13721 net.cpp:150] Setting up layer_19_1_4/bn
I0425 21:02:27.572782 13721 net.cpp:157] Top shape: 2 128 3 3 (2304)
I0425 21:02:27.572789 13721 net.cpp:165] Memory required for data: 421411808
I0425 21:02:27.572798 13721 layer_factory.hpp:77] Creating layer layer_19_1_4/scale
I0425 21:02:27.572806 13721 net.cpp:100] Creating Layer layer_19_1_4/scale
I0425 21:02:27.572813 13721 net.cpp:434] layer_19_1_4/scale <- layer_19_1_4
I0425 21:02:27.572821 13721 net.cpp:395] layer_19_1_4/scale -> layer_19_1_4 (in-place)
I0425 21:02:27.572887 13721 layer_factory.hpp:77] Creating layer layer_19_1_4/scale
I0425 21:02:27.572995 13721 net.cpp:150] Setting up layer_19_1_4/scale
I0425 21:02:27.573004 13721 net.cpp:157] Top shape: 2 128 3 3 (2304)
I0425 21:02:27.573010 13721 net.cpp:165] Memory required for data: 421421024
I0425 21:02:27.573019 13721 layer_factory.hpp:77] Creating layer layer_19_1_4/relu
I0425 21:02:27.573029 13721 net.cpp:100] Creating Layer layer_19_1_4/relu
I0425 21:02:27.573035 13721 net.cpp:434] layer_19_1_4/relu <- layer_19_1_4
I0425 21:02:27.573043 13721 net.cpp:395] layer_19_1_4/relu -> layer_19_1_4 (in-place)
I0425 21:02:27.573441 13721 net.cpp:150] Setting up layer_19_1_4/relu
I0425 21:02:27.573452 13721 net.cpp:157] Top shape: 2 128 3 3 (2304)
I0425 21:02:27.573458 13721 net.cpp:165] Memory required for data: 421430240
I0425 21:02:27.573464 13721 layer_factory.hpp:77] Creating layer layer_19_2_4/depthwise
I0425 21:02:27.573490 13721 net.cpp:100] Creating Layer layer_19_2_4/depthwise
I0425 21:02:27.573498 13721 net.cpp:434] layer_19_2_4/depthwise <- layer_19_1_4
I0425 21:02:27.573508 13721 net.cpp:408] layer_19_2_4/depthwise -> layer_19_2_4/depthwise
I0425 21:02:27.573709 13721 net.cpp:150] Setting up layer_19_2_4/depthwise
I0425 21:02:27.573719 13721 net.cpp:157] Top shape: 2 128 2 2 (1024)
I0425 21:02:27.573724 13721 net.cpp:165] Memory required for data: 421434336
I0425 21:02:27.573732 13721 layer_factory.hpp:77] Creating layer layer_19_2_4/depthwise/bn
I0425 21:02:27.573748 13721 net.cpp:100] Creating Layer layer_19_2_4/depthwise/bn
I0425 21:02:27.573755 13721 net.cpp:434] layer_19_2_4/depthwise/bn <- layer_19_2_4/depthwise
I0425 21:02:27.573765 13721 net.cpp:395] layer_19_2_4/depthwise/bn -> layer_19_2_4/depthwise (in-place)
I0425 21:02:27.573931 13721 net.cpp:150] Setting up layer_19_2_4/depthwise/bn
I0425 21:02:27.573940 13721 net.cpp:157] Top shape: 2 128 2 2 (1024)
I0425 21:02:27.573945 13721 net.cpp:165] Memory required for data: 421438432
I0425 21:02:27.573956 13721 layer_factory.hpp:77] Creating layer layer_19_2_4/depthwise/scale
I0425 21:02:27.573966 13721 net.cpp:100] Creating Layer layer_19_2_4/depthwise/scale
I0425 21:02:27.573972 13721 net.cpp:434] layer_19_2_4/depthwise/scale <- layer_19_2_4/depthwise
I0425 21:02:27.573981 13721 net.cpp:395] layer_19_2_4/depthwise/scale -> layer_19_2_4/depthwise (in-place)
I0425 21:02:27.574024 13721 layer_factory.hpp:77] Creating layer layer_19_2_4/depthwise/scale
I0425 21:02:27.574137 13721 net.cpp:150] Setting up layer_19_2_4/depthwise/scale
I0425 21:02:27.574146 13721 net.cpp:157] Top shape: 2 128 2 2 (1024)
I0425 21:02:27.574151 13721 net.cpp:165] Memory required for data: 421442528
I0425 21:02:27.574160 13721 layer_factory.hpp:77] Creating layer layer_19_2_4/depthwise/relu
I0425 21:02:27.574168 13721 net.cpp:100] Creating Layer layer_19_2_4/depthwise/relu
I0425 21:02:27.574175 13721 net.cpp:434] layer_19_2_4/depthwise/relu <- layer_19_2_4/depthwise
I0425 21:02:27.574183 13721 net.cpp:395] layer_19_2_4/depthwise/relu -> layer_19_2_4/depthwise (in-place)
I0425 21:02:27.574800 13721 net.cpp:150] Setting up layer_19_2_4/depthwise/relu
I0425 21:02:27.574811 13721 net.cpp:157] Top shape: 2 128 2 2 (1024)
I0425 21:02:27.574817 13721 net.cpp:165] Memory required for data: 421446624
I0425 21:02:27.574825 13721 layer_factory.hpp:77] Creating layer layer_19_2_4
I0425 21:02:27.574836 13721 net.cpp:100] Creating Layer layer_19_2_4
I0425 21:02:27.574842 13721 net.cpp:434] layer_19_2_4 <- layer_19_2_4/depthwise
I0425 21:02:27.574851 13721 net.cpp:408] layer_19_2_4 -> layer_19_2_4
I0425 21:02:27.576275 13721 net.cpp:150] Setting up layer_19_2_4
I0425 21:02:27.576288 13721 net.cpp:157] Top shape: 2 256 2 2 (2048)
I0425 21:02:27.576294 13721 net.cpp:165] Memory required for data: 421454816
I0425 21:02:27.576303 13721 layer_factory.hpp:77] Creating layer layer_19_2_4/bn
I0425 21:02:27.576311 13721 net.cpp:100] Creating Layer layer_19_2_4/bn
I0425 21:02:27.576319 13721 net.cpp:434] layer_19_2_4/bn <- layer_19_2_4
I0425 21:02:27.576328 13721 net.cpp:395] layer_19_2_4/bn -> layer_19_2_4 (in-place)
I0425 21:02:27.576516 13721 net.cpp:150] Setting up layer_19_2_4/bn
I0425 21:02:27.576524 13721 net.cpp:157] Top shape: 2 256 2 2 (2048)
I0425 21:02:27.576539 13721 net.cpp:165] Memory required for data: 421463008
I0425 21:02:27.576545 13721 layer_factory.hpp:77] Creating layer layer_19_2_4/scale
I0425 21:02:27.576555 13721 net.cpp:100] Creating Layer layer_19_2_4/scale
I0425 21:02:27.576561 13721 net.cpp:434] layer_19_2_4/scale <- layer_19_2_4
I0425 21:02:27.576586 13721 net.cpp:395] layer_19_2_4/scale -> layer_19_2_4 (in-place)
I0425 21:02:27.576633 13721 layer_factory.hpp:77] Creating layer layer_19_2_4/scale
I0425 21:02:27.576728 13721 net.cpp:150] Setting up layer_19_2_4/scale
I0425 21:02:27.576736 13721 net.cpp:157] Top shape: 2 256 2 2 (2048)
I0425 21:02:27.576742 13721 net.cpp:165] Memory required for data: 421471200
I0425 21:02:27.576751 13721 layer_factory.hpp:77] Creating layer layer_19_2_4/relu
I0425 21:02:27.576772 13721 net.cpp:100] Creating Layer layer_19_2_4/relu
I0425 21:02:27.576779 13721 net.cpp:434] layer_19_2_4/relu <- layer_19_2_4
I0425 21:02:27.576797 13721 net.cpp:395] layer_19_2_4/relu -> layer_19_2_4 (in-place)
I0425 21:02:27.576975 13721 net.cpp:150] Setting up layer_19_2_4/relu
I0425 21:02:27.576984 13721 net.cpp:157] Top shape: 2 256 2 2 (2048)
I0425 21:02:27.576987 13721 net.cpp:165] Memory required for data: 421479392
I0425 21:02:27.577002 13721 layer_factory.hpp:77] Creating layer layer_19_2_4_layer_19_2_4/relu_0_split
I0425 21:02:27.577008 13721 net.cpp:100] Creating Layer layer_19_2_4_layer_19_2_4/relu_0_split
I0425 21:02:27.577014 13721 net.cpp:434] layer_19_2_4_layer_19_2_4/relu_0_split <- layer_19_2_4
I0425 21:02:27.577021 13721 net.cpp:408] layer_19_2_4_layer_19_2_4/relu_0_split -> layer_19_2_4_layer_19_2_4/relu_0_split_0
I0425 21:02:27.577033 13721 net.cpp:408] layer_19_2_4_layer_19_2_4/relu_0_split -> layer_19_2_4_layer_19_2_4/relu_0_split_1
I0425 21:02:27.577041 13721 net.cpp:408] layer_19_2_4_layer_19_2_4/relu_0_split -> layer_19_2_4_layer_19_2_4/relu_0_split_2
I0425 21:02:27.577049 13721 net.cpp:408] layer_19_2_4_layer_19_2_4/relu_0_split -> layer_19_2_4_layer_19_2_4/relu_0_split_3
I0425 21:02:27.577141 13721 net.cpp:150] Setting up layer_19_2_4_layer_19_2_4/relu_0_split
I0425 21:02:27.577148 13721 net.cpp:157] Top shape: 2 256 2 2 (2048)
I0425 21:02:27.577155 13721 net.cpp:157] Top shape: 2 256 2 2 (2048)
I0425 21:02:27.577162 13721 net.cpp:157] Top shape: 2 256 2 2 (2048)
I0425 21:02:27.577169 13721 net.cpp:157] Top shape: 2 256 2 2 (2048)
I0425 21:02:27.577174 13721 net.cpp:165] Memory required for data: 421512160
I0425 21:02:27.577181 13721 layer_factory.hpp:77] Creating layer layer_19_1_5
I0425 21:02:27.577191 13721 net.cpp:100] Creating Layer layer_19_1_5
I0425 21:02:27.577199 13721 net.cpp:434] layer_19_1_5 <- layer_19_2_4_layer_19_2_4/relu_0_split_0
I0425 21:02:27.577208 13721 net.cpp:408] layer_19_1_5 -> layer_19_1_5
I0425 21:02:27.578510 13721 net.cpp:150] Setting up layer_19_1_5
I0425 21:02:27.578523 13721 net.cpp:157] Top shape: 2 64 2 2 (512)
I0425 21:02:27.578529 13721 net.cpp:165] Memory required for data: 421514208
I0425 21:02:27.578538 13721 layer_factory.hpp:77] Creating layer layer_19_1_5/bn
I0425 21:02:27.578547 13721 net.cpp:100] Creating Layer layer_19_1_5/bn
I0425 21:02:27.578554 13721 net.cpp:434] layer_19_1_5/bn <- layer_19_1_5
I0425 21:02:27.578562 13721 net.cpp:395] layer_19_1_5/bn -> layer_19_1_5 (in-place)
I0425 21:02:27.578755 13721 net.cpp:150] Setting up layer_19_1_5/bn
I0425 21:02:27.578764 13721 net.cpp:157] Top shape: 2 64 2 2 (512)
I0425 21:02:27.578769 13721 net.cpp:165] Memory required for data: 421516256
I0425 21:02:27.578780 13721 layer_factory.hpp:77] Creating layer layer_19_1_5/scale
I0425 21:02:27.578819 13721 net.cpp:100] Creating Layer layer_19_1_5/scale
I0425 21:02:27.578824 13721 net.cpp:434] layer_19_1_5/scale <- layer_19_1_5
I0425 21:02:27.578832 13721 net.cpp:395] layer_19_1_5/scale -> layer_19_1_5 (in-place)
I0425 21:02:27.578879 13721 layer_factory.hpp:77] Creating layer layer_19_1_5/scale
I0425 21:02:27.578987 13721 net.cpp:150] Setting up layer_19_1_5/scale
I0425 21:02:27.578995 13721 net.cpp:157] Top shape: 2 64 2 2 (512)
I0425 21:02:27.579000 13721 net.cpp:165] Memory required for data: 421518304
I0425 21:02:27.579010 13721 layer_factory.hpp:77] Creating layer layer_19_1_5/relu
I0425 21:02:27.579018 13721 net.cpp:100] Creating Layer layer_19_1_5/relu
I0425 21:02:27.579025 13721 net.cpp:434] layer_19_1_5/relu <- layer_19_1_5
I0425 21:02:27.579033 13721 net.cpp:395] layer_19_1_5/relu -> layer_19_1_5 (in-place)
I0425 21:02:27.579457 13721 net.cpp:150] Setting up layer_19_1_5/relu
I0425 21:02:27.579469 13721 net.cpp:157] Top shape: 2 64 2 2 (512)
I0425 21:02:27.579475 13721 net.cpp:165] Memory required for data: 421520352
I0425 21:02:27.579481 13721 layer_factory.hpp:77] Creating layer layer_19_2_5/depthwise
I0425 21:02:27.579493 13721 net.cpp:100] Creating Layer layer_19_2_5/depthwise
I0425 21:02:27.579512 13721 net.cpp:434] layer_19_2_5/depthwise <- layer_19_1_5
I0425 21:02:27.579524 13721 net.cpp:408] layer_19_2_5/depthwise -> layer_19_2_5/depthwise
I0425 21:02:27.579731 13721 net.cpp:150] Setting up layer_19_2_5/depthwise
I0425 21:02:27.579741 13721 net.cpp:157] Top shape: 2 64 1 1 (128)
I0425 21:02:27.579756 13721 net.cpp:165] Memory required for data: 421520864
I0425 21:02:27.579764 13721 layer_factory.hpp:77] Creating layer layer_19_2_5/depthwise/bn
I0425 21:02:27.579772 13721 net.cpp:100] Creating Layer layer_19_2_5/depthwise/bn
I0425 21:02:27.579779 13721 net.cpp:434] layer_19_2_5/depthwise/bn <- layer_19_2_5/depthwise
I0425 21:02:27.579797 13721 net.cpp:395] layer_19_2_5/depthwise/bn -> layer_19_2_5/depthwise (in-place)
I0425 21:02:27.579993 13721 net.cpp:150] Setting up layer_19_2_5/depthwise/bn
I0425 21:02:27.580003 13721 net.cpp:157] Top shape: 2 64 1 1 (128)
I0425 21:02:27.580005 13721 net.cpp:165] Memory required for data: 421521376
I0425 21:02:27.580011 13721 layer_factory.hpp:77] Creating layer layer_19_2_5/depthwise/scale
I0425 21:02:27.580018 13721 net.cpp:100] Creating Layer layer_19_2_5/depthwise/scale
I0425 21:02:27.580024 13721 net.cpp:434] layer_19_2_5/depthwise/scale <- layer_19_2_5/depthwise
I0425 21:02:27.580032 13721 net.cpp:395] layer_19_2_5/depthwise/scale -> layer_19_2_5/depthwise (in-place)
I0425 21:02:27.580099 13721 layer_factory.hpp:77] Creating layer layer_19_2_5/depthwise/scale
I0425 21:02:27.580224 13721 net.cpp:150] Setting up layer_19_2_5/depthwise/scale
I0425 21:02:27.580230 13721 net.cpp:157] Top shape: 2 64 1 1 (128)
I0425 21:02:27.580242 13721 net.cpp:165] Memory required for data: 421521888
I0425 21:02:27.580251 13721 layer_factory.hpp:77] Creating layer layer_19_2_5/depthwise/relu
I0425 21:02:27.580268 13721 net.cpp:100] Creating Layer layer_19_2_5/depthwise/relu
I0425 21:02:27.580274 13721 net.cpp:434] layer_19_2_5/depthwise/relu <- layer_19_2_5/depthwise
I0425 21:02:27.580288 13721 net.cpp:395] layer_19_2_5/depthwise/relu -> layer_19_2_5/depthwise (in-place)
I0425 21:02:27.580459 13721 net.cpp:150] Setting up layer_19_2_5/depthwise/relu
I0425 21:02:27.580471 13721 net.cpp:157] Top shape: 2 64 1 1 (128)
I0425 21:02:27.580476 13721 net.cpp:165] Memory required for data: 421522400
I0425 21:02:27.580482 13721 layer_factory.hpp:77] Creating layer layer_19_2_5
I0425 21:02:27.580492 13721 net.cpp:100] Creating Layer layer_19_2_5
I0425 21:02:27.580500 13721 net.cpp:434] layer_19_2_5 <- layer_19_2_5/depthwise
I0425 21:02:27.580509 13721 net.cpp:408] layer_19_2_5 -> layer_19_2_5
I0425 21:02:27.581770 13721 net.cpp:150] Setting up layer_19_2_5
I0425 21:02:27.581784 13721 net.cpp:157] Top shape: 2 128 1 1 (256)
I0425 21:02:27.581790 13721 net.cpp:165] Memory required for data: 421523424
I0425 21:02:27.581799 13721 layer_factory.hpp:77] Creating layer layer_19_2_5/bn
I0425 21:02:27.581809 13721 net.cpp:100] Creating Layer layer_19_2_5/bn
I0425 21:02:27.581815 13721 net.cpp:434] layer_19_2_5/bn <- layer_19_2_5
I0425 21:02:27.581823 13721 net.cpp:395] layer_19_2_5/bn -> layer_19_2_5 (in-place)
I0425 21:02:27.582000 13721 net.cpp:150] Setting up layer_19_2_5/bn
I0425 21:02:27.582010 13721 net.cpp:157] Top shape: 2 128 1 1 (256)
I0425 21:02:27.582015 13721 net.cpp:165] Memory required for data: 421524448
I0425 21:02:27.582026 13721 layer_factory.hpp:77] Creating layer layer_19_2_5/scale
I0425 21:02:27.582036 13721 net.cpp:100] Creating Layer layer_19_2_5/scale
I0425 21:02:27.582043 13721 net.cpp:434] layer_19_2_5/scale <- layer_19_2_5
I0425 21:02:27.582051 13721 net.cpp:395] layer_19_2_5/scale -> layer_19_2_5 (in-place)
I0425 21:02:27.582096 13721 layer_factory.hpp:77] Creating layer layer_19_2_5/scale
I0425 21:02:27.582202 13721 net.cpp:150] Setting up layer_19_2_5/scale
I0425 21:02:27.582211 13721 net.cpp:157] Top shape: 2 128 1 1 (256)
I0425 21:02:27.582216 13721 net.cpp:165] Memory required for data: 421525472
I0425 21:02:27.582226 13721 layer_factory.hpp:77] Creating layer layer_19_2_5/relu
I0425 21:02:27.582234 13721 net.cpp:100] Creating Layer layer_19_2_5/relu
I0425 21:02:27.582253 13721 net.cpp:434] layer_19_2_5/relu <- layer_19_2_5
I0425 21:02:27.582259 13721 net.cpp:395] layer_19_2_5/relu -> layer_19_2_5 (in-place)
I0425 21:02:27.582671 13721 net.cpp:150] Setting up layer_19_2_5/relu
I0425 21:02:27.582682 13721 net.cpp:157] Top shape: 2 128 1 1 (256)
I0425 21:02:27.582695 13721 net.cpp:165] Memory required for data: 421526496
I0425 21:02:27.582701 13721 layer_factory.hpp:77] Creating layer layer_19_2_5_layer_19_2_5/relu_0_split
I0425 21:02:27.582710 13721 net.cpp:100] Creating Layer layer_19_2_5_layer_19_2_5/relu_0_split
I0425 21:02:27.582716 13721 net.cpp:434] layer_19_2_5_layer_19_2_5/relu_0_split <- layer_19_2_5
I0425 21:02:27.582726 13721 net.cpp:408] layer_19_2_5_layer_19_2_5/relu_0_split -> layer_19_2_5_layer_19_2_5/relu_0_split_0
I0425 21:02:27.582746 13721 net.cpp:408] layer_19_2_5_layer_19_2_5/relu_0_split -> layer_19_2_5_layer_19_2_5/relu_0_split_1
I0425 21:02:27.582751 13721 net.cpp:408] layer_19_2_5_layer_19_2_5/relu_0_split -> layer_19_2_5_layer_19_2_5/relu_0_split_2
I0425 21:02:27.582814 13721 net.cpp:150] Setting up layer_19_2_5_layer_19_2_5/relu_0_split
I0425 21:02:27.582823 13721 net.cpp:157] Top shape: 2 128 1 1 (256)
I0425 21:02:27.582829 13721 net.cpp:157] Top shape: 2 128 1 1 (256)
I0425 21:02:27.582835 13721 net.cpp:157] Top shape: 2 128 1 1 (256)
I0425 21:02:27.582841 13721 net.cpp:165] Memory required for data: 421529568
I0425 21:02:27.582847 13721 layer_factory.hpp:77] Creating layer conv_13/expand_mbox_loc
I0425 21:02:27.582859 13721 net.cpp:100] Creating Layer conv_13/expand_mbox_loc
I0425 21:02:27.582868 13721 net.cpp:434] conv_13/expand_mbox_loc <- conv_13/expand_conv_13/expand/relu_0_split_1
I0425 21:02:27.582878 13721 net.cpp:408] conv_13/expand_mbox_loc -> conv_13/expand_mbox_loc
I0425 21:02:27.584622 13721 net.cpp:150] Setting up conv_13/expand_mbox_loc
I0425 21:02:27.584643 13721 net.cpp:157] Top shape: 2 12 19 19 (8664)
I0425 21:02:27.584650 13721 net.cpp:165] Memory required for data: 421564224
I0425 21:02:27.584661 13721 layer_factory.hpp:77] Creating layer conv_13/expand_mbox_loc_perm
I0425 21:02:27.584671 13721 net.cpp:100] Creating Layer conv_13/expand_mbox_loc_perm
I0425 21:02:27.584678 13721 net.cpp:434] conv_13/expand_mbox_loc_perm <- conv_13/expand_mbox_loc
I0425 21:02:27.584686 13721 net.cpp:408] conv_13/expand_mbox_loc_perm -> conv_13/expand_mbox_loc_perm
I0425 21:02:27.584806 13721 net.cpp:150] Setting up conv_13/expand_mbox_loc_perm
I0425 21:02:27.584816 13721 net.cpp:157] Top shape: 2 19 19 12 (8664)
I0425 21:02:27.584822 13721 net.cpp:165] Memory required for data: 421598880
I0425 21:02:27.584828 13721 layer_factory.hpp:77] Creating layer conv_13/expand_mbox_loc_flat
I0425 21:02:27.584837 13721 net.cpp:100] Creating Layer conv_13/expand_mbox_loc_flat
I0425 21:02:27.584843 13721 net.cpp:434] conv_13/expand_mbox_loc_flat <- conv_13/expand_mbox_loc_perm
I0425 21:02:27.584851 13721 net.cpp:408] conv_13/expand_mbox_loc_flat -> conv_13/expand_mbox_loc_flat
I0425 21:02:27.584893 13721 net.cpp:150] Setting up conv_13/expand_mbox_loc_flat
I0425 21:02:27.584903 13721 net.cpp:157] Top shape: 2 4332 (8664)
I0425 21:02:27.584908 13721 net.cpp:165] Memory required for data: 421633536
I0425 21:02:27.584914 13721 layer_factory.hpp:77] Creating layer conv_13/expand_mbox_conf
I0425 21:02:27.584924 13721 net.cpp:100] Creating Layer conv_13/expand_mbox_conf
I0425 21:02:27.584931 13721 net.cpp:434] conv_13/expand_mbox_conf <- conv_13/expand_conv_13/expand/relu_0_split_2
I0425 21:02:27.584939 13721 net.cpp:408] conv_13/expand_mbox_conf -> conv_13/expand_mbox_conf
I0425 21:02:27.588120 13721 net.cpp:150] Setting up conv_13/expand_mbox_conf
I0425 21:02:27.588138 13721 net.cpp:157] Top shape: 2 21 19 19 (15162)
I0425 21:02:27.588145 13721 net.cpp:165] Memory required for data: 421694184
I0425 21:02:27.588155 13721 layer_factory.hpp:77] Creating layer conv_13/expand_mbox_conf_perm
I0425 21:02:27.588165 13721 net.cpp:100] Creating Layer conv_13/expand_mbox_conf_perm
I0425 21:02:27.588172 13721 net.cpp:434] conv_13/expand_mbox_conf_perm <- conv_13/expand_mbox_conf
I0425 21:02:27.588198 13721 net.cpp:408] conv_13/expand_mbox_conf_perm -> conv_13/expand_mbox_conf_perm
I0425 21:02:27.588333 13721 net.cpp:150] Setting up conv_13/expand_mbox_conf_perm
I0425 21:02:27.588346 13721 net.cpp:157] Top shape: 2 19 19 21 (15162)
I0425 21:02:27.588351 13721 net.cpp:165] Memory required for data: 421754832
I0425 21:02:27.588359 13721 layer_factory.hpp:77] Creating layer conv_13/expand_mbox_conf_flat
I0425 21:02:27.588368 13721 net.cpp:100] Creating Layer conv_13/expand_mbox_conf_flat
I0425 21:02:27.588376 13721 net.cpp:434] conv_13/expand_mbox_conf_flat <- conv_13/expand_mbox_conf_perm
I0425 21:02:27.588385 13721 net.cpp:408] conv_13/expand_mbox_conf_flat -> conv_13/expand_mbox_conf_flat
I0425 21:02:27.588426 13721 net.cpp:150] Setting up conv_13/expand_mbox_conf_flat
I0425 21:02:27.588436 13721 net.cpp:157] Top shape: 2 7581 (15162)
I0425 21:02:27.588443 13721 net.cpp:165] Memory required for data: 421815480
I0425 21:02:27.588449 13721 layer_factory.hpp:77] Creating layer conv_13/expand_mbox_priorbox
I0425 21:02:27.588460 13721 net.cpp:100] Creating Layer conv_13/expand_mbox_priorbox
I0425 21:02:27.588467 13721 net.cpp:434] conv_13/expand_mbox_priorbox <- conv_13/expand_conv_13/expand/relu_0_split_3
I0425 21:02:27.588476 13721 net.cpp:434] conv_13/expand_mbox_priorbox <- data_data_0_split_1
I0425 21:02:27.588493 13721 net.cpp:408] conv_13/expand_mbox_priorbox -> conv_13/expand_mbox_priorbox
I0425 21:02:27.588523 13721 net.cpp:150] Setting up conv_13/expand_mbox_priorbox
I0425 21:02:27.588532 13721 net.cpp:157] Top shape: 1 2 4332 (8664)
I0425 21:02:27.588537 13721 net.cpp:165] Memory required for data: 421850136
I0425 21:02:27.588542 13721 layer_factory.hpp:77] Creating layer Conv_1_mbox_loc
I0425 21:02:27.588559 13721 net.cpp:100] Creating Layer Conv_1_mbox_loc
I0425 21:02:27.588567 13721 net.cpp:434] Conv_1_mbox_loc <- Conv_1_Conv_1/relu_0_split_1
I0425 21:02:27.588575 13721 net.cpp:408] Conv_1_mbox_loc -> Conv_1_mbox_loc
I0425 21:02:27.593971 13721 net.cpp:150] Setting up Conv_1_mbox_loc
I0425 21:02:27.594002 13721 net.cpp:157] Top shape: 2 24 10 10 (4800)
I0425 21:02:27.594007 13721 net.cpp:165] Memory required for data: 421869336
I0425 21:02:27.594019 13721 layer_factory.hpp:77] Creating layer Conv_1_mbox_loc_perm
I0425 21:02:27.594034 13721 net.cpp:100] Creating Layer Conv_1_mbox_loc_perm
I0425 21:02:27.594043 13721 net.cpp:434] Conv_1_mbox_loc_perm <- Conv_1_mbox_loc
I0425 21:02:27.594053 13721 net.cpp:408] Conv_1_mbox_loc_perm -> Conv_1_mbox_loc_perm
I0425 21:02:27.594175 13721 net.cpp:150] Setting up Conv_1_mbox_loc_perm
I0425 21:02:27.594185 13721 net.cpp:157] Top shape: 2 10 10 24 (4800)
I0425 21:02:27.594188 13721 net.cpp:165] Memory required for data: 421888536
I0425 21:02:27.594192 13721 layer_factory.hpp:77] Creating layer Conv_1_mbox_loc_flat
I0425 21:02:27.594202 13721 net.cpp:100] Creating Layer Conv_1_mbox_loc_flat
I0425 21:02:27.594208 13721 net.cpp:434] Conv_1_mbox_loc_flat <- Conv_1_mbox_loc_perm
I0425 21:02:27.594215 13721 net.cpp:408] Conv_1_mbox_loc_flat -> Conv_1_mbox_loc_flat
I0425 21:02:27.594245 13721 net.cpp:150] Setting up Conv_1_mbox_loc_flat
I0425 21:02:27.594254 13721 net.cpp:157] Top shape: 2 2400 (4800)
I0425 21:02:27.594255 13721 net.cpp:165] Memory required for data: 421907736
I0425 21:02:27.594259 13721 layer_factory.hpp:77] Creating layer Conv_1_mbox_conf
I0425 21:02:27.594274 13721 net.cpp:100] Creating Layer Conv_1_mbox_conf
I0425 21:02:27.594281 13721 net.cpp:434] Conv_1_mbox_conf <- Conv_1_Conv_1/relu_0_split_2
I0425 21:02:27.594290 13721 net.cpp:408] Conv_1_mbox_conf -> Conv_1_mbox_conf
I0425 21:02:27.600558 13721 net.cpp:150] Setting up Conv_1_mbox_conf
I0425 21:02:27.600574 13721 net.cpp:157] Top shape: 2 42 10 10 (8400)
I0425 21:02:27.600577 13721 net.cpp:165] Memory required for data: 421941336
I0425 21:02:27.600584 13721 layer_factory.hpp:77] Creating layer Conv_1_mbox_conf_perm
I0425 21:02:27.600595 13721 net.cpp:100] Creating Layer Conv_1_mbox_conf_perm
I0425 21:02:27.600603 13721 net.cpp:434] Conv_1_mbox_conf_perm <- Conv_1_mbox_conf
I0425 21:02:27.600632 13721 net.cpp:408] Conv_1_mbox_conf_perm -> Conv_1_mbox_conf_perm
I0425 21:02:27.600741 13721 net.cpp:150] Setting up Conv_1_mbox_conf_perm
I0425 21:02:27.600749 13721 net.cpp:157] Top shape: 2 10 10 42 (8400)
I0425 21:02:27.600754 13721 net.cpp:165] Memory required for data: 421974936
I0425 21:02:27.600756 13721 layer_factory.hpp:77] Creating layer Conv_1_mbox_conf_flat
I0425 21:02:27.600762 13721 net.cpp:100] Creating Layer Conv_1_mbox_conf_flat
I0425 21:02:27.600769 13721 net.cpp:434] Conv_1_mbox_conf_flat <- Conv_1_mbox_conf_perm
I0425 21:02:27.600776 13721 net.cpp:408] Conv_1_mbox_conf_flat -> Conv_1_mbox_conf_flat
I0425 21:02:27.600807 13721 net.cpp:150] Setting up Conv_1_mbox_conf_flat
I0425 21:02:27.600814 13721 net.cpp:157] Top shape: 2 4200 (8400)
I0425 21:02:27.600817 13721 net.cpp:165] Memory required for data: 422008536
I0425 21:02:27.600821 13721 layer_factory.hpp:77] Creating layer Conv_1_mbox_priorbox
I0425 21:02:27.600826 13721 net.cpp:100] Creating Layer Conv_1_mbox_priorbox
I0425 21:02:27.600832 13721 net.cpp:434] Conv_1_mbox_priorbox <- Conv_1_Conv_1/relu_0_split_3
I0425 21:02:27.600841 13721 net.cpp:434] Conv_1_mbox_priorbox <- data_data_0_split_2
I0425 21:02:27.600848 13721 net.cpp:408] Conv_1_mbox_priorbox -> Conv_1_mbox_priorbox
I0425 21:02:27.600883 13721 net.cpp:150] Setting up Conv_1_mbox_priorbox
I0425 21:02:27.600889 13721 net.cpp:157] Top shape: 1 2 2400 (4800)
I0425 21:02:27.600893 13721 net.cpp:165] Memory required for data: 422027736
I0425 21:02:27.600895 13721 layer_factory.hpp:77] Creating layer layer_19_2_2_mbox_loc
I0425 21:02:27.600903 13721 net.cpp:100] Creating Layer layer_19_2_2_mbox_loc
I0425 21:02:27.600910 13721 net.cpp:434] layer_19_2_2_mbox_loc <- layer_19_2_2_layer_19_2_2/relu_0_split_1
I0425 21:02:27.600919 13721 net.cpp:408] layer_19_2_2_mbox_loc -> layer_19_2_2_mbox_loc
I0425 21:02:27.603684 13721 net.cpp:150] Setting up layer_19_2_2_mbox_loc
I0425 21:02:27.603698 13721 net.cpp:157] Top shape: 2 24 5 5 (1200)
I0425 21:02:27.603704 13721 net.cpp:165] Memory required for data: 422032536
I0425 21:02:27.603732 13721 layer_factory.hpp:77] Creating layer layer_19_2_2_mbox_loc_perm
I0425 21:02:27.603744 13721 net.cpp:100] Creating Layer layer_19_2_2_mbox_loc_perm
I0425 21:02:27.603751 13721 net.cpp:434] layer_19_2_2_mbox_loc_perm <- layer_19_2_2_mbox_loc
I0425 21:02:27.603770 13721 net.cpp:408] layer_19_2_2_mbox_loc_perm -> layer_19_2_2_mbox_loc_perm
I0425 21:02:27.603883 13721 net.cpp:150] Setting up layer_19_2_2_mbox_loc_perm
I0425 21:02:27.603893 13721 net.cpp:157] Top shape: 2 5 5 24 (1200)
I0425 21:02:27.603899 13721 net.cpp:165] Memory required for data: 422037336
I0425 21:02:27.603904 13721 layer_factory.hpp:77] Creating layer layer_19_2_2_mbox_loc_flat
I0425 21:02:27.603914 13721 net.cpp:100] Creating Layer layer_19_2_2_mbox_loc_flat
I0425 21:02:27.603919 13721 net.cpp:434] layer_19_2_2_mbox_loc_flat <- layer_19_2_2_mbox_loc_perm
I0425 21:02:27.603929 13721 net.cpp:408] layer_19_2_2_mbox_loc_flat -> layer_19_2_2_mbox_loc_flat
I0425 21:02:27.603958 13721 net.cpp:150] Setting up layer_19_2_2_mbox_loc_flat
I0425 21:02:27.603966 13721 net.cpp:157] Top shape: 2 600 (1200)
I0425 21:02:27.603971 13721 net.cpp:165] Memory required for data: 422042136
I0425 21:02:27.603976 13721 layer_factory.hpp:77] Creating layer layer_19_2_2_mbox_conf
I0425 21:02:27.603987 13721 net.cpp:100] Creating Layer layer_19_2_2_mbox_conf
I0425 21:02:27.603996 13721 net.cpp:434] layer_19_2_2_mbox_conf <- layer_19_2_2_layer_19_2_2/relu_0_split_2
I0425 21:02:27.604004 13721 net.cpp:408] layer_19_2_2_mbox_conf -> layer_19_2_2_mbox_conf
I0425 21:02:27.607641 13721 net.cpp:150] Setting up layer_19_2_2_mbox_conf
I0425 21:02:27.607656 13721 net.cpp:157] Top shape: 2 42 5 5 (2100)
I0425 21:02:27.607662 13721 net.cpp:165] Memory required for data: 422050536
I0425 21:02:27.607673 13721 layer_factory.hpp:77] Creating layer layer_19_2_2_mbox_conf_perm
I0425 21:02:27.607684 13721 net.cpp:100] Creating Layer layer_19_2_2_mbox_conf_perm
I0425 21:02:27.607692 13721 net.cpp:434] layer_19_2_2_mbox_conf_perm <- layer_19_2_2_mbox_conf
I0425 21:02:27.607726 13721 net.cpp:408] layer_19_2_2_mbox_conf_perm -> layer_19_2_2_mbox_conf_perm
I0425 21:02:27.607837 13721 net.cpp:150] Setting up layer_19_2_2_mbox_conf_perm
I0425 21:02:27.607847 13721 net.cpp:157] Top shape: 2 5 5 42 (2100)
I0425 21:02:27.607852 13721 net.cpp:165] Memory required for data: 422058936
I0425 21:02:27.607858 13721 layer_factory.hpp:77] Creating layer layer_19_2_2_mbox_conf_flat
I0425 21:02:27.607868 13721 net.cpp:100] Creating Layer layer_19_2_2_mbox_conf_flat
I0425 21:02:27.607875 13721 net.cpp:434] layer_19_2_2_mbox_conf_flat <- layer_19_2_2_mbox_conf_perm
I0425 21:02:27.607883 13721 net.cpp:408] layer_19_2_2_mbox_conf_flat -> layer_19_2_2_mbox_conf_flat
I0425 21:02:27.607916 13721 net.cpp:150] Setting up layer_19_2_2_mbox_conf_flat
I0425 21:02:27.607926 13721 net.cpp:157] Top shape: 2 1050 (2100)
I0425 21:02:27.607933 13721 net.cpp:165] Memory required for data: 422067336
I0425 21:02:27.607936 13721 layer_factory.hpp:77] Creating layer layer_19_2_2_mbox_priorbox
I0425 21:02:27.607944 13721 net.cpp:100] Creating Layer layer_19_2_2_mbox_priorbox
I0425 21:02:27.607949 13721 net.cpp:434] layer_19_2_2_mbox_priorbox <- layer_19_2_2_layer_19_2_2/relu_0_split_3
I0425 21:02:27.607954 13721 net.cpp:434] layer_19_2_2_mbox_priorbox <- data_data_0_split_3
I0425 21:02:27.607959 13721 net.cpp:408] layer_19_2_2_mbox_priorbox -> layer_19_2_2_mbox_priorbox
I0425 21:02:27.607991 13721 net.cpp:150] Setting up layer_19_2_2_mbox_priorbox
I0425 21:02:27.608001 13721 net.cpp:157] Top shape: 1 2 600 (1200)
I0425 21:02:27.608007 13721 net.cpp:165] Memory required for data: 422072136
I0425 21:02:27.608013 13721 layer_factory.hpp:77] Creating layer layer_19_2_3_mbox_loc
I0425 21:02:27.608026 13721 net.cpp:100] Creating Layer layer_19_2_3_mbox_loc
I0425 21:02:27.608032 13721 net.cpp:434] layer_19_2_3_mbox_loc <- layer_19_2_3_layer_19_2_3/relu_0_split_1
I0425 21:02:27.608042 13721 net.cpp:408] layer_19_2_3_mbox_loc -> layer_19_2_3_mbox_loc
I0425 21:02:27.610280 13721 net.cpp:150] Setting up layer_19_2_3_mbox_loc
I0425 21:02:27.610294 13721 net.cpp:157] Top shape: 2 24 3 3 (432)
I0425 21:02:27.610301 13721 net.cpp:165] Memory required for data: 422073864
I0425 21:02:27.610311 13721 layer_factory.hpp:77] Creating layer layer_19_2_3_mbox_loc_perm
I0425 21:02:27.610322 13721 net.cpp:100] Creating Layer layer_19_2_3_mbox_loc_perm
I0425 21:02:27.610329 13721 net.cpp:434] layer_19_2_3_mbox_loc_perm <- layer_19_2_3_mbox_loc
I0425 21:02:27.610339 13721 net.cpp:408] layer_19_2_3_mbox_loc_perm -> layer_19_2_3_mbox_loc_perm
I0425 21:02:27.610441 13721 net.cpp:150] Setting up layer_19_2_3_mbox_loc_perm
I0425 21:02:27.610450 13721 net.cpp:157] Top shape: 2 3 3 24 (432)
I0425 21:02:27.610455 13721 net.cpp:165] Memory required for data: 422075592
I0425 21:02:27.610461 13721 layer_factory.hpp:77] Creating layer layer_19_2_3_mbox_loc_flat
I0425 21:02:27.610479 13721 net.cpp:100] Creating Layer layer_19_2_3_mbox_loc_flat
I0425 21:02:27.610487 13721 net.cpp:434] layer_19_2_3_mbox_loc_flat <- layer_19_2_3_mbox_loc_perm
I0425 21:02:27.610496 13721 net.cpp:408] layer_19_2_3_mbox_loc_flat -> layer_19_2_3_mbox_loc_flat
I0425 21:02:27.610535 13721 net.cpp:150] Setting up layer_19_2_3_mbox_loc_flat
I0425 21:02:27.610543 13721 net.cpp:157] Top shape: 2 216 (432)
I0425 21:02:27.610548 13721 net.cpp:165] Memory required for data: 422077320
I0425 21:02:27.610553 13721 layer_factory.hpp:77] Creating layer layer_19_2_3_mbox_conf
I0425 21:02:27.610565 13721 net.cpp:100] Creating Layer layer_19_2_3_mbox_conf
I0425 21:02:27.610572 13721 net.cpp:434] layer_19_2_3_mbox_conf <- layer_19_2_3_layer_19_2_3/relu_0_split_2
I0425 21:02:27.610581 13721 net.cpp:408] layer_19_2_3_mbox_conf -> layer_19_2_3_mbox_conf
I0425 21:02:27.612972 13721 net.cpp:150] Setting up layer_19_2_3_mbox_conf
I0425 21:02:27.612988 13721 net.cpp:157] Top shape: 2 42 3 3 (756)
I0425 21:02:27.613005 13721 net.cpp:165] Memory required for data: 422080344
I0425 21:02:27.613018 13721 layer_factory.hpp:77] Creating layer layer_19_2_3_mbox_conf_perm
I0425 21:02:27.613061 13721 net.cpp:100] Creating Layer layer_19_2_3_mbox_conf_perm
I0425 21:02:27.613080 13721 net.cpp:434] layer_19_2_3_mbox_conf_perm <- layer_19_2_3_mbox_conf
I0425 21:02:27.613090 13721 net.cpp:408] layer_19_2_3_mbox_conf_perm -> layer_19_2_3_mbox_conf_perm
I0425 21:02:27.613235 13721 net.cpp:150] Setting up layer_19_2_3_mbox_conf_perm
I0425 21:02:27.613246 13721 net.cpp:157] Top shape: 2 3 3 42 (756)
I0425 21:02:27.613262 13721 net.cpp:165] Memory required for data: 422083368
I0425 21:02:27.613268 13721 layer_factory.hpp:77] Creating layer layer_19_2_3_mbox_conf_flat
I0425 21:02:27.613277 13721 net.cpp:100] Creating Layer layer_19_2_3_mbox_conf_flat
I0425 21:02:27.613284 13721 net.cpp:434] layer_19_2_3_mbox_conf_flat <- layer_19_2_3_mbox_conf_perm
I0425 21:02:27.613293 13721 net.cpp:408] layer_19_2_3_mbox_conf_flat -> layer_19_2_3_mbox_conf_flat
I0425 21:02:27.613335 13721 net.cpp:150] Setting up layer_19_2_3_mbox_conf_flat
I0425 21:02:27.613344 13721 net.cpp:157] Top shape: 2 378 (756)
I0425 21:02:27.613360 13721 net.cpp:165] Memory required for data: 422086392
I0425 21:02:27.613366 13721 layer_factory.hpp:77] Creating layer layer_19_2_3_mbox_priorbox
I0425 21:02:27.613375 13721 net.cpp:100] Creating Layer layer_19_2_3_mbox_priorbox
I0425 21:02:27.613382 13721 net.cpp:434] layer_19_2_3_mbox_priorbox <- layer_19_2_3_layer_19_2_3/relu_0_split_3
I0425 21:02:27.613390 13721 net.cpp:434] layer_19_2_3_mbox_priorbox <- data_data_0_split_4
I0425 21:02:27.613407 13721 net.cpp:408] layer_19_2_3_mbox_priorbox -> layer_19_2_3_mbox_priorbox
I0425 21:02:27.613445 13721 net.cpp:150] Setting up layer_19_2_3_mbox_priorbox
I0425 21:02:27.613453 13721 net.cpp:157] Top shape: 1 2 216 (432)
I0425 21:02:27.613459 13721 net.cpp:165] Memory required for data: 422088120
I0425 21:02:27.613466 13721 layer_factory.hpp:77] Creating layer layer_19_2_4_mbox_loc
I0425 21:02:27.613477 13721 net.cpp:100] Creating Layer layer_19_2_4_mbox_loc
I0425 21:02:27.613484 13721 net.cpp:434] layer_19_2_4_mbox_loc <- layer_19_2_4_layer_19_2_4/relu_0_split_1
I0425 21:02:27.613493 13721 net.cpp:408] layer_19_2_4_mbox_loc -> layer_19_2_4_mbox_loc
I0425 21:02:27.615336 13721 net.cpp:150] Setting up layer_19_2_4_mbox_loc
I0425 21:02:27.615350 13721 net.cpp:157] Top shape: 2 24 2 2 (192)
I0425 21:02:27.615353 13721 net.cpp:165] Memory required for data: 422088888
I0425 21:02:27.615360 13721 layer_factory.hpp:77] Creating layer layer_19_2_4_mbox_loc_perm
I0425 21:02:27.615367 13721 net.cpp:100] Creating Layer layer_19_2_4_mbox_loc_perm
I0425 21:02:27.615372 13721 net.cpp:434] layer_19_2_4_mbox_loc_perm <- layer_19_2_4_mbox_loc
I0425 21:02:27.615378 13721 net.cpp:408] layer_19_2_4_mbox_loc_perm -> layer_19_2_4_mbox_loc_perm
I0425 21:02:27.615480 13721 net.cpp:150] Setting up layer_19_2_4_mbox_loc_perm
I0425 21:02:27.615487 13721 net.cpp:157] Top shape: 2 2 2 24 (192)
I0425 21:02:27.615491 13721 net.cpp:165] Memory required for data: 422089656
I0425 21:02:27.615494 13721 layer_factory.hpp:77] Creating layer layer_19_2_4_mbox_loc_flat
I0425 21:02:27.615500 13721 net.cpp:100] Creating Layer layer_19_2_4_mbox_loc_flat
I0425 21:02:27.615505 13721 net.cpp:434] layer_19_2_4_mbox_loc_flat <- layer_19_2_4_mbox_loc_perm
I0425 21:02:27.615510 13721 net.cpp:408] layer_19_2_4_mbox_loc_flat -> layer_19_2_4_mbox_loc_flat
I0425 21:02:27.615531 13721 net.cpp:150] Setting up layer_19_2_4_mbox_loc_flat
I0425 21:02:27.615537 13721 net.cpp:157] Top shape: 2 96 (192)
I0425 21:02:27.615540 13721 net.cpp:165] Memory required for data: 422090424
I0425 21:02:27.615545 13721 layer_factory.hpp:77] Creating layer layer_19_2_4_mbox_conf
I0425 21:02:27.615552 13721 net.cpp:100] Creating Layer layer_19_2_4_mbox_conf
I0425 21:02:27.615557 13721 net.cpp:434] layer_19_2_4_mbox_conf <- layer_19_2_4_layer_19_2_4/relu_0_split_2
I0425 21:02:27.615562 13721 net.cpp:408] layer_19_2_4_mbox_conf -> layer_19_2_4_mbox_conf
I0425 21:02:27.617763 13721 net.cpp:150] Setting up layer_19_2_4_mbox_conf
I0425 21:02:27.617775 13721 net.cpp:157] Top shape: 2 42 2 2 (336)
I0425 21:02:27.617779 13721 net.cpp:165] Memory required for data: 422091768
I0425 21:02:27.617799 13721 layer_factory.hpp:77] Creating layer layer_19_2_4_mbox_conf_perm
I0425 21:02:27.617806 13721 net.cpp:100] Creating Layer layer_19_2_4_mbox_conf_perm
I0425 21:02:27.617811 13721 net.cpp:434] layer_19_2_4_mbox_conf_perm <- layer_19_2_4_mbox_conf
I0425 21:02:27.617817 13721 net.cpp:408] layer_19_2_4_mbox_conf_perm -> layer_19_2_4_mbox_conf_perm
I0425 21:02:27.617911 13721 net.cpp:150] Setting up layer_19_2_4_mbox_conf_perm
I0425 21:02:27.617918 13721 net.cpp:157] Top shape: 2 2 2 42 (336)
I0425 21:02:27.617923 13721 net.cpp:165] Memory required for data: 422093112
I0425 21:02:27.617925 13721 layer_factory.hpp:77] Creating layer layer_19_2_4_mbox_conf_flat
I0425 21:02:27.617931 13721 net.cpp:100] Creating Layer layer_19_2_4_mbox_conf_flat
I0425 21:02:27.617936 13721 net.cpp:434] layer_19_2_4_mbox_conf_flat <- layer_19_2_4_mbox_conf_perm
I0425 21:02:27.617941 13721 net.cpp:408] layer_19_2_4_mbox_conf_flat -> layer_19_2_4_mbox_conf_flat
I0425 21:02:27.617961 13721 net.cpp:150] Setting up layer_19_2_4_mbox_conf_flat
I0425 21:02:27.617967 13721 net.cpp:157] Top shape: 2 168 (336)
I0425 21:02:27.617970 13721 net.cpp:165] Memory required for data: 422094456
I0425 21:02:27.617974 13721 layer_factory.hpp:77] Creating layer layer_19_2_4_mbox_priorbox
I0425 21:02:27.617980 13721 net.cpp:100] Creating Layer layer_19_2_4_mbox_priorbox
I0425 21:02:27.617985 13721 net.cpp:434] layer_19_2_4_mbox_priorbox <- layer_19_2_4_layer_19_2_4/relu_0_split_3
I0425 21:02:27.617990 13721 net.cpp:434] layer_19_2_4_mbox_priorbox <- data_data_0_split_5
I0425 21:02:27.617995 13721 net.cpp:408] layer_19_2_4_mbox_priorbox -> layer_19_2_4_mbox_priorbox
I0425 21:02:27.618017 13721 net.cpp:150] Setting up layer_19_2_4_mbox_priorbox
I0425 21:02:27.618023 13721 net.cpp:157] Top shape: 1 2 96 (192)
I0425 21:02:27.618026 13721 net.cpp:165] Memory required for data: 422095224
I0425 21:02:27.618031 13721 layer_factory.hpp:77] Creating layer layer_19_2_5_mbox_loc
I0425 21:02:27.618037 13721 net.cpp:100] Creating Layer layer_19_2_5_mbox_loc
I0425 21:02:27.618042 13721 net.cpp:434] layer_19_2_5_mbox_loc <- layer_19_2_5_layer_19_2_5/relu_0_split_0
I0425 21:02:27.618047 13721 net.cpp:408] layer_19_2_5_mbox_loc -> layer_19_2_5_mbox_loc
I0425 21:02:27.619462 13721 net.cpp:150] Setting up layer_19_2_5_mbox_loc
I0425 21:02:27.619473 13721 net.cpp:157] Top shape: 2 24 1 1 (48)
I0425 21:02:27.619477 13721 net.cpp:165] Memory required for data: 422095416
I0425 21:02:27.619484 13721 layer_factory.hpp:77] Creating layer layer_19_2_5_mbox_loc_perm
I0425 21:02:27.619491 13721 net.cpp:100] Creating Layer layer_19_2_5_mbox_loc_perm
I0425 21:02:27.619495 13721 net.cpp:434] layer_19_2_5_mbox_loc_perm <- layer_19_2_5_mbox_loc
I0425 21:02:27.619501 13721 net.cpp:408] layer_19_2_5_mbox_loc_perm -> layer_19_2_5_mbox_loc_perm
I0425 21:02:27.619593 13721 net.cpp:150] Setting up layer_19_2_5_mbox_loc_perm
I0425 21:02:27.619601 13721 net.cpp:157] Top shape: 2 1 1 24 (48)
I0425 21:02:27.619604 13721 net.cpp:165] Memory required for data: 422095608
I0425 21:02:27.619608 13721 layer_factory.hpp:77] Creating layer layer_19_2_5_mbox_loc_flat
I0425 21:02:27.619613 13721 net.cpp:100] Creating Layer layer_19_2_5_mbox_loc_flat
I0425 21:02:27.619618 13721 net.cpp:434] layer_19_2_5_mbox_loc_flat <- layer_19_2_5_mbox_loc_perm
I0425 21:02:27.619623 13721 net.cpp:408] layer_19_2_5_mbox_loc_flat -> layer_19_2_5_mbox_loc_flat
I0425 21:02:27.619644 13721 net.cpp:150] Setting up layer_19_2_5_mbox_loc_flat
I0425 21:02:27.619650 13721 net.cpp:157] Top shape: 2 24 (48)
I0425 21:02:27.619653 13721 net.cpp:165] Memory required for data: 422095800
I0425 21:02:27.619657 13721 layer_factory.hpp:77] Creating layer layer_19_2_5_mbox_conf
I0425 21:02:27.619671 13721 net.cpp:100] Creating Layer layer_19_2_5_mbox_conf
I0425 21:02:27.619676 13721 net.cpp:434] layer_19_2_5_mbox_conf <- layer_19_2_5_layer_19_2_5/relu_0_split_1
I0425 21:02:27.619683 13721 net.cpp:408] layer_19_2_5_mbox_conf -> layer_19_2_5_mbox_conf
I0425 21:02:27.621314 13721 net.cpp:150] Setting up layer_19_2_5_mbox_conf
I0425 21:02:27.621338 13721 net.cpp:157] Top shape: 2 42 1 1 (84)
I0425 21:02:27.621342 13721 net.cpp:165] Memory required for data: 422096136
I0425 21:02:27.621350 13721 layer_factory.hpp:77] Creating layer layer_19_2_5_mbox_conf_perm
I0425 21:02:27.621356 13721 net.cpp:100] Creating Layer layer_19_2_5_mbox_conf_perm
I0425 21:02:27.621361 13721 net.cpp:434] layer_19_2_5_mbox_conf_perm <- layer_19_2_5_mbox_conf
I0425 21:02:27.621367 13721 net.cpp:408] layer_19_2_5_mbox_conf_perm -> layer_19_2_5_mbox_conf_perm
I0425 21:02:27.621455 13721 net.cpp:150] Setting up layer_19_2_5_mbox_conf_perm
I0425 21:02:27.621462 13721 net.cpp:157] Top shape: 2 1 1 42 (84)
I0425 21:02:27.621465 13721 net.cpp:165] Memory required for data: 422096472
I0425 21:02:27.621469 13721 layer_factory.hpp:77] Creating layer layer_19_2_5_mbox_conf_flat
I0425 21:02:27.621475 13721 net.cpp:100] Creating Layer layer_19_2_5_mbox_conf_flat
I0425 21:02:27.621479 13721 net.cpp:434] layer_19_2_5_mbox_conf_flat <- layer_19_2_5_mbox_conf_perm
I0425 21:02:27.621484 13721 net.cpp:408] layer_19_2_5_mbox_conf_flat -> layer_19_2_5_mbox_conf_flat
I0425 21:02:27.621505 13721 net.cpp:150] Setting up layer_19_2_5_mbox_conf_flat
I0425 21:02:27.621511 13721 net.cpp:157] Top shape: 2 42 (84)
I0425 21:02:27.621515 13721 net.cpp:165] Memory required for data: 422096808
I0425 21:02:27.621518 13721 layer_factory.hpp:77] Creating layer layer_19_2_5_mbox_priorbox
I0425 21:02:27.621525 13721 net.cpp:100] Creating Layer layer_19_2_5_mbox_priorbox
I0425 21:02:27.621528 13721 net.cpp:434] layer_19_2_5_mbox_priorbox <- layer_19_2_5_layer_19_2_5/relu_0_split_2
I0425 21:02:27.621534 13721 net.cpp:434] layer_19_2_5_mbox_priorbox <- data_data_0_split_6
I0425 21:02:27.621539 13721 net.cpp:408] layer_19_2_5_mbox_priorbox -> layer_19_2_5_mbox_priorbox
I0425 21:02:27.621562 13721 net.cpp:150] Setting up layer_19_2_5_mbox_priorbox
I0425 21:02:27.621567 13721 net.cpp:157] Top shape: 1 2 24 (48)
I0425 21:02:27.621570 13721 net.cpp:165] Memory required for data: 422097000
I0425 21:02:27.621574 13721 layer_factory.hpp:77] Creating layer mbox_loc
I0425 21:02:27.621580 13721 net.cpp:100] Creating Layer mbox_loc
I0425 21:02:27.621587 13721 net.cpp:434] mbox_loc <- conv_13/expand_mbox_loc_flat
I0425 21:02:27.621592 13721 net.cpp:434] mbox_loc <- Conv_1_mbox_loc_flat
I0425 21:02:27.621598 13721 net.cpp:434] mbox_loc <- layer_19_2_2_mbox_loc_flat
I0425 21:02:27.621601 13721 net.cpp:434] mbox_loc <- layer_19_2_3_mbox_loc_flat
I0425 21:02:27.621606 13721 net.cpp:434] mbox_loc <- layer_19_2_4_mbox_loc_flat
I0425 21:02:27.621610 13721 net.cpp:434] mbox_loc <- layer_19_2_5_mbox_loc_flat
I0425 21:02:27.621615 13721 net.cpp:408] mbox_loc -> mbox_loc
I0425 21:02:27.621636 13721 net.cpp:150] Setting up mbox_loc
I0425 21:02:27.621642 13721 net.cpp:157] Top shape: 2 7668 (15336)
I0425 21:02:27.621645 13721 net.cpp:165] Memory required for data: 422158344
I0425 21:02:27.621649 13721 layer_factory.hpp:77] Creating layer mbox_conf
I0425 21:02:27.621654 13721 net.cpp:100] Creating Layer mbox_conf
I0425 21:02:27.621659 13721 net.cpp:434] mbox_conf <- conv_13/expand_mbox_conf_flat
I0425 21:02:27.621664 13721 net.cpp:434] mbox_conf <- Conv_1_mbox_conf_flat
I0425 21:02:27.621668 13721 net.cpp:434] mbox_conf <- layer_19_2_2_mbox_conf_flat
I0425 21:02:27.621676 13721 net.cpp:434] mbox_conf <- layer_19_2_3_mbox_conf_flat
I0425 21:02:27.621680 13721 net.cpp:434] mbox_conf <- layer_19_2_4_mbox_conf_flat
I0425 21:02:27.621685 13721 net.cpp:434] mbox_conf <- layer_19_2_5_mbox_conf_flat
I0425 21:02:27.621690 13721 net.cpp:408] mbox_conf -> mbox_conf
I0425 21:02:27.621717 13721 net.cpp:150] Setting up mbox_conf
I0425 21:02:27.621723 13721 net.cpp:157] Top shape: 2 13419 (26838)
I0425 21:02:27.621726 13721 net.cpp:165] Memory required for data: 422265696
I0425 21:02:27.621731 13721 layer_factory.hpp:77] Creating layer mbox_priorbox
I0425 21:02:27.621736 13721 net.cpp:100] Creating Layer mbox_priorbox
I0425 21:02:27.621740 13721 net.cpp:434] mbox_priorbox <- conv_13/expand_mbox_priorbox
I0425 21:02:27.621744 13721 net.cpp:434] mbox_priorbox <- Conv_1_mbox_priorbox
I0425 21:02:27.621757 13721 net.cpp:434] mbox_priorbox <- layer_19_2_2_mbox_priorbox
I0425 21:02:27.621762 13721 net.cpp:434] mbox_priorbox <- layer_19_2_3_mbox_priorbox
I0425 21:02:27.621767 13721 net.cpp:434] mbox_priorbox <- layer_19_2_4_mbox_priorbox
I0425 21:02:27.621770 13721 net.cpp:434] mbox_priorbox <- layer_19_2_5_mbox_priorbox
I0425 21:02:27.621775 13721 net.cpp:408] mbox_priorbox -> mbox_priorbox
I0425 21:02:27.621796 13721 net.cpp:150] Setting up mbox_priorbox
I0425 21:02:27.621801 13721 net.cpp:157] Top shape: 1 2 7668 (15336)
I0425 21:02:27.621805 13721 net.cpp:165] Memory required for data: 422327040
I0425 21:02:27.621809 13721 layer_factory.hpp:77] Creating layer mbox_conf_reshape
I0425 21:02:27.621817 13721 net.cpp:100] Creating Layer mbox_conf_reshape
I0425 21:02:27.621821 13721 net.cpp:434] mbox_conf_reshape <- mbox_conf
I0425 21:02:27.621826 13721 net.cpp:408] mbox_conf_reshape -> mbox_conf_reshape
I0425 21:02:27.621853 13721 net.cpp:150] Setting up mbox_conf_reshape
I0425 21:02:27.621860 13721 net.cpp:157] Top shape: 2 1917 7 (26838)
I0425 21:02:27.621862 13721 net.cpp:165] Memory required for data: 422434392
I0425 21:02:27.621866 13721 layer_factory.hpp:77] Creating layer mbox_conf_softmax
I0425 21:02:27.621873 13721 net.cpp:100] Creating Layer mbox_conf_softmax
I0425 21:02:27.621877 13721 net.cpp:434] mbox_conf_softmax <- mbox_conf_reshape
I0425 21:02:27.621882 13721 net.cpp:408] mbox_conf_softmax -> mbox_conf_softmax
I0425 21:02:27.622339 13721 net.cpp:150] Setting up mbox_conf_softmax
I0425 21:02:27.622351 13721 net.cpp:157] Top shape: 2 1917 7 (26838)
I0425 21:02:27.622355 13721 net.cpp:165] Memory required for data: 422541744
I0425 21:02:27.622360 13721 layer_factory.hpp:77] Creating layer mbox_conf_flatten
I0425 21:02:27.622366 13721 net.cpp:100] Creating Layer mbox_conf_flatten
I0425 21:02:27.622370 13721 net.cpp:434] mbox_conf_flatten <- mbox_conf_softmax
I0425 21:02:27.622376 13721 net.cpp:408] mbox_conf_flatten -> mbox_conf_flatten
I0425 21:02:27.622398 13721 net.cpp:150] Setting up mbox_conf_flatten
I0425 21:02:27.622404 13721 net.cpp:157] Top shape: 2 13419 (26838)
I0425 21:02:27.622408 13721 net.cpp:165] Memory required for data: 422649096
I0425 21:02:27.622412 13721 layer_factory.hpp:77] Creating layer detection_out
I0425 21:02:27.622422 13721 net.cpp:100] Creating Layer detection_out
I0425 21:02:27.622427 13721 net.cpp:434] detection_out <- mbox_loc
I0425 21:02:27.622431 13721 net.cpp:434] detection_out <- mbox_conf_flatten
I0425 21:02:27.622437 13721 net.cpp:434] detection_out <- mbox_priorbox
I0425 21:02:27.622442 13721 net.cpp:408] detection_out -> detection_out
I0425 21:02:27.622498 13721 net.cpp:150] Setting up detection_out
I0425 21:02:27.622504 13721 net.cpp:157] Top shape: 1 1 1 7 (7)
I0425 21:02:27.622509 13721 net.cpp:165] Memory required for data: 422649124
I0425 21:02:27.622512 13721 layer_factory.hpp:77] Creating layer detection_eval
I0425 21:02:27.622519 13721 net.cpp:100] Creating Layer detection_eval
I0425 21:02:27.622524 13721 net.cpp:434] detection_eval <- detection_out
I0425 21:02:27.622527 13721 net.cpp:434] detection_eval <- label
I0425 21:02:27.622534 13721 net.cpp:408] detection_eval -> detection_eval
I0425 21:02:27.622571 13721 net.cpp:150] Setting up detection_eval
I0425 21:02:27.622578 13721 net.cpp:157] Top shape: 1 1 7 5 (35)
I0425 21:02:27.622581 13721 net.cpp:165] Memory required for data: 422649264
I0425 21:02:27.622586 13721 net.cpp:228] detection_eval does not need backward computation.
I0425 21:02:27.622591 13721 net.cpp:228] detection_out does not need backward computation.
I0425 21:02:27.622596 13721 net.cpp:228] mbox_conf_flatten does not need backward computation.
I0425 21:02:27.622599 13721 net.cpp:228] mbox_conf_softmax does not need backward computation.
…
