…
    batch_sampler {
      sampler {
        min_scale: 0.3
        max_scale: 1
        min_aspect_ratio: 0.5
        max_aspect_ratio: 2
      }
      sample_constraint {
        min_jaccard_overlap: 0.9
      }
      max_sample: 1
      max_trials: 50
    }
    batch_sampler {
      sampler {
        min_scale: 0.3
        max_scale: 1
        min_aspect_ratio: 0.5
        max_aspect_ratio: 2
      }
      sample_constraint {
        max_jaccard_overlap: 1
      }
      max_sample: 1
      max_trials: 50
    }
    label_map_file: "labelmap.prototxt"
  }
}
layer {
  name: "conv1"
  type: "Convolution"
  bottom: "data"
  top: "conv1"
  param {
    lr_mult: 1
    decay_mult: 1
  }
  convolution_param {
    num_output: 24
    bias_term: false
    pad: 1
    kernel_size: 3
    stride: 2
    weight_filler {
      type: "msra"
    }
  }
}
layer {
  name: "conv1/bn"
  type: "BatchNorm"
  bottom: "conv1"
  top: "conv1"
}
layer {
  name: "conv1/scale"
  type: "Scale"
  bottom: "conv1"
  top: "conv1"
  param {
    lr_mult: 0.1
    decay_mult: 0
  }
  param {
    lr_mult: 0.2
    decay_mult: 0
  }
  scale_param {
    filler {
      value: 1
    }
    bias_term: true
    bias_filler {
      value: 0
    }
  }
}
layer {
  name: "conv1/relu"
  type: "ReLU"
  bottom: "conv1"
  top: "conv1"
}
layer {
  name: "conv1/pool"
  type: "Pooling"
  bottom: "conv1"
  top: "conv1/pool"
  pooling_param {
    pool: MAX
    kernel_size: 3
    stride: 2
  }
}
layer {
  name: "conv2/avepool"
  type: "Pooling"
  bottom: "conv1/pool"
  top: "conv2/avepool"
  pooling_param {
    pool: AVE
    kernel_size: 3
    stride: 2
    pad: 1
  }
}
layer {
  name: "conv2/a"
  type: "Convolution"
  bottom: "conv1/pool"
  top: "conv2/a"
  param {
    lr_mult: 1
    decay_mult: 1
  }
  convolution_param {
    num_output: 54
    bias_term: false
    kernel_size: 1
    stride: 1
    weight_filler {
      type: "msra"
    }
  }
}
layer {
  name: "conv2/a/bn"
  type: "BatchNorm"
  bottom: "conv2/a"
  top: "conv2/a"
}
layer {
  name: "conv2/a/scale"
  type: "Scale"
  bottom: "conv2/a"
  top: "conv2/a"
  param {
    lr_mult: 0.1
    decay_mult: 0
  }
  param {
    lr_mult: 0.2
    decay_mult: 0
  }
  scale_param {
    filler {
      value: 1
    }
    bias_term: true
    bias_filler {
      value: 0
    }
  }
}
layer {
  name: "conv2/a/relu"
  type: "ReLU"
  bottom: "conv2/a"
  top: "conv2/a"
}
layer {
  name: "conv2/b"
  type: "DepthwiseConvolution"
  bottom: "conv2/a"
  top: "conv2/b"
  param {
    lr_mult: 1
    decay_mult: 1
  }
  convolution_param {
    num_output: 54
    bias_term: false
    pad: 1
    kernel_size: 3
    stride: 2
    weight_filler {
      type: "msra"
    }
  }
}
layer {
  name: "conv2/b/bn"
  type: "BatchNorm"
  bottom: "conv2/b"
  top: "conv2/b"
}
layer {
  name: "conv2/b/scale"
  type: "Scale"
  bottom: "conv2/b"
  top: "conv2/b"
  param {
    lr_mult: 0.1
    decay_mult: 0
  }
  param {
    lr_mult: 0.2
    decay_mult: 0
  }
  scale_param {
    filler {
      value: 1
    }
    bias_term: true
    bias_filler {
      value: 0
    }
  }
}
layer {
  name: "conv2/c"
  type: "Convolution"
  bottom: "conv2/b"
  top: "conv2/c"
  param {
    lr_mult: 1
    decay_mult: 1
  }
  convolution_param {
    num_output: 216
    bias_term: false
    kernel_size: 1
    group: 3
    stride: 1
    weight_filler {
      type: "msra"
    }
    engine: CAFFE
  }
}
layer {
  name: "conv2/c/bn"
  type: "BatchNorm"
  bottom: "conv2/c"
  top: "conv2/c"
}
layer {
  name: "conv2/c/scale"
  type: "Scale"
  bottom: "conv2/c"
  top: "conv2/c"
  param {
    lr_mult: 0.1
    decay_mult: 0
  }
  param {
    lr_mult: 0.2
    decay_mult: 0
  }
  scale_param {
    filler {
      value: 1
    }
    bias_term: true
    bias_filler {
      value: 0
    }
  }
}
layer {
  name: "conv2/concat"
  type: "Concat"
  bottom: "conv2/avepool"
  bottom: "conv2/c"
  top: "conv2"
  concat_param {
    axis: 1
  }
}
layer {
  name: "conv2/relu"
  type: "ReLU"
  bottom: "conv2"
  top: "conv2"
}
layer {
  name: "conv3/a"
  type: "Convolution"
  bottom: "conv2"
  top: "conv3/a"
  param {
    lr_mult: 1
    decay_mult: 1
  }
  convolution_param {
    num_output: 60
    bias_term: false
    kernel_size: 1
    group: 3
    stride: 1
    weight_filler {
      type: "msra"
    }
    engine: CAFFE
  }
}
layer {
  name: "conv3/a/bn"
  type: "BatchNorm"
  bottom: "conv3/a"
  top: "conv3/a"
}
layer {
  name: "conv3/a/scale"
  type: "Scale"
  bottom: "conv3/a"
  top: "conv3/a"
  param {
    lr_mult: 0.1
    decay_mult: 0
  }
  param {
    lr_mult: 0.2
    decay_mult: 0
  }
  scale_param {
    filler {
      value: 1
    }
    bias_term: true
    bias_filler {
      value: 0
    }
  }
}
layer {
  name: "conv3/a/relu"
  type: "ReLU"
  bottom: "conv3/a"
  top: "conv3/a"
}
layer {
  name: "conv3/ChnlShf"
  type: "ShuffleChannel"
  bottom: "conv3/a"
  top: "conv3/ChnlShf"
  shuffle_channel_param {
    group: 3
  }
}
layer {
  name: "conv3/b"
  type: "DepthwiseConvolution"
  bottom: "conv3/ChnlShf"
  top: "conv3/b"
  param {
    lr_mult: 1
    decay_mult: 1
  }
  convolution_param {
    num_output: 60
    bias_term: false
    pad: 1
    kernel_size: 3
    stride: 1
    weight_filler {
      type: "msra"
    }
  }
}
layer {
  name: "conv3/b/bn"
  type: "BatchNorm"
  bottom: "conv3/b"
  top: "conv3/b"
}
layer {
  name: "conv3/b/scale"
  type: "Scale"
  bottom: "conv3/b"
  top: "conv3/b"
  param {
    lr_mult: 0.1
    decay_mult: 0
  }
  param {
    lr_mult: 0.2
    decay_mult: 0
  }
  scale_param {
    filler {
      value: 1
    }
    bias_term: true
    bias_filler {
      value: 0
    }
  }
}
layer {
  name: "conv3/c"
  type: "Convolution"
  bottom: "conv3/b"
  top: "conv3/c"
  param {
    lr_mult: 1
    decay_mult: 1
  }
  convolution_param {
    num_output: 240
    bias_term: false
    kernel_size: 1
    group: 3
    stride: 1
    weight_filler {
      type: "msra"
    }
    engine: CAFFE
  }
}
layer {
  name: "conv3/c/bn"
  type: "BatchNorm"
  bottom: "conv3/c"
  top: "conv3/c"
}
layer {
  name: "conv3/c/scale"
  type: "Scale"
  bottom: "conv3/c"
  top: "conv3/c"
  param {
    lr_mult: 0.1
    decay_mult: 0
  }
  param {
    lr_mult: 0.2
    decay_mult: 0
  }
  scale_param {
    filler {
      value: 1
    }
    bias_term: true
    bias_filler {
      value: 0
    }
  }
}
layer {
  name: "conv3/eltwise"
  type: "Eltwise"
  bottom: "conv2"
  bottom: "conv3/c"
  top: "conv3"
}
layer {
  name: "conv3/relu"
  type: "ReLU"
  bottom: "conv3"
  top: "conv3"
}
layer {
  name: "conv4/a"
  type: "Convolution"
  bottom: "conv3"
  top: "conv4/a"
  param {
    lr_mult: 1
    decay_mult: 1
  }
  convolution_param {
    num_output: 60
    bias_term: false
    kernel_size: 1
    group: 3
    stride: 1
    weight_filler {
      type: "msra"
    }
    engine: CAFFE
  }
}
layer {
  name: "conv4/a/bn"
  type: "BatchNorm"
  bottom: "conv4/a"
  top: "conv4/a"
}
layer {
  name: "conv4/a/scale"
  type: "Scale"
  bottom: "conv4/a"
  top: "conv4/a"
  param {
    lr_mult: 0.1
    decay_mult: 0
  }
  param {
    lr_mult: 0.2
    decay_mult: 0
  }
  scale_param {
    filler {
      value: 1
    }
    bias_term: true
    bias_filler {
      value: 0
    }
  }
}
layer {
  name: "conv4/a/relu"
  type: "ReLU"
  bottom: "conv4/a"
  top: "conv4/a"
}
layer {
  name: "conv4/ChnlShf"
  type: "ShuffleChannel"
  bottom: "conv4/a"
  top: "conv4/ChnlShf"
  shuffle_channel_param {
    group: 3
  }
}
layer {
  name: "conv4/b"
  type: "DepthwiseConvolution"
  bottom: "conv4/ChnlShf"
  top: "conv4/b"
  param {
    lr_mult: 1
    decay_mult: 1
  }
  convolution_param {
    num_output: 60
    bias_term: false
    pad: 1
    kernel_size: 3
    stride: 1
    weight_filler {
      type: "msra"
    }
  }
}
layer {
  name: "conv4/b/bn"
  type: "BatchNorm"
  bottom: "conv4/b"
  top: "conv4/b"
}
layer {
  name: "conv4/b/scale"
  type: "Scale"
  bottom: "conv4/b"
  top: "conv4/b"
  param {
    lr_mult: 0.1
    decay_mult: 0
  }
  param {
    lr_mult: 0.2
    decay_mult: 0
  }
  scale_param {
    filler {
      value: 1
    }
    bias_term: true
    bias_filler {
      value: 0
    }
  }
}
layer {
  name: "conv4/c"
  type: "Convolution"
  bottom: "conv4/b"
  top: "conv4/c"
  param {
    lr_mult: 1
    decay_mult: 1
  }
  convolution_param {
    num_output: 240
    bias_term: false
    kernel_size: 1
    group: 3
    stride: 1
    weight_filler {
      type: "msra"
    }
    engine: CAFFE
  }
}
layer {
  name: "conv4/c/bn"
  type: "BatchNorm"
  bottom: "conv4/c"
  top: "conv4/c"
}
layer {
  name: "conv4/c/scale"
  type: "Scale"
  bottom: "conv4/c"
  top: "conv4/c"
  param {
    lr_mult: 0.1
    decay_mult: 0
  }
  param {
    lr_mult: 0.2
    decay_mult: 0
  }
  scale_param {
    filler {
      value: 1
    }
    bias_term: true
    bias_filler {
      value: 0
    }
  }
}
layer {
  name: "conv4/eltwise"
  type: "Eltwise"
  bottom: "conv3"
  bottom: "conv4/c"
  top: "conv4"
}
layer {
  name: "conv4/relu"
  type: "ReLU"
  bottom: "conv4"
  top: "conv4"
}
layer {
  name: "conv5/a"
  type: "Convolution"
  bottom: "conv4"
  top: "conv5/a"
  param {
    lr_mult: 1
    decay_mult: 1
  }
  convolution_param {
    num_output: 60
    bias_term: false
    kernel_size: 1
    group: 3
    stride: 1
    weight_filler {
      type: "msra"
    }
    engine: CAFFE
  }
}
layer {
  name: "conv5/a/bn"
  type: "BatchNorm"
  bottom: "conv5/a"
  top: "conv5/a"
}
layer {
  name: "conv5/a/scale"
  type: "Scale"
  bottom: "conv5/a"
  top: "conv5/a"
  param {
    lr_mult: 0.1
    decay_mult: 0
  }
  param {
    lr_mult: 0.2
    decay_mult: 0
  }
  scale_param {
    filler {
      value: 1
    }
    bias_term: true
    bias_filler {
      value: 0
    }
  }
}
layer {
  name: "conv5/a/relu"
  type: "ReLU"
  bottom: "conv5/a"
  top: "conv5/a"
}
layer {
  name: "conv5/ChnlShf"
  type: "ShuffleChannel"
  bottom: "conv5/a"
  top: "conv5/ChnlShf"
  shuffle_channel_param {
    group: 3
  }
}
layer {
  name: "conv5/b"
  type: "DepthwiseConvolution"
  bottom: "conv5/ChnlShf"
  top: "conv5/b"
  param {
    lr_mult: 1
    decay_mult: 1
  }
  convolution_param {
    num_output: 60
    bias_term: false
    pad: 1
    kernel_size: 3
    stride: 1
    weight_filler {
      type: "msra"
    }
  }
}
layer {
  name: "conv5/b/bn"
  type: "BatchNorm"
  bottom: "conv5/b"
  top: "conv5/b"
}
layer {
  name: "conv5/b/scale"
  type: "Scale"
  bottom: "conv5/b"
  top: "conv5/b"
  param {
    lr_mult: 0.1
    decay_mult: 0
  }
  param {
    lr_mult: 0.2
    decay_mult: 0
  }
  scale_param {
    filler {
      value: 1
    }
    bias_term: true
    bias_filler {
      value: 0
    }
  }
}
layer {
  name: "conv5/c"
  type: "Convolution"
  bottom: "conv5/b"
  top: "conv5/c"
  param {
    lr_mult: 1
    decay_mult: 1
  }
  convolution_param {
    num_output: 240
    bias_term: false
    kernel_size: 1
    group: 3
    stride: 1
    weight_filler {
      type: "msra"
    }
    engine: CAFFE
  }
}
layer {
  name: "conv5/c/bn"
  type: "BatchNorm"
  bottom: "conv5/c"
  top: "conv5/c"
}
layer {
  name: "conv5/c/scale"
  type: "Scale"
  bottom: "conv5/c"
  top: "conv5/c"
  param {
    lr_mult: 0.1
    decay_mult: 0
  }
  param {
    lr_mult: 0.2
    decay_mult: 0
  }
  scale_param {
    filler {
      value: 1
    }
    bias_term: true
    bias_filler {
      value: 0
    }
  }
}
layer {
  name: "conv5/eltwise"
  type: "Eltwise"
  bottom: "conv4"
  bottom: "conv5/c"
  top: "conv5"
}
layer {
  name: "conv5/relu"
  type: "ReLU"
  bottom: "conv5"
  top: "conv5"
}
layer {
  name: "conv6/avepool"
  type: "Pooling"
  bottom: "conv5"
  top: "conv6/avepool"
  pooling_param {
    pool: AVE
    kernel_size: 3
    stride: 2
  }
}
layer {
  name: "conv6/a"
  type: "Convolution"
  bottom: "conv5"
  top: "conv6/a"
  param {
    lr_mult: 1
    decay_mult: 1
  }
  convolution_param {
    num_output: 60
    bias_term: false
    kernel_size: 1
    group: 3
    stride: 1
    weight_filler {
      type: "msra"
    }
    engine: CAFFE
  }
}
layer {
  name: "conv6/a/bn"
  type: "BatchNorm"
  bottom: "conv6/a"
  top: "conv6/a"
}
layer {
  name: "conv6/a/scale"
  type: "Scale"
  bottom: "conv6/a"
  top: "conv6/a"
  param {
    lr_mult: 0.1
    decay_mult: 0
  }
  param {
    lr_mult: 0.2
    decay_mult: 0
  }
  scale_param {
    filler {
      value: 1
    }
    bias_term: true
    bias_filler {
      value: 0
    }
  }
}
layer {
  name: "conv6/a/relu"
  type: "ReLU"
  bottom: "conv6/a"
  top: "conv6/a"
}
layer {
  name: "conv6/ChnlShf"
  type: "ShuffleChannel"
  bottom: "conv6/a"
  top: "conv6/ChnlShf"
  shuffle_channel_param {
    group: 3
  }
}
layer {
  name: "conv6/b"
  type: "DepthwiseConvolution"
  bottom: "conv6/ChnlShf"
  top: "conv6/b"
  param {
    lr_mult: 1
    decay_mult: 1
  }
  convolution_param {
    num_output: 60
    bias_term: false
    pad: 1
    kernel_size: 3
    stride: 2
    weight_filler {
      type: "msra"
    }
  }
}
layer {
  name: "conv6/b/bn"
  type: "BatchNorm"
  bottom: "conv6/b"
  top: "conv6/b"
}
layer {
  name: "conv6/b/scale"
  type: "Scale"
  bottom: "conv6/b"
  top: "conv6/b"
  param {
    lr_mult: 0.1
    decay_mult: 0
  }
  param {
    lr_mult: 0.2
    decay_mult: 0
  }
  scale_param {
    filler {
      value: 1
    }
    bias_term: true
    bias_filler {
      value: 0
    }
  }
}
layer {
  name: "conv6/c"
  type: "Convolution"
  bottom: "conv6/b"
  top: "conv6/c"
  param {
    lr_mult: 1
    decay_mult: 1
  }
  convolution_param {
    num_output: 240
    bias_term: false
    kernel_size: 1
    group: 3
    stride: 1
    weight_filler {
      type: "msra"
    }
    engine: CAFFE
  }
}
layer {
  name: "conv6/c/bn"
  type: "BatchNorm"
  bottom: "conv6/c"
  top: "conv6/c"
}
layer {
  name: "conv6/c/scale"
  type: "Scale"
  bottom: "conv6/c"
  top: "conv6/c"
  param {
    lr_mult: 0.1
    decay_mult: 0
  }
  param {
    lr_mult: 0.2
    decay_mult: 0
  }
  scale_param {
    filler {
      value: 1
    }
    bias_term: true
    bias_filler {
      value: 0
    }
  }
}
layer {
  name: "conv6/concat"
  type: "Concat"
  bottom: "conv6/avepool"
  bottom: "conv6/c"
  top: "conv6"
  concat_param {
    axis: 1
  }
}
layer {
  name: "conv6/relu"
  type: "ReLU"
  bottom: "conv6"
  top: "conv6"
}
layer {
  name: "conv7/a"
  type: "Convolution"
  bottom: "conv6"
  top: "conv7/a"
  param {
    lr_mult: 1
    decay_mult: 1
  }
  convolution_param {
    num_output: 120
    bias_term: false
    kernel_size: 1
    group: 3
    stride: 1
    weight_filler {
      type: "msra"
    }
    engine: CAFFE
  }
}
layer {
  name: "conv7/a/bn"
  type: "BatchNorm"
  bottom: "conv7/a"
  top: "conv7/a"
}
layer {
  name: "conv7/a/scale"
  type: "Scale"
  bottom: "conv7/a"
  top: "conv7/a"
  param {
    lr_mult: 0.1
    decay_mult: 0
  }
  param {
    lr_mult: 0.2
    decay_mult: 0
  }
  scale_param {
    filler {
      value: 1
    }
    bias_term: true
    bias_filler {
      value: 0
    }
  }
}
layer {
  name: "conv7/a/relu"
  type: "ReLU"
  bottom: "conv7/a"
  top: "conv7/a"
}
layer {
  name: "conv7/ChnlShf"
  type: "ShuffleChannel"
  bottom: "conv7/a"
  top: "conv7/ChnlShf"
  shuffle_channel_param {
    group: 3
  }
}
layer {
  name: "conv7/b"
  type: "DepthwiseConvolution"
  bottom: "conv7/ChnlShf"
  top: "conv7/b"
  param {
    lr_mult: 1
    decay_mult: 1
  }
  convolution_param {
    num_output: 120
    bias_term: false
    pad: 1
    kernel_size: 3
    stride: 1
    weight_filler {
      type: "msra"
    }
  }
}
layer {
  name: "conv7/b/bn"
  type: "BatchNorm"
  bottom: "conv7/b"
  top: "conv7/b"
}
layer {
  name: "conv7/b/scale"
  type: "Scale"
  bottom: "conv7/b"
  top: "conv7/b"
  param {
    lr_mult: 0.1
    decay_mult: 0
  }
  param {
    lr_mult: 0.2
    decay_mult: 0
  }
  scale_param {
    filler {
      value: 1
    }
    bias_term: true
    bias_filler {
      value: 0
    }
  }
}
layer {
  name: "conv7/c"
  type: "Convolution"
  bottom: "conv7/b"
  top: "conv7/c"
  param {
    lr_mult: 1
    decay_mult: 1
  }
  convolution_param {
    num_output: 480
    bias_term: false
    kernel_size: 1
    group: 3
    stride: 1
    weight_filler {
      type: "msra"
    }
    engine: CAFFE
  }
}
layer {
  name: "conv7/c/bn"
  type: "BatchNorm"
  bottom: "conv7/c"
  top: "conv7/c"
}
layer {
  name: "conv7/c/scale"
  type: "Scale"
  bottom: "conv7/c"
  top: "conv7/c"
  param {
    lr_mult: 0.1
    decay_mult: 0
  }
  param {
    lr_mult: 0.2
    decay_mult: 0
  }
  scale_param {
    filler {
      value: 1
    }
    bias_term: true
    bias_filler {
      value: 0
    }
  }
}
layer {
  name: "conv7/eltwise"
  type: "Eltwise"
  bottom: "conv6"
  bottom: "conv7/c"
  top: "conv7"
}
layer {
  name: "conv7/relu"
  type: "ReLU"
  bottom: "conv7"
  top: "conv7"
}
layer {
  name: "conv8/a"
  type: "Convolution"
  bottom: "conv7"
  top: "conv8/a"
  param {
    lr_mult: 1
    decay_mult: 1
  }
  convolution_param {
    num_output: 120
    bias_term: false
    kernel_size: 1
    group: 3
    stride: 1
    weight_filler {
      type: "msra"
    }
    engine: CAFFE
  }
}
layer {
  name: "conv8/a/bn"
  type: "BatchNorm"
  bottom: "conv8/a"
  top: "conv8/a"
}
layer {
  name: "conv8/a/scale"
  type: "Scale"
  bottom: "conv8/a"
  top: "conv8/a"
  param {
    lr_mult: 0.1
    decay_mult: 0
  }
  param {
    lr_mult: 0.2
    decay_mult: 0
  }
  scale_param {
    filler {
      value: 1
    }
    bias_term: true
    bias_filler {
      value: 0
    }
  }
}
layer {
  name: "conv8/a/relu"
  type: "ReLU"
  bottom: "conv8/a"
  top: "conv8/a"
}
layer {
  name: "conv8/ChnlShf"
  type: "ShuffleChannel"
  bottom: "conv8/a"
  top: "conv8/ChnlShf"
  shuffle_channel_param {
    group: 3
  }
}
layer {
  name: "conv8/b"
  type: "DepthwiseConvolution"
  bottom: "conv8/ChnlShf"
  top: "conv8/b"
  param {
    lr_mult: 1
    decay_mult: 1
  }
  convolution_param {
    num_output: 120
    bias_term: false
    pad: 1
    kernel_size: 3
    stride: 1
    weight_filler {
      type: "msra"
    }
  }
}
layer {
  name: "conv8/b/bn"
  type: "BatchNorm"
  bottom: "conv8/b"
  top: "conv8/b"
}
layer {
  name: "conv8/b/scale"
  type: "Scale"
  bottom: "conv8/b"
  top: "conv8/b"
  param {
    lr_mult: 0.1
    decay_mult: 0
  }
  param {
    lr_mult: 0.2
    decay_mult: 0
  }
  scale_param {
    filler {
      value: 1
    }
    bias_term: true
    bias_filler {
      value: 0
    }
  }
}
layer {
  name: "conv8/c"
  type: "Convolution"
  bottom: "conv8/b"
  top: "conv8/c"
  param {
    lr_mult: 1
    decay_mult: 1
  }
  convolution_param {
    num_output: 480
    bias_term: false
    kernel_size: 1
    group: 3
    stride: 1
    weight_filler {
      type: "msra"
    }
    engine: CAFFE
  }
}
layer {
  name: "conv8/c/bn"
  type: "BatchNorm"
  bottom: "conv8/c"
  top: "conv8/c"
}
layer {
  name: "conv8/c/scale"
  type: "Scale"
  bottom: "conv8/c"
  top: "conv8/c"
  param {
    lr_mult: 0.1
    decay_mult: 0
  }
  param {
    lr_mult: 0.2
    decay_mult: 0
  }
  scale_param {
    filler {
      value: 1
    }
    bias_term: true
    bias_filler {
      value: 0
    }
  }
}
layer {
  name: "conv8/eltwise"
  type: "Eltwise"
  bottom: "conv7"
  bottom: "conv8/c"
  top: "conv8"
}
layer {
  name: "conv8/relu"
  type: "ReLU"
  bottom: "conv8"
  top: "conv8"
}
layer {
  name: "conv9/a"
  type: "Convolution"
  bottom: "conv8"
  top: "conv9/a"
  param {
    lr_mult: 1
    decay_mult: 1
  }
  convolution_param {
    num_output: 120
    bias_term: false
    kernel_size: 1
    group: 3
    stride: 1
    weight_filler {
      type: "msra"
    }
    engine: CAFFE
  }
}
layer {
  name: "conv9/a/bn"
  type: "BatchNorm"
  bottom: "conv9/a"
  top: "conv9/a"
}
layer {
  name: "conv9/a/scale"
  type: "Scale"
  bottom: "conv9/a"
  top: "conv9/a"
  param {
    lr_mult: 0.1
    decay_mult: 0
  }
  param {
    lr_mult: 0.2
    decay_mult: 0
  }
  scale_param {
    filler {
      value: 1
    }
    bias_term: true
    bias_filler {
      value: 0
    }
  }
}
layer {
  name: "conv9/a/relu"
  type: "ReLU"
  bottom: "conv9/a"
  top: "conv9/a"
}
layer {
  name: "conv9/ChnlShf"
  type: "ShuffleChannel"
  bottom: "conv9/a"
  top: "conv9/ChnlShf"
  shuffle_channel_param {
    group: 3
  }
}
layer {
  name: "conv9/b"
  type: "DepthwiseConvolution"
  bottom: "conv9/ChnlShf"
  top: "conv9/b"
  param {
    lr_mult: 1
    decay_mult: 1
  }
  convolution_param {
    num_output: 120
    bias_term: false
    pad: 1
    kernel_size: 3
    stride: 1
    weight_filler {
      type: "msra"
    }
  }
}
layer {
  name: "conv9/b/bn"
  type: "BatchNorm"
  bottom: "conv9/b"
  top: "conv9/b"
}
layer {
  name: "conv9/b/scale"
  type: "Scale"
  bottom: "conv9/b"
  top: "conv9/b"
  param {
    lr_mult: 0.1
    decay_mult: 0
  }
  param {
    lr_mult: 0.2
    decay_mult: 0
  }
  scale_param {
    filler {
      value: 1
    }
    bias_term: true
    bias_filler {
      value: 0
    }
  }
}
layer {
  name: "conv9/c"
  type: "Convolution"
  bottom: "conv9/b"
  top: "conv9/c"
  param {
    lr_mult: 1
    decay_mult: 1
  }
  convolution_param {
    num_output: 480
    bias_term: false
    kernel_size: 1
    group: 3
    stride: 1
    weight_filler {
      type: "msra"
    }
    engine: CAFFE
  }
}
layer {
  name: "conv9/c/bn"
  type: "BatchNorm"
  bottom: "conv9/c"
  top: "conv9/c"
}
layer {
  name: "conv9/c/scale"
  type: "Scale"
  bottom: "conv9/c"
  top: "conv9/c"
  param {
    lr_mult: 0.1
    decay_mult: 0
  }
  param {
    lr_mult: 0.2
    decay_mult: 0
  }
  scale_param {
    filler {
      value: 1
    }
    bias_term: true
    bias_filler {
      value: 0
    }
  }
}
layer {
  name: "conv9/eltwise"
  type: "Eltwise"
  bottom: "conv8"
  bottom: "conv9/c"
  top: "conv9"
}
layer {
  name: "conv9/relu"
  type: "ReLU"
  bottom: "conv9"
  top: "conv9"
}
layer {
  name: "conv10/a"
  type: "Convolution"
  bottom: "conv9"
  top: "conv10/a"
  param {
    lr_mult: 1
    decay_mult: 1
  }
  convolution_param {
    num_output: 120
    bias_term: false
    kernel_size: 1
    group: 3
    stride: 1
    weight_filler {
      type: "msra"
    }
    engine: CAFFE
  }
}
layer {
  name: "conv10/a/bn"
  type: "BatchNorm"
  bottom: "conv10/a"
  top: "conv10/a"
}
layer {
  name: "conv10/a/scale"
  type: "Scale"
  bottom: "conv10/a"
  top: "conv10/a"
  param {
    lr_mult: 0.1
    decay_mult: 0
  }
  param {
    lr_mult: 0.2
    decay_mult: 0
  }
  scale_param {
    filler {
      value: 1
    }
    bias_term: true
    bias_filler {
      value: 0
    }
  }
}
layer {
  name: "conv10/a/relu"
  type: "ReLU"
  bottom: "conv10/a"
  top: "conv10/a"
}
layer {
  name: "conv10/ChnlShf"
  type: "ShuffleChannel"
  bottom: "conv10/a"
  top: "conv10/ChnlShf"
  shuffle_channel_param {
    group: 3
  }
}
layer {
  name: "conv10/b"
  type: "DepthwiseConvolution"
  bottom: "conv10/ChnlShf"
  top: "conv10/b"
  param {
    lr_mult: 1
    decay_mult: 1
  }
  convolution_param {
    num_output: 120
    bias_term: false
    pad: 1
    kernel_size: 3
    stride: 1
    weight_filler {
      type: "msra"
    }
  }
}
layer {
  name: "conv10/b/bn"
  type: "BatchNorm"
  bottom: "conv10/b"
  top: "conv10/b"
}
layer {
  name: "conv10/b/scale"
  type: "Scale"
  bottom: "conv10/b"
  top: "conv10/b"
  param {
    lr_mult: 0.1
    decay_mult: 0
  }
  param {
    lr_mult: 0.2
    decay_mult: 0
  }
  scale_param {
    filler {
      value: 1
    }
    bias_term: true
    bias_filler {
      value: 0
    }
  }
}
layer {
  name: "conv10/c"
  type: "Convolution"
  bottom: "conv10/b"
  top: "conv10/c"
  param {
    lr_mult: 1
    decay_mult: 1
  }
  convolution_param {
    num_output: 480
    bias_term: false
    kernel_size: 1
    group: 3
    stride: 1
    weight_filler {
      type: "msra"
    }
    engine: CAFFE
  }
}
layer {
  name: "conv10/c/bn"
  type: "BatchNorm"
  bottom: "conv10/c"
  top: "conv10/c"
}
layer {
  name: "conv10/c/scale"
  type: "Scale"
  bottom: "conv10/c"
  top: "conv10/c"
  param {
    lr_mult: 0.1
    decay_mult: 0
  }
  param {
    lr_mult: 0.2
    decay_mult: 0
  }
  scale_param {
    filler {
      value: 1
    }
    bias_term: true
    bias_filler {
      value: 0
    }
  }
}
layer {
  name: "conv10/eltwise"
  type: "Eltwise"
  bottom: "conv9"
  bottom: "conv10/c"
  top: "conv10"
}
layer {
  name: "conv10/relu"
  type: "ReLU"
  bottom: "conv10"
  top: "conv10"
}
layer {
  name: "conv11/a"
  type: "Convolution"
  bottom: "conv10"
  top: "conv11/a"
  param {
    lr_mult: 1
    decay_mult: 1
  }
  convolution_param {
    num_output: 120
    bias_term: false
    kernel_size: 1
    group: 3
    stride: 1
    weight_filler {
      type: "msra"
    }
    engine: CAFFE
  }
}
layer {
  name: "conv11/a/bn"
  type: "BatchNorm"
  bottom: "conv11/a"
  top: "conv11/a"
}
layer {
  name: "conv11/a/scale"
  type: "Scale"
  bottom: "conv11/a"
  top: "conv11/a"
  param {
    lr_mult: 0.1
    decay_mult: 0
  }
  param {
    lr_mult: 0.2
    decay_mult: 0
  }
  scale_param {
    filler {
      value: 1
    }
    bias_term: true
    bias_filler {
      value: 0
    }
  }
}
layer {
  name: "conv11/a/relu"
  type: "ReLU"
  bottom: "conv11/a"
  top: "conv11/a"
}
layer {
  name: "conv11/ChnlShf"
  type: "ShuffleChannel"
  bottom: "conv11/a"
  top: "conv11/ChnlShf"
  shuffle_channel_param {
    group: 3
  }
}
layer {
  name: "conv11/b"
  type: "DepthwiseConvolution"
  bottom: "conv11/ChnlShf"
  top: "conv11/b"
  param {
    lr_mult: 1
    decay_mult: 1
  }
  convolution_param {
    num_output: 120
    bias_term: false
    pad: 1
    kernel_size: 3
    stride: 1
    weight_filler {
      type: "msra"
    }
  }
}
layer {
  name: "conv11/b/bn"
  type: "BatchNorm"
  bottom: "conv11/b"
  top: "conv11/b"
}
layer {
  name: "conv11/b/scale"
  type: "Scale"
  bottom: "conv11/b"
  top: "conv11/b"
  param {
    lr_mult: 0.1
    decay_mult: 0
  }
  param {
    lr_mult: 0.2
    decay_mult: 0
  }
  scale_param {
    filler {
      value: 1
    }
    bias_term: true
    bias_filler {
      value: 0
    }
  }
}
layer {
  name: "conv11/c"
  type: "Convolution"
  bottom: "conv11/b"
  top: "conv11/c"
  param {
    lr_mult: 1
    decay_mult: 1
  }
  convolution_param {
    num_output: 480
    bias_term: false
    kernel_size: 1
    group: 3
    stride: 1
    weight_filler {
      type: "msra"
    }
    engine: CAFFE
  }
}
layer {
  name: "conv11/c/bn"
  type: "BatchNorm"
  bottom: "conv11/c"
  top: "conv11/c"
}
layer {
  name: "conv11/c/scale"
  type: "Scale"
  bottom: "conv11/c"
  top: "conv11/c"
  param {
    lr_mult: 0.1
    decay_mult: 0
  }
  param {
    lr_mult: 0.2
    decay_mult: 0
  }
  scale_param {
    filler {
      value: 1
    }
    bias_term: true
    bias_filler {
      value: 0
    }
  }
}
layer {
  name: "conv11/eltwise"
  type: "Eltwise"
  bottom: "conv10"
  bottom: "conv11/c"
  top: "conv11"
}
layer {
  name: "conv11/relu"
  type: "ReLU"
  bottom: "conv11"
  top: "conv11"
}
layer {
  name: "conv12/a"
  type: "Convolution"
  bottom: "conv11"
  top: "conv12/a"
  param {
    lr_mult: 1
    decay_mult: 1
  }
  convolution_param {
    num_output: 120
    bias_term: false
    kernel_size: 1
    group: 3
    stride: 1
    weight_filler {
      type: "msra"
    }
    engine: CAFFE
  }
}
layer {
  name: "conv12/a/bn"
  type: "BatchNorm"
  bottom: "conv12/a"
  top: "conv12/a"
}
layer {
  name: "conv12/a/scale"
  type: "Scale"
  bottom: "conv12/a"
  top: "conv12/a"
  param {
    lr_mult: 0.1
    decay_mult: 0
  }
  param {
    lr_mult: 0.2
    decay_mult: 0
  }
  scale_param {
    filler {
      value: 1
    }
    bias_term: true
    bias_filler {
      value: 0
    }
  }
}
layer {
  name: "conv12/a/relu"
  type: "ReLU"
  bottom: "conv12/a"
  top: "conv12/a"
}
layer {
  name: "conv12/ChnlShf"
  type: "ShuffleChannel"
  bottom: "conv12/a"
  top: "conv12/ChnlShf"
  shuffle_channel_param {
    group: 3
  }
}
layer {
  name: "conv12/b"
  type: "DepthwiseConvolution"
  bottom: "conv12/ChnlShf"
  top: "c
I0409 19:47:11.537664 27477 layer_factory.hpp:77] Creating layer data
I0409 19:47:11.537799 27477 net.cpp:100] Creating Layer data
I0409 19:47:11.537812 27477 net.cpp:408] data -> data
I0409 19:47:11.537842 27477 net.cpp:408] data -> label
I0409 19:47:11.538605 27491 db_lmdb.cpp:35] Opened lmdb trainval_lmdb/
I0409 19:47:11.550786 27477 annotated_data_layer.cpp:62] output data size: 4,3,300,300
I0409 19:47:11.557787 27477 net.cpp:150] Setting up data
I0409 19:47:11.557814 27477 net.cpp:157] Top shape: 4 3 300 300 (1080000)
I0409 19:47:11.557821 27477 net.cpp:157] Top shape: 1 1 1 8 (8)
I0409 19:47:11.557824 27477 net.cpp:165] Memory required for data: 4320032
I0409 19:47:11.557834 27477 layer_factory.hpp:77] Creating layer data_data_0_split
I0409 19:47:11.557848 27477 net.cpp:100] Creating Layer data_data_0_split
I0409 19:47:11.557854 27477 net.cpp:434] data_data_0_split <- data
I0409 19:47:11.557870 27477 net.cpp:408] data_data_0_split -> data_data_0_split_0
I0409 19:47:11.557883 27477 net.cpp:408] data_data_0_split -> data_data_0_split_1
I0409 19:47:11.557890 27477 net.cpp:408] data_data_0_split -> data_data_0_split_2
I0409 19:47:11.557900 27477 net.cpp:408] data_data_0_split -> data_data_0_split_3
I0409 19:47:11.557907 27477 net.cpp:408] data_data_0_split -> data_data_0_split_4
I0409 19:47:11.557916 27477 net.cpp:408] data_data_0_split -> data_data_0_split_5
I0409 19:47:11.557924 27477 net.cpp:408] data_data_0_split -> data_data_0_split_6
I0409 19:47:11.557994 27477 net.cpp:150] Setting up data_data_0_split
I0409 19:47:11.558001 27477 net.cpp:157] Top shape: 4 3 300 300 (1080000)
I0409 19:47:11.558006 27477 net.cpp:157] Top shape: 4 3 300 300 (1080000)
I0409 19:47:11.558027 27477 net.cpp:157] Top shape: 4 3 300 300 (1080000)
I0409 19:47:11.558032 27477 net.cpp:157] Top shape: 4 3 300 300 (1080000)
I0409 19:47:11.558037 27477 net.cpp:157] Top shape: 4 3 300 300 (1080000)
I0409 19:47:11.558040 27477 net.cpp:157] Top shape: 4 3 300 300 (1080000)
I0409 19:47:11.558048 27477 net.cpp:157] Top shape: 4 3 300 300 (1080000)
I0409 19:47:11.558053 27477 net.cpp:165] Memory required for data: 34560032
I0409 19:47:11.558058 27477 layer_factory.hpp:77] Creating layer conv1
I0409 19:47:11.558081 27477 net.cpp:100] Creating Layer conv1
I0409 19:47:11.558086 27477 net.cpp:434] conv1 <- data_data_0_split_0
I0409 19:47:11.558095 27477 net.cpp:408] conv1 -> conv1
I0409 19:47:11.870877 27477 net.cpp:150] Setting up conv1
I0409 19:47:11.870905 27477 net.cpp:157] Top shape: 4 24 150 150 (2160000)
I0409 19:47:11.870910 27477 net.cpp:165] Memory required for data: 43200032
I0409 19:47:11.870926 27477 layer_factory.hpp:77] Creating layer conv1/bn
I0409 19:47:11.870937 27477 net.cpp:100] Creating Layer conv1/bn
I0409 19:47:11.870944 27477 net.cpp:434] conv1/bn <- conv1
I0409 19:47:11.870950 27477 net.cpp:395] conv1/bn -> conv1 (in-place)
I0409 19:47:11.871639 27477 net.cpp:150] Setting up conv1/bn
I0409 19:47:11.871661 27477 net.cpp:157] Top shape: 4 24 150 150 (2160000)
I0409 19:47:11.871666 27477 net.cpp:165] Memory required for data: 51840032
I0409 19:47:11.871678 27477 layer_factory.hpp:77] Creating layer conv1/scale
I0409 19:47:11.871690 27477 net.cpp:100] Creating Layer conv1/scale
I0409 19:47:11.871695 27477 net.cpp:434] conv1/scale <- conv1
I0409 19:47:11.871701 27477 net.cpp:395] conv1/scale -> conv1 (in-place)
I0409 19:47:11.871740 27477 layer_factory.hpp:77] Creating layer conv1/scale
I0409 19:47:11.871872 27477 net.cpp:150] Setting up conv1/scale
I0409 19:47:11.871881 27477 net.cpp:157] Top shape: 4 24 150 150 (2160000)
I0409 19:47:11.871884 27477 net.cpp:165] Memory required for data: 60480032
I0409 19:47:11.871891 27477 layer_factory.hpp:77] Creating layer conv1/relu
I0409 19:47:11.871898 27477 net.cpp:100] Creating Layer conv1/relu
I0409 19:47:11.871902 27477 net.cpp:434] conv1/relu <- conv1
I0409 19:47:11.871907 27477 net.cpp:395] conv1/relu -> conv1 (in-place)
I0409 19:47:11.872268 27477 net.cpp:150] Setting up conv1/relu
I0409 19:47:11.872280 27477 net.cpp:157] Top shape: 4 24 150 150 (2160000)
I0409 19:47:11.872285 27477 net.cpp:165] Memory required for data: 69120032
I0409 19:47:11.872289 27477 layer_factory.hpp:77] Creating layer conv1/pool
I0409 19:47:11.872298 27477 net.cpp:100] Creating Layer conv1/pool
I0409 19:47:11.872303 27477 net.cpp:434] conv1/pool <- conv1
I0409 19:47:11.872308 27477 net.cpp:408] conv1/pool -> conv1/pool
I0409 19:47:11.872359 27477 net.cpp:150] Setting up conv1/pool
I0409 19:47:11.872366 27477 net.cpp:157] Top shape: 4 24 75 75 (540000)
I0409 19:47:11.872370 27477 net.cpp:165] Memory required for data: 71280032
I0409 19:47:11.872373 27477 layer_factory.hpp:77] Creating layer conv1/pool_conv1/pool_0_split
I0409 19:47:11.872380 27477 net.cpp:100] Creating Layer conv1/pool_conv1/pool_0_split
I0409 19:47:11.872385 27477 net.cpp:434] conv1/pool_conv1/pool_0_split <- conv1/pool
I0409 19:47:11.872390 27477 net.cpp:408] conv1/pool_conv1/pool_0_split -> conv1/pool_conv1/pool_0_split_0
I0409 19:47:11.872395 27477 net.cpp:408] conv1/pool_conv1/pool_0_split -> conv1/pool_conv1/pool_0_split_1
I0409 19:47:11.872423 27477 net.cpp:150] Setting up conv1/pool_conv1/pool_0_split
I0409 19:47:11.872428 27477 net.cpp:157] Top shape: 4 24 75 75 (540000)
I0409 19:47:11.872433 27477 net.cpp:157] Top shape: 4 24 75 75 (540000)
I0409 19:47:11.872437 27477 net.cpp:165] Memory required for data: 75600032
I0409 19:47:11.872440 27477 layer_factory.hpp:77] Creating layer conv2/avepool
I0409 19:47:11.872447 27477 net.cpp:100] Creating Layer conv2/avepool
I0409 19:47:11.872452 27477 net.cpp:434] conv2/avepool <- conv1/pool_conv1/pool_0_split_0
I0409 19:47:11.872457 27477 net.cpp:408] conv2/avepool -> conv2/avepool
I0409 19:47:11.872617 27477 net.cpp:150] Setting up conv2/avepool
I0409 19:47:11.872648 27477 net.cpp:157] Top shape: 4 24 38 38 (138624)
I0409 19:47:11.872651 27477 net.cpp:165] Memory required for data: 76154528
I0409 19:47:11.872656 27477 layer_factory.hpp:77] Creating layer conv2/a
I0409 19:47:11.872671 27477 net.cpp:100] Creating Layer conv2/a
I0409 19:47:11.872676 27477 net.cpp:434] conv2/a <- conv1/pool_conv1/pool_0_split_1
I0409 19:47:11.872684 27477 net.cpp:408] conv2/a -> conv2/a
I0409 19:47:11.874158 27477 net.cpp:150] Setting up conv2/a
I0409 19:47:11.874172 27477 net.cpp:157] Top shape: 4 54 75 75 (1215000)
I0409 19:47:11.874176 27477 net.cpp:165] Memory required for data: 81014528
I0409 19:47:11.874183 27477 layer_factory.hpp:77] Creating layer conv2/a/bn
I0409 19:47:11.874189 27477 net.cpp:100] Creating Layer conv2/a/bn
I0409 19:47:11.874194 27477 net.cpp:434] conv2/a/bn <- conv2/a
I0409 19:47:11.874199 27477 net.cpp:395] conv2/a/bn -> conv2/a (in-place)
I0409 19:47:11.874867 27477 net.cpp:150] Setting up conv2/a/bn
I0409 19:47:11.874879 27477 net.cpp:157] Top shape: 4 54 75 75 (1215000)
I0409 19:47:11.874883 27477 net.cpp:165] Memory required for data: 85874528
I0409 19:47:11.874893 27477 layer_factory.hpp:77] Creating layer conv2/a/scale
I0409 19:47:11.874902 27477 net.cpp:100] Creating Layer conv2/a/scale
I0409 19:47:11.874905 27477 net.cpp:434] conv2/a/scale <- conv2/a
I0409 19:47:11.874912 27477 net.cpp:395] conv2/a/scale -> conv2/a (in-place)
I0409 19:47:11.874956 27477 layer_factory.hpp:77] Creating layer conv2/a/scale
I0409 19:47:11.875057 27477 net.cpp:150] Setting up conv2/a/scale
I0409 19:47:11.875064 27477 net.cpp:157] Top shape: 4 54 75 75 (1215000)
I0409 19:47:11.875068 27477 net.cpp:165] Memory required for data: 90734528
I0409 19:47:11.875074 27477 layer_factory.hpp:77] Creating layer conv2/a/relu
I0409 19:47:11.875080 27477 net.cpp:100] Creating Layer conv2/a/relu
I0409 19:47:11.875084 27477 net.cpp:434] conv2/a/relu <- conv2/a
I0409 19:47:11.875098 27477 net.cpp:395] conv2/a/relu -> conv2/a (in-place)
I0409 19:47:11.875499 27477 net.cpp:150] Setting up conv2/a/relu
I0409 19:47:11.875511 27477 net.cpp:157] Top shape: 4 54 75 75 (1215000)
I0409 19:47:11.875515 27477 net.cpp:165] Memory required for data: 95594528
I0409 19:47:11.875520 27477 layer_factory.hpp:77] Creating layer conv2/b
I0409 19:47:11.875530 27477 net.cpp:100] Creating Layer conv2/b
I0409 19:47:11.875533 27477 net.cpp:434] conv2/b <- conv2/a
I0409 19:47:11.875540 27477 net.cpp:408] conv2/b -> conv2/b
I0409 19:47:11.875939 27477 net.cpp:150] Setting up conv2/b
I0409 19:47:11.875947 27477 net.cpp:157] Top shape: 4 54 38 38 (311904)
I0409 19:47:11.875952 27477 net.cpp:165] Memory required for data: 96842144
I0409 19:47:11.875957 27477 layer_factory.hpp:77] Creating layer conv2/b/bn
I0409 19:47:11.875968 27477 net.cpp:100] Creating Layer conv2/b/bn
I0409 19:47:11.875972 27477 net.cpp:434] conv2/b/bn <- conv2/b
I0409 19:47:11.875977 27477 net.cpp:395] conv2/b/bn -> conv2/b (in-place)
I0409 19:47:11.876135 27477 net.cpp:150] Setting up conv2/b/bn
I0409 19:47:11.876142 27477 net.cpp:157] Top shape: 4 54 38 38 (311904)
I0409 19:47:11.876145 27477 net.cpp:165] Memory required for data: 98089760
I0409 19:47:11.876152 27477 layer_factory.hpp:77] Creating layer conv2/b/scale
I0409 19:47:11.876157 27477 net.cpp:100] Creating Layer conv2/b/scale
I0409 19:47:11.876163 27477 net.cpp:434] conv2/b/scale <- conv2/b
I0409 19:47:11.876168 27477 net.cpp:395] conv2/b/scale -> conv2/b (in-place)
I0409 19:47:11.876195 27477 layer_factory.hpp:77] Creating layer conv2/b/scale
I0409 19:47:11.876286 27477 net.cpp:150] Setting up conv2/b/scale
I0409 19:47:11.876292 27477 net.cpp:157] Top shape: 4 54 38 38 (311904)
I0409 19:47:11.876296 27477 net.cpp:165] Memory required for data: 99337376
I0409 19:47:11.876304 27477 layer_factory.hpp:77] Creating layer conv2/c
I0409 19:47:11.876312 27477 net.cpp:100] Creating Layer conv2/c
I0409 19:47:11.876317 27477 net.cpp:434] conv2/c <- conv2/b
I0409 19:47:11.876327 27477 net.cpp:408] conv2/c -> conv2/c
I0409 19:47:11.876503 27477 net.cpp:150] Setting up conv2/c
I0409 19:47:11.876528 27477 net.cpp:157] Top shape: 4 216 38 38 (1247616)
I0409 19:47:11.876533 27477 net.cpp:165] Memory required for data: 104327840
I0409 19:47:11.876538 27477 layer_factory.hpp:77] Creating layer conv2/c/bn
I0409 19:47:11.876543 27477 net.cpp:100] Creating Layer conv2/c/bn
I0409 19:47:11.876546 27477 net.cpp:434] conv2/c/bn <- conv2/c
I0409 19:47:11.876551 27477 net.cpp:395] conv2/c/bn -> conv2/c (in-place)
I0409 19:47:11.876710 27477 net.cpp:150] Setting up conv2/c/bn
I0409 19:47:11.876718 27477 net.cpp:157] Top shape: 4 216 38 38 (1247616)
I0409 19:47:11.876720 27477 net.cpp:165] Memory required for data: 109318304
I0409 19:47:11.876726 27477 layer_factory.hpp:77] Creating layer conv2/c/scale
I0409 19:47:11.876732 27477 net.cpp:100] Creating Layer conv2/c/scale
I0409 19:47:11.876736 27477 net.cpp:434] conv2/c/scale <- conv2/c
I0409 19:47:11.876741 27477 net.cpp:395] conv2/c/scale -> conv2/c (in-place)
I0409 19:47:11.876768 27477 layer_factory.hpp:77] Creating layer conv2/c/scale
I0409 19:47:11.876850 27477 net.cpp:150] Setting up conv2/c/scale
I0409 19:47:11.876857 27477 net.cpp:157] Top shape: 4 216 38 38 (1247616)
I0409 19:47:11.876859 27477 net.cpp:165] Memory required for data: 114308768
I0409 19:47:11.876865 27477 layer_factory.hpp:77] Creating layer conv2/concat
I0409 19:47:11.876871 27477 net.cpp:100] Creating Layer conv2/concat
I0409 19:47:11.876875 27477 net.cpp:434] conv2/concat <- conv2/avepool
I0409 19:47:11.876879 27477 net.cpp:434] conv2/concat <- conv2/c
I0409 19:47:11.876884 27477 net.cpp:408] conv2/concat -> conv2
I0409 19:47:11.876911 27477 net.cpp:150] Setting up conv2/concat
I0409 19:47:11.876917 27477 net.cpp:157] Top shape: 4 240 38 38 (1386240)
I0409 19:47:11.876921 27477 net.cpp:165] Memory required for data: 119853728
I0409 19:47:11.876925 27477 layer_factory.hpp:77] Creating layer conv2/relu
I0409 19:47:11.876930 27477 net.cpp:100] Creating Layer conv2/relu
I0409 19:47:11.876935 27477 net.cpp:434] conv2/relu <- conv2
I0409 19:47:11.876940 27477 net.cpp:395] conv2/relu -> conv2 (in-place)
I0409 19:47:11.877084 27477 net.cpp:150] Setting up conv2/relu
I0409 19:47:11.877092 27477 net.cpp:157] Top shape: 4 240 38 38 (1386240)
I0409 19:47:11.877096 27477 net.cpp:165] Memory required for data: 125398688
I0409 19:47:11.877100 27477 layer_factory.hpp:77] Creating layer conv2_conv2/relu_0_split
I0409 19:47:11.877105 27477 net.cpp:100] Creating Layer conv2_conv2/relu_0_split
I0409 19:47:11.877110 27477 net.cpp:434] conv2_conv2/relu_0_split <- conv2
I0409 19:47:11.877115 27477 net.cpp:408] conv2_conv2/relu_0_split -> conv2_conv2/relu_0_split_0
I0409 19:47:11.877121 27477 net.cpp:408] conv2_conv2/relu_0_split -> conv2_conv2/relu_0_split_1
I0409 19:47:11.877151 27477 net.cpp:150] Setting up conv2_conv2/relu_0_split
I0409 19:47:11.877156 27477 net.cpp:157] Top shape: 4 240 38 38 (1386240)
I0409 19:47:11.877161 27477 net.cpp:157] Top shape: 4 240 38 38 (1386240)
I0409 19:47:11.877163 27477 net.cpp:165] Memory required for data: 136488608
I0409 19:47:11.877167 27477 layer_factory.hpp:77] Creating layer conv3/a
I0409 19:47:11.877174 27477 net.cpp:100] Creating Layer conv3/a
I0409 19:47:11.877178 27477 net.cpp:434] conv3/a <- conv2_conv2/relu_0_split_0
I0409 19:47:11.877183 27477 net.cpp:408] conv3/a -> conv3/a
I0409 19:47:11.877375 27477 net.cpp:150] Setting up conv3/a
I0409 19:47:11.877382 27477 net.cpp:157] Top shape: 4 60 38 38 (346560)
I0409 19:47:11.877387 27477 net.cpp:165] Memory required for data: 137874848
I0409 19:47:11.877391 27477 layer_factory.hpp:77] Creating layer conv3/a/bn
I0409 19:47:11.877396 27477 net.cpp:100] Creating Layer conv3/a/bn
I0409 19:47:11.877400 27477 net.cpp:434] conv3/a/bn <- conv3/a
I0409 19:47:11.877404 27477 net.cpp:395] conv3/a/bn -> conv3/a (in-place)
I0409 19:47:11.877564 27477 net.cpp:150] Setting up conv3/a/bn
I0409 19:47:11.877570 27477 net.cpp:157] Top shape: 4 60 38 38 (346560)
I0409 19:47:11.877574 27477 net.cpp:165] Memory required for data: 139261088
I0409 19:47:11.877580 27477 layer_factory.hpp:77] Creating layer conv3/a/scale
I0409 19:47:11.877598 27477 net.cpp:100] Creating Layer conv3/a/scale
I0409 19:47:11.877602 27477 net.cpp:434] conv3/a/scale <- conv3/a
I0409 19:47:11.877607 27477 net.cpp:395] conv3/a/scale -> conv3/a (in-place)
I0409 19:47:11.877636 27477 layer_factory.hpp:77] Creating layer conv3/a/scale
I0409 19:47:11.877730 27477 net.cpp:150] Setting up conv3/a/scale
I0409 19:47:11.877737 27477 net.cpp:157] Top shape: 4 60 38 38 (346560)
I0409 19:47:11.877740 27477 net.cpp:165] Memory required for data: 140647328
I0409 19:47:11.877746 27477 layer_factory.hpp:77] Creating layer conv3/a/relu
I0409 19:47:11.877751 27477 net.cpp:100] Creating Layer conv3/a/relu
I0409 19:47:11.877755 27477 net.cpp:434] conv3/a/relu <- conv3/a
I0409 19:47:11.877759 27477 net.cpp:395] conv3/a/relu -> conv3/a (in-place)
I0409 19:47:11.878109 27477 net.cpp:150] Setting up conv3/a/relu
I0409 19:47:11.878120 27477 net.cpp:157] Top shape: 4 60 38 38 (346560)
I0409 19:47:11.878124 27477 net.cpp:165] Memory required for data: 142033568
I0409 19:47:11.878129 27477 layer_factory.hpp:77] Creating layer conv3/ChnlShf
I0409 19:47:11.878135 27477 net.cpp:100] Creating Layer conv3/ChnlShf
I0409 19:47:11.878140 27477 net.cpp:434] conv3/ChnlShf <- conv3/a
I0409 19:47:11.878145 27477 net.cpp:408] conv3/ChnlShf -> conv3/ChnlShf
I0409 19:47:11.878176 27477 net.cpp:150] Setting up conv3/ChnlShf
I0409 19:47:11.878183 27477 net.cpp:157] Top shape: 4 60 38 38 (346560)
I0409 19:47:11.878186 27477 net.cpp:165] Memory required for data: 143419808
I0409 19:47:11.878190 27477 layer_factory.hpp:77] Creating layer conv3/b
I0409 19:47:11.878197 27477 net.cpp:100] Creating Layer conv3/b
I0409 19:47:11.878201 27477 net.cpp:434] conv3/b <- conv3/ChnlShf
I0409 19:47:11.878206 27477 net.cpp:408] conv3/b -> conv3/b
I0409 19:47:11.878639 27477 net.cpp:150] Setting up conv3/b
I0409 19:47:11.878646 27477 net.cpp:157] Top shape: 4 60 38 38 (346560)
I0409 19:47:11.878650 27477 net.cpp:165] Memory required for data: 144806048
I0409 19:47:11.878655 27477 layer_factory.hpp:77] Creating layer conv3/b/bn
I0409 19:47:11.878660 27477 net.cpp:100] Creating Layer conv3/b/bn
I0409 19:47:11.878664 27477 net.cpp:434] conv3/b/bn <- conv3/b
I0409 19:47:11.878669 27477 net.cpp:395] conv3/b/bn -> conv3/b (in-place)
I0409 19:47:11.878818 27477 net.cpp:150] Setting up conv3/b/bn
I0409 19:47:11.878824 27477 net.cpp:157] Top shape: 4 60 38 38 (346560)
I0409 19:47:11.878829 27477 net.cpp:165] Memory required for data: 146192288
I0409 19:47:11.878837 27477 layer_factory.hpp:77] Creating layer conv3/b/scale
I0409 19:47:11.878844 27477 net.cpp:100] Creating Layer conv3/b/scale
I0409 19:47:11.878847 27477 net.cpp:434] conv3/b/scale <- conv3/b
I0409 19:47:11.878852 27477 net.cpp:395] conv3/b/scale -> conv3/b (in-place)
I0409 19:47:11.878885 27477 layer_factory.hpp:77] Creating layer conv3/b/scale
I0409 19:47:11.878986 27477 net.cpp:150] Setting up conv3/b/scale
I0409 19:47:11.878993 27477 net.cpp:157] Top shape: 4 60 38 38 (346560)
I0409 19:47:11.878996 27477 net.cpp:165] Memory required for data: 147578528
I0409 19:47:11.879003 27477 layer_factory.hpp:77] Creating layer conv3/c
I0409 19:47:11.879015 27477 net.cpp:100] Creating Layer conv3/c
I0409 19:47:11.879019 27477 net.cpp:434] conv3/c <- conv3/b
I0409 19:47:11.879024 27477 net.cpp:408] conv3/c -> conv3/c
I0409 19:47:11.879217 27477 net.cpp:150] Setting up conv3/c
I0409 19:47:11.879223 27477 net.cpp:157] Top shape: 4 240 38 38 (1386240)
I0409 19:47:11.879227 27477 net.cpp:165] Memory required for data: 153123488
I0409 19:47:11.879231 27477 layer_factory.hpp:77] Creating layer conv3/c/bn
I0409 19:47:11.879236 27477 net.cpp:100] Creating Layer conv3/c/bn
I0409 19:47:11.879240 27477 net.cpp:434] conv3/c/bn <- conv3/c
I0409 19:47:11.879245 27477 net.cpp:395] conv3/c/bn -> conv3/c (in-place)
I0409 19:47:11.879393 27477 net.cpp:150] Setting up conv3/c/bn
I0409 19:47:11.879400 27477 net.cpp:157] Top shape: 4 240 38 38 (1386240)
I0409 19:47:11.879402 27477 net.cpp:165] Memory required for data: 158668448
I0409 19:47:11.879410 27477 layer_factory.hpp:77] Creating layer conv3/c/scale
I0409 19:47:11.879433 27477 net.cpp:100] Creating Layer conv3/c/scale
I0409 19:47:11.879438 27477 net.cpp:434] conv3/c/scale <- conv3/c
I0409 19:47:11.879443 27477 net.cpp:395] conv3/c/scale -> conv3/c (in-place)
I0409 19:47:11.879475 27477 layer_factory.hpp:77] Creating layer conv3/c/scale
I0409 19:47:11.879565 27477 net.cpp:150] Setting up conv3/c/scale
I0409 19:47:11.879572 27477 net.cpp:157] Top shape: 4 240 38 38 (1386240)
I0409 19:47:11.879576 27477 net.cpp:165] Memory required for data: 164213408
I0409 19:47:11.879581 27477 layer_factory.hpp:77] Creating layer conv3/eltwise
I0409 19:47:11.879586 27477 net.cpp:100] Creating Layer conv3/eltwise
I0409 19:47:11.879590 27477 net.cpp:434] conv3/eltwise <- conv2_conv2/relu_0_split_1
I0409 19:47:11.879595 27477 net.cpp:434] conv3/eltwise <- conv3/c
I0409 19:47:11.879601 27477 net.cpp:408] conv3/eltwise -> conv3
I0409 19:47:11.879619 27477 net.cpp:150] Setting up conv3/eltwise
I0409 19:47:11.879624 27477 net.cpp:157] Top shape: 4 240 38 38 (1386240)
I0409 19:47:11.879628 27477 net.cpp:165] Memory required for data: 169758368
I0409 19:47:11.879632 27477 layer_factory.hpp:77] Creating layer conv3/relu
I0409 19:47:11.879637 27477 net.cpp:100] Creating Layer conv3/relu
I0409 19:47:11.879642 27477 net.cpp:434] conv3/relu <- conv3
I0409 19:47:11.879645 27477 net.cpp:395] conv3/relu -> conv3 (in-place)
I0409 19:47:11.880018 27477 net.cpp:150] Setting up conv3/relu
I0409 19:47:11.880029 27477 net.cpp:157] Top shape: 4 240 38 38 (1386240)
I0409 19:47:11.880033 27477 net.cpp:165] Memory required for data: 175303328
I0409 19:47:11.880038 27477 layer_factory.hpp:77] Creating layer conv3_conv3/relu_0_split
I0409 19:47:11.880043 27477 net.cpp:100] Creating Layer conv3_conv3/relu_0_split
I0409 19:47:11.880048 27477 net.cpp:434] conv3_conv3/relu_0_split <- conv3
I0409 19:47:11.880053 27477 net.cpp:408] conv3_conv3/relu_0_split -> conv3_conv3/relu_0_split_0
I0409 19:47:11.880059 27477 net.cpp:408] conv3_conv3/relu_0_split -> conv3_conv3/relu_0_split_1
I0409 19:47:11.880100 27477 net.cpp:150] Setting up conv3_conv3/relu_0_split
I0409 19:47:11.880105 27477 net.cpp:157] Top shape: 4 240 38 38 (1386240)
I0409 19:47:11.880110 27477 net.cpp:157] Top shape: 4 240 38 38 (1386240)
I0409 19:47:11.880113 27477 net.cpp:165] Memory required for data: 186393248
I0409 19:47:11.880117 27477 layer_factory.hpp:77] Creating layer conv4/a
I0409 19:47:11.880123 27477 net.cpp:100] Creating Layer conv4/a
I0409 19:47:11.880127 27477 net.cpp:434] conv4/a <- conv3_conv3/relu_0_split_0
I0409 19:47:11.880133 27477 net.cpp:408] conv4/a -> conv4/a
I0409 19:47:11.880336 27477 net.cpp:150] Setting up conv4/a
I0409 19:47:11.880347 27477 net.cpp:157] Top shape: 4 60 38 38 (346560)
I0409 19:47:11.880353 27477 net.cpp:165] Memory required for data: 187779488
I0409 19:47:11.880360 27477 layer_factory.hpp:77] Creating layer conv4/a/bn
I0409 19:47:11.880368 27477 net.cpp:100] Creating Layer conv4/a/bn
I0409 19:47:11.880375 27477 net.cpp:434] conv4/a/bn <- conv4/a
I0409 19:47:11.880381 27477 net.cpp:395] conv4/a/bn -> conv4/a (in-place)
I0409 19:47:11.880532 27477 net.cpp:150] Setting up conv4/a/bn
I0409 19:47:11.880537 27477 net.cpp:157] Top shape: 4 60 38 38 (346560)
I0409 19:47:11.880542 27477 net.cpp:165] Memory required for data: 189165728
I0409 19:47:11.880548 27477 layer_factory.hpp:77] Creating layer conv4/a/scale
I0409 19:47:11.880554 27477 net.cpp:100] Creating Layer conv4/a/scale
I0409 19:47:11.880558 27477 net.cpp:434] conv4/a/scale <- conv4/a
I0409 19:47:11.880563 27477 net.cpp:395] conv4/a/scale -> conv4/a (in-place)
I0409 19:47:11.880591 27477 layer_factory.hpp:77] Creating layer conv4/a/scale
I0409 19:47:11.880684 27477 net.cpp:150] Setting up conv4/a/scale
I0409 19:47:11.880692 27477 net.cpp:157] Top shape: 4 60 38 38 (346560)
I0409 19:47:11.880695 27477 net.cpp:165] Memory required for data: 190551968
I0409 19:47:11.880700 27477 layer_factory.hpp:77] Creating layer conv4/a/relu
I0409 19:47:11.880705 27477 net.cpp:100] Creating Layer conv4/a/relu
I0409 19:47:11.880709 27477 net.cpp:434] conv4/a/relu <- conv4/a
I0409 19:47:11.880725 27477 net.cpp:395] conv4/a/relu -> conv4/a (in-place)
I0409 19:47:11.880872 27477 net.cpp:150] Setting up conv4/a/relu
I0409 19:47:11.880880 27477 net.cpp:157] Top shape: 4 60 38 38 (346560)
I0409 19:47:11.880883 27477 net.cpp:165] Memory required for data: 191938208
I0409 19:47:11.880887 27477 layer_factory.hpp:77] Creating layer conv4/ChnlShf
I0409 19:47:11.880893 27477 net.cpp:100] Creating Layer conv4/ChnlShf
I0409 19:47:11.880897 27477 net.cpp:434] conv4/ChnlShf <- conv4/a
I0409 19:47:11.880903 27477 net.cpp:408] conv4/ChnlShf -> conv4/ChnlShf
I0409 19:47:11.880923 27477 net.cpp:150] Setting up conv4/ChnlShf
I0409 19:47:11.880929 27477 net.cpp:157] Top shape: 4 60 38 38 (346560)
I0409 19:47:11.880933 27477 net.cpp:165] Memory required for data: 193324448
I0409 19:47:11.880936 27477 layer_factory.hpp:77] Creating layer conv4/b
I0409 19:47:11.880944 27477 net.cpp:100] Creating Layer conv4/b
I0409 19:47:11.880947 27477 net.cpp:434] conv4/b <- conv4/ChnlShf
I0409 19:47:11.880952 27477 net.cpp:408] conv4/b -> conv4/b
I0409 19:47:11.881475 27477 net.cpp:150] Setting up conv4/b
I0409 19:47:11.881484 27477 net.cpp:157] Top shape: 4 60 38 38 (346560)
I0409 19:47:11.881489 27477 net.cpp:165] Memory required for data: 194710688
I0409 19:47:11.881494 27477 layer_factory.hpp:77] Creating layer conv4/b/bn
I0409 19:47:11.881500 27477 net.cpp:100] Creating Layer conv4/b/bn
I0409 19:47:11.881503 27477 net.cpp:434] conv4/b/bn <- conv4/b
I0409 19:47:11.881508 27477 net.cpp:395] conv4/b/bn -> conv4/b (in-place)
I0409 19:47:11.881659 27477 net.cpp:150] Setting up conv4/b/bn
I0409 19:47:11.881666 27477 net.cpp:157] Top shape: 4 60 38 38 (346560)
I0409 19:47:11.881669 27477 net.cpp:165] Memory required for data: 196096928
I0409 19:47:11.881675 27477 layer_factory.hpp:77] Creating layer conv4/b/scale
I0409 19:47:11.881681 27477 net.cpp:100] Creating Layer conv4/b/scale
I0409 19:47:11.881685 27477 net.cpp:434] conv4/b/scale <- conv4/b
I0409 19:47:11.881690 27477 net.cpp:395] conv4/b/scale -> conv4/b (in-place)
I0409 19:47:11.881718 27477 layer_factory.hpp:77] Creating layer conv4/b/scale
I0409 19:47:11.881806 27477 net.cpp:150] Setting up conv4/b/scale
I0409 19:47:11.881813 27477 net.cpp:157] Top shape: 4 60 38 38 (346560)
I0409 19:47:11.881816 27477 net.cpp:165] Memory required for data: 197483168
I0409 19:47:11.881821 27477 layer_factory.hpp:77] Creating layer conv4/c
I0409 19:47:11.881829 27477 net.cpp:100] Creating Layer conv4/c
I0409 19:47:11.881832 27477 net.cpp:434] conv4/c <- conv4/b
I0409 19:47:11.881837 27477 net.cpp:408] conv4/c -> conv4/c
I0409 19:47:11.882033 27477 net.cpp:150] Setting up conv4/c
I0409 19:47:11.882040 27477 net.cpp:157] Top shape: 4 240 38 38 (1386240)
I0409 19:47:11.882045 27477 net.cpp:165] Memory required for data: 203028128
I0409 19:47:11.882050 27477 layer_factory.hpp:77] Creating layer conv4/c/bn
I0409 19:47:11.882055 27477 net.cpp:100] Creating Layer conv4/c/bn
I0409 19:47:11.882058 27477 net.cpp:434] conv4/c/bn <- conv4/c
I0409 19:47:11.882062 27477 net.cpp:395] conv4/c/bn -> conv4/c (in-place)
I0409 19:47:11.882208 27477 net.cpp:150] Setting up conv4/c/bn
I0409 19:47:11.882215 27477 net.cpp:157] Top shape: 4 240 38 38 (1386240)
I0409 19:47:11.882217 27477 net.cpp:165] Memory required for data: 208573088
I0409 19:47:11.882225 27477 layer_factory.hpp:77] Creating layer conv4/c/scale
I0409 19:47:11.882230 27477 net.cpp:100] Creating Layer conv4/c/scale
I0409 19:47:11.882233 27477 net.cpp:434] conv4/c/scale <- conv4/c
I0409 19:47:11.882238 27477 net.cpp:395] conv4/c/scale -> conv4/c (in-place)
I0409 19:47:11.882270 27477 layer_factory.hpp:77] Creating layer conv4/c/scale
I0409 19:47:11.882360 27477 net.cpp:150] Setting up conv4/c/scale
I0409 19:47:11.882366 27477 net.cpp:157] Top shape: 4 240 38 38 (1386240)
I0409 19:47:11.882369 27477 net.cpp:165] Memory required for data: 214118048
I0409 19:47:11.882375 27477 layer_factory.hpp:77] Creating layer conv4/eltwise
I0409 19:47:11.882380 27477 net.cpp:100] Creating Layer conv4/eltwise
I0409 19:47:11.882385 27477 net.cpp:434] conv4/eltwise <- conv3_conv3/relu_0_split_1
I0409 19:47:11.882400 27477 net.cpp:434] conv4/eltwise <- conv4/c
I0409 19:47:11.882405 27477 net.cpp:408] conv4/eltwise -> conv4
I0409 19:47:11.882423 27477 net.cpp:150] Setting up conv4/eltwise
I0409 19:47:11.882429 27477 net.cpp:157] Top shape: 4 240 38 38 (1386240)
I0409 19:47:11.882432 27477 net.cpp:165] Memory required for data: 219663008
I0409 19:47:11.882436 27477 layer_factory.hpp:77] Creating layer conv4/relu
I0409 19:47:11.882441 27477 net.cpp:100] Creating Layer conv4/relu
I0409 19:47:11.882445 27477 net.cpp:434] conv4/relu <- conv4
I0409 19:47:11.882457 27477 net.cpp:395] conv4/relu -> conv4 (in-place)
I0409 19:47:11.882836 27477 net.cpp:150] Setting up conv4/relu
I0409 19:47:11.882848 27477 net.cpp:157] Top shape: 4 240 38 38 (1386240)
I0409 19:47:11.882851 27477 net.cpp:165] Memory required for data: 225207968
I0409 19:47:11.882855 27477 layer_factory.hpp:77] Creating layer conv4_conv4/relu_0_split
I0409 19:47:11.882861 27477 net.cpp:100] Creating Layer conv4_conv4/relu_0_split
I0409 19:47:11.882865 27477 net.cpp:434] conv4_conv4/relu_0_split <- conv4
I0409 19:47:11.882871 27477 net.cpp:408] conv4_conv4/relu_0_split -> conv4_conv4/relu_0_split_0
I0409 19:47:11.882881 27477 net.cpp:408] conv4_conv4/relu_0_split -> conv4_conv4/relu_0_split_1
I0409 19:47:11.882912 27477 net.cpp:150] Setting up conv4_conv4/relu_0_split
I0409 19:47:11.882920 27477 net.cpp:157] Top shape: 4 240 38 38 (1386240)
I0409 19:47:11.882923 27477 net.cpp:157] Top shape: 4 240 38 38 (1386240)
I0409 19:47:11.882926 27477 net.cpp:165] Memory required for data: 236297888
I0409 19:47:11.882930 27477 layer_factory.hpp:77] Creating layer conv5/a
I0409 19:47:11.882938 27477 net.cpp:100] Creating Layer conv5/a
I0409 19:47:11.882944 27477 net.cpp:434] conv5/a <- conv4_conv4/relu_0_split_0
I0409 19:47:11.882952 27477 net.cpp:408] conv5/a -> conv5/a
I0409 19:47:11.883174 27477 net.cpp:150] Setting up conv5/a
I0409 19:47:11.883185 27477 net.cpp:157] Top shape: 4 60 38 38 (346560)
I0409 19:47:11.883188 27477 net.cpp:165] Memory required for data: 237684128
I0409 19:47:11.883194 27477 layer_factory.hpp:77] Creating layer conv5/a/bn
I0409 19:47:11.883200 27477 net.cpp:100] Creating Layer conv5/a/bn
I0409 19:47:11.883205 27477 net.cpp:434] conv5/a/bn <- conv5/a
I0409 19:47:11.883210 27477 net.cpp:395] conv5/a/bn -> conv5/a (in-place)
I0409 19:47:11.883379 27477 net.cpp:150] Setting up conv5/a/bn
I0409 19:47:11.883386 27477 net.cpp:157] Top shape: 4 60 38 38 (346560)
I0409 19:47:11.883389 27477 net.cpp:165] Memory required for data: 239070368
I0409 19:47:11.883396 27477 layer_factory.hpp:77] Creating layer conv5/a/scale
I0409 19:47:11.883404 27477 net.cpp:100] Creating Layer conv5/a/scale
I0409 19:47:11.883407 27477 net.cpp:434] conv5/a/scale <- conv5/a
I0409 19:47:11.883412 27477 net.cpp:395] conv5/a/scale -> conv5/a (in-place)
I0409 19:47:11.883460 27477 layer_factory.hpp:77] Creating layer conv5/a/scale
I0409 19:47:11.883566 27477 net.cpp:150] Setting up conv5/a/scale
I0409 19:47:11.883572 27477 net.cpp:157] Top shape: 4 60 38 38 (346560)
I0409 19:47:11.883576 27477 net.cpp:165] Memory required for data: 240456608
I0409 19:47:11.883597 27477 layer_factory.hpp:77] Creating layer conv5/a/relu
I0409 19:47:11.883602 27477 net.cpp:100] Creating Layer conv5/a/relu
I0409 19:47:11.883607 27477 net.cpp:434] conv5/a/relu <- conv5/a
I0409 19:47:11.883611 27477 net.cpp:395] conv5/a/relu -> conv5/a (in-place)
I0409 19:47:11.883765 27477 net.cpp:150] Setting up conv5/a/relu
I0409 19:47:11.883774 27477 net.cpp:157] Top shape: 4 60 38 38 (346560)
I0409 19:47:11.883777 27477 net.cpp:165] Memory required for data: 241842848
I0409 19:47:11.883781 27477 layer_factory.hpp:77] Creating layer conv5/ChnlShf
I0409 19:47:11.883787 27477 net.cpp:100] Creating Layer conv5/ChnlShf
I0409 19:47:11.883791 27477 net.cpp:434] conv5/ChnlShf <- conv5/a
I0409 19:47:11.883796 27477 net.cpp:408] conv5/ChnlShf -> conv5/ChnlShf
I0409 19:47:11.883818 27477 net.cpp:150] Setting up conv5/ChnlShf
I0409 19:47:11.883824 27477 net.cpp:157] Top shape: 4 60 38 38 (346560)
I0409 19:47:11.883838 27477 net.cpp:165] Memory required for data: 243229088
I0409 19:47:11.883842 27477 layer_factory.hpp:77] Creating layer conv5/b
I0409 19:47:11.883849 27477 net.cpp:100] Creating Layer conv5/b
I0409 19:47:11.883853 27477 net.cpp:434] conv5/b <- conv5/ChnlShf
I0409 19:47:11.883858 27477 net.cpp:408] conv5/b -> conv5/b
I0409 19:47:11.884296 27477 net.cpp:150] Setting up conv5/b
I0409 19:47:11.884304 27477 net.cpp:157] Top shape: 4 60 38 38 (346560)
I0409 19:47:11.884307 27477 net.cpp:165] Memory required for data: 244615328
I0409 19:47:11.884312 27477 layer_factory.hpp:77] Creating layer conv5/b/bn
I0409 19:47:11.884318 27477 net.cpp:100] Creating Layer conv5/b/bn
I0409 19:47:11.884322 27477 net.cpp:434] conv5/b/bn <- conv5/b
I0409 19:47:11.884326 27477 net.cpp:395] conv5/b/bn -> conv5/b (in-place)
I0409 19:47:11.884480 27477 net.cpp:150] Setting up conv5/b/bn
I0409 19:47:11.884487 27477 net.cpp:157] Top shape: 4 60 38 38 (346560)
I0409 19:47:11.884491 27477 net.cpp:165] Memory required for data: 246001568
I0409 19:47:11.884497 27477 layer_factory.hpp:77] Creating layer conv5/b/scale
I0409 19:47:11.884508 27477 net.cpp:100] Creating Layer conv5/b/scale
I0409 19:47:11.884513 27477 net.cpp:434] conv5/b/scale <- conv5/b
I0409 19:47:11.884518 27477 net.cpp:395] conv5/b/scale -> conv5/b (in-place)
I0409 19:47:11.884549 27477 layer_factory.hpp:77] Creating layer conv5/b/scale
I0409 19:47:11.884644 27477 net.cpp:150] Setting up conv5/b/scale
I0409 19:47:11.884650 27477 net.cpp:157] Top shape: 4 60 38 38 (346560)
I0409 19:47:11.884654 27477 net.cpp:165] Memory required for data: 247387808
I0409 19:47:11.884658 27477 layer_factory.hpp:77] Creating layer conv5/c
I0409 19:47:11.884665 27477 net.cpp:100] Creating Layer conv5/c
I0409 19:47:11.884668 27477 net.cpp:434] conv5/c <- conv5/b
I0409 19:47:11.884675 27477 net.cpp:408] conv5/c -> conv5/c
I0409 19:47:11.884862 27477 net.cpp:150] Setting up conv5/c
I0409 19:47:11.884869 27477 net.cpp:157] Top shape: 4 240 38 38 (1386240)
I0409 19:47:11.884872 27477 net.cpp:165] Memory required for data: 252932768
I0409 19:47:11.884876 27477 layer_factory.hpp:77] Creating layer conv5/c/bn
I0409 19:47:11.884881 27477 net.cpp:100] Creating Layer conv5/c/bn
I0409 19:47:11.884884 27477 net.cpp:434] conv5/c/bn <- conv5/c
I0409 19:47:11.884889 27477 net.cpp:395] conv5/c/bn -> conv5/c (in-place)
I0409 19:47:11.885048 27477 net.cpp:150] Setting up conv5/c/bn
I0409 19:47:11.885056 27477 net.cpp:157] Top shape: 4 240 38 38 (1386240)
I0409 19:47:11.885058 27477 net.cpp:165] Memory required for data: 258477728
I0409 19:47:11.885064 27477 layer_factory.hpp:77] Creating layer conv5/c/scale
I0409 19:47:11.885071 27477 net.cpp:100] Creating Layer conv5/c/scale
I0409 19:47:11.885074 27477 net.cpp:434] conv5/c/scale <- conv5/c
I0409 19:47:11.885079 27477 net.cpp:395] conv5/c/scale -> conv5/c (in-place)
I0409 19:47:11.885113 27477 layer_factory.hpp:77] Creating layer conv5/c/scale
I0409 19:47:11.885201 27477 net.cpp:150] Setting up conv5/c/scale
I0409 19:47:11.885207 27477 net.cpp:157] Top shape: 4 240 38 38 (1386240)
I0409 19:47:11.885210 27477 net.cpp:165] Memory required for data: 264022688
I0409 19:47:11.885216 27477 layer_factory.hpp:77] Creating layer conv5/eltwise
I0409 19:47:11.885221 27477 net.cpp:100] Creating Layer conv5/eltwise
I0409 19:47:11.885227 27477 net.cpp:434] conv5/eltwise <- conv4_conv4/relu_0_split_1
I0409 19:47:11.885231 27477 net.cpp:434] conv5/eltwise <- conv5/c
I0409 19:47:11.885236 27477 net.cpp:408] conv5/eltwise -> conv5
I0409 19:47:11.885254 27477 net.cpp:150] Setting up conv5/eltwise
I0409 19:47:11.885260 27477 net.cpp:157] Top shape: 4 240 38 38 (1386240)
I0409 19:47:11.885263 27477 net.cpp:165] Memory required for data: 269567648
I0409 19:47:11.885267 27477 layer_factory.hpp:77] Creating layer conv5/relu
I0409 19:47:11.885272 27477 net.cpp:100] Creating Layer conv5/relu
I0409 19:47:11.885277 27477 net.cpp:434] conv5/relu <- conv5
I0409 19:47:11.885282 27477 net.cpp:395] conv5/relu -> conv5 (in-place)
I0409 19:47:11.885705 27477 net.cpp:150] Setting up conv5/relu
I0409 19:47:11.885732 27477 net.cpp:157] Top shape: 4 240 38 38 (1386240)
I0409 19:47:11.885737 27477 net.cpp:165] Memory required for data: 275112608
I0409 19:47:11.885742 27477 layer_factory.hpp:77] Creating layer conv5_conv5/relu_0_split
I0409 19:47:11.885748 27477 net.cpp:100] Creating Layer conv5_conv5/relu_0_split
I0409 19:47:11.885753 27477 net.cpp:434] conv5_conv5/relu_0_split <- conv5
I0409 19:47:11.885759 27477 net.cpp:408] conv5_conv5/relu_0_split -> conv5_conv5/relu_0_split_0
I0409 19:47:11.885766 27477 net.cpp:408] conv5_conv5/relu_0_split -> conv5_conv5/relu_0_split_1
I0409 19:47:11.885802 27477 net.cpp:150] Setting up conv5_conv5/relu_0_split
I0409 19:47:11.885807 27477 net.cpp:157] Top shape: 4 240 38 38 (1386240)
I0409 19:47:11.885812 27477 net.cpp:157] Top shape: 4 240 38 38 (1386240)
I0409 19:47:11.885815 27477 net.cpp:165] Memory required for data: 286202528
I0409 19:47:11.885821 27477 layer_factory.hpp:77] Creating layer conv6/avepool
I0409 19:47:11.885836 27477 net.cpp:100] Creating Layer conv6/avepool
I0409 19:47:11.885851 27477 net.cpp:434] conv6/avepool <- conv5_conv5/relu_0_split_0
I0409 19:47:11.885859 27477 net.cpp:408] conv6/avepool -> conv6/avepool
I0409 19:47:11.886258 27477 net.cpp:150] Setting up conv6/avepool
I0409 19:47:11.886270 27477 net.cpp:157] Top shape: 4 240 19 19 (346560)
I0409 19:47:11.886273 27477 net.cpp:165] Memory required for data: 287588768
I0409 19:47:11.886278 27477 layer_factory.hpp:77] Creating layer conv6/a
I0409 19:47:11.886286 27477 net.cpp:100] Creating Layer conv6/a
I0409 19:47:11.886291 27477 net.cpp:434] conv6/a <- conv5_conv5/relu_0_split_1
I0409 19:47:11.886297 27477 net.cpp:408] conv6/a -> conv6/a
I0409 19:47:11.886500 27477 net.cpp:150] Setting up conv6/a
I0409 19:47:11.886507 27477 net.cpp:157] Top shape: 4 60 38 38 (346560)
I0409 19:47:11.886512 27477 net.cpp:165] Memory required for data: 288975008
I0409 19:47:11.886518 27477 layer_factory.hpp:77] Creating layer conv6/a/bn
I0409 19:47:11.886529 27477 net.cpp:100] Creating Layer conv6/a/bn
I0409 19:47:11.886534 27477 net.cpp:434] conv6/a/bn <- conv6/a
I0409 19:47:11.886538 27477 net.cpp:395] conv6/a/bn -> conv6/a (in-place)
I0409 19:47:11.886705 27477 net.cpp:150] Setting up conv6/a/bn
I0409 19:47:11.886713 27477 net.cpp:157] Top shape: 4 60 38 38 (346560)
I0409 19:47:11.886715 27477 net.cpp:165] Memory required for data: 290361248
I0409 19:47:11.886723 27477 layer_factory.hpp:77] Creating layer conv6/a/scale
I0409 19:47:11.886729 27477 net.cpp:100] Creating Layer conv6/a/scale
I0409 19:47:11.886734 27477 net.cpp:434] conv6/a/scale <- conv6/a
I0409 19:47:11.886739 27477 net.cpp:395] conv6/a/scale -> conv6/a (in-place)
I0409 19:47:11.886770 27477 layer_factory.hpp:77] Creating layer conv6/a/scale
I0409 19:47:11.886863 27477 net.cpp:150] Setting up conv6/a/scale
I0409 19:47:11.886869 27477 net.cpp:157] Top shape: 4 60 38 38 (346560)
I0409 19:47:11.886873 27477 net.cpp:165] Memory required for data: 291747488
I0409 19:47:11.886878 27477 layer_factory.hpp:77] Creating layer conv6/a/relu
I0409 19:47:11.886884 27477 net.cpp:100] Creating Layer conv6/a/relu
I0409 19:47:11.886888 27477 net.cpp:434] conv6/a/relu <- conv6/a
I0409 19:47:11.886893 27477 net.cpp:395] conv6/a/relu -> conv6/a (in-place)
I0409 19:47:11.887045 27477 net.cpp:150] Setting up conv6/a/relu
I0409 19:47:11.887053 27477 net.cpp:157] Top shape: 4 60 38 38 (346560)
I0409 19:47:11.887058 27477 net.cpp:165] Memory required for data: 293133728
I0409 19:47:11.887061 27477 layer_factory.hpp:77] Creating layer conv6/ChnlShf
I0409 19:47:11.887068 27477 net.cpp:100] Creating Layer conv6/ChnlShf
I0409 19:47:11.887071 27477 net.cpp:434] conv6/ChnlShf <- conv6/a
I0409 19:47:11.887076 27477 net.cpp:408] conv6/ChnlShf -> conv6/ChnlShf
I0409 19:47:11.887097 27477 net.cpp:150] Setting up conv6/ChnlShf
I0409 19:47:11.887104 27477 net.cpp:157] Top shape: 4 60 38 38 (346560)
I0409 19:47:11.887107 27477 net.cpp:165] Memory required for data: 294519968
I0409 19:47:11.887110 27477 layer_factory.hpp:77] Creating layer conv6/b
I0409 19:47:11.887117 27477 net.cpp:100] Creating Layer conv6/b
I0409 19:47:11.887131 27477 net.cpp:434] conv6/b <- conv6/ChnlShf
I0409 19:47:11.887137 27477 net.cpp:408] conv6/b -> conv6/b
I0409 19:47:11.887583 27477 net.cpp:150] Setting up conv6/b
I0409 19:47:11.887590 27477 net.cpp:157] Top shape: 4 60 19 19 (86640)
I0409 19:47:11.887593 27477 net.cpp:165] Memory required for data: 294866528
I0409 19:47:11.887599 27477 layer_factory.hpp:77] Creating layer conv6/b/bn
I0409 19:47:11.887604 27477 net.cpp:100] Creating Layer conv6/b/bn
I0409 19:47:11.887609 27477 net.cpp:434] conv6/b/bn <- conv6/b
I0409 19:47:11.887614 27477 net.cpp:395] conv6/b/bn -> conv6/b (in-place)
I0409 19:47:11.887784 27477 net.cpp:150] Setting up conv6/b/bn
I0409 19:47:11.887791 27477 net.cpp:157] Top shape: 4 60 19 19 (86640)
I0409 19:47:11.887795 27477 net.cpp:165] Memory required for data: 295213088
I0409 19:47:11.887801 27477 layer_factory.hpp:77] Creating layer conv6/b/scale
I0409 19:47:11.887807 27477 net.cpp:100] Creating Layer conv6/b/scale
I0409 19:47:11.887812 27477 net.cpp:434] conv6/b/scale <- conv6/b
I0409 19:47:11.887817 27477 net.cpp:395] conv6/b/scale -> conv6/b (in-place)
I0409 19:47:11.887853 27477 layer_factory.hpp:77] Creating layer conv6/b/scale
I0409 19:47:11.887954 27477 net.cpp:150] Setting up conv6/b/scale
I0409 19:47:11.887961 27477 net.cpp:157] Top shape: 4 60 19 19 (86640)
I0409 19:47:11.887965 27477 net.cpp:165] Memory required for data: 295559648
I0409 19:47:11.887970 27477 layer_factory.hpp:77] Creating layer conv6/c
I0409 19:47:11.887977 27477 net.cpp:100] Creating Layer conv6/c
I0409 19:47:11.887981 27477 net.cpp:434] conv6/c <- conv6/b
I0409 19:47:11.887986 27477 net.cpp:408] conv6/c -> conv6/c
I0409 19:47:11.888175 27477 net.cpp:150] Setting up conv6/c
I0409 19:47:11.888182 27477 net.cpp:157] Top shape: 4 240 19 19 (346560)
I0409 19:47:11.888185 27477 net.cpp:165] Memory required for data: 296945888
I0409 19:47:11.888190 27477 layer_factory.hpp:77] Creating layer conv6/c/bn
I0409 19:47:11.888195 27477 net.cpp:100] Creating Layer conv6/c/bn
I0409 19:47:11.888200 27477 net.cpp:434] conv6/c/bn <- conv6/c
I0409 19:47:11.888204 27477 net.cpp:395] conv6/c/bn -> conv6/c (in-place)
I0409 19:47:11.888363 27477 net.cpp:150] Setting up conv6/c/bn
I0409 19:47:11.888370 27477 net.cpp:157] Top shape: 4 240 19 19 (346560)
I0409 19:47:11.888373 27477 net.cpp:165] Memory required for data: 298332128
I0409 19:47:11.888379 27477 layer_factory.hpp:77] Creating layer conv6/c/scale
I0409 19:47:11.888386 27477 net.cpp:100] Creating Layer conv6/c/scale
I0409 19:47:11.888389 27477 net.cpp:434] conv6/c/scale <- conv6/c
I0409 19:47:11.888393 27477 net.cpp:395] conv6/c/scale -> conv6/c (in-place)
I0409 19:47:11.888422 27477 layer_factory.hpp:77] Creating layer conv6/c/scale
I0409 19:47:11.888509 27477 net.cpp:150] Setting up conv6/c/scale
I0409 19:47:11.888515 27477 net.cpp:157] Top shape: 4 240 19 19 (346560)
I0409 19:47:11.888520 27477 net.cpp:165] Memory required for data: 299718368
I0409 19:47:11.888525 27477 layer_factory.hpp:77] Creating layer conv6/concat
I0409 19:47:11.888530 27477 net.cpp:100] Creating Layer conv6/concat
I0409 19:47:11.888535 27477 net.cpp:434] conv6/concat <- conv6/avepool
I0409 19:47:11.888540 27477 net.cpp:434] conv6/concat <- conv6/c
I0409 19:47:11.888543 27477 net.cpp:408] conv6/concat -> conv6
I0409 19:47:11.888561 27477 net.cpp:150] Setting up conv6/concat
I0409 19:47:11.888566 27477 net.cpp:157] Top shape: 4 480 19 19 (693120)
I0409 19:47:11.888571 27477 net.cpp:165] Memory required for data: 302490848
I0409 19:47:11.888573 27477 layer_factory.hpp:77] Creating layer conv6/relu
I0409 19:47:11.888578 27477 net.cpp:100] Creating Layer conv6/relu
I0409 19:47:11.888582 27477 net.cpp:434] conv6/relu <- conv6
I0409 19:47:11.888586 27477 net.cpp:395] conv6/relu -> conv6 (in-place)
I0409 19:47:11.888958 27477 net.cpp:150] Setting up conv6/relu
I0409 19:47:11.888969 27477 net.cpp:157] Top shape: 4 480 19 19 (693120)
I0409 19:47:11.888973 27477 net.cpp:165] Memory required for data: 305263328
I0409 19:47:11.888978 27477 layer_factory.hpp:77] Creating layer conv6_conv6/relu_0_split
I0409 19:47:11.888994 27477 net.cpp:100] Creating Layer conv6_conv6/relu_0_split
I0409 19:47:11.888999 27477 net.cpp:434] conv6_conv6/relu_0_split <- conv6
I0409 19:47:11.889004 27477 net.cpp:408] conv6_conv6/relu_0_split -> conv6_conv6/relu_0_split_0
I0409 19:47:11.889011 27477 net.cpp:408] conv6_conv6/relu_0_split -> conv6_conv6/relu_0_split_1
I0409 19:47:11.889044 27477 net.cpp:150] Setting up conv6_conv6/relu_0_split
I0409 19:47:11.889050 27477 net.cpp:157] Top shape: 4 480 19 19 (693120)
I0409 19:47:11.889053 27477 net.cpp:157] Top shape: 4 480 19 19 (693120)
I0409 19:47:11.889057 27477 net.cpp:165] Memory required for data: 310808288
I0409 19:47:11.889060 27477 layer_factory.hpp:77] Creating layer conv7/a
I0409 19:47:11.889075 27477 net.cpp:100] Creating Layer conv7/a
I0409 19:47:11.889080 27477 net.cpp:434] conv7/a <- conv6_conv6/relu_0_split_0
I0409 19:47:11.889086 27477 net.cpp:408] conv7/a -> conv7/a
I0409 19:47:11.889412 27477 net.cpp:150] Setting up conv7/a
I0409 19:47:11.889420 27477 net.cpp:157] Top shape: 4 120 19 19 (173280)
I0409 19:47:11.889425 27477 net.cpp:165] Memory required for data: 311501408
I0409 19:47:11.889430 27477 layer_factory.hpp:77] Creating layer conv7/a/bn
I0409 19:47:11.889434 27477 net.cpp:100] Creating Layer conv7/a/bn
I0409 19:47:11.889438 27477 net.cpp:434] conv7/a/bn <- conv7/a
I0409 19:47:11.889443 27477 net.cpp:395] conv7/a/bn -> conv7/a (in-place)
I0409 19:47:11.889597 27477 net.cpp:150] Setting up conv7/a/bn
I0409 19:47:11.889603 27477 net.cpp:157] Top shape: 4 120 19 19 (173280)
I0409 19:47:11.889607 27477 net.cpp:165] Memory required for data: 312194528
I0409 19:47:11.889613 27477 layer_factory.hpp:77] Creating layer conv7/a/scale
I0409 19:47:11.889619 27477 net.cpp:100] Creating Layer conv7/a/scale
I0409 19:47:11.889623 27477 net.cpp:434] conv7/a/scale <- conv7/a
I0409 19:47:11.889628 27477 net.cpp:395] conv7/a/scale -> conv7/a (in-place)
I0409 19:47:11.889657 27477 layer_factory.hpp:77] Creating layer conv7/a/scale
I0409 19:47:11.889755 27477 net.cpp:150] Setting up conv7/a/scale
I0409 19:47:11.889761 27477 net.cpp:157] Top shape: 4 120 19 19 (173280)
I0409 19:47:11.889765 27477 net.cpp:165] Memory required for data: 312887648
I0409 19:47:11.889770 27477 layer_factory.hpp:77] Creating layer conv7/a/relu
I0409 19:47:11.889781 27477 net.cpp:100] Creating Layer conv7/a/relu
I0409 19:47:11.889786 27477 net.cpp:434] conv7/a/relu <- conv7/a
I0409 19:47:11.889791 27477 net.cpp:395] conv7/a/relu -> conv7/a (in-place)
I0409 19:47:11.889932 27477 net.cpp:150] Setting up conv7/a/relu
I0409 19:47:11.889940 27477 net.cpp:157] Top shape: 4 120 19 19 (173280)
I0409 19:47:11.889943 27477 net.cpp:165] Memory required for data: 313580768
I0409 19:47:11.889947 27477 layer_factory.hpp:77] Creating layer conv7/ChnlShf
I0409 19:47:11.889953 27477 net.cpp:100] Creating Layer conv7/ChnlShf
I0409 19:47:11.889957 27477 net.cpp:434] conv7/ChnlShf <- conv7/a
I0409 19:47:11.889963 27477 net.cpp:408] conv7/ChnlShf -> conv7/ChnlShf
I0409 19:47:11.889983 27477 net.cpp:150] Setting up conv7/ChnlShf
I0409 19:47:11.889989 27477 net.cpp:157] Top shape: 4 120 19 19 (173280)
I0409 19:47:11.889992 27477 net.cpp:165] Memory required for data: 314273888
I0409 19:47:11.889997 27477 layer_factory.hpp:77] Creating layer conv7/b
I0409 19:47:11.890002 27477 net.cpp:100] Creating Layer conv7/b
I0409 19:47:11.890007 27477 net.cpp:434] conv7/b <- conv7/ChnlShf
I0409 19:47:11.890012 27477 net.cpp:408] conv7/b -> conv7/b
I0409 19:47:11.891832 27477 net.cpp:150] Setting up conv7/b
I0409 19:47:11.891846 27477 net.cpp:157] Top shape: 4 120 19 19 (173280)
I0409 19:47:11.891850 27477 net.cpp:165] Memory required for data: 314967008
I0409 19:47:11.891856 27477 layer_factory.hpp:77] Creating layer conv7/b/bn
I0409 19:47:11.891862 27477 net.cpp:100] Creating Layer conv7/b/bn
I0409 19:47:11.891867 27477 net.cpp:434] conv7/b/bn <- conv7/b
I0409 19:47:11.891872 27477 net.cpp:395] conv7/b/bn -> conv7/b (in-place)
I0409 19:47:11.892053 27477 net.cpp:150] Setting up conv7/b/bn
I0409 19:47:11.892060 27477 net.cpp:157] Top shape: 4 120 19 19 (173280)
I0409 19:47:11.892077 27477 net.cpp:165] Memory required for data: 315660128
I0409 19:47:11.892087 27477 layer_factory.hpp:77] Creating layer conv7/b/scale
I0409 19:47:11.892093 27477 net.cpp:100] Creating Layer conv7/b/scale
I0409 19:47:11.892097 27477 net.cpp:434] conv7/b/scale <- conv7/b
I0409 19:47:11.892102 27477 net.cpp:395] conv7/b/scale -> conv7/b (in-place)
I0409 19:47:11.892139 27477 layer_factory.hpp:77] Creating layer conv7/b/scale
I0409 19:47:11.892277 27477 net.cpp:150] Setting up conv7/b/scale
I0409 19:47:11.892284 27477 net.cpp:157] Top shape: 4 120 19 19 (173280)
I0409 19:47:11.892288 27477 net.cpp:165] Memory required for data: 316353248
I0409 19:47:11.892294 27477 layer_factory.hpp:77] Creating layer conv7/c
I0409 19:47:11.892303 27477 net.cpp:100] Creating Layer conv7/c
I0409 19:47:11.892308 27477 net.cpp:434] conv7/c <- conv7/b
I0409 19:47:11.892313 27477 net.cpp:408] conv7/c -> conv7/c
I0409 19:47:11.893129 27477 net.cpp:150] Setting up conv7/c
I0409 19:47:11.893141 27477 net.cpp:157] Top shape: 4 480 19 19 (693120)
I0409 19:47:11.893146 27477 net.cpp:165] Memory required for data: 319125728
I0409 19:47:11.893151 27477 layer_factory.hpp:77] Creating layer conv7/c/bn
I0409 19:47:11.893157 27477 net.cpp:100] Creating Layer conv7/c/bn
I0409 19:47:11.893162 27477 net.cpp:434] conv7/c/bn <- conv7/c
I0409 19:47:11.893167 27477 net.cpp:395] conv7/c/bn -> conv7/c (in-place)
I0409 19:47:11.893347 27477 net.cpp:150] Setting up conv7/c/bn
I0409 19:47:11.893357 27477 net.cpp:157] Top shape: 4 480 19 19 (693120)
I0409 19:47:11.893362 27477 net.cpp:165] Memory required for data: 321898208
I0409 19:47:11.893373 27477 layer_factory.hpp:77] Creating layer conv7/c/scale
I0409 19:47:11.893380 27477 net.cpp:100] Creating Layer conv7/c/scale
I0409 19:47:11.893385 27477 net.cpp:434] conv7/c/scale <- conv7/c
I0409 19:47:11.893393 27477 net.cpp:395] conv7/c/scale -> conv7/c (in-place)
I0409 19:47:11.893429 27477 layer_factory.hpp:77] Creating layer conv7/c/scale
I0409 19:47:11.893532 27477 net.cpp:150] Setting up conv7/c/scale
I0409 19:47:11.893539 27477 net.cpp:157] Top shape: 4 480 19 19 (693120)
I0409 19:47:11.893544 27477 net.cpp:165] Memory required for data: 324670688
I0409 19:47:11.893553 27477 layer_factory.hpp:77] Creating layer conv7/eltwise
I0409 19:47:11.893559 27477 net.cpp:100] Creating Layer conv7/eltwise
I0409 19:47:11.893564 27477 net.cpp:434] conv7/eltwise <- conv6_conv6/relu_0_split_1
I0409 19:47:11.893570 27477 net.cpp:434] conv7/eltwise <- conv7/c
I0409 19:47:11.893577 27477 net.cpp:408] conv7/eltwise -> conv7
I0409 19:47:11.893599 27477 net.cpp:150] Setting up conv7/eltwise
I0409 19:47:11.893605 27477 net.cpp:157] Top shape: 4 480 19 19 (693120)
I0409 19:47:11.893610 27477 net.cpp:165] Memory required for data: 327443168
I0409 19:47:11.893615 27477 layer_factory.hpp:77] Creating layer conv7/relu
I0409 19:47:11.893622 27477 net.cpp:100] Creating Layer conv7/relu
I0409 19:47:11.893628 27477 net.cpp:434] conv7/relu <- conv7
I0409 19:47:11.893635 27477 net.cpp:395] conv7/relu -> conv7 (in-place)
I0409 19:47:11.894016 27477 net.cpp:150] Setting up conv7/relu
I0409 19:47:11.894027 27477 net.cpp:157] Top shape: 4 480 19 19 (693120)
I0409 19:47:11.894033 27477 net.cpp:165] Memory required for data: 330215648
I0409 19:47:11.894039 27477 layer_factory.hpp:77] Creating layer conv7_conv7/relu_0_split
I0409 19:47:11.894047 27477 net.cpp:100] Creating Layer conv7_conv7/relu_0_split
I0409 19:47:11.894052 27477 net.cpp:434] conv7_conv7/relu_0_split <- conv7
I0409 19:47:11.894059 27477 net.cpp:408] conv7_conv7/relu_0_split -> conv7_conv7/relu_0_split_0
I0409 19:47:11.894068 27477 net.cpp:408] conv7_conv7/relu_0_split -> conv7_conv7/relu_0_split_1
I0409 19:47:11.894103 27477 net.cpp:150] Setting up conv7_conv7/relu_0_split
I0409 19:47:11.894110 27477 net.cpp:157] Top shape: 4 480 19 19 (693120)
I0409 19:47:11.894116 27477 net.cpp:157] Top shape: 4 480 19 19 (693120)
I0409 19:47:11.894120 27477 net.cpp:165] Memory required for data: 335760608
I0409 19:47:11.894126 27477 layer_factory.hpp:77] Creating layer conv8/a
I0409 19:47:11.894146 27477 net.cpp:100] Creating Layer conv8/a
I0409 19:47:11.894152 27477 net.cpp:434] conv8/a <- conv7_conv7/relu_0_split_0
I0409 19:47:11.894160 27477 net.cpp:408] conv8/a -> conv8/a
I0409 19:47:11.894484 27477 net.cpp:150] Setting up conv8/a
I0409 19:47:11.894493 27477 net.cpp:157] Top shape: 4 120 19 19 (173280)
I0409 19:47:11.894498 27477 net.cpp:165] Memory required for data: 336453728
I0409 19:47:11.894506 27477 layer_factory.hpp:77] Creating layer conv8/a/bn
I0409 19:47:11.894512 27477 net.cpp:100] Creating Layer conv8/a/bn
I0409 19:47:11.894518 27477 net.cpp:434] conv8/a/bn <- conv8/a
I0409 19:47:11.894526 27477 net.cpp:395] conv8/a/bn -> conv8/a (in-place)
I0409 19:47:11.894687 27477 net.cpp:150] Setting up conv8/a/bn
I0409 19:47:11.894695 27477 net.cpp:157] Top shape: 4 120 19 19 (173280)
I0409 19:47:11.894701 27477 net.cpp:165] Memory required for data: 337146848
I0409 19:47:11.894709 27477 layer_factory.hpp:77] Creating layer conv8/a/scale
I0409 19:47:11.894717 27477 net.cpp:100] Creating Layer conv8/a/scale
I0409 19:47:11.894722 27477 net.cpp:434] conv8/a/scale <- conv8/a
I0409 19:47:11.894728 27477 net.cpp:395] conv8/a/scale -> conv8/a (in-place)
I0409 19:47:11.894762 27477 layer_factory.hpp:77] Creating layer conv8/a/scale
I0409 19:47:11.894865 27477 net.cpp:150] Setting up conv8/a/scale
I0409 19:47:11.894873 27477 net.cpp:157] Top shape: 4 120 19 19 (173280)
I0409 19:47:11.894878 27477 net.cpp:165] Memory required for data: 337839968
I0409 19:47:11.894886 27477 layer_factory.hpp:77] Creating layer conv8/a/relu
I0409 19:47:11.894893 27477 net.cpp:100] Creating Layer conv8/a/relu
I0409 19:47:11.894897 27477 net.cpp:434] conv8/a/relu <- conv8/a
I0409 19:47:11.894904 27477 net.cpp:395] conv8/a/relu -> conv8/a (in-place)
I0409 19:47:11.895292 27477 net.cpp:150] Setting up conv8/a/relu
I0409 19:47:11.895303 27477 net.cpp:157] Top shape: 4 120 19 19 (173280)
I0409 19:47:11.895316 27477 net.cpp:165] Memory required for data: 338533088
I0409 19:47:11.895323 27477 layer_factory.hpp:77] Creating layer conv8/ChnlShf
I0409 19:47:11.895340 27477 net.cpp:100] Creating Layer conv8/ChnlShf
I0409 19:47:11.895345 27477 net.cpp:434] conv8/ChnlShf <- conv8/a
I0409 19:47:11.895361 27477 net.cpp:408] conv8/ChnlShf -> conv8/ChnlShf
I0409 19:47:11.895387 27477 net.cpp:150] Setting up conv8/ChnlShf
I0409 19:47:11.895395 27477 net.cpp:157] Top shape: 4 120 19 19 (173280)
I0409 19:47:11.895400 27477 net.cpp:165] Memory required for data: 339226208
I0409 19:47:11.895404 27477 layer_factory.hpp:77] Creating layer conv8/b
I0409 19:47:11.895412 27477 net.cpp:100] Creating Layer conv8/b
I0409 19:47:11.895417 27477 net.cpp:434] conv8/b <- conv8/ChnlShf
I0409 19:47:11.895424 27477 net.cpp:408] conv8/b -> conv8/b
I0409 19:47:11.896730 27477 net.cpp:150] Setting up conv8/b
I0409 19:47:11.896740 27477 net.cpp:157] Top shape: 4 120 19 19 (173280)
I0409 19:47:11.896745 27477 net.cpp:165] Memory required for data: 339919328
I0409 19:47:11.896752 27477 layer_factory.hpp:77] Creating layer conv8/b/bn
I0409 19:47:11.896759 27477 net.cpp:100] Creating Layer conv8/b/bn
I0409 19:47:11.896764 27477 net.cpp:434] conv8/b/bn <- conv8/b
I0409 19:47:11.896770 27477 net.cpp:395] conv8/b/bn -> conv8/b (in-place)
I0409 19:47:11.896929 27477 net.cpp:150] Setting up conv8/b/bn
I0409 19:47:11.896935 27477 net.cpp:157] Top shape: 4 120 19 19 (173280)
I0409 19:47:11.896940 27477 net.cpp:165] Memory required for data: 340612448
I0409 19:47:11.896948 27477 layer_factory.hpp:77] Creating layer conv8/b/scale
I0409 19:47:11.896955 27477 net.cpp:100] Creating Layer conv8/b/scale
I0409 19:47:11.896960 27477 net.cpp:434] conv8/b/scale <- conv8/b
I0409 19:47:11.896966 27477 net.cpp:395] conv8/b/scale -> conv8/b (in-place)
I0409 19:47:11.896998 27477 layer_factory.hpp:77] Creating layer conv8/b/scale
I0409 19:47:11.897101 27477 net.cpp:150] Setting up conv8/b/scale
I0409 19:47:11.897109 27477 net.cpp:157] Top shape: 4 120 19 19 (173280)
I0409 19:47:11.897114 27477 net.cpp:165] Memory required for data: 341305568
I0409 19:47:11.897132 27477 layer_factory.hpp:77] Creating layer conv8/c
I0409 19:47:11.897140 27477 net.cpp:100] Creating Layer conv8/c
I0409 19:47:11.897145 27477 net.cpp:434] conv8/c <- conv8/b
I0409 19:47:11.897152 27477 net.cpp:408] conv8/c -> conv8/c
I0409 19:47:11.897464 27477 net.cpp:150] Setting up conv8/c
I0409 19:47:11.897472 27477 net.cpp:157] Top shape: 4 480 19 19 (693120)
I0409 19:47:11.897476 27477 net.cpp:165] Memory required for data: 344078048
I0409 19:47:11.897483 27477 layer_factory.hpp:77] Creating layer conv8/c/bn
I0409 19:47:11.897490 27477 net.cpp:100] Creating Layer conv8/c/bn
I0409 19:47:11.897495 27477 net.cpp:434] conv8/c/bn <- conv8/c
I0409 19:47:11.897500 27477 net.cpp:395] conv8/c/bn -> conv8/c (in-place)
I0409 19:47:11.897655 27477 net.cpp:150] Setting up conv8/c/bn
I0409 19:47:11.897663 27477 net.cpp:157] Top shape: 4 480 19 19 (693120)
I0409 19:47:11.897668 27477 net.cpp:165] Memory required for data: 346850528
I0409 19:47:11.897688 27477 layer_factory.hpp:77] Creating layer conv8/c/scale
I0409 19:47:11.897696 27477 net.cpp:100] Creating Layer conv8/c/scale
I0409 19:47:11.897701 27477 net.cpp:434] conv8/c/scale <- conv8/c
I0409 19:47:11.897707 27477 net.cpp:395] conv8/c/scale -> conv8/c (in-place)
I0409 19:47:11.897753 27477 layer_factory.hpp:77] Creating layer conv8/c/scale
I0409 19:47:11.897862 27477 net.cpp:150] Setting up conv8/c/scale
I0409 19:47:11.897871 27477 net.cpp:157] Top shape: 4 480 19 19 (693120)
I0409 19:47:11.897874 27477 net.cpp:165] Memory required for data: 349623008
I0409 19:47:11.897882 27477 layer_factory.hpp:77] Creating layer conv8/eltwise
I0409 19:47:11.897888 27477 net.cpp:100] Creating Layer conv8/eltwise
I0409 19:47:11.897892 27477 net.cpp:434] conv8/eltwise <- conv7_conv7/relu_0_split_1
I0409 19:47:11.897898 27477 net.cpp:434] conv8/eltwise <- conv8/c
I0409 19:47:11.897904 27477 net.cpp:408] conv8/eltwise -> conv8
I0409 19:47:11.897924 27477 net.cpp:150] Setting up conv8/eltwise
I0409 19:47:11.897931 27477 net.cpp:157] Top shape: 4 480 19 19 (693120)
I0409 19:47:11.897935 27477 net.cpp:165] Memory required for data: 352395488
I0409 19:47:11.897940 27477 layer_factory.hpp:77] Creating layer conv8/relu
I0409 19:47:11.897946 27477 net.cpp:100] Creating Layer conv8/relu
I0409 19:47:11.897950 27477 net.cpp:434] conv8/relu <- conv8
I0409 19:47:11.897956 27477 net.cpp:395] conv8/relu -> conv8 (in-place)
I0409 19:47:11.898095 27477 net.cpp:150] Setting up conv8/relu
I0409 19:47:11.898104 27477 net.cpp:157] Top shape: 4 480 19 19 (693120)
I0409 19:47:11.898109 27477 net.cpp:165] Memory required for data: 355167968
I0409 19:47:11.898114 27477 layer_factory.hpp:77] Creating layer conv8_conv8/relu_0_split
I0409 19:47:11.898121 27477 net.cpp:100] Creating Layer conv8_conv8/relu_0_split
I0409 19:47:11.898126 27477 net.cpp:434] conv8_conv8/relu_0_split <- conv8
I0409 19:47:11.898133 27477 net.cpp:408] conv8_conv8/relu_0_split -> conv8_conv8/relu_0_split_0
I0409 19:47:11.898141 27477 net.cpp:408] conv8_conv8/relu_0_split -> conv8_conv8/relu_0_split_1
I0409 19:47:11.898172 27477 net.cpp:150] Setting up conv8_conv8/relu_0_split
I0409 19:47:11.898180 27477 net.cpp:157] Top shape: 4 480 19 19 (693120)
I0409 19:47:11.898185 27477 net.cpp:157] Top shape: 4 480 19 19 (693120)
I0409 19:47:11.898190 27477 net.cpp:165] Memory required for data: 360712928
I0409 19:47:11.898195 27477 layer_factory.hpp:77] Creating layer conv9/a
I0409 19:47:11.898202 27477 net.cpp:100] Creating Layer conv9/a
I0409 19:47:11.898207 27477 net.cpp:434] conv9/a <- conv8_conv8/relu_0_split_0
I0409 19:47:11.898213 27477 net.cpp:408] conv9/a -> conv9/a
I0409 19:47:11.898550 27477 net.cpp:150] Setting up conv9/a
I0409 19:47:11.898558 27477 net.cpp:157] Top shape: 4 120 19 19 (173280)
I0409 19:47:11.898563 27477 net.cpp:165] Memory required for data: 361406048
I0409 19:47:11.898571 27477 layer_factory.hpp:77] Creating layer conv9/a/bn
I0409 19:47:11.898576 27477 net.cpp:100] Creating Layer conv9/a/bn
I0409 19:47:11.898581 27477 net.cpp:434] conv9/a/bn <- conv9/a
I0409 19:47:11.898586 27477 net.cpp:395] conv9/a/bn -> conv9/a (in-place)
I0409 19:47:11.898751 27477 net.cpp:150] Setting up conv9/a/bn
I0409 19:47:11.898759 27477 net.cpp:157] Top shape: 4 120 19 19 (173280)
I0409 19:47:11.898764 27477 net.cpp:165] Memory required for data: 362099168
I0409 19:47:11.898772 27477 layer_factory.hpp:77] Creating layer conv9/a/scale
I0409 19:47:11.898779 27477 net.cpp:100] Creating Layer conv9/a/scale
I0409 19:47:11.898783 27477 net.cpp:434] conv9/a/scale <- conv9/a
I0409 19:47:11.898797 27477 net.cpp:395] conv9/a/scale -> conv9/a (in-place)
I0409 19:47:11.898828 27477 layer_factory.hpp:77] Creating layer conv9/a/scale
I0409 19:47:11.898926 27477 net.cpp:150] Setting up conv9/a/scale
I0409 19:47:11.898933 27477 net.cpp:157] Top shape: 4 120 19 19 (173280)
I0409 19:47:11.898937 27477 net.cpp:165] Memory required for data: 362792288
I0409 19:47:11.898944 27477 layer_factory.hpp:77] Creating layer conv9/a/relu
I0409 19:47:11.898952 27477 net.cpp:100] Creating Layer conv9/a/relu
I0409 19:47:11.898955 27477 net.cpp:434] conv9/a/relu <- conv9/a
I0409 19:47:11.898962 27477 net.cpp:395] conv9/a/relu -> conv9/a (in-place)
I0409 19:47:11.899354 27477 net.cpp:150] Setting up conv9/a/relu
I0409 19:47:11.899366 27477 net.cpp:157] Top shape: 4 120 19 19 (173280)
I0409 19:47:11.899371 27477 net.cpp:165] Memory required for data: 363485408
I0409 19:47:11.899377 27477 layer_factory.hpp:77] Creating layer conv9/ChnlShf
I0409 19:47:11.899384 27477 net.cpp:100] Creating Layer conv9/ChnlShf
I0409 19:47:11.899389 27477 net.cpp:434] conv9/ChnlShf <- conv9/a
I0409 19:47:11.899396 27477 net.cpp:408] conv9/ChnlShf -> conv9/ChnlShf
I0409 19:47:11.899425 27477 net.cpp:150] Setting up conv9/ChnlShf
I0409 19:47:11.899433 27477 net.cpp:157] Top shape: 4 120 19 19 (173280)
I0409 19:47:11.899437 27477 net.cpp:165] Memory required for data: 364178528
I0409 19:47:11.899442 27477 layer_factory.hpp:77] Creating layer conv9/b
I0409 19:47:11.899451 27477 net.cpp:100] Creating Layer conv9/b
I0409 19:47:11.899456 27477 net.cpp:434] conv9/b <- conv9/ChnlShf
I0409 19:47:11.899461 27477 net.cpp:408] conv9/b -> conv9/b
I0409 19:47:11.901269 27477 net.cpp:150] Setting up conv9/b
I0409 19:47:11.901283 27477 net.cpp:157] Top shape: 4 120 19 19 (173280)
I0409 19:47:11.901288 27477 net.cpp:165] Memory required for data: 364871648
I0409 19:47:11.901294 27477 layer_factory.hpp:77] Creating layer conv9/b/bn
I0409 19:47:11.901301 27477 net.cpp:100] Creating Layer conv9/b/bn
I0409 19:47:11.901306 27477 net.cpp:434] conv9/b/bn <- conv9/b
I0409 19:47:11.901314 27477 net.cpp:395] conv9/b/bn -> conv9/b (in-place)
I0409 19:47:11.901479 27477 net.cpp:150] Setting up conv9/b/bn
I0409 19:47:11.901487 27477 net.cpp:157] Top shape: 4 120 19 19 (173280)
I0409 19:47:11.901492 27477 net.cpp:165] Memory required for data: 365564768
I0409 19:47:11.901500 27477 layer_factory.hpp:77] Creating layer conv9/b/scale
I0409 19:47:11.901509 27477 net.cpp:100] Creating Layer conv9/b/scale
I0409 19:47:11.901512 27477 net.cpp:434] conv9/b/scale <- conv9/b
I0409 19:47:11.901520 27477 net.cpp:395] conv9/b/scale -> conv9/b (in-place)
I0409 19:47:11.901551 27477 layer_factory.hpp:77] Creating layer conv9/b/scale
I0409 19:47:11.901664 27477 net.cpp:150] Setting up conv9/b/scale
I0409 19:47:11.901671 27477 net.cpp:157] Top shape: 4 120 19 19 (173280)
I0409 19:47:11.901676 27477 net.cpp:165] Memory required for data: 366257888
I0409 19:47:11.901684 27477 layer_factory.hpp:77] Creating layer conv9/c
I0409 19:47:11.901700 27477 net.cpp:100] Creating Layer conv9/c
I0409 19:47:11.901705 27477 net.cpp:434] conv9/c <- conv9/b
I0409 19:47:11.901711 27477 net.cpp:408] conv9/c -> conv9/c
I0409 19:47:11.902081 27477 net.cpp:150] Setting up conv9/c
I0409 19:47:11.902093 27477 net.cpp:157] Top shape: 4 480 19 19 (693120)
I0409 19:47:11.902097 27477 net.cpp:165] Memory required for data: 369030368
I0409 19:47:11.902106 27477 layer_factory.hpp:77] Creating layer conv9/c/bn
I0409 19:47:11.902117 27477 net.cpp:100] Creating Layer conv9/c/bn
I0409 19:47:11.902122 27477 net.cpp:434] conv9/c/bn <- conv9/c
I0409 19:47:11.902129 27477 net.cpp:395] conv9/c/bn -> conv9/c (in-place)
I0409 19:47:11.902379 27477 net.cpp:150] Setting up conv9/c/bn
I0409 19:47:11.902390 27477 net.cpp:157] Top shape: 4 480 19 19 (693120)
I0409 19:47:11.902395 27477 net.cpp:165] Memory required for data: 371802848
I0409 19:47:11.902405 27477 layer_factory.hpp:77] Creating layer conv9/c/scale
I0409 19:47:11.902418 27477 net.cpp:100] Creating Layer conv9/c/scale
I0409 19:47:11.902424 27477 net.cpp:434] conv9/c/scale <- conv9/c
I0409 19:47:11.902433 27477 net.cpp:395] conv9/c/scale -> conv9/c (in-place)
I0409 19:47:11.902477 27477 layer_factory.hpp:77] Creating layer conv9/c/scale
I0409 19:47:11.902576 27477 net.cpp:150] Setting up conv9/c/scale
I0409 19:47:11.902585 27477 net.cpp:157] Top shape: 4 480 19 19 (693120)
I0409 19:47:11.902590 27477 net.cpp:165] Memory required for data: 374575328
I0409 19:47:11.902597 27477 layer_factory.hpp:77] Creating layer conv9/eltwise
I0409 19:47:11.902603 27477 net.cpp:100] Creating Layer conv9/eltwise
I0409 19:47:11.902608 27477 net.cpp:434] conv9/eltwise <- conv8_conv8/relu_0_split_1
I0409 19:47:11.902614 27477 net.cpp:434] conv9/eltwise <- conv9/c
I0409 19:47:11.902621 27477 net.cpp:408] conv9/eltwise -> conv9
I0409 19:47:11.902642 27477 net.cpp:150] Setting up conv9/eltwise
I0409 19:47:11.902649 27477 net.cpp:157] Top shape: 4 480 19 19 (693120)
I0409 19:47:11.902653 27477 net.cpp:165] Memory required for data: 377347808
I0409 19:47:11.902658 27477 layer_factory.hpp:77] Creating layer conv9/relu
I0409 19:47:11.902665 27477 net.cpp:100] Creating Layer conv9/relu
I0409 19:47:11.902669 27477 net.cpp:434] conv9/relu <- conv9
I0409 19:47:11.902675 27477 net.cpp:395] conv9/relu -> conv9 (in-place)
I0409 19:47:11.902848 27477 net.cpp:150] Setting up conv9/relu
I0409 19:47:11.902858 27477 net.cpp:157] Top shape: 4 480 19 19 (693120)
I0409 19:47:11.902863 27477 net.cpp:165] Memory required for data: 380120288
I0409 19:47:11.902869 27477 layer_factory.hpp:77] Creating layer conv9_conv9/relu_0_split
I0409 19:47:11.902889 27477 net.cpp:100] Creating Layer conv9_conv9/relu_0_split
I0409 19:47:11.902894 27477 net.cpp:434] conv9_conv9/relu_0_split <- conv9
I0409 19:47:11.902915 27477 net.cpp:408] conv9_conv9/relu_0_split -> conv9_conv9/relu_0_split_0
I0409 19:47:11.902921 27477 net.cpp:408] conv9_conv9/relu_0_split -> conv9_conv9/relu_0_split_1
I0409 19:47:11.902967 27477 net.cpp:150] Setting up conv9_conv9/relu_0_split
I0409 19:47:11.902973 27477 net.cpp:157] Top shape: 4 480 19 19 (693120)
I0409 19:47:11.902988 27477 net.cpp:157] Top shape: 4 480 19 19 (693120)
I0409 19:47:11.902992 27477 net.cpp:165] Memory required for data: 385665248
I0409 19:47:11.902997 27477 layer_factory.hpp:77] Creating layer conv10/a
I0409 19:47:11.903004 27477 net.cpp:100] Creating Layer conv10/a
I0409 19:47:11.903008 27477 net.cpp:434] conv10/a <- conv9_conv9/relu_0_split_0
I0409 19:47:11.903013 27477 net.cpp:408] conv10/a -> conv10/a
I0409 19:47:11.903355 27477 net.cpp:150] Setting up conv10/a
I0409 19:47:11.903362 27477 net.cpp:157] Top shape: 4 120 19 19 (173280)
I0409 19:47:11.903378 27477 net.cpp:165] Memory required for data: 386358368
I0409 19:47:11.903385 27477 layer_factory.hpp:77] Creating layer conv10/a/bn
I0409 19:47:11.903390 27477 net.cpp:100] Creating Layer conv10/a/bn
I0409 19:47:11.903394 27477 net.cpp:434] conv10/a/bn <- conv10/a
I0409 19:47:11.903399 27477 net.cpp:395] conv10/a/bn -> conv10/a (in-place)
I0409 19:47:11.903563 27477 net.cpp:150] Setting up conv10/a/bn
I0409 19:47:11.903569 27477 net.cpp:157] Top shape: 4 120 19 19 (173280)
I0409 19:47:11.903573 27477 net.cpp:165] Memory required for data: 387051488
I0409 19:47:11.903579 27477 layer_factory.hpp:77] Creating layer conv10/a/scale
I0409 19:47:11.903585 27477 net.cpp:100] Creating Layer conv10/a/scale
I0409 19:47:11.903589 27477 net.cpp:434] conv10/a/scale <- conv10/a
I0409 19:47:11.903594 27477 net.cpp:395] conv10/a/scale -> conv10/a (in-place)
I0409 19:47:11.903632 27477 layer_factory.hpp:77] Creating layer conv10/a/scale
I0409 19:47:11.903753 27477 net.cpp:150] Setting up conv10/a/scale
I0409 19:47:11.903761 27477 net.cpp:157] Top shape: 4 120 19 19 (173280)
I0409 19:47:11.903776 27477 net.cpp:165] Memory required for data: 387744608
I0409 19:47:11.903782 27477 layer_factory.hpp:77] Creating layer conv10/a/relu
I0409 19:47:11.903789 27477 net.cpp:100] Creating Layer conv10/a/relu
I0409 19:47:11.903792 27477 net.cpp:434] conv10/a/relu <- conv10/a
I0409 19:47:11.903797 27477 net.cpp:395] conv10/a/relu -> conv10/a (in-place)
I0409 19:47:11.904249 27477 net.cpp:150] Setting up conv10/a/relu
I0409 19:47:11.904263 27477 net.cpp:157] Top shape: 4 120 19 19 (173280)
I0409 19:47:11.904266 27477 net.cpp:165] Memory required for data: 388437728
I0409 19:47:11.904271 27477 layer_factory.hpp:77] Creating layer conv10/ChnlShf
I0409 19:47:11.904285 27477 net.cpp:100] Creating Layer conv10/ChnlShf
I0409 19:47:11.904291 27477 net.cpp:434] conv10/ChnlShf <- conv10/a
I0409 19:47:11.904299 27477 net.cpp:408] conv10/ChnlShf -> conv10/ChnlShf
I0409 19:47:11.904328 27477 net.cpp:150] Setting up conv10/ChnlShf
I0409 19:47:11.904336 27477 net.cpp:157] Top shape: 4 120 19 19 (173280)
I0409 19:47:11.904341 27477 net.cpp:165] Memory required for data: 389130848
I0409 19:47:11.904346 27477 layer_factory.hpp:77] Creating layer conv10/b
I0409 19:47:11.904361 27477 net.cpp:100] Creating Layer conv10/b
I0409 19:47:11.904366 27477 net.cpp:434] conv10/b <- conv10/ChnlShf
I0409 19:47:11.904373 27477 net.cpp:408] conv10/b -> conv10/b
I0409 19:47:11.905707 27477 net.cpp:150] Setting up conv10/b
I0409 19:47:11.905720 27477 net.cpp:157] Top shape: 4 120 19 19 (173280)
I0409 19:47:11.905726 27477 net.cpp:165] Memory required for data: 389823968
I0409 19:47:11.905735 27477 layer_factory.hpp:77] Creating layer conv10/b/bn
I0409 19:47:11.905742 27477 net.cpp:100] Creating Layer conv10/b/bn
I0409 19:47:11.905748 27477 net.cpp:434] conv10/b/bn <- conv10/b
I0409 19:47:11.905755 27477 net.cpp:395] conv10/b/bn -> conv10/b (in-place)
I0409 19:47:11.905932 27477 net.cpp:150] Setting up conv10/b/bn
I0409 19:47:11.905941 27477 net.cpp:157] Top shape: 4 120 19 19 (173280)
I0409 19:47:11.905946 27477 net.cpp:165] Memory required for data: 390517088
I0409 19:47:11.905956 27477 layer_factory.hpp:77] Creating layer conv10/b/scale
I0409 19:47:11.905979 27477 net.cpp:100] Creating Layer conv10/b/scale
I0409 19:47:11.905985 27477 net.cpp:434] conv10/b/scale <- conv10/b
I0409 19:47:11.905993 27477 net.cpp:395] conv10/b/scale -> conv10/b (in-place)
I0409 19:47:11.906038 27477 layer_factory.hpp:77] Creating layer conv10/b/scale
I0409 19:47:11.906147 27477 net.cpp:150] Setting up conv10/b/scale
I0409 19:47:11.906158 27477 net.cpp:157] Top shape: 4 120 19 19 (173280)
I0409 19:47:11.906164 27477 net.cpp:165] Memory required for data: 391210208
I0409 19:47:11.906172 27477 layer_factory.hpp:77] Creating layer conv10/c
I0409 19:47:11.906179 27477 net.cpp:100] Creating Layer conv10/c
I0409 19:47:11.906183 27477 net.cpp:434] conv10/c <- conv10/b
I0409 19:47:11.906188 27477 net.cpp:408] conv10/c -> conv10/c
I0409 19:47:11.906512 27477 net.cpp:150] Setting up conv10/c
I0409 19:47:11.906518 27477 net.cpp:157] Top shape: 4 480 19 19 (693120)
I0409 19:47:11.906522 27477 net.cpp:165] Memory required for data: 393982688
I0409 19:47:11.906527 27477 layer_factory.hpp:77] Creating layer conv10/c/bn
I0409 19:47:11.906533 27477 net.cpp:100] Creating Layer conv10/c/bn
I0409 19:47:11.906536 27477 net.cpp:434] conv10/c/bn <- conv10/c
I0409 19:47:11.906540 27477 net.cpp:395] conv10/c/bn -> conv10/c (in-place)
I0409 19:47:11.906719 27477 net.cpp:150] Setting up conv10/c/bn
I0409 19:47:11.906725 27477 net.cpp:157] Top shape: 4 480 19 19 (693120)
I0409 19:47:11.906729 27477 net.cpp:165] Memory required for data: 396755168
I0409 19:47:11.906735 27477 layer_factory.hpp:77] Creating layer conv10/c/scale
I0409 19:47:11.906741 27477 net.cpp:100] Creating Layer conv10/c/scale
I0409 19:47:11.906745 27477 net.cpp:434] conv10/c/scale <- conv10/c
I0409 19:47:11.906750 27477 net.cpp:395] conv10/c/scale -> conv10/c (in-place)
I0409 19:47:11.906782 27477 layer_factory.hpp:77] Creating layer conv10/c/scale
I0409 19:47:11.906874 27477 net.cpp:150] Setting up conv10/c/scale
I0409 19:47:11.906893 27477 net.cpp:157] Top shape: 4 480 19 19 (693120)
I0409 19:47:11.906898 27477 net.cpp:165] Memory required for data: 399527648
I0409 19:47:11.906903 27477 layer_factory.hpp:77] Creating layer conv10/eltwise
I0409 19:47:11.906909 27477 net.cpp:100] Creating Layer conv10/eltwise
I0409 19:47:11.906913 27477 net.cpp:434] conv10/eltwise <- conv9_conv9/relu_0_split_1
I0409 19:47:11.906919 27477 net.cpp:434] conv10/eltwise <- conv10/c
I0409 19:47:11.906922 27477 net.cpp:408] conv10/eltwise -> conv10
I0409 19:47:11.906949 27477 net.cpp:150] Setting up conv10/eltwise
I0409 19:47:11.906955 27477 net.cpp:157] Top shape: 4 480 19 19 (693120)
I0409 19:47:11.906958 27477 net.cpp:165] Memory required for data: 402300128
I0409 19:47:11.906961 27477 layer_factory.hpp:77] Creating layer conv10/relu
I0409 19:47:11.906967 27477 net.cpp:100] Creating Layer conv10/relu
I0409 19:47:11.906971 27477 net.cpp:434] conv10/relu <- conv10
I0409 19:47:11.906975 27477 net.cpp:395] conv10/relu -> conv10 (in-place)
I0409 19:47:11.907398 27477 net.cpp:150] Setting up conv10/relu
I0409 19:47:11.907409 27477 net.cpp:157] Top shape: 4 480 19 19 (693120)
I0409 19:47:11.907413 27477 net.cpp:165] Memory required for data: 405072608
I0409 19:47:11.907418 27477 layer_factory.hpp:77] Creating layer conv10_conv10/relu_0_split
I0409 19:47:11.907424 27477 net.cpp:100] Creating Layer conv10_conv10/relu_0_split
I0409 19:47:11.907428 27477 net.cpp:434] conv10_conv10/relu_0_split <- conv10
I0409 19:47:11.907434 27477 net.cpp:408] conv10_conv10/relu_0_split -> conv10_conv10/relu_0_split_0
I0409 19:47:11.907440 27477 net.cpp:408] conv10_conv10/relu_0_split -> conv10_conv10/relu_0_split_1
I0409 19:47:11.907475 27477 net.cpp:150] Setting up conv10_conv10/relu_0_split
I0409 19:47:11.907480 27477 net.cpp:157] Top shape: 4 480 19 19 (693120)
I0409 19:47:11.907485 27477 net.cpp:157] Top shape: 4 480 19 19 (693120)
I0409 19:47:11.907488 27477 net.cpp:165] Memory required for data: 410617568
I0409 19:47:11.907492 27477 layer_factory.hpp:77] Creating layer conv11/a
I0409 19:47:11.907500 27477 net.cpp:100] Creating Layer conv11/a
I0409 19:47:11.907503 27477 net.cpp:434] conv11/a <- conv10_conv10/relu_0_split_0
I0409 19:47:11.907508 27477 net.cpp:408] conv11/a -> conv11/a
I0409 19:47:11.907855 27477 net.cpp:150] Setting up conv11/a
I0409 19:47:11.907862 27477 net.cpp:157] Top shape: 4 120 19 19 (173280)
I0409 19:47:11.907866 27477 net.cpp:165] Memory required for data: 411310688
I0409 19:47:11.907871 27477 layer_factory.hpp:77] Creating layer conv11/a/bn
I0409 19:47:11.907876 27477 net.cpp:100] Creating Layer conv11/a/bn
I0409 19:47:11.907881 27477 net.cpp:434] conv11/a/bn <- conv11/a
I0409 19:47:11.907886 27477 net.cpp:395] conv11/a/bn -> conv11/a (in-place)
I0409 19:47:11.908051 27477 net.cpp:150] Setting up conv11/a/bn
I0409 19:47:11.908056 27477 net.cpp:157] Top shape: 4 120 19 19 (173280)
I0409 19:47:11.908061 27477 net.cpp:165] Memory required for data: 412003808
I0409 19:47:11.908066 27477 layer_factory.hpp:77] Creating layer conv11/a/scale
I0409 19:47:11.908072 27477 net.cpp:100] Creating Layer conv11/a/scale
I0409 19:47:11.908077 27477 net.cpp:434] conv11/a/scale <- conv11/a
I0409 19:47:11.908082 27477 net.cpp:395] conv11/a/scale -> conv11/a (in-place)
I0409 19:47:11.908112 27477 layer_factory.hpp:77] Creating layer conv11/a/scale
I0409 19:47:11.908246 27477 net.cpp:150] Setting up conv11/a/scale
I0409 19:47:11.908254 27477 net.cpp:157] Top shape: 4 120 19 19 (173280)
I0409 19:47:11.908262 27477 net.cpp:165] Memory required for data: 412696928
I0409 19:47:11.908268 27477 layer_factory.hpp:77] Creating layer conv11/a/relu
I0409 19:47:11.908279 27477 net.cpp:100] Creating Layer conv11/a/relu
I0409 19:47:11.908284 27477 net.cpp:434] conv11/a/relu <- conv11/a
I0409 19:47:11.908288 27477 net.cpp:395] conv11/a/relu -> conv11/a (in-place)
I0409 19:47:11.908448 27477 net.cpp:150] Setting up conv11/a/relu
I0409 19:47:11.908457 27477 net.cpp:157] Top shape: 4 120 19 19 (173280)
I0409 19:47:11.908462 27477 net.cpp:165] Memory required for data: 413390048
I0409 19:47:11.908476 27477 layer_factory.hpp:77] Creating layer conv11/ChnlShf
I0409 19:47:11.908483 27477 net.cpp:100] Creating Layer conv11/ChnlShf
I0409 19:47:11.908488 27477 net.cpp:434] conv11/ChnlShf <- conv11/a
I0409 19:47:11.908493 27477 net.cpp:408] conv11/ChnlShf -> conv11/ChnlShf
I0409 19:47:11.908515 27477 net.cpp:150] Setting up conv11/ChnlShf
I0409 19:47:11.908521 27477 net.cpp:157] Top shape: 4 120 19 19 (173280)
I0409 19:47:11.908524 27477 net.cpp:165] Memory required for data: 414083168
I0409 19:47:11.908529 27477 layer_factory.hpp:77] Creating layer conv11/b
I0409 19:47:11.908535 27477 net.cpp:100] Creating Layer conv11/b
I0409 19:47:11.908540 27477 net.cpp:434] conv11/b <- conv11/ChnlShf
I0409 19:47:11.908545 27477 net.cpp:408] conv11/b -> conv11/b
I0409 19:47:11.910359 27477 net.cpp:150] Setting up conv11/b
I0409 19:47:11.910372 27477 net.cpp:157] Top shape: 4 120 19 19 (173280)
I0409 19:47:11.910378 27477 net.cpp:165] Memory required for data: 414776288
I0409 19:47:11.910387 27477 layer_factory.hpp:77] Creating layer conv11/b/bn
I0409 19:47:11.910394 27477 net.cpp:100] Creating Layer conv11/b/bn
I0409 19:47:11.910400 27477 net.cpp:434] conv11/b/bn <- conv11/b
I0409 19:47:11.910408 27477 net.cpp:395] conv11/b/bn -> conv11/b (in-place)
I0409 19:47:11.910580 27477 net.cpp:150] Setting up conv11/b/bn
I0409 19:47:11.910589 27477 net.cpp:157] Top shape: 4 120 19 19 (173280)
I0409 19:47:11.910594 27477 net.cpp:165] Memory required for data: 415469408
I0409 19:47:11.910603 27477 layer_factory.hpp:77] Creating layer conv11/b/scale
I0409 19:47:11.910610 27477 net.cpp:100] Creating Layer conv11/b/scale
I0409 19:47:11.910615 27477 net.cpp:434] conv11/b/scale <- conv11/b
I0409 19:47:11.910621 27477 net.cpp:395] conv11/b/scale -> conv11/b (in-place)
I0409 19:47:11.910662 27477 layer_factory.hpp:77] Creating layer conv11/b/scale
I0409 19:47:11.910784 27477 net.cpp:150] Setting up conv11/b/scale
I0409 19:47:11.910794 27477 net.cpp:157] Top shape: 4 120 19 19 (173280)
I0409 19:47:11.910796 27477 net.cpp:165] Memory required for data: 416162528
I0409 19:47:11.910802 27477 layer_factory.hpp:77] Creating layer conv11/c
I0409 19:47:11.910809 27477 net.cpp:100] Creating Layer conv11/c
I0409 19:47:11.910812 27477 net.cpp:434] conv11/c <- conv11/b
I0409 19:47:11.910818 27477 net.cpp:408] conv11/c -> conv11/c
I0409 19:47:11.911137 27477 net.cpp:150] Setting up conv11/c
I0409 19:47:11.911144 27477 net.cpp:157] Top shape: 4 480 19 19 (693120)
I0409 19:47:11.911149 27477 net.cpp:165] Memory required for data: 418935008
I0409 19:47:11.911154 27477 layer_factory.hpp:77] Creating layer conv11/c/bn
I0409 19:47:11.911159 27477 net.cpp:100] Creating Layer conv11/c/bn
I0409 19:47:11.911162 27477 net.cpp:434] conv11/c/bn <- conv11/c
I0409 19:47:11.911166 27477 net.cpp:395] conv11/c/bn -> conv11/c (in-place)
I0409 19:47:11.911334 27477 net.cpp:150] Setting up conv11/c/bn
I0409 19:47:11.911340 27477 net.cpp:157] Top shape: 4 480 19 19 (693120)
I0409 19:47:11.911342 27477 net.cpp:165] Memory required for data: 421707488
I0409 19:47:11.911348 27477 layer_factory.hpp:77] Creating layer conv11/c/scale
I0409 19:47:11.911353 27477 net.cpp:100] Creating Layer conv11/c/scale
I0409 19:47:11.911357 27477 net.cpp:434] conv11/c/scale <- conv11/c
I0409 19:47:11.911367 27477 net.cpp:395] conv11/c/scale -> conv11/c (in-place)
I0409 19:47:11.911401 27477 layer_factory.hpp:77] Creating layer conv11/c/scale
I0409 19:47:11.911496 27477 net.cpp:150] Setting up conv11/c/scale
I0409 19:47:11.911502 27477 net.cpp:157] Top shape: 4 480 19 19 (693120)
I0409 19:47:11.911505 27477 net.cpp:165] Memory required for data: 424479968
I0409 19:47:11.911510 27477 layer_factory.hpp:77] Creating layer conv11/eltwise
I0409 19:47:11.911515 27477 net.cpp:100] Creating Layer conv11/eltwise
I0409 19:47:11.911520 27477 net.cpp:434] conv11/eltwise <- conv10_conv10/relu_0_split_1
I0409 19:47:11.911523 27477 net.cpp:434] conv11/eltwise <- conv11/c
I0409 19:47:11.911528 27477 net.cpp:408] conv11/eltwise -> conv11
I0409 19:47:11.911546 27477 net.cpp:150] Setting up conv11/eltwise
I0409 19:47:11.911562 27477 net.cpp:157] Top shape: 4 480 19 19 (693120)
I0409 19:47:11.911566 27477 net.cpp:165] Memory required for data: 427252448
I0409 19:47:11.911571 27477 layer_factory.hpp:77] Creating layer conv11/relu
I0409 19:47:11.911576 27477 net.cpp:100] Creating Layer conv11/relu
I0409 19:47:11.911579 27477 net.cpp:434] conv11/relu <- conv11
I0409 19:47:11.911583 27477 net.cpp:395] conv11/relu -> conv11 (in-place)
I0409 19:47:11.911976 27477 net.cpp:150] Setting up conv11/relu
I0409 19:47:11.911988 27477 net.cpp:157] Top shape: 4 480 19 19 (693120)
I0409 19:47:11.911990 27477 net.cpp:165] Memory required for data: 430024928
I0409 19:47:11.911995 27477 layer_factory.hpp:77] Creating layer conv11_conv11/relu_0_split
I0409 19:47:11.912001 27477 net.cpp:100] Creating Layer conv11_conv11/relu_0_split
I0409 19:47:11.912005 27477 net.cpp:434] conv11_conv11/relu_0_split <- conv11
I0409 19:47:11.912010 27477 net.cpp:408] conv11_conv11/relu_0_split -> conv11_conv11/relu_0_split_0
I0409 19:47:11.912017 27477 net.cpp:408] conv11_conv11/relu_0_split -> conv11_conv11/relu_0_split_1
I0409 19:47:11.912056 27477 net.cpp:150] Setting up conv11_conv11/relu_0_split
I0409 19:47:11.912062 27477 net.cpp:157] Top shape: 4 480 19 19 (693120)
I0409 19:47:11.912067 27477 net.cpp:157] Top shape: 4 480 19 19 (693120)
I0409 19:47:11.912070 27477 net.cpp:165] Memory required for data: 435569888
I0409 19:47:11.912075 27477 layer_factory.hpp:77] Creating layer conv12/a
I0409 19:47:11.912081 27477 net.cpp:100] Creating Layer conv12/a
I0409 19:47:11.912086 27477 net.cpp:434] conv12/a <- conv11_conv11/relu_0_split_0
I0409 19:47:11.912091 27477 net.cpp:408] conv12/a -> conv12/a
I0409 19:47:11.912411 27477 net.cpp:150] Setting up conv12/a
I0409 19:47:11.912418 27477 net.cpp:157] Top shape: 4 120 19 19 (173280)
I0409 19:47:11.912422 27477 net.cpp:165] Memory required for data: 436263008
I0409 19:47:11.912427 27477 layer_factory.hpp:77] Creating layer conv12/a/bn
I0409 19:47:11.912433 27477 net.cpp:100] Creating Layer conv12/a/bn
I0409 19:47:11.912437 27477 net.cpp:434] conv12/a/bn <- conv12/a
I0409 19:47:11.912441 27477 net.cpp:395] conv12/a/bn -> conv12/a (in-place)
I0409 19:47:11.912613 27477 net.cpp:150] Setting up conv12/a/bn
I0409 19:47:11.912621 27477 net.cpp:157] Top shape: 4 120 19 19 (173280)
I0409 19:47:11.912623 27477 net.cpp:165] Memory required for data: 436956128
I0409 19:47:11.912631 27477 layer_factory.hpp:77] Creating layer conv12/a/scale
I0409 19:47:11.912636 27477 net.cpp:100] Creating Layer conv12/a/scale
I0409 19:47:11.912641 27477 net.cpp:434] conv12/a/scale <- conv12/a
I0409 19:47:11.912645 27477 net.cpp:395] conv12/a/scale -> conv12/a (in-place)
I0409 19:47:11.912677 27477 layer_factory.hpp:77] Creating layer conv12/a/scale
I0409 19:47:11.912777 27477 net.cpp:150] Setting up conv12/a/scale
I0409 19:47:11.912784 27477 net.cpp:157] Top shape: 4 120 19 19 (173280)
I0409 19:47:11.912787 27477 net.cpp:165] Memory required for data: 437649248
I0409 19:47:11.912793 27477 layer_factory.hpp:77] Creating layer conv12/a/relu
I0409 19:47:11.912798 27477 net.cpp:100] Creating Layer conv12/a/relu
I0409 19:47:11.912802 27477 net.cpp:434] conv12/a/relu <- conv12/a
I0409 19:47:11.912806 27477 net.cpp:395] conv12/a/relu -> conv12/a (in-place)
I0409 19:47:11.913152 27477 net.cpp:150] Setting up conv12/a/relu
I0409 19:47:11.913163 27477 net.cpp:157] Top shape: 4 120 19 19 (173280)
I0409 19:47:11.913166 27477 net.cpp:165] Memory required for data: 438342368
I0409 19:47:11.913172 27477 layer_factory.hpp:77] Creating layer conv12/ChnlShf
I0409 19:47:11.913177 27477 net.cpp:100] Creating Layer conv12/ChnlShf
I0409 19:47:11.913182 27477 net.cpp:434] conv12/ChnlShf <- conv12/a
I0409 19:47:11.913187 27477 net.cpp:408] conv12/ChnlShf -> conv12/ChnlShf
I0409 19:47:11.913211 27477 net.cpp:150] Setting up conv12/ChnlShf
I0409 19:47:11.913218 27477 net.cpp:157] Top shape: 4 120 19 19 (173280)
I0409 19:47:11.913220 27477 net.cpp:165] Memory required for data: 439035488
I0409 19:47:11.913224 27477 layer_factory.hpp:77] Creating layer conv12/b
I0409 19:47:11.913240 27477 net.cpp:100] Creating Layer conv12/b
I0409 19:47:11.913245 27477 net.cpp:434] conv12/b <- conv12/ChnlShf
I0409 19:47:11.913250 27477 net.cpp:408] conv12/b -> conv12/b
I0409 19:47:11.914544 27477 net.cpp:150] Setting up conv12/b
I0409 19:47:11.914553 27477 net.cpp:157] Top shape: 4 120 19 19 (173280)
I0409 19:47:11.914556 27477 net.cpp:165] Memory required for data: 439728608
I0409 19:47:11.914562 27477 layer_factory.hpp:77] Creating layer conv12/b/bn
I0409 19:47:11.914567 27477 net.cpp:100] Creating Layer conv12/b/bn
I0409 19:47:11.914572 27477 net.cpp:434] conv12/b/bn <- conv12/b
I0409 19:47:11.914577 27477 net.cpp:395] conv12/b/bn -> conv12/b (in-place)
I0409 19:47:11.914741 27477 net.cpp:150] Setting up conv12/b/bn
I0409 19:47:11.914747 27477 net.cpp:157] Top shape: 4 120 19 19 (173280)
I0409 19:47:11.914750 27477 net.cpp:165] Memory required for data: 440421728
I0409 19:47:11.914757 27477 layer_factory.hpp:77] Creating layer conv12/b/scale
I0409 19:47:11.914763 27477 net.cpp:100] Creating Layer conv12/b/scale
I0409 19:47:11.914767 27477 net.cpp:434] conv12/b/scale <- conv12/b
I0409 19:47:11.914772 27477 net.cpp:395] conv12/b/scale -> conv12/b (in-place)
I0409 19:47:11.914803 27477 layer_factory.hpp:77] Creating layer conv12/b/scale
I0409 19:47:11.914901 27477 net.cpp:150] Setting up conv12/b/scale
I0409 19:47:11.914907 27477 net.cpp:157] Top shape: 4 120 19 19 (173280)
I0409 19:47:11.914911 27477 net.cpp:165] Memory required for data: 441114848
I0409 19:47:11.914916 27477 layer_factory.hpp:77] Creating layer conv12/c
I0409 19:47:11.914923 27477 net.cpp:100] Creating Layer conv12/c
I0409 19:47:11.914927 27477 net.cpp:434] conv12/c <- conv12/b
I0409 19:47:11.914932 27477 net.cpp:408] conv12/c -> conv12/c
I0409 19:47:11.915258 27477 net.cpp:150] Setting up conv12/c
I0409 19:47:11.915266 27477 net.cpp:157] Top shape: 4 480 19 19 (693120)
I0409 19:47:11.915269 27477 net.cpp:165] Memory required for data: 443887328
I0409 19:47:11.915274 27477 layer_factory.hpp:77] Creating layer conv12/c/bn
I0409 19:47:11.915279 27477 net.cpp:100] Creating Layer conv12/c/bn
I0409 19:47:11.915283 27477 net.cpp:434] conv12/c/bn <- conv12/c
I0409 19:47:11.915287 27477 net.cpp:395] conv12/c/bn -> conv12/c (in-place)
I0409 19:47:11.915459 27477 net.cpp:150] Setting up conv12/c/bn
I0409 19:47:11.915465 27477 net.cpp:157] Top shape: 4 480 19 19 (693120)
I0409 19:47:11.915469 27477 net.cpp:165] Memory required for data: 446659808
I0409 19:47:11.915475 27477 layer_factory.hpp:77] Creating layer conv12/c/scale
I0409 19:47:11.915482 27477 net.cpp:100] Creating Layer conv12/c/scale
I0409 19:47:11.915485 27477 net.cpp:434] conv12/c/scale <- conv12/c
I0409 19:47:11.915490 27477 net.cpp:395] conv12/c/scale -> conv12/c (in-place)
I0409 19:47:11.915522 27477 layer_factory.hpp:77] Creating layer conv12/c/scale
I0409 19:47:11.915621 27477 net.cpp:150] Setting up conv12/c/scale
I0409 19:47:11.915628 27477 net.cpp:157] Top shape: 4 480 19 19 (693120)
I0409 19:47:11.915632 27477 net.cpp:165] Memory required for data: 449432288
I0409 19:47:11.915637 27477 layer_factory.hpp:77] Creating layer conv12/eltwise
I0409 19:47:11.915642 27477 net.cpp:100] Creating Layer conv12/eltwise
I0409 19:47:11.915647 27477 net.cpp:434] conv12/eltwise <- conv11_conv11/relu_0_split_1
I0409 19:47:11.915663 27477 net.cpp:434] conv12/eltwise <- conv12/c
I0409 19:47:11.915668 27477 net.cpp:408] conv12/eltwise -> conv12
I0409 19:47:11.915688 27477 net.cpp:150] Setting up conv12/eltwise
I0409 19:47:11.915694 27477 net.cpp:157] Top shape: 4 480 19 19 (693120)
I0409 19:47:11.915697 27477 net.cpp:165] Memory required for data: 452204768
I0409 19:47:11.915701 27477 layer_factory.hpp:77] Creating layer conv12/relu
I0409 19:47:11.915706 27477 net.cpp:100] Creating Layer conv12/relu
I0409 19:47:11.915710 27477 net.cpp:434] conv12/relu <- conv12
I0409 19:47:11.915714 27477 net.cpp:395] conv12/relu -> conv12 (in-place)
I0409 19:47:11.916106 27477 net.cpp:150] Setting up conv12/relu
I0409 19:47:11.916118 27477 net.cpp:157] Top shape: 4 480 19 19 (693120)
I0409 19:47:11.916136 27477 net.cpp:165] Memory required for data: 454977248
I0409 19:47:11.916141 27477 layer_factory.hpp:77] Creating layer conv12_conv12/relu_0_split
I0409 19:47:11.916146 27477 net.cpp:100] Creating Layer conv12_conv12/relu_0_split
I0409 19:47:11.916148 27477 net.cpp:434] conv12_conv12/relu_0_split <- conv12
I0409 19:47:11.916154 27477 net.cpp:408] conv12_conv12/relu_0_split -> conv12_conv12/relu_0_split_0
I0409 19:47:11.916160 27477 net.cpp:408] conv12_conv12/relu_0_split -> conv12_conv12/relu_0_split_1
I0409 19:47:11.916194 27477 net.cpp:150] Setting up conv12_conv12/relu_0_split
I0409 19:47:11.916200 27477 net.cpp:157] Top shape: 4 480 19 19 (693120)
I0409 19:47:11.916204 27477 net.cpp:157] Top shape: 4 480 19 19 (693120)
I0409 19:47:11.916206 27477 net.cpp:165] Memory required for data: 460522208
I0409 19:47:11.916210 27477 layer_factory.hpp:77] Creating layer conv13/a
I0409 19:47:11.916218 27477 net.cpp:100] Creating Layer conv13/a
I0409 19:47:11.916223 27477 net.cpp:434] conv13/a <- conv12_conv12/relu_0_split_0
I0409 19:47:11.916227 27477 net.cpp:408] conv13/a -> conv13/a
I0409 19:47:11.916560 27477 net.cpp:150] Setting up conv13/a
I0409 19:47:11.916568 27477 net.cpp:157] Top shape: 4 120 19 19 (173280)
I0409 19:47:11.916571 27477 net.cpp:165] Memory required for data: 461215328
I0409 19:47:11.916576 27477 layer_factory.hpp:77] Creating layer conv13/a/bn
I0409 19:47:11.916582 27477 net.cpp:100] Creating Layer conv13/a/bn
I0409 19:47:11.916586 27477 net.cpp:434] conv13/a/bn <- conv13/a
I0409 19:47:11.916591 27477 net.cpp:395] conv13/a/bn -> conv13/a (in-place)
I0409 19:47:11.916767 27477 net.cpp:150] Setting up conv13/a/bn
I0409 19:47:11.916774 27477 net.cpp:157] Top shape: 4 120 19 19 (173280)
I0409 19:47:11.916777 27477 net.cpp:165] Memory required for data: 461908448
I0409 19:47:11.916784 27477 layer_factory.hpp:77] Creating layer conv13/a/scale
I0409 19:47:11.916790 27477 net.cpp:100] Creating Layer conv13/a/scale
I0409 19:47:11.916795 27477 net.cpp:434] conv13/a/scale <- conv13/a
I0409 19:47:11.916800 27477 net.cpp:395] conv13/a/scale -> conv13/a (in-place)
I0409 19:47:11.916831 27477 layer_factory.hpp:77] Creating layer conv13/a/scale
I0409 19:47:11.916937 27477 net.cpp:150] Setting up conv13/a/scale
I0409 19:47:11.916944 27477 net.cpp:157] Top shape: 4 120 19 19 (173280)
I0409 19:47:11.916949 27477 net.cpp:165] Memory required for data: 462601568
I0409 19:47:11.916954 27477 layer_factory.hpp:77] Creating layer conv13/a/relu
I0409 19:47:11.916960 27477 net.cpp:100] Creating Layer conv13/a/relu
I0409 19:47:11.916963 27477 net.cpp:434] conv13/a/relu <- conv13/a
I0409 19:47:11.916967 27477 net.cpp:395] conv13/a/relu -> conv13/a (in-place)
I0409 19:47:11.917349 27477 net.cpp:150] Setting up conv13/a/relu
I0409 19:47:11.917361 27477 net.cpp:157] Top shape: 4 120 19 19 (173280)
I0409 19:47:11.917363 27477 net.cpp:165] Memory required for data: 463294688
I0409 19:47:11.917366 27477 layer_factory.hpp:77] Creating layer conv13/ChnlShf
I0409 19:47:11.917373 27477 net.cpp:100] Creating Layer conv13/ChnlShf
I0409 19:47:11.917377 27477 net.cpp:434] conv13/ChnlShf <- conv13/a
I0409 19:47:11.917382 27477 net.cpp:408] conv13/ChnlShf -> conv13/ChnlShf
I0409 19:47:11.917407 27477 net.cpp:150] Setting up conv13/ChnlShf
I0409 19:47:11.917413 27477 net.cpp:157] Top shape: 4 120 19 19 (173280)
I0409 19:47:11.917417 27477 net.cpp:165] Memory required for data: 463987808
I0409 19:47:11.917419 27477 layer_factory.hpp:77] Creating layer conv13/b
I0409 19:47:11.917425 27477 net.cpp:100] Creating Layer conv13/b
I0409 19:47:11.917429 27477 net.cpp:434] conv13/b <- conv13/ChnlShf
I0409 19:47:11.917433 27477 net.cpp:408] conv13/b -> conv13/b
I0409 19:47:11.919252 27477 net.cpp:150] Setting up conv13/b
I0409 19:47:11.919270 27477 net.cpp:157] Top shape: 4 120 19 19 (173280)
I0409 19:47:11.919273 27477 net.cpp:165] Memory required for data: 464680928
I0409 19:47:11.919279 27477 layer_factory.hpp:77] Creating layer conv13/b/bn
I0409 19:47:11.919288 27477 net.cpp:100] Creating Layer conv13/b/bn
I0409 19:47:11.919293 27477 net.cpp:434] conv13/b/bn <- conv13/b
I0409 19:47:11.919317 27477 net.cpp:395] conv13/b/bn -> conv13/b (in-place)
I0409 19:47:11.919509 27477 net.cpp:150] Setting up conv13/b/bn
I0409 19:47:11.919517 27477 net.cpp:157] Top shape: 4 120 19 19 (173280)
I0409 19:47:11.919520 27477 net.cpp:165] Memory required for data: 465374048
I0409 19:47:11.919528 27477 layer_factory.hpp:77] Creating layer conv13/b/scale
I0409 19:47:11.919534 27477 net.cpp:100] Creating Layer conv13/b/scale
I0409 19:47:11.919538 27477 net.cpp:434] conv13/b/scale <- conv13/b
I0409 19:47:11.919543 27477 net.cpp:395] conv13/b/scale -> conv13/b (in-place)
I0409 19:47:11.919585 27477 layer_factory.hpp:77] Creating layer conv13/b/scale
I0409 19:47:11.919710 27477 net.cpp:150] Setting up conv13/b/scale
I0409 19:47:11.919718 27477 net.cpp:157] Top shape: 4 120 19 19 (173280)
I0409 19:47:11.919721 27477 net.cpp:165] Memory required for data: 466067168
I0409 19:47:11.919726 27477 layer_factory.hpp:77] Creating layer conv13/c
I0409 19:47:11.919740 27477 net.cpp:100] Creating Layer conv13/c
I0409 19:47:11.919744 27477 net.cpp:434] conv13/c <- conv13/b
I0409 19:47:11.919749 27477 net.cpp:408] conv13/c -> conv13/c
I0409 19:47:11.920081 27477 net.cpp:150] Setting up conv13/c
I0409 19:47:11.920089 27477 net.cpp:157] Top shape: 4 480 19 19 (693120)
I0409 19:47:11.920091 27477 net.cpp:165] Memory required for data: 468839648
I0409 19:47:11.920096 27477 layer_factory.hpp:77] Creating layer conv13/c/bn
I0409 19:47:11.920101 27477 net.cpp:100] Creating Layer conv13/c/bn
I0409 19:47:11.920105 27477 net.cpp:434] conv13/c/bn <- conv13/c
I0409 19:47:11.920109 27477 net.cpp:395] conv13/c/bn -> conv13/c (in-place)
I0409 19:47:11.920286 27477 net.cpp:150] Setting up conv13/c/bn
I0409 19:47:11.920294 27477 net.cpp:157] Top shape: 4 480 19 19 (693120)
I0409 19:47:11.920296 27477 net.cpp:165] Memory required for data: 471612128
I0409 19:47:11.920302 27477 layer_factory.hpp:77] Creating layer conv13/c/scale
I0409 19:47:11.920310 27477 net.cpp:100] Creating Layer conv13/c/scale
I0409 19:47:11.920313 27477 net.cpp:434] conv13/c/scale <- conv13/c
I0409 19:47:11.920317 27477 net.cpp:395] conv13/c/scale -> conv13/c (in-place)
I0409 19:47:11.920353 27477 layer_factory.hpp:77] Creating layer conv13/c/scale
I0409 19:47:11.920465 27477 net.cpp:150] Setting up conv13/c/scale
I0409 19:47:11.920472 27477 net.cpp:157] Top shape: 4 480 19 19 (693120)
I0409 19:47:11.920475 27477 net.cpp:165] Memory required for data: 474384608
I0409 19:47:11.920481 27477 layer_factory.hpp:77] Creating layer conv13/eltwise
I0409 19:47:11.920486 27477 net.cpp:100] Creating Layer conv13/eltwise
I0409 19:47:11.920491 27477 net.cpp:434] conv13/eltwise <- conv12_conv12/relu_0_split_1
I0409 19:47:11.920495 27477 net.cpp:434] conv13/eltwise <- conv13/c
I0409 19:47:11.920500 27477 net.cpp:408] conv13/eltwise -> conv13
I0409 19:47:11.920521 27477 net.cpp:150] Setting up conv13/eltwise
I0409 19:47:11.920526 27477 net.cpp:157] Top shape: 4 480 19 19 (693120)
I0409 19:47:11.920529 27477 net.cpp:165] Memory required for data: 477157088
I0409 19:47:11.920533 27477 layer_factory.hpp:77] Creating layer conv13/relu
I0409 19:47:11.920538 27477 net.cpp:100] Creating Layer conv13/relu
I0409 19:47:11.920542 27477 net.cpp:434] conv13/relu <- conv13
I0409 19:47:11.920547 27477 net.cpp:395] conv13/relu -> conv13 (in-place)
I0409 19:47:11.920727 27477 net.cpp:150] Setting up conv13/relu
I0409 19:47:11.920737 27477 net.cpp:157] Top shape: 4 480 19 19 (693120)
I0409 19:47:11.920739 27477 net.cpp:165] Memory required for data: 479929568
I0409 19:47:11.920743 27477 layer_factory.hpp:77] Creating layer conv13_conv13/relu_0_split
I0409 19:47:11.920750 27477 net.cpp:100] Creating Layer conv13_conv13/relu_0_split
I0409 19:47:11.920754 27477 net.cpp:434] conv13_conv13/relu_0_split <- conv13
I0409 19:47:11.920761 27477 net.cpp:408] conv13_conv13/relu_0_split -> conv13_conv13/relu_0_split_0
I0409 19:47:11.920770 27477 net.cpp:408] conv13_conv13/relu_0_split -> conv13_conv13/relu_0_split_1
I0409 19:47:11.920778 27477 net.cpp:408] conv13_conv13/relu_0_split -> conv13_conv13/relu_0_split_2
I0409 19:47:11.920799 27477 net.cpp:408] conv13_conv13/relu_0_split -> conv13_conv13/relu_0_split_3
I0409 19:47:11.920809 27477 net.cpp:408] conv13_conv13/relu_0_split -> conv13_conv13/relu_0_split_4
I0409 19:47:11.920886 27477 net.cpp:150] Setting up conv13_conv13/relu_0_split
I0409 19:47:11.920893 27477 net.cpp:157] Top shape: 4 480 19 19 (693120)
I0409 19:47:11.920898 27477 net.cpp:157] Top shape: 4 480 19 19 (693120)
I0409 19:47:11.920902 27477 net.cpp:157] Top shape: 4 480 19 19 (693120)
I0409 19:47:11.920907 27477 net.cpp:157] Top shape: 4 480 19 19 (693120)
I0409 19:47:11.920910 27477 net.cpp:157] Top shape: 4 480 19 19 (693120)
I0409 19:47:11.920913 27477 net.cpp:165] Memory required for data: 493791968
I0409 19:47:11.920917 27477 layer_factory.hpp:77] Creating layer conv14/avepool
I0409 19:47:11.920924 27477 net.cpp:100] Creating Layer conv14/avepool
I0409 19:47:11.920928 27477 net.cpp:434] conv14/avepool <- conv13_conv13/relu_0_split_0
I0409 19:47:11.920934 27477 net.cpp:408] conv14/avepool -> conv14/avepool
I0409 19:47:11.921350 27477 net.cpp:150] Setting up conv14/avepool
I0409 19:47:11.921365 27477 net.cpp:157] Top shape: 4 480 10 10 (192000)
I0409 19:47:11.921370 27477 net.cpp:165] Memory required for data: 494559968
I0409 19:47:11.921377 27477 layer_factory.hpp:77] Creating layer conv14/a
I0409 19:47:11.921388 27477 net.cpp:100] Creating Layer conv14/a
I0409 19:47:11.921396 27477 net.cpp:434] conv14/a <- conv13_conv13/relu_0_split_1
I0409 19:47:11.921402 27477 net.cpp:408] conv14/a -> conv14/a
I0409 19:47:11.922266 27477 net.cpp:150] Setting up conv14/a
I0409 19:47:11.922276 27477 net.cpp:157] Top shape: 4 120 19 19 (173280)
I0409 19:47:11.922281 27477 net.cpp:165] Memory required for data: 495253088
I0409 19:47:11.922286 27477 layer_factory.hpp:77] Creating layer conv14/a/bn
I0409 19:47:11.922291 27477 net.cpp:100] Creating Layer conv14/a/bn
I0409 19:47:11.922296 27477 net.cpp:434] conv14/a/bn <- conv14/a
I0409 19:47:11.922300 27477 net.cpp:395] conv14/a/bn -> conv14/a (in-place)
I0409 19:47:11.922485 27477 net.cpp:150] Setting up conv14/a/bn
I0409 19:47:11.922492 27477 net.cpp:157] Top shape: 4 120 19 19 (173280)
I0409 19:47:11.922494 27477 net.cpp:165] Memory required for data: 495946208
I0409 19:47:11.922500 27477 layer_factory.hpp:77] Creating layer conv14/a/scale
I0409 19:47:11.922511 27477 net.cpp:100] Creating Layer conv14/a/scale
I0409 19:47:11.922516 27477 net.cpp:434] conv14/a/scale <- conv14/a
I0409 19:47:11.922520 27477 net.cpp:395] conv14/a/scale -> conv14/a (in-place)
I0409 19:47:11.922554 27477 layer_factory.hpp:77] Creating layer conv14/a/scale
I0409 19:47:11.922650 27477 net.cpp:150] Setting up conv14/a/scale
I0409 19:47:11.922657 27477 net.cpp:157] Top shape: 4 120 19 19 (173280)
I0409 19:47:11.922659 27477 net.cpp:165] Memory required for data: 496639328
I0409 19:47:11.922664 27477 layer_factory.hpp:77] Creating layer conv14/a/relu
I0409 19:47:11.922668 27477 net.cpp:100] Creating Layer conv14/a/relu
I0409 19:47:11.922673 27477 net.cpp:434] conv14/a/relu <- conv14/a
I0409 19:47:11.922678 27477 net.cpp:395] conv14/a/relu -> conv14/a (in-place)
I0409 19:47:11.922857 27477 net.cpp:150] Setting up conv14/a/relu
I0409 19:47:11.922865 27477 net.cpp:157] Top shape: 4 120 19 19 (173280)
I0409 19:47:11.922869 27477 net.cpp:165] Memory required for data: 497332448
I0409 19:47:11.922873 27477 layer_factory.hpp:77] Creating layer conv14/ChnlShf
I0409 19:47:11.922879 27477 net.cpp:100] Creating Layer conv14/ChnlShf
I0409 19:47:11.922883 27477 net.cpp:434] conv14/ChnlShf <- conv14/a
I0409 19:47:11.922888 27477 net.cpp:408] conv14/ChnlShf -> conv14/ChnlShf
I0409 19:47:11.922911 27477 net.cpp:150] Setting up conv14/ChnlShf
I0409 19:47:11.922917 27477 net.cpp:157] Top shape: 4 120 19 19 (173280)
I0409 19:47:11.922920 27477 net.cpp:165] Memory required for data: 498025568
I0409 19:47:11.922924 27477 layer_factory.hpp:77] Creating layer conv14/b
I0409 19:47:11.922930 27477 net.cpp:100] Creating Layer conv14/b
I0409 19:47:11.922935 27477 net.cpp:434] conv14/b <- conv14/ChnlShf
I0409 19:47:11.922956 27477 net.cpp:408] conv14/b -> conv14/b
I0409 19:47:11.924268 27477 net.cpp:150] Setting up conv14/b
I0409 19:47:11.924276 27477 net.cpp:157] Top shape: 4 120 10 10 (48000)
I0409 19:47:11.924279 27477 net.cpp:165] Memory required for data: 498217568
I0409 19:47:11.924285 27477 layer_factory.hpp:77] Creating layer conv14/b/bn
I0409 19:47:11.924290 27477 net.cpp:100] Creating Layer conv14/b/bn
I0409 19:47:11.924294 27477 net.cpp:434] conv14/b/bn <- conv14/b
I0409 19:47:11.924299 27477 net.cpp:395] conv14/b/bn -> conv14/b (in-place)
I0409 19:47:11.924474 27477 net.cpp:150] Setting up conv14/b/bn
I0409 19:47:11.924480 27477 net.cpp:157] Top shape: 4 120 10 10 (48000)
I0409 19:47:11.924484 27477 net.cpp:165] Memory required for data: 498409568
I0409 19:47:11.924490 27477 layer_factory.hpp:77] Creating layer conv14/b/scale
I0409 19:47:11.924496 27477 net.cpp:100] Creating Layer conv14/b/scale
I0409 19:47:11.924500 27477 net.cpp:434] conv14/b/scale <- conv14/b
I0409 19:47:11.924507 27477 net.cpp:395] conv14/b/scale -> conv14/b (in-place)
I0409 19:47:11.924540 27477 layer_factory.hpp:77] Creating layer conv14/b/scale
I0409 19:47:11.924636 27477 net.cpp:150] Setting up conv14/b/scale
I0409 19:47:11.924643 27477 net.cpp:157] Top shape: 4 120 10 10 (48000)
I0409 19:47:11.924646 27477 net.cpp:165] Memory required for data: 498601568
I0409 19:47:11.924652 27477 layer_factory.hpp:77] Creating layer conv14/c
I0409 19:47:11.924659 27477 net.cpp:100] Creating Layer conv14/c
I0409 19:47:11.924662 27477 net.cpp:434] conv14/c <- conv14/b
I0409 19:47:11.924669 27477 net.cpp:408] conv14/c -> conv14/c
I0409 19:47:11.924995 27477 net.cpp:150] Setting up conv14/c
I0409 19:47:11.925002 27477 net.cpp:157] Top shape: 4 480 10 10 (192000)
I0409 19:47:11.925006 27477 net.cpp:165] Memory required for data: 499369568
I0409 19:47:11.925010 27477 layer_factory.hpp:77] Creating layer conv14/c/bn
I0409 19:47:11.925016 27477 net.cpp:100] Creating Layer conv14/c/bn
I0409 19:47:11.925020 27477 net.cpp:434] conv14/c/bn <- conv14/c
I0409 19:47:11.925024 27477 net.cpp:395] conv14/c/bn -> conv14/c (in-place)
I0409 19:47:11.925201 27477 net.cpp:150] Setting up conv14/c/bn
I0409 19:47:11.925209 27477 net.cpp:157] Top shape: 4 480 10 10 (192000)
I0409 19:47:11.925212 27477 net.cpp:165] Memory required for data: 500137568
I0409 19:47:11.925217 27477 layer_factory.hpp:77] Creating layer conv14/c/scale
I0409 19:47:11.925223 27477 net.cpp:100] Creating Layer conv14/c/scale
I0409 19:47:11.925227 27477 net.cpp:434] conv14/c/scale <- conv14/c
I0409 19:47:11.925232 27477 net.cpp:395] conv14/c/scale -> conv14/c (in-place)
I0409 19:47:11.925267 27477 layer_factory.hpp:77] Creating layer conv14/c/scale
I0409 19:47:11.925359 27477 net.cpp:150] Setting up conv14/c/scale
I0409 19:47:11.925365 27477 net.cpp:157] Top shape: 4 480 10 10 (192000)
I0409 19:47:11.925369 27477 net.cpp:165] Memory required for data: 500905568
I0409 19:47:11.925374 27477 layer_factory.hpp:77] Creating layer conv14/concat
I0409 19:47:11.925380 27477 net.cpp:100] Creating Layer conv14/concat
I0409 19:47:11.925384 27477 net.cpp:434] conv14/concat <- conv14/avepool
I0409 19:47:11.925388 27477 net.cpp:434] conv14/concat <- conv14/c
I0409 19:47:11.925393 27477 net.cpp:408] conv14/concat -> conv14
I0409 19:47:11.925418 27477 net.cpp:150] Setting up conv14/concat
I0409 19:47:11.925424 27477 net.cpp:157] Top shape: 4 960 10 10 (384000)
I0409 19:47:11.925427 27477 net.cpp:165] Memory required for data: 502441568
I0409 19:47:11.925431 27477 layer_factory.hpp:77] Creating layer conv14/relu
I0409 19:47:11.925436 27477 net.cpp:100] Creating Layer conv14/relu
I0409 19:47:11.925441 27477 net.cpp:434] conv14/relu <- conv14
I0409 19:47:11.925444 27477 net.cpp:395] conv14/relu -> conv14 (in-place)
I0409 19:47:11.925829 27477 net.cpp:150] Setting up conv14/relu
I0409 19:47:11.925839 27477 net.cpp:157] Top shape: 4 960 10 10 (384000)
I0409 19:47:11.925843 27477 net.cpp:165] Memory required for data: 503977568
I0409 19:47:11.925848 27477 layer_factory.hpp:77] Creating layer conv14_conv14/relu_0_split
I0409 19:47:11.925864 27477 net.cpp:100] Creating Layer conv14_conv14/relu_0_split
I0409 19:47:11.925869 27477 net.cpp:434] conv14_conv14/relu_0_split <- conv14
I0409 19:47:11.925875 27477 net.cpp:408] conv14_conv14/relu_0_split -> conv14_conv14/relu_0_split_0
I0409 19:47:11.925882 27477 net.cpp:408] conv14_conv14/relu_0_split -> conv14_conv14/relu_0_split_1
I0409 19:47:11.925925 27477 net.cpp:150] Setting up conv14_conv14/relu_0_split
I0409 19:47:11.925931 27477 net.cpp:157] Top shape: 4 960 10 10 (384000)
I0409 19:47:11.925936 27477 net.cpp:157] Top shape: 4 960 10 10 (384000)
I0409 19:47:11.925940 27477 net.cpp:165] Memory required for data: 507049568
I0409 19:47:11.925943 27477 layer_factory.hpp:77] Creating layer conv15/a
I0409 19:47:11.925951 27477 net.cpp:100] Creating Layer conv15/a
I0409 19:47:11.925956 27477 net.cpp:434] conv15/a <- conv14_conv14/relu_0_split_0
I0409 19:47:11.925961 27477 net.cpp:408] conv15/a -> conv15/a
I0409 19:47:11.927306 27477 net.cpp:150] Setting up conv15/a
I0409 19:47:11.927320 27477 net.cpp:157] Top shape: 4 240 10 10 (96000)
I0409 19:47:11.927322 27477 net.cpp:165] Memory required for data: 507433568
I0409 19:47:11.927327 27477 layer_factory.hpp:77] Creating layer conv15/a/bn
I0409 19:47:11.927333 27477 net.cpp:100] Creating Layer conv15/a/bn
I0409 19:47:11.927337 27477 net.cpp:434] conv15/a/bn <- conv15/a
I0409 19:47:11.927342 27477 net.cpp:395] conv15/a/bn -> conv15/a (in-place)
I0409 19:47:11.927512 27477 net.cpp:150] Setting up conv15/a/bn
I0409 19:47:11.927520 27477 net.cpp:157] Top shape: 4 240 10 10 (96000)
I0409 19:47:11.927521 27477 net.cpp:165] Memory required for data: 507817568
I0409 19:47:11.927527 27477 layer_factory.hpp:77] Creating layer conv15/a/scale
I0409 19:47:11.927541 27477 net.cpp:100] Creating Layer conv15/a/scale
I0409 19:47:11.927546 27477 net.cpp:434] conv15/a/scale <- conv15/a
I0409 19:47:11.927549 27477 net.cpp:395] conv15/a/scale -> conv15/a (in-place)
I0409 19:47:11.927582 27477 layer_factory.hpp:77] Creating layer conv15/a/scale
I0409 19:47:11.927693 27477 net.cpp:150] Setting up conv15/a/scale
I0409 19:47:11.927700 27477 net.cpp:157] Top shape: 4 240 10 10 (96000)
I0409 19:47:11.927705 27477 net.cpp:165] Memory required for data: 508201568
I0409 19:47:11.927709 27477 layer_factory.hpp:77] Creating layer conv15/a/relu
I0409 19:47:11.927716 27477 net.cpp:100] Creating Layer conv15/a/relu
I0409 19:47:11.927719 27477 net.cpp:434] conv15/a/relu <- conv15/a
I0409 19:47:11.927724 27477 net.cpp:395] conv15/a/relu -> conv15/a (in-place)
I0409 19:47:11.928102 27477 net.cpp:150] Setting up conv15/a/relu
I0409 19:47:11.928112 27477 net.cpp:157] Top shape: 4 240 10 10 (96000)
I0409 19:47:11.928115 27477 net.cpp:165] Memory required for data: 508585568
I0409 19:47:11.928119 27477 layer_factory.hpp:77] Creating layer conv15/ChnlShf
I0409 19:47:11.928125 27477 net.cpp:100] Creating Layer conv15/ChnlShf
I0409 19:47:11.928130 27477 net.cpp:434] conv15/ChnlShf <- conv15/a
I0409 19:47:11.928134 27477 net.cpp:408] conv15/ChnlShf -> conv15/ChnlShf
I0409 19:47:11.928160 27477 net.cpp:150] Setting up conv15/ChnlShf
I0409 19:47:11.928166 27477 net.cpp:157] Top shape: 4 240 10 10 (96000)
I0409 19:47:11.928170 27477 net.cpp:165] Memory required for data: 508969568
I0409 19:47:11.928174 27477 layer_factory.hpp:77] Creating layer conv15/b
I0409 19:47:11.928180 27477 net.cpp:100] Creating Layer conv15/b
I0409 19:47:11.928184 27477 net.cpp:434] conv15/b <- conv15/ChnlShf
I0409 19:47:11.928189 27477 net.cpp:408] conv15/b -> conv15/b
I0409 19:47:11.933966 27477 net.cpp:150] Setting up conv15/b
I0409 19:47:11.933993 27477 net.cpp:157] Top shape: 4 240 10 10 (96000)
I0409 19:47:11.933998 27477 net.cpp:165] Memory required for data: 509353568
I0409 19:47:11.934008 27477 layer_factory.hpp:77] Creating layer conv15/b/bn
I0409 19:47:11.934023 27477 net.cpp:100] Creating Layer conv15/b/bn
I0409 19:47:11.934031 27477 net.cpp:434] conv15/b/bn <- conv15/b
I0409 19:47:11.934037 27477 net.cpp:395] conv15/b/bn -> conv15/b (in-place)
I0409 19:47:11.934253 27477 net.cpp:150] Setting up conv15/b/bn
I0409 19:47:11.934279 27477 net.cpp:157] Top shape: 4 240 10 10 (96000)
I0409 19:47:11.934283 27477 net.cpp:165] Memory required for data: 509737568
I0409 19:47:11.934290 27477 layer_factory.hpp:77] Creating layer conv15/b/scale
I0409 19:47:11.934298 27477 net.cpp:100] Creating Layer conv15/b/scale
I0409 19:47:11.934303 27477 net.cpp:434] conv15/b/scale <- conv15/b
I0409 19:47:11.934309 27477 net.cpp:395] conv15/b/scale -> conv15/b (in-place)
I0409 19:47:11.934352 27477 layer_factory.hpp:77] Creating layer conv15/b/scale
I0409 19:47:11.934460 27477 net.cpp:150] Setting up conv15/b/scale
I0409 19:47:11.934468 27477 net.cpp:157] Top shape: 4 240 10 10 (96000)
I0409 19:47:11.934471 27477 net.cpp:165] Memory required for data: 510121568
I0409 19:47:11.934476 27477 layer_factory.hpp:77] Creating layer conv15/c
I0409 19:47:11.934485 27477 net.cpp:100] Creating Layer conv15/c
I0409 19:47:11.934489 27477 net.cpp:434] conv15/c <- conv15/b
I0409 19:47:11.934494 27477 net.cpp:408] conv15/c -> conv15/c
I0409 19:47:11.935335 27477 net.cpp:150] Setting up conv15/c
I0409 19:47:11.935343 27477 net.cpp:157] Top shape: 4 960 10 10 (384000)
I0409 19:47:11.935346 27477 net.cpp:165] Memory required for data: 511657568
I0409 19:47:11.935353 27477 layer_factory.hpp:77] Creating layer conv15/c/bn
I0409 19:47:11.935359 27477 net.cpp:100] Creating Layer conv15/c/bn
I0409 19:47:11.935362 27477 net.cpp:434] conv15/c/bn <- conv15/c
I0409 19:47:11.935366 27477 net.cpp:395] conv15/c/bn -> conv15/c (in-place)
I0409 19:47:11.935556 27477 net.cpp:150] Setting up conv15/c/bn
I0409 19:47:11.935564 27477 net.cpp:157] Top shape: 4 960 10 10 (384000)
I0409 19:47:11.935566 27477 net.cpp:165] Memory required for data: 513193568
I0409 19:47:11.935573 27477 layer_factory.hpp:77] Creating layer conv15/c/scale
I0409 19:47:11.935580 27477 net.cpp:100] Creating Layer conv15/c/scale
I0409 19:47:11.935583 27477 net.cpp:434] conv15/c/scale <- conv15/c
I0409 19:47:11.935588 27477 net.cpp:395] conv15/c/scale -> conv15/c (in-place)
I0409 19:47:11.935624 27477 layer_factory.hpp:77] Creating layer conv15/c/scale
I0409 19:47:11.935741 27477 net.cpp:150] Setting up conv15/c/scale
I0409 19:47:11.935748 27477 net.cpp:157] Top shape: 4 960 10 10 (384000)
I0409 19:47:11.935751 27477 net.cpp:165] Memory required for data: 514729568
I0409 19:47:11.935776 27477 layer_factory.hpp:77] Creating layer conv15/eltwise
I0409 19:47:11.935783 27477 net.cpp:100] Creating Layer conv15/eltwise
I0409 19:47:11.935788 27477 net.cpp:434] conv15/eltwise <- conv14_conv14/relu_0_split_1
I0409 19:47:11.935792 27477 net.cpp:434] conv15/eltwise <- conv15/c
I0409 19:47:11.935797 27477 net.cpp:408] conv15/eltwise -> conv15
I0409 19:47:11.935819 27477 net.cpp:150] Setting up conv15/eltwise
I0409 19:47:11.935825 27477 net.cpp:157] Top shape: 4 960 10 10 (384000)
I0409 19:47:11.935828 27477 net.cpp:165] Memory required for data: 516265568
I0409 19:47:11.935832 27477 layer_factory.hpp:77] Creating layer conv15/relu
I0409 19:47:11.935837 27477 net.cpp:100] Creating Layer conv15/relu
I0409 19:47:11.935842 27477 net.cpp:434] conv15/relu <- conv15
I0409 19:47:11.935845 27477 net.cpp:395] conv15/relu -> conv15 (in-place)
I0409 19:47:11.936028 27477 net.cpp:150] Setting up conv15/relu
I0409 19:47:11.936038 27477 net.cpp:157] Top shape: 4 960 10 10 (384000)
I0409 19:47:11.936040 27477 net.cpp:165] Memory required for data: 517801568
I0409 19:47:11.936044 27477 layer_factory.hpp:77] Creating layer conv15_conv15/relu_0_split
I0409 19:47:11.936050 27477 net.cpp:100] Creating Layer conv15_conv15/relu_0_split
I0409 19:47:11.936054 27477 net.cpp:434] conv15_conv15/relu_0_split <- conv15
I0409 19:47:11.936060 27477 net.cpp:408] conv15_conv15/relu_0_split -> conv15_conv15/relu_0_split_0
I0409 19:47:11.936066 27477 net.cpp:408] conv15_conv15/relu_0_split -> conv15_conv15/relu_0_split_1
I0409 19:47:11.936100 27477 net.cpp:150] Setting up conv15_conv15/relu_0_split
I0409 19:47:11.936106 27477 net.cpp:157] Top shape: 4 960 10 10 (384000)
I0409 19:47:11.936110 27477 net.cpp:157] Top shape: 4 960 10 10 (384000)
I0409 19:47:11.936125 27477 net.cpp:165] Memory required for data: 520873568
I0409 19:47:11.936131 27477 layer_factory.hpp:77] Creating layer conv16/a
I0409 19:47:11.936137 27477 net.cpp:100] Creating Layer conv16/a
I0409 19:47:11.936142 27477 net.cpp:434] conv16/a <- conv15_conv15/relu_0_split_0
I0409 19:47:11.936147 27477 net.cpp:408] conv16/a -> conv16/a
I0409 19:47:11.937021 27477 net.cpp:150] Setting up conv16/a
I0409 19:47:11.937029 27477 net.cpp:157] Top shape: 4 240 10 10 (96000)
I0409 19:47:11.937032 27477 net.cpp:165] Memory required for data: 521257568
I0409 19:47:11.937038 27477 layer_factory.hpp:77] Creating layer conv16/a/bn
I0409 19:47:11.937043 27477 net.cpp:100] Creating Layer conv16/a/bn
I0409 19:47:11.937047 27477 net.cpp:434] conv16/a/bn <- conv16/a
I0409 19:47:11.937052 27477 net.cpp:395] conv16/a/bn -> conv16/a (in-place)
I0409 19:47:11.937222 27477 net.cpp:150] Setting up conv16/a/bn
I0409 19:47:11.937229 27477 net.cpp:157] Top shape: 4 240 10 10 (96000)
I0409 19:47:11.937232 27477 net.cpp:165] Memory required for data: 521641568
I0409 19:47:11.937239 27477 layer_factory.hpp:77] Creating layer conv16/a/scale
I0409 19:47:11.937245 27477 net.cpp:100] Creating Layer conv16/a/scale
I0409 19:47:11.937249 27477 net.cpp:434] conv16/a/scale <- conv16/a
I0409 19:47:11.937254 27477 net.cpp:395] conv16/a/scale -> conv16/a (in-place)
I0409 19:47:11.937285 27477 layer_factory.hpp:77] Creating layer conv16/a/scale
I0409 19:47:11.937386 27477 net.cpp:150] Setting up conv16/a/scale
I0409 19:47:11.937392 27477 net.cpp:157] Top shape: 4 240 10 10 (96000)
I0409 19:47:11.937396 27477 net.cpp:165] Memory required for data: 522025568
I0409 19:47:11.937402 27477 layer_factory.hpp:77] Creating layer conv16/a/relu
I0409 19:47:11.937412 27477 net.cpp:100] Creating Layer conv16/a/relu
I0409 19:47:11.937417 27477 net.cpp:434] conv16/a/relu <- conv16/a
I0409 19:47:11.937420 27477 net.cpp:395] conv16/a/relu -> conv16/a (in-place)
I0409 19:47:11.937851 27477 net.cpp:150] Setting up conv16/a/relu
I0409 19:47:11.937862 27477 net.cpp:157] Top shape: 4 240 10 10 (96000)
I0409 19:47:11.937866 27477 net.cpp:165] Memory required for data: 522409568
I0409 19:47:11.937870 27477 layer_factory.hpp:77] Creating layer conv16/ChnlShf
I0409 19:47:11.937877 27477 net.cpp:100] Creating Layer conv16/ChnlShf
I0409 19:47:11.937881 27477 net.cpp:434] conv16/ChnlShf <- conv16/a
I0409 19:47:11.937886 27477 net.cpp:408] conv16/ChnlShf -> conv16/ChnlShf
I0409 19:47:11.937913 27477 net.cpp:150] Setting up conv16/ChnlShf
I0409 19:47:11.937919 27477 net.cpp:157] Top shape: 4 240 10 10 (96000)
I0409 19:47:11.937922 27477 net.cpp:165] Memory required for data: 522793568
I0409 19:47:11.937927 27477 layer_factory.hpp:77] Creating layer conv16/b
I0409 19:47:11.937933 27477 net.cpp:100] Creating Layer conv16/b
I0409 19:47:11.937937 27477 net.cpp:434] conv16/b <- conv16/ChnlShf
I0409 19:47:11.937942 27477 net.cpp:408] conv16/b -> conv16/b
I0409 19:47:11.943564 27477 net.cpp:150] Setting up conv16/b
I0409 19:47:11.943591 27477 net.cpp:157] Top shape: 4 240 10 10 (96000)
I0409 19:47:11.943601 27477 net.cpp:165] Memory required for data: 523177568
I0409 19:47:11.943614 27477 layer_factory.hpp:77] Creating layer conv16/b/bn
I0409 19:47:11.943626 27477 net.cpp:100] Creating Layer conv16/b/bn
I0409 19:47:11.943635 27477 net.cpp:434] conv16/b/bn <- conv16/b
I0409 19:47:11.943645 27477 net.cpp:395] conv16/b/bn -> conv16/b (in-place)
I0409 19:47:11.943929 27477 net.cpp:150] Setting up conv16/b/bn
I0409 19:47:11.943939 27477 net.cpp:157] Top shape: 4 240 10 10 (96000)
I0409 19:47:11.943945 27477 net.cpp:165] Memory required for data: 523561568
I0409 19:47:11.943956 27477 layer_factory.hpp:77] Creating layer conv16/b/scale
I0409 19:47:11.943972 27477 net.cpp:100] Creating Layer conv16/b/scale
I0409 19:47:11.943981 27477 net.cpp:434] conv16/b/scale <- conv16/b
I0409 19:47:11.943991 27477 net.cpp:395] conv16/b/scale -> conv16/b (in-place)
I0409 19:47:11.944056 27477 layer_factory.hpp:77] Creating layer conv16/b/scale
I0409 19:47:11.944207 27477 net.cpp:150] Setting up conv16/b/scale
I0409 19:47:11.944259 27477 net.cpp:157] Top shape: 4 240 10 10 (96000)
I0409 19:47:11.944264 27477 net.cpp:165] Memory required for data: 523945568
I0409 19:47:11.944285 27477 layer_factory.hpp:77] Creating layer conv16/c
I0409 19:47:11.944296 27477 net.cpp:100] Creating Layer conv16/c
I0409 19:47:11.944301 27477 net.cpp:434] conv16/c <- conv16/b
I0409 19:47:11.944309 27477 net.cpp:408] conv16/c -> conv16/c
I0409 19:47:11.945798 27477 net.cpp:150] Setting up conv16/c
I0409 19:47:11.945822 27477 net.cpp:157] Top shape: 4 960 10 10 (384000)
I0409 19:47:11.945827 27477 net.cpp:165] Memory required for data: 525481568
I0409 19:47:11.945834 27477 layer_factory.hpp:77] Creating layer conv16/c/bn
I0409 19:47:11.945840 27477 net.cpp:100] Creating Layer conv16/c/bn
I0409 19:47:11.945845 27477 net.cpp:434] conv16/c/bn <- conv16/c
I0409 19:47:11.945850 27477 net.cpp:395] conv16/c/bn -> conv16/c (in-place)
I0409 19:47:11.946061 27477 net.cpp:150] Setting up conv16/c/bn
I0409 19:47:11.946069 27477 net.cpp:157] Top shape: 4 960 10 10 (384000)
I0409 19:47:11.946080 27477 net.cpp:165] Memory required for data: 527017568
I0409 19:47:11.946087 27477 layer_factory.hpp:77] Creating layer conv16/c/scale
I0409 19:47:11.946094 27477 net.cpp:100] Creating Layer conv16/c/scale
I0409 19:47:11.946099 27477 net.cpp:434] conv16/c/scale <- conv16/c
I0409 19:47:11.946104 27477 net.cpp:395] conv16/c/scale -> conv16/c (in-place)
I0409 19:47:11.946159 27477 layer_factory.hpp:77] Creating layer conv16/c/scale
I0409 19:47:11.946277 27477 net.cpp:150] Setting up conv16/c/scale
I0409 19:47:11.946285 27477 net.cpp:157] Top shape: 4 960 10 10 (384000)
I0409 19:47:11.946297 27477 net.cpp:165] Memory required for data: 528553568
I0409 19:47:11.946303 27477 layer_factory.hpp:77] Creating layer conv16/eltwise
I0409 19:47:11.946308 27477 net.cpp:100] Creating Layer conv16/eltwise
I0409 19:47:11.946313 27477 net.cpp:434] conv16/eltwise <- conv15_conv15/relu_0_split_1
I0409 19:47:11.946316 27477 net.cpp:434] conv16/eltwise <- conv16/c
I0409 19:47:11.946321 27477 net.cpp:408] conv16/eltwise -> conv16
I0409 19:47:11.946349 27477 net.cpp:150] Setting up conv16/eltwise
I0409 19:47:11.946355 27477 net.cpp:157] Top shape: 4 960 10 10 (384000)
I0409 19:47:11.946358 27477 net.cpp:165] Memory required for data: 530089568
I0409 19:47:11.946372 27477 layer_factory.hpp:77] Creating layer conv16/relu
I0409 19:47:11.946377 27477 net.cpp:100] Creating Layer conv16/relu
I0409 19:47:11.946380 27477 net.cpp:434] conv16/relu <- conv16
I0409 19:47:11.946385 27477 net.cpp:395] conv16/relu -> conv16 (in-place)
I0409 19:47:11.946579 27477 net.cpp:150] Setting up conv16/relu
I0409 19:47:11.946588 27477 net.cpp:157] Top shape: 4 960 10 10 (384000)
I0409 19:47:11.946591 27477 net.cpp:165] Memory required for data: 531625568
I0409 19:47:11.946595 27477 layer_factory.hpp:77] Creating layer conv16_conv16/relu_0_split
I0409 19:47:11.946601 27477 net.cpp:100] Creating Layer conv16_conv16/relu_0_split
I0409 19:47:11.946605 27477 net.cpp:434] conv16_conv16/relu_0_split <- conv16
I0409 19:47:11.946611 27477 net.cpp:408] conv16_conv16/relu_0_split -> conv16_conv16/relu_0_split_0
I0409 19:47:11.946617 27477 net.cpp:408] conv16_conv16/relu_0_split -> conv16_conv16/relu_0_split_1
I0409 19:47:11.946652 27477 net.cpp:150] Setting up conv16_conv16/relu_0_split
I0409 19:47:11.946658 27477 net.cpp:157] Top shape: 4 960 10 10 (384000)
I0409 19:47:11.946661 27477 net.cpp:157] Top shape: 4 960 10 10 (384000)
I0409 19:47:11.946665 27477 net.cpp:165] Memory required for data: 534697568
I0409 19:47:11.946667 27477 layer_factory.hpp:77] Creating layer conv17/a
I0409 19:47:11.946679 27477 net.cpp:100] Creating Layer conv17/a
I0409 19:47:11.946684 27477 net.cpp:434] conv17/a <- conv16_conv16/relu_0_split_0
I0409 19:47:11.946689 27477 net.cpp:408] conv17/a -> conv17/a
I0409 19:47:11.947525 27477 net.cpp:150] Setting up conv17/a
I0409 19:47:11.947532 27477 net.cpp:157] Top shape: 4 240 10 10 (96000)
I0409 19:47:11.947535 27477 net.cpp:165] Memory required for data: 535081568
I0409 19:47:11.947541 27477 layer_factory.hpp:77] Creating layer conv17/a/bn
I0409 19:47:11.947558 27477 net.cpp:100] Creating Layer conv17/a/bn
I0409 19:47:11.947562 27477 net.cpp:434] conv17/a/bn <- conv17/a
I0409 19:47:11.947567 27477 net.cpp:395] conv17/a/bn -> conv17/a (in-place)
I0409 19:47:11.947758 27477 net.cpp:150] Setting up conv17/a/bn
I0409 19:47:11.947767 27477 net.cpp:157] Top shape: 4 240 10 10 (96000)
I0409 19:47:11.947770 27477 net.cpp:165] Memory required for data: 535465568
I0409 19:47:11.947777 27477 layer_factory.hpp:77] Creating layer conv17/a/scale
I0409 19:47:11.947783 27477 net.cpp:100] Creating Layer conv17/a/scale
I0409 19:47:11.947788 27477 net.cpp:434] conv17/a/scale <- conv17/a
I0409 19:47:11.947798 27477 net.cpp:395] conv17/a/scale -> conv17/a (in-place)
I0409 19:47:11.947836 27477 layer_factory.hpp:77] Creating layer conv17/a/scale
I0409 19:47:11.947929 27477 net.cpp:150] Setting up conv17/a/scale
I0409 19:47:11.947935 27477 net.cpp:157] Top shape: 4 240 10 10 (96000)
I0409 19:47:11.947939 27477 net.cpp:165] Memory required for data: 535849568
I0409 19:47:11.947944 27477 layer_factory.hpp:77] Creating layer conv17/a/relu
I0409 19:47:11.947949 27477 net.cpp:100] Creating Layer conv17/a/relu
I0409 19:47:11.947953 27477 net.cpp:434] conv17/a/relu <- conv17/a
I0409 19:47:11.947958 27477 net.cpp:395] conv17/a/relu -> conv17/a (in-place)
I0409 19:47:11.948366 27477 net.cpp:150] Setting up conv17/a/relu
I0409 19:47:11.948377 27477 net.cpp:157] Top shape: 4 240 10 10 (96000)
I0409 19:47:11.948381 27477 net.cpp:165] Memory required for data: 536233568
I0409 19:47:11.948385 27477 layer_factory.hpp:77] Creating layer conv17/ChnlShf
I0409 19:47:11.948392 27477 net.cpp:100] Creating Layer conv17/ChnlShf
I0409 19:47:11.948397 27477 net.cpp:434] conv17/ChnlShf <- conv17/a
…
I0409 19:47:12.136745 27477 net.cpp:395] conv18_1/bn -> conv18_1 (in-place)
I0409 19:47:12.136909 27477 net.cpp:150] Setting up conv18_1/bn
I0409 19:47:12.136917 27477 net.cpp:157] Top shape: 2 256 10 10 (51200)
I0409 19:47:12.136922 27477 net.cpp:165] Memory required for data: 276206400
I0409 19:47:12.136932 27477 layer_factory.hpp:77] Creating layer conv18_1/scale
I0409 19:47:12.136955 27477 net.cpp:100] Creating Layer conv18_1/scale
I0409 19:47:12.136960 27477 net.cpp:434] conv18_1/scale <- conv18_1
I0409 19:47:12.136967 27477 net.cpp:395] conv18_1/scale -> conv18_1 (in-place)
I0409 19:47:12.137004 27477 layer_factory.hpp:77] Creating layer conv18_1/scale
I0409 19:47:12.137097 27477 net.cpp:150] Setting up conv18_1/scale
I0409 19:47:12.137106 27477 net.cpp:157] Top shape: 2 256 10 10 (51200)
I0409 19:47:12.137111 27477 net.cpp:165] Memory required for data: 276411200
I0409 19:47:12.137120 27477 layer_factory.hpp:77] Creating layer conv18_1/relu
I0409 19:47:12.137126 27477 net.cpp:100] Creating Layer conv18_1/relu
I0409 19:47:12.137131 27477 net.cpp:434] conv18_1/relu <- conv18_1
I0409 19:47:12.137138 27477 net.cpp:395] conv18_1/relu -> conv18_1 (in-place)
I0409 19:47:12.137305 27477 net.cpp:150] Setting up conv18_1/relu
I0409 19:47:12.137315 27477 net.cpp:157] Top shape: 2 256 10 10 (51200)
I0409 19:47:12.137321 27477 net.cpp:165] Memory required for data: 276616000
I0409 19:47:12.137327 27477 layer_factory.hpp:77] Creating layer conv18_2
I0409 19:47:12.137338 27477 net.cpp:100] Creating Layer conv18_2
I0409 19:47:12.137343 27477 net.cpp:434] conv18_2 <- conv18_1
I0409 19:47:12.137351 27477 net.cpp:408] conv18_2 -> conv18_2
I0409 19:47:12.150267 27477 net.cpp:150] Setting up conv18_2
I0409 19:47:12.150291 27477 net.cpp:157] Top shape: 2 512 5 5 (25600)
I0409 19:47:12.150298 27477 net.cpp:165] Memory required for data: 276718400
I0409 19:47:12.150310 27477 layer_factory.hpp:77] Creating layer conv18_2/bn
I0409 19:47:12.150319 27477 net.cpp:100] Creating Layer conv18_2/bn
I0409 19:47:12.150326 27477 net.cpp:434] conv18_2/bn <- conv18_2
I0409 19:47:12.150334 27477 net.cpp:395] conv18_2/bn -> conv18_2 (in-place)
I0409 19:47:12.150563 27477 net.cpp:150] Setting up conv18_2/bn
I0409 19:47:12.150571 27477 net.cpp:157] Top shape: 2 512 5 5 (25600)
I0409 19:47:12.150584 27477 net.cpp:165] Memory required for data: 276820800
I0409 19:47:12.150590 27477 layer_factory.hpp:77] Creating layer conv18_2/scale
I0409 19:47:12.150599 27477 net.cpp:100] Creating Layer conv18_2/scale
I0409 19:47:12.150605 27477 net.cpp:434] conv18_2/scale <- conv18_2
I0409 19:47:12.150622 27477 net.cpp:395] conv18_2/scale -> conv18_2 (in-place)
I0409 19:47:12.150674 27477 layer_factory.hpp:77] Creating layer conv18_2/scale
I0409 19:47:12.150796 27477 net.cpp:150] Setting up conv18_2/scale
I0409 19:47:12.150804 27477 net.cpp:157] Top shape: 2 512 5 5 (25600)
I0409 19:47:12.150810 27477 net.cpp:165] Memory required for data: 276923200
I0409 19:47:12.150818 27477 layer_factory.hpp:77] Creating layer conv18_2/relu
I0409 19:47:12.150825 27477 net.cpp:100] Creating Layer conv18_2/relu
I0409 19:47:12.150830 27477 net.cpp:434] conv18_2/relu <- conv18_2
I0409 19:47:12.150836 27477 net.cpp:395] conv18_2/relu -> conv18_2 (in-place)
I0409 19:47:12.151209 27477 net.cpp:150] Setting up conv18_2/relu
I0409 19:47:12.151221 27477 net.cpp:157] Top shape: 2 512 5 5 (25600)
I0409 19:47:12.151237 27477 net.cpp:165] Memory required for data: 277025600
I0409 19:47:12.151242 27477 layer_factory.hpp:77] Creating layer conv18_2_conv18_2/relu_0_split
I0409 19:47:12.151250 27477 net.cpp:100] Creating Layer conv18_2_conv18_2/relu_0_split
I0409 19:47:12.151255 27477 net.cpp:434] conv18_2_conv18_2/relu_0_split <- conv18_2
I0409 19:47:12.151263 27477 net.cpp:408] conv18_2_conv18_2/relu_0_split -> conv18_2_conv18_2/relu_0_split_0
I0409 19:47:12.151273 27477 net.cpp:408] conv18_2_conv18_2/relu_0_split -> conv18_2_conv18_2/relu_0_split_1
I0409 19:47:12.151279 27477 net.cpp:408] conv18_2_conv18_2/relu_0_split -> conv18_2_conv18_2/relu_0_split_2
I0409 19:47:12.151286 27477 net.cpp:408] conv18_2_conv18_2/relu_0_split -> conv18_2_conv18_2/relu_0_split_3
I0409 19:47:12.151357 27477 net.cpp:150] Setting up conv18_2_conv18_2/relu_0_split
I0409 19:47:12.151365 27477 net.cpp:157] Top shape: 2 512 5 5 (25600)
I0409 19:47:12.151381 27477 net.cpp:157] Top shape: 2 512 5 5 (25600)
I0409 19:47:12.151386 27477 net.cpp:157] Top shape: 2 512 5 5 (25600)
I0409 19:47:12.151409 27477 net.cpp:157] Top shape: 2 512 5 5 (25600)
I0409 19:47:12.151414 27477 net.cpp:165] Memory required for data: 277435200
I0409 19:47:12.151420 27477 layer_factory.hpp:77] Creating layer conv19_1
I0409 19:47:12.151430 27477 net.cpp:100] Creating Layer conv19_1
I0409 19:47:12.151437 27477 net.cpp:434] conv19_1 <- conv18_2_conv18_2/relu_0_split_0
I0409 19:47:12.151443 27477 net.cpp:408] conv19_1 -> conv19_1
I0409 19:47:12.153568 27477 net.cpp:150] Setting up conv19_1
I0409 19:47:12.153583 27477 net.cpp:157] Top shape: 2 128 5 5 (6400)
I0409 19:47:12.153589 27477 net.cpp:165] Memory required for data: 277460800
I0409 19:47:12.153597 27477 layer_factory.hpp:77] Creating layer conv19_1/bn
I0409 19:47:12.153604 27477 net.cpp:100] Creating Layer conv19_1/bn
I0409 19:47:12.153611 27477 net.cpp:434] conv19_1/bn <- conv19_1
I0409 19:47:12.153618 27477 net.cpp:395] conv19_1/bn -> conv19_1 (in-place)
I0409 19:47:12.153777 27477 net.cpp:150] Setting up conv19_1/bn
I0409 19:47:12.153785 27477 net.cpp:157] Top shape: 2 128 5 5 (6400)
I0409 19:47:12.153790 27477 net.cpp:165] Memory required for data: 277486400
I0409 19:47:12.153800 27477 layer_factory.hpp:77] Creating layer conv19_1/scale
I0409 19:47:12.153807 27477 net.cpp:100] Creating Layer conv19_1/scale
I0409 19:47:12.153812 27477 net.cpp:434] conv19_1/scale <- conv19_1
I0409 19:47:12.153820 27477 net.cpp:395] conv19_1/scale -> conv19_1 (in-place)
I0409 19:47:12.153853 27477 layer_factory.hpp:77] Creating layer conv19_1/scale
I0409 19:47:12.153937 27477 net.cpp:150] Setting up conv19_1/scale
I0409 19:47:12.153945 27477 net.cpp:157] Top shape: 2 128 5 5 (6400)
I0409 19:47:12.153950 27477 net.cpp:165] Memory required for data: 277512000
I0409 19:47:12.153959 27477 layer_factory.hpp:77] Creating layer conv19_1/relu
I0409 19:47:12.153964 27477 net.cpp:100] Creating Layer conv19_1/relu
I0409 19:47:12.153970 27477 net.cpp:434] conv19_1/relu <- conv19_1
I0409 19:47:12.153975 27477 net.cpp:395] conv19_1/relu -> conv19_1 (in-place)
I0409 19:47:12.154148 27477 net.cpp:150] Setting up conv19_1/relu
I0409 19:47:12.154157 27477 net.cpp:157] Top shape: 2 128 5 5 (6400)
I0409 19:47:12.154170 27477 net.cpp:165] Memory required for data: 277537600
I0409 19:47:12.154173 27477 layer_factory.hpp:77] Creating layer conv19_2
I0409 19:47:12.154182 27477 net.cpp:100] Creating Layer conv19_2
I0409 19:47:12.154188 27477 net.cpp:434] conv19_2 <- conv19_1
I0409 19:47:12.154206 27477 net.cpp:408] conv19_2 -> conv19_2
I0409 19:47:12.158545 27477 net.cpp:150] Setting up conv19_2
I0409 19:47:12.158571 27477 net.cpp:157] Top shape: 2 256 3 3 (4608)
I0409 19:47:12.158576 27477 net.cpp:165] Memory required for data: 277556032
I0409 19:47:12.158582 27477 layer_factory.hpp:77] Creating layer conv19_2/bn
I0409 19:47:12.158589 27477 net.cpp:100] Creating Layer conv19_2/bn
I0409 19:47:12.158593 27477 net.cpp:434] conv19_2/bn <- conv19_2
I0409 19:47:12.158598 27477 net.cpp:395] conv19_2/bn -> conv19_2 (in-place)
I0409 19:47:12.158777 27477 net.cpp:150] Setting up conv19_2/bn
I0409 19:47:12.158784 27477 net.cpp:157] Top shape: 2 256 3 3 (4608)
I0409 19:47:12.158797 27477 net.cpp:165] Memory required for data: 277574464
I0409 19:47:12.158803 27477 layer_factory.hpp:77] Creating layer conv19_2/scale
I0409 19:47:12.158810 27477 net.cpp:100] Creating Layer conv19_2/scale
I0409 19:47:12.158814 27477 net.cpp:434] conv19_2/scale <- conv19_2
I0409 19:47:12.158819 27477 net.cpp:395] conv19_2/scale -> conv19_2 (in-place)
I0409 19:47:12.158861 27477 layer_factory.hpp:77] Creating layer conv19_2/scale
I0409 19:47:12.158964 27477 net.cpp:150] Setting up conv19_2/scale
I0409 19:47:12.158972 27477 net.cpp:157] Top shape: 2 256 3 3 (4608)
I0409 19:47:12.158975 27477 net.cpp:165] Memory required for data: 277592896
I0409 19:47:12.158982 27477 layer_factory.hpp:77] Creating layer conv19_2/relu
I0409 19:47:12.158987 27477 net.cpp:100] Creating Layer conv19_2/relu
I0409 19:47:12.158990 27477 net.cpp:434] conv19_2/relu <- conv19_2
I0409 19:47:12.158994 27477 net.cpp:395] conv19_2/relu -> conv19_2 (in-place)
I0409 19:47:12.159359 27477 net.cpp:150] Setting up conv19_2/relu
I0409 19:47:12.159381 27477 net.cpp:157] Top shape: 2 256 3 3 (4608)
I0409 19:47:12.159386 27477 net.cpp:165] Memory required for data: 277611328
I0409 19:47:12.159390 27477 layer_factory.hpp:77] Creating layer conv19_2_conv19_2/relu_0_split
I0409 19:47:12.159396 27477 net.cpp:100] Creating Layer conv19_2_conv19_2/relu_0_split
I0409 19:47:12.159401 27477 net.cpp:434] conv19_2_conv19_2/relu_0_split <- conv19_2
I0409 19:47:12.159407 27477 net.cpp:408] conv19_2_conv19_2/relu_0_split -> conv19_2_conv19_2/relu_0_split_0
I0409 19:47:12.159415 27477 net.cpp:408] conv19_2_conv19_2/relu_0_split -> conv19_2_conv19_2/relu_0_split_1
I0409 19:47:12.159420 27477 net.cpp:408] conv19_2_conv19_2/relu_0_split -> conv19_2_conv19_2/relu_0_split_2
I0409 19:47:12.159427 27477 net.cpp:408] conv19_2_conv19_2/relu_0_split -> conv19_2_conv19_2/relu_0_split_3
I0409 19:47:12.159490 27477 net.cpp:150] Setting up conv19_2_conv19_2/relu_0_split
I0409 19:47:12.159497 27477 net.cpp:157] Top shape: 2 256 3 3 (4608)
I0409 19:47:12.159500 27477 net.cpp:157] Top shape: 2 256 3 3 (4608)
I0409 19:47:12.159504 27477 net.cpp:157] Top shape: 2 256 3 3 (4608)
I0409 19:47:12.159510 27477 net.cpp:157] Top shape: 2 256 3 3 (4608)
I0409 19:47:12.159515 27477 net.cpp:165] Memory required for data: 277685056
I0409 19:47:12.159521 27477 layer_factory.hpp:77] Creating layer conv20_1
I0409 19:47:12.159533 27477 net.cpp:100] Creating Layer conv20_1
I0409 19:47:12.159538 27477 net.cpp:434] conv20_1 <- conv19_2_conv19_2/relu_0_split_0
I0409 19:47:12.159545 27477 net.cpp:408] conv20_1 -> conv20_1
I0409 19:47:12.161119 27477 net.cpp:150] Setting up conv20_1
I0409 19:47:12.161136 27477 net.cpp:157] Top shape: 2 128 3 3 (2304)
I0409 19:47:12.161154 27477 net.cpp:165] Memory required for data: 277694272
I0409 19:47:12.161164 27477 layer_factory.hpp:77] Creating layer conv20_1/bn
I0409 19:47:12.161171 27477 net.cpp:100] Creating Layer conv20_1/bn
I0409 19:47:12.161177 27477 net.cpp:434] conv20_1/bn <- conv20_1
I0409 19:47:12.161185 27477 net.cpp:395] conv20_1/bn -> conv20_1 (in-place)
I0409 19:47:12.161373 27477 net.cpp:150] Setting up conv20_1/bn
I0409 19:47:12.161382 27477 net.cpp:157] Top shape: 2 128 3 3 (2304)
I0409 19:47:12.161399 27477 net.cpp:165] Memory required for data: 277703488
I0409 19:47:12.161407 27477 layer_factory.hpp:77] Creating layer conv20_1/scale
I0409 19:47:12.161417 27477 net.cpp:100] Creating Layer conv20_1/scale
I0409 19:47:12.161422 27477 net.cpp:434] conv20_1/scale <- conv20_1
I0409 19:47:12.161428 27477 net.cpp:395] conv20_1/scale -> conv20_1 (in-place)
I0409 19:47:12.161478 27477 layer_factory.hpp:77] Creating layer conv20_1/scale
I0409 19:47:12.161613 27477 net.cpp:150] Setting up conv20_1/scale
I0409 19:47:12.161628 27477 net.cpp:157] Top shape: 2 128 3 3 (2304)
I0409 19:47:12.161644 27477 net.cpp:165] Memory required for data: 277712704
I0409 19:47:12.161654 27477 layer_factory.hpp:77] Creating layer conv20_1/relu
I0409 19:47:12.161662 27477 net.cpp:100] Creating Layer conv20_1/relu
I0409 19:47:12.161669 27477 net.cpp:434] conv20_1/relu <- conv20_1
I0409 19:47:12.161676 27477 net.cpp:395] conv20_1/relu -> conv20_1 (in-place)
I0409 19:47:12.162195 27477 net.cpp:150] Setting up conv20_1/relu
I0409 19:47:12.162221 27477 net.cpp:157] Top shape: 2 128 3 3 (2304)
I0409 19:47:12.162228 27477 net.cpp:165] Memory required for data: 277721920
I0409 19:47:12.162235 27477 layer_factory.hpp:77] Creating layer conv20_2
I0409 19:47:12.162274 27477 net.cpp:100] Creating Layer conv20_2
I0409 19:47:12.162293 27477 net.cpp:434] conv20_2 <- conv20_1
I0409 19:47:12.162313 27477 net.cpp:408] conv20_2 -> conv20_2
I0409 19:47:12.166941 27477 net.cpp:150] Setting up conv20_2
I0409 19:47:12.166970 27477 net.cpp:157] Top shape: 2 256 2 2 (2048)
I0409 19:47:12.166972 27477 net.cpp:165] Memory required for data: 277730112
I0409 19:47:12.166992 27477 layer_factory.hpp:77] Creating layer conv20_2/bn
I0409 19:47:12.167012 27477 net.cpp:100] Creating Layer conv20_2/bn
I0409 19:47:12.167019 27477 net.cpp:434] conv20_2/bn <- conv20_2
I0409 19:47:12.167045 27477 net.cpp:395] conv20_2/bn -> conv20_2 (in-place)
I0409 19:47:12.167243 27477 net.cpp:150] Setting up conv20_2/bn
I0409 19:47:12.167250 27477 net.cpp:157] Top shape: 2 256 2 2 (2048)
I0409 19:47:12.167258 27477 net.cpp:165] Memory required for data: 277738304
I0409 19:47:12.167268 27477 layer_factory.hpp:77] Creating layer conv20_2/scale
I0409 19:47:12.167277 27477 net.cpp:100] Creating Layer conv20_2/scale
I0409 19:47:12.167282 27477 net.cpp:434] conv20_2/scale <- conv20_2
I0409 19:47:12.167289 27477 net.cpp:395] conv20_2/scale -> conv20_2 (in-place)
I0409 19:47:12.167325 27477 layer_factory.hpp:77] Creating layer conv20_2/scale
I0409 19:47:12.167408 27477 net.cpp:150] Setting up conv20_2/scale
I0409 19:47:12.167414 27477 net.cpp:157] Top shape: 2 256 2 2 (2048)
I0409 19:47:12.167418 27477 net.cpp:165] Memory required for data: 277746496
I0409 19:47:12.167423 27477 layer_factory.hpp:77] Creating layer conv20_2/relu
I0409 19:47:12.167426 27477 net.cpp:100] Creating Layer conv20_2/relu
I0409 19:47:12.167431 27477 net.cpp:434] conv20_2/relu <- conv20_2
I0409 19:47:12.167438 27477 net.cpp:395] conv20_2/relu -> conv20_2 (in-place)
I0409 19:47:12.167592 27477 net.cpp:150] Setting up conv20_2/relu
I0409 19:47:12.167601 27477 net.cpp:157] Top shape: 2 256 2 2 (2048)
I0409 19:47:12.167608 27477 net.cpp:165] Memory required for data: 277754688
I0409 19:47:12.167613 27477 layer_factory.hpp:77] Creating layer conv20_2_conv20_2/relu_0_split
I0409 19:47:12.167621 27477 net.cpp:100] Creating Layer conv20_2_conv20_2/relu_0_split
I0409 19:47:12.167626 27477 net.cpp:434] conv20_2_conv20_2/relu_0_split <- conv20_2
I0409 19:47:12.167634 27477 net.cpp:408] conv20_2_conv20_2/relu_0_split -> conv20_2_conv20_2/relu_0_split_0
I0409 19:47:12.167644 27477 net.cpp:408] conv20_2_conv20_2/relu_0_split -> conv20_2_conv20_2/relu_0_split_1
I0409 19:47:12.167655 27477 net.cpp:408] conv20_2_conv20_2/relu_0_split -> conv20_2_conv20_2/relu_0_split_2
I0409 19:47:12.167665 27477 net.cpp:408] conv20_2_conv20_2/relu_0_split -> conv20_2_conv20_2/relu_0_split_3
I0409 19:47:12.167721 27477 net.cpp:150] Setting up conv20_2_conv20_2/relu_0_split
I0409 19:47:12.167727 27477 net.cpp:157] Top shape: 2 256 2 2 (2048)
I0409 19:47:12.167734 27477 net.cpp:157] Top shape: 2 256 2 2 (2048)
I0409 19:47:12.167740 27477 net.cpp:157] Top shape: 2 256 2 2 (2048)
I0409 19:47:12.167747 27477 net.cpp:157] Top shape: 2 256 2 2 (2048)
I0409 19:47:12.167752 27477 net.cpp:165] Memory required for data: 277787456
I0409 19:47:12.167758 27477 layer_factory.hpp:77] Creating layer conv21_1
I0409 19:47:12.167768 27477 net.cpp:100] Creating Layer conv21_1
I0409 19:47:12.167773 27477 net.cpp:434] conv21_1 <- conv20_2_conv20_2/relu_0_split_0
I0409 19:47:12.167778 27477 net.cpp:408] conv21_1 -> conv21_1
I0409 19:47:12.169041 27477 net.cpp:150] Setting up conv21_1
I0409 19:47:12.169054 27477 net.cpp:157] Top shape: 2 64 2 2 (512)
I0409 19:47:12.169057 27477 net.cpp:165] Memory required for data: 277789504
I0409 19:47:12.169064 27477 layer_factory.hpp:77] Creating layer conv21_1/bn
I0409 19:47:12.169070 27477 net.cpp:100] Creating Layer conv21_1/bn
I0409 19:47:12.169075 27477 net.cpp:434] conv21_1/bn <- conv21_1
I0409 19:47:12.169080 27477 net.cpp:395] conv21_1/bn -> conv21_1 (in-place)
I0409 19:47:12.169262 27477 net.cpp:150] Setting up conv21_1/bn
I0409 19:47:12.169270 27477 net.cpp:157] Top shape: 2 64 2 2 (512)
I0409 19:47:12.169272 27477 net.cpp:165] Memory required for data: 277791552
I0409 19:47:12.169279 27477 layer_factory.hpp:77] Creating layer conv21_1/scale
I0409 19:47:12.169291 27477 net.cpp:100] Creating Layer conv21_1/scale
I0409 19:47:12.169296 27477 net.cpp:434] conv21_1/scale <- conv21_1
I0409 19:47:12.169301 27477 net.cpp:395] conv21_1/scale -> conv21_1 (in-place)
I0409 19:47:12.169338 27477 layer_factory.hpp:77] Creating layer conv21_1/scale
I0409 19:47:12.169435 27477 net.cpp:150] Setting up conv21_1/scale
I0409 19:47:12.169442 27477 net.cpp:157] Top shape: 2 64 2 2 (512)
I0409 19:47:12.169446 27477 net.cpp:165] Memory required for data: 277793600
I0409 19:47:12.169466 27477 layer_factory.hpp:77] Creating layer conv21_1/relu
I0409 19:47:12.169473 27477 net.cpp:100] Creating Layer conv21_1/relu
I0409 19:47:12.169479 27477 net.cpp:434] conv21_1/relu <- conv21_1
I0409 19:47:12.169486 27477 net.cpp:395] conv21_1/relu -> conv21_1 (in-place)
I0409 19:47:12.169863 27477 net.cpp:150] Setting up conv21_1/relu
I0409 19:47:12.169875 27477 net.cpp:157] Top shape: 2 64 2 2 (512)
I0409 19:47:12.169881 27477 net.cpp:165] Memory required for data: 277795648
I0409 19:47:12.169888 27477 layer_factory.hpp:77] Creating layer conv21_2
I0409 19:47:12.169898 27477 net.cpp:100] Creating Layer conv21_2
I0409 19:47:12.169903 27477 net.cpp:434] conv21_2 <- conv21_1
I0409 19:47:12.169919 27477 net.cpp:408] conv21_2 -> conv21_2
I0409 19:47:12.171607 27477 net.cpp:150] Setting up conv21_2
I0409 19:47:12.171619 27477 net.cpp:157] Top shape: 2 128 1 1 (256)
I0409 19:47:12.171627 27477 net.cpp:165] Memory required for data: 277796672
I0409 19:47:12.171634 27477 layer_factory.hpp:77] Creating layer conv21_2/bn
I0409 19:47:12.171641 27477 net.cpp:100] Creating Layer conv21_2/bn
I0409 19:47:12.171648 27477 net.cpp:434] conv21_2/bn <- conv21_2
I0409 19:47:12.171658 27477 net.cpp:395] conv21_2/bn -> conv21_2 (in-place)
I0409 19:47:12.171833 27477 net.cpp:150] Setting up conv21_2/bn
I0409 19:47:12.171841 27477 net.cpp:157] Top shape: 2 128 1 1 (256)
I0409 19:47:12.171846 27477 net.cpp:165] Memory required for data: 277797696
I0409 19:47:12.171855 27477 layer_factory.hpp:77] Creating layer conv21_2/scale
I0409 19:47:12.171862 27477 net.cpp:100] Creating Layer conv21_2/scale
I0409 19:47:12.171869 27477 net.cpp:434] conv21_2/scale <- conv21_2
I0409 19:47:12.171875 27477 net.cpp:395] conv21_2/scale -> conv21_2 (in-place)
I0409 19:47:12.171907 27477 layer_factory.hpp:77] Creating layer conv21_2/scale
I0409 19:47:12.171994 27477 net.cpp:150] Setting up conv21_2/scale
I0409 19:47:12.172003 27477 net.cpp:157] Top shape: 2 128 1 1 (256)
I0409 19:47:12.172008 27477 net.cpp:165] Memory required for data: 277798720
I0409 19:47:12.172016 27477 layer_factory.hpp:77] Creating layer conv21_2/relu
I0409 19:47:12.172022 27477 net.cpp:100] Creating Layer conv21_2/relu
I0409 19:47:12.172027 27477 net.cpp:434] conv21_2/relu <- conv21_2
I0409 19:47:12.172034 27477 net.cpp:395] conv21_2/relu -> conv21_2 (in-place)
I0409 19:47:12.172170 27477 net.cpp:150] Setting up conv21_2/relu
I0409 19:47:12.172179 27477 net.cpp:157] Top shape: 2 128 1 1 (256)
I0409 19:47:12.172185 27477 net.cpp:165] Memory required for data: 277799744
I0409 19:47:12.172191 27477 layer_factory.hpp:77] Creating layer conv21_2_conv21_2/relu_0_split
I0409 19:47:12.172199 27477 net.cpp:100] Creating Layer conv21_2_conv21_2/relu_0_split
I0409 19:47:12.172204 27477 net.cpp:434] conv21_2_conv21_2/relu_0_split <- conv21_2
I0409 19:47:12.172210 27477 net.cpp:408] conv21_2_conv21_2/relu_0_split -> conv21_2_conv21_2/relu_0_split_0
I0409 19:47:12.172219 27477 net.cpp:408] conv21_2_conv21_2/relu_0_split -> conv21_2_conv21_2/relu_0_split_1
I0409 19:47:12.172226 27477 net.cpp:408] conv21_2_conv21_2/relu_0_split -> conv21_2_conv21_2/relu_0_split_2
I0409 19:47:12.172299 27477 net.cpp:150] Setting up conv21_2_conv21_2/relu_0_split
I0409 19:47:12.172305 27477 net.cpp:157] Top shape: 2 128 1 1 (256)
I0409 19:47:12.172319 27477 net.cpp:157] Top shape: 2 128 1 1 (256)
I0409 19:47:12.172323 27477 net.cpp:157] Top shape: 2 128 1 1 (256)
I0409 19:47:12.172327 27477 net.cpp:165] Memory required for data: 277802816
I0409 19:47:12.172329 27477 layer_factory.hpp:77] Creating layer conv13_mbox_loc
I0409 19:47:12.172344 27477 net.cpp:100] Creating Layer conv13_mbox_loc
I0409 19:47:12.172359 27477 net.cpp:434] conv13_mbox_loc <- conv13_conv13/relu_0_split_2
I0409 19:47:12.172364 27477 net.cpp:408] conv13_mbox_loc -> conv13_mbox_loc
I0409 19:47:12.173738 27477 net.cpp:150] Setting up conv13_mbox_loc
I0409 19:47:12.173749 27477 net.cpp:157] Top shape: 2 12 19 19 (8664)
I0409 19:47:12.173753 27477 net.cpp:165] Memory required for data: 277837472
I0409 19:47:12.173758 27477 layer_factory.hpp:77] Creating layer conv13_mbox_loc_perm
I0409 19:47:12.173777 27477 net.cpp:100] Creating Layer conv13_mbox_loc_perm
I0409 19:47:12.173781 27477 net.cpp:434] conv13_mbox_loc_perm <- conv13_mbox_loc
I0409 19:47:12.173787 27477 net.cpp:408] conv13_mbox_loc_perm -> conv13_mbox_loc_perm
I0409 19:47:12.173876 27477 net.cpp:150] Setting up conv13_mbox_loc_perm
I0409 19:47:12.173882 27477 net.cpp:157] Top shape: 2 19 19 12 (8664)
I0409 19:47:12.173885 27477 net.cpp:165] Memory required for data: 277872128
I0409 19:47:12.173889 27477 layer_factory.hpp:77] Creating layer conv13_mbox_loc_flat
I0409 19:47:12.173895 27477 net.cpp:100] Creating Layer conv13_mbox_loc_flat
I0409 19:47:12.173900 27477 net.cpp:434] conv13_mbox_loc_flat <- conv13_mbox_loc_perm
I0409 19:47:12.173905 27477 net.cpp:408] conv13_mbox_loc_flat -> conv13_mbox_loc_flat
I0409 19:47:12.173924 27477 net.cpp:150] Setting up conv13_mbox_loc_flat
I0409 19:47:12.173930 27477 net.cpp:157] Top shape: 2 4332 (8664)
I0409 19:47:12.173933 27477 net.cpp:165] Memory required for data: 277906784
I0409 19:47:12.173938 27477 layer_factory.hpp:77] Creating layer conv13_mbox_conf
I0409 19:47:12.173944 27477 net.cpp:100] Creating Layer conv13_mbox_conf
I0409 19:47:12.173949 27477 net.cpp:434] conv13_mbox_conf <- conv13_conv13/relu_0_split_3
I0409 19:47:12.173954 27477 net.cpp:408] conv13_mbox_conf -> conv13_mbox_conf
I0409 19:47:12.175154 27477 net.cpp:150] Setting up conv13_mbox_conf
I0409 19:47:12.175168 27477 net.cpp:157] Top shape: 2 21 19 19 (15162)
I0409 19:47:12.175171 27477 net.cpp:165] Memory required for data: 277967432
I0409 19:47:12.175177 27477 layer_factory.hpp:77] Creating layer conv13_mbox_conf_perm
I0409 19:47:12.175184 27477 net.cpp:100] Creating Layer conv13_mbox_conf_perm
I0409 19:47:12.175189 27477 net.cpp:434] conv13_mbox_conf_perm <- conv13_mbox_conf
I0409 19:47:12.175194 27477 net.cpp:408] conv13_mbox_conf_perm -> conv13_mbox_conf_perm
I0409 19:47:12.175289 27477 net.cpp:150] Setting up conv13_mbox_conf_perm
I0409 19:47:12.175297 27477 net.cpp:157] Top shape: 2 19 19 21 (15162)
I0409 19:47:12.175299 27477 net.cpp:165] Memory required for data: 278028080
I0409 19:47:12.175305 27477 layer_factory.hpp:77] Creating layer conv13_mbox_conf_flat
I0409 19:47:12.175312 27477 net.cpp:100] Creating Layer conv13_mbox_conf_flat
I0409 19:47:12.175318 27477 net.cpp:434] conv13_mbox_conf_flat <- conv13_mbox_conf_perm
I0409 19:47:12.175323 27477 net.cpp:408] conv13_mbox_conf_flat -> conv13_mbox_conf_flat
I0409 19:47:12.175343 27477 net.cpp:150] Setting up conv13_mbox_conf_flat
I0409 19:47:12.175349 27477 net.cpp:157] Top shape: 2 7581 (15162)
I0409 19:47:12.175353 27477 net.cpp:165] Memory required for data: 278088728
I0409 19:47:12.175356 27477 layer_factory.hpp:77] Creating layer conv13_mbox_priorbox
I0409 19:47:12.175364 27477 net.cpp:100] Creating Layer conv13_mbox_priorbox
I0409 19:47:12.175367 27477 net.cpp:434] conv13_mbox_priorbox <- conv13_conv13/relu_0_split_4
I0409 19:47:12.175374 27477 net.cpp:434] conv13_mbox_priorbox <- data_data_0_split_1
I0409 19:47:12.175379 27477 net.cpp:408] conv13_mbox_priorbox -> conv13_mbox_priorbox
I0409 19:47:12.175400 27477 net.cpp:150] Setting up conv13_mbox_priorbox
I0409 19:47:12.175405 27477 net.cpp:157] Top shape: 1 2 4332 (8664)
I0409 19:47:12.175408 27477 net.cpp:165] Memory required for data: 278123384
I0409 19:47:12.175412 27477 layer_factory.hpp:77] Creating layer conv17_mbox_loc
I0409 19:47:12.175420 27477 net.cpp:100] Creating Layer conv17_mbox_loc
I0409 19:47:12.175424 27477 net.cpp:434] conv17_mbox_loc <- conv17_conv17/relu_0_split_1
I0409 19:47:12.175431 27477 net.cpp:408] conv17_mbox_loc -> conv17_mbox_loc
I0409 19:47:12.176762 27477 net.cpp:150] Setting up conv17_mbox_loc
I0409 19:47:12.176774 27477 net.cpp:157] Top shape: 2 24 10 10 (4800)
I0409 19:47:12.176779 27477 net.cpp:165] Memory required for data: 278142584
I0409 19:47:12.176785 27477 layer_factory.hpp:77] Creating layer conv17_mbox_loc_perm
I0409 19:47:12.176792 27477 net.cpp:100] Creating Layer conv17_mbox_loc_perm
I0409 19:47:12.176796 27477 net.cpp:434] conv17_mbox_loc_perm <- conv17_mbox_loc
I0409 19:47:12.176811 27477 net.cpp:408] conv17_mbox_loc_perm -> conv17_mbox_loc_perm
I0409 19:47:12.176908 27477 net.cpp:150] Setting up conv17_mbox_loc_perm
I0409 19:47:12.176915 27477 net.cpp:157] Top shape: 2 10 10 24 (4800)
I0409 19:47:12.176919 27477 net.cpp:165] Memory required for data: 278161784
I0409 19:47:12.176923 27477 layer_factory.hpp:77] Creating layer conv17_mbox_loc_flat
I0409 19:47:12.176928 27477 net.cpp:100] Creating Layer conv17_mbox_loc_flat
I0409 19:47:12.176933 27477 net.cpp:434] conv17_mbox_loc_flat <- conv17_mbox_loc_perm
I0409 19:47:12.176937 27477 net.cpp:408] conv17_mbox_loc_flat -> conv17_mbox_loc_flat
I0409 19:47:12.176956 27477 net.cpp:150] Setting up conv17_mbox_loc_flat
I0409 19:47:12.176962 27477 net.cpp:157] Top shape: 2 2400 (4800)
I0409 19:47:12.176965 27477 net.cpp:165] Memory required for data: 278180984
I0409 19:47:12.176970 27477 layer_factory.hpp:77] Creating layer conv17_mbox_conf
I0409 19:47:12.176976 27477 net.cpp:100] Creating Layer conv17_mbox_conf
I0409 19:47:12.176980 27477 net.cpp:434] conv17_mbox_conf <- conv17_conv17/relu_0_split_2
I0409 19:47:12.176986 27477 net.cpp:408] conv17_mbox_conf -> conv17_mbox_conf
I0409 19:47:12.178452 27477 net.cpp:150] Setting up conv17_mbox_conf
I0409 19:47:12.178463 27477 net.cpp:157] Top shape: 2 42 10 10 (8400)
I0409 19:47:12.178467 27477 net.cpp:165] Memory required for data: 278214584
I0409 19:47:12.178473 27477 layer_factory.hpp:77] Creating layer conv17_mbox_conf_perm
I0409 19:47:12.178479 27477 net.cpp:100] Creating Layer conv17_mbox_conf_perm
I0409 19:47:12.178485 27477 net.cpp:434] conv17_mbox_conf_perm <- conv17_mbox_conf
I0409 19:47:12.178490 27477 net.cpp:408] conv17_mbox_conf_perm -> conv17_mbox_conf_perm
I0409 19:47:12.178582 27477 net.cpp:150] Setting up conv17_mbox_conf_perm
I0409 19:47:12.178589 27477 net.cpp:157] Top shape: 2 10 10 42 (8400)
I0409 19:47:12.178592 27477 net.cpp:165] Memory required for data: 278248184
I0409 19:47:12.178596 27477 layer_factory.hpp:77] Creating layer conv17_mbox_conf_flat
I0409 19:47:12.178601 27477 net.cpp:100] Creating Layer conv17_mbox_conf_flat
I0409 19:47:12.178606 27477 net.cpp:434] conv17_mbox_conf_flat <- conv17_mbox_conf_perm
I0409 19:47:12.178611 27477 net.cpp:408] conv17_mbox_conf_flat -> conv17_mbox_conf_flat
I0409 19:47:12.178632 27477 net.cpp:150] Setting up conv17_mbox_conf_flat
I0409 19:47:12.178638 27477 net.cpp:157] Top shape: 2 4200 (8400)
I0409 19:47:12.178642 27477 net.cpp:165] Memory required for data: 278281784
I0409 19:47:12.178645 27477 layer_factory.hpp:77] Creating layer conv17_mbox_priorbox
I0409 19:47:12.178652 27477 net.cpp:100] Creating Layer conv17_mbox_priorbox
I0409 19:47:12.178655 27477 net.cpp:434] conv17_mbox_priorbox <- conv17_conv17/relu_0_split_3
I0409 19:47:12.178661 27477 net.cpp:434] conv17_mbox_priorbox <- data_data_0_split_2
I0409 19:47:12.178666 27477 net.cpp:408] conv17_mbox_priorbox -> conv17_mbox_priorbox
I0409 19:47:12.178690 27477 net.cpp:150] Setting up conv17_mbox_priorbox
I0409 19:47:12.178695 27477 net.cpp:157] Top shape: 1 2 2400 (4800)
I0409 19:47:12.178699 27477 net.cpp:165] Memory required for data: 278300984
I0409 19:47:12.178704 27477 layer_factory.hpp:77] Creating layer conv18_2_mbox_loc
I0409 19:47:12.178710 27477 net.cpp:100] Creating Layer conv18_2_mbox_loc
I0409 19:47:12.178715 27477 net.cpp:434] conv18_2_mbox_loc <- conv18_2_conv18_2/relu_0_split_1
I0409 19:47:12.178721 27477 net.cpp:408] conv18_2_mbox_loc -> conv18_2_mbox_loc
I0409 19:47:12.179978 27477 net.cpp:150] Setting up conv18_2_mbox_loc
I0409 19:47:12.179991 27477 net.cpp:157] Top shape: 2 24 5 5 (1200)
I0409 19:47:12.179994 27477 net.cpp:165] Memory required for data: 278305784
I0409 19:47:12.180001 27477 layer_factory.hpp:77] Creating layer conv18_2_mbox_loc_perm
I0409 19:47:12.180007 27477 net.cpp:100] Creating Layer conv18_2_mbox_loc_perm
I0409 19:47:12.180012 27477 net.cpp:434] conv18_2_mbox_loc_perm <- conv18_2_mbox_loc
I0409 19:47:12.180017 27477 net.cpp:408] conv18_2_mbox_loc_perm -> conv18_2_mbox_loc_perm
I0409 19:47:12.180114 27477 net.cpp:150] Setting up conv18_2_mbox_loc_perm
I0409 19:47:12.180121 27477 net.cpp:157] Top shape: 2 5 5 24 (1200)
I0409 19:47:12.180124 27477 net.cpp:165] Memory required for data: 278310584
I0409 19:47:12.180127 27477 layer_factory.hpp:77] Creating layer conv18_2_mbox_loc_flat
I0409 19:47:12.180133 27477 net.cpp:100] Creating Layer conv18_2_mbox_loc_flat
I0409 19:47:12.180137 27477 net.cpp:434] conv18_2_mbox_loc_flat <- conv18_2_mbox_loc_perm
I0409 19:47:12.180142 27477 net.cpp:408] conv18_2_mbox_loc_flat -> conv18_2_mbox_loc_flat
I0409 19:47:12.180168 27477 net.cpp:150] Setting up conv18_2_mbox_loc_flat
I0409 19:47:12.180174 27477 net.cpp:157] Top shape: 2 600 (1200)
I0409 19:47:12.180177 27477 net.cpp:165] Memory required for data: 278315384
I0409 19:47:12.180181 27477 layer_factory.hpp:77] Creating layer conv18_2_mbox_conf
I0409 19:47:12.180189 27477 net.cpp:100] Creating Layer conv18_2_mbox_conf
I0409 19:47:12.180193 27477 net.cpp:434] conv18_2_mbox_conf <- conv18_2_conv18_2/relu_0_split_2
I0409 19:47:12.180199 27477 net.cpp:408] conv18_2_mbox_conf -> conv18_2_mbox_conf
I0409 19:47:12.181486 27477 net.cpp:150] Setting up conv18_2_mbox_conf
I0409 19:47:12.181499 27477 net.cpp:157] Top shape: 2 42 5 5 (2100)
I0409 19:47:12.181502 27477 net.cpp:165] Memory required for data: 278323784
I0409 19:47:12.181509 27477 layer_factory.hpp:77] Creating layer conv18_2_mbox_conf_perm
I0409 19:47:12.181515 27477 net.cpp:100] Creating Layer conv18_2_mbox_conf_perm
I0409 19:47:12.181520 27477 net.cpp:434] conv18_2_mbox_conf_perm <- conv18_2_mbox_conf
I0409 19:47:12.181526 27477 net.cpp:408] conv18_2_mbox_conf_perm -> conv18_2_mbox_conf_perm
I0409 19:47:12.181610 27477 net.cpp:150] Setting up conv18_2_mbox_conf_perm
I0409 19:47:12.181617 27477 net.cpp:157] Top shape: 2 5 5 42 (2100)
I0409 19:47:12.181619 27477 net.cpp:165] Memory required for data: 278332184
I0409 19:47:12.181623 27477 layer_factory.hpp:77] Creating layer conv18_2_mbox_conf_flat
I0409 19:47:12.181629 27477 net.cpp:100] Creating Layer conv18_2_mbox_conf_flat
I0409 19:47:12.181633 27477 net.cpp:434] conv18_2_mbox_conf_flat <- conv18_2_mbox_conf_perm
I0409 19:47:12.181639 27477 net.cpp:408] conv18_2_mbox_conf_flat -> conv18_2_mbox_conf_flat
I0409 19:47:12.181665 27477 net.cpp:150] Setting up conv18_2_mbox_conf_flat
I0409 19:47:12.181671 27477 net.cpp:157] Top shape: 2 1050 (2100)
I0409 19:47:12.181674 27477 net.cpp:165] Memory required for data: 278340584
I0409 19:47:12.181679 27477 layer_factory.hpp:77] Creating layer conv18_2_mbox_priorbox
I0409 19:47:12.181684 27477 net.cpp:100] Creating Layer conv18_2_mbox_priorbox
I0409 19:47:12.181689 27477 net.cpp:434] conv18_2_mbox_priorbox <- conv18_2_conv18_2/relu_0_split_3
I0409 19:47:12.181694 27477 net.cpp:434] conv18_2_mbox_priorbox <- data_data_0_split_3
I0409 19:47:12.181706 27477 net.cpp:408] conv18_2_mbox_priorbox -> conv18_2_mbox_priorbox
I0409 19:47:12.181735 27477 net.cpp:150] Setting up conv18_2_mbox_priorbox
I0409 19:47:12.181741 27477 net.cpp:157] Top shape: 1 2 600 (1200)
I0409 19:47:12.181744 27477 net.cpp:165] Memory required for data: 278345384
I0409 19:47:12.181748 27477 layer_factory.hpp:77] Creating layer conv19_2_mbox_loc
I0409 19:47:12.181756 27477 net.cpp:100] Creating Layer conv19_2_mbox_loc
I0409 19:47:12.181761 27477 net.cpp:434] conv19_2_mbox_loc <- conv19_2_conv19_2/relu_0_split_1
I0409 19:47:12.181766 27477 net.cpp:408] conv19_2_mbox_loc -> conv19_2_mbox_loc
I0409 19:47:12.182919 27477 net.cpp:150] Setting up conv19_2_mbox_loc
I0409 19:47:12.182930 27477 net.cpp:157] Top shape: 2 24 3 3 (432)
I0409 19:47:12.182934 27477 net.cpp:165] Memory required for data: 278347112
I0409 19:47:12.182941 27477 layer_factory.hpp:77] Creating layer conv19_2_mbox_loc_perm
I0409 19:47:12.182948 27477 net.cpp:100] Creating Layer conv19_2_mbox_loc_perm
I0409 19:47:12.182953 27477 net.cpp:434] conv19_2_mbox_loc_perm <- conv19_2_mbox_loc
I0409 19:47:12.182960 27477 net.cpp:408] conv19_2_mbox_loc_perm -> conv19_2_mbox_loc_perm
I0409 19:47:12.183050 27477 net.cpp:150] Setting up conv19_2_mbox_loc_perm
I0409 19:47:12.183066 27477 net.cpp:157] Top shape: 2 3 3 24 (432)
I0409 19:47:12.183070 27477 net.cpp:165] Memory required for data: 278348840
I0409 19:47:12.183074 27477 layer_factory.hpp:77] Creating layer conv19_2_mbox_loc_flat
I0409 19:47:12.183080 27477 net.cpp:100] Creating Layer conv19_2_mbox_loc_flat
I0409 19:47:12.183084 27477 net.cpp:434] conv19_2_mbox_loc_flat <- conv19_2_mbox_loc_perm
I0409 19:47:12.183090 27477 net.cpp:408] conv19_2_mbox_loc_flat -> conv19_2_mbox_loc_flat
I0409 19:47:12.183111 27477 net.cpp:150] Setting up conv19_2_mbox_loc_flat
I0409 19:47:12.183117 27477 net.cpp:157] Top shape: 2 216 (432)
I0409 19:47:12.183120 27477 net.cpp:165] Memory required for data: 278350568
I0409 19:47:12.183125 27477 layer_factory.hpp:77] Creating layer conv19_2_mbox_conf
I0409 19:47:12.183131 27477 net.cpp:100] Creating Layer conv19_2_mbox_conf
I0409 19:47:12.183136 27477 net.cpp:434] conv19_2_mbox_conf <- conv19_2_conv19_2/relu_0_split_2
I0409 19:47:12.183141 27477 net.cpp:408] conv19_2_mbox_conf -> conv19_2_mbox_conf
I0409 19:47:12.184358 27477 net.cpp:150] Setting up conv19_2_mbox_conf
I0409 19:47:12.184370 27477 net.cpp:157] Top shape: 2 42 3 3 (756)
I0409 19:47:12.184375 27477 net.cpp:165] Memory required for data: 278353592
I0409 19:47:12.184381 27477 layer_factory.hpp:77] Creating layer conv19_2_mbox_conf_perm
I0409 19:47:12.184387 27477 net.cpp:100] Creating Layer conv19_2_mbox_conf_perm
I0409 19:47:12.184392 27477 net.cpp:434] conv19_2_mbox_conf_perm <- conv19_2_mbox_conf
I0409 19:47:12.184398 27477 net.cpp:408] conv19_2_mbox_conf_perm -> conv19_2_mbox_conf_perm
I0409 19:47:12.184490 27477 net.cpp:150] Setting up conv19_2_mbox_conf_perm
I0409 19:47:12.184497 27477 net.cpp:157] Top shape: 2 3 3 42 (756)
I0409 19:47:12.184500 27477 net.cpp:165] Memory required for data: 278356616
I0409 19:47:12.184504 27477 layer_factory.hpp:77] Creating layer conv19_2_mbox_conf_flat
I0409 19:47:12.184510 27477 net.cpp:100] Creating Layer conv19_2_mbox_conf_flat
I0409 19:47:12.184514 27477 net.cpp:434] conv19_2_mbox_conf_flat <- conv19_2_mbox_conf_perm
I0409 19:47:12.184520 27477 net.cpp:408] conv19_2_mbox_conf_flat -> conv19_2_mbox_conf_flat
I0409 19:47:12.184540 27477 net.cpp:150] Setting up conv19_2_mbox_conf_flat
I0409 19:47:12.184545 27477 net.cpp:157] Top shape: 2 378 (756)
I0409 19:47:12.184548 27477 net.cpp:165] Memory required for data: 278359640
I0409 19:47:12.184552 27477 layer_factory.hpp:77] Creating layer conv19_2_mbox_priorbox
I0409 19:47:12.184566 27477 net.cpp:100] Creating Layer conv19_2_mbox_priorbox
I0409 19:47:12.184571 27477 net.cpp:434] conv19_2_mbox_priorbox <- conv19_2_conv19_2/relu_0_split_3
I0409 19:47:12.184576 27477 net.cpp:434] conv19_2_mbox_priorbox <- data_data_0_split_4
I0409 19:47:12.184581 27477 net.cpp:408] conv19_2_mbox_priorbox -> conv19_2_mbox_priorbox
I0409 19:47:12.184602 27477 net.cpp:150] Setting up conv19_2_mbox_priorbox
I0409 19:47:12.184607 27477 net.cpp:157] Top shape: 1 2 216 (432)
I0409 19:47:12.184610 27477 net.cpp:165] Memory required for data: 278361368
I0409 19:47:12.184614 27477 layer_factory.hpp:77] Creating layer conv20_2_mbox_loc
I0409 19:47:12.184622 27477 net.cpp:100] Creating Layer conv20_2_mbox_loc
I0409 19:47:12.184625 27477 net.cpp:434] conv20_2_mbox_loc <- conv20_2_conv20_2/relu_0_split_1
I0409 19:47:12.184631 27477 net.cpp:408] conv20_2_mbox_loc -> conv20_2_mbox_loc
I0409 19:47:12.186278 27477 net.cpp:150] Setting up conv20_2_mbox_loc
I0409 19:47:12.186291 27477 net.cpp:157] Top shape: 2 24 2 2 (192)
I0409 19:47:12.186295 27477 net.cpp:165] Memory required for data: 278362136
I0409 19:47:12.186303 27477 layer_factory.hpp:77] Creating layer conv20_2_mbox_loc_perm
I0409 19:47:12.186309 27477 net.cpp:100] Creating Layer conv20_2_mbox_loc_perm
I0409 19:47:12.186314 27477 net.cpp:434] conv20_2_mbox_loc_perm <- conv20_2_mbox_loc
I0409 19:47:12.186321 27477 net.cpp:408] conv20_2_mbox_loc_perm -> conv20_2_mbox_loc_perm
I0409 19:47:12.186410 27477 net.cpp:150] Setting up conv20_2_mbox_loc_perm
I0409 19:47:12.186417 27477 net.cpp:157] Top shape: 2 2 2 24 (192)
I0409 19:47:12.186430 27477 net.cpp:165] Memory required for data: 278362904
I0409 19:47:12.186435 27477 layer_factory.hpp:77] Creating layer conv20_2_mbox_loc_flat
I0409 19:47:12.186440 27477 net.cpp:100] Creating Layer conv20_2_mbox_loc_flat
I0409 19:47:12.186445 27477 net.cpp:434] conv20_2_mbox_loc_flat <- conv20_2_mbox_loc_perm
I0409 19:47:12.186450 27477 net.cpp:408] conv20_2_mbox_loc_flat -> conv20_2_mbox_loc_flat
I0409 19:47:12.186473 27477 net.cpp:150] Setting up conv20_2_mbox_loc_flat
I0409 19:47:12.186480 27477 net.cpp:157] Top shape: 2 96 (192)
I0409 19:47:12.186483 27477 net.cpp:165] Memory required for data: 278363672
I0409 19:47:12.186487 27477 layer_factory.hpp:77] Creating layer conv20_2_mbox_conf
I0409 19:47:12.186501 27477 net.cpp:100] Creating Layer conv20_2_mbox_conf
I0409 19:47:12.186506 27477 net.cpp:434] conv20_2_mbox_conf <- conv20_2_conv20_2/relu_0_split_2
I0409 19:47:12.186511 27477 net.cpp:408] conv20_2_mbox_conf -> conv20_2_mbox_conf
I0409 19:47:12.187782 27477 net.cpp:150] Setting up conv20_2_mbox_conf
I0409 19:47:12.187793 27477 net.cpp:157] Top shape: 2 42 2 2 (336)
I0409 19:47:12.187796 27477 net.cpp:165] Memory required for data: 278365016
I0409 19:47:12.187803 27477 layer_factory.hpp:77] Creating layer conv20_2_mbox_conf_perm
I0409 19:47:12.187810 27477 net.cpp:100] Creating Layer conv20_2_mbox_conf_perm
I0409 19:47:12.187814 27477 net.cpp:434] conv20_2_mbox_conf_perm <- conv20_2_mbox_conf
I0409 19:47:12.187820 27477 net.cpp:408] conv20_2_mbox_conf_perm -> conv20_2_mbox_conf_perm
I0409 19:47:12.187907 27477 net.cpp:150] Setting up conv20_2_mbox_conf_perm
I0409 19:47:12.187913 27477 net.cpp:157] Top shape: 2 2 2 42 (336)
I0409 19:47:12.187916 27477 net.cpp:165] Memory required for data: 278366360
I0409 19:47:12.187919 27477 layer_factory.hpp:77] Creating layer conv20_2_mbox_conf_flat
I0409 19:47:12.187923 27477 net.cpp:100] Creating Layer conv20_2_mbox_conf_flat
I0409 19:47:12.187928 27477 net.cpp:434] conv20_2_mbox_conf_flat <- conv20_2_mbox_conf_perm
I0409 19:47:12.187933 27477 net.cpp:408] conv20_2_mbox_conf_flat -> conv20_2_mbox_conf_flat
I0409 19:47:12.187952 27477 net.cpp:150] Setting up conv20_2_mbox_conf_flat
I0409 19:47:12.187958 27477 net.cpp:157] Top shape: 2 168 (336)
I0409 19:47:12.187960 27477 net.cpp:165] Memory required for data: 278367704
I0409 19:47:12.187964 27477 layer_factory.hpp:77] Creating layer conv20_2_mbox_priorbox
I0409 19:47:12.187969 27477 net.cpp:100] Creating Layer conv20_2_mbox_priorbox
I0409 19:47:12.187974 27477 net.cpp:434] conv20_2_mbox_priorbox <- conv20_2_conv20_2/relu_0_split_3
I0409 19:47:12.187979 27477 net.cpp:434] conv20_2_mbox_priorbox <- data_data_0_split_5
I0409 19:47:12.187984 27477 net.cpp:408] conv20_2_mbox_priorbox -> conv20_2_mbox_priorbox
I0409 19:47:12.188005 27477 net.cpp:150] Setting up conv20_2_mbox_priorbox
I0409 19:47:12.188010 27477 net.cpp:157] Top shape: 1 2 96 (192)
I0409 19:47:12.188014 27477 net.cpp:165] Memory required for data: 278368472
I0409 19:47:12.188019 27477 layer_factory.hpp:77] Creating layer conv21_2_mbox_loc
I0409 19:47:12.188025 27477 net.cpp:100] Creating Layer conv21_2_mbox_loc
I0409 19:47:12.188030 27477 net.cpp:434] conv21_2_mbox_loc <- conv21_2_conv21_2/relu_0_split_0
I0409 19:47:12.188035 27477 net.cpp:408] conv21_2_mbox_loc -> conv21_2_mbox_loc
I0409 19:47:12.189249 27477 net.cpp:150] Setting up conv21_2_mbox_loc
I0409 19:47:12.189260 27477 net.cpp:157] Top shape: 2 24 1 1 (48)
I0409 19:47:12.189265 27477 net.cpp:165] Memory required for data: 278368664
I0409 19:47:12.189270 27477 layer_factory.hpp:77] Creating layer conv21_2_mbox_loc_perm
I0409 19:47:12.189277 27477 net.cpp:100] Creating Layer conv21_2_mbox_loc_perm
I0409 19:47:12.189282 27477 net.cpp:434] conv21_2_mbox_loc_perm <- conv21_2_mbox_loc
I0409 19:47:12.189288 27477 net.cpp:408] conv21_2_mbox_loc_perm -> conv21_2_mbox_loc_perm
I0409 19:47:12.189380 27477 net.cpp:150] Setting up conv21_2_mbox_loc_perm
I0409 19:47:12.189386 27477 net.cpp:157] Top shape: 2 1 1 24 (48)
I0409 19:47:12.189390 27477 net.cpp:165] Memory required for data: 278368856
I0409 19:47:12.189404 27477 layer_factory.hpp:77] Creating layer conv21_2_mbox_loc_flat
I0409 19:47:12.189409 27477 net.cpp:100] Creating Layer conv21_2_mbox_loc_flat
I0409 19:47:12.189414 27477 net.cpp:434] conv21_2_mbox_loc_flat <- conv21_2_mbox_loc_perm
I0409 19:47:12.189419 27477 net.cpp:408] conv21_2_mbox_loc_flat -> conv21_2_mbox_loc_flat
I0409 19:47:12.189440 27477 net.cpp:150] Setting up conv21_2_mbox_loc_flat
I0409 19:47:12.189445 27477 net.cpp:157] Top shape: 2 24 (48)
I0409 19:47:12.189448 27477 net.cpp:165] Memory required for data: 278369048
I0409 19:47:12.189452 27477 layer_factory.hpp:77] Creating layer conv21_2_mbox_conf
I0409 19:47:12.189466 27477 net.cpp:100] Creating Layer conv21_2_mbox_conf
I0409 19:47:12.189471 27477 net.cpp:434] conv21_2_mbox_conf <- conv21_2_conv21_2/relu_0_split_1
I0409 19:47:12.189477 27477 net.cpp:408] conv21_2_mbox_conf -> conv21_2_mbox_conf
I0409 19:47:12.190825 27477 net.cpp:150] Setting up conv21_2_mbox_conf
I0409 19:47:12.190837 27477 net.cpp:157] Top shape: 2 42 1 1 (84)
I0409 19:47:12.190841 27477 net.cpp:165] Memory required for data: 278369384
I0409 19:47:12.190847 27477 layer_factory.hpp:77] Creating layer conv21_2_mbox_conf_perm
I0409 19:47:12.190855 27477 net.cpp:100] Creating Layer conv21_2_mbox_conf_perm
I0409 19:47:12.190860 27477 net.cpp:434] conv21_2_mbox_conf_perm <- conv21_2_mbox_conf
I0409 19:47:12.190865 27477 net.cpp:408] conv21_2_mbox_conf_perm -> conv21_2_mbox_conf_perm
I0409 19:47:12.190959 27477 net.cpp:150] Setting up conv21_2_mbox_conf_perm
I0409 19:47:12.190966 27477 net.cpp:157] Top shape: 2 1 1 42 (84)
I0409 19:47:12.190969 27477 net.cpp:165] Memory required for data: 278369720
I0409 19:47:12.190973 27477 layer_factory.hpp:77] Creating layer conv21_2_mbox_conf_flat
I0409 19:47:12.190979 27477 net.cpp:100] Creating Layer conv21_2_mbox_conf_flat
I0409 19:47:12.190984 27477 net.cpp:434] conv21_2_mbox_conf_flat <- conv21_2_mbox_conf_perm
I0409 19:47:12.190989 27477 net.cpp:408] conv21_2_mbox_conf_flat -> conv21_2_mbox_conf_flat
I0409 19:47:12.191009 27477 net.cpp:150] Setting up conv21_2_mbox_conf_flat
I0409 19:47:12.191015 27477 net.cpp:157] Top shape: 2 42 (84)
I0409 19:47:12.191017 27477 net.cpp:165] Memory required for data: 278370056
I0409 19:47:12.191021 27477 layer_factory.hpp:77] Creating layer conv21_2_mbox_priorbox
I0409 19:47:12.191027 27477 net.cpp:100] Creating Layer conv21_2_mbox_priorbox
I0409 19:47:12.191031 27477 net.cpp:434] conv21_2_mbox_priorbox <- conv21_2_conv21_2/relu_0_split_2
I0409 19:47:12.191036 27477 net.cpp:434] conv21_2_mbox_priorbox <- data_data_0_split_6
I0409 19:47:12.191041 27477 net.cpp:408] conv21_2_mbox_priorbox -> conv21_2_mbox_priorbox
I0409 19:47:12.191064 27477 net.cpp:150] Setting up conv21_2_mbox_priorbox
I0409 19:47:12.191071 27477 net.cpp:157] Top shape: 1 2 24 (48)
I0409 19:47:12.191074 27477 net.cpp:165] Memory required for data: 278370248
I0409 19:47:12.191078 27477 layer_factory.hpp:77] Creating layer mbox_loc
I0409 19:47:12.191084 27477 net.cpp:100] Creating Layer mbox_loc
I0409 19:47:12.191089 27477 net.cpp:434] mbox_loc <- conv13_mbox_loc_flat
I0409 19:47:12.191094 27477 net.cpp:434] mbox_loc <- conv17_mbox_loc_flat
I0409 19:47:12.191100 27477 net.cpp:434] mbox_loc <- conv18_2_mbox_loc_flat
I0409 19:47:12.191104 27477 net.cpp:434] mbox_loc <- conv19_2_mbox_loc_flat
I0409 19:47:12.191109 27477 net.cpp:434] mbox_loc <- conv20_2_mbox_loc_flat
I0409 19:47:12.191113 27477 net.cpp:434] mbox_loc <- conv21_2_mbox_loc_flat
I0409 19:47:12.191118 27477 net.cpp:408] mbox_loc -> mbox_loc
I0409 19:47:12.191141 27477 net.cpp:150] Setting up mbox_loc
I0409 19:47:12.191148 27477 net.cpp:157] Top shape: 2 7668 (15336)
I0409 19:47:12.191150 27477 net.cpp:165] Memory required for data: 278431592
I0409 19:47:12.191154 27477 layer_factory.hpp:77] Creating layer mbox_conf
I0409 19:47:12.191166 27477 net.cpp:100] Creating Layer mbox_conf
I0409 19:47:12.191172 27477 net.cpp:434] mbox_conf <- conv13_mbox_conf_flat
I0409 19:47:12.191176 27477 net.cpp:434] mbox_conf <- conv17_mbox_conf_flat
I0409 19:47:12.191181 27477 net.cpp:434] mbox_conf <- conv18_2_mbox_conf_flat
I0409 19:47:12.191195 27477 net.cpp:434] mbox_conf <- conv19_2_mbox_conf_flat
I0409 19:47:12.191200 27477 net.cpp:434] mbox_conf <- conv20_2_mbox_conf_flat
I0409 19:47:12.191203 27477 net.cpp:434] mbox_conf <- conv21_2_mbox_conf_flat
I0409 19:47:12.191208 27477 net.cpp:408] mbox_conf -> mbox_conf
I0409 19:47:12.191231 27477 net.cpp:150] Setting up mbox_conf
I0409 19:47:12.191236 27477 net.cpp:157] Top shape: 2 13419 (26838)
I0409 19:47:12.191239 27477 net.cpp:165] Memory required for data: 278538944
I0409 19:47:12.191243 27477 layer_factory.hpp:77] Creating layer mbox_priorbox
I0409 19:47:12.191248 27477 net.cpp:100] Creating Layer mbox_priorbox
I0409 19:47:12.191252 27477 net.cpp:434] mbox_priorbox <- conv13_mbox_priorbox
I0409 19:47:12.191256 27477 net.cpp:434] mbox_priorbox <- conv17_mbox_priorbox
I0409 19:47:12.191262 27477 net.cpp:434] mbox_priorbox <- conv18_2_mbox_priorbox
I0409 19:47:12.191265 27477 net.cpp:434] mbox_priorbox <- conv19_2_mbox_priorbox
I0409 19:47:12.191269 27477 net.cpp:434] mbox_priorbox <- conv20_2_mbox_priorbox
I0409 19:47:12.191273 27477 net.cpp:434] mbox_priorbox <- conv21_2_mbox_priorbox
I0409 19:47:12.191278 27477 net.cpp:408] mbox_priorbox -> mbox_priorbox
I0409 19:47:12.191296 27477 net.cpp:150] Setting up mbox_priorbox
I0409 19:47:12.191303 27477 net.cpp:157] Top shape: 1 2 7668 (15336)
I0409 19:47:12.191305 27477 net.cpp:165] Memory required for data: 278600288
I0409 19:47:12.191309 27477 layer_factory.hpp:77] Creating layer mbox_conf_reshape
I0409 19:47:12.191321 27477 net.cpp:100] Creating Layer mbox_conf_reshape
I0409 19:47:12.191326 27477 net.cpp:434] mbox_conf_reshape <- mbox_conf
I0409 19:47:12.191331 27477 net.cpp:408] mbox_conf_reshape -> mbox_conf_reshape
I0409 19:47:12.191359 27477 net.cpp:150] Setting up mbox_conf_reshape
I0409 19:47:12.191364 27477 net.cpp:157] Top shape: 2 1917 7 (26838)
I0409 19:47:12.191367 27477 net.cpp:165] Memory required for data: 278707640
I0409 19:47:12.191371 27477 layer_factory.hpp:77] Creating layer mbox_conf_softmax
I0409 19:47:12.191377 27477 net.cpp:100] Creating Layer mbox_conf_softmax
I0409 19:47:12.191381 27477 net.cpp:434] mbox_conf_softmax <- mbox_conf_reshape
I0409 19:47:12.191386 27477 net.cpp:408] mbox_conf_softmax -> mbox_conf_softmax
I0409 19:47:12.191824 27477 net.cpp:150] Setting up mbox_conf_softmax
I0409 19:47:12.191835 27477 net.cpp:157] Top shape: 2 1917 7 (26838)
I0409 19:47:12.191839 27477 net.cpp:165] Memory required for data: 278814992
I0409 19:47:12.191843 27477 layer_factory.hpp:77] Creating layer mbox_conf_flatten
I0409 19:47:12.191849 27477 net.cpp:100] Creating Layer mbox_conf_flatten
I0409 19:47:12.191854 27477 net.cpp:434] mbox_conf_flatten <- mbox_conf_softmax
I0409 19:47:12.191859 27477 net.cpp:408] mbox_conf_flatten -> mbox_conf_flatten
I0409 19:47:12.191880 27477 net.cpp:150] Setting up mbox_conf_flatten
I0409 19:47:12.191886 27477 net.cpp:157] Top shape: 2 13419 (26838)
I0409 19:47:12.191890 27477 net.cpp:165] Memory required for data: 278922344
I0409 19:47:12.191895 27477 layer_factory.hpp:77] Creating layer detection_out
I0409 19:47:12.191905 27477 net.cpp:100] Creating Layer detection_out
I0409 19:47:12.191908 27477 net.cpp:434] detection_out <- mbox_loc
I0409 19:47:12.191913 27477 net.cpp:434] detection_out <- mbox_conf_flatten
I0409 19:47:12.191917 27477 net.cpp:434] detection_out <- mbox_priorbox
I0409 19:47:12.191922 27477 net.cpp:408] detection_out -> detection_out
I0409 19:47:12.191968 27477 net.cpp:150] Setting up detection_out
I0409 19:47:12.191974 27477 net.cpp:157] Top shape: 1 1 1 7 (7)
I0409 19:47:12.191978 27477 net.cpp:165] Memory required for data: 278922372
I0409 19:47:12.191982 27477 layer_factory.hpp:77] Creating layer detection_eval
I0409 19:47:12.191988 27477 net.cpp:100] Creating Layer detection_eval
I0409 19:47:12.191992 27477 net.cpp:434] detection_eval <- detection_out
I0409 19:47:12.191998 27477 net.cpp:434] detection_eval <- label
I0409 19:47:12.192003 27477 net.cpp:408] detection_eval -> detection_eval
I0409 19:47:12.192036 27477 net.cpp:150] Setting up detection_eval
I0409 19:47:12.192051 27477 net.cpp:157] Top shape: 1 1 7 5 (35)
I0409 19:47:12.192055 27477 net.cpp:165] Memory required for data: 278922512
I0409 19:47:12.192059 27477 net.cpp:228] detection_eval does not need backward computation.
I0409 19:47:12.192065 27477 net.cpp:228] detection_out does not need backward computation.
I0409 19:47:12.192068 27477 net.cpp:228] mbox_conf_flatten does not need backward computation.
I0409 19:47:12.192073 27477 net.cpp:228] mbox_conf_softmax does not need backward computation.
…
