…
    batch_sampler {
      sampler {
        min_scale: 0.3
        max_scale: 1
        min_aspect_ratio: 0.5
        max_aspect_ratio: 2
      }
      sample_constraint {
        min_jaccard_overlap: 0.9
      }
      max_sample: 1
      max_trials: 50
    }
    batch_sampler {
      sampler {
        min_scale: 0.3
        max_scale: 1
        min_aspect_ratio: 0.5
        max_aspect_ratio: 2
      }
      sample_constraint {
        max_jaccard_overlap: 1
      }
      max_sample: 1
      max_trials: 50
    }
    label_map_file: "labelmap.prototxt"
  }
}
layer {
  name: "conv1"
  type: "Convolution"
  bottom: "data"
  top: "conv1"
  param {
    lr_mult: 0.1
    decay_mult: 0.1
  }
  convolution_param {
    num_output: 64
    kernel_size: 3
    stride: 2
    weight_filler {
      type: "msra"
    }
  }
}
layer {
  name: "relu_conv1"
  type: "ReLU"
  bottom: "conv1"
  top: "conv1"
}
layer {
  name: "pool1"
  type: "Pooling"
  bottom: "conv1"
  top: "pool1"
  pooling_param {
    pool: MAX
    kernel_size: 3
    stride: 2
  }
}
layer {
  name: "fire2/squeeze1x1"
  type: "Convolution"
  bottom: "pool1"
  top: "fire2/squeeze1x1"
  param {
    lr_mult: 0.1
    decay_mult: 0
  }
  param {
    lr_mult: 0.2
    decay_mult: 0
  }
  convolution_param {
    num_output: 16
    kernel_size: 1
    weight_filler {
      type: "msra"
    }
  }
}
layer {
  name: "fire2/relu_squeeze1x1"
  type: "ReLU"
  bottom: "fire2/squeeze1x1"
  top: "fire2/squeeze1x1"
}
layer {
  name: "fire2/expand1x1"
  type: "Convolution"
  bottom: "fire2/squeeze1x1"
  top: "fire2/expand1x1"
  param {
    lr_mult: 0.1
    decay_mult: 0
  }
  param {
    lr_mult: 0.2
    decay_mult: 0
  }
  convolution_param {
    num_output: 64
    kernel_size: 1
    weight_filler {
      type: "msra"
    }
  }
}
layer {
  name: "fire2/relu_expand1x1"
  type: "ReLU"
  bottom: "fire2/expand1x1"
  top: "fire2/expand1x1"
}
layer {
  name: "fire2/expand3x3"
  type: "Convolution"
  bottom: "fire2/squeeze1x1"
  top: "fire2/expand3x3"
  param {
    lr_mult: 0.1
    decay_mult: 0
  }
  param {
    lr_mult: 0.2
    decay_mult: 0
  }
  convolution_param {
    num_output: 64
    pad: 1
    kernel_size: 3
    weight_filler {
      type: "msra"
    }
  }
}
layer {
  name: "fire2/relu_expand3x3"
  type: "ReLU"
  bottom: "fire2/expand3x3"
  top: "fire2/expand3x3"
}
layer {
  name: "fire2/concat"
  type: "Concat"
  bottom: "fire2/expand1x1"
  bottom: "fire2/expand3x3"
  top: "fire2/concat"
}
layer {
  name: "fire3/squeeze1x1"
  type: "Convolution"
  bottom: "fire2/concat"
  top: "fire3/squeeze1x1"
  param {
    lr_mult: 0.1
    decay_mult: 0
  }
  param {
    lr_mult: 0.2
    decay_mult: 0
  }
  convolution_param {
    num_output: 16
    kernel_size: 1
    weight_filler {
      type: "msra"
    }
  }
}
layer {
  name: "fire3/relu_squeeze1x1"
  type: "ReLU"
  bottom: "fire3/squeeze1x1"
  top: "fire3/squeeze1x1"
}
layer {
  name: "fire3/expand1x1"
  type: "Convolution"
  bottom: "fire3/squeeze1x1"
  top: "fire3/expand1x1"
  param {
    lr_mult: 0.1
    decay_mult: 0
  }
  param {
    lr_mult: 0.2
    decay_mult: 0
  }
  convolution_param {
    num_output: 64
    kernel_size: 1
    weight_filler {
      type: "msra"
    }
  }
}
layer {
  name: "fire3/relu_expand1x1"
  type: "ReLU"
  bottom: "fire3/expand1x1"
  top: "fire3/expand1x1"
}
layer {
  name: "fire3/expand3x3"
  type: "Convolution"
  bottom: "fire3/squeeze1x1"
  top: "fire3/expand3x3"
  param {
    lr_mult: 0.1
    decay_mult: 0
  }
  param {
    lr_mult: 0.2
    decay_mult: 0
  }
  convolution_param {
    num_output: 64
    pad: 1
    kernel_size: 3
    weight_filler {
      type: "msra"
    }
  }
}
layer {
  name: "fire3/relu_expand3x3"
  type: "ReLU"
  bottom: "fire3/expand3x3"
  top: "fire3/expand3x3"
}
layer {
  name: "fire3/concat"
  type: "Concat"
  bottom: "fire3/expand1x1"
  bottom: "fire3/expand3x3"
  top: "fire3/concat"
}
layer {
  name: "pool3"
  type: "Pooling"
  bottom: "fire3/concat"
  top: "pool3"
  pooling_param {
    pool: MAX
    kernel_size: 3
    stride: 2
  }
}
layer {
  name: "fire4/squeeze1x1"
  type: "Convolution"
  bottom: "pool3"
  top: "fire4/squeeze1x1"
  param {
    lr_mult: 0.1
    decay_mult: 0
  }
  param {
    lr_mult: 0.2
    decay_mult: 0
  }
  convolution_param {
    num_output: 32
    kernel_size: 1
    weight_filler {
      type: "msra"
    }
  }
}
layer {
  name: "fire4/relu_squeeze1x1"
  type: "ReLU"
  bottom: "fire4/squeeze1x1"
  top: "fire4/squeeze1x1"
}
layer {
  name: "fire4/expand1x1"
  type: "Convolution"
  bottom: "fire4/squeeze1x1"
  top: "fire4/expand1x1"
  param {
    lr_mult: 0.1
    decay_mult: 0
  }
  param {
    lr_mult: 0.2
    decay_mult: 0
  }
  convolution_param {
    num_output: 128
    kernel_size: 1
    weight_filler {
      type: "msra"
    }
  }
}
layer {
  name: "fire4/relu_expand1x1"
  type: "ReLU"
  bottom: "fire4/expand1x1"
  top: "fire4/expand1x1"
}
layer {
  name: "fire4/expand3x3"
  type: "Convolution"
  bottom: "fire4/squeeze1x1"
  top: "fire4/expand3x3"
  param {
    lr_mult: 0.1
    decay_mult: 0
  }
  param {
    lr_mult: 0.2
    decay_mult: 0
  }
  convolution_param {
    num_output: 128
    pad: 1
    kernel_size: 3
    weight_filler {
      type: "msra"
    }
  }
}
layer {
  name: "fire4/relu_expand3x3"
  type: "ReLU"
  bottom: "fire4/expand3x3"
  top: "fire4/expand3x3"
}
layer {
  name: "fire4/concat"
  type: "Concat"
  bottom: "fire4/expand1x1"
  bottom: "fire4/expand3x3"
  top: "fire4/concat"
}
layer {
  name: "fire5/squeeze1x1"
  type: "Convolution"
  bottom: "fire4/concat"
  top: "fire5/squeeze1x1"
  param {
    lr_mult: 0.1
    decay_mult: 0
  }
  param {
    lr_mult: 0.2
    decay_mult: 0
  }
  convolution_param {
    num_output: 32
    kernel_size: 1
    weight_filler {
      type: "msra"
    }
  }
}
layer {
  name: "fire5/relu_squeeze1x1"
  type: "ReLU"
  bottom: "fire5/squeeze1x1"
  top: "fire5/squeeze1x1"
}
layer {
  name: "fire5/expand1x1"
  type: "Convolution"
  bottom: "fire5/squeeze1x1"
  top: "fire5/expand1x1"
  param {
    lr_mult: 0.1
    decay_mult: 0
  }
  param {
    lr_mult: 0.2
    decay_mult: 0
  }
  convolution_param {
    num_output: 128
    kernel_size: 1
    weight_filler {
      type: "msra"
    }
  }
}
layer {
  name: "fire5/relu_expand1x1"
  type: "ReLU"
  bottom: "fire5/expand1x1"
  top: "fire5/expand1x1"
}
layer {
  name: "fire5/expand3x3"
  type: "Convolution"
  bottom: "fire5/squeeze1x1"
  top: "fire5/expand3x3"
  param {
    lr_mult: 0.1
    decay_mult: 0
  }
  param {
    lr_mult: 0.2
    decay_mult: 0
  }
  convolution_param {
    num_output: 128
    pad: 1
    kernel_size: 3
    weight_filler {
      type: "msra"
    }
  }
}
layer {
  name: "fire5/relu_expand3x3"
  type: "ReLU"
  bottom: "fire5/expand3x3"
  top: "fire5/expand3x3"
}
layer {
  name: "fire5/concat"
  type: "Concat"
  bottom: "fire5/expand1x1"
  bottom: "fire5/expand3x3"
  top: "fire5/concat"
}
layer {
  name: "pool5"
  type: "Pooling"
  bottom: "fire5/concat"
  top: "pool5"
  pooling_param {
    pool: MAX
    kernel_size: 3
    stride: 2
  }
}
layer {
  name: "fire6/squeeze1x1"
  type: "Convolution"
  bottom: "pool5"
  top: "fire6/squeeze1x1"
  param {
    lr_mult: 0.1
    decay_mult: 0
  }
  param {
    lr_mult: 0.2
    decay_mult: 0
  }
  convolution_param {
    num_output: 48
    kernel_size: 1
    weight_filler {
      type: "msra"
    }
  }
}
layer {
  name: "fire6/relu_squeeze1x1"
  type: "ReLU"
  bottom: "fire6/squeeze1x1"
  top: "fire6/squeeze1x1"
}
layer {
  name: "fire6/expand1x1"
  type: "Convolution"
  bottom: "fire6/squeeze1x1"
  top: "fire6/expand1x1"
  param {
    lr_mult: 0.1
    decay_mult: 0
  }
  param {
    lr_mult: 0.2
    decay_mult: 0
  }
  convolution_param {
    num_output: 192
    kernel_size: 1
    weight_filler {
      type: "msra"
    }
  }
}
layer {
  name: "fire6/relu_expand1x1"
  type: "ReLU"
  bottom: "fire6/expand1x1"
  top: "fire6/expand1x1"
}
layer {
  name: "fire6/expand3x3"
  type: "Convolution"
  bottom: "fire6/squeeze1x1"
  top: "fire6/expand3x3"
  param {
    lr_mult: 0.1
    decay_mult: 0
  }
  param {
    lr_mult: 0.2
    decay_mult: 0
  }
  convolution_param {
    num_output: 192
    pad: 1
    kernel_size: 3
    weight_filler {
      type: "msra"
    }
  }
}
layer {
  name: "fire6/relu_expand3x3"
  type: "ReLU"
  bottom: "fire6/expand3x3"
  top: "fire6/expand3x3"
}
layer {
  name: "fire6/concat"
  type: "Concat"
  bottom: "fire6/expand1x1"
  bottom: "fire6/expand3x3"
  top: "fire6/concat"
}
layer {
  name: "fire7/squeeze1x1"
  type: "Convolution"
  bottom: "fire6/concat"
  top: "fire7/squeeze1x1"
  param {
    lr_mult: 0.1
    decay_mult: 0
  }
  param {
    lr_mult: 0.2
    decay_mult: 0
  }
  convolution_param {
    num_output: 48
    kernel_size: 1
    weight_filler {
      type: "msra"
    }
  }
}
layer {
  name: "fire7/relu_squeeze1x1"
  type: "ReLU"
  bottom: "fire7/squeeze1x1"
  top: "fire7/squeeze1x1"
}
layer {
  name: "fire7/expand1x1"
  type: "Convolution"
  bottom: "fire7/squeeze1x1"
  top: "fire7/expand1x1"
  param {
    lr_mult: 0.1
    decay_mult: 0
  }
  param {
    lr_mult: 0.2
    decay_mult: 0
  }
  convolution_param {
    num_output: 192
    kernel_size: 1
    weight_filler {
      type: "msra"
    }
  }
}
layer {
  name: "fire7/relu_expand1x1"
  type: "ReLU"
  bottom: "fire7/expand1x1"
  top: "fire7/expand1x1"
}
layer {
  name: "fire7/expand3x3"
  type: "Convolution"
  bottom: "fire7/squeeze1x1"
  top: "fire7/expand3x3"
  param {
    lr_mult: 0.1
    decay_mult: 0
  }
  param {
    lr_mult: 0.2
    decay_mult: 0
  }
  convolution_param {
    num_output: 192
    pad: 1
    kernel_size: 3
    weight_filler {
      type: "msra"
    }
  }
}
layer {
  name: "fire7/relu_expand3x3"
  type: "ReLU"
  bottom: "fire7/expand3x3"
  top: "fire7/expand3x3"
}
layer {
  name: "fire7/concat"
  type: "Concat"
  bottom: "fire7/expand1x1"
  bottom: "fire7/expand3x3"
  top: "fire7/concat"
}
layer {
  name: "fire8/squeeze1x1"
  type: "Convolution"
  bottom: "fire7/concat"
  top: "fire8/squeeze1x1"
  param {
    lr_mult: 0.1
    decay_mult: 0
  }
  param {
    lr_mult: 0.2
    decay_mult: 0
  }
  convolution_param {
    num_output: 64
    kernel_size: 1
    weight_filler {
      type: "msra"
    }
  }
}
layer {
  name: "fire8/relu_squeeze1x1"
  type: "ReLU"
  bottom: "fire8/squeeze1x1"
  top: "fire8/squeeze1x1"
}
layer {
  name: "fire8/expand1x1"
  type: "Convolution"
  bottom: "fire8/squeeze1x1"
  top: "fire8/expand1x1"
  param {
    lr_mult: 0.1
    decay_mult: 0
  }
  param {
    lr_mult: 0.2
    decay_mult: 0
  }
  convolution_param {
    num_output: 256
    kernel_size: 1
    weight_filler {
      type: "msra"
    }
  }
}
layer {
  name: "fire8/relu_expand1x1"
  type: "ReLU"
  bottom: "fire8/expand1x1"
  top: "fire8/expand1x1"
}
layer {
  name: "fire8/expand3x3"
  type: "Convolution"
  bottom: "fire8/squeeze1x1"
  top: "fire8/expand3x3"
  param {
    lr_mult: 0.1
    decay_mult: 0
  }
  param {
    lr_mult: 0.2
    decay_mult: 0
  }
  convolution_param {
    num_output: 256
    pad: 1
    kernel_size: 3
    weight_filler {
      type: "msra"
    }
  }
}
layer {
  name: "fire8/relu_expand3x3"
  type: "ReLU"
  bottom: "fire8/expand3x3"
  top: "fire8/expand3x3"
}
layer {
  name: "fire8/concat"
  type: "Concat"
  bottom: "fire8/expand1x1"
  bottom: "fire8/expand3x3"
  top: "fire8/concat"
}
layer {
  name: "fire9/squeeze1x1"
  type: "Convolution"
  bottom: "fire8/concat"
  top: "fire9/squeeze1x1"
  param {
    lr_mult: 0.1
    decay_mult: 0
  }
  param {
    lr_mult: 0.2
    decay_mult: 0
  }
  convolution_param {
    num_output: 64
    kernel_size: 1
    weight_filler {
      type: "msra"
    }
  }
}
layer {
  name: "fire9/relu_squeeze1x1"
  type: "ReLU"
  bottom: "fire9/squeeze1x1"
  top: "fire9/squeeze1x1"
}
layer {
  name: "fire9/expand1x1"
  type: "Convolution"
  bottom: "fire9/squeeze1x1"
  top: "fire9/expand1x1"
  param {
    lr_mult: 0.1
    decay_mult: 0
  }
  param {
    lr_mult: 0.2
    decay_mult: 0
  }
  convolution_param {
    num_output: 256
    kernel_size: 1
    weight_filler {
      type: "msra"
    }
  }
}
layer {
  name: "fire9/relu_expand1x1"
  type: "ReLU"
  bottom: "fire9/expand1x1"
  top: "fire9/expand1x1"
}
layer {
  name: "fire9/expand3x3"
  type: "Convolution"
  bottom: "fire9/squeeze1x1"
  top: "fire9/expand3x3"
  param {
    lr_mult: 0.1
    decay_mult: 0
  }
  param {
    lr_mult: 0.2
    decay_mult: 0
  }
  convolution_param {
    num_output: 256
    pad: 1
    kernel_size: 3
    weight_filler {
      type: "msra"
    }
  }
}
layer {
  name: "fire9/relu_expand3x3"
  type: "ReLU"
  bottom: "fire9/expand3x3"
  top: "fire9/expand3x3"
}
layer {
  name: "fire9/concat"
  type: "Concat"
  bottom: "fire9/expand1x1"
  bottom: "fire9/expand3x3"
  top: "fire9/concat"
}
layer {
  name: "pool9"
  type: "Pooling"
  bottom: "fire9/concat"
  top: "pool9"
  pooling_param {
    pool: MAX
    kernel_size: 3
    stride: 2
  }
}
layer {
  name: "fire10/squeeze1x1"
  type: "Convolution"
  bottom: "pool9"
  top: "fire10/squeeze1x1"
  convolution_param {
    num_output: 96
    kernel_size: 1
    weight_filler {
      type: "msra"
    }
  }
}
layer {
  name: "fire10/relu_squeeze1x1"
  type: "ReLU"
  bottom: "fire10/squeeze1x1"
  top: "fire10/squeeze1x1"
}
layer {
  name: "fire10/expand1x1"
  type: "Convolution"
  bottom: "fire10/squeeze1x1"
  top: "fire10/expand1x1"
  convolution_param {
    num_output: 384
    kernel_size: 1
    weight_filler {
      type: "msra"
    }
  }
}
layer {
  name: "fire10/relu_expand1x1"
  type: "ReLU"
  bottom: "fire10/expand1x1"
  top: "fire10/expand1x1"
}
layer {
  name: "fire10/expand3x3"
  type: "Convolution"
  bottom: "fire10/squeeze1x1"
  top: "fire10/expand3x3"
  convolution_param {
    num_output: 384
    pad: 1
    kernel_size: 3
    weight_filler {
      type: "msra"
    }
  }
}
layer {
  name: "fire10/relu_expand3x3"
  type: "ReLU"
  bottom: "fire10/expand3x3"
  top: "fire10/expand3x3"
}
layer {
  name: "fire10/concat"
  type: "Concat"
  bottom: "fire10/expand1x1"
  bottom: "fire10/expand3x3"
  top: "fire10/concat"
}
layer {
  name: "pool10"
  type: "Pooling"
  bottom: "fire10/concat"
  top: "pool10"
  pooling_param {
    pool: MAX
    kernel_size: 3
    stride: 2
  }
}
layer {
  name: "fire11/squeeze1x1"
  type: "Convolution"
  bottom: "pool10"
  top: "fire11/squeeze1x1"
  convolution_param {
    num_output: 96
    kernel_size: 1
    weight_filler {
      type: "msra"
    }
  }
}
layer {
  name: "fire11/relu_squeeze1x1"
  type: "ReLU"
  bottom: "fire11/squeeze1x1"
  top: "fire11/squeeze1x1"
}
layer {
  name: "fire11/expand1x1"
  type: "Convolution"
  bottom: "fire11/squeeze1x1"
  top: "fire11/expand1x1"
  convolution_param {
    num_output: 384
    kernel_size: 1
    weight_filler {
      type: "msra"
    }
  }
}
layer {
  name: "fire11/relu_expand1x1"
  type: "ReLU"
  bottom: "fire11/expand1x1"
  top: "fire11/expand1x1"
}
layer {
  name: "fire11/expand3x3"
  type: "Convolution"
  bottom: "fire11/squeeze1x1"
  top: "fire11/expand3x3"
  convolution_param {
    num_output: 384
    pad: 1
    kernel_size: 3
    weight_filler {
      type: "msra"
    }
  }
}
layer {
  name: "fire11/relu_expand3x3"
  type: "ReLU"
  bottom: "fire11/expand3x3"
  top: "fire11/expand3x3"
}
layer {
  name: "fire11/concat"
  type: "Concat"
  bottom: "fire11/expand1x1"
  bottom: "fire11/expand3x3"
  top: "fire11/concat"
}
layer {
  name: "conv12_1"
  type: "Convolution"
  bottom: "fire11/concat"
  top: "conv12_1"
  param {
    lr_mult: 0.1
    decay_mult: 0.1
  }
  convolution_param {
    num_output: 128
    bias_term: false
    kernel_size: 1
    weight_filler {
      type: "msra"
    }
  }
}
layer {
  name: "conv12_1/relu"
  type: "ReLU"
  bottom: "conv12_1"
  top: "conv12_1"
}
layer {
  name: "conv12_2"
  type: "Convolution"
  bottom: "conv12_1"
  top: "conv12_2"
  param {
    lr_mult: 0.1
    decay_mult: 0.1
  }
  convolution_param {
    num_output: 256
    bias_term: false
    pad: 1
    kernel_size: 3
    stride: 2
    weight_filler {
      type: "msra"
    }
  }
}
layer {
  name: "conv12_2/relu"
  type: "ReLU"
  bottom: "conv12_2"
  top: "conv12_2"
}
layer {
  name: "conv13_1"
  type: "Convolution"
  bottom: "conv12_2"
  top: "conv13_1"
  param {
    lr_mult: 0.1
    decay_mult: 0.1
  }
  convolution_param {
    num_output: 64
    bias_term: false
    kernel_size: 1
    weight_filler {
      type: "msra"
    }
  }
}
layer {
  name: "conv13_1/relu"
  type: "ReLU"
  bottom: "conv13_1"
  top: "conv13_1"
}
layer {
  name: "conv13_2"
  type: "Convolution"
  bottom: "conv13_1"
  top: "conv13_2"
  param {
    lr_mult: 0.1
    decay_mult: 0.1
  }
  convolution_param {
    num_output: 128
    bias_term: false
    pad: 1
    kernel_size: 3
    stride: 2
    weight_filler {
      type: "msra"
    }
  }
}
layer {
  name: "conv13_2/relu"
  type: "ReLU"
  bottom: "conv13_2"
  top: "conv13_2"
}
layer {
  name: "fire5_mbox_loc"
  type: "Convolution"
  bottom: "fire5/concat"
  top: "fire5_mbox_loc"
  param {
    lr_mult: 0.1
    decay_mult: 0.1
  }
  param {
    lr_mult: 0.2
    decay_mult: 0
  }
  convolution_param {
    num_output: 16
    pad: 1
    kernel_size: 3
    stride: 1
    weight_filler {
      type: "msra"
    }
    bias_filler {
      type: "constant"
      value: 0
    }
  }
}
layer {
  name: "fire5_mbox_loc_perm"
  type: "Permute"
  bottom: "fire5_mbox_loc"
  top: "fire5_mbox_loc_perm"
  permute_param {
    order: 0
    order: 2
    order: 3
    order: 1
  }
}
layer {
  name: "fire5_mbox_loc_flat"
  type: "Flatten"
  bottom: "fire5_mbox_loc_perm"
  top: "fire5_mbox_loc_flat"
  flatten_param {
    axis: 1
  }
}
layer {
  name: "fire5_mbox_conf"
  type: "Convolution"
  bottom: "fire5/concat"
  top: "fire5_mbox_conf"
  param {
    lr_mult: 1
    decay_mult: 1
  }
  param {
    lr_mult: 2
    decay_mult: 0
  }
  convolution_param {
    num_output: 28
    pad: 1
    kernel_size: 3
    stride: 1
    weight_filler {
      type: "msra"
    }
    bias_filler {
      type: "constant"
      value: 0
    }
  }
}
layer {
  name: "fire5_mbox_conf_perm"
  type: "Permute"
  bottom: "fire5_mbox_conf"
  top: "fire5_mbox_conf_perm"
  permute_param {
    order: 0
    order: 2
    order: 3
    order: 1
  }
}
layer {
  name: "fire5_mbox_conf_flat"
  type: "Flatten"
  bottom: "fire5_mbox_conf_perm"
  top: "fire5_mbox_conf_flat"
  flatten_param {
    axis: 1
  }
}
layer {
  name: "fire5_mbox_priorbox"
  type: "PriorBox"
  bottom: "fire5/concat"
  bottom: "data"
  top: "fire5_mbox_priorbox"
  prior_box_param {
    min_size: 21
    max_size: 45
    aspect_ratio: 2
    flip: true
    clip: false
    variance: 0.1
    variance: 0.1
    variance: 0.2
    variance: 0.2
    offset: 0.5
  }
}
layer {
  name: "fire9_mbox_loc"
  type: "Convolution"
  bottom: "fire9/concat"
  top: "fire9_mbox_loc"
  param {
    lr_mult: 0.1
    decay_mult: 0.1
  }
  param {
    lr_mult: 0.2
    decay_mult: 0
  }
  convolution_param {
    num_output: 24
    pad: 1
    kernel_size: 3
    stride: 1
    weight_filler {
      type: "msra"
    }
    bias_filler {
      type: "constant"
      value: 0
    }
  }
}
layer {
  name: "fire9_mbox_loc_perm"
  type: "Permute"
  bottom: "fire9_mbox_loc"
  top: "fire9_mbox_loc_perm"
  permute_param {
    order: 0
    order: 2
    order: 3
    order: 1
  }
}
layer {
  name: "fire9_mbox_loc_flat"
  type: "Flatten"
  bottom: "fire9_mbox_loc_perm"
  top: "fire9_mbox_loc_flat"
  flatten_param {
    axis: 1
  }
}
layer {
  name: "fire9_mbox_conf"
  type: "Convolution"
  bottom: "fire9/concat"
  top: "fire9_mbox_conf"
  param {
    lr_mult: 1
    decay_mult: 1
  }
  param {
    lr_mult: 2
    decay_mult: 0
  }
  convolution_param {
    num_output: 42
    pad: 1
    kernel_size: 3
    stride: 1
    weight_filler {
      type: "msra"
    }
    bias_filler {
      type: "constant"
      value: 0
    }
  }
}
layer {
  name: "fire9_mbox_conf_perm"
  type: "Permute"
  bottom: "fire9_mbox_conf"
  top: "fire9_mbox_conf_perm"
  permute_param {
    order: 0
    order: 2
    order: 3
    order: 1
  }
}
layer {
  name: "fire9_mbox_conf_flat"
  type: "Flatten"
  bottom: "fire9_mbox_conf_perm"
  top: "fire9_mbox_conf_flat"
  flatten_param {
    axis: 1
  }
}
layer {
  name: "fire9_mbox_priorbox"
  type: "PriorBox"
  bottom: "fire9/concat"
  bottom: "data"
  top: "fire9_mbox_priorbox"
  prior_box_param {
    min_size: 45
    max_size: 99
    aspect_ratio: 2
    aspect_ratio: 3
    flip: true
    clip: false
    variance: 0.1
    variance: 0.1
    variance: 0.2
    variance: 0.2
    offset: 0.5
  }
}
layer {
  name: "fire10_mbox_loc"
  type: "Convolution"
  bottom: "fire10/concat"
  top: "fire10_mbox_loc"
  param {
    lr_mult: 0.1
    decay_mult: 0.1
  }
  param {
    lr_mult: 0.2
    decay_mult: 0
  }
  convolution_param {
    num_output: 24
    pad: 1
    kernel_size: 3
    stride: 1
    weight_filler {
      type: "msra"
    }
    bias_filler {
      type: "constant"
      value: 0
    }
  }
}
layer {
  name: "fire10_mbox_loc_perm"
  type: "Permute"
  bottom: "fire10_mbox_loc"
  top: "fire10_mbox_loc_perm"
  permute_param {
    order: 0
    order: 2
    order: 3
    order: 1
  }
}
layer {
  name: "fire10_mbox_loc_flat"
  type: "Flatten"
  bottom: "fire10_mbox_loc_perm"
  top: "fire10_mbox_loc_flat"
  flatten_param {
    axis: 1
  }
}
layer {
  name: "fire10_mbox_conf"
  type: "Convolution"
  bottom: "fire10/concat"
  top: "fire10_mbox_conf"
  param {
    lr_mult: 1
    decay_mult: 1
  }
  param {
    lr_mult: 2
    decay_mult: 0
  }
  convolution_param {
    num_output: 42
    pad: 1
    kernel_size: 3
    stride: 1
    weight_filler {
      type: "msra"
    }
    bias_filler {
      type: "constant"
      value: 0
    }
  }
}
layer {
  name: "fire10_mbox_conf_perm"
  type: "Permute"
  bottom: "fire10_mbox_conf"
  top: "fire10_mbox_conf_perm"
  permute_param {
    order: 0
    order: 2
    order: 3
    order: 1
  }
}
layer {
  name: "fire10_mbox_conf_flat"
  type: "Flatten"
  bottom: "fire10_mbox_conf_perm"
  top: "fire10_mbox_conf_flat"
  flatten_param {
    axis: 1
  }
}
layer {
  name: "fire10_mbox_priorbox"
  type: "PriorBox"
  bottom: "fire10/concat"
  bottom: "data"
  top: "fire10_mbox_priorbox"
  prior_box_param {
    min_size: 99
    max_size: 153
    aspect_ratio: 2
    aspect_ratio: 3
    flip: true
    clip: false
    variance: 0.1
    variance: 0.1
    variance: 0.2
    variance: 0.2
    offset: 0.5
  }
}
layer {
  name: "fire11_mbox_loc"
  type: "Convolution"
  bottom: "fire11/concat"
  top: "fire11_mbox_loc"
  param {
    lr_mult: 0.1
    decay_mult: 0.1
  }
  param {
    lr_mult: 0.2
    decay_mult: 0
  }
  convolution_param {
    num_output: 24
    pad: 1
    kernel_size: 3
    stride: 1
    weight_filler {
      type: "msra"
    }
    bias_filler {
      type: "constant"
      value: 0
    }
  }
}
layer {
  name: "fire11_mbox_loc_perm"
  type: "Permute"
  bottom: "fire11_mbox_loc"
  top: "fire11_mbox_loc_perm"
  permute_param {
    order: 0
    order: 2
    order: 3
    order: 1
  }
}
layer {
  name: "fire11_mbox_loc_flat"
  type: "Flatten"
  bottom: "fire11_mbox_loc_perm"
  top: "fire11_mbox_loc_flat"
  flatten_param {
    axis: 1
  }
}
layer {
  name: "fire11_mbox_conf"
  type: "Convolution"
  bottom: "fire11/concat"
  top: "fire11_mbox_conf"
  param {
    lr_mult: 1
    decay_mult: 1
  }
  param {
    lr_mult: 2
    decay_mult: 0
  }
  convolution_param {
    num_output: 42
    pad: 1
    kernel_size: 3
    stride: 1
    weight_filler {
      type: "msra"
    }
    bias_filler {
      type: "constant"
      value: 0
    }
  }
}
layer {
  name: "fire11_mbox_conf_perm"
  type: "Permute"
  bottom: "fire11_mbox_conf"
  top: "fire11_mbox_conf_perm"
  permute_param {
    order: 0
    order: 2
    order: 3
    order: 1
  }
}
layer {
  name: "fire11_mbox_conf_flat"
  type: "Flatten"
  bottom: "fire11_mbox_conf_perm"
  top: "fire11_mbox_conf_flat"
  flatten_param {
    axis: 1
  }
}
layer {
  name: "fire11_mbox_priorbox"
  type: "PriorBox"
  bottom: "fire11/concat"
  bottom: "data"
  top: "fire11_mbox_priorbox"
  prior_box_param {
    min_size: 153
    max_size: 207
    aspect_ratio: 2
    aspect_ratio: 3
    flip: true
    clip: false
    variance: 0.1
    variance: 0.1
    variance: 0.2
    variance: 0.2
    offset: 0.5
  }
}
layer {
  name: "conv12_2_mbox_loc"
  type: "Convolution"
  bottom: "conv12_2"
  top: "conv12_2_mbox_loc"
  param {
    lr_mult: 0.1
    decay_mult: 0.1
  }
  param {
    lr_mult: 0.2
    decay_mult: 0
  }
  convolution_param {
    num_output: 24
    pad: 1
    kernel_size: 3
    stride: 1
    weight_filler {
      type: "msra"
    }
    bias_filler {
      type: "constant"
      value: 0
    }
  }
}
layer {
  name: "conv12_2_mbox_loc_perm"
  type: "Permute"
  bottom: "conv12_2_mbox_loc"
  top: "conv12_2_mbox_loc_perm"
  permute_param {
    order: 0
    order: 2
    order: 3
    order: 1
  }
}
layer {
  name: "conv12_2_mbox_loc_flat"
  type: "Flatten"
  bottom: "conv12_2_mbox_loc_perm"
  top: "conv12_2_mbox_loc_flat"
  flatten_param {
    axis: 1
  }
}
layer {
  name: "conv12_2_mbox_conf"
  type: "Convolution"
  bottom: "conv12_2"
  top: "conv12_2_mbox_conf"
  param {
    lr_mult: 1
    decay_mult: 1
  }
  param {
    lr_mult: 2
    decay_mult: 0
  }
  convolution_param {
    num_output: 42
    pad: 1
    kernel_size: 3
    stride: 1
    weight_filler {
      type: "msra"
    }
    bias_filler {
      type: "constant"
      value: 0
    }
  }
}
layer {
  name: "conv12_2_mbox_conf_perm"
  type: "Permute"
  bottom: "conv12_2_mbox_conf"
  top: "conv12_2_mbox_conf_perm"
  permute_param {
    order: 0
    order: 2
    order: 3
    order: 1
  }
}
layer {
  name: "conv12_2_mbox_conf_flat"
  type: "Flatten"
  bottom: "conv12_2_mbox_conf_perm"
  top: "conv12_2_mbox_conf_flat"
  flatten_param {
    axis: 1
  }
}
layer {
  name: "conv12_2_mbox_priorbox"
  type: "PriorBox"
  bottom: "conv12_2"
  bottom: "data"
  top: "conv12_2_mbox_priorbox"
  prior_box_param {
    min_size: 207
    max_size: 261
    aspect_ratio: 2
    aspect_ratio: 3
    flip: true
    clip: false
    variance: 0.1
    variance: 0.1
    variance: 0.2
    variance: 0.2
    offset: 0.5
  }
}
layer {
  name: "conv13_2_mbox_loc"
  type: "Convolution"
  bottom: "conv13_2"
  top: "conv13_2_mbox_loc"
  param {
    lr_mult: 0.1
    decay_mult: 0.1
  }
  param {
    lr_mult: 0.2
    decay_mult: 0
  }
  convolution_param {
    num_output: 16
    pad: 1
    kernel_size: 3
    stride: 1
    weight_filler {
      type: "msra"
    }
    bias_filler {
      type: "constant"
      value: 0
    }
  }
}
layer {
  name: "conv13_2_mbox_loc_perm"
  type: "Permute"
  bottom: "conv13_2_mbox_loc"
  top: "conv13_2_mbox_loc_perm"
  permute_param {
    order: 0
    order: 2
    order: 3
    order: 1
  }
}
layer {
  name: "conv13_2_mbox_loc_flat"
  type: "Flatten"
  bottom: "conv13_2_mbox_loc_perm"
  top: "conv13_2_mbox_loc_flat"
  flatten_param {
    axis: 1
  }
}
layer {
  name: "conv13_2_mbox_conf"
  type: "Convolution"
  bottom: "conv13_2"
  top: "conv13_2_mbox_conf"
  param {
    lr_mult: 1
    decay_mult: 1
  }
  param {
    lr_mult: 2
    decay_mult: 0
  }
  convolution_param {
    num_output: 28
    pad: 1
    kernel_size: 3
    stride: 1
    weight_filler {
      type: "msra"
    }
    bias_filler {
      type: "constant"
      value: 0
    }
  }
}
layer {
  name: "conv13_2_mbox_conf_perm"
  type: "Permute"
  bottom: "conv13_2_mbox_conf"
  top: "conv13_2_mbox_conf_perm"
  permute_param {
    order: 0
    order: 2
    order: 3
    order: 1
  }
}
layer {
  name: "conv13_2_mbox_conf_flat"
  type: "Flatten"
  bottom: "conv13_2_mbox_conf_perm"
  top: "conv13_2_mbox_conf_flat"
  flatten_param {
    axis: 1
  }
}
layer {
  name: "conv13_2_mbox_priorbox"
  type: "PriorBox"
  bottom: "conv13_2"
  bottom: "data"
  top: "conv13_2_mbox_priorbox"
  prior_box_param
I0426 23:16:05.889691  9046 layer_factory.hpp:77] Creating layer data
I0426 23:16:05.889950  9046 net.cpp:100] Creating Layer data
I0426 23:16:05.889977  9046 net.cpp:408] data -> data
I0426 23:16:05.890044  9046 net.cpp:408] data -> label
I0426 23:16:05.891240  9060 db_lmdb.cpp:35] Opened lmdb trainval_lmdb
I0426 23:16:05.908414  9046 annotated_data_layer.cpp:62] output data size: 4,3,300,300
I0426 23:16:05.917547  9046 net.cpp:150] Setting up data
I0426 23:16:05.917578  9046 net.cpp:157] Top shape: 4 3 300 300 (1080000)
I0426 23:16:05.917587  9046 net.cpp:157] Top shape: 1 1 1 8 (8)
I0426 23:16:05.917592  9046 net.cpp:165] Memory required for data: 4320032
I0426 23:16:05.917601  9046 layer_factory.hpp:77] Creating layer data_data_0_split
I0426 23:16:05.917614  9046 net.cpp:100] Creating Layer data_data_0_split
I0426 23:16:05.917621  9046 net.cpp:434] data_data_0_split <- data
I0426 23:16:05.917635  9046 net.cpp:408] data_data_0_split -> data_data_0_split_0
I0426 23:16:05.917649  9046 net.cpp:408] data_data_0_split -> data_data_0_split_1
I0426 23:16:05.917657  9046 net.cpp:408] data_data_0_split -> data_data_0_split_2
I0426 23:16:05.917667  9046 net.cpp:408] data_data_0_split -> data_data_0_split_3
I0426 23:16:05.917675  9046 net.cpp:408] data_data_0_split -> data_data_0_split_4
I0426 23:16:05.917683  9046 net.cpp:408] data_data_0_split -> data_data_0_split_5
I0426 23:16:05.917690  9046 net.cpp:408] data_data_0_split -> data_data_0_split_6
I0426 23:16:05.917770  9046 net.cpp:150] Setting up data_data_0_split
I0426 23:16:05.917780  9046 net.cpp:157] Top shape: 4 3 300 300 (1080000)
I0426 23:16:05.917786  9046 net.cpp:157] Top shape: 4 3 300 300 (1080000)
I0426 23:16:05.917793  9046 net.cpp:157] Top shape: 4 3 300 300 (1080000)
I0426 23:16:05.917799  9046 net.cpp:157] Top shape: 4 3 300 300 (1080000)
I0426 23:16:05.917805  9046 net.cpp:157] Top shape: 4 3 300 300 (1080000)
I0426 23:16:05.917829  9046 net.cpp:157] Top shape: 4 3 300 300 (1080000)
I0426 23:16:05.917834  9046 net.cpp:157] Top shape: 4 3 300 300 (1080000)
I0426 23:16:05.917838  9046 net.cpp:165] Memory required for data: 34560032
I0426 23:16:05.917842  9046 layer_factory.hpp:77] Creating layer conv1
I0426 23:16:05.917863  9046 net.cpp:100] Creating Layer conv1
I0426 23:16:05.917868  9046 net.cpp:434] conv1 <- data_data_0_split_0
I0426 23:16:05.917876  9046 net.cpp:408] conv1 -> conv1
I0426 23:16:06.282533  9046 net.cpp:150] Setting up conv1
I0426 23:16:06.282562  9046 net.cpp:157] Top shape: 4 64 149 149 (5683456)
I0426 23:16:06.282567  9046 net.cpp:165] Memory required for data: 57293856
I0426 23:16:06.282583  9046 layer_factory.hpp:77] Creating layer relu_conv1
I0426 23:16:06.282594  9046 net.cpp:100] Creating Layer relu_conv1
I0426 23:16:06.282599  9046 net.cpp:434] relu_conv1 <- conv1
I0426 23:16:06.282606  9046 net.cpp:395] relu_conv1 -> conv1 (in-place)
I0426 23:16:06.282968  9046 net.cpp:150] Setting up relu_conv1
I0426 23:16:06.282980  9046 net.cpp:157] Top shape: 4 64 149 149 (5683456)
I0426 23:16:06.282984  9046 net.cpp:165] Memory required for data: 80027680
I0426 23:16:06.282989  9046 layer_factory.hpp:77] Creating layer pool1
I0426 23:16:06.282997  9046 net.cpp:100] Creating Layer pool1
I0426 23:16:06.283001  9046 net.cpp:434] pool1 <- conv1
I0426 23:16:06.283007  9046 net.cpp:408] pool1 -> pool1
I0426 23:16:06.283048  9046 net.cpp:150] Setting up pool1
I0426 23:16:06.283054  9046 net.cpp:157] Top shape: 4 64 74 74 (1401856)
I0426 23:16:06.283058  9046 net.cpp:165] Memory required for data: 85635104
I0426 23:16:06.283062  9046 layer_factory.hpp:77] Creating layer fire2/squeeze1x1
I0426 23:16:06.283072  9046 net.cpp:100] Creating Layer fire2/squeeze1x1
I0426 23:16:06.283077  9046 net.cpp:434] fire2/squeeze1x1 <- pool1
I0426 23:16:06.283083  9046 net.cpp:408] fire2/squeeze1x1 -> fire2/squeeze1x1
I0426 23:16:06.285017  9046 net.cpp:150] Setting up fire2/squeeze1x1
I0426 23:16:06.285030  9046 net.cpp:157] Top shape: 4 16 74 74 (350464)
I0426 23:16:06.285034  9046 net.cpp:165] Memory required for data: 87036960
I0426 23:16:06.285043  9046 layer_factory.hpp:77] Creating layer fire2/relu_squeeze1x1
I0426 23:16:06.285049  9046 net.cpp:100] Creating Layer fire2/relu_squeeze1x1
I0426 23:16:06.285054  9046 net.cpp:434] fire2/relu_squeeze1x1 <- fire2/squeeze1x1
I0426 23:16:06.285060  9046 net.cpp:395] fire2/relu_squeeze1x1 -> fire2/squeeze1x1 (in-place)
I0426 23:16:06.285198  9046 net.cpp:150] Setting up fire2/relu_squeeze1x1
I0426 23:16:06.285207  9046 net.cpp:157] Top shape: 4 16 74 74 (350464)
I0426 23:16:06.285210  9046 net.cpp:165] Memory required for data: 88438816
I0426 23:16:06.285214  9046 layer_factory.hpp:77] Creating layer fire2/squeeze1x1_fire2/relu_squeeze1x1_0_split
I0426 23:16:06.285220  9046 net.cpp:100] Creating Layer fire2/squeeze1x1_fire2/relu_squeeze1x1_0_split
I0426 23:16:06.285225  9046 net.cpp:434] fire2/squeeze1x1_fire2/relu_squeeze1x1_0_split <- fire2/squeeze1x1
I0426 23:16:06.285238  9046 net.cpp:408] fire2/squeeze1x1_fire2/relu_squeeze1x1_0_split -> fire2/squeeze1x1_fire2/relu_squeeze1x1_0_split_0
I0426 23:16:06.285244  9046 net.cpp:408] fire2/squeeze1x1_fire2/relu_squeeze1x1_0_split -> fire2/squeeze1x1_fire2/relu_squeeze1x1_0_split_1
I0426 23:16:06.285280  9046 net.cpp:150] Setting up fire2/squeeze1x1_fire2/relu_squeeze1x1_0_split
I0426 23:16:06.285287  9046 net.cpp:157] Top shape: 4 16 74 74 (350464)
I0426 23:16:06.285291  9046 net.cpp:157] Top shape: 4 16 74 74 (350464)
I0426 23:16:06.285295  9046 net.cpp:165] Memory required for data: 91242528
I0426 23:16:06.285300  9046 layer_factory.hpp:77] Creating layer fire2/expand1x1
I0426 23:16:06.285308  9046 net.cpp:100] Creating Layer fire2/expand1x1
I0426 23:16:06.285312  9046 net.cpp:434] fire2/expand1x1 <- fire2/squeeze1x1_fire2/relu_squeeze1x1_0_split_0
I0426 23:16:06.285317  9046 net.cpp:408] fire2/expand1x1 -> fire2/expand1x1
I0426 23:16:06.286324  9046 net.cpp:150] Setting up fire2/expand1x1
I0426 23:16:06.286336  9046 net.cpp:157] Top shape: 4 64 74 74 (1401856)
I0426 23:16:06.286360  9046 net.cpp:165] Memory required for data: 96849952
I0426 23:16:06.286370  9046 layer_factory.hpp:77] Creating layer fire2/relu_expand1x1
I0426 23:16:06.286375  9046 net.cpp:100] Creating Layer fire2/relu_expand1x1
I0426 23:16:06.286381  9046 net.cpp:434] fire2/relu_expand1x1 <- fire2/expand1x1
I0426 23:16:06.286386  9046 net.cpp:395] fire2/relu_expand1x1 -> fire2/expand1x1 (in-place)
I0426 23:16:06.286731  9046 net.cpp:150] Setting up fire2/relu_expand1x1
I0426 23:16:06.286741  9046 net.cpp:157] Top shape: 4 64 74 74 (1401856)
I0426 23:16:06.286746  9046 net.cpp:165] Memory required for data: 102457376
I0426 23:16:06.286749  9046 layer_factory.hpp:77] Creating layer fire2/expand3x3
I0426 23:16:06.286757  9046 net.cpp:100] Creating Layer fire2/expand3x3
I0426 23:16:06.286762  9046 net.cpp:434] fire2/expand3x3 <- fire2/squeeze1x1_fire2/relu_squeeze1x1_0_split_1
I0426 23:16:06.286768  9046 net.cpp:408] fire2/expand3x3 -> fire2/expand3x3
I0426 23:16:06.287850  9046 net.cpp:150] Setting up fire2/expand3x3
I0426 23:16:06.287863  9046 net.cpp:157] Top shape: 4 64 74 74 (1401856)
I0426 23:16:06.287870  9046 net.cpp:165] Memory required for data: 108064800
I0426 23:16:06.287878  9046 layer_factory.hpp:77] Creating layer fire2/relu_expand3x3
I0426 23:16:06.287884  9046 net.cpp:100] Creating Layer fire2/relu_expand3x3
I0426 23:16:06.287889  9046 net.cpp:434] fire2/relu_expand3x3 <- fire2/expand3x3
I0426 23:16:06.287894  9046 net.cpp:395] fire2/relu_expand3x3 -> fire2/expand3x3 (in-place)
I0426 23:16:06.288041  9046 net.cpp:150] Setting up fire2/relu_expand3x3
I0426 23:16:06.288050  9046 net.cpp:157] Top shape: 4 64 74 74 (1401856)
I0426 23:16:06.288054  9046 net.cpp:165] Memory required for data: 113672224
I0426 23:16:06.288058  9046 layer_factory.hpp:77] Creating layer fire2/concat
I0426 23:16:06.288064  9046 net.cpp:100] Creating Layer fire2/concat
I0426 23:16:06.288069  9046 net.cpp:434] fire2/concat <- fire2/expand1x1
I0426 23:16:06.288074  9046 net.cpp:434] fire2/concat <- fire2/expand3x3
I0426 23:16:06.288079  9046 net.cpp:408] fire2/concat -> fire2/concat
I0426 23:16:06.288102  9046 net.cpp:150] Setting up fire2/concat
I0426 23:16:06.288108  9046 net.cpp:157] Top shape: 4 128 74 74 (2803712)
I0426 23:16:06.288112  9046 net.cpp:165] Memory required for data: 124887072
I0426 23:16:06.288116  9046 layer_factory.hpp:77] Creating layer fire3/squeeze1x1
I0426 23:16:06.288130  9046 net.cpp:100] Creating Layer fire3/squeeze1x1
I0426 23:16:06.288134  9046 net.cpp:434] fire3/squeeze1x1 <- fire2/concat
I0426 23:16:06.288139  9046 net.cpp:408] fire3/squeeze1x1 -> fire3/squeeze1x1
I0426 23:16:06.289158  9046 net.cpp:150] Setting up fire3/squeeze1x1
I0426 23:16:06.289170  9046 net.cpp:157] Top shape: 4 16 74 74 (350464)
I0426 23:16:06.289175  9046 net.cpp:165] Memory required for data: 126288928
I0426 23:16:06.289183  9046 layer_factory.hpp:77] Creating layer fire3/relu_squeeze1x1
I0426 23:16:06.289189  9046 net.cpp:100] Creating Layer fire3/relu_squeeze1x1
I0426 23:16:06.289193  9046 net.cpp:434] fire3/relu_squeeze1x1 <- fire3/squeeze1x1
I0426 23:16:06.289198  9046 net.cpp:395] fire3/relu_squeeze1x1 -> fire3/squeeze1x1 (in-place)
I0426 23:16:06.289542  9046 net.cpp:150] Setting up fire3/relu_squeeze1x1
I0426 23:16:06.289553  9046 net.cpp:157] Top shape: 4 16 74 74 (350464)
I0426 23:16:06.289556  9046 net.cpp:165] Memory required for data: 127690784
I0426 23:16:06.289561  9046 layer_factory.hpp:77] Creating layer fire3/squeeze1x1_fire3/relu_squeeze1x1_0_split
I0426 23:16:06.289566  9046 net.cpp:100] Creating Layer fire3/squeeze1x1_fire3/relu_squeeze1x1_0_split
I0426 23:16:06.289571  9046 net.cpp:434] fire3/squeeze1x1_fire3/relu_squeeze1x1_0_split <- fire3/squeeze1x1
I0426 23:16:06.289577  9046 net.cpp:408] fire3/squeeze1x1_fire3/relu_squeeze1x1_0_split -> fire3/squeeze1x1_fire3/relu_squeeze1x1_0_split_0
I0426 23:16:06.289583  9046 net.cpp:408] fire3/squeeze1x1_fire3/relu_squeeze1x1_0_split -> fire3/squeeze1x1_fire3/relu_squeeze1x1_0_split_1
I0426 23:16:06.289618  9046 net.cpp:150] Setting up fire3/squeeze1x1_fire3/relu_squeeze1x1_0_split
I0426 23:16:06.289634  9046 net.cpp:157] Top shape: 4 16 74 74 (350464)
I0426 23:16:06.289638  9046 net.cpp:157] Top shape: 4 16 74 74 (350464)
I0426 23:16:06.289641  9046 net.cpp:165] Memory required for data: 130494496
I0426 23:16:06.289646  9046 layer_factory.hpp:77] Creating layer fire3/expand1x1
I0426 23:16:06.289655  9046 net.cpp:100] Creating Layer fire3/expand1x1
I0426 23:16:06.289660  9046 net.cpp:434] fire3/expand1x1 <- fire3/squeeze1x1_fire3/relu_squeeze1x1_0_split_0
I0426 23:16:06.289666  9046 net.cpp:408] fire3/expand1x1 -> fire3/expand1x1
I0426 23:16:06.290676  9046 net.cpp:150] Setting up fire3/expand1x1
I0426 23:16:06.290688  9046 net.cpp:157] Top shape: 4 64 74 74 (1401856)
I0426 23:16:06.290693  9046 net.cpp:165] Memory required for data: 136101920
I0426 23:16:06.290699  9046 layer_factory.hpp:77] Creating layer fire3/relu_expand1x1
I0426 23:16:06.290705  9046 net.cpp:100] Creating Layer fire3/relu_expand1x1
I0426 23:16:06.290709  9046 net.cpp:434] fire3/relu_expand1x1 <- fire3/expand1x1
I0426 23:16:06.290714  9046 net.cpp:395] fire3/relu_expand1x1 -> fire3/expand1x1 (in-place)
I0426 23:16:06.291043  9046 net.cpp:150] Setting up fire3/relu_expand1x1
I0426 23:16:06.291054  9046 net.cpp:157] Top shape: 4 64 74 74 (1401856)
I0426 23:16:06.291057  9046 net.cpp:165] Memory required for data: 141709344
I0426 23:16:06.291062  9046 layer_factory.hpp:77] Creating layer fire3/expand3x3
I0426 23:16:06.291069  9046 net.cpp:100] Creating Layer fire3/expand3x3
I0426 23:16:06.291074  9046 net.cpp:434] fire3/expand3x3 <- fire3/squeeze1x1_fire3/relu_squeeze1x1_0_split_1
I0426 23:16:06.291080  9046 net.cpp:408] fire3/expand3x3 -> fire3/expand3x3
I0426 23:16:06.292160  9046 net.cpp:150] Setting up fire3/expand3x3
I0426 23:16:06.292172  9046 net.cpp:157] Top shape: 4 64 74 74 (1401856)
I0426 23:16:06.292176  9046 net.cpp:165] Memory required for data: 147316768
I0426 23:16:06.292182  9046 layer_factory.hpp:77] Creating layer fire3/relu_expand3x3
I0426 23:16:06.292188  9046 net.cpp:100] Creating Layer fire3/relu_expand3x3
I0426 23:16:06.292193  9046 net.cpp:434] fire3/relu_expand3x3 <- fire3/expand3x3
I0426 23:16:06.292198  9046 net.cpp:395] fire3/relu_expand3x3 -> fire3/expand3x3 (in-place)
I0426 23:16:06.292337  9046 net.cpp:150] Setting up fire3/relu_expand3x3
I0426 23:16:06.292346  9046 net.cpp:157] Top shape: 4 64 74 74 (1401856)
I0426 23:16:06.292351  9046 net.cpp:165] Memory required for data: 152924192
I0426 23:16:06.292354  9046 layer_factory.hpp:77] Creating layer fire3/concat
I0426 23:16:06.292359  9046 net.cpp:100] Creating Layer fire3/concat
I0426 23:16:06.292363  9046 net.cpp:434] fire3/concat <- fire3/expand1x1
I0426 23:16:06.292368  9046 net.cpp:434] fire3/concat <- fire3/expand3x3
I0426 23:16:06.292372  9046 net.cpp:408] fire3/concat -> fire3/concat
I0426 23:16:06.292393  9046 net.cpp:150] Setting up fire3/concat
I0426 23:16:06.292400  9046 net.cpp:157] Top shape: 4 128 74 74 (2803712)
I0426 23:16:06.292403  9046 net.cpp:165] Memory required for data: 164139040
I0426 23:16:06.292407  9046 layer_factory.hpp:77] Creating layer pool3
I0426 23:16:06.292413  9046 net.cpp:100] Creating Layer pool3
I0426 23:16:06.292418  9046 net.cpp:434] pool3 <- fire3/concat
I0426 23:16:06.292423  9046 net.cpp:408] pool3 -> pool3
I0426 23:16:06.292449  9046 net.cpp:150] Setting up pool3
I0426 23:16:06.292455  9046 net.cpp:157] Top shape: 4 128 37 37 (700928)
I0426 23:16:06.292459  9046 net.cpp:165] Memory required for data: 166942752
I0426 23:16:06.292462  9046 layer_factory.hpp:77] Creating layer fire4/squeeze1x1
I0426 23:16:06.292469  9046 net.cpp:100] Creating Layer fire4/squeeze1x1
I0426 23:16:06.292474  9046 net.cpp:434] fire4/squeeze1x1 <- pool3
I0426 23:16:06.292479  9046 net.cpp:408] fire4/squeeze1x1 -> fire4/squeeze1x1
I0426 23:16:06.293936  9046 net.cpp:150] Setting up fire4/squeeze1x1
I0426 23:16:06.293949  9046 net.cpp:157] Top shape: 4 32 37 37 (175232)
I0426 23:16:06.293954  9046 net.cpp:165] Memory required for data: 167643680
I0426 23:16:06.293962  9046 layer_factory.hpp:77] Creating layer fire4/relu_squeeze1x1
I0426 23:16:06.293982  9046 net.cpp:100] Creating Layer fire4/relu_squeeze1x1
I0426 23:16:06.293987  9046 net.cpp:434] fire4/relu_squeeze1x1 <- fire4/squeeze1x1
I0426 23:16:06.293993  9046 net.cpp:395] fire4/relu_squeeze1x1 -> fire4/squeeze1x1 (in-place)
I0426 23:16:06.294327  9046 net.cpp:150] Setting up fire4/relu_squeeze1x1
I0426 23:16:06.294337  9046 net.cpp:157] Top shape: 4 32 37 37 (175232)
I0426 23:16:06.294342  9046 net.cpp:165] Memory required for data: 168344608
I0426 23:16:06.294347  9046 layer_factory.hpp:77] Creating layer fire4/squeeze1x1_fire4/relu_squeeze1x1_0_split
I0426 23:16:06.294353  9046 net.cpp:100] Creating Layer fire4/squeeze1x1_fire4/relu_squeeze1x1_0_split
I0426 23:16:06.294358  9046 net.cpp:434] fire4/squeeze1x1_fire4/relu_squeeze1x1_0_split <- fire4/squeeze1x1
I0426 23:16:06.294363  9046 net.cpp:408] fire4/squeeze1x1_fire4/relu_squeeze1x1_0_split -> fire4/squeeze1x1_fire4/relu_squeeze1x1_0_split_0
I0426 23:16:06.294369  9046 net.cpp:408] fire4/squeeze1x1_fire4/relu_squeeze1x1_0_split -> fire4/squeeze1x1_fire4/relu_squeeze1x1_0_split_1
I0426 23:16:06.294404  9046 net.cpp:150] Setting up fire4/squeeze1x1_fire4/relu_squeeze1x1_0_split
I0426 23:16:06.294409  9046 net.cpp:157] Top shape: 4 32 37 37 (175232)
I0426 23:16:06.294414  9046 net.cpp:157] Top shape: 4 32 37 37 (175232)
I0426 23:16:06.294417  9046 net.cpp:165] Memory required for data: 169746464
I0426 23:16:06.294421  9046 layer_factory.hpp:77] Creating layer fire4/expand1x1
I0426 23:16:06.294428  9046 net.cpp:100] Creating Layer fire4/expand1x1
I0426 23:16:06.294433  9046 net.cpp:434] fire4/expand1x1 <- fire4/squeeze1x1_fire4/relu_squeeze1x1_0_split_0
I0426 23:16:06.294438  9046 net.cpp:408] fire4/expand1x1 -> fire4/expand1x1
I0426 23:16:06.295661  9046 net.cpp:150] Setting up fire4/expand1x1
I0426 23:16:06.295680  9046 net.cpp:157] Top shape: 4 128 37 37 (700928)
I0426 23:16:06.295684  9046 net.cpp:165] Memory required for data: 172550176
I0426 23:16:06.295696  9046 layer_factory.hpp:77] Creating layer fire4/relu_expand1x1
I0426 23:16:06.295703  9046 net.cpp:100] Creating Layer fire4/relu_expand1x1
I0426 23:16:06.295709  9046 net.cpp:434] fire4/relu_expand1x1 <- fire4/expand1x1
I0426 23:16:06.295716  9046 net.cpp:395] fire4/relu_expand1x1 -> fire4/expand1x1 (in-place)
I0426 23:16:06.295850  9046 net.cpp:150] Setting up fire4/relu_expand1x1
I0426 23:16:06.295859  9046 net.cpp:157] Top shape: 4 128 37 37 (700928)
I0426 23:16:06.295862  9046 net.cpp:165] Memory required for data: 175353888
I0426 23:16:06.295866  9046 layer_factory.hpp:77] Creating layer fire4/expand3x3
I0426 23:16:06.295874  9046 net.cpp:100] Creating Layer fire4/expand3x3
I0426 23:16:06.295878  9046 net.cpp:434] fire4/expand3x3 <- fire4/squeeze1x1_fire4/relu_squeeze1x1_0_split_1
I0426 23:16:06.295884  9046 net.cpp:408] fire4/expand3x3 -> fire4/expand3x3
I0426 23:16:06.297312  9046 net.cpp:150] Setting up fire4/expand3x3
I0426 23:16:06.297330  9046 net.cpp:157] Top shape: 4 128 37 37 (700928)
I0426 23:16:06.297338  9046 net.cpp:165] Memory required for data: 178157600
I0426 23:16:06.297348  9046 layer_factory.hpp:77] Creating layer fire4/relu_expand3x3
I0426 23:16:06.297369  9046 net.cpp:100] Creating Layer fire4/relu_expand3x3
I0426 23:16:06.297374  9046 net.cpp:434] fire4/relu_expand3x3 <- fire4/expand3x3
I0426 23:16:06.297380  9046 net.cpp:395] fire4/relu_expand3x3 -> fire4/expand3x3 (in-place)
I0426 23:16:06.297765  9046 net.cpp:150] Setting up fire4/relu_expand3x3
I0426 23:16:06.297781  9046 net.cpp:157] Top shape: 4 128 37 37 (700928)
I0426 23:16:06.297788  9046 net.cpp:165] Memory required for data: 180961312
I0426 23:16:06.297796  9046 layer_factory.hpp:77] Creating layer fire4/concat
I0426 23:16:06.297806  9046 net.cpp:100] Creating Layer fire4/concat
I0426 23:16:06.297812  9046 net.cpp:434] fire4/concat <- fire4/expand1x1
I0426 23:16:06.297821  9046 net.cpp:434] fire4/concat <- fire4/expand3x3
I0426 23:16:06.297828  9046 net.cpp:408] fire4/concat -> fire4/concat
I0426 23:16:06.297873  9046 net.cpp:150] Setting up fire4/concat
I0426 23:16:06.297927  9046 net.cpp:157] Top shape: 4 256 37 37 (1401856)
I0426 23:16:06.297933  9046 net.cpp:165] Memory required for data: 186568736
I0426 23:16:06.297940  9046 layer_factory.hpp:77] Creating layer fire5/squeeze1x1
I0426 23:16:06.297956  9046 net.cpp:100] Creating Layer fire5/squeeze1x1
I0426 23:16:06.297966  9046 net.cpp:434] fire5/squeeze1x1 <- fire4/concat
I0426 23:16:06.297978  9046 net.cpp:408] fire5/squeeze1x1 -> fire5/squeeze1x1
I0426 23:16:06.299180  9046 net.cpp:150] Setting up fire5/squeeze1x1
I0426 23:16:06.299194  9046 net.cpp:157] Top shape: 4 32 37 37 (175232)
I0426 23:16:06.299198  9046 net.cpp:165] Memory required for data: 187269664
I0426 23:16:06.299206  9046 layer_factory.hpp:77] Creating layer fire5/relu_squeeze1x1
I0426 23:16:06.299212  9046 net.cpp:100] Creating Layer fire5/relu_squeeze1x1
I0426 23:16:06.299217  9046 net.cpp:434] fire5/relu_squeeze1x1 <- fire5/squeeze1x1
I0426 23:16:06.299222  9046 net.cpp:395] fire5/relu_squeeze1x1 -> fire5/squeeze1x1 (in-place)
I0426 23:16:06.299618  9046 net.cpp:150] Setting up fire5/relu_squeeze1x1
I0426 23:16:06.299728  9046 net.cpp:157] Top shape: 4 32 37 37 (175232)
I0426 23:16:06.299800  9046 net.cpp:165] Memory required for data: 187970592
I0426 23:16:06.299873  9046 layer_factory.hpp:77] Creating layer fire5/squeeze1x1_fire5/relu_squeeze1x1_0_split
I0426 23:16:06.299973  9046 net.cpp:100] Creating Layer fire5/squeeze1x1_fire5/relu_squeeze1x1_0_split
I0426 23:16:06.300048  9046 net.cpp:434] fire5/squeeze1x1_fire5/relu_squeeze1x1_0_split <- fire5/squeeze1x1
I0426 23:16:06.300129  9046 net.cpp:408] fire5/squeeze1x1_fire5/relu_squeeze1x1_0_split -> fire5/squeeze1x1_fire5/relu_squeeze1x1_0_split_0
I0426 23:16:06.300212  9046 net.cpp:408] fire5/squeeze1x1_fire5/relu_squeeze1x1_0_split -> fire5/squeeze1x1_fire5/relu_squeeze1x1_0_split_1
I0426 23:16:06.300433  9046 net.cpp:150] Setting up fire5/squeeze1x1_fire5/relu_squeeze1x1_0_split
I0426 23:16:06.300457  9046 net.cpp:157] Top shape: 4 32 37 37 (175232)
I0426 23:16:06.300468  9046 net.cpp:157] Top shape: 4 32 37 37 (175232)
I0426 23:16:06.300478  9046 net.cpp:165] Memory required for data: 189372448
I0426 23:16:06.300488  9046 layer_factory.hpp:77] Creating layer fire5/expand1x1
I0426 23:16:06.300514  9046 net.cpp:100] Creating Layer fire5/expand1x1
I0426 23:16:06.300523  9046 net.cpp:434] fire5/expand1x1 <- fire5/squeeze1x1_fire5/relu_squeeze1x1_0_split_0
I0426 23:16:06.300534  9046 net.cpp:408] fire5/expand1x1 -> fire5/expand1x1
I0426 23:16:06.302472  9046 net.cpp:150] Setting up fire5/expand1x1
I0426 23:16:06.302559  9046 net.cpp:157] Top shape: 4 128 37 37 (700928)
I0426 23:16:06.302572  9046 net.cpp:165] Memory required for data: 192176160
I0426 23:16:06.302659  9046 layer_factory.hpp:77] Creating layer fire5/relu_expand1x1
I0426 23:16:06.302729  9046 net.cpp:100] Creating Layer fire5/relu_expand1x1
I0426 23:16:06.302783  9046 net.cpp:434] fire5/relu_expand1x1 <- fire5/expand1x1
I0426 23:16:06.302796  9046 net.cpp:395] fire5/relu_expand1x1 -> fire5/expand1x1 (in-place)
I0426 23:16:06.303086  9046 net.cpp:150] Setting up fire5/relu_expand1x1
I0426 23:16:06.303105  9046 net.cpp:157] Top shape: 4 128 37 37 (700928)
I0426 23:16:06.303115  9046 net.cpp:165] Memory required for data: 194979872
I0426 23:16:06.303128  9046 layer_factory.hpp:77] Creating layer fire5/expand3x3
I0426 23:16:06.303149  9046 net.cpp:100] Creating Layer fire5/expand3x3
I0426 23:16:06.303160  9046 net.cpp:434] fire5/expand3x3 <- fire5/squeeze1x1_fire5/relu_squeeze1x1_0_split_1
I0426 23:16:06.303171  9046 net.cpp:408] fire5/expand3x3 -> fire5/expand3x3
I0426 23:16:06.305230  9046 net.cpp:150] Setting up fire5/expand3x3
I0426 23:16:06.305265  9046 net.cpp:157] Top shape: 4 128 37 37 (700928)
I0426 23:16:06.305272  9046 net.cpp:165] Memory required for data: 197783584
I0426 23:16:06.305289  9046 layer_factory.hpp:77] Creating layer fire5/relu_expand3x3
I0426 23:16:06.305313  9046 net.cpp:100] Creating Layer fire5/relu_expand3x3
I0426 23:16:06.305325  9046 net.cpp:434] fire5/relu_expand3x3 <- fire5/expand3x3
I0426 23:16:06.305375  9046 net.cpp:395] fire5/relu_expand3x3 -> fire5/expand3x3 (in-place)
I0426 23:16:06.305832  9046 net.cpp:150] Setting up fire5/relu_expand3x3
I0426 23:16:06.305845  9046 net.cpp:157] Top shape: 4 128 37 37 (700928)
I0426 23:16:06.305850  9046 net.cpp:165] Memory required for data: 200587296
I0426 23:16:06.305857  9046 layer_factory.hpp:77] Creating layer fire5/concat
I0426 23:16:06.305866  9046 net.cpp:100] Creating Layer fire5/concat
I0426 23:16:06.305873  9046 net.cpp:434] fire5/concat <- fire5/expand1x1
I0426 23:16:06.305881  9046 net.cpp:434] fire5/concat <- fire5/expand3x3
I0426 23:16:06.305889  9046 net.cpp:408] fire5/concat -> fire5/concat
I0426 23:16:06.305927  9046 net.cpp:150] Setting up fire5/concat
I0426 23:16:06.305934  9046 net.cpp:157] Top shape: 4 256 37 37 (1401856)
I0426 23:16:06.305940  9046 net.cpp:165] Memory required for data: 206194720
I0426 23:16:06.305946  9046 layer_factory.hpp:77] Creating layer fire5/concat_fire5/concat_0_split
I0426 23:16:06.305963  9046 net.cpp:100] Creating Layer fire5/concat_fire5/concat_0_split
I0426 23:16:06.305971  9046 net.cpp:434] fire5/concat_fire5/concat_0_split <- fire5/concat
I0426 23:16:06.305979  9046 net.cpp:408] fire5/concat_fire5/concat_0_split -> fire5/concat_fire5/concat_0_split_0
I0426 23:16:06.305989  9046 net.cpp:408] fire5/concat_fire5/concat_0_split -> fire5/concat_fire5/concat_0_split_1
I0426 23:16:06.305999  9046 net.cpp:408] fire5/concat_fire5/concat_0_split -> fire5/concat_fire5/concat_0_split_2
I0426 23:16:06.306007  9046 net.cpp:408] fire5/concat_fire5/concat_0_split -> fire5/concat_fire5/concat_0_split_3
I0426 23:16:06.306066  9046 net.cpp:150] Setting up fire5/concat_fire5/concat_0_split
I0426 23:16:06.306073  9046 net.cpp:157] Top shape: 4 256 37 37 (1401856)
I0426 23:16:06.306080  9046 net.cpp:157] Top shape: 4 256 37 37 (1401856)
I0426 23:16:06.306088  9046 net.cpp:157] Top shape: 4 256 37 37 (1401856)
I0426 23:16:06.306095  9046 net.cpp:157] Top shape: 4 256 37 37 (1401856)
I0426 23:16:06.306102  9046 net.cpp:165] Memory required for data: 228624416
I0426 23:16:06.306107  9046 layer_factory.hpp:77] Creating layer pool5
I0426 23:16:06.306118  9046 net.cpp:100] Creating Layer pool5
I0426 23:16:06.306124  9046 net.cpp:434] pool5 <- fire5/concat_fire5/concat_0_split_0
I0426 23:16:06.306133  9046 net.cpp:408] pool5 -> pool5
I0426 23:16:06.306171  9046 net.cpp:150] Setting up pool5
I0426 23:16:06.306180  9046 net.cpp:157] Top shape: 4 256 18 18 (331776)
I0426 23:16:06.306185  9046 net.cpp:165] Memory required for data: 229951520
I0426 23:16:06.306202  9046 layer_factory.hpp:77] Creating layer fire6/squeeze1x1
I0426 23:16:06.306232  9046 net.cpp:100] Creating Layer fire6/squeeze1x1
I0426 23:16:06.306246  9046 net.cpp:434] fire6/squeeze1x1 <- pool5
I0426 23:16:06.306260  9046 net.cpp:408] fire6/squeeze1x1 -> fire6/squeeze1x1
I0426 23:16:06.307718  9046 net.cpp:150] Setting up fire6/squeeze1x1
I0426 23:16:06.307745  9046 net.cpp:157] Top shape: 4 48 18 18 (62208)
I0426 23:16:06.307751  9046 net.cpp:165] Memory required for data: 230200352
I0426 23:16:06.307763  9046 layer_factory.hpp:77] Creating layer fire6/relu_squeeze1x1
I0426 23:16:06.307772  9046 net.cpp:100] Creating Layer fire6/relu_squeeze1x1
I0426 23:16:06.307780  9046 net.cpp:434] fire6/relu_squeeze1x1 <- fire6/squeeze1x1
I0426 23:16:06.307787  9046 net.cpp:395] fire6/relu_squeeze1x1 -> fire6/squeeze1x1 (in-place)
I0426 23:16:06.307932  9046 net.cpp:150] Setting up fire6/relu_squeeze1x1
I0426 23:16:06.307942  9046 net.cpp:157] Top shape: 4 48 18 18 (62208)
I0426 23:16:06.307948  9046 net.cpp:165] Memory required for data: 230449184
I0426 23:16:06.307955  9046 layer_factory.hpp:77] Creating layer fire6/squeeze1x1_fire6/relu_squeeze1x1_0_split
I0426 23:16:06.307963  9046 net.cpp:100] Creating Layer fire6/squeeze1x1_fire6/relu_squeeze1x1_0_split
I0426 23:16:06.307970  9046 net.cpp:434] fire6/squeeze1x1_fire6/relu_squeeze1x1_0_split <- fire6/squeeze1x1
I0426 23:16:06.307978  9046 net.cpp:408] fire6/squeeze1x1_fire6/relu_squeeze1x1_0_split -> fire6/squeeze1x1_fire6/relu_squeeze1x1_0_split_0
I0426 23:16:06.308007  9046 net.cpp:408] fire6/squeeze1x1_fire6/relu_squeeze1x1_0_split -> fire6/squeeze1x1_fire6/relu_squeeze1x1_0_split_1
I0426 23:16:06.308049  9046 net.cpp:150] Setting up fire6/squeeze1x1_fire6/relu_squeeze1x1_0_split
I0426 23:16:06.308058  9046 net.cpp:157] Top shape: 4 48 18 18 (62208)
I0426 23:16:06.308064  9046 net.cpp:157] Top shape: 4 48 18 18 (62208)
I0426 23:16:06.308068  9046 net.cpp:165] Memory required for data: 230946848
I0426 23:16:06.308074  9046 layer_factory.hpp:77] Creating layer fire6/expand1x1
I0426 23:16:06.308084  9046 net.cpp:100] Creating Layer fire6/expand1x1
I0426 23:16:06.308089  9046 net.cpp:434] fire6/expand1x1 <- fire6/squeeze1x1_fire6/relu_squeeze1x1_0_split_0
I0426 23:16:06.308097  9046 net.cpp:408] fire6/expand1x1 -> fire6/expand1x1
I0426 23:16:06.309232  9046 net.cpp:150] Setting up fire6/expand1x1
I0426 23:16:06.309247  9046 net.cpp:157] Top shape: 4 192 18 18 (248832)
I0426 23:16:06.309252  9046 net.cpp:165] Memory required for data: 231942176
I0426 23:16:06.309260  9046 layer_factory.hpp:77] Creating layer fire6/relu_expand1x1
I0426 23:16:06.309269  9046 net.cpp:100] Creating Layer fire6/relu_expand1x1
I0426 23:16:06.309274  9046 net.cpp:434] fire6/relu_expand1x1 <- fire6/expand1x1
I0426 23:16:06.309281  9046 net.cpp:395] fire6/relu_expand1x1 -> fire6/expand1x1 (in-place)
I0426 23:16:06.309633  9046 net.cpp:150] Setting up fire6/relu_expand1x1
I0426 23:16:06.309644  9046 net.cpp:157] Top shape: 4 192 18 18 (248832)
I0426 23:16:06.309649  9046 net.cpp:165] Memory required for data: 232937504
I0426 23:16:06.309655  9046 layer_factory.hpp:77] Creating layer fire6/expand3x3
I0426 23:16:06.309670  9046 net.cpp:100] Creating Layer fire6/expand3x3
I0426 23:16:06.309677  9046 net.cpp:434] fire6/expand3x3 <- fire6/squeeze1x1_fire6/relu_squeeze1x1_0_split_1
I0426 23:16:06.309685  9046 net.cpp:408] fire6/expand3x3 -> fire6/expand3x3
I0426 23:16:06.312384  9046 net.cpp:150] Setting up fire6/expand3x3
I0426 23:16:06.312412  9046 net.cpp:157] Top shape: 4 192 18 18 (248832)
I0426 23:16:06.312418  9046 net.cpp:165] Memory required for data: 233932832
I0426 23:16:06.312433  9046 layer_factory.hpp:77] Creating layer fire6/relu_expand3x3
I0426 23:16:06.312444  9046 net.cpp:100] Creating Layer fire6/relu_expand3x3
I0426 23:16:06.312451  9046 net.cpp:434] fire6/relu_expand3x3 <- fire6/expand3x3
I0426 23:16:06.312458  9046 net.cpp:395] fire6/relu_expand3x3 -> fire6/expand3x3 (in-place)
I0426 23:16:06.313110  9046 net.cpp:150] Setting up fire6/relu_expand3x3
I0426 23:16:06.313122  9046 net.cpp:157] Top shape: 4 192 18 18 (248832)
I0426 23:16:06.313127  9046 net.cpp:165] Memory required for data: 234928160
I0426 23:16:06.313129  9046 layer_factory.hpp:77] Creating layer fire6/concat
I0426 23:16:06.313138  9046 net.cpp:100] Creating Layer fire6/concat
I0426 23:16:06.313141  9046 net.cpp:434] fire6/concat <- fire6/expand1x1
I0426 23:16:06.313146  9046 net.cpp:434] fire6/concat <- fire6/expand3x3
I0426 23:16:06.313151  9046 net.cpp:408] fire6/concat -> fire6/concat
I0426 23:16:06.313182  9046 net.cpp:150] Setting up fire6/concat
I0426 23:16:06.313189  9046 net.cpp:157] Top shape: 4 384 18 18 (497664)
I0426 23:16:06.313191  9046 net.cpp:165] Memory required for data: 236918816
I0426 23:16:06.313194  9046 layer_factory.hpp:77] Creating layer fire7/squeeze1x1
I0426 23:16:06.313208  9046 net.cpp:100] Creating Layer fire7/squeeze1x1
I0426 23:16:06.313213  9046 net.cpp:434] fire7/squeeze1x1 <- fire6/concat
I0426 23:16:06.313221  9046 net.cpp:408] fire7/squeeze1x1 -> fire7/squeeze1x1
I0426 23:16:06.314741  9046 net.cpp:150] Setting up fire7/squeeze1x1
I0426 23:16:06.314764  9046 net.cpp:157] Top shape: 4 48 18 18 (62208)
I0426 23:16:06.314770  9046 net.cpp:165] Memory required for data: 237167648
I0426 23:16:06.314821  9046 layer_factory.hpp:77] Creating layer fire7/relu_squeeze1x1
I0426 23:16:06.314836  9046 net.cpp:100] Creating Layer fire7/relu_squeeze1x1
I0426 23:16:06.314843  9046 net.cpp:434] fire7/relu_squeeze1x1 <- fire7/squeeze1x1
I0426 23:16:06.314851  9046 net.cpp:395] fire7/relu_squeeze1x1 -> fire7/squeeze1x1 (in-place)
I0426 23:16:06.315086  9046 net.cpp:150] Setting up fire7/relu_squeeze1x1
I0426 23:16:06.315098  9046 net.cpp:157] Top shape: 4 48 18 18 (62208)
I0426 23:16:06.315102  9046 net.cpp:165] Memory required for data: 237416480
I0426 23:16:06.315106  9046 layer_factory.hpp:77] Creating layer fire7/squeeze1x1_fire7/relu_squeeze1x1_0_split
I0426 23:16:06.315115  9046 net.cpp:100] Creating Layer fire7/squeeze1x1_fire7/relu_squeeze1x1_0_split
I0426 23:16:06.315120  9046 net.cpp:434] fire7/squeeze1x1_fire7/relu_squeeze1x1_0_split <- fire7/squeeze1x1
I0426 23:16:06.315125  9046 net.cpp:408] fire7/squeeze1x1_fire7/relu_squeeze1x1_0_split -> fire7/squeeze1x1_fire7/relu_squeeze1x1_0_split_0
I0426 23:16:06.315134  9046 net.cpp:408] fire7/squeeze1x1_fire7/relu_squeeze1x1_0_split -> fire7/squeeze1x1_fire7/relu_squeeze1x1_0_split_1
I0426 23:16:06.315172  9046 net.cpp:150] Setting up fire7/squeeze1x1_fire7/relu_squeeze1x1_0_split
I0426 23:16:06.315178  9046 net.cpp:157] Top shape: 4 48 18 18 (62208)
I0426 23:16:06.315183  9046 net.cpp:157] Top shape: 4 48 18 18 (62208)
I0426 23:16:06.315186  9046 net.cpp:165] Memory required for data: 237914144
I0426 23:16:06.315191  9046 layer_factory.hpp:77] Creating layer fire7/expand1x1
I0426 23:16:06.315201  9046 net.cpp:100] Creating Layer fire7/expand1x1
I0426 23:16:06.315205  9046 net.cpp:434] fire7/expand1x1 <- fire7/squeeze1x1_fire7/relu_squeeze1x1_0_split_0
I0426 23:16:06.315212  9046 net.cpp:408] fire7/expand1x1 -> fire7/expand1x1
I0426 23:16:06.316526  9046 net.cpp:150] Setting up fire7/expand1x1
I0426 23:16:06.316546  9046 net.cpp:157] Top shape: 4 192 18 18 (248832)
I0426 23:16:06.316552  9046 net.cpp:165] Memory required for data: 238909472
I0426 23:16:06.316563  9046 layer_factory.hpp:77] Creating layer fire7/relu_expand1x1
I0426 23:16:06.316572  9046 net.cpp:100] Creating Layer fire7/relu_expand1x1
I0426 23:16:06.316578  9046 net.cpp:434] fire7/relu_expand1x1 <- fire7/expand1x1
I0426 23:16:06.316597  9046 net.cpp:395] fire7/relu_expand1x1 -> fire7/expand1x1 (in-place)
I0426 23:16:06.316994  9046 net.cpp:150] Setting up fire7/relu_expand1x1
I0426 23:16:06.317006  9046 net.cpp:157] Top shape: 4 192 18 18 (248832)
I0426 23:16:06.317010  9046 net.cpp:165] Memory required for data: 239904800
I0426 23:16:06.317014  9046 layer_factory.hpp:77] Creating layer fire7/expand3x3
I0426 23:16:06.317023  9046 net.cpp:100] Creating Layer fire7/expand3x3
I0426 23:16:06.317028  9046 net.cpp:434] fire7/expand3x3 <- fire7/squeeze1x1_fire7/relu_squeeze1x1_0_split_1
I0426 23:16:06.317037  9046 net.cpp:408] fire7/expand3x3 -> fire7/expand3x3
I0426 23:16:06.319008  9046 net.cpp:150] Setting up fire7/expand3x3
I0426 23:16:06.319020  9046 net.cpp:157] Top shape: 4 192 18 18 (248832)
I0426 23:16:06.319034  9046 net.cpp:165] Memory required for data: 240900128
I0426 23:16:06.319041  9046 layer_factory.hpp:77] Creating layer fire7/relu_expand3x3
I0426 23:16:06.319047  9046 net.cpp:100] Creating Layer fire7/relu_expand3x3
I0426 23:16:06.319052  9046 net.cpp:434] fire7/relu_expand3x3 <- fire7/expand3x3
I0426 23:16:06.319057  9046 net.cpp:395] fire7/relu_expand3x3 -> fire7/expand3x3 (in-place)
I0426 23:16:06.319216  9046 net.cpp:150] Setting up fire7/relu_expand3x3
I0426 23:16:06.319224  9046 net.cpp:157] Top shape: 4 192 18 18 (248832)
I0426 23:16:06.319228  9046 net.cpp:165] Memory required for data: 241895456
I0426 23:16:06.319232  9046 layer_factory.hpp:77] Creating layer fire7/concat
I0426 23:16:06.319237  9046 net.cpp:100] Creating Layer fire7/concat
I0426 23:16:06.319242  9046 net.cpp:434] fire7/concat <- fire7/expand1x1
I0426 23:16:06.319247  9046 net.cpp:434] fire7/concat <- fire7/expand3x3
I0426 23:16:06.319252  9046 net.cpp:408] fire7/concat -> fire7/concat
I0426 23:16:06.319277  9046 net.cpp:150] Setting up fire7/concat
I0426 23:16:06.319293  9046 net.cpp:157] Top shape: 4 384 18 18 (497664)
I0426 23:16:06.319295  9046 net.cpp:165] Memory required for data: 243886112
I0426 23:16:06.319309  9046 layer_factory.hpp:77] Creating layer fire8/squeeze1x1
I0426 23:16:06.319342  9046 net.cpp:100] Creating Layer fire8/squeeze1x1
I0426 23:16:06.319347  9046 net.cpp:434] fire8/squeeze1x1 <- fire7/concat
I0426 23:16:06.319362  9046 net.cpp:408] fire8/squeeze1x1 -> fire8/squeeze1x1
I0426 23:16:06.320663  9046 net.cpp:150] Setting up fire8/squeeze1x1
I0426 23:16:06.320675  9046 net.cpp:157] Top shape: 4 64 18 18 (82944)
I0426 23:16:06.320689  9046 net.cpp:165] Memory required for data: 244217888
I0426 23:16:06.320695  9046 layer_factory.hpp:77] Creating layer fire8/relu_squeeze1x1
I0426 23:16:06.320703  9046 net.cpp:100] Creating Layer fire8/relu_squeeze1x1
I0426 23:16:06.320706  9046 net.cpp:434] fire8/relu_squeeze1x1 <- fire8/squeeze1x1
I0426 23:16:06.320713  9046 net.cpp:395] fire8/relu_squeeze1x1 -> fire8/squeeze1x1 (in-place)
I0426 23:16:06.321061  9046 net.cpp:150] Setting up fire8/relu_squeeze1x1
I0426 23:16:06.321072  9046 net.cpp:157] Top shape: 4 64 18 18 (82944)
I0426 23:16:06.321076  9046 net.cpp:165] Memory required for data: 244549664
I0426 23:16:06.321081  9046 layer_factory.hpp:77] Creating layer fire8/squeeze1x1_fire8/relu_squeeze1x1_0_split
I0426 23:16:06.321089  9046 net.cpp:100] Creating Layer fire8/squeeze1x1_fire8/relu_squeeze1x1_0_split
I0426 23:16:06.321094  9046 net.cpp:434] fire8/squeeze1x1_fire8/relu_squeeze1x1_0_split <- fire8/squeeze1x1
I0426 23:16:06.321099  9046 net.cpp:408] fire8/squeeze1x1_fire8/relu_squeeze1x1_0_split -> fire8/squeeze1x1_fire8/relu_squeeze1x1_0_split_0
I0426 23:16:06.321105  9046 net.cpp:408] fire8/squeeze1x1_fire8/relu_squeeze1x1_0_split -> fire8/squeeze1x1_fire8/relu_squeeze1x1_0_split_1
I0426 23:16:06.321141  9046 net.cpp:150] Setting up fire8/squeeze1x1_fire8/relu_squeeze1x1_0_split
I0426 23:16:06.321146  9046 net.cpp:157] Top shape: 4 64 18 18 (82944)
I0426 23:16:06.321151  9046 net.cpp:157] Top shape: 4 64 18 18 (82944)
I0426 23:16:06.321154  9046 net.cpp:165] Memory required for data: 245213216
I0426 23:16:06.321158  9046 layer_factory.hpp:77] Creating layer fire8/expand1x1
I0426 23:16:06.321166  9046 net.cpp:100] Creating Layer fire8/expand1x1
I0426 23:16:06.321171  9046 net.cpp:434] fire8/expand1x1 <- fire8/squeeze1x1_fire8/relu_squeeze1x1_0_split_0
I0426 23:16:06.321175  9046 net.cpp:408] fire8/expand1x1 -> fire8/expand1x1
I0426 23:16:06.322361  9046 net.cpp:150] Setting up fire8/expand1x1
I0426 23:16:06.322374  9046 net.cpp:157] Top shape: 4 256 18 18 (331776)
I0426 23:16:06.322377  9046 net.cpp:165] Memory required for data: 246540320
I0426 23:16:06.322383  9046 layer_factory.hpp:77] Creating layer fire8/relu_expand1x1
I0426 23:16:06.322389  9046 net.cpp:100] Creating Layer fire8/relu_expand1x1
I0426 23:16:06.322394  9046 net.cpp:434] fire8/relu_expand1x1 <- fire8/expand1x1
I0426 23:16:06.322399  9046 net.cpp:395] fire8/relu_expand1x1 -> fire8/expand1x1 (in-place)
I0426 23:16:06.322746  9046 net.cpp:150] Setting up fire8/relu_expand1x1
I0426 23:16:06.322757  9046 net.cpp:157] Top shape: 4 256 18 18 (331776)
I0426 23:16:06.322762  9046 net.cpp:165] Memory required for data: 247867424
I0426 23:16:06.322767  9046 layer_factory.hpp:77] Creating layer fire8/expand3x3
I0426 23:16:06.322773  9046 net.cpp:100] Creating Layer fire8/expand3x3
I0426 23:16:06.322778  9046 net.cpp:434] fire8/expand3x3 <- fire8/squeeze1x1_fire8/relu_squeeze1x1_0_split_1
I0426 23:16:06.322784  9046 net.cpp:408] fire8/expand3x3 -> fire8/expand3x3
I0426 23:16:06.326047  9046 net.cpp:150] Setting up fire8/expand3x3
I0426 23:16:06.326071  9046 net.cpp:157] Top shape: 4 256 18 18 (331776)
I0426 23:16:06.326078  9046 net.cpp:165] Memory required for data: 249194528
I0426 23:16:06.326089  9046 layer_factory.hpp:77] Creating layer fire8/relu_expand3x3
I0426 23:16:06.326099  9046 net.cpp:100] Creating Layer fire8/relu_expand3x3
I0426 23:16:06.326107  9046 net.cpp:434] fire8/relu_expand3x3 <- fire8/expand3x3
I0426 23:16:06.326114  9046 net.cpp:395] fire8/relu_expand3x3 -> fire8/expand3x3 (in-place)
I0426 23:16:06.326340  9046 net.cpp:150] Setting up fire8/relu_expand3x3
I0426 23:16:06.326351  9046 net.cpp:157] Top shape: 4 256 18 18 (331776)
I0426 23:16:06.326357  9046 net.cpp:165] Memory required for data: 250521632
I0426 23:16:06.326380  9046 layer_factory.hpp:77] Creating layer fire8/concat
I0426 23:16:06.326390  9046 net.cpp:100] Creating Layer fire8/concat
I0426 23:16:06.326395  9046 net.cpp:434] fire8/concat <- fire8/expand1x1
I0426 23:16:06.326401  9046 net.cpp:434] fire8/concat <- fire8/expand3x3
I0426 23:16:06.326408  9046 net.cpp:408] fire8/concat -> fire8/concat
I0426 23:16:06.326437  9046 net.cpp:150] Setting up fire8/concat
I0426 23:16:06.326445  9046 net.cpp:157] Top shape: 4 512 18 18 (663552)
I0426 23:16:06.326450  9046 net.cpp:165] Memory required for data: 253175840
I0426 23:16:06.326457  9046 layer_factory.hpp:77] Creating layer fire9/squeeze1x1
I0426 23:16:06.326485  9046 net.cpp:100] Creating Layer fire9/squeeze1x1
I0426 23:16:06.326491  9046 net.cpp:434] fire9/squeeze1x1 <- fire8/concat
I0426 23:16:06.326499  9046 net.cpp:408] fire9/squeeze1x1 -> fire9/squeeze1x1
I0426 23:16:06.327894  9046 net.cpp:150] Setting up fire9/squeeze1x1
I0426 23:16:06.327908  9046 net.cpp:157] Top shape: 4 64 18 18 (82944)
I0426 23:16:06.327915  9046 net.cpp:165] Memory required for data: 253507616
I0426 23:16:06.327925  9046 layer_factory.hpp:77] Creating layer fire9/relu_squeeze1x1
I0426 23:16:06.327934  9046 net.cpp:100] Creating Layer fire9/relu_squeeze1x1
I0426 23:16:06.327939  9046 net.cpp:434] fire9/relu_squeeze1x1 <- fire9/squeeze1x1
I0426 23:16:06.327945  9046 net.cpp:395] fire9/relu_squeeze1x1 -> fire9/squeeze1x1 (in-place)
I0426 23:16:06.328306  9046 net.cpp:150] Setting up fire9/relu_squeeze1x1
I0426 23:16:06.328318  9046 net.cpp:157] Top shape: 4 64 18 18 (82944)
I0426 23:16:06.328325  9046 net.cpp:165] Memory required for data: 253839392
I0426 23:16:06.328330  9046 layer_factory.hpp:77] Creating layer fire9/squeeze1x1_fire9/relu_squeeze1x1_0_split
I0426 23:16:06.328339  9046 net.cpp:100] Creating Layer fire9/squeeze1x1_fire9/relu_squeeze1x1_0_split
I0426 23:16:06.328344  9046 net.cpp:434] fire9/squeeze1x1_fire9/relu_squeeze1x1_0_split <- fire9/squeeze1x1
I0426 23:16:06.328352  9046 net.cpp:408] fire9/squeeze1x1_fire9/relu_squeeze1x1_0_split -> fire9/squeeze1x1_fire9/relu_squeeze1x1_0_split_0
I0426 23:16:06.328361  9046 net.cpp:408] fire9/squeeze1x1_fire9/relu_squeeze1x1_0_split -> fire9/squeeze1x1_fire9/relu_squeeze1x1_0_split_1
I0426 23:16:06.328402  9046 net.cpp:150] Setting up fire9/squeeze1x1_fire9/relu_squeeze1x1_0_split
I0426 23:16:06.328409  9046 net.cpp:157] Top shape: 4 64 18 18 (82944)
I0426 23:16:06.328416  9046 net.cpp:157] Top shape: 4 64 18 18 (82944)
I0426 23:16:06.328420  9046 net.cpp:165] Memory required for data: 254502944
I0426 23:16:06.328426  9046 layer_factory.hpp:77] Creating layer fire9/expand1x1
I0426 23:16:06.328436  9046 net.cpp:100] Creating Layer fire9/expand1x1
I0426 23:16:06.328441  9046 net.cpp:434] fire9/expand1x1 <- fire9/squeeze1x1_fire9/relu_squeeze1x1_0_split_0
I0426 23:16:06.328449  9046 net.cpp:408] fire9/expand1x1 -> fire9/expand1x1
I0426 23:16:06.329859  9046 net.cpp:150] Setting up fire9/expand1x1
I0426 23:16:06.329872  9046 net.cpp:157] Top shape: 4 256 18 18 (331776)
I0426 23:16:06.329879  9046 net.cpp:165] Memory required for data: 255830048
I0426 23:16:06.329888  9046 layer_factory.hpp:77] Creating layer fire9/relu_expand1x1
I0426 23:16:06.329895  9046 net.cpp:100] Creating Layer fire9/relu_expand1x1
I0426 23:16:06.329901  9046 net.cpp:434] fire9/relu_expand1x1 <- fire9/expand1x1
I0426 23:16:06.329907  9046 net.cpp:395] fire9/relu_expand1x1 -> fire9/expand1x1 (in-place)
I0426 23:16:06.330052  9046 net.cpp:150] Setting up fire9/relu_expand1x1
I0426 23:16:06.330061  9046 net.cpp:157] Top shape: 4 256 18 18 (331776)
I0426 23:16:06.330065  9046 net.cpp:165] Memory required for data: 257157152
I0426 23:16:06.330071  9046 layer_factory.hpp:77] Creating layer fire9/expand3x3
I0426 23:16:06.330080  9046 net.cpp:100] Creating Layer fire9/expand3x3
I0426 23:16:06.330086  9046 net.cpp:434] fire9/expand3x3 <- fire9/squeeze1x1_fire9/relu_squeeze1x1_0_split_1
I0426 23:16:06.330093  9046 net.cpp:408] fire9/expand3x3 -> fire9/expand3x3
I0426 23:16:06.335150  9046 net.cpp:150] Setting up fire9/expand3x3
I0426 23:16:06.335325  9046 net.cpp:157] Top shape: 4 256 18 18 (331776)
I0426 23:16:06.335377  9046 net.cpp:165] Memory required for data: 258484256
I0426 23:16:06.335441  9046 layer_factory.hpp:77] Creating layer fire9/relu_expand3x3
I0426 23:16:06.335502  9046 net.cpp:100] Creating Layer fire9/relu_expand3x3
I0426 23:16:06.335556  9046 net.cpp:434] fire9/relu_expand3x3 <- fire9/expand3x3
I0426 23:16:06.335592  9046 net.cpp:395] fire9/relu_expand3x3 -> fire9/expand3x3 (in-place)
I0426 23:16:06.336153  9046 net.cpp:150] Setting up fire9/relu_expand3x3
I0426 23:16:06.336165  9046 net.cpp:157] Top shape: 4 256 18 18 (331776)
I0426 23:16:06.336171  9046 net.cpp:165] Memory required for data: 259811360
I0426 23:16:06.336179  9046 layer_factory.hpp:77] Creating layer fire9/concat
I0426 23:16:06.336187  9046 net.cpp:100] Creating Layer fire9/concat
I0426 23:16:06.336195  9046 net.cpp:434] fire9/concat <- fire9/expand1x1
I0426 23:16:06.336202  9046 net.cpp:434] fire9/concat <- fire9/expand3x3
I0426 23:16:06.336211  9046 net.cpp:408] fire9/concat -> fire9/concat
I0426 23:16:06.336267  9046 net.cpp:150] Setting up fire9/concat
I0426 23:16:06.336277  9046 net.cpp:157] Top shape: 4 512 18 18 (663552)
I0426 23:16:06.336282  9046 net.cpp:165] Memory required for data: 262465568
I0426 23:16:06.336288  9046 layer_factory.hpp:77] Creating layer fire9/concat_fire9/concat_0_split
I0426 23:16:06.336300  9046 net.cpp:100] Creating Layer fire9/concat_fire9/concat_0_split
I0426 23:16:06.336308  9046 net.cpp:434] fire9/concat_fire9/concat_0_split <- fire9/concat
I0426 23:16:06.336316  9046 net.cpp:408] fire9/concat_fire9/concat_0_split -> fire9/concat_fire9/concat_0_split_0
I0426 23:16:06.336338  9046 net.cpp:408] fire9/concat_fire9/concat_0_split -> fire9/concat_fire9/concat_0_split_1
I0426 23:16:06.336347  9046 net.cpp:408] fire9/concat_fire9/concat_0_split -> fire9/concat_fire9/concat_0_split_2
I0426 23:16:06.336355  9046 net.cpp:408] fire9/concat_fire9/concat_0_split -> fire9/concat_fire9/concat_0_split_3
I0426 23:16:06.336431  9046 net.cpp:150] Setting up fire9/concat_fire9/concat_0_split
I0426 23:16:06.336452  9046 net.cpp:157] Top shape: 4 512 18 18 (663552)
I0426 23:16:06.336462  9046 net.cpp:157] Top shape: 4 512 18 18 (663552)
I0426 23:16:06.336468  9046 net.cpp:157] Top shape: 4 512 18 18 (663552)
I0426 23:16:06.336475  9046 net.cpp:157] Top shape: 4 512 18 18 (663552)
I0426 23:16:06.336480  9046 net.cpp:165] Memory required for data: 273082400
I0426 23:16:06.336486  9046 layer_factory.hpp:77] Creating layer pool9
I0426 23:16:06.336496  9046 net.cpp:100] Creating Layer pool9
I0426 23:16:06.336510  9046 net.cpp:434] pool9 <- fire9/concat_fire9/concat_0_split_0
I0426 23:16:06.336525  9046 net.cpp:408] pool9 -> pool9
I0426 23:16:06.336582  9046 net.cpp:150] Setting up pool9
I0426 23:16:06.336591  9046 net.cpp:157] Top shape: 4 512 9 9 (165888)
I0426 23:16:06.336596  9046 net.cpp:165] Memory required for data: 273745952
I0426 23:16:06.336601  9046 layer_factory.hpp:77] Creating layer fire10/squeeze1x1
I0426 23:16:06.336618  9046 net.cpp:100] Creating Layer fire10/squeeze1x1
I0426 23:16:06.336625  9046 net.cpp:434] fire10/squeeze1x1 <- pool9
I0426 23:16:06.336634  9046 net.cpp:408] fire10/squeeze1x1 -> fire10/squeeze1x1
I0426 23:16:06.338644  9046 net.cpp:150] Setting up fire10/squeeze1x1
I0426 23:16:06.338675  9046 net.cpp:157] Top shape: 4 96 9 9 (31104)
I0426 23:16:06.338681  9046 net.cpp:165] Memory required for data: 273870368
I0426 23:16:06.338696  9046 layer_factory.hpp:77] Creating layer fire10/relu_squeeze1x1
I0426 23:16:06.338706  9046 net.cpp:100] Creating Layer fire10/relu_squeeze1x1
I0426 23:16:06.338713  9046 net.cpp:434] fire10/relu_squeeze1x1 <- fire10/squeeze1x1
I0426 23:16:06.338729  9046 net.cpp:395] fire10/relu_squeeze1x1 -> fire10/squeeze1x1 (in-place)
I0426 23:16:06.339113  9046 net.cpp:150] Setting up fire10/relu_squeeze1x1
I0426 23:16:06.339128  9046 net.cpp:157] Top shape: 4 96 9 9 (31104)
I0426 23:16:06.339134  9046 net.cpp:165] Memory required for data: 273994784
I0426 23:16:06.339177  9046 layer_factory.hpp:77] Creating layer fire10/squeeze1x1_fire10/relu_squeeze1x1_0_split
I0426 23:16:06.339190  9046 net.cpp:100] Creating Layer fire10/squeeze1x1_fire10/relu_squeeze1x1_0_split
I0426 23:16:06.339196  9046 net.cpp:434] fire10/squeeze1x1_fire10/relu_squeeze1x1_0_split <- fire10/squeeze1x1
I0426 23:16:06.339205  9046 net.cpp:408] fire10/squeeze1x1_fire10/relu_squeeze1x1_0_split -> fire10/squeeze1x1_fire10/relu_squeeze1x1_0_split_0
I0426 23:16:06.339217  9046 net.cpp:408] fire10/squeeze1x1_fire10/relu_squeeze1x1_0_split -> fire10/squeeze1x1_fire10/relu_squeeze1x1_0_split_1
I0426 23:16:06.339287  9046 net.cpp:150] Setting up fire10/squeeze1x1_fire10/relu_squeeze1x1_0_split
I0426 23:16:06.339298  9046 net.cpp:157] Top shape: 4 96 9 9 (31104)
I0426 23:16:06.339303  9046 net.cpp:157] Top shape: 4 96 9 9 (31104)
I0426 23:16:06.339305  9046 net.cpp:165] Memory required for data: 274243616
I0426 23:16:06.339311  9046 layer_factory.hpp:77] Creating layer fire10/expand1x1
I0426 23:16:06.339330  9046 net.cpp:100] Creating Layer fire10/expand1x1
I0426 23:16:06.339335  9046 net.cpp:434] fire10/expand1x1 <- fire10/squeeze1x1_fire10/relu_squeeze1x1_0_split_0
I0426 23:16:06.339341  9046 net.cpp:408] fire10/expand1x1 -> fire10/expand1x1
I0426 23:16:06.341543  9046 net.cpp:150] Setting up fire10/expand1x1
I0426 23:16:06.341567  9046 net.cpp:157] Top shape: 4 384 9 9 (124416)
I0426 23:16:06.341572  9046 net.cpp:165] Memory required for data: 274741280
I0426 23:16:06.341581  9046 layer_factory.hpp:77] Creating layer fire10/relu_expand1x1
I0426 23:16:06.341590  9046 net.cpp:100] Creating Layer fire10/relu_expand1x1
I0426 23:16:06.341596  9046 net.cpp:434] fire10/relu_expand1x1 <- fire10/expand1x1
I0426 23:16:06.341615  9046 net.cpp:395] fire10/relu_expand1x1 -> fire10/expand1x1 (in-place)
I0426 23:16:06.341769  9046 net.cpp:150] Setting up fire10/relu_expand1x1
I0426 23:16:06.341783  9046 net.cpp:157] Top shape: 4 384 9 9 (124416)
I0426 23:16:06.341789  9046 net.cpp:165] Memory required for data: 275238944
I0426 23:16:06.341794  9046 layer_factory.hpp:77] Creating layer fire10/expand3x3
I0426 23:16:06.341805  9046 net.cpp:100] Creating Layer fire10/expand3x3
I0426 23:16:06.341814  9046 net.cpp:434] fire10/expand3x3 <- fire10/squeeze1x1_fire10/relu_squeeze1x1_0_split_1
I0426 23:16:06.341823  9046 net.cpp:408] fire10/expand3x3 -> fire10/expand3x3
I0426 23:16:06.347030  9046 net.cpp:150] Setting up fire10/expand3x3
I0426 23:16:06.347082  9046 net.cpp:157] Top shape: 4 384 9 9 (124416)
I0426 23:16:06.347090  9046 net.cpp:165] Memory required for data: 275736608
I0426 23:16:06.347105  9046 layer_factory.hpp:77] Creating layer fire10/relu_expand3x3
I0426 23:16:06.347123  9046 net.cpp:100] Creating Layer fire10/relu_expand3x3
I0426 23:16:06.347134  9046 net.cpp:434] fire10/relu_expand3x3 <- fire10/expand3x3
I0426 23:16:06.347147  9046 net.cpp:395] fire10/relu_expand3x3 -> fire10/expand3x3 (in-place)
I0426 23:16:06.347725  9046 net.cpp:150] Setting up fire10/relu_expand3x3
I0426 23:16:06.347745  9046 net.cpp:157] Top shape: 4 384 9 9 (124416)
I0426 23:16:06.347754  9046 net.cpp:165] Memory required for data: 276234272
I0426 23:16:06.347761  9046 layer_factory.hpp:77] Creating layer fire10/concat
I0426 23:16:06.347772  9046 net.cpp:100] Creating Layer fire10/concat
I0426 23:16:06.347780  9046 net.cpp:434] fire10/concat <- fire10/expand1x1
I0426 23:16:06.347789  9046 net.cpp:434] fire10/concat <- fire10/expand3x3
I0426 23:16:06.347798  9046 net.cpp:408] fire10/concat -> fire10/concat
I0426 23:16:06.347846  9046 net.cpp:150] Setting up fire10/concat
I0426 23:16:06.347859  9046 net.cpp:157] Top shape: 4 768 9 9 (248832)
I0426 23:16:06.347865  9046 net.cpp:165] Memory required for data: 277229600
I0426 23:16:06.347872  9046 layer_factory.hpp:77] Creating layer fire10/concat_fire10/concat_0_split
I0426 23:16:06.347882  9046 net.cpp:100] Creating Layer fire10/concat_fire10/concat_0_split
I0426 23:16:06.347889  9046 net.cpp:434] fire10/concat_fire10/concat_0_split <- fire10/concat
I0426 23:16:06.347898  9046 net.cpp:408] fire10/concat_fire10/concat_0_split -> fire10/concat_fire10/concat_0_split_0
I0426 23:16:06.347944  9046 net.cpp:408] fire10/concat_fire10/concat_0_split -> fire10/concat_fire10/concat_0_split_1
I0426 23:16:06.347954  9046 net.cpp:408] fire10/concat_fire10/concat_0_split -> fire10/concat_fire10/concat_0_split_2
I0426 23:16:06.347967  9046 net.cpp:408] fire10/concat_fire10/concat_0_split -> fire10/concat_fire10/concat_0_split_3
I0426 23:16:06.348076  9046 net.cpp:150] Setting up fire10/concat_fire10/concat_0_split
I0426 23:16:06.348093  9046 net.cpp:157] Top shape: 4 768 9 9 (248832)
I0426 23:16:06.348100  9046 net.cpp:157] Top shape: 4 768 9 9 (248832)
I0426 23:16:06.348107  9046 net.cpp:157] Top shape: 4 768 9 9 (248832)
I0426 23:16:06.348115  9046 net.cpp:157] Top shape: 4 768 9 9 (248832)
I0426 23:16:06.348120  9046 net.cpp:165] Memory required for data: 281210912
I0426 23:16:06.348127  9046 layer_factory.hpp:77] Creating layer pool10
I0426 23:16:06.348139  9046 net.cpp:100] Creating Layer pool10
I0426 23:16:06.348145  9046 net.cpp:434] pool10 <- fire10/concat_fire10/concat_0_split_0
I0426 23:16:06.348155  9046 net.cpp:408] pool10 -> pool10
I0426 23:16:06.348202  9046 net.cpp:150] Setting up pool10
I0426 23:16:06.348211  9046 net.cpp:157] Top shape: 4 768 4 4 (49152)
I0426 23:16:06.348214  9046 net.cpp:165] Memory required for data: 281407520
I0426 23:16:06.348219  9046 layer_factory.hpp:77] Creating layer fire11/squeeze1x1
I0426 23:16:06.348235  9046 net.cpp:100] Creating Layer fire11/squeeze1x1
I0426 23:16:06.348240  9046 net.cpp:434] fire11/squeeze1x1 <- pool10
I0426 23:16:06.348248  9046 net.cpp:408] fire11/squeeze1x1 -> fire11/squeeze1x1
I0426 23:16:06.350298  9046 net.cpp:150] Setting up fire11/squeeze1x1
I0426 23:16:06.350317  9046 net.cpp:157] Top shape: 4 96 4 4 (6144)
I0426 23:16:06.350320  9046 net.cpp:165] Memory required for data: 281432096
I0426 23:16:06.350329  9046 layer_factory.hpp:77] Creating layer fire11/relu_squeeze1x1
I0426 23:16:06.350337  9046 net.cpp:100] Creating Layer fire11/relu_squeeze1x1
I0426 23:16:06.350343  9046 net.cpp:434] fire11/relu_squeeze1x1 <- fire11/squeeze1x1
I0426 23:16:06.350349  9046 net.cpp:395] fire11/relu_squeeze1x1 -> fire11/squeeze1x1 (in-place)
I0426 23:16:06.350517  9046 net.cpp:150] Setting up fire11/relu_squeeze1x1
I0426 23:16:06.350525  9046 net.cpp:157] Top shape: 4 96 4 4 (6144)
I0426 23:16:06.350529  9046 net.cpp:165] Memory required for data: 281456672
I0426 23:16:06.350534  9046 layer_factory.hpp:77] Creating layer fire11/squeeze1x1_fire11/relu_squeeze1x1_0_split
I0426 23:16:06.350541  9046 net.cpp:100] Creating Layer fire11/squeeze1x1_fire11/relu_squeeze1x1_0_split
I0426 23:16:06.350546  9046 net.cpp:434] fire11/squeeze1x1_fire11/relu_squeeze1x1_0_split <- fire11/squeeze1x1
I0426 23:16:06.350553  9046 net.cpp:408] fire11/squeeze1x1_fire11/relu_squeeze1x1_0_split -> fire11/squeeze1x1_fire11/relu_squeeze1x1_0_split_0
I0426 23:16:06.350559  9046 net.cpp:408] fire11/squeeze1x1_fire11/relu_squeeze1x1_0_split -> fire11/squeeze1x1_fire11/relu_squeeze1x1_0_split_1
I0426 23:16:06.350605  9046 net.cpp:150] Setting up fire11/squeeze1x1_fire11/relu_squeeze1x1_0_split
I0426 23:16:06.350612  9046 net.cpp:157] Top shape: 4 96 4 4 (6144)
I0426 23:16:06.350617  9046 net.cpp:157] Top shape: 4 96 4 4 (6144)
I0426 23:16:06.350621  9046 net.cpp:165] Memory required for data: 281505824
I0426 23:16:06.350625  9046 layer_factory.hpp:77] Creating layer fire11/expand1x1
I0426 23:16:06.350950  9046 net.cpp:100] Creating Layer fire11/expand1x1
I0426 23:16:06.350961  9046 net.cpp:434] fire11/expand1x1 <- fire11/squeeze1x1_fire11/relu_squeeze1x1_0_split_0
I0426 23:16:06.350976  9046 net.cpp:408] fire11/expand1x1 -> fire11/expand1x1
I0426 23:16:06.353353  9046 net.cpp:150] Setting up fire11/expand1x1
I0426 23:16:06.353376  9046 net.cpp:157] Top shape: 4 384 4 4 (24576)
I0426 23:16:06.353381  9046 net.cpp:165] Memory required for data: 281604128
I0426 23:16:06.353390  9046 layer_factory.hpp:77] Creating layer fire11/relu_expand1x1
I0426 23:16:06.353400  9046 net.cpp:100] Creating Layer fire11/relu_expand1x1
I0426 23:16:06.353425  9046 net.cpp:434] fire11/relu_expand1x1 <- fire11/expand1x1
I0426 23:16:06.353435  9046 net.cpp:395] fire11/relu_expand1x1 -> fire11/expand1x1 (in-place)
I0426 23:16:06.353812  9046 net.cpp:150] Setting up fire11/relu_expand1x1
I0426 23:16:06.353826  9046 net.cpp:157] Top shape: 4 384 4 4 (24576)
I0426 23:16:06.353832  9046 net.cpp:165] Memory required for data: 281702432
I0426 23:16:06.353838  9046 layer_factory.hpp:77] Creating layer fire11/expand3x3
I0426 23:16:06.353849  9046 net.cpp:100] Creating Layer fire11/expand3x3
I0426 23:16:06.353855  9046 net.cpp:434] fire11/expand3x3 <- fire11/squeeze1x1_fire11/relu_squeeze1x1_0_split_1
I0426 23:16:06.353865  9046 net.cpp:408] fire11/expand3x3 -> fire11/expand3x3
I0426 23:16:06.358706  9046 net.cpp:150] Setting up fire11/expand3x3
I0426 23:16:06.358724  9046 net.cpp:157] Top shape: 4 384 4 4 (24576)
I0426 23:16:06.358729  9046 net.cpp:165] Memory required for data: 281800736
I0426 23:16:06.358741  9046 layer_factory.hpp:77] Creating layer fire11/relu_expand3x3
I0426 23:16:06.358757  9046 net.cpp:100] Creating Layer fire11/relu_expand3x3
I0426 23:16:06.358763  9046 net.cpp:434] fire11/relu_expand3x3 <- fire11/expand3x3
I0426 23:16:06.358772  9046 net.cpp:395] fire11/relu_expand3x3 -> fire11/expand3x3 (in-place)
I0426 23:16:06.359153  9046 net.cpp:150] Setting up fire11/relu_expand3x3
I0426 23:16:06.359163  9046 net.cpp:157] Top shape: 4 384 4 4 (24576)
I0426 23:16:06.359167  9046 net.cpp:165] Memory required for data: 281899040
I0426 23:16:06.359171  9046 layer_factory.hpp:77] Creating layer fire11/concat
I0426 23:16:06.359179  9046 net.cpp:100] Creating Layer fire11/concat
I0426 23:16:06.359184  9046 net.cpp:434] fire11/concat <- fire11/expand1x1
I0426 23:16:06.359190  9046 net.cpp:434] fire11/concat <- fire11/expand3x3
I0426 23:16:06.359196  9046 net.cpp:408] fire11/concat -> fire11/concat
I0426 23:16:06.359225  9046 net.cpp:150] Setting up fire11/concat
I0426 23:16:06.359231  9046 net.cpp:157] Top shape: 4 768 4 4 (49152)
I0426 23:16:06.359235  9046 net.cpp:165] Memory required for data: 282095648
I0426 23:16:06.359238  9046 layer_factory.hpp:77] Creating layer fire11/concat_fire11/concat_0_split
I0426 23:16:06.359246  9046 net.cpp:100] Creating Layer fire11/concat_fire11/concat_0_split
I0426 23:16:06.359251  9046 net.cpp:434] fire11/concat_fire11/concat_0_split <- fire11/concat
I0426 23:16:06.359256  9046 net.cpp:408] fire11/concat_fire11/concat_0_split -> fire11/concat_fire11/concat_0_split_0
I0426 23:16:06.359262  9046 net.cpp:408] fire11/concat_fire11/concat_0_split -> fire11/concat_fire11/concat_0_split_1
I0426 23:16:06.359268  9046 net.cpp:408] fire11/concat_fire11/concat_0_split -> fire11/concat_fire11/concat_0_split_2
I0426 23:16:06.359274  9046 net.cpp:408] fire11/concat_fire11/concat_0_split -> fire11/concat_fire11/concat_0_split_3
I0426 23:16:06.359345  9046 net.cpp:150] Setting up fire11/concat_fire11/concat_0_split
I0426 23:16:06.359354  9046 net.cpp:157] Top shape: 4 768 4 4 (49152)
I0426 23:16:06.359362  9046 net.cpp:157] Top shape: 4 768 4 4 (49152)
I0426 23:16:06.359369  9046 net.cpp:157] Top shape: 4 768 4 4 (49152)
I0426 23:16:06.359375  9046 net.cpp:157] Top shape: 4 768 4 4 (49152)
I0426 23:16:06.359380  9046 net.cpp:165] Memory required for data: 282882080
I0426 23:16:06.359386  9046 layer_factory.hpp:77] Creating layer conv12_1
I0426 23:16:06.359402  9046 net.cpp:100] Creating Layer conv12_1
I0426 23:16:06.359408  9046 net.cpp:434] conv12_1 <- fire11/concat_fire11/concat_0_split_0
I0426 23:16:06.359417  9046 net.cpp:408] conv12_1 -> conv12_1
I0426 23:16:06.361639  9046 net.cpp:150] Setting up conv12_1
I0426 23:16:06.361652  9046 net.cpp:157] Top shape: 4 128 4 4 (8192)
I0426 23:16:06.361660  9046 net.cpp:165] Memory required for data: 282914848
I0426 23:16:06.361668  9046 layer_factory.hpp:77] Creating layer conv12_1/relu
I0426 23:16:06.361675  9046 net.cpp:100] Creating Layer conv12_1/relu
I0426 23:16:06.361680  9046 net.cpp:434] conv12_1/relu <- conv12_1
I0426 23:16:06.361688  9046 net.cpp:395] conv12_1/relu -> conv12_1 (in-place)
I0426 23:16:06.361857  9046 net.cpp:150] Setting up conv12_1/relu
I0426 23:16:06.361867  9046 net.cpp:157] Top shape: 4 128 4 4 (8192)
I0426 23:16:06.361873  9046 net.cpp:165] Memory required for data: 282947616
I0426 23:16:06.361879  9046 layer_factory.hpp:77] Creating layer conv12_2
I0426 23:16:06.361888  9046 net.cpp:100] Creating Layer conv12_2
I0426 23:16:06.361893  9046 net.cpp:434] conv12_2 <- conv12_1
I0426 23:16:06.361899  9046 net.cpp:408] conv12_2 -> conv12_2
I0426 23:16:06.367879  9046 net.cpp:150] Setting up conv12_2
I0426 23:16:06.368026  9046 net.cpp:157] Top shape: 4 256 2 2 (4096)
I0426 23:16:06.368079  9046 net.cpp:165] Memory required for data: 282964000
I0426 23:16:06.368141  9046 layer_factory.hpp:77] Creating layer conv12_2/relu
I0426 23:16:06.368185  9046 net.cpp:100] Creating Layer conv12_2/relu
I0426 23:16:06.368204  9046 net.cpp:434] conv12_2/relu <- conv12_2
I0426 23:16:06.368223  9046 net.cpp:395] conv12_2/relu -> conv12_2 (in-place)
I0426 23:16:06.368712  9046 net.cpp:150] Setting up conv12_2/relu
I0426 23:16:06.368728  9046 net.cpp:157] Top shape: 4 256 2 2 (4096)
I0426 23:16:06.368731  9046 net.cpp:165] Memory required for data: 282980384
I0426 23:16:06.368736  9046 layer_factory.hpp:77] Creating layer conv12_2_conv12_2/relu_0_split
I0426 23:16:06.368748  9046 net.cpp:100] Creating Layer conv12_2_conv12_2/relu_0_split
I0426 23:16:06.368755  9046 net.cpp:434] conv12_2_conv12_2/relu_0_split <- conv12_2
I0426 23:16:06.368764  9046 net.cpp:408] conv12_2_conv12_2/relu_0_split -> conv12_2_conv12_2/relu_0_split_0
I0426 23:16:06.368783  9046 net.cpp:408] conv12_2_conv12_2/relu_0_split -> conv12_2_conv12_2/relu_0_split_1
I0426 23:16:06.368793  9046 net.cpp:408] conv12_2_conv12_2/relu_0_split -> conv12_2_conv12_2/relu_0_split_2
I0426 23:16:06.368805  9046 net.cpp:408] conv12_2_conv12_2/relu_0_split -> conv12_2_conv12_2/relu_0_split_3
I0426 23:16:06.368894  9046 net.cpp:150] Setting up conv12_2_conv12_2/relu_0_split
I0426 23:16:06.368904  9046 net.cpp:157] Top shape: 4 256 2 2 (4096)
I0426 23:16:06.368908  9046 net.cpp:157] Top shape: 4 256 2 2 (4096)
I0426 23:16:06.368912  9046 net.cpp:157] Top shape: 4 256 2 2 (4096)
I0426 23:16:06.368921  9046 net.cpp:157] Top shape: 4 256 2 2 (4096)
I0426 23:16:06.368926  9046 net.cpp:165] Memory required for data: 283045920
I0426 23:16:06.368928  9046 layer_factory.hpp:77] Creating layer conv13_1
I0426 23:16:06.368942  9046 net.cpp:100] Creating Layer conv13_1
I0426 23:16:06.368947  9046 net.cpp:434] conv13_1 <- conv12_2_conv12_2/relu_0_split_0
I0426 23:16:06.368955  9046 net.cpp:408] conv13_1 -> conv13_1
I0426 23:16:06.370483  9046 net.cpp:150] Setting up conv13_1
I0426 23:16:06.370519  9046 net.cpp:157] Top shape: 4 64 2 2 (1024)
I0426 23:16:06.370532  9046 net.cpp:165] Memory required for data: 283050016
I0426 23:16:06.370553  9046 layer_factory.hpp:77] Creating layer conv13_1/relu
I0426 23:16:06.370566  9046 net.cpp:100] Creating Layer conv13_1/relu
I0426 23:16:06.370574  9046 net.cpp:434] conv13_1/relu <- conv13_1
I0426 23:16:06.370582  9046 net.cpp:395] conv13_1/relu -> conv13_1 (in-place)
I0426 23:16:06.370745  9046 net.cpp:150] Setting up conv13_1/relu
I0426 23:16:06.370757  9046 net.cpp:157] Top shape: 4 64 2 2 (1024)
I0426 23:16:06.370762  9046 net.cpp:165] Memory required for data: 283054112
I0426 23:16:06.370769  9046 layer_factory.hpp:77] Creating layer conv13_2
I0426 23:16:06.370780  9046 net.cpp:100] Creating Layer conv13_2
I0426 23:16:06.370788  9046 net.cpp:434] conv13_2 <- conv13_1
I0426 23:16:06.370796  9046 net.cpp:408] conv13_2 -> conv13_2
I0426 23:16:06.372767  9046 net.cpp:150] Setting up conv13_2
I0426 23:16:06.372800  9046 net.cpp:157] Top shape: 4 128 1 1 (512)
I0426 23:16:06.372809  9046 net.cpp:165] Memory required for data: 283056160
I0426 23:16:06.372824  9046 layer_factory.hpp:77] Creating layer conv13_2/relu
I0426 23:16:06.372841  9046 net.cpp:100] Creating Layer conv13_2/relu
I0426 23:16:06.372848  9046 net.cpp:434] conv13_2/relu <- conv13_2
I0426 23:16:06.372856  9046 net.cpp:395] conv13_2/relu -> conv13_2 (in-place)
I0426 23:16:06.373353  9046 net.cpp:150] Setting up conv13_2/relu
I0426 23:16:06.373387  9046 net.cpp:157] Top shape: 4 128 1 1 (512)
I0426 23:16:06.373396  9046 net.cpp:165] Memory required for data: 283058208
I0426 23:16:06.373404  9046 layer_factory.hpp:77] Creating layer conv13_2_conv13_2/relu_0_split
I0426 23:16:06.373415  9046 net.cpp:100] Creating Layer conv13_2_conv13_2/relu_0_split
I0426 23:16:06.373421  9046 net.cpp:434] conv13_2_conv13_2/relu_0_split <- conv13_2
I0426 23:16:06.373428  9046 net.cpp:408] conv13_2_conv13_2/relu_0_split -> conv13_2_conv13_2/relu_0_split_0
I0426 23:16:06.373437  9046 net.cpp:408] conv13_2_conv13_2/relu_0_split -> conv13_2_conv13_2/relu_0_split_1
I0426 23:16:06.373443  9046 net.cpp:408] conv13_2_conv13_2/relu_0_split -> conv13_2_conv13_2/relu_0_split_2
I0426 23:16:06.373509  9046 net.cpp:150] Setting up conv13_2_conv13_2/relu_0_split
I0426 23:16:06.373517  9046 net.cpp:157] Top shape: 4 128 1 1 (512)
I0426 23:16:06.373520  9046 net.cpp:157] Top shape: 4 128 1 1 (512)
I0426 23:16:06.373524  9046 net.cpp:157] Top shape: 4 128 1 1 (512)
I0426 23:16:06.373528  9046 net.cpp:165] Memory required for data: 283064352
I0426 23:16:06.373533  9046 layer_factory.hpp:77] Creating layer fire5_mbox_loc
I0426 23:16:06.373546  9046 net.cpp:100] Creating Layer fire5_mbox_loc
I0426 23:16:06.373553  9046 net.cpp:434] fire5_mbox_loc <- fire5/concat_fire5/concat_0_split_1
I0426 23:16:06.373561  9046 net.cpp:408] fire5_mbox_loc -> fire5_mbox_loc
I0426 23:16:06.375180  9046 net.cpp:150] Setting up fire5_mbox_loc
I0426 23:16:06.375203  9046 net.cpp:157] Top shape: 4 16 37 37 (87616)
I0426 23:16:06.375207  9046 net.cpp:165] Memory required for data: 283414816
I0426 23:16:06.375216  9046 layer_factory.hpp:77] Creating layer fire5_mbox_loc_perm
I0426 23:16:06.375226  9046 net.cpp:100] Creating Layer fire5_mbox_loc_perm
I0426 23:16:06.375231  9046 net.cpp:434] fire5_mbox_loc_perm <- fire5_mbox_loc
I0426 23:16:06.375236  9046 net.cpp:408] fire5_mbox_loc_perm -> fire5_mbox_loc_perm
I0426 23:16:06.375340  9046 net.cpp:150] Setting up fire5_mbox_loc_perm
I0426 23:16:06.375349  9046 net.cpp:157] Top shape: 4 37 37 16 (87616)
I0426 23:16:06.375351  9046 net.cpp:165] Memory required for data: 283765280
I0426 23:16:06.375355  9046 layer_factory.hpp:77] Creating layer fire5_mbox_loc_flat
I0426 23:16:06.375361  9046 net.cpp:100] Creating Layer fire5_mbox_loc_flat
I0426 23:16:06.375365  9046 net.cpp:434] fire5_mbox_loc_flat <- fire5_mbox_loc_perm
I0426 23:16:06.375370  9046 net.cpp:408] fire5_mbox_loc_flat -> fire5_mbox_loc_flat
I0426 23:16:06.375392  9046 net.cpp:150] Setting up fire5_mbox_loc_flat
I0426 23:16:06.375398  9046 net.cpp:157] Top shape: 4 21904 (87616)
I0426 23:16:06.375401  9046 net.cpp:165] Memory required for data: 284115744
I0426 23:16:06.375404  9046 layer_factory.hpp:77] Creating layer fire5_mbox_conf
I0426 23:16:06.375413  9046 net.cpp:100] Creating Layer fire5_mbox_conf
I0426 23:16:06.375419  9046 net.cpp:434] fire5_mbox_conf <- fire5/concat_fire5/concat_0_split_2
I0426 23:16:06.375425  9046 net.cpp:408] fire5_mbox_conf -> fire5_mbox_conf
I0426 23:16:06.377080  9046 net.cpp:150] Setting up fire5_mbox_conf
I0426 23:16:06.377092  9046 net.cpp:157] Top shape: 4 28 37 37 (153328)
I0426 23:16:06.377095  9046 net.cpp:165] Memory required for data: 284729056
I0426 23:16:06.377101  9046 layer_factory.hpp:77] Creating layer fire5_mbox_conf_perm
I0426 23:16:06.377107  9046 net.cpp:100] Creating Layer fire5_mbox_conf_perm
I0426 23:16:06.377112  9046 net.cpp:434] fire5_mbox_conf_perm <- fire5_mbox_conf
I0426 23:16:06.377117  9046 net.cpp:408] fire5_mbox_conf_perm -> fire5_mbox_conf_perm
I0426 23:16:06.377212  9046 net.cpp:150] Setting up fire5_mbox_conf_perm
I0426 23:16:06.377218  9046 net.cpp:157] Top shape: 4 37 37 28 (153328)
I0426 23:16:06.377221  9046 net.cpp:165] Memory required for data: 285342368
I0426 23:16:06.377224  9046 layer_factory.hpp:77] Creating layer fire5_mbox_conf_flat
I0426 23:16:06.377230  9046 net.cpp:100] Creating Layer fire5_mbox_conf_flat
I0426 23:16:06.377234  9046 net.cpp:434] fire5_mbox_conf_flat <- fire5_mbox_conf_perm
I0426 23:16:06.377259  9046 net.cpp:408] fire5_mbox_conf_flat -> fire5_mbox_conf_flat
I0426 23:16:06.377281  9046 net.cpp:150] Setting up fire5_mbox_conf_flat
I0426 23:16:06.377287  9046 net.cpp:157] Top shape: 4 38332 (153328)
I0426 23:16:06.377291  9046 net.cpp:165] Memory required for data: 285955680
I0426 23:16:06.377295  9046 layer_factory.hpp:77] Creating layer fire5_mbox_priorbox
I0426 23:16:06.377301  9046 net.cpp:100] Creating Layer fire5_mbox_priorbox
I0426 23:16:06.377305  9046 net.cpp:434] fire5_mbox_priorbox <- fire5/concat_fire5/concat_0_split_3
I0426 23:16:06.377311  9046 net.cpp:434] fire5_mbox_priorbox <- data_data_0_split_1
I0426 23:16:06.377318  9046 net.cpp:408] fire5_mbox_priorbox -> fire5_mbox_priorbox
I0426 23:16:06.377342  9046 net.cpp:150] Setting up fire5_mbox_priorbox
I0426 23:16:06.377348  9046 net.cpp:157] Top shape: 1 2 21904 (43808)
I0426 23:16:06.377352  9046 net.cpp:165] Memory required for data: 286130912
I0426 23:16:06.377367  9046 layer_factory.hpp:77] Creating layer fire9_mbox_loc
I0426 23:16:06.377374  9046 net.cpp:100] Creating Layer fire9_mbox_loc
I0426 23:16:06.377380  9046 net.cpp:434] fire9_mbox_loc <- fire9/concat_fire9/concat_0_split_1
I0426 23:16:06.377387  9046 net.cpp:408] fire9_mbox_loc -> fire9_mbox_loc
I0426 23:16:06.380218  9046 net.cpp:150] Setting up fire9_mbox_loc
I0426 23:16:06.380245  9046 net.cpp:157] Top shape: 4 24 18 18 (31104)
I0426 23:16:06.380252  9046 net.cpp:165] Memory required for data: 286255328
I0426 23:16:06.380265  9046 layer_factory.hpp:77] Creating layer fire9_mbox_loc_perm
I0426 23:16:06.380278  9046 net.cpp:100] Creating Layer fire9_mbox_loc_perm
I0426 23:16:06.380286  9046 net.cpp:434] fire9_mbox_loc_perm <- fire9_mbox_loc
I0426 23:16:06.380295  9046 net.cpp:408] fire9_mbox_loc_perm -> fire9_mbox_loc_perm
I0426 23:16:06.380439  9046 net.cpp:150] Setting up fire9_mbox_loc_perm
I0426 23:16:06.380455  9046 net.cpp:157] Top shape: 4 18 18 24 (31104)
I0426 23:16:06.380460  9046 net.cpp:165] Memory required for data: 286379744
I0426 23:16:06.380465  9046 layer_factory.hpp:77] Creating layer fire9_mbox_loc_flat
I0426 23:16:06.380475  9046 net.cpp:100] Creating Layer fire9_mbox_loc_flat
I0426 23:16:06.380483  9046 net.cpp:434] fire9_mbox_loc_flat <- fire9_mbox_loc_perm
I0426 23:16:06.380491  9046 net.cpp:408] fire9_mbox_loc_flat -> fire9_mbox_loc_flat
I0426 23:16:06.380527  9046 net.cpp:150] Setting up fire9_mbox_loc_flat
I0426 23:16:06.380538  9046 net.cpp:157] Top shape: 4 7776 (31104)
I0426 23:16:06.380543  9046 net.cpp:165] Memory required for data: 286504160
I0426 23:16:06.380548  9046 layer_factory.hpp:77] Creating layer fire9_mbox_conf
I0426 23:16:06.380561  9046 net.cpp:100] Creating Layer fire9_mbox_conf
I0426 23:16:06.380570  9046 net.cpp:434] fire9_mbox_conf <- fire9/concat_fire9/concat_0_split_2
I0426 23:16:06.380579  9046 net.cpp:408] fire9_mbox_conf -> fire9_mbox_conf
I0426 23:16:06.384474  9046 net.cpp:150] Setting up fire9_mbox_conf
I0426 23:16:06.384500  9046 net.cpp:157] Top shape: 4 42 18 18 (54432)
I0426 23:16:06.384502  9046 net.cpp:165] Memory required for data: 286721888
I0426 23:16:06.384513  9046 layer_factory.hpp:77] Creating layer fire9_mbox_conf_perm
I0426 23:16:06.384523  9046 net.cpp:100] Creating Layer fire9_mbox_conf_perm
I0426 23:16:06.384531  9046 net.cpp:434] fire9_mbox_conf_perm <- fire9_mbox_conf
I0426 23:16:06.384541  9046 net.cpp:408] fire9_mbox_conf_perm -> fire9_mbox_conf_perm
I0426 23:16:06.384642  9046 net.cpp:150] Setting up fire9_mbox_conf_perm
I0426 23:16:06.384649  9046 net.cpp:157] Top shape: 4 18 18 42 (54432)
I0426 23:16:06.384652  9046 net.cpp:165] Memory required for data: 286939616
I0426 23:16:06.384655  9046 layer_factory.hpp:77] Creating layer fire9_mbox_conf_flat
I0426 23:16:06.384662  9046 net.cpp:100] Creating Layer fire9_mbox_conf_flat
I0426 23:16:06.384666  9046 net.cpp:434] fire9_mbox_conf_flat <- fire9_mbox_conf_perm
I0426 23:16:06.384671  9046 net.cpp:408] fire9_mbox_conf_flat -> fire9_mbox_conf_flat
I0426 23:16:06.384699  9046 net.cpp:150] Setting up fire9_mbox_conf_flat
I0426 23:16:06.384723  9046 net.cpp:157] Top shape: 4 13608 (54432)
I0426 23:16:06.384727  9046 net.cpp:165] Memory required for data: 287157344
I0426 23:16:06.384730  9046 layer_factory.hpp:77] Creating layer fire9_mbox_priorbox
I0426 23:16:06.384737  9046 net.cpp:100] Creating Layer fire9_mbox_priorbox
I0426 23:16:06.384742  9046 net.cpp:434] fire9_mbox_priorbox <- fire9/concat_fire9/concat_0_split_3
I0426 23:16:06.384747  9046 net.cpp:434] fire9_mbox_priorbox <- data_data_0_split_2
I0426 23:16:06.384753  9046 net.cpp:408] fire9_mbox_priorbox -> fire9_mbox_priorbox
I0426 23:16:06.384780  9046 net.cpp:150] Setting up fire9_mbox_priorbox
I0426 23:16:06.384786  9046 net.cpp:157] Top shape: 1 2 7776 (15552)
I0426 23:16:06.384789  9046 net.cpp:165] Memory required for data: 287219552
I0426 23:16:06.384793  9046 layer_factory.hpp:77] Creating layer fire10_mbox_loc
I0426 23:16:06.384807  9046 net.cpp:100] Creating Layer fire10_mbox_loc
I0426 23:16:06.384812  9046 net.cpp:434] fire10_mbox_loc <- fire10/concat_fire10/concat_0_split_1
I0426 23:16:06.384819  9046 net.cpp:408] fire10_mbox_loc -> fire10_mbox_loc
I0426 23:16:06.387871  9046 net.cpp:150] Setting up fire10_mbox_loc
I0426 23:16:06.387886  9046 net.cpp:157] Top shape: 4 24 9 9 (7776)
I0426 23:16:06.387889  9046 net.cpp:165] Memory required for data: 287250656
I0426 23:16:06.387897  9046 layer_factory.hpp:77] Creating layer fire10_mbox_loc_perm
I0426 23:16:06.387903  9046 net.cpp:100] Creating Layer fire10_mbox_loc_perm
I0426 23:16:06.387908  9046 net.cpp:434] fire10_mbox_loc_perm <- fire10_mbox_loc
I0426 23:16:06.387914  9046 net.cpp:408] fire10_mbox_loc_perm -> fire10_mbox_loc_perm
I0426 23:16:06.388018  9046 net.cpp:150] Setting up fire10_mbox_loc_perm
I0426 23:16:06.388025  9046 net.cpp:157] Top shape: 4 9 9 24 (7776)
I0426 23:16:06.388029  9046 net.cpp:165] Memory required for data: 287281760
I0426 23:16:06.388032  9046 layer_factory.hpp:77] Creating layer fire10_mbox_loc_flat
I0426 23:16:06.388038  9046 net.cpp:100] Creating Layer fire10_mbox_loc_flat
I0426 23:16:06.388042  9046 net.cpp:434] fire10_mbox_loc_flat <- fire10_mbox_loc_perm
I0426 23:16:06.388047  9046 net.cpp:408] fire10_mbox_loc_flat -> fire10_mbox_loc_flat
I0426 23:16:06.388069  9046 net.cpp:150] Setting up fire10_mbox_loc_flat
I0426 23:16:06.388074  9046 net.cpp:157] Top shape: 4 1944 (7776)
I0426 23:16:06.388078  9046 net.cpp:165] Memory required for data: 287312864
I0426 23:16:06.388082  9046 layer_factory.hpp:77] Creating layer fire10_mbox_conf
I0426 23:16:06.388097  9046 net.cpp:100] Creating Layer fire10_mbox_conf
I0426 23:16:06.388101  9046 net.cpp:434] fire10_mbox_conf <- fire10/concat_fire10/concat_0_split_2
I0426 23:16:06.388108  9046 net.cpp:408] fire10_mbox_conf -> fire10_mbox_conf
I0426 23:16:06.392482  9046 net.cpp:150] Setting up fire10_mbox_conf
I0426 23:16:06.392498  9046 net.cpp:157] Top shape: 4 42 9 9 (13608)
I0426 23:16:06.392501  9046 net.cpp:165] Memory required for data: 287367296
I0426 23:16:06.392508  9046 layer_factory.hpp:77] Creating layer fire10_mbox_conf_perm
I0426 23:16:06.392527  9046 net.cpp:100] Creating Layer fire10_mbox_conf_perm
I0426 23:16:06.392532  9046 net.cpp:434] fire10_mbox_conf_perm <- fire10_mbox_conf
I0426 23:16:06.392537  9046 net.cpp:408] fire10_mbox_conf_perm -> fire10_mbox_conf_perm
I0426 23:16:06.392655  9046 net.cpp:150] Setting up fire10_mbox_conf_perm
I0426 23:16:06.392663  9046 net.cpp:157] Top shape: 4 9 9 42 (13608)
I0426 23:16:06.392665  9046 net.cpp:165] Memory required for data: 287421728
I0426 23:16:06.392668  9046 layer_factory.hpp:77] Creating layer fire10_mbox_conf_flat
I0426 23:16:06.392673  9046 net.cpp:100] Creating Layer fire10_mbox_conf_flat
I0426 23:16:06.392691  9046 net.cpp:434] fire10_mbox_conf_flat <- fire10_mbox_conf_perm
I0426 23:16:06.392696  9046 net.cpp:408] fire10_mbox_conf_flat -> fire10_mbox_conf_flat
I0426 23:16:06.392717  9046 net.cpp:150] Setting up fire10_mbox_conf_flat
I0426 23:16:06.392732  9046 net.cpp:157] Top shape: 4 3402 (13608)
I0426 23:16:06.392735  9046 net.cpp:165] Memory required for data: 287476160
I0426 23:16:06.392773  9046 layer_factory.hpp:77] Creating layer fire10_mbox_priorbox
I0426 23:16:06.392796  9046 net.cpp:100] Creating Layer fire10_mbox_priorbox
I0426 23:16:06.392802  9046 net.cpp:434] fire10_mbox_priorbox <- fire10/concat_fire10/concat_0_split_3
I0426 23:16:06.392807  9046 net.cpp:434] fire10_mbox_priorbox <- data_data_0_split_3
I0426 23:16:06.392812  9046 net.cpp:408] fire10_mbox_priorbox -> fire10_mbox_priorbox
I0426 23:16:06.392838  9046 net.cpp:150] Setting up fire10_mbox_priorbox
I0426 23:16:06.392843  9046 net.cpp:157] Top shape: 1 2 1944 (3888)
I0426 23:16:06.392846  9046 net.cpp:165] Memory required for data: 287491712
I0426 23:16:06.392849  9046 layer_factory.hpp:77] Creating layer fire11_mbox_loc
I0426 23:16:06.392856  9046 net.cpp:100] Creating Layer fire11_mbox_loc
I0426 23:16:06.392861  9046 net.cpp:434] fire11_mbox_loc <- fire11/concat_fire11/concat_0_split_1
I0426 23:16:06.392868  9046 net.cpp:408] fire11_mbox_loc -> fire11_mbox_loc
I0426 23:16:06.396044  9046 net.cpp:150] Setting up fire11_mbox_loc
I0426 23:16:06.396070  9046 net.cpp:157] Top shape: 4 24 4 4 (1536)
I0426 23:16:06.396072  9046 net.cpp:165] Memory required for data: 287497856
I0426 23:16:06.396080  9046 layer_factory.hpp:77] Creating layer fire11_mbox_loc_perm
I0426 23:16:06.396087  9046 net.cpp:100] Creating Layer fire11_mbox_loc_perm
I0426 23:16:06.396091  9046 net.cpp:434] fire11_mbox_loc_perm <- fire11_mbox_loc
I0426 23:16:06.396097  9046 net.cpp:408] fire11_mbox_loc_perm -> fire11_mbox_loc_perm
I0426 23:16:06.396209  9046 net.cpp:150] Setting up fire11_mbox_loc_perm
I0426 23:16:06.396216  9046 net.cpp:157] Top shape: 4 4 4 24 (1536)
I0426 23:16:06.396234  9046 net.cpp:165] Memory required for data: 287504000
I0426 23:16:06.396239  9046 layer_factory.hpp:77] Creating layer fire11_mbox_loc_flat
I0426 23:16:06.396245  9046 net.cpp:100] Creating Layer fire11_mbox_loc_flat
I0426 23:16:06.396248  9046 net.cpp:434] fire11_mbox_loc_flat <- fire11_mbox_loc_perm
I0426 23:16:06.396253  9046 net.cpp:408] fire11_mbox_loc_flat -> fire11_mbox_loc_flat
I0426 23:16:06.396275  9046 net.cpp:150] Setting up fire11_mbox_loc_flat
I0426 23:16:06.396281  9046 net.cpp:157] Top shape: 4 384 (1536)
I0426 23:16:06.396283  9046 net.cpp:165] Memory required for data: 287510144
I0426 23:16:06.396286  9046 layer_factory.hpp:77] Creating layer fire11_mbox_conf
I0426 23:16:06.396293  9046 net.cpp:100] Creating Layer fire11_mbox_conf
I0426 23:16:06.396296  9046 net.cpp:434] fire11_mbox_conf <- fire11/concat_fire11/concat_0_split_2
I0426 23:16:06.396301  9046 net.cpp:408] fire11_mbox_conf -> fire11_mbox_conf
I0426 23:16:06.400436  9046 net.cpp:150] Setting up fire11_mbox_conf
I0426 23:16:06.400451  9046 net.cpp:157] Top shape: 4 42 4 4 (2688)
I0426 23:16:06.400454  9046 net.cpp:165] Memory required for data: 287520896
I0426 23:16:06.400461  9046 layer_factory.hpp:77] Creating layer fire11_mbox_conf_perm
I0426 23:16:06.400480  9046 net.cpp:100] Creating Layer fire11_mbox_conf_perm
I0426 23:16:06.400486  9046 net.cpp:434] fire11_mbox_conf_perm <- fire11_mbox_conf
I0426 23:16:06.400491  9046 net.cpp:408] fire11_mbox_conf_perm -> fire11_mbox_conf_perm
I0426 23:16:06.400596  9046 net.cpp:150] Setting up fire11_mbox_conf_perm
I0426 23:16:06.400602  9046 net.cpp:157] Top shape: 4 4 4 42 (2688)
I0426 23:16:06.400615  9046 net.cpp:165] Memory required for data: 287531648
I0426 23:16:06.400619  9046 layer_factory.hpp:77] Creating layer fire11_mbox_conf_flat
I0426 23:16:06.400625  9046 net.cpp:100] Creating Layer fire11_mbox_conf_flat
I0426 23:16:06.400629  9046 net.cpp:434] fire11_mbox_conf_flat <- fire11_mbox_conf_perm
I0426 23:16:06.400635  9046 net.cpp:408] fire11_mbox_conf_flat -> fire11_mbox_conf_flat
I0426 23:16:06.400678  9046 net.cpp:150] Setting up fire11_mbox_conf_flat
I0426 23:16:06.400686  9046 net.cpp:157] Top shape: 4 672 (2688)
I0426 23:16:06.400688  9046 net.cpp:165] Memory required for data: 287542400
I0426 23:16:06.400691  9046 layer_factory.hpp:77] Creating layer fire11_mbox_priorbox
I0426 23:16:06.400725  9046 net.cpp:100] Creating Layer fire11_mbox_priorbox
I0426 23:16:06.400730  9046 net.cpp:434] fire11_mbox_priorbox <- fire11/concat_fire11/concat_0_split_3
I0426 23:16:06.400737  9046 net.cpp:434] fire11_mbox_priorbox <- data_data_0_split_4
I0426 23:16:06.400741  9046 net.cpp:408] fire11_mbox_priorbox -> fire11_mbox_priorbox
I0426 23:16:06.400774  9046 net.cpp:150] Setting up fire11_mbox_priorbox
I0426 23:16:06.400780  9046 net.cpp:157] Top shape: 1 2 384 (768)
I0426 23:16:06.400784  9046 net.cpp:165] Memory required for data: 287545472
I0426 23:16:06.400787  9046 layer_factory.hpp:77] Creating layer conv12_2_mbox_loc
I0426 23:16:06.400795  9046 net.cpp:100] Creating Layer conv12_2_mbox_loc
I0426 23:16:06.400800  9046 net.cpp:434] conv12_2_mbox_loc <- conv12_2_conv12_2/relu_0_split_1
I0426 23:16:06.400805  9046 net.cpp:408] conv12_2_mbox_loc -> conv12_2_mbox_loc
I0426 23:16:06.402418  9046 net.cpp:150] Setting up conv12_2_mbox_loc
I0426 23:16:06.402431  9046 net.cpp:157] Top shape: 4 24 2 2 (384)
I0426 23:16:06.402434  9046 net.cpp:165] Memory required for data: 287547008
I0426 23:16:06.402441  9046 layer_factory.hpp:77] Creating layer conv12_2_mbox_loc_perm
I0426 23:16:06.402447  9046 net.cpp:100] Creating Layer conv12_2_mbox_loc_perm
I0426 23:16:06.402452  9046 net.cpp:434] conv12_2_mbox_loc_perm <- conv12_2_mbox_loc
I0426 23:16:06.402458  9046 net.cpp:408] conv12_2_mbox_loc_perm -> conv12_2_mbox_loc_perm
I0426 23:16:06.402566  9046 net.cpp:150] Setting up conv12_2_mbox_loc_perm
I0426 23:16:06.402572  9046 net.cpp:157] Top shape: 4 2 2 24 (384)
I0426 23:16:06.402576  9046 net.cpp:165] Memory required for data: 287548544
I0426 23:16:06.402580  9046 layer_factory.hpp:77] Creating layer conv12_2_mbox_loc_flat
I0426 23:16:06.402586  9046 net.cpp:100] Creating Layer conv12_2_mbox_loc_flat
I0426 23:16:06.402590  9046 net.cpp:434] conv12_2_mbox_loc_flat <- conv12_2_mbox_loc_perm
I0426 23:16:06.402603  9046 net.cpp:408] conv12_2_mbox_loc_flat -> conv12_2_mbox_loc_flat
I0426 23:16:06.402627  9046 net.cpp:150] Setting up conv12_2_mbox_loc_flat
I0426 23:16:06.402633  9046 net.cpp:157] Top shape: 4 96 (384)
I0426 23:16:06.402637  9046 net.cpp:165] Memory required for data: 287550080
I0426 23:16:06.402640  9046 layer_factory.hpp:77] Creating layer conv12_2_mbox_conf
I0426 23:16:06.402647  9046 net.cpp:100] Creating Layer conv12_2_mbox_conf
I0426 23:16:06.402652  9046 net.cpp:434] conv12_2_mbox_conf <- conv12_2_conv12_2/relu_0_split_2
I0426 23:16:06.402657  9046 net.cpp:408] conv12_2_mbox_conf -> conv12_2_mbox_conf
I0426 23:16:06.404614  9046 net.cpp:150] Setting up conv12_2_mbox_conf
I0426 23:16:06.404626  9046 net.cpp:157] Top shape: 4 42 2 2 (672)
I0426 23:16:06.404630  9046 net.cpp:165] Memory required for data: 287552768
I0426 23:16:06.404635  9046 layer_factory.hpp:77] Creating layer conv12_2_mbox_conf_perm
I0426 23:16:06.404642  9046 net.cpp:100] Creating Layer conv12_2_mbox_conf_perm
I0426 23:16:06.404647  9046 net.cpp:434] conv12_2_mbox_conf_perm <- conv12_2_mbox_conf
I0426 23:16:06.404652  9046 net.cpp:408] conv12_2_mbox_conf_perm -> conv12_2_mbox_conf_perm
I0426 23:16:06.404763  9046 net.cpp:150] Setting up conv12_2_mbox_conf_perm
I0426 23:16:06.404770  9046 net.cpp:157] Top shape: 4 2 2 42 (672)
I0426 23:16:06.404784  9046 net.cpp:165] Memory required for data: 287555456
I0426 23:16:06.404788  9046 layer_factory.hpp:77] Creating layer conv12_2_mbox_conf_flat
I0426 23:16:06.404794  9046 net.cpp:100] Creating Layer conv12_2_mbox_conf_flat
I0426 23:16:06.404799  9046 net.cpp:434] conv12_2_mbox_conf_flat <- conv12_2_mbox_conf_perm
I0426 23:16:06.404803  9046 net.cpp:408] conv12_2_mbox_conf_flat -> conv12_2_mbox_conf_flat
I0426 23:16:06.404824  9046 net.cpp:150] Setting up conv12_2_mbox_conf_flat
I0426 23:16:06.404830  9046 net.cpp:157] Top shape: 4 168 (672)
I0426 23:16:06.404834  9046 net.cpp:165] Memory required for data: 287558144
I0426 23:16:06.404836  9046 layer_factory.hpp:77] Creating layer conv12_2_mbox_priorbox
I0426 23:16:06.404841  9046 net.cpp:100] Creating Layer conv12_2_mbox_priorbox
I0426 23:16:06.404845  9046 net.cpp:434] conv12_2_mbox_priorbox <- conv12_2_conv12_2/relu_0_split_3
I0426 23:16:06.404860  9046 net.cpp:434] conv12_2_mbox_priorbox <- data_data_0_split_5
I0426 23:16:06.404866  9046 net.cpp:408] conv12_2_mbox_priorbox -> conv12_2_mbox_priorbox
I0426 23:16:06.404888  9046 net.cpp:150] Setting up conv12_2_mbox_priorbox
I0426 23:16:06.404894  9046 net.cpp:157] Top shape: 1 2 96 (192)
I0426 23:16:06.404897  9046 net.cpp:165] Memory required for data: 287558912
I0426 23:16:06.404901  9046 layer_factory.hpp:77] Creating layer conv13_2_mbox_loc
I0426 23:16:06.404906  9046 net.cpp:100] Creating Layer conv13_2_mbox_loc
I0426 23:16:06.404911  9046 net.cpp:434] conv13_2_mbox_loc <- conv13_2_conv13_2/relu_0_split_0
I0426 23:16:06.404917  9046 net.cpp:408] conv13_2_mbox_loc -> conv13_2_mbox_loc
I0426 23:16:06.406188  9046 net.cpp:150] Setting up conv13_2_mbox_loc
I0426 23:16:06.406200  9046 net.cpp:157] Top shape: 4 16 1 1 (64)
I0426 23:16:06.406204  9046 net.cpp:165] Memory required for data: 287559168
I0426 23:16:06.406209  9046 layer_factory.hpp:77] Creating layer conv13_2_mbox_loc_perm
I0426 23:16:06.406216  9046 net.cpp:100] Creating Layer conv13_2_mbox_loc_perm
I0426 23:16:06.406221  9046 net.cpp:434] conv13_2_mbox_loc_perm <- conv13_2_mbox_loc
I0426 23:16:06.406225  9046 net.cpp:408] conv13_2_mbox_loc_perm -> conv13_2_mbox_loc_perm
I0426 23:16:06.406328  9046 net.cpp:150] Setting up conv13_2_mbox_loc_perm
I0426 23:16:06.406335  9046 net.cpp:157] Top shape: 4 1 1 16 (64)
I0426 23:16:06.406339  9046 net.cpp:165] Memory required for data: 287559424
I0426 23:16:06.406343  9046 layer_factory.hpp:77] Creating layer conv13_2_mbox_loc_flat
I0426 23:16:06.406349  9046 net.cpp:100] Creating Layer conv13_2_mbox_loc_flat
I0426 23:16:06.406353  9046 net.cpp:434] conv13_2_mbox_loc_flat <- conv13_2_mbox_loc_perm
I0426 23:16:06.406358  9046 net.cpp:408] conv13_2_mbox_loc_flat -> conv13_2_mbox_loc_flat
I0426 23:16:06.406379  9046 net.cpp:150] Setting up conv13_2_mbox_loc_flat
I0426 23:16:06.406385  9046 net.cpp:157] Top shape: 4 16 (64)
I0426 23:16:06.406388  9046 net.cpp:165] Memory required for data: 287559680
I0426 23:16:06.406394  9046 layer_factory.hpp:77] Creating layer conv13_2_mbox_conf
I0426 23:16:06.406400  9046 net.cpp:100] Creating Layer conv13_2_mbox_conf
I0426 23:16:06.406404  9046 net.cpp:434] conv13_2_mbox_conf <- conv13_2_conv13_2/relu_0_split_1
I0426 23:16:06.406411  9046 net.cpp:408] conv13_2_mbox_conf -> conv13_2_mbox_conf
I0426 23:16:06.407846  9046 net.cpp:150] Setting up conv13_2_mbox_conf
I0426 23:16:06.407860  9046 net.cpp:157] Top shape: 4 28 1 1 (112)
I0426 23:16:06.407862  9046 net.cpp:165] Memory required for data: 287560128
I0426 23:16:06.407868  9046 layer_factory.hpp:77] Creating layer conv13_2_mbox_conf_perm
I0426 23:16:06.407876  9046 net.cpp:100] Creating Layer conv13_2_mbox_conf_perm
I0426 23:16:06.407881  9046 net.cpp:434] conv13_2_mbox_conf_perm <- conv13_2_mbox_conf
I0426 23:16:06.407886  9046 net.cpp:408] conv13_2_mbox_conf_perm -> conv13_2_mbox_conf_perm
I0426 23:16:06.407995  9046 net.cpp:150] Setting up conv13_2_mbox_conf_perm
I0426 23:16:06.408002  9046 net.cpp:157] Top shape: 4 1 1 28 (112)
I0426 23:16:06.408006  9046 net.cpp:165] Memory required for data: 287560576
I0426 23:16:06.408010  9046 layer_factory.hpp:77] Creating layer conv13_2_mbox_conf_flat
I0426 23:16:06.408021  9046 net.cpp:100] Creating Layer conv13_2_mbox_conf_flat
I0426 23:16:06.408026  9046 net.cpp:434] conv13_2_mbox_conf_flat <- conv13_2_mbox_conf_perm
I0426 23:16:06.408032  9046 net.cpp:408] conv13_2_mbox_conf_flat -> conv13_2_mbox_conf_flat
I0426 23:16:06.408061  9046 net.cpp:150] Setting up conv13_2_mbox_conf_flat
I0426 23:16:06.408066  9046 net.cpp:157] Top shape: 4 28 (112)
I0426 23:16:06.408071  9046 net.cpp:165] Memory required for data: 287561024
I0426 23:16:06.408074  9046 layer_factory.hpp:77] Creating layer conv13_2_mbox_priorbox
I0426 23:16:06.408087  9046 net.cpp:100] Creating Layer conv13_2_mbox_priorbox
I0426 23:16:06.408092  9046 net.cpp:434] conv13_2_mbox_priorbox <- conv13_2_conv13_2/relu_0_split_2
I0426 23:16:06.408105  9046 net.cpp:434] conv13_2_mbox_priorbox <- data_data_0_split_6
I0426 23:16:06.408112  9046 net.cpp:408] conv13_2_mbox_priorbox -> conv13_2_mbox_priorbox
I0426 23:16:06.408135  9046 net.cpp:150] Setting up conv13_2_mbox_priorbox
I0426 23:16:06.408141  9046 net.cpp:157] Top shape: 1 2 16 (32)
I0426 23:16:06.408144  9046 net.cpp:165] Memory required for data: 287561152
I0426 23:16:06.408149  9046 layer_factory.hpp:77] Creating layer mbox_loc
I0426 23:16:06.408155  9046 net.cpp:100] Creating Layer mbox_loc
I0426 23:16:06.408160  9046 net.cpp:434] mbox_loc <- fire5_mbox_loc_flat
I0426 23:16:06.408165  9046 net.cpp:434] mbox_loc <- fire9_mbox_loc_flat
I0426 23:16:06.408170  9046 net.cpp:434] mbox_loc <- fire10_mbox_loc_flat
I0426 23:16:06.408175  9046 net.cpp:434] mbox_loc <- fire11_mbox_loc_flat
I0426 23:16:06.408180  9046 net.cpp:434] mbox_loc <- conv12_2_mbox_loc_flat
I0426 23:16:06.408185  9046 net.cpp:434] mbox_loc <- conv13_2_mbox_loc_flat
I0426 23:16:06.408190  9046 net.cpp:408] mbox_loc -> mbox_loc
I0426 23:16:06.408215  9046 net.cpp:150] Setting up mbox_loc
I0426 23:16:06.408221  9046 net.cpp:157] Top shape: 4 32120 (128480)
I0426 23:16:06.408226  9046 net.cpp:165] Memory required for data: 288075072
I0426 23:16:06.408231  9046 layer_factory.hpp:77] Creating layer mbox_conf
I0426 23:16:06.408236  9046 net.cpp:100] Creating Layer mbox_conf
I0426 23:16:06.408239  9046 net.cpp:434] mbox_conf <- fire5_mbox_conf_flat
I0426 23:16:06.408246  9046 net.cpp:434] mbox_conf <- fire9_mbox_conf_flat
I0426 23:16:06.408249  9046 net.cpp:434] mbox_conf <- fire10_mbox_conf_flat
I0426 23:16:06.408254  9046 net.cpp:434] mbox_conf <- fire11_mbox_conf_flat
I0426 23:16:06.408258  9046 net.cpp:434] mbox_conf <- conv12_2_mbox_conf_flat
I0426 23:16:06.408263  9046 net.cpp:434] mbox_conf <- conv13_2_mbox_conf_flat
I0426 23:16:06.408268  9046 net.cpp:408] mbox_conf -> mbox_conf
I0426 23:16:06.408289  9046 net.cpp:150] Setting up mbox_conf
I0426 23:16:06.408295  9046 net.cpp:157] Top shape: 4 56210 (224840)
I0426 23:16:06.408298  9046 net.cpp:165] Memory required for data: 288974432
I0426 23:16:06.408303  9046 layer_factory.hpp:77] Creating layer mbox_priorbox
I0426 23:16:06.408308  9046 net.cpp:100] Creating Layer mbox_priorbox
I0426 23:16:06.408313  9046 net.cpp:434] mbox_priorbox <- fire5_mbox_priorbox
I0426 23:16:06.408318  9046 net.cpp:434] mbox_priorbox <- fire9_mbox_priorbox
I0426 23:16:06.408323  9046 net.cpp:434] mbox_priorbox <- fire10_mbox_priorbox
I0426 23:16:06.408326  9046 net.cpp:434] mbox_priorbox <- fire11_mbox_priorbox
I0426 23:16:06.408331  9046 net.cpp:434] mbox_priorbox <- conv12_2_mbox_priorbox
I0426 23:16:06.408335  9046 net.cpp:434] mbox_priorbox <- conv13_2_mbox_priorbox
I0426 23:16:06.408340  9046 net.cpp:408] mbox_priorbox -> mbox_priorbox
I0426 23:16:06.408360  9046 net.cpp:150] Setting up mbox_priorbox
I0426 23:16:06.408366  9046 net.cpp:157] Top shape: 1 2 32120 (64240)
I0426 23:16:06.408370  9046 net.cpp:165] Memory required for data: 289231392
I0426 23:16:06.408375  9046 layer_factory.hpp:77] Creating layer mbox_loss
I0426 23:16:06.408383  9046 net.cpp:100] Creating Layer mbox_loss
I0426 23:16:06.408387  9046 net.cpp:434] mbox_loss <- mbox_loc
I0426 23:16:06.408392  9046 net.cpp:434] mbox_loss <- mbox_conf
I0426 23:16:06.408396  9046 net.cpp:434] mbox_loss <- mbox_priorbox
…
name: "squeezenet-ssd"
state {
  phase: TEST
}
layer {
  name: "data"
  type: "AnnotatedData"
  top: "data"
  top: "label"
  include {
    phase: TEST
  }
  transform_param {
    scale: 0.007843
    mean_value: 127.5
    mean_value: 127.5
    mean_value: 127.5
    resize_param {
      prob: 1
      resize_mode: WARP
      height: 300
      width: 300
      interp_mode: LINEAR
    }
  }
  data_param {
    source: "test_lmdb/"
    batch_size: 2
    backend: LMDB
  }
  annotated_data_param {
    batch_sampler {
    }
    label_map_file: "labelmap.prototxt"
  }
}
layer {
  name: "conv1"
  type: "Convolution"
  bottom: "data"
  top: "conv1"
  param {
    lr_mult: 0.1
    decay_mult: 0.1
  }
  convolution_param {
    num_output: 64
    kernel_size: 3
    stride: 2
    weight_filler {
      type: "msra"
    }
  }
}
layer {
  name: "relu_conv1"
  type: "ReLU"
  bottom: "conv1"
  top: "conv1"
}
layer {
  name: "pool1"
  type: "Pooling"
  bottom: "conv1"
  top: "pool1"
  pooling_param {
    pool: MAX
    kernel_size: 3
    stride: 2
  }
}
layer {
  name: "fire2/squeeze1x1"
  type: "Convolution"
  bottom: "pool1"
  top: "fire2/squeeze1x1"
  param {
    lr_mult: 0.1
    decay_mult: 0
  }
  param {
    lr_mult: 0.2
    decay_mult: 0
  }
  convolution_param {
    num_output: 16
    kernel_size: 1
    weight_filler {
      type: "msra"
    }
  }
}
layer {
  name: "fire2/relu_squeeze1x1"
  type: "ReLU"
  bottom: "fire2/squeeze1x1"
  top: "fire2/squeeze1x1"
}
layer {
  name: "fire2/expand1x1"
  type: "Convolution"
  bottom: "fire2/squeeze1x1"
  top: "fire2/expand1x1"
  param {
    lr_mult: 0.1
    decay_mult: 0
  }
  param {
    lr_mult: 0.2
    decay_mult: 0
  }
  convolution_param {
    num_output: 64
    kernel_size: 1
    weight_filler {
      type: "msra"
    }
  }
}
layer {
  name: "fire2/relu_expand1x1"
  type: "ReLU"
  bottom: "fire2/expand1x1"
  top: "fire2/expand1x1"
}
layer {
  name: "fire2/expand3x3"
  type: "Convolution"
  bottom: "fire2/squeeze1x1"
  top: "fire2/expand3x3"
  param {
    lr_mult: 0.1
    decay_mult: 0
  }
  param {
    lr_mult: 0.2
    decay_mult: 0
  }
  convolution_param {
    num_output: 64
    pad: 1
    kernel_size: 3
    weight_filler {
      type: "msra"
    }
  }
}
layer {
  name: "fire2/relu_expand3x3"
  type: "ReLU"
  bottom: "fire2/expand3x3"
  top: "fire2/expand3x3"
}
layer {
  name: "fire2/concat"
  type: "Concat"
  bottom: "fire2/expand1x1"
  bottom: "fire2/expand3x3"
  top: "fire2/concat"
}
layer {
  name: "fire3/squeeze1x1"
  type: "Convolution"
  bottom: "fire2/concat"
  top: "fire3/squeeze1x1"
  param {
    lr_mult: 0.1
    decay_mult: 0
  }
  param {
    lr_mult: 0.2
    decay_mult: 0
  }
  convolution_param {
    num_output: 16
    kernel_size: 1
    weight_filler {
      type: "msra"
    }
  }
}
layer {
  name: "fire3/relu_squeeze1x1"
  type: "ReLU"
  bottom: "fire3/squeeze1x1"
  top: "fire3/squeeze1x1"
}
layer {
  name: "fire3/expand1x1"
  type: "Convolution"
  bottom: "fire3/squeeze1x1"
  top: "fire3/expand1x1"
  param {
    lr_mult: 0.1
    decay_mult: 0
  }
  param {
    lr_mult: 0.2
    decay_mult: 0
  }
  convolution_param {
    num_output: 64
    kernel_size: 1
    weight_filler {
      type: "msra"
    }
  }
}
layer {
  name: "fire3/relu_expand1x1"
  type: "ReLU"
  bottom: "fire3/expand1x1"
  top: "fire3/expand1x1"
}
layer {
  name: "fire3/expand3x3"
  type: "Convolution"
  bottom: "fire3/squeeze1x1"
  top: "fire3/expand3x3"
  param {
    lr_mult: 0.1
    decay_mult: 0
  }
  param {
    lr_mult: 0.2
    decay_mult: 0
  }
  convolution_param {
    num_output: 64
    pad: 1
    kernel_size: 3
    weight_filler {
      type: "msra"
    }
  }
}
layer {
  name: "fire3/relu_expand3x3"
  type: "ReLU"
  bottom: "fire3/expand3x3"
  top: "fire3/expand3x3"
}
layer {
  name: "fire3/concat"
  type: "Concat"
  bottom: "fire3/expand1x1"
  bottom: "fire3/expand3x3"
  top: "fire3/concat"
}
layer {
  name: "pool3"
  type: "Pooling"
  bottom: "fire3/concat"
  top: "pool3"
  pooling_param {
    pool: MAX
    kernel_size: 3
    stride: 2
  }
}
layer {
  name: "fire4/squeeze1x1"
  type: "Convolution"
  bottom: "pool3"
  top: "fire4/squeeze1x1"
  param {
    lr_mult: 0.1
    decay_mult: 0
  }
  param {
    lr_mult: 0.2
    decay_mult: 0
  }
  convolution_param {
    num_output: 32
    kernel_size: 1
    weight_filler {
      type: "msra"
    }
  }
}
layer {
  name: "fire4/relu_squeeze1x1"
  type: "ReLU"
  bottom: "fire4/squeeze1x1"
  top: "fire4/squeeze1x1"
}
layer {
  name: "fire4/expand1x1"
  type: "Convolution"
  bottom: "fire4/squeeze1x1"
  top: "fire4/expand1x1"
  param {
    lr_mult: 0.1
    decay_mult: 0
  }
  param {
    lr_mult: 0.2
    decay_mult: 0
  }
  convolution_param {
    num_output: 128
    kernel_size: 1
    weight_filler {
      type: "msra"
    }
  }
}
layer {
  name: "fire4/relu_expand1x1"
  type: "ReLU"
  bottom: "fire4/expand1x1"
  top: "fire4/expand1x1"
}
layer {
  name: "fire4/expand3x3"
  type: "Convolution"
  bottom: "fire4/squeeze1x1"
  top: "fire4/expand3x3"
  param {
    lr_mult: 0.1
    decay_mult: 0
  }
  param {
    lr_mult: 0.2
    decay_mult: 0
  }
  convolution_param {
    num_output: 128
    pad: 1
    kernel_size: 3
    weight_filler {
      type: "msra"
    }
  }
}
layer {
  name: "fire4/relu_expand3x3"
  type: "ReLU"
  bottom: "fire4/expand3x3"
  top: "fire4/expand3x3"
}
layer {
  name: "fire4/concat"
  type: "Concat"
  bottom: "fire4/expand1x1"
  bottom: "fire4/expand3x3"
  top: "fire4/concat"
}
layer {
  name: "fire5/squeeze1x1"
  type: "Convolution"
  bottom: "fire4/concat"
  top: "fire5/squeeze1x1"
  param {
    lr_mult: 0.1
    decay_mult: 0
  }
  param {
    lr_mult: 0.2
    decay_mult: 0
  }
  convolution_param {
    num_output: 32
    kernel_size: 1
    weight_filler {
      type: "msra"
    }
  }
}
layer {
  name: "fire5/relu_squeeze1x1"
  type: "ReLU"
  bottom: "fire5/squeeze1x1"
  top: "fire5/squeeze1x1"
}
layer {
  name: "fire5/expand1x1"
  type: "Convolution"
  bottom: "fire5/squeeze1x1"
  top: "fire5/expand1x1"
  param {
    lr_mult: 0.1
    decay_mult: 0
  }
  param {
    lr_mult: 0.2
    decay_mult: 0
  }
  convolution_param {
    num_output: 128
    kernel_size: 1
    weight_filler {
      type: "msra"
    }
  }
}
layer {
  name: "fire5/relu_expand1x1"
  type: "ReLU"
  bottom: "fire5/expand1x1"
  top: "fire5/expand1x1"
}
layer {
  name: "fire5/expand3x3"
  type: "Convolution"
  bottom: "fire5/squeeze1x1"
  top: "fire5/expand3x3"
  param {
    lr_mult: 0.1
    decay_mult: 0
  }
  param {
    lr_mult: 0.2
    decay_mult: 0
  }
  convolution_param {
    num_output: 128
    pad: 1
    kernel_size: 3
    weight_filler {
      type: "msra"
    }
  }
}
layer {
  name: "fire5/relu_expand3x3"
  type: "ReLU"
  bottom: "fire5/expand3x3"
  top: "fire5/expand3x3"
}
layer {
  name: "fire5/concat"
  type: "Concat"
  bottom: "fire5/expand1x1"
  bottom: "fire5/expand3x3"
  top: "fire5/concat"
}
layer {
  name: "pool5"
  type: "Pooling"
  bottom: "fire5/concat"
  top: "pool5"
  pooling_param {
    pool: MAX
    kernel_size: 3
    stride: 2
  }
}
layer {
  name: "fire6/squeeze1x1"
  type: "Convolution"
  bottom: "pool5"
  top: "fire6/squeeze1x1"
  param {
    lr_mult: 0.1
    decay_mult: 0
  }
  param {
    lr_mult: 0.2
    decay_mult: 0
  }
  convolution_param {
    num_output: 48
    kernel_size: 1
    weight_filler {
      type: "msra"
    }
  }
}
layer {
  name: "fire6/relu_squeeze1x1"
  type: "ReLU"
  bottom: "fire6/squeeze1x1"
  top: "fire6/squeeze1x1"
}
layer {
  name: "fire6/expand1x1"
  type: "Convolution"
  bottom: "fire6/squeeze1x1"
  top: "fire6/expand1x1"
  param {
    lr_mult: 0.1
    decay_mult: 0
  }
  param {
    lr_mult: 0.2
    decay_mult: 0
  }
  convolution_param {
    num_output: 192
    kernel_size: 1
    weight_filler {
      type: "msra"
    }
  }
}
layer {
  name: "fire6/relu_expand1x1"
  type: "ReLU"
  bottom: "fire6/expand1x1"
  top: "fire6/expand1x1"
}
layer {
  name: "fire6/expand3x3"
  type: "Convolution"
  bottom: "fire6/squeeze1x1"
  top: "fire6/expand3x3"
  param {
    lr_mult: 0.1
    decay_mult: 0
  }
  param {
    lr_mult: 0.2
    decay_mult: 0
  }
  convolution_param {
    num_output: 192
    pad: 1
    kernel_size: 3
    weight_filler {
      type: "msra"
    }
  }
}
layer {
  name: "fire6/relu_expand3x3"
  type: "ReLU"
  bottom: "fire6/expand3x3"
  top: "fire6/expand3x3"
}
layer {
  name: "fire6/concat"
  type: "Concat"
  bottom: "fire6/expand1x1"
  bottom: "fire6/expand3x3"
  top: "fire6/concat"
}
layer {
  name: "fire7/squeeze1x1"
  type: "Convolution"
  bottom: "fire6/concat"
  top: "fire7/squeeze1x1"
  param {
    lr_mult: 0.1
    decay_mult: 0
  }
  param {
    lr_mult: 0.2
    decay_mult: 0
  }
  convolution_param {
    num_output: 48
    kernel_size: 1
    weight_filler {
      type: "msra"
    }
  }
}
layer {
  name: "fire7/relu_squeeze1x1"
  type: "ReLU"
  bottom: "fire7/squeeze1x1"
  top: "fire7/squeeze1x1"
}
layer {
  name: "fire7/expand1x1"
  type: "Convolution"
  bottom: "fire7/squeeze1x1"
  top: "fire7/expand1x1"
  param {
    lr_mult: 0.1
    decay_mult: 0
  }
  param {
    lr_mult: 0.2
    decay_mult: 0
  }
  convolution_param {
    num_output: 192
    kernel_size: 1
    weight_filler {
      type: "msra"
    }
  }
}
layer {
  name: "fire7/relu_expand1x1"
  type: "ReLU"
  bottom: "fire7/expand1x1"
  top: "fire7/expand1x1"
}
layer {
  name: "fire7/expand3x3"
  type: "Convolution"
  bottom: "fire7/squeeze1x1"
  top: "fire7/expand3x3"
  param {
    lr_mult: 0.1
    decay_mult: 0
  }
  param {
    lr_mult: 0.2
    decay_mult: 0
  }
  convolution_param {
    num_output: 192
    pad: 1
    kernel_size: 3
    weight_filler {
      type: "msra"
    }
  }
}
layer {
  name: "fire7/relu_expand3x3"
  type: "ReLU"
  bottom: "fire7/expand3x3"
  top: "fire7/expand3x3"
}
layer {
  name: "fire7/concat"
  type: "Concat"
  bottom: "fire7/expand1x1"
  bottom: "fire7/expand3x3"
  top: "fire7/concat"
}
layer {
  name: "fire8/squeeze1x1"
  type: "Convolution"
  bottom: "fire7/concat"
  top: "fire8/squeeze1x1"
  param {
    lr_mult: 0.1
    decay_mult: 0
  }
  param {
    lr_mult: 0.2
    decay_mult: 0
  }
  convolution_param {
    num_output: 64
    kernel_size: 1
    weight_filler {
      type: "msra"
    }
  }
}
layer {
  name: "fire8/relu_squeeze1x1"
  type: "ReLU"
  bottom: "fire8/squeeze1x1"
  top: "fire8/squeeze1x1"
}
layer {
  name: "fire8/expand1x1"
  type: "Convolution"
  bottom: "fire8/squeeze1x1"
  top: "fire8/expand1x1"
  param {
    lr_mult: 0.1
    decay_mult: 0
  }
  param {
    lr_mult: 0.2
    decay_mult: 0
  }
  convolution_param {
    num_output: 256
    kernel_size: 1
    weight_filler {
      type: "msra"
    }
  }
}
layer {
  name: "fire8/relu_expand1x1"
  type: "ReLU"
  bottom: "fire8/expand1x1"
  top: "fire8/expand1x1"
}
layer {
  name: "fire8/expand3x3"
  type: "Convolution"
  bottom: "fire8/squeeze1x1"
  top: "fire8/expand3x3"
  param {
    lr_mult: 0.1
    decay_mult: 0
  }
  param {
    lr_mult: 0.2
    decay_mult: 0
  }
  convolution_param {
    num_output: 256
    pad: 1
    kernel_size: 3
    weight_filler {
      type: "msra"
    }
  }
}
layer {
  name: "fire8/relu_expand3x3"
  type: "ReLU"
  bottom: "fire8/expand3x3"
  top: "fire8/expand3x3"
}
layer {
  name: "fire8/concat"
  type: "Concat"
  bottom: "fire8/expand1x1"
  bottom: "fire8/expand3x3"
  top: "fire8/concat"
}
layer {
  name: "fire9/squeeze1x1"
  type: "Convolution"
  bottom: "fire8/concat"
  top: "fire9/squeeze1x1"
  param {
    lr_mult: 0.1
    decay_mult: 0
  }
  param {
    lr_mult: 0.2
    decay_mult: 0
  }
  convolution_param {
    num_output: 64
    kernel_size: 1
    weight_filler {
      type: "msra"
    }
  }
}
layer {
  name: "fire9/relu_squeeze1x1"
  type: "ReLU"
  bottom: "fire9/squeeze1x1"
  top: "fire9/squeeze1x1"
}
layer {
  name: "fire9/expand1x1"
  type: "Convolution"
  bottom: "fire9/squeeze1x1"
  top: "fire9/expand1x1"
  param {
    lr_mult: 0.1
    decay_mult: 0
  }
  param {
    lr_mult: 0.2
    decay_mult: 0
  }
  convolution_param {
    num_output: 256
    kernel_size: 1
    weight_filler {
      type: "msra"
    }
  }
}
layer {
  name: "fire9/relu_expand1x1"
  type: "ReLU"
  bottom: "fire9/expand1x1"
  top: "fire9/expand1x1"
}
layer {
  name: "fire9/expand3x3"
  type: "Convolution"
  bottom: "fire9/squeeze1x1"
  top: "fire9/expand3x3"
  param {
    lr_mult: 0.1
    decay_mult: 0
  }
  param {
    lr_mult: 0.2
    decay_mult: 0
  }
  convolution_param {
    num_output: 256
    pad: 1
    kernel_size: 3
    weight_filler {
      type: "msra"
    }
  }
}
layer {
  name: "fire9/relu_expand3x3"
  type: "ReLU"
  bottom: "fire9/expand3x3"
  top: "fire9/expand3x3"
}
layer {
  name: "fire9/concat"
  type: "Concat"
  bottom: "fire9/expand1x1"
  bottom: "fire9/expand3x3"
  top: "fire9/concat"
}
layer {
  name: "pool9"
  type: "Pooling"
  bottom: "fire9/concat"
  top: "pool9"
  pooling_param {
    pool: MAX
    kernel_size: 3
    stride: 2
  }
}
layer {
  name: "fire10/squeeze1x1"
  type: "Convolution"
  bottom: "pool9"
  top: "fire10/squeeze1x1"
  convolution_param {
    num_output: 96
    kernel_size: 1
    weight_filler {
      type: "msra"
    }
  }
}
layer {
  name: "fire10/relu_squeeze1x1"
  type: "ReLU"
  bottom: "fire10/squeeze1x1"
  top: "fire10/squeeze1x1"
}
layer {
  name: "fire10/expand1x1"
  type: "Convolution"
  bottom: "fire10/squeeze1x1"
  top: "fire10/expand1x1"
  convolution_param {
    num_output: 384
    kernel_size: 1
    weight_filler {
      type: "msra"
    }
  }
}
layer {
  name: "fire10/relu_expand1x1"
  type: "ReLU"
  bottom: "fire10/expand1x1"
  top: "fire10/expand1x1"
}
layer {
  name: "fire10/expand3x3"
  type: "Convolution"
  bottom: "fire10/squeeze1x1"
  top: "fire10/expand3x3"
  convolution_param {
    num_output: 384
    pad: 1
    kernel_size: 3
    weight_filler {
      type: "msra"
    }
  }
}
layer {
  name: "fire10/relu_expand3x3"
  type: "ReLU"
  bottom: "fire10/expand3x3"
  top: "fire10/expand3x3"
}
layer {
  name: "fire10/concat"
  type: "Concat"
  bottom: "fire10/expand1x1"
  bottom: "fire10/expand3x3"
  top: "fire10/concat"
}
layer {
  name: "pool10"
  type: "Pooling"
  bottom: "fire10/concat"
  top: "pool10"
  pooling_param {
    pool: MAX
    kernel_size: 3
    stride: 2
  }
}
layer {
  name: "fire11/squeeze1x1"
  type: "Convolution"
  bottom: "pool10"
  top: "fire11/squeeze1x1"
  convolution_param {
    num_output: 96
    kernel_size: 1
    weight_filler {
      type: "msra"
    }
  }
}
layer {
  name: "fire11/relu_squeeze1x1"
  type: "ReLU"
  bottom: "fire11/squeeze1x1"
  top: "fire11/squeeze1x1"
}
layer {
  name: "fire11/expand1x1"
  type: "Convolution"
  bottom: "fire11/squeeze1x1"
  top: "fire11/expand1x1"
  convolution_param {
    num_output: 384
    kernel_size: 1
    weight_filler {
      type: "msra"
    }
  }
}
layer {
  name: "fire11/relu_expand1x1"
  type: "ReLU"
  bottom: "fire11/expand1x1"
  top: "fire11/expand1x1"
}
layer {
  name: "fire11/expand3x3"
  type: "Convolution"
  bottom: "fire11/squeeze1x1"
  top: "fire11/expand3x3"
  convolution_param {
    num_output: 384
    pad: 1
    kernel_size: 3
    weight_filler {
      type: "msra"
    }
  }
}
layer {
  name: "fire11/relu_expand3x3"
  type: "ReLU"
  bottom: "fire11/expand3x3"
  top: "fire11/expand3x3"
}
layer {
  name: "fire11/concat"
  type: "Concat"
  bottom: "fire11/expand1x1"
  bottom: "fire11/expand3x3"
  top: "fire11/concat"
}
layer {
  name: "conv12_1"
  type: "Convolution"
  bottom: "fire11/concat"
  top: "conv12_1"
  param {
    lr_mult: 0.1
    decay_mult: 0.1
  }
  convolution_param {
    num_output: 128
    bias_term: false
    kernel_size: 1
    weight_filler {
      type: "msra"
    }
  }
}
layer {
  name: "conv12_1/relu"
  type: "ReLU"
  bottom: "conv12_1"
  top: "conv12_1"
}
layer {
  name: "conv12_2"
  type: "Convolution"
  bottom: "conv12_1"
  top: "conv12_2"
  param {
    lr_mult: 0.1
    decay_mult: 0.1
  }
  convolution_param {
    num_output: 256
    bias_term: false
    pad: 1
    kernel_size: 3
    stride: 2
    weight_filler {
      type: "msra"
    }
  }
}
layer {
  name: "conv12_2/relu"
  type: "ReLU"
  bottom: "conv12_2"
  top: "conv12_2"
}
layer {
  name: "conv13_1"
  type: "Convolution"
  bottom: "conv12_2"
  top: "conv13_1"
  param {
    lr_mult: 0.1
    decay_mult: 0.1
  }
  convolution_param {
    num_output: 64
    bias_term: false
    kernel_size: 1
    weight_filler {
      type: "msra"
    }
  }
}
layer {
  name: "conv13_1/relu"
  type: "ReLU"
  bottom: "conv13_1"
  top: "conv13_1"
}
layer {
  name: "conv13_2"
  type: "Convolution"
  bottom: "conv13_1"
  top: "conv13_2"
  param {
    lr_mult: 0.1
    decay_mult: 0.1
  }
  convolution_param {
    num_output: 128
    bias_term: false
    pad: 1
    kernel_size: 3
    stride: 2
    weight_filler {
      type: "msra"
    }
  }
}
layer {
  name: "conv13_2/relu"
  type: "ReLU"
  bottom: "conv13_2"
  top: "conv13_2"
}
layer {
  name: "fire5_mbox_loc"
  type: "Convolution"
  bottom: "fire5/concat"
  top: "fire5_mbox_loc"
  param {
    lr_mult: 0.1
    decay_mult: 0.1
  }
  param {
    lr_mult: 0.2
    decay_mult: 0
  }
  convolution_param {
    num_output: 16
    pad: 1
    kernel_size: 3
    stride: 1
    weight_filler {
      type: "msra"
    }
    bias_filler {
      type: "constant"
      value: 0
    }
  }
}
layer {
  name: "fire5_mbox_loc_perm"
  type: "Permute"
  bottom: "fire5_mbox_loc"
  top: "fire5_mbox_loc_perm"
  permute_param {
    order: 0
    order: 2
    order: 3
    order: 1
  }
}
layer {
  name: "fire5_mbox_loc_flat"
  type: "Flatten"
  bottom: "fire5_mbox_loc_perm"
  top: "fire5_mbox_loc_flat"
  flatten_param {
    axis: 1
  }
}
layer {
  name: "fire5_mbox_conf"
  type: "Convolution"
  bottom: "fire5/concat"
  top: "fire5_mbox_conf"
  param {
    lr_mult: 1
    decay_mult: 1
  }
  param {
    lr_mult: 2
    decay_mult: 0
  }
  convolution_param {
    num_output: 28
    pad: 1
    kernel_size: 3
    stride: 1
    weight_filler {
      type: "msra"
    }
    bias_filler {
      type: "constant"
      value: 0
    }
  }
}
layer {
  name: "fire5_mbox_conf_perm"
  type: "Permute"
  bottom: "fire5_mbox_conf"
  top: "fire5_mbox_conf_perm"
  permute_param {
    order: 0
    order: 2
    order: 3
    order: 1
  }
}
layer {
  name: "fire5_mbox_conf_flat"
  type: "Flatten"
  bottom: "fire5_mbox_conf_perm"
  top: "fire5_mbox_conf_flat"
  flatten_param {
    axis: 1
  }
}
layer {
  name: "fire5_mbox_priorbox"
  type: "PriorBox"
  bottom: "fire5/concat"
  bottom: "data"
  top: "fire5_mbox_priorbox"
  prior_box_param {
    min_size: 21
    max_size: 45
    aspect_ratio: 2
    flip: true
    clip: false
    variance: 0.1
    variance: 0.1
    variance: 0.2
    variance: 0.2
    offset: 0.5
  }
}
layer {
  name: "fire9_mbox_loc"
  type: "Convolution"
  bottom: "fire9/concat"
  top: "fire9_mbox_loc"
  param {
    lr_mult: 0.1
    decay_mult: 0.1
  }
  param {
    lr_mult: 0.2
    decay_mult: 0
  }
  convolution_param {
    num_output: 24
    pad: 1
    kernel_size: 3
    stride: 1
    weight_filler {
      type: "msra"
    }
    bias_filler {
      type: "constant"
      value: 0
    }
  }
}
layer {
  name: "fire9_mbox_loc_perm"
  type: "Permute"
  bottom: "fire9_mbox_loc"
  top: "fire9_mbox_loc_perm"
  permute_param {
    order: 0
    order: 2
    order: 3
    order: 1
  }
}
layer {
  name: "fire9_mbox_loc_flat"
  type: "Flatten"
  bottom: "fire9_mbox_loc_perm"
  top: "fire9_mbox_loc_flat"
  flatten_param {
    axis: 1
  }
}
layer {
  name: "fire9_mbox_conf"
  type: "Convolution"
  bottom: "fire9/concat"
  top: "fire9_mbox_conf"
  param {
    lr_mult: 1
    decay_mult: 1
  }
  param {
    lr_mult: 2
    decay_mult: 0
  }
  convolution_param {
    num_output: 42
    pad: 1
    kernel_size: 3
    stride: 1
    weight_filler {
      type: "msra"
    }
    bias_filler {
      type: "constant"
      value: 0
    }
  }
}
layer {
  name: "fire9_mbox_conf_perm"
  type: "Permute"
  bottom: "fire9_mbox_conf"
  top: "fire9_mbox_conf_perm"
  permute_param {
    order: 0
    order: 2
    order: 3
    order: 1
  }
}
layer {
  name: "fire9_mbox_conf_flat"
  type: "Flatten"
  bottom: "fire9_mbox_conf_perm"
  top: "fire9_mbox_conf_flat"
  flatten_param {
    axis: 1
  }
}
layer {
  name: "fire9_mbox_priorbox"
  type: "PriorBox"
  bottom: "fire9/concat"
  bottom: "data"
  top: "fire9_mbox_priorbox"
  prior_box_param {
    min_size: 45
    max_size: 99
    aspect_ratio: 2
    aspect_ratio: 3
    flip: true
    clip: false
    variance: 0.1
    variance: 0.1
    variance: 0.2
    variance: 0.2
    offset: 0.5
  }
}
layer {
  name: "fire10_mbox_loc"
  type: "Convolution"
  bottom: "fire10/concat"
  top: "fire10_mbox_loc"
  param {
    lr_mult: 0.1
    decay_mult: 0.1
  }
  param {
    lr_mult: 0.2
    decay_mult: 0
  }
  convolution_param {
    num_output: 24
    pad: 1
    kernel_size: 3
    stride: 1
    weight_filler {
      type: "msra"
    }
    bias_filler {
      type: "constant"
      value: 0
    }
  }
}
layer {
  name: "fire10_mbox_loc_perm"
  type: "Permute"
  bottom: "fire10_mbox_loc"
  top: "fire10_mbox_loc_perm"
  permute_param {
    order: 0
    order: 2
    order: 3
    order: 1
  }
}
layer {
  name: "fire10_mbox_loc_flat"
  type: "Flatten"
  bottom: "fire10_mbox_loc_perm"
  top: "fire10_mbox_loc_flat"
  flatten_param {
    axis: 1
  }
}
layer {
  name: "fire10_mbox_conf"
  type: "Convolution"
  bottom: "fire10/concat"
  top: "fire10_mbox_conf"
  param {
    lr_mult: 1
    decay_mult: 1
  }
  param {
    lr_mult: 2
    decay_mult: 0
  }
  convolution_param {
    num_output: 42
    pad: 1
    kernel_size: 3
    stride: 1
    weight_filler {
      type: "msra"
    }
    bias_filler {
      type: "constant"
      value: 0
    }
  }
}
layer {
  name: "fire10_mbox_conf_perm"
  type: "Permute"
  bottom: "fire10_mbox_conf"
  top: "fire10_mbox_conf_perm"
  permute_param {
    order: 0
    order: 2
    order: 3
    order: 1
  }
}
layer {
  name: "fire10_mbox_conf_flat"
  type: "Flatten"
  bottom: "fire10_mbox_conf_perm"
  top: "fire10_mbox_conf_flat"
  flatten_param {
    axis: 1
  }
}
layer {
  name: "fire10_mbox_priorbox"
  type: "PriorBox"
  bottom: "fire10/concat"
  bottom: "data"
  top: "fire10_mbox_priorbox"
  prior_box_param {
    min_size: 99
    max_size: 153
    aspect_ratio: 2
    aspect_ratio: 3
    flip: true
    clip: false
    variance: 0.1
    variance: 0.1
    variance: 0.2
    variance: 0.2
    offset: 0.5
  }
}
layer {
  name: "fire11_mbox_loc"
  type: "Convolution"
  bottom: "fire11/concat"
  top: "fire11_mbox_loc"
  param {
    lr_mult: 0.1
    decay_mult: 0.1
  }
  param {
    lr_mult: 0.2
    decay_mult: 0
  }
  convolution_param {
    num_output: 24
    pad: 1
    kernel_size: 3
    stride: 1
    weight_filler {
      type: "msra"
    }
    bias_filler {
      type: "constant"
      value: 0
    }
  }
}
layer {
  name: "fire11_mbox_loc_perm"
  type: "Permute"
  bottom: "fire11_mbox_loc"
  top: "fire11_mbox_loc_perm"
  permute_param {
    order: 0
    order: 2
    order: 3
    order: 1
  }
}
layer {
  name: "fire11_mbox_loc_flat"
  type: "Flatten"
  bottom: "fire11_mbox_loc_perm"
  top: "fire11_mbox_loc_flat"
  flatten_param {
    axis: 1
  }
}
layer {
  name: "fire11_mbox_conf"
  type: "Convolution"
  bottom: "fire11/concat"
  top: "fire11_mbox_conf"
  param {
    lr_mult: 1
    decay_mult: 1
  }
  param {
    lr_mult: 2
    decay_mult: 0
  }
  convolution_param {
    num_output: 42
    pad: 1
    kernel_size: 3
    stride: 1
    weight_filler {
      type: "msra"
    }
    bias_filler {
      type: "constant"
      value: 0
    }
  }
}
layer {
  name: "fire11_mbox_conf_perm"
  type: "Permute"
  bottom: "fire11_mbox_conf"
  top: "fire11_mbox_conf_perm"
  permute_param {
    order: 0
    order: 2
    order: 3
    order: 1
  }
}
layer {
  name: "fire11_mbox_conf_flat"
  type: "Flatten"
  bottom: "fire11_mbox_conf_perm"
  top: "fire11_mbox_conf_flat"
  flatten_param {
    axis: 1
  }
}
layer {
  name: "fire11_mbox_priorbox"
  type: "PriorBox"
  bottom: "fire11/concat"
  bottom: "data"
  top: "fire11_mbox_priorbox"
  prior_box_param {
    min_size: 153
    max_size: 207
    aspect_ratio: 2
    aspect_ratio: 3
    flip: true
    clip: false
    variance: 0.1
    variance: 0.1
    variance: 0.2
    variance: 0.2
    offset: 0.5
  }
}
layer {
  name: "conv12_2_mbox_loc"
  type: "Convolution"
  bottom: "conv12_2"
  top: "conv12_2_mbox_loc"
  param {
    lr_mult: 0.1
    decay_mult: 0.1
  }
  param {
    lr_mult: 0.2
    decay_mult: 0
  }
  convolution_param {
    num_output: 24
    pad: 1
    kernel_size: 3
    stride: 1
    weight_filler {
      type: "msra"
    }
    bias_filler {
      type: "constant"
      value: 0
    }
  }
}
layer {
  name: "conv12_2_mbox_loc_perm"
  type: "Permute"
  bottom: "conv12_2_mbox_loc"
  top: "conv12_2_mbox_loc_perm"
  permute_param {
    order: 0
    order: 2
    order: 3
    order: 1
  }
}
layer {
  name: "conv12_2_mbox_loc_flat"
  type: "Flatten"
  bottom: "conv12_2_mbox_loc_perm"
  top: "conv12_2_mbox_loc_flat"
  flatten_param {
    axis: 1
  }
}
layer {
  name: "conv12_2_mbox_conf"
  type: "Convolution"
  bottom: "conv12_2"
  top: "conv12_2_mbox_conf"
  param {
    lr_mult: 1
    decay_mult: 1
  }
  param {
    lr_mult: 2
    decay_mult: 0
  }
  convolution_param {
    num_output: 42
    pad: 1
    kernel_size: 3
    stride: 1
    weight_filler {
      type: "msra"
    }
    bias_filler {
      type: "constant"
      value: 0
    }
  }
}
layer {
  name: "conv12_2_mbox_conf_perm"
  type: "Permute"
  bottom: "conv12_2_mbox_conf"
  top: "conv12_2_mbox_conf_perm"
  permute_param {
    order: 0
    order: 2
    order: 3
    order: 1
  }
}
layer {
  name: "conv12_2_mbox_conf_flat"
  type: "Flatten"
  bottom: "conv12_2_mbox_conf_perm"
  top: "conv12_2_mbox_conf_flat"
  flatten_param {
    axis: 1
  }
}
layer {
  name: "conv12_2_mbox_priorbox"
  type: "PriorBox"
  bottom: "conv12_2"
  bottom: "data"
  top: "conv12_2_mbox_priorbox"
  prior_box_param {
    min_size: 207
    max_size: 261
    aspect_ratio: 2
    aspect_ratio: 3
    flip: true
    clip: false
    variance: 0.1
    variance: 0.1
    variance: 0.2
    variance: 0.2
    offset: 0.5
  }
}
layer {
  name: "conv13_2_mbox_loc"
  type: "Convolution"
  bottom: "conv13_2"
  top: "conv13_2_mbox_loc"
  param {
    lr_mult: 0.1
    decay_mult: 0.1
  }
  param {
    lr_mult: 0.2
    decay_mult: 0
  }
  convolution_param {
    num_output: 16
    pad: 1
    kernel_size: 3
    stride: 1
    weight_filler {
      type: "msra"
    }
    bias_filler {
      type: "constant"
      value: 0
    }
  }
}
layer {
  name: "conv13_2_mbox_loc_perm"
  type: "Permute"
  bottom: "conv13_2_mbox_loc"
  top: "conv13_2_mbox_loc_perm"
  permute_param {
    order: 0
    order: 2
    order: 3
    order: 1
  }
}
layer {
  name: "conv13_2_mbox_loc_flat"
  type: "Flatten"
  bottom: "conv13_2_mbox_loc_perm"
  top: "conv13_2_mbox_loc_flat"
  flatten_param {
    axis: 1
  }
}
layer {
  name: "conv13_2_mbox_conf"
  type: "Convolution"
  bottom: "conv13_2"
  top: "conv13_2_mbox_conf"
  param {
    lr_mult: 1
    decay_mult: 1
  }
  param {
    lr_mult: 2
    decay_mult: 0
  }
  convolution_param {
    num_output: 28
    pad: 1
    kernel_size: 3
    stride: 1
    weight_filler {
      type: "msra"
    }
    bias_filler {
      type: "constant"
      value: 0
    }
  }
}
layer {
  name: "conv13_2_mbox_conf_perm"
  type: "Permute"
  bottom: "conv13_2_mbox_conf"
  top: "conv13_2_mbox_conf_perm"
  permute_param {
    order: 0
    order: 2
    order: 3
    order: 1
  }
}
layer {
  name: "conv13_2_mbox_conf_flat"
  type: "Flatten"
  bottom: "conv13_2_mbox_conf_perm"
  top: "conv13_2_mbox_conf_flat"
  flatten_param {
    axis: 1
  }
}
layer {
  name: "conv13_2_mbox_priorbox"
  type: "PriorBox"
  bottom: "conv13_2"
  bottom: "data"
  top: "conv13_2_mbox_priorbox"
  prior_box_param {
    min_size: 261
    max_size: 315
    aspect_ratio: 2
    flip: true
    clip: false
    variance: 0.1
    variance: 0.1
    variance: 0.2
    variance: 0.2
    offset: 0.5
  }
}
layer {
  name: "mbox_loc"
  type: "Concat"
  bottom: "fire5_mbox_loc_flat"
  bottom: "fire9_mbox_loc_flat"
  bottom: "fire10_mbox_loc_flat"
  bottom: "fire11_mbox_loc_flat"
  bottom: "conv12_2_mbox_loc_flat"
  bottom: "conv13_2_mbox_loc_flat"
  top: "mbox_loc"
  concat_param {
    axis: 1
  }
}
layer {
  name: "mbox_conf"
  type: "Concat"
  bottom: "fire5_mbox_conf_flat"
  bottom: "fire9_mbox_conf_flat"
  bottom: "fire10_mbox_conf_flat"
  bottom: "fire11_mbox_conf_flat"
  bottom: "conv12_2_mbox_conf_flat"
  bottom: "conv13_2_mbox_conf_flat"
  top: "mbox_conf"
  concat_param {
    axis: 1
  }
}
layer {
  name: "mbox_priorbox"
  type: "Concat"
  bottom: "fire5_mbox_priorbox"
  bottom: "fire9_mbox_priorbox"
  bottom: "fire10_mbox_priorbox"
  bottom: "fire11_mbox_priorbox"
  bottom: "conv12_2_mbox_priorbox"
  bottom: "conv13_2_mbox_priorbox"
  top: "mbox_priorbox"
  concat_param {
    axis: 2
  }
}
layer {
  name: "mbox_conf_reshape"
  type: "Reshape"
  bottom: "mbox_conf"
  top: "mbox_conf_reshape"
  reshape_param {
    shape {
      dim: 0
      dim: -1
      dim: 7
    }
  }
}
layer {
  name: "mbox_conf_softmax"
  type: "Softmax"
  bottom: "mbox_conf_reshape"
  top: "mbox_conf_softmax"
  softmax_param {
    axis: 2
  }
}
layer {
  name: "mbox_conf_flatten"
  type: "Flatten"
  bottom: "mbox_conf_softmax"
  top: "mbox_conf_flatten"
  flatten_param {
    axis: 1
  }
}
layer {
  name: "detection_out"
  type: "DetectionOutput"
  bottom: "mbox_loc"
  bottom: "mbox_conf_flatten"
  bottom: "mbox_priorbox"
  top: "detection_out"
  include {
    phase: TEST
  }
  detection_output_param {
    num_classes: 7
    share_location: true
    background_label_id: 0
    nms_param {
      nms_threshold: 0.45
      top_k: 400
    }
    code_type: CENTER_SIZE
    keep_top_k: 200
    confidence_threshold: 0.01
  }
}
layer {
  name: "detection_eval"
  type: "DetectionEvaluate"
  bottom: "detection_out"
  bottom: "label"
  top: "detection_eval"
  include {
    phase: TEST
  }
  de
I0426 23:16:06.413764  9046 layer_factory.hpp:77] Creating layer data
I0426 23:16:06.413890  9046 net.cpp:100] Creating Layer data
I0426 23:16:06.413908  9046 net.cpp:408] data -> data
I0426 23:16:06.413929  9046 net.cpp:408] data -> label
I0426 23:16:06.415069  9070 db_lmdb.cpp:35] Opened lmdb test_lmdb/
I0426 23:16:06.419481  9046 annotated_data_layer.cpp:62] output data size: 2,3,300,300
I0426 23:16:06.425317  9046 net.cpp:150] Setting up data
I0426 23:16:06.425348  9046 net.cpp:157] Top shape: 2 3 300 300 (540000)
I0426 23:16:06.425362  9046 net.cpp:157] Top shape: 1 1 1 8 (8)
I0426 23:16:06.425367  9046 net.cpp:165] Memory required for data: 2160032
I0426 23:16:06.425376  9046 layer_factory.hpp:77] Creating layer data_data_0_split
I0426 23:16:06.425393  9046 net.cpp:100] Creating Layer data_data_0_split
I0426 23:16:06.425400  9046 net.cpp:434] data_data_0_split <- data
I0426 23:16:06.425410  9046 net.cpp:408] data_data_0_split -> data_data_0_split_0
…
I0426 23:16:06.495194  9046 net.cpp:157] Top shape: 2 512 18 18 (331776)
I0426 23:16:06.495198  9046 net.cpp:165] Memory required for data: 131232800
I0426 23:16:06.495200  9046 layer_factory.hpp:77] Creating layer fire9/concat_fire9/concat_0_split
I0426 23:16:06.495206  9046 net.cpp:100] Creating Layer fire9/concat_fire9/concat_0_split
I0426 23:16:06.495211  9046 net.cpp:434] fire9/concat_fire9/concat_0_split <- fire9/concat
I0426 23:16:06.495215  9046 net.cpp:408] fire9/concat_fire9/concat_0_split -> fire9/concat_fire9/concat_0_split_0
I0426 23:16:06.495221  9046 net.cpp:408] fire9/concat_fire9/concat_0_split -> fire9/concat_fire9/concat_0_split_1
I0426 23:16:06.495227  9046 net.cpp:408] fire9/concat_fire9/concat_0_split -> fire9/concat_fire9/concat_0_split_2
I0426 23:16:06.495234  9046 net.cpp:408] fire9/concat_fire9/concat_0_split -> fire9/concat_fire9/concat_0_split_3
I0426 23:16:06.495312  9046 net.cpp:150] Setting up fire9/concat_fire9/concat_0_split
I0426 23:16:06.495319  9046 net.cpp:157] Top shape: 2 512 18 18 (331776)
I0426 23:16:06.495324  9046 net.cpp:157] Top shape: 2 512 18 18 (331776)
I0426 23:16:06.495328  9046 net.cpp:157] Top shape: 2 512 18 18 (331776)
I0426 23:16:06.495333  9046 net.cpp:157] Top shape: 2 512 18 18 (331776)
I0426 23:16:06.495337  9046 net.cpp:165] Memory required for data: 136541216
I0426 23:16:06.495340  9046 layer_factory.hpp:77] Creating layer pool9
I0426 23:16:06.495347  9046 net.cpp:100] Creating Layer pool9
I0426 23:16:06.495352  9046 net.cpp:434] pool9 <- fire9/concat_fire9/concat_0_split_0
I0426 23:16:06.495357  9046 net.cpp:408] pool9 -> pool9
I0426 23:16:06.495396  9046 net.cpp:150] Setting up pool9
I0426 23:16:06.495402  9046 net.cpp:157] Top shape: 2 512 9 9 (82944)
I0426 23:16:06.495406  9046 net.cpp:165] Memory required for data: 136872992
I0426 23:16:06.495409  9046 layer_factory.hpp:77] Creating layer fire10/squeeze1x1
I0426 23:16:06.495419  9046 net.cpp:100] Creating Layer fire10/squeeze1x1
I0426 23:16:06.495424  9046 net.cpp:434] fire10/squeeze1x1 <- pool9
I0426 23:16:06.495429  9046 net.cpp:408] fire10/squeeze1x1 -> fire10/squeeze1x1
I0426 23:16:06.497128  9046 net.cpp:150] Setting up fire10/squeeze1x1
I0426 23:16:06.497143  9046 net.cpp:157] Top shape: 2 96 9 9 (15552)
I0426 23:16:06.497146  9046 net.cpp:165] Memory required for data: 136935200
I0426 23:16:06.497153  9046 layer_factory.hpp:77] Creating layer fire10/relu_squeeze1x1
I0426 23:16:06.497159  9046 net.cpp:100] Creating Layer fire10/relu_squeeze1x1
I0426 23:16:06.497164  9046 net.cpp:434] fire10/relu_squeeze1x1 <- fire10/squeeze1x1
I0426 23:16:06.497189  9046 net.cpp:395] fire10/relu_squeeze1x1 -> fire10/squeeze1x1 (in-place)
I0426 23:16:06.497339  9046 net.cpp:150] Setting up fire10/relu_squeeze1x1
I0426 23:16:06.497347  9046 net.cpp:157] Top shape: 2 96 9 9 (15552)
I0426 23:16:06.497351  9046 net.cpp:165] Memory required for data: 136997408
I0426 23:16:06.497366  9046 layer_factory.hpp:77] Creating layer fire10/squeeze1x1_fire10/relu_squeeze1x1_0_split
I0426 23:16:06.497376  9046 net.cpp:100] Creating Layer fire10/squeeze1x1_fire10/relu_squeeze1x1_0_split
I0426 23:16:06.497383  9046 net.cpp:434] fire10/squeeze1x1_fire10/relu_squeeze1x1_0_split <- fire10/squeeze1x1
I0426 23:16:06.497390  9046 net.cpp:408] fire10/squeeze1x1_fire10/relu_squeeze1x1_0_split -> fire10/squeeze1x1_fire10/relu_squeeze1x1_0_split_0
I0426 23:16:06.497397  9046 net.cpp:408] fire10/squeeze1x1_fire10/relu_squeeze1x1_0_split -> fire10/squeeze1x1_fire10/relu_squeeze1x1_0_split_1
I0426 23:16:06.497452  9046 net.cpp:150] Setting up fire10/squeeze1x1_fire10/relu_squeeze1x1_0_split
I0426 23:16:06.497459  9046 net.cpp:157] Top shape: 2 96 9 9 (15552)
I0426 23:16:06.497464  9046 net.cpp:157] Top shape: 2 96 9 9 (15552)
I0426 23:16:06.497467  9046 net.cpp:165] Memory required for data: 137121824
I0426 23:16:06.497472  9046 layer_factory.hpp:77] Creating layer fire10/expand1x1
I0426 23:16:06.497478  9046 net.cpp:100] Creating Layer fire10/expand1x1
I0426 23:16:06.497483  9046 net.cpp:434] fire10/expand1x1 <- fire10/squeeze1x1_fire10/relu_squeeze1x1_0_split_0
I0426 23:16:06.497488  9046 net.cpp:408] fire10/expand1x1 -> fire10/expand1x1
I0426 23:16:06.499233  9046 net.cpp:150] Setting up fire10/expand1x1
I0426 23:16:06.499246  9046 net.cpp:157] Top shape: 2 384 9 9 (62208)
I0426 23:16:06.499250  9046 net.cpp:165] Memory required for data: 137370656
I0426 23:16:06.499258  9046 layer_factory.hpp:77] Creating layer fire10/relu_expand1x1
I0426 23:16:06.499264  9046 net.cpp:100] Creating Layer fire10/relu_expand1x1
I0426 23:16:06.499269  9046 net.cpp:434] fire10/relu_expand1x1 <- fire10/expand1x1
I0426 23:16:06.499274  9046 net.cpp:395] fire10/relu_expand1x1 -> fire10/expand1x1 (in-place)
I0426 23:16:06.499657  9046 net.cpp:150] Setting up fire10/relu_expand1x1
I0426 23:16:06.499668  9046 net.cpp:157] Top shape: 2 384 9 9 (62208)
I0426 23:16:06.499671  9046 net.cpp:165] Memory required for data: 137619488
I0426 23:16:06.499675  9046 layer_factory.hpp:77] Creating layer fire10/expand3x3
I0426 23:16:06.499687  9046 net.cpp:100] Creating Layer fire10/expand3x3
I0426 23:16:06.499692  9046 net.cpp:434] fire10/expand3x3 <- fire10/squeeze1x1_fire10/relu_squeeze1x1_0_split_1
I0426 23:16:06.499697  9046 net.cpp:408] fire10/expand3x3 -> fire10/expand3x3
I0426 23:16:06.504698  9046 net.cpp:150] Setting up fire10/expand3x3
I0426 23:16:06.504716  9046 net.cpp:157] Top shape: 2 384 9 9 (62208)
I0426 23:16:06.504720  9046 net.cpp:165] Memory required for data: 137868320
I0426 23:16:06.504729  9046 layer_factory.hpp:77] Creating layer fire10/relu_expand3x3
I0426 23:16:06.504736  9046 net.cpp:100] Creating Layer fire10/relu_expand3x3
I0426 23:16:06.504742  9046 net.cpp:434] fire10/relu_expand3x3 <- fire10/expand3x3
I0426 23:16:06.504750  9046 net.cpp:395] fire10/relu_expand3x3 -> fire10/expand3x3 (in-place)
I0426 23:16:06.504905  9046 net.cpp:150] Setting up fire10/relu_expand3x3
I0426 23:16:06.504914  9046 net.cpp:157] Top shape: 2 384 9 9 (62208)
I0426 23:16:06.504917  9046 net.cpp:165] Memory required for data: 138117152
I0426 23:16:06.504922  9046 layer_factory.hpp:77] Creating layer fire10/concat
I0426 23:16:06.504928  9046 net.cpp:100] Creating Layer fire10/concat
I0426 23:16:06.504932  9046 net.cpp:434] fire10/concat <- fire10/expand1x1
I0426 23:16:06.504937  9046 net.cpp:434] fire10/concat <- fire10/expand3x3
I0426 23:16:06.504942  9046 net.cpp:408] fire10/concat -> fire10/concat
I0426 23:16:06.504976  9046 net.cpp:150] Setting up fire10/concat
I0426 23:16:06.504982  9046 net.cpp:157] Top shape: 2 768 9 9 (124416)
I0426 23:16:06.504987  9046 net.cpp:165] Memory required for data: 138614816
I0426 23:16:06.505007  9046 layer_factory.hpp:77] Creating layer fire10/concat_fire10/concat_0_split
I0426 23:16:06.505013  9046 net.cpp:100] Creating Layer fire10/concat_fire10/concat_0_split
I0426 23:16:06.505017  9046 net.cpp:434] fire10/concat_fire10/concat_0_split <- fire10/concat
I0426 23:16:06.505023  9046 net.cpp:408] fire10/concat_fire10/concat_0_split -> fire10/concat_fire10/concat_0_split_0
I0426 23:16:06.505029  9046 net.cpp:408] fire10/concat_fire10/concat_0_split -> fire10/concat_fire10/concat_0_split_1
I0426 23:16:06.505035  9046 net.cpp:408] fire10/concat_fire10/concat_0_split -> fire10/concat_fire10/concat_0_split_2
I0426 23:16:06.505040  9046 net.cpp:408] fire10/concat_fire10/concat_0_split -> fire10/concat_fire10/concat_0_split_3
I0426 23:16:06.505121  9046 net.cpp:150] Setting up fire10/concat_fire10/concat_0_split
I0426 23:16:06.505128  9046 net.cpp:157] Top shape: 2 768 9 9 (124416)
I0426 23:16:06.505133  9046 net.cpp:157] Top shape: 2 768 9 9 (124416)
I0426 23:16:06.505137  9046 net.cpp:157] Top shape: 2 768 9 9 (124416)
I0426 23:16:06.505142  9046 net.cpp:157] Top shape: 2 768 9 9 (124416)
I0426 23:16:06.505146  9046 net.cpp:165] Memory required for data: 140605472
I0426 23:16:06.505149  9046 layer_factory.hpp:77] Creating layer pool10
I0426 23:16:06.505156  9046 net.cpp:100] Creating Layer pool10
I0426 23:16:06.505161  9046 net.cpp:434] pool10 <- fire10/concat_fire10/concat_0_split_0
I0426 23:16:06.505165  9046 net.cpp:408] pool10 -> pool10
I0426 23:16:06.505210  9046 net.cpp:150] Setting up pool10
I0426 23:16:06.505216  9046 net.cpp:157] Top shape: 2 768 4 4 (24576)
I0426 23:16:06.505220  9046 net.cpp:165] Memory required for data: 140703776
I0426 23:16:06.505224  9046 layer_factory.hpp:77] Creating layer fire11/squeeze1x1
I0426 23:16:06.505234  9046 net.cpp:100] Creating Layer fire11/squeeze1x1
I0426 23:16:06.505239  9046 net.cpp:434] fire11/squeeze1x1 <- pool10
I0426 23:16:06.505250  9046 net.cpp:408] fire11/squeeze1x1 -> fire11/squeeze1x1
I0426 23:16:06.507340  9046 net.cpp:150] Setting up fire11/squeeze1x1
I0426 23:16:06.507364  9046 net.cpp:157] Top shape: 2 96 4 4 (3072)
I0426 23:16:06.507369  9046 net.cpp:165] Memory required for data: 140716064
I0426 23:16:06.507377  9046 layer_factory.hpp:77] Creating layer fire11/relu_squeeze1x1
I0426 23:16:06.507392  9046 net.cpp:100] Creating Layer fire11/relu_squeeze1x1
I0426 23:16:06.507398  9046 net.cpp:434] fire11/relu_squeeze1x1 <- fire11/squeeze1x1
I0426 23:16:06.507405  9046 net.cpp:395] fire11/relu_squeeze1x1 -> fire11/squeeze1x1 (in-place)
I0426 23:16:06.507824  9046 net.cpp:150] Setting up fire11/relu_squeeze1x1
I0426 23:16:06.507836  9046 net.cpp:157] Top shape: 2 96 4 4 (3072)
I0426 23:16:06.507840  9046 net.cpp:165] Memory required for data: 140728352
I0426 23:16:06.507844  9046 layer_factory.hpp:77] Creating layer fire11/squeeze1x1_fire11/relu_squeeze1x1_0_split
I0426 23:16:06.507851  9046 net.cpp:100] Creating Layer fire11/squeeze1x1_fire11/relu_squeeze1x1_0_split
I0426 23:16:06.507856  9046 net.cpp:434] fire11/squeeze1x1_fire11/relu_squeeze1x1_0_split <- fire11/squeeze1x1
I0426 23:16:06.507863  9046 net.cpp:408] fire11/squeeze1x1_fire11/relu_squeeze1x1_0_split -> fire11/squeeze1x1_fire11/relu_squeeze1x1_0_split_0
I0426 23:16:06.507869  9046 net.cpp:408] fire11/squeeze1x1_fire11/relu_squeeze1x1_0_split -> fire11/squeeze1x1_fire11/relu_squeeze1x1_0_split_1
I0426 23:16:06.507927  9046 net.cpp:150] Setting up fire11/squeeze1x1_fire11/relu_squeeze1x1_0_split
I0426 23:16:06.507936  9046 net.cpp:157] Top shape: 2 96 4 4 (3072)
I0426 23:16:06.507944  9046 net.cpp:157] Top shape: 2 96 4 4 (3072)
I0426 23:16:06.507949  9046 net.cpp:165] Memory required for data: 140752928
I0426 23:16:06.507956  9046 layer_factory.hpp:77] Creating layer fire11/expand1x1
I0426 23:16:06.507968  9046 net.cpp:100] Creating Layer fire11/expand1x1
I0426 23:16:06.507973  9046 net.cpp:434] fire11/expand1x1 <- fire11/squeeze1x1_fire11/relu_squeeze1x1_0_split_0
I0426 23:16:06.507982  9046 net.cpp:408] fire11/expand1x1 -> fire11/expand1x1
I0426 23:16:06.510357  9046 net.cpp:150] Setting up fire11/expand1x1
I0426 23:16:06.510378  9046 net.cpp:157] Top shape: 2 384 4 4 (12288)
I0426 23:16:06.510383  9046 net.cpp:165] Memory required for data: 140802080
I0426 23:16:06.510391  9046 layer_factory.hpp:77] Creating layer fire11/relu_expand1x1
I0426 23:16:06.510399  9046 net.cpp:100] Creating Layer fire11/relu_expand1x1
I0426 23:16:06.510406  9046 net.cpp:434] fire11/relu_expand1x1 <- fire11/expand1x1
I0426 23:16:06.510411  9046 net.cpp:395] fire11/relu_expand1x1 -> fire11/expand1x1 (in-place)
I0426 23:16:06.510849  9046 net.cpp:150] Setting up fire11/relu_expand1x1
I0426 23:16:06.510861  9046 net.cpp:157] Top shape: 2 384 4 4 (12288)
I0426 23:16:06.510866  9046 net.cpp:165] Memory required for data: 140851232
I0426 23:16:06.510870  9046 layer_factory.hpp:77] Creating layer fire11/expand3x3
I0426 23:16:06.510880  9046 net.cpp:100] Creating Layer fire11/expand3x3
I0426 23:16:06.510885  9046 net.cpp:434] fire11/expand3x3 <- fire11/squeeze1x1_fire11/relu_squeeze1x1_0_split_1
I0426 23:16:06.510892  9046 net.cpp:408] fire11/expand3x3 -> fire11/expand3x3
I0426 23:16:06.515763  9046 net.cpp:150] Setting up fire11/expand3x3
I0426 23:16:06.515777  9046 net.cpp:157] Top shape: 2 384 4 4 (12288)
I0426 23:16:06.515791  9046 net.cpp:165] Memory required for data: 140900384
I0426 23:16:06.515799  9046 layer_factory.hpp:77] Creating layer fire11/relu_expand3x3
I0426 23:16:06.515815  9046 net.cpp:100] Creating Layer fire11/relu_expand3x3
I0426 23:16:06.515821  9046 net.cpp:434] fire11/relu_expand3x3 <- fire11/expand3x3
I0426 23:16:06.515826  9046 net.cpp:395] fire11/relu_expand3x3 -> fire11/expand3x3 (in-place)
I0426 23:16:06.515990  9046 net.cpp:150] Setting up fire11/relu_expand3x3
I0426 23:16:06.515998  9046 net.cpp:157] Top shape: 2 384 4 4 (12288)
I0426 23:16:06.516001  9046 net.cpp:165] Memory required for data: 140949536
I0426 23:16:06.516016  9046 layer_factory.hpp:77] Creating layer fire11/concat
I0426 23:16:06.516022  9046 net.cpp:100] Creating Layer fire11/concat
I0426 23:16:06.516027  9046 net.cpp:434] fire11/concat <- fire11/expand1x1
I0426 23:16:06.516032  9046 net.cpp:434] fire11/concat <- fire11/expand3x3
I0426 23:16:06.516037  9046 net.cpp:408] fire11/concat -> fire11/concat
I0426 23:16:06.516069  9046 net.cpp:150] Setting up fire11/concat
I0426 23:16:06.516085  9046 net.cpp:157] Top shape: 2 768 4 4 (24576)
I0426 23:16:06.516088  9046 net.cpp:165] Memory required for data: 141047840
I0426 23:16:06.516103  9046 layer_factory.hpp:77] Creating layer fire11/concat_fire11/concat_0_split
I0426 23:16:06.516108  9046 net.cpp:100] Creating Layer fire11/concat_fire11/concat_0_split
I0426 23:16:06.516111  9046 net.cpp:434] fire11/concat_fire11/concat_0_split <- fire11/concat
I0426 23:16:06.516116  9046 net.cpp:408] fire11/concat_fire11/concat_0_split -> fire11/concat_fire11/concat_0_split_0
I0426 23:16:06.516122  9046 net.cpp:408] fire11/concat_fire11/concat_0_split -> fire11/concat_fire11/concat_0_split_1
I0426 23:16:06.516129  9046 net.cpp:408] fire11/concat_fire11/concat_0_split -> fire11/concat_fire11/concat_0_split_2
I0426 23:16:06.516132  9046 net.cpp:408] fire11/concat_fire11/concat_0_split -> fire11/concat_fire11/concat_0_split_3
I0426 23:16:06.516216  9046 net.cpp:150] Setting up fire11/concat_fire11/concat_0_split
I0426 23:16:06.516222  9046 net.cpp:157] Top shape: 2 768 4 4 (24576)
I0426 23:16:06.516235  9046 net.cpp:157] Top shape: 2 768 4 4 (24576)
I0426 23:16:06.516239  9046 net.cpp:157] Top shape: 2 768 4 4 (24576)
I0426 23:16:06.516243  9046 net.cpp:157] Top shape: 2 768 4 4 (24576)
I0426 23:16:06.516247  9046 net.cpp:165] Memory required for data: 141441056
I0426 23:16:06.516252  9046 layer_factory.hpp:77] Creating layer conv12_1
I0426 23:16:06.516258  9046 net.cpp:100] Creating Layer conv12_1
I0426 23:16:06.516263  9046 net.cpp:434] conv12_1 <- fire11/concat_fire11/concat_0_split_0
I0426 23:16:06.516268  9046 net.cpp:408] conv12_1 -> conv12_1
I0426 23:16:06.518290  9046 net.cpp:150] Setting up conv12_1
I0426 23:16:06.518303  9046 net.cpp:157] Top shape: 2 128 4 4 (4096)
I0426 23:16:06.518326  9046 net.cpp:165] Memory required for data: 141457440
I0426 23:16:06.518332  9046 layer_factory.hpp:77] Creating layer conv12_1/relu
I0426 23:16:06.518338  9046 net.cpp:100] Creating Layer conv12_1/relu
I0426 23:16:06.518342  9046 net.cpp:434] conv12_1/relu <- conv12_1
I0426 23:16:06.518347  9046 net.cpp:395] conv12_1/relu -> conv12_1 (in-place)
I0426 23:16:06.518720  9046 net.cpp:150] Setting up conv12_1/relu
I0426 23:16:06.518731  9046 net.cpp:157] Top shape: 2 128 4 4 (4096)
I0426 23:16:06.518735  9046 net.cpp:165] Memory required for data: 141473824
I0426 23:16:06.518739  9046 layer_factory.hpp:77] Creating layer conv12_2
I0426 23:16:06.518748  9046 net.cpp:100] Creating Layer conv12_2
I0426 23:16:06.518752  9046 net.cpp:434] conv12_2 <- conv12_1
I0426 23:16:06.518757  9046 net.cpp:408] conv12_2 -> conv12_2
I0426 23:16:06.523452  9046 net.cpp:150] Setting up conv12_2
I0426 23:16:06.523476  9046 net.cpp:157] Top shape: 2 256 2 2 (2048)
I0426 23:16:06.523480  9046 net.cpp:165] Memory required for data: 141482016
I0426 23:16:06.523490  9046 layer_factory.hpp:77] Creating layer conv12_2/relu
I0426 23:16:06.523499  9046 net.cpp:100] Creating Layer conv12_2/relu
I0426 23:16:06.523504  9046 net.cpp:434] conv12_2/relu <- conv12_2
I0426 23:16:06.523511  9046 net.cpp:395] conv12_2/relu -> conv12_2 (in-place)
I0426 23:16:06.523684  9046 net.cpp:150] Setting up conv12_2/relu
I0426 23:16:06.523694  9046 net.cpp:157] Top shape: 2 256 2 2 (2048)
I0426 23:16:06.523697  9046 net.cpp:165] Memory required for data: 141490208
I0426 23:16:06.523700  9046 layer_factory.hpp:77] Creating layer conv12_2_conv12_2/relu_0_split
I0426 23:16:06.523706  9046 net.cpp:100] Creating Layer conv12_2_conv12_2/relu_0_split
I0426 23:16:06.523710  9046 net.cpp:434] conv12_2_conv12_2/relu_0_split <- conv12_2
I0426 23:16:06.523715  9046 net.cpp:408] conv12_2_conv12_2/relu_0_split -> conv12_2_conv12_2/relu_0_split_0
I0426 23:16:06.523721  9046 net.cpp:408] conv12_2_conv12_2/relu_0_split -> conv12_2_conv12_2/relu_0_split_1
I0426 23:16:06.523727  9046 net.cpp:408] conv12_2_conv12_2/relu_0_split -> conv12_2_conv12_2/relu_0_split_2
I0426 23:16:06.523732  9046 net.cpp:408] conv12_2_conv12_2/relu_0_split -> conv12_2_conv12_2/relu_0_split_3
I0426 23:16:06.523809  9046 net.cpp:150] Setting up conv12_2_conv12_2/relu_0_split
I0426 23:16:06.523815  9046 net.cpp:157] Top shape: 2 256 2 2 (2048)
I0426 23:16:06.523820  9046 net.cpp:157] Top shape: 2 256 2 2 (2048)
I0426 23:16:06.523824  9046 net.cpp:157] Top shape: 2 256 2 2 (2048)
I0426 23:16:06.523829  9046 net.cpp:157] Top shape: 2 256 2 2 (2048)
I0426 23:16:06.523833  9046 net.cpp:165] Memory required for data: 141522976
I0426 23:16:06.523835  9046 layer_factory.hpp:77] Creating layer conv13_1
I0426 23:16:06.523845  9046 net.cpp:100] Creating Layer conv13_1
I0426 23:16:06.523849  9046 net.cpp:434] conv13_1 <- conv12_2_conv12_2/relu_0_split_0
I0426 23:16:06.523856  9046 net.cpp:408] conv13_1 -> conv13_1
I0426 23:16:06.525271  9046 net.cpp:150] Setting up conv13_1
I0426 23:16:06.525293  9046 net.cpp:157] Top shape: 2 64 2 2 (512)
I0426 23:16:06.525300  9046 net.cpp:165] Memory required for data: 141525024
I0426 23:16:06.525322  9046 layer_factory.hpp:77] Creating layer conv13_1/relu
I0426 23:16:06.525332  9046 net.cpp:100] Creating Layer conv13_1/relu
I0426 23:16:06.525338  9046 net.cpp:434] conv13_1/relu <- conv13_1
I0426 23:16:06.525347  9046 net.cpp:395] conv13_1/relu -> conv13_1 (in-place)
I0426 23:16:06.525789  9046 net.cpp:150] Setting up conv13_1/relu
I0426 23:16:06.525801  9046 net.cpp:157] Top shape: 2 64 2 2 (512)
I0426 23:16:06.525805  9046 net.cpp:165] Memory required for data: 141527072
I0426 23:16:06.525810  9046 layer_factory.hpp:77] Creating layer conv13_2
I0426 23:16:06.525820  9046 net.cpp:100] Creating Layer conv13_2
I0426 23:16:06.525823  9046 net.cpp:434] conv13_2 <- conv13_1
I0426 23:16:06.525830  9046 net.cpp:408] conv13_2 -> conv13_2
I0426 23:16:06.528354  9046 net.cpp:150] Setting up conv13_2
I0426 23:16:06.528368  9046 net.cpp:157] Top shape: 2 128 1 1 (256)
I0426 23:16:06.528390  9046 net.cpp:165] Memory required for data: 141528096
I0426 23:16:06.528396  9046 layer_factory.hpp:77] Creating layer conv13_2/relu
I0426 23:16:06.528403  9046 net.cpp:100] Creating Layer conv13_2/relu
I0426 23:16:06.528407  9046 net.cpp:434] conv13_2/relu <- conv13_2
I0426 23:16:06.528412  9046 net.cpp:395] conv13_2/relu -> conv13_2 (in-place)
I0426 23:16:06.528838  9046 net.cpp:150] Setting up conv13_2/relu
I0426 23:16:06.528849  9046 net.cpp:157] Top shape: 2 128 1 1 (256)
I0426 23:16:06.528854  9046 net.cpp:165] Memory required for data: 141529120
I0426 23:16:06.528858  9046 layer_factory.hpp:77] Creating layer conv13_2_conv13_2/relu_0_split
I0426 23:16:06.528864  9046 net.cpp:100] Creating Layer conv13_2_conv13_2/relu_0_split
I0426 23:16:06.528869  9046 net.cpp:434] conv13_2_conv13_2/relu_0_split <- conv13_2
I0426 23:16:06.528874  9046 net.cpp:408] conv13_2_conv13_2/relu_0_split -> conv13_2_conv13_2/relu_0_split_0
I0426 23:16:06.528882  9046 net.cpp:408] conv13_2_conv13_2/relu_0_split -> conv13_2_conv13_2/relu_0_split_1
I0426 23:16:06.528887  9046 net.cpp:408] conv13_2_conv13_2/relu_0_split -> conv13_2_conv13_2/relu_0_split_2
I0426 23:16:06.528952  9046 net.cpp:150] Setting up conv13_2_conv13_2/relu_0_split
I0426 23:16:06.528959  9046 net.cpp:157] Top shape: 2 128 1 1 (256)
I0426 23:16:06.528964  9046 net.cpp:157] Top shape: 2 128 1 1 (256)
I0426 23:16:06.528969  9046 net.cpp:157] Top shape: 2 128 1 1 (256)
I0426 23:16:06.528971  9046 net.cpp:165] Memory required for data: 141532192
I0426 23:16:06.528975  9046 layer_factory.hpp:77] Creating layer fire5_mbox_loc
I0426 23:16:06.528983  9046 net.cpp:100] Creating Layer fire5_mbox_loc
I0426 23:16:06.528988  9046 net.cpp:434] fire5_mbox_loc <- fire5/concat_fire5/concat_0_split_1
I0426 23:16:06.528995  9046 net.cpp:408] fire5_mbox_loc -> fire5_mbox_loc
I0426 23:16:06.530877  9046 net.cpp:150] Setting up fire5_mbox_loc
I0426 23:16:06.530890  9046 net.cpp:157] Top shape: 2 16 37 37 (43808)
I0426 23:16:06.530894  9046 net.cpp:165] Memory required for data: 141707424
I0426 23:16:06.530901  9046 layer_factory.hpp:77] Creating layer fire5_mbox_loc_perm
I0426 23:16:06.530908  9046 net.cpp:100] Creating Layer fire5_mbox_loc_perm
I0426 23:16:06.530913  9046 net.cpp:434] fire5_mbox_loc_perm <- fire5_mbox_loc
I0426 23:16:06.530918  9046 net.cpp:408] fire5_mbox_loc_perm -> fire5_mbox_loc_perm
I0426 23:16:06.531052  9046 net.cpp:150] Setting up fire5_mbox_loc_perm
I0426 23:16:06.531061  9046 net.cpp:157] Top shape: 2 37 37 16 (43808)
I0426 23:16:06.531067  9046 net.cpp:165] Memory required for data: 141882656
I0426 23:16:06.531074  9046 layer_factory.hpp:77] Creating layer fire5_mbox_loc_flat
I0426 23:16:06.531082  9046 net.cpp:100] Creating Layer fire5_mbox_loc_flat
I0426 23:16:06.531088  9046 net.cpp:434] fire5_mbox_loc_flat <- fire5_mbox_loc_perm
I0426 23:16:06.531095  9046 net.cpp:408] fire5_mbox_loc_flat -> fire5_mbox_loc_flat
I0426 23:16:06.531121  9046 net.cpp:150] Setting up fire5_mbox_loc_flat
I0426 23:16:06.531136  9046 net.cpp:157] Top shape: 2 21904 (43808)
I0426 23:16:06.531139  9046 net.cpp:165] Memory required for data: 142057888
I0426 23:16:06.531142  9046 layer_factory.hpp:77] Creating layer fire5_mbox_conf
I0426 23:16:06.531167  9046 net.cpp:100] Creating Layer fire5_mbox_conf
I0426 23:16:06.531173  9046 net.cpp:434] fire5_mbox_conf <- fire5/concat_fire5/concat_0_split_2
I0426 23:16:06.531183  9046 net.cpp:408] fire5_mbox_conf -> fire5_mbox_conf
I0426 23:16:06.534126  9046 net.cpp:150] Setting up fire5_mbox_conf
I0426 23:16:06.534165  9046 net.cpp:157] Top shape: 2 28 37 37 (76664)
I0426 23:16:06.534173  9046 net.cpp:165] Memory required for data: 142364544
I0426 23:16:06.534189  9046 layer_factory.hpp:77] Creating layer fire5_mbox_conf_perm
I0426 23:16:06.534204  9046 net.cpp:100] Creating Layer fire5_mbox_conf_perm
I0426 23:16:06.534212  9046 net.cpp:434] fire5_mbox_conf_perm <- fire5_mbox_conf
I0426 23:16:06.534221  9046 net.cpp:408] fire5_mbox_conf_perm -> fire5_mbox_conf_perm
I0426 23:16:06.534406  9046 net.cpp:150] Setting up fire5_mbox_conf_perm
I0426 23:16:06.534515  9046 net.cpp:157] Top shape: 2 37 37 28 (76664)
I0426 23:16:06.534569  9046 net.cpp:165] Memory required for data: 142671200
I0426 23:16:06.534621  9046 layer_factory.hpp:77] Creating layer fire5_mbox_conf_flat
I0426 23:16:06.534660  9046 net.cpp:100] Creating Layer fire5_mbox_conf_flat
I0426 23:16:06.534670  9046 net.cpp:434] fire5_mbox_conf_flat <- fire5_mbox_conf_perm
I0426 23:16:06.534679  9046 net.cpp:408] fire5_mbox_conf_flat -> fire5_mbox_conf_flat
I0426 23:16:06.534734  9046 net.cpp:150] Setting up fire5_mbox_conf_flat
I0426 23:16:06.534746  9046 net.cpp:157] Top shape: 2 38332 (76664)
I0426 23:16:06.534752  9046 net.cpp:165] Memory required for data: 142977856
I0426 23:16:06.534759  9046 layer_factory.hpp:77] Creating layer fire5_mbox_priorbox
I0426 23:16:06.534770  9046 net.cpp:100] Creating Layer fire5_mbox_priorbox
I0426 23:16:06.534777  9046 net.cpp:434] fire5_mbox_priorbox <- fire5/concat_fire5/concat_0_split_3
I0426 23:16:06.534786  9046 net.cpp:434] fire5_mbox_priorbox <- data_data_0_split_1
I0426 23:16:06.534796  9046 net.cpp:408] fire5_mbox_priorbox -> fire5_mbox_priorbox
I0426 23:16:06.534848  9046 net.cpp:150] Setting up fire5_mbox_priorbox
I0426 23:16:06.534858  9046 net.cpp:157] Top shape: 1 2 21904 (43808)
I0426 23:16:06.534864  9046 net.cpp:165] Memory required for data: 143153088
I0426 23:16:06.534871  9046 layer_factory.hpp:77] Creating layer fire9_mbox_loc
I0426 23:16:06.534886  9046 net.cpp:100] Creating Layer fire9_mbox_loc
I0426 23:16:06.534894  9046 net.cpp:434] fire9_mbox_loc <- fire9/concat_fire9/concat_0_split_1
I0426 23:16:06.534904  9046 net.cpp:408] fire9_mbox_loc -> fire9_mbox_loc
I0426 23:16:06.539168  9046 net.cpp:150] Setting up fire9_mbox_loc
I0426 23:16:06.539208  9046 net.cpp:157] Top shape: 2 24 18 18 (15552)
I0426 23:16:06.539216  9046 net.cpp:165] Memory required for data: 143215296
I0426 23:16:06.539232  9046 layer_factory.hpp:77] Creating layer fire9_mbox_loc_perm
I0426 23:16:06.539249  9046 net.cpp:100] Creating Layer fire9_mbox_loc_perm
I0426 23:16:06.539259  9046 net.cpp:434] fire9_mbox_loc_perm <- fire9_mbox_loc
I0426 23:16:06.539271  9046 net.cpp:408] fire9_mbox_loc_perm -> fire9_mbox_loc_perm
I0426 23:16:06.539494  9046 net.cpp:150] Setting up fire9_mbox_loc_perm
I0426 23:16:06.539515  9046 net.cpp:157] Top shape: 2 18 18 24 (15552)
I0426 23:16:06.539520  9046 net.cpp:165] Memory required for data: 143277504
I0426 23:16:06.539527  9046 layer_factory.hpp:77] Creating layer fire9_mbox_loc_flat
I0426 23:16:06.539538  9046 net.cpp:100] Creating Layer fire9_mbox_loc_flat
I0426 23:16:06.539544  9046 net.cpp:434] fire9_mbox_loc_flat <- fire9_mbox_loc_perm
I0426 23:16:06.539552  9046 net.cpp:408] fire9_mbox_loc_flat -> fire9_mbox_loc_flat
I0426 23:16:06.539592  9046 net.cpp:150] Setting up fire9_mbox_loc_flat
I0426 23:16:06.539602  9046 net.cpp:157] Top shape: 2 7776 (15552)
I0426 23:16:06.539608  9046 net.cpp:165] Memory required for data: 143339712
I0426 23:16:06.539613  9046 layer_factory.hpp:77] Creating layer fire9_mbox_conf
I0426 23:16:06.539630  9046 net.cpp:100] Creating Layer fire9_mbox_conf
I0426 23:16:06.539639  9046 net.cpp:434] fire9_mbox_conf <- fire9/concat_fire9/concat_0_split_2
I0426 23:16:06.539649  9046 net.cpp:408] fire9_mbox_conf -> fire9_mbox_conf
I0426 23:16:06.545544  9046 net.cpp:150] Setting up fire9_mbox_conf
I0426 23:16:06.545578  9046 net.cpp:157] Top shape: 2 42 18 18 (27216)
I0426 23:16:06.545583  9046 net.cpp:165] Memory required for data: 143448576
I0426 23:16:06.545603  9046 layer_factory.hpp:77] Creating layer fire9_mbox_conf_perm
I0426 23:16:06.545612  9046 net.cpp:100] Creating Layer fire9_mbox_conf_perm
I0426 23:16:06.545619  9046 net.cpp:434] fire9_mbox_conf_perm <- fire9_mbox_conf
I0426 23:16:06.545634  9046 net.cpp:408] fire9_mbox_conf_perm -> fire9_mbox_conf_perm
I0426 23:16:06.545784  9046 net.cpp:150] Setting up fire9_mbox_conf_perm
I0426 23:16:06.545791  9046 net.cpp:157] Top shape: 2 18 18 42 (27216)
I0426 23:16:06.545794  9046 net.cpp:165] Memory required for data: 143557440
I0426 23:16:06.545797  9046 layer_factory.hpp:77] Creating layer fire9_mbox_conf_flat
I0426 23:16:06.545855  9046 net.cpp:100] Creating Layer fire9_mbox_conf_flat
I0426 23:16:06.545859  9046 net.cpp:434] fire9_mbox_conf_flat <- fire9_mbox_conf_perm
I0426 23:16:06.545866  9046 net.cpp:408] fire9_mbox_conf_flat -> fire9_mbox_conf_flat
I0426 23:16:06.545910  9046 net.cpp:150] Setting up fire9_mbox_conf_flat
I0426 23:16:06.545917  9046 net.cpp:157] Top shape: 2 13608 (27216)
I0426 23:16:06.545929  9046 net.cpp:165] Memory required for data: 143666304
I0426 23:16:06.545933  9046 layer_factory.hpp:77] Creating layer fire9_mbox_priorbox
I0426 23:16:06.545940  9046 net.cpp:100] Creating Layer fire9_mbox_priorbox
I0426 23:16:06.545945  9046 net.cpp:434] fire9_mbox_priorbox <- fire9/concat_fire9/concat_0_split_3
I0426 23:16:06.545951  9046 net.cpp:434] fire9_mbox_priorbox <- data_data_0_split_2
I0426 23:16:06.545958  9046 net.cpp:408] fire9_mbox_priorbox -> fire9_mbox_priorbox
I0426 23:16:06.545989  9046 net.cpp:150] Setting up fire9_mbox_priorbox
I0426 23:16:06.545995  9046 net.cpp:157] Top shape: 1 2 7776 (15552)
I0426 23:16:06.546000  9046 net.cpp:165] Memory required for data: 143728512
I0426 23:16:06.546003  9046 layer_factory.hpp:77] Creating layer fire10_mbox_loc
I0426 23:16:06.546012  9046 net.cpp:100] Creating Layer fire10_mbox_loc
I0426 23:16:06.546017  9046 net.cpp:434] fire10_mbox_loc <- fire10/concat_fire10/concat_0_split_1
I0426 23:16:06.546030  9046 net.cpp:408] fire10_mbox_loc -> fire10_mbox_loc
I0426 23:16:06.549445  9046 net.cpp:150] Setting up fire10_mbox_loc
I0426 23:16:06.549458  9046 net.cpp:157] Top shape: 2 24 9 9 (3888)
I0426 23:16:06.549463  9046 net.cpp:165] Memory required for data: 143744064
I0426 23:16:06.549470  9046 layer_factory.hpp:77] Creating layer fire10_mbox_loc_perm
I0426 23:16:06.549477  9046 net.cpp:100] Creating Layer fire10_mbox_loc_perm
I0426 23:16:06.549484  9046 net.cpp:434] fire10_mbox_loc_perm <- fire10_mbox_loc
I0426 23:16:06.549489  9046 net.cpp:408] fire10_mbox_loc_perm -> fire10_mbox_loc_perm
I0426 23:16:06.549615  9046 net.cpp:150] Setting up fire10_mbox_loc_perm
I0426 23:16:06.549623  9046 net.cpp:157] Top shape: 2 9 9 24 (3888)
I0426 23:16:06.549626  9046 net.cpp:165] Memory required for data: 143759616
I0426 23:16:06.549629  9046 layer_factory.hpp:77] Creating layer fire10_mbox_loc_flat
I0426 23:16:06.549636  9046 net.cpp:100] Creating Layer fire10_mbox_loc_flat
I0426 23:16:06.549641  9046 net.cpp:434] fire10_mbox_loc_flat <- fire10_mbox_loc_perm
I0426 23:16:06.549646  9046 net.cpp:408] fire10_mbox_loc_flat -> fire10_mbox_loc_flat
I0426 23:16:06.549690  9046 net.cpp:150] Setting up fire10_mbox_loc_flat
I0426 23:16:06.549698  9046 net.cpp:157] Top shape: 2 1944 (3888)
I0426 23:16:06.549702  9046 net.cpp:165] Memory required for data: 143775168
I0426 23:16:06.549706  9046 layer_factory.hpp:77] Creating layer fire10_mbox_conf
I0426 23:16:06.549718  9046 net.cpp:100] Creating Layer fire10_mbox_conf
I0426 23:16:06.549726  9046 net.cpp:434] fire10_mbox_conf <- fire10/concat_fire10/concat_0_split_2
I0426 23:16:06.549736  9046 net.cpp:408] fire10_mbox_conf -> fire10_mbox_conf
I0426 23:16:06.554600  9046 net.cpp:150] Setting up fire10_mbox_conf
I0426 23:16:06.554632  9046 net.cpp:157] Top shape: 2 42 9 9 (6804)
I0426 23:16:06.554642  9046 net.cpp:165] Memory required for data: 143802384
I0426 23:16:06.554656  9046 layer_factory.hpp:77] Creating layer fire10_mbox_conf_perm
I0426 23:16:06.554672  9046 net.cpp:100] Creating Layer fire10_mbox_conf_perm
I0426 23:16:06.554680  9046 net.cpp:434] fire10_mbox_conf_perm <- fire10_mbox_conf
I0426 23:16:06.554692  9046 net.cpp:408] fire10_mbox_conf_perm -> fire10_mbox_conf_perm
I0426 23:16:06.554869  9046 net.cpp:150] Setting up fire10_mbox_conf_perm
I0426 23:16:06.554882  9046 net.cpp:157] Top shape: 2 9 9 42 (6804)
I0426 23:16:06.554886  9046 net.cpp:165] Memory required for data: 143829600
I0426 23:16:06.554893  9046 layer_factory.hpp:77] Creating layer fire10_mbox_conf_flat
I0426 23:16:06.554906  9046 net.cpp:100] Creating Layer fire10_mbox_conf_flat
I0426 23:16:06.554931  9046 net.cpp:434] fire10_mbox_conf_flat <- fire10_mbox_conf_perm
I0426 23:16:06.554940  9046 net.cpp:408] fire10_mbox_conf_flat -> fire10_mbox_conf_flat
I0426 23:16:06.554971  9046 net.cpp:150] Setting up fire10_mbox_conf_flat
I0426 23:16:06.554980  9046 net.cpp:157] Top shape: 2 3402 (6804)
I0426 23:16:06.554986  9046 net.cpp:165] Memory required for data: 143856816
I0426 23:16:06.554991  9046 layer_factory.hpp:77] Creating layer fire10_mbox_priorbox
I0426 23:16:06.554999  9046 net.cpp:100] Creating Layer fire10_mbox_priorbox
I0426 23:16:06.555006  9046 net.cpp:434] fire10_mbox_priorbox <- fire10/concat_fire10/concat_0_split_3
I0426 23:16:06.555013  9046 net.cpp:434] fire10_mbox_priorbox <- data_data_0_split_3
I0426 23:16:06.555021  9046 net.cpp:408] fire10_mbox_priorbox -> fire10_mbox_priorbox
I0426 23:16:06.555057  9046 net.cpp:150] Setting up fire10_mbox_priorbox
I0426 23:16:06.555064  9046 net.cpp:157] Top shape: 1 2 1944 (3888)
I0426 23:16:06.555069  9046 net.cpp:165] Memory required for data: 143872368
I0426 23:16:06.555074  9046 layer_factory.hpp:77] Creating layer fire11_mbox_loc
I0426 23:16:06.555086  9046 net.cpp:100] Creating Layer fire11_mbox_loc
I0426 23:16:06.555091  9046 net.cpp:434] fire11_mbox_loc <- fire11/concat_fire11/concat_0_split_1
I0426 23:16:06.555099  9046 net.cpp:408] fire11_mbox_loc -> fire11_mbox_loc
I0426 23:16:06.558568  9046 net.cpp:150] Setting up fire11_mbox_loc
I0426 23:16:06.558609  9046 net.cpp:157] Top shape: 2 24 4 4 (768)
I0426 23:16:06.558614  9046 net.cpp:165] Memory required for data: 143875440
I0426 23:16:06.558629  9046 layer_factory.hpp:77] Creating layer fire11_mbox_loc_perm
I0426 23:16:06.558650  9046 net.cpp:100] Creating Layer fire11_mbox_loc_perm
I0426 23:16:06.558660  9046 net.cpp:434] fire11_mbox_loc_perm <- fire11_mbox_loc
I0426 23:16:06.558670  9046 net.cpp:408] fire11_mbox_loc_perm -> fire11_mbox_loc_perm
I0426 23:16:06.558806  9046 net.cpp:150] Setting up fire11_mbox_loc_perm
I0426 23:16:06.558816  9046 net.cpp:157] Top shape: 2 4 4 24 (768)
I0426 23:16:06.558821  9046 net.cpp:165] Memory required for data: 143878512
I0426 23:16:06.558827  9046 layer_factory.hpp:77] Creating layer fire11_mbox_loc_flat
I0426 23:16:06.558848  9046 net.cpp:100] Creating Layer fire11_mbox_loc_flat
I0426 23:16:06.558853  9046 net.cpp:434] fire11_mbox_loc_flat <- fire11_mbox_loc_perm
I0426 23:16:06.558858  9046 net.cpp:408] fire11_mbox_loc_flat -> fire11_mbox_loc_flat
I0426 23:16:06.558898  9046 net.cpp:150] Setting up fire11_mbox_loc_flat
I0426 23:16:06.558905  9046 net.cpp:157] Top shape: 2 384 (768)
I0426 23:16:06.558907  9046 net.cpp:165] Memory required for data: 143881584
I0426 23:16:06.558928  9046 layer_factory.hpp:77] Creating layer fire11_mbox_conf
I0426 23:16:06.558938  9046 net.cpp:100] Creating Layer fire11_mbox_conf
I0426 23:16:06.558943  9046 net.cpp:434] fire11_mbox_conf <- fire11/concat_fire11/concat_0_split_2
I0426 23:16:06.558949  9046 net.cpp:408] fire11_mbox_conf -> fire11_mbox_conf
I0426 23:16:06.563406  9046 net.cpp:150] Setting up fire11_mbox_conf
I0426 23:16:06.563426  9046 net.cpp:157] Top shape: 2 42 4 4 (1344)
I0426 23:16:06.563432  9046 net.cpp:165] Memory required for data: 143886960
I0426 23:16:06.563443  9046 layer_factory.hpp:77] Creating layer fire11_mbox_conf_perm
I0426 23:16:06.563464  9046 net.cpp:100] Creating Layer fire11_mbox_conf_perm
I0426 23:16:06.563470  9046 net.cpp:434] fire11_mbox_conf_perm <- fire11_mbox_conf
I0426 23:16:06.563479  9046 net.cpp:408] fire11_mbox_conf_perm -> fire11_mbox_conf_perm
I0426 23:16:06.563624  9046 net.cpp:150] Setting up fire11_mbox_conf_perm
I0426 23:16:06.563633  9046 net.cpp:157] Top shape: 2 4 4 42 (1344)
I0426 23:16:06.563638  9046 net.cpp:165] Memory required for data: 143892336
I0426 23:16:06.563644  9046 layer_factory.hpp:77] Creating layer fire11_mbox_conf_flat
I0426 23:16:06.563652  9046 net.cpp:100] Creating Layer fire11_mbox_conf_flat
I0426 23:16:06.563657  9046 net.cpp:434] fire11_mbox_conf_flat <- fire11_mbox_conf_perm
I0426 23:16:06.563665  9046 net.cpp:408] fire11_mbox_conf_flat -> fire11_mbox_conf_flat
I0426 23:16:06.563727  9046 net.cpp:150] Setting up fire11_mbox_conf_flat
I0426 23:16:06.563736  9046 net.cpp:157] Top shape: 2 672 (1344)
I0426 23:16:06.563741  9046 net.cpp:165] Memory required for data: 143897712
I0426 23:16:06.563747  9046 layer_factory.hpp:77] Creating layer fire11_mbox_priorbox
I0426 23:16:06.563757  9046 net.cpp:100] Creating Layer fire11_mbox_priorbox
I0426 23:16:06.563762  9046 net.cpp:434] fire11_mbox_priorbox <- fire11/concat_fire11/concat_0_split_3
I0426 23:16:06.563769  9046 net.cpp:434] fire11_mbox_priorbox <- data_data_0_split_4
I0426 23:16:06.563777  9046 net.cpp:408] fire11_mbox_priorbox -> fire11_mbox_priorbox
I0426 23:16:06.563810  9046 net.cpp:150] Setting up fire11_mbox_priorbox
I0426 23:16:06.563818  9046 net.cpp:157] Top shape: 1 2 384 (768)
I0426 23:16:06.563823  9046 net.cpp:165] Memory required for data: 143900784
I0426 23:16:06.563829  9046 layer_factory.hpp:77] Creating layer conv12_2_mbox_loc
I0426 23:16:06.563840  9046 net.cpp:100] Creating Layer conv12_2_mbox_loc
I0426 23:16:06.563846  9046 net.cpp:434] conv12_2_mbox_loc <- conv12_2_conv12_2/relu_0_split_1
I0426 23:16:06.563854  9046 net.cpp:408] conv12_2_mbox_loc -> conv12_2_mbox_loc
I0426 23:16:06.565742  9046 net.cpp:150] Setting up conv12_2_mbox_loc
I0426 23:16:06.565966  9046 net.cpp:157] Top shape: 2 24 2 2 (192)
I0426 23:16:06.566059  9046 net.cpp:165] Memory required for data: 143901552
I0426 23:16:06.566171  9046 layer_factory.hpp:77] Creating layer conv12_2_mbox_loc_perm
I0426 23:16:06.566282  9046 net.cpp:100] Creating Layer conv12_2_mbox_loc_perm
I0426 23:16:06.566303  9046 net.cpp:434] conv12_2_mbox_loc_perm <- conv12_2_mbox_loc
I0426 23:16:06.566339  9046 net.cpp:408] conv12_2_mbox_loc_perm -> conv12_2_mbox_loc_perm
I0426 23:16:06.566668  9046 net.cpp:150] Setting up conv12_2_mbox_loc_perm
I0426 23:16:06.566679  9046 net.cpp:157] Top shape: 2 2 2 24 (192)
I0426 23:16:06.566684  9046 net.cpp:165] Memory required for data: 143902320
I0426 23:16:06.566686  9046 layer_factory.hpp:77] Creating layer conv12_2_mbox_loc_flat
I0426 23:16:06.566694  9046 net.cpp:100] Creating Layer conv12_2_mbox_loc_flat
I0426 23:16:06.566700  9046 net.cpp:434] conv12_2_mbox_loc_flat <- conv12_2_mbox_loc_perm
I0426 23:16:06.566709  9046 net.cpp:408] conv12_2_mbox_loc_flat -> conv12_2_mbox_loc_flat
I0426 23:16:06.566742  9046 net.cpp:150] Setting up conv12_2_mbox_loc_flat
I0426 23:16:06.566750  9046 net.cpp:157] Top shape: 2 96 (192)
I0426 23:16:06.566752  9046 net.cpp:165] Memory required for data: 143903088
I0426 23:16:06.566756  9046 layer_factory.hpp:77] Creating layer conv12_2_mbox_conf
I0426 23:16:06.566766  9046 net.cpp:100] Creating Layer conv12_2_mbox_conf
I0426 23:16:06.566771  9046 net.cpp:434] conv12_2_mbox_conf <- conv12_2_conv12_2/relu_0_split_2
I0426 23:16:06.566777  9046 net.cpp:408] conv12_2_mbox_conf -> conv12_2_mbox_conf
I0426 23:16:06.571678  9046 net.cpp:150] Setting up conv12_2_mbox_conf
I0426 23:16:06.571727  9046 net.cpp:157] Top shape: 2 42 2 2 (336)
I0426 23:16:06.571734  9046 net.cpp:165] Memory required for data: 143904432
I0426 23:16:06.571748  9046 layer_factory.hpp:77] Creating layer conv12_2_mbox_conf_perm
I0426 23:16:06.571765  9046 net.cpp:100] Creating Layer conv12_2_mbox_conf_perm
I0426 23:16:06.571774  9046 net.cpp:434] conv12_2_mbox_conf_perm <- conv12_2_mbox_conf
I0426 23:16:06.571786  9046 net.cpp:408] conv12_2_mbox_conf_perm -> conv12_2_mbox_conf_perm
I0426 23:16:06.572015  9046 net.cpp:150] Setting up conv12_2_mbox_conf_perm
I0426 23:16:06.572026  9046 net.cpp:157] Top shape: 2 2 2 42 (336)
I0426 23:16:06.572032  9046 net.cpp:165] Memory required for data: 143905776
I0426 23:16:06.572038  9046 layer_factory.hpp:77] Creating layer conv12_2_mbox_conf_flat
I0426 23:16:06.572048  9046 net.cpp:100] Creating Layer conv12_2_mbox_conf_flat
I0426 23:16:06.572055  9046 net.cpp:434] conv12_2_mbox_conf_flat <- conv12_2_mbox_conf_perm
I0426 23:16:06.572064  9046 net.cpp:408] conv12_2_mbox_conf_flat -> conv12_2_mbox_conf_flat
I0426 23:16:06.572106  9046 net.cpp:150] Setting up conv12_2_mbox_conf_flat
I0426 23:16:06.572140  9046 net.cpp:157] Top shape: 2 168 (336)
I0426 23:16:06.572147  9046 net.cpp:165] Memory required for data: 143907120
I0426 23:16:06.572154  9046 layer_factory.hpp:77] Creating layer conv12_2_mbox_priorbox
I0426 23:16:06.572165  9046 net.cpp:100] Creating Layer conv12_2_mbox_priorbox
I0426 23:16:06.572171  9046 net.cpp:434] conv12_2_mbox_priorbox <- conv12_2_conv12_2/relu_0_split_3
I0426 23:16:06.572180  9046 net.cpp:434] conv12_2_mbox_priorbox <- data_data_0_split_5
I0426 23:16:06.572190  9046 net.cpp:408] conv12_2_mbox_priorbox -> conv12_2_mbox_priorbox
I0426 23:16:06.572242  9046 net.cpp:150] Setting up conv12_2_mbox_priorbox
I0426 23:16:06.572252  9046 net.cpp:157] Top shape: 1 2 96 (192)
I0426 23:16:06.572258  9046 net.cpp:165] Memory required for data: 143907888
I0426 23:16:06.572264  9046 layer_factory.hpp:77] Creating layer conv13_2_mbox_loc
I0426 23:16:06.572290  9046 net.cpp:100] Creating Layer conv13_2_mbox_loc
I0426 23:16:06.572299  9046 net.cpp:434] conv13_2_mbox_loc <- conv13_2_conv13_2/relu_0_split_0
I0426 23:16:06.572309  9046 net.cpp:408] conv13_2_mbox_loc -> conv13_2_mbox_loc
I0426 23:16:06.575366  9046 net.cpp:150] Setting up conv13_2_mbox_loc
I0426 23:16:06.575438  9046 net.cpp:157] Top shape: 2 16 1 1 (32)
I0426 23:16:06.575448  9046 net.cpp:165] Memory required for data: 143908016
I0426 23:16:06.575474  9046 layer_factory.hpp:77] Creating layer conv13_2_mbox_loc_perm
I0426 23:16:06.575491  9046 net.cpp:100] Creating Layer conv13_2_mbox_loc_perm
I0426 23:16:06.575501  9046 net.cpp:434] conv13_2_mbox_loc_perm <- conv13_2_mbox_loc
I0426 23:16:06.575515  9046 net.cpp:408] conv13_2_mbox_loc_perm -> conv13_2_mbox_loc_perm
I0426 23:16:06.575758  9046 net.cpp:150] Setting up conv13_2_mbox_loc_perm
I0426 23:16:06.575772  9046 net.cpp:157] Top shape: 2 1 1 16 (32)
I0426 23:16:06.575778  9046 net.cpp:165] Memory required for data: 143908144
I0426 23:16:06.575784  9046 layer_factory.hpp:77] Creating layer conv13_2_mbox_loc_flat
I0426 23:16:06.575795  9046 net.cpp:100] Creating Layer conv13_2_mbox_loc_flat
I0426 23:16:06.575803  9046 net.cpp:434] conv13_2_mbox_loc_flat <- conv13_2_mbox_loc_perm
I0426 23:16:06.575812  9046 net.cpp:408] conv13_2_mbox_loc_flat -> conv13_2_mbox_loc_flat
I0426 23:16:06.575882  9046 net.cpp:150] Setting up conv13_2_mbox_loc_flat
I0426 23:16:06.575892  9046 net.cpp:157] Top shape: 2 16 (32)
I0426 23:16:06.575911  9046 net.cpp:165] Memory required for data: 143908272
I0426 23:16:06.575917  9046 layer_factory.hpp:77] Creating layer conv13_2_mbox_conf
I0426 23:16:06.575932  9046 net.cpp:100] Creating Layer conv13_2_mbox_conf
I0426 23:16:06.575940  9046 net.cpp:434] conv13_2_mbox_conf <- conv13_2_conv13_2/relu_0_split_1
I0426 23:16:06.575949  9046 net.cpp:408] conv13_2_mbox_conf -> conv13_2_mbox_conf
I0426 23:16:06.578140  9046 net.cpp:150] Setting up conv13_2_mbox_conf
I0426 23:16:06.578156  9046 net.cpp:157] Top shape: 2 28 1 1 (56)
I0426 23:16:06.578161  9046 net.cpp:165] Memory required for data: 143908496
I0426 23:16:06.578168  9046 layer_factory.hpp:77] Creating layer conv13_2_mbox_conf_perm
I0426 23:16:06.578176  9046 net.cpp:100] Creating Layer conv13_2_mbox_conf_perm
I0426 23:16:06.578181  9046 net.cpp:434] conv13_2_mbox_conf_perm <- conv13_2_mbox_conf
I0426 23:16:06.578187  9046 net.cpp:408] conv13_2_mbox_conf_perm -> conv13_2_mbox_conf_perm
I0426 23:16:06.578327  9046 net.cpp:150] Setting up conv13_2_mbox_conf_perm
I0426 23:16:06.578335  9046 net.cpp:157] Top shape: 2 1 1 28 (56)
I0426 23:16:06.578337  9046 net.cpp:165] Memory required for data: 143908720
I0426 23:16:06.578341  9046 layer_factory.hpp:77] Creating layer conv13_2_mbox_conf_flat
I0426 23:16:06.578346  9046 net.cpp:100] Creating Layer conv13_2_mbox_conf_flat
I0426 23:16:06.578351  9046 net.cpp:434] conv13_2_mbox_conf_flat <- conv13_2_mbox_conf_perm
I0426 23:16:06.578356  9046 net.cpp:408] conv13_2_mbox_conf_flat -> conv13_2_mbox_conf_flat
I0426 23:16:06.578385  9046 net.cpp:150] Setting up conv13_2_mbox_conf_flat
I0426 23:16:06.578392  9046 net.cpp:157] Top shape: 2 28 (56)
I0426 23:16:06.578413  9046 net.cpp:165] Memory required for data: 143908944
I0426 23:16:06.578418  9046 layer_factory.hpp:77] Creating layer conv13_2_mbox_priorbox
I0426 23:16:06.578424  9046 net.cpp:100] Creating Layer conv13_2_mbox_priorbox
I0426 23:16:06.578429  9046 net.cpp:434] conv13_2_mbox_priorbox <- conv13_2_conv13_2/relu_0_split_2
I0426 23:16:06.578435  9046 net.cpp:434] conv13_2_mbox_priorbox <- data_data_0_split_6
I0426 23:16:06.578441  9046 net.cpp:408] conv13_2_mbox_priorbox -> conv13_2_mbox_priorbox
I0426 23:16:06.578474  9046 net.cpp:150] Setting up conv13_2_mbox_priorbox
I0426 23:16:06.578481  9046 net.cpp:157] Top shape: 1 2 16 (32)
I0426 23:16:06.578485  9046 net.cpp:165] Memory required for data: 143909072
I0426 23:16:06.578490  9046 layer_factory.hpp:77] Creating layer mbox_loc
I0426 23:16:06.578495  9046 net.cpp:100] Creating Layer mbox_loc
I0426 23:16:06.578500  9046 net.cpp:434] mbox_loc <- fire5_mbox_loc_flat
I0426 23:16:06.578505  9046 net.cpp:434] mbox_loc <- fire9_mbox_loc_flat
I0426 23:16:06.578511  9046 net.cpp:434] mbox_loc <- fire10_mbox_loc_flat
I0426 23:16:06.578516  9046 net.cpp:434] mbox_loc <- fire11_mbox_loc_flat
I0426 23:16:06.578521  9046 net.cpp:434] mbox_loc <- conv12_2_mbox_loc_flat
I0426 23:16:06.578526  9046 net.cpp:434] mbox_loc <- conv13_2_mbox_loc_flat
I0426 23:16:06.578531  9046 net.cpp:408] mbox_loc -> mbox_loc
I0426 23:16:06.578562  9046 net.cpp:150] Setting up mbox_loc
I0426 23:16:06.578567  9046 net.cpp:157] Top shape: 2 32120 (64240)
I0426 23:16:06.578570  9046 net.cpp:165] Memory required for data: 144166032
I0426 23:16:06.578574  9046 layer_factory.hpp:77] Creating layer mbox_conf
I0426 23:16:06.578579  9046 net.cpp:100] Creating Layer mbox_conf
I0426 23:16:06.578584  9046 net.cpp:434] mbox_conf <- fire5_mbox_conf_flat
I0426 23:16:06.578589  9046 net.cpp:434] mbox_conf <- fire9_mbox_conf_flat
I0426 23:16:06.578594  9046 net.cpp:434] mbox_conf <- fire10_mbox_conf_flat
I0426 23:16:06.578599  9046 net.cpp:434] mbox_conf <- fire11_mbox_conf_flat
I0426 23:16:06.578603  9046 net.cpp:434] mbox_conf <- conv12_2_mbox_conf_flat
I0426 23:16:06.578608  9046 net.cpp:434] mbox_conf <- conv13_2_mbox_conf_flat
I0426 23:16:06.578613  9046 net.cpp:408] mbox_conf -> mbox_conf
I0426 23:16:06.578649  9046 net.cpp:150] Setting up mbox_conf
I0426 23:16:06.578655  9046 net.cpp:157] Top shape: 2 56210 (112420)
I0426 23:16:06.578660  9046 net.cpp:165] Memory required for data: 144615712
I0426 23:16:06.578663  9046 layer_factory.hpp:77] Creating layer mbox_priorbox
I0426 23:16:06.578668  9046 net.cpp:100] Creating Layer mbox_priorbox
I0426 23:16:06.578672  9046 net.cpp:434] mbox_priorbox <- fire5_mbox_priorbox
I0426 23:16:06.578677  9046 net.cpp:434] mbox_priorbox <- fire9_mbox_priorbox
I0426 23:16:06.578682  9046 net.cpp:434] mbox_priorbox <- fire10_mbox_priorbox
I0426 23:16:06.578686  9046 net.cpp:434] mbox_priorbox <- fire11_mbox_priorbox
I0426 23:16:06.578691  9046 net.cpp:434] mbox_priorbox <- conv12_2_mbox_priorbox
I0426 23:16:06.578696  9046 net.cpp:434] mbox_priorbox <- conv13_2_mbox_priorbox
I0426 23:16:06.578699  9046 net.cpp:408] mbox_priorbox -> mbox_priorbox
I0426 23:16:06.578727  9046 net.cpp:150] Setting up mbox_priorbox
I0426 23:16:06.578733  9046 net.cpp:157] Top shape: 1 2 32120 (64240)
I0426 23:16:06.578737  9046 net.cpp:165] Memory required for data: 144872672
I0426 23:16:06.578742  9046 layer_factory.hpp:77] Creating layer mbox_conf_reshape
I0426 23:16:06.578748  9046 net.cpp:100] Creating Layer mbox_conf_reshape
I0426 23:16:06.578752  9046 net.cpp:434] mbox_conf_reshape <- mbox_conf
I0426 23:16:06.578758  9046 net.cpp:408] mbox_conf_reshape -> mbox_conf_reshape
I0426 23:16:06.578791  9046 net.cpp:150] Setting up mbox_conf_reshape
I0426 23:16:06.578799  9046 net.cpp:157] Top shape: 2 8030 7 (112420)
I0426 23:16:06.578801  9046 net.cpp:165] Memory required for data: 145322352
I0426 23:16:06.578806  9046 layer_factory.hpp:77] Creating layer mbox_conf_softmax
I0426 23:16:06.578812  9046 net.cpp:100] Creating Layer mbox_conf_softmax
I0426 23:16:06.578816  9046 net.cpp:434] mbox_conf_softmax <- mbox_conf_reshape
I0426 23:16:06.578829  9046 net.cpp:408] mbox_conf_softmax -> mbox_conf_softmax
I0426 23:16:06.579059  9046 net.cpp:150] Setting up mbox_conf_softmax
I0426 23:16:06.579069  9046 net.cpp:157] Top shape: 2 8030 7 (112420)
I0426 23:16:06.579073  9046 net.cpp:165] Memory required for data: 145772032
I0426 23:16:06.579077  9046 layer_factory.hpp:77] Creating layer mbox_conf_flatten
I0426 23:16:06.579083  9046 net.cpp:100] Creating Layer mbox_conf_flatten
I0426 23:16:06.579087  9046 net.cpp:434] mbox_conf_flatten <- mbox_conf_softmax
I0426 23:16:06.579093  9046 net.cpp:408] mbox_conf_flatten -> mbox_conf_flatten
I0426 23:16:06.579123  9046 net.cpp:150] Setting up mbox_conf_flatten
I0426 23:16:06.579128  9046 net.cpp:157] Top shape: 2 56210 (112420)
I0426 23:16:06.579133  9046 net.cpp:165] Memory required for data: 146221712
I0426 23:16:06.579136  9046 layer_factory.hpp:77] Creating layer detection_out
I0426 23:16:06.579147  9046 net.cpp:100] Creating Layer detection_out
I0426 23:16:06.579151  9046 net.cpp:434] detection_out <- mbox_loc
I0426 23:16:06.579156  9046 net.cpp:434] detection_out <- mbox_conf_flatten
I0426 23:16:06.579160  9046 net.cpp:434] detection_out <- mbox_priorbox
I0426 23:16:06.579165  9046 net.cpp:408] detection_out -> detection_out
I0426 23:16:06.579234  9046 net.cpp:150] Setting up detection_out
I0426 23:16:06.579241  9046 net.cpp:157] Top shape: 1 1 1 7 (7)
I0426 23:16:06.579246  9046 net.cpp:165] Memory required for data: 146221740
I0426 23:16:06.579249  9046 layer_factory.hpp:77] Creating layer detection_eval
I0426 23:16:06.579257  9046 net.cpp:100] Creating Layer detection_eval
I0426 23:16:06.579260  9046 net.cpp:434] detection_eval <- detection_out
I0426 23:16:06.579265  9046 net.cpp:434] detection_eval <- label
I0426 23:16:06.579270  9046 net.cpp:408] detection_eval -> detection_eval
I0426 23:16:06.579321  9046 net.cpp:150] Setting up detection_eval
I0426 23:16:06.579329  9046 net.cpp:157] Top shape: 1 1 7 5 (35)
I0426 23:16:06.579331  9046 net.cpp:165] Memory required for data: 146221880
I0426 23:16:06.579336  9046 net.cpp:228] detection_eval does not need backward computation.
I0426 23:16:06.579341  9046 net.cpp:228] detection_out does not need backward computation.
I0426 23:16:06.579345  9046 net.cpp:228] mbox_conf_flatten does not need backward computation.
I0426 23:16:06.579350  9046 net.cpp:228] mbox_conf_softmax does not need backward computation.
…
