…
        min_scale: 0.3
        max_scale: 1
        min_aspect_ratio: 0.5
        max_aspect_ratio: 2
      }
      sample_constraint {
        min_jaccard_overlap: 0.9
      }
      max_sample: 1
      max_trials: 50
    }
    batch_sampler {
      sampler {
        min_scale: 0.3
        max_scale: 1
        min_aspect_ratio: 0.5
        max_aspect_ratio: 2
      }
      sample_constraint {
        max_jaccard_overlap: 1
      }
      max_sample: 1
      max_trials: 50
    }
    label_map_file: "labelmap.prototxt"
  }
}
layer {
  name: "conv1"
  type: "Convolution"
  bottom: "data"
  top: "conv1"
  param {
    lr_mult: 1
    decay_mult: 0
  }
  param {
    lr_mult: 1
    decay_mult: 0
  }
  convolution_param {
    num_output: 64
    kernel_size: 3
    stride: 2
    weight_filler {
      type: "xavier"
    }
  }
}
layer {
  name: "relu_conv1"
  type: "ReLU"
  bottom: "conv1"
  top: "conv1"
}
layer {
  name: "pool1"
  type: "Pooling"
  bottom: "conv1"
  top: "pool1"
  pooling_param {
    pool: MAX
    kernel_size: 3
    stride: 2
  }
}
layer {
  name: "fire2/squeeze1x1"
  type: "Convolution"
  bottom: "pool1"
  top: "fire2/squeeze1x1"
  param {
    lr_mult: 1
    decay_mult: 0
  }
  param {
    lr_mult: 1
    decay_mult: 0
  }
  convolution_param {
    num_output: 16
    kernel_size: 1
    weight_filler {
      type: "xavier"
    }
  }
}
layer {
  name: "fire2/relu_squeeze1x1"
  type: "ReLU"
  bottom: "fire2/squeeze1x1"
  top: "fire2/squeeze1x1"
}
layer {
  name: "fire2/expand1x1"
  type: "Convolution"
  bottom: "fire2/squeeze1x1"
  top: "fire2/expand1x1"
  param {
    lr_mult: 1
    decay_mult: 0
  }
  param {
    lr_mult: 1
    decay_mult: 0
  }
  convolution_param {
    num_output: 64
    kernel_size: 1
    weight_filler {
      type: "xavier"
    }
  }
}
layer {
  name: "fire2/relu_expand1x1"
  type: "ReLU"
  bottom: "fire2/expand1x1"
  top: "fire2/expand1x1"
}
layer {
  name: "fire2/expand3x3"
  type: "Convolution"
  bottom: "fire2/squeeze1x1"
  top: "fire2/expand3x3"
  param {
    lr_mult: 1
    decay_mult: 0
  }
  param {
    lr_mult: 1
    decay_mult: 0
  }
  convolution_param {
    num_output: 64
    pad: 1
    kernel_size: 3
    weight_filler {
      type: "xavier"
    }
  }
}
layer {
  name: "fire2/relu_expand3x3"
  type: "ReLU"
  bottom: "fire2/expand3x3"
  top: "fire2/expand3x3"
}
layer {
  name: "fire2/concat"
  type: "Concat"
  bottom: "fire2/expand1x1"
  bottom: "fire2/expand3x3"
  top: "fire2/concat"
}
layer {
  name: "fire3/squeeze1x1"
  type: "Convolution"
  bottom: "fire2/concat"
  top: "fire3/squeeze1x1"
  param {
    lr_mult: 1
    decay_mult: 0
  }
  param {
    lr_mult: 1
    decay_mult: 0
  }
  convolution_param {
    num_output: 16
    kernel_size: 1
    weight_filler {
      type: "xavier"
    }
  }
}
layer {
  name: "fire3/relu_squeeze1x1"
  type: "ReLU"
  bottom: "fire3/squeeze1x1"
  top: "fire3/squeeze1x1"
}
layer {
  name: "fire3/expand1x1"
  type: "Convolution"
  bottom: "fire3/squeeze1x1"
  top: "fire3/expand1x1"
  param {
    lr_mult: 1
    decay_mult: 0
  }
  param {
    lr_mult: 1
    decay_mult: 0
  }
  convolution_param {
    num_output: 64
    kernel_size: 1
    weight_filler {
      type: "xavier"
    }
  }
}
layer {
  name: "fire3/relu_expand1x1"
  type: "ReLU"
  bottom: "fire3/expand1x1"
  top: "fire3/expand1x1"
}
layer {
  name: "fire3/expand3x3"
  type: "Convolution"
  bottom: "fire3/squeeze1x1"
  top: "fire3/expand3x3"
  param {
    lr_mult: 1
    decay_mult: 0
  }
  param {
    lr_mult: 1
    decay_mult: 0
  }
  convolution_param {
    num_output: 64
    pad: 1
    kernel_size: 3
    weight_filler {
      type: "xavier"
    }
  }
}
layer {
  name: "fire3/relu_expand3x3"
  type: "ReLU"
  bottom: "fire3/expand3x3"
  top: "fire3/expand3x3"
}
layer {
  name: "fire3/concat"
  type: "Concat"
  bottom: "fire3/expand1x1"
  bottom: "fire3/expand3x3"
  top: "fire3/concat"
}
layer {
  name: "pool3"
  type: "Pooling"
  bottom: "fire3/concat"
  top: "pool3"
  pooling_param {
    pool: MAX
    kernel_size: 3
    stride: 2
  }
}
layer {
  name: "fire4/squeeze1x1"
  type: "Convolution"
  bottom: "pool3"
  top: "fire4/squeeze1x1"
  param {
    lr_mult: 1
    decay_mult: 0
  }
  param {
    lr_mult: 1
    decay_mult: 0
  }
  convolution_param {
    num_output: 32
    kernel_size: 1
    weight_filler {
      type: "xavier"
    }
  }
}
layer {
  name: "fire4/relu_squeeze1x1"
  type: "ReLU"
  bottom: "fire4/squeeze1x1"
  top: "fire4/squeeze1x1"
}
layer {
  name: "fire4/expand1x1"
  type: "Convolution"
  bottom: "fire4/squeeze1x1"
  top: "fire4/expand1x1"
  param {
    lr_mult: 1
    decay_mult: 0
  }
  param {
    lr_mult: 1
    decay_mult: 0
  }
  convolution_param {
    num_output: 128
    kernel_size: 1
    weight_filler {
      type: "xavier"
    }
  }
}
layer {
  name: "fire4/relu_expand1x1"
  type: "ReLU"
  bottom: "fire4/expand1x1"
  top: "fire4/expand1x1"
}
layer {
  name: "fire4/expand3x3"
  type: "Convolution"
  bottom: "fire4/squeeze1x1"
  top: "fire4/expand3x3"
  param {
    lr_mult: 1
    decay_mult: 0
  }
  param {
    lr_mult: 1
    decay_mult: 0
  }
  convolution_param {
    num_output: 128
    pad: 1
    kernel_size: 3
    weight_filler {
      type: "xavier"
    }
  }
}
layer {
  name: "fire4/relu_expand3x3"
  type: "ReLU"
  bottom: "fire4/expand3x3"
  top: "fire4/expand3x3"
}
layer {
  name: "fire4/concat"
  type: "Concat"
  bottom: "fire4/expand1x1"
  bottom: "fire4/expand3x3"
  top: "fire4/concat"
}
layer {
  name: "fire5/squeeze1x1"
  type: "Convolution"
  bottom: "fire4/concat"
  top: "fire5/squeeze1x1"
  param {
    lr_mult: 1
    decay_mult: 0
  }
  param {
    lr_mult: 1
    decay_mult: 0
  }
  convolution_param {
    num_output: 32
    kernel_size: 1
    weight_filler {
      type: "xavier"
    }
  }
}
layer {
  name: "fire5/relu_squeeze1x1"
  type: "ReLU"
  bottom: "fire5/squeeze1x1"
  top: "fire5/squeeze1x1"
}
layer {
  name: "fire5/expand1x1"
  type: "Convolution"
  bottom: "fire5/squeeze1x1"
  top: "fire5/expand1x1"
  param {
    lr_mult: 1
    decay_mult: 0
  }
  param {
    lr_mult: 1
    decay_mult: 0
  }
  convolution_param {
    num_output: 128
    kernel_size: 1
    weight_filler {
      type: "xavier"
    }
  }
}
layer {
  name: "fire5/relu_expand1x1"
  type: "ReLU"
  bottom: "fire5/expand1x1"
  top: "fire5/expand1x1"
}
layer {
  name: "fire5/expand3x3"
  type: "Convolution"
  bottom: "fire5/squeeze1x1"
  top: "fire5/expand3x3"
  param {
    lr_mult: 1
    decay_mult: 0
  }
  param {
    lr_mult: 1
    decay_mult: 0
  }
  convolution_param {
    num_output: 128
    pad: 1
    kernel_size: 3
    weight_filler {
      type: "xavier"
    }
  }
}
layer {
  name: "fire5/relu_expand3x3"
  type: "ReLU"
  bottom: "fire5/expand3x3"
  top: "fire5/expand3x3"
}
layer {
  name: "fire5/concat"
  type: "Concat"
  bottom: "fire5/expand1x1"
  bottom: "fire5/expand3x3"
  top: "fire5/concat"
}
layer {
  name: "pool5"
  type: "Pooling"
  bottom: "fire5/concat"
  top: "pool5"
  pooling_param {
    pool: MAX
    kernel_size: 3
    stride: 2
  }
}
layer {
  name: "fire6/squeeze1x1"
  type: "Convolution"
  bottom: "pool5"
  top: "fire6/squeeze1x1"
  param {
    lr_mult: 1
    decay_mult: 0
  }
  param {
    lr_mult: 1
    decay_mult: 0
  }
  convolution_param {
    num_output: 48
    kernel_size: 1
    weight_filler {
      type: "xavier"
    }
  }
}
layer {
  name: "fire6/relu_squeeze1x1"
  type: "ReLU"
  bottom: "fire6/squeeze1x1"
  top: "fire6/squeeze1x1"
}
layer {
  name: "fire6/expand1x1"
  type: "Convolution"
  bottom: "fire6/squeeze1x1"
  top: "fire6/expand1x1"
  param {
    lr_mult: 1
    decay_mult: 0
  }
  param {
    lr_mult: 1
    decay_mult: 0
  }
  convolution_param {
    num_output: 192
    kernel_size: 1
    weight_filler {
      type: "xavier"
    }
  }
}
layer {
  name: "fire6/relu_expand1x1"
  type: "ReLU"
  bottom: "fire6/expand1x1"
  top: "fire6/expand1x1"
}
layer {
  name: "fire6/expand3x3"
  type: "Convolution"
  bottom: "fire6/squeeze1x1"
  top: "fire6/expand3x3"
  param {
    lr_mult: 1
    decay_mult: 0
  }
  param {
    lr_mult: 1
    decay_mult: 0
  }
  convolution_param {
    num_output: 192
    pad: 1
    kernel_size: 3
    weight_filler {
      type: "xavier"
    }
  }
}
layer {
  name: "fire6/relu_expand3x3"
  type: "ReLU"
  bottom: "fire6/expand3x3"
  top: "fire6/expand3x3"
}
layer {
  name: "fire6/concat"
  type: "Concat"
  bottom: "fire6/expand1x1"
  bottom: "fire6/expand3x3"
  top: "fire6/concat"
}
layer {
  name: "fire7/squeeze1x1"
  type: "Convolution"
  bottom: "fire6/concat"
  top: "fire7/squeeze1x1"
  param {
    lr_mult: 1
    decay_mult: 0
  }
  param {
    lr_mult: 1
    decay_mult: 0
  }
  convolution_param {
    num_output: 48
    kernel_size: 1
    weight_filler {
      type: "xavier"
    }
  }
}
layer {
  name: "fire7/relu_squeeze1x1"
  type: "ReLU"
  bottom: "fire7/squeeze1x1"
  top: "fire7/squeeze1x1"
}
layer {
  name: "fire7/expand1x1"
  type: "Convolution"
  bottom: "fire7/squeeze1x1"
  top: "fire7/expand1x1"
  param {
    lr_mult: 1
    decay_mult: 0
  }
  param {
    lr_mult: 1
    decay_mult: 0
  }
  convolution_param {
    num_output: 192
    kernel_size: 1
    weight_filler {
      type: "xavier"
    }
  }
}
layer {
  name: "fire7/relu_expand1x1"
  type: "ReLU"
  bottom: "fire7/expand1x1"
  top: "fire7/expand1x1"
}
layer {
  name: "fire7/expand3x3"
  type: "Convolution"
  bottom: "fire7/squeeze1x1"
  top: "fire7/expand3x3"
  param {
    lr_mult: 1
    decay_mult: 0
  }
  param {
    lr_mult: 1
    decay_mult: 0
  }
  convolution_param {
    num_output: 192
    pad: 1
    kernel_size: 3
    weight_filler {
      type: "xavier"
    }
  }
}
layer {
  name: "fire7/relu_expand3x3"
  type: "ReLU"
  bottom: "fire7/expand3x3"
  top: "fire7/expand3x3"
}
layer {
  name: "fire7/concat"
  type: "Concat"
  bottom: "fire7/expand1x1"
  bottom: "fire7/expand3x3"
  top: "fire7/concat"
}
layer {
  name: "fire8/squeeze1x1"
  type: "Convolution"
  bottom: "fire7/concat"
  top: "fire8/squeeze1x1"
  param {
    lr_mult: 1
    decay_mult: 0
  }
  param {
    lr_mult: 1
    decay_mult: 0
  }
  convolution_param {
    num_output: 64
    kernel_size: 1
    weight_filler {
      type: "xavier"
    }
  }
}
layer {
  name: "fire8/relu_squeeze1x1"
  type: "ReLU"
  bottom: "fire8/squeeze1x1"
  top: "fire8/squeeze1x1"
}
layer {
  name: "fire8/expand1x1"
  type: "Convolution"
  bottom: "fire8/squeeze1x1"
  top: "fire8/expand1x1"
  param {
    lr_mult: 1
    decay_mult: 0
  }
  param {
    lr_mult: 1
    decay_mult: 0
  }
  convolution_param {
    num_output: 256
    kernel_size: 1
    weight_filler {
      type: "xavier"
    }
  }
}
layer {
  name: "fire8/relu_expand1x1"
  type: "ReLU"
  bottom: "fire8/expand1x1"
  top: "fire8/expand1x1"
}
layer {
  name: "fire8/expand3x3"
  type: "Convolution"
  bottom: "fire8/squeeze1x1"
  top: "fire8/expand3x3"
  param {
    lr_mult: 1
    decay_mult: 0
  }
  param {
    lr_mult: 1
    decay_mult: 0
  }
  convolution_param {
    num_output: 256
    pad: 1
    kernel_size: 3
    weight_filler {
      type: "xavier"
    }
  }
}
layer {
  name: "fire8/relu_expand3x3"
  type: "ReLU"
  bottom: "fire8/expand3x3"
  top: "fire8/expand3x3"
}
layer {
  name: "fire8/concat"
  type: "Concat"
  bottom: "fire8/expand1x1"
  bottom: "fire8/expand3x3"
  top: "fire8/concat"
}
layer {
  name: "fire9/squeeze1x1"
  type: "Convolution"
  bottom: "fire8/concat"
  top: "fire9/squeeze1x1"
  param {
    lr_mult: 1
    decay_mult: 0
  }
  param {
    lr_mult: 1
    decay_mult: 0
  }
  convolution_param {
    num_output: 64
    kernel_size: 1
    weight_filler {
      type: "xavier"
    }
  }
}
layer {
  name: "fire9/relu_squeeze1x1"
  type: "ReLU"
  bottom: "fire9/squeeze1x1"
  top: "fire9/squeeze1x1"
}
layer {
  name: "fire9/expand1x1"
  type: "Convolution"
  bottom: "fire9/squeeze1x1"
  top: "fire9/expand1x1"
  param {
    lr_mult: 1
    decay_mult: 0
  }
  param {
    lr_mult: 1
    decay_mult: 0
  }
  convolution_param {
    num_output: 256
    kernel_size: 1
    weight_filler {
      type: "xavier"
    }
  }
}
layer {
  name: "fire9/expand1x1/bn"
  type: "BatchNorm"
  bottom: "fire9/expand1x1"
  top: "fire9/expand1x1"
}
layer {
  name: "fire9/expand1x1/scale"
  type: "Scale"
  bottom: "fire9/expand1x1"
  top: "fire9/expand1x1"
  param {
    lr_mult: 1
    decay_mult: 0
  }
  param {
    lr_mult: 2
    decay_mult: 0
  }
  scale_param {
    filler {
      value: 1
    }
    bias_term: true
    bias_filler {
      value: 0
    }
  }
}
layer {
  name: "fire9/relu_expand1x1"
  type: "ReLU"
  bottom: "fire9/expand1x1"
  top: "fire9/expand1x1"
}
layer {
  name: "fire9/expand3x3"
  type: "Convolution"
  bottom: "fire9/squeeze1x1"
  top: "fire9/expand3x3"
  param {
    lr_mult: 1
    decay_mult: 0
  }
  param {
    lr_mult: 1
    decay_mult: 0
  }
  convolution_param {
    num_output: 256
    pad: 1
    kernel_size: 3
    weight_filler {
      type: "xavier"
    }
  }
}
layer {
  name: "fire9/expand3x3/bn"
  type: "BatchNorm"
  bottom: "fire9/expand3x3"
  top: "fire9/expand3x3"
}
layer {
  name: "fire9/expand3x3/scale"
  type: "Scale"
  bottom: "fire9/expand3x3"
  top: "fire9/expand3x3"
  param {
    lr_mult: 1
    decay_mult: 0
  }
  param {
    lr_mult: 2
    decay_mult: 0
  }
  scale_param {
    filler {
      value: 1
    }
    bias_term: true
    bias_filler {
      value: 0
    }
  }
}
layer {
  name: "fire9/relu_expand3x3"
  type: "ReLU"
  bottom: "fire9/expand3x3"
  top: "fire9/expand3x3"
}
layer {
  name: "fire9/concat"
  type: "Concat"
  bottom: "fire9/expand1x1"
  bottom: "fire9/expand3x3"
  top: "fire9/concat"
}
layer {
  name: "pool9"
  type: "Pooling"
  bottom: "fire9/concat"
  top: "pool9"
  pooling_param {
    pool: MAX
    kernel_size: 3
    stride: 2
  }
}
layer {
  name: "fire10/squeeze1x1"
  type: "Convolution"
  bottom: "pool9"
  top: "fire10/squeeze1x1"
  convolution_param {
    num_output: 96
    kernel_size: 1
    weight_filler {
      type: "xavier"
    }
  }
}
layer {
  name: "fire10/squeeze1x1/bn"
  type: "BatchNorm"
  bottom: "fire10/squeeze1x1"
  top: "fire10/squeeze1x1"
}
layer {
  name: "fire10/squeeze1x1/scale"
  type: "Scale"
  bottom: "fire10/squeeze1x1"
  top: "fire10/squeeze1x1"
  param {
    lr_mult: 1
    decay_mult: 0
  }
  param {
    lr_mult: 2
    decay_mult: 0
  }
  scale_param {
    filler {
      value: 1
    }
    bias_term: true
    bias_filler {
      value: 0
    }
  }
}
layer {
  name: "fire10/relu_squeeze1x1"
  type: "ReLU"
  bottom: "fire10/squeeze1x1"
  top: "fire10/squeeze1x1"
}
layer {
  name: "fire10/expand1x1"
  type: "Convolution"
  bottom: "fire10/squeeze1x1"
  top: "fire10/expand1x1"
  convolution_param {
    num_output: 384
    kernel_size: 1
    weight_filler {
      type: "xavier"
    }
  }
}
layer {
  name: "fire10/expand1x1/bn"
  type: "BatchNorm"
  bottom: "fire10/expand1x1"
  top: "fire10/expand1x1"
}
layer {
  name: "fire10/expand1x1/scale"
  type: "Scale"
  bottom: "fire10/expand1x1"
  top: "fire10/expand1x1"
  param {
    lr_mult: 1
    decay_mult: 0
  }
  param {
    lr_mult: 2
    decay_mult: 0
  }
  scale_param {
    filler {
      value: 1
    }
    bias_term: true
    bias_filler {
      value: 0
    }
  }
}
layer {
  name: "fire10/relu_expand1x1"
  type: "ReLU"
  bottom: "fire10/expand1x1"
  top: "fire10/expand1x1"
}
layer {
  name: "fire10/expand3x3"
  type: "Convolution"
  bottom: "fire10/squeeze1x1"
  top: "fire10/expand3x3"
  convolution_param {
    num_output: 384
    pad: 1
    kernel_size: 3
    weight_filler {
      type: "xavier"
    }
  }
}
layer {
  name: "fire10/expand3x3/bn"
  type: "BatchNorm"
  bottom: "fire10/expand3x3"
  top: "fire10/expand3x3"
}
layer {
  name: "fire10/expand3x3/scale"
  type: "Scale"
  bottom: "fire10/expand3x3"
  top: "fire10/expand3x3"
  param {
    lr_mult: 1
    decay_mult: 0
  }
  param {
    lr_mult: 2
    decay_mult: 0
  }
  scale_param {
    filler {
      value: 1
    }
    bias_term: true
    bias_filler {
      value: 0
    }
  }
}
layer {
  name: "fire10/relu_expand3x3"
  type: "ReLU"
  bottom: "fire10/expand3x3"
  top: "fire10/expand3x3"
}
layer {
  name: "fire10/concat"
  type: "Concat"
  bottom: "fire10/expand1x1"
  bottom: "fire10/expand3x3"
  top: "fire10/concat"
}
layer {
  name: "pool10"
  type: "Pooling"
  bottom: "fire10/concat"
  top: "pool10"
  pooling_param {
    pool: MAX
    kernel_size: 3
    stride: 2
  }
}
layer {
  name: "fire11/squeeze1x1"
  type: "Convolution"
  bottom: "pool10"
  top: "fire11/squeeze1x1"
  convolution_param {
    num_output: 96
    kernel_size: 1
    weight_filler {
      type: "xavier"
    }
  }
}
layer {
  name: "fire11/squeeze1x1/bn"
  type: "BatchNorm"
  bottom: "fire11/squeeze1x1"
  top: "fire11/squeeze1x1"
}
layer {
  name: "fire11/squeeze1x1/scale"
  type: "Scale"
  bottom: "fire11/squeeze1x1"
  top: "fire11/squeeze1x1"
  param {
    lr_mult: 1
    decay_mult: 0
  }
  param {
    lr_mult: 2
    decay_mult: 0
  }
  scale_param {
    filler {
      value: 1
    }
    bias_term: true
    bias_filler {
      value: 0
    }
  }
}
layer {
  name: "fire11/relu_squeeze1x1"
  type: "ReLU"
  bottom: "fire11/squeeze1x1"
  top: "fire11/squeeze1x1"
}
layer {
  name: "fire11/expand1x1"
  type: "Convolution"
  bottom: "fire11/squeeze1x1"
  top: "fire11/expand1x1"
  convolution_param {
    num_output: 384
    kernel_size: 1
    weight_filler {
      type: "xavier"
    }
  }
}
layer {
  name: "fire11/expand1x1/bn"
  type: "BatchNorm"
  bottom: "fire11/expand1x1"
  top: "fire11/expand1x1"
}
layer {
  name: "fire11/expand1x1/scale"
  type: "Scale"
  bottom: "fire11/expand1x1"
  top: "fire11/expand1x1"
  param {
    lr_mult: 1
    decay_mult: 0
  }
  param {
    lr_mult: 2
    decay_mult: 0
  }
  scale_param {
    filler {
      value: 1
    }
    bias_term: true
    bias_filler {
      value: 0
    }
  }
}
layer {
  name: "fire11/relu_expand1x1"
  type: "ReLU"
  bottom: "fire11/expand1x1"
  top: "fire11/expand1x1"
}
layer {
  name: "fire11/expand3x3"
  type: "Convolution"
  bottom: "fire11/squeeze1x1"
  top: "fire11/expand3x3"
  convolution_param {
    num_output: 384
    pad: 1
    kernel_size: 3
    weight_filler {
      type: "xavier"
    }
  }
}
layer {
  name: "fire11/expand3x3/bn"
  type: "BatchNorm"
  bottom: "fire11/expand3x3"
  top: "fire11/expand3x3"
}
layer {
  name: "fire11/expand3x3/scale"
  type: "Scale"
  bottom: "fire11/expand3x3"
  top: "fire11/expand3x3"
  param {
    lr_mult: 1
    decay_mult: 0
  }
  param {
    lr_mult: 2
    decay_mult: 0
  }
  scale_param {
    filler {
      value: 1
    }
    bias_term: true
    bias_filler {
      value: 0
    }
  }
}
layer {
  name: "fire11/relu_expand3x3"
  type: "ReLU"
  bottom: "fire11/expand3x3"
  top: "fire11/expand3x3"
}
layer {
  name: "fire11/concat"
  type: "Concat"
  bottom: "fire11/expand1x1"
  bottom: "fire11/expand3x3"
  top: "fire11/concat"
}
layer {
  name: "conv12_1"
  type: "Convolution"
  bottom: "fire11/concat"
  top: "conv12_1"
  param {
    lr_mult: 1
    decay_mult: 1
  }
  convolution_param {
    num_output: 128
    bias_term: false
    kernel_size: 1
    weight_filler {
      type: "msra"
    }
  }
}
layer {
  name: "conv12_1/bn"
  type: "BatchNorm"
  bottom: "conv12_1"
  top: "conv12_1"
}
layer {
  name: "conv12_1/scale"
  type: "Scale"
  bottom: "conv12_1"
  top: "conv12_1"
  param {
    lr_mult: 1
    decay_mult: 0
  }
  param {
    lr_mult: 2
    decay_mult: 0
  }
  scale_param {
    filler {
      value: 1
    }
    bias_term: true
    bias_filler {
      value: 0
    }
  }
}
layer {
  name: "conv12_1/relu"
  type: "ReLU"
  bottom: "conv12_1"
  top: "conv12_1"
}
layer {
  name: "conv12_2"
  type: "Convolution"
  bottom: "conv12_1"
  top: "conv12_2"
  param {
    lr_mult: 1
    decay_mult: 1
  }
  convolution_param {
    num_output: 256
    bias_term: false
    pad: 1
    kernel_size: 3
    stride: 2
    weight_filler {
      type: "msra"
    }
  }
}
layer {
  name: "conv12_2/bn"
  type: "BatchNorm"
  bottom: "conv12_2"
  top: "conv12_2"
}
layer {
  name: "conv12_2/scale"
  type: "Scale"
  bottom: "conv12_2"
  top: "conv12_2"
  param {
    lr_mult: 1
    decay_mult: 0
  }
  param {
    lr_mult: 2
    decay_mult: 0
  }
  scale_param {
    filler {
      value: 1
    }
    bias_term: true
    bias_filler {
      value: 0
    }
  }
}
layer {
  name: "conv12_2/relu"
  type: "ReLU"
  bottom: "conv12_2"
  top: "conv12_2"
}
layer {
  name: "conv13_1"
  type: "Convolution"
  bottom: "conv12_2"
  top: "conv13_1"
  param {
    lr_mult: 1
    decay_mult: 1
  }
  convolution_param {
    num_output: 64
    bias_term: false
    kernel_size: 1
    weight_filler {
      type: "msra"
    }
  }
}
layer {
  name: "conv13_1/bn"
  type: "BatchNorm"
  bottom: "conv13_1"
  top: "conv13_1"
}
layer {
  name: "conv13_1/scale"
  type: "Scale"
  bottom: "conv13_1"
  top: "conv13_1"
  param {
    lr_mult: 1
    decay_mult: 0
  }
  param {
    lr_mult: 2
    decay_mult: 0
  }
  scale_param {
    filler {
      value: 1
    }
    bias_term: true
    bias_filler {
      value: 0
    }
  }
}
layer {
  name: "conv13_1/relu"
  type: "ReLU"
  bottom: "conv13_1"
  top: "conv13_1"
}
layer {
  name: "conv13_2"
  type: "Convolution"
  bottom: "conv13_1"
  top: "conv13_2"
  param {
    lr_mult: 1
    decay_mult: 1
  }
  convolution_param {
    num_output: 128
    bias_term: false
    pad: 1
    kernel_size: 3
    stride: 2
    weight_filler {
      type: "msra"
    }
  }
}
layer {
  name: "conv13_2/bn"
  type: "BatchNorm"
  bottom: "conv13_2"
  top: "conv13_2"
}
layer {
  name: "conv13_2/scale"
  type: "Scale"
  bottom: "conv13_2"
  top: "conv13_2"
  param {
    lr_mult: 1
    decay_mult: 0
  }
  param {
    lr_mult: 2
    decay_mult: 0
  }
  scale_param {
    filler {
      value: 1
    }
    bias_term: true
    bias_filler {
      value: 0
    }
  }
}
layer {
  name: "conv13_2/relu"
  type: "ReLU"
  bottom: "conv13_2"
  top: "conv13_2"
}
layer {
  name: "fire5/bn"
  type: "BatchNorm"
  bottom: "fire5/concat"
  top: "fire5/normal"
}
layer {
  name: "fire5/scale"
  type: "Scale"
  bottom: "fire5/normal"
  top: "fire5/normal"
  param {
    lr_mult: 1
    decay_mult: 0
  }
  param {
    lr_mult: 2
    decay_mult: 0
  }
  scale_param {
    filler {
      value: 1
    }
    bias_term: true
    bias_filler {
      value: 0
    }
  }
}
layer {
  name: "fire5_mbox_loc"
  type: "Convolution"
  bottom: "fire5/normal"
  top: "fire5_mbox_loc"
  param {
    lr_mult: 1
    decay_mult: 1
  }
  param {
    lr_mult: 2
    decay_mult: 0
  }
  convolution_param {
    num_output: 16
    pad: 1
    kernel_size: 3
    stride: 1
    weight_filler {
      type: "msra"
    }
    bias_filler {
      type: "constant"
      value: 0
    }
  }
}
layer {
  name: "fire5_mbox_loc_perm"
  type: "Permute"
  bottom: "fire5_mbox_loc"
  top: "fire5_mbox_loc_perm"
  permute_param {
    order: 0
    order: 2
    order: 3
    order: 1
  }
}
layer {
  name: "fire5_mbox_loc_flat"
  type: "Flatten"
  bottom: "fire5_mbox_loc_perm"
  top: "fire5_mbox_loc_flat"
  flatten_param {
    axis: 1
  }
}
layer {
  name: "fire5_mbox_conf_retrain"
  type: "Convolution"
  bottom: "fire5/normal"
  top: "fire5_mbox_conf_retrain"
  param {
    lr_mult: 1
    decay_mult: 1
  }
  param {
    lr_mult: 2
    decay_mult: 0
  }
  convolution_param {
    num_output: 28
    pad: 1
    kernel_size: 3
    stride: 1
    weight_filler {
      type: "msra"
    }
    bias_filler {
      type: "constant"
      value: 0
    }
  }
}
layer {
  name: "fire5_mbox_conf_perm"
  type: "Permute"
  bottom: "fire5_mbox_conf_retrain"
  top: "fire5_mbox_conf_perm"
  permute_param {
    order: 0
    order: 2
    order: 3
    order: 1
  }
}
layer {
  name: "fire5_mbox_conf_flat"
  type: "Flatten"
  bottom: "fire5_mbox_conf_perm"
  top: "fire5_mbox_conf_flat"
  flatten_param {
    axis: 1
  }
}
layer {
  name: "fire5_mbox_priorbox"
  type: "PriorBox"
  bottom: "fire5/normal"
  bottom: "data"
  top: "fire5_mbox_priorbox"
  prior_box_param {
    min_size: 21
    max_size: 45
    aspect_ratio: 2
    flip: true
    clip: false
    variance: 0.1
    variance: 0.1
    variance: 0.2
    variance: 0.2
    step: 8
  }
}
layer {
  name: "fire9_mbox_loc"
  type: "Convolution"
  bottom: "fire9/concat"
  top: "fire9_mbox_loc"
  param {
    lr_mult: 1
    decay_mult: 1
  }
  param {
    lr_mult: 2
    decay_mult: 0
  }
  convolution_param {
    num_output: 24
    pad: 1
    kernel_size: 3
    stride: 1
    weight_filler {
      type: "msra"
    }
    bias_filler {
      type: "constant"
      value: 0
    }
  }
}
layer {
  name: "fire9_mbox_loc_perm"
  type: "Permute"
  bottom: "fire9_mbox_loc"
  top: "fire9_mbox_loc_perm"
  permute_param {
    order: 0
    order: 2
    order: 3
    order: 1
  }
}
layer {
  name: "fire9_mbox_loc_flat"
  type: "Flatten"
  bottom: "fire9_mbox_loc_perm"
  top: "fire9_mbox_loc_flat"
  flatten_param {
    axis: 1
  }
}
layer {
  name: "fire9_mbox_conf_retrain"
  type: "Convolution"
  bottom: "fire9/concat"
  top: "fire9_mbox_conf_retrain"
  param {
    lr_mult: 1
    decay_mult: 1
  }
  param {
    lr_mult: 2
    decay_mult: 0
  }
  convolution_param {
    num_output: 42
    pad: 1
    kernel_size: 3
    stride: 1
    weight_filler {
      type: "msra"
    }
    bias_filler {
      type: "constant"
      value: 0
    }
  }
}
layer {
  name: "fire9_mbox_conf_perm"
  type: "Permute"
  bottom: "fire9_mbox_conf_retrain"
  top: "fire9_mbox_conf_perm"
  permute_param {
    order: 0
    order: 2
    order: 3
    order: 1
  }
}
layer {
  name: "fire9_mbox_conf_flat"
  type: "Flatten"
  bottom: "fire9_mbox_conf_perm"
  top: "fire9_mbox_conf_flat"
  flatten_param {
    axis: 1
  }
}
layer {
  name: "fire9_mbox_priorbox"
  type: "PriorBox"
  bottom: "fire9/concat"
  bottom: "data"
  top: "fire9_mbox_priorbox"
  prior_box_param {
    min_size: 45
    max_size: 99
    aspect_ratio: 2
    aspect_ratio: 3
    flip: true
    clip: false
    variance: 0.1
    variance: 0.1
    variance: 0.2
    variance: 0.2
    step: 16
  }
}
layer {
  name: "fire10_mbox_loc"
  type: "Convolution"
  bottom: "fire10/concat"
  top: "fire10_mbox_loc"
  param {
    lr_mult: 1
    decay_mult: 1
  }
  param {
    lr_mult: 2
    decay_mult: 0
  }
  convolution_param {
    num_output: 24
    pad: 1
    kernel_size: 3
    stride: 1
    weight_filler {
      type: "msra"
    }
    bias_filler {
      type: "constant"
      value: 0
    }
  }
}
layer {
  name: "fire10_mbox_loc_perm"
  type: "Permute"
  bottom: "fire10_mbox_loc"
  top: "fire10_mbox_loc_perm"
  permute_param {
    order: 0
    order: 2
    order: 3
    order: 1
  }
}
layer {
  name: "fire10_mbox_loc_flat"
  type: "Flatten"
  bottom: "fire10_mbox_loc_perm"
  top: "fire10_mbox_loc_flat"
  flatten_param {
    axis: 1
  }
}
layer {
  name: "fire10_mbox_conf_retrain"
  type: "Convolution"
  bottom: "fire10/concat"
  top: "fire10_mbox_conf_retrain"
  param {
    lr_mult: 1
    decay_mult: 1
  }
  param {
    lr_mult: 2
    decay_mult: 0
  }
  convolution_param {
    num_output: 42
    pad: 1
    kernel_size: 3
    stride: 1
    weight_filler {
      type: "msra"
    }
    bias_filler {
      type: "constant"
      value: 0
    }
  }
}
layer {
  name: "fire10_mbox_conf_perm"
  type: "Permute"
  bottom: "fire10_mbox_conf_retrain"
  top: "fire10_mbox_conf_perm"
  permute_param {
    order: 0
    order: 2
    order: 3
    order: 1
  }
}
layer {
  name: "fire10_mbox_conf_flat"
  type: "Flatten"
  bottom: "fire10_mbox_conf_perm"
  top: "fire10_mbox_conf_flat"
  flatten_param {
    axis: 1
  }
}
layer {
  name: "fire10_mbox_priorbox"
  type: "PriorBox"
  bottom: "fire10/concat"
  bottom: "data"
  top: "fire10_mbox_priorbox"
  prior_box_param {
    min_size: 99
    max_size: 153
    aspect_ratio: 2
    aspect_ratio: 3
    flip: true
    clip: false
    variance: 0.1
    variance: 0.1
    variance: 0.2

I0327 11:16:36.647702 10913 layer_factory.hpp:77] Creating layer data
I0327 11:16:36.647831 10913 net.cpp:100] Creating Layer data
I0327 11:16:36.647847 10913 net.cpp:408] data -> data
I0327 11:16:36.647876 10913 net.cpp:408] data -> label
I0327 11:16:36.648533 10924 db_lmdb.cpp:35] Opened lmdb trainval_lmdb
I0327 11:16:36.660835 10913 annotated_data_layer.cpp:62] output data size: 2,3,300,300
I0327 11:16:36.665189 10913 net.cpp:150] Setting up data
I0327 11:16:36.665225 10913 net.cpp:157] Top shape: 2 3 300 300 (540000)
I0327 11:16:36.665231 10913 net.cpp:157] Top shape: 1 1 1 8 (8)
I0327 11:16:36.665235 10913 net.cpp:165] Memory required for data: 2160032
I0327 11:16:36.665246 10913 layer_factory.hpp:77] Creating layer data_data_0_split
I0327 11:16:36.665258 10913 net.cpp:100] Creating Layer data_data_0_split
I0327 11:16:36.665264 10913 net.cpp:434] data_data_0_split <- data
I0327 11:16:36.665279 10913 net.cpp:408] data_data_0_split -> data_data_0_split_0
I0327 11:16:36.665290 10913 net.cpp:408] data_data_0_split -> data_data_0_split_1
I0327 11:16:36.665299 10913 net.cpp:408] data_data_0_split -> data_data_0_split_2
I0327 11:16:36.665307 10913 net.cpp:408] data_data_0_split -> data_data_0_split_3
I0327 11:16:36.665313 10913 net.cpp:408] data_data_0_split -> data_data_0_split_4
I0327 11:16:36.665319 10913 net.cpp:408] data_data_0_split -> data_data_0_split_5
I0327 11:16:36.665328 10913 net.cpp:408] data_data_0_split -> data_data_0_split_6
I0327 11:16:36.665410 10913 net.cpp:150] Setting up data_data_0_split
I0327 11:16:36.665421 10913 net.cpp:157] Top shape: 2 3 300 300 (540000)
I0327 11:16:36.665428 10913 net.cpp:157] Top shape: 2 3 300 300 (540000)
I0327 11:16:36.665451 10913 net.cpp:157] Top shape: 2 3 300 300 (540000)
I0327 11:16:36.665457 10913 net.cpp:157] Top shape: 2 3 300 300 (540000)
I0327 11:16:36.665462 10913 net.cpp:157] Top shape: 2 3 300 300 (540000)
I0327 11:16:36.665467 10913 net.cpp:157] Top shape: 2 3 300 300 (540000)
I0327 11:16:36.665474 10913 net.cpp:157] Top shape: 2 3 300 300 (540000)
I0327 11:16:36.665478 10913 net.cpp:165] Memory required for data: 17280032
I0327 11:16:36.665484 10913 layer_factory.hpp:77] Creating layer conv1
I0327 11:16:36.665503 10913 net.cpp:100] Creating Layer conv1
I0327 11:16:36.665508 10913 net.cpp:434] conv1 <- data_data_0_split_0
I0327 11:16:36.665516 10913 net.cpp:408] conv1 -> conv1
I0327 11:16:36.974035 10913 net.cpp:150] Setting up conv1
I0327 11:16:36.974073 10913 net.cpp:157] Top shape: 2 64 149 149 (2841728)
I0327 11:16:36.974079 10913 net.cpp:165] Memory required for data: 28646944
I0327 11:16:36.974108 10913 layer_factory.hpp:77] Creating layer relu_conv1
I0327 11:16:36.974129 10913 net.cpp:100] Creating Layer relu_conv1
I0327 11:16:36.974143 10913 net.cpp:434] relu_conv1 <- conv1
I0327 11:16:36.974149 10913 net.cpp:395] relu_conv1 -> conv1 (in-place)
I0327 11:16:36.974545 10913 net.cpp:150] Setting up relu_conv1
I0327 11:16:36.974566 10913 net.cpp:157] Top shape: 2 64 149 149 (2841728)
I0327 11:16:36.974570 10913 net.cpp:165] Memory required for data: 40013856
I0327 11:16:36.974575 10913 layer_factory.hpp:77] Creating layer pool1
I0327 11:16:36.974596 10913 net.cpp:100] Creating Layer pool1
I0327 11:16:36.974601 10913 net.cpp:434] pool1 <- conv1
I0327 11:16:36.974606 10913 net.cpp:408] pool1 -> pool1
I0327 11:16:36.974671 10913 net.cpp:150] Setting up pool1
I0327 11:16:36.974689 10913 net.cpp:157] Top shape: 2 64 74 74 (700928)
I0327 11:16:36.974701 10913 net.cpp:165] Memory required for data: 42817568
I0327 11:16:36.974705 10913 layer_factory.hpp:77] Creating layer fire2/squeeze1x1
I0327 11:16:36.974726 10913 net.cpp:100] Creating Layer fire2/squeeze1x1
I0327 11:16:36.974731 10913 net.cpp:434] fire2/squeeze1x1 <- pool1
I0327 11:16:36.974736 10913 net.cpp:408] fire2/squeeze1x1 -> fire2/squeeze1x1
I0327 11:16:36.976683 10913 net.cpp:150] Setting up fire2/squeeze1x1
I0327 11:16:36.976697 10913 net.cpp:157] Top shape: 2 16 74 74 (175232)
I0327 11:16:36.976701 10913 net.cpp:165] Memory required for data: 43518496
I0327 11:16:36.976711 10913 layer_factory.hpp:77] Creating layer fire2/relu_squeeze1x1
I0327 11:16:36.976718 10913 net.cpp:100] Creating Layer fire2/relu_squeeze1x1
I0327 11:16:36.976722 10913 net.cpp:434] fire2/relu_squeeze1x1 <- fire2/squeeze1x1
I0327 11:16:36.976732 10913 net.cpp:395] fire2/relu_squeeze1x1 -> fire2/squeeze1x1 (in-place)
I0327 11:16:36.976887 10913 net.cpp:150] Setting up fire2/relu_squeeze1x1
I0327 11:16:36.976897 10913 net.cpp:157] Top shape: 2 16 74 74 (175232)
I0327 11:16:36.976908 10913 net.cpp:165] Memory required for data: 44219424
I0327 11:16:36.976913 10913 layer_factory.hpp:77] Creating layer fire2/squeeze1x1_fire2/relu_squeeze1x1_0_split
I0327 11:16:36.976922 10913 net.cpp:100] Creating Layer fire2/squeeze1x1_fire2/relu_squeeze1x1_0_split
I0327 11:16:36.976925 10913 net.cpp:434] fire2/squeeze1x1_fire2/relu_squeeze1x1_0_split <- fire2/squeeze1x1
I0327 11:16:36.976935 10913 net.cpp:408] fire2/squeeze1x1_fire2/relu_squeeze1x1_0_split -> fire2/squeeze1x1_fire2/relu_squeeze1x1_0_split_0
I0327 11:16:36.976948 10913 net.cpp:408] fire2/squeeze1x1_fire2/relu_squeeze1x1_0_split -> fire2/squeeze1x1_fire2/relu_squeeze1x1_0_split_1
I0327 11:16:36.976996 10913 net.cpp:150] Setting up fire2/squeeze1x1_fire2/relu_squeeze1x1_0_split
I0327 11:16:36.977005 10913 net.cpp:157] Top shape: 2 16 74 74 (175232)
I0327 11:16:36.977010 10913 net.cpp:157] Top shape: 2 16 74 74 (175232)
I0327 11:16:36.977013 10913 net.cpp:165] Memory required for data: 45621280
I0327 11:16:36.977017 10913 layer_factory.hpp:77] Creating layer fire2/expand1x1
I0327 11:16:36.977028 10913 net.cpp:100] Creating Layer fire2/expand1x1
I0327 11:16:36.977032 10913 net.cpp:434] fire2/expand1x1 <- fire2/squeeze1x1_fire2/relu_squeeze1x1_0_split_0
I0327 11:16:36.977059 10913 net.cpp:408] fire2/expand1x1 -> fire2/expand1x1
I0327 11:16:36.978113 10913 net.cpp:150] Setting up fire2/expand1x1
I0327 11:16:36.978126 10913 net.cpp:157] Top shape: 2 64 74 74 (700928)
I0327 11:16:36.978130 10913 net.cpp:165] Memory required for data: 48424992
I0327 11:16:36.978140 10913 layer_factory.hpp:77] Creating layer fire2/relu_expand1x1
I0327 11:16:36.978147 10913 net.cpp:100] Creating Layer fire2/relu_expand1x1
I0327 11:16:36.978152 10913 net.cpp:434] fire2/relu_expand1x1 <- fire2/expand1x1
I0327 11:16:36.978158 10913 net.cpp:395] fire2/relu_expand1x1 -> fire2/expand1x1 (in-place)
I0327 11:16:36.978518 10913 net.cpp:150] Setting up fire2/relu_expand1x1
I0327 11:16:36.978529 10913 net.cpp:157] Top shape: 2 64 74 74 (700928)
I0327 11:16:36.978533 10913 net.cpp:165] Memory required for data: 51228704
I0327 11:16:36.978536 10913 layer_factory.hpp:77] Creating layer fire2/expand3x3
I0327 11:16:36.978546 10913 net.cpp:100] Creating Layer fire2/expand3x3
I0327 11:16:36.978551 10913 net.cpp:434] fire2/expand3x3 <- fire2/squeeze1x1_fire2/relu_squeeze1x1_0_split_1
I0327 11:16:36.978559 10913 net.cpp:408] fire2/expand3x3 -> fire2/expand3x3
I0327 11:16:36.979673 10913 net.cpp:150] Setting up fire2/expand3x3
I0327 11:16:36.979686 10913 net.cpp:157] Top shape: 2 64 74 74 (700928)
I0327 11:16:36.979689 10913 net.cpp:165] Memory required for data: 54032416
I0327 11:16:36.979696 10913 layer_factory.hpp:77] Creating layer fire2/relu_expand3x3
I0327 11:16:36.979704 10913 net.cpp:100] Creating Layer fire2/relu_expand3x3
I0327 11:16:36.979708 10913 net.cpp:434] fire2/relu_expand3x3 <- fire2/expand3x3
I0327 11:16:36.979714 10913 net.cpp:395] fire2/relu_expand3x3 -> fire2/expand3x3 (in-place)
I0327 11:16:36.979862 10913 net.cpp:150] Setting up fire2/relu_expand3x3
I0327 11:16:36.979872 10913 net.cpp:157] Top shape: 2 64 74 74 (700928)
I0327 11:16:36.979876 10913 net.cpp:165] Memory required for data: 56836128
I0327 11:16:36.979879 10913 layer_factory.hpp:77] Creating layer fire2/concat
I0327 11:16:36.979885 10913 net.cpp:100] Creating Layer fire2/concat
I0327 11:16:36.979889 10913 net.cpp:434] fire2/concat <- fire2/expand1x1
I0327 11:16:36.979894 10913 net.cpp:434] fire2/concat <- fire2/expand3x3
I0327 11:16:36.979902 10913 net.cpp:408] fire2/concat -> fire2/concat
I0327 11:16:36.979941 10913 net.cpp:150] Setting up fire2/concat
I0327 11:16:36.979950 10913 net.cpp:157] Top shape: 2 128 74 74 (1401856)
I0327 11:16:36.979954 10913 net.cpp:165] Memory required for data: 62443552
I0327 11:16:36.979957 10913 layer_factory.hpp:77] Creating layer fire3/squeeze1x1
I0327 11:16:36.979967 10913 net.cpp:100] Creating Layer fire3/squeeze1x1
I0327 11:16:36.979971 10913 net.cpp:434] fire3/squeeze1x1 <- fire2/concat
I0327 11:16:36.979980 10913 net.cpp:408] fire3/squeeze1x1 -> fire3/squeeze1x1
I0327 11:16:36.981259 10913 net.cpp:150] Setting up fire3/squeeze1x1
I0327 11:16:36.981272 10913 net.cpp:157] Top shape: 2 16 74 74 (175232)
I0327 11:16:36.981276 10913 net.cpp:165] Memory required for data: 63144480
I0327 11:16:36.981286 10913 layer_factory.hpp:77] Creating layer fire3/relu_squeeze1x1
I0327 11:16:36.981294 10913 net.cpp:100] Creating Layer fire3/relu_squeeze1x1
I0327 11:16:36.981299 10913 net.cpp:434] fire3/relu_squeeze1x1 <- fire3/squeeze1x1
I0327 11:16:36.981307 10913 net.cpp:395] fire3/relu_squeeze1x1 -> fire3/squeeze1x1 (in-place)
I0327 11:16:36.981667 10913 net.cpp:150] Setting up fire3/relu_squeeze1x1
I0327 11:16:36.981678 10913 net.cpp:157] Top shape: 2 16 74 74 (175232)
I0327 11:16:36.981681 10913 net.cpp:165] Memory required for data: 63845408
I0327 11:16:36.981686 10913 layer_factory.hpp:77] Creating layer fire3/squeeze1x1_fire3/relu_squeeze1x1_0_split
I0327 11:16:36.981693 10913 net.cpp:100] Creating Layer fire3/squeeze1x1_fire3/relu_squeeze1x1_0_split
I0327 11:16:36.981698 10913 net.cpp:434] fire3/squeeze1x1_fire3/relu_squeeze1x1_0_split <- fire3/squeeze1x1
I0327 11:16:36.981705 10913 net.cpp:408] fire3/squeeze1x1_fire3/relu_squeeze1x1_0_split -> fire3/squeeze1x1_fire3/relu_squeeze1x1_0_split_0
I0327 11:16:36.981731 10913 net.cpp:408] fire3/squeeze1x1_fire3/relu_squeeze1x1_0_split -> fire3/squeeze1x1_fire3/relu_squeeze1x1_0_split_1
I0327 11:16:36.981784 10913 net.cpp:150] Setting up fire3/squeeze1x1_fire3/relu_squeeze1x1_0_split
I0327 11:16:36.981792 10913 net.cpp:157] Top shape: 2 16 74 74 (175232)
I0327 11:16:36.981797 10913 net.cpp:157] Top shape: 2 16 74 74 (175232)
I0327 11:16:36.981801 10913 net.cpp:165] Memory required for data: 65247264
I0327 11:16:36.981806 10913 layer_factory.hpp:77] Creating layer fire3/expand1x1
I0327 11:16:36.981818 10913 net.cpp:100] Creating Layer fire3/expand1x1
I0327 11:16:36.981823 10913 net.cpp:434] fire3/expand1x1 <- fire3/squeeze1x1_fire3/relu_squeeze1x1_0_split_0
I0327 11:16:36.981833 10913 net.cpp:408] fire3/expand1x1 -> fire3/expand1x1
I0327 11:16:36.982867 10913 net.cpp:150] Setting up fire3/expand1x1
I0327 11:16:36.982878 10913 net.cpp:157] Top shape: 2 64 74 74 (700928)
I0327 11:16:36.982892 10913 net.cpp:165] Memory required for data: 68050976
I0327 11:16:36.982899 10913 layer_factory.hpp:77] Creating layer fire3/relu_expand1x1
I0327 11:16:36.982906 10913 net.cpp:100] Creating Layer fire3/relu_expand1x1
I0327 11:16:36.982911 10913 net.cpp:434] fire3/relu_expand1x1 <- fire3/expand1x1
I0327 11:16:36.982916 10913 net.cpp:395] fire3/relu_expand1x1 -> fire3/expand1x1 (in-place)
I0327 11:16:36.983280 10913 net.cpp:150] Setting up fire3/relu_expand1x1
I0327 11:16:36.983291 10913 net.cpp:157] Top shape: 2 64 74 74 (700928)
I0327 11:16:36.983305 10913 net.cpp:165] Memory required for data: 70854688
I0327 11:16:36.983309 10913 layer_factory.hpp:77] Creating layer fire3/expand3x3
I0327 11:16:36.983319 10913 net.cpp:100] Creating Layer fire3/expand3x3
I0327 11:16:36.983325 10913 net.cpp:434] fire3/expand3x3 <- fire3/squeeze1x1_fire3/relu_squeeze1x1_0_split_1
I0327 11:16:36.983332 10913 net.cpp:408] fire3/expand3x3 -> fire3/expand3x3
I0327 11:16:36.984427 10913 net.cpp:150] Setting up fire3/expand3x3
I0327 11:16:36.984453 10913 net.cpp:157] Top shape: 2 64 74 74 (700928)
I0327 11:16:36.984460 10913 net.cpp:165] Memory required for data: 73658400
I0327 11:16:36.984470 10913 layer_factory.hpp:77] Creating layer fire3/relu_expand3x3
I0327 11:16:36.984479 10913 net.cpp:100] Creating Layer fire3/relu_expand3x3
I0327 11:16:36.984485 10913 net.cpp:434] fire3/relu_expand3x3 <- fire3/expand3x3
I0327 11:16:36.984493 10913 net.cpp:395] fire3/relu_expand3x3 -> fire3/expand3x3 (in-place)
I0327 11:16:36.984699 10913 net.cpp:150] Setting up fire3/relu_expand3x3
I0327 11:16:36.984711 10913 net.cpp:157] Top shape: 2 64 74 74 (700928)
I0327 11:16:36.984727 10913 net.cpp:165] Memory required for data: 76462112
I0327 11:16:36.984735 10913 layer_factory.hpp:77] Creating layer fire3/concat
I0327 11:16:36.984742 10913 net.cpp:100] Creating Layer fire3/concat
I0327 11:16:36.984750 10913 net.cpp:434] fire3/concat <- fire3/expand1x1
I0327 11:16:36.984756 10913 net.cpp:434] fire3/concat <- fire3/expand3x3
I0327 11:16:36.984766 10913 net.cpp:408] fire3/concat -> fire3/concat
I0327 11:16:36.984808 10913 net.cpp:150] Setting up fire3/concat
I0327 11:16:36.984817 10913 net.cpp:157] Top shape: 2 128 74 74 (1401856)
I0327 11:16:36.984833 10913 net.cpp:165] Memory required for data: 82069536
I0327 11:16:36.984839 10913 layer_factory.hpp:77] Creating layer pool3
I0327 11:16:36.984848 10913 net.cpp:100] Creating Layer pool3
I0327 11:16:36.984854 10913 net.cpp:434] pool3 <- fire3/concat
I0327 11:16:36.984863 10913 net.cpp:408] pool3 -> pool3
I0327 11:16:36.984917 10913 net.cpp:150] Setting up pool3
I0327 11:16:36.984928 10913 net.cpp:157] Top shape: 2 128 37 37 (350464)
I0327 11:16:36.984935 10913 net.cpp:165] Memory required for data: 83471392
I0327 11:16:36.984939 10913 layer_factory.hpp:77] Creating layer fire4/squeeze1x1
I0327 11:16:36.984954 10913 net.cpp:100] Creating Layer fire4/squeeze1x1
I0327 11:16:36.984961 10913 net.cpp:434] fire4/squeeze1x1 <- pool3
I0327 11:16:36.984971 10913 net.cpp:408] fire4/squeeze1x1 -> fire4/squeeze1x1
I0327 11:16:36.986893 10913 net.cpp:150] Setting up fire4/squeeze1x1
I0327 11:16:36.986922 10913 net.cpp:157] Top shape: 2 32 37 37 (87616)
I0327 11:16:36.986927 10913 net.cpp:165] Memory required for data: 83821856
I0327 11:16:36.986934 10913 layer_factory.hpp:77] Creating layer fire4/relu_squeeze1x1
I0327 11:16:36.986944 10913 net.cpp:100] Creating Layer fire4/relu_squeeze1x1
I0327 11:16:36.986951 10913 net.cpp:434] fire4/relu_squeeze1x1 <- fire4/squeeze1x1
I0327 11:16:36.986961 10913 net.cpp:395] fire4/relu_squeeze1x1 -> fire4/squeeze1x1 (in-place)
I0327 11:16:36.987329 10913 net.cpp:150] Setting up fire4/relu_squeeze1x1
I0327 11:16:36.987341 10913 net.cpp:157] Top shape: 2 32 37 37 (87616)
I0327 11:16:36.987344 10913 net.cpp:165] Memory required for data: 84172320
I0327 11:16:36.987349 10913 layer_factory.hpp:77] Creating layer fire4/squeeze1x1_fire4/relu_squeeze1x1_0_split
I0327 11:16:36.987355 10913 net.cpp:100] Creating Layer fire4/squeeze1x1_fire4/relu_squeeze1x1_0_split
I0327 11:16:36.987362 10913 net.cpp:434] fire4/squeeze1x1_fire4/relu_squeeze1x1_0_split <- fire4/squeeze1x1
I0327 11:16:36.987371 10913 net.cpp:408] fire4/squeeze1x1_fire4/relu_squeeze1x1_0_split -> fire4/squeeze1x1_fire4/relu_squeeze1x1_0_split_0
I0327 11:16:36.987383 10913 net.cpp:408] fire4/squeeze1x1_fire4/relu_squeeze1x1_0_split -> fire4/squeeze1x1_fire4/relu_squeeze1x1_0_split_1
I0327 11:16:36.987444 10913 net.cpp:150] Setting up fire4/squeeze1x1_fire4/relu_squeeze1x1_0_split
I0327 11:16:36.987452 10913 net.cpp:157] Top shape: 2 32 37 37 (87616)
I0327 11:16:36.987468 10913 net.cpp:157] Top shape: 2 32 37 37 (87616)
I0327 11:16:36.987470 10913 net.cpp:165] Memory required for data: 84873248
I0327 11:16:36.987474 10913 layer_factory.hpp:77] Creating layer fire4/expand1x1
I0327 11:16:36.987488 10913 net.cpp:100] Creating Layer fire4/expand1x1
I0327 11:16:36.987495 10913 net.cpp:434] fire4/expand1x1 <- fire4/squeeze1x1_fire4/relu_squeeze1x1_0_split_0
I0327 11:16:36.987507 10913 net.cpp:408] fire4/expand1x1 -> fire4/expand1x1
I0327 11:16:36.988754 10913 net.cpp:150] Setting up fire4/expand1x1
I0327 11:16:36.988767 10913 net.cpp:157] Top shape: 2 128 37 37 (350464)
I0327 11:16:36.988771 10913 net.cpp:165] Memory required for data: 86275104
I0327 11:16:36.988783 10913 layer_factory.hpp:77] Creating layer fire4/relu_expand1x1
I0327 11:16:36.988790 10913 net.cpp:100] Creating Layer fire4/relu_expand1x1
I0327 11:16:36.988795 10913 net.cpp:434] fire4/relu_expand1x1 <- fire4/expand1x1
I0327 11:16:36.988798 10913 net.cpp:395] fire4/relu_expand1x1 -> fire4/expand1x1 (in-place)
I0327 11:16:36.988958 10913 net.cpp:150] Setting up fire4/relu_expand1x1
I0327 11:16:36.988970 10913 net.cpp:157] Top shape: 2 128 37 37 (350464)
I0327 11:16:36.988973 10913 net.cpp:165] Memory required for data: 87676960
I0327 11:16:36.988977 10913 layer_factory.hpp:77] Creating layer fire4/expand3x3
I0327 11:16:36.988993 10913 net.cpp:100] Creating Layer fire4/expand3x3
I0327 11:16:36.989001 10913 net.cpp:434] fire4/expand3x3 <- fire4/squeeze1x1_fire4/relu_squeeze1x1_0_split_1
I0327 11:16:36.989012 10913 net.cpp:408] fire4/expand3x3 -> fire4/expand3x3
I0327 11:16:36.990309 10913 net.cpp:150] Setting up fire4/expand3x3
I0327 11:16:36.990324 10913 net.cpp:157] Top shape: 2 128 37 37 (350464)
I0327 11:16:36.990329 10913 net.cpp:165] Memory required for data: 89078816
I0327 11:16:36.990339 10913 layer_factory.hpp:77] Creating layer fire4/relu_expand3x3
I0327 11:16:36.990348 10913 net.cpp:100] Creating Layer fire4/relu_expand3x3
I0327 11:16:36.990353 10913 net.cpp:434] fire4/relu_expand3x3 <- fire4/expand3x3
I0327 11:16:36.990363 10913 net.cpp:395] fire4/relu_expand3x3 -> fire4/expand3x3 (in-place)
I0327 11:16:36.990725 10913 net.cpp:150] Setting up fire4/relu_expand3x3
I0327 11:16:36.990736 10913 net.cpp:157] Top shape: 2 128 37 37 (350464)
I0327 11:16:36.990739 10913 net.cpp:165] Memory required for data: 90480672
I0327 11:16:36.990744 10913 layer_factory.hpp:77] Creating layer fire4/concat
I0327 11:16:36.990753 10913 net.cpp:100] Creating Layer fire4/concat
I0327 11:16:36.990761 10913 net.cpp:434] fire4/concat <- fire4/expand1x1
I0327 11:16:36.990782 10913 net.cpp:434] fire4/concat <- fire4/expand3x3
I0327 11:16:36.990792 10913 net.cpp:408] fire4/concat -> fire4/concat
I0327 11:16:36.990831 10913 net.cpp:150] Setting up fire4/concat
I0327 11:16:36.990840 10913 net.cpp:157] Top shape: 2 256 37 37 (700928)
I0327 11:16:36.990844 10913 net.cpp:165] Memory required for data: 93284384
I0327 11:16:36.990849 10913 layer_factory.hpp:77] Creating layer fire5/squeeze1x1
I0327 11:16:36.990864 10913 net.cpp:100] Creating Layer fire5/squeeze1x1
I0327 11:16:36.990871 10913 net.cpp:434] fire5/squeeze1x1 <- fire4/concat
I0327 11:16:36.990883 10913 net.cpp:408] fire5/squeeze1x1 -> fire5/squeeze1x1
I0327 11:16:36.991979 10913 net.cpp:150] Setting up fire5/squeeze1x1
I0327 11:16:36.991993 10913 net.cpp:157] Top shape: 2 32 37 37 (87616)
I0327 11:16:36.991997 10913 net.cpp:165] Memory required for data: 93634848
I0327 11:16:36.992007 10913 layer_factory.hpp:77] Creating layer fire5/relu_squeeze1x1
I0327 11:16:36.992017 10913 net.cpp:100] Creating Layer fire5/relu_squeeze1x1
I0327 11:16:36.992023 10913 net.cpp:434] fire5/relu_squeeze1x1 <- fire5/squeeze1x1
I0327 11:16:36.992033 10913 net.cpp:395] fire5/relu_squeeze1x1 -> fire5/squeeze1x1 (in-place)
I0327 11:16:36.992394 10913 net.cpp:150] Setting up fire5/relu_squeeze1x1
I0327 11:16:36.992405 10913 net.cpp:157] Top shape: 2 32 37 37 (87616)
I0327 11:16:36.992409 10913 net.cpp:165] Memory required for data: 93985312
I0327 11:16:36.992414 10913 layer_factory.hpp:77] Creating layer fire5/squeeze1x1_fire5/relu_squeeze1x1_0_split
I0327 11:16:36.992435 10913 net.cpp:100] Creating Layer fire5/squeeze1x1_fire5/relu_squeeze1x1_0_split
I0327 11:16:36.992442 10913 net.cpp:434] fire5/squeeze1x1_fire5/relu_squeeze1x1_0_split <- fire5/squeeze1x1
I0327 11:16:36.992451 10913 net.cpp:408] fire5/squeeze1x1_fire5/relu_squeeze1x1_0_split -> fire5/squeeze1x1_fire5/relu_squeeze1x1_0_split_0
I0327 11:16:36.992463 10913 net.cpp:408] fire5/squeeze1x1_fire5/relu_squeeze1x1_0_split -> fire5/squeeze1x1_fire5/relu_squeeze1x1_0_split_1
I0327 11:16:36.992518 10913 net.cpp:150] Setting up fire5/squeeze1x1_fire5/relu_squeeze1x1_0_split
I0327 11:16:36.992527 10913 net.cpp:157] Top shape: 2 32 37 37 (87616)
I0327 11:16:36.992532 10913 net.cpp:157] Top shape: 2 32 37 37 (87616)
I0327 11:16:36.992537 10913 net.cpp:165] Memory required for data: 94686240
I0327 11:16:36.992543 10913 layer_factory.hpp:77] Creating layer fire5/expand1x1
I0327 11:16:36.992558 10913 net.cpp:100] Creating Layer fire5/expand1x1
I0327 11:16:36.992564 10913 net.cpp:434] fire5/expand1x1 <- fire5/squeeze1x1_fire5/relu_squeeze1x1_0_split_0
I0327 11:16:36.992574 10913 net.cpp:408] fire5/expand1x1 -> fire5/expand1x1
I0327 11:16:36.993669 10913 net.cpp:150] Setting up fire5/expand1x1
I0327 11:16:36.993682 10913 net.cpp:157] Top shape: 2 128 37 37 (350464)
I0327 11:16:36.993686 10913 net.cpp:165] Memory required for data: 96088096
I0327 11:16:36.993695 10913 layer_factory.hpp:77] Creating layer fire5/relu_expand1x1
I0327 11:16:36.993706 10913 net.cpp:100] Creating Layer fire5/relu_expand1x1
I0327 11:16:36.993715 10913 net.cpp:434] fire5/relu_expand1x1 <- fire5/expand1x1
I0327 11:16:36.993723 10913 net.cpp:395] fire5/relu_expand1x1 -> fire5/expand1x1 (in-place)
I0327 11:16:36.993868 10913 net.cpp:150] Setting up fire5/relu_expand1x1
I0327 11:16:36.993878 10913 net.cpp:157] Top shape: 2 128 37 37 (350464)
I0327 11:16:36.993882 10913 net.cpp:165] Memory required for data: 97489952
I0327 11:16:36.993887 10913 layer_factory.hpp:77] Creating layer fire5/expand3x3
I0327 11:16:36.993904 10913 net.cpp:100] Creating Layer fire5/expand3x3
I0327 11:16:36.993913 10913 net.cpp:434] fire5/expand3x3 <- fire5/squeeze1x1_fire5/relu_squeeze1x1_0_split_1
I0327 11:16:36.993924 10913 net.cpp:408] fire5/expand3x3 -> fire5/expand3x3
I0327 11:16:36.995245 10913 net.cpp:150] Setting up fire5/expand3x3
I0327 11:16:36.995257 10913 net.cpp:157] Top shape: 2 128 37 37 (350464)
I0327 11:16:36.995262 10913 net.cpp:165] Memory required for data: 98891808
I0327 11:16:36.995270 10913 layer_factory.hpp:77] Creating layer fire5/relu_expand3x3
I0327 11:16:36.995295 10913 net.cpp:100] Creating Layer fire5/relu_expand3x3
I0327 11:16:36.995302 10913 net.cpp:434] fire5/relu_expand3x3 <- fire5/expand3x3
I0327 11:16:36.995311 10913 net.cpp:395] fire5/relu_expand3x3 -> fire5/expand3x3 (in-place)
I0327 11:16:36.995955 10913 net.cpp:150] Setting up fire5/relu_expand3x3
I0327 11:16:36.995968 10913 net.cpp:157] Top shape: 2 128 37 37 (350464)
I0327 11:16:36.995971 10913 net.cpp:165] Memory required for data: 100293664
I0327 11:16:36.995977 10913 layer_factory.hpp:77] Creating layer fire5/concat
I0327 11:16:36.995987 10913 net.cpp:100] Creating Layer fire5/concat
I0327 11:16:36.995995 10913 net.cpp:434] fire5/concat <- fire5/expand1x1
I0327 11:16:36.996002 10913 net.cpp:434] fire5/concat <- fire5/expand3x3
I0327 11:16:36.996013 10913 net.cpp:408] fire5/concat -> fire5/concat
I0327 11:16:36.996049 10913 net.cpp:150] Setting up fire5/concat
I0327 11:16:36.996058 10913 net.cpp:157] Top shape: 2 256 37 37 (700928)
I0327 11:16:36.996062 10913 net.cpp:165] Memory required for data: 103097376
I0327 11:16:36.996067 10913 layer_factory.hpp:77] Creating layer fire5/concat_fire5/concat_0_split
I0327 11:16:36.996078 10913 net.cpp:100] Creating Layer fire5/concat_fire5/concat_0_split
I0327 11:16:36.996084 10913 net.cpp:434] fire5/concat_fire5/concat_0_split <- fire5/concat
I0327 11:16:36.996094 10913 net.cpp:408] fire5/concat_fire5/concat_0_split -> fire5/concat_fire5/concat_0_split_0
I0327 11:16:36.996109 10913 net.cpp:408] fire5/concat_fire5/concat_0_split -> fire5/concat_fire5/concat_0_split_1
I0327 11:16:36.996157 10913 net.cpp:150] Setting up fire5/concat_fire5/concat_0_split
I0327 11:16:36.996165 10913 net.cpp:157] Top shape: 2 256 37 37 (700928)
I0327 11:16:36.996170 10913 net.cpp:157] Top shape: 2 256 37 37 (700928)
I0327 11:16:36.996176 10913 net.cpp:165] Memory required for data: 108704800
I0327 11:16:36.996181 10913 layer_factory.hpp:77] Creating layer pool5
I0327 11:16:36.996193 10913 net.cpp:100] Creating Layer pool5
I0327 11:16:36.996201 10913 net.cpp:434] pool5 <- fire5/concat_fire5/concat_0_split_0
I0327 11:16:36.996208 10913 net.cpp:408] pool5 -> pool5
I0327 11:16:36.996255 10913 net.cpp:150] Setting up pool5
I0327 11:16:36.996263 10913 net.cpp:157] Top shape: 2 256 18 18 (165888)
I0327 11:16:36.996268 10913 net.cpp:165] Memory required for data: 109368352
I0327 11:16:36.996273 10913 layer_factory.hpp:77] Creating layer fire6/squeeze1x1
I0327 11:16:36.996284 10913 net.cpp:100] Creating Layer fire6/squeeze1x1
I0327 11:16:36.996292 10913 net.cpp:434] fire6/squeeze1x1 <- pool5
I0327 11:16:36.996304 10913 net.cpp:408] fire6/squeeze1x1 -> fire6/squeeze1x1
I0327 11:16:36.997432 10913 net.cpp:150] Setting up fire6/squeeze1x1
I0327 11:16:36.997444 10913 net.cpp:157] Top shape: 2 48 18 18 (31104)
I0327 11:16:36.997448 10913 net.cpp:165] Memory required for data: 109492768
I0327 11:16:36.997455 10913 layer_factory.hpp:77] Creating layer fire6/relu_squeeze1x1
I0327 11:16:36.997463 10913 net.cpp:100] Creating Layer fire6/relu_squeeze1x1
I0327 11:16:36.997468 10913 net.cpp:434] fire6/relu_squeeze1x1 <- fire6/squeeze1x1
I0327 11:16:36.997473 10913 net.cpp:395] fire6/relu_squeeze1x1 -> fire6/squeeze1x1 (in-place)
I0327 11:16:36.997622 10913 net.cpp:150] Setting up fire6/relu_squeeze1x1
I0327 11:16:36.997632 10913 net.cpp:157] Top shape: 2 48 18 18 (31104)
I0327 11:16:36.997637 10913 net.cpp:165] Memory required for data: 109617184
I0327 11:16:36.997642 10913 layer_factory.hpp:77] Creating layer fire6/squeeze1x1_fire6/relu_squeeze1x1_0_split
I0327 11:16:36.997650 10913 net.cpp:100] Creating Layer fire6/squeeze1x1_fire6/relu_squeeze1x1_0_split
I0327 11:16:36.997658 10913 net.cpp:434] fire6/squeeze1x1_fire6/relu_squeeze1x1_0_split <- fire6/squeeze1x1
I0327 11:16:36.997668 10913 net.cpp:408] fire6/squeeze1x1_fire6/relu_squeeze1x1_0_split -> fire6/squeeze1x1_fire6/relu_squeeze1x1_0_split_0
I0327 11:16:36.997680 10913 net.cpp:408] fire6/squeeze1x1_fire6/relu_squeeze1x1_0_split -> fire6/squeeze1x1_fire6/relu_squeeze1x1_0_split_1
I0327 11:16:36.997732 10913 net.cpp:150] Setting up fire6/squeeze1x1_fire6/relu_squeeze1x1_0_split
I0327 11:16:36.997750 10913 net.cpp:157] Top shape: 2 48 18 18 (31104)
I0327 11:16:36.997754 10913 net.cpp:157] Top shape: 2 48 18 18 (31104)
I0327 11:16:36.997759 10913 net.cpp:165] Memory required for data: 109866016
I0327 11:16:36.997766 10913 layer_factory.hpp:77] Creating layer fire6/expand1x1
I0327 11:16:36.997779 10913 net.cpp:100] Creating Layer fire6/expand1x1
I0327 11:16:36.997786 10913 net.cpp:434] fire6/expand1x1 <- fire6/squeeze1x1_fire6/relu_squeeze1x1_0_split_0
I0327 11:16:36.997797 10913 net.cpp:408] fire6/expand1x1 -> fire6/expand1x1
I0327 11:16:36.998903 10913 net.cpp:150] Setting up fire6/expand1x1
I0327 11:16:36.998915 10913 net.cpp:157] Top shape: 2 192 18 18 (124416)
I0327 11:16:36.998920 10913 net.cpp:165] Memory required for data: 110363680
I0327 11:16:36.998929 10913 layer_factory.hpp:77] Creating layer fire6/relu_expand1x1
I0327 11:16:36.998940 10913 net.cpp:100] Creating Layer fire6/relu_expand1x1
I0327 11:16:36.998947 10913 net.cpp:434] fire6/relu_expand1x1 <- fire6/expand1x1
I0327 11:16:36.998955 10913 net.cpp:395] fire6/relu_expand1x1 -> fire6/expand1x1 (in-place)
I0327 11:16:36.999326 10913 net.cpp:150] Setting up fire6/relu_expand1x1
I0327 11:16:36.999337 10913 net.cpp:157] Top shape: 2 192 18 18 (124416)
I0327 11:16:36.999341 10913 net.cpp:165] Memory required for data: 110861344
I0327 11:16:36.999347 10913 layer_factory.hpp:77] Creating layer fire6/expand3x3
I0327 11:16:36.999361 10913 net.cpp:100] Creating Layer fire6/expand3x3
I0327 11:16:36.999369 10913 net.cpp:434] fire6/expand3x3 <- fire6/squeeze1x1_fire6/relu_squeeze1x1_0_split_1
I0327 11:16:36.999382 10913 net.cpp:408] fire6/expand3x3 -> fire6/expand3x3
I0327 11:16:37.002190 10913 net.cpp:150] Setting up fire6/expand3x3
I0327 11:16:37.002210 10913 net.cpp:157] Top shape: 2 192 18 18 (124416)
I0327 11:16:37.002219 10913 net.cpp:165] Memory required for data: 111359008
I0327 11:16:37.002230 10913 layer_factory.hpp:77] Creating layer fire6/relu_expand3x3
I0327 11:16:37.002240 10913 net.cpp:100] Creating Layer fire6/relu_expand3x3
I0327 11:16:37.002249 10913 net.cpp:434] fire6/relu_expand3x3 <- fire6/expand3x3
I0327 11:16:37.002260 10913 net.cpp:395] fire6/relu_expand3x3 -> fire6/expand3x3 (in-place)
I0327 11:16:37.002768 10913 net.cpp:150] Setting up fire6/relu_expand3x3
I0327 11:16:37.002787 10913 net.cpp:157] Top shape: 2 192 18 18 (124416)
I0327 11:16:37.002796 10913 net.cpp:165] Memory required for data: 111856672
I0327 11:16:37.002804 10913 layer_factory.hpp:77] Creating layer fire6/concat
I0327 11:16:37.002813 10913 net.cpp:100] Creating Layer fire6/concat
I0327 11:16:37.002820 10913 net.cpp:434] fire6/concat <- fire6/expand1x1
I0327 11:16:37.002828 10913 net.cpp:434] fire6/concat <- fire6/expand3x3
I0327 11:16:37.002835 10913 net.cpp:408] fire6/concat -> fire6/concat
I0327 11:16:37.002879 10913 net.cpp:150] Setting up fire6/concat
I0327 11:16:37.002892 10913 net.cpp:157] Top shape: 2 384 18 18 (248832)
I0327 11:16:37.002899 10913 net.cpp:165] Memory required for data: 112852000
I0327 11:16:37.002907 10913 layer_factory.hpp:77] Creating layer fire7/squeeze1x1
I0327 11:16:37.002921 10913 net.cpp:100] Creating Layer fire7/squeeze1x1
I0327 11:16:37.002928 10913 net.cpp:434] fire7/squeeze1x1 <- fire6/concat
I0327 11:16:37.002939 10913 net.cpp:408] fire7/squeeze1x1 -> fire7/squeeze1x1
I0327 11:16:37.004532 10913 net.cpp:150] Setting up fire7/squeeze1x1
I0327 11:16:37.004546 10913 net.cpp:157] Top shape: 2 48 18 18 (31104)
I0327 11:16:37.004551 10913 net.cpp:165] Memory required for data: 112976416
I0327 11:16:37.004568 10913 layer_factory.hpp:77] Creating layer fire7/relu_squeeze1x1
I0327 11:16:37.004580 10913 net.cpp:100] Creating Layer fire7/relu_squeeze1x1
I0327 11:16:37.004587 10913 net.cpp:434] fire7/relu_squeeze1x1 <- fire7/squeeze1x1
I0327 11:16:37.004598 10913 net.cpp:395] fire7/relu_squeeze1x1 -> fire7/squeeze1x1 (in-place)
I0327 11:16:37.004758 10913 net.cpp:150] Setting up fire7/relu_squeeze1x1
I0327 11:16:37.004771 10913 net.cpp:157] Top shape: 2 48 18 18 (31104)
I0327 11:16:37.004792 10913 net.cpp:165] Memory required for data: 113100832
I0327 11:16:37.004801 10913 layer_factory.hpp:77] Creating layer fire7/squeeze1x1_fire7/relu_squeeze1x1_0_split
I0327 11:16:37.004817 10913 net.cpp:100] Creating Layer fire7/squeeze1x1_fire7/relu_squeeze1x1_0_split
I0327 11:16:37.004823 10913 net.cpp:434] fire7/squeeze1x1_fire7/relu_squeeze1x1_0_split <- fire7/squeeze1x1
I0327 11:16:37.004832 10913 net.cpp:408] fire7/squeeze1x1_fire7/relu_squeeze1x1_0_split -> fire7/squeeze1x1_fire7/relu_squeeze1x1_0_split_0
I0327 11:16:37.004845 10913 net.cpp:408] fire7/squeeze1x1_fire7/relu_squeeze1x1_0_split -> fire7/squeeze1x1_fire7/relu_squeeze1x1_0_split_1
I0327 11:16:37.004900 10913 net.cpp:150] Setting up fire7/squeeze1x1_fire7/relu_squeeze1x1_0_split
I0327 11:16:37.004916 10913 net.cpp:157] Top shape: 2 48 18 18 (31104)
I0327 11:16:37.004921 10913 net.cpp:157] Top shape: 2 48 18 18 (31104)
I0327 11:16:37.004925 10913 net.cpp:165] Memory required for data: 113349664
I0327 11:16:37.004930 10913 layer_factory.hpp:77] Creating layer fire7/expand1x1
I0327 11:16:37.004946 10913 net.cpp:100] Creating Layer fire7/expand1x1
I0327 11:16:37.004954 10913 net.cpp:434] fire7/expand1x1 <- fire7/squeeze1x1_fire7/relu_squeeze1x1_0_split_0
I0327 11:16:37.004966 10913 net.cpp:408] fire7/expand1x1 -> fire7/expand1x1
I0327 11:16:37.006301 10913 net.cpp:150] Setting up fire7/expand1x1
I0327 11:16:37.006314 10913 net.cpp:157] Top shape: 2 192 18 18 (124416)
I0327 11:16:37.006319 10913 net.cpp:165] Memory required for data: 113847328
I0327 11:16:37.006325 10913 layer_factory.hpp:77] Creating layer fire7/relu_expand1x1
I0327 11:16:37.006335 10913 net.cpp:100] Creating Layer fire7/relu_expand1x1
I0327 11:16:37.006340 10913 net.cpp:434] fire7/relu_expand1x1 <- fire7/expand1x1
I0327 11:16:37.006351 10913 net.cpp:395] fire7/relu_expand1x1 -> fire7/expand1x1 (in-place)
I0327 11:16:37.006719 10913 net.cpp:150] Setting up fire7/relu_expand1x1
I0327 11:16:37.006732 10913 net.cpp:157] Top shape: 2 192 18 18 (124416)
I0327 11:16:37.006736 10913 net.cpp:165] Memory required for data: 114344992
I0327 11:16:37.006742 10913 layer_factory.hpp:77] Creating layer fire7/expand3x3
I0327 11:16:37.006754 10913 net.cpp:100] Creating Layer fire7/expand3x3
I0327 11:16:37.006762 10913 net.cpp:434] fire7/expand3x3 <- fire7/squeeze1x1_fire7/relu_squeeze1x1_0_split_1
I0327 11:16:37.006775 10913 net.cpp:408] fire7/expand3x3 -> fire7/expand3x3
I0327 11:16:37.008415 10913 net.cpp:150] Setting up fire7/expand3x3
I0327 11:16:37.008427 10913 net.cpp:157] Top shape: 2 192 18 18 (124416)
I0327 11:16:37.008441 10913 net.cpp:165] Memory required for data: 114842656
I0327 11:16:37.008448 10913 layer_factory.hpp:77] Creating layer fire7/relu_expand3x3
I0327 11:16:37.008456 10913 net.cpp:100] Creating Layer fire7/relu_expand3x3
I0327 11:16:37.008462 10913 net.cpp:434] fire7/relu_expand3x3 <- fire7/expand3x3
I0327 11:16:37.008473 10913 net.cpp:395] fire7/relu_expand3x3 -> fire7/expand3x3 (in-place)
I0327 11:16:37.008636 10913 net.cpp:150] Setting up fire7/relu_expand3x3
I0327 11:16:37.008646 10913 net.cpp:157] Top shape: 2 192 18 18 (124416)
I0327 11:16:37.008649 10913 net.cpp:165] Memory required for data: 115340320
I0327 11:16:37.008652 10913 layer_factory.hpp:77] Creating layer fire7/concat
I0327 11:16:37.008658 10913 net.cpp:100] Creating Layer fire7/concat
I0327 11:16:37.008663 10913 net.cpp:434] fire7/concat <- fire7/expand1x1
I0327 11:16:37.008668 10913 net.cpp:434] fire7/concat <- fire7/expand3x3
I0327 11:16:37.008675 10913 net.cpp:408] fire7/concat -> fire7/concat
I0327 11:16:37.008714 10913 net.cpp:150] Setting up fire7/concat
I0327 11:16:37.008723 10913 net.cpp:157] Top shape: 2 384 18 18 (248832)
I0327 11:16:37.008725 10913 net.cpp:165] Memory required for data: 116335648
I0327 11:16:37.008728 10913 layer_factory.hpp:77] Creating layer fire8/squeeze1x1
I0327 11:16:37.008738 10913 net.cpp:100] Creating Layer fire8/squeeze1x1
I0327 11:16:37.008744 10913 net.cpp:434] fire8/squeeze1x1 <- fire7/concat
I0327 11:16:37.008755 10913 net.cpp:408] fire8/squeeze1x1 -> fire8/squeeze1x1
I0327 11:16:37.009976 10913 net.cpp:150] Setting up fire8/squeeze1x1
I0327 11:16:37.009989 10913 net.cpp:157] Top shape: 2 64 18 18 (41472)
I0327 11:16:37.009994 10913 net.cpp:165] Memory required for data: 116501536
I0327 11:16:37.010002 10913 layer_factory.hpp:77] Creating layer fire8/relu_squeeze1x1
I0327 11:16:37.010015 10913 net.cpp:100] Creating Layer fire8/relu_squeeze1x1
I0327 11:16:37.010021 10913 net.cpp:434] fire8/relu_squeeze1x1 <- fire8/squeeze1x1
I0327 11:16:37.010031 10913 net.cpp:395] fire8/relu_squeeze1x1 -> fire8/squeeze1x1 (in-place)
I0327 11:16:37.010409 10913 net.cpp:150] Setting up fire8/relu_squeeze1x1
I0327 11:16:37.010421 10913 net.cpp:157] Top shape: 2 64 18 18 (41472)
I0327 11:16:37.010426 10913 net.cpp:165] Memory required for data: 116667424
I0327 11:16:37.010430 10913 layer_factory.hpp:77] Creating layer fire8/squeeze1x1_fire8/relu_squeeze1x1_0_split
I0327 11:16:37.010440 10913 net.cpp:100] Creating Layer fire8/squeeze1x1_fire8/relu_squeeze1x1_0_split
I0327 11:16:37.010447 10913 net.cpp:434] fire8/squeeze1x1_fire8/relu_squeeze1x1_0_split <- fire8/squeeze1x1
I0327 11:16:37.010459 10913 net.cpp:408] fire8/squeeze1x1_fire8/relu_squeeze1x1_0_split -> fire8/squeeze1x1_fire8/relu_squeeze1x1_0_split_0
I0327 11:16:37.010473 10913 net.cpp:408] fire8/squeeze1x1_fire8/relu_squeeze1x1_0_split -> fire8/squeeze1x1_fire8/relu_squeeze1x1_0_split_1
I0327 11:16:37.010525 10913 net.cpp:150] Setting up fire8/squeeze1x1_fire8/relu_squeeze1x1_0_split
I0327 11:16:37.010534 10913 net.cpp:157] Top shape: 2 64 18 18 (41472)
I0327 11:16:37.010538 10913 net.cpp:157] Top shape: 2 64 18 18 (41472)
I0327 11:16:37.010543 10913 net.cpp:165] Memory required for data: 116999200
I0327 11:16:37.010550 10913 layer_factory.hpp:77] Creating layer fire8/expand1x1
I0327 11:16:37.010563 10913 net.cpp:100] Creating Layer fire8/expand1x1
I0327 11:16:37.010571 10913 net.cpp:434] fire8/expand1x1 <- fire8/squeeze1x1_fire8/relu_squeeze1x1_0_split_0
I0327 11:16:37.010586 10913 net.cpp:408] fire8/expand1x1 -> fire8/expand1x1
I0327 11:16:37.011867 10913 net.cpp:150] Setting up fire8/expand1x1
I0327 11:16:37.011878 10913 net.cpp:157] Top shape: 2 256 18 18 (165888)
I0327 11:16:37.011883 10913 net.cpp:165] Memory required for data: 117662752
I0327 11:16:37.011893 10913 layer_factory.hpp:77] Creating layer fire8/relu_expand1x1
I0327 11:16:37.011901 10913 net.cpp:100] Creating Layer fire8/relu_expand1x1
I0327 11:16:37.011909 10913 net.cpp:434] fire8/relu_expand1x1 <- fire8/expand1x1
I0327 11:16:37.011919 10913 net.cpp:395] fire8/relu_expand1x1 -> fire8/expand1x1 (in-place)
I0327 11:16:37.012289 10913 net.cpp:150] Setting up fire8/relu_expand1x1
I0327 11:16:37.012300 10913 net.cpp:157] Top shape: 2 256 18 18 (165888)
I0327 11:16:37.012303 10913 net.cpp:165] Memory required for data: 118326304
I0327 11:16:37.012307 10913 layer_factory.hpp:77] Creating layer fire8/expand3x3
I0327 11:16:37.012321 10913 net.cpp:100] Creating Layer fire8/expand3x3
I0327 11:16:37.012329 10913 net.cpp:434] fire8/expand3x3 <- fire8/squeeze1x1_fire8/relu_squeeze1x1_0_split_1
I0327 11:16:37.012341 10913 net.cpp:408] fire8/expand3x3 -> fire8/expand3x3
I0327 11:16:37.014822 10913 net.cpp:150] Setting up fire8/expand3x3
I0327 11:16:37.014835 10913 net.cpp:157] Top shape: 2 256 18 18 (165888)
I0327 11:16:37.014840 10913 net.cpp:165] Memory required for data: 118989856
I0327 11:16:37.014849 10913 layer_factory.hpp:77] Creating layer fire8/relu_expand3x3
I0327 11:16:37.014859 10913 net.cpp:100] Creating Layer fire8/relu_expand3x3
I0327 11:16:37.014866 10913 net.cpp:434] fire8/relu_expand3x3 <- fire8/expand3x3
I0327 11:16:37.014879 10913 net.cpp:395] fire8/relu_expand3x3 -> fire8/expand3x3 (in-place)
I0327 11:16:37.015045 10913 net.cpp:150] Setting up fire8/relu_expand3x3
I0327 11:16:37.015055 10913 net.cpp:157] Top shape: 2 256 18 18 (165888)
I0327 11:16:37.015059 10913 net.cpp:165] Memory required for data: 119653408
I0327 11:16:37.015065 10913 layer_factory.hpp:77] Creating layer fire8/concat
I0327 11:16:37.015074 10913 net.cpp:100] Creating Layer fire8/concat
I0327 11:16:37.015094 10913 net.cpp:434] fire8/concat <- fire8/expand1x1
I0327 11:16:37.015101 10913 net.cpp:434] fire8/concat <- fire8/expand3x3
I0327 11:16:37.015111 10913 net.cpp:408] fire8/concat -> fire8/concat
I0327 11:16:37.015152 10913 net.cpp:150] Setting up fire8/concat
I0327 11:16:37.015161 10913 net.cpp:157] Top shape: 2 512 18 18 (331776)
I0327 11:16:37.015166 10913 net.cpp:165] Memory required for data: 120980512
I0327 11:16:37.015170 10913 layer_factory.hpp:77] Creating layer fire9/squeeze1x1
I0327 11:16:37.015198 10913 net.cpp:100] Creating Layer fire9/squeeze1x1
I0327 11:16:37.015205 10913 net.cpp:434] fire9/squeeze1x1 <- fire8/concat
I0327 11:16:37.015213 10913 net.cpp:408] fire9/squeeze1x1 -> fire9/squeeze1x1
I0327 11:16:37.016463 10913 net.cpp:150] Setting up fire9/squeeze1x1
I0327 11:16:37.016475 10913 net.cpp:157] Top shape: 2 64 18 18 (41472)
I0327 11:16:37.016479 10913 net.cpp:165] Memory required for data: 121146400
I0327 11:16:37.016489 10913 layer_factory.hpp:77] Creating layer fire9/relu_squeeze1x1
I0327 11:16:37.016500 10913 net.cpp:100] Creating Layer fire9/relu_squeeze1x1
I0327 11:16:37.016507 10913 net.cpp:434] fire9/relu_squeeze1x1 <- fire9/squeeze1x1
I0327 11:16:37.016518 10913 net.cpp:395] fire9/relu_squeeze1x1 -> fire9/squeeze1x1 (in-place)
I0327 11:16:37.016894 10913 net.cpp:150] Setting up fire9/relu_squeeze1x1
I0327 11:16:37.016911 10913 net.cpp:157] Top shape: 2 64 18 18 (41472)
I0327 11:16:37.016916 10913 net.cpp:165] Memory required for data: 121312288
I0327 11:16:37.016923 10913 layer_factory.hpp:77] Creating layer fire9/squeeze1x1_fire9/relu_squeeze1x1_0_split
I0327 11:16:37.016935 10913 net.cpp:100] Creating Layer fire9/squeeze1x1_fire9/relu_squeeze1x1_0_split
I0327 11:16:37.016942 10913 net.cpp:434] fire9/squeeze1x1_fire9/relu_squeeze1x1_0_split <- fire9/squeeze1x1
I0327 11:16:37.016952 10913 net.cpp:408] fire9/squeeze1x1_fire9/relu_squeeze1x1_0_split -> fire9/squeeze1x1_fire9/relu_squeeze1x1_0_split_0
I0327 11:16:37.016966 10913 net.cpp:408] fire9/squeeze1x1_fire9/relu_squeeze1x1_0_split -> fire9/squeeze1x1_fire9/relu_squeeze1x1_0_split_1
I0327 11:16:37.017021 10913 net.cpp:150] Setting up fire9/squeeze1x1_fire9/relu_squeeze1x1_0_split
I0327 11:16:37.017031 10913 net.cpp:157] Top shape: 2 64 18 18 (41472)
I0327 11:16:37.017036 10913 net.cpp:157] Top shape: 2 64 18 18 (41472)
I0327 11:16:37.017041 10913 net.cpp:165] Memory required for data: 121644064
I0327 11:16:37.017047 10913 layer_factory.hpp:77] Creating layer fire9/expand1x1
I0327 11:16:37.017060 10913 net.cpp:100] Creating Layer fire9/expand1x1
I0327 11:16:37.017066 10913 net.cpp:434] fire9/expand1x1 <- fire9/squeeze1x1_fire9/relu_squeeze1x1_0_split_0
I0327 11:16:37.017077 10913 net.cpp:408] fire9/expand1x1 -> fire9/expand1x1
I0327 11:16:37.018445 10913 net.cpp:150] Setting up fire9/expand1x1
I0327 11:16:37.018457 10913 net.cpp:157] Top shape: 2 256 18 18 (165888)
I0327 11:16:37.018461 10913 net.cpp:165] Memory required for data: 122307616
I0327 11:16:37.018471 10913 layer_factory.hpp:77] Creating layer fire9/expand1x1/bn
I0327 11:16:37.018482 10913 net.cpp:100] Creating Layer fire9/expand1x1/bn
I0327 11:16:37.018491 10913 net.cpp:434] fire9/expand1x1/bn <- fire9/expand1x1
I0327 11:16:37.018499 10913 net.cpp:395] fire9/expand1x1/bn -> fire9/expand1x1 (in-place)
I0327 11:16:37.018697 10913 net.cpp:150] Setting up fire9/expand1x1/bn
I0327 11:16:37.018705 10913 net.cpp:157] Top shape: 2 256 18 18 (165888)
I0327 11:16:37.018709 10913 net.cpp:165] Memory required for data: 122971168
I0327 11:16:37.018719 10913 layer_factory.hpp:77] Creating layer fire9/expand1x1/scale
I0327 11:16:37.018730 10913 net.cpp:100] Creating Layer fire9/expand1x1/scale
I0327 11:16:37.018738 10913 net.cpp:434] fire9/expand1x1/scale <- fire9/expand1x1
I0327 11:16:37.018749 10913 net.cpp:395] fire9/expand1x1/scale -> fire9/expand1x1 (in-place)
I0327 11:16:37.018805 10913 layer_factory.hpp:77] Creating layer fire9/expand1x1/scale
I0327 11:16:37.018929 10913 net.cpp:150] Setting up fire9/expand1x1/scale
I0327 11:16:37.018937 10913 net.cpp:157] Top shape: 2 256 18 18 (165888)
I0327 11:16:37.018954 10913 net.cpp:165] Memory required for data: 123634720
I0327 11:16:37.018963 10913 layer_factory.hpp:77] Creating layer fire9/relu_expand1x1
I0327 11:16:37.018973 10913 net.cpp:100] Creating Layer fire9/relu_expand1x1
I0327 11:16:37.018980 10913 net.cpp:434] fire9/relu_expand1x1 <- fire9/expand1x1
I0327 11:16:37.018990 10913 net.cpp:395] fire9/relu_expand1x1 -> fire9/expand1x1 (in-place)
I0327 11:16:37.019146 10913 net.cpp:150] Setting up fire9/relu_expand1x1
I0327 11:16:37.019156 10913 net.cpp:157] Top shape: 2 256 18 18 (165888)
I0327 11:16:37.019160 10913 net.cpp:165] Memory required for data: 124298272
I0327 11:16:37.019165 10913 layer_factory.hpp:77] Creating layer fire9/expand3x3
I0327 11:16:37.019178 10913 net.cpp:100] Creating Layer fire9/expand3x3
I0327 11:16:37.019186 10913 net.cpp:434] fire9/expand3x3 <- fire9/squeeze1x1_fire9/relu_squeeze1x1_0_split_1
I0327 11:16:37.019198 10913 net.cpp:408] fire9/expand3x3 -> fire9/expand3x3
I0327 11:16:37.021647 10913 net.cpp:150] Setting up fire9/expand3x3
I0327 11:16:37.021661 10913 net.cpp:157] Top shape: 2 256 18 18 (165888)
I0327 11:16:37.021664 10913 net.cpp:165] Memory required for data: 124961824
I0327 11:16:37.021672 10913 layer_factory.hpp:77] Creating layer fire9/expand3x3/bn
I0327 11:16:37.021683 10913 net.cpp:100] Creating Layer fire9/expand3x3/bn
I0327 11:16:37.021690 10913 net.cpp:434] fire9/expand3x3/bn <- fire9/expand3x3
I0327 11:16:37.021699 10913 net.cpp:395] fire9/expand3x3/bn -> fire9/expand3x3 (in-place)
I0327 11:16:37.021895 10913 net.cpp:150] Setting up fire9/expand3x3/bn
I0327 11:16:37.021904 10913 net.cpp:157] Top shape: 2 256 18 18 (165888)
I0327 11:16:37.021908 10913 net.cpp:165] Memory required for data: 125625376
I0327 11:16:37.021919 10913 layer_factory.hpp:77] Creating layer fire9/expand3x3/scale
I0327 11:16:37.021929 10913 net.cpp:100] Creating Layer fire9/expand3x3/scale
I0327 11:16:37.021935 10913 net.cpp:434] fire9/expand3x3/scale <- fire9/expand3x3
I0327 11:16:37.021946 10913 net.cpp:395] fire9/expand3x3/scale -> fire9/expand3x3 (in-place)
I0327 11:16:37.021998 10913 layer_factory.hpp:77] Creating layer fire9/expand3x3/scale
I0327 11:16:37.022116 10913 net.cpp:150] Setting up fire9/expand3x3/scale
I0327 11:16:37.022125 10913 net.cpp:157] Top shape: 2 256 18 18 (165888)
I0327 11:16:37.022130 10913 net.cpp:165] Memory required for data: 126288928
I0327 11:16:37.022136 10913 layer_factory.hpp:77] Creating layer fire9/relu_expand3x3
I0327 11:16:37.022145 10913 net.cpp:100] Creating Layer fire9/relu_expand3x3
I0327 11:16:37.022151 10913 net.cpp:434] fire9/relu_expand3x3 <- fire9/expand3x3
I0327 11:16:37.022162 10913 net.cpp:395] fire9/relu_expand3x3 -> fire9/expand3x3 (in-place)
I0327 11:16:37.022539 10913 net.cpp:150] Setting up fire9/relu_expand3x3
I0327 11:16:37.022552 10913 net.cpp:157] Top shape: 2 256 18 18 (165888)
I0327 11:16:37.022555 10913 net.cpp:165] Memory required for data: 126952480
I0327 11:16:37.022558 10913 layer_factory.hpp:77] Creating layer fire9/concat
I0327 11:16:37.022565 10913 net.cpp:100] Creating Layer fire9/concat
I0327 11:16:37.022572 10913 net.cpp:434] fire9/concat <- fire9/expand1x1
I0327 11:16:37.022579 10913 net.cpp:434] fire9/concat <- fire9/expand3x3
I0327 11:16:37.022589 10913 net.cpp:408] fire9/concat -> fire9/concat
I0327 11:16:37.022627 10913 net.cpp:150] Setting up fire9/concat
I0327 11:16:37.022635 10913 net.cpp:157] Top shape: 2 512 18 18 (331776)
I0327 11:16:37.022639 10913 net.cpp:165] Memory required for data: 128279584
I0327 11:16:37.022644 10913 layer_factory.hpp:77] Creating layer fire9/concat_fire9/concat_0_split
I0327 11:16:37.022655 10913 net.cpp:100] Creating Layer fire9/concat_fire9/concat_0_split
I0327 11:16:37.022662 10913 net.cpp:434] fire9/concat_fire9/concat_0_split <- fire9/concat
I0327 11:16:37.022673 10913 net.cpp:408] fire9/concat_fire9/concat_0_split -> fire9/concat_fire9/concat_0_split_0
I0327 11:16:37.022686 10913 net.cpp:408] fire9/concat_fire9/concat_0_split -> fire9/concat_fire9/concat_0_split_1
I0327 11:16:37.022712 10913 net.cpp:408] fire9/concat_fire9/concat_0_split -> fire9/concat_fire9/concat_0_split_2
I0327 11:16:37.022733 10913 net.cpp:408] fire9/concat_fire9/concat_0_split -> fire9/concat_fire9/concat_0_split_3
I0327 11:16:37.022807 10913 net.cpp:150] Setting up fire9/concat_fire9/concat_0_split
I0327 11:16:37.022816 10913 net.cpp:157] Top shape: 2 512 18 18 (331776)
I0327 11:16:37.022821 10913 net.cpp:157] Top shape: 2 512 18 18 (331776)
I0327 11:16:37.022828 10913 net.cpp:157] Top shape: 2 512 18 18 (331776)
I0327 11:16:37.022835 10913 net.cpp:157] Top shape: 2 512 18 18 (331776)
I0327 11:16:37.022841 10913 net.cpp:165] Memory required for data: 133588000
I0327 11:16:37.022847 10913 layer_factory.hpp:77] Creating layer pool9
I0327 11:16:37.022858 10913 net.cpp:100] Creating Layer pool9
I0327 11:16:37.022866 10913 net.cpp:434] pool9 <- fire9/concat_fire9/concat_0_split_0
I0327 11:16:37.022876 10913 net.cpp:408] pool9 -> pool9
I0327 11:16:37.022929 10913 net.cpp:150] Setting up pool9
I0327 11:16:37.022938 10913 net.cpp:157] Top shape: 2 512 9 9 (82944)
I0327 11:16:37.022941 10913 net.cpp:165] Memory required for data: 133919776
I0327 11:16:37.022945 10913 layer_factory.hpp:77] Creating layer fire10/squeeze1x1
I0327 11:16:37.022959 10913 net.cpp:100] Creating Layer fire10/squeeze1x1
I0327 11:16:37.022966 10913 net.cpp:434] fire10/squeeze1x1 <- pool9
I0327 11:16:37.022977 10913 net.cpp:408] fire10/squeeze1x1 -> fire10/squeeze1x1
I0327 11:16:37.024313 10913 net.cpp:150] Setting up fire10/squeeze1x1
I0327 11:16:37.024327 10913 net.cpp:157] Top shape: 2 96 9 9 (15552)
I0327 11:16:37.024330 10913 net.cpp:165] Memory required for data: 133981984
I0327 11:16:37.024339 10913 layer_factory.hpp:77] Creating layer fire10/squeeze1x1/bn
I0327 11:16:37.024351 10913 net.cpp:100] Creating Layer fire10/squeeze1x1/bn
I0327 11:16:37.024359 10913 net.cpp:434] fire10/squeeze1x1/bn <- fire10/squeeze1x1
I0327 11:16:37.024369 10913 net.cpp:395] fire10/squeeze1x1/bn -> fire10/squeeze1x1 (in-place)
I0327 11:16:37.024571 10913 net.cpp:150] Setting up fire10/squeeze1x1/bn
I0327 11:16:37.024580 10913 net.cpp:157] Top shape: 2 96 9 9 (15552)
I0327 11:16:37.024585 10913 net.cpp:165] Memory required for data: 134044192
I0327 11:16:37.024603 10913 layer_factory.hpp:77] Creating layer fire10/squeeze1x1/scale
I0327 11:16:37.024617 10913 net.cpp:100] Creating Layer fire10/squeeze1x1/scale
I0327 11:16:37.024624 10913 net.cpp:434] fire10/squeeze1x1/scale <- fire10/squeeze1x1
I0327 11:16:37.024634 10913 net.cpp:395] fire10/squeeze1x1/scale -> fire10/squeeze1x1 (in-place)
I0327 11:16:37.024693 10913 layer_factory.hpp:77] Creating layer fire10/squeeze1x1/scale
I0327 11:16:37.024816 10913 net.cpp:150] Setting up fire10/squeeze1x1/scale
I0327 11:16:37.024824 10913 net.cpp:157] Top shape: 2 96 9 9 (15552)
I0327 11:16:37.024828 10913 net.cpp:165] Memory required for data: 134106400
I0327 11:16:37.024837 10913 layer_factory.hpp:77] Creating layer fire10/relu_squeeze1x1
I0327 11:16:37.024847 10913 net.cpp:100] Creating Layer fire10/relu_squeeze1x1
I0327 11:16:37.024853 10913 net.cpp:434] fire10/relu_squeeze1x1 <- fire10/squeeze1x1
I0327 11:16:37.024863 10913 net.cpp:395] fire10/relu_squeeze1x1 -> fire10/squeeze1x1 (in-place)
I0327 11:16:37.025251 10913 net.cpp:150] Setting up fire10/relu_squeeze1x1
I0327 11:16:37.025264 10913 net.cpp:157] Top shape: 2 96 9 9 (15552)
I0327 11:16:37.025269 10913 net.cpp:165] Memory required for data: 134168608
I0327 11:16:37.025274 10913 layer_factory.hpp:77] Creating layer fire10/squeeze1x1_fire10/relu_squeeze1x1_0_split
I0327 11:16:37.025285 10913 net.cpp:100] Creating Layer fire10/squeeze1x1_fire10/relu_squeeze1x1_0_split
I0327 11:16:37.025291 10913 net.cpp:434] fire10/squeeze1x1_fire10/relu_squeeze1x1_0_split <- fire10/squeeze1x1
I0327 11:16:37.025301 10913 net.cpp:408] fire10/squeeze1x1_fire10/relu_squeeze1x1_0_split -> fire10/squeeze1x1_fire10/relu_squeeze1x1_0_split_0
I0327 11:16:37.025315 10913 net.cpp:408] fire10/squeeze1x1_fire10/relu_squeeze1x1_0_split -> fire10/squeeze1x1_fire10/relu_squeeze1x1_0_split_1
I0327 11:16:37.025368 10913 net.cpp:150] Setting up fire10/squeeze1x1_fire10/relu_squeeze1x1_0_split
I0327 11:16:37.025387 10913 net.cpp:157] Top shape: 2 96 9 9 (15552)
I0327 11:16:37.025391 10913 net.cpp:157] Top shape: 2 96 9 9 (15552)
I0327 11:16:37.025396 10913 net.cpp:165] Memory required for data: 134293024
I0327 11:16:37.025403 10913 layer_factory.hpp:77] Creating layer fire10/expand1x1
I0327 11:16:37.025415 10913 net.cpp:100] Creating Layer fire10/expand1x1
I0327 11:16:37.025424 10913 net.cpp:434] fire10/expand1x1 <- fire10/squeeze1x1_fire10/relu_squeeze1x1_0_split_0
I0327 11:16:37.025434 10913 net.cpp:408] fire10/expand1x1 -> fire10/expand1x1
I0327 11:16:37.026748 10913 net.cpp:150] Setting up fire10/expand1x1
I0327 11:16:37.026762 10913 net.cpp:157] Top shape: 2 384 9 9 (62208)
I0327 11:16:37.026765 10913 net.cpp:165] Memory required for data: 134541856
I0327 11:16:37.026774 10913 layer_factory.hpp:77] Creating layer fire10/expand1x1/bn
I0327 11:16:37.026787 10913 net.cpp:100] Creating Layer fire10/expand1x1/bn
I0327 11:16:37.026795 10913 net.cpp:434] fire10/expand1x1/bn <- fire10/expand1x1
I0327 11:16:37.026805 10913 net.cpp:395] fire10/expand1x1/bn -> fire10/expand1x1 (in-place)
I0327 11:16:37.027003 10913 net.cpp:150] Setting up fire10/expand1x1/bn
I0327 11:16:37.027011 10913 net.cpp:157] Top shape: 2 384 9 9 (62208)
I0327 11:16:37.027014 10913 net.cpp:165] Memory required for data: 134790688
I0327 11:16:37.027024 10913 layer_factory.hpp:77] Creating layer fire10/expand1x1/scale
I0327 11:16:37.027037 10913 net.cpp:100] Creating Layer fire10/expand1x1/scale
I0327 11:16:37.027045 10913 net.cpp:434] fire10/expand1x1/scale <- fire10/expand1x1
I0327 11:16:37.027053 10913 net.cpp:395] fire10/expand1x1/scale -> fire10/expand1x1 (in-place)
I0327 11:16:37.027104 10913 layer_factory.hpp:77] Creating layer fire10/expand1x1/scale
I0327 11:16:37.027228 10913 net.cpp:150] Setting up fire10/expand1x1/scale
I0327 11:16:37.027237 10913 net.cpp:157] Top shape: 2 384 9 9 (62208)
I0327 11:16:37.027241 10913 net.cpp:165] Memory required for data: 135039520
I0327 11:16:37.027249 10913 layer_factory.hpp:77] Creating layer fire10/relu_expand1x1
I0327 11:16:37.027261 10913 net.cpp:100] Creating Layer fire10/relu_expand1x1
I0327 11:16:37.027268 10913 net.cpp:434] fire10/relu_expand1x1 <- fire10/expand1x1
I0327 11:16:37.027277 10913 net.cpp:395] fire10/relu_expand1x1 -> fire10/expand1x1 (in-place)
I0327 11:16:37.027429 10913 net.cpp:150] Setting up fire10/relu_expand1x1
I0327 11:16:37.027439 10913 net.cpp:157] Top shape: 2 384 9 9 (62208)
I0327 11:16:37.027443 10913 net.cpp:165] Memory required for data: 135288352
I0327 11:16:37.027448 10913 layer_factory.hpp:77] Creating layer fire10/expand3x3
I0327 11:16:37.027463 10913 net.cpp:100] Creating Layer fire10/expand3x3
I0327 11:16:37.027470 10913 net.cpp:434] fire10/expand3x3 <- fire10/squeeze1x1_fire10/relu_squeeze1x1_0_split_1
I0327 11:16:37.027482 10913 net.cpp:408] fire10/expand3x3 -> fire10/expand3x3
I0327 11:16:37.030864 10913 net.cpp:150] Setting up fire10/expand3x3
I0327 11:16:37.030877 10913 net.cpp:157] Top shape: 2 384 9 9 (62208)
I0327 11:16:37.030882 10913 net.cpp:165] Memory required for data: 135537184
I0327 11:16:37.030891 10913 layer_factory.hpp:77] Creating layer fire10/expand3x3/bn
I0327 11:16:37.030902 10913 net.cpp:100] Creating Layer fire10/expand3x3/bn
I0327 11:16:37.030910 10913 net.cpp:434] fire10/expand3x3/bn <- fire10/expand3x3
I0327 11:16:37.030920 10913 net.cpp:395] fire10/expand3x3/bn -> fire10/expand3x3 (in-place)
I0327 11:16:37.031118 10913 net.cpp:150] Setting up fire10/expand3x3/bn
I0327 11:16:37.031126 10913 net.cpp:157] Top shape: 2 384 9 9 (62208)
I0327 11:16:37.031131 10913 net.cpp:165] Memory required for data: 135786016
I0327 11:16:37.031141 10913 layer_factory.hpp:77] Creating layer fire10/expand3x3/scale
I0327 11:16:37.031153 10913 net.cpp:100] Creating Layer fire10/expand3x3/scale
I0327 11:16:37.031160 10913 net.cpp:434] fire10/expand3x3/scale <- fire10/expand3x3
I0327 11:16:37.031170 10913 net.cpp:395] fire10/expand3x3/scale -> fire10/expand3x3 (in-place)
I0327 11:16:37.031220 10913 layer_factory.hpp:77] Creating layer fire10/expand3x3/scale
I0327 11:16:37.031354 10913 net.cpp:150] Setting up fire10/expand3x3/scale
I0327 11:16:37.031364 10913 net.cpp:157] Top shape: 2 384 9 9 (62208)
I0327 11:16:37.031368 10913 net.cpp:165] Memory required for data: 136034848
I0327 11:16:37.031375 10913 layer_factory.hpp:77] Creating layer fire10/relu_expand3x3
I0327 11:16:37.031388 10913 net.cpp:100] Creating Layer fire10/relu_expand3x3
I0327 11:16:37.031394 10913 net.cpp:434] fire10/relu_expand3x3 <- fire10/expand3x3
I0327 11:16:37.031404 10913 net.cpp:395] fire10/relu_expand3x3 -> fire10/expand3x3 (in-place)
I0327 11:16:37.031785 10913 net.cpp:150] Setting up fire10/relu_expand3x3
I0327 11:16:37.031797 10913 net.cpp:157] Top shape: 2 384 9 9 (62208)
I0327 11:16:37.031801 10913 net.cpp:165] Memory required for data: 136283680
I0327 11:16:37.031806 10913 layer_factory.hpp:77] Creating layer fire10/concat
I0327 11:16:37.031816 10913 net.cpp:100] Creating Layer fire10/concat
I0327 11:16:37.031822 10913 net.cpp:434] fire10/concat <- fire10/expand1x1
I0327 11:16:37.031831 10913 net.cpp:434] fire10/concat <- fire10/expand3x3
I0327 11:16:37.031842 10913 net.cpp:408] fire10/concat -> fire10/concat
I0327 11:16:37.031883 10913 net.cpp:150] Setting up fire10/concat
I0327 11:16:37.031893 10913 net.cpp:157] Top shape: 2 768 9 9 (124416)
I0327 11:16:37.031895 10913 net.cpp:165] Memory required for data: 136781344
I0327 11:16:37.031901 10913 layer_factory.hpp:77] Creating layer fire10/concat_fire10/concat_0_split
I0327 11:16:37.031910 10913 net.cpp:100] Creating Layer fire10/concat_fire10/concat_0_split
I0327 11:16:37.031918 10913 net.cpp:434] fire10/concat_fire10/concat_0_split <- fire10/concat
I0327 11:16:37.031929 10913 net.cpp:408] fire10/concat_fire10/concat_0_split -> fire10/concat_fire10/concat_0_split_0
I0327 11:16:37.031940 10913 net.cpp:408] fire10/concat_fire10/concat_0_split -> fire10/concat_fire10/concat_0_split_1
I0327 11:16:37.031951 10913 net.cpp:408] fire10/concat_fire10/concat_0_split -> fire10/concat_fire10/concat_0_split_2
I0327 11:16:37.031962 10913 net.cpp:408] fire10/concat_fire10/concat_0_split -> fire10/concat_fire10/concat_0_split_3
I0327 11:16:37.032037 10913 net.cpp:150] Setting up fire10/concat_fire10/concat_0_split
I0327 11:16:37.032045 10913 net.cpp:157] Top shape: 2 768 9 9 (124416)
I0327 11:16:37.032050 10913 net.cpp:157] Top shape: 2 768 9 9 (124416)
I0327 11:16:37.032057 10913 net.cpp:157] Top shape: 2 768 9 9 (124416)
I0327 11:16:37.032063 10913 net.cpp:157] Top shape: 2 768 9 9 (124416)
I0327 11:16:37.032069 10913 net.cpp:165] Memory required for data: 138772000
I0327 11:16:37.032076 10913 layer_factory.hpp:77] Creating layer pool10
I0327 11:16:37.032085 10913 net.cpp:100] Creating Layer pool10
I0327 11:16:37.032093 10913 net.cpp:434] pool10 <- fire10/concat_fire10/concat_0_split_0
I0327 11:16:37.032104 10913 net.cpp:408] pool10 -> pool10
I0327 11:16:37.032155 10913 net.cpp:150] Setting up pool10
I0327 11:16:37.032163 10913 net.cpp:157] Top shape: 2 768 4 4 (24576)
I0327 11:16:37.032167 10913 net.cpp:165] Memory required for data: 138870304
I0327 11:16:37.032172 10913 layer_factory.hpp:77] Creating layer fire11/squeeze1x1
I0327 11:16:37.032186 10913 net.cpp:100] Creating Layer fire11/squeeze1x1
I0327 11:16:37.032196 10913 net.cpp:434] fire11/squeeze1x1 <- pool10
I0327 11:16:37.032205 10913 net.cpp:408] fire11/squeeze1x1 -> fire11/squeeze1x1
I0327 11:16:37.033675 10913 net.cpp:150] Setting up fire11/squeeze1x1
I0327 11:16:37.033687 10913 net.cpp:157] Top shape: 2 96 4 4 (3072)
I0327 11:16:37.033692 10913 net.cpp:165] Memory required for data: 138882592
I0327 11:16:37.033701 10913 layer_factory.hpp:77] Creating layer fire11/squeeze1x1/bn
I0327 11:16:37.033712 10913 net.cpp:100] Creating Layer fire11/squeeze1x1/bn
I0327 11:16:37.033720 10913 net.cpp:434] fire11/squeeze1x1/bn <- fire11/squeeze1x1
I0327 11:16:37.033728 10913 net.cpp:395] fire11/squeeze1x1/bn -> fire11/squeeze1x1 (in-place)
I0327 11:16:37.034013 10913 net.cpp:150] Setting up fire11/squeeze1x1/bn
I0327 11:16:37.034024 10913 net.cpp:157] Top shape: 2 96 4 4 (3072)
I0327 11:16:37.034042 10913 net.cpp:165] Memory required for data: 138894880
I0327 11:16:37.034055 10913 layer_factory.hpp:77] Creating layer fire11/squeeze1x1/scale
I0327 11:16:37.034065 10913 net.cpp:100] Creating Layer fire11/squeeze1x1/scale
I0327 11:16:37.034072 10913 net.cpp:434] fire11/squeeze1x1/scale <- fire11/squeeze1x1
I0327 11:16:37.034085 10913 net.cpp:395] fire11/squeeze1x1/scale -> fire11/squeeze1x1 (in-place)
I0327 11:16:37.034144 10913 layer_factory.hpp:77] Creating layer fire11/squeeze1x1/scale
I0327 11:16:37.034310 10913 net.cpp:150] Setting up fire11/squeeze1x1/scale
I0327 11:16:37.034322 10913 net.cpp:157] Top shape: 2 96 4 4 (3072)
I0327 11:16:37.034327 10913 net.cpp:165] Memory required for data: 138907168
I0327 11:16:37.034335 10913 layer_factory.hpp:77] Creating layer fire11/relu_squeeze1x1
I0327 11:16:37.034345 10913 net.cpp:100] Creating Layer fire11/relu_squeeze1x1
I0327 11:16:37.034351 10913 net.cpp:434] fire11/relu_squeeze1x1 <- fire11/squeeze1x1
I0327 11:16:37.034361 10913 net.cpp:395] fire11/relu_squeeze1x1 -> fire11/squeeze1x1 (in-place)
I0327 11:16:37.034559 10913 net.cpp:150] Setting up fire11/relu_squeeze1x1
I0327 11:16:37.034571 10913 net.cpp:157] Top shape: 2 96 4 4 (3072)
I0327 11:16:37.034576 10913 net.cpp:165] Memory required for data: 138919456
I0327 11:16:37.034582 10913 layer_factory.hpp:77] Creating layer fire11/squeeze1x1_fire11/relu_squeeze1x1_0_split
I0327 11:16:37.034595 10913 net.cpp:100] Creating Layer fire11/squeeze1x1_fire11/relu_squeeze1x1_0_split
I0327 11:16:37.034601 10913 net.cpp:434] fire11/squeeze1x1_fire11/relu_squeeze1x1_0_split <- fire11/squeeze1x1
I0327 11:16:37.034610 10913 net.cpp:408] fire11/squeeze1x1_fire11/relu_squeeze1x1_0_split -> fire11/squeeze1x1_fire11/relu_squeeze1x1_0_split_0
I0327 11:16:37.034621 10913 net.cpp:408] fire11/squeeze1x1_fire11/relu_squeeze1x1_0_split -> fire11/squeeze1x1_fire11/relu_squeeze1x1_0_split_1
I0327 11:16:37.034678 10913 net.cpp:150] Setting up fire11/squeeze1x1_fire11/relu_squeeze1x1_0_split
I0327 11:16:37.034688 10913 net.cpp:157] Top shape: 2 96 4 4 (3072)
I0327 11:16:37.034694 10913 net.cpp:157] Top shape: 2 96 4 4 (3072)
I0327 11:16:37.034699 10913 net.cpp:165] Memory required for data: 138944032
I0327 11:16:37.034706 10913 layer_factory.hpp:77] Creating layer fire11/expand1x1
I0327 11:16:37.034719 10913 net.cpp:100] Creating Layer fire11/expand1x1
I0327 11:16:37.034725 10913 net.cpp:434] fire11/expand1x1 <- fire11/squeeze1x1_fire11/relu_squeeze1x1_0_split_0
I0327 11:16:37.034736 10913 net.cpp:408] fire11/expand1x1 -> fire11/expand1x1
I0327 11:16:37.037262 10913 net.cpp:150] Setting up fire11/expand1x1
I0327 11:16:37.037283 10913 net.cpp:157] Top shape: 2 384 4 4 (12288)
I0327 11:16:37.037291 10913 net.cpp:165] Memory required for data: 138993184
I0327 11:16:37.037302 10913 layer_factory.hpp:77] Creating layer fire11/expand1x1/bn
I0327 11:16:37.037312 10913 net.cpp:100] Creating Layer fire11/expand1x1/bn
I0327 11:16:37.037319 10913 net.cpp:434] fire11/expand1x1/bn <- fire11/expand1x1
I0327 11:16:37.037329 10913 net.cpp:395] fire11/expand1x1/bn -> fire11/expand1x1 (in-place)
I0327 11:16:37.037607 10913 net.cpp:150] Setting up fire11/expand1x1/bn
I0327 11:16:37.037621 10913 net.cpp:157] Top shape: 2 384 4 4 (12288)
I0327 11:16:37.037626 10913 net.cpp:165] Memory required for data: 139042336
I0327 11:16:37.037637 10913 layer_factory.hpp:77] Creating layer fire11/expand1x1/scale
I0327 11:16:37.037648 10913 net.cpp:100] Creating Layer fire11/expand1x1/scale
I0327 11:16:37.037654 10913 net.cpp:434] fire11/expand1x1/scale <- fire11/expand1x1
I0327 11:16:37.037663 10913 net.cpp:395] fire11/expand1x1/scale -> fire11/expand1x1 (in-place)
I0327 11:16:37.037715 10913 layer_factory.hpp:77] Creating layer fire11/expand1x1/scale
I0327 11:16:37.037875 10913 net.cpp:150] Setting up fire11/expand1x1/scale
I0327 11:16:37.037886 10913 net.cpp:157] Top shape: 2 384 4 4 (12288)
I0327 11:16:37.037892 10913 net.cpp:165] Memory required for data: 139091488
I0327 11:16:37.037901 10913 layer_factory.hpp:77] Creating layer fire11/relu_expand1x1
I0327 11:16:37.037925 10913 net.cpp:100] Creating Layer fire11/relu_expand1x1
I0327 11:16:37.037931 10913 net.cpp:434] fire11/relu_expand1x1 <- fire11/expand1x1
I0327 11:16:37.037940 10913 net.cpp:395] fire11/relu_expand1x1 -> fire11/expand1x1 (in-place)
I0327 11:16:37.038429 10913 net.cpp:150] Setting up fire11/relu_expand1x1
I0327 11:16:37.038444 10913 net.cpp:157] Top shape: 2 384 4 4 (12288)
I0327 11:16:37.038451 10913 net.cpp:165] Memory required for data: 139140640
I0327 11:16:37.038457 10913 layer_factory.hpp:77] Creating layer fire11/expand3x3
I0327 11:16:37.038473 10913 net.cpp:100] Creating Layer fire11/expand3x3
I0327 11:16:37.038482 10913 net.cpp:434] fire11/expand3x3 <- fire11/squeeze1x1_fire11/relu_squeeze1x1_0_split_1
I0327 11:16:37.038493 10913 net.cpp:408] fire11/expand3x3 -> fire11/expand3x3
I0327 11:16:37.042475 10913 net.cpp:150] Setting up fire11/expand3x3
I0327 11:16:37.042510 10913 net.cpp:157] Top shape: 2 384 4 4 (12288)
I0327 11:16:37.042515 10913 net.cpp:165] Memory required for data: 139189792
I0327 11:16:37.042534 10913 layer_factory.hpp:77] Creating layer fire11/expand3x3/bn
I0327 11:16:37.042544 10913 net.cpp:100] Creating Layer fire11/expand3x3/bn
I0327 11:16:37.042551 10913 net.cpp:434] fire11/expand3x3/bn <- fire11/expand3x3
I0327 11:16:37.042557 10913 net.cpp:395] fire11/expand3x3/bn -> fire11/expand3x3 (in-place)
I0327 11:16:37.042795 10913 net.cpp:150] Setting up fire11/expand3x3/bn
I0327 11:16:37.042804 10913 net.cpp:157] Top shape: 2 384 4 4 (12288)
I0327 11:16:37.042809 10913 net.cpp:165] Memory required for data: 139238944
I0327 11:16:37.042819 10913 layer_factory.hpp:77] Creating layer fire11/expand3x3/scale
I0327 11:16:37.042832 10913 net.cpp:100] Creating Layer fire11/expand3x3/scale
I0327 11:16:37.042840 10913 net.cpp:434] fire11/expand3x3/scale <- fire11/expand3x3
I0327 11:16:37.042850 10913 net.cpp:395] fire11/expand3x3/scale -> fire11/expand3x3 (in-place)
I0327 11:16:37.042907 10913 layer_factory.hpp:77] Creating layer fire11/expand3x3/scale
I0327 11:16:37.043035 10913 net.cpp:150] Setting up fire11/expand3x3/scale
I0327 11:16:37.043043 10913 net.cpp:157] Top shape: 2 384 4 4 (12288)
I0327 11:16:37.043047 10913 net.cpp:165] Memory required for data: 139288096
I0327 11:16:37.043056 10913 layer_factory.hpp:77] Creating layer fire11/relu_expand3x3
I0327 11:16:37.043067 10913 net.cpp:100] Creating Layer fire11/relu_expand3x3
I0327 11:16:37.043074 10913 net.cpp:434] fire11/relu_expand3x3 <- fire11/expand3x3
I0327 11:16:37.043084 10913 net.cpp:395] fire11/relu_expand3x3 -> fire11/expand3x3 (in-place)
I0327 11:16:37.043500 10913 net.cpp:150] Setting up fire11/relu_expand3x3
I0327 11:16:37.043512 10913 net.cpp:157] Top shape: 2 384 4 4 (12288)
I0327 11:16:37.043516 10913 net.cpp:165] Memory required for data: 139337248
I0327 11:16:37.043520 10913 layer_factory.hpp:77] Creating layer fire11/concat
I0327 11:16:37.043530 10913 net.cpp:100] Creating Layer fire11/concat
I0327 11:16:37.043539 10913 net.cpp:434] fire11/concat <- fire11/expand1x1
I0327 11:16:37.043545 10913 net.cpp:434] fire11/concat <- fire11/expand3x3
I0327 11:16:37.043557 10913 net.cpp:408] fire11/concat -> fire11/concat
I0327 11:16:37.043598 10913 net.cpp:150] Setting up fire11/concat
I0327 11:16:37.043608 10913 net.cpp:157] Top shape: 2 768 4 4 (24576)
I0327 11:16:37.043612 10913 net.cpp:165] Memory required for data: 139435552
I0327 11:16:37.043617 10913 layer_factory.hpp:77] Creating layer fire11/concat_fire11/concat_0_split
I0327 11:16:37.043627 10913 net.cpp:100] Creating Layer fire11/concat_fire11/concat_0_split
I0327 11:16:37.043634 10913 net.cpp:434] fire11/concat_fire11/concat_0_split <- fire11/concat
I0327 11:16:37.043646 10913 net.cpp:408] fire11/concat_fire11/concat_0_split -> fire11/concat_fire11/concat_0_split_0
I0327 11:16:37.043658 10913 net.cpp:408] fire11/concat_fire11/concat_0_split -> fire11/concat_fire11/concat_0_split_1
I0327 11:16:37.043669 10913 net.cpp:408] fire11/concat_fire11/concat_0_split -> fire11/concat_fire11/concat_0_split_2
I0327 11:16:37.043680 10913 net.cpp:408] fire11/concat_fire11/concat_0_split -> fire11/concat_fire11/concat_0_split_3
I0327 11:16:37.043777 10913 net.cpp:150] Setting up fire11/concat_fire11/concat_0_split
I0327 11:16:37.043787 10913 net.cpp:157] Top shape: 2 768 4 4 (24576)
I0327 11:16:37.043792 10913 net.cpp:157] Top shape: 2 768 4 4 (24576)
I0327 11:16:37.043797 10913 net.cpp:157] Top shape: 2 768 4 4 (24576)
I0327 11:16:37.043804 10913 net.cpp:157] Top shape: 2 768 4 4 (24576)
I0327 11:16:37.043810 10913 net.cpp:165] Memory required for data: 139828768
I0327 11:16:37.043817 10913 layer_factory.hpp:77] Creating layer conv12_1
I0327 11:16:37.043833 10913 net.cpp:100] Creating Layer conv12_1
I0327 11:16:37.043841 10913 net.cpp:434] conv12_1 <- fire11/concat_fire11/concat_0_split_0
I0327 11:16:37.043853 10913 net.cpp:408] conv12_1 -> conv12_1
I0327 11:16:37.046017 10913 net.cpp:150] Setting up conv12_1
I0327 11:16:37.046030 10913 net.cpp:157] Top shape: 2 128 4 4 (4096)
I0327 11:16:37.046036 10913 net.cpp:165] Memory required for data: 139845152
I0327 11:16:37.046042 10913 layer_factory.hpp:77] Creating layer conv12_1/bn
I0327 11:16:37.046054 10913 net.cpp:100] Creating Layer conv12_1/bn
I0327 11:16:37.046061 10913 net.cpp:434] conv12_1/bn <- conv12_1
I0327 11:16:37.046070 10913 net.cpp:395] conv12_1/bn -> conv12_1 (in-place)
I0327 11:16:37.046274 10913 net.cpp:150] Setting up conv12_1/bn
I0327 11:16:37.046283 10913 net.cpp:157] Top shape: 2 128 4 4 (4096)
I0327 11:16:37.046288 10913 net.cpp:165] Memory required for data: 139861536
I0327 11:16:37.046296 10913 layer_factory.hpp:77] Creating layer conv12_1/scale
I0327 11:16:37.046306 10913 net.cpp:100] Creating Layer conv12_1/scale
I0327 11:16:37.046314 10913 net.cpp:434] conv12_1/scale <- conv12_1
I0327 11:16:37.046324 10913 net.cpp:395] conv12_1/scale -> conv12_1 (in-place)
I0327 11:16:37.046380 10913 layer_factory.hpp:77] Creating layer conv12_1/scale
I0327 11:16:37.046504 10913 net.cpp:150] Setting up conv12_1/scale
I0327 11:16:37.046512 10913 net.cpp:157] Top shape: 2 128 4 4 (4096)
I0327 11:16:37.046516 10913 net.cpp:165] Memory required for data: 139877920
I0327 11:16:37.046522 10913 layer_factory.hpp:77] Creating layer conv12_1/relu
I0327 11:16:37.046528 10913 net.cpp:100] Creating Layer conv12_1/relu
I0327 11:16:37.046532 10913 net.cpp:434] conv12_1/relu <- conv12_1
I0327 11:16:37.046537 10913 net.cpp:395] conv12_1/relu -> conv12_1 (in-place)
I0327 11:16:37.046692 10913 net.cpp:150] Setting up conv12_1/relu
I0327 11:16:37.046702 10913 net.cpp:157] Top shape: 2 128 4 4 (4096)
I0327 11:16:37.046706 10913 net.cpp:165] Memory required for data: 139894304
I0327 11:16:37.046710 10913 layer_factory.hpp:77] Creating layer conv12_2
I0327 11:16:37.046720 10913 net.cpp:100] Creating Layer conv12_2
I0327 11:16:37.046725 10913 net.cpp:434] conv12_2 <- conv12_1
I0327 11:16:37.046732 10913 net.cpp:408] conv12_2 -> conv12_2
I0327 11:16:37.051005 10913 net.cpp:150] Setting up conv12_2
I0327 11:16:37.051028 10913 net.cpp:157] Top shape: 2 256 2 2 (2048)
I0327 11:16:37.051033 10913 net.cpp:165] Memory required for data: 139902496
I0327 11:16:37.051039 10913 layer_factory.hpp:77] Creating layer conv12_2/bn
I0327 11:16:37.051046 10913 net.cpp:100] Creating Layer conv12_2/bn
I0327 11:16:37.051051 10913 net.cpp:434] conv12_2/bn <- conv12_2
I0327 11:16:37.051057 10913 net.cpp:395] conv12_2/bn -> conv12_2 (in-place)
I0327 11:16:37.051265 10913 net.cpp:150] Setting up conv12_2/bn
I0327 11:16:37.051275 10913 net.cpp:157] Top shape: 2 256 2 2 (2048)
I0327 11:16:37.051277 10913 net.cpp:165] Memory required for data: 139910688
I0327 11:16:37.051285 10913 layer_factory.hpp:77] Creating layer conv12_2/scale
I0327 11:16:37.051292 10913 net.cpp:100] Creating Layer conv12_2/scale
I0327 11:16:37.051296 10913 net.cpp:434] conv12_2/scale <- conv12_2
I0327 11:16:37.051303 10913 net.cpp:395] conv12_2/scale -> conv12_2 (in-place)
I0327 11:16:37.051357 10913 layer_factory.hpp:77] Creating layer conv12_2/scale
I0327 11:16:37.051486 10913 net.cpp:150] Setting up conv12_2/scale
I0327 11:16:37.051494 10913 net.cpp:157] Top shape: 2 256 2 2 (2048)
I0327 11:16:37.051509 10913 net.cpp:165] Memory required for data: 139918880
I0327 11:16:37.051517 10913 layer_factory.hpp:77] Creating layer conv12_2/relu
I0327 11:16:37.051522 10913 net.cpp:100] Creating Layer conv12_2/relu
I0327 11:16:37.051529 10913 net.cpp:434] conv12_2/relu <- conv12_2
I0327 11:16:37.051539 10913 net.cpp:395] conv12_2/relu -> conv12_2 (in-place)
I0327 11:16:37.051923 10913 net.cpp:150] Setting up conv12_2/relu
I0327 11:16:37.051935 10913 net.cpp:157] Top shape: 2 256 2 2 (2048)
I0327 11:16:37.051939 10913 net.cpp:165] Memory required for data: 139927072
I0327 11:16:37.051944 10913 layer_factory.hpp:77] Creating layer conv12_2_conv12_2/relu_0_split
I0327 11:16:37.051950 10913 net.cpp:100] Creating Layer conv12_2_conv12_2/relu_0_split
I0327 11:16:37.051954 10913 net.cpp:434] conv12_2_conv12_2/relu_0_split <- conv12_2
I0327 11:16:37.051962 10913 net.cpp:408] conv12_2_conv12_2/relu_0_split -> conv12_2_conv12_2/relu_0_split_0
I0327 11:16:37.051972 10913 net.cpp:408] conv12_2_conv12_2/relu_0_split -> conv12_2_conv12_2/relu_0_split_1
I0327 11:16:37.051983 10913 net.cpp:408] conv12_2_conv12_2/relu_0_split -> conv12_2_conv12_2/relu_0_split_2
I0327 11:16:37.051995 10913 net.cpp:408] conv12_2_conv12_2/relu_0_split -> conv12_2_conv12_2/relu_0_split_3
I0327 11:16:37.052075 10913 net.cpp:150] Setting up conv12_2_conv12_2/relu_0_split
I0327 11:16:37.052083 10913 net.cpp:157] Top shape: 2 256 2 2 (2048)
I0327 11:16:37.052088 10913 net.cpp:157] Top shape: 2 256 2 2 (2048)
I0327 11:16:37.052093 10913 net.cpp:157] Top shape: 2 256 2 2 (2048)
I0327 11:16:37.052096 10913 net.cpp:157] Top shape: 2 256 2 2 (2048)
I0327 11:16:37.052100 10913 net.cpp:165] Memory required for data: 139959840
I0327 11:16:37.052105 10913 layer_factory.hpp:77] Creating layer conv13_1
I0327 11:16:37.052119 10913 net.cpp:100] Creating Layer conv13_1
I0327 11:16:37.052126 10913 net.cpp:434] conv13_1 <- conv12_2_conv12_2/relu_0_split_0
I0327 11:16:37.052136 10913 net.cpp:408] conv13_1 -> conv13_1
I0327 11:16:37.053385 10913 net.cpp:150] Setting up conv13_1
I0327 11:16:37.053396 10913 net.cpp:157] Top shape: 2 64 2 2 (512)
I0327 11:16:37.053400 10913 net.cpp:165] Memory required for data: 139961888
I0327 11:16:37.053406 10913 layer_factory.hpp:77] Creating layer conv13_1/bn
I0327 11:16:37.053416 10913 net.cpp:100] Creating Layer conv13_1/bn
I0327 11:16:37.053424 10913 net.cpp:434] conv13_1/bn <- conv13_1
I0327 11:16:37.053433 10913 net.cpp:395] conv13_1/bn -> conv13_1 (in-place)
I0327 11:16:37.053645 10913 net.cpp:150] Setting up conv13_1/bn
I0327 11:16:37.053653 10913 net.cpp:157] Top shape: 2 64 2 2 (512)
I0327 11:16:37.053658 10913 net.cpp:165] Memory required for data: 139963936
I0327 11:16:37.053668 10913 layer_factory.hpp:77] Creating layer conv13_1/scale
I0327 11:16:37.053678 10913 net.cpp:100] Creating Layer conv13_1/scale
I0327 11:16:37.053685 10913 net.cpp:434] conv13_1/scale <- conv13_1
I0327 11:16:37.053696 10913 net.cpp:395] conv13_1/scale -> conv13_1 (in-place)
I0327 11:16:37.053751 10913 layer_factory.hpp:77] Creating layer conv13_1/scale
I0327 11:16:37.053882 10913 net.cpp:150] Setting up conv13_1/scale
I0327 11:16:37.053890 10913 net.cpp:157] Top shape: 2 64 2 2 (512)
I0327 11:16:37.053894 10913 net.cpp:165] Memory required for data: 139965984
I0327 11:16:37.053902 10913 layer_factory.hpp:77] Creating layer conv13_1/relu
I0327 11:16:37.053913 10913 net.cpp:100] Creating Layer conv13_1/relu
I0327 11:16:37.053920 10913 net.cpp:434] conv13_1/relu <- conv13_1
I0327 11:16:37.053928 10913 net.cpp:395] conv13_1/relu -> conv13_1 (in-place)
I0327 11:16:37.054083 10913 net.cpp:150] Setting up conv13_1/relu
I0327 11:16:37.054092 10913 net.cpp:157] Top shape: 2 64 2 2 (512)
I0327 11:16:37.054096 10913 net.cpp:165] Memory required for data: 139968032
I0327 11:16:37.054103 10913 layer_factory.hpp:77] Creating layer conv13_2
I0327 11:16:37.054121 10913 net.cpp:100] Creating Layer conv13_2
I0327 11:16:37.054128 10913 net.cpp:434] conv13_2 <- conv13_1
I0327 11:16:37.054138 10913 net.cpp:408] conv13_2 -> conv13_2
I0327 11:16:37.055869 10913 net.cpp:150] Setting up conv13_2
I0327 11:16:37.055891 10913 net.cpp:157] Top shape: 2 128 1 1 (256)
I0327 11:16:37.055896 10913 net.cpp:165] Memory required for data: 139969056
I0327 11:16:37.055903 10913 layer_factory.hpp:77] Creating layer conv13_2/bn
I0327 11:16:37.055913 10913 net.cpp:100] Creating Layer conv13_2/bn
I0327 11:16:37.055920 10913 net.cpp:434] conv13_2/bn <- conv13_2
I0327 11:16:37.055932 10913 net.cpp:395] conv13_2/bn -> conv13_2 (in-place)
I0327 11:16:37.056141 10913 net.cpp:150] Setting up conv13_2/bn
I0327 11:16:37.056150 10913 net.cpp:157] Top shape: 2 128 1 1 (256)
I0327 11:16:37.056154 10913 net.cpp:165] Memory required for data: 139970080
I0327 11:16:37.056164 10913 layer_factory.hpp:77] Creating layer conv13_2/scale
I0327 11:16:37.056174 10913 net.cpp:100] Creating Layer conv13_2/scale
I0327 11:16:37.056181 10913 net.cpp:434] conv13_2/scale <- conv13_2
I0327 11:16:37.056192 10913 net.cpp:395] conv13_2/scale -> conv13_2 (in-place)
I0327 11:16:37.056247 10913 layer_factory.hpp:77] Creating layer conv13_2/scale
I0327 11:16:37.056370 10913 net.cpp:150] Setting up conv13_2/scale
I0327 11:16:37.056377 10913 net.cpp:157] Top shape: 2 128 1 1 (256)
I0327 11:16:37.056381 10913 net.cpp:165] Memory required for data: 139971104
I0327 11:16:37.056390 10913 layer_factory.hpp:77] Creating layer conv13_2/relu
I0327 11:16:37.056398 10913 net.cpp:100] Creating Layer conv13_2/relu
I0327 11:16:37.056404 10913 net.cpp:434] conv13_2/relu <- conv13_2
I0327 11:16:37.056416 10913 net.cpp:395] conv13_2/relu -> conv13_2 (in-place)
I0327 11:16:37.056797 10913 net.cpp:150] Setting up conv13_2/relu
I0327 11:16:37.056809 10913 net.cpp:157] Top shape: 2 128 1 1 (256)
I0327 11:16:37.056813 10913 net.cpp:165] Memory required for data: 139972128
I0327 11:16:37.056818 10913 layer_factory.hpp:77] Creating layer conv13_2_conv13_2/relu_0_split
I0327 11:16:37.056828 10913 net.cpp:100] Creating Layer conv13_2_conv13_2/relu_0_split
I0327 11:16:37.056835 10913 net.cpp:434] conv13_2_conv13_2/relu_0_split <- conv13_2
I0327 11:16:37.056846 10913 net.cpp:408] conv13_2_conv13_2/relu_0_split -> conv13_2_conv13_2/relu_0_split_0
I0327 11:16:37.056859 10913 net.cpp:408] conv13_2_conv13_2/relu_0_split -> conv13_2_conv13_2/relu_0_split_1
I0327 11:16:37.056870 10913 net.cpp:408] conv13_2_conv13_2/relu_0_split -> conv13_2_conv13_2/relu_0_split_2
I0327 11:16:37.056947 10913 net.cpp:150] Setting up conv13_2_conv13_2/relu_0_split
I0327 11:16:37.056955 10913 net.cpp:157] Top shape: 2 128 1 1 (256)
I0327 11:16:37.056960 10913 net.cpp:157] Top shape: 2 128 1 1 (256)
I0327 11:16:37.056964 10913 net.cpp:157] Top shape: 2 128 1 1 (256)
I0327 11:16:37.056968 10913 net.cpp:165] Memory required for data: 139975200
I0327 11:16:37.056974 10913 layer_factory.hpp:77] Creating layer fire5/bn
I0327 11:16:37.056983 10913 net.cpp:100] Creating Layer fire5/bn
I0327 11:16:37.056990 10913 net.cpp:434] fire5/bn <- fire5/concat_fire5/concat_0_split_1
I0327 11:16:37.057001 10913 net.cpp:408] fire5/bn -> fire5/normal
I0327 11:16:37.057225 10913 net.cpp:150] Setting up fire5/bn
I0327 11:16:37.057236 10913 net.cpp:157] Top shape: 2 256 37 37 (700928)
I0327 11:16:37.057240 10913 net.cpp:165] Memory required for data: 142778912
I0327 11:16:37.057260 10913 layer_factory.hpp:77] Creating layer fire5/scale
I0327 11:16:37.057286 10913 net.cpp:100] Creating Layer fire5/scale
I0327 11:16:37.057291 10913 net.cpp:434] fire5/scale <- fire5/normal
I0327 11:16:37.057296 10913 net.cpp:395] fire5/scale -> fire5/normal (in-place)
I0327 11:16:37.057349 10913 layer_factory.hpp:77] Creating layer fire5/scale
I0327 11:16:37.057478 10913 net.cpp:150] Setting up fire5/scale
I0327 11:16:37.057487 10913 net.cpp:157] Top shape: 2 256 37 37 (700928)
I0327 11:16:37.057492 10913 net.cpp:165] Memory required for data: 145582624
I0327 11:16:37.057498 10913 layer_factory.hpp:77] Creating layer fire5/normal_fire5/scale_0_split
I0327 11:16:37.057508 10913 net.cpp:100] Creating Layer fire5/normal_fire5/scale_0_split
I0327 11:16:37.057514 10913 net.cpp:434] fire5/normal_fire5/scale_0_split <- fire5/normal
I0327 11:16:37.057523 10913 net.cpp:408] fire5/normal_fire5/scale_0_split -> fire5/normal_fire5/scale_0_split_0
I0327 11:16:37.057548 10913 net.cpp:408] fire5/normal_fire5/scale_0_split -> fire5/normal_fire5/scale_0_split_1
I0327 11:16:37.057559 10913 net.cpp:408] fire5/normal_fire5/scale_0_split -> fire5/normal_fire5/scale_0_split_2
I0327 11:16:37.057624 10913 net.cpp:150] Setting up fire5/normal_fire5/scale_0_split
I0327 11:16:37.057632 10913 net.cpp:157] Top shape: 2 256 37 37 (700928)
I0327 11:16:37.057636 10913 net.cpp:157] Top shape: 2 256 37 37 (700928)
I0327 11:16:37.057643 10913 net.cpp:157] Top shape: 2 256 37 37 (700928)
I0327 11:16:37.057648 10913 net.cpp:165] Memory required for data: 153993760
I0327 11:16:37.057656 10913 layer_factory.hpp:77] Creating layer fire5_mbox_loc
I0327 11:16:37.057670 10913 net.cpp:100] Creating Layer fire5_mbox_loc
I0327 11:16:37.057678 10913 net.cpp:434] fire5_mbox_loc <- fire5/normal_fire5/scale_0_split_0
I0327 11:16:37.057691 10913 net.cpp:408] fire5_mbox_loc -> fire5_mbox_loc
I0327 11:16:37.059829 10913 net.cpp:150] Setting up fire5_mbox_loc
I0327 11:16:37.059844 10913 net.cpp:157] Top shape: 2 16 37 37 (43808)
I0327 11:16:37.059847 10913 net.cpp:165] Memory required for data: 154168992
I0327 11:16:37.059857 10913 layer_factory.hpp:77] Creating layer fire5_mbox_loc_perm
I0327 11:16:37.059870 10913 net.cpp:100] Creating Layer fire5_mbox_loc_perm
I0327 11:16:37.059877 10913 net.cpp:434] fire5_mbox_loc_perm <- fire5_mbox_loc
I0327 11:16:37.059890 10913 net.cpp:408] fire5_mbox_loc_perm -> fire5_mbox_loc_perm
I0327 11:16:37.060017 10913 net.cpp:150] Setting up fire5_mbox_loc_perm
I0327 11:16:37.060029 10913 net.cpp:157] Top shape: 2 37 37 16 (43808)
I0327 11:16:37.060032 10913 net.cpp:165] Memory required for data: 154344224
I0327 11:16:37.060037 10913 layer_factory.hpp:77] Creating layer fire5_mbox_loc_flat
I0327 11:16:37.060048 10913 net.cpp:100] Creating Layer fire5_mbox_loc_flat
I0327 11:16:37.060055 10913 net.cpp:434] fire5_mbox_loc_flat <- fire5_mbox_loc_perm
I0327 11:16:37.060067 10913 net.cpp:408] fire5_mbox_loc_flat -> fire5_mbox_loc_flat
I0327 11:16:37.060107 10913 net.cpp:150] Setting up fire5_mbox_loc_flat
I0327 11:16:37.060115 10913 net.cpp:157] Top shape: 2 21904 (43808)
I0327 11:16:37.060119 10913 net.cpp:165] Memory required for data: 154519456
I0327 11:16:37.060124 10913 layer_factory.hpp:77] Creating layer fire5_mbox_conf_retrain
I0327 11:16:37.060140 10913 net.cpp:100] Creating Layer fire5_mbox_conf_retrain
I0327 11:16:37.060149 10913 net.cpp:434] fire5_mbox_conf_retrain <- fire5/normal_fire5/scale_0_split_1
I0327 11:16:37.060160 10913 net.cpp:408] fire5_mbox_conf_retrain -> fire5_mbox_conf_retrain
I0327 11:16:37.062158 10913 net.cpp:150] Setting up fire5_mbox_conf_retrain
I0327 11:16:37.062171 10913 net.cpp:157] Top shape: 2 28 37 37 (76664)
I0327 11:16:37.062175 10913 net.cpp:165] Memory required for data: 154826112
I0327 11:16:37.062186 10913 layer_factory.hpp:77] Creating layer fire5_mbox_conf_perm
I0327 11:16:37.062196 10913 net.cpp:100] Creating Layer fire5_mbox_conf_perm
I0327 11:16:37.062202 10913 net.cpp:434] fire5_mbox_conf_perm <- fire5_mbox_conf_retrain
I0327 11:16:37.062214 10913 net.cpp:408] fire5_mbox_conf_perm -> fire5_mbox_conf_perm
I0327 11:16:37.062338 10913 net.cpp:150] Setting up fire5_mbox_conf_perm
I0327 11:16:37.062347 10913 net.cpp:157] Top shape: 2 37 37 28 (76664)
I0327 11:16:37.062351 10913 net.cpp:165] Memory required for data: 155132768
I0327 11:16:37.062357 10913 layer_factory.hpp:77] Creating layer fire5_mbox_conf_flat
I0327 11:16:37.062366 10913 net.cpp:100] Creating Layer fire5_mbox_conf_flat
I0327 11:16:37.062372 10913 net.cpp:434] fire5_mbox_conf_flat <- fire5_mbox_conf_perm
I0327 11:16:37.062384 10913 net.cpp:408] fire5_mbox_conf_flat -> fire5_mbox_conf_flat
I0327 11:16:37.062425 10913 net.cpp:150] Setting up fire5_mbox_conf_flat
I0327 11:16:37.062433 10913 net.cpp:157] Top shape: 2 38332 (76664)
I0327 11:16:37.062436 10913 net.cpp:165] Memory required for data: 155439424
I0327 11:16:37.062440 10913 layer_factory.hpp:77] Creating layer fire5_mbox_priorbox
I0327 11:16:37.062463 10913 net.cpp:100] Creating Layer fire5_mbox_priorbox
I0327 11:16:37.062470 10913 net.cpp:434] fire5_mbox_priorbox <- fire5/normal_fire5/scale_0_split_2
I0327 11:16:37.062476 10913 net.cpp:434] fire5_mbox_priorbox <- data_data_0_split_1
I0327 11:16:37.062487 10913 net.cpp:408] fire5_mbox_priorbox -> fire5_mbox_priorbox
I0327 11:16:37.062533 10913 net.cpp:150] Setting up fire5_mbox_priorbox
I0327 11:16:37.062541 10913 net.cpp:157] Top shape: 1 2 21904 (43808)
I0327 11:16:37.062546 10913 net.cpp:165] Memory required for data: 155614656
I0327 11:16:37.062549 10913 layer_factory.hpp:77] Creating layer fire9_mbox_loc
I0327 11:16:37.062564 10913 net.cpp:100] Creating Layer fire9_mbox_loc
I0327 11:16:37.062572 10913 net.cpp:434] fire9_mbox_loc <- fire9/concat_fire9/concat_0_split_1
I0327 11:16:37.062583 10913 net.cpp:408] fire9_mbox_loc -> fire9_mbox_loc
I0327 11:16:37.065245 10913 net.cpp:150] Setting up fire9_mbox_loc
I0327 11:16:37.065258 10913 net.cpp:157] Top shape: 2 24 18 18 (15552)
I0327 11:16:37.065263 10913 net.cpp:165] Memory required for data: 155676864
I0327 11:16:37.065271 10913 layer_factory.hpp:77] Creating layer fire9_mbox_loc_perm
I0327 11:16:37.065284 10913 net.cpp:100] Creating Layer fire9_mbox_loc_perm
I0327 11:16:37.065291 10913 net.cpp:434] fire9_mbox_loc_perm <- fire9_mbox_loc
I0327 11:16:37.065301 10913 net.cpp:408] fire9_mbox_loc_perm -> fire9_mbox_loc_perm
I0327 11:16:37.065423 10913 net.cpp:150] Setting up fire9_mbox_loc_perm
I0327 11:16:37.065433 10913 net.cpp:157] Top shape: 2 18 18 24 (15552)
I0327 11:16:37.065436 10913 net.cpp:165] Memory required for data: 155739072
I0327 11:16:37.065441 10913 layer_factory.hpp:77] Creating layer fire9_mbox_loc_flat
I0327 11:16:37.065451 10913 net.cpp:100] Creating Layer fire9_mbox_loc_flat
I0327 11:16:37.065459 10913 net.cpp:434] fire9_mbox_loc_flat <- fire9_mbox_loc_perm
I0327 11:16:37.065469 10913 net.cpp:408] fire9_mbox_loc_flat -> fire9_mbox_loc_flat
I0327 11:16:37.065506 10913 net.cpp:150] Setting up fire9_mbox_loc_flat
I0327 11:16:37.065515 10913 net.cpp:157] Top shape: 2 7776 (15552)
I0327 11:16:37.065517 10913 net.cpp:165] Memory required for data: 155801280
I0327 11:16:37.065522 10913 layer_factory.hpp:77] Creating layer fire9_mbox_conf_retrain
I0327 11:16:37.065541 10913 net.cpp:100] Creating Layer fire9_mbox_conf_retrain
I0327 11:16:37.065549 10913 net.cpp:434] fire9_mbox_conf_retrain <- fire9/concat_fire9/concat_0_split_2
I0327 11:16:37.065557 10913 net.cpp:408] fire9_mbox_conf_retrain -> fire9_mbox_conf_retrain
I0327 11:16:37.068912 10913 net.cpp:150] Setting up fire9_mbox_conf_retrain
I0327 11:16:37.068924 10913 net.cpp:157] Top shape: 2 42 18 18 (27216)
I0327 11:16:37.068928 10913 net.cpp:165] Memory required for data: 155910144
I0327 11:16:37.068938 10913 layer_factory.hpp:77] Creating layer fire9_mbox_conf_perm
I0327 11:16:37.068949 10913 net.cpp:100] Creating Layer fire9_mbox_conf_perm
I0327 11:16:37.068958 10913 net.cpp:434] fire9_mbox_conf_perm <- fire9_mbox_conf_retrain
I0327 11:16:37.068969 10913 net.cpp:408] fire9_mbox_conf_perm -> fire9_mbox_conf_perm
I0327 11:16:37.069092 10913 net.cpp:150] Setting up fire9_mbox_conf_perm
I0327 11:16:37.069103 10913 net.cpp:157] Top shape: 2 18 18 42 (27216)
I0327 11:16:37.069108 10913 net.cpp:165] Memory required for data: 156019008
I0327 11:16:37.069113 10913 layer_factory.hpp:77] Creating layer fire9_mbox_conf_flat
I0327 11:16:37.069121 10913 net.cpp:100] Creating Layer fire9_mbox_conf_flat
I0327 11:16:37.069128 10913 net.cpp:434] fire9_mbox_conf_flat <- fire9_mbox_conf_perm
I0327 11:16:37.069140 10913 net.cpp:408] fire9_mbox_conf_flat -> fire9_mbox_conf_flat
I0327 11:16:37.069177 10913 net.cpp:150] Setting up fire9_mbox_conf_flat
I0327 11:16:37.069186 10913 net.cpp:157] Top shape: 2 13608 (27216)
I0327 11:16:37.069190 10913 net.cpp:165] Memory required for data: 156127872
I0327 11:16:37.069195 10913 layer_factory.hpp:77] Creating layer fire9_mbox_priorbox
I0327 11:16:37.069203 10913 net.cpp:100] Creating Layer fire9_mbox_priorbox
I0327 11:16:37.069211 10913 net.cpp:434] fire9_mbox_priorbox <- fire9/concat_fire9/concat_0_split_3
I0327 11:16:37.069233 10913 net.cpp:434] fire9_mbox_priorbox <- data_data_0_split_2
I0327 11:16:37.069245 10913 net.cpp:408] fire9_mbox_priorbox -> fire9_mbox_priorbox
I0327 11:16:37.069288 10913 net.cpp:150] Setting up fire9_mbox_priorbox
I0327 11:16:37.069298 10913 net.cpp:157] Top shape: 1 2 7776 (15552)
I0327 11:16:37.069303 10913 net.cpp:165] Memory required for data: 156190080
I0327 11:16:37.069308 10913 layer_factory.hpp:77] Creating layer fire10_mbox_loc
I0327 11:16:37.069321 10913 net.cpp:100] Creating Layer fire10_mbox_loc
I0327 11:16:37.069330 10913 net.cpp:434] fire10_mbox_loc <- fire10/concat_fire10/concat_0_split_1
I0327 11:16:37.069341 10913 net.cpp:408] fire10_mbox_loc -> fire10_mbox_loc
I0327 11:16:37.073680 10913 net.cpp:150] Setting up fire10_mbox_loc
I0327 11:16:37.073699 10913 net.cpp:157] Top shape: 2 24 9 9 (3888)
I0327 11:16:37.073705 10913 net.cpp:165] Memory required for data: 156205632
I0327 11:16:37.073717 10913 layer_factory.hpp:77] Creating layer fire10_mbox_loc_perm
I0327 11:16:37.073729 10913 net.cpp:100] Creating Layer fire10_mbox_loc_perm
I0327 11:16:37.073736 10913 net.cpp:434] fire10_mbox_loc_perm <- fire10_mbox_loc
I0327 11:16:37.073746 10913 net.cpp:408] fire10_mbox_loc_perm -> fire10_mbox_loc_perm
I0327 11:16:37.073927 10913 net.cpp:150] Setting up fire10_mbox_loc_perm
I0327 11:16:37.073937 10913 net.cpp:157] Top shape: 2 9 9 24 (3888)
I0327 11:16:37.073941 10913 net.cpp:165] Memory required for data: 156221184
I0327 11:16:37.073945 10913 layer_factory.hpp:77] Creating layer fire10_mbox_loc_flat
I0327 11:16:37.073954 10913 net.cpp:100] Creating Layer fire10_mbox_loc_flat
I0327 11:16:37.073961 10913 net.cpp:434] fire10_mbox_loc_flat <- fire10_mbox_loc_perm
I0327 11:16:37.073969 10913 net.cpp:408] fire10_mbox_loc_flat -> fire10_mbox_loc_flat
I0327 11:16:37.074012 10913 net.cpp:150] Setting up fire10_mbox_loc_flat
I0327 11:16:37.074023 10913 net.cpp:157] Top shape: 2 1944 (3888)
I0327 11:16:37.074028 10913 net.cpp:165] Memory required for data: 156236736
I0327 11:16:37.074033 10913 layer_factory.hpp:77] Creating layer fire10_mbox_conf_retrain
I0327 11:16:37.074048 10913 net.cpp:100] Creating Layer fire10_mbox_conf_retrain
I0327 11:16:37.074054 10913 net.cpp:434] fire10_mbox_conf_retrain <- fire10/concat_fire10/concat_0_split_2
I0327 11:16:37.074066 10913 net.cpp:408] fire10_mbox_conf_retrain -> fire10_mbox_conf_retrain
I0327 11:16:37.079097 10913 net.cpp:150] Setting up fire10_mbox_conf_retrain
I0327 11:16:37.079129 10913 net.cpp:157] Top shape: 2 42 9 9 (6804)
I0327 11:16:37.079134 10913 net.cpp:165] Memory required for data: 156263952
I0327 11:16:37.079144 10913 layer_factory.hpp:77] Creating layer fire10_mbox_conf_perm
I0327 11:16:37.079164 10913 net.cpp:100] Creating Layer fire10_mbox_conf_perm
I0327 11:16:37.079171 10913 net.cpp:434] fire10_mbox_conf_perm <- fire10_mbox_conf_retrain
I0327 11:16:37.079190 10913 net.cpp:408] fire10_mbox_conf_perm -> fire10_mbox_conf_perm
I0327 11:16:37.079324 10913 net.cpp:150] Setting up fire10_mbox_conf_perm
I0327 11:16:37.079335 10913 net.cpp:157] Top shape: 2 9 9 42 (6804)
I0327 11:16:37.079339 10913 net.cpp:165] Memory required for data: 156291168
I0327 11:16:37.079344 10913 layer_factory.hpp:77] Creating layer fire10_mbox_conf_flat
I0327 11:16:37.079354 10913 net.cpp:100] Creating Layer fire10_mbox_conf_flat
I0327 11:16:37.079360 10913 net.cpp:434] fire10_mbox_conf_flat <- fire10_mbox_conf_perm
I0327 11:16:37.079372 10913 net.cpp:408] fire10_mbox_conf_flat -> fire10_mbox_conf_flat
I0327 11:16:37.079411 10913 net.cpp:150] Setting up fire10_mbox_conf_flat
I0327 11:16:37.079419 10913 net.cpp:157] Top shape: 2 3402 (6804)
I0327 11:16:37.079422 10913 net.cpp:165] Memory required for data: 156318384
I0327 11:16:37.079427 10913 layer_factory.hpp:77] Creating layer fire10_mbox_priorbox
I0327 11:16:37.079437 10913 net.cpp:100] Creating Layer fire10_mbox_priorbox
I0327 11:16:37.079444 10913 net.cpp:434] fire10_mbox_priorbox <- fire10/concat_fire10/concat_0_split_3
I0327 11:16:37.079453 10913 net.cpp:434] fire10_mbox_priorbox <- data_data_0_split_3
I0327 11:16:37.079483 10913 net.cpp:408] fire10_mbox_priorbox -> fire10_mbox_priorbox
I0327 11:16:37.079530 10913 net.cpp:150] Setting up fire10_mbox_priorbox
I0327 11:16:37.079538 10913 net.cpp:157] Top shape: 1 2 1944 (3888)
I0327 11:16:37.079542 10913 net.cpp:165] Memory required for data: 156333936
I0327 11:16:37.079547 10913 layer_factory.hpp:77] Creating layer fire11_mbox_loc
I0327 11:16:37.079562 10913 net.cpp:100] Creating Layer fire11_mbox_loc
I0327 11:16:37.079571 10913 net.cpp:434] fire11_mbox_loc <- fire11/concat_fire11/concat_0_split_1
I0327 11:16:37.079582 10913 net.cpp:408] fire11_mbox_loc -> fire11_mbox_loc
I0327 11:16:37.082770 10913 net.cpp:150] Setting up fire11_mbox_loc
I0327 11:16:37.082783 10913 net.cpp:157] Top shape: 2 24 4 4 (768)
I0327 11:16:37.082787 10913 net.cpp:165] Memory required for data: 156337008
I0327 11:16:37.082795 10913 layer_factory.hpp:77] Creating layer fire11_mbox_loc_perm
I0327 11:16:37.082809 10913 net.cpp:100] Creating Layer fire11_mbox_loc_perm
I0327 11:16:37.082818 10913 net.cpp:434] fire11_mbox_loc_perm <- fire11_mbox_loc
I0327 11:16:37.082828 10913 net.cpp:408] fire11_mbox_loc_perm -> fire11_mbox_loc_perm
I0327 11:16:37.082957 10913 net.cpp:150] Setting up fire11_mbox_loc_perm
I0327 11:16:37.082967 10913 net.cpp:157] Top shape: 2 4 4 24 (768)
I0327 11:16:37.082969 10913 net.cpp:165] Memory required for data: 156340080
I0327 11:16:37.082975 10913 layer_factory.hpp:77] Creating layer fire11_mbox_loc_flat
I0327 11:16:37.082985 10913 net.cpp:100] Creating Layer fire11_mbox_loc_flat
I0327 11:16:37.082993 10913 net.cpp:434] fire11_mbox_loc_flat <- fire11_mbox_loc_perm
I0327 11:16:37.083003 10913 net.cpp:408] fire11_mbox_loc_flat -> fire11_mbox_loc_flat
I0327 11:16:37.083043 10913 net.cpp:150] Setting up fire11_mbox_loc_flat
I0327 11:16:37.083051 10913 net.cpp:157] Top shape: 2 384 (768)
I0327 11:16:37.083055 10913 net.cpp:165] Memory required for data: 156343152
I0327 11:16:37.083060 10913 layer_factory.hpp:77] Creating layer fire11_mbox_conf_retrain
I0327 11:16:37.083075 10913 net.cpp:100] Creating Layer fire11_mbox_conf_retrain
I0327 11:16:37.083082 10913 net.cpp:434] fire11_mbox_conf_retrain <- fire11/concat_fire11/concat_0_split_2
I0327 11:16:37.083096 10913 net.cpp:408] fire11_mbox_conf_retrain -> fire11_mbox_conf_retrain
I0327 11:16:37.087357 10913 net.cpp:150] Setting up fire11_mbox_conf_retrain
I0327 11:16:37.087371 10913 net.cpp:157] Top shape: 2 42 4 4 (1344)
I0327 11:16:37.087376 10913 net.cpp:165] Memory required for data: 156348528
I0327 11:16:37.087383 10913 layer_factory.hpp:77] Creating layer fire11_mbox_conf_perm
I0327 11:16:37.087397 10913 net.cpp:100] Creating Layer fire11_mbox_conf_perm
I0327 11:16:37.087404 10913 net.cpp:434] fire11_mbox_conf_perm <- fire11_mbox_conf_retrain
I0327 11:16:37.087415 10913 net.cpp:408] fire11_mbox_conf_perm -> fire11_mbox_conf_perm
I0327 11:16:37.087544 10913 net.cpp:150] Setting up fire11_mbox_conf_perm
I0327 11:16:37.087553 10913 net.cpp:157] Top shape: 2 4 4 42 (1344)
I0327 11:16:37.087558 10913 net.cpp:165] Memory required for data: 156353904
I0327 11:16:37.087571 10913 layer_factory.hpp:77] Creating layer fire11_mbox_conf_flat
I0327 11:16:37.087584 10913 net.cpp:100] Creating Layer fire11_mbox_conf_flat
I0327 11:16:37.087592 10913 net.cpp:434] fire11_mbox_conf_flat <- fire11_mbox_conf_perm
I0327 11:16:37.087602 10913 net.cpp:408] fire11_mbox_conf_flat -> fire11_mbox_conf_flat
I0327 11:16:37.087643 10913 net.cpp:150] Setting up fire11_mbox_conf_flat
I0327 11:16:37.087651 10913 net.cpp:157] Top shape: 2 672 (1344)
I0327 11:16:37.087654 10913 net.cpp:165] Memory required for data: 156359280
I0327 11:16:37.087658 10913 layer_factory.hpp:77] Creating layer fire11_mbox_priorbox
I0327 11:16:37.087671 10913 net.cpp:100] Creating Layer fire11_mbox_priorbox
I0327 11:16:37.087679 10913 net.cpp:434] fire11_mbox_priorbox <- fire11/concat_fire11/concat_0_split_3
I0327 11:16:37.087688 10913 net.cpp:434] fire11_mbox_priorbox <- data_data_0_split_4
I0327 11:16:37.087699 10913 net.cpp:408] fire11_mbox_priorbox -> fire11_mbox_priorbox
I0327 11:16:37.087754 10913 net.cpp:150] Setting up fire11_mbox_priorbox
I0327 11:16:37.087764 10913 net.cpp:157] Top shape: 1 2 384 (768)
I0327 11:16:37.087766 10913 net.cpp:165] Memory required for data: 156362352
I0327 11:16:37.087772 10913 layer_factory.hpp:77] Creating layer conv12_2_mbox_loc
I0327 11:16:37.087787 10913 net.cpp:100] Creating Layer conv12_2_mbox_loc
I0327 11:16:37.087795 10913 net.cpp:434] conv12_2_mbox_loc <- conv12_2_conv12_2/relu_0_split_1
I0327 11:16:37.087806 10913 net.cpp:408] conv12_2_mbox_loc -> conv12_2_mbox_loc
I0327 11:16:37.089467 10913 net.cpp:150] Setting up conv12_2_mbox_loc
I0327 11:16:37.089479 10913 net.cpp:157] Top shape: 2 24 2 2 (192)
I0327 11:16:37.089483 10913 net.cpp:165] Memory required for data: 156363120
I0327 11:16:37.089493 10913 layer_factory.hpp:77] Creating layer conv12_2_mbox_loc_perm
I0327 11:16:37.089503 10913 net.cpp:100] Creating Layer conv12_2_mbox_loc_perm
I0327 11:16:37.089510 10913 net.cpp:434] conv12_2_mbox_loc_perm <- conv12_2_mbox_loc
I0327 11:16:37.089524 10913 net.cpp:408] conv12_2_mbox_loc_perm -> conv12_2_mbox_loc_perm
I0327 11:16:37.089650 10913 net.cpp:150] Setting up conv12_2_mbox_loc_perm
I0327 11:16:37.089659 10913 net.cpp:157] Top shape: 2 2 2 24 (192)
I0327 11:16:37.089663 10913 net.cpp:165] Memory required for data: 156363888
I0327 11:16:37.089668 10913 layer_factory.hpp:77] Creating layer conv12_2_mbox_loc_flat
I0327 11:16:37.089676 10913 net.cpp:100] Creating Layer conv12_2_mbox_loc_flat
I0327 11:16:37.089684 10913 net.cpp:434] conv12_2_mbox_loc_flat <- conv12_2_mbox_loc_perm
I0327 11:16:37.089694 10913 net.cpp:408] conv12_2_mbox_loc_flat -> conv12_2_mbox_loc_flat
I0327 11:16:37.089735 10913 net.cpp:150] Setting up conv12_2_mbox_loc_flat
I0327 11:16:37.089743 10913 net.cpp:157] Top shape: 2 96 (192)
I0327 11:16:37.089746 10913 net.cpp:165] Memory required for data: 156364656
I0327 11:16:37.089751 10913 layer_factory.hpp:77] Creating layer conv12_2_mbox_conf_retrain
I0327 11:16:37.089766 10913 net.cpp:100] Creating Layer conv12_2_mbox_conf_retrain
I0327 11:16:37.089773 10913 net.cpp:434] conv12_2_mbox_conf_retrain <- conv12_2_conv12_2/relu_0_split_2
I0327 11:16:37.089785 10913 net.cpp:408] conv12_2_mbox_conf_retrain -> conv12_2_mbox_conf_retrain
I0327 11:16:37.092522 10913 net.cpp:150] Setting up conv12_2_mbox_conf_retrain
I0327 11:16:37.092535 10913 net.cpp:157] Top shape: 2 42 2 2 (336)
I0327 11:16:37.092538 10913 net.cpp:165] Memory required for data: 156366000
I0327 11:16:37.092548 10913 layer_factory.hpp:77] Creating layer conv12_2_mbox_conf_perm
I0327 11:16:37.092558 10913 net.cpp:100] Creating Layer conv12_2_mbox_conf_perm
I0327 11:16:37.092566 10913 net.cpp:434] conv12_2_mbox_conf_perm <- conv12_2_mbox_conf_retrain
I0327 11:16:37.092577 10913 net.cpp:408] conv12_2_mbox_conf_perm -> conv12_2_mbox_conf_perm
I0327 11:16:37.092702 10913 net.cpp:150] Setting up conv12_2_mbox_conf_perm
I0327 11:16:37.092710 10913 net.cpp:157] Top shape: 2 2 2 42 (336)
I0327 11:16:37.092715 10913 net.cpp:165] Memory required for data: 156367344
I0327 11:16:37.092720 10913 layer_factory.hpp:77] Creating layer conv12_2_mbox_conf_flat
I0327 11:16:37.092728 10913 net.cpp:100] Creating Layer conv12_2_mbox_conf_flat
I0327 11:16:37.092736 10913 net.cpp:434] conv12_2_mbox_conf_flat <- conv12_2_mbox_conf_perm
I0327 11:16:37.092746 10913 net.cpp:408] conv12_2_mbox_conf_flat -> conv12_2_mbox_conf_flat
I0327 11:16:37.092788 10913 net.cpp:150] Setting up conv12_2_mbox_conf_flat
I0327 11:16:37.092797 10913 net.cpp:157] Top shape: 2 168 (336)
I0327 11:16:37.092799 10913 net.cpp:165] Memory required for data: 156368688
I0327 11:16:37.092804 10913 layer_factory.hpp:77] Creating layer conv12_2_mbox_priorbox
I0327 11:16:37.092814 10913 net.cpp:100] Creating Layer conv12_2_mbox_priorbox
I0327 11:16:37.092821 10913 net.cpp:434] conv12_2_mbox_priorbox <- conv12_2_conv12_2/relu_0_split_3
I0327 11:16:37.092829 10913 net.cpp:434] conv12_2_mbox_priorbox <- data_data_0_split_5
I0327 11:16:37.092839 10913 net.cpp:408] conv12_2_mbox_priorbox -> conv12_2_mbox_priorbox
I0327 11:16:37.092895 10913 net.cpp:150] Setting up conv12_2_mbox_priorbox
I0327 11:16:37.092911 10913 net.cpp:157] Top shape: 1 2 96 (192)
I0327 11:16:37.092917 10913 net.cpp:165] Memory required for data: 156369456
I0327 11:16:37.092924 10913 layer_factory.hpp:77] Creating layer conv13_2_mbox_loc
I0327 11:16:37.092937 10913 net.cpp:100] Creating Layer conv13_2_mbox_loc
I0327 11:16:37.092945 10913 net.cpp:434] conv13_2_mbox_loc <- conv13_2_conv13_2/relu_0_split_0
I0327 11:16:37.092957 10913 net.cpp:408] conv13_2_mbox_loc -> conv13_2_mbox_loc
I0327 11:16:37.094286 10913 net.cpp:150] Setting up conv13_2_mbox_loc
I0327 11:16:37.094300 10913 net.cpp:157] Top shape: 2 16 1 1 (32)
I0327 11:16:37.094303 10913 net.cpp:165] Memory required for data: 156369584
I0327 11:16:37.094312 10913 layer_factory.hpp:77] Creating layer conv13_2_mbox_loc_perm
I0327 11:16:37.094323 10913 net.cpp:100] Creating Layer conv13_2_mbox_loc_perm
I0327 11:16:37.094332 10913 net.cpp:434] conv13_2_mbox_loc_perm <- conv13_2_mbox_loc
I0327 11:16:37.094343 10913 net.cpp:408] conv13_2_mbox_loc_perm -> conv13_2_mbox_loc_perm
I0327 11:16:37.094473 10913 net.cpp:150] Setting up conv13_2_mbox_loc_perm
I0327 11:16:37.094481 10913 net.cpp:157] Top shape: 2 1 1 16 (32)
I0327 11:16:37.094485 10913 net.cpp:165] Memory required for data: 156369712
I0327 11:16:37.094491 10913 layer_factory.hpp:77] Creating layer conv13_2_mbox_loc_flat
I0327 11:16:37.094499 10913 net.cpp:100] Creating Layer conv13_2_mbox_loc_flat
I0327 11:16:37.094506 10913 net.cpp:434] conv13_2_mbox_loc_flat <- conv13_2_mbox_loc_perm
I0327 11:16:37.094517 10913 net.cpp:408] conv13_2_mbox_loc_flat -> conv13_2_mbox_loc_flat
I0327 11:16:37.094558 10913 net.cpp:150] Setting up conv13_2_mbox_loc_flat
I0327 11:16:37.094566 10913 net.cpp:157] Top shape: 2 16 (32)
I0327 11:16:37.094569 10913 net.cpp:165] Memory required for data: 156369840
I0327 11:16:37.094575 10913 layer_factory.hpp:77] Creating layer conv13_2_mbox_conf_retrain
I0327 11:16:37.094589 10913 net.cpp:100] Creating Layer conv13_2_mbox_conf_retrain
I0327 11:16:37.094597 10913 net.cpp:434] conv13_2_mbox_conf_retrain <- conv13_2_conv13_2/relu_0_split_1
I0327 11:16:37.094609 10913 net.cpp:408] conv13_2_mbox_conf_retrain -> conv13_2_mbox_conf_retrain
I0327 11:16:37.096092 10913 net.cpp:150] Setting up conv13_2_mbox_conf_retrain
I0327 11:16:37.096105 10913 net.cpp:157] Top shape: 2 28 1 1 (56)
I0327 11:16:37.096108 10913 net.cpp:165] Memory required for data: 156370064
I0327 11:16:37.096118 10913 layer_factory.hpp:77] Creating layer conv13_2_mbox_conf_perm
I0327 11:16:37.096127 10913 net.cpp:100] Creating Layer conv13_2_mbox_conf_perm
I0327 11:16:37.096138 10913 net.cpp:434] conv13_2_mbox_conf_perm <- conv13_2_mbox_conf_retrain
I0327 11:16:37.096148 10913 net.cpp:408] conv13_2_mbox_conf_perm -> conv13_2_mbox_conf_perm
I0327 11:16:37.096272 10913 net.cpp:150] Setting up conv13_2_mbox_conf_perm
I0327 11:16:37.096280 10913 net.cpp:157] Top shape: 2 1 1 28 (56)
I0327 11:16:37.096284 10913 net.cpp:165] Memory required for data: 156370288
I0327 11:16:37.096289 10913 layer_factory.hpp:77] Creating layer conv13_2_mbox_conf_flat
I0327 11:16:37.096297 10913 net.cpp:100] Creating Layer conv13_2_mbox_conf_flat
I0327 11:16:37.096303 10913 net.cpp:434] conv13_2_mbox_conf_flat <- conv13_2_mbox_conf_perm
I0327 11:16:37.096313 10913 net.cpp:408] conv13_2_mbox_conf_flat -> conv13_2_mbox_conf_flat
I0327 11:16:37.096354 10913 net.cpp:150] Setting up conv13_2_mbox_conf_flat
I0327 11:16:37.096362 10913 net.cpp:157] Top shape: 2 28 (56)
I0327 11:16:37.096365 10913 net.cpp:165] Memory required for data: 156370512
I0327 11:16:37.096371 10913 layer_factory.hpp:77] Creating layer conv13_2_mbox_priorbox
I0327 11:16:37.096381 10913 net.cpp:100] Creating Layer conv13_2_mbox_priorbox
I0327 11:16:37.096388 10913 net.cpp:434] conv13_2_mbox_priorbox <- conv13_2_conv13_2/relu_0_split_2
I0327 11:16:37.096396 10913 net.cpp:434] conv13_2_mbox_priorbox <- data_data_0_split_6
I0327 11:16:37.096407 10913 net.cpp:408] conv13_2_mbox_priorbox -> conv13_2_mbox_priorbox
I0327 11:16:37.096464 10913 net.cpp:150] Setting up conv13_2_mbox_priorbox
I0327 11:16:37.096472 10913 net.cpp:157] Top shape: 1 2 16 (32)
I0327 11:16:37.096477 10913 net.cpp:165] Memory required for data: 156370640
I0327 11:16:37.096482 10913 layer_factory.hpp:77] Creating layer mbox_loc
I0327 11:16:37.096493 10913 net.cpp:100] Creating Layer mbox_loc
I0327 11:16:37.096498 10913 net.cpp:434] mbox_loc <- fire5_mbox_loc_flat
I0327 11:16:37.096508 10913 net.cpp:434] mbox_loc <- fire9_mbox_loc_flat
I0327 11:16:37.096514 10913 net.cpp:434] mbox_loc <- fire10_mbox_loc_flat
I0327 11:16:37.096523 10913 net.cpp:434] mbox_loc <- fire11_mbox_loc_flat
I0327 11:16:37.096529 10913 net.cpp:434] mbox_loc <- conv12_2_mbox_loc_flat
I0327 11:16:37.096537 10913 net.cpp:434] mbox_loc <- conv13_2_mbox_loc_flat
I0327 11:16:37.096549 10913 net.cpp:408] mbox_loc -> mbox_loc
I0327 11:16:37.096592 10913 net.cpp:150] Setting up mbox_loc
I0327 11:16:37.096599 10913 net.cpp:157] Top shape: 2 32120 (64240)
I0327 11:16:37.096603 10913 net.cpp:165] Memory required for data: 156627600
I0327 11:16:37.096608 10913 layer_factory.hpp:77] Creating layer mbox_conf
I0327 11:16:37.096618 10913 net.cpp:100] Creating Layer mbox_conf
I0327 11:16:37.096626 10913 net.cpp:434] mbox_conf <- fire5_mbox_conf_flat
I0327 11:16:37.096633 10913 net.cpp:434] mbox_conf <- fire9_mbox_conf_flat
I0327 11:16:37.096642 10913 net.cpp:434] mbox_conf <- fire10_mbox_conf_flat
I0327 11:16:37.096648 10913 net.cpp:434] mbox_conf <- fire11_mbox_conf_flat
I0327 11:16:37.096657 10913 net.cpp:434] mbox_conf <- conv12_2_mbox_conf_flat
I0327 11:16:37.096663 10913 net.cpp:434] mbox_conf <- conv13_2_mbox_conf_flat
I0327 11:16:37.096675 10913 net.cpp:408] mbox_conf -> mbox_conf
I0327 11:16:37.096715 10913 net.cpp:150] Setting up mbox_conf
I0327 11:16:37.096724 10913 net.cpp:157] Top shape: 2 56210 (112420)
I0327 11:16:37.096727 10913 net.cpp:165] Memory required for data: 157077280
I0327 11:16:37.096732 10913 layer_factory.hpp:77] Creating layer mbox_priorbox
I0327 11:16:37.096741 10913 net.cpp:100] Creating Layer mbox_priorbox
I0327 11:16:37.096748 10913 net.cpp:434] mbox_priorbox <- fire5_mbox_priorbox
I0327 11:16:37.096756 10913 net.cpp:434] mbox_priorbox <- fire9_mbox_priorbox
I0327 11:16:37.096765 10913 net.cpp:434] mbox_priorbox <- fire10_mbox_priorbox
I0327 11:16:37.096771 10913 net.cpp:434] mbox_priorbox <- fire11_mbox_priorbox
I0327 11:16:37.096778 10913 net.cpp:434] mbox_priorbox <- conv12_2_mbox_priorbox
I0327 11:16:37.096786 10913 net.cpp:434] mbox_priorbox <- conv13_2_mbox_priorbox
I0327 11:16:37.096796 10913 net.cpp:408] mbox_priorbox -> mbox_priorbox
I0327 11:16:37.096837 10913 net.cpp:150] Setting up mbox_priorbox
I0327 11:16:37.096844 10913 net.cpp:157] Top shape: 1 2 32120 (64240)
I0327 11:16:37.096848 10913 net.cpp:165] Memory required for data: 157334240
I0327 11:16:37.096853 10913 layer_factory.hpp:77] Creating layer mbox_loss
I0327 11:16:37.096869 10913 net.cpp:100] Creating Layer mbox_loss
I0327 11:16:37.096877 10913 net.cpp:434] mbox_loss <- mbox_loc
I0327 11:16:37.096885 10913 net.cpp:434] mbox_loss <- mbox_conf
I0327 11:16:37.096892 10913 net.cpp:434] mbox_loss <- mbox_priorbox
…
name: "squeezenet-ssd"
state {
  phase: TEST
}
layer {
  name: "data"
  type: "AnnotatedData"
  top: "data"
  top: "label"
  include {
    phase: TEST
  }
  transform_param {
    mean_value: 104
    mean_value: 117
    mean_value: 123
    resize_param {
      prob: 1
      resize_mode: WARP
      height: 300
      width: 300
      interp_mode: LINEAR
    }
  }
  data_param {
    source: "test_lmdb/"
    batch_size: 2
    backend: LMDB
  }
  annotated_data_param {
    batch_sampler {
    }
    label_map_file: "labelmap.prototxt"
  }
}
layer {
  name: "conv1"
  type: "Convolution"
  bottom: "data"
  top: "conv1"
  param {
    lr_mult: 1
    decay_mult: 0
  }
  param {
    lr_mult: 1
    decay_mult: 0
  }
  convolution_param {
    num_output: 64
    kernel_size: 3
    stride: 2
    weight_filler {
      type: "xavier"
    }
  }
}
layer {
  name: "relu_conv1"
  type: "ReLU"
  bottom: "conv1"
  top: "conv1"
}
layer {
  name: "pool1"
  type: "Pooling"
  bottom: "conv1"
  top: "pool1"
  pooling_param {
    pool: MAX
    kernel_size: 3
    stride: 2
  }
}
layer {
  name: "fire2/squeeze1x1"
  type: "Convolution"
  bottom: "pool1"
  top: "fire2/squeeze1x1"
  param {
    lr_mult: 1
    decay_mult: 0
  }
  param {
    lr_mult: 1
    decay_mult: 0
  }
  convolution_param {
    num_output: 16
    kernel_size: 1
    weight_filler {
      type: "xavier"
    }
  }
}
layer {
  name: "fire2/relu_squeeze1x1"
  type: "ReLU"
  bottom: "fire2/squeeze1x1"
  top: "fire2/squeeze1x1"
}
layer {
  name: "fire2/expand1x1"
  type: "Convolution"
  bottom: "fire2/squeeze1x1"
  top: "fire2/expand1x1"
  param {
    lr_mult: 1
    decay_mult: 0
  }
  param {
    lr_mult: 1
    decay_mult: 0
  }
  convolution_param {
    num_output: 64
    kernel_size: 1
    weight_filler {
      type: "xavier"
    }
  }
}
layer {
  name: "fire2/relu_expand1x1"
  type: "ReLU"
  bottom: "fire2/expand1x1"
  top: "fire2/expand1x1"
}
layer {
  name: "fire2/expand3x3"
  type: "Convolution"
  bottom: "fire2/squeeze1x1"
  top: "fire2/expand3x3"
  param {
    lr_mult: 1
    decay_mult: 0
  }
  param {
    lr_mult: 1
    decay_mult: 0
  }
  convolution_param {
    num_output: 64
    pad: 1
    kernel_size: 3
    weight_filler {
      type: "xavier"
    }
  }
}
layer {
  name: "fire2/relu_expand3x3"
  type: "ReLU"
  bottom: "fire2/expand3x3"
  top: "fire2/expand3x3"
}
layer {
  name: "fire2/concat"
  type: "Concat"
  bottom: "fire2/expand1x1"
  bottom: "fire2/expand3x3"
  top: "fire2/concat"
}
layer {
  name: "fire3/squeeze1x1"
  type: "Convolution"
  bottom: "fire2/concat"
  top: "fire3/squeeze1x1"
  param {
    lr_mult: 1
    decay_mult: 0
  }
  param {
    lr_mult: 1
    decay_mult: 0
  }
  convolution_param {
    num_output: 16
    kernel_size: 1
    weight_filler {
      type: "xavier"
    }
  }
}
layer {
  name: "fire3/relu_squeeze1x1"
  type: "ReLU"
  bottom: "fire3/squeeze1x1"
  top: "fire3/squeeze1x1"
}
layer {
  name: "fire3/expand1x1"
  type: "Convolution"
  bottom: "fire3/squeeze1x1"
  top: "fire3/expand1x1"
  param {
    lr_mult: 1
    decay_mult: 0
  }
  param {
    lr_mult: 1
    decay_mult: 0
  }
  convolution_param {
    num_output: 64
    kernel_size: 1
    weight_filler {
      type: "xavier"
    }
  }
}
layer {
  name: "fire3/relu_expand1x1"
  type: "ReLU"
  bottom: "fire3/expand1x1"
  top: "fire3/expand1x1"
}
layer {
  name: "fire3/expand3x3"
  type: "Convolution"
  bottom: "fire3/squeeze1x1"
  top: "fire3/expand3x3"
  param {
    lr_mult: 1
    decay_mult: 0
  }
  param {
    lr_mult: 1
    decay_mult: 0
  }
  convolution_param {
    num_output: 64
    pad: 1
    kernel_size: 3
    weight_filler {
      type: "xavier"
    }
  }
}
layer {
  name: "fire3/relu_expand3x3"
  type: "ReLU"
  bottom: "fire3/expand3x3"
  top: "fire3/expand3x3"
}
layer {
  name: "fire3/concat"
  type: "Concat"
  bottom: "fire3/expand1x1"
  bottom: "fire3/expand3x3"
  top: "fire3/concat"
}
layer {
  name: "pool3"
  type: "Pooling"
  bottom: "fire3/concat"
  top: "pool3"
  pooling_param {
    pool: MAX
    kernel_size: 3
    stride: 2
  }
}
layer {
  name: "fire4/squeeze1x1"
  type: "Convolution"
  bottom: "pool3"
  top: "fire4/squeeze1x1"
  param {
    lr_mult: 1
    decay_mult: 0
  }
  param {
    lr_mult: 1
    decay_mult: 0
  }
  convolution_param {
    num_output: 32
    kernel_size: 1
    weight_filler {
      type: "xavier"
    }
  }
}
layer {
  name: "fire4/relu_squeeze1x1"
  type: "ReLU"
  bottom: "fire4/squeeze1x1"
  top: "fire4/squeeze1x1"
}
layer {
  name: "fire4/expand1x1"
  type: "Convolution"
  bottom: "fire4/squeeze1x1"
  top: "fire4/expand1x1"
  param {
    lr_mult: 1
    decay_mult: 0
  }
  param {
    lr_mult: 1
    decay_mult: 0
  }
  convolution_param {
    num_output: 128
    kernel_size: 1
    weight_filler {
      type: "xavier"
    }
  }
}
layer {
  name: "fire4/relu_expand1x1"
  type: "ReLU"
  bottom: "fire4/expand1x1"
  top: "fire4/expand1x1"
}
layer {
  name: "fire4/expand3x3"
  type: "Convolution"
  bottom: "fire4/squeeze1x1"
  top: "fire4/expand3x3"
  param {
    lr_mult: 1
    decay_mult: 0
  }
  param {
    lr_mult: 1
    decay_mult: 0
  }
  convolution_param {
    num_output: 128
    pad: 1
    kernel_size: 3
    weight_filler {
      type: "xavier"
    }
  }
}
layer {
  name: "fire4/relu_expand3x3"
  type: "ReLU"
  bottom: "fire4/expand3x3"
  top: "fire4/expand3x3"
}
layer {
  name: "fire4/concat"
  type: "Concat"
  bottom: "fire4/expand1x1"
  bottom: "fire4/expand3x3"
  top: "fire4/concat"
}
layer {
  name: "fire5/squeeze1x1"
  type: "Convolution"
  bottom: "fire4/concat"
  top: "fire5/squeeze1x1"
  param {
    lr_mult: 1
    decay_mult: 0
  }
  param {
    lr_mult: 1
    decay_mult: 0
  }
  convolution_param {
    num_output: 32
    kernel_size: 1
    weight_filler {
      type: "xavier"
    }
  }
}
layer {
  name: "fire5/relu_squeeze1x1"
  type: "ReLU"
  bottom: "fire5/squeeze1x1"
  top: "fire5/squeeze1x1"
}
layer {
  name: "fire5/expand1x1"
  type: "Convolution"
  bottom: "fire5/squeeze1x1"
  top: "fire5/expand1x1"
  param {
    lr_mult: 1
    decay_mult: 0
  }
  param {
    lr_mult: 1
    decay_mult: 0
  }
  convolution_param {
    num_output: 128
    kernel_size: 1
    weight_filler {
      type: "xavier"
    }
  }
}
layer {
  name: "fire5/relu_expand1x1"
  type: "ReLU"
  bottom: "fire5/expand1x1"
  top: "fire5/expand1x1"
}
layer {
  name: "fire5/expand3x3"
  type: "Convolution"
  bottom: "fire5/squeeze1x1"
  top: "fire5/expand3x3"
  param {
    lr_mult: 1
    decay_mult: 0
  }
  param {
    lr_mult: 1
    decay_mult: 0
  }
  convolution_param {
    num_output: 128
    pad: 1
    kernel_size: 3
    weight_filler {
      type: "xavier"
    }
  }
}
layer {
  name: "fire5/relu_expand3x3"
  type: "ReLU"
  bottom: "fire5/expand3x3"
  top: "fire5/expand3x3"
}
layer {
  name: "fire5/concat"
  type: "Concat"
  bottom: "fire5/expand1x1"
  bottom: "fire5/expand3x3"
  top: "fire5/concat"
}
layer {
  name: "pool5"
  type: "Pooling"
  bottom: "fire5/concat"
  top: "pool5"
  pooling_param {
    pool: MAX
    kernel_size: 3
    stride: 2
  }
}
layer {
  name: "fire6/squeeze1x1"
  type: "Convolution"
  bottom: "pool5"
  top: "fire6/squeeze1x1"
  param {
    lr_mult: 1
    decay_mult: 0
  }
  param {
    lr_mult: 1
    decay_mult: 0
  }
  convolution_param {
    num_output: 48
    kernel_size: 1
    weight_filler {
      type: "xavier"
    }
  }
}
layer {
  name: "fire6/relu_squeeze1x1"
  type: "ReLU"
  bottom: "fire6/squeeze1x1"
  top: "fire6/squeeze1x1"
}
layer {
  name: "fire6/expand1x1"
  type: "Convolution"
  bottom: "fire6/squeeze1x1"
  top: "fire6/expand1x1"
  param {
    lr_mult: 1
    decay_mult: 0
  }
  param {
    lr_mult: 1
    decay_mult: 0
  }
  convolution_param {
    num_output: 192
    kernel_size: 1
    weight_filler {
      type: "xavier"
    }
  }
}
layer {
  name: "fire6/relu_expand1x1"
  type: "ReLU"
  bottom: "fire6/expand1x1"
  top: "fire6/expand1x1"
}
layer {
  name: "fire6/expand3x3"
  type: "Convolution"
  bottom: "fire6/squeeze1x1"
  top: "fire6/expand3x3"
  param {
    lr_mult: 1
    decay_mult: 0
  }
  param {
    lr_mult: 1
    decay_mult: 0
  }
  convolution_param {
    num_output: 192
    pad: 1
    kernel_size: 3
    weight_filler {
      type: "xavier"
    }
  }
}
layer {
  name: "fire6/relu_expand3x3"
  type: "ReLU"
  bottom: "fire6/expand3x3"
  top: "fire6/expand3x3"
}
layer {
  name: "fire6/concat"
  type: "Concat"
  bottom: "fire6/expand1x1"
  bottom: "fire6/expand3x3"
  top: "fire6/concat"
}
layer {
  name: "fire7/squeeze1x1"
  type: "Convolution"
  bottom: "fire6/concat"
  top: "fire7/squeeze1x1"
  param {
    lr_mult: 1
    decay_mult: 0
  }
  param {
    lr_mult: 1
    decay_mult: 0
  }
  convolution_param {
    num_output: 48
    kernel_size: 1
    weight_filler {
      type: "xavier"
    }
  }
}
layer {
  name: "fire7/relu_squeeze1x1"
  type: "ReLU"
  bottom: "fire7/squeeze1x1"
  top: "fire7/squeeze1x1"
}
layer {
  name: "fire7/expand1x1"
  type: "Convolution"
  bottom: "fire7/squeeze1x1"
  top: "fire7/expand1x1"
  param {
    lr_mult: 1
    decay_mult: 0
  }
  param {
    lr_mult: 1
    decay_mult: 0
  }
  convolution_param {
    num_output: 192
    kernel_size: 1
    weight_filler {
      type: "xavier"
    }
  }
}
layer {
  name: "fire7/relu_expand1x1"
  type: "ReLU"
  bottom: "fire7/expand1x1"
  top: "fire7/expand1x1"
}
layer {
  name: "fire7/expand3x3"
  type: "Convolution"
  bottom: "fire7/squeeze1x1"
  top: "fire7/expand3x3"
  param {
    lr_mult: 1
    decay_mult: 0
  }
  param {
    lr_mult: 1
    decay_mult: 0
  }
  convolution_param {
    num_output: 192
    pad: 1
    kernel_size: 3
    weight_filler {
      type: "xavier"
    }
  }
}
layer {
  name: "fire7/relu_expand3x3"
  type: "ReLU"
  bottom: "fire7/expand3x3"
  top: "fire7/expand3x3"
}
layer {
  name: "fire7/concat"
  type: "Concat"
  bottom: "fire7/expand1x1"
  bottom: "fire7/expand3x3"
  top: "fire7/concat"
}
layer {
  name: "fire8/squeeze1x1"
  type: "Convolution"
  bottom: "fire7/concat"
  top: "fire8/squeeze1x1"
  param {
    lr_mult: 1
    decay_mult: 0
  }
  param {
    lr_mult: 1
    decay_mult: 0
  }
  convolution_param {
    num_output: 64
    kernel_size: 1
    weight_filler {
      type: "xavier"
    }
  }
}
layer {
  name: "fire8/relu_squeeze1x1"
  type: "ReLU"
  bottom: "fire8/squeeze1x1"
  top: "fire8/squeeze1x1"
}
layer {
  name: "fire8/expand1x1"
  type: "Convolution"
  bottom: "fire8/squeeze1x1"
  top: "fire8/expand1x1"
  param {
    lr_mult: 1
    decay_mult: 0
  }
  param {
    lr_mult: 1
    decay_mult: 0
  }
  convolution_param {
    num_output: 256
    kernel_size: 1
    weight_filler {
      type: "xavier"
    }
  }
}
layer {
  name: "fire8/relu_expand1x1"
  type: "ReLU"
  bottom: "fire8/expand1x1"
  top: "fire8/expand1x1"
}
layer {
  name: "fire8/expand3x3"
  type: "Convolution"
  bottom: "fire8/squeeze1x1"
  top: "fire8/expand3x3"
  param {
    lr_mult: 1
    decay_mult: 0
  }
  param {
    lr_mult: 1
    decay_mult: 0
  }
  convolution_param {
    num_output: 256
    pad: 1
    kernel_size: 3
    weight_filler {
      type: "xavier"
    }
  }
}
layer {
  name: "fire8/relu_expand3x3"
  type: "ReLU"
  bottom: "fire8/expand3x3"
  top: "fire8/expand3x3"
}
…
I0327 11:16:37.178175 10913 net.cpp:408] fire11/squeeze1x1_fire11/relu_squeeze1x1_0_split -> fire11/squeeze1x1_fire11/relu_squeeze1x1_0_split_0
I0327 11:16:37.178186 10913 net.cpp:408] fire11/squeeze1x1_fire11/relu_squeeze1x1_0_split -> fire11/squeeze1x1_fire11/relu_squeeze1x1_0_split_1
I0327 11:16:37.178248 10913 net.cpp:150] Setting up fire11/squeeze1x1_fire11/relu_squeeze1x1_0_split
I0327 11:16:37.178257 10913 net.cpp:157] Top shape: 2 96 4 4 (3072)
I0327 11:16:37.178263 10913 net.cpp:157] Top shape: 2 96 4 4 (3072)
I0327 11:16:37.178269 10913 net.cpp:165] Memory required for data: 138944032
I0327 11:16:37.178275 10913 layer_factory.hpp:77] Creating layer fire11/expand1x1
I0327 11:16:37.178287 10913 net.cpp:100] Creating Layer fire11/expand1x1
I0327 11:16:37.178294 10913 net.cpp:434] fire11/expand1x1 <- fire11/squeeze1x1_fire11/relu_squeeze1x1_0_split_0
I0327 11:16:37.178304 10913 net.cpp:408] fire11/expand1x1 -> fire11/expand1x1
I0327 11:16:37.180539 10913 net.cpp:150] Setting up fire11/expand1x1
I0327 11:16:37.180557 10913 net.cpp:157] Top shape: 2 384 4 4 (12288)
I0327 11:16:37.180564 10913 net.cpp:165] Memory required for data: 138993184
I0327 11:16:37.180577 10913 layer_factory.hpp:77] Creating layer fire11/expand1x1/bn
I0327 11:16:37.180588 10913 net.cpp:100] Creating Layer fire11/expand1x1/bn
I0327 11:16:37.180594 10913 net.cpp:434] fire11/expand1x1/bn <- fire11/expand1x1
I0327 11:16:37.180603 10913 net.cpp:395] fire11/expand1x1/bn -> fire11/expand1x1 (in-place)
I0327 11:16:37.180879 10913 net.cpp:150] Setting up fire11/expand1x1/bn
I0327 11:16:37.180888 10913 net.cpp:157] Top shape: 2 384 4 4 (12288)
I0327 11:16:37.180908 10913 net.cpp:165] Memory required for data: 139042336
I0327 11:16:37.180919 10913 layer_factory.hpp:77] Creating layer fire11/expand1x1/scale
I0327 11:16:37.180928 10913 net.cpp:100] Creating Layer fire11/expand1x1/scale
I0327 11:16:37.180932 10913 net.cpp:434] fire11/expand1x1/scale <- fire11/expand1x1
I0327 11:16:37.180938 10913 net.cpp:395] fire11/expand1x1/scale -> fire11/expand1x1 (in-place)
I0327 11:16:37.181005 10913 layer_factory.hpp:77] Creating layer fire11/expand1x1/scale
I0327 11:16:37.181185 10913 net.cpp:150] Setting up fire11/expand1x1/scale
I0327 11:16:37.181193 10913 net.cpp:157] Top shape: 2 384 4 4 (12288)
I0327 11:16:37.181207 10913 net.cpp:165] Memory required for data: 139091488
I0327 11:16:37.181216 10913 layer_factory.hpp:77] Creating layer fire11/relu_expand1x1
I0327 11:16:37.181226 10913 net.cpp:100] Creating Layer fire11/relu_expand1x1
I0327 11:16:37.181231 10913 net.cpp:434] fire11/relu_expand1x1 <- fire11/expand1x1
I0327 11:16:37.181238 10913 net.cpp:395] fire11/relu_expand1x1 -> fire11/expand1x1 (in-place)
I0327 11:16:37.181867 10913 net.cpp:150] Setting up fire11/relu_expand1x1
I0327 11:16:37.181880 10913 net.cpp:157] Top shape: 2 384 4 4 (12288)
I0327 11:16:37.181886 10913 net.cpp:165] Memory required for data: 139140640
I0327 11:16:37.181893 10913 layer_factory.hpp:77] Creating layer fire11/expand3x3
I0327 11:16:37.181905 10913 net.cpp:100] Creating Layer fire11/expand3x3
I0327 11:16:37.181910 10913 net.cpp:434] fire11/expand3x3 <- fire11/squeeze1x1_fire11/relu_squeeze1x1_0_split_1
I0327 11:16:37.181916 10913 net.cpp:408] fire11/expand3x3 -> fire11/expand3x3
I0327 11:16:37.185453 10913 net.cpp:150] Setting up fire11/expand3x3
I0327 11:16:37.185467 10913 net.cpp:157] Top shape: 2 384 4 4 (12288)
I0327 11:16:37.185472 10913 net.cpp:165] Memory required for data: 139189792
I0327 11:16:37.185482 10913 layer_factory.hpp:77] Creating layer fire11/expand3x3/bn
I0327 11:16:37.185493 10913 net.cpp:100] Creating Layer fire11/expand3x3/bn
I0327 11:16:37.185499 10913 net.cpp:434] fire11/expand3x3/bn <- fire11/expand3x3
I0327 11:16:37.185508 10913 net.cpp:395] fire11/expand3x3/bn -> fire11/expand3x3 (in-place)
I0327 11:16:37.185799 10913 net.cpp:150] Setting up fire11/expand3x3/bn
I0327 11:16:37.185809 10913 net.cpp:157] Top shape: 2 384 4 4 (12288)
I0327 11:16:37.185814 10913 net.cpp:165] Memory required for data: 139238944
I0327 11:16:37.185827 10913 layer_factory.hpp:77] Creating layer fire11/expand3x3/scale
I0327 11:16:37.185837 10913 net.cpp:100] Creating Layer fire11/expand3x3/scale
I0327 11:16:37.185842 10913 net.cpp:434] fire11/expand3x3/scale <- fire11/expand3x3
I0327 11:16:37.185849 10913 net.cpp:395] fire11/expand3x3/scale -> fire11/expand3x3 (in-place)
I0327 11:16:37.185907 10913 layer_factory.hpp:77] Creating layer fire11/expand3x3/scale
I0327 11:16:37.186064 10913 net.cpp:150] Setting up fire11/expand3x3/scale
I0327 11:16:37.186071 10913 net.cpp:157] Top shape: 2 384 4 4 (12288)
I0327 11:16:37.186074 10913 net.cpp:165] Memory required for data: 139288096
I0327 11:16:37.186084 10913 layer_factory.hpp:77] Creating layer fire11/relu_expand3x3
I0327 11:16:37.186092 10913 net.cpp:100] Creating Layer fire11/relu_expand3x3
I0327 11:16:37.186098 10913 net.cpp:434] fire11/relu_expand3x3 <- fire11/expand3x3
I0327 11:16:37.186106 10913 net.cpp:395] fire11/relu_expand3x3 -> fire11/expand3x3 (in-place)
I0327 11:16:37.186285 10913 net.cpp:150] Setting up fire11/relu_expand3x3
I0327 11:16:37.186295 10913 net.cpp:157] Top shape: 2 384 4 4 (12288)
I0327 11:16:37.186301 10913 net.cpp:165] Memory required for data: 139337248
I0327 11:16:37.186307 10913 layer_factory.hpp:77] Creating layer fire11/concat
I0327 11:16:37.186314 10913 net.cpp:100] Creating Layer fire11/concat
I0327 11:16:37.186318 10913 net.cpp:434] fire11/concat <- fire11/expand1x1
I0327 11:16:37.186323 10913 net.cpp:434] fire11/concat <- fire11/expand3x3
I0327 11:16:37.186333 10913 net.cpp:408] fire11/concat -> fire11/concat
I0327 11:16:37.186373 10913 net.cpp:150] Setting up fire11/concat
I0327 11:16:37.186384 10913 net.cpp:157] Top shape: 2 768 4 4 (24576)
I0327 11:16:37.186389 10913 net.cpp:165] Memory required for data: 139435552
I0327 11:16:37.186395 10913 layer_factory.hpp:77] Creating layer fire11/concat_fire11/concat_0_split
I0327 11:16:37.186403 10913 net.cpp:100] Creating Layer fire11/concat_fire11/concat_0_split
I0327 11:16:37.186406 10913 net.cpp:434] fire11/concat_fire11/concat_0_split <- fire11/concat
I0327 11:16:37.186419 10913 net.cpp:408] fire11/concat_fire11/concat_0_split -> fire11/concat_fire11/concat_0_split_0
I0327 11:16:37.186429 10913 net.cpp:408] fire11/concat_fire11/concat_0_split -> fire11/concat_fire11/concat_0_split_1
I0327 11:16:37.186437 10913 net.cpp:408] fire11/concat_fire11/concat_0_split -> fire11/concat_fire11/concat_0_split_2
I0327 11:16:37.186447 10913 net.cpp:408] fire11/concat_fire11/concat_0_split -> fire11/concat_fire11/concat_0_split_3
I0327 11:16:37.186534 10913 net.cpp:150] Setting up fire11/concat_fire11/concat_0_split
I0327 11:16:37.186542 10913 net.cpp:157] Top shape: 2 768 4 4 (24576)
I0327 11:16:37.186547 10913 net.cpp:157] Top shape: 2 768 4 4 (24576)
I0327 11:16:37.186553 10913 net.cpp:157] Top shape: 2 768 4 4 (24576)
I0327 11:16:37.186559 10913 net.cpp:157] Top shape: 2 768 4 4 (24576)
I0327 11:16:37.186565 10913 net.cpp:165] Memory required for data: 139828768
I0327 11:16:37.186571 10913 layer_factory.hpp:77] Creating layer conv12_1
I0327 11:16:37.186581 10913 net.cpp:100] Creating Layer conv12_1
I0327 11:16:37.186588 10913 net.cpp:434] conv12_1 <- fire11/concat_fire11/concat_0_split_0
I0327 11:16:37.186594 10913 net.cpp:408] conv12_1 -> conv12_1
I0327 11:16:37.189138 10913 net.cpp:150] Setting up conv12_1
I0327 11:16:37.189152 10913 net.cpp:157] Top shape: 2 128 4 4 (4096)
I0327 11:16:37.189157 10913 net.cpp:165] Memory required for data: 139845152
I0327 11:16:37.189165 10913 layer_factory.hpp:77] Creating layer conv12_1/bn
I0327 11:16:37.189175 10913 net.cpp:100] Creating Layer conv12_1/bn
I0327 11:16:37.189182 10913 net.cpp:434] conv12_1/bn <- conv12_1
I0327 11:16:37.189191 10913 net.cpp:395] conv12_1/bn -> conv12_1 (in-place)
I0327 11:16:37.189343 10913 net.cpp:150] Setting up conv12_1/bn
I0327 11:16:37.189352 10913 net.cpp:157] Top shape: 2 128 4 4 (4096)
I0327 11:16:37.189365 10913 net.cpp:165] Memory required for data: 139861536
I0327 11:16:37.189373 10913 layer_factory.hpp:77] Creating layer conv12_1/scale
I0327 11:16:37.189383 10913 net.cpp:100] Creating Layer conv12_1/scale
I0327 11:16:37.189388 10913 net.cpp:434] conv12_1/scale <- conv12_1
I0327 11:16:37.189399 10913 net.cpp:395] conv12_1/scale -> conv12_1 (in-place)
I0327 11:16:37.189435 10913 layer_factory.hpp:77] Creating layer conv12_1/scale
I0327 11:16:37.189525 10913 net.cpp:150] Setting up conv12_1/scale
I0327 11:16:37.189535 10913 net.cpp:157] Top shape: 2 128 4 4 (4096)
I0327 11:16:37.189540 10913 net.cpp:165] Memory required for data: 139877920
I0327 11:16:37.189548 10913 layer_factory.hpp:77] Creating layer conv12_1/relu
I0327 11:16:37.189555 10913 net.cpp:100] Creating Layer conv12_1/relu
I0327 11:16:37.189560 10913 net.cpp:434] conv12_1/relu <- conv12_1
I0327 11:16:37.189570 10913 net.cpp:395] conv12_1/relu -> conv12_1 (in-place)
I0327 11:16:37.189972 10913 net.cpp:150] Setting up conv12_1/relu
I0327 11:16:37.189985 10913 net.cpp:157] Top shape: 2 128 4 4 (4096)
I0327 11:16:37.189988 10913 net.cpp:165] Memory required for data: 139894304
I0327 11:16:37.189996 10913 layer_factory.hpp:77] Creating layer conv12_2
I0327 11:16:37.190008 10913 net.cpp:100] Creating Layer conv12_2
I0327 11:16:37.190014 10913 net.cpp:434] conv12_2 <- conv12_1
I0327 11:16:37.190021 10913 net.cpp:408] conv12_2 -> conv12_2
I0327 11:16:37.194258 10913 net.cpp:150] Setting up conv12_2
I0327 11:16:37.194272 10913 net.cpp:157] Top shape: 2 256 2 2 (2048)
I0327 11:16:37.194279 10913 net.cpp:165] Memory required for data: 139902496
I0327 11:16:37.194289 10913 layer_factory.hpp:77] Creating layer conv12_2/bn
I0327 11:16:37.194299 10913 net.cpp:100] Creating Layer conv12_2/bn
I0327 11:16:37.194304 10913 net.cpp:434] conv12_2/bn <- conv12_2
I0327 11:16:37.194313 10913 net.cpp:395] conv12_2/bn -> conv12_2 (in-place)
I0327 11:16:37.194468 10913 net.cpp:150] Setting up conv12_2/bn
I0327 11:16:37.194475 10913 net.cpp:157] Top shape: 2 256 2 2 (2048)
I0327 11:16:37.194479 10913 net.cpp:165] Memory required for data: 139910688
I0327 11:16:37.194486 10913 layer_factory.hpp:77] Creating layer conv12_2/scale
I0327 11:16:37.194497 10913 net.cpp:100] Creating Layer conv12_2/scale
I0327 11:16:37.194504 10913 net.cpp:434] conv12_2/scale <- conv12_2
I0327 11:16:37.194512 10913 net.cpp:395] conv12_2/scale -> conv12_2 (in-place)
I0327 11:16:37.194550 10913 layer_factory.hpp:77] Creating layer conv12_2/scale
I0327 11:16:37.194638 10913 net.cpp:150] Setting up conv12_2/scale
I0327 11:16:37.194648 10913 net.cpp:157] Top shape: 2 256 2 2 (2048)
I0327 11:16:37.194653 10913 net.cpp:165] Memory required for data: 139918880
I0327 11:16:37.194661 10913 layer_factory.hpp:77] Creating layer conv12_2/relu
I0327 11:16:37.194671 10913 net.cpp:100] Creating Layer conv12_2/relu
I0327 11:16:37.194677 10913 net.cpp:434] conv12_2/relu <- conv12_2
I0327 11:16:37.194684 10913 net.cpp:395] conv12_2/relu -> conv12_2 (in-place)
I0327 11:16:37.194855 10913 net.cpp:150] Setting up conv12_2/relu
I0327 11:16:37.194866 10913 net.cpp:157] Top shape: 2 256 2 2 (2048)
I0327 11:16:37.194872 10913 net.cpp:165] Memory required for data: 139927072
I0327 11:16:37.194878 10913 layer_factory.hpp:77] Creating layer conv12_2_conv12_2/relu_0_split
I0327 11:16:37.194886 10913 net.cpp:100] Creating Layer conv12_2_conv12_2/relu_0_split
I0327 11:16:37.194892 10913 net.cpp:434] conv12_2_conv12_2/relu_0_split <- conv12_2
I0327 11:16:37.194901 10913 net.cpp:408] conv12_2_conv12_2/relu_0_split -> conv12_2_conv12_2/relu_0_split_0
I0327 11:16:37.194912 10913 net.cpp:408] conv12_2_conv12_2/relu_0_split -> conv12_2_conv12_2/relu_0_split_1
I0327 11:16:37.194922 10913 net.cpp:408] conv12_2_conv12_2/relu_0_split -> conv12_2_conv12_2/relu_0_split_2
I0327 11:16:37.194931 10913 net.cpp:408] conv12_2_conv12_2/relu_0_split -> conv12_2_conv12_2/relu_0_split_3
I0327 11:16:37.194986 10913 net.cpp:150] Setting up conv12_2_conv12_2/relu_0_split
I0327 11:16:37.194993 10913 net.cpp:157] Top shape: 2 256 2 2 (2048)
I0327 11:16:37.195009 10913 net.cpp:157] Top shape: 2 256 2 2 (2048)
I0327 11:16:37.195014 10913 net.cpp:157] Top shape: 2 256 2 2 (2048)
I0327 11:16:37.195021 10913 net.cpp:157] Top shape: 2 256 2 2 (2048)
I0327 11:16:37.195026 10913 net.cpp:165] Memory required for data: 139959840
I0327 11:16:37.195032 10913 layer_factory.hpp:77] Creating layer conv13_1
I0327 11:16:37.195044 10913 net.cpp:100] Creating Layer conv13_1
I0327 11:16:37.195049 10913 net.cpp:434] conv13_1 <- conv12_2_conv12_2/relu_0_split_0
I0327 11:16:37.195055 10913 net.cpp:408] conv13_1 -> conv13_1
I0327 11:16:37.196336 10913 net.cpp:150] Setting up conv13_1
I0327 11:16:37.196347 10913 net.cpp:157] Top shape: 2 64 2 2 (512)
I0327 11:16:37.196352 10913 net.cpp:165] Memory required for data: 139961888
I0327 11:16:37.196360 10913 layer_factory.hpp:77] Creating layer conv13_1/bn
I0327 11:16:37.196370 10913 net.cpp:100] Creating Layer conv13_1/bn
I0327 11:16:37.196375 10913 net.cpp:434] conv13_1/bn <- conv13_1
I0327 11:16:37.196382 10913 net.cpp:395] conv13_1/bn -> conv13_1 (in-place)
I0327 11:16:37.196545 10913 net.cpp:150] Setting up conv13_1/bn
I0327 11:16:37.196554 10913 net.cpp:157] Top shape: 2 64 2 2 (512)
I0327 11:16:37.196559 10913 net.cpp:165] Memory required for data: 139963936
I0327 11:16:37.196569 10913 layer_factory.hpp:77] Creating layer conv13_1/scale
I0327 11:16:37.196580 10913 net.cpp:100] Creating Layer conv13_1/scale
I0327 11:16:37.196588 10913 net.cpp:434] conv13_1/scale <- conv13_1
I0327 11:16:37.196595 10913 net.cpp:395] conv13_1/scale -> conv13_1 (in-place)
I0327 11:16:37.196636 10913 layer_factory.hpp:77] Creating layer conv13_1/scale
I0327 11:16:37.196732 10913 net.cpp:150] Setting up conv13_1/scale
I0327 11:16:37.196741 10913 net.cpp:157] Top shape: 2 64 2 2 (512)
I0327 11:16:37.196746 10913 net.cpp:165] Memory required for data: 139965984
I0327 11:16:37.196754 10913 layer_factory.hpp:77] Creating layer conv13_1/relu
I0327 11:16:37.196761 10913 net.cpp:100] Creating Layer conv13_1/relu
I0327 11:16:37.196764 10913 net.cpp:434] conv13_1/relu <- conv13_1
I0327 11:16:37.196771 10913 net.cpp:395] conv13_1/relu -> conv13_1 (in-place)
I0327 11:16:37.197180 10913 net.cpp:150] Setting up conv13_1/relu
I0327 11:16:37.197193 10913 net.cpp:157] Top shape: 2 64 2 2 (512)
I0327 11:16:37.197199 10913 net.cpp:165] Memory required for data: 139968032
I0327 11:16:37.197206 10913 layer_factory.hpp:77] Creating layer conv13_2
I0327 11:16:37.197221 10913 net.cpp:100] Creating Layer conv13_2
I0327 11:16:37.197227 10913 net.cpp:434] conv13_2 <- conv13_1
I0327 11:16:37.197237 10913 net.cpp:408] conv13_2 -> conv13_2
I0327 11:16:37.199807 10913 net.cpp:150] Setting up conv13_2
I0327 11:16:37.199822 10913 net.cpp:157] Top shape: 2 128 1 1 (256)
I0327 11:16:37.199828 10913 net.cpp:165] Memory required for data: 139969056
I0327 11:16:37.199837 10913 layer_factory.hpp:77] Creating layer conv13_2/bn
I0327 11:16:37.199846 10913 net.cpp:100] Creating Layer conv13_2/bn
I0327 11:16:37.199852 10913 net.cpp:434] conv13_2/bn <- conv13_2
I0327 11:16:37.199862 10913 net.cpp:395] conv13_2/bn -> conv13_2 (in-place)
I0327 11:16:37.200026 10913 net.cpp:150] Setting up conv13_2/bn
I0327 11:16:37.200032 10913 net.cpp:157] Top shape: 2 128 1 1 (256)
I0327 11:16:37.200045 10913 net.cpp:165] Memory required for data: 139970080
I0327 11:16:37.200052 10913 layer_factory.hpp:77] Creating layer conv13_2/scale
I0327 11:16:37.200058 10913 net.cpp:100] Creating Layer conv13_2/scale
I0327 11:16:37.200063 10913 net.cpp:434] conv13_2/scale <- conv13_2
I0327 11:16:37.200068 10913 net.cpp:395] conv13_2/scale -> conv13_2 (in-place)
I0327 11:16:37.200105 10913 layer_factory.hpp:77] Creating layer conv13_2/scale
I0327 11:16:37.200196 10913 net.cpp:150] Setting up conv13_2/scale
I0327 11:16:37.200203 10913 net.cpp:157] Top shape: 2 128 1 1 (256)
I0327 11:16:37.200208 10913 net.cpp:165] Memory required for data: 139971104
I0327 11:16:37.200217 10913 layer_factory.hpp:77] Creating layer conv13_2/relu
I0327 11:16:37.200223 10913 net.cpp:100] Creating Layer conv13_2/relu
I0327 11:16:37.200240 10913 net.cpp:434] conv13_2/relu <- conv13_2
I0327 11:16:37.200250 10913 net.cpp:395] conv13_2/relu -> conv13_2 (in-place)
I0327 11:16:37.200659 10913 net.cpp:150] Setting up conv13_2/relu
I0327 11:16:37.200670 10913 net.cpp:157] Top shape: 2 128 1 1 (256)
I0327 11:16:37.200673 10913 net.cpp:165] Memory required for data: 139972128
I0327 11:16:37.200680 10913 layer_factory.hpp:77] Creating layer conv13_2_conv13_2/relu_0_split
I0327 11:16:37.200692 10913 net.cpp:100] Creating Layer conv13_2_conv13_2/relu_0_split
I0327 11:16:37.200698 10913 net.cpp:434] conv13_2_conv13_2/relu_0_split <- conv13_2
I0327 11:16:37.200706 10913 net.cpp:408] conv13_2_conv13_2/relu_0_split -> conv13_2_conv13_2/relu_0_split_0
I0327 11:16:37.200717 10913 net.cpp:408] conv13_2_conv13_2/relu_0_split -> conv13_2_conv13_2/relu_0_split_1
I0327 11:16:37.200728 10913 net.cpp:408] conv13_2_conv13_2/relu_0_split -> conv13_2_conv13_2/relu_0_split_2
I0327 11:16:37.200783 10913 net.cpp:150] Setting up conv13_2_conv13_2/relu_0_split
I0327 11:16:37.200791 10913 net.cpp:157] Top shape: 2 128 1 1 (256)
I0327 11:16:37.200798 10913 net.cpp:157] Top shape: 2 128 1 1 (256)
I0327 11:16:37.200805 10913 net.cpp:157] Top shape: 2 128 1 1 (256)
I0327 11:16:37.200810 10913 net.cpp:165] Memory required for data: 139975200
I0327 11:16:37.200816 10913 layer_factory.hpp:77] Creating layer fire5/bn
I0327 11:16:37.200825 10913 net.cpp:100] Creating Layer fire5/bn
I0327 11:16:37.200832 10913 net.cpp:434] fire5/bn <- fire5/concat_fire5/concat_0_split_1
I0327 11:16:37.200840 10913 net.cpp:408] fire5/bn -> fire5/normal
I0327 11:16:37.201050 10913 net.cpp:150] Setting up fire5/bn
I0327 11:16:37.201061 10913 net.cpp:157] Top shape: 2 256 37 37 (700928)
I0327 11:16:37.201066 10913 net.cpp:165] Memory required for data: 142778912
I0327 11:16:37.201087 10913 layer_factory.hpp:77] Creating layer fire5/scale
I0327 11:16:37.201115 10913 net.cpp:100] Creating Layer fire5/scale
I0327 11:16:37.201120 10913 net.cpp:434] fire5/scale <- fire5/normal
I0327 11:16:37.201126 10913 net.cpp:395] fire5/scale -> fire5/normal (in-place)
I0327 11:16:37.201164 10913 layer_factory.hpp:77] Creating layer fire5/scale
I0327 11:16:37.201283 10913 net.cpp:150] Setting up fire5/scale
I0327 11:16:37.201292 10913 net.cpp:157] Top shape: 2 256 37 37 (700928)
I0327 11:16:37.201295 10913 net.cpp:165] Memory required for data: 145582624
I0327 11:16:37.201304 10913 layer_factory.hpp:77] Creating layer fire5/normal_fire5/scale_0_split
I0327 11:16:37.201313 10913 net.cpp:100] Creating Layer fire5/normal_fire5/scale_0_split
I0327 11:16:37.201316 10913 net.cpp:434] fire5/normal_fire5/scale_0_split <- fire5/normal
I0327 11:16:37.201321 10913 net.cpp:408] fire5/normal_fire5/scale_0_split -> fire5/normal_fire5/scale_0_split_0
I0327 11:16:37.201330 10913 net.cpp:408] fire5/normal_fire5/scale_0_split -> fire5/normal_fire5/scale_0_split_1
I0327 11:16:37.201336 10913 net.cpp:408] fire5/normal_fire5/scale_0_split -> fire5/normal_fire5/scale_0_split_2
I0327 11:16:37.201380 10913 net.cpp:150] Setting up fire5/normal_fire5/scale_0_split
I0327 11:16:37.201386 10913 net.cpp:157] Top shape: 2 256 37 37 (700928)
I0327 11:16:37.201390 10913 net.cpp:157] Top shape: 2 256 37 37 (700928)
I0327 11:16:37.201395 10913 net.cpp:157] Top shape: 2 256 37 37 (700928)
I0327 11:16:37.201398 10913 net.cpp:165] Memory required for data: 153993760
I0327 11:16:37.201402 10913 layer_factory.hpp:77] Creating layer fire5_mbox_loc
I0327 11:16:37.201413 10913 net.cpp:100] Creating Layer fire5_mbox_loc
I0327 11:16:37.201418 10913 net.cpp:434] fire5_mbox_loc <- fire5/normal_fire5/scale_0_split_0
I0327 11:16:37.201426 10913 net.cpp:408] fire5_mbox_loc -> fire5_mbox_loc
I0327 11:16:37.203155 10913 net.cpp:150] Setting up fire5_mbox_loc
I0327 11:16:37.203168 10913 net.cpp:157] Top shape: 2 16 37 37 (43808)
I0327 11:16:37.203172 10913 net.cpp:165] Memory required for data: 154168992
I0327 11:16:37.203179 10913 layer_factory.hpp:77] Creating layer fire5_mbox_loc_perm
I0327 11:16:37.203188 10913 net.cpp:100] Creating Layer fire5_mbox_loc_perm
I0327 11:16:37.203202 10913 net.cpp:434] fire5_mbox_loc_perm <- fire5_mbox_loc
I0327 11:16:37.203208 10913 net.cpp:408] fire5_mbox_loc_perm -> fire5_mbox_loc_perm
I0327 11:16:37.203301 10913 net.cpp:150] Setting up fire5_mbox_loc_perm
I0327 11:16:37.203310 10913 net.cpp:157] Top shape: 2 37 37 16 (43808)
I0327 11:16:37.203312 10913 net.cpp:165] Memory required for data: 154344224
I0327 11:16:37.203316 10913 layer_factory.hpp:77] Creating layer fire5_mbox_loc_flat
I0327 11:16:37.203325 10913 net.cpp:100] Creating Layer fire5_mbox_loc_flat
I0327 11:16:37.203330 10913 net.cpp:434] fire5_mbox_loc_flat <- fire5_mbox_loc_perm
I0327 11:16:37.203335 10913 net.cpp:408] fire5_mbox_loc_flat -> fire5_mbox_loc_flat
I0327 11:16:37.203356 10913 net.cpp:150] Setting up fire5_mbox_loc_flat
I0327 11:16:37.203362 10913 net.cpp:157] Top shape: 2 21904 (43808)
I0327 11:16:37.203366 10913 net.cpp:165] Memory required for data: 154519456
I0327 11:16:37.203368 10913 layer_factory.hpp:77] Creating layer fire5_mbox_conf_retrain
I0327 11:16:37.203379 10913 net.cpp:100] Creating Layer fire5_mbox_conf_retrain
I0327 11:16:37.203384 10913 net.cpp:434] fire5_mbox_conf_retrain <- fire5/normal_fire5/scale_0_split_1
I0327 11:16:37.203392 10913 net.cpp:408] fire5_mbox_conf_retrain -> fire5_mbox_conf_retrain
I0327 11:16:37.205384 10913 net.cpp:150] Setting up fire5_mbox_conf_retrain
I0327 11:16:37.205399 10913 net.cpp:157] Top shape: 2 28 37 37 (76664)
I0327 11:16:37.205404 10913 net.cpp:165] Memory required for data: 154826112
I0327 11:16:37.205411 10913 layer_factory.hpp:77] Creating layer fire5_mbox_conf_perm
I0327 11:16:37.205418 10913 net.cpp:100] Creating Layer fire5_mbox_conf_perm
I0327 11:16:37.205423 10913 net.cpp:434] fire5_mbox_conf_perm <- fire5_mbox_conf_retrain
I0327 11:16:37.205430 10913 net.cpp:408] fire5_mbox_conf_perm -> fire5_mbox_conf_perm
I0327 11:16:37.205521 10913 net.cpp:150] Setting up fire5_mbox_conf_perm
I0327 11:16:37.205528 10913 net.cpp:157] Top shape: 2 37 37 28 (76664)
I0327 11:16:37.205533 10913 net.cpp:165] Memory required for data: 155132768
I0327 11:16:37.205536 10913 layer_factory.hpp:77] Creating layer fire5_mbox_conf_flat
I0327 11:16:37.205541 10913 net.cpp:100] Creating Layer fire5_mbox_conf_flat
I0327 11:16:37.205546 10913 net.cpp:434] fire5_mbox_conf_flat <- fire5_mbox_conf_perm
I0327 11:16:37.205552 10913 net.cpp:408] fire5_mbox_conf_flat -> fire5_mbox_conf_flat
I0327 11:16:37.205574 10913 net.cpp:150] Setting up fire5_mbox_conf_flat
I0327 11:16:37.205579 10913 net.cpp:157] Top shape: 2 38332 (76664)
I0327 11:16:37.205582 10913 net.cpp:165] Memory required for data: 155439424
I0327 11:16:37.205585 10913 layer_factory.hpp:77] Creating layer fire5_mbox_priorbox
I0327 11:16:37.205593 10913 net.cpp:100] Creating Layer fire5_mbox_priorbox
I0327 11:16:37.205597 10913 net.cpp:434] fire5_mbox_priorbox <- fire5/normal_fire5/scale_0_split_2
I0327 11:16:37.205603 10913 net.cpp:434] fire5_mbox_priorbox <- data_data_0_split_1
I0327 11:16:37.205610 10913 net.cpp:408] fire5_mbox_priorbox -> fire5_mbox_priorbox
I0327 11:16:37.205632 10913 net.cpp:150] Setting up fire5_mbox_priorbox
I0327 11:16:37.205638 10913 net.cpp:157] Top shape: 1 2 21904 (43808)
I0327 11:16:37.205642 10913 net.cpp:165] Memory required for data: 155614656
I0327 11:16:37.205646 10913 layer_factory.hpp:77] Creating layer fire9_mbox_loc
I0327 11:16:37.205655 10913 net.cpp:100] Creating Layer fire9_mbox_loc
I0327 11:16:37.205660 10913 net.cpp:434] fire9_mbox_loc <- fire9/concat_fire9/concat_0_split_1
I0327 11:16:37.205667 10913 net.cpp:408] fire9_mbox_loc -> fire9_mbox_loc
I0327 11:16:37.207805 10913 net.cpp:150] Setting up fire9_mbox_loc
I0327 11:16:37.207818 10913 net.cpp:157] Top shape: 2 24 18 18 (15552)
I0327 11:16:37.207821 10913 net.cpp:165] Memory required for data: 155676864
I0327 11:16:37.207828 10913 layer_factory.hpp:77] Creating layer fire9_mbox_loc_perm
I0327 11:16:37.207836 10913 net.cpp:100] Creating Layer fire9_mbox_loc_perm
I0327 11:16:37.207840 10913 net.cpp:434] fire9_mbox_loc_perm <- fire9_mbox_loc
I0327 11:16:37.207847 10913 net.cpp:408] fire9_mbox_loc_perm -> fire9_mbox_loc_perm
I0327 11:16:37.207949 10913 net.cpp:150] Setting up fire9_mbox_loc_perm
I0327 11:16:37.207957 10913 net.cpp:157] Top shape: 2 18 18 24 (15552)
I0327 11:16:37.207960 10913 net.cpp:165] Memory required for data: 155739072
I0327 11:16:37.207964 10913 layer_factory.hpp:77] Creating layer fire9_mbox_loc_flat
I0327 11:16:37.207972 10913 net.cpp:100] Creating Layer fire9_mbox_loc_flat
I0327 11:16:37.207976 10913 net.cpp:434] fire9_mbox_loc_flat <- fire9_mbox_loc_perm
I0327 11:16:37.207981 10913 net.cpp:408] fire9_mbox_loc_flat -> fire9_mbox_loc_flat
I0327 11:16:37.208001 10913 net.cpp:150] Setting up fire9_mbox_loc_flat
I0327 11:16:37.208007 10913 net.cpp:157] Top shape: 2 7776 (15552)
I0327 11:16:37.208010 10913 net.cpp:165] Memory required for data: 155801280
I0327 11:16:37.208014 10913 layer_factory.hpp:77] Creating layer fire9_mbox_conf_retrain
I0327 11:16:37.208024 10913 net.cpp:100] Creating Layer fire9_mbox_conf_retrain
I0327 11:16:37.208029 10913 net.cpp:434] fire9_mbox_conf_retrain <- fire9/concat_fire9/concat_0_split_2
I0327 11:16:37.208036 10913 net.cpp:408] fire9_mbox_conf_retrain -> fire9_mbox_conf_retrain
I0327 11:16:37.211388 10913 net.cpp:150] Setting up fire9_mbox_conf_retrain
I0327 11:16:37.211402 10913 net.cpp:157] Top shape: 2 42 18 18 (27216)
I0327 11:16:37.211406 10913 net.cpp:165] Memory required for data: 155910144
I0327 11:16:37.211413 10913 layer_factory.hpp:77] Creating layer fire9_mbox_conf_perm
I0327 11:16:37.211421 10913 net.cpp:100] Creating Layer fire9_mbox_conf_perm
I0327 11:16:37.211426 10913 net.cpp:434] fire9_mbox_conf_perm <- fire9_mbox_conf_retrain
I0327 11:16:37.211432 10913 net.cpp:408] fire9_mbox_conf_perm -> fire9_mbox_conf_perm
I0327 11:16:37.211524 10913 net.cpp:150] Setting up fire9_mbox_conf_perm
I0327 11:16:37.211529 10913 net.cpp:157] Top shape: 2 18 18 42 (27216)
I0327 11:16:37.211534 10913 net.cpp:165] Memory required for data: 156019008
I0327 11:16:37.211537 10913 layer_factory.hpp:77] Creating layer fire9_mbox_conf_flat
I0327 11:16:37.211545 10913 net.cpp:100] Creating Layer fire9_mbox_conf_flat
I0327 11:16:37.211549 10913 net.cpp:434] fire9_mbox_conf_flat <- fire9_mbox_conf_perm
I0327 11:16:37.211556 10913 net.cpp:408] fire9_mbox_conf_flat -> fire9_mbox_conf_flat
I0327 11:16:37.211575 10913 net.cpp:150] Setting up fire9_mbox_conf_flat
I0327 11:16:37.211580 10913 net.cpp:157] Top shape: 2 13608 (27216)
I0327 11:16:37.211585 10913 net.cpp:165] Memory required for data: 156127872
I0327 11:16:37.211587 10913 layer_factory.hpp:77] Creating layer fire9_mbox_priorbox
I0327 11:16:37.211596 10913 net.cpp:100] Creating Layer fire9_mbox_priorbox
I0327 11:16:37.211601 10913 net.cpp:434] fire9_mbox_priorbox <- fire9/concat_fire9/concat_0_split_3
I0327 11:16:37.211606 10913 net.cpp:434] fire9_mbox_priorbox <- data_data_0_split_2
I0327 11:16:37.211612 10913 net.cpp:408] fire9_mbox_priorbox -> fire9_mbox_priorbox
I0327 11:16:37.211634 10913 net.cpp:150] Setting up fire9_mbox_priorbox
I0327 11:16:37.211640 10913 net.cpp:157] Top shape: 1 2 7776 (15552)
I0327 11:16:37.211644 10913 net.cpp:165] Memory required for data: 156190080
I0327 11:16:37.211648 10913 layer_factory.hpp:77] Creating layer fire10_mbox_loc
I0327 11:16:37.211659 10913 net.cpp:100] Creating Layer fire10_mbox_loc
I0327 11:16:37.211663 10913 net.cpp:434] fire10_mbox_loc <- fire10/concat_fire10/concat_0_split_1
I0327 11:16:37.211670 10913 net.cpp:408] fire10_mbox_loc -> fire10_mbox_loc
I0327 11:16:37.215227 10913 net.cpp:150] Setting up fire10_mbox_loc
I0327 11:16:37.215246 10913 net.cpp:157] Top shape: 2 24 9 9 (3888)
I0327 11:16:37.215260 10913 net.cpp:165] Memory required for data: 156205632
I0327 11:16:37.215268 10913 layer_factory.hpp:77] Creating layer fire10_mbox_loc_perm
I0327 11:16:37.215276 10913 net.cpp:100] Creating Layer fire10_mbox_loc_perm
I0327 11:16:37.215282 10913 net.cpp:434] fire10_mbox_loc_perm <- fire10_mbox_loc
I0327 11:16:37.215289 10913 net.cpp:408] fire10_mbox_loc_perm -> fire10_mbox_loc_perm
I0327 11:16:37.215396 10913 net.cpp:150] Setting up fire10_mbox_loc_perm
I0327 11:16:37.215415 10913 net.cpp:157] Top shape: 2 9 9 24 (3888)
I0327 11:16:37.215430 10913 net.cpp:165] Memory required for data: 156221184
I0327 11:16:37.215433 10913 layer_factory.hpp:77] Creating layer fire10_mbox_loc_flat
I0327 11:16:37.215441 10913 net.cpp:100] Creating Layer fire10_mbox_loc_flat
I0327 11:16:37.215445 10913 net.cpp:434] fire10_mbox_loc_flat <- fire10_mbox_loc_perm
I0327 11:16:37.215451 10913 net.cpp:408] fire10_mbox_loc_flat -> fire10_mbox_loc_flat
I0327 11:16:37.215474 10913 net.cpp:150] Setting up fire10_mbox_loc_flat
I0327 11:16:37.215490 10913 net.cpp:157] Top shape: 2 1944 (3888)
I0327 11:16:37.215493 10913 net.cpp:165] Memory required for data: 156236736
I0327 11:16:37.215497 10913 layer_factory.hpp:77] Creating layer fire10_mbox_conf_retrain
I0327 11:16:37.215517 10913 net.cpp:100] Creating Layer fire10_mbox_conf_retrain
I0327 11:16:37.215523 10913 net.cpp:434] fire10_mbox_conf_retrain <- fire10/concat_fire10/concat_0_split_2
I0327 11:16:37.215529 10913 net.cpp:408] fire10_mbox_conf_retrain -> fire10_mbox_conf_retrain
I0327 11:16:37.220798 10913 net.cpp:150] Setting up fire10_mbox_conf_retrain
I0327 11:16:37.220815 10913 net.cpp:157] Top shape: 2 42 9 9 (6804)
I0327 11:16:37.220835 10913 net.cpp:165] Memory required for data: 156263952
I0327 11:16:37.220844 10913 layer_factory.hpp:77] Creating layer fire10_mbox_conf_perm
I0327 11:16:37.220852 10913 net.cpp:100] Creating Layer fire10_mbox_conf_perm
I0327 11:16:37.220857 10913 net.cpp:434] fire10_mbox_conf_perm <- fire10_mbox_conf_retrain
I0327 11:16:37.220865 10913 net.cpp:408] fire10_mbox_conf_perm -> fire10_mbox_conf_perm
I0327 11:16:37.220983 10913 net.cpp:150] Setting up fire10_mbox_conf_perm
I0327 11:16:37.220990 10913 net.cpp:157] Top shape: 2 9 9 42 (6804)
I0327 11:16:37.220994 10913 net.cpp:165] Memory required for data: 156291168
I0327 11:16:37.221009 10913 layer_factory.hpp:77] Creating layer fire10_mbox_conf_flat
I0327 11:16:37.221014 10913 net.cpp:100] Creating Layer fire10_mbox_conf_flat
I0327 11:16:37.221019 10913 net.cpp:434] fire10_mbox_conf_flat <- fire10_mbox_conf_perm
I0327 11:16:37.221025 10913 net.cpp:408] fire10_mbox_conf_flat -> fire10_mbox_conf_flat
I0327 11:16:37.221048 10913 net.cpp:150] Setting up fire10_mbox_conf_flat
I0327 11:16:37.221053 10913 net.cpp:157] Top shape: 2 3402 (6804)
I0327 11:16:37.221056 10913 net.cpp:165] Memory required for data: 156318384
I0327 11:16:37.221069 10913 layer_factory.hpp:77] Creating layer fire10_mbox_priorbox
I0327 11:16:37.221086 10913 net.cpp:100] Creating Layer fire10_mbox_priorbox
I0327 11:16:37.221089 10913 net.cpp:434] fire10_mbox_priorbox <- fire10/concat_fire10/concat_0_split_3
I0327 11:16:37.221096 10913 net.cpp:434] fire10_mbox_priorbox <- data_data_0_split_3
I0327 11:16:37.221103 10913 net.cpp:408] fire10_mbox_priorbox -> fire10_mbox_priorbox
I0327 11:16:37.221129 10913 net.cpp:150] Setting up fire10_mbox_priorbox
I0327 11:16:37.221135 10913 net.cpp:157] Top shape: 1 2 1944 (3888)
I0327 11:16:37.221148 10913 net.cpp:165] Memory required for data: 156333936
I0327 11:16:37.221151 10913 layer_factory.hpp:77] Creating layer fire11_mbox_loc
I0327 11:16:37.221173 10913 net.cpp:100] Creating Layer fire11_mbox_loc
I0327 11:16:37.221176 10913 net.cpp:434] fire11_mbox_loc <- fire11/concat_fire11/concat_0_split_1
I0327 11:16:37.221184 10913 net.cpp:408] fire11_mbox_loc -> fire11_mbox_loc
I0327 11:16:37.224256 10913 net.cpp:150] Setting up fire11_mbox_loc
I0327 11:16:37.224267 10913 net.cpp:157] Top shape: 2 24 4 4 (768)
I0327 11:16:37.224282 10913 net.cpp:165] Memory required for data: 156337008
I0327 11:16:37.224288 10913 layer_factory.hpp:77] Creating layer fire11_mbox_loc_perm
I0327 11:16:37.224298 10913 net.cpp:100] Creating Layer fire11_mbox_loc_perm
I0327 11:16:37.224301 10913 net.cpp:434] fire11_mbox_loc_perm <- fire11_mbox_loc
I0327 11:16:37.224309 10913 net.cpp:408] fire11_mbox_loc_perm -> fire11_mbox_loc_perm
I0327 11:16:37.224402 10913 net.cpp:150] Setting up fire11_mbox_loc_perm
I0327 11:16:37.224411 10913 net.cpp:157] Top shape: 2 4 4 24 (768)
I0327 11:16:37.224414 10913 net.cpp:165] Memory required for data: 156340080
I0327 11:16:37.224431 10913 layer_factory.hpp:77] Creating layer fire11_mbox_loc_flat
I0327 11:16:37.224438 10913 net.cpp:100] Creating Layer fire11_mbox_loc_flat
I0327 11:16:37.224442 10913 net.cpp:434] fire11_mbox_loc_flat <- fire11_mbox_loc_perm
I0327 11:16:37.224447 10913 net.cpp:408] fire11_mbox_loc_flat -> fire11_mbox_loc_flat
I0327 11:16:37.224472 10913 net.cpp:150] Setting up fire11_mbox_loc_flat
I0327 11:16:37.224478 10913 net.cpp:157] Top shape: 2 384 (768)
I0327 11:16:37.224481 10913 net.cpp:165] Memory required for data: 156343152
I0327 11:16:37.224485 10913 layer_factory.hpp:77] Creating layer fire11_mbox_conf_retrain
I0327 11:16:37.224494 10913 net.cpp:100] Creating Layer fire11_mbox_conf_retrain
I0327 11:16:37.224498 10913 net.cpp:434] fire11_mbox_conf_retrain <- fire11/concat_fire11/concat_0_split_2
I0327 11:16:37.224505 10913 net.cpp:408] fire11_mbox_conf_retrain -> fire11_mbox_conf_retrain
I0327 11:16:37.228745 10913 net.cpp:150] Setting up fire11_mbox_conf_retrain
I0327 11:16:37.228760 10913 net.cpp:157] Top shape: 2 42 4 4 (1344)
I0327 11:16:37.228765 10913 net.cpp:165] Memory required for data: 156348528
I0327 11:16:37.228775 10913 layer_factory.hpp:77] Creating layer fire11_mbox_conf_perm
I0327 11:16:37.228783 10913 net.cpp:100] Creating Layer fire11_mbox_conf_perm
I0327 11:16:37.228788 10913 net.cpp:434] fire11_mbox_conf_perm <- fire11_mbox_conf_retrain
I0327 11:16:37.228796 10913 net.cpp:408] fire11_mbox_conf_perm -> fire11_mbox_conf_perm
I0327 11:16:37.228893 10913 net.cpp:150] Setting up fire11_mbox_conf_perm
I0327 11:16:37.228899 10913 net.cpp:157] Top shape: 2 4 4 42 (1344)
I0327 11:16:37.228914 10913 net.cpp:165] Memory required for data: 156353904
I0327 11:16:37.228916 10913 layer_factory.hpp:77] Creating layer fire11_mbox_conf_flat
I0327 11:16:37.228924 10913 net.cpp:100] Creating Layer fire11_mbox_conf_flat
I0327 11:16:37.228927 10913 net.cpp:434] fire11_mbox_conf_flat <- fire11_mbox_conf_perm
I0327 11:16:37.228935 10913 net.cpp:408] fire11_mbox_conf_flat -> fire11_mbox_conf_flat
I0327 11:16:37.228958 10913 net.cpp:150] Setting up fire11_mbox_conf_flat
I0327 11:16:37.228963 10913 net.cpp:157] Top shape: 2 672 (1344)
I0327 11:16:37.228966 10913 net.cpp:165] Memory required for data: 156359280
I0327 11:16:37.228971 10913 layer_factory.hpp:77] Creating layer fire11_mbox_priorbox
I0327 11:16:37.228979 10913 net.cpp:100] Creating Layer fire11_mbox_priorbox
I0327 11:16:37.228983 10913 net.cpp:434] fire11_mbox_priorbox <- fire11/concat_fire11/concat_0_split_3
I0327 11:16:37.228989 10913 net.cpp:434] fire11_mbox_priorbox <- data_data_0_split_4
I0327 11:16:37.228996 10913 net.cpp:408] fire11_mbox_priorbox -> fire11_mbox_priorbox
I0327 11:16:37.229018 10913 net.cpp:150] Setting up fire11_mbox_priorbox
I0327 11:16:37.229024 10913 net.cpp:157] Top shape: 1 2 384 (768)
I0327 11:16:37.229027 10913 net.cpp:165] Memory required for data: 156362352
I0327 11:16:37.229030 10913 layer_factory.hpp:77] Creating layer conv12_2_mbox_loc
I0327 11:16:37.229043 10913 net.cpp:100] Creating Layer conv12_2_mbox_loc
I0327 11:16:37.229046 10913 net.cpp:434] conv12_2_mbox_loc <- conv12_2_conv12_2/relu_0_split_1
I0327 11:16:37.229053 10913 net.cpp:408] conv12_2_mbox_loc -> conv12_2_mbox_loc
I0327 11:16:37.230742 10913 net.cpp:150] Setting up conv12_2_mbox_loc
I0327 11:16:37.230754 10913 net.cpp:157] Top shape: 2 24 2 2 (192)
I0327 11:16:37.230758 10913 net.cpp:165] Memory required for data: 156363120
I0327 11:16:37.230765 10913 layer_factory.hpp:77] Creating layer conv12_2_mbox_loc_perm
I0327 11:16:37.230772 10913 net.cpp:100] Creating Layer conv12_2_mbox_loc_perm
I0327 11:16:37.230777 10913 net.cpp:434] conv12_2_mbox_loc_perm <- conv12_2_mbox_loc
I0327 11:16:37.230784 10913 net.cpp:408] conv12_2_mbox_loc_perm -> conv12_2_mbox_loc_perm
I0327 11:16:37.230875 10913 net.cpp:150] Setting up conv12_2_mbox_loc_perm
I0327 11:16:37.230880 10913 net.cpp:157] Top shape: 2 2 2 24 (192)
I0327 11:16:37.230885 10913 net.cpp:165] Memory required for data: 156363888
I0327 11:16:37.230888 10913 layer_factory.hpp:77] Creating layer conv12_2_mbox_loc_flat
I0327 11:16:37.230906 10913 net.cpp:100] Creating Layer conv12_2_mbox_loc_flat
I0327 11:16:37.230911 10913 net.cpp:434] conv12_2_mbox_loc_flat <- conv12_2_mbox_loc_perm
I0327 11:16:37.230916 10913 net.cpp:408] conv12_2_mbox_loc_flat -> conv12_2_mbox_loc_flat
I0327 11:16:37.230939 10913 net.cpp:150] Setting up conv12_2_mbox_loc_flat
I0327 11:16:37.230945 10913 net.cpp:157] Top shape: 2 96 (192)
I0327 11:16:37.230949 10913 net.cpp:165] Memory required for data: 156364656
I0327 11:16:37.230952 10913 layer_factory.hpp:77] Creating layer conv12_2_mbox_conf_retrain
I0327 11:16:37.230962 10913 net.cpp:100] Creating Layer conv12_2_mbox_conf_retrain
I0327 11:16:37.230967 10913 net.cpp:434] conv12_2_mbox_conf_retrain <- conv12_2_conv12_2/relu_0_split_2
I0327 11:16:37.230974 10913 net.cpp:408] conv12_2_mbox_conf_retrain -> conv12_2_mbox_conf_retrain
I0327 11:16:37.233515 10913 net.cpp:150] Setting up conv12_2_mbox_conf_retrain
I0327 11:16:37.233528 10913 net.cpp:157] Top shape: 2 42 2 2 (336)
I0327 11:16:37.233532 10913 net.cpp:165] Memory required for data: 156366000
I0327 11:16:37.233539 10913 layer_factory.hpp:77] Creating layer conv12_2_mbox_conf_perm
I0327 11:16:37.233547 10913 net.cpp:100] Creating Layer conv12_2_mbox_conf_perm
I0327 11:16:37.233551 10913 net.cpp:434] conv12_2_mbox_conf_perm <- conv12_2_mbox_conf_retrain
I0327 11:16:37.233559 10913 net.cpp:408] conv12_2_mbox_conf_perm -> conv12_2_mbox_conf_perm
I0327 11:16:37.233654 10913 net.cpp:150] Setting up conv12_2_mbox_conf_perm
I0327 11:16:37.233660 10913 net.cpp:157] Top shape: 2 2 2 42 (336)
I0327 11:16:37.233664 10913 net.cpp:165] Memory required for data: 156367344
I0327 11:16:37.233667 10913 layer_factory.hpp:77] Creating layer conv12_2_mbox_conf_flat
I0327 11:16:37.233672 10913 net.cpp:100] Creating Layer conv12_2_mbox_conf_flat
I0327 11:16:37.233677 10913 net.cpp:434] conv12_2_mbox_conf_flat <- conv12_2_mbox_conf_perm
I0327 11:16:37.233685 10913 net.cpp:408] conv12_2_mbox_conf_flat -> conv12_2_mbox_conf_flat
I0327 11:16:37.233705 10913 net.cpp:150] Setting up conv12_2_mbox_conf_flat
I0327 11:16:37.233711 10913 net.cpp:157] Top shape: 2 168 (336)
I0327 11:16:37.233714 10913 net.cpp:165] Memory required for data: 156368688
I0327 11:16:37.233717 10913 layer_factory.hpp:77] Creating layer conv12_2_mbox_priorbox
I0327 11:16:37.233724 10913 net.cpp:100] Creating Layer conv12_2_mbox_priorbox
I0327 11:16:37.233728 10913 net.cpp:434] conv12_2_mbox_priorbox <- conv12_2_conv12_2/relu_0_split_3
I0327 11:16:37.233733 10913 net.cpp:434] conv12_2_mbox_priorbox <- data_data_0_split_5
I0327 11:16:37.233741 10913 net.cpp:408] conv12_2_mbox_priorbox -> conv12_2_mbox_priorbox
I0327 11:16:37.233765 10913 net.cpp:150] Setting up conv12_2_mbox_priorbox
I0327 11:16:37.233772 10913 net.cpp:157] Top shape: 1 2 96 (192)
I0327 11:16:37.233774 10913 net.cpp:165] Memory required for data: 156369456
I0327 11:16:37.233777 10913 layer_factory.hpp:77] Creating layer conv13_2_mbox_loc
I0327 11:16:37.233788 10913 net.cpp:100] Creating Layer conv13_2_mbox_loc
I0327 11:16:37.233793 10913 net.cpp:434] conv13_2_mbox_loc <- conv13_2_conv13_2/relu_0_split_0
I0327 11:16:37.233800 10913 net.cpp:408] conv13_2_mbox_loc -> conv13_2_mbox_loc
I0327 11:16:37.235369 10913 net.cpp:150] Setting up conv13_2_mbox_loc
I0327 11:16:37.235381 10913 net.cpp:157] Top shape: 2 16 1 1 (32)
I0327 11:16:37.235385 10913 net.cpp:165] Memory required for data: 156369584
I0327 11:16:37.235393 10913 layer_factory.hpp:77] Creating layer conv13_2_mbox_loc_perm
I0327 11:16:37.235400 10913 net.cpp:100] Creating Layer conv13_2_mbox_loc_perm
I0327 11:16:37.235405 10913 net.cpp:434] conv13_2_mbox_loc_perm <- conv13_2_mbox_loc
I0327 11:16:37.235411 10913 net.cpp:408] conv13_2_mbox_loc_perm -> conv13_2_mbox_loc_perm
I0327 11:16:37.235518 10913 net.cpp:150] Setting up conv13_2_mbox_loc_perm
I0327 11:16:37.235527 10913 net.cpp:157] Top shape: 2 1 1 16 (32)
I0327 11:16:37.235530 10913 net.cpp:165] Memory required for data: 156369712
I0327 11:16:37.235534 10913 layer_factory.hpp:77] Creating layer conv13_2_mbox_loc_flat
I0327 11:16:37.235550 10913 net.cpp:100] Creating Layer conv13_2_mbox_loc_flat
I0327 11:16:37.235555 10913 net.cpp:434] conv13_2_mbox_loc_flat <- conv13_2_mbox_loc_perm
I0327 11:16:37.235563 10913 net.cpp:408] conv13_2_mbox_loc_flat -> conv13_2_mbox_loc_flat
I0327 11:16:37.235587 10913 net.cpp:150] Setting up conv13_2_mbox_loc_flat
I0327 11:16:37.235592 10913 net.cpp:157] Top shape: 2 16 (32)
I0327 11:16:37.235596 10913 net.cpp:165] Memory required for data: 156369840
I0327 11:16:37.235599 10913 layer_factory.hpp:77] Creating layer conv13_2_mbox_conf_retrain
I0327 11:16:37.235610 10913 net.cpp:100] Creating Layer conv13_2_mbox_conf_retrain
I0327 11:16:37.235615 10913 net.cpp:434] conv13_2_mbox_conf_retrain <- conv13_2_conv13_2/relu_0_split_1
I0327 11:16:37.235622 10913 net.cpp:408] conv13_2_mbox_conf_retrain -> conv13_2_mbox_conf_retrain
I0327 11:16:37.237107 10913 net.cpp:150] Setting up conv13_2_mbox_conf_retrain
I0327 11:16:37.237118 10913 net.cpp:157] Top shape: 2 28 1 1 (56)
I0327 11:16:37.237123 10913 net.cpp:165] Memory required for data: 156370064
I0327 11:16:37.237129 10913 layer_factory.hpp:77] Creating layer conv13_2_mbox_conf_perm
I0327 11:16:37.237138 10913 net.cpp:100] Creating Layer conv13_2_mbox_conf_perm
I0327 11:16:37.237141 10913 net.cpp:434] conv13_2_mbox_conf_perm <- conv13_2_mbox_conf_retrain
I0327 11:16:37.237151 10913 net.cpp:408] conv13_2_mbox_conf_perm -> conv13_2_mbox_conf_perm
I0327 11:16:37.237251 10913 net.cpp:150] Setting up conv13_2_mbox_conf_perm
I0327 11:16:37.237260 10913 net.cpp:157] Top shape: 2 1 1 28 (56)
I0327 11:16:37.237267 10913 net.cpp:165] Memory required for data: 156370288
I0327 11:16:37.237273 10913 layer_factory.hpp:77] Creating layer conv13_2_mbox_conf_flat
I0327 11:16:37.237282 10913 net.cpp:100] Creating Layer conv13_2_mbox_conf_flat
I0327 11:16:37.237289 10913 net.cpp:434] conv13_2_mbox_conf_flat <- conv13_2_mbox_conf_perm
I0327 11:16:37.237298 10913 net.cpp:408] conv13_2_mbox_conf_flat -> conv13_2_mbox_conf_flat
I0327 11:16:37.237326 10913 net.cpp:150] Setting up conv13_2_mbox_conf_flat
I0327 11:16:37.237334 10913 net.cpp:157] Top shape: 2 28 (56)
I0327 11:16:37.237339 10913 net.cpp:165] Memory required for data: 156370512
I0327 11:16:37.237344 10913 layer_factory.hpp:77] Creating layer conv13_2_mbox_priorbox
I0327 11:16:37.237354 10913 net.cpp:100] Creating Layer conv13_2_mbox_priorbox
I0327 11:16:37.237361 10913 net.cpp:434] conv13_2_mbox_priorbox <- conv13_2_conv13_2/relu_0_split_2
I0327 11:16:37.237367 10913 net.cpp:434] conv13_2_mbox_priorbox <- data_data_0_split_6
I0327 11:16:37.237376 10913 net.cpp:408] conv13_2_mbox_priorbox -> conv13_2_mbox_priorbox
I0327 11:16:37.237406 10913 net.cpp:150] Setting up conv13_2_mbox_priorbox
I0327 11:16:37.237412 10913 net.cpp:157] Top shape: 1 2 16 (32)
I0327 11:16:37.237416 10913 net.cpp:165] Memory required for data: 156370640
I0327 11:16:37.237419 10913 layer_factory.hpp:77] Creating layer mbox_loc
I0327 11:16:37.237431 10913 net.cpp:100] Creating Layer mbox_loc
I0327 11:16:37.237435 10913 net.cpp:434] mbox_loc <- fire5_mbox_loc_flat
I0327 11:16:37.237440 10913 net.cpp:434] mbox_loc <- fire9_mbox_loc_flat
I0327 11:16:37.237445 10913 net.cpp:434] mbox_loc <- fire10_mbox_loc_flat
I0327 11:16:37.237450 10913 net.cpp:434] mbox_loc <- fire11_mbox_loc_flat
I0327 11:16:37.237454 10913 net.cpp:434] mbox_loc <- conv12_2_mbox_loc_flat
I0327 11:16:37.237458 10913 net.cpp:434] mbox_loc <- conv13_2_mbox_loc_flat
I0327 11:16:37.237464 10913 net.cpp:408] mbox_loc -> mbox_loc
I0327 11:16:37.237488 10913 net.cpp:150] Setting up mbox_loc
I0327 11:16:37.237494 10913 net.cpp:157] Top shape: 2 32120 (64240)
I0327 11:16:37.237498 10913 net.cpp:165] Memory required for data: 156627600
I0327 11:16:37.237501 10913 layer_factory.hpp:77] Creating layer mbox_conf
I0327 11:16:37.237507 10913 net.cpp:100] Creating Layer mbox_conf
I0327 11:16:37.237511 10913 net.cpp:434] mbox_conf <- fire5_mbox_conf_flat
I0327 11:16:37.237516 10913 net.cpp:434] mbox_conf <- fire9_mbox_conf_flat
I0327 11:16:37.237520 10913 net.cpp:434] mbox_conf <- fire10_mbox_conf_flat
I0327 11:16:37.237534 10913 net.cpp:434] mbox_conf <- fire11_mbox_conf_flat
I0327 11:16:37.237540 10913 net.cpp:434] mbox_conf <- conv12_2_mbox_conf_flat
I0327 11:16:37.237545 10913 net.cpp:434] mbox_conf <- conv13_2_mbox_conf_flat
I0327 11:16:37.237551 10913 net.cpp:408] mbox_conf -> mbox_conf
I0327 11:16:37.237573 10913 net.cpp:150] Setting up mbox_conf
I0327 11:16:37.237579 10913 net.cpp:157] Top shape: 2 56210 (112420)
I0327 11:16:37.237582 10913 net.cpp:165] Memory required for data: 157077280
I0327 11:16:37.237586 10913 layer_factory.hpp:77] Creating layer mbox_priorbox
I0327 11:16:37.237593 10913 net.cpp:100] Creating Layer mbox_priorbox
I0327 11:16:37.237597 10913 net.cpp:434] mbox_priorbox <- fire5_mbox_priorbox
I0327 11:16:37.237603 10913 net.cpp:434] mbox_priorbox <- fire9_mbox_priorbox
I0327 11:16:37.237610 10913 net.cpp:434] mbox_priorbox <- fire10_mbox_priorbox
I0327 11:16:37.237617 10913 net.cpp:434] mbox_priorbox <- fire11_mbox_priorbox
I0327 11:16:37.237622 10913 net.cpp:434] mbox_priorbox <- conv12_2_mbox_priorbox
I0327 11:16:37.237627 10913 net.cpp:434] mbox_priorbox <- conv13_2_mbox_priorbox
I0327 11:16:37.237637 10913 net.cpp:408] mbox_priorbox -> mbox_priorbox
I0327 11:16:37.237664 10913 net.cpp:150] Setting up mbox_priorbox
I0327 11:16:37.237673 10913 net.cpp:157] Top shape: 1 2 32120 (64240)
I0327 11:16:37.237679 10913 net.cpp:165] Memory required for data: 157334240
I0327 11:16:37.237684 10913 layer_factory.hpp:77] Creating layer mbox_conf_reshape
I0327 11:16:37.237694 10913 net.cpp:100] Creating Layer mbox_conf_reshape
I0327 11:16:37.237699 10913 net.cpp:434] mbox_conf_reshape <- mbox_conf
I0327 11:16:37.237706 10913 net.cpp:408] mbox_conf_reshape -> mbox_conf_reshape
I0327 11:16:37.237740 10913 net.cpp:150] Setting up mbox_conf_reshape
I0327 11:16:37.237746 10913 net.cpp:157] Top shape: 2 8030 7 (112420)
I0327 11:16:37.237749 10913 net.cpp:165] Memory required for data: 157783920
I0327 11:16:37.237753 10913 layer_factory.hpp:77] Creating layer mbox_conf_softmax
I0327 11:16:37.237766 10913 net.cpp:100] Creating Layer mbox_conf_softmax
I0327 11:16:37.237772 10913 net.cpp:434] mbox_conf_softmax <- mbox_conf_reshape
I0327 11:16:37.237781 10913 net.cpp:408] mbox_conf_softmax -> mbox_conf_softmax
I0327 11:16:37.238006 10913 net.cpp:150] Setting up mbox_conf_softmax
I0327 11:16:37.238016 10913 net.cpp:157] Top shape: 2 8030 7 (112420)
I0327 11:16:37.238023 10913 net.cpp:165] Memory required for data: 158233600
I0327 11:16:37.238029 10913 layer_factory.hpp:77] Creating layer mbox_conf_flatten
I0327 11:16:37.238039 10913 net.cpp:100] Creating Layer mbox_conf_flatten
I0327 11:16:37.238044 10913 net.cpp:434] mbox_conf_flatten <- mbox_conf_softmax
I0327 11:16:37.238051 10913 net.cpp:408] mbox_conf_flatten -> mbox_conf_flatten
I0327 11:16:37.238078 10913 net.cpp:150] Setting up mbox_conf_flatten
I0327 11:16:37.238086 10913 net.cpp:157] Top shape: 2 56210 (112420)
I0327 11:16:37.238091 10913 net.cpp:165] Memory required for data: 158683280
I0327 11:16:37.238097 10913 layer_factory.hpp:77] Creating layer detection_out
I0327 11:16:37.238116 10913 net.cpp:100] Creating Layer detection_out
I0327 11:16:37.238121 10913 net.cpp:434] detection_out <- mbox_loc
I0327 11:16:37.238129 10913 net.cpp:434] detection_out <- mbox_conf_flatten
I0327 11:16:37.238137 10913 net.cpp:434] detection_out <- mbox_priorbox
I0327 11:16:37.238147 10913 net.cpp:408] detection_out -> detection_out
I0327 11:16:37.238199 10913 net.cpp:150] Setting up detection_out
I0327 11:16:37.238206 10913 net.cpp:157] Top shape: 1 1 1 7 (7)
I0327 11:16:37.238209 10913 net.cpp:165] Memory required for data: 158683308
I0327 11:16:37.238214 10913 layer_factory.hpp:77] Creating layer detection_eval
I0327 11:16:37.238224 10913 net.cpp:100] Creating Layer detection_eval
I0327 11:16:37.238229 10913 net.cpp:434] detection_eval <- detection_out
I0327 11:16:37.238234 10913 net.cpp:434] detection_eval <- label
I0327 11:16:37.238240 10913 net.cpp:408] detection_eval -> detection_eval
I0327 11:16:37.238282 10913 net.cpp:150] Setting up detection_eval
I0327 11:16:37.238297 10913 net.cpp:157] Top shape: 1 1 7 5 (35)
I0327 11:16:37.238301 10913 net.cpp:165] Memory required for data: 158683448
I0327 11:16:37.238307 10913 net.cpp:228] detection_eval does not need backward computation.
I0327 11:16:37.238314 10913 net.cpp:228] detection_out does not need backward computation.
I0327 11:16:37.238322 10913 net.cpp:228] mbox_conf_flatten does not need backward computation.
I0327 11:16:37.238327 10913 net.cpp:228] mbox_conf_softmax does not need backward computation.
…
