…
    batch_sampler {
      sampler {
        min_scale: 0.3
        max_scale: 1
        min_aspect_ratio: 0.5
        max_aspect_ratio: 2
      }
      sample_constraint {
        min_jaccard_overlap: 0.9
      }
      max_sample: 1
      max_trials: 50
    }
    batch_sampler {
      sampler {
        min_scale: 0.3
        max_scale: 1
        min_aspect_ratio: 0.5
        max_aspect_ratio: 2
      }
      sample_constraint {
        max_jaccard_overlap: 1
      }
      max_sample: 1
      max_trials: 50
    }
    label_map_file: "labelmap.prototxt"
  }
}
layer {
  name: "Conv"
  type: "Convolution"
  bottom: "data"
  top: "Conv"
  param {
    lr_mult: 1
    decay_mult: 1
  }
  convolution_param {
    num_output: 32
    bias_term: false
    pad: 1
    kernel_size: 3
    stride: 2
    weight_filler {
      type: "msra"
    }
  }
}
layer {
  name: "Conv/bn"
  type: "BatchNorm"
  bottom: "Conv"
  top: "Conv"
}
layer {
  name: "Conv/scale"
  type: "Scale"
  bottom: "Conv"
  top: "Conv"
  param {
    lr_mult: 0.1
    decay_mult: 0
  }
  param {
    lr_mult: 0.2
    decay_mult: 0
  }
  scale_param {
    filler {
      value: 1
    }
    bias_term: true
    bias_filler {
      value: 0
    }
  }
}
layer {
  name: "Conv/relu"
  type: "ReLU"
  bottom: "Conv"
  top: "Conv"
}
layer {
  name: "conv/depthwise"
  type: "Convolution"
  bottom: "Conv"
  top: "conv/depthwise"
  param {
    lr_mult: 1
    decay_mult: 1
  }
  convolution_param {
    num_output: 32
    bias_term: false
    pad: 1
    kernel_size: 3
    group: 32
    weight_filler {
      type: "msra"
    }
    engine: CAFFE
  }
}
layer {
  name: "conv/depthwise/bn"
  type: "BatchNorm"
  bottom: "conv/depthwise"
  top: "conv/depthwise"
}
layer {
  name: "conv/depthwise/scale"
  type: "Scale"
  bottom: "conv/depthwise"
  top: "conv/depthwise"
  param {
    lr_mult: 0.1
    decay_mult: 0
  }
  param {
    lr_mult: 0.2
    decay_mult: 0
  }
  scale_param {
    filler {
      value: 1
    }
    bias_term: true
    bias_filler {
      value: 0
    }
  }
}
layer {
  name: "conv/depthwise/relu"
  type: "ReLU"
  bottom: "conv/depthwise"
  top: "conv/depthwise"
}
layer {
  name: "conv/project"
  type: "Convolution"
  bottom: "conv/depthwise"
  top: "conv/project"
  param {
    lr_mult: 1
    decay_mult: 1
  }
  convolution_param {
    num_output: 16
    bias_term: false
    kernel_size: 1
    weight_filler {
      type: "msra"
    }
  }
}
layer {
  name: "conv/project/bn"
  type: "BatchNorm"
  bottom: "conv/project"
  top: "conv/project"
}
layer {
  name: "conv/project/scale"
  type: "Scale"
  bottom: "conv/project"
  top: "conv/project"
  param {
    lr_mult: 0.1
    decay_mult: 0
  }
  param {
    lr_mult: 0.2
    decay_mult: 0
  }
  scale_param {
    filler {
      value: 1
    }
    bias_term: true
    bias_filler {
      value: 0
    }
  }
}
layer {
  name: "conv_1/expand"
  type: "Convolution"
  bottom: "conv/project"
  top: "conv_1/expand"
  param {
    lr_mult: 1
    decay_mult: 1
  }
  convolution_param {
    num_output: 96
    bias_term: false
    kernel_size: 1
    weight_filler {
      type: "msra"
    }
  }
}
layer {
  name: "conv_1/expand/bn"
  type: "BatchNorm"
  bottom: "conv_1/expand"
  top: "conv_1/expand"
}
layer {
  name: "conv_1/expand/scale"
  type: "Scale"
  bottom: "conv_1/expand"
  top: "conv_1/expand"
  param {
    lr_mult: 0.1
    decay_mult: 0
  }
  param {
    lr_mult: 0.2
    decay_mult: 0
  }
  scale_param {
    filler {
      value: 1
    }
    bias_term: true
    bias_filler {
      value: 0
    }
  }
}
layer {
  name: "conv_1/expand/relu"
  type: "ReLU"
  bottom: "conv_1/expand"
  top: "conv_1/expand"
}
layer {
  name: "conv_1/depthwise"
  type: "Convolution"
  bottom: "conv_1/expand"
  top: "conv_1/depthwise"
  param {
    lr_mult: 1
    decay_mult: 1
  }
  convolution_param {
    num_output: 96
    bias_term: false
    pad: 1
    kernel_size: 3
    group: 96
    stride: 2
    weight_filler {
      type: "msra"
    }
    engine: CAFFE
  }
}
layer {
  name: "conv_1/depthwise/bn"
  type: "BatchNorm"
  bottom: "conv_1/depthwise"
  top: "conv_1/depthwise"
}
layer {
  name: "conv_1/depthwise/scale"
  type: "Scale"
  bottom: "conv_1/depthwise"
  top: "conv_1/depthwise"
  param {
    lr_mult: 0.1
    decay_mult: 0
  }
  param {
    lr_mult: 0.2
    decay_mult: 0
  }
  scale_param {
    filler {
      value: 1
    }
    bias_term: true
    bias_filler {
      value: 0
    }
  }
}
layer {
  name: "conv_1/depthwise/relu"
  type: "ReLU"
  bottom: "conv_1/depthwise"
  top: "conv_1/depthwise"
}
layer {
  name: "conv_1/project"
  type: "Convolution"
  bottom: "conv_1/depthwise"
  top: "conv_1/project"
  param {
    lr_mult: 1
    decay_mult: 1
  }
  convolution_param {
    num_output: 24
    bias_term: false
    kernel_size: 1
    weight_filler {
      type: "msra"
    }
  }
}
layer {
  name: "conv_1/project/bn"
  type: "BatchNorm"
  bottom: "conv_1/project"
  top: "conv_1/project"
}
layer {
  name: "conv_1/project/scale"
  type: "Scale"
  bottom: "conv_1/project"
  top: "conv_1/project"
  param {
    lr_mult: 0.1
    decay_mult: 0
  }
  param {
    lr_mult: 0.2
    decay_mult: 0
  }
  scale_param {
    filler {
      value: 1
    }
    bias_term: true
    bias_filler {
      value: 0
    }
  }
}
layer {
  name: "conv_2/expand"
  type: "Convolution"
  bottom: "conv_1/project"
  top: "conv_2/expand"
  param {
    lr_mult: 1
    decay_mult: 1
  }
  convolution_param {
    num_output: 144
    bias_term: false
    kernel_size: 1
    weight_filler {
      type: "msra"
    }
  }
}
layer {
  name: "conv_2/expand/bn"
  type: "BatchNorm"
  bottom: "conv_2/expand"
  top: "conv_2/expand"
}
layer {
  name: "conv_2/expand/scale"
  type: "Scale"
  bottom: "conv_2/expand"
  top: "conv_2/expand"
  param {
    lr_mult: 0.1
    decay_mult: 0
  }
  param {
    lr_mult: 0.2
    decay_mult: 0
  }
  scale_param {
    filler {
      value: 1
    }
    bias_term: true
    bias_filler {
      value: 0
    }
  }
}
layer {
  name: "conv_2/expand/relu"
  type: "ReLU"
  bottom: "conv_2/expand"
  top: "conv_2/expand"
}
layer {
  name: "conv_2/depthwise"
  type: "Convolution"
  bottom: "conv_2/expand"
  top: "conv_2/depthwise"
  param {
    lr_mult: 1
    decay_mult: 1
  }
  convolution_param {
    num_output: 144
    bias_term: false
    pad: 1
    kernel_size: 3
    group: 144
    weight_filler {
      type: "msra"
    }
    engine: CAFFE
  }
}
layer {
  name: "conv_2/depthwise/bn"
  type: "BatchNorm"
  bottom: "conv_2/depthwise"
  top: "conv_2/depthwise"
}
layer {
  name: "conv_2/depthwise/scale"
  type: "Scale"
  bottom: "conv_2/depthwise"
  top: "conv_2/depthwise"
  param {
    lr_mult: 0.1
    decay_mult: 0
  }
  param {
    lr_mult: 0.2
    decay_mult: 0
  }
  scale_param {
    filler {
      value: 1
    }
    bias_term: true
    bias_filler {
      value: 0
    }
  }
}
layer {
  name: "conv_2/depthwise/relu"
  type: "ReLU"
  bottom: "conv_2/depthwise"
  top: "conv_2/depthwise"
}
layer {
  name: "conv_2/project"
  type: "Convolution"
  bottom: "conv_2/depthwise"
  top: "conv_2/project"
  param {
    lr_mult: 1
    decay_mult: 1
  }
  convolution_param {
    num_output: 24
    bias_term: false
    kernel_size: 1
    weight_filler {
      type: "msra"
    }
  }
}
layer {
  name: "conv_2/project/bn"
  type: "BatchNorm"
  bottom: "conv_2/project"
  top: "conv_2/project"
}
layer {
  name: "conv_2/project/scale"
  type: "Scale"
  bottom: "conv_2/project"
  top: "conv_2/project"
  param {
    lr_mult: 0.1
    decay_mult: 0
  }
  param {
    lr_mult: 0.2
    decay_mult: 0
  }
  scale_param {
    filler {
      value: 1
    }
    bias_term: true
    bias_filler {
      value: 0
    }
  }
}
layer {
  name: "conv_2project/sum"
  type: "Eltwise"
  bottom: "conv_1/project"
  bottom: "conv_2/project"
  top: "conv_2project"
}
layer {
  name: "conv_3/expand"
  type: "Convolution"
  bottom: "conv_2project"
  top: "conv_3/expand"
  param {
    lr_mult: 1
    decay_mult: 1
  }
  convolution_param {
    num_output: 144
    bias_term: false
    kernel_size: 1
    weight_filler {
      type: "msra"
    }
  }
}
layer {
  name: "conv_3/expand/bn"
  type: "BatchNorm"
  bottom: "conv_3/expand"
  top: "conv_3/expand"
}
layer {
  name: "conv_3/expand/scale"
  type: "Scale"
  bottom: "conv_3/expand"
  top: "conv_3/expand"
  param {
    lr_mult: 0.1
    decay_mult: 0
  }
  param {
    lr_mult: 0.2
    decay_mult: 0
  }
  scale_param {
    filler {
      value: 1
    }
    bias_term: true
    bias_filler {
      value: 0
    }
  }
}
layer {
  name: "conv_3/expand/relu"
  type: "ReLU"
  bottom: "conv_3/expand"
  top: "conv_3/expand"
}
layer {
  name: "conv_3/depthwise"
  type: "Convolution"
  bottom: "conv_3/expand"
  top: "conv_3/depthwise"
  param {
    lr_mult: 1
    decay_mult: 1
  }
  convolution_param {
    num_output: 144
    bias_term: false
    pad: 1
    kernel_size: 3
    group: 144
    stride: 2
    weight_filler {
      type: "msra"
    }
    engine: CAFFE
  }
}
layer {
  name: "conv_3/depthwise/bn"
  type: "BatchNorm"
  bottom: "conv_3/depthwise"
  top: "conv_3/depthwise"
}
layer {
  name: "conv_3/depthwise/scale"
  type: "Scale"
  bottom: "conv_3/depthwise"
  top: "conv_3/depthwise"
  param {
    lr_mult: 0.1
    decay_mult: 0
  }
  param {
    lr_mult: 0.2
    decay_mult: 0
  }
  scale_param {
    filler {
      value: 1
    }
    bias_term: true
    bias_filler {
      value: 0
    }
  }
}
layer {
  name: "conv_3/depthwise/relu"
  type: "ReLU"
  bottom: "conv_3/depthwise"
  top: "conv_3/depthwise"
}
layer {
  name: "conv_3/project"
  type: "Convolution"
  bottom: "conv_3/depthwise"
  top: "conv_3/project"
  param {
    lr_mult: 1
    decay_mult: 1
  }
  convolution_param {
    num_output: 32
    bias_term: false
    kernel_size: 1
    weight_filler {
      type: "msra"
    }
  }
}
layer {
  name: "conv_3/project/bn"
  type: "BatchNorm"
  bottom: "conv_3/project"
  top: "conv_3/project"
}
layer {
  name: "conv_3/project/scale"
  type: "Scale"
  bottom: "conv_3/project"
  top: "conv_3/project"
  param {
    lr_mult: 0.1
    decay_mult: 0
  }
  param {
    lr_mult: 0.2
    decay_mult: 0
  }
  scale_param {
    filler {
      value: 1
    }
    bias_term: true
    bias_filler {
      value: 0
    }
  }
}
layer {
  name: "conv_4/expand"
  type: "Convolution"
  bottom: "conv_3/project"
  top: "conv_4/expand"
  param {
    lr_mult: 1
    decay_mult: 1
  }
  convolution_param {
    num_output: 192
    bias_term: false
    kernel_size: 1
    weight_filler {
      type: "msra"
    }
  }
}
layer {
  name: "conv_4/expand/bn"
  type: "BatchNorm"
  bottom: "conv_4/expand"
  top: "conv_4/expand"
}
layer {
  name: "conv_4/expand/scale"
  type: "Scale"
  bottom: "conv_4/expand"
  top: "conv_4/expand"
  param {
    lr_mult: 0.1
    decay_mult: 0
  }
  param {
    lr_mult: 0.2
    decay_mult: 0
  }
  scale_param {
    filler {
      value: 1
    }
    bias_term: true
    bias_filler {
      value: 0
    }
  }
}
layer {
  name: "conv_4/expand/relu"
  type: "ReLU"
  bottom: "conv_4/expand"
  top: "conv_4/expand"
}
layer {
  name: "conv_4/depthwise"
  type: "Convolution"
  bottom: "conv_4/expand"
  top: "conv_4/depthwise"
  param {
    lr_mult: 1
    decay_mult: 1
  }
  convolution_param {
    num_output: 192
    bias_term: false
    pad: 1
    kernel_size: 3
    group: 192
    weight_filler {
      type: "msra"
    }
    engine: CAFFE
  }
}
layer {
  name: "conv_4/depthwise/bn"
  type: "BatchNorm"
  bottom: "conv_4/depthwise"
  top: "conv_4/depthwise"
}
layer {
  name: "conv_4/depthwise/scale"
  type: "Scale"
  bottom: "conv_4/depthwise"
  top: "conv_4/depthwise"
  param {
    lr_mult: 0.1
    decay_mult: 0
  }
  param {
    lr_mult: 0.2
    decay_mult: 0
  }
  scale_param {
    filler {
      value: 1
    }
    bias_term: true
    bias_filler {
      value: 0
    }
  }
}
layer {
  name: "conv_4/depthwise/relu"
  type: "ReLU"
  bottom: "conv_4/depthwise"
  top: "conv_4/depthwise"
}
layer {
  name: "conv_4/project"
  type: "Convolution"
  bottom: "conv_4/depthwise"
  top: "conv_4/project"
  param {
    lr_mult: 1
    decay_mult: 1
  }
  convolution_param {
    num_output: 32
    bias_term: false
    kernel_size: 1
    weight_filler {
      type: "msra"
    }
  }
}
layer {
  name: "conv_4/project/bn"
  type: "BatchNorm"
  bottom: "conv_4/project"
  top: "conv_4/project"
}
layer {
  name: "conv_4/project/scale"
  type: "Scale"
  bottom: "conv_4/project"
  top: "conv_4/project"
  param {
    lr_mult: 0.1
    decay_mult: 0
  }
  param {
    lr_mult: 0.2
    decay_mult: 0
  }
  scale_param {
    filler {
      value: 1
    }
    bias_term: true
    bias_filler {
      value: 0
    }
  }
}
layer {
  name: "conv_4project/sum"
  type: "Eltwise"
  bottom: "conv_3/project"
  bottom: "conv_4/project"
  top: "conv_4project"
}
layer {
  name: "conv_5/expand"
  type: "Convolution"
  bottom: "conv_4project"
  top: "conv_5/expand"
  param {
    lr_mult: 1
    decay_mult: 1
  }
  convolution_param {
    num_output: 192
    bias_term: false
    kernel_size: 1
    weight_filler {
      type: "msra"
    }
  }
}
layer {
  name: "conv_5/expand/bn"
  type: "BatchNorm"
  bottom: "conv_5/expand"
  top: "conv_5/expand"
}
layer {
  name: "conv_5/expand/scale"
  type: "Scale"
  bottom: "conv_5/expand"
  top: "conv_5/expand"
  param {
    lr_mult: 0.1
    decay_mult: 0
  }
  param {
    lr_mult: 0.2
    decay_mult: 0
  }
  scale_param {
    filler {
      value: 1
    }
    bias_term: true
    bias_filler {
      value: 0
    }
  }
}
layer {
  name: "conv_5/expand/relu"
  type: "ReLU"
  bottom: "conv_5/expand"
  top: "conv_5/expand"
}
layer {
  name: "conv_5/depthwise"
  type: "Convolution"
  bottom: "conv_5/expand"
  top: "conv_5/depthwise"
  param {
    lr_mult: 1
    decay_mult: 1
  }
  convolution_param {
    num_output: 192
    bias_term: false
    pad: 1
    kernel_size: 3
    group: 192
    weight_filler {
      type: "msra"
    }
    engine: CAFFE
  }
}
layer {
  name: "conv_5/depthwise/bn"
  type: "BatchNorm"
  bottom: "conv_5/depthwise"
  top: "conv_5/depthwise"
}
layer {
  name: "conv_5/depthwise/scale"
  type: "Scale"
  bottom: "conv_5/depthwise"
  top: "conv_5/depthwise"
  param {
    lr_mult: 0.1
    decay_mult: 0
  }
  param {
    lr_mult: 0.2
    decay_mult: 0
  }
  scale_param {
    filler {
      value: 1
    }
    bias_term: true
    bias_filler {
      value: 0
    }
  }
}
layer {
  name: "conv_5/depthwise/relu"
  type: "ReLU"
  bottom: "conv_5/depthwise"
  top: "conv_5/depthwise"
}
layer {
  name: "conv_5/project"
  type: "Convolution"
  bottom: "conv_5/depthwise"
  top: "conv_5/project"
  param {
    lr_mult: 1
    decay_mult: 1
  }
  convolution_param {
    num_output: 32
    bias_term: false
    kernel_size: 1
    weight_filler {
      type: "msra"
    }
  }
}
layer {
  name: "conv_5/project/bn"
  type: "BatchNorm"
  bottom: "conv_5/project"
  top: "conv_5/project"
}
layer {
  name: "conv_5/project/scale"
  type: "Scale"
  bottom: "conv_5/project"
  top: "conv_5/project"
  param {
    lr_mult: 0.1
    decay_mult: 0
  }
  param {
    lr_mult: 0.2
    decay_mult: 0
  }
  scale_param {
    filler {
      value: 1
    }
    bias_term: true
    bias_filler {
      value: 0
    }
  }
}
layer {
  name: "conv_5project/sum"
  type: "Eltwise"
  bottom: "conv_4project"
  bottom: "conv_5/project"
  top: "conv_5project"
}
layer {
  name: "conv_6/expand"
  type: "Convolution"
  bottom: "conv_5project"
  top: "conv_6/expand"
  param {
    lr_mult: 1
    decay_mult: 1
  }
  convolution_param {
    num_output: 192
    bias_term: false
    kernel_size: 1
    weight_filler {
      type: "msra"
    }
  }
}
layer {
  name: "conv_6/expand/bn"
  type: "BatchNorm"
  bottom: "conv_6/expand"
  top: "conv_6/expand"
}
layer {
  name: "conv_6/expand/scale"
  type: "Scale"
  bottom: "conv_6/expand"
  top: "conv_6/expand"
  param {
    lr_mult: 0.1
    decay_mult: 0
  }
  param {
    lr_mult: 0.2
    decay_mult: 0
  }
  scale_param {
    filler {
      value: 1
    }
    bias_term: true
    bias_filler {
      value: 0
    }
  }
}
layer {
  name: "conv_6/expand/relu"
  type: "ReLU"
  bottom: "conv_6/expand"
  top: "conv_6/expand"
}
layer {
  name: "conv_6/depthwise"
  type: "Convolution"
  bottom: "conv_6/expand"
  top: "conv_6/depthwise"
  param {
    lr_mult: 1
    decay_mult: 1
  }
  convolution_param {
    num_output: 192
    bias_term: false
    pad: 1
    kernel_size: 3
    group: 192
    stride: 2
    weight_filler {
      type: "msra"
    }
    engine: CAFFE
  }
}
layer {
  name: "conv_6/depthwise/bn"
  type: "BatchNorm"
  bottom: "conv_6/depthwise"
  top: "conv_6/depthwise"
}
layer {
  name: "conv_6/depthwise/scale"
  type: "Scale"
  bottom: "conv_6/depthwise"
  top: "conv_6/depthwise"
  param {
    lr_mult: 0.1
    decay_mult: 0
  }
  param {
    lr_mult: 0.2
    decay_mult: 0
  }
  scale_param {
    filler {
      value: 1
    }
    bias_term: true
    bias_filler {
      value: 0
    }
  }
}
layer {
  name: "conv_6/depthwise/relu"
  type: "ReLU"
  bottom: "conv_6/depthwise"
  top: "conv_6/depthwise"
}
layer {
  name: "conv_6/project"
  type: "Convolution"
  bottom: "conv_6/depthwise"
  top: "conv_6/project"
  param {
    lr_mult: 1
    decay_mult: 1
  }
  convolution_param {
    num_output: 64
    bias_term: false
    kernel_size: 1
    weight_filler {
      type: "msra"
    }
  }
}
layer {
  name: "conv_6/project/bn"
  type: "BatchNorm"
  bottom: "conv_6/project"
  top: "conv_6/project"
}
layer {
  name: "conv_6/project/scale"
  type: "Scale"
  bottom: "conv_6/project"
  top: "conv_6/project"
  param {
    lr_mult: 0.1
    decay_mult: 0
  }
  param {
    lr_mult: 0.2
    decay_mult: 0
  }
  scale_param {
    filler {
      value: 1
    }
    bias_term: true
    bias_filler {
      value: 0
    }
  }
}
layer {
  name: "conv_7/expand"
  type: "Convolution"
  bottom: "conv_6/project"
  top: "conv_7/expand"
  param {
    lr_mult: 1
    decay_mult: 1
  }
  convolution_param {
    num_output: 384
    bias_term: false
    kernel_size: 1
    weight_filler {
      type: "msra"
    }
  }
}
layer {
  name: "conv_7/expand/bn"
  type: "BatchNorm"
  bottom: "conv_7/expand"
  top: "conv_7/expand"
}
layer {
  name: "conv_7/expand/scale"
  type: "Scale"
  bottom: "conv_7/expand"
  top: "conv_7/expand"
  param {
    lr_mult: 0.1
    decay_mult: 0
  }
  param {
    lr_mult: 0.2
    decay_mult: 0
  }
  scale_param {
    filler {
      value: 1
    }
    bias_term: true
    bias_filler {
      value: 0
    }
  }
}
layer {
  name: "conv_7/expand/relu"
  type: "ReLU"
  bottom: "conv_7/expand"
  top: "conv_7/expand"
}
layer {
  name: "conv_7/depthwise"
  type: "Convolution"
  bottom: "conv_7/expand"
  top: "conv_7/depthwise"
  param {
    lr_mult: 1
    decay_mult: 1
  }
  convolution_param {
    num_output: 384
    bias_term: false
    pad: 1
    kernel_size: 3
    group: 384
    weight_filler {
      type: "msra"
    }
    engine: CAFFE
  }
}
layer {
  name: "conv_7/depthwise/bn"
  type: "BatchNorm"
  bottom: "conv_7/depthwise"
  top: "conv_7/depthwise"
}
layer {
  name: "conv_7/depthwise/scale"
  type: "Scale"
  bottom: "conv_7/depthwise"
  top: "conv_7/depthwise"
  param {
    lr_mult: 0.1
    decay_mult: 0
  }
  param {
    lr_mult: 0.2
    decay_mult: 0
  }
  scale_param {
    filler {
      value: 1
    }
    bias_term: true
    bias_filler {
      value: 0
    }
  }
}
layer {
  name: "conv_7/depthwise/relu"
  type: "ReLU"
  bottom: "conv_7/depthwise"
  top: "conv_7/depthwise"
}
layer {
  name: "conv_7/project"
  type: "Convolution"
  bottom: "conv_7/depthwise"
  top: "conv_7/project"
  param {
    lr_mult: 1
    decay_mult: 1
  }
  convolution_param {
    num_output: 64
    bias_term: false
    kernel_size: 1
    weight_filler {
      type: "msra"
    }
  }
}
layer {
  name: "conv_7/project/bn"
  type: "BatchNorm"
  bottom: "conv_7/project"
  top: "conv_7/project"
}
layer {
  name: "conv_7/project/scale"
  type: "Scale"
  bottom: "conv_7/project"
  top: "conv_7/project"
  param {
    lr_mult: 0.1
    decay_mult: 0
  }
  param {
    lr_mult: 0.2
    decay_mult: 0
  }
  scale_param {
    filler {
      value: 1
    }
    bias_term: true
    bias_filler {
      value: 0
    }
  }
}
layer {
  name: "conv_7project/sum"
  type: "Eltwise"
  bottom: "conv_6/project"
  bottom: "conv_7/project"
  top: "conv_7project"
}
layer {
  name: "conv_8/expand"
  type: "Convolution"
  bottom: "conv_7project"
  top: "conv_8/expand"
  param {
    lr_mult: 1
    decay_mult: 1
  }
  convolution_param {
    num_output: 384
    bias_term: false
    kernel_size: 1
    weight_filler {
      type: "msra"
    }
  }
}
layer {
  name: "conv_8/expand/bn"
  type: "BatchNorm"
  bottom: "conv_8/expand"
  top: "conv_8/expand"
}
layer {
  name: "conv_8/expand/scale"
  type: "Scale"
  bottom: "conv_8/expand"
  top: "conv_8/expand"
  param {
    lr_mult: 0.1
    decay_mult: 0
  }
  param {
    lr_mult: 0.2
    decay_mult: 0
  }
  scale_param {
    filler {
      value: 1
    }
    bias_term: true
    bias_filler {
      value: 0
    }
  }
}
layer {
  name: "conv_8/expand/relu"
  type: "ReLU"
  bottom: "conv_8/expand"
  top: "conv_8/expand"
}
layer {
  name: "conv_8/depthwise"
  type: "Convolution"
  bottom: "conv_8/expand"
  top: "conv_8/depthwise"
  param {
    lr_mult: 1
    decay_mult: 1
  }
  convolution_param {
    num_output: 384
    bias_term: false
    pad: 1
    kernel_size: 3
    group: 384
    weight_filler {
      type: "msra"
    }
    engine: CAFFE
  }
}
layer {
  name: "conv_8/depthwise/bn"
  type: "BatchNorm"
  bottom: "conv_8/depthwise"
  top: "conv_8/depthwise"
}
layer {
  name: "conv_8/depthwise/scale"
  type: "Scale"
  bottom: "conv_8/depthwise"
  top: "conv_8/depthwise"
  param {
    lr_mult: 0.1
    decay_mult: 0
  }
  param {
    lr_mult: 0.2
    decay_mult: 0
  }
  scale_param {
    filler {
      value: 1
    }
    bias_term: true
    bias_filler {
      value: 0
    }
  }
}
layer {
  name: "conv_8/depthwise/relu"
  type: "ReLU"
  bottom: "conv_8/depthwise"
  top: "conv_8/depthwise"
}
layer {
  name: "conv_8/project"
  type: "Convolution"
  bottom: "conv_8/depthwise"
  top: "conv_8/project"
  param {
    lr_mult: 1
    decay_mult: 1
  }
  convolution_param {
    num_output: 64
    bias_term: false
    kernel_size: 1
    weight_filler {
      type: "msra"
    }
  }
}
layer {
  name: "conv_8/project/bn"
  type: "BatchNorm"
  bottom: "conv_8/project"
  top: "conv_8/project"
}
layer {
  name: "conv_8/project/scale"
  type: "Scale"
  bottom: "conv_8/project"
  top: "conv_8/project"
  param {
    lr_mult: 0.1
    decay_mult: 0
  }
  param {
    lr_mult: 0.2
    decay_mult: 0
  }
  scale_param {
    filler {
      value: 1
    }
    bias_term: true
    bias_filler {
      value: 0
    }
  }
}
layer {
  name: "conv_8project/sum"
  type: "Eltwise"
  bottom: "conv_7project"
  bottom: "conv_8/project"
  top: "conv_8project"
}
layer {
  name: "conv_9/expand"
  type: "Convolution"
  bottom: "conv_8project"
  top: "conv_9/expand"
  param {
    lr_mult: 1
    decay_mult: 1
  }
  convolution_param {
    num_output: 384
    bias_term: false
    kernel_size: 1
    weight_filler {
      type: "msra"
    }
  }
}
layer {
  name: "conv_9/expand/bn"
  type: "BatchNorm"
  bottom: "conv_9/expand"
  top: "conv_9/expand"
}
layer {
  name: "conv_9/expand/scale"
  type: "Scale"
  bottom: "conv_9/expand"
  top: "conv_9/expand"
  param {
    lr_mult: 0.1
    decay_mult: 0
  }
  param {
    lr_mult: 0.2
    decay_mult: 0
  }
  scale_param {
    filler {
      value: 1
    }
    bias_term: true
    bias_filler {
      value: 0
    }
  }
}
layer {
  name: "conv_9/expand/relu"
  type: "ReLU"
  bottom: "conv_9/expand"
  top: "conv_9/expand"
}
layer {
  name: "conv_9/depthwise"
  type: "Convolution"
  bottom: "conv_9/expand"
  top: "conv_9/depthwise"
  param {
    lr_mult: 1
    decay_mult: 1
  }
  convolution_param {
    num_output: 384
    bias_term: false
    pad: 1
    kernel_size: 3
    group: 384
    weight_filler {
      type: "msra"
    }
    engine: CAFFE
  }
}
layer {
  name: "conv_9/depthwise/bn"
  type: "BatchNorm"
  bottom: "conv_9/depthwise"
  top: "conv_9/depthwise"
}
layer {
  name: "conv_9/depthwise/scale"
  type: "Scale"
  bottom: "conv_9/depthwise"
  top: "conv_9/depthwise"
  param {
    lr_mult: 0.1
    decay_mult: 0
  }
  param {
    lr_mult: 0.2
    decay_mult: 0
  }
  scale_param {
    filler {
      value: 1
    }
    bias_term: true
    bias_filler {
      value: 0
    }
  }
}
layer {
  name: "conv_9/depthwise/relu"
  type: "ReLU"
  bottom: "conv_9/depthwise"
  top: "conv_9/depthwise"
}
layer {
  name: "conv_9/project"
  type: "Convolution"
  bottom: "conv_9/depthwise"
  top: "conv_9/project"
  param {
    lr_mult: 1
    decay_mult: 1
  }
  convolution_param {
    num_output: 64
    bias_term: false
    kernel_size: 1
    weight_filler {
      type: "msra"
    }
  }
}
layer {
  name: "conv_9/project/bn"
  type: "BatchNorm"
  bottom: "conv_9/project"
  top: "conv_9/project"
}
layer {
  name: "conv_9/project/scale"
  type: "Scale"
  bottom: "conv_9/project"
  top: "conv_9/project"
  param {
    lr_mult: 0.1
    decay_mult: 0
  }
  param {
    lr_mult: 0.2
    decay_mult: 0
  }
  scale_param {
    filler {
      value: 1
    }
    bias_term: true
    bias_filler {
      value: 0
    }
  }
}
layer {
  name: "conv_9project/sum"
  type: "Eltwise"
  bottom: "conv_8project"
  bottom: "conv_9/project"
  top: "conv_9project"
}
layer {
  name: "conv_10/expand"
  type: "Convolution"
  bottom: "conv_9project"
  top: "conv_10/expand"
  param {
    lr_mult: 1
    decay_mult: 1
  }
  convolution_param {
    num_output: 384
    bias_term: false
    kernel_size: 1
    weight_filler {
      type: "msra"
    }
  }
}
layer {
  name: "conv_10/expand/bn"
  type: "BatchNorm"
  bottom: "conv_10/expand"
  top: "conv_10/expand"
}
layer {
  name: "conv_10/expand/scale"
  type: "Scale"
  bottom: "conv_10/expand"
  top: "conv_10/expand"
  param {
    lr_mult: 0.1
    decay_mult: 0
  }
  param {
    lr_mult: 0.2
    decay_mult: 0
  }
  scale_param {
    filler {
      value: 1
    }
    bias_term: true
    bias_filler {
      value: 0
    }
  }
}
layer {
  name: "conv_10/expand/relu"
  type: "ReLU"
  bottom: "conv_10/expand"
  top: "conv_10/expand"
}
layer {
  name: "conv_10/depthwise"
  type: "Convolution"
  bottom: "conv_10/expand"
  top: "conv_10/depthwise"
  param {
    lr_mult: 1
    decay_mult: 1
  }
  convolution_param {
    num_output: 384
    bias_term: false
    pad: 1
    kernel_size: 3
    group: 384
    weight_filler {
      type: "msra"
    }
    engine: CAFFE
  }
}
layer {
  name: "conv_10/depthwise/bn"
  type: "BatchNorm"
  bottom: "conv_10/depthwise"
  top: "conv_10/depthwise"
}
layer {
  name: "conv_10/depthwise/scale"
  type: "Scale"
  bottom: "conv_10/depthwise"
  top: "conv_10/depthwise"
  param {
    lr_mult: 0.1
    decay_mult: 0
  }
  param {
    lr_mult: 0.2
    decay_mult: 0
  }
  scale_param {
    filler {
      value: 1
    }
    bias_term: true
    bias_filler {
      value: 0
    }
  }
}
layer {
  name: "conv_10/depthwise/relu"
  type: "ReLU"
  bottom: "conv_10/depthwise"
  top: "conv_10/depthwise"
}
layer {
  name: "conv_10/project"
  type: "Convolution"
  bottom: "conv_10/depthwise"
  top: "conv_10/project"
  param {
    lr_mult: 1
    decay_mult: 1
  }
  convolution_param {
    num_output: 96
    bias_term: false
    kernel_size: 1
    weight_filler {
      type: "msra"
    }
  }
}
layer {
  name: "conv_10/project/bn"
  type: "BatchNorm"
  bottom: "conv_10/project"
  top: "conv_10/project"
}
layer {
  name: "conv_10/project/scale"
  type: "Scale"
  bottom: "conv_10/project"
  top: "conv_10/project"
  param {
    lr_mult: 0.1
    decay_mult: 0
  }
  param {
    lr_mult: 0.2
    decay_mult: 0
  }
  scale_param {
    filler {
      value: 1
    }
    bias_term: true

I0423 21:15:46.860985  4158 layer_factory.hpp:77] Creating layer data
I0423 21:15:46.861148  4158 net.cpp:100] Creating Layer data
I0423 21:15:46.861165  4158 net.cpp:408] data -> data
I0423 21:15:46.861204  4158 net.cpp:408] data -> label
I0423 21:15:46.862073  4172 db_lmdb.cpp:35] Opened lmdb trainval_lmdb
I0423 21:15:46.875229  4158 annotated_data_layer.cpp:62] output data size: 2,3,300,300
I0423 21:15:46.880856  4158 net.cpp:150] Setting up data
I0423 21:15:46.880887  4158 net.cpp:157] Top shape: 2 3 300 300 (540000)
I0423 21:15:46.880892  4158 net.cpp:157] Top shape: 1 1 1 8 (8)
I0423 21:15:46.880899  4158 net.cpp:165] Memory required for data: 2160032
I0423 21:15:46.880913  4158 layer_factory.hpp:77] Creating layer data_data_0_split
I0423 21:15:46.880931  4158 net.cpp:100] Creating Layer data_data_0_split
I0423 21:15:46.880941  4158 net.cpp:434] data_data_0_split <- data
I0423 21:15:46.880961  4158 net.cpp:408] data_data_0_split -> data_data_0_split_0
I0423 21:15:46.880977  4158 net.cpp:408] data_data_0_split -> data_data_0_split_1
I0423 21:15:46.880988  4158 net.cpp:408] data_data_0_split -> data_data_0_split_2
I0423 21:15:46.880996  4158 net.cpp:408] data_data_0_split -> data_data_0_split_3
I0423 21:15:46.881001  4158 net.cpp:408] data_data_0_split -> data_data_0_split_4
I0423 21:15:46.881011  4158 net.cpp:408] data_data_0_split -> data_data_0_split_5
I0423 21:15:46.881019  4158 net.cpp:408] data_data_0_split -> data_data_0_split_6
I0423 21:15:46.881126  4158 net.cpp:150] Setting up data_data_0_split
I0423 21:15:46.881135  4158 net.cpp:157] Top shape: 2 3 300 300 (540000)
I0423 21:15:46.881140  4158 net.cpp:157] Top shape: 2 3 300 300 (540000)
I0423 21:15:46.881191  4158 net.cpp:157] Top shape: 2 3 300 300 (540000)
I0423 21:15:46.881211  4158 net.cpp:157] Top shape: 2 3 300 300 (540000)
I0423 21:15:46.881217  4158 net.cpp:157] Top shape: 2 3 300 300 (540000)
I0423 21:15:46.881223  4158 net.cpp:157] Top shape: 2 3 300 300 (540000)
I0423 21:15:46.881232  4158 net.cpp:157] Top shape: 2 3 300 300 (540000)
I0423 21:15:46.881237  4158 net.cpp:165] Memory required for data: 17280032
I0423 21:15:46.881242  4158 layer_factory.hpp:77] Creating layer Conv
I0423 21:15:46.881265  4158 net.cpp:100] Creating Layer Conv
I0423 21:15:46.881271  4158 net.cpp:434] Conv <- data_data_0_split_0
I0423 21:15:46.881281  4158 net.cpp:408] Conv -> Conv
I0423 21:15:47.183069  4158 net.cpp:150] Setting up Conv
I0423 21:15:47.183099  4158 net.cpp:157] Top shape: 2 32 150 150 (1440000)
I0423 21:15:47.183106  4158 net.cpp:165] Memory required for data: 23040032
I0423 21:15:47.183125  4158 layer_factory.hpp:77] Creating layer Conv/bn
I0423 21:15:47.183140  4158 net.cpp:100] Creating Layer Conv/bn
I0423 21:15:47.183145  4158 net.cpp:434] Conv/bn <- Conv
I0423 21:15:47.183154  4158 net.cpp:395] Conv/bn -> Conv (in-place)
I0423 21:15:47.183826  4158 net.cpp:150] Setting up Conv/bn
I0423 21:15:47.183840  4158 net.cpp:157] Top shape: 2 32 150 150 (1440000)
I0423 21:15:47.183845  4158 net.cpp:165] Memory required for data: 28800032
I0423 21:15:47.183859  4158 layer_factory.hpp:77] Creating layer Conv/scale
I0423 21:15:47.183871  4158 net.cpp:100] Creating Layer Conv/scale
I0423 21:15:47.183877  4158 net.cpp:434] Conv/scale <- Conv
I0423 21:15:47.183887  4158 net.cpp:395] Conv/scale -> Conv (in-place)
I0423 21:15:47.183933  4158 layer_factory.hpp:77] Creating layer Conv/scale
I0423 21:15:47.184067  4158 net.cpp:150] Setting up Conv/scale
I0423 21:15:47.184077  4158 net.cpp:157] Top shape: 2 32 150 150 (1440000)
I0423 21:15:47.184082  4158 net.cpp:165] Memory required for data: 34560032
I0423 21:15:47.184092  4158 layer_factory.hpp:77] Creating layer Conv/relu
I0423 21:15:47.184100  4158 net.cpp:100] Creating Layer Conv/relu
I0423 21:15:47.184105  4158 net.cpp:434] Conv/relu <- Conv
I0423 21:15:47.184113  4158 net.cpp:395] Conv/relu -> Conv (in-place)
I0423 21:15:47.184465  4158 net.cpp:150] Setting up Conv/relu
I0423 21:15:47.184476  4158 net.cpp:157] Top shape: 2 32 150 150 (1440000)
I0423 21:15:47.184479  4158 net.cpp:165] Memory required for data: 40320032
I0423 21:15:47.184484  4158 layer_factory.hpp:77] Creating layer conv/depthwise
I0423 21:15:47.184491  4158 net.cpp:100] Creating Layer conv/depthwise
I0423 21:15:47.184506  4158 net.cpp:434] conv/depthwise <- Conv
I0423 21:15:47.184512  4158 net.cpp:408] conv/depthwise -> conv/depthwise
I0423 21:15:47.184675  4158 net.cpp:150] Setting up conv/depthwise
I0423 21:15:47.184684  4158 net.cpp:157] Top shape: 2 32 150 150 (1440000)
I0423 21:15:47.184686  4158 net.cpp:165] Memory required for data: 46080032
I0423 21:15:47.184690  4158 layer_factory.hpp:77] Creating layer conv/depthwise/bn
I0423 21:15:47.184695  4158 net.cpp:100] Creating Layer conv/depthwise/bn
I0423 21:15:47.184700  4158 net.cpp:434] conv/depthwise/bn <- conv/depthwise
I0423 21:15:47.184715  4158 net.cpp:395] conv/depthwise/bn -> conv/depthwise (in-place)
I0423 21:15:47.184880  4158 net.cpp:150] Setting up conv/depthwise/bn
I0423 21:15:47.184886  4158 net.cpp:157] Top shape: 2 32 150 150 (1440000)
I0423 21:15:47.184890  4158 net.cpp:165] Memory required for data: 51840032
I0423 21:15:47.184896  4158 layer_factory.hpp:77] Creating layer conv/depthwise/scale
I0423 21:15:47.184916  4158 net.cpp:100] Creating Layer conv/depthwise/scale
I0423 21:15:47.184921  4158 net.cpp:434] conv/depthwise/scale <- conv/depthwise
I0423 21:15:47.184937  4158 net.cpp:395] conv/depthwise/scale -> conv/depthwise (in-place)
I0423 21:15:47.184967  4158 layer_factory.hpp:77] Creating layer conv/depthwise/scale
I0423 21:15:47.185083  4158 net.cpp:150] Setting up conv/depthwise/scale
I0423 21:15:47.185092  4158 net.cpp:157] Top shape: 2 32 150 150 (1440000)
I0423 21:15:47.185097  4158 net.cpp:165] Memory required for data: 57600032
I0423 21:15:47.185125  4158 layer_factory.hpp:77] Creating layer conv/depthwise/relu
I0423 21:15:47.185132  4158 net.cpp:100] Creating Layer conv/depthwise/relu
I0423 21:15:47.185137  4158 net.cpp:434] conv/depthwise/relu <- conv/depthwise
I0423 21:15:47.185144  4158 net.cpp:395] conv/depthwise/relu -> conv/depthwise (in-place)
I0423 21:15:47.185272  4158 net.cpp:150] Setting up conv/depthwise/relu
I0423 21:15:47.185282  4158 net.cpp:157] Top shape: 2 32 150 150 (1440000)
I0423 21:15:47.185288  4158 net.cpp:165] Memory required for data: 63360032
I0423 21:15:47.185294  4158 layer_factory.hpp:77] Creating layer conv/project
I0423 21:15:47.185303  4158 net.cpp:100] Creating Layer conv/project
I0423 21:15:47.185308  4158 net.cpp:434] conv/project <- conv/depthwise
I0423 21:15:47.185326  4158 net.cpp:408] conv/project -> conv/project
I0423 21:15:47.186269  4158 net.cpp:150] Setting up conv/project
I0423 21:15:47.186281  4158 net.cpp:157] Top shape: 2 16 150 150 (720000)
I0423 21:15:47.186295  4158 net.cpp:165] Memory required for data: 66240032
I0423 21:15:47.186302  4158 layer_factory.hpp:77] Creating layer conv/project/bn
I0423 21:15:47.186321  4158 net.cpp:100] Creating Layer conv/project/bn
I0423 21:15:47.186336  4158 net.cpp:434] conv/project/bn <- conv/project
I0423 21:15:47.186343  4158 net.cpp:395] conv/project/bn -> conv/project (in-place)
I0423 21:15:47.186518  4158 net.cpp:150] Setting up conv/project/bn
I0423 21:15:47.186527  4158 net.cpp:157] Top shape: 2 16 150 150 (720000)
I0423 21:15:47.186533  4158 net.cpp:165] Memory required for data: 69120032
I0423 21:15:47.186542  4158 layer_factory.hpp:77] Creating layer conv/project/scale
I0423 21:15:47.186550  4158 net.cpp:100] Creating Layer conv/project/scale
I0423 21:15:47.186556  4158 net.cpp:434] conv/project/scale <- conv/project
I0423 21:15:47.186563  4158 net.cpp:395] conv/project/scale -> conv/project (in-place)
I0423 21:15:47.186604  4158 layer_factory.hpp:77] Creating layer conv/project/scale
I0423 21:15:47.186738  4158 net.cpp:150] Setting up conv/project/scale
I0423 21:15:47.186748  4158 net.cpp:157] Top shape: 2 16 150 150 (720000)
I0423 21:15:47.186754  4158 net.cpp:165] Memory required for data: 72000032
I0423 21:15:47.186764  4158 layer_factory.hpp:77] Creating layer conv_1/expand
I0423 21:15:47.186774  4158 net.cpp:100] Creating Layer conv_1/expand
I0423 21:15:47.186779  4158 net.cpp:434] conv_1/expand <- conv/project
I0423 21:15:47.186787  4158 net.cpp:408] conv_1/expand -> conv_1/expand
I0423 21:15:47.188228  4158 net.cpp:150] Setting up conv_1/expand
I0423 21:15:47.188242  4158 net.cpp:157] Top shape: 2 96 150 150 (4320000)
I0423 21:15:47.188259  4158 net.cpp:165] Memory required for data: 89280032
I0423 21:15:47.188267  4158 layer_factory.hpp:77] Creating layer conv_1/expand/bn
I0423 21:15:47.188274  4158 net.cpp:100] Creating Layer conv_1/expand/bn
I0423 21:15:47.188279  4158 net.cpp:434] conv_1/expand/bn <- conv_1/expand
I0423 21:15:47.188287  4158 net.cpp:395] conv_1/expand/bn -> conv_1/expand (in-place)
I0423 21:15:47.188480  4158 net.cpp:150] Setting up conv_1/expand/bn
I0423 21:15:47.188488  4158 net.cpp:157] Top shape: 2 96 150 150 (4320000)
I0423 21:15:47.188501  4158 net.cpp:165] Memory required for data: 106560032
I0423 21:15:47.188508  4158 layer_factory.hpp:77] Creating layer conv_1/expand/scale
I0423 21:15:47.188525  4158 net.cpp:100] Creating Layer conv_1/expand/scale
I0423 21:15:47.188529  4158 net.cpp:434] conv_1/expand/scale <- conv_1/expand
I0423 21:15:47.188537  4158 net.cpp:395] conv_1/expand/scale -> conv_1/expand (in-place)
I0423 21:15:47.188578  4158 layer_factory.hpp:77] Creating layer conv_1/expand/scale
I0423 21:15:47.189179  4158 net.cpp:150] Setting up conv_1/expand/scale
I0423 21:15:47.189190  4158 net.cpp:157] Top shape: 2 96 150 150 (4320000)
I0423 21:15:47.189204  4158 net.cpp:165] Memory required for data: 123840032
I0423 21:15:47.189222  4158 layer_factory.hpp:77] Creating layer conv_1/expand/relu
I0423 21:15:47.189244  4158 net.cpp:100] Creating Layer conv_1/expand/relu
I0423 21:15:47.189261  4158 net.cpp:434] conv_1/expand/relu <- conv_1/expand
I0423 21:15:47.189270  4158 net.cpp:395] conv_1/expand/relu -> conv_1/expand (in-place)
I0423 21:15:47.189617  4158 net.cpp:150] Setting up conv_1/expand/relu
I0423 21:15:47.189628  4158 net.cpp:157] Top shape: 2 96 150 150 (4320000)
I0423 21:15:47.189644  4158 net.cpp:165] Memory required for data: 141120032
I0423 21:15:47.189651  4158 layer_factory.hpp:77] Creating layer conv_1/depthwise
I0423 21:15:47.189663  4158 net.cpp:100] Creating Layer conv_1/depthwise
I0423 21:15:47.189668  4158 net.cpp:434] conv_1/depthwise <- conv_1/expand
I0423 21:15:47.189677  4158 net.cpp:408] conv_1/depthwise -> conv_1/depthwise
I0423 21:15:47.189841  4158 net.cpp:150] Setting up conv_1/depthwise
I0423 21:15:47.189849  4158 net.cpp:157] Top shape: 2 96 75 75 (1080000)
I0423 21:15:47.189864  4158 net.cpp:165] Memory required for data: 145440032
I0423 21:15:47.189872  4158 layer_factory.hpp:77] Creating layer conv_1/depthwise/bn
I0423 21:15:47.189878  4158 net.cpp:100] Creating Layer conv_1/depthwise/bn
I0423 21:15:47.189884  4158 net.cpp:434] conv_1/depthwise/bn <- conv_1/depthwise
I0423 21:15:47.189901  4158 net.cpp:395] conv_1/depthwise/bn -> conv_1/depthwise (in-place)
I0423 21:15:47.190552  4158 net.cpp:150] Setting up conv_1/depthwise/bn
I0423 21:15:47.190563  4158 net.cpp:157] Top shape: 2 96 75 75 (1080000)
I0423 21:15:47.190578  4158 net.cpp:165] Memory required for data: 149760032
I0423 21:15:47.190599  4158 layer_factory.hpp:77] Creating layer conv_1/depthwise/scale
I0423 21:15:47.190618  4158 net.cpp:100] Creating Layer conv_1/depthwise/scale
I0423 21:15:47.190623  4158 net.cpp:434] conv_1/depthwise/scale <- conv_1/depthwise
I0423 21:15:47.190631  4158 net.cpp:395] conv_1/depthwise/scale -> conv_1/depthwise (in-place)
I0423 21:15:47.190675  4158 layer_factory.hpp:77] Creating layer conv_1/depthwise/scale
I0423 21:15:47.190793  4158 net.cpp:150] Setting up conv_1/depthwise/scale
I0423 21:15:47.190802  4158 net.cpp:157] Top shape: 2 96 75 75 (1080000)
I0423 21:15:47.190816  4158 net.cpp:165] Memory required for data: 154080032
I0423 21:15:47.190825  4158 layer_factory.hpp:77] Creating layer conv_1/depthwise/relu
I0423 21:15:47.190831  4158 net.cpp:100] Creating Layer conv_1/depthwise/relu
I0423 21:15:47.190837  4158 net.cpp:434] conv_1/depthwise/relu <- conv_1/depthwise
I0423 21:15:47.190855  4158 net.cpp:395] conv_1/depthwise/relu -> conv_1/depthwise (in-place)
I0423 21:15:47.191010  4158 net.cpp:150] Setting up conv_1/depthwise/relu
I0423 21:15:47.191020  4158 net.cpp:157] Top shape: 2 96 75 75 (1080000)
I0423 21:15:47.191035  4158 net.cpp:165] Memory required for data: 158400032
I0423 21:15:47.191041  4158 layer_factory.hpp:77] Creating layer conv_1/project
I0423 21:15:47.191061  4158 net.cpp:100] Creating Layer conv_1/project
I0423 21:15:47.191066  4158 net.cpp:434] conv_1/project <- conv_1/depthwise
I0423 21:15:47.191090  4158 net.cpp:408] conv_1/project -> conv_1/project
I0423 21:15:47.192263  4158 net.cpp:150] Setting up conv_1/project
I0423 21:15:47.192276  4158 net.cpp:157] Top shape: 2 24 75 75 (270000)
I0423 21:15:47.192283  4158 net.cpp:165] Memory required for data: 159480032
I0423 21:15:47.192292  4158 layer_factory.hpp:77] Creating layer conv_1/project/bn
I0423 21:15:47.192299  4158 net.cpp:100] Creating Layer conv_1/project/bn
I0423 21:15:47.192306  4158 net.cpp:434] conv_1/project/bn <- conv_1/project
I0423 21:15:47.192312  4158 net.cpp:395] conv_1/project/bn -> conv_1/project (in-place)
I0423 21:15:47.192482  4158 net.cpp:150] Setting up conv_1/project/bn
I0423 21:15:47.192492  4158 net.cpp:157] Top shape: 2 24 75 75 (270000)
I0423 21:15:47.192497  4158 net.cpp:165] Memory required for data: 160560032
I0423 21:15:47.192509  4158 layer_factory.hpp:77] Creating layer conv_1/project/scale
I0423 21:15:47.192517  4158 net.cpp:100] Creating Layer conv_1/project/scale
I0423 21:15:47.192523  4158 net.cpp:434] conv_1/project/scale <- conv_1/project
I0423 21:15:47.192530  4158 net.cpp:395] conv_1/project/scale -> conv_1/project (in-place)
I0423 21:15:47.192574  4158 layer_factory.hpp:77] Creating layer conv_1/project/scale
I0423 21:15:47.192703  4158 net.cpp:150] Setting up conv_1/project/scale
I0423 21:15:47.192713  4158 net.cpp:157] Top shape: 2 24 75 75 (270000)
I0423 21:15:47.192718  4158 net.cpp:165] Memory required for data: 161640032
I0423 21:15:47.192725  4158 layer_factory.hpp:77] Creating layer conv_1/project_conv_1/project/scale_0_split
I0423 21:15:47.192744  4158 net.cpp:100] Creating Layer conv_1/project_conv_1/project/scale_0_split
I0423 21:15:47.192749  4158 net.cpp:434] conv_1/project_conv_1/project/scale_0_split <- conv_1/project
I0423 21:15:47.192752  4158 net.cpp:408] conv_1/project_conv_1/project/scale_0_split -> conv_1/project_conv_1/project/scale_0_split_0
I0423 21:15:47.192760  4158 net.cpp:408] conv_1/project_conv_1/project/scale_0_split -> conv_1/project_conv_1/project/scale_0_split_1
I0423 21:15:47.192801  4158 net.cpp:150] Setting up conv_1/project_conv_1/project/scale_0_split
I0423 21:15:47.192808  4158 net.cpp:157] Top shape: 2 24 75 75 (270000)
I0423 21:15:47.192822  4158 net.cpp:157] Top shape: 2 24 75 75 (270000)
I0423 21:15:47.192826  4158 net.cpp:165] Memory required for data: 163800032
I0423 21:15:47.192829  4158 layer_factory.hpp:77] Creating layer conv_2/expand
I0423 21:15:47.192836  4158 net.cpp:100] Creating Layer conv_2/expand
I0423 21:15:47.192839  4158 net.cpp:434] conv_2/expand <- conv_1/project_conv_1/project/scale_0_split_0
I0423 21:15:47.192844  4158 net.cpp:408] conv_2/expand -> conv_2/expand
I0423 21:15:47.193876  4158 net.cpp:150] Setting up conv_2/expand
I0423 21:15:47.193888  4158 net.cpp:157] Top shape: 2 144 75 75 (1620000)
I0423 21:15:47.193892  4158 net.cpp:165] Memory required for data: 170280032
I0423 21:15:47.193899  4158 layer_factory.hpp:77] Creating layer conv_2/expand/bn
I0423 21:15:47.193907  4158 net.cpp:100] Creating Layer conv_2/expand/bn
I0423 21:15:47.193913  4158 net.cpp:434] conv_2/expand/bn <- conv_2/expand
I0423 21:15:47.193920  4158 net.cpp:395] conv_2/expand/bn -> conv_2/expand (in-place)
I0423 21:15:47.194082  4158 net.cpp:150] Setting up conv_2/expand/bn
I0423 21:15:47.194090  4158 net.cpp:157] Top shape: 2 144 75 75 (1620000)
I0423 21:15:47.194095  4158 net.cpp:165] Memory required for data: 176760032
I0423 21:15:47.194104  4158 layer_factory.hpp:77] Creating layer conv_2/expand/scale
I0423 21:15:47.194113  4158 net.cpp:100] Creating Layer conv_2/expand/scale
I0423 21:15:47.194118  4158 net.cpp:434] conv_2/expand/scale <- conv_2/expand
I0423 21:15:47.194125  4158 net.cpp:395] conv_2/expand/scale -> conv_2/expand (in-place)
I0423 21:15:47.194159  4158 layer_factory.hpp:77] Creating layer conv_2/expand/scale
I0423 21:15:47.194258  4158 net.cpp:150] Setting up conv_2/expand/scale
I0423 21:15:47.194267  4158 net.cpp:157] Top shape: 2 144 75 75 (1620000)
I0423 21:15:47.194272  4158 net.cpp:165] Memory required for data: 183240032
I0423 21:15:47.194280  4158 layer_factory.hpp:77] Creating layer conv_2/expand/relu
I0423 21:15:47.194288  4158 net.cpp:100] Creating Layer conv_2/expand/relu
I0423 21:15:47.194293  4158 net.cpp:434] conv_2/expand/relu <- conv_2/expand
I0423 21:15:47.194298  4158 net.cpp:395] conv_2/expand/relu -> conv_2/expand (in-place)
I0423 21:15:47.194646  4158 net.cpp:150] Setting up conv_2/expand/relu
I0423 21:15:47.194658  4158 net.cpp:157] Top shape: 2 144 75 75 (1620000)
I0423 21:15:47.194664  4158 net.cpp:165] Memory required for data: 189720032
I0423 21:15:47.194670  4158 layer_factory.hpp:77] Creating layer conv_2/depthwise
I0423 21:15:47.194679  4158 net.cpp:100] Creating Layer conv_2/depthwise
I0423 21:15:47.194684  4158 net.cpp:434] conv_2/depthwise <- conv_2/expand
I0423 21:15:47.194692  4158 net.cpp:408] conv_2/depthwise -> conv_2/depthwise
I0423 21:15:47.194871  4158 net.cpp:150] Setting up conv_2/depthwise
I0423 21:15:47.194881  4158 net.cpp:157] Top shape: 2 144 75 75 (1620000)
I0423 21:15:47.194886  4158 net.cpp:165] Memory required for data: 196200032
I0423 21:15:47.194895  4158 layer_factory.hpp:77] Creating layer conv_2/depthwise/bn
I0423 21:15:47.194901  4158 net.cpp:100] Creating Layer conv_2/depthwise/bn
I0423 21:15:47.194916  4158 net.cpp:434] conv_2/depthwise/bn <- conv_2/depthwise
I0423 21:15:47.194924  4158 net.cpp:395] conv_2/depthwise/bn -> conv_2/depthwise (in-place)
I0423 21:15:47.195093  4158 net.cpp:150] Setting up conv_2/depthwise/bn
I0423 21:15:47.195102  4158 net.cpp:157] Top shape: 2 144 75 75 (1620000)
I0423 21:15:47.195107  4158 net.cpp:165] Memory required for data: 202680032
I0423 21:15:47.195116  4158 layer_factory.hpp:77] Creating layer conv_2/depthwise/scale
I0423 21:15:47.195123  4158 net.cpp:100] Creating Layer conv_2/depthwise/scale
I0423 21:15:47.195128  4158 net.cpp:434] conv_2/depthwise/scale <- conv_2/depthwise
I0423 21:15:47.195135  4158 net.cpp:395] conv_2/depthwise/scale -> conv_2/depthwise (in-place)
I0423 21:15:47.195166  4158 layer_factory.hpp:77] Creating layer conv_2/depthwise/scale
I0423 21:15:47.195260  4158 net.cpp:150] Setting up conv_2/depthwise/scale
I0423 21:15:47.195268  4158 net.cpp:157] Top shape: 2 144 75 75 (1620000)
I0423 21:15:47.195273  4158 net.cpp:165] Memory required for data: 209160032
I0423 21:15:47.195281  4158 layer_factory.hpp:77] Creating layer conv_2/depthwise/relu
I0423 21:15:47.195292  4158 net.cpp:100] Creating Layer conv_2/depthwise/relu
I0423 21:15:47.195307  4158 net.cpp:434] conv_2/depthwise/relu <- conv_2/depthwise
I0423 21:15:47.195313  4158 net.cpp:395] conv_2/depthwise/relu -> conv_2/depthwise (in-place)
I0423 21:15:47.195696  4158 net.cpp:150] Setting up conv_2/depthwise/relu
I0423 21:15:47.195708  4158 net.cpp:157] Top shape: 2 144 75 75 (1620000)
I0423 21:15:47.195714  4158 net.cpp:165] Memory required for data: 215640032
I0423 21:15:47.195720  4158 layer_factory.hpp:77] Creating layer conv_2/project
I0423 21:15:47.195730  4158 net.cpp:100] Creating Layer conv_2/project
I0423 21:15:47.195735  4158 net.cpp:434] conv_2/project <- conv_2/depthwise
I0423 21:15:47.195744  4158 net.cpp:408] conv_2/project -> conv_2/project
I0423 21:15:47.196801  4158 net.cpp:150] Setting up conv_2/project
I0423 21:15:47.196815  4158 net.cpp:157] Top shape: 2 24 75 75 (270000)
I0423 21:15:47.196821  4158 net.cpp:165] Memory required for data: 216720032
I0423 21:15:47.196830  4158 layer_factory.hpp:77] Creating layer conv_2/project/bn
I0423 21:15:47.196846  4158 net.cpp:100] Creating Layer conv_2/project/bn
I0423 21:15:47.196851  4158 net.cpp:434] conv_2/project/bn <- conv_2/project
I0423 21:15:47.196858  4158 net.cpp:395] conv_2/project/bn -> conv_2/project (in-place)
I0423 21:15:47.197046  4158 net.cpp:150] Setting up conv_2/project/bn
I0423 21:15:47.197053  4158 net.cpp:157] Top shape: 2 24 75 75 (270000)
I0423 21:15:47.197057  4158 net.cpp:165] Memory required for data: 217800032
I0423 21:15:47.197062  4158 layer_factory.hpp:77] Creating layer conv_2/project/scale
I0423 21:15:47.197070  4158 net.cpp:100] Creating Layer conv_2/project/scale
I0423 21:15:47.197088  4158 net.cpp:434] conv_2/project/scale <- conv_2/project
I0423 21:15:47.197091  4158 net.cpp:395] conv_2/project/scale -> conv_2/project (in-place)
I0423 21:15:47.197157  4158 layer_factory.hpp:77] Creating layer conv_2/project/scale
I0423 21:15:47.197299  4158 net.cpp:150] Setting up conv_2/project/scale
I0423 21:15:47.197305  4158 net.cpp:157] Top shape: 2 24 75 75 (270000)
I0423 21:15:47.197319  4158 net.cpp:165] Memory required for data: 218880032
I0423 21:15:47.197324  4158 layer_factory.hpp:77] Creating layer conv_2project/sum
I0423 21:15:47.197330  4158 net.cpp:100] Creating Layer conv_2project/sum
I0423 21:15:47.197335  4158 net.cpp:434] conv_2project/sum <- conv_1/project_conv_1/project/scale_0_split_1
I0423 21:15:47.197340  4158 net.cpp:434] conv_2project/sum <- conv_2/project
I0423 21:15:47.197347  4158 net.cpp:408] conv_2project/sum -> conv_2project
I0423 21:15:47.197371  4158 net.cpp:150] Setting up conv_2project/sum
I0423 21:15:47.197388  4158 net.cpp:157] Top shape: 2 24 75 75 (270000)
I0423 21:15:47.197393  4158 net.cpp:165] Memory required for data: 219960032
I0423 21:15:47.197409  4158 layer_factory.hpp:77] Creating layer conv_3/expand
I0423 21:15:47.197418  4158 net.cpp:100] Creating Layer conv_3/expand
I0423 21:15:47.197438  4158 net.cpp:434] conv_3/expand <- conv_2project
I0423 21:15:47.197446  4158 net.cpp:408] conv_3/expand -> conv_3/expand
I0423 21:15:47.198518  4158 net.cpp:150] Setting up conv_3/expand
I0423 21:15:47.198530  4158 net.cpp:157] Top shape: 2 144 75 75 (1620000)
I0423 21:15:47.198546  4158 net.cpp:165] Memory required for data: 226440032
I0423 21:15:47.198554  4158 layer_factory.hpp:77] Creating layer conv_3/expand/bn
I0423 21:15:47.198562  4158 net.cpp:100] Creating Layer conv_3/expand/bn
I0423 21:15:47.198567  4158 net.cpp:434] conv_3/expand/bn <- conv_3/expand
I0423 21:15:47.198575  4158 net.cpp:395] conv_3/expand/bn -> conv_3/expand (in-place)
I0423 21:15:47.198757  4158 net.cpp:150] Setting up conv_3/expand/bn
I0423 21:15:47.198766  4158 net.cpp:157] Top shape: 2 144 75 75 (1620000)
I0423 21:15:47.198770  4158 net.cpp:165] Memory required for data: 232920032
I0423 21:15:47.198776  4158 layer_factory.hpp:77] Creating layer conv_3/expand/scale
I0423 21:15:47.198784  4158 net.cpp:100] Creating Layer conv_3/expand/scale
I0423 21:15:47.198788  4158 net.cpp:434] conv_3/expand/scale <- conv_3/expand
I0423 21:15:47.198794  4158 net.cpp:395] conv_3/expand/scale -> conv_3/expand (in-place)
I0423 21:15:47.198828  4158 layer_factory.hpp:77] Creating layer conv_3/expand/scale
I0423 21:15:47.198938  4158 net.cpp:150] Setting up conv_3/expand/scale
I0423 21:15:47.198948  4158 net.cpp:157] Top shape: 2 144 75 75 (1620000)
I0423 21:15:47.198953  4158 net.cpp:165] Memory required for data: 239400032
I0423 21:15:47.198962  4158 layer_factory.hpp:77] Creating layer conv_3/expand/relu
I0423 21:15:47.198969  4158 net.cpp:100] Creating Layer conv_3/expand/relu
I0423 21:15:47.198974  4158 net.cpp:434] conv_3/expand/relu <- conv_3/expand
I0423 21:15:47.198982  4158 net.cpp:395] conv_3/expand/relu -> conv_3/expand (in-place)
I0423 21:15:47.199170  4158 net.cpp:150] Setting up conv_3/expand/relu
I0423 21:15:47.199184  4158 net.cpp:157] Top shape: 2 144 75 75 (1620000)
I0423 21:15:47.199192  4158 net.cpp:165] Memory required for data: 245880032
I0423 21:15:47.199198  4158 layer_factory.hpp:77] Creating layer conv_3/depthwise
I0423 21:15:47.199211  4158 net.cpp:100] Creating Layer conv_3/depthwise
I0423 21:15:47.199218  4158 net.cpp:434] conv_3/depthwise <- conv_3/expand
I0423 21:15:47.199229  4158 net.cpp:408] conv_3/depthwise -> conv_3/depthwise
I0423 21:15:47.199419  4158 net.cpp:150] Setting up conv_3/depthwise
I0423 21:15:47.199429  4158 net.cpp:157] Top shape: 2 144 38 38 (415872)
I0423 21:15:47.199446  4158 net.cpp:165] Memory required for data: 247543520
I0423 21:15:47.199455  4158 layer_factory.hpp:77] Creating layer conv_3/depthwise/bn
I0423 21:15:47.199462  4158 net.cpp:100] Creating Layer conv_3/depthwise/bn
I0423 21:15:47.199468  4158 net.cpp:434] conv_3/depthwise/bn <- conv_3/depthwise
I0423 21:15:47.199476  4158 net.cpp:395] conv_3/depthwise/bn -> conv_3/depthwise (in-place)
I0423 21:15:47.199637  4158 net.cpp:150] Setting up conv_3/depthwise/bn
I0423 21:15:47.199645  4158 net.cpp:157] Top shape: 2 144 38 38 (415872)
I0423 21:15:47.199661  4158 net.cpp:165] Memory required for data: 249207008
I0423 21:15:47.199667  4158 layer_factory.hpp:77] Creating layer conv_3/depthwise/scale
I0423 21:15:47.199674  4158 net.cpp:100] Creating Layer conv_3/depthwise/scale
I0423 21:15:47.199678  4158 net.cpp:434] conv_3/depthwise/scale <- conv_3/depthwise
I0423 21:15:47.199683  4158 net.cpp:395] conv_3/depthwise/scale -> conv_3/depthwise (in-place)
I0423 21:15:47.199717  4158 layer_factory.hpp:77] Creating layer conv_3/depthwise/scale
I0423 21:15:47.199843  4158 net.cpp:150] Setting up conv_3/depthwise/scale
I0423 21:15:47.199852  4158 net.cpp:157] Top shape: 2 144 38 38 (415872)
I0423 21:15:47.199857  4158 net.cpp:165] Memory required for data: 250870496
I0423 21:15:47.199872  4158 layer_factory.hpp:77] Creating layer conv_3/depthwise/relu
I0423 21:15:47.199879  4158 net.cpp:100] Creating Layer conv_3/depthwise/relu
I0423 21:15:47.199885  4158 net.cpp:434] conv_3/depthwise/relu <- conv_3/depthwise
I0423 21:15:47.199908  4158 net.cpp:395] conv_3/depthwise/relu -> conv_3/depthwise (in-place)
I0423 21:15:47.200331  4158 net.cpp:150] Setting up conv_3/depthwise/relu
I0423 21:15:47.200343  4158 net.cpp:157] Top shape: 2 144 38 38 (415872)
I0423 21:15:47.200350  4158 net.cpp:165] Memory required for data: 252533984
I0423 21:15:47.200356  4158 layer_factory.hpp:77] Creating layer conv_3/project
I0423 21:15:47.200366  4158 net.cpp:100] Creating Layer conv_3/project
I0423 21:15:47.200371  4158 net.cpp:434] conv_3/project <- conv_3/depthwise
I0423 21:15:47.200379  4158 net.cpp:408] conv_3/project -> conv_3/project
I0423 21:15:47.201575  4158 net.cpp:150] Setting up conv_3/project
I0423 21:15:47.201586  4158 net.cpp:157] Top shape: 2 32 38 38 (92416)
I0423 21:15:47.201591  4158 net.cpp:165] Memory required for data: 252903648
I0423 21:15:47.201596  4158 layer_factory.hpp:77] Creating layer conv_3/project/bn
I0423 21:15:47.201603  4158 net.cpp:100] Creating Layer conv_3/project/bn
I0423 21:15:47.201609  4158 net.cpp:434] conv_3/project/bn <- conv_3/project
I0423 21:15:47.201617  4158 net.cpp:395] conv_3/project/bn -> conv_3/project (in-place)
I0423 21:15:47.201800  4158 net.cpp:150] Setting up conv_3/project/bn
I0423 21:15:47.201809  4158 net.cpp:157] Top shape: 2 32 38 38 (92416)
I0423 21:15:47.201815  4158 net.cpp:165] Memory required for data: 253273312
I0423 21:15:47.201825  4158 layer_factory.hpp:77] Creating layer conv_3/project/scale
I0423 21:15:47.201841  4158 net.cpp:100] Creating Layer conv_3/project/scale
I0423 21:15:47.201848  4158 net.cpp:434] conv_3/project/scale <- conv_3/project
I0423 21:15:47.201855  4158 net.cpp:395] conv_3/project/scale -> conv_3/project (in-place)
I0423 21:15:47.201890  4158 layer_factory.hpp:77] Creating layer conv_3/project/scale
I0423 21:15:47.201983  4158 net.cpp:150] Setting up conv_3/project/scale
I0423 21:15:47.201992  4158 net.cpp:157] Top shape: 2 32 38 38 (92416)
I0423 21:15:47.201997  4158 net.cpp:165] Memory required for data: 253642976
I0423 21:15:47.202006  4158 layer_factory.hpp:77] Creating layer conv_3/project_conv_3/project/scale_0_split
I0423 21:15:47.202014  4158 net.cpp:100] Creating Layer conv_3/project_conv_3/project/scale_0_split
I0423 21:15:47.202019  4158 net.cpp:434] conv_3/project_conv_3/project/scale_0_split <- conv_3/project
I0423 21:15:47.202028  4158 net.cpp:408] conv_3/project_conv_3/project/scale_0_split -> conv_3/project_conv_3/project/scale_0_split_0
I0423 21:15:47.202035  4158 net.cpp:408] conv_3/project_conv_3/project/scale_0_split -> conv_3/project_conv_3/project/scale_0_split_1
I0423 21:15:47.202073  4158 net.cpp:150] Setting up conv_3/project_conv_3/project/scale_0_split
I0423 21:15:47.202081  4158 net.cpp:157] Top shape: 2 32 38 38 (92416)
I0423 21:15:47.202085  4158 net.cpp:157] Top shape: 2 32 38 38 (92416)
I0423 21:15:47.202087  4158 net.cpp:165] Memory required for data: 254382304
I0423 21:15:47.202092  4158 layer_factory.hpp:77] Creating layer conv_4/expand
I0423 21:15:47.202100  4158 net.cpp:100] Creating Layer conv_4/expand
I0423 21:15:47.202105  4158 net.cpp:434] conv_4/expand <- conv_3/project_conv_3/project/scale_0_split_0
I0423 21:15:47.202111  4158 net.cpp:408] conv_4/expand -> conv_4/expand
I0423 21:15:47.203166  4158 net.cpp:150] Setting up conv_4/expand
I0423 21:15:47.203176  4158 net.cpp:157] Top shape: 2 192 38 38 (554496)
I0423 21:15:47.203191  4158 net.cpp:165] Memory required for data: 256600288
I0423 21:15:47.203197  4158 layer_factory.hpp:77] Creating layer conv_4/expand/bn
I0423 21:15:47.203207  4158 net.cpp:100] Creating Layer conv_4/expand/bn
I0423 21:15:47.203220  4158 net.cpp:434] conv_4/expand/bn <- conv_4/expand
I0423 21:15:47.203227  4158 net.cpp:395] conv_4/expand/bn -> conv_4/expand (in-place)
I0423 21:15:47.203394  4158 net.cpp:150] Setting up conv_4/expand/bn
I0423 21:15:47.203403  4158 net.cpp:157] Top shape: 2 192 38 38 (554496)
I0423 21:15:47.203409  4158 net.cpp:165] Memory required for data: 258818272
I0423 21:15:47.203418  4158 layer_factory.hpp:77] Creating layer conv_4/expand/scale
I0423 21:15:47.203438  4158 net.cpp:100] Creating Layer conv_4/expand/scale
I0423 21:15:47.203444  4158 net.cpp:434] conv_4/expand/scale <- conv_4/expand
I0423 21:15:47.203451  4158 net.cpp:395] conv_4/expand/scale -> conv_4/expand (in-place)
I0423 21:15:47.203486  4158 layer_factory.hpp:77] Creating layer conv_4/expand/scale
I0423 21:15:47.203579  4158 net.cpp:150] Setting up conv_4/expand/scale
I0423 21:15:47.203588  4158 net.cpp:157] Top shape: 2 192 38 38 (554496)
I0423 21:15:47.203593  4158 net.cpp:165] Memory required for data: 261036256
I0423 21:15:47.203601  4158 layer_factory.hpp:77] Creating layer conv_4/expand/relu
I0423 21:15:47.203608  4158 net.cpp:100] Creating Layer conv_4/expand/relu
I0423 21:15:47.203613  4158 net.cpp:434] conv_4/expand/relu <- conv_4/expand
I0423 21:15:47.203619  4158 net.cpp:395] conv_4/expand/relu -> conv_4/expand (in-place)
I0423 21:15:47.203779  4158 net.cpp:150] Setting up conv_4/expand/relu
I0423 21:15:47.203788  4158 net.cpp:157] Top shape: 2 192 38 38 (554496)
I0423 21:15:47.203802  4158 net.cpp:165] Memory required for data: 263254240
I0423 21:15:47.203805  4158 layer_factory.hpp:77] Creating layer conv_4/depthwise
I0423 21:15:47.203814  4158 net.cpp:100] Creating Layer conv_4/depthwise
I0423 21:15:47.203819  4158 net.cpp:434] conv_4/depthwise <- conv_4/expand
I0423 21:15:47.203822  4158 net.cpp:408] conv_4/depthwise -> conv_4/depthwise
I0423 21:15:47.204035  4158 net.cpp:150] Setting up conv_4/depthwise
I0423 21:15:47.204048  4158 net.cpp:157] Top shape: 2 192 38 38 (554496)
I0423 21:15:47.204052  4158 net.cpp:165] Memory required for data: 265472224
I0423 21:15:47.204056  4158 layer_factory.hpp:77] Creating layer conv_4/depthwise/bn
I0423 21:15:47.204072  4158 net.cpp:100] Creating Layer conv_4/depthwise/bn
I0423 21:15:47.204077  4158 net.cpp:434] conv_4/depthwise/bn <- conv_4/depthwise
I0423 21:15:47.204082  4158 net.cpp:395] conv_4/depthwise/bn -> conv_4/depthwise (in-place)
I0423 21:15:47.204246  4158 net.cpp:150] Setting up conv_4/depthwise/bn
I0423 21:15:47.204252  4158 net.cpp:157] Top shape: 2 192 38 38 (554496)
I0423 21:15:47.204255  4158 net.cpp:165] Memory required for data: 267690208
I0423 21:15:47.204260  4158 layer_factory.hpp:77] Creating layer conv_4/depthwise/scale
I0423 21:15:47.204280  4158 net.cpp:100] Creating Layer conv_4/depthwise/scale
I0423 21:15:47.204285  4158 net.cpp:434] conv_4/depthwise/scale <- conv_4/depthwise
I0423 21:15:47.204289  4158 net.cpp:395] conv_4/depthwise/scale -> conv_4/depthwise (in-place)
I0423 21:15:47.204332  4158 layer_factory.hpp:77] Creating layer conv_4/depthwise/scale
I0423 21:15:47.204427  4158 net.cpp:150] Setting up conv_4/depthwise/scale
I0423 21:15:47.204437  4158 net.cpp:157] Top shape: 2 192 38 38 (554496)
I0423 21:15:47.204442  4158 net.cpp:165] Memory required for data: 269908192
I0423 21:15:47.204450  4158 layer_factory.hpp:77] Creating layer conv_4/depthwise/relu
I0423 21:15:47.204457  4158 net.cpp:100] Creating Layer conv_4/depthwise/relu
I0423 21:15:47.204461  4158 net.cpp:434] conv_4/depthwise/relu <- conv_4/depthwise
I0423 21:15:47.204468  4158 net.cpp:395] conv_4/depthwise/relu -> conv_4/depthwise (in-place)
I0423 21:15:47.204807  4158 net.cpp:150] Setting up conv_4/depthwise/relu
I0423 21:15:47.204818  4158 net.cpp:157] Top shape: 2 192 38 38 (554496)
I0423 21:15:47.204824  4158 net.cpp:165] Memory required for data: 272126176
I0423 21:15:47.204830  4158 layer_factory.hpp:77] Creating layer conv_4/project
I0423 21:15:47.204839  4158 net.cpp:100] Creating Layer conv_4/project
I0423 21:15:47.204844  4158 net.cpp:434] conv_4/project <- conv_4/depthwise
I0423 21:15:47.204854  4158 net.cpp:408] conv_4/project -> conv_4/project
I0423 21:15:47.205917  4158 net.cpp:150] Setting up conv_4/project
I0423 21:15:47.205930  4158 net.cpp:157] Top shape: 2 32 38 38 (92416)
I0423 21:15:47.205936  4158 net.cpp:165] Memory required for data: 272495840
I0423 21:15:47.205945  4158 layer_factory.hpp:77] Creating layer conv_4/project/bn
I0423 21:15:47.205951  4158 net.cpp:100] Creating Layer conv_4/project/bn
I0423 21:15:47.205967  4158 net.cpp:434] conv_4/project/bn <- conv_4/project
I0423 21:15:47.205983  4158 net.cpp:395] conv_4/project/bn -> conv_4/project (in-place)
I0423 21:15:47.206156  4158 net.cpp:150] Setting up conv_4/project/bn
I0423 21:15:47.206164  4158 net.cpp:157] Top shape: 2 32 38 38 (92416)
I0423 21:15:47.206168  4158 net.cpp:165] Memory required for data: 272865504
I0423 21:15:47.206174  4158 layer_factory.hpp:77] Creating layer conv_4/project/scale
I0423 21:15:47.206182  4158 net.cpp:100] Creating Layer conv_4/project/scale
I0423 21:15:47.206188  4158 net.cpp:434] conv_4/project/scale <- conv_4/project
I0423 21:15:47.206197  4158 net.cpp:395] conv_4/project/scale -> conv_4/project (in-place)
I0423 21:15:47.206231  4158 layer_factory.hpp:77] Creating layer conv_4/project/scale
I0423 21:15:47.206331  4158 net.cpp:150] Setting up conv_4/project/scale
I0423 21:15:47.206341  4158 net.cpp:157] Top shape: 2 32 38 38 (92416)
I0423 21:15:47.206346  4158 net.cpp:165] Memory required for data: 273235168
I0423 21:15:47.206356  4158 layer_factory.hpp:77] Creating layer conv_4project/sum
I0423 21:15:47.206362  4158 net.cpp:100] Creating Layer conv_4project/sum
I0423 21:15:47.206368  4158 net.cpp:434] conv_4project/sum <- conv_3/project_conv_3/project/scale_0_split_1
I0423 21:15:47.206375  4158 net.cpp:434] conv_4project/sum <- conv_4/project
I0423 21:15:47.206382  4158 net.cpp:408] conv_4project/sum -> conv_4project
I0423 21:15:47.206405  4158 net.cpp:150] Setting up conv_4project/sum
I0423 21:15:47.206413  4158 net.cpp:157] Top shape: 2 32 38 38 (92416)
I0423 21:15:47.206418  4158 net.cpp:165] Memory required for data: 273604832
I0423 21:15:47.206425  4158 layer_factory.hpp:77] Creating layer conv_4project_conv_4project/sum_0_split
I0423 21:15:47.206432  4158 net.cpp:100] Creating Layer conv_4project_conv_4project/sum_0_split
I0423 21:15:47.206439  4158 net.cpp:434] conv_4project_conv_4project/sum_0_split <- conv_4project
I0423 21:15:47.206454  4158 net.cpp:408] conv_4project_conv_4project/sum_0_split -> conv_4project_conv_4project/sum_0_split_0
I0423 21:15:47.206462  4158 net.cpp:408] conv_4project_conv_4project/sum_0_split -> conv_4project_conv_4project/sum_0_split_1
I0423 21:15:47.206502  4158 net.cpp:150] Setting up conv_4project_conv_4project/sum_0_split
I0423 21:15:47.206509  4158 net.cpp:157] Top shape: 2 32 38 38 (92416)
I0423 21:15:47.206514  4158 net.cpp:157] Top shape: 2 32 38 38 (92416)
I0423 21:15:47.206518  4158 net.cpp:165] Memory required for data: 274344160
I0423 21:15:47.206522  4158 layer_factory.hpp:77] Creating layer conv_5/expand
I0423 21:15:47.206537  4158 net.cpp:100] Creating Layer conv_5/expand
I0423 21:15:47.206540  4158 net.cpp:434] conv_5/expand <- conv_4project_conv_4project/sum_0_split_0
I0423 21:15:47.206547  4158 net.cpp:408] conv_5/expand -> conv_5/expand
I0423 21:15:47.207581  4158 net.cpp:150] Setting up conv_5/expand
I0423 21:15:47.207593  4158 net.cpp:157] Top shape: 2 192 38 38 (554496)
I0423 21:15:47.207597  4158 net.cpp:165] Memory required for data: 276562144
I0423 21:15:47.207603  4158 layer_factory.hpp:77] Creating layer conv_5/expand/bn
I0423 21:15:47.207610  4158 net.cpp:100] Creating Layer conv_5/expand/bn
I0423 21:15:47.207617  4158 net.cpp:434] conv_5/expand/bn <- conv_5/expand
I0423 21:15:47.207625  4158 net.cpp:395] conv_5/expand/bn -> conv_5/expand (in-place)
I0423 21:15:47.207793  4158 net.cpp:150] Setting up conv_5/expand/bn
I0423 21:15:47.207803  4158 net.cpp:157] Top shape: 2 192 38 38 (554496)
I0423 21:15:47.207808  4158 net.cpp:165] Memory required for data: 278780128
I0423 21:15:47.207818  4158 layer_factory.hpp:77] Creating layer conv_5/expand/scale
I0423 21:15:47.207831  4158 net.cpp:100] Creating Layer conv_5/expand/scale
I0423 21:15:47.207837  4158 net.cpp:434] conv_5/expand/scale <- conv_5/expand
I0423 21:15:47.207846  4158 net.cpp:395] conv_5/expand/scale -> conv_5/expand (in-place)
I0423 21:15:47.207882  4158 layer_factory.hpp:77] Creating layer conv_5/expand/scale
I0423 21:15:47.207995  4158 net.cpp:150] Setting up conv_5/expand/scale
I0423 21:15:47.208005  4158 net.cpp:157] Top shape: 2 192 38 38 (554496)
I0423 21:15:47.208020  4158 net.cpp:165] Memory required for data: 280998112
I0423 21:15:47.208030  4158 layer_factory.hpp:77] Creating layer conv_5/expand/relu
I0423 21:15:47.208037  4158 net.cpp:100] Creating Layer conv_5/expand/relu
I0423 21:15:47.208043  4158 net.cpp:434] conv_5/expand/relu <- conv_5/expand
I0423 21:15:47.208050  4158 net.cpp:395] conv_5/expand/relu -> conv_5/expand (in-place)
I0423 21:15:47.208402  4158 net.cpp:150] Setting up conv_5/expand/relu
I0423 21:15:47.208415  4158 net.cpp:157] Top shape: 2 192 38 38 (554496)
I0423 21:15:47.208421  4158 net.cpp:165] Memory required for data: 283216096
I0423 21:15:47.208427  4158 layer_factory.hpp:77] Creating layer conv_5/depthwise
I0423 21:15:47.208446  4158 net.cpp:100] Creating Layer conv_5/depthwise
I0423 21:15:47.208453  4158 net.cpp:434] conv_5/depthwise <- conv_5/expand
I0423 21:15:47.208462  4158 net.cpp:408] conv_5/depthwise -> conv_5/depthwise
I0423 21:15:47.208643  4158 net.cpp:150] Setting up conv_5/depthwise
I0423 21:15:47.208653  4158 net.cpp:157] Top shape: 2 192 38 38 (554496)
I0423 21:15:47.208658  4158 net.cpp:165] Memory required for data: 285434080
I0423 21:15:47.208667  4158 layer_factory.hpp:77] Creating layer conv_5/depthwise/bn
I0423 21:15:47.208674  4158 net.cpp:100] Creating Layer conv_5/depthwise/bn
I0423 21:15:47.208680  4158 net.cpp:434] conv_5/depthwise/bn <- conv_5/depthwise
I0423 21:15:47.208688  4158 net.cpp:395] conv_5/depthwise/bn -> conv_5/depthwise (in-place)
I0423 21:15:47.208848  4158 net.cpp:150] Setting up conv_5/depthwise/bn
I0423 21:15:47.208856  4158 net.cpp:157] Top shape: 2 192 38 38 (554496)
I0423 21:15:47.208863  4158 net.cpp:165] Memory required for data: 287652064
I0423 21:15:47.208873  4158 layer_factory.hpp:77] Creating layer conv_5/depthwise/scale
I0423 21:15:47.208880  4158 net.cpp:100] Creating Layer conv_5/depthwise/scale
I0423 21:15:47.208885  4158 net.cpp:434] conv_5/depthwise/scale <- conv_5/depthwise
I0423 21:15:47.208892  4158 net.cpp:395] conv_5/depthwise/scale -> conv_5/depthwise (in-place)
I0423 21:15:47.208926  4158 layer_factory.hpp:77] Creating layer conv_5/depthwise/scale
I0423 21:15:47.209026  4158 net.cpp:150] Setting up conv_5/depthwise/scale
I0423 21:15:47.209035  4158 net.cpp:157] Top shape: 2 192 38 38 (554496)
I0423 21:15:47.209040  4158 net.cpp:165] Memory required for data: 289870048
I0423 21:15:47.209049  4158 layer_factory.hpp:77] Creating layer conv_5/depthwise/relu
I0423 21:15:47.209062  4158 net.cpp:100] Creating Layer conv_5/depthwise/relu
I0423 21:15:47.209069  4158 net.cpp:434] conv_5/depthwise/relu <- conv_5/depthwise
I0423 21:15:47.209075  4158 net.cpp:395] conv_5/depthwise/relu -> conv_5/depthwise (in-place)
I0423 21:15:47.209215  4158 net.cpp:150] Setting up conv_5/depthwise/relu
I0423 21:15:47.209225  4158 net.cpp:157] Top shape: 2 192 38 38 (554496)
I0423 21:15:47.209230  4158 net.cpp:165] Memory required for data: 292088032
I0423 21:15:47.209236  4158 layer_factory.hpp:77] Creating layer conv_5/project
I0423 21:15:47.209245  4158 net.cpp:100] Creating Layer conv_5/project
I0423 21:15:47.209250  4158 net.cpp:434] conv_5/project <- conv_5/depthwise
I0423 21:15:47.209259  4158 net.cpp:408] conv_5/project -> conv_5/project
I0423 21:15:47.210321  4158 net.cpp:150] Setting up conv_5/project
I0423 21:15:47.210345  4158 net.cpp:157] Top shape: 2 32 38 38 (92416)
I0423 21:15:47.210351  4158 net.cpp:165] Memory required for data: 292457696
I0423 21:15:47.210360  4158 layer_factory.hpp:77] Creating layer conv_5/project/bn
I0423 21:15:47.210367  4158 net.cpp:100] Creating Layer conv_5/project/bn
I0423 21:15:47.210372  4158 net.cpp:434] conv_5/project/bn <- conv_5/project
I0423 21:15:47.210379  4158 net.cpp:395] conv_5/project/bn -> conv_5/project (in-place)
I0423 21:15:47.210625  4158 net.cpp:150] Setting up conv_5/project/bn
I0423 21:15:47.210634  4158 net.cpp:157] Top shape: 2 32 38 38 (92416)
I0423 21:15:47.210639  4158 net.cpp:165] Memory required for data: 292827360
I0423 21:15:47.210649  4158 layer_factory.hpp:77] Creating layer conv_5/project/scale
I0423 21:15:47.210667  4158 net.cpp:100] Creating Layer conv_5/project/scale
I0423 21:15:47.210674  4158 net.cpp:434] conv_5/project/scale <- conv_5/project
I0423 21:15:47.210680  4158 net.cpp:395] conv_5/project/scale -> conv_5/project (in-place)
I0423 21:15:47.210716  4158 layer_factory.hpp:77] Creating layer conv_5/project/scale
I0423 21:15:47.210816  4158 net.cpp:150] Setting up conv_5/project/scale
I0423 21:15:47.210824  4158 net.cpp:157] Top shape: 2 32 38 38 (92416)
I0423 21:15:47.210829  4158 net.cpp:165] Memory required for data: 293197024
I0423 21:15:47.210837  4158 layer_factory.hpp:77] Creating layer conv_5project/sum
I0423 21:15:47.210844  4158 net.cpp:100] Creating Layer conv_5project/sum
I0423 21:15:47.210850  4158 net.cpp:434] conv_5project/sum <- conv_4project_conv_4project/sum_0_split_1
I0423 21:15:47.210855  4158 net.cpp:434] conv_5project/sum <- conv_5/project
I0423 21:15:47.210862  4158 net.cpp:408] conv_5project/sum -> conv_5project
I0423 21:15:47.210883  4158 net.cpp:150] Setting up conv_5project/sum
I0423 21:15:47.210891  4158 net.cpp:157] Top shape: 2 32 38 38 (92416)
I0423 21:15:47.210896  4158 net.cpp:165] Memory required for data: 293566688
I0423 21:15:47.210901  4158 layer_factory.hpp:77] Creating layer conv_6/expand
I0423 21:15:47.210914  4158 net.cpp:100] Creating Layer conv_6/expand
I0423 21:15:47.210921  4158 net.cpp:434] conv_6/expand <- conv_5project
I0423 21:15:47.210927  4158 net.cpp:408] conv_6/expand -> conv_6/expand
I0423 21:15:47.212565  4158 net.cpp:150] Setting up conv_6/expand
I0423 21:15:47.212579  4158 net.cpp:157] Top shape: 2 192 38 38 (554496)
I0423 21:15:47.212584  4158 net.cpp:165] Memory required for data: 295784672
I0423 21:15:47.212592  4158 layer_factory.hpp:77] Creating layer conv_6/expand/bn
I0423 21:15:47.212599  4158 net.cpp:100] Creating Layer conv_6/expand/bn
I0423 21:15:47.212604  4158 net.cpp:434] conv_6/expand/bn <- conv_6/expand
I0423 21:15:47.212611  4158 net.cpp:395] conv_6/expand/bn -> conv_6/expand (in-place)
I0423 21:15:47.212779  4158 net.cpp:150] Setting up conv_6/expand/bn
I0423 21:15:47.212786  4158 net.cpp:157] Top shape: 2 192 38 38 (554496)
I0423 21:15:47.212791  4158 net.cpp:165] Memory required for data: 298002656
I0423 21:15:47.212800  4158 layer_factory.hpp:77] Creating layer conv_6/expand/scale
I0423 21:15:47.212808  4158 net.cpp:100] Creating Layer conv_6/expand/scale
I0423 21:15:47.212813  4158 net.cpp:434] conv_6/expand/scale <- conv_6/expand
I0423 21:15:47.212821  4158 net.cpp:395] conv_6/expand/scale -> conv_6/expand (in-place)
I0423 21:15:47.212882  4158 layer_factory.hpp:77] Creating layer conv_6/expand/scale
I0423 21:15:47.212993  4158 net.cpp:150] Setting up conv_6/expand/scale
I0423 21:15:47.213002  4158 net.cpp:157] Top shape: 2 192 38 38 (554496)
I0423 21:15:47.213007  4158 net.cpp:165] Memory required for data: 300220640
I0423 21:15:47.213016  4158 layer_factory.hpp:77] Creating layer conv_6/expand/relu
I0423 21:15:47.213022  4158 net.cpp:100] Creating Layer conv_6/expand/relu
I0423 21:15:47.213027  4158 net.cpp:434] conv_6/expand/relu <- conv_6/expand
I0423 21:15:47.213032  4158 net.cpp:395] conv_6/expand/relu -> conv_6/expand (in-place)
I0423 21:15:47.213742  4158 net.cpp:150] Setting up conv_6/expand/relu
I0423 21:15:47.213754  4158 net.cpp:157] Top shape: 2 192 38 38 (554496)
I0423 21:15:47.213759  4158 net.cpp:165] Memory required for data: 302438624
I0423 21:15:47.213765  4158 layer_factory.hpp:77] Creating layer conv_6/depthwise
I0423 21:15:47.213775  4158 net.cpp:100] Creating Layer conv_6/depthwise
I0423 21:15:47.213780  4158 net.cpp:434] conv_6/depthwise <- conv_6/expand
I0423 21:15:47.213788  4158 net.cpp:408] conv_6/depthwise -> conv_6/depthwise
I0423 21:15:47.213979  4158 net.cpp:150] Setting up conv_6/depthwise
I0423 21:15:47.213989  4158 net.cpp:157] Top shape: 2 192 19 19 (138624)
I0423 21:15:47.213994  4158 net.cpp:165] Memory required for data: 302993120
I0423 21:15:47.214001  4158 layer_factory.hpp:77] Creating layer conv_6/depthwise/bn
I0423 21:15:47.214013  4158 net.cpp:100] Creating Layer conv_6/depthwise/bn
I0423 21:15:47.214031  4158 net.cpp:434] conv_6/depthwise/bn <- conv_6/depthwise
I0423 21:15:47.214040  4158 net.cpp:395] conv_6/depthwise/bn -> conv_6/depthwise (in-place)
I0423 21:15:47.214257  4158 net.cpp:150] Setting up conv_6/depthwise/bn
I0423 21:15:47.214290  4158 net.cpp:157] Top shape: 2 192 19 19 (138624)
I0423 21:15:47.214294  4158 net.cpp:165] Memory required for data: 303547616
I0423 21:15:47.214301  4158 layer_factory.hpp:77] Creating layer conv_6/depthwise/scale
I0423 21:15:47.214309  4158 net.cpp:100] Creating Layer conv_6/depthwise/scale
I0423 21:15:47.214313  4158 net.cpp:434] conv_6/depthwise/scale <- conv_6/depthwise
I0423 21:15:47.214318  4158 net.cpp:395] conv_6/depthwise/scale -> conv_6/depthwise (in-place)
I0423 21:15:47.214378  4158 layer_factory.hpp:77] Creating layer conv_6/depthwise/scale
I0423 21:15:47.214495  4158 net.cpp:150] Setting up conv_6/depthwise/scale
I0423 21:15:47.214503  4158 net.cpp:157] Top shape: 2 192 19 19 (138624)
I0423 21:15:47.214515  4158 net.cpp:165] Memory required for data: 304102112
I0423 21:15:47.214521  4158 layer_factory.hpp:77] Creating layer conv_6/depthwise/relu
I0423 21:15:47.214527  4158 net.cpp:100] Creating Layer conv_6/depthwise/relu
I0423 21:15:47.214531  4158 net.cpp:434] conv_6/depthwise/relu <- conv_6/depthwise
I0423 21:15:47.214536  4158 net.cpp:395] conv_6/depthwise/relu -> conv_6/depthwise (in-place)
I0423 21:15:47.214704  4158 net.cpp:150] Setting up conv_6/depthwise/relu
I0423 21:15:47.214713  4158 net.cpp:157] Top shape: 2 192 19 19 (138624)
I0423 21:15:47.214717  4158 net.cpp:165] Memory required for data: 304656608
I0423 21:15:47.214721  4158 layer_factory.hpp:77] Creating layer conv_6/project
I0423 21:15:47.214730  4158 net.cpp:100] Creating Layer conv_6/project
I0423 21:15:47.214733  4158 net.cpp:434] conv_6/project <- conv_6/depthwise
I0423 21:15:47.214740  4158 net.cpp:408] conv_6/project -> conv_6/project
I0423 21:15:47.216226  4158 net.cpp:150] Setting up conv_6/project
I0423 21:15:47.216251  4158 net.cpp:157] Top shape: 2 64 19 19 (46208)
I0423 21:15:47.216258  4158 net.cpp:165] Memory required for data: 304841440
I0423 21:15:47.216267  4158 layer_factory.hpp:77] Creating layer conv_6/project/bn
I0423 21:15:47.216277  4158 net.cpp:100] Creating Layer conv_6/project/bn
I0423 21:15:47.216284  4158 net.cpp:434] conv_6/project/bn <- conv_6/project
I0423 21:15:47.216292  4158 net.cpp:395] conv_6/project/bn -> conv_6/project (in-place)
I0423 21:15:47.216503  4158 net.cpp:150] Setting up conv_6/project/bn
I0423 21:15:47.216512  4158 net.cpp:157] Top shape: 2 64 19 19 (46208)
I0423 21:15:47.216516  4158 net.cpp:165] Memory required for data: 305026272
I0423 21:15:47.216523  4158 layer_factory.hpp:77] Creating layer conv_6/project/scale
I0423 21:15:47.216531  4158 net.cpp:100] Creating Layer conv_6/project/scale
I0423 21:15:47.216536  4158 net.cpp:434] conv_6/project/scale <- conv_6/project
I0423 21:15:47.216542  4158 net.cpp:395] conv_6/project/scale -> conv_6/project (in-place)
I0423 21:15:47.216593  4158 layer_factory.hpp:77] Creating layer conv_6/project/scale
I0423 21:15:47.216727  4158 net.cpp:150] Setting up conv_6/project/scale
I0423 21:15:47.216734  4158 net.cpp:157] Top shape: 2 64 19 19 (46208)
I0423 21:15:47.216738  4158 net.cpp:165] Memory required for data: 305211104
I0423 21:15:47.216747  4158 layer_factory.hpp:77] Creating layer conv_6/project_conv_6/project/scale_0_split
I0423 21:15:47.216755  4158 net.cpp:100] Creating Layer conv_6/project_conv_6/project/scale_0_split
I0423 21:15:47.216763  4158 net.cpp:434] conv_6/project_conv_6/project/scale_0_split <- conv_6/project
I0423 21:15:47.216769  4158 net.cpp:408] conv_6/project_conv_6/project/scale_0_split -> conv_6/project_conv_6/project/scale_0_split_0
I0423 21:15:47.216779  4158 net.cpp:408] conv_6/project_conv_6/project/scale_0_split -> conv_6/project_conv_6/project/scale_0_split_1
I0423 21:15:47.216816  4158 net.cpp:150] Setting up conv_6/project_conv_6/project/scale_0_split
I0423 21:15:47.216825  4158 net.cpp:157] Top shape: 2 64 19 19 (46208)
I0423 21:15:47.216850  4158 net.cpp:157] Top shape: 2 64 19 19 (46208)
I0423 21:15:47.216856  4158 net.cpp:165] Memory required for data: 305580768
I0423 21:15:47.216861  4158 layer_factory.hpp:77] Creating layer conv_7/expand
I0423 21:15:47.216872  4158 net.cpp:100] Creating Layer conv_7/expand
I0423 21:15:47.216877  4158 net.cpp:434] conv_7/expand <- conv_6/project_conv_6/project/scale_0_split_0
I0423 21:15:47.216886  4158 net.cpp:408] conv_7/expand -> conv_7/expand
I0423 21:15:47.218217  4158 net.cpp:150] Setting up conv_7/expand
I0423 21:15:47.218235  4158 net.cpp:157] Top shape: 2 384 19 19 (277248)
I0423 21:15:47.218242  4158 net.cpp:165] Memory required for data: 306689760
I0423 21:15:47.218252  4158 layer_factory.hpp:77] Creating layer conv_7/expand/bn
I0423 21:15:47.218261  4158 net.cpp:100] Creating Layer conv_7/expand/bn
I0423 21:15:47.218266  4158 net.cpp:434] conv_7/expand/bn <- conv_7/expand
I0423 21:15:47.218271  4158 net.cpp:395] conv_7/expand/bn -> conv_7/expand (in-place)
I0423 21:15:47.218447  4158 net.cpp:150] Setting up conv_7/expand/bn
I0423 21:15:47.218454  4158 net.cpp:157] Top shape: 2 384 19 19 (277248)
I0423 21:15:47.218458  4158 net.cpp:165] Memory required for data: 307798752
I0423 21:15:47.218477  4158 layer_factory.hpp:77] Creating layer conv_7/expand/scale
I0423 21:15:47.218485  4158 net.cpp:100] Creating Layer conv_7/expand/scale
I0423 21:15:47.218490  4158 net.cpp:434] conv_7/expand/scale <- conv_7/expand
I0423 21:15:47.218495  4158 net.cpp:395] conv_7/expand/scale -> conv_7/expand (in-place)
I0423 21:15:47.218533  4158 layer_factory.hpp:77] Creating layer conv_7/expand/scale
I0423 21:15:47.218631  4158 net.cpp:150] Setting up conv_7/expand/scale
I0423 21:15:47.218637  4158 net.cpp:157] Top shape: 2 384 19 19 (277248)
I0423 21:15:47.218641  4158 net.cpp:165] Memory required for data: 308907744
I0423 21:15:47.218648  4158 layer_factory.hpp:77] Creating layer conv_7/expand/relu
I0423 21:15:47.218657  4158 net.cpp:100] Creating Layer conv_7/expand/relu
I0423 21:15:47.218663  4158 net.cpp:434] conv_7/expand/relu <- conv_7/expand
I0423 21:15:47.218670  4158 net.cpp:395] conv_7/expand/relu -> conv_7/expand (in-place)
I0423 21:15:47.219048  4158 net.cpp:150] Setting up conv_7/expand/relu
I0423 21:15:47.219060  4158 net.cpp:157] Top shape: 2 384 19 19 (277248)
I0423 21:15:47.219064  4158 net.cpp:165] Memory required for data: 310016736
I0423 21:15:47.219067  4158 layer_factory.hpp:77] Creating layer conv_7/depthwise
I0423 21:15:47.219076  4158 net.cpp:100] Creating Layer conv_7/depthwise
I0423 21:15:47.219081  4158 net.cpp:434] conv_7/depthwise <- conv_7/expand
I0423 21:15:47.219087  4158 net.cpp:408] conv_7/depthwise -> conv_7/depthwise
I0423 21:15:47.219313  4158 net.cpp:150] Setting up conv_7/depthwise
I0423 21:15:47.219321  4158 net.cpp:157] Top shape: 2 384 19 19 (277248)
I0423 21:15:47.219324  4158 net.cpp:165] Memory required for data: 311125728
I0423 21:15:47.219329  4158 layer_factory.hpp:77] Creating layer conv_7/depthwise/bn
I0423 21:15:47.219336  4158 net.cpp:100] Creating Layer conv_7/depthwise/bn
I0423 21:15:47.219339  4158 net.cpp:434] conv_7/depthwise/bn <- conv_7/depthwise
I0423 21:15:47.219344  4158 net.cpp:395] conv_7/depthwise/bn -> conv_7/depthwise (in-place)
I0423 21:15:47.219503  4158 net.cpp:150] Setting up conv_7/depthwise/bn
I0423 21:15:47.219511  4158 net.cpp:157] Top shape: 2 384 19 19 (277248)
I0423 21:15:47.219514  4158 net.cpp:165] Memory required for data: 312234720
I0423 21:15:47.219521  4158 layer_factory.hpp:77] Creating layer conv_7/depthwise/scale
I0423 21:15:47.219537  4158 net.cpp:100] Creating Layer conv_7/depthwise/scale
I0423 21:15:47.219542  4158 net.cpp:434] conv_7/depthwise/scale <- conv_7/depthwise
I0423 21:15:47.219557  4158 net.cpp:395] conv_7/depthwise/scale -> conv_7/depthwise (in-place)
I0423 21:15:47.219590  4158 layer_factory.hpp:77] Creating layer conv_7/depthwise/scale
I0423 21:15:47.219679  4158 net.cpp:150] Setting up conv_7/depthwise/scale
I0423 21:15:47.219686  4158 net.cpp:157] Top shape: 2 384 19 19 (277248)
I0423 21:15:47.219689  4158 net.cpp:165] Memory required for data: 313343712
I0423 21:15:47.219710  4158 layer_factory.hpp:77] Creating layer conv_7/depthwise/relu
I0423 21:15:47.219717  4158 net.cpp:100] Creating Layer conv_7/depthwise/relu
I0423 21:15:47.219722  4158 net.cpp:434] conv_7/depthwise/relu <- conv_7/depthwise
I0423 21:15:47.219727  4158 net.cpp:395] conv_7/depthwise/relu -> conv_7/depthwise (in-place)
I0423 21:15:47.220070  4158 net.cpp:150] Setting up conv_7/depthwise/relu
I0423 21:15:47.220082  4158 net.cpp:157] Top shape: 2 384 19 19 (277248)
I0423 21:15:47.220085  4158 net.cpp:165] Memory required for data: 314452704
I0423 21:15:47.220089  4158 layer_factory.hpp:77] Creating layer conv_7/project
I0423 21:15:47.220098  4158 net.cpp:100] Creating Layer conv_7/project
I0423 21:15:47.220101  4158 net.cpp:434] conv_7/project <- conv_7/depthwise
I0423 21:15:47.220108  4158 net.cpp:408] conv_7/project -> conv_7/project
I0423 21:15:47.221711  4158 net.cpp:150] Setting up conv_7/project
I0423 21:15:47.221724  4158 net.cpp:157] Top shape: 2 64 19 19 (46208)
I0423 21:15:47.221729  4158 net.cpp:165] Memory required for data: 314637536
I0423 21:15:47.221735  4158 layer_factory.hpp:77] Creating layer conv_7/project/bn
I0423 21:15:47.221740  4158 net.cpp:100] Creating Layer conv_7/project/bn
I0423 21:15:47.221745  4158 net.cpp:434] conv_7/project/bn <- conv_7/project
I0423 21:15:47.221750  4158 net.cpp:395] conv_7/project/bn -> conv_7/project (in-place)
I0423 21:15:47.221935  4158 net.cpp:150] Setting up conv_7/project/bn
I0423 21:15:47.221941  4158 net.cpp:157] Top shape: 2 64 19 19 (46208)
I0423 21:15:47.221946  4158 net.cpp:165] Memory required for data: 314822368
I0423 21:15:47.221952  4158 layer_factory.hpp:77] Creating layer conv_7/project/scale
I0423 21:15:47.221959  4158 net.cpp:100] Creating Layer conv_7/project/scale
I0423 21:15:47.221964  4158 net.cpp:434] conv_7/project/scale <- conv_7/project
I0423 21:15:47.221969  4158 net.cpp:395] conv_7/project/scale -> conv_7/project (in-place)
I0423 21:15:47.222002  4158 layer_factory.hpp:77] Creating layer conv_7/project/scale
I0423 21:15:47.222105  4158 net.cpp:150] Setting up conv_7/project/scale
I0423 21:15:47.222113  4158 net.cpp:157] Top shape: 2 64 19 19 (46208)
I0423 21:15:47.222117  4158 net.cpp:165] Memory required for data: 315007200
I0423 21:15:47.222123  4158 layer_factory.hpp:77] Creating layer conv_7project/sum
I0423 21:15:47.222129  4158 net.cpp:100] Creating Layer conv_7project/sum
I0423 21:15:47.222133  4158 net.cpp:434] conv_7project/sum <- conv_6/project_conv_6/project/scale_0_split_1
I0423 21:15:47.222138  4158 net.cpp:434] conv_7project/sum <- conv_7/project
I0423 21:15:47.222144  4158 net.cpp:408] conv_7project/sum -> conv_7project
I0423 21:15:47.222164  4158 net.cpp:150] Setting up conv_7project/sum
I0423 21:15:47.222180  4158 net.cpp:157] Top shape: 2 64 19 19 (46208)
I0423 21:15:47.222184  4158 net.cpp:165] Memory required for data: 315192032
I0423 21:15:47.222198  4158 layer_factory.hpp:77] Creating layer conv_7project_conv_7project/sum_0_split
I0423 21:15:47.222203  4158 net.cpp:100] Creating Layer conv_7project_conv_7project/sum_0_split
I0423 21:15:47.222208  4158 net.cpp:434] conv_7project_conv_7project/sum_0_split <- conv_7project
I0423 21:15:47.222213  4158 net.cpp:408] conv_7project_conv_7project/sum_0_split -> conv_7project_conv_7project/sum_0_split_0
I0423 21:15:47.222218  4158 net.cpp:408] conv_7project_conv_7project/sum_0_split -> conv_7project_conv_7project/sum_0_split_1
I0423 21:15:47.222247  4158 net.cpp:150] Setting up conv_7project_conv_7project/sum_0_split
I0423 21:15:47.222254  4158 net.cpp:157] Top shape: 2 64 19 19 (46208)
I0423 21:15:47.222257  4158 net.cpp:157] Top shape: 2 64 19 19 (46208)
I0423 21:15:47.222260  4158 net.cpp:165] Memory required for data: 315561696
I0423 21:15:47.222265  4158 layer_factory.hpp:77] Creating layer conv_8/expand
I0423 21:15:47.222271  4158 net.cpp:100] Creating Layer conv_8/expand
I0423 21:15:47.222275  4158 net.cpp:434] conv_8/expand <- conv_7project_conv_7project/sum_0_split_0
I0423 21:15:47.222280  4158 net.cpp:408] conv_8/expand -> conv_8/expand
I0423 21:15:47.223520  4158 net.cpp:150] Setting up conv_8/expand
I0423 21:15:47.223531  4158 net.cpp:157] Top shape: 2 384 19 19 (277248)
I0423 21:15:47.223536  4158 net.cpp:165] Memory required for data: 316670688
I0423 21:15:47.223541  4158 layer_factory.hpp:77] Creating layer conv_8/expand/bn
I0423 21:15:47.223548  4158 net.cpp:100] Creating Layer conv_8/expand/bn
I0423 21:15:47.223552  4158 net.cpp:434] conv_8/expand/bn <- conv_8/expand
I0423 21:15:47.223558  4158 net.cpp:395] conv_8/expand/bn -> conv_8/expand (in-place)
I0423 21:15:47.223726  4158 net.cpp:150] Setting up conv_8/expand/bn
I0423 21:15:47.223733  4158 net.cpp:157] Top shape: 2 384 19 19 (277248)
I0423 21:15:47.223737  4158 net.cpp:165] Memory required for data: 317779680
I0423 21:15:47.223744  4158 layer_factory.hpp:77] Creating layer conv_8/expand/scale
I0423 21:15:47.223752  4158 net.cpp:100] Creating Layer conv_8/expand/scale
I0423 21:15:47.223757  4158 net.cpp:434] conv_8/expand/scale <- conv_8/expand
I0423 21:15:47.223762  4158 net.cpp:395] conv_8/expand/scale -> conv_8/expand (in-place)
I0423 21:15:47.223795  4158 layer_factory.hpp:77] Creating layer conv_8/expand/scale
I0423 21:15:47.223893  4158 net.cpp:150] Setting up conv_8/expand/scale
I0423 21:15:47.223901  4158 net.cpp:157] Top shape: 2 384 19 19 (277248)
I0423 21:15:47.223904  4158 net.cpp:165] Memory required for data: 318888672
I0423 21:15:47.223911  4158 layer_factory.hpp:77] Creating layer conv_8/expand/relu
I0423 21:15:47.223917  4158 net.cpp:100] Creating Layer conv_8/expand/relu
I0423 21:15:47.223922  4158 net.cpp:434] conv_8/expand/relu <- conv_8/expand
I0423 21:15:47.223935  4158 net.cpp:395] conv_8/expand/relu -> conv_8/expand (in-place)
I0423 21:15:47.224083  4158 net.cpp:150] Setting up conv_8/expand/relu
I0423 21:15:47.224092  4158 net.cpp:157] Top shape: 2 384 19 19 (277248)
I0423 21:15:47.224095  4158 net.cpp:165] Memory required for data: 319997664
I0423 21:15:47.224100  4158 layer_factory.hpp:77] Creating layer conv_8/depthwise
I0423 21:15:47.224107  4158 net.cpp:100] Creating Layer conv_8/depthwise
I0423 21:15:47.224112  4158 net.cpp:434] conv_8/depthwise <- conv_8/expand
I0423 21:15:47.224117  4158 net.cpp:408] conv_8/depthwise -> conv_8/depthwise
I0423 21:15:47.224331  4158 net.cpp:150] Setting up conv_8/depthwise
I0423 21:15:47.224339  4158 net.cpp:157] Top shape: 2 384 19 19 (277248)
I0423 21:15:47.224342  4158 net.cpp:165] Memory required for data: 321106656
I0423 21:15:47.224347  4158 layer_factory.hpp:77] Creating layer conv_8/depthwise/bn
I0423 21:15:47.224352  4158 net.cpp:100] Creating Layer conv_8/depthwise/bn
I0423 21:15:47.224357  4158 net.cpp:434] conv_8/depthwise/bn <- conv_8/depthwise
I0423 21:15:47.224361  4158 net.cpp:395] conv_8/depthwise/bn -> conv_8/depthwise (in-place)
I0423 21:15:47.224525  4158 net.cpp:150] Setting up conv_8/depthwise/bn
I0423 21:15:47.224532  4158 net.cpp:157] Top shape: 2 384 19 19 (277248)
I0423 21:15:47.224536  4158 net.cpp:165] Memory required for data: 322215648
I0423 21:15:47.224544  4158 layer_factory.hpp:77] Creating layer conv_8/depthwise/scale
I0423 21:15:47.224555  4158 net.cpp:100] Creating Layer conv_8/depthwise/scale
I0423 21:15:47.224560  4158 net.cpp:434] conv_8/depthwise/scale <- conv_8/depthwise
I0423 21:15:47.224588  4158 net.cpp:395] conv_8/depthwise/scale -> conv_8/depthwise (in-place)
I0423 21:15:47.224627  4158 layer_factory.hpp:77] Creating layer conv_8/depthwise/scale
I0423 21:15:47.224723  4158 net.cpp:150] Setting up conv_8/depthwise/scale
I0423 21:15:47.224730  4158 net.cpp:157] Top shape: 2 384 19 19 (277248)
I0423 21:15:47.224735  4158 net.cpp:165] Memory required for data: 323324640
I0423 21:15:47.224741  4158 layer_factory.hpp:77] Creating layer conv_8/depthwise/relu
I0423 21:15:47.224746  4158 net.cpp:100] Creating Layer conv_8/depthwise/relu
I0423 21:15:47.224751  4158 net.cpp:434] conv_8/depthwise/relu <- conv_8/depthwise
I0423 21:15:47.224756  4158 net.cpp:395] conv_8/depthwise/relu -> conv_8/depthwise (in-place)
I0423 21:15:47.225102  4158 net.cpp:150] Setting up conv_8/depthwise/relu
I0423 21:15:47.225122  4158 net.cpp:157] Top shape: 2 384 19 19 (277248)
I0423 21:15:47.225127  4158 net.cpp:165] Memory required for data: 324433632
I0423 21:15:47.225131  4158 layer_factory.hpp:77] Creating layer conv_8/project
I0423 21:15:47.225139  4158 net.cpp:100] Creating Layer conv_8/project
I0423 21:15:47.225144  4158 net.cpp:434] conv_8/project <- conv_8/depthwise
I0423 21:15:47.225150  4158 net.cpp:408] conv_8/project -> conv_8/project
I0423 21:15:47.226359  4158 net.cpp:150] Setting up conv_8/project
I0423 21:15:47.226372  4158 net.cpp:157] Top shape: 2 64 19 19 (46208)
I0423 21:15:47.226377  4158 net.cpp:165] Memory required for data: 324618464
I0423 21:15:47.226382  4158 layer_factory.hpp:77] Creating layer conv_8/project/bn
I0423 21:15:47.226388  4158 net.cpp:100] Creating Layer conv_8/project/bn
I0423 21:15:47.226393  4158 net.cpp:434] conv_8/project/bn <- conv_8/project
I0423 21:15:47.226398  4158 net.cpp:395] conv_8/project/bn -> conv_8/project (in-place)
I0423 21:15:47.226583  4158 net.cpp:150] Setting up conv_8/project/bn
I0423 21:15:47.226591  4158 net.cpp:157] Top shape: 2 64 19 19 (46208)
I0423 21:15:47.226595  4158 net.cpp:165] Memory required for data: 324803296
I0423 21:15:47.226603  4158 layer_factory.hpp:77] Creating layer conv_8/project/scale
I0423 21:15:47.226609  4158 net.cpp:100] Creating Layer conv_8/project/scale
I0423 21:15:47.226613  4158 net.cpp:434] conv_8/project/scale <- conv_8/project
I0423 21:15:47.226619  4158 net.cpp:395] conv_8/project/scale -> conv_8/project (in-place)
I0423 21:15:47.226651  4158 layer_factory.hpp:77] Creating layer conv_8/project/scale
I0423 21:15:47.226749  4158 net.cpp:150] Setting up conv_8/project/scale
I0423 21:15:47.226757  4158 net.cpp:157] Top shape: 2 64 19 19 (46208)
I0423 21:15:47.226760  4158 net.cpp:165] Memory required for data: 324988128
I0423 21:15:47.226766  4158 layer_factory.hpp:77] Creating layer conv_8project/sum
I0423 21:15:47.226778  4158 net.cpp:100] Creating Layer conv_8project/sum
I0423 21:15:47.226783  4158 net.cpp:434] conv_8project/sum <- conv_7project_conv_7project/sum_0_split_1
I0423 21:15:47.226788  4158 net.cpp:434] conv_8project/sum <- conv_8/project
I0423 21:15:47.226794  4158 net.cpp:408] conv_8project/sum -> conv_8project
I0423 21:15:47.226814  4158 net.cpp:150] Setting up conv_8project/sum
I0423 21:15:47.226820  4158 net.cpp:157] Top shape: 2 64 19 19 (46208)
I0423 21:15:47.226824  4158 net.cpp:165] Memory required for data: 325172960
I0423 21:15:47.226828  4158 layer_factory.hpp:77] Creating layer conv_8project_conv_8project/sum_0_split
I0423 21:15:47.226835  4158 net.cpp:100] Creating Layer conv_8project_conv_8project/sum_0_split
I0423 21:15:47.226838  4158 net.cpp:434] conv_8project_conv_8project/sum_0_split <- conv_8project
I0423 21:15:47.226843  4158 net.cpp:408] conv_8project_conv_8project/sum_0_split -> conv_8project_conv_8project/sum_0_split_0
I0423 21:15:47.226850  4158 net.cpp:408] conv_8project_conv_8project/sum_0_split -> conv_8project_conv_8project/sum_0_split_1
I0423 21:15:47.226887  4158 net.cpp:150] Setting up conv_8project_conv_8project/sum_0_split
I0423 21:15:47.226893  4158 net.cpp:157] Top shape: 2 64 19 19 (46208)
I0423 21:15:47.226898  4158 net.cpp:157] Top shape: 2 64 19 19 (46208)
I0423 21:15:47.226902  4158 net.cpp:165] Memory required for data: 325542624
I0423 21:15:47.226907  4158 layer_factory.hpp:77] Creating layer conv_9/expand
I0423 21:15:47.226912  4158 net.cpp:100] Creating Layer conv_9/expand
I0423 21:15:47.226917  4158 net.cpp:434] conv_9/expand <- conv_8project_conv_8project/sum_0_split_0
I0423 21:15:47.226922  4158 net.cpp:408] conv_9/expand -> conv_9/expand
I0423 21:15:47.228111  4158 net.cpp:150] Setting up conv_9/expand
I0423 21:15:47.228122  4158 net.cpp:157] Top shape: 2 384 19 19 (277248)
I0423 21:15:47.228127  4158 net.cpp:165] Memory required for data: 326651616
I0423 21:15:47.228132  4158 layer_factory.hpp:77] Creating layer conv_9/expand/bn
I0423 21:15:47.228139  4158 net.cpp:100] Creating Layer conv_9/expand/bn
I0423 21:15:47.228143  4158 net.cpp:434] conv_9/expand/bn <- conv_9/expand
I0423 21:15:47.228158  4158 net.cpp:395] conv_9/expand/bn -> conv_9/expand (in-place)
I0423 21:15:47.228348  4158 net.cpp:150] Setting up conv_9/expand/bn
I0423 21:15:47.228355  4158 net.cpp:157] Top shape: 2 384 19 19 (277248)
I0423 21:15:47.228358  4158 net.cpp:165] Memory required for data: 327760608
I0423 21:15:47.228364  4158 layer_factory.hpp:77] Creating layer conv_9/expand/scale
I0423 21:15:47.228370  4158 net.cpp:100] Creating Layer conv_9/expand/scale
I0423 21:15:47.228375  4158 net.cpp:434] conv_9/expand/scale <- conv_9/expand
I0423 21:15:47.228380  4158 net.cpp:395] conv_9/expand/scale -> conv_9/expand (in-place)
I0423 21:15:47.228421  4158 layer_factory.hpp:77] Creating layer conv_9/expand/scale
I0423 21:15:47.228512  4158 net.cpp:150] Setting up conv_9/expand/scale
I0423 21:15:47.228518  4158 net.cpp:157] Top shape: 2 384 19 19 (277248)
I0423 21:15:47.228523  4158 net.cpp:165] Memory required for data: 328869600
I0423 21:15:47.228528  4158 layer_factory.hpp:77] Creating layer conv_9/expand/relu
I0423 21:15:47.228533  4158 net.cpp:100] Creating Layer conv_9/expand/relu
I0423 21:15:47.228538  4158 net.cpp:434] conv_9/expand/relu <- conv_9/expand
I0423 21:15:47.228543  4158 net.cpp:395] conv_9/expand/relu -> conv_9/expand (in-place)
I0423 21:15:47.228688  4158 net.cpp:150] Setting up conv_9/expand/relu
I0423 21:15:47.228696  4158 net.cpp:157] Top shape: 2 384 19 19 (277248)
I0423 21:15:47.228700  4158 net.cpp:165] Memory required for data: 329978592
I0423 21:15:47.228704  4158 layer_factory.hpp:77] Creating layer conv_9/depthwise
I0423 21:15:47.228713  4158 net.cpp:100] Creating Layer conv_9/depthwise
I0423 21:15:47.228716  4158 net.cpp:434] conv_9/depthwise <- conv_9/expand
I0423 21:15:47.228723  4158 net.cpp:408] conv_9/depthwise -> conv_9/depthwise
I0423 21:15:47.228917  4158 net.cpp:150] Setting up conv_9/depthwise
I0423 21:15:47.228925  4158 net.cpp:157] Top shape: 2 384 19 19 (277248)
I0423 21:15:47.228929  4158 net.cpp:165] Memory required for data: 331087584
I0423 21:15:47.228932  4158 layer_factory.hpp:77] Creating layer conv_9/depthwise/bn
I0423 21:15:47.228937  4158 net.cpp:100] Creating Layer conv_9/depthwise/bn
I0423 21:15:47.228943  4158 net.cpp:434] conv_9/depthwise/bn <- conv_9/depthwise
I0423 21:15:47.228947  4158 net.cpp:395] conv_9/depthwise/bn -> conv_9/depthwise (in-place)
I0423 21:15:47.229118  4158 net.cpp:150] Setting up conv_9/depthwise/bn
I0423 21:15:47.229125  4158 net.cpp:157] Top shape: 2 384 19 19 (277248)
I0423 21:15:47.229130  4158 net.cpp:165] Memory required for data: 332196576
I0423 21:15:47.229135  4158 layer_factory.hpp:77] Creating layer conv_9/depthwise/scale
I0423 21:15:47.229141  4158 net.cpp:100] Creating Layer conv_9/depthwise/scale
I0423 21:15:47.229146  4158 net.cpp:434] conv_9/depthwise/scale <- conv_9/depthwise
I0423 21:15:47.229151  4158 net.cpp:395] conv_9/depthwise/scale -> conv_9/depthwise (in-place)
I0423 21:15:47.229183  4158 layer_factory.hpp:77] Creating layer conv_9/depthwise/scale
I0423 21:15:47.229277  4158 net.cpp:150] Setting up conv_9/depthwise/scale
I0423 21:15:47.229285  4158 net.cpp:157] Top shape: 2 384 19 19 (277248)
I0423 21:15:47.229288  4158 net.cpp:165] Memory required for data: 333305568
I0423 21:15:47.229295  4158 layer_factory.hpp:77] Creating layer conv_9/depthwise/relu
I0423 21:15:47.229300  4158 net.cpp:100] Creating Layer conv_9/depthwise/relu
I0423 21:15:47.229305  4158 net.cpp:434] conv_9/depthwise/relu <- conv_9/depthwise
I0423 21:15:47.229310  4158 net.cpp:395] conv_9/depthwise/relu -> conv_9/depthwise (in-place)
I0423 21:15:47.229657  4158 net.cpp:150] Setting up conv_9/depthwise/relu
I0423 21:15:47.229668  4158 net.cpp:157] Top shape: 2 384 19 19 (277248)
I0423 21:15:47.229672  4158 net.cpp:165] Memory required for data: 334414560
I0423 21:15:47.229677  4158 layer_factory.hpp:77] Creating layer conv_9/project
I0423 21:15:47.229691  4158 net.cpp:100] Creating Layer conv_9/project
I0423 21:15:47.229696  4158 net.cpp:434] conv_9/project <- conv_9/depthwise
I0423 21:15:47.229701  4158 net.cpp:408] conv_9/project -> conv_9/project
I0423 21:15:47.230916  4158 net.cpp:150] Setting up conv_9/project
I0423 21:15:47.230927  4158 net.cpp:157] Top shape: 2 64 19 19 (46208)
I0423 21:15:47.230931  4158 net.cpp:165] Memory required for data: 334599392
I0423 21:15:47.230938  4158 layer_factory.hpp:77] Creating layer conv_9/project/bn
I0423 21:15:47.230944  4158 net.cpp:100] Creating Layer conv_9/project/bn
I0423 21:15:47.230949  4158 net.cpp:434] conv_9/project/bn <- conv_9/project
I0423 21:15:47.230954  4158 net.cpp:395] conv_9/project/bn -> conv_9/project (in-place)
I0423 21:15:47.231128  4158 net.cpp:150] Setting up conv_9/project/bn
I0423 21:15:47.231137  4158 net.cpp:157] Top shape: 2 64 19 19 (46208)
I0423 21:15:47.231139  4158 net.cpp:165] Memory required for data: 334784224
I0423 21:15:47.231148  4158 layer_factory.hpp:77] Creating layer conv_9/project/scale
I0423 21:15:47.231153  4158 net.cpp:100] Creating Layer conv_9/project/scale
I0423 21:15:47.231158  4158 net.cpp:434] conv_9/project/scale <- conv_9/project
I0423 21:15:47.231168  4158 net.cpp:395] conv_9/project/scale -> conv_9/project (in-place)
I0423 21:15:47.231204  4158 layer_factory.hpp:77] Creating layer conv_9/project/scale
I0423 21:15:47.231307  4158 net.cpp:150] Setting up conv_9/project/scale
I0423 21:15:47.231314  4158 net.cpp:157] Top shape: 2 64 19 19 (46208)
I0423 21:15:47.231317  4158 net.cpp:165] Memory required for data: 334969056
I0423 21:15:47.231323  4158 layer_factory.hpp:77] Creating layer conv_9project/sum
I0423 21:15:47.231328  4158 net.cpp:100] Creating Layer conv_9project/sum
I0423 21:15:47.231333  4158 net.cpp:434] conv_9project/sum <- conv_8project_conv_8project/sum_0_split_1
I0423 21:15:47.231338  4158 net.cpp:434] conv_9project/sum <- conv_9/project
I0423 21:15:47.231343  4158 net.cpp:408] conv_9project/sum -> conv_9project
I0423 21:15:47.231364  4158 net.cpp:150] Setting up conv_9project/sum
I0423 21:15:47.231370  4158 net.cpp:157] Top shape: 2 64 19 19 (46208)
I0423 21:15:47.231374  4158 net.cpp:165] Memory required for data: 335153888
I0423 21:15:47.231377  4158 layer_factory.hpp:77] Creating layer conv_10/expand
I0423 21:15:47.231389  4158 net.cpp:100] Creating Layer conv_10/expand
I0423 21:15:47.231393  4158 net.cpp:434] conv_10/expand <- conv_9project
I0423 21:15:47.231398  4158 net.cpp:408] conv_10/expand -> conv_10/expand
I0423 21:15:47.232642  4158 net.cpp:150] Setting up conv_10/expand
I0423 21:15:47.232655  4158 net.cpp:157] Top shape: 2 384 19 19 (277248)
I0423 21:15:47.232658  4158 net.cpp:165] Memory required for data: 336262880
I0423 21:15:47.232664  4158 layer_factory.hpp:77] Creating layer conv_10/expand/bn
I0423 21:15:47.232676  4158 net.cpp:100] Creating Layer conv_10/expand/bn
I0423 21:15:47.232681  4158 net.cpp:434] conv_10/expand/bn <- conv_10/expand
I0423 21:15:47.232686  4158 net.cpp:395] conv_10/expand/bn -> conv_10/expand (in-place)
I0423 21:15:47.232874  4158 net.cpp:150] Setting up conv_10/expand/bn
I0423 21:15:47.232883  4158 net.cpp:157] Top shape: 2 384 19 19 (277248)
I0423 21:15:47.232887  4158 net.cpp:165] Memory required for data: 337371872
I0423 21:15:47.232892  4158 layer_factory.hpp:77] Creating layer conv_10/expand/scale
I0423 21:15:47.232900  4158 net.cpp:100] Creating Layer conv_10/expand/scale
I0423 21:15:47.232904  4158 net.cpp:434] conv_10/expand/scale <- conv_10/expand
I0423 21:15:47.232909  4158 net.cpp:395] conv_10/expand/scale -> conv_10/expand (in-place)
I0423 21:15:47.232949  4158 layer_factory.hpp:77] Creating layer conv_10/expand/scale
I0423 21:15:47.233052  4158 net.cpp:150] Setting up conv_10/expand/scale
I0423 21:15:47.233059  4158 net.cpp:157] Top shape: 2 384 19 19 (277248)
I0423 21:15:47.233063  4158 net.cpp:165] Memory required for data: 338480864
I0423 21:15:47.233069  4158 layer_factory.hpp:77] Creating layer conv_10/expand/relu
I0423 21:15:47.233075  4158 net.cpp:100] Creating Layer conv_10/expand/relu
I0423 21:15:47.233079  4158 net.cpp:434] conv_10/expand/relu <- conv_10/expand
I0423 21:15:47.233084  4158 net.cpp:395] conv_10/expand/relu -> conv_10/expand (in-place)
I0423 21:15:47.233455  4158 net.cpp:150] Setting up conv_10/expand/relu
I0423 21:15:47.233466  4158 net.cpp:157] Top shape: 2 384 19 19 (277248)
I0423 21:15:47.233481  4158 net.cpp:165] Memory required for data: 339589856
I0423 21:15:47.233485  4158 layer_factory.hpp:77] Creating layer conv_10/depthwise
I0423 21:15:47.233505  4158 net.cpp:100] Creating Layer conv_10/depthwise
I0423 21:15:47.233510  4158 net.cpp:434] conv_10/depthwise <- conv_10/expand
I0423 21:15:47.233516  4158 net.cpp:408] conv_10/depthwise -> conv_10/depthwise
I0423 21:15:47.233728  4158 net.cpp:150] Setting up conv_10/depthwise
I0423 21:15:47.233736  4158 net.cpp:157] Top shape: 2 384 19 19 (277248)
I0423 21:15:47.233750  4158 net.cpp:165] Memory required for data: 340698848
I0423 21:15:47.233757  4158 layer_factory.hpp:77] Creating layer conv_10/depthwise/bn
I0423 21:15:47.233762  4158 net.cpp:100] Creating Layer conv_10/depthwise/bn
I0423 21:15:47.233767  4158 net.cpp:434] conv_10/depthwise/bn <- conv_10/depthwise
I0423 21:15:47.233772  4158 net.cpp:395] conv_10/depthwise/bn -> conv_10/depthwise (in-place)
I0423 21:15:47.233942  4158 net.cpp:150] Setting up conv_10/depthwise/bn
I0423 21:15:47.233949  4158 net.cpp:157] Top shape: 2 384 19 19 (277248)
I0423 21:15:47.233963  4158 net.cpp:165] Memory required for data: 341807840
I0423 21:15:47.233969  4158 layer_factory.hpp:77] Creating layer conv_10/depthwise/scale
I0423 21:15:47.233976  4158 net.cpp:100] Creating Layer conv_10/depthwise/scale
I0423 21:15:47.233980  4158 net.cpp:434] conv_10/depthwise/scale <- conv_10/depthwise
I0423 21:15:47.233985  4158 net.cpp:395] conv_10/depthwise/scale -> conv_10/depthwise (in-place)
I0423 21:15:47.234030  4158 layer_factory.hpp:77] Creating layer conv_10/depthwise/scale
I0423 21:15:47.234151  4158 net.cpp:150] Setting up conv_10/depthwise/scale
I0423 21:15:47.234159  4158 net.cpp:157] Top shape: 2 384 19 19 (277248)
I0423 21:15:47.234172  4158 net.cpp:165] Memory required for data: 342916832
I0423 21:15:47.234179  4158 layer_factory.hpp:77] Creating layer conv_10/depthwise/relu
I0423 21:15:47.234194  4158 net.cpp:100] Creating Layer conv_10/depthwise/relu
I0423 21:15:47.234197  4158 net.cpp:434] conv_10/depthwise/relu <- conv_10/depthwise
I0423 21:15:47.234202  4158 net.cpp:395] conv_10/depthwise/relu -> conv_10/depthwise (in-place)
I0423 21:15:47.234350  4158 net.cpp:150] Setting up conv_10/depthwise/relu
I0423 21:15:47.234359  4158 net.cpp:157] Top shape: 2 384 19 19 (277248)
I0423 21:15:47.234372  4158 net.cpp:165] Memory required for data: 344025824
I0423 21:15:47.234376  4158 layer_factory.hpp:77] Creating layer conv_10/project
I0423 21:15:47.234385  4158 net.cpp:100] Creating Layer conv_10/project
I0423 21:15:47.234388  4158 net.cpp:434] conv_10/project <- conv_10/depthwise
I0423 21:15:47.234395  4158 net.cpp:408] conv_10/project -> conv_10/project
I0423 21:15:47.235677  4158 net.cpp:150] Setting up conv_10/project
I0423 21:15:47.235688  4158 net.cpp:157] Top shape: 2 96 19 19 (69312)
I0423 21:15:47.235703  4158 net.cpp:165] Memory required for data: 344303072
I0423 21:15:47.235709  4158 layer_factory.hpp:77] Creating layer conv_10/project/bn
I0423 21:15:47.235715  4158 net.cpp:100] Creating Layer conv_10/project/bn
I0423 21:15:47.235720  4158 net.cpp:434] conv_10/project/bn <- conv_10/project
I0423 21:15:47.235725  4158 net.cpp:395] conv_10/project/bn -> conv_10/project (in-place)
I0423 21:15:47.235914  4158 net.cpp:150] Setting up conv_10/project/bn
I0423 21:15:47.235921  4158 net.cpp:157] Top shape: 2 96 19 19 (69312)
I0423 21:15:47.235940  4158 net.cpp:165] Memory required for data: 344580320
I0423 21:15:47.235949  4158 layer_factory.hpp:77] Creating layer conv_10/project/scale
I0423 21:15:47.235954  4158 net.cpp:100] Creating Layer conv_10/project/scale
I0423 21:15:47.235960  4158 net.cpp:434] conv_10/project/scale <- conv_10/project
I0423 21:15:47.235965  4158 net.cpp:395] conv_10/project/scale -> conv_10/project (in-place)
I0423 21:15:47.236009  4158 layer_factory.hpp:77] Creating layer conv_10/project/scale
I0423 21:15:47.236137  4158 net.cpp:150] Setting up conv_10/project/scale
I0423 21:15:47.236155  4158 net.cpp:157] Top shape: 2 96 19 19 (69312)
I0423 21:15:47.236168  4158 net.cpp:165] Memory required for data: 344857568
I0423 21:15:47.236174  4158 layer_factory.hpp:77] Creating layer conv_10/project_conv_10/project/scale_0_split
I0423 21:15:47.236181  4158 net.cpp:100] Creating Layer conv_10/project_conv_10/project/scale_0_split
I0423 21:15:47.236186  4158 net.cpp:434] conv_10/project_conv_10/project/scale_0_split <- conv_10/project
I0423 21:15:47.236191  4158 net.cpp:408] conv_10/project_conv_10/project/scale_0_split -> conv_10/project_conv_10/project/scale_0_split_0
I0423 21:15:47.236197  4158 net.cpp:408] conv_10/project_conv_10/project/scale_0_split -> conv_10/project_conv_10/project/scale_0_split_1
I0423 21:15:47.236239  4158 net.cpp:150] Setting up conv_10/project_conv_10/project/scale_0_split
I0423 21:15:47.236246  4158 net.cpp:157] Top shape: 2 96 19 19 (69312)
I0423 21:15:47.236260  4158 net.cpp:157] Top shape: 2 96 19 19 (69312)
I0423 21:15:47.236264  4158 net.cpp:165] Memory required for data: 345412064
I0423 21:15:47.236268  4158 layer_factory.hpp:77] Creating layer conv_11/expand
I0423 21:15:47.236275  4158 net.cpp:100] Creating Layer conv_11/expand
I0423 21:15:47.236280  4158 net.cpp:434] conv_11/expand <- conv_10/project_conv_10/project/scale_0_split_0
I0423 21:15:47.236285  4158 net.cpp:408] conv_11/expand -> conv_11/expand
I0423 21:15:47.238224  4158 net.cpp:150] Setting up conv_11/expand
I0423 21:15:47.238239  4158 net.cpp:157] Top shape: 2 576 19 19 (415872)
I0423 21:15:47.238253  4158 net.cpp:165] Memory required for data: 347075552
I0423 21:15:47.238260  4158 layer_factory.hpp:77] Creating layer conv_11/expand/bn
I0423 21:15:47.238265  4158 net.cpp:100] Creating Layer conv_11/expand/bn
I0423 21:15:47.238270  4158 net.cpp:434] conv_11/expand/bn <- conv_11/expand
I0423 21:15:47.238276  4158 net.cpp:395] conv_11/expand/bn -> conv_11/expand (in-place)
I0423 21:15:47.238458  4158 net.cpp:150] Setting up conv_11/expand/bn
I0423 21:15:47.238466  4158 net.cpp:157] Top shape: 2 576 19 19 (415872)
I0423 21:15:47.238471  4158 net.cpp:165] Memory required for data: 348739040
I0423 21:15:47.238478  4158 layer_factory.hpp:77] Creating layer conv_11/expand/scale
I0423 21:15:47.238484  4158 net.cpp:100] Creating Layer conv_11/expand/scale
I0423 21:15:47.238489  4158 net.cpp:434] conv_11/expand/scale <- conv_11/expand
I0423 21:15:47.238494  4158 net.cpp:395] conv_11/expand/scale -> conv_11/expand (in-place)
I0423 21:15:47.238530  4158 layer_factory.hpp:77] Creating layer conv_11/expand/scale
I0423 21:15:47.238642  4158 net.cpp:150] Setting up conv_11/expand/scale
I0423 21:15:47.238651  4158 net.cpp:157] Top shape: 2 576 19 19 (415872)
I0423 21:15:47.238654  4158 net.cpp:165] Memory required for data: 350402528
I0423 21:15:47.238660  4158 layer_factory.hpp:77] Creating layer conv_11/expand/relu
I0423 21:15:47.238667  4158 net.cpp:100] Creating Layer conv_11/expand/relu
I0423 21:15:47.238670  4158 net.cpp:434] conv_11/expand/relu <- conv_11/expand
I0423 21:15:47.238675  4158 net.cpp:395] conv_11/expand/relu -> conv_11/expand (in-place)
I0423 21:15:47.239022  4158 net.cpp:150] Setting up conv_11/expand/relu
I0423 21:15:47.239033  4158 net.cpp:157] Top shape: 2 576 19 19 (415872)
I0423 21:15:47.239048  4158 net.cpp:165] Memory required for data: 352066016
I0423 21:15:47.239051  4158 layer_factory.hpp:77] Creating layer conv_11/depthwise
I0423 21:15:47.239059  4158 net.cpp:100] Creating Layer conv_11/depthwise
I0423 21:15:47.239064  4158 net.cpp:434] conv_11/depthwise <- conv_11/expand
I0423 21:15:47.239070  4158 net.cpp:408] conv_11/depthwise -> conv_11/depthwise
I0423 21:15:47.239300  4158 net.cpp:150] Setting up conv_11/depthwise
I0423 21:15:47.239308  4158 net.cpp:157] Top shape: 2 576 19 19 (415872)
I0423 21:15:47.239321  4158 net.cpp:165] Memory required for data: 353729504
I0423 21:15:47.239327  4158 layer_factory.hpp:77] Creating layer conv_11/depthwise/bn
I0423 21:15:47.239332  4158 net.cpp:100] Creating Layer conv_11/depthwise/bn
I0423 21:15:47.239337  4158 net.cpp:434] conv_11/depthwise/bn <- conv_11/depthwise
I0423 21:15:47.239352  4158 net.cpp:395] conv_11/depthwise/bn -> conv_11/depthwise (in-place)
I0423 21:15:47.239534  4158 net.cpp:150] Setting up conv_11/depthwise/bn
I0423 21:15:47.239542  4158 net.cpp:157] Top shape: 2 576 19 19 (415872)
I0423 21:15:47.239545  4158 net.cpp:165] Memory required for data: 355392992
I0423 21:15:47.239552  4158 layer_factory.hpp:77] Creating layer conv_11/depthwise/scale
I0423 21:15:47.239558  4158 net.cpp:100] Creating Layer conv_11/depthwise/scale
I0423 21:15:47.239562  4158 net.cpp:434] conv_11/depthwise/scale <- conv_11/depthwise
I0423 21:15:47.239567  4158 net.cpp:395] conv_11/depthwise/scale -> conv_11/depthwise (in-place)
I0423 21:15:47.239609  4158 layer_factory.hpp:77] Creating layer conv_11/depthwise/scale
I0423 21:15:47.239723  4158 net.cpp:150] Setting up conv_11/depthwise/scale
I0423 21:15:47.239730  4158 net.cpp:157] Top shape: 2 576 19 19 (415872)
I0423 21:15:47.239734  4158 net.cpp:165] Memory required for data: 357056480
I0423 21:15:47.239740  4158 layer_factory.hpp:77] Creating layer conv_11/depthwise/relu
I0423 21:15:47.239747  4158 net.cpp:100] Creating Layer conv_11/depthwise/relu
I0423 21:15:47.239750  4158 net.cpp:434] conv_11/depthwise/relu <- conv_11/depthwise
I0423 21:15:47.239755  4158 net.cpp:395] conv_11/depthwise/relu -> conv_11/depthwise (in-place)
I0423 21:15:47.239886  4158 net.cpp:150] Setting up conv_11/depthwise/relu
I0423 21:15:47.239893  4158 net.cpp:157] Top shape: 2 576 19 19 (415872)
I0423 21:15:47.239897  4158 net.cpp:165] Memory required for data: 358719968
I0423 21:15:47.239902  4158 layer_factory.hpp:77] Creating layer conv_11/project
I0423 21:15:47.239909  4158 net.cpp:100] Creating Layer conv_11/project
I0423 21:15:47.239914  4158 net.cpp:434] conv_11/project <- conv_11/depthwise
I0423 21:15:47.239919  4158 net.cpp:408] conv_11/project -> conv_11/project
I0423 21:15:47.241600  4158 net.cpp:150] Setting up conv_11/project
I0423 21:15:47.241613  4158 net.cpp:157] Top shape: 2 96 19 19 (69312)
I0423 21:15:47.241617  4158 net.cpp:165] Memory required for data: 358997216
I0423 21:15:47.241623  4158 layer_factory.hpp:77] Creating layer conv_11/project/bn
I0423 21:15:47.241631  4158 net.cpp:100] Creating Layer conv_11/project/bn
I0423 21:15:47.241634  4158 net.cpp:434] conv_11/project/bn <- conv_11/project
I0423 21:15:47.241641  4158 net.cpp:395] conv_11/project/bn -> conv_11/project (in-place)
I0423 21:15:47.241828  4158 net.cpp:150] Setting up conv_11/project/bn
I0423 21:15:47.241837  4158 net.cpp:157] Top shape: 2 96 19 19 (69312)
I0423 21:15:47.241839  4158 net.cpp:165] Memory required for data: 359274464
I0423 21:15:47.241847  4158 layer_factory.hpp:77] Creating layer conv_11/project/scale
I0423 21:15:47.241853  4158 net.cpp:100] Creating Layer conv_11/project/scale
I0423 21:15:47.241858  4158 net.cpp:434] conv_11/project/scale <- conv_11/project
I0423 21:15:47.241863  4158 net.cpp:395] conv_11/project/scale -> conv_11/project (in-place)
I0423 21:15:47.241899  4158 layer_factory.hpp:77] Creating layer conv_11/project/scale
I0423 21:15:47.242010  4158 net.cpp:150] Setting up conv_11/project/scale
I0423 21:15:47.242017  4158 net.cpp:157] Top shape: 2 96 19 19 (69312)
I0423 21:15:47.242022  4158 net.cpp:165] Memory required for data: 359551712
I0423 21:15:47.242027  4158 layer_factory.hpp:77] Creating layer conv_11project/sum
I0423 21:15:47.242033  4158 net.cpp:100] Creating Layer conv_11project/sum
I0423 21:15:47.242038  4158 net.cpp:434] conv_11project/sum <- conv_10/project_conv_10/project/scale_0_split_1
I0423 21:15:47.242043  4158 net.cpp:434] conv_11project/sum <- conv_11/project
I0423 21:15:47.242053  4158 net.cpp:408] conv_11project/sum -> conv_11project
I0423 21:15:47.242076  4158 net.cpp:150] Setting up conv_11project/sum
I0423 21:15:47.242084  4158 net.cpp:157] Top shape: 2 96 19 19 (69312)
I0423 21:15:47.242087  4158 net.cpp:165] Memory required for data: 359828960
I0423 21:15:47.242090  4158 layer_factory.hpp:77] Creating layer conv_11project_conv_11project/sum_0_split
I0423 21:15:47.242096  4158 net.cpp:100] Creating Layer conv_11project_conv_11project/sum_0_split
I0423 21:15:47.242110  4158 net.cpp:434] conv_11project_conv_11project/sum_0_split <- conv_11project
I0423 21:15:47.242116  4158 net.cpp:408] conv_11project_conv_11project/sum_0_split -> conv_11project_conv_11project/sum_0_split_0
I0423 21:15:47.242122  4158 net.cpp:408] conv_11project_conv_11project/sum_0_split -> conv_11project_conv_11project/sum_0_split_1
I0423 21:15:47.242154  4158 net.cpp:150] Setting up conv_11project_conv_11project/sum_0_split
I0423 21:15:47.242161  4158 net.cpp:157] Top shape: 2 96 19 19 (69312)
I0423 21:15:47.242166  4158 net.cpp:157] Top shape: 2 96 19 19 (69312)
I0423 21:15:47.242168  4158 net.cpp:165] Memory required for data: 360383456
I0423 21:15:47.242172  4158 layer_factory.hpp:77] Creating layer conv_12/expand
I0423 21:15:47.242180  4158 net.cpp:100] Creating Layer conv_12/expand
I0423 21:15:47.242184  4158 net.cpp:434] conv_12/expand <- conv_11project_conv_11project/sum_0_split_0
I0423 21:15:47.242189  4158 net.cpp:408] conv_12/expand -> conv_12/expand
I0423 21:15:47.243656  4158 net.cpp:150] Setting up conv_12/expand
I0423 21:15:47.243669  4158 net.cpp:157] Top shape: 2 576 19 19 (415872)
I0423 21:15:47.243674  4158 net.cpp:165] Memory required for data: 362046944
I0423 21:15:47.243680  4158 layer_factory.hpp:77] Creating layer conv_12/expand/bn
I0423 21:15:47.243685  4158 net.cpp:100] Creating Layer conv_12/expand/bn
I0423 21:15:47.243690  4158 net.cpp:434] conv_12/expand/bn <- conv_12/expand
I0423 21:15:47.243695  4158 net.cpp:395] conv_12/expand/bn -> conv_12/expand (in-place)
I0423 21:15:47.243885  4158 net.cpp:150] Setting up conv_12/expand/bn
I0423 21:15:47.243891  4158 net.cpp:157] Top shape: 2 576 19 19 (415872)
I0423 21:15:47.243896  4158 net.cpp:165] Memory required for data: 363710432
I0423 21:15:47.243902  4158 layer_factory.hpp:77] Creating layer conv_12/expand/scale
I0423 21:15:47.243909  4158 net.cpp:100] Creating Layer conv_12/expand/scale
I0423 21:15:47.243913  4158 net.cpp:434] conv_12/expand/scale <- conv_12/expand
I0423 21:15:47.243918  4158 net.cpp:395] conv_12/expand/scale -> conv_12/expand (in-place)
I0423 21:15:47.243963  4158 layer_factory.hpp:77] Creating layer conv_12/expand/scale
I0423 21:15:47.244071  4158 net.cpp:150] Setting up conv_12/expand/scale
I0423 21:15:47.244078  4158 net.cpp:157] Top shape: 2 576 19 19 (415872)
I0423 21:15:47.244082  4158 net.cpp:165] Memory required for data: 365373920
I0423 21:15:47.244088  4158 layer_factory.hpp:77] Creating layer conv_12/expand/relu
I0423 21:15:47.244094  4158 net.cpp:100] Creating Layer conv_12/expand/relu
I0423 21:15:47.244098  4158 net.cpp:434] conv_12/expand/relu <- conv_12/expand
I0423 21:15:47.244103  4158 net.cpp:395] conv_12/expand/relu -> conv_12/expand (in-place)
I0423 21:15:47.244462  4158 net.cpp:150] Setting up conv_12/expand/relu
I0423 21:15:47.244474  4158 net.cpp:157] Top shape: 2 576 19 19 (415872)
I0423 21:15:47.244478  4158 net.cpp:165] Memory required for data: 367037408
I0423 21:15:47.244483  4158 layer_factory.hpp:77] Creating layer conv_12/depthwise
I0423 21:15:47.244491  4158 net.cpp:100] Creating Layer conv_12/depthwise
I0423 21:15:47.244496  4158 net.cpp:434] conv_12/depthwise <- conv_12/expand
I0423 21:15:47.244501  4158 net.cpp:408] conv_12/depthwise -> conv_12/depthwise
I0423 21:15:47.244731  4158 net.cpp:150] Setting up conv_12/depthwise
I0423 21:15:47.244740  4158 net.cpp:157] Top shape: 2 576 19 19 (415872)
I0423 21:15:47.244745  4158 net.cpp:165] Memory required for data: 368700896
I0423 21:15:47.244750  4158 layer_factory.hpp:77] Creating layer conv_12/depthwise/bn
I0423 21:15:47.244755  4158 net.cpp:100] Creating Layer conv_12/depthwise/bn
I0423 21:15:47.244760  4158 net.cpp:434] conv_12/depthwise/bn <- conv_12/depthwise
I0423 21:15:47.244765  4158 net.cpp:395] conv_12/depthwise/bn -> conv_12/depthwise (in-place)
I0423 21:15:47.244947  4158 net.cpp:150] Setting up conv_12/depthwise/bn
I0423 21:15:47.244954  4158 net.cpp:157] Top shape: 2 576 19 19 (415872)
I0423 21:15:47.244958  4158 net.cpp:165] Memory required for data: 370364384
I0423 21:15:47.244974  4158 layer_factory.hpp:77] Creating layer conv_12/depthwise/scale
I0423 21:15:47.244982  4158 net.cpp:100] Creating Layer conv_12/depthwise/scale
I0423 21:15:47.244985  4158 net.cpp:434] conv_12/depthwise/scale <- conv_12/depthwise
I0423 21:15:47.244990  4158 net.cpp:395] conv_12/depthwise/scale -> conv_12/depthwise (in-place)
I0423 21:15:47.245028  4158 layer_factory.hpp:77] Creating layer conv_12/depthwise/scale
I0423 21:15:47.245136  4158 net.cpp:150] Setting up conv_12/depthwise/scale
I0423 21:15:47.245143  4158 net.cpp:157] Top shape: 2 576 19 19 (415872)
I0423 21:15:47.245147  4158 net.cpp:165] Memory required for data: 372027872
I0423 21:15:47.245153  4158 layer_factory.hpp:77] Creating layer conv_12/depthwise/relu
I0423 21:15:47.245159  4158 net.cpp:100] Creating Layer conv_12/depthwise/relu
I0423 21:15:47.245163  4158 net.cpp:434] conv_12/depthwise/relu <- conv_12/depthwise
I0423 21:15:47.245168  4158 net.cpp:395] conv_12/depthwise/relu -> conv_12/depthwise (in-place)
I0423 21:15:47.245517  4158 net.cpp:150] Setting up conv_12/depthwise/relu
I0423 21:15:47.245528  4158 net.cpp:157] Top shape: 2 576 19 19 (415872)
I0423 21:15:47.245532  4158 net.cpp:165] Memory required for data: 373691360
I0423 21:15:47.245537  4158 layer_factory.hpp:77] Creating layer conv_12/project
I0423 21:15:47.245544  4158 net.cpp:100] Creating Layer conv_12/project
I0423 21:15:47.245549  4158 net.cpp:434] conv_12/project <- conv_12/depthwise
I0423 21:15:47.245564  4158 net.cpp:408] conv_12/project -> conv_12/project
I0423 21:15:47.247051  4158 net.cpp:150] Setting up conv_12/project
I0423 21:15:47.247062  4158 net.cpp:157] Top shape: 2 96 19 19 (69312)
I0423 21:15:47.247066  4158 net.cpp:165] Memory required for data: 373968608
I0423 21:15:47.247072  4158 layer_factory.hpp:77] Creating layer conv_12/project/bn
I0423 21:15:47.247079  4158 net.cpp:100] Creating Layer conv_12/project/bn
I0423 21:15:47.247083  4158 net.cpp:434] conv_12/project/bn <- conv_12/project
I0423 21:15:47.247089  4158 net.cpp:395] conv_12/project/bn -> conv_12/project (in-place)
I0423 21:15:47.247272  4158 net.cpp:150] Setting up conv_12/project/bn
I0423 21:15:47.247279  4158 net.cpp:157] Top shape: 2 96 19 19 (69312)
I0423 21:15:47.247283  4158 net.cpp:165] Memory required for data: 374245856
I0423 21:15:47.247290  4158 layer_factory.hpp:77] Creating layer conv_12/project/scale
I0423 21:15:47.247297  4158 net.cpp:100] Creating Layer conv_12/project/scale
I0423 21:15:47.247301  4158 net.cpp:434] conv_12/project/scale <- conv_12/project
I0423 21:15:47.247306  4158 net.cpp:395] conv_12/project/scale -> conv_12/project (in-place)
I0423 21:15:47.247341  4158 layer_factory.hpp:77] Creating layer conv_12/project/scale
I0423 21:15:47.247449  4158 net.cpp:150] Setting up conv_12/project/scale
I0423 21:15:47.247457  4158 net.cpp:157] Top shape: 2 96 19 19 (69312)
I0423 21:15:47.247462  4158 net.cpp:165] Memory required for data: 374523104
I0423 21:15:47.247467  4158 layer_factory.hpp:77] Creating layer conv_12project/sum
I0423 21:15:47.247473  4158 net.cpp:100] Creating Layer conv_12project/sum
I0423 21:15:47.247478  4158 net.cpp:434] conv_12project/sum <- conv_11project_conv_11project/sum_0_split_1
I0423 21:15:47.247483  4158 net.cpp:434] conv_12project/sum <- conv_12/project
I0423 21:15:47.247488  4158 net.cpp:408] conv_12project/sum -> conv_12project
I0423 21:15:47.247509  4158 net.cpp:150] Setting up conv_12project/sum
I0423 21:15:47.247515  4158 net.cpp:157] Top shape: 2 96 19 19 (69312)
I0423 21:15:47.247519  4158 net.cpp:165] Memory required for data: 374800352
I0423 21:15:47.247524  4158 layer_factory.hpp:77] Creating layer conv_13/expand
I0423 21:15:47.247529  4158 net.cpp:100] Creating Layer conv_13/expand
I0423 21:15:47.247534  4158 net.cpp:434] conv_13/expand <- conv_12project
I0423 21:15:47.247539  4158 net.cpp:408] conv_13/expand -> conv_13/expand
I0423 21:15:47.249606  4158 net.cpp:150] Setting up conv_13/expand
I0423 21:15:47.249624  4158 net.cpp:157] Top shape: 2 576 19 19 (415872)
I0423 21:15:47.249629  4158 net.cpp:165] Memory required for data: 376463840
I0423 21:15:47.249651  4158 layer_factory.hpp:77] Creating layer conv_13/expand/bn
I0423 21:15:47.249661  4158 net.cpp:100] Creating Layer conv_13/expand/bn
I0423 21:15:47.249666  4158 net.cpp:434] conv_13/expand/bn <- conv_13/expand
I0423 21:15:47.249672  4158 net.cpp:395] conv_13/expand/bn -> conv_13/expand (in-place)
I0423 21:15:47.249872  4158 net.cpp:150] Setting up conv_13/expand/bn
I0423 21:15:47.249881  4158 net.cpp:157] Top shape: 2 576 19 19 (415872)
I0423 21:15:47.249884  4158 net.cpp:165] Memory required for data: 378127328
I0423 21:15:47.249891  4158 layer_factory.hpp:77] Creating layer conv_13/expand/scale
I0423 21:15:47.249904  4158 net.cpp:100] Creating Layer conv_13/expand/scale
I0423 21:15:47.249909  4158 net.cpp:434] conv_13/expand/scale <- conv_13/expand
I0423 21:15:47.249914  4158 net.cpp:395] conv_13/expand/scale -> conv_13/expand (in-place)
I0423 21:15:47.249958  4158 layer_factory.hpp:77] Creating layer conv_13/expand/scale
I0423 21:15:47.250071  4158 net.cpp:150] Setting up conv_13/expand/scale
I0423 21:15:47.250078  4158 net.cpp:157] Top shape: 2 576 19 19 (415872)
I0423 21:15:47.250082  4158 net.cpp:165] Memory required for data: 379790816
I0423 21:15:47.250087  4158 layer_factory.hpp:77] Creating layer conv_13/expand/relu
I0423 21:15:47.250094  4158 net.cpp:100] Creating Layer conv_13/expand/relu
I0423 21:15:47.250098  4158 net.cpp:434] conv_13/expand/relu <- conv_13/expand
I0423 21:15:47.250103  4158 net.cpp:395] conv_13/expand/relu -> conv_13/expand (in-place)
I0423 21:15:47.250255  4158 net.cpp:150] Setting up conv_13/expand/relu
I0423 21:15:47.250264  4158 net.cpp:157] Top shape: 2 576 19 19 (415872)
I0423 21:15:47.250268  4158 net.cpp:165] Memory required for data: 381454304
I0423 21:15:47.250272  4158 layer_factory.hpp:77] Creating layer conv_13/expand_conv_13/expand/relu_0_split
I0423 21:15:47.250279  4158 net.cpp:100] Creating Layer conv_13/expand_conv_13/expand/relu_0_split
I0423 21:15:47.250283  4158 net.cpp:434] conv_13/expand_conv_13/expand/relu_0_split <- conv_13/expand
I0423 21:15:47.250289  4158 net.cpp:408] conv_13/expand_conv_13/expand/relu_0_split -> conv_13/expand_conv_13/expand/relu_0_split_0
I0423 21:15:47.250298  4158 net.cpp:408] conv_13/expand_conv_13/expand/relu_0_split -> conv_13/expand_conv_13/expand/relu_0_split_1
I0423 21:15:47.250303  4158 net.cpp:408] conv_13/expand_conv_13/expand/relu_0_split -> conv_13/expand_conv_13/expand/relu_0_split_2
I0423 21:15:47.250310  4158 net.cpp:408] conv_13/expand_conv_13/expand/relu_0_split -> conv_13/expand_conv_13/expand/relu_0_split_3
I0423 21:15:47.250376  4158 net.cpp:150] Setting up conv_13/expand_conv_13/expand/relu_0_split
I0423 21:15:47.250383  4158 net.cpp:157] Top shape: 2 576 19 19 (415872)
I0423 21:15:47.250387  4158 net.cpp:157] Top shape: 2 576 19 19 (415872)
I0423 21:15:47.250392  4158 net.cpp:157] Top shape: 2 576 19 19 (415872)
I0423 21:15:47.250396  4158 net.cpp:157] Top shape: 2 576 19 19 (415872)
I0423 21:15:47.250401  4158 net.cpp:165] Memory required for data: 388108256
I0423 21:15:47.250404  4158 layer_factory.hpp:77] Creating layer conv_13/depthwise
I0423 21:15:47.250412  4158 net.cpp:100] Creating Layer conv_13/depthwise
I0423 21:15:47.250416  4158 net.cpp:434] conv_13/depthwise <- conv_13/expand_conv_13/expand/relu_0_split_0
I0423 21:15:47.250422  4158 net.cpp:408] conv_13/depthwise -> conv_13/depthwise
I0423 21:15:47.250656  4158 net.cpp:150] Setting up conv_13/depthwise
I0423 21:15:47.250664  4158 net.cpp:157] Top shape: 2 576 10 10 (115200)
I0423 21:15:47.250669  4158 net.cpp:165] Memory required for data: 388569056
I0423 21:15:47.250674  4158 layer_factory.hpp:77] Creating layer conv_13/depthwise/bn
I0423 21:15:47.250680  4158 net.cpp:100] Creating Layer conv_13/depthwise/bn
I0423 21:15:47.250685  4158 net.cpp:434] conv_13/depthwise/bn <- conv_13/depthwise
I0423 21:15:47.250690  4158 net.cpp:395] conv_13/depthwise/bn -> conv_13/depthwise (in-place)
I0423 21:15:47.250876  4158 net.cpp:150] Setting up conv_13/depthwise/bn
I0423 21:15:47.250883  4158 net.cpp:157] Top shape: 2 576 10 10 (115200)
I0423 21:15:47.250898  4158 net.cpp:165] Memory required for data: 389029856
I0423 21:15:47.250906  4158 layer_factory.hpp:77] Creating layer conv_13/depthwise/scale
I0423 21:15:47.250913  4158 net.cpp:100] Creating Layer conv_13/depthwise/scale
I0423 21:15:47.250918  4158 net.cpp:434] conv_13/depthwise/scale <- conv_13/depthwise
I0423 21:15:47.250923  4158 net.cpp:395] conv_13/depthwise/scale -> conv_13/depthwise (in-place)
I0423 21:15:47.250962  4158 layer_factory.hpp:77] Creating layer conv_13/depthwise/scale
I0423 21:15:47.251076  4158 net.cpp:150] Setting up conv_13/depthwise/scale
I0423 21:15:47.251085  4158 net.cpp:157] Top shape: 2 576 10 10 (115200)
I0423 21:15:47.251090  4158 net.cpp:165] Memory required for data: 389490656
I0423 21:15:47.251096  4158 layer_factory.hpp:77] Creating layer conv_13/depthwise/relu
I0423 21:15:47.251101  4158 net.cpp:100] Creating Layer conv_13/depthwise/relu
I0423 21:15:47.251103  4158 net.cpp:434] conv_13/depthwise/relu <- conv_13/depthwise
I0423 21:15:47.251107  4158 net.cpp:395] conv_13/depthwise/relu -> conv_13/depthwise (in-place)
I0423 21:15:47.251536  4158 net.cpp:150] Setting up conv_13/depthwise/relu
I0423 21:15:47.251549  4158 net.cpp:157] Top shape: 2 576 10 10 (115200)
I0423 21:15:47.251554  4158 net.cpp:165] Memory required for data: 389951456
I0423 21:15:47.251557  4158 layer_factory.hpp:77] Creating layer conv_13/project
I0423 21:15:47.251566  4158 net.cpp:100] Creating Layer conv_13/project
I0423 21:15:47.251570  4158 net.cpp:434] conv_13/project <- conv_13/depthwise
I0423 21:15:47.251575  4158 net.cpp:408] conv_13/project -> conv_13/project
I0423 21:15:47.254055  4158 net.cpp:150] Setting up conv_13/project
I0423 21:15:47.254086  4158 net.cpp:157] Top shape: 2 160 10 10 (32000)
I0423 21:15:47.254088  4158 net.cpp:165] Memory required for data: 390079456
I0423 21:15:47.254097  4158 layer_factory.hpp:77] Creating layer conv_13/project/bn
I0423 21:15:47.254110  4158 net.cpp:100] Creating Layer conv_13/project/bn
I0423 21:15:47.254117  4158 net.cpp:434] conv_13/project/bn <- conv_13/project
I0423 21:15:47.254122  4158 net.cpp:395] conv_13/project/bn -> conv_13/project (in-place)
I0423 21:15:47.254318  4158 net.cpp:150] Setting up conv_13/project/bn
I0423 21:15:47.254326  4158 net.cpp:157] Top shape: 2 160 10 10 (32000)
I0423 21:15:47.254330  4158 net.cpp:165] Memory required for data: 390207456
I0423 21:15:47.254336  4158 layer_factory.hpp:77] Creating layer conv_13/project/scale
I0423 21:15:47.254343  4158 net.cpp:100] Creating Layer conv_13/project/scale
I0423 21:15:47.254348  4158 net.cpp:434] conv_13/project/scale <- conv_13/project
I0423 21:15:47.254359  4158 net.cpp:395] conv_13/project/scale -> conv_13/project (in-place)
I0423 21:15:47.254396  4158 layer_factory.hpp:77] Creating layer conv_13/project/scale
I0423 21:15:47.254514  4158 net.cpp:150] Setting up conv_13/project/scale
I0423 21:15:47.254523  4158 net.cpp:157] Top shape: 2 160 10 10 (32000)
I0423 21:15:47.254534  4158 net.cpp:165] Memory required for data: 390335456
I0423 21:15:47.254541  4158 layer_factory.hpp:77] Creating layer conv_13/project_conv_13/project/scale_0_split
I0423 21:15:47.254547  4158 net.cpp:100] Creating Layer conv_13/project_conv_13/project/scale_0_split
I0423 21:15:47.254551  4158 net.cpp:434] conv_13/project_conv_13/project/scale_0_split <- conv_13/project
I0423 21:15:47.254557  4158 net.cpp:408] conv_13/project_conv_13/project/scale_0_split -> conv_13/project_conv_13/project/scale_0_split_0
I0423 21:15:47.254564  4158 net.cpp:408] conv_13/project_conv_13/project/scale_0_split -> conv_13/project_conv_13/project/scale_0_split_1
I0423 21:15:47.254595  4158 net.cpp:150] Setting up conv_13/project_conv_13/project/scale_0_split
I0423 21:15:47.254601  4158 net.cpp:157] Top shape: 2 160 10 10 (32000)
I0423 21:15:47.254606  4158 net.cpp:157] Top shape: 2 160 10 10 (32000)
I0423 21:15:47.254609  4158 net.cpp:165] Memory required for data: 390591456
I0423 21:15:47.254614  4158 layer_factory.hpp:77] Creating layer conv_14/expand
I0423 21:15:47.254664  4158 net.cpp:100] Creating Layer conv_14/expand
I0423 21:15:47.254671  4158 net.cpp:434] conv_14/expand <- conv_13/project_conv_13/project/scale_0_split_0
I0423 21:15:47.254678  4158 net.cpp:408] conv_14/expand -> conv_14/expand
I0423 21:15:47.257027  4158 net.cpp:150] Setting up conv_14/expand
I0423 21:15:47.257040  4158 net.cpp:157] Top shape: 2 960 10 10 (192000)
I0423 21:15:47.257045  4158 net.cpp:165] Memory required for data: 391359456
I0423 21:15:47.257050  4158 layer_factory.hpp:77] Creating layer conv_14/expand/bn
I0423 21:15:47.257056  4158 net.cpp:100] Creating Layer conv_14/expand/bn
I0423 21:15:47.257061  4158 net.cpp:434] conv_14/expand/bn <- conv_14/expand
I0423 21:15:47.257066  4158 net.cpp:395] conv_14/expand/bn -> conv_14/expand (in-place)
I0423 21:15:47.257263  4158 net.cpp:150] Setting up conv_14/expand/bn
I0423 21:15:47.257272  4158 net.cpp:157] Top shape: 2 960 10 10 (192000)
I0423 21:15:47.257275  4158 net.cpp:165] Memory required for data: 392127456
I0423 21:15:47.257282  4158 layer_factory.hpp:77] Creating layer conv_14/expand/scale
I0423 21:15:47.257288  4158 net.cpp:100] Creating Layer conv_14/expand/scale
I0423 21:15:47.257293  4158 net.cpp:434] conv_14/expand/scale <- conv_14/expand
I0423 21:15:47.257298  4158 net.cpp:395] conv_14/expand/scale -> conv_14/expand (in-place)
I0423 21:15:47.257336  4158 layer_factory.hpp:77] Creating layer conv_14/expand/scale
I0423 21:15:47.257449  4158 net.cpp:150] Setting up conv_14/expand/scale
I0423 21:15:47.257457  4158 net.cpp:157] Top shape: 2 960 10 10 (192000)
I0423 21:15:47.257462  4158 net.cpp:165] Memory required for data: 392895456
I0423 21:15:47.257489  4158 layer_factory.hpp:77] Creating layer conv_14/expand/relu
I0423 21:15:47.257496  4158 net.cpp:100] Creating Layer conv_14/expand/relu
I0423 21:15:47.257500  4158 net.cpp:434] conv_14/expand/relu <- conv_14/expand
I0423 21:15:47.257505  4158 net.cpp:395] conv_14/expand/relu -> conv_14/expand (in-place)
I0423 21:15:47.257648  4158 net.cpp:150] Setting up conv_14/expand/relu
I0423 21:15:47.257658  4158 net.cpp:157] Top shape: 2 960 10 10 (192000)
I0423 21:15:47.257660  4158 net.cpp:165] Memory required for data: 393663456
I0423 21:15:47.257665  4158 layer_factory.hpp:77] Creating layer conv_14/depthwise
I0423 21:15:47.257673  4158 net.cpp:100] Creating Layer conv_14/depthwise
I0423 21:15:47.257678  4158 net.cpp:434] conv_14/depthwise <- conv_14/expand
I0423 21:15:47.257683  4158 net.cpp:408] conv_14/depthwise -> conv_14/depthwise
I0423 21:15:47.257942  4158 net.cpp:150] Setting up conv_14/depthwise
I0423 21:15:47.257951  4158 net.cpp:157] Top shape: 2 960 10 10 (192000)
I0423 21:15:47.257954  4158 net.cpp:165] Memory required for data: 394431456
I0423 21:15:47.257961  4158 layer_factory.hpp:77] Creating layer conv_14/depthwise/bn
I0423 21:15:47.257966  4158 net.cpp:100] Creating Layer conv_14/depthwise/bn
I0423 21:15:47.257971  4158 net.cpp:434] conv_14/depthwise/bn <- conv_14/depthwise
I0423 21:15:47.257975  4158 net.cpp:395] conv_14/depthwise/bn -> conv_14/depthwise (in-place)
I0423 21:15:47.258170  4158 net.cpp:150] Setting up conv_14/depthwise/bn
I0423 21:15:47.258177  4158 net.cpp:157] Top shape: 2 960 10 10 (192000)
I0423 21:15:47.258182  4158 net.cpp:165] Memory required for data: 395199456
I0423 21:15:47.258188  4158 layer_factory.hpp:77] Creating layer conv_14/depthwise/scale
I0423 21:15:47.258194  4158 net.cpp:100] Creating Layer conv_14/depthwise/scale
I0423 21:15:47.258198  4158 net.cpp:434] conv_14/depthwise/scale <- conv_14/depthwise
I0423 21:15:47.258203  4158 net.cpp:395] conv_14/depthwise/scale -> conv_14/depthwise (in-place)
I0423 21:15:47.258240  4158 layer_factory.hpp:77] Creating layer conv_14/depthwise/scale
I0423 21:15:47.258340  4158 net.cpp:150] Setting up conv_14/depthwise/scale
I0423 21:15:47.258347  4158 net.cpp:157] Top shape: 2 960 10 10 (192000)
I0423 21:15:47.258352  4158 net.cpp:165] Memory required for data: 395967456
I0423 21:15:47.258358  4158 layer_factory.hpp:77] Creating layer conv_14/depthwise/relu
I0423 21:15:47.258369  4158 net.cpp:100] Creating Layer conv_14/depthwise/relu
I0423 21:15:47.258383  4158 net.cpp:434] conv_14/depthwise/relu <- conv_14/depthwise
I0423 21:15:47.258388  4158 net.cpp:395] conv_14/depthwise/relu -> conv_14/depthwise (in-place)
I0423 21:15:47.258741  4158 net.cpp:150] Setting up conv_14/depthwise/relu
I0423 21:15:47.258752  4158 net.cpp:157] Top shape: 2 960 10 10 (192000)
I0423 21:15:47.258756  4158 net.cpp:165] Memory required for data: 396735456
I0423 21:15:47.258760  4158 layer_factory.hpp:77] Creating layer conv_14/project
I0423 21:15:47.258769  4158 net.cpp:100] Creating Layer conv_14/project
I0423 21:15:47.258774  4158 net.cpp:434] conv_14/project <- conv_14/depthwise
I0423 21:15:47.258780  4158 net.cpp:408] conv_14/project -> conv_14/project
I0423 21:15:47.261626  4158 net.cpp:150] Setting up conv_14/project
I0423 21:15:47.261639  4158 net.cpp:157] Top shape: 2 160 10 10 (32000)
I0423 21:15:47.261644  4158 net.cpp:165] Memory required for data: 396863456
I0423 21:15:47.261651  4158 layer_factory.hpp:77] Creating layer conv_14/project/bn
I0423 21:15:47.261657  4158 net.cpp:100] Creating Layer conv_14/project/bn
I0423 21:15:47.261662  4158 net.cpp:434] conv_14/project/bn <- conv_14/project
I0423 21:15:47.261668  4158 net.cpp:395] conv_14/project/bn -> conv_14/project (in-place)
I0423 21:15:47.261865  4158 net.cpp:150] Setting up conv_14/project/bn
I0423 21:15:47.261873  4158 net.cpp:157] Top shape: 2 160 10 10 (32000)
I0423 21:15:47.261876  4158 net.cpp:165] Memory required for data: 396991456
I0423 21:15:47.261883  4158 layer_factory.hpp:77] Creating layer conv_14/project/scale
I0423 21:15:47.261893  4158 net.cpp:100] Creating Layer conv_14/project/scale
I0423 21:15:47.261896  4158 net.cpp:434] conv_14/project/scale <- conv_14/project
I0423 21:15:47.261903  4158 net.cpp:395] conv_14/project/scale -> conv_14/project (in-place)
I0423 21:15:47.261937  4158 layer_factory.hpp:77] Creating layer conv_14/project/scale
I0423 21:15:47.262044  4158 net.cpp:150] Setting up conv_14/project/scale
I0423 21:15:47.262051  4158 net.cpp:157] Top shape: 2 160 10 10 (32000)
I0423 21:15:47.262055  4158 net.cpp:165] Memory required for data: 397119456
I0423 21:15:47.262061  4158 layer_factory.hpp:77] Creating layer conv_14project/sum
I0423 21:15:47.262068  4158 net.cpp:100] Creating Layer conv_14project/sum
I0423 21:15:47.262073  4158 net.cpp:434] conv_14project/sum <- conv_13/project_conv_13/project/scale_0_split_1
I0423 21:15:47.262078  4158 net.cpp:434] conv_14project/sum <- conv_14/project
I0423 21:15:47.262082  4158 net.cpp:408] conv_14project/sum -> conv_14project
I0423 21:15:47.262105  4158 net.cpp:150] Setting up conv_14project/sum
I0423 21:15:47.262111  4158 net.cpp:157] Top shape: 2 160 10 10 (32000)
I0423 21:15:47.262115  4158 net.cpp:165] Memory required for data: 397247456
I0423 21:15:47.262120  4158 layer_factory.hpp:77] Creating layer conv_14project_conv_14project/sum_0_split
I0423 21:15:47.262125  4158 net.cpp:100] Creating Layer conv_14project_conv_14project/sum_0_split
I0423 21:15:47.262130  4158 net.cpp:434] conv_14project_conv_14project/sum_0_split <- conv_14project
I0423 21:15:47.262135  4158 net.cpp:408] conv_14project_conv_14project/sum_0_split -> conv_14project_conv_14project/sum_0_split_0
I0423 21:15:47.262140  4158 net.cpp:408] conv_14project_conv_14project/sum_0_split -> conv_14project_conv_14project/sum_0_split_1
I0423 21:15:47.262172  4158 net.cpp:150] Setting up conv_14project_conv_14project/sum_0_split
I0423 21:15:47.262178  4158 net.cpp:157] Top shape: 2 160 10 10 (32000)
I0423 21:15:47.262183  4158 net.cpp:157] Top shape: 2 160 10 10 (32000)
I0423 21:15:47.262187  4158 net.cpp:165] Memory required for data: 397503456
I0423 21:15:47.262190  4158 layer_factory.hpp:77] Creating layer conv_15/expand
I0423 21:15:47.262197  4158 net.cpp:100] Creating Layer conv_15/expand
I0423 21:15:47.262202  4158 net.cpp:434] conv_15/expand <- conv_14project_conv_14project/sum_0_split_0
I0423 21:15:47.262213  4158 net.cpp:408] conv_15/expand -> conv_15/expand
I0423 21:15:47.265027  4158 net.cpp:150] Setting up conv_15/expand
I0423 21:15:47.265041  4158 net.cpp:157] Top shape: 2 960 10 10 (192000)
I0423 21:15:47.265058  4158 net.cpp:165] Memory required for data: 398271456
I0423 21:15:47.265065  4158 layer_factory.hpp:77] Creating layer conv_15/expand/bn
I0423 21:15:47.265071  4158 net.cpp:100] Creating Layer conv_15/expand/bn
I0423 21:15:47.265077  4158 net.cpp:434] conv_15/expand/bn <- conv_15/expand
I0423 21:15:47.265082  4158 net.cpp:395] conv_15/expand/bn -> conv_15/expand (in-place)
I0423 21:15:47.265276  4158 net.cpp:150] Setting up conv_15/expand/bn
I0423 21:15:47.265285  4158 net.cpp:157] Top shape: 2 960 10 10 (192000)
I0423 21:15:47.265288  4158 net.cpp:165] Memory required for data: 399039456
I0423 21:15:47.265295  4158 layer_factory.hpp:77] Creating layer conv_15/expand/scale
I0423 21:15:47.265302  4158 net.cpp:100] Creating Layer conv_15/expand/scale
I0423 21:15:47.265307  4158 net.cpp:434] conv_15/expand/scale <- conv_15/expand
I0423 21:15:47.265312  4158 net.cpp:395] conv_15/expand/scale -> conv_15/expand (in-place)
I0423 21:15:47.265359  4158 layer_factory.hpp:77] Creating layer conv_15/expand/scale
I0423 21:15:47.265470  4158 net.cpp:150] Setting up conv_15/expand/scale
I0423 21:15:47.265478  4158 net.cpp:157] Top shape: 2 960 10 10 (192000)
I0423 21:15:47.265482  4158 net.cpp:165] Memory required for data: 399807456
I0423 21:15:47.265489  4158 layer_factory.hpp:77] Creating layer conv_15/expand/relu
I0423 21:15:47.265494  4158 net.cpp:100] Creating Layer conv_15/expand/relu
I0423 21:15:47.265499  4158 net.cpp:434] conv_15/expand/relu <- conv_15/expand
I0423 21:15:47.265504  4158 net.cpp:395] conv_15/expand/relu -> conv_15/expand (in-place)
I0423 21:15:47.265848  4158 net.cpp:150] Setting up conv_15/expand/relu
I0423 21:15:47.265859  4158 net.cpp:157] Top shape: 2 960 10 10 (192000)
I0423 21:15:47.265863  4158 net.cpp:165] Memory required for data: 400575456
I0423 21:15:47.265867  4158 layer_factory.hpp:77] Creating layer conv_15/depthwise
I0423 21:15:47.265887  4158 net.cpp:100] Creating Layer conv_15/depthwise
I0423 21:15:47.265893  4158 net.cpp:434] conv_15/depthwise <- conv_15/expand
I0423 21:15:47.265899  4158 net.cpp:408] conv_15/depthwise -> conv_15/depthwise
I0423 21:15:47.266172  4158 net.cpp:150] Setting up conv_15/depthwise
I0423 21:15:47.266181  4158 net.cpp:157] Top shape: 2 960 10 10 (192000)
I0423 21:15:47.266185  4158 net.cpp:165] Memory required for data: 401343456
I0423 21:15:47.266191  4158 layer_factory.hpp:77] Creating layer conv_15/depthwise/bn
I0423 21:15:47.266196  4158 net.cpp:100] Creating Layer conv_15/depthwise/bn
I0423 21:15:47.266201  4158 net.cpp:434] conv_15/depthwise/bn <- conv_15/depthwise
I0423 21:15:47.266206  4158 net.cpp:395] conv_15/depthwise/bn -> conv_15/depthwise (in-place)
I0423 21:15:47.266402  4158 net.cpp:150] Setting up conv_15/depthwise/bn
I0423 21:15:47.266410  4158 net.cpp:157] Top shape: 2 960 10 10 (192000)
I0423 21:15:47.266414  4158 net.cpp:165] Memory required for data: 402111456
I0423 21:15:47.266422  4158 layer_factory.hpp:77] Creating layer conv_15/depthwise/scale
I0423 21:15:47.266427  4158 net.cpp:100] Creating Layer conv_15/depthwise/scale
I0423 21:15:47.266433  4158 net.cpp:434] conv_15/depthwise/scale <- conv_15/depthwise
I0423 21:15:47.266438  4158 net.cpp:395] conv_15/depthwise/scale -> conv_15/depthwise (in-place)
I0423 21:15:47.266481  4158 layer_factory.hpp:77] Creating layer conv_15/depthwise/scale
I0423 21:15:47.266587  4158 net.cpp:150] Setting up conv_15/depthwise/scale
I0423 21:15:47.266594  4158 net.cpp:157] Top shape: 2 960 10 10 (192000)
I0423 21:15:47.266598  4158 net.cpp:165] Memory required for data: 402879456
I0423 21:15:47.266604  4158 layer_factory.hpp:77] Creating layer conv_15/depthwise/relu
I0423 21:15:47.266610  4158 net.cpp:100] Creating Layer conv_15/depthwise/relu
I0423 21:15:47.266614  4158 net.cpp:434] conv_15/depthwise/relu <- conv_15/depthwise
I0423 21:15:47.266619  4158 net.cpp:395] conv_15/depthwise/relu -> conv_15/depthwise (in-place)
I0423 21:15:47.266760  4158 net.cpp:150] Setting up conv_15/depthwise/relu
I0423 21:15:47.266768  4158 net.cpp:157] Top shape: 2 960 10 10 (192000)
I0423 21:15:47.266782  4158 net.cpp:165] Memory required for data: 403647456
I0423 21:15:47.266785  4158 layer_factory.hpp:77] Creating layer conv_15/project
I0423 21:15:47.266793  4158 net.cpp:100] Creating Layer conv_15/project
I0423 21:15:47.266798  4158 net.cpp:434] conv_15/project <- conv_15/depthwise
I0423 21:15:47.266804  4158 net.cpp:408] conv_15/project -> conv_15/project
I0423 21:15:47.269863  4158 net.cpp:150] Setting up conv_15/project
I0423 21:15:47.269877  4158 net.cpp:157] Top shape: 2 160 10 10 (32000)
I0423 21:15:47.269881  4158 net.cpp:165] Memory required for data: 403775456
I0423 21:15:47.269886  4158 layer_factory.hpp:77] Creating layer conv_15/project/bn
I0423 21:15:47.269893  4158 net.cpp:100] Creating Layer conv_15/project/bn
I0423 21:15:47.269898  4158 net.cpp:434] conv_15/project/bn <- conv_15/project
I0423 21:15:47.269903  4158 net.cpp:395] conv_15/project/bn -> conv_15/project (in-place)
I0423 21:15:47.270093  4158 net.cpp:150] Setting up conv_15/project/bn
I0423 21:15:47.270102  4158 net.cpp:157] Top shape: 2 160 10 10 (32000)
I0423 21:15:47.270104  4158 net.cpp:165] Memory required for data: 403903456
I0423 21:15:47.270112  4158 layer_factory.hpp:77] Creating layer conv_15/project/scale
I0423 21:15:47.270117  4158 net.cpp:100] Creating Layer conv_15/project/scale
I0423 21:15:47.270123  4158 net.cpp:434] conv_15/project/scale <- conv_15/project
I0423 21:15:47.270128  4158 net.cpp:395] conv_15/project/scale -> conv_15/project (in-place)
I0423 21:15:47.270162  4158 layer_factory.hpp:77] Creating layer conv_15/project/scale
I0423 21:15:47.270273  4158 net.cpp:150] Setting up conv_15/project/scale
I0423 21:15:47.270280  4158 net.cpp:157] Top shape: 2 160 10 10 (32000)
I0423 21:15:47.270284  4158 net.cpp:165] Memory required for data: 404031456
I0423 21:15:47.270290  4158 layer_factory.hpp:77] Creating layer conv_15project/sum
I0423 21:15:47.270296  4158 net.cpp:100] Creating Layer conv_15project/sum
I0423 21:15:47.270301  4158 net.cpp:434] conv_15project/sum <- conv_14project_conv_14project/sum_0_split_1
I0423 21:15:47.270306  4158 net.cpp:434] conv_15project/sum <- conv_15/project
I0423 21:15:47.270311  4158 net.cpp:408] conv_15project/sum -> conv_15project
I0423 21:15:47.270334  4158 net.cpp:150] Setting up conv_15project/sum
I0423 21:15:47.270339  4158 net.cpp:157] Top shape: 2 160 10 10 (32000)
I0423 21:15:47.270344  4158 net.cpp:165] Memory required for data: 404159456
I0423 21:15:47.270347  4158 layer_factory.hpp:77] Creating layer conv_16/expand
I0423 21:15:47.270354  4158 net.cpp:100] Creating Layer conv_16/expand
I0423 21:15:47.270359  4158 net.cpp:434] conv_16/expand <- conv_15project
I0423 21:15:47.270364  4158 net.cpp:408] conv_16/expand -> conv_16/expand
I0423 21:15:47.273211  4158 net.cpp:150] Setting up conv_16/expand
I0423 21:15:47.273226  4158 net.cpp:157] Top shape: 2 960 10 10 (192000)
I0423 21:15:47.273231  4158 net.cpp:165] Memory required for data: 404927456
I0423 21:15:47.273238  4158 layer_factory.hpp:77] Creating layer conv_16/expand/bn
I0423 21:15:47.273247  4158 net.cpp:100] Creating Layer conv_16/expand/bn
I0423 21:15:47.273252  4158 net.cpp:434] conv_16/expand/bn <- conv_16/expand
I0423 21:15:47.273257  4158 net.cpp:395] conv_16/expand/bn -> conv_16/expand (in-place)
I0423 21:15:47.273459  4158 net.cpp:150] Setting up conv_16/expand/bn
I0423 21:15:47.273466  4158 net.cpp:157] Top shape: 2 960 10 10 (192000)
I0423 21:15:47.273470  4158 net.cpp:165] Memory required for data: 405695456
I0423 21:15:47.273478  4158 layer_factory.hpp:77] Creating layer conv_16/expand/scale
I0423 21:15:47.273485  4158 net.cpp:100] Creating Layer conv_16/expand/scale
I0423 21:15:47.273489  4158 net.cpp:434] conv_16/expand/scale <- conv_16/expand
I0423 21:15:47.273494  4158 net.cpp:395] conv_16/expand/scale -> conv_16/expand (in-place)
I0423 21:15:47.273535  4158 layer_factory.hpp:77] Creating layer conv_16/expand/scale
I0423 21:15:47.273655  4158 net.cpp:150] Setting up conv_16/expand/scale
I0423 21:15:47.273664  4158 net.cpp:157] Top shape: 2 960 10 10 (192000)
I0423 21:15:47.273685  4158 net.cpp:165] Memory required for data: 406463456
I0423 21:15:47.273692  4158 layer_factory.hpp:77] Creating layer conv_16/expand/relu
I0423 21:15:47.273699  4158 net.cpp:100] Creating Layer conv_16/expand/relu
I0423 21:15:47.273703  4158 net.cpp:434] conv_16/expand/relu <- conv_16/expand
I0423 21:15:47.273707  4158 net.cpp:395] conv_16/expand/relu -> conv_16/expand (in-place)
I0423 21:15:47.274075  4158 net.cpp:150] Setting up conv_16/expand/relu
I0423 21:15:47.274085  4158 net.cpp:157] Top shape: 2 960 10 10 (192000)
I0423 21:15:47.274089  4158 net.cpp:165] Memory required for data: 407231456
I0423 21:15:47.274093  4158 layer_factory.hpp:77] Creating layer conv_16/depthwise
I0423 21:15:47.274102  4158 net.cpp:100] Creating Layer conv_16/depthwise
I0423 21:15:47.274106  4158 net.cpp:434] conv_16/depthwise <- conv_16/expand
I0423 21:15:47.274112  4158 net.cpp:408] conv_16/depthwise -> conv_16/depthwise
I0423 21:15:47.274382  4158 net.cpp:150] Setting up conv_16/depthwise
I0423 21:15:47.274390  4158 net.cpp:157] Top shape: 2 960 10 10 (192000)
I0423 21:15:47.274394  4158 net.cpp:165] Memory required for data: 407999456
I0423 21:15:47.274400  4158 layer_factory.hpp:77] Creating layer conv_16/depthwise/bn
I0423 21:15:47.274406  4158 net.cpp:100] Creating Layer conv_16/depthwise/bn
I0423 21:15:47.274410  4158 net.cpp:434] conv_16/depthwise/bn <- conv_16/depthwise
I0423 21:15:47.274415  4158 net.cpp:395] conv_16/depthwise/bn -> conv_16/depthwise (in-place)
I0423 21:15:47.274603  4158 net.cpp:150] Setting up conv_16/depthwise/bn
I0423 21:15:47.274610  4158 net.cpp:157] Top shape: 2 960 10 10 (192000)
I0423 21:15:47.274615  4158 net.cpp:165] Memory required for data: 408767456
…
I0423 21:15:47.522845  4158 layer_factory.hpp:77] Creating layer layer_19_2_3/bn
I0423 21:15:47.522853  4158 net.cpp:100] Creating Layer layer_19_2_3/bn
I0423 21:15:47.522861  4158 net.cpp:434] layer_19_2_3/bn <- layer_19_2_3
I0423 21:15:47.522869  4158 net.cpp:395] layer_19_2_3/bn -> layer_19_2_3 (in-place)
I0423 21:15:47.523038  4158 net.cpp:150] Setting up layer_19_2_3/bn
I0423 21:15:47.523048  4158 net.cpp:157] Top shape: 2 256 3 3 (4608)
I0423 21:15:47.523053  4158 net.cpp:165] Memory required for data: 421282784
I0423 21:15:47.523064  4158 layer_factory.hpp:77] Creating layer layer_19_2_3/scale
I0423 21:15:47.523074  4158 net.cpp:100] Creating Layer layer_19_2_3/scale
I0423 21:15:47.523082  4158 net.cpp:434] layer_19_2_3/scale <- layer_19_2_3
I0423 21:15:47.523090  4158 net.cpp:395] layer_19_2_3/scale -> layer_19_2_3 (in-place)
I0423 21:15:47.523141  4158 layer_factory.hpp:77] Creating layer layer_19_2_3/scale
I0423 21:15:47.523248  4158 net.cpp:150] Setting up layer_19_2_3/scale
I0423 21:15:47.523258  4158 net.cpp:157] Top shape: 2 256 3 3 (4608)
I0423 21:15:47.523263  4158 net.cpp:165] Memory required for data: 421301216
I0423 21:15:47.523284  4158 layer_factory.hpp:77] Creating layer layer_19_2_3/relu
I0423 21:15:47.523294  4158 net.cpp:100] Creating Layer layer_19_2_3/relu
I0423 21:15:47.523301  4158 net.cpp:434] layer_19_2_3/relu <- layer_19_2_3
I0423 21:15:47.523309  4158 net.cpp:395] layer_19_2_3/relu -> layer_19_2_3 (in-place)
I0423 21:15:47.523470  4158 net.cpp:150] Setting up layer_19_2_3/relu
I0423 21:15:47.523480  4158 net.cpp:157] Top shape: 2 256 3 3 (4608)
I0423 21:15:47.523483  4158 net.cpp:165] Memory required for data: 421319648
I0423 21:15:47.523488  4158 layer_factory.hpp:77] Creating layer layer_19_2_3_layer_19_2_3/relu_0_split
I0423 21:15:47.523492  4158 net.cpp:100] Creating Layer layer_19_2_3_layer_19_2_3/relu_0_split
I0423 21:15:47.523497  4158 net.cpp:434] layer_19_2_3_layer_19_2_3/relu_0_split <- layer_19_2_3
I0423 21:15:47.523506  4158 net.cpp:408] layer_19_2_3_layer_19_2_3/relu_0_split -> layer_19_2_3_layer_19_2_3/relu_0_split_0
I0423 21:15:47.523516  4158 net.cpp:408] layer_19_2_3_layer_19_2_3/relu_0_split -> layer_19_2_3_layer_19_2_3/relu_0_split_1
I0423 21:15:47.523526  4158 net.cpp:408] layer_19_2_3_layer_19_2_3/relu_0_split -> layer_19_2_3_layer_19_2_3/relu_0_split_2
I0423 21:15:47.523532  4158 net.cpp:408] layer_19_2_3_layer_19_2_3/relu_0_split -> layer_19_2_3_layer_19_2_3/relu_0_split_3
I0423 21:15:47.523608  4158 net.cpp:150] Setting up layer_19_2_3_layer_19_2_3/relu_0_split
I0423 21:15:47.523617  4158 net.cpp:157] Top shape: 2 256 3 3 (4608)
I0423 21:15:47.523620  4158 net.cpp:157] Top shape: 2 256 3 3 (4608)
I0423 21:15:47.523624  4158 net.cpp:157] Top shape: 2 256 3 3 (4608)
I0423 21:15:47.523627  4158 net.cpp:157] Top shape: 2 256 3 3 (4608)
I0423 21:15:47.523632  4158 net.cpp:165] Memory required for data: 421393376
I0423 21:15:47.523638  4158 layer_factory.hpp:77] Creating layer layer_19_1_4
I0423 21:15:47.523648  4158 net.cpp:100] Creating Layer layer_19_1_4
I0423 21:15:47.523655  4158 net.cpp:434] layer_19_1_4 <- layer_19_2_3_layer_19_2_3/relu_0_split_0
I0423 21:15:47.523664  4158 net.cpp:408] layer_19_1_4 -> layer_19_1_4
I0423 21:15:47.525050  4158 net.cpp:150] Setting up layer_19_1_4
I0423 21:15:47.525063  4158 net.cpp:157] Top shape: 2 128 3 3 (2304)
I0423 21:15:47.525069  4158 net.cpp:165] Memory required for data: 421402592
I0423 21:15:47.525079  4158 layer_factory.hpp:77] Creating layer layer_19_1_4/bn
I0423 21:15:47.525087  4158 net.cpp:100] Creating Layer layer_19_1_4/bn
I0423 21:15:47.525094  4158 net.cpp:434] layer_19_1_4/bn <- layer_19_1_4
I0423 21:15:47.525104  4158 net.cpp:395] layer_19_1_4/bn -> layer_19_1_4 (in-place)
I0423 21:15:47.525286  4158 net.cpp:150] Setting up layer_19_1_4/bn
I0423 21:15:47.525295  4158 net.cpp:157] Top shape: 2 128 3 3 (2304)
I0423 21:15:47.525301  4158 net.cpp:165] Memory required for data: 421411808
I0423 21:15:47.525312  4158 layer_factory.hpp:77] Creating layer layer_19_1_4/scale
I0423 21:15:47.525322  4158 net.cpp:100] Creating Layer layer_19_1_4/scale
I0423 21:15:47.525329  4158 net.cpp:434] layer_19_1_4/scale <- layer_19_1_4
I0423 21:15:47.525338  4158 net.cpp:395] layer_19_1_4/scale -> layer_19_1_4 (in-place)
I0423 21:15:47.525382  4158 layer_factory.hpp:77] Creating layer layer_19_1_4/scale
I0423 21:15:47.525478  4158 net.cpp:150] Setting up layer_19_1_4/scale
I0423 21:15:47.525487  4158 net.cpp:157] Top shape: 2 128 3 3 (2304)
I0423 21:15:47.525493  4158 net.cpp:165] Memory required for data: 421421024
I0423 21:15:47.525502  4158 layer_factory.hpp:77] Creating layer layer_19_1_4/relu
I0423 21:15:47.525511  4158 net.cpp:100] Creating Layer layer_19_1_4/relu
I0423 21:15:47.525518  4158 net.cpp:434] layer_19_1_4/relu <- layer_19_1_4
I0423 21:15:47.525527  4158 net.cpp:395] layer_19_1_4/relu -> layer_19_1_4 (in-place)
I0423 21:15:47.525928  4158 net.cpp:150] Setting up layer_19_1_4/relu
I0423 21:15:47.525939  4158 net.cpp:157] Top shape: 2 128 3 3 (2304)
I0423 21:15:47.525945  4158 net.cpp:165] Memory required for data: 421430240
I0423 21:15:47.525952  4158 layer_factory.hpp:77] Creating layer layer_19_2_4/depthwise
I0423 21:15:47.525964  4158 net.cpp:100] Creating Layer layer_19_2_4/depthwise
I0423 21:15:47.525981  4158 net.cpp:434] layer_19_2_4/depthwise <- layer_19_1_4
I0423 21:15:47.525992  4158 net.cpp:408] layer_19_2_4/depthwise -> layer_19_2_4/depthwise
I0423 21:15:47.526191  4158 net.cpp:150] Setting up layer_19_2_4/depthwise
I0423 21:15:47.526202  4158 net.cpp:157] Top shape: 2 128 2 2 (1024)
I0423 21:15:47.526207  4158 net.cpp:165] Memory required for data: 421434336
I0423 21:15:47.526216  4158 layer_factory.hpp:77] Creating layer layer_19_2_4/depthwise/bn
I0423 21:15:47.526226  4158 net.cpp:100] Creating Layer layer_19_2_4/depthwise/bn
I0423 21:15:47.526233  4158 net.cpp:434] layer_19_2_4/depthwise/bn <- layer_19_2_4/depthwise
I0423 21:15:47.526242  4158 net.cpp:395] layer_19_2_4/depthwise/bn -> layer_19_2_4/depthwise (in-place)
I0423 21:15:47.526407  4158 net.cpp:150] Setting up layer_19_2_4/depthwise/bn
I0423 21:15:47.526415  4158 net.cpp:157] Top shape: 2 128 2 2 (1024)
I0423 21:15:47.526420  4158 net.cpp:165] Memory required for data: 421438432
I0423 21:15:47.526432  4158 layer_factory.hpp:77] Creating layer layer_19_2_4/depthwise/scale
I0423 21:15:47.526441  4158 net.cpp:100] Creating Layer layer_19_2_4/depthwise/scale
I0423 21:15:47.526448  4158 net.cpp:434] layer_19_2_4/depthwise/scale <- layer_19_2_4/depthwise
I0423 21:15:47.526458  4158 net.cpp:395] layer_19_2_4/depthwise/scale -> layer_19_2_4/depthwise (in-place)
I0423 21:15:47.526499  4158 layer_factory.hpp:77] Creating layer layer_19_2_4/depthwise/scale
I0423 21:15:47.526610  4158 net.cpp:150] Setting up layer_19_2_4/depthwise/scale
I0423 21:15:47.526620  4158 net.cpp:157] Top shape: 2 128 2 2 (1024)
I0423 21:15:47.526626  4158 net.cpp:165] Memory required for data: 421442528
I0423 21:15:47.526636  4158 layer_factory.hpp:77] Creating layer layer_19_2_4/depthwise/relu
I0423 21:15:47.526644  4158 net.cpp:100] Creating Layer layer_19_2_4/depthwise/relu
I0423 21:15:47.526651  4158 net.cpp:434] layer_19_2_4/depthwise/relu <- layer_19_2_4/depthwise
I0423 21:15:47.526660  4158 net.cpp:395] layer_19_2_4/depthwise/relu -> layer_19_2_4/depthwise (in-place)
I0423 21:15:47.527268  4158 net.cpp:150] Setting up layer_19_2_4/depthwise/relu
I0423 21:15:47.527281  4158 net.cpp:157] Top shape: 2 128 2 2 (1024)
I0423 21:15:47.527287  4158 net.cpp:165] Memory required for data: 421446624
I0423 21:15:47.527293  4158 layer_factory.hpp:77] Creating layer layer_19_2_4
I0423 21:15:47.527303  4158 net.cpp:100] Creating Layer layer_19_2_4
I0423 21:15:47.527312  4158 net.cpp:434] layer_19_2_4 <- layer_19_2_4/depthwise
I0423 21:15:47.527321  4158 net.cpp:408] layer_19_2_4 -> layer_19_2_4
I0423 21:15:47.528729  4158 net.cpp:150] Setting up layer_19_2_4
I0423 21:15:47.528743  4158 net.cpp:157] Top shape: 2 256 2 2 (2048)
I0423 21:15:47.528749  4158 net.cpp:165] Memory required for data: 421454816
I0423 21:15:47.528759  4158 layer_factory.hpp:77] Creating layer layer_19_2_4/bn
I0423 21:15:47.528767  4158 net.cpp:100] Creating Layer layer_19_2_4/bn
I0423 21:15:47.528775  4158 net.cpp:434] layer_19_2_4/bn <- layer_19_2_4
I0423 21:15:47.528784  4158 net.cpp:395] layer_19_2_4/bn -> layer_19_2_4 (in-place)
I0423 21:15:47.528966  4158 net.cpp:150] Setting up layer_19_2_4/bn
I0423 21:15:47.528975  4158 net.cpp:157] Top shape: 2 256 2 2 (2048)
I0423 21:15:47.528978  4158 net.cpp:165] Memory required for data: 421463008
I0423 21:15:47.528985  4158 layer_factory.hpp:77] Creating layer layer_19_2_4/scale
I0423 21:15:47.528992  4158 net.cpp:100] Creating Layer layer_19_2_4/scale
I0423 21:15:47.529000  4158 net.cpp:434] layer_19_2_4/scale <- layer_19_2_4
I0423 21:15:47.529006  4158 net.cpp:395] layer_19_2_4/scale -> layer_19_2_4 (in-place)
I0423 21:15:47.529057  4158 layer_factory.hpp:77] Creating layer layer_19_2_4/scale
I0423 21:15:47.529162  4158 net.cpp:150] Setting up layer_19_2_4/scale
I0423 21:15:47.529171  4158 net.cpp:157] Top shape: 2 256 2 2 (2048)
I0423 21:15:47.529175  4158 net.cpp:165] Memory required for data: 421471200
I0423 21:15:47.529180  4158 layer_factory.hpp:77] Creating layer layer_19_2_4/relu
I0423 21:15:47.529184  4158 net.cpp:100] Creating Layer layer_19_2_4/relu
I0423 21:15:47.529202  4158 net.cpp:434] layer_19_2_4/relu <- layer_19_2_4
I0423 21:15:47.529209  4158 net.cpp:395] layer_19_2_4/relu -> layer_19_2_4 (in-place)
I0423 21:15:47.529374  4158 net.cpp:150] Setting up layer_19_2_4/relu
I0423 21:15:47.529384  4158 net.cpp:157] Top shape: 2 256 2 2 (2048)
I0423 21:15:47.529387  4158 net.cpp:165] Memory required for data: 421479392
I0423 21:15:47.529392  4158 layer_factory.hpp:77] Creating layer layer_19_2_4_layer_19_2_4/relu_0_split
I0423 21:15:47.529397  4158 net.cpp:100] Creating Layer layer_19_2_4_layer_19_2_4/relu_0_split
I0423 21:15:47.529402  4158 net.cpp:434] layer_19_2_4_layer_19_2_4/relu_0_split <- layer_19_2_4
I0423 21:15:47.529410  4158 net.cpp:408] layer_19_2_4_layer_19_2_4/relu_0_split -> layer_19_2_4_layer_19_2_4/relu_0_split_0
I0423 21:15:47.529422  4158 net.cpp:408] layer_19_2_4_layer_19_2_4/relu_0_split -> layer_19_2_4_layer_19_2_4/relu_0_split_1
I0423 21:15:47.529431  4158 net.cpp:408] layer_19_2_4_layer_19_2_4/relu_0_split -> layer_19_2_4_layer_19_2_4/relu_0_split_2
I0423 21:15:47.529441  4158 net.cpp:408] layer_19_2_4_layer_19_2_4/relu_0_split -> layer_19_2_4_layer_19_2_4/relu_0_split_3
I0423 21:15:47.529508  4158 net.cpp:150] Setting up layer_19_2_4_layer_19_2_4/relu_0_split
I0423 21:15:47.529518  4158 net.cpp:157] Top shape: 2 256 2 2 (2048)
I0423 21:15:47.529525  4158 net.cpp:157] Top shape: 2 256 2 2 (2048)
I0423 21:15:47.529532  4158 net.cpp:157] Top shape: 2 256 2 2 (2048)
I0423 21:15:47.529539  4158 net.cpp:157] Top shape: 2 256 2 2 (2048)
I0423 21:15:47.529546  4158 net.cpp:165] Memory required for data: 421512160
I0423 21:15:47.529551  4158 layer_factory.hpp:77] Creating layer layer_19_1_5
I0423 21:15:47.529562  4158 net.cpp:100] Creating Layer layer_19_1_5
I0423 21:15:47.529569  4158 net.cpp:434] layer_19_1_5 <- layer_19_2_4_layer_19_2_4/relu_0_split_0
I0423 21:15:47.529578  4158 net.cpp:408] layer_19_1_5 -> layer_19_1_5
I0423 21:15:47.530850  4158 net.cpp:150] Setting up layer_19_1_5
I0423 21:15:47.530864  4158 net.cpp:157] Top shape: 2 64 2 2 (512)
I0423 21:15:47.530870  4158 net.cpp:165] Memory required for data: 421514208
I0423 21:15:47.530879  4158 layer_factory.hpp:77] Creating layer layer_19_1_5/bn
I0423 21:15:47.530889  4158 net.cpp:100] Creating Layer layer_19_1_5/bn
I0423 21:15:47.530895  4158 net.cpp:434] layer_19_1_5/bn <- layer_19_1_5
I0423 21:15:47.530905  4158 net.cpp:395] layer_19_1_5/bn -> layer_19_1_5 (in-place)
I0423 21:15:47.531092  4158 net.cpp:150] Setting up layer_19_1_5/bn
I0423 21:15:47.531101  4158 net.cpp:157] Top shape: 2 64 2 2 (512)
I0423 21:15:47.531107  4158 net.cpp:165] Memory required for data: 421516256
I0423 21:15:47.531118  4158 layer_factory.hpp:77] Creating layer layer_19_1_5/scale
I0423 21:15:47.531180  4158 net.cpp:100] Creating Layer layer_19_1_5/scale
I0423 21:15:47.531189  4158 net.cpp:434] layer_19_1_5/scale <- layer_19_1_5
I0423 21:15:47.531198  4158 net.cpp:395] layer_19_1_5/scale -> layer_19_1_5 (in-place)
I0423 21:15:47.531250  4158 layer_factory.hpp:77] Creating layer layer_19_1_5/scale
I0423 21:15:47.531380  4158 net.cpp:150] Setting up layer_19_1_5/scale
I0423 21:15:47.531391  4158 net.cpp:157] Top shape: 2 64 2 2 (512)
I0423 21:15:47.531397  4158 net.cpp:165] Memory required for data: 421518304
I0423 21:15:47.531407  4158 layer_factory.hpp:77] Creating layer layer_19_1_5/relu
I0423 21:15:47.531415  4158 net.cpp:100] Creating Layer layer_19_1_5/relu
I0423 21:15:47.531422  4158 net.cpp:434] layer_19_1_5/relu <- layer_19_1_5
I0423 21:15:47.531430  4158 net.cpp:395] layer_19_1_5/relu -> layer_19_1_5 (in-place)
I0423 21:15:47.531960  4158 net.cpp:150] Setting up layer_19_1_5/relu
I0423 21:15:47.531975  4158 net.cpp:157] Top shape: 2 64 2 2 (512)
I0423 21:15:47.531981  4158 net.cpp:165] Memory required for data: 421520352
I0423 21:15:47.531988  4158 layer_factory.hpp:77] Creating layer layer_19_2_5/depthwise
I0423 21:15:47.531999  4158 net.cpp:100] Creating Layer layer_19_2_5/depthwise
I0423 21:15:47.532006  4158 net.cpp:434] layer_19_2_5/depthwise <- layer_19_1_5
I0423 21:15:47.532027  4158 net.cpp:408] layer_19_2_5/depthwise -> layer_19_2_5/depthwise
I0423 21:15:47.532289  4158 net.cpp:150] Setting up layer_19_2_5/depthwise
I0423 21:15:47.532300  4158 net.cpp:157] Top shape: 2 64 1 1 (128)
I0423 21:15:47.532306  4158 net.cpp:165] Memory required for data: 421520864
I0423 21:15:47.532315  4158 layer_factory.hpp:77] Creating layer layer_19_2_5/depthwise/bn
I0423 21:15:47.532325  4158 net.cpp:100] Creating Layer layer_19_2_5/depthwise/bn
I0423 21:15:47.532330  4158 net.cpp:434] layer_19_2_5/depthwise/bn <- layer_19_2_5/depthwise
I0423 21:15:47.532338  4158 net.cpp:395] layer_19_2_5/depthwise/bn -> layer_19_2_5/depthwise (in-place)
I0423 21:15:47.532579  4158 net.cpp:150] Setting up layer_19_2_5/depthwise/bn
I0423 21:15:47.532589  4158 net.cpp:157] Top shape: 2 64 1 1 (128)
I0423 21:15:47.532595  4158 net.cpp:165] Memory required for data: 421521376
I0423 21:15:47.532606  4158 layer_factory.hpp:77] Creating layer layer_19_2_5/depthwise/scale
I0423 21:15:47.532616  4158 net.cpp:100] Creating Layer layer_19_2_5/depthwise/scale
I0423 21:15:47.532622  4158 net.cpp:434] layer_19_2_5/depthwise/scale <- layer_19_2_5/depthwise
I0423 21:15:47.532630  4158 net.cpp:395] layer_19_2_5/depthwise/scale -> layer_19_2_5/depthwise (in-place)
I0423 21:15:47.532687  4158 layer_factory.hpp:77] Creating layer layer_19_2_5/depthwise/scale
I0423 21:15:47.532817  4158 net.cpp:150] Setting up layer_19_2_5/depthwise/scale
I0423 21:15:47.532827  4158 net.cpp:157] Top shape: 2 64 1 1 (128)
I0423 21:15:47.532833  4158 net.cpp:165] Memory required for data: 421521888
I0423 21:15:47.532843  4158 layer_factory.hpp:77] Creating layer layer_19_2_5/depthwise/relu
I0423 21:15:47.532851  4158 net.cpp:100] Creating Layer layer_19_2_5/depthwise/relu
I0423 21:15:47.532858  4158 net.cpp:434] layer_19_2_5/depthwise/relu <- layer_19_2_5/depthwise
I0423 21:15:47.532866  4158 net.cpp:395] layer_19_2_5/depthwise/relu -> layer_19_2_5/depthwise (in-place)
I0423 21:15:47.533092  4158 net.cpp:150] Setting up layer_19_2_5/depthwise/relu
I0423 21:15:47.533103  4158 net.cpp:157] Top shape: 2 64 1 1 (128)
I0423 21:15:47.533109  4158 net.cpp:165] Memory required for data: 421522400
I0423 21:15:47.533116  4158 layer_factory.hpp:77] Creating layer layer_19_2_5
I0423 21:15:47.533126  4158 net.cpp:100] Creating Layer layer_19_2_5
I0423 21:15:47.533133  4158 net.cpp:434] layer_19_2_5 <- layer_19_2_5/depthwise
I0423 21:15:47.533143  4158 net.cpp:408] layer_19_2_5 -> layer_19_2_5
I0423 21:15:47.534739  4158 net.cpp:150] Setting up layer_19_2_5
I0423 21:15:47.534751  4158 net.cpp:157] Top shape: 2 128 1 1 (256)
I0423 21:15:47.534755  4158 net.cpp:165] Memory required for data: 421523424
I0423 21:15:47.534763  4158 layer_factory.hpp:77] Creating layer layer_19_2_5/bn
I0423 21:15:47.534772  4158 net.cpp:100] Creating Layer layer_19_2_5/bn
I0423 21:15:47.534780  4158 net.cpp:434] layer_19_2_5/bn <- layer_19_2_5
I0423 21:15:47.534786  4158 net.cpp:395] layer_19_2_5/bn -> layer_19_2_5 (in-place)
I0423 21:15:47.535017  4158 net.cpp:150] Setting up layer_19_2_5/bn
I0423 21:15:47.535032  4158 net.cpp:157] Top shape: 2 128 1 1 (256)
I0423 21:15:47.535039  4158 net.cpp:165] Memory required for data: 421524448
I0423 21:15:47.535051  4158 layer_factory.hpp:77] Creating layer layer_19_2_5/scale
I0423 21:15:47.535063  4158 net.cpp:100] Creating Layer layer_19_2_5/scale
I0423 21:15:47.535068  4158 net.cpp:434] layer_19_2_5/scale <- layer_19_2_5
I0423 21:15:47.535075  4158 net.cpp:395] layer_19_2_5/scale -> layer_19_2_5 (in-place)
I0423 21:15:47.535136  4158 layer_factory.hpp:77] Creating layer layer_19_2_5/scale
I0423 21:15:47.535276  4158 net.cpp:150] Setting up layer_19_2_5/scale
I0423 21:15:47.535289  4158 net.cpp:157] Top shape: 2 128 1 1 (256)
I0423 21:15:47.535293  4158 net.cpp:165] Memory required for data: 421525472
I0423 21:15:47.535302  4158 layer_factory.hpp:77] Creating layer layer_19_2_5/relu
I0423 21:15:47.535310  4158 net.cpp:100] Creating Layer layer_19_2_5/relu
I0423 21:15:47.535316  4158 net.cpp:434] layer_19_2_5/relu <- layer_19_2_5
I0423 21:15:47.535338  4158 net.cpp:395] layer_19_2_5/relu -> layer_19_2_5 (in-place)
I0423 21:15:47.535814  4158 net.cpp:150] Setting up layer_19_2_5/relu
I0423 21:15:47.535823  4158 net.cpp:157] Top shape: 2 128 1 1 (256)
I0423 21:15:47.535830  4158 net.cpp:165] Memory required for data: 421526496
I0423 21:15:47.535833  4158 layer_factory.hpp:77] Creating layer layer_19_2_5_layer_19_2_5/relu_0_split
I0423 21:15:47.535840  4158 net.cpp:100] Creating Layer layer_19_2_5_layer_19_2_5/relu_0_split
I0423 21:15:47.535845  4158 net.cpp:434] layer_19_2_5_layer_19_2_5/relu_0_split <- layer_19_2_5
I0423 21:15:47.535851  4158 net.cpp:408] layer_19_2_5_layer_19_2_5/relu_0_split -> layer_19_2_5_layer_19_2_5/relu_0_split_0
I0423 21:15:47.535859  4158 net.cpp:408] layer_19_2_5_layer_19_2_5/relu_0_split -> layer_19_2_5_layer_19_2_5/relu_0_split_1
I0423 21:15:47.535866  4158 net.cpp:408] layer_19_2_5_layer_19_2_5/relu_0_split -> layer_19_2_5_layer_19_2_5/relu_0_split_2
I0423 21:15:47.535917  4158 net.cpp:150] Setting up layer_19_2_5_layer_19_2_5/relu_0_split
I0423 21:15:47.535929  4158 net.cpp:157] Top shape: 2 128 1 1 (256)
I0423 21:15:47.535934  4158 net.cpp:157] Top shape: 2 128 1 1 (256)
I0423 21:15:47.535939  4158 net.cpp:157] Top shape: 2 128 1 1 (256)
I0423 21:15:47.535943  4158 net.cpp:165] Memory required for data: 421529568
I0423 21:15:47.535946  4158 layer_factory.hpp:77] Creating layer conv_13/expand_mbox_loc
I0423 21:15:47.535961  4158 net.cpp:100] Creating Layer conv_13/expand_mbox_loc
I0423 21:15:47.535970  4158 net.cpp:434] conv_13/expand_mbox_loc <- conv_13/expand_conv_13/expand/relu_0_split_1
I0423 21:15:47.535980  4158 net.cpp:408] conv_13/expand_mbox_loc -> conv_13/expand_mbox_loc
I0423 21:15:47.537927  4158 net.cpp:150] Setting up conv_13/expand_mbox_loc
I0423 21:15:47.537950  4158 net.cpp:157] Top shape: 2 12 19 19 (8664)
I0423 21:15:47.537955  4158 net.cpp:165] Memory required for data: 421564224
I0423 21:15:47.537966  4158 layer_factory.hpp:77] Creating layer conv_13/expand_mbox_loc_perm
I0423 21:15:47.538007  4158 net.cpp:100] Creating Layer conv_13/expand_mbox_loc_perm
I0423 21:15:47.538027  4158 net.cpp:434] conv_13/expand_mbox_loc_perm <- conv_13/expand_mbox_loc
I0423 21:15:47.538044  4158 net.cpp:408] conv_13/expand_mbox_loc_perm -> conv_13/expand_mbox_loc_perm
I0423 21:15:47.538158  4158 net.cpp:150] Setting up conv_13/expand_mbox_loc_perm
I0423 21:15:47.538166  4158 net.cpp:157] Top shape: 2 19 19 12 (8664)
I0423 21:15:47.538179  4158 net.cpp:165] Memory required for data: 421598880
I0423 21:15:47.538185  4158 layer_factory.hpp:77] Creating layer conv_13/expand_mbox_loc_flat
I0423 21:15:47.538197  4158 net.cpp:100] Creating Layer conv_13/expand_mbox_loc_flat
I0423 21:15:47.538213  4158 net.cpp:434] conv_13/expand_mbox_loc_flat <- conv_13/expand_mbox_loc_perm
I0423 21:15:47.538233  4158 net.cpp:408] conv_13/expand_mbox_loc_flat -> conv_13/expand_mbox_loc_flat
I0423 21:15:47.538280  4158 net.cpp:150] Setting up conv_13/expand_mbox_loc_flat
I0423 21:15:47.538288  4158 net.cpp:157] Top shape: 2 4332 (8664)
I0423 21:15:47.538293  4158 net.cpp:165] Memory required for data: 421633536
I0423 21:15:47.538300  4158 layer_factory.hpp:77] Creating layer conv_13/expand_mbox_conf
I0423 21:15:47.538312  4158 net.cpp:100] Creating Layer conv_13/expand_mbox_conf
I0423 21:15:47.538321  4158 net.cpp:434] conv_13/expand_mbox_conf <- conv_13/expand_conv_13/expand/relu_0_split_2
I0423 21:15:47.538331  4158 net.cpp:408] conv_13/expand_mbox_conf -> conv_13/expand_mbox_conf
I0423 21:15:47.540598  4158 net.cpp:150] Setting up conv_13/expand_mbox_conf
I0423 21:15:47.540624  4158 net.cpp:157] Top shape: 2 21 19 19 (15162)
I0423 21:15:47.540630  4158 net.cpp:165] Memory required for data: 421694184
I0423 21:15:47.540652  4158 layer_factory.hpp:77] Creating layer conv_13/expand_mbox_conf_perm
I0423 21:15:47.540663  4158 net.cpp:100] Creating Layer conv_13/expand_mbox_conf_perm
I0423 21:15:47.540670  4158 net.cpp:434] conv_13/expand_mbox_conf_perm <- conv_13/expand_mbox_conf
I0423 21:15:47.540680  4158 net.cpp:408] conv_13/expand_mbox_conf_perm -> conv_13/expand_mbox_conf_perm
I0423 21:15:47.540797  4158 net.cpp:150] Setting up conv_13/expand_mbox_conf_perm
I0423 21:15:47.540807  4158 net.cpp:157] Top shape: 2 19 19 21 (15162)
I0423 21:15:47.540812  4158 net.cpp:165] Memory required for data: 421754832
I0423 21:15:47.540818  4158 layer_factory.hpp:77] Creating layer conv_13/expand_mbox_conf_flat
I0423 21:15:47.540827  4158 net.cpp:100] Creating Layer conv_13/expand_mbox_conf_flat
I0423 21:15:47.540834  4158 net.cpp:434] conv_13/expand_mbox_conf_flat <- conv_13/expand_mbox_conf_perm
I0423 21:15:47.540843  4158 net.cpp:408] conv_13/expand_mbox_conf_flat -> conv_13/expand_mbox_conf_flat
I0423 21:15:47.540874  4158 net.cpp:150] Setting up conv_13/expand_mbox_conf_flat
I0423 21:15:47.540880  4158 net.cpp:157] Top shape: 2 7581 (15162)
I0423 21:15:47.540886  4158 net.cpp:165] Memory required for data: 421815480
I0423 21:15:47.540892  4158 layer_factory.hpp:77] Creating layer conv_13/expand_mbox_priorbox
I0423 21:15:47.540902  4158 net.cpp:100] Creating Layer conv_13/expand_mbox_priorbox
I0423 21:15:47.540910  4158 net.cpp:434] conv_13/expand_mbox_priorbox <- conv_13/expand_conv_13/expand/relu_0_split_3
I0423 21:15:47.540917  4158 net.cpp:434] conv_13/expand_mbox_priorbox <- data_data_0_split_1
I0423 21:15:47.540936  4158 net.cpp:408] conv_13/expand_mbox_priorbox -> conv_13/expand_mbox_priorbox
I0423 21:15:47.540980  4158 net.cpp:150] Setting up conv_13/expand_mbox_priorbox
I0423 21:15:47.540988  4158 net.cpp:157] Top shape: 1 2 4332 (8664)
I0423 21:15:47.541000  4158 net.cpp:165] Memory required for data: 421850136
I0423 21:15:47.541007  4158 layer_factory.hpp:77] Creating layer Conv_1_mbox_loc
I0423 21:15:47.541018  4158 net.cpp:100] Creating Layer Conv_1_mbox_loc
I0423 21:15:47.541025  4158 net.cpp:434] Conv_1_mbox_loc <- Conv_1_Conv_1/relu_0_split_1
I0423 21:15:47.541034  4158 net.cpp:408] Conv_1_mbox_loc -> Conv_1_mbox_loc
I0423 21:15:47.545163  4158 net.cpp:150] Setting up Conv_1_mbox_loc
I0423 21:15:47.545177  4158 net.cpp:157] Top shape: 2 24 10 10 (4800)
I0423 21:15:47.545183  4158 net.cpp:165] Memory required for data: 421869336
I0423 21:15:47.545203  4158 layer_factory.hpp:77] Creating layer Conv_1_mbox_loc_perm
I0423 21:15:47.545215  4158 net.cpp:100] Creating Layer Conv_1_mbox_loc_perm
I0423 21:15:47.545223  4158 net.cpp:434] Conv_1_mbox_loc_perm <- Conv_1_mbox_loc
I0423 21:15:47.545234  4158 net.cpp:408] Conv_1_mbox_loc_perm -> Conv_1_mbox_loc_perm
I0423 21:15:47.545336  4158 net.cpp:150] Setting up Conv_1_mbox_loc_perm
I0423 21:15:47.545346  4158 net.cpp:157] Top shape: 2 10 10 24 (4800)
I0423 21:15:47.545352  4158 net.cpp:165] Memory required for data: 421888536
I0423 21:15:47.545358  4158 layer_factory.hpp:77] Creating layer Conv_1_mbox_loc_flat
I0423 21:15:47.545367  4158 net.cpp:100] Creating Layer Conv_1_mbox_loc_flat
I0423 21:15:47.545373  4158 net.cpp:434] Conv_1_mbox_loc_flat <- Conv_1_mbox_loc_perm
I0423 21:15:47.545382  4158 net.cpp:408] Conv_1_mbox_loc_flat -> Conv_1_mbox_loc_flat
I0423 21:15:47.545413  4158 net.cpp:150] Setting up Conv_1_mbox_loc_flat
I0423 21:15:47.545421  4158 net.cpp:157] Top shape: 2 2400 (4800)
I0423 21:15:47.545428  4158 net.cpp:165] Memory required for data: 421907736
I0423 21:15:47.545433  4158 layer_factory.hpp:77] Creating layer Conv_1_mbox_conf
I0423 21:15:47.545444  4158 net.cpp:100] Creating Layer Conv_1_mbox_conf
I0423 21:15:47.545452  4158 net.cpp:434] Conv_1_mbox_conf <- Conv_1_Conv_1/relu_0_split_2
I0423 21:15:47.545462  4158 net.cpp:408] Conv_1_mbox_conf -> Conv_1_mbox_conf
I0423 21:15:47.551702  4158 net.cpp:150] Setting up Conv_1_mbox_conf
I0423 21:15:47.551722  4158 net.cpp:157] Top shape: 2 42 10 10 (8400)
I0423 21:15:47.551725  4158 net.cpp:165] Memory required for data: 421941336
I0423 21:15:47.551734  4158 layer_factory.hpp:77] Creating layer Conv_1_mbox_conf_perm
I0423 21:15:47.551745  4158 net.cpp:100] Creating Layer Conv_1_mbox_conf_perm
I0423 21:15:47.551753  4158 net.cpp:434] Conv_1_mbox_conf_perm <- Conv_1_mbox_conf
I0423 21:15:47.551764  4158 net.cpp:408] Conv_1_mbox_conf_perm -> Conv_1_mbox_conf_perm
I0423 21:15:47.551893  4158 net.cpp:150] Setting up Conv_1_mbox_conf_perm
I0423 21:15:47.551903  4158 net.cpp:157] Top shape: 2 10 10 42 (8400)
I0423 21:15:47.551909  4158 net.cpp:165] Memory required for data: 421974936
I0423 21:15:47.551915  4158 layer_factory.hpp:77] Creating layer Conv_1_mbox_conf_flat
I0423 21:15:47.551931  4158 net.cpp:100] Creating Layer Conv_1_mbox_conf_flat
I0423 21:15:47.551939  4158 net.cpp:434] Conv_1_mbox_conf_flat <- Conv_1_mbox_conf_perm
I0423 21:15:47.551949  4158 net.cpp:408] Conv_1_mbox_conf_flat -> Conv_1_mbox_conf_flat
I0423 21:15:47.551980  4158 net.cpp:150] Setting up Conv_1_mbox_conf_flat
I0423 21:15:47.551988  4158 net.cpp:157] Top shape: 2 4200 (8400)
I0423 21:15:47.551995  4158 net.cpp:165] Memory required for data: 422008536
I0423 21:15:47.552000  4158 layer_factory.hpp:77] Creating layer Conv_1_mbox_priorbox
I0423 21:15:47.552009  4158 net.cpp:100] Creating Layer Conv_1_mbox_priorbox
I0423 21:15:47.552017  4158 net.cpp:434] Conv_1_mbox_priorbox <- Conv_1_Conv_1/relu_0_split_3
I0423 21:15:47.552026  4158 net.cpp:434] Conv_1_mbox_priorbox <- data_data_0_split_2
I0423 21:15:47.552034  4158 net.cpp:408] Conv_1_mbox_priorbox -> Conv_1_mbox_priorbox
I0423 21:15:47.552068  4158 net.cpp:150] Setting up Conv_1_mbox_priorbox
I0423 21:15:47.552076  4158 net.cpp:157] Top shape: 1 2 2400 (4800)
I0423 21:15:47.552083  4158 net.cpp:165] Memory required for data: 422027736
I0423 21:15:47.552088  4158 layer_factory.hpp:77] Creating layer layer_19_2_2_mbox_loc
I0423 21:15:47.552101  4158 net.cpp:100] Creating Layer layer_19_2_2_mbox_loc
I0423 21:15:47.552109  4158 net.cpp:434] layer_19_2_2_mbox_loc <- layer_19_2_2_layer_19_2_2/relu_0_split_1
I0423 21:15:47.552119  4158 net.cpp:408] layer_19_2_2_mbox_loc -> layer_19_2_2_mbox_loc
I0423 21:15:47.554756  4158 net.cpp:150] Setting up layer_19_2_2_mbox_loc
I0423 21:15:47.554770  4158 net.cpp:157] Top shape: 2 24 5 5 (1200)
I0423 21:15:47.554776  4158 net.cpp:165] Memory required for data: 422032536
I0423 21:15:47.554787  4158 layer_factory.hpp:77] Creating layer layer_19_2_2_mbox_loc_perm
I0423 21:15:47.554797  4158 net.cpp:100] Creating Layer layer_19_2_2_mbox_loc_perm
I0423 21:15:47.554805  4158 net.cpp:434] layer_19_2_2_mbox_loc_perm <- layer_19_2_2_mbox_loc
I0423 21:15:47.554814  4158 net.cpp:408] layer_19_2_2_mbox_loc_perm -> layer_19_2_2_mbox_loc_perm
I0423 21:15:47.554929  4158 net.cpp:150] Setting up layer_19_2_2_mbox_loc_perm
I0423 21:15:47.554939  4158 net.cpp:157] Top shape: 2 5 5 24 (1200)
I0423 21:15:47.554944  4158 net.cpp:165] Memory required for data: 422037336
I0423 21:15:47.554950  4158 layer_factory.hpp:77] Creating layer layer_19_2_2_mbox_loc_flat
I0423 21:15:47.554960  4158 net.cpp:100] Creating Layer layer_19_2_2_mbox_loc_flat
I0423 21:15:47.554967  4158 net.cpp:434] layer_19_2_2_mbox_loc_flat <- layer_19_2_2_mbox_loc_perm
I0423 21:15:47.554976  4158 net.cpp:408] layer_19_2_2_mbox_loc_flat -> layer_19_2_2_mbox_loc_flat
I0423 21:15:47.555007  4158 net.cpp:150] Setting up layer_19_2_2_mbox_loc_flat
I0423 21:15:47.555016  4158 net.cpp:157] Top shape: 2 600 (1200)
I0423 21:15:47.555022  4158 net.cpp:165] Memory required for data: 422042136
I0423 21:15:47.555027  4158 layer_factory.hpp:77] Creating layer layer_19_2_2_mbox_conf
I0423 21:15:47.555039  4158 net.cpp:100] Creating Layer layer_19_2_2_mbox_conf
I0423 21:15:47.555047  4158 net.cpp:434] layer_19_2_2_mbox_conf <- layer_19_2_2_layer_19_2_2/relu_0_split_2
I0423 21:15:47.555058  4158 net.cpp:408] layer_19_2_2_mbox_conf -> layer_19_2_2_mbox_conf
I0423 21:15:47.558607  4158 net.cpp:150] Setting up layer_19_2_2_mbox_conf
I0423 21:15:47.558624  4158 net.cpp:157] Top shape: 2 42 5 5 (2100)
I0423 21:15:47.558629  4158 net.cpp:165] Memory required for data: 422050536
I0423 21:15:47.558640  4158 layer_factory.hpp:77] Creating layer layer_19_2_2_mbox_conf_perm
I0423 21:15:47.558652  4158 net.cpp:100] Creating Layer layer_19_2_2_mbox_conf_perm
I0423 21:15:47.558660  4158 net.cpp:434] layer_19_2_2_mbox_conf_perm <- layer_19_2_2_mbox_conf
I0423 21:15:47.558670  4158 net.cpp:408] layer_19_2_2_mbox_conf_perm -> layer_19_2_2_mbox_conf_perm
I0423 21:15:47.558812  4158 net.cpp:150] Setting up layer_19_2_2_mbox_conf_perm
I0423 21:15:47.558832  4158 net.cpp:157] Top shape: 2 5 5 42 (2100)
I0423 21:15:47.558835  4158 net.cpp:165] Memory required for data: 422058936
I0423 21:15:47.558838  4158 layer_factory.hpp:77] Creating layer layer_19_2_2_mbox_conf_flat
I0423 21:15:47.558845  4158 net.cpp:100] Creating Layer layer_19_2_2_mbox_conf_flat
I0423 21:15:47.558851  4158 net.cpp:434] layer_19_2_2_mbox_conf_flat <- layer_19_2_2_mbox_conf_perm
I0423 21:15:47.558859  4158 net.cpp:408] layer_19_2_2_mbox_conf_flat -> layer_19_2_2_mbox_conf_flat
I0423 21:15:47.558890  4158 net.cpp:150] Setting up layer_19_2_2_mbox_conf_flat
I0423 21:15:47.558898  4158 net.cpp:157] Top shape: 2 1050 (2100)
I0423 21:15:47.558902  4158 net.cpp:165] Memory required for data: 422067336
I0423 21:15:47.558904  4158 layer_factory.hpp:77] Creating layer layer_19_2_2_mbox_priorbox
I0423 21:15:47.558913  4158 net.cpp:100] Creating Layer layer_19_2_2_mbox_priorbox
I0423 21:15:47.558920  4158 net.cpp:434] layer_19_2_2_mbox_priorbox <- layer_19_2_2_layer_19_2_2/relu_0_split_3
I0423 21:15:47.558929  4158 net.cpp:434] layer_19_2_2_mbox_priorbox <- data_data_0_split_3
I0423 21:15:47.558939  4158 net.cpp:408] layer_19_2_2_mbox_priorbox -> layer_19_2_2_mbox_priorbox
I0423 21:15:47.558975  4158 net.cpp:150] Setting up layer_19_2_2_mbox_priorbox
I0423 21:15:47.558984  4158 net.cpp:157] Top shape: 1 2 600 (1200)
I0423 21:15:47.558990  4158 net.cpp:165] Memory required for data: 422072136
I0423 21:15:47.558995  4158 layer_factory.hpp:77] Creating layer layer_19_2_3_mbox_loc
I0423 21:15:47.559007  4158 net.cpp:100] Creating Layer layer_19_2_3_mbox_loc
I0423 21:15:47.559015  4158 net.cpp:434] layer_19_2_3_mbox_loc <- layer_19_2_3_layer_19_2_3/relu_0_split_1
I0423 21:15:47.559026  4158 net.cpp:408] layer_19_2_3_mbox_loc -> layer_19_2_3_mbox_loc
I0423 21:15:47.561226  4158 net.cpp:150] Setting up layer_19_2_3_mbox_loc
I0423 21:15:47.561240  4158 net.cpp:157] Top shape: 2 24 3 3 (432)
I0423 21:15:47.561246  4158 net.cpp:165] Memory required for data: 422073864
I0423 21:15:47.561256  4158 layer_factory.hpp:77] Creating layer layer_19_2_3_mbox_loc_perm
I0423 21:15:47.561275  4158 net.cpp:100] Creating Layer layer_19_2_3_mbox_loc_perm
I0423 21:15:47.561285  4158 net.cpp:434] layer_19_2_3_mbox_loc_perm <- layer_19_2_3_mbox_loc
I0423 21:15:47.561293  4158 net.cpp:408] layer_19_2_3_mbox_loc_perm -> layer_19_2_3_mbox_loc_perm
I0423 21:15:47.561403  4158 net.cpp:150] Setting up layer_19_2_3_mbox_loc_perm
I0423 21:15:47.561411  4158 net.cpp:157] Top shape: 2 3 3 24 (432)
I0423 21:15:47.561417  4158 net.cpp:165] Memory required for data: 422075592
I0423 21:15:47.561424  4158 layer_factory.hpp:77] Creating layer layer_19_2_3_mbox_loc_flat
I0423 21:15:47.561440  4158 net.cpp:100] Creating Layer layer_19_2_3_mbox_loc_flat
I0423 21:15:47.561448  4158 net.cpp:434] layer_19_2_3_mbox_loc_flat <- layer_19_2_3_mbox_loc_perm
I0423 21:15:47.561457  4158 net.cpp:408] layer_19_2_3_mbox_loc_flat -> layer_19_2_3_mbox_loc_flat
I0423 21:15:47.561488  4158 net.cpp:150] Setting up layer_19_2_3_mbox_loc_flat
I0423 21:15:47.561496  4158 net.cpp:157] Top shape: 2 216 (432)
I0423 21:15:47.561502  4158 net.cpp:165] Memory required for data: 422077320
I0423 21:15:47.561508  4158 layer_factory.hpp:77] Creating layer layer_19_2_3_mbox_conf
I0423 21:15:47.561519  4158 net.cpp:100] Creating Layer layer_19_2_3_mbox_conf
I0423 21:15:47.561527  4158 net.cpp:434] layer_19_2_3_mbox_conf <- layer_19_2_3_layer_19_2_3/relu_0_split_2
I0423 21:15:47.561537  4158 net.cpp:408] layer_19_2_3_mbox_conf -> layer_19_2_3_mbox_conf
I0423 21:15:47.563562  4158 net.cpp:150] Setting up layer_19_2_3_mbox_conf
I0423 21:15:47.563576  4158 net.cpp:157] Top shape: 2 42 3 3 (756)
I0423 21:15:47.563582  4158 net.cpp:165] Memory required for data: 422080344
I0423 21:15:47.563592  4158 layer_factory.hpp:77] Creating layer layer_19_2_3_mbox_conf_perm
I0423 21:15:47.563602  4158 net.cpp:100] Creating Layer layer_19_2_3_mbox_conf_perm
I0423 21:15:47.563625  4158 net.cpp:434] layer_19_2_3_mbox_conf_perm <- layer_19_2_3_mbox_conf
I0423 21:15:47.563637  4158 net.cpp:408] layer_19_2_3_mbox_conf_perm -> layer_19_2_3_mbox_conf_perm
I0423 21:15:47.563736  4158 net.cpp:150] Setting up layer_19_2_3_mbox_conf_perm
I0423 21:15:47.563745  4158 net.cpp:157] Top shape: 2 3 3 42 (756)
I0423 21:15:47.563751  4158 net.cpp:165] Memory required for data: 422083368
I0423 21:15:47.563757  4158 layer_factory.hpp:77] Creating layer layer_19_2_3_mbox_conf_flat
I0423 21:15:47.563766  4158 net.cpp:100] Creating Layer layer_19_2_3_mbox_conf_flat
I0423 21:15:47.563773  4158 net.cpp:434] layer_19_2_3_mbox_conf_flat <- layer_19_2_3_mbox_conf_perm
I0423 21:15:47.563781  4158 net.cpp:408] layer_19_2_3_mbox_conf_flat -> layer_19_2_3_mbox_conf_flat
I0423 21:15:47.563812  4158 net.cpp:150] Setting up layer_19_2_3_mbox_conf_flat
I0423 21:15:47.563820  4158 net.cpp:157] Top shape: 2 378 (756)
I0423 21:15:47.563827  4158 net.cpp:165] Memory required for data: 422086392
I0423 21:15:47.563832  4158 layer_factory.hpp:77] Creating layer layer_19_2_3_mbox_priorbox
I0423 21:15:47.563841  4158 net.cpp:100] Creating Layer layer_19_2_3_mbox_priorbox
I0423 21:15:47.563849  4158 net.cpp:434] layer_19_2_3_mbox_priorbox <- layer_19_2_3_layer_19_2_3/relu_0_split_3
I0423 21:15:47.563858  4158 net.cpp:434] layer_19_2_3_mbox_priorbox <- data_data_0_split_4
I0423 21:15:47.563875  4158 net.cpp:408] layer_19_2_3_mbox_priorbox -> layer_19_2_3_mbox_priorbox
I0423 21:15:47.563910  4158 net.cpp:150] Setting up layer_19_2_3_mbox_priorbox
I0423 21:15:47.563920  4158 net.cpp:157] Top shape: 1 2 216 (432)
I0423 21:15:47.563931  4158 net.cpp:165] Memory required for data: 422088120
I0423 21:15:47.563938  4158 layer_factory.hpp:77] Creating layer layer_19_2_4_mbox_loc
I0423 21:15:47.563949  4158 net.cpp:100] Creating Layer layer_19_2_4_mbox_loc
I0423 21:15:47.563957  4158 net.cpp:434] layer_19_2_4_mbox_loc <- layer_19_2_4_layer_19_2_4/relu_0_split_1
I0423 21:15:47.563967  4158 net.cpp:408] layer_19_2_4_mbox_loc -> layer_19_2_4_mbox_loc
I0423 21:15:47.565659  4158 net.cpp:150] Setting up layer_19_2_4_mbox_loc
I0423 21:15:47.565672  4158 net.cpp:157] Top shape: 2 24 2 2 (192)
I0423 21:15:47.565680  4158 net.cpp:165] Memory required for data: 422088888
I0423 21:15:47.565690  4158 layer_factory.hpp:77] Creating layer layer_19_2_4_mbox_loc_perm
I0423 21:15:47.565699  4158 net.cpp:100] Creating Layer layer_19_2_4_mbox_loc_perm
I0423 21:15:47.565707  4158 net.cpp:434] layer_19_2_4_mbox_loc_perm <- layer_19_2_4_mbox_loc
I0423 21:15:47.565716  4158 net.cpp:408] layer_19_2_4_mbox_loc_perm -> layer_19_2_4_mbox_loc_perm
I0423 21:15:47.565814  4158 net.cpp:150] Setting up layer_19_2_4_mbox_loc_perm
I0423 21:15:47.565822  4158 net.cpp:157] Top shape: 2 2 2 24 (192)
I0423 21:15:47.565827  4158 net.cpp:165] Memory required for data: 422089656
I0423 21:15:47.565834  4158 layer_factory.hpp:77] Creating layer layer_19_2_4_mbox_loc_flat
I0423 21:15:47.565842  4158 net.cpp:100] Creating Layer layer_19_2_4_mbox_loc_flat
I0423 21:15:47.565850  4158 net.cpp:434] layer_19_2_4_mbox_loc_flat <- layer_19_2_4_mbox_loc_perm
I0423 21:15:47.565858  4158 net.cpp:408] layer_19_2_4_mbox_loc_flat -> layer_19_2_4_mbox_loc_flat
I0423 21:15:47.565896  4158 net.cpp:150] Setting up layer_19_2_4_mbox_loc_flat
I0423 21:15:47.565903  4158 net.cpp:157] Top shape: 2 96 (192)
I0423 21:15:47.565909  4158 net.cpp:165] Memory required for data: 422090424
I0423 21:15:47.565915  4158 layer_factory.hpp:77] Creating layer layer_19_2_4_mbox_conf
I0423 21:15:47.565933  4158 net.cpp:100] Creating Layer layer_19_2_4_mbox_conf
I0423 21:15:47.565942  4158 net.cpp:434] layer_19_2_4_mbox_conf <- layer_19_2_4_layer_19_2_4/relu_0_split_2
I0423 21:15:47.565950  4158 net.cpp:408] layer_19_2_4_mbox_conf -> layer_19_2_4_mbox_conf
I0423 21:15:47.568517  4158 net.cpp:150] Setting up layer_19_2_4_mbox_conf
I0423 21:15:47.568536  4158 net.cpp:157] Top shape: 2 42 2 2 (336)
I0423 21:15:47.568542  4158 net.cpp:165] Memory required for data: 422091768
I0423 21:15:47.568553  4158 layer_factory.hpp:77] Creating layer layer_19_2_4_mbox_conf_perm
I0423 21:15:47.568578  4158 net.cpp:100] Creating Layer layer_19_2_4_mbox_conf_perm
I0423 21:15:47.568585  4158 net.cpp:434] layer_19_2_4_mbox_conf_perm <- layer_19_2_4_mbox_conf
I0423 21:15:47.568594  4158 net.cpp:408] layer_19_2_4_mbox_conf_perm -> layer_19_2_4_mbox_conf_perm
I0423 21:15:47.568732  4158 net.cpp:150] Setting up layer_19_2_4_mbox_conf_perm
I0423 21:15:47.568742  4158 net.cpp:157] Top shape: 2 2 2 42 (336)
I0423 21:15:47.568748  4158 net.cpp:165] Memory required for data: 422093112
I0423 21:15:47.568754  4158 layer_factory.hpp:77] Creating layer layer_19_2_4_mbox_conf_flat
I0423 21:15:47.568763  4158 net.cpp:100] Creating Layer layer_19_2_4_mbox_conf_flat
I0423 21:15:47.568770  4158 net.cpp:434] layer_19_2_4_mbox_conf_flat <- layer_19_2_4_mbox_conf_perm
I0423 21:15:47.568779  4158 net.cpp:408] layer_19_2_4_mbox_conf_flat -> layer_19_2_4_mbox_conf_flat
I0423 21:15:47.568809  4158 net.cpp:150] Setting up layer_19_2_4_mbox_conf_flat
I0423 21:15:47.568819  4158 net.cpp:157] Top shape: 2 168 (336)
I0423 21:15:47.568825  4158 net.cpp:165] Memory required for data: 422094456
I0423 21:15:47.568830  4158 layer_factory.hpp:77] Creating layer layer_19_2_4_mbox_priorbox
I0423 21:15:47.568840  4158 net.cpp:100] Creating Layer layer_19_2_4_mbox_priorbox
I0423 21:15:47.568846  4158 net.cpp:434] layer_19_2_4_mbox_priorbox <- layer_19_2_4_layer_19_2_4/relu_0_split_3
I0423 21:15:47.568855  4158 net.cpp:434] layer_19_2_4_mbox_priorbox <- data_data_0_split_5
I0423 21:15:47.568863  4158 net.cpp:408] layer_19_2_4_mbox_priorbox -> layer_19_2_4_mbox_priorbox
I0423 21:15:47.568897  4158 net.cpp:150] Setting up layer_19_2_4_mbox_priorbox
I0423 21:15:47.568905  4158 net.cpp:157] Top shape: 1 2 96 (192)
I0423 21:15:47.568912  4158 net.cpp:165] Memory required for data: 422095224
I0423 21:15:47.568917  4158 layer_factory.hpp:77] Creating layer layer_19_2_5_mbox_loc
I0423 21:15:47.568929  4158 net.cpp:100] Creating Layer layer_19_2_5_mbox_loc
I0423 21:15:47.568935  4158 net.cpp:434] layer_19_2_5_mbox_loc <- layer_19_2_5_layer_19_2_5/relu_0_split_0
I0423 21:15:47.568945  4158 net.cpp:408] layer_19_2_5_mbox_loc -> layer_19_2_5_mbox_loc
I0423 21:15:47.570893  4158 net.cpp:150] Setting up layer_19_2_5_mbox_loc
I0423 21:15:47.570906  4158 net.cpp:157] Top shape: 2 24 1 1 (48)
I0423 21:15:47.570912  4158 net.cpp:165] Memory required for data: 422095416
I0423 21:15:47.570922  4158 layer_factory.hpp:77] Creating layer layer_19_2_5_mbox_loc_perm
I0423 21:15:47.570931  4158 net.cpp:100] Creating Layer layer_19_2_5_mbox_loc_perm
I0423 21:15:47.570938  4158 net.cpp:434] layer_19_2_5_mbox_loc_perm <- layer_19_2_5_mbox_loc
I0423 21:15:47.570946  4158 net.cpp:408] layer_19_2_5_mbox_loc_perm -> layer_19_2_5_mbox_loc_perm
I0423 21:15:47.571081  4158 net.cpp:150] Setting up layer_19_2_5_mbox_loc_perm
I0423 21:15:47.571097  4158 net.cpp:157] Top shape: 2 1 1 24 (48)
I0423 21:15:47.571102  4158 net.cpp:165] Memory required for data: 422095608
I0423 21:15:47.571107  4158 layer_factory.hpp:77] Creating layer layer_19_2_5_mbox_loc_flat
I0423 21:15:47.571117  4158 net.cpp:100] Creating Layer layer_19_2_5_mbox_loc_flat
I0423 21:15:47.571125  4158 net.cpp:434] layer_19_2_5_mbox_loc_flat <- layer_19_2_5_mbox_loc_perm
I0423 21:15:47.571133  4158 net.cpp:408] layer_19_2_5_mbox_loc_flat -> layer_19_2_5_mbox_loc_flat
I0423 21:15:47.571169  4158 net.cpp:150] Setting up layer_19_2_5_mbox_loc_flat
I0423 21:15:47.571180  4158 net.cpp:157] Top shape: 2 24 (48)
I0423 21:15:47.571187  4158 net.cpp:165] Memory required for data: 422095800
I0423 21:15:47.571192  4158 layer_factory.hpp:77] Creating layer layer_19_2_5_mbox_conf
I0423 21:15:47.571203  4158 net.cpp:100] Creating Layer layer_19_2_5_mbox_conf
I0423 21:15:47.571211  4158 net.cpp:434] layer_19_2_5_mbox_conf <- layer_19_2_5_layer_19_2_5/relu_0_split_1
I0423 21:15:47.571219  4158 net.cpp:408] layer_19_2_5_mbox_conf -> layer_19_2_5_mbox_conf
I0423 21:15:47.573231  4158 net.cpp:150] Setting up layer_19_2_5_mbox_conf
I0423 21:15:47.573262  4158 net.cpp:157] Top shape: 2 42 1 1 (84)
I0423 21:15:47.573300  4158 net.cpp:165] Memory required for data: 422096136
I0423 21:15:47.573328  4158 layer_factory.hpp:77] Creating layer layer_19_2_5_mbox_conf_perm
I0423 21:15:47.573340  4158 net.cpp:100] Creating Layer layer_19_2_5_mbox_conf_perm
I0423 21:15:47.573349  4158 net.cpp:434] layer_19_2_5_mbox_conf_perm <- layer_19_2_5_mbox_conf
I0423 21:15:47.573360  4158 net.cpp:408] layer_19_2_5_mbox_conf_perm -> layer_19_2_5_mbox_conf_perm
I0423 21:15:47.573469  4158 net.cpp:150] Setting up layer_19_2_5_mbox_conf_perm
I0423 21:15:47.573478  4158 net.cpp:157] Top shape: 2 1 1 42 (84)
I0423 21:15:47.573484  4158 net.cpp:165] Memory required for data: 422096472
I0423 21:15:47.573492  4158 layer_factory.hpp:77] Creating layer layer_19_2_5_mbox_conf_flat
I0423 21:15:47.573501  4158 net.cpp:100] Creating Layer layer_19_2_5_mbox_conf_flat
I0423 21:15:47.573509  4158 net.cpp:434] layer_19_2_5_mbox_conf_flat <- layer_19_2_5_mbox_conf_perm
I0423 21:15:47.573518  4158 net.cpp:408] layer_19_2_5_mbox_conf_flat -> layer_19_2_5_mbox_conf_flat
I0423 21:15:47.573551  4158 net.cpp:150] Setting up layer_19_2_5_mbox_conf_flat
I0423 21:15:47.573560  4158 net.cpp:157] Top shape: 2 42 (84)
I0423 21:15:47.573565  4158 net.cpp:165] Memory required for data: 422096808
I0423 21:15:47.573571  4158 layer_factory.hpp:77] Creating layer layer_19_2_5_mbox_priorbox
I0423 21:15:47.573581  4158 net.cpp:100] Creating Layer layer_19_2_5_mbox_priorbox
I0423 21:15:47.573590  4158 net.cpp:434] layer_19_2_5_mbox_priorbox <- layer_19_2_5_layer_19_2_5/relu_0_split_2
I0423 21:15:47.573598  4158 net.cpp:434] layer_19_2_5_mbox_priorbox <- data_data_0_split_6
I0423 21:15:47.573607  4158 net.cpp:408] layer_19_2_5_mbox_priorbox -> layer_19_2_5_mbox_priorbox
I0423 21:15:47.573652  4158 net.cpp:150] Setting up layer_19_2_5_mbox_priorbox
I0423 21:15:47.573660  4158 net.cpp:157] Top shape: 1 2 24 (48)
I0423 21:15:47.573667  4158 net.cpp:165] Memory required for data: 422097000
I0423 21:15:47.573673  4158 layer_factory.hpp:77] Creating layer mbox_loc
I0423 21:15:47.573683  4158 net.cpp:100] Creating Layer mbox_loc
I0423 21:15:47.573690  4158 net.cpp:434] mbox_loc <- conv_13/expand_mbox_loc_flat
I0423 21:15:47.573700  4158 net.cpp:434] mbox_loc <- Conv_1_mbox_loc_flat
I0423 21:15:47.573709  4158 net.cpp:434] mbox_loc <- layer_19_2_2_mbox_loc_flat
I0423 21:15:47.573717  4158 net.cpp:434] mbox_loc <- layer_19_2_3_mbox_loc_flat
I0423 21:15:47.573725  4158 net.cpp:434] mbox_loc <- layer_19_2_4_mbox_loc_flat
I0423 21:15:47.573734  4158 net.cpp:434] mbox_loc <- layer_19_2_5_mbox_loc_flat
I0423 21:15:47.573741  4158 net.cpp:408] mbox_loc -> mbox_loc
I0423 21:15:47.573776  4158 net.cpp:150] Setting up mbox_loc
I0423 21:15:47.573783  4158 net.cpp:157] Top shape: 2 7668 (15336)
I0423 21:15:47.573788  4158 net.cpp:165] Memory required for data: 422158344
I0423 21:15:47.573796  4158 layer_factory.hpp:77] Creating layer mbox_conf
I0423 21:15:47.573804  4158 net.cpp:100] Creating Layer mbox_conf
I0423 21:15:47.573812  4158 net.cpp:434] mbox_conf <- conv_13/expand_mbox_conf_flat
I0423 21:15:47.573820  4158 net.cpp:434] mbox_conf <- Conv_1_mbox_conf_flat
I0423 21:15:47.573828  4158 net.cpp:434] mbox_conf <- layer_19_2_2_mbox_conf_flat
I0423 21:15:47.573837  4158 net.cpp:434] mbox_conf <- layer_19_2_3_mbox_conf_flat
I0423 21:15:47.573843  4158 net.cpp:434] mbox_conf <- layer_19_2_4_mbox_conf_flat
I0423 21:15:47.573851  4158 net.cpp:434] mbox_conf <- layer_19_2_5_mbox_conf_flat
I0423 21:15:47.573860  4158 net.cpp:408] mbox_conf -> mbox_conf
I0423 21:15:47.573894  4158 net.cpp:150] Setting up mbox_conf
I0423 21:15:47.573901  4158 net.cpp:157] Top shape: 2 13419 (26838)
I0423 21:15:47.573907  4158 net.cpp:165] Memory required for data: 422265696
I0423 21:15:47.573913  4158 layer_factory.hpp:77] Creating layer mbox_priorbox
I0423 21:15:47.573923  4158 net.cpp:100] Creating Layer mbox_priorbox
I0423 21:15:47.573930  4158 net.cpp:434] mbox_priorbox <- conv_13/expand_mbox_priorbox
I0423 21:15:47.573940  4158 net.cpp:434] mbox_priorbox <- Conv_1_mbox_priorbox
I0423 21:15:47.573966  4158 net.cpp:434] mbox_priorbox <- layer_19_2_2_mbox_priorbox
I0423 21:15:47.573974  4158 net.cpp:434] mbox_priorbox <- layer_19_2_3_mbox_priorbox
I0423 21:15:47.573982  4158 net.cpp:434] mbox_priorbox <- layer_19_2_4_mbox_priorbox
I0423 21:15:47.573988  4158 net.cpp:434] mbox_priorbox <- layer_19_2_5_mbox_priorbox
I0423 21:15:47.573997  4158 net.cpp:408] mbox_priorbox -> mbox_priorbox
I0423 21:15:47.574030  4158 net.cpp:150] Setting up mbox_priorbox
I0423 21:15:47.574039  4158 net.cpp:157] Top shape: 1 2 7668 (15336)
I0423 21:15:47.574045  4158 net.cpp:165] Memory required for data: 422327040
I0423 21:15:47.574051  4158 layer_factory.hpp:77] Creating layer mbox_conf_reshape
I0423 21:15:47.574062  4158 net.cpp:100] Creating Layer mbox_conf_reshape
I0423 21:15:47.574069  4158 net.cpp:434] mbox_conf_reshape <- mbox_conf
I0423 21:15:47.574079  4158 net.cpp:408] mbox_conf_reshape -> mbox_conf_reshape
I0423 21:15:47.574117  4158 net.cpp:150] Setting up mbox_conf_reshape
I0423 21:15:47.574126  4158 net.cpp:157] Top shape: 2 1917 7 (26838)
I0423 21:15:47.574131  4158 net.cpp:165] Memory required for data: 422434392
I0423 21:15:47.574138  4158 layer_factory.hpp:77] Creating layer mbox_conf_softmax
I0423 21:15:47.574147  4158 net.cpp:100] Creating Layer mbox_conf_softmax
I0423 21:15:47.574154  4158 net.cpp:434] mbox_conf_softmax <- mbox_conf_reshape
I0423 21:15:47.574162  4158 net.cpp:408] mbox_conf_softmax -> mbox_conf_softmax
I0423 21:15:47.574692  4158 net.cpp:150] Setting up mbox_conf_softmax
I0423 21:15:47.574704  4158 net.cpp:157] Top shape: 2 1917 7 (26838)
I0423 21:15:47.574710  4158 net.cpp:165] Memory required for data: 422541744
I0423 21:15:47.574717  4158 layer_factory.hpp:77] Creating layer mbox_conf_flatten
I0423 21:15:47.574728  4158 net.cpp:100] Creating Layer mbox_conf_flatten
I0423 21:15:47.574735  4158 net.cpp:434] mbox_conf_flatten <- mbox_conf_softmax
I0423 21:15:47.574744  4158 net.cpp:408] mbox_conf_flatten -> mbox_conf_flatten
I0423 21:15:47.574777  4158 net.cpp:150] Setting up mbox_conf_flatten
I0423 21:15:47.574786  4158 net.cpp:157] Top shape: 2 13419 (26838)
I0423 21:15:47.574791  4158 net.cpp:165] Memory required for data: 422649096
I0423 21:15:47.574797  4158 layer_factory.hpp:77] Creating layer detection_out
I0423 21:15:47.574818  4158 net.cpp:100] Creating Layer detection_out
I0423 21:15:47.574826  4158 net.cpp:434] detection_out <- mbox_loc
I0423 21:15:47.574832  4158 net.cpp:434] detection_out <- mbox_conf_flatten
I0423 21:15:47.574839  4158 net.cpp:434] detection_out <- mbox_priorbox
I0423 21:15:47.574849  4158 net.cpp:408] detection_out -> detection_out
I0423 21:15:47.574909  4158 net.cpp:150] Setting up detection_out
I0423 21:15:47.574918  4158 net.cpp:157] Top shape: 1 1 1 7 (7)
I0423 21:15:47.574923  4158 net.cpp:165] Memory required for data: 422649124
I0423 21:15:47.574929  4158 layer_factory.hpp:77] Creating layer detection_eval
I0423 21:15:47.574949  4158 net.cpp:100] Creating Layer detection_eval
I0423 21:15:47.574957  4158 net.cpp:434] detection_eval <- detection_out
I0423 21:15:47.574965  4158 net.cpp:434] detection_eval <- label
I0423 21:15:47.574975  4158 net.cpp:408] detection_eval -> detection_eval
I0423 21:15:47.575047  4158 net.cpp:150] Setting up detection_eval
I0423 21:15:47.575057  4158 net.cpp:157] Top shape: 1 1 7 5 (35)
I0423 21:15:47.575062  4158 net.cpp:165] Memory required for data: 422649264
I0423 21:15:47.575069  4158 net.cpp:228] detection_eval does not need backward computation.
I0423 21:15:47.575078  4158 net.cpp:228] detection_out does not need backward computation.
I0423 21:15:47.575098  4158 net.cpp:228] mbox_conf_flatten does not need backward computation.
I0423 21:15:47.575104  4158 net.cpp:228] mbox_conf_softmax does not need backward computation.
…
