…
    batch_sampler {
      sampler {
        min_scale: 0.3
        max_scale: 1
        min_aspect_ratio: 0.5
        max_aspect_ratio: 2
      }
      sample_constraint {
        min_jaccard_overlap: 0.9
      }
      max_sample: 1
      max_trials: 50
    }
    batch_sampler {
      sampler {
        min_scale: 0.3
        max_scale: 1
        min_aspect_ratio: 0.5
        max_aspect_ratio: 2
      }
      sample_constraint {
        max_jaccard_overlap: 1
      }
      max_sample: 1
      max_trials: 50
    }
    label_map_file: "labelmap.prototxt"
  }
}
layer {
  name: "conv1"
  type: "Convolution"
  bottom: "data"
  top: "conv1"
  param {
    lr_mult: 0.1
    decay_mult: 0.1
  }
  convolution_param {
    num_output: 64
    bias_term: false
    kernel_size: 3
    stride: 2
    weight_filler {
      type: "msra"
    }
  }
}
layer {
  name: "relu_conv1"
  type: "ReLU"
  bottom: "conv1"
  top: "conv1"
}
layer {
  name: "pool1"
  type: "Pooling"
  bottom: "conv1"
  top: "pool1"
  pooling_param {
    pool: MAX
    kernel_size: 3
    stride: 2
  }
}
layer {
  name: "fire2/squeeze1x1"
  type: "Convolution"
  bottom: "pool1"
  top: "fire2/squeeze1x1"
  param {
    lr_mult: 0.1
    decay_mult: 0.1
  }
  convolution_param {
    num_output: 16
    bias_term: false
    kernel_size: 1
    weight_filler {
      type: "msra"
    }
  }
}
layer {
  name: "fire2/relu_squeeze1x1"
  type: "ReLU"
  bottom: "fire2/squeeze1x1"
  top: "fire2/squeeze1x1"
}
layer {
  name: "fire2/expand1x1"
  type: "Convolution"
  bottom: "fire2/squeeze1x1"
  top: "fire2/expand1x1"
  param {
    lr_mult: 0.1
    decay_mult: 0.1
  }
  convolution_param {
    num_output: 64
    bias_term: false
    kernel_size: 1
    weight_filler {
      type: "msra"
    }
  }
}
layer {
  name: "fire2/relu_expand1x1"
  type: "ReLU"
  bottom: "fire2/expand1x1"
  top: "fire2/expand1x1"
}
layer {
  name: "fire2/expand3x3"
  type: "Convolution"
  bottom: "fire2/squeeze1x1"
  top: "fire2/expand3x3"
  param {
    lr_mult: 0.1
    decay_mult: 0.1
  }
  convolution_param {
    num_output: 64
    bias_term: false
    pad: 1
    kernel_size: 3
    weight_filler {
      type: "msra"
    }
  }
}
layer {
  name: "fire2/relu_expand3x3"
  type: "ReLU"
  bottom: "fire2/expand3x3"
  top: "fire2/expand3x3"
}
layer {
  name: "fire2/concat"
  type: "Concat"
  bottom: "fire2/expand1x1"
  bottom: "fire2/expand3x3"
  top: "fire2/concat"
}
layer {
  name: "fire3/squeeze1x1"
  type: "Convolution"
  bottom: "fire2/concat"
  top: "fire3/squeeze1x1"
  param {
    lr_mult: 0.1
    decay_mult: 0.1
  }
  convolution_param {
    num_output: 16
    bias_term: false
    kernel_size: 1
    weight_filler {
      type: "msra"
    }
  }
}
layer {
  name: "fire3/relu_squeeze1x1"
  type: "ReLU"
  bottom: "fire3/squeeze1x1"
  top: "fire3/squeeze1x1"
}
layer {
  name: "fire3/expand1x1"
  type: "Convolution"
  bottom: "fire3/squeeze1x1"
  top: "fire3/expand1x1"
  param {
    lr_mult: 0.1
    decay_mult: 0.1
  }
  convolution_param {
    num_output: 64
    bias_term: false
    kernel_size: 1
    weight_filler {
      type: "msra"
    }
  }
}
layer {
  name: "fire3/relu_expand1x1"
  type: "ReLU"
  bottom: "fire3/expand1x1"
  top: "fire3/expand1x1"
}
layer {
  name: "fire3/expand3x3"
  type: "Convolution"
  bottom: "fire3/squeeze1x1"
  top: "fire3/expand3x3"
  param {
    lr_mult: 0.1
    decay_mult: 0.1
  }
  convolution_param {
    num_output: 64
    bias_term: false
    pad: 1
    kernel_size: 3
    weight_filler {
      type: "msra"
    }
  }
}
layer {
  name: "fire3/relu_expand3x3"
  type: "ReLU"
  bottom: "fire3/expand3x3"
  top: "fire3/expand3x3"
}
layer {
  name: "fire3/concat"
  type: "Concat"
  bottom: "fire3/expand1x1"
  bottom: "fire3/expand3x3"
  top: "fire3/concat"
}
layer {
  name: "pool3"
  type: "Pooling"
  bottom: "fire3/concat"
  top: "pool3"
  pooling_param {
    pool: MAX
    kernel_size: 3
    stride: 2
  }
}
layer {
  name: "fire4/squeeze1x1"
  type: "Convolution"
  bottom: "pool3"
  top: "fire4/squeeze1x1"
  param {
    lr_mult: 0.1
    decay_mult: 0.1
  }
  convolution_param {
    num_output: 32
    bias_term: false
    kernel_size: 1
    weight_filler {
      type: "msra"
    }
  }
}
layer {
  name: "fire4/relu_squeeze1x1"
  type: "ReLU"
  bottom: "fire4/squeeze1x1"
  top: "fire4/squeeze1x1"
}
layer {
  name: "fire4/expand1x1"
  type: "Convolution"
  bottom: "fire4/squeeze1x1"
  top: "fire4/expand1x1"
  param {
    lr_mult: 0.1
    decay_mult: 0.1
  }
  convolution_param {
    num_output: 128
    bias_term: false
    kernel_size: 1
    weight_filler {
      type: "msra"
    }
  }
}
layer {
  name: "fire4/relu_expand1x1"
  type: "ReLU"
  bottom: "fire4/expand1x1"
  top: "fire4/expand1x1"
}
layer {
  name: "fire4/expand3x3"
  type: "Convolution"
  bottom: "fire4/squeeze1x1"
  top: "fire4/expand3x3"
  param {
    lr_mult: 0.1
    decay_mult: 0.1
  }
  convolution_param {
    num_output: 128
    bias_term: false
    pad: 1
    kernel_size: 3
    weight_filler {
      type: "msra"
    }
  }
}
layer {
  name: "fire4/relu_expand3x3"
  type: "ReLU"
  bottom: "fire4/expand3x3"
  top: "fire4/expand3x3"
}
layer {
  name: "fire4/concat"
  type: "Concat"
  bottom: "fire4/expand1x1"
  bottom: "fire4/expand3x3"
  top: "fire4/concat"
}
layer {
  name: "fire5/squeeze1x1"
  type: "Convolution"
  bottom: "fire4/concat"
  top: "fire5/squeeze1x1"
  param {
    lr_mult: 0.1
    decay_mult: 0.1
  }
  convolution_param {
    num_output: 32
    bias_term: false
    kernel_size: 1
    weight_filler {
      type: "msra"
    }
  }
}
layer {
  name: "fire5/relu_squeeze1x1"
  type: "ReLU"
  bottom: "fire5/squeeze1x1"
  top: "fire5/squeeze1x1"
}
layer {
  name: "fire5/expand1x1"
  type: "Convolution"
  bottom: "fire5/squeeze1x1"
  top: "fire5/expand1x1"
  param {
    lr_mult: 0.1
    decay_mult: 0.1
  }
  convolution_param {
    num_output: 128
    bias_term: false
    kernel_size: 1
    weight_filler {
      type: "msra"
    }
  }
}
layer {
  name: "fire5/expand1x1/bn"
  type: "BatchNorm"
  bottom: "fire5/expand1x1"
  top: "fire5/expand1x1"
}
layer {
  name: "fire5/expand1x1/scale"
  type: "Scale"
  bottom: "fire5/expand1x1"
  top: "fire5/expand1x1"
  param {
    lr_mult: 0.1
    decay_mult: 0
  }
  param {
    lr_mult: 0.2
    decay_mult: 0
  }
  scale_param {
    filler {
      value: 1
    }
    bias_term: true
    bias_filler {
      value: 0
    }
  }
}
layer {
  name: "fire5/relu_expand1x1"
  type: "ReLU"
  bottom: "fire5/expand1x1"
  top: "fire5/expand1x1"
}
layer {
  name: "fire5/expand3x3"
  type: "Convolution"
  bottom: "fire5/squeeze1x1"
  top: "fire5/expand3x3"
  param {
    lr_mult: 0.1
    decay_mult: 0.1
  }
  convolution_param {
    num_output: 128
    bias_term: false
    pad: 1
    kernel_size: 3
    weight_filler {
      type: "msra"
    }
  }
}
layer {
  name: "fire5/expand3x3/bn"
  type: "BatchNorm"
  bottom: "fire5/expand3x3"
  top: "fire5/expand3x3"
}
layer {
  name: "fire5/expand3x3/scale"
  type: "Scale"
  bottom: "fire5/expand3x3"
  top: "fire5/expand3x3"
  param {
    lr_mult: 0.1
    decay_mult: 0
  }
  param {
    lr_mult: 0.2
    decay_mult: 0
  }
  scale_param {
    filler {
      value: 1
    }
    bias_term: true
    bias_filler {
      value: 0
    }
  }
}
layer {
  name: "fire5/relu_expand3x3"
  type: "ReLU"
  bottom: "fire5/expand3x3"
  top: "fire5/expand3x3"
}
layer {
  name: "fire5/concat"
  type: "Concat"
  bottom: "fire5/expand1x1"
  bottom: "fire5/expand3x3"
  top: "fire5/concat"
}
layer {
  name: "pool5"
  type: "Pooling"
  bottom: "fire5/concat"
  top: "pool5"
  pooling_param {
    pool: MAX
    kernel_size: 3
    stride: 2
  }
}
layer {
  name: "fire6/squeeze1x1"
  type: "Convolution"
  bottom: "pool5"
  top: "fire6/squeeze1x1"
  param {
    lr_mult: 0.1
    decay_mult: 0.1
  }
  convolution_param {
    num_output: 48
    bias_term: false
    kernel_size: 1
    weight_filler {
      type: "msra"
    }
  }
}
layer {
  name: "fire6/relu_squeeze1x1"
  type: "ReLU"
  bottom: "fire6/squeeze1x1"
  top: "fire6/squeeze1x1"
}
layer {
  name: "fire6/expand1x1"
  type: "Convolution"
  bottom: "fire6/squeeze1x1"
  top: "fire6/expand1x1"
  param {
    lr_mult: 0.1
    decay_mult: 0.1
  }
  convolution_param {
    num_output: 192
    bias_term: false
    kernel_size: 1
    weight_filler {
      type: "msra"
    }
  }
}
layer {
  name: "fire6/relu_expand1x1"
  type: "ReLU"
  bottom: "fire6/expand1x1"
  top: "fire6/expand1x1"
}
layer {
  name: "fire6/expand3x3"
  type: "Convolution"
  bottom: "fire6/squeeze1x1"
  top: "fire6/expand3x3"
  param {
    lr_mult: 0.1
    decay_mult: 0.1
  }
  convolution_param {
    num_output: 192
    bias_term: false
    pad: 1
    kernel_size: 3
    weight_filler {
      type: "msra"
    }
  }
}
layer {
  name: "fire6/relu_expand3x3"
  type: "ReLU"
  bottom: "fire6/expand3x3"
  top: "fire6/expand3x3"
}
layer {
  name: "fire6/concat"
  type: "Concat"
  bottom: "fire6/expand1x1"
  bottom: "fire6/expand3x3"
  top: "fire6/concat"
}
layer {
  name: "fire7/squeeze1x1"
  type: "Convolution"
  bottom: "fire6/concat"
  top: "fire7/squeeze1x1"
  param {
    lr_mult: 0.1
    decay_mult: 0.1
  }
  convolution_param {
    num_output: 48
    bias_term: false
    kernel_size: 1
    weight_filler {
      type: "msra"
    }
  }
}
layer {
  name: "fire7/relu_squeeze1x1"
  type: "ReLU"
  bottom: "fire7/squeeze1x1"
  top: "fire7/squeeze1x1"
}
layer {
  name: "fire7/expand1x1"
  type: "Convolution"
  bottom: "fire7/squeeze1x1"
  top: "fire7/expand1x1"
  param {
    lr_mult: 0.1
    decay_mult: 0.1
  }
  convolution_param {
    num_output: 192
    bias_term: false
    kernel_size: 1
    weight_filler {
      type: "msra"
    }
  }
}
layer {
  name: "fire7/relu_expand1x1"
  type: "ReLU"
  bottom: "fire7/expand1x1"
  top: "fire7/expand1x1"
}
layer {
  name: "fire7/expand3x3"
  type: "Convolution"
  bottom: "fire7/squeeze1x1"
  top: "fire7/expand3x3"
  param {
    lr_mult: 0.1
    decay_mult: 0.1
  }
  convolution_param {
    num_output: 192
    bias_term: false
    pad: 1
    kernel_size: 3
    weight_filler {
      type: "msra"
    }
  }
}
layer {
  name: "fire7/relu_expand3x3"
  type: "ReLU"
  bottom: "fire7/expand3x3"
  top: "fire7/expand3x3"
}
layer {
  name: "fire7/concat"
  type: "Concat"
  bottom: "fire7/expand1x1"
  bottom: "fire7/expand3x3"
  top: "fire7/concat"
}
layer {
  name: "fire8/squeeze1x1"
  type: "Convolution"
  bottom: "fire7/concat"
  top: "fire8/squeeze1x1"
  param {
    lr_mult: 0.1
    decay_mult: 0.1
  }
  convolution_param {
    num_output: 64
    bias_term: false
    kernel_size: 1
    weight_filler {
      type: "msra"
    }
  }
}
layer {
  name: "fire8/relu_squeeze1x1"
  type: "ReLU"
  bottom: "fire8/squeeze1x1"
  top: "fire8/squeeze1x1"
}
layer {
  name: "fire8/expand1x1"
  type: "Convolution"
  bottom: "fire8/squeeze1x1"
  top: "fire8/expand1x1"
  param {
    lr_mult: 0.1
    decay_mult: 0.1
  }
  convolution_param {
    num_output: 256
    bias_term: false
    kernel_size: 1
    weight_filler {
      type: "msra"
    }
  }
}
layer {
  name: "fire8/relu_expand1x1"
  type: "ReLU"
  bottom: "fire8/expand1x1"
  top: "fire8/expand1x1"
}
layer {
  name: "fire8/expand3x3"
  type: "Convolution"
  bottom: "fire8/squeeze1x1"
  top: "fire8/expand3x3"
  param {
    lr_mult: 0.1
    decay_mult: 0.1
  }
  convolution_param {
    num_output: 256
    bias_term: false
    pad: 1
    kernel_size: 3
    weight_filler {
      type: "msra"
    }
  }
}
layer {
  name: "fire8/relu_expand3x3"
  type: "ReLU"
  bottom: "fire8/expand3x3"
  top: "fire8/expand3x3"
}
layer {
  name: "fire8/concat"
  type: "Concat"
  bottom: "fire8/expand1x1"
  bottom: "fire8/expand3x3"
  top: "fire8/concat"
}
layer {
  name: "fire9/squeeze1x1"
  type: "Convolution"
  bottom: "fire8/concat"
  top: "fire9/squeeze1x1"
  param {
    lr_mult: 0.1
    decay_mult: 0.1
  }
  convolution_param {
    num_output: 64
    bias_term: false
    kernel_size: 1
    weight_filler {
      type: "msra"
    }
  }
}
layer {
  name: "fire9/relu_squeeze1x1"
  type: "ReLU"
  bottom: "fire9/squeeze1x1"
  top: "fire9/squeeze1x1"
}
layer {
  name: "fire9/expand1x1"
  type: "Convolution"
  bottom: "fire9/squeeze1x1"
  top: "fire9/expand1x1"
  param {
    lr_mult: 0.1
    decay_mult: 0.1
  }
  convolution_param {
    num_output: 256
    bias_term: false
    kernel_size: 1
    weight_filler {
      type: "msra"
    }
  }
}
layer {
  name: "fire9/expand1x1/bn"
  type: "BatchNorm"
  bottom: "fire9/expand1x1"
  top: "fire9/expand1x1"
}
layer {
  name: "fire9/expand1x1/scale"
  type: "Scale"
  bottom: "fire9/expand1x1"
  top: "fire9/expand1x1"
  param {
    lr_mult: 0.1
    decay_mult: 0
  }
  param {
    lr_mult: 0.2
    decay_mult: 0
  }
  scale_param {
    filler {
      value: 1
    }
    bias_term: true
    bias_filler {
      value: 0
    }
  }
}
layer {
  name: "fire9/relu_expand1x1"
  type: "ReLU"
  bottom: "fire9/expand1x1"
  top: "fire9/expand1x1"
}
layer {
  name: "fire9/expand3x3"
  type: "Convolution"
  bottom: "fire9/squeeze1x1"
  top: "fire9/expand3x3"
  param {
    lr_mult: 0.1
    decay_mult: 0.1
  }
  convolution_param {
    num_output: 256
    bias_term: false
    pad: 1
    kernel_size: 3
    weight_filler {
      type: "msra"
    }
  }
}
layer {
  name: "fire9/expand3x3/bn"
  type: "BatchNorm"
  bottom: "fire9/expand3x3"
  top: "fire9/expand3x3"
}
layer {
  name: "fire9/expand3x3/scale"
  type: "Scale"
  bottom: "fire9/expand3x3"
  top: "fire9/expand3x3"
  param {
    lr_mult: 0.1
    decay_mult: 0
  }
  param {
    lr_mult: 0.2
    decay_mult: 0
  }
  scale_param {
    filler {
      value: 1
    }
    bias_term: true
    bias_filler {
      value: 0
    }
  }
}
layer {
  name: "fire9/relu_expand3x3"
  type: "ReLU"
  bottom: "fire9/expand3x3"
  top: "fire9/expand3x3"
}
layer {
  name: "fire9/concat"
  type: "Concat"
  bottom: "fire9/expand1x1"
  bottom: "fire9/expand3x3"
  top: "fire9/concat"
}
layer {
  name: "pool9"
  type: "Pooling"
  bottom: "fire9/concat"
  top: "pool9"
  pooling_param {
    pool: MAX
    kernel_size: 3
    stride: 2
  }
}
layer {
  name: "fire10/squeeze1x1"
  type: "Convolution"
  bottom: "pool9"
  top: "fire10/squeeze1x1"
  param {
    lr_mult: 0.1
    decay_mult: 0.1
  }
  convolution_param {
    num_output: 96
    bias_term: false
    kernel_size: 1
    weight_filler {
      type: "msra"
    }
  }
}
layer {
  name: "fire10/squeeze1x1/bn"
  type: "BatchNorm"
  bottom: "fire10/squeeze1x1"
  top: "fire10/squeeze1x1"
}
layer {
  name: "fire10/squeeze1x1/scale"
  type: "Scale"
  bottom: "fire10/squeeze1x1"
  top: "fire10/squeeze1x1"
  param {
    lr_mult: 0.1
    decay_mult: 0
  }
  param {
    lr_mult: 0.2
    decay_mult: 0
  }
  scale_param {
    filler {
      value: 1
    }
    bias_term: true
    bias_filler {
      value: 0
    }
  }
}
layer {
  name: "fire10/relu_squeeze1x1"
  type: "ReLU"
  bottom: "fire10/squeeze1x1"
  top: "fire10/squeeze1x1"
}
layer {
  name: "fire10/expand1x1"
  type: "Convolution"
  bottom: "fire10/squeeze1x1"
  top: "fire10/expand1x1"
  param {
    lr_mult: 0.1
    decay_mult: 0.1
  }
  convolution_param {
    num_output: 384
    bias_term: false
    kernel_size: 1
    weight_filler {
      type: "msra"
    }
  }
}
layer {
  name: "fire10/expand1x1/bn"
  type: "BatchNorm"
  bottom: "fire10/expand1x1"
  top: "fire10/expand1x1"
}
layer {
  name: "fire10/expand1x1/scale"
  type: "Scale"
  bottom: "fire10/expand1x1"
  top: "fire10/expand1x1"
  param {
    lr_mult: 0.1
    decay_mult: 0
  }
  param {
    lr_mult: 0.2
    decay_mult: 0
  }
  scale_param {
    filler {
      value: 1
    }
    bias_term: true
    bias_filler {
      value: 0
    }
  }
}
layer {
  name: "fire10/relu_expand1x1"
  type: "ReLU"
  bottom: "fire10/expand1x1"
  top: "fire10/expand1x1"
}
layer {
  name: "fire10/expand3x3"
  type: "Convolution"
  bottom: "fire10/squeeze1x1"
  top: "fire10/expand3x3"
  param {
    lr_mult: 0.1
    decay_mult: 0.1
  }
  convolution_param {
    num_output: 384
    bias_term: false
    pad: 1
    kernel_size: 3
    weight_filler {
      type: "msra"
    }
  }
}
layer {
  name: "fire10/expand3x3/bn"
  type: "BatchNorm"
  bottom: "fire10/expand3x3"
  top: "fire10/expand3x3"
}
layer {
  name: "fire10/expand3x3/scale"
  type: "Scale"
  bottom: "fire10/expand3x3"
  top: "fire10/expand3x3"
  param {
    lr_mult: 0.1
    decay_mult: 0
  }
  param {
    lr_mult: 0.2
    decay_mult: 0
  }
  scale_param {
    filler {
      value: 1
    }
    bias_term: true
    bias_filler {
      value: 0
    }
  }
}
layer {
  name: "fire10/relu_expand3x3"
  type: "ReLU"
  bottom: "fire10/expand3x3"
  top: "fire10/expand3x3"
}
layer {
  name: "fire10/concat"
  type: "Concat"
  bottom: "fire10/expand1x1"
  bottom: "fire10/expand3x3"
  top: "fire10/concat"
}
layer {
  name: "pool10"
  type: "Pooling"
  bottom: "fire10/concat"
  top: "pool10"
  pooling_param {
    pool: MAX
    kernel_size: 3
    stride: 2
  }
}
layer {
  name: "fire11/squeeze1x1"
  type: "Convolution"
  bottom: "pool10"
  top: "fire11/squeeze1x1"
  param {
    lr_mult: 0.1
    decay_mult: 0.1
  }
  convolution_param {
    num_output: 96
    bias_term: false
    kernel_size: 1
    weight_filler {
      type: "msra"
    }
  }
}
layer {
  name: "fire11/squeeze1x1/bn"
  type: "BatchNorm"
  bottom: "fire11/squeeze1x1"
  top: "fire11/squeeze1x1"
}
layer {
  name: "fire11/squeeze1x1/scale"
  type: "Scale"
  bottom: "fire11/squeeze1x1"
  top: "fire11/squeeze1x1"
  param {
    lr_mult: 0.1
    decay_mult: 0
  }
  param {
    lr_mult: 0.2
    decay_mult: 0
  }
  scale_param {
    filler {
      value: 1
    }
    bias_term: true
    bias_filler {
      value: 0
    }
  }
}
layer {
  name: "fire11/relu_squeeze1x1"
  type: "ReLU"
  bottom: "fire11/squeeze1x1"
  top: "fire11/squeeze1x1"
}
layer {
  name: "fire11/expand1x1"
  type: "Convolution"
  bottom: "fire11/squeeze1x1"
  top: "fire11/expand1x1"
  param {
    lr_mult: 0.1
    decay_mult: 0.1
  }
  convolution_param {
    num_output: 384
    bias_term: false
    kernel_size: 1
    weight_filler {
      type: "msra"
    }
  }
}
layer {
  name: "fire11/expand1x1/bn"
  type: "BatchNorm"
  bottom: "fire11/expand1x1"
  top: "fire11/expand1x1"
}
layer {
  name: "fire11/expand1x1/scale"
  type: "Scale"
  bottom: "fire11/expand1x1"
  top: "fire11/expand1x1"
  param {
    lr_mult: 0.1
    decay_mult: 0
  }
  param {
    lr_mult: 0.2
    decay_mult: 0
  }
  scale_param {
    filler {
      value: 1
    }
    bias_term: true
    bias_filler {
      value: 0
    }
  }
}
layer {
  name: "fire11/relu_expand1x1"
  type: "ReLU"
  bottom: "fire11/expand1x1"
  top: "fire11/expand1x1"
}
layer {
  name: "fire11/expand3x3"
  type: "Convolution"
  bottom: "fire11/squeeze1x1"
  top: "fire11/expand3x3"
  param {
    lr_mult: 0.1
    decay_mult: 0.1
  }
  convolution_param {
    num_output: 384
    bias_term: false
    pad: 1
    kernel_size: 3
    weight_filler {
      type: "msra"
    }
  }
}
layer {
  name: "fire11/expand3x3/bn"
  type: "BatchNorm"
  bottom: "fire11/expand3x3"
  top: "fire11/expand3x3"
}
layer {
  name: "fire11/expand3x3/scale"
  type: "Scale"
  bottom: "fire11/expand3x3"
  top: "fire11/expand3x3"
  param {
    lr_mult: 0.1
    decay_mult: 0
  }
  param {
    lr_mult: 0.2
    decay_mult: 0
  }
  scale_param {
    filler {
      value: 1
    }
    bias_term: true
    bias_filler {
      value: 0
    }
  }
}
layer {
  name: "fire11/relu_expand3x3"
  type: "ReLU"
  bottom: "fire11/expand3x3"
  top: "fire11/expand3x3"
}
layer {
  name: "fire11/concat"
  type: "Concat"
  bottom: "fire11/expand1x1"
  bottom: "fire11/expand3x3"
  top: "fire11/concat"
}
layer {
  name: "conv12_1"
  type: "Convolution"
  bottom: "fire11/concat"
  top: "conv12_1"
  param {
    lr_mult: 0.1
    decay_mult: 0.1
  }
  convolution_param {
    num_output: 128
    bias_term: false
    kernel_size: 1
    weight_filler {
      type: "msra"
    }
  }
}
layer {
  name: "conv12_1/bn"
  type: "BatchNorm"
  bottom: "conv12_1"
  top: "conv12_1"
}
layer {
  name: "conv12_1/scale"
  type: "Scale"
  bottom: "conv12_1"
  top: "conv12_1"
  param {
    lr_mult: 0.1
    decay_mult: 0
  }
  param {
    lr_mult: 0.2
    decay_mult: 0
  }
  scale_param {
    filler {
      value: 1
    }
    bias_term: true
    bias_filler {
      value: 0
    }
  }
}
layer {
  name: "conv12_1/relu"
  type: "ReLU"
  bottom: "conv12_1"
  top: "conv12_1"
}
layer {
  name: "conv12_2"
  type: "Convolution"
  bottom: "conv12_1"
  top: "conv12_2"
  param {
    lr_mult: 0.1
    decay_mult: 0.1
  }
  convolution_param {
    num_output: 256
    bias_term: false
    pad: 1
    kernel_size: 3
    stride: 2
    weight_filler {
      type: "msra"
    }
  }
}
layer {
  name: "conv12_2/bn"
  type: "BatchNorm"
  bottom: "conv12_2"
  top: "conv12_2"
}
layer {
  name: "conv12_2/scale"
  type: "Scale"
  bottom: "conv12_2"
  top: "conv12_2"
  param {
    lr_mult: 0.1
    decay_mult: 0
  }
  param {
    lr_mult: 0.2
    decay_mult: 0
  }
  scale_param {
    filler {
      value: 1
    }
    bias_term: true
    bias_filler {
      value: 0
    }
  }
}
layer {
  name: "conv12_2/relu"
  type: "ReLU"
  bottom: "conv12_2"
  top: "conv12_2"
}
layer {
  name: "conv13_1"
  type: "Convolution"
  bottom: "conv12_2"
  top: "conv13_1"
  param {
    lr_mult: 0.1
    decay_mult: 0.1
  }
  convolution_param {
    num_output: 64
    bias_term: false
    kernel_size: 1
    weight_filler {
      type: "msra"
    }
  }
}
layer {
  name: "conv13_1/bn"
  type: "BatchNorm"
  bottom: "conv13_1"
  top: "conv13_1"
}
layer {
  name: "conv13_1/scale"
  type: "Scale"
  bottom: "conv13_1"
  top: "conv13_1"
  param {
    lr_mult: 0.1
    decay_mult: 0
  }
  param {
    lr_mult: 0.2
    decay_mult: 0
  }
  scale_param {
    filler {
      value: 1
    }
    bias_term: true
    bias_filler {
      value: 0
    }
  }
}
layer {
  name: "conv13_1/relu"
  type: "ReLU"
  bottom: "conv13_1"
  top: "conv13_1"
}
layer {
  name: "conv13_2"
  type: "Convolution"
  bottom: "conv13_1"
  top: "conv13_2"
  param {
    lr_mult: 0.1
    decay_mult: 0.1
  }
  convolution_param {
    num_output: 128
    bias_term: false
    pad: 1
    kernel_size: 3
    stride: 2
    weight_filler {
      type: "msra"
    }
  }
}
layer {
  name: "conv13_2/bn"
  type: "BatchNorm"
  bottom: "conv13_2"
  top: "conv13_2"
}
layer {
  name: "conv13_2/scale"
  type: "Scale"
  bottom: "conv13_2"
  top: "conv13_2"
  param {
    lr_mult: 0.1
    decay_mult: 0
  }
  param {
    lr_mult: 0.2
    decay_mult: 0
  }
  scale_param {
    filler {
      value: 1
    }
    bias_term: true
    bias_filler {
      value: 0
    }
  }
}
layer {
  name: "conv13_2/relu"
  type: "ReLU"
  bottom: "conv13_2"
  top: "conv13_2"
}
layer {
  name: "fire5_mbox_loc"
  type: "Convolution"
  bottom: "fire5/concat"
  top: "fire5_mbox_loc"
  param {
    lr_mult: 0.1
    decay_mult: 0.1
  }
  param {
    lr_mult: 0.2
    decay_mult: 0
  }
  convolution_param {
    num_output: 16
    pad: 1
    kernel_size: 3
    stride: 1
    weight_filler {
      type: "msra"
    }
    bias_filler {
      type: "constant"
      value: 0
    }
  }
}
layer {
  name: "fire5_mbox_loc_perm"
  type: "Permute"
  bottom: "fire5_mbox_loc"
  top: "fire5_mbox_loc_perm"
  permute_param {
    order: 0
    order: 2
    order: 3
    order: 1
  }
}
layer {
  name: "fire5_mbox_loc_flat"
  type: "Flatten"
  bottom: "fire5_mbox_loc_perm"
  top: "fire5_mbox_loc_flat"
  flatten_param {
    axis: 1
  }
}
layer {
  name: "fire5_mbox_conf"
  type: "Convolution"
  bottom: "fire5/concat"
  top: "fire5_mbox_conf"
  param {
    lr_mult: 1
    decay_mult: 1
  }
  param {
    lr_mult: 2
    decay_mult: 0
  }
  convolution_param {
    num_output: 28
    pad: 1
    kernel_size: 3
    stride: 1
    weight_filler {
      type: "msra"
    }
    bias_filler {
      type: "constant"
      value: 0
    }
  }
}
layer {
  name: "fire5_mbox_conf_perm"
  type: "Permute"
  bottom: "fire5_mbox_conf"
  top: "fire5_mbox_conf_perm"
  permute_param {
    order: 0
    order: 2
    order: 3
    order: 1
  }
}
layer {
  name: "fire5_mbox_conf_flat"
  type: "Flatten"
  bottom: "fire5_mbox_conf_perm"
  top: "fire5_mbox_conf_flat"
  flatten_param {
    axis: 1
  }
}
layer {
  name: "fire5_mbox_priorbox"
  type: "PriorBox"
  bottom: "fire5/concat"
  bottom: "data"
  top: "fire5_mbox_priorbox"
  prior_box_param {
    min_size: 21
    max_size: 45
    aspect_ratio: 2
    flip: true
    clip: false
    variance: 0.1
    variance: 0.1
    variance: 0.2
    variance: 0.2
    step: 8
  }
}
layer {
  name: "fire9_mbox_loc"
  type: "Convolution"
  bottom: "fire9/concat"
  top: "fire9_mbox_loc"
  param {
    lr_mult: 0.1
    decay_mult: 0.1
  }
  param {
    lr_mult: 0.2
    decay_mult: 0
  }
  convolution_param {
    num_output: 24
    pad: 1
    kernel_size: 3
    stride: 1
    weight_filler {
      type: "msra"
    }
    bias_filler {
      type: "constant"
      value: 0
    }
  }
}
layer {
  name: "fire9_mbox_loc_perm"
  type: "Permute"
  bottom: "fire9_mbox_loc"
  top: "fire9_mbox_loc_perm"
  permute_param {
    order: 0
    order: 2
    order: 3
    order: 1
  }
}
layer {
  name: "fire9_mbox_loc_flat"
  type: "Flatten"
  bottom: "fire9_mbox_loc_perm"
  top: "fire9_mbox_loc_flat"
  flatten_param {
    axis: 1
  }
}
layer {
  name: "fire9_mbox_conf"
  type: "Convolution"
  bottom: "fire9/concat"
  top: "fire9_mbox_conf"
  param {
    lr_mult: 1
    decay_mult: 1
  }
  param {
    lr_mult: 2
    decay_mult: 0
  }
  convolution_param {
    num_output: 42
    pad: 1
    kernel_size: 3
    stride: 1
    weight_filler {
      type: "msra"
    }
    bias_filler {
      type: "constant"
      value: 0
    }
  }
}
layer {
  name: "fire9_mbox_conf_perm"
  type: "Permute"
  bottom: "fire9_mbox_conf"
  top: "fire9_mbox_conf_perm"
  permute_param {
    order: 0
    order: 2
    order: 3
    order: 1
  }
}
layer {
  name: "fire9_mbox_conf_flat"
  type: "Flatten"
  bottom: "fire9_mbox_conf_perm"
  top: "fire9_mbox_conf_flat"
  flatten_param {
    axis: 1
  }
}
layer {
  name: "fire9_mbox_priorbox"
  type: "PriorBox"
  bottom: "fire9/concat"
  bottom: "data"
  top: "fire9_mbox_priorbox"
  prior_box_param {
    min_size: 45
    max_size: 99
    aspect_ratio: 2
    aspect_ratio: 3
    flip: true
    clip: false
    variance: 0.1
    variance: 0.1
    variance: 0.2
    variance: 0.2
    step: 16
  }
}
layer {
  name: "fire10_mbox_loc"
  type: "Convolution"
  bottom: "fire10/concat"
  top: "fire10_mbox_loc"
  param {
    lr_mult: 0.1
    decay_mult: 0.1
  }
  param {
    lr_mult: 0.2
    decay_mult: 0
  }
  convolution_param {
    num_output: 24
    pad: 1
    kernel_size: 3
    stride: 1
    weight_filler {
      type: "msra"
    }
    bias_filler {
      type: "constant"
      value: 0
    }
  }
}
layer {
  name: "fire10_mbox_loc_perm"
  type: "Permute"
  bottom: "fire10_mbox_loc"
  top: "fire10_mbox_loc_perm"
  permute_param {
    order: 0
    order: 2
    order: 3
    order: 1
  }
}
layer {
  name: "fire10_mbox_loc_flat"
  type: "Flatten"
  bottom: "fire10_mbox_loc_perm"
  top: "fire10_mbox_loc_flat"
  flatten_param {
    axis: 1
  }
}
layer {
  name: "fire10_mbox_conf"
  type: "Convolution"
  bottom: "fire10/concat"
  top: "fire10_mbox_conf"
  param {
    lr_mult: 1
    decay_mult: 1
  }
  param {
    lr_mult: 2
    decay_mult: 0
  }
  convolution_param {
    num_output: 42
    pad: 1
    kernel_size: 3
    stride: 1
    weight_filler {
      type: "msra"
    }
    bias_filler {
      type: "constant"
      value: 0
    }
  }
}
layer {
  name: "fire10_mbox_conf_perm"
  type: "Permute"
  bottom: "fire10_mbox_conf"
  top: "fire10_mbox_conf_perm"
  permute_param {
    order: 0
    order: 2
    order: 3
    order: 1
  }
}
layer {
  name: "fire10_mbox_conf_flat"
  type: "Flatten"
  bottom: "fire10_mbox_conf_perm"
  top: "fire10_mbox_conf_flat"
  flatten_param {

I0426 10:40:53.653620  7867 layer_factory.hpp:77] Creating layer data
I0426 10:40:53.653755  7867 net.cpp:100] Creating Layer data
I0426 10:40:53.653769  7867 net.cpp:408] data -> data
I0426 10:40:53.653798  7867 net.cpp:408] data -> label
I0426 10:40:53.654520  7882 db_lmdb.cpp:35] Opened lmdb trainval_lmdb
I0426 10:40:53.666200  7867 annotated_data_layer.cpp:62] output data size: 4,3,300,300
I0426 10:40:53.673194  7867 net.cpp:150] Setting up data
I0426 10:40:53.673233  7867 net.cpp:157] Top shape: 4 3 300 300 (1080000)
I0426 10:40:53.673240  7867 net.cpp:157] Top shape: 1 1 1 8 (8)
I0426 10:40:53.673245  7867 net.cpp:165] Memory required for data: 4320032
I0426 10:40:53.673255  7867 layer_factory.hpp:77] Creating layer data_data_0_split
I0426 10:40:53.673267  7867 net.cpp:100] Creating Layer data_data_0_split
I0426 10:40:53.673275  7867 net.cpp:434] data_data_0_split <- data
I0426 10:40:53.673286  7867 net.cpp:408] data_data_0_split -> data_data_0_split_0
I0426 10:40:53.673296  7867 net.cpp:408] data_data_0_split -> data_data_0_split_1
I0426 10:40:53.673302  7867 net.cpp:408] data_data_0_split -> data_data_0_split_2
I0426 10:40:53.673308  7867 net.cpp:408] data_data_0_split -> data_data_0_split_3
I0426 10:40:53.673313  7867 net.cpp:408] data_data_0_split -> data_data_0_split_4
I0426 10:40:53.673319  7867 net.cpp:408] data_data_0_split -> data_data_0_split_5
I0426 10:40:53.673324  7867 net.cpp:408] data_data_0_split -> data_data_0_split_6
I0426 10:40:53.673403  7867 net.cpp:150] Setting up data_data_0_split
I0426 10:40:53.673409  7867 net.cpp:157] Top shape: 4 3 300 300 (1080000)
I0426 10:40:53.673424  7867 net.cpp:157] Top shape: 4 3 300 300 (1080000)
I0426 10:40:53.673450  7867 net.cpp:157] Top shape: 4 3 300 300 (1080000)
I0426 10:40:53.673455  7867 net.cpp:157] Top shape: 4 3 300 300 (1080000)
I0426 10:40:53.673460  7867 net.cpp:157] Top shape: 4 3 300 300 (1080000)
I0426 10:40:53.673465  7867 net.cpp:157] Top shape: 4 3 300 300 (1080000)
I0426 10:40:53.673468  7867 net.cpp:157] Top shape: 4 3 300 300 (1080000)
I0426 10:40:53.673472  7867 net.cpp:165] Memory required for data: 34560032
I0426 10:40:53.673476  7867 layer_factory.hpp:77] Creating layer conv1
I0426 10:40:53.673494  7867 net.cpp:100] Creating Layer conv1
I0426 10:40:53.673499  7867 net.cpp:434] conv1 <- data_data_0_split_0
I0426 10:40:53.673506  7867 net.cpp:408] conv1 -> conv1
I0426 10:40:53.996673  7867 net.cpp:150] Setting up conv1
I0426 10:40:53.996706  7867 net.cpp:157] Top shape: 4 64 149 149 (5683456)
I0426 10:40:53.996709  7867 net.cpp:165] Memory required for data: 57293856
I0426 10:40:53.996726  7867 layer_factory.hpp:77] Creating layer relu_conv1
I0426 10:40:53.996737  7867 net.cpp:100] Creating Layer relu_conv1
I0426 10:40:53.996742  7867 net.cpp:434] relu_conv1 <- conv1
I0426 10:40:53.996752  7867 net.cpp:395] relu_conv1 -> conv1 (in-place)
I0426 10:40:53.997097  7867 net.cpp:150] Setting up relu_conv1
I0426 10:40:53.997107  7867 net.cpp:157] Top shape: 4 64 149 149 (5683456)
I0426 10:40:53.997112  7867 net.cpp:165] Memory required for data: 80027680
I0426 10:40:53.997117  7867 layer_factory.hpp:77] Creating layer pool1
I0426 10:40:53.997125  7867 net.cpp:100] Creating Layer pool1
I0426 10:40:53.997130  7867 net.cpp:434] pool1 <- conv1
I0426 10:40:53.997136  7867 net.cpp:408] pool1 -> pool1
I0426 10:40:53.997179  7867 net.cpp:150] Setting up pool1
I0426 10:40:53.997184  7867 net.cpp:157] Top shape: 4 64 74 74 (1401856)
I0426 10:40:53.997196  7867 net.cpp:165] Memory required for data: 85635104
I0426 10:40:53.997200  7867 layer_factory.hpp:77] Creating layer fire2/squeeze1x1
I0426 10:40:53.997221  7867 net.cpp:100] Creating Layer fire2/squeeze1x1
I0426 10:40:53.997225  7867 net.cpp:434] fire2/squeeze1x1 <- pool1
I0426 10:40:53.997231  7867 net.cpp:408] fire2/squeeze1x1 -> fire2/squeeze1x1
I0426 10:40:53.998716  7867 net.cpp:150] Setting up fire2/squeeze1x1
I0426 10:40:53.998733  7867 net.cpp:157] Top shape: 4 16 74 74 (350464)
I0426 10:40:53.998746  7867 net.cpp:165] Memory required for data: 87036960
I0426 10:40:53.998756  7867 layer_factory.hpp:77] Creating layer fire2/relu_squeeze1x1
I0426 10:40:53.998764  7867 net.cpp:100] Creating Layer fire2/relu_squeeze1x1
I0426 10:40:53.998769  7867 net.cpp:434] fire2/relu_squeeze1x1 <- fire2/squeeze1x1
I0426 10:40:53.998775  7867 net.cpp:395] fire2/relu_squeeze1x1 -> fire2/squeeze1x1 (in-place)
I0426 10:40:53.998904  7867 net.cpp:150] Setting up fire2/relu_squeeze1x1
I0426 10:40:53.998913  7867 net.cpp:157] Top shape: 4 16 74 74 (350464)
I0426 10:40:53.998916  7867 net.cpp:165] Memory required for data: 88438816
I0426 10:40:53.998931  7867 layer_factory.hpp:77] Creating layer fire2/squeeze1x1_fire2/relu_squeeze1x1_0_split
I0426 10:40:53.998939  7867 net.cpp:100] Creating Layer fire2/squeeze1x1_fire2/relu_squeeze1x1_0_split
I0426 10:40:53.998942  7867 net.cpp:434] fire2/squeeze1x1_fire2/relu_squeeze1x1_0_split <- fire2/squeeze1x1
I0426 10:40:53.998947  7867 net.cpp:408] fire2/squeeze1x1_fire2/relu_squeeze1x1_0_split -> fire2/squeeze1x1_fire2/relu_squeeze1x1_0_split_0
I0426 10:40:53.998955  7867 net.cpp:408] fire2/squeeze1x1_fire2/relu_squeeze1x1_0_split -> fire2/squeeze1x1_fire2/relu_squeeze1x1_0_split_1
I0426 10:40:53.998992  7867 net.cpp:150] Setting up fire2/squeeze1x1_fire2/relu_squeeze1x1_0_split
I0426 10:40:53.999007  7867 net.cpp:157] Top shape: 4 16 74 74 (350464)
I0426 10:40:53.999022  7867 net.cpp:157] Top shape: 4 16 74 74 (350464)
I0426 10:40:53.999027  7867 net.cpp:165] Memory required for data: 91242528
I0426 10:40:53.999030  7867 layer_factory.hpp:77] Creating layer fire2/expand1x1
I0426 10:40:53.999039  7867 net.cpp:100] Creating Layer fire2/expand1x1
I0426 10:40:53.999043  7867 net.cpp:434] fire2/expand1x1 <- fire2/squeeze1x1_fire2/relu_squeeze1x1_0_split_0
I0426 10:40:53.999073  7867 net.cpp:408] fire2/expand1x1 -> fire2/expand1x1
I0426 10:40:54.000001  7867 net.cpp:150] Setting up fire2/expand1x1
I0426 10:40:54.000013  7867 net.cpp:157] Top shape: 4 64 74 74 (1401856)
I0426 10:40:54.000018  7867 net.cpp:165] Memory required for data: 96849952
I0426 10:40:54.000025  7867 layer_factory.hpp:77] Creating layer fire2/relu_expand1x1
I0426 10:40:54.000032  7867 net.cpp:100] Creating Layer fire2/relu_expand1x1
I0426 10:40:54.000036  7867 net.cpp:434] fire2/relu_expand1x1 <- fire2/expand1x1
I0426 10:40:54.000041  7867 net.cpp:395] fire2/relu_expand1x1 -> fire2/expand1x1 (in-place)
I0426 10:40:54.000378  7867 net.cpp:150] Setting up fire2/relu_expand1x1
I0426 10:40:54.000389  7867 net.cpp:157] Top shape: 4 64 74 74 (1401856)
I0426 10:40:54.000402  7867 net.cpp:165] Memory required for data: 102457376
I0426 10:40:54.000406  7867 layer_factory.hpp:77] Creating layer fire2/expand3x3
I0426 10:40:54.000419  7867 net.cpp:100] Creating Layer fire2/expand3x3
I0426 10:40:54.000424  7867 net.cpp:434] fire2/expand3x3 <- fire2/squeeze1x1_fire2/relu_squeeze1x1_0_split_1
I0426 10:40:54.000432  7867 net.cpp:408] fire2/expand3x3 -> fire2/expand3x3
I0426 10:40:54.001992  7867 net.cpp:150] Setting up fire2/expand3x3
I0426 10:40:54.002007  7867 net.cpp:157] Top shape: 4 64 74 74 (1401856)
I0426 10:40:54.002012  7867 net.cpp:165] Memory required for data: 108064800
I0426 10:40:54.002019  7867 layer_factory.hpp:77] Creating layer fire2/relu_expand3x3
I0426 10:40:54.002027  7867 net.cpp:100] Creating Layer fire2/relu_expand3x3
I0426 10:40:54.002032  7867 net.cpp:434] fire2/relu_expand3x3 <- fire2/expand3x3
I0426 10:40:54.002044  7867 net.cpp:395] fire2/relu_expand3x3 -> fire2/expand3x3 (in-place)
I0426 10:40:54.002179  7867 net.cpp:150] Setting up fire2/relu_expand3x3
I0426 10:40:54.002187  7867 net.cpp:157] Top shape: 4 64 74 74 (1401856)
I0426 10:40:54.002192  7867 net.cpp:165] Memory required for data: 113672224
I0426 10:40:54.002195  7867 layer_factory.hpp:77] Creating layer fire2/concat
I0426 10:40:54.002202  7867 net.cpp:100] Creating Layer fire2/concat
I0426 10:40:54.002207  7867 net.cpp:434] fire2/concat <- fire2/expand1x1
I0426 10:40:54.002210  7867 net.cpp:434] fire2/concat <- fire2/expand3x3
I0426 10:40:54.002215  7867 net.cpp:408] fire2/concat -> fire2/concat
I0426 10:40:54.002244  7867 net.cpp:150] Setting up fire2/concat
I0426 10:40:54.002250  7867 net.cpp:157] Top shape: 4 128 74 74 (2803712)
I0426 10:40:54.002254  7867 net.cpp:165] Memory required for data: 124887072
I0426 10:40:54.002259  7867 layer_factory.hpp:77] Creating layer fire3/squeeze1x1
I0426 10:40:54.002265  7867 net.cpp:100] Creating Layer fire3/squeeze1x1
I0426 10:40:54.002269  7867 net.cpp:434] fire3/squeeze1x1 <- fire2/concat
I0426 10:40:54.002274  7867 net.cpp:408] fire3/squeeze1x1 -> fire3/squeeze1x1
I0426 10:40:54.003237  7867 net.cpp:150] Setting up fire3/squeeze1x1
I0426 10:40:54.003247  7867 net.cpp:157] Top shape: 4 16 74 74 (350464)
I0426 10:40:54.003252  7867 net.cpp:165] Memory required for data: 126288928
I0426 10:40:54.003258  7867 layer_factory.hpp:77] Creating layer fire3/relu_squeeze1x1
I0426 10:40:54.003264  7867 net.cpp:100] Creating Layer fire3/relu_squeeze1x1
I0426 10:40:54.003269  7867 net.cpp:434] fire3/relu_squeeze1x1 <- fire3/squeeze1x1
I0426 10:40:54.003273  7867 net.cpp:395] fire3/relu_squeeze1x1 -> fire3/squeeze1x1 (in-place)
I0426 10:40:54.003597  7867 net.cpp:150] Setting up fire3/relu_squeeze1x1
I0426 10:40:54.003607  7867 net.cpp:157] Top shape: 4 16 74 74 (350464)
I0426 10:40:54.003612  7867 net.cpp:165] Memory required for data: 127690784
I0426 10:40:54.003615  7867 layer_factory.hpp:77] Creating layer fire3/squeeze1x1_fire3/relu_squeeze1x1_0_split
I0426 10:40:54.003623  7867 net.cpp:100] Creating Layer fire3/squeeze1x1_fire3/relu_squeeze1x1_0_split
I0426 10:40:54.003628  7867 net.cpp:434] fire3/squeeze1x1_fire3/relu_squeeze1x1_0_split <- fire3/squeeze1x1
I0426 10:40:54.003633  7867 net.cpp:408] fire3/squeeze1x1_fire3/relu_squeeze1x1_0_split -> fire3/squeeze1x1_fire3/relu_squeeze1x1_0_split_0
I0426 10:40:54.003661  7867 net.cpp:408] fire3/squeeze1x1_fire3/relu_squeeze1x1_0_split -> fire3/squeeze1x1_fire3/relu_squeeze1x1_0_split_1
I0426 10:40:54.003693  7867 net.cpp:150] Setting up fire3/squeeze1x1_fire3/relu_squeeze1x1_0_split
I0426 10:40:54.003698  7867 net.cpp:157] Top shape: 4 16 74 74 (350464)
I0426 10:40:54.003702  7867 net.cpp:157] Top shape: 4 16 74 74 (350464)
I0426 10:40:54.003705  7867 net.cpp:165] Memory required for data: 130494496
I0426 10:40:54.003708  7867 layer_factory.hpp:77] Creating layer fire3/expand1x1
I0426 10:40:54.003716  7867 net.cpp:100] Creating Layer fire3/expand1x1
I0426 10:40:54.003720  7867 net.cpp:434] fire3/expand1x1 <- fire3/squeeze1x1_fire3/relu_squeeze1x1_0_split_0
I0426 10:40:54.003726  7867 net.cpp:408] fire3/expand1x1 -> fire3/expand1x1
I0426 10:40:54.004668  7867 net.cpp:150] Setting up fire3/expand1x1
I0426 10:40:54.004680  7867 net.cpp:157] Top shape: 4 64 74 74 (1401856)
I0426 10:40:54.004683  7867 net.cpp:165] Memory required for data: 136101920
I0426 10:40:54.004688  7867 layer_factory.hpp:77] Creating layer fire3/relu_expand1x1
I0426 10:40:54.004694  7867 net.cpp:100] Creating Layer fire3/relu_expand1x1
I0426 10:40:54.004699  7867 net.cpp:434] fire3/relu_expand1x1 <- fire3/expand1x1
I0426 10:40:54.004704  7867 net.cpp:395] fire3/relu_expand1x1 -> fire3/expand1x1 (in-place)
I0426 10:40:54.005043  7867 net.cpp:150] Setting up fire3/relu_expand1x1
I0426 10:40:54.005053  7867 net.cpp:157] Top shape: 4 64 74 74 (1401856)
I0426 10:40:54.005066  7867 net.cpp:165] Memory required for data: 141709344
I0426 10:40:54.005070  7867 layer_factory.hpp:77] Creating layer fire3/expand3x3
I0426 10:40:54.005077  7867 net.cpp:100] Creating Layer fire3/expand3x3
I0426 10:40:54.005081  7867 net.cpp:434] fire3/expand3x3 <- fire3/squeeze1x1_fire3/relu_squeeze1x1_0_split_1
I0426 10:40:54.005086  7867 net.cpp:408] fire3/expand3x3 -> fire3/expand3x3
I0426 10:40:54.006134  7867 net.cpp:150] Setting up fire3/expand3x3
I0426 10:40:54.006145  7867 net.cpp:157] Top shape: 4 64 74 74 (1401856)
I0426 10:40:54.006150  7867 net.cpp:165] Memory required for data: 147316768
I0426 10:40:54.006155  7867 layer_factory.hpp:77] Creating layer fire3/relu_expand3x3
I0426 10:40:54.006160  7867 net.cpp:100] Creating Layer fire3/relu_expand3x3
I0426 10:40:54.006165  7867 net.cpp:434] fire3/relu_expand3x3 <- fire3/expand3x3
I0426 10:40:54.006170  7867 net.cpp:395] fire3/relu_expand3x3 -> fire3/expand3x3 (in-place)
I0426 10:40:54.006309  7867 net.cpp:150] Setting up fire3/relu_expand3x3
I0426 10:40:54.006316  7867 net.cpp:157] Top shape: 4 64 74 74 (1401856)
I0426 10:40:54.006320  7867 net.cpp:165] Memory required for data: 152924192
I0426 10:40:54.006325  7867 layer_factory.hpp:77] Creating layer fire3/concat
I0426 10:40:54.006330  7867 net.cpp:100] Creating Layer fire3/concat
I0426 10:40:54.006335  7867 net.cpp:434] fire3/concat <- fire3/expand1x1
I0426 10:40:54.006340  7867 net.cpp:434] fire3/concat <- fire3/expand3x3
I0426 10:40:54.006345  7867 net.cpp:408] fire3/concat -> fire3/concat
I0426 10:40:54.006372  7867 net.cpp:150] Setting up fire3/concat
I0426 10:40:54.006378  7867 net.cpp:157] Top shape: 4 128 74 74 (2803712)
I0426 10:40:54.006381  7867 net.cpp:165] Memory required for data: 164139040
I0426 10:40:54.006384  7867 layer_factory.hpp:77] Creating layer pool3
I0426 10:40:54.006389  7867 net.cpp:100] Creating Layer pool3
I0426 10:40:54.006393  7867 net.cpp:434] pool3 <- fire3/concat
I0426 10:40:54.006398  7867 net.cpp:408] pool3 -> pool3
I0426 10:40:54.006428  7867 net.cpp:150] Setting up pool3
I0426 10:40:54.006433  7867 net.cpp:157] Top shape: 4 128 37 37 (700928)
I0426 10:40:54.006436  7867 net.cpp:165] Memory required for data: 166942752
I0426 10:40:54.006440  7867 layer_factory.hpp:77] Creating layer fire4/squeeze1x1
I0426 10:40:54.006448  7867 net.cpp:100] Creating Layer fire4/squeeze1x1
I0426 10:40:54.006451  7867 net.cpp:434] fire4/squeeze1x1 <- pool3
I0426 10:40:54.006455  7867 net.cpp:408] fire4/squeeze1x1 -> fire4/squeeze1x1
I0426 10:40:54.007848  7867 net.cpp:150] Setting up fire4/squeeze1x1
I0426 10:40:54.007859  7867 net.cpp:157] Top shape: 4 32 37 37 (175232)
I0426 10:40:54.007863  7867 net.cpp:165] Memory required for data: 167643680
I0426 10:40:54.007869  7867 layer_factory.hpp:77] Creating layer fire4/relu_squeeze1x1
I0426 10:40:54.007876  7867 net.cpp:100] Creating Layer fire4/relu_squeeze1x1
I0426 10:40:54.007881  7867 net.cpp:434] fire4/relu_squeeze1x1 <- fire4/squeeze1x1
I0426 10:40:54.007886  7867 net.cpp:395] fire4/relu_squeeze1x1 -> fire4/squeeze1x1 (in-place)
I0426 10:40:54.008211  7867 net.cpp:150] Setting up fire4/relu_squeeze1x1
I0426 10:40:54.008222  7867 net.cpp:157] Top shape: 4 32 37 37 (175232)
I0426 10:40:54.008226  7867 net.cpp:165] Memory required for data: 168344608
I0426 10:40:54.008230  7867 layer_factory.hpp:77] Creating layer fire4/squeeze1x1_fire4/relu_squeeze1x1_0_split
I0426 10:40:54.008237  7867 net.cpp:100] Creating Layer fire4/squeeze1x1_fire4/relu_squeeze1x1_0_split
I0426 10:40:54.008241  7867 net.cpp:434] fire4/squeeze1x1_fire4/relu_squeeze1x1_0_split <- fire4/squeeze1x1
I0426 10:40:54.008247  7867 net.cpp:408] fire4/squeeze1x1_fire4/relu_squeeze1x1_0_split -> fire4/squeeze1x1_fire4/relu_squeeze1x1_0_split_0
I0426 10:40:54.008255  7867 net.cpp:408] fire4/squeeze1x1_fire4/relu_squeeze1x1_0_split -> fire4/squeeze1x1_fire4/relu_squeeze1x1_0_split_1
I0426 10:40:54.008292  7867 net.cpp:150] Setting up fire4/squeeze1x1_fire4/relu_squeeze1x1_0_split
I0426 10:40:54.008298  7867 net.cpp:157] Top shape: 4 32 37 37 (175232)
I0426 10:40:54.008302  7867 net.cpp:157] Top shape: 4 32 37 37 (175232)
I0426 10:40:54.008306  7867 net.cpp:165] Memory required for data: 169746464
I0426 10:40:54.008311  7867 layer_factory.hpp:77] Creating layer fire4/expand1x1
I0426 10:40:54.008316  7867 net.cpp:100] Creating Layer fire4/expand1x1
I0426 10:40:54.008322  7867 net.cpp:434] fire4/expand1x1 <- fire4/squeeze1x1_fire4/relu_squeeze1x1_0_split_0
I0426 10:40:54.008327  7867 net.cpp:408] fire4/expand1x1 -> fire4/expand1x1
I0426 10:40:54.009357  7867 net.cpp:150] Setting up fire4/expand1x1
I0426 10:40:54.009372  7867 net.cpp:157] Top shape: 4 128 37 37 (700928)
I0426 10:40:54.009377  7867 net.cpp:165] Memory required for data: 172550176
I0426 10:40:54.009387  7867 layer_factory.hpp:77] Creating layer fire4/relu_expand1x1
I0426 10:40:54.009393  7867 net.cpp:100] Creating Layer fire4/relu_expand1x1
I0426 10:40:54.009398  7867 net.cpp:434] fire4/relu_expand1x1 <- fire4/expand1x1
I0426 10:40:54.009403  7867 net.cpp:395] fire4/relu_expand1x1 -> fire4/expand1x1 (in-place)
I0426 10:40:54.009548  7867 net.cpp:150] Setting up fire4/relu_expand1x1
I0426 10:40:54.009557  7867 net.cpp:157] Top shape: 4 128 37 37 (700928)
I0426 10:40:54.009560  7867 net.cpp:165] Memory required for data: 175353888
I0426 10:40:54.009564  7867 layer_factory.hpp:77] Creating layer fire4/expand3x3
I0426 10:40:54.009572  7867 net.cpp:100] Creating Layer fire4/expand3x3
I0426 10:40:54.009577  7867 net.cpp:434] fire4/expand3x3 <- fire4/squeeze1x1_fire4/relu_squeeze1x1_0_split_1
I0426 10:40:54.009583  7867 net.cpp:408] fire4/expand3x3 -> fire4/expand3x3
I0426 10:40:54.011482  7867 net.cpp:150] Setting up fire4/expand3x3
I0426 10:40:54.011505  7867 net.cpp:157] Top shape: 4 128 37 37 (700928)
I0426 10:40:54.011509  7867 net.cpp:165] Memory required for data: 178157600
I0426 10:40:54.011521  7867 layer_factory.hpp:77] Creating layer fire4/relu_expand3x3
I0426 10:40:54.011531  7867 net.cpp:100] Creating Layer fire4/relu_expand3x3
I0426 10:40:54.011538  7867 net.cpp:434] fire4/relu_expand3x3 <- fire4/expand3x3
I0426 10:40:54.011543  7867 net.cpp:395] fire4/relu_expand3x3 -> fire4/expand3x3 (in-place)
I0426 10:40:54.011893  7867 net.cpp:150] Setting up fire4/relu_expand3x3
I0426 10:40:54.011904  7867 net.cpp:157] Top shape: 4 128 37 37 (700928)
I0426 10:40:54.011917  7867 net.cpp:165] Memory required for data: 180961312
I0426 10:40:54.011922  7867 layer_factory.hpp:77] Creating layer fire4/concat
I0426 10:40:54.011929  7867 net.cpp:100] Creating Layer fire4/concat
I0426 10:40:54.011934  7867 net.cpp:434] fire4/concat <- fire4/expand1x1
I0426 10:40:54.011968  7867 net.cpp:434] fire4/concat <- fire4/expand3x3
I0426 10:40:54.011984  7867 net.cpp:408] fire4/concat -> fire4/concat
I0426 10:40:54.012009  7867 net.cpp:150] Setting up fire4/concat
I0426 10:40:54.012025  7867 net.cpp:157] Top shape: 4 256 37 37 (1401856)
I0426 10:40:54.012038  7867 net.cpp:165] Memory required for data: 186568736
I0426 10:40:54.012043  7867 layer_factory.hpp:77] Creating layer fire5/squeeze1x1
I0426 10:40:54.012058  7867 net.cpp:100] Creating Layer fire5/squeeze1x1
I0426 10:40:54.012061  7867 net.cpp:434] fire5/squeeze1x1 <- fire4/concat
I0426 10:40:54.012066  7867 net.cpp:408] fire5/squeeze1x1 -> fire5/squeeze1x1
I0426 10:40:54.013120  7867 net.cpp:150] Setting up fire5/squeeze1x1
I0426 10:40:54.013135  7867 net.cpp:157] Top shape: 4 32 37 37 (175232)
I0426 10:40:54.013140  7867 net.cpp:165] Memory required for data: 187269664
I0426 10:40:54.013157  7867 layer_factory.hpp:77] Creating layer fire5/relu_squeeze1x1
I0426 10:40:54.013164  7867 net.cpp:100] Creating Layer fire5/relu_squeeze1x1
I0426 10:40:54.013168  7867 net.cpp:434] fire5/relu_squeeze1x1 <- fire5/squeeze1x1
I0426 10:40:54.013175  7867 net.cpp:395] fire5/relu_squeeze1x1 -> fire5/squeeze1x1 (in-place)
I0426 10:40:54.013542  7867 net.cpp:150] Setting up fire5/relu_squeeze1x1
I0426 10:40:54.013553  7867 net.cpp:157] Top shape: 4 32 37 37 (175232)
I0426 10:40:54.013566  7867 net.cpp:165] Memory required for data: 187970592
I0426 10:40:54.013571  7867 layer_factory.hpp:77] Creating layer fire5/squeeze1x1_fire5/relu_squeeze1x1_0_split
I0426 10:40:54.013586  7867 net.cpp:100] Creating Layer fire5/squeeze1x1_fire5/relu_squeeze1x1_0_split
I0426 10:40:54.013589  7867 net.cpp:434] fire5/squeeze1x1_fire5/relu_squeeze1x1_0_split <- fire5/squeeze1x1
I0426 10:40:54.013595  7867 net.cpp:408] fire5/squeeze1x1_fire5/relu_squeeze1x1_0_split -> fire5/squeeze1x1_fire5/relu_squeeze1x1_0_split_0
I0426 10:40:54.013603  7867 net.cpp:408] fire5/squeeze1x1_fire5/relu_squeeze1x1_0_split -> fire5/squeeze1x1_fire5/relu_squeeze1x1_0_split_1
I0426 10:40:54.013645  7867 net.cpp:150] Setting up fire5/squeeze1x1_fire5/relu_squeeze1x1_0_split
I0426 10:40:54.013651  7867 net.cpp:157] Top shape: 4 32 37 37 (175232)
I0426 10:40:54.013656  7867 net.cpp:157] Top shape: 4 32 37 37 (175232)
I0426 10:40:54.013660  7867 net.cpp:165] Memory required for data: 189372448
I0426 10:40:54.013664  7867 layer_factory.hpp:77] Creating layer fire5/expand1x1
I0426 10:40:54.013674  7867 net.cpp:100] Creating Layer fire5/expand1x1
I0426 10:40:54.013679  7867 net.cpp:434] fire5/expand1x1 <- fire5/squeeze1x1_fire5/relu_squeeze1x1_0_split_0
I0426 10:40:54.013684  7867 net.cpp:408] fire5/expand1x1 -> fire5/expand1x1
I0426 10:40:54.015027  7867 net.cpp:150] Setting up fire5/expand1x1
I0426 10:40:54.015048  7867 net.cpp:157] Top shape: 4 128 37 37 (700928)
I0426 10:40:54.015051  7867 net.cpp:165] Memory required for data: 192176160
I0426 10:40:54.015060  7867 layer_factory.hpp:77] Creating layer fire5/expand1x1/bn
I0426 10:40:54.015069  7867 net.cpp:100] Creating Layer fire5/expand1x1/bn
I0426 10:40:54.015074  7867 net.cpp:434] fire5/expand1x1/bn <- fire5/expand1x1
I0426 10:40:54.015079  7867 net.cpp:395] fire5/expand1x1/bn -> fire5/expand1x1 (in-place)
I0426 10:40:54.015236  7867 net.cpp:150] Setting up fire5/expand1x1/bn
I0426 10:40:54.015244  7867 net.cpp:157] Top shape: 4 128 37 37 (700928)
I0426 10:40:54.015247  7867 net.cpp:165] Memory required for data: 194979872
I0426 10:40:54.015254  7867 layer_factory.hpp:77] Creating layer fire5/expand1x1/scale
I0426 10:40:54.015262  7867 net.cpp:100] Creating Layer fire5/expand1x1/scale
I0426 10:40:54.015266  7867 net.cpp:434] fire5/expand1x1/scale <- fire5/expand1x1
I0426 10:40:54.015271  7867 net.cpp:395] fire5/expand1x1/scale -> fire5/expand1x1 (in-place)
I0426 10:40:54.015310  7867 layer_factory.hpp:77] Creating layer fire5/expand1x1/scale
I0426 10:40:54.015413  7867 net.cpp:150] Setting up fire5/expand1x1/scale
I0426 10:40:54.015419  7867 net.cpp:157] Top shape: 4 128 37 37 (700928)
I0426 10:40:54.015444  7867 net.cpp:165] Memory required for data: 197783584
I0426 10:40:54.015453  7867 layer_factory.hpp:77] Creating layer fire5/relu_expand1x1
I0426 10:40:54.015466  7867 net.cpp:100] Creating Layer fire5/relu_expand1x1
I0426 10:40:54.015471  7867 net.cpp:434] fire5/relu_expand1x1 <- fire5/expand1x1
I0426 10:40:54.015476  7867 net.cpp:395] fire5/relu_expand1x1 -> fire5/expand1x1 (in-place)
I0426 10:40:54.015630  7867 net.cpp:150] Setting up fire5/relu_expand1x1
I0426 10:40:54.015638  7867 net.cpp:157] Top shape: 4 128 37 37 (700928)
I0426 10:40:54.015642  7867 net.cpp:165] Memory required for data: 200587296
I0426 10:40:54.015646  7867 layer_factory.hpp:77] Creating layer fire5/expand3x3
I0426 10:40:54.015655  7867 net.cpp:100] Creating Layer fire5/expand3x3
I0426 10:40:54.015660  7867 net.cpp:434] fire5/expand3x3 <- fire5/squeeze1x1_fire5/relu_squeeze1x1_0_split_1
I0426 10:40:54.015666  7867 net.cpp:408] fire5/expand3x3 -> fire5/expand3x3
I0426 10:40:54.016949  7867 net.cpp:150] Setting up fire5/expand3x3
I0426 10:40:54.016961  7867 net.cpp:157] Top shape: 4 128 37 37 (700928)
I0426 10:40:54.016964  7867 net.cpp:165] Memory required for data: 203391008
I0426 10:40:54.016969  7867 layer_factory.hpp:77] Creating layer fire5/expand3x3/bn
I0426 10:40:54.016976  7867 net.cpp:100] Creating Layer fire5/expand3x3/bn
I0426 10:40:54.016980  7867 net.cpp:434] fire5/expand3x3/bn <- fire5/expand3x3
I0426 10:40:54.016985  7867 net.cpp:395] fire5/expand3x3/bn -> fire5/expand3x3 (in-place)
I0426 10:40:54.017135  7867 net.cpp:150] Setting up fire5/expand3x3/bn
I0426 10:40:54.017141  7867 net.cpp:157] Top shape: 4 128 37 37 (700928)
I0426 10:40:54.017144  7867 net.cpp:165] Memory required for data: 206194720
I0426 10:40:54.017150  7867 layer_factory.hpp:77] Creating layer fire5/expand3x3/scale
I0426 10:40:54.017155  7867 net.cpp:100] Creating Layer fire5/expand3x3/scale
I0426 10:40:54.017160  7867 net.cpp:434] fire5/expand3x3/scale <- fire5/expand3x3
I0426 10:40:54.017165  7867 net.cpp:395] fire5/expand3x3/scale -> fire5/expand3x3 (in-place)
I0426 10:40:54.017200  7867 layer_factory.hpp:77] Creating layer fire5/expand3x3/scale
I0426 10:40:54.017287  7867 net.cpp:150] Setting up fire5/expand3x3/scale
I0426 10:40:54.017294  7867 net.cpp:157] Top shape: 4 128 37 37 (700928)
I0426 10:40:54.017298  7867 net.cpp:165] Memory required for data: 208998432
I0426 10:40:54.017303  7867 layer_factory.hpp:77] Creating layer fire5/relu_expand3x3
I0426 10:40:54.017313  7867 net.cpp:100] Creating Layer fire5/relu_expand3x3
I0426 10:40:54.017318  7867 net.cpp:434] fire5/relu_expand3x3 <- fire5/expand3x3
I0426 10:40:54.017323  7867 net.cpp:395] fire5/relu_expand3x3 -> fire5/expand3x3 (in-place)
I0426 10:40:54.017673  7867 net.cpp:150] Setting up fire5/relu_expand3x3
I0426 10:40:54.017683  7867 net.cpp:157] Top shape: 4 128 37 37 (700928)
I0426 10:40:54.017686  7867 net.cpp:165] Memory required for data: 211802144
I0426 10:40:54.017691  7867 layer_factory.hpp:77] Creating layer fire5/concat
I0426 10:40:54.017698  7867 net.cpp:100] Creating Layer fire5/concat
I0426 10:40:54.017701  7867 net.cpp:434] fire5/concat <- fire5/expand1x1
I0426 10:40:54.017706  7867 net.cpp:434] fire5/concat <- fire5/expand3x3
I0426 10:40:54.017712  7867 net.cpp:408] fire5/concat -> fire5/concat
I0426 10:40:54.017735  7867 net.cpp:150] Setting up fire5/concat
I0426 10:40:54.017741  7867 net.cpp:157] Top shape: 4 256 37 37 (1401856)
I0426 10:40:54.017745  7867 net.cpp:165] Memory required for data: 217409568
I0426 10:40:54.017748  7867 layer_factory.hpp:77] Creating layer fire5/concat_fire5/concat_0_split
I0426 10:40:54.017755  7867 net.cpp:100] Creating Layer fire5/concat_fire5/concat_0_split
I0426 10:40:54.017758  7867 net.cpp:434] fire5/concat_fire5/concat_0_split <- fire5/concat
I0426 10:40:54.017765  7867 net.cpp:408] fire5/concat_fire5/concat_0_split -> fire5/concat_fire5/concat_0_split_0
I0426 10:40:54.017771  7867 net.cpp:408] fire5/concat_fire5/concat_0_split -> fire5/concat_fire5/concat_0_split_1
I0426 10:40:54.017776  7867 net.cpp:408] fire5/concat_fire5/concat_0_split -> fire5/concat_fire5/concat_0_split_2
I0426 10:40:54.017791  7867 net.cpp:408] fire5/concat_fire5/concat_0_split -> fire5/concat_fire5/concat_0_split_3
I0426 10:40:54.017840  7867 net.cpp:150] Setting up fire5/concat_fire5/concat_0_split
I0426 10:40:54.017846  7867 net.cpp:157] Top shape: 4 256 37 37 (1401856)
I0426 10:40:54.017850  7867 net.cpp:157] Top shape: 4 256 37 37 (1401856)
I0426 10:40:54.017855  7867 net.cpp:157] Top shape: 4 256 37 37 (1401856)
I0426 10:40:54.017859  7867 net.cpp:157] Top shape: 4 256 37 37 (1401856)
I0426 10:40:54.017863  7867 net.cpp:165] Memory required for data: 239839264
I0426 10:40:54.017868  7867 layer_factory.hpp:77] Creating layer pool5
I0426 10:40:54.017874  7867 net.cpp:100] Creating Layer pool5
I0426 10:40:54.017879  7867 net.cpp:434] pool5 <- fire5/concat_fire5/concat_0_split_0
I0426 10:40:54.017884  7867 net.cpp:408] pool5 -> pool5
I0426 10:40:54.017910  7867 net.cpp:150] Setting up pool5
I0426 10:40:54.017916  7867 net.cpp:157] Top shape: 4 256 18 18 (331776)
I0426 10:40:54.017920  7867 net.cpp:165] Memory required for data: 241166368
I0426 10:40:54.017923  7867 layer_factory.hpp:77] Creating layer fire6/squeeze1x1
I0426 10:40:54.017930  7867 net.cpp:100] Creating Layer fire6/squeeze1x1
I0426 10:40:54.017935  7867 net.cpp:434] fire6/squeeze1x1 <- pool5
I0426 10:40:54.017940  7867 net.cpp:408] fire6/squeeze1x1 -> fire6/squeeze1x1
I0426 10:40:54.019039  7867 net.cpp:150] Setting up fire6/squeeze1x1
I0426 10:40:54.019052  7867 net.cpp:157] Top shape: 4 48 18 18 (62208)
I0426 10:40:54.019057  7867 net.cpp:165] Memory required for data: 241415200
I0426 10:40:54.019062  7867 layer_factory.hpp:77] Creating layer fire6/relu_squeeze1x1
I0426 10:40:54.019076  7867 net.cpp:100] Creating Layer fire6/relu_squeeze1x1
I0426 10:40:54.019081  7867 net.cpp:434] fire6/relu_squeeze1x1 <- fire6/squeeze1x1
I0426 10:40:54.019086  7867 net.cpp:395] fire6/relu_squeeze1x1 -> fire6/squeeze1x1 (in-place)
I0426 10:40:54.019220  7867 net.cpp:150] Setting up fire6/relu_squeeze1x1
I0426 10:40:54.019228  7867 net.cpp:157] Top shape: 4 48 18 18 (62208)
I0426 10:40:54.019232  7867 net.cpp:165] Memory required for data: 241664032
I0426 10:40:54.019235  7867 layer_factory.hpp:77] Creating layer fire6/squeeze1x1_fire6/relu_squeeze1x1_0_split
I0426 10:40:54.019242  7867 net.cpp:100] Creating Layer fire6/squeeze1x1_fire6/relu_squeeze1x1_0_split
I0426 10:40:54.019246  7867 net.cpp:434] fire6/squeeze1x1_fire6/relu_squeeze1x1_0_split <- fire6/squeeze1x1
I0426 10:40:54.019251  7867 net.cpp:408] fire6/squeeze1x1_fire6/relu_squeeze1x1_0_split -> fire6/squeeze1x1_fire6/relu_squeeze1x1_0_split_0
I0426 10:40:54.019258  7867 net.cpp:408] fire6/squeeze1x1_fire6/relu_squeeze1x1_0_split -> fire6/squeeze1x1_fire6/relu_squeeze1x1_0_split_1
I0426 10:40:54.019289  7867 net.cpp:150] Setting up fire6/squeeze1x1_fire6/relu_squeeze1x1_0_split
I0426 10:40:54.019294  7867 net.cpp:157] Top shape: 4 48 18 18 (62208)
I0426 10:40:54.019299  7867 net.cpp:157] Top shape: 4 48 18 18 (62208)
I0426 10:40:54.019301  7867 net.cpp:165] Memory required for data: 242161696
I0426 10:40:54.019305  7867 layer_factory.hpp:77] Creating layer fire6/expand1x1
I0426 10:40:54.019312  7867 net.cpp:100] Creating Layer fire6/expand1x1
I0426 10:40:54.019316  7867 net.cpp:434] fire6/expand1x1 <- fire6/squeeze1x1_fire6/relu_squeeze1x1_0_split_0
I0426 10:40:54.019321  7867 net.cpp:408] fire6/expand1x1 -> fire6/expand1x1
I0426 10:40:54.020346  7867 net.cpp:150] Setting up fire6/expand1x1
I0426 10:40:54.020357  7867 net.cpp:157] Top shape: 4 192 18 18 (248832)
I0426 10:40:54.020362  7867 net.cpp:165] Memory required for data: 243157024
I0426 10:40:54.020367  7867 layer_factory.hpp:77] Creating layer fire6/relu_expand1x1
I0426 10:40:54.020373  7867 net.cpp:100] Creating Layer fire6/relu_expand1x1
I0426 10:40:54.020378  7867 net.cpp:434] fire6/relu_expand1x1 <- fire6/expand1x1
I0426 10:40:54.020383  7867 net.cpp:395] fire6/relu_expand1x1 -> fire6/expand1x1 (in-place)
I0426 10:40:54.020725  7867 net.cpp:150] Setting up fire6/relu_expand1x1
I0426 10:40:54.020746  7867 net.cpp:157] Top shape: 4 192 18 18 (248832)
I0426 10:40:54.020751  7867 net.cpp:165] Memory required for data: 244152352
I0426 10:40:54.020756  7867 layer_factory.hpp:77] Creating layer fire6/expand3x3
I0426 10:40:54.020762  7867 net.cpp:100] Creating Layer fire6/expand3x3
I0426 10:40:54.020767  7867 net.cpp:434] fire6/expand3x3 <- fire6/squeeze1x1_fire6/relu_squeeze1x1_0_split_1
I0426 10:40:54.020773  7867 net.cpp:408] fire6/expand3x3 -> fire6/expand3x3
I0426 10:40:54.023319  7867 net.cpp:150] Setting up fire6/expand3x3
I0426 10:40:54.023334  7867 net.cpp:157] Top shape: 4 192 18 18 (248832)
I0426 10:40:54.023337  7867 net.cpp:165] Memory required for data: 245147680
I0426 10:40:54.023344  7867 layer_factory.hpp:77] Creating layer fire6/relu_expand3x3
I0426 10:40:54.023350  7867 net.cpp:100] Creating Layer fire6/relu_expand3x3
I0426 10:40:54.023355  7867 net.cpp:434] fire6/relu_expand3x3 <- fire6/expand3x3
I0426 10:40:54.023360  7867 net.cpp:395] fire6/relu_expand3x3 -> fire6/expand3x3 (in-place)
I0426 10:40:54.023713  7867 net.cpp:150] Setting up fire6/relu_expand3x3
I0426 10:40:54.023723  7867 net.cpp:157] Top shape: 4 192 18 18 (248832)
I0426 10:40:54.023727  7867 net.cpp:165] Memory required for data: 246143008
I0426 10:40:54.023731  7867 layer_factory.hpp:77] Creating layer fire6/concat
I0426 10:40:54.023738  7867 net.cpp:100] Creating Layer fire6/concat
I0426 10:40:54.023742  7867 net.cpp:434] fire6/concat <- fire6/expand1x1
I0426 10:40:54.023747  7867 net.cpp:434] fire6/concat <- fire6/expand3x3
I0426 10:40:54.023752  7867 net.cpp:408] fire6/concat -> fire6/concat
I0426 10:40:54.023777  7867 net.cpp:150] Setting up fire6/concat
I0426 10:40:54.023782  7867 net.cpp:157] Top shape: 4 384 18 18 (497664)
I0426 10:40:54.023787  7867 net.cpp:165] Memory required for data: 248133664
I0426 10:40:54.023790  7867 layer_factory.hpp:77] Creating layer fire7/squeeze1x1
I0426 10:40:54.023797  7867 net.cpp:100] Creating Layer fire7/squeeze1x1
I0426 10:40:54.023802  7867 net.cpp:434] fire7/squeeze1x1 <- fire6/concat
I0426 10:40:54.023807  7867 net.cpp:408] fire7/squeeze1x1 -> fire7/squeeze1x1
I0426 10:40:54.025132  7867 net.cpp:150] Setting up fire7/squeeze1x1
I0426 10:40:54.025147  7867 net.cpp:157] Top shape: 4 48 18 18 (62208)
I0426 10:40:54.025151  7867 net.cpp:165] Memory required for data: 248382496
I0426 10:40:54.025161  7867 layer_factory.hpp:77] Creating layer fire7/relu_squeeze1x1
I0426 10:40:54.025167  7867 net.cpp:100] Creating Layer fire7/relu_squeeze1x1
I0426 10:40:54.025172  7867 net.cpp:434] fire7/relu_squeeze1x1 <- fire7/squeeze1x1
I0426 10:40:54.025178  7867 net.cpp:395] fire7/relu_squeeze1x1 -> fire7/squeeze1x1 (in-place)
I0426 10:40:54.025341  7867 net.cpp:150] Setting up fire7/relu_squeeze1x1
I0426 10:40:54.025349  7867 net.cpp:157] Top shape: 4 48 18 18 (62208)
I0426 10:40:54.025352  7867 net.cpp:165] Memory required for data: 248631328
I0426 10:40:54.025369  7867 layer_factory.hpp:77] Creating layer fire7/squeeze1x1_fire7/relu_squeeze1x1_0_split
I0426 10:40:54.025377  7867 net.cpp:100] Creating Layer fire7/squeeze1x1_fire7/relu_squeeze1x1_0_split
I0426 10:40:54.025382  7867 net.cpp:434] fire7/squeeze1x1_fire7/relu_squeeze1x1_0_split <- fire7/squeeze1x1
I0426 10:40:54.025387  7867 net.cpp:408] fire7/squeeze1x1_fire7/relu_squeeze1x1_0_split -> fire7/squeeze1x1_fire7/relu_squeeze1x1_0_split_0
I0426 10:40:54.025393  7867 net.cpp:408] fire7/squeeze1x1_fire7/relu_squeeze1x1_0_split -> fire7/squeeze1x1_fire7/relu_squeeze1x1_0_split_1
I0426 10:40:54.025441  7867 net.cpp:150] Setting up fire7/squeeze1x1_fire7/relu_squeeze1x1_0_split
I0426 10:40:54.025447  7867 net.cpp:157] Top shape: 4 48 18 18 (62208)
I0426 10:40:54.025465  7867 net.cpp:157] Top shape: 4 48 18 18 (62208)
I0426 10:40:54.025467  7867 net.cpp:165] Memory required for data: 249128992
I0426 10:40:54.025471  7867 layer_factory.hpp:77] Creating layer fire7/expand1x1
I0426 10:40:54.025480  7867 net.cpp:100] Creating Layer fire7/expand1x1
I0426 10:40:54.025485  7867 net.cpp:434] fire7/expand1x1 <- fire7/squeeze1x1_fire7/relu_squeeze1x1_0_split_0
I0426 10:40:54.025509  7867 net.cpp:408] fire7/expand1x1 -> fire7/expand1x1
I0426 10:40:54.026607  7867 net.cpp:150] Setting up fire7/expand1x1
I0426 10:40:54.026621  7867 net.cpp:157] Top shape: 4 192 18 18 (248832)
I0426 10:40:54.026625  7867 net.cpp:165] Memory required for data: 250124320
I0426 10:40:54.026633  7867 layer_factory.hpp:77] Creating layer fire7/relu_expand1x1
I0426 10:40:54.026639  7867 net.cpp:100] Creating Layer fire7/relu_expand1x1
I0426 10:40:54.026644  7867 net.cpp:434] fire7/relu_expand1x1 <- fire7/expand1x1
I0426 10:40:54.026649  7867 net.cpp:395] fire7/relu_expand1x1 -> fire7/expand1x1 (in-place)
I0426 10:40:54.027022  7867 net.cpp:150] Setting up fire7/relu_expand1x1
I0426 10:40:54.027034  7867 net.cpp:157] Top shape: 4 192 18 18 (248832)
I0426 10:40:54.027037  7867 net.cpp:165] Memory required for data: 251119648
I0426 10:40:54.027041  7867 layer_factory.hpp:77] Creating layer fire7/expand3x3
I0426 10:40:54.027051  7867 net.cpp:100] Creating Layer fire7/expand3x3
I0426 10:40:54.027056  7867 net.cpp:434] fire7/expand3x3 <- fire7/squeeze1x1_fire7/relu_squeeze1x1_0_split_1
I0426 10:40:54.027062  7867 net.cpp:408] fire7/expand3x3 -> fire7/expand3x3
I0426 10:40:54.029109  7867 net.cpp:150] Setting up fire7/expand3x3
I0426 10:40:54.029137  7867 net.cpp:157] Top shape: 4 192 18 18 (248832)
I0426 10:40:54.029142  7867 net.cpp:165] Memory required for data: 252114976
I0426 10:40:54.029155  7867 layer_factory.hpp:77] Creating layer fire7/relu_expand3x3
I0426 10:40:54.029162  7867 net.cpp:100] Creating Layer fire7/relu_expand3x3
I0426 10:40:54.029167  7867 net.cpp:434] fire7/relu_expand3x3 <- fire7/expand3x3
I0426 10:40:54.029175  7867 net.cpp:395] fire7/relu_expand3x3 -> fire7/expand3x3 (in-place)
I0426 10:40:54.029325  7867 net.cpp:150] Setting up fire7/relu_expand3x3
I0426 10:40:54.029332  7867 net.cpp:157] Top shape: 4 192 18 18 (248832)
I0426 10:40:54.029345  7867 net.cpp:165] Memory required for data: 253110304
I0426 10:40:54.029350  7867 layer_factory.hpp:77] Creating layer fire7/concat
I0426 10:40:54.029356  7867 net.cpp:100] Creating Layer fire7/concat
I0426 10:40:54.029361  7867 net.cpp:434] fire7/concat <- fire7/expand1x1
I0426 10:40:54.029366  7867 net.cpp:434] fire7/concat <- fire7/expand3x3
I0426 10:40:54.029369  7867 net.cpp:408] fire7/concat -> fire7/concat
I0426 10:40:54.029402  7867 net.cpp:150] Setting up fire7/concat
I0426 10:40:54.029407  7867 net.cpp:157] Top shape: 4 384 18 18 (497664)
I0426 10:40:54.029410  7867 net.cpp:165] Memory required for data: 255100960
I0426 10:40:54.029414  7867 layer_factory.hpp:77] Creating layer fire8/squeeze1x1
I0426 10:40:54.029426  7867 net.cpp:100] Creating Layer fire8/squeeze1x1
I0426 10:40:54.029431  7867 net.cpp:434] fire8/squeeze1x1 <- fire7/concat
I0426 10:40:54.029436  7867 net.cpp:408] fire8/squeeze1x1 -> fire8/squeeze1x1
I0426 10:40:54.030783  7867 net.cpp:150] Setting up fire8/squeeze1x1
I0426 10:40:54.030795  7867 net.cpp:157] Top shape: 4 64 18 18 (82944)
I0426 10:40:54.030799  7867 net.cpp:165] Memory required for data: 255432736
I0426 10:40:54.030807  7867 layer_factory.hpp:77] Creating layer fire8/relu_squeeze1x1
I0426 10:40:54.030813  7867 net.cpp:100] Creating Layer fire8/relu_squeeze1x1
I0426 10:40:54.030818  7867 net.cpp:434] fire8/relu_squeeze1x1 <- fire8/squeeze1x1
I0426 10:40:54.030823  7867 net.cpp:395] fire8/relu_squeeze1x1 -> fire8/squeeze1x1 (in-place)
I0426 10:40:54.031168  7867 net.cpp:150] Setting up fire8/relu_squeeze1x1
I0426 10:40:54.031180  7867 net.cpp:157] Top shape: 4 64 18 18 (82944)
I0426 10:40:54.031183  7867 net.cpp:165] Memory required for data: 255764512
I0426 10:40:54.031188  7867 layer_factory.hpp:77] Creating layer fire8/squeeze1x1_fire8/relu_squeeze1x1_0_split
I0426 10:40:54.031194  7867 net.cpp:100] Creating Layer fire8/squeeze1x1_fire8/relu_squeeze1x1_0_split
I0426 10:40:54.031199  7867 net.cpp:434] fire8/squeeze1x1_fire8/relu_squeeze1x1_0_split <- fire8/squeeze1x1
I0426 10:40:54.031204  7867 net.cpp:408] fire8/squeeze1x1_fire8/relu_squeeze1x1_0_split -> fire8/squeeze1x1_fire8/relu_squeeze1x1_0_split_0
I0426 10:40:54.031231  7867 net.cpp:408] fire8/squeeze1x1_fire8/relu_squeeze1x1_0_split -> fire8/squeeze1x1_fire8/relu_squeeze1x1_0_split_1
I0426 10:40:54.031270  7867 net.cpp:150] Setting up fire8/squeeze1x1_fire8/relu_squeeze1x1_0_split
I0426 10:40:54.031275  7867 net.cpp:157] Top shape: 4 64 18 18 (82944)
I0426 10:40:54.031280  7867 net.cpp:157] Top shape: 4 64 18 18 (82944)
I0426 10:40:54.031283  7867 net.cpp:165] Memory required for data: 256428064
I0426 10:40:54.031287  7867 layer_factory.hpp:77] Creating layer fire8/expand1x1
I0426 10:40:54.031293  7867 net.cpp:100] Creating Layer fire8/expand1x1
I0426 10:40:54.031298  7867 net.cpp:434] fire8/expand1x1 <- fire8/squeeze1x1_fire8/relu_squeeze1x1_0_split_0
I0426 10:40:54.031303  7867 net.cpp:408] fire8/expand1x1 -> fire8/expand1x1
I0426 10:40:54.032456  7867 net.cpp:150] Setting up fire8/expand1x1
I0426 10:40:54.032469  7867 net.cpp:157] Top shape: 4 256 18 18 (331776)
I0426 10:40:54.032471  7867 net.cpp:165] Memory required for data: 257755168
I0426 10:40:54.032477  7867 layer_factory.hpp:77] Creating layer fire8/relu_expand1x1
I0426 10:40:54.032490  7867 net.cpp:100] Creating Layer fire8/relu_expand1x1
I0426 10:40:54.032495  7867 net.cpp:434] fire8/relu_expand1x1 <- fire8/expand1x1
I0426 10:40:54.032501  7867 net.cpp:395] fire8/relu_expand1x1 -> fire8/expand1x1 (in-place)
I0426 10:40:54.032863  7867 net.cpp:150] Setting up fire8/relu_expand1x1
I0426 10:40:54.032874  7867 net.cpp:157] Top shape: 4 256 18 18 (331776)
I0426 10:40:54.032878  7867 net.cpp:165] Memory required for data: 259082272
I0426 10:40:54.032883  7867 layer_factory.hpp:77] Creating layer fire8/expand3x3
I0426 10:40:54.032891  7867 net.cpp:100] Creating Layer fire8/expand3x3
I0426 10:40:54.032896  7867 net.cpp:434] fire8/expand3x3 <- fire8/squeeze1x1_fire8/relu_squeeze1x1_0_split_1
I0426 10:40:54.032902  7867 net.cpp:408] fire8/expand3x3 -> fire8/expand3x3
I0426 10:40:54.035899  7867 net.cpp:150] Setting up fire8/expand3x3
I0426 10:40:54.035912  7867 net.cpp:157] Top shape: 4 256 18 18 (331776)
I0426 10:40:54.035917  7867 net.cpp:165] Memory required for data: 260409376
I0426 10:40:54.035924  7867 layer_factory.hpp:77] Creating layer fire8/relu_expand3x3
I0426 10:40:54.035930  7867 net.cpp:100] Creating Layer fire8/relu_expand3x3
I0426 10:40:54.035935  7867 net.cpp:434] fire8/relu_expand3x3 <- fire8/expand3x3
I0426 10:40:54.035940  7867 net.cpp:395] fire8/relu_expand3x3 -> fire8/expand3x3 (in-place)
I0426 10:40:54.036089  7867 net.cpp:150] Setting up fire8/relu_expand3x3
I0426 10:40:54.036098  7867 net.cpp:157] Top shape: 4 256 18 18 (331776)
I0426 10:40:54.036101  7867 net.cpp:165] Memory required for data: 261736480
I0426 10:40:54.036105  7867 layer_factory.hpp:77] Creating layer fire8/concat
I0426 10:40:54.036111  7867 net.cpp:100] Creating Layer fire8/concat
I0426 10:40:54.036115  7867 net.cpp:434] fire8/concat <- fire8/expand1x1
I0426 10:40:54.036120  7867 net.cpp:434] fire8/concat <- fire8/expand3x3
I0426 10:40:54.036125  7867 net.cpp:408] fire8/concat -> fire8/concat
I0426 10:40:54.036149  7867 net.cpp:150] Setting up fire8/concat
I0426 10:40:54.036155  7867 net.cpp:157] Top shape: 4 512 18 18 (663552)
I0426 10:40:54.036159  7867 net.cpp:165] Memory required for data: 264390688
I0426 10:40:54.036162  7867 layer_factory.hpp:77] Creating layer fire9/squeeze1x1
I0426 10:40:54.036170  7867 net.cpp:100] Creating Layer fire9/squeeze1x1
I0426 10:40:54.036175  7867 net.cpp:434] fire9/squeeze1x1 <- fire8/concat
I0426 10:40:54.036180  7867 net.cpp:408] fire9/squeeze1x1 -> fire9/squeeze1x1
I0426 10:40:54.037497  7867 net.cpp:150] Setting up fire9/squeeze1x1
I0426 10:40:54.037509  7867 net.cpp:157] Top shape: 4 64 18 18 (82944)
I0426 10:40:54.037514  7867 net.cpp:165] Memory required for data: 264722464
I0426 10:40:54.037524  7867 layer_factory.hpp:77] Creating layer fire9/relu_squeeze1x1
I0426 10:40:54.037531  7867 net.cpp:100] Creating Layer fire9/relu_squeeze1x1
I0426 10:40:54.037536  7867 net.cpp:434] fire9/relu_squeeze1x1 <- fire9/squeeze1x1
I0426 10:40:54.037541  7867 net.cpp:395] fire9/relu_squeeze1x1 -> fire9/squeeze1x1 (in-place)
I0426 10:40:54.037904  7867 net.cpp:150] Setting up fire9/relu_squeeze1x1
I0426 10:40:54.037914  7867 net.cpp:157] Top shape: 4 64 18 18 (82944)
I0426 10:40:54.037919  7867 net.cpp:165] Memory required for data: 265054240
I0426 10:40:54.037922  7867 layer_factory.hpp:77] Creating layer fire9/squeeze1x1_fire9/relu_squeeze1x1_0_split
I0426 10:40:54.037930  7867 net.cpp:100] Creating Layer fire9/squeeze1x1_fire9/relu_squeeze1x1_0_split
I0426 10:40:54.037935  7867 net.cpp:434] fire9/squeeze1x1_fire9/relu_squeeze1x1_0_split <- fire9/squeeze1x1
I0426 10:40:54.037940  7867 net.cpp:408] fire9/squeeze1x1_fire9/relu_squeeze1x1_0_split -> fire9/squeeze1x1_fire9/relu_squeeze1x1_0_split_0
I0426 10:40:54.037947  7867 net.cpp:408] fire9/squeeze1x1_fire9/relu_squeeze1x1_0_split -> fire9/squeeze1x1_fire9/relu_squeeze1x1_0_split_1
I0426 10:40:54.038138  7867 net.cpp:150] Setting up fire9/squeeze1x1_fire9/relu_squeeze1x1_0_split
I0426 10:40:54.038146  7867 net.cpp:157] Top shape: 4 64 18 18 (82944)
I0426 10:40:54.038151  7867 net.cpp:157] Top shape: 4 64 18 18 (82944)
I0426 10:40:54.038154  7867 net.cpp:165] Memory required for data: 265717792
I0426 10:40:54.038158  7867 layer_factory.hpp:77] Creating layer fire9/expand1x1
I0426 10:40:54.038166  7867 net.cpp:100] Creating Layer fire9/expand1x1
I0426 10:40:54.038170  7867 net.cpp:434] fire9/expand1x1 <- fire9/squeeze1x1_fire9/relu_squeeze1x1_0_split_0
I0426 10:40:54.038177  7867 net.cpp:408] fire9/expand1x1 -> fire9/expand1x1
I0426 10:40:54.039517  7867 net.cpp:150] Setting up fire9/expand1x1
I0426 10:40:54.039530  7867 net.cpp:157] Top shape: 4 256 18 18 (331776)
I0426 10:40:54.039533  7867 net.cpp:165] Memory required for data: 267044896
I0426 10:40:54.039541  7867 layer_factory.hpp:77] Creating layer fire9/expand1x1/bn
I0426 10:40:54.039547  7867 net.cpp:100] Creating Layer fire9/expand1x1/bn
I0426 10:40:54.039552  7867 net.cpp:434] fire9/expand1x1/bn <- fire9/expand1x1
I0426 10:40:54.039557  7867 net.cpp:395] fire9/expand1x1/bn -> fire9/expand1x1 (in-place)
I0426 10:40:54.039722  7867 net.cpp:150] Setting up fire9/expand1x1/bn
I0426 10:40:54.039729  7867 net.cpp:157] Top shape: 4 256 18 18 (331776)
I0426 10:40:54.039732  7867 net.cpp:165] Memory required for data: 268372000
I0426 10:40:54.039739  7867 layer_factory.hpp:77] Creating layer fire9/expand1x1/scale
I0426 10:40:54.039747  7867 net.cpp:100] Creating Layer fire9/expand1x1/scale
I0426 10:40:54.039752  7867 net.cpp:434] fire9/expand1x1/scale <- fire9/expand1x1
I0426 10:40:54.039757  7867 net.cpp:395] fire9/expand1x1/scale -> fire9/expand1x1 (in-place)
I0426 10:40:54.039796  7867 layer_factory.hpp:77] Creating layer fire9/expand1x1/scale
I0426 10:40:54.039892  7867 net.cpp:150] Setting up fire9/expand1x1/scale
I0426 10:40:54.039899  7867 net.cpp:157] Top shape: 4 256 18 18 (331776)
I0426 10:40:54.039903  7867 net.cpp:165] Memory required for data: 269699104
I0426 10:40:54.039909  7867 layer_factory.hpp:77] Creating layer fire9/relu_expand1x1
I0426 10:40:54.039914  7867 net.cpp:100] Creating Layer fire9/relu_expand1x1
I0426 10:40:54.039919  7867 net.cpp:434] fire9/relu_expand1x1 <- fire9/expand1x1
I0426 10:40:54.039923  7867 net.cpp:395] fire9/relu_expand1x1 -> fire9/expand1x1 (in-place)
I0426 10:40:54.040071  7867 net.cpp:150] Setting up fire9/relu_expand1x1
I0426 10:40:54.040081  7867 net.cpp:157] Top shape: 4 256 18 18 (331776)
I0426 10:40:54.040084  7867 net.cpp:165] Memory required for data: 271026208
I0426 10:40:54.040088  7867 layer_factory.hpp:77] Creating layer fire9/expand3x3
I0426 10:40:54.040096  7867 net.cpp:100] Creating Layer fire9/expand3x3
I0426 10:40:54.040100  7867 net.cpp:434] fire9/expand3x3 <- fire9/squeeze1x1_fire9/relu_squeeze1x1_0_split_1
I0426 10:40:54.040107  7867 net.cpp:408] fire9/expand3x3 -> fire9/expand3x3
I0426 10:40:54.043121  7867 net.cpp:150] Setting up fire9/expand3x3
I0426 10:40:54.043135  7867 net.cpp:157] Top shape: 4 256 18 18 (331776)
I0426 10:40:54.043139  7867 net.cpp:165] Memory required for data: 272353312
I0426 10:40:54.043144  7867 layer_factory.hpp:77] Creating layer fire9/expand3x3/bn
I0426 10:40:54.043169  7867 net.cpp:100] Creating Layer fire9/expand3x3/bn
I0426 10:40:54.043174  7867 net.cpp:434] fire9/expand3x3/bn <- fire9/expand3x3
I0426 10:40:54.043179  7867 net.cpp:395] fire9/expand3x3/bn -> fire9/expand3x3 (in-place)
I0426 10:40:54.043354  7867 net.cpp:150] Setting up fire9/expand3x3/bn
I0426 10:40:54.043361  7867 net.cpp:157] Top shape: 4 256 18 18 (331776)
I0426 10:40:54.043365  7867 net.cpp:165] Memory required for data: 273680416
I0426 10:40:54.043370  7867 layer_factory.hpp:77] Creating layer fire9/expand3x3/scale
I0426 10:40:54.043376  7867 net.cpp:100] Creating Layer fire9/expand3x3/scale
I0426 10:40:54.043381  7867 net.cpp:434] fire9/expand3x3/scale <- fire9/expand3x3
I0426 10:40:54.043386  7867 net.cpp:395] fire9/expand3x3/scale -> fire9/expand3x3 (in-place)
I0426 10:40:54.043418  7867 layer_factory.hpp:77] Creating layer fire9/expand3x3/scale
I0426 10:40:54.043514  7867 net.cpp:150] Setting up fire9/expand3x3/scale
I0426 10:40:54.043520  7867 net.cpp:157] Top shape: 4 256 18 18 (331776)
I0426 10:40:54.043524  7867 net.cpp:165] Memory required for data: 275007520
I0426 10:40:54.043530  7867 layer_factory.hpp:77] Creating layer fire9/relu_expand3x3
I0426 10:40:54.043536  7867 net.cpp:100] Creating Layer fire9/relu_expand3x3
I0426 10:40:54.043540  7867 net.cpp:434] fire9/relu_expand3x3 <- fire9/expand3x3
I0426 10:40:54.043545  7867 net.cpp:395] fire9/relu_expand3x3 -> fire9/expand3x3 (in-place)
I0426 10:40:54.043903  7867 net.cpp:150] Setting up fire9/relu_expand3x3
I0426 10:40:54.043915  7867 net.cpp:157] Top shape: 4 256 18 18 (331776)
I0426 10:40:54.043918  7867 net.cpp:165] Memory required for data: 276334624
I0426 10:40:54.043922  7867 layer_factory.hpp:77] Creating layer fire9/concat
I0426 10:40:54.043929  7867 net.cpp:100] Creating Layer fire9/concat
I0426 10:40:54.043933  7867 net.cpp:434] fire9/concat <- fire9/expand1x1
I0426 10:40:54.043938  7867 net.cpp:434] fire9/concat <- fire9/expand3x3
I0426 10:40:54.043943  7867 net.cpp:408] fire9/concat -> fire9/concat
I0426 10:40:54.043974  7867 net.cpp:150] Setting up fire9/concat
I0426 10:40:54.043980  7867 net.cpp:157] Top shape: 4 512 18 18 (663552)
I0426 10:40:54.043984  7867 net.cpp:165] Memory required for data: 278988832
I0426 10:40:54.043988  7867 layer_factory.hpp:77] Creating layer fire9/concat_fire9/concat_0_split
I0426 10:40:54.043994  7867 net.cpp:100] Creating Layer fire9/concat_fire9/concat_0_split
I0426 10:40:54.043998  7867 net.cpp:434] fire9/concat_fire9/concat_0_split <- fire9/concat
I0426 10:40:54.044003  7867 net.cpp:408] fire9/concat_fire9/concat_0_split -> fire9/concat_fire9/concat_0_split_0
I0426 10:40:54.044009  7867 net.cpp:408] fire9/concat_fire9/concat_0_split -> fire9/concat_fire9/concat_0_split_1
I0426 10:40:54.044015  7867 net.cpp:408] fire9/concat_fire9/concat_0_split -> fire9/concat_fire9/concat_0_split_2
I0426 10:40:54.044021  7867 net.cpp:408] fire9/concat_fire9/concat_0_split -> fire9/concat_fire9/concat_0_split_3
I0426 10:40:54.044076  7867 net.cpp:150] Setting up fire9/concat_fire9/concat_0_split
I0426 10:40:54.044082  7867 net.cpp:157] Top shape: 4 512 18 18 (663552)
I0426 10:40:54.044086  7867 net.cpp:157] Top shape: 4 512 18 18 (663552)
I0426 10:40:54.044091  7867 net.cpp:157] Top shape: 4 512 18 18 (663552)
I0426 10:40:54.044095  7867 net.cpp:157] Top shape: 4 512 18 18 (663552)
I0426 10:40:54.044100  7867 net.cpp:165] Memory required for data: 289605664
I0426 10:40:54.044103  7867 layer_factory.hpp:77] Creating layer pool9
I0426 10:40:54.044109  7867 net.cpp:100] Creating Layer pool9
I0426 10:40:54.044114  7867 net.cpp:434] pool9 <- fire9/concat_fire9/concat_0_split_0
I0426 10:40:54.044119  7867 net.cpp:408] pool9 -> pool9
I0426 10:40:54.044149  7867 net.cpp:150] Setting up pool9
I0426 10:40:54.044154  7867 net.cpp:157] Top shape: 4 512 9 9 (165888)
I0426 10:40:54.044158  7867 net.cpp:165] Memory required for data: 290269216
I0426 10:40:54.044162  7867 layer_factory.hpp:77] Creating layer fire10/squeeze1x1
I0426 10:40:54.044169  7867 net.cpp:100] Creating Layer fire10/squeeze1x1
I0426 10:40:54.044183  7867 net.cpp:434] fire10/squeeze1x1 <- pool9
I0426 10:40:54.044189  7867 net.cpp:408] fire10/squeeze1x1 -> fire10/squeeze1x1
I0426 10:40:54.045639  7867 net.cpp:150] Setting up fire10/squeeze1x1
I0426 10:40:54.045650  7867 net.cpp:157] Top shape: 4 96 9 9 (31104)
I0426 10:40:54.045655  7867 net.cpp:165] Memory required for data: 290393632
I0426 10:40:54.045660  7867 layer_factory.hpp:77] Creating layer fire10/squeeze1x1/bn
I0426 10:40:54.045667  7867 net.cpp:100] Creating Layer fire10/squeeze1x1/bn
I0426 10:40:54.045671  7867 net.cpp:434] fire10/squeeze1x1/bn <- fire10/squeeze1x1
I0426 10:40:54.045676  7867 net.cpp:395] fire10/squeeze1x1/bn -> fire10/squeeze1x1 (in-place)
I0426 10:40:54.045862  7867 net.cpp:150] Setting up fire10/squeeze1x1/bn
I0426 10:40:54.045871  7867 net.cpp:157] Top shape: 4 96 9 9 (31104)
I0426 10:40:54.045873  7867 net.cpp:165] Memory required for data: 290518048
I0426 10:40:54.045881  7867 layer_factory.hpp:77] Creating layer fire10/squeeze1x1/scale
I0426 10:40:54.045886  7867 net.cpp:100] Creating Layer fire10/squeeze1x1/scale
I0426 10:40:54.045892  7867 net.cpp:434] fire10/squeeze1x1/scale <- fire10/squeeze1x1
I0426 10:40:54.045897  7867 net.cpp:395] fire10/squeeze1x1/scale -> fire10/squeeze1x1 (in-place)
I0426 10:40:54.045928  7867 layer_factory.hpp:77] Creating layer fire10/squeeze1x1/scale
I0426 10:40:54.046026  7867 net.cpp:150] Setting up fire10/squeeze1x1/scale
I0426 10:40:54.046032  7867 net.cpp:157] Top shape: 4 96 9 9 (31104)
I0426 10:40:54.046036  7867 net.cpp:165] Memory required for data: 290642464
I0426 10:40:54.046042  7867 layer_factory.hpp:77] Creating layer fire10/relu_squeeze1x1
I0426 10:40:54.046047  7867 net.cpp:100] Creating Layer fire10/relu_squeeze1x1
I0426 10:40:54.046052  7867 net.cpp:434] fire10/relu_squeeze1x1 <- fire10/squeeze1x1
I0426 10:40:54.046056  7867 net.cpp:395] fire10/relu_squeeze1x1 -> fire10/squeeze1x1 (in-place)
I0426 10:40:54.046394  7867 net.cpp:150] Setting up fire10/relu_squeeze1x1
I0426 10:40:54.046404  7867 net.cpp:157] Top shape: 4 96 9 9 (31104)
I0426 10:40:54.046408  7867 net.cpp:165] Memory required for data: 290766880
I0426 10:40:54.046412  7867 layer_factory.hpp:77] Creating layer fire10/squeeze1x1_fire10/relu_squeeze1x1_0_split
I0426 10:40:54.046425  7867 net.cpp:100] Creating Layer fire10/squeeze1x1_fire10/relu_squeeze1x1_0_split
I0426 10:40:54.046430  7867 net.cpp:434] fire10/squeeze1x1_fire10/relu_squeeze1x1_0_split <- fire10/squeeze1x1
I0426 10:40:54.046442  7867 net.cpp:408] fire10/squeeze1x1_fire10/relu_squeeze1x1_0_split -> fire10/squeeze1x1_fire10/relu_squeeze1x1_0_split_0
I0426 10:40:54.046449  7867 net.cpp:408] fire10/squeeze1x1_fire10/relu_squeeze1x1_0_split -> fire10/squeeze1x1_fire10/relu_squeeze1x1_0_split_1
I0426 10:40:54.046495  7867 net.cpp:150] Setting up fire10/squeeze1x1_fire10/relu_squeeze1x1_0_split
I0426 10:40:54.046506  7867 net.cpp:157] Top shape: 4 96 9 9 (31104)
I0426 10:40:54.046511  7867 net.cpp:157] Top shape: 4 96 9 9 (31104)
I0426 10:40:54.046514  7867 net.cpp:165] Memory required for data: 291015712
I0426 10:40:54.046519  7867 layer_factory.hpp:77] Creating layer fire10/expand1x1
I0426 10:40:54.046526  7867 net.cpp:100] Creating Layer fire10/expand1x1
I0426 10:40:54.046530  7867 net.cpp:434] fire10/expand1x1 <- fire10/squeeze1x1_fire10/relu_squeeze1x1_0_split_0
I0426 10:40:54.046535  7867 net.cpp:408] fire10/expand1x1 -> fire10/expand1x1
I0426 10:40:54.047875  7867 net.cpp:150] Setting up fire10/expand1x1
I0426 10:40:54.047888  7867 net.cpp:157] Top shape: 4 384 9 9 (124416)
I0426 10:40:54.047891  7867 net.cpp:165] Memory required for data: 291513376
I0426 10:40:54.047899  7867 layer_factory.hpp:77] Creating layer fire10/expand1x1/bn
I0426 10:40:54.047904  7867 net.cpp:100] Creating Layer fire10/expand1x1/bn
I0426 10:40:54.047909  7867 net.cpp:434] fire10/expand1x1/bn <- fire10/expand1x1
I0426 10:40:54.047914  7867 net.cpp:395] fire10/expand1x1/bn -> fire10/expand1x1 (in-place)
I0426 10:40:54.048094  7867 net.cpp:150] Setting up fire10/expand1x1/bn
I0426 10:40:54.048115  7867 net.cpp:157] Top shape: 4 384 9 9 (124416)
I0426 10:40:54.048118  7867 net.cpp:165] Memory required for data: 292011040
I0426 10:40:54.048125  7867 layer_factory.hpp:77] Creating layer fire10/expand1x1/scale
I0426 10:40:54.048132  7867 net.cpp:100] Creating Layer fire10/expand1x1/scale
I0426 10:40:54.048136  7867 net.cpp:434] fire10/expand1x1/scale <- fire10/expand1x1
I0426 10:40:54.048141  7867 net.cpp:395] fire10/expand1x1/scale -> fire10/expand1x1 (in-place)
I0426 10:40:54.048171  7867 layer_factory.hpp:77] Creating layer fire10/expand1x1/scale
I0426 10:40:54.048267  7867 net.cpp:150] Setting up fire10/expand1x1/scale
I0426 10:40:54.048274  7867 net.cpp:157] Top shape: 4 384 9 9 (124416)
I0426 10:40:54.048279  7867 net.cpp:165] Memory required for data: 292508704
I0426 10:40:54.048285  7867 layer_factory.hpp:77] Creating layer fire10/relu_expand1x1
I0426 10:40:54.048290  7867 net.cpp:100] Creating Layer fire10/relu_expand1x1
I0426 10:40:54.048293  7867 net.cpp:434] fire10/relu_expand1x1 <- fire10/expand1x1
I0426 10:40:54.048298  7867 net.cpp:395] fire10/relu_expand1x1 -> fire10/expand1x1 (in-place)
I0426 10:40:54.048429  7867 net.cpp:150] Setting up fire10/relu_expand1x1
I0426 10:40:54.048437  7867 net.cpp:157] Top shape: 4 384 9 9 (124416)
I0426 10:40:54.048441  7867 net.cpp:165] Memory required for data: 293006368
I0426 10:40:54.048445  7867 layer_factory.hpp:77] Creating layer fire10/expand3x3
I0426 10:40:54.048452  7867 net.cpp:100] Creating Layer fire10/expand3x3
I0426 10:40:54.048456  7867 net.cpp:434] fire10/expand3x3 <- fire10/squeeze1x1_fire10/relu_squeeze1x1_0_split_1
I0426 10:40:54.048462  7867 net.cpp:408] fire10/expand3x3 -> fire10/expand3x3
I0426 10:40:54.053043  7867 net.cpp:150] Setting up fire10/expand3x3
I0426 10:40:54.053066  7867 net.cpp:157] Top shape: 4 384 9 9 (124416)
I0426 10:40:54.053069  7867 net.cpp:165] Memory required for data: 293504032
I0426 10:40:54.053078  7867 layer_factory.hpp:77] Creating layer fire10/expand3x3/bn
I0426 10:40:54.053087  7867 net.cpp:100] Creating Layer fire10/expand3x3/bn
I0426 10:40:54.053093  7867 net.cpp:434] fire10/expand3x3/bn <- fire10/expand3x3
I0426 10:40:54.053099  7867 net.cpp:395] fire10/expand3x3/bn -> fire10/expand3x3 (in-place)
I0426 10:40:54.053280  7867 net.cpp:150] Setting up fire10/expand3x3/bn
I0426 10:40:54.053287  7867 net.cpp:157] Top shape: 4 384 9 9 (124416)
I0426 10:40:54.053290  7867 net.cpp:165] Memory required for data: 294001696
I0426 10:40:54.053297  7867 layer_factory.hpp:77] Creating layer fire10/expand3x3/scale
I0426 10:40:54.053304  7867 net.cpp:100] Creating Layer fire10/expand3x3/scale
I0426 10:40:54.053308  7867 net.cpp:434] fire10/expand3x3/scale <- fire10/expand3x3
I0426 10:40:54.053321  7867 net.cpp:395] fire10/expand3x3/scale -> fire10/expand3x3 (in-place)
I0426 10:40:54.053354  7867 layer_factory.hpp:77] Creating layer fire10/expand3x3/scale
I0426 10:40:54.053457  7867 net.cpp:150] Setting up fire10/expand3x3/scale
I0426 10:40:54.053464  7867 net.cpp:157] Top shape: 4 384 9 9 (124416)
I0426 10:40:54.053467  7867 net.cpp:165] Memory required for data: 294499360
I0426 10:40:54.053472  7867 layer_factory.hpp:77] Creating layer fire10/relu_expand3x3
I0426 10:40:54.053478  7867 net.cpp:100] Creating Layer fire10/relu_expand3x3
I0426 10:40:54.053483  7867 net.cpp:434] fire10/relu_expand3x3 <- fire10/expand3x3
I0426 10:40:54.053488  7867 net.cpp:395] fire10/relu_expand3x3 -> fire10/expand3x3 (in-place)
I0426 10:40:54.053851  7867 net.cpp:150] Setting up fire10/relu_expand3x3
I0426 10:40:54.053863  7867 net.cpp:157] Top shape: 4 384 9 9 (124416)
I0426 10:40:54.053866  7867 net.cpp:165] Memory required for data: 294997024
I0426 10:40:54.053871  7867 layer_factory.hpp:77] Creating layer fire10/concat
I0426 10:40:54.053877  7867 net.cpp:100] Creating Layer fire10/concat
I0426 10:40:54.053882  7867 net.cpp:434] fire10/concat <- fire10/expand1x1
I0426 10:40:54.053889  7867 net.cpp:434] fire10/concat <- fire10/expand3x3
I0426 10:40:54.053894  7867 net.cpp:408] fire10/concat -> fire10/concat
I0426 10:40:54.053918  7867 net.cpp:150] Setting up fire10/concat
I0426 10:40:54.053944  7867 net.cpp:157] Top shape: 4 768 9 9 (248832)
I0426 10:40:54.053949  7867 net.cpp:165] Memory required for data: 295992352
I0426 10:40:54.053953  7867 layer_factory.hpp:77] Creating layer fire10/concat_fire10/concat_0_split
I0426 10:40:54.053959  7867 net.cpp:100] Creating Layer fire10/concat_fire10/concat_0_split
I0426 10:40:54.053963  7867 net.cpp:434] fire10/concat_fire10/concat_0_split <- fire10/concat
I0426 10:40:54.053969  7867 net.cpp:408] fire10/concat_fire10/concat_0_split -> fire10/concat_fire10/concat_0_split_0
I0426 10:40:54.053975  7867 net.cpp:408] fire10/concat_fire10/concat_0_split -> fire10/concat_fire10/concat_0_split_1
I0426 10:40:54.053982  7867 net.cpp:408] fire10/concat_fire10/concat_0_split -> fire10/concat_fire10/concat_0_split_2
I0426 10:40:54.053987  7867 net.cpp:408] fire10/concat_fire10/concat_0_split -> fire10/concat_fire10/concat_0_split_3
I0426 10:40:54.054039  7867 net.cpp:150] Setting up fire10/concat_fire10/concat_0_split
I0426 10:40:54.054045  7867 net.cpp:157] Top shape: 4 768 9 9 (248832)
I0426 10:40:54.054050  7867 net.cpp:157] Top shape: 4 768 9 9 (248832)
I0426 10:40:54.054055  7867 net.cpp:157] Top shape: 4 768 9 9 (248832)
I0426 10:40:54.054059  7867 net.cpp:157] Top shape: 4 768 9 9 (248832)
I0426 10:40:54.054064  7867 net.cpp:165] Memory required for data: 299973664
I0426 10:40:54.054067  7867 layer_factory.hpp:77] Creating layer pool10
I0426 10:40:54.054075  7867 net.cpp:100] Creating Layer pool10
I0426 10:40:54.054078  7867 net.cpp:434] pool10 <- fire10/concat_fire10/concat_0_split_0
I0426 10:40:54.054085  7867 net.cpp:408] pool10 -> pool10
I0426 10:40:54.054116  7867 net.cpp:150] Setting up pool10
I0426 10:40:54.054121  7867 net.cpp:157] Top shape: 4 768 4 4 (49152)
I0426 10:40:54.054124  7867 net.cpp:165] Memory required for data: 300170272
I0426 10:40:54.054129  7867 layer_factory.hpp:77] Creating layer fire11/squeeze1x1
I0426 10:40:54.054143  7867 net.cpp:100] Creating Layer fire11/squeeze1x1
I0426 10:40:54.054148  7867 net.cpp:434] fire11/squeeze1x1 <- pool10
I0426 10:40:54.054153  7867 net.cpp:408] fire11/squeeze1x1 -> fire11/squeeze1x1
I0426 10:40:54.055910  7867 net.cpp:150] Setting up fire11/squeeze1x1
I0426 10:40:54.055924  7867 net.cpp:157] Top shape: 4 96 4 4 (6144)
I0426 10:40:54.055928  7867 net.cpp:165] Memory required for data: 300194848
I0426 10:40:54.055935  7867 layer_factory.hpp:77] Creating layer fire11/squeeze1x1/bn
I0426 10:40:54.055943  7867 net.cpp:100] Creating Layer fire11/squeeze1x1/bn
I0426 10:40:54.055948  7867 net.cpp:434] fire11/squeeze1x1/bn <- fire11/squeeze1x1
I0426 10:40:54.055953  7867 net.cpp:395] fire11/squeeze1x1/bn -> fire11/squeeze1x1 (in-place)
I0426 10:40:54.056156  7867 net.cpp:150] Setting up fire11/squeeze1x1/bn
I0426 10:40:54.056164  7867 net.cpp:157] Top shape: 4 96 4 4 (6144)
I0426 10:40:54.056167  7867 net.cpp:165] Memory required for data: 300219424
I0426 10:40:54.056187  7867 layer_factory.hpp:77] Creating layer fire11/squeeze1x1/scale
I0426 10:40:54.056195  7867 net.cpp:100] Creating Layer fire11/squeeze1x1/scale
I0426 10:40:54.056200  7867 net.cpp:434] fire11/squeeze1x1/scale <- fire11/squeeze1x1
I0426 10:40:54.056205  7867 net.cpp:395] fire11/squeeze1x1/scale -> fire11/squeeze1x1 (in-place)
I0426 10:40:54.056247  7867 layer_factory.hpp:77] Creating layer fire11/squeeze1x1/scale
I0426 10:40:54.056360  7867 net.cpp:150] Setting up fire11/squeeze1x1/scale
I0426 10:40:54.056367  7867 net.cpp:157] Top shape: 4 96 4 4 (6144)
I0426 10:40:54.056371  7867 net.cpp:165] Memory required for data: 300244000
I0426 10:40:54.056377  7867 layer_factory.hpp:77] Creating layer fire11/relu_squeeze1x1
I0426 10:40:54.056383  7867 net.cpp:100] Creating Layer fire11/relu_squeeze1x1
I0426 10:40:54.056388  7867 net.cpp:434] fire11/relu_squeeze1x1 <- fire11/squeeze1x1
I0426 10:40:54.056393  7867 net.cpp:395] fire11/relu_squeeze1x1 -> fire11/squeeze1x1 (in-place)
I0426 10:40:54.056550  7867 net.cpp:150] Setting up fire11/relu_squeeze1x1
I0426 10:40:54.056560  7867 net.cpp:157] Top shape: 4 96 4 4 (6144)
I0426 10:40:54.056578  7867 net.cpp:165] Memory required for data: 300268576
I0426 10:40:54.056583  7867 layer_factory.hpp:77] Creating layer fire11/squeeze1x1_fire11/relu_squeeze1x1_0_split
I0426 10:40:54.056591  7867 net.cpp:100] Creating Layer fire11/squeeze1x1_fire11/relu_squeeze1x1_0_split
I0426 10:40:54.056596  7867 net.cpp:434] fire11/squeeze1x1_fire11/relu_squeeze1x1_0_split <- fire11/squeeze1x1
I0426 10:40:54.056602  7867 net.cpp:408] fire11/squeeze1x1_fire11/relu_squeeze1x1_0_split -> fire11/squeeze1x1_fire11/relu_squeeze1x1_0_split_0
I0426 10:40:54.056608  7867 net.cpp:408] fire11/squeeze1x1_fire11/relu_squeeze1x1_0_split -> fire11/squeeze1x1_fire11/relu_squeeze1x1_0_split_1
I0426 10:40:54.056646  7867 net.cpp:150] Setting up fire11/squeeze1x1_fire11/relu_squeeze1x1_0_split
I0426 10:40:54.056653  7867 net.cpp:157] Top shape: 4 96 4 4 (6144)
I0426 10:40:54.056658  7867 net.cpp:157] Top shape: 4 96 4 4 (6144)
I0426 10:40:54.056661  7867 net.cpp:165] Memory required for data: 300317728
I0426 10:40:54.056666  7867 layer_factory.hpp:77] Creating layer fire11/expand1x1
I0426 10:40:54.056674  7867 net.cpp:100] Creating Layer fire11/expand1x1
I0426 10:40:54.056679  7867 net.cpp:434] fire11/expand1x1 <- fire11/squeeze1x1_fire11/relu_squeeze1x1_0_split_0
I0426 10:40:54.056684  7867 net.cpp:408] fire11/expand1x1 -> fire11/expand1x1
I0426 10:40:54.058679  7867 net.cpp:150] Setting up fire11/expand1x1
I0426 10:40:54.058696  7867 net.cpp:157] Top shape: 4 384 4 4 (24576)
I0426 10:40:54.058699  7867 net.cpp:165] Memory required for data: 300416032
I0426 10:40:54.058706  7867 layer_factory.hpp:77] Creating layer fire11/expand1x1/bn
I0426 10:40:54.058718  7867 net.cpp:100] Creating Layer fire11/expand1x1/bn
I0426 10:40:54.058723  7867 net.cpp:434] fire11/expand1x1/bn <- fire11/expand1x1
I0426 10:40:54.058730  7867 net.cpp:395] fire11/expand1x1/bn -> fire11/expand1x1 (in-place)
I0426 10:40:54.058960  7867 net.cpp:150] Setting up fire11/expand1x1/bn
I0426 10:40:54.058969  7867 net.cpp:157] Top shape: 4 384 4 4 (24576)
I0426 10:40:54.058974  7867 net.cpp:165] Memory required for data: 300514336
I0426 10:40:54.058980  7867 layer_factory.hpp:77] Creating layer fire11/expand1x1/scale
I0426 10:40:54.058989  7867 net.cpp:100] Creating Layer fire11/expand1x1/scale
I0426 10:40:54.058993  7867 net.cpp:434] fire11/expand1x1/scale <- fire11/expand1x1
I0426 10:40:54.059000  7867 net.cpp:395] fire11/expand1x1/scale -> fire11/expand1x1 (in-place)
I0426 10:40:54.059034  7867 layer_factory.hpp:77] Creating layer fire11/expand1x1/scale
I0426 10:40:54.059149  7867 net.cpp:150] Setting up fire11/expand1x1/scale
I0426 10:40:54.059159  7867 net.cpp:157] Top shape: 4 384 4 4 (24576)
I0426 10:40:54.059162  7867 net.cpp:165] Memory required for data: 300612640
I0426 10:40:54.059168  7867 layer_factory.hpp:77] Creating layer fire11/relu_expand1x1
I0426 10:40:54.059175  7867 net.cpp:100] Creating Layer fire11/relu_expand1x1
I0426 10:40:54.059180  7867 net.cpp:434] fire11/relu_expand1x1 <- fire11/expand1x1
I0426 10:40:54.059185  7867 net.cpp:395] fire11/relu_expand1x1 -> fire11/expand1x1 (in-place)
I0426 10:40:54.059586  7867 net.cpp:150] Setting up fire11/relu_expand1x1
I0426 10:40:54.059598  7867 net.cpp:157] Top shape: 4 384 4 4 (24576)
I0426 10:40:54.059602  7867 net.cpp:165] Memory required for data: 300710944
I0426 10:40:54.059607  7867 layer_factory.hpp:77] Creating layer fire11/expand3x3
I0426 10:40:54.059617  7867 net.cpp:100] Creating Layer fire11/expand3x3
I0426 10:40:54.059623  7867 net.cpp:434] fire11/expand3x3 <- fire11/squeeze1x1_fire11/relu_squeeze1x1_0_split_1
I0426 10:40:54.059629  7867 net.cpp:408] fire11/expand3x3 -> fire11/expand3x3
I0426 10:40:54.065019  7867 net.cpp:150] Setting up fire11/expand3x3
I0426 10:40:54.065047  7867 net.cpp:157] Top shape: 4 384 4 4 (24576)
I0426 10:40:54.065050  7867 net.cpp:165] Memory required for data: 300809248
I0426 10:40:54.065062  7867 layer_factory.hpp:77] Creating layer fire11/expand3x3/bn
I0426 10:40:54.065071  7867 net.cpp:100] Creating Layer fire11/expand3x3/bn
I0426 10:40:54.065102  7867 net.cpp:434] fire11/expand3x3/bn <- fire11/expand3x3
I0426 10:40:54.065110  7867 net.cpp:395] fire11/expand3x3/bn -> fire11/expand3x3 (in-place)
I0426 10:40:54.065320  7867 net.cpp:150] Setting up fire11/expand3x3/bn
I0426 10:40:54.065328  7867 net.cpp:157] Top shape: 4 384 4 4 (24576)
I0426 10:40:54.065331  7867 net.cpp:165] Memory required for data: 300907552
I0426 10:40:54.065338  7867 layer_factory.hpp:77] Creating layer fire11/expand3x3/scale
I0426 10:40:54.065347  7867 net.cpp:100] Creating Layer fire11/expand3x3/scale
I0426 10:40:54.065352  7867 net.cpp:434] fire11/expand3x3/scale <- fire11/expand3x3
I0426 10:40:54.065358  7867 net.cpp:395] fire11/expand3x3/scale -> fire11/expand3x3 (in-place)
I0426 10:40:54.065394  7867 layer_factory.hpp:77] Creating layer fire11/expand3x3/scale
I0426 10:40:54.065508  7867 net.cpp:150] Setting up fire11/expand3x3/scale
I0426 10:40:54.065516  7867 net.cpp:157] Top shape: 4 384 4 4 (24576)
I0426 10:40:54.065521  7867 net.cpp:165] Memory required for data: 301005856
I0426 10:40:54.065526  7867 layer_factory.hpp:77] Creating layer fire11/relu_expand3x3
I0426 10:40:54.065538  7867 net.cpp:100] Creating Layer fire11/relu_expand3x3
I0426 10:40:54.065543  7867 net.cpp:434] fire11/relu_expand3x3 <- fire11/expand3x3
I0426 10:40:54.065547  7867 net.cpp:395] fire11/relu_expand3x3 -> fire11/expand3x3 (in-place)
I0426 10:40:54.065937  7867 net.cpp:150] Setting up fire11/relu_expand3x3
I0426 10:40:54.065949  7867 net.cpp:157] Top shape: 4 384 4 4 (24576)
I0426 10:40:54.065953  7867 net.cpp:165] Memory required for data: 301104160
I0426 10:40:54.065958  7867 layer_factory.hpp:77] Creating layer fire11/concat
I0426 10:40:54.065964  7867 net.cpp:100] Creating Layer fire11/concat
I0426 10:40:54.065970  7867 net.cpp:434] fire11/concat <- fire11/expand1x1
I0426 10:40:54.065975  7867 net.cpp:434] fire11/concat <- fire11/expand3x3
I0426 10:40:54.065990  7867 net.cpp:408] fire11/concat -> fire11/concat
I0426 10:40:54.066020  7867 net.cpp:150] Setting up fire11/concat
I0426 10:40:54.066026  7867 net.cpp:157] Top shape: 4 768 4 4 (49152)
I0426 10:40:54.066030  7867 net.cpp:165] Memory required for data: 301300768
I0426 10:40:54.066033  7867 layer_factory.hpp:77] Creating layer fire11/concat_fire11/concat_0_split
I0426 10:40:54.066040  7867 net.cpp:100] Creating Layer fire11/concat_fire11/concat_0_split
I0426 10:40:54.066045  7867 net.cpp:434] fire11/concat_fire11/concat_0_split <- fire11/concat
I0426 10:40:54.066049  7867 net.cpp:408] fire11/concat_fire11/concat_0_split -> fire11/concat_fire11/concat_0_split_0
I0426 10:40:54.066056  7867 net.cpp:408] fire11/concat_fire11/concat_0_split -> fire11/concat_fire11/concat_0_split_1
I0426 10:40:54.066062  7867 net.cpp:408] fire11/concat_fire11/concat_0_split -> fire11/concat_fire11/concat_0_split_2
I0426 10:40:54.066067  7867 net.cpp:408] fire11/concat_fire11/concat_0_split -> fire11/concat_fire11/concat_0_split_3
I0426 10:40:54.066138  7867 net.cpp:150] Setting up fire11/concat_fire11/concat_0_split
I0426 10:40:54.066143  7867 net.cpp:157] Top shape: 4 768 4 4 (49152)
I0426 10:40:54.066149  7867 net.cpp:157] Top shape: 4 768 4 4 (49152)
I0426 10:40:54.066154  7867 net.cpp:157] Top shape: 4 768 4 4 (49152)
I0426 10:40:54.066159  7867 net.cpp:157] Top shape: 4 768 4 4 (49152)
I0426 10:40:54.066164  7867 net.cpp:165] Memory required for data: 302087200
I0426 10:40:54.066167  7867 layer_factory.hpp:77] Creating layer conv12_1
I0426 10:40:54.066176  7867 net.cpp:100] Creating Layer conv12_1
I0426 10:40:54.066181  7867 net.cpp:434] conv12_1 <- fire11/concat_fire11/concat_0_split_0
I0426 10:40:54.066188  7867 net.cpp:408] conv12_1 -> conv12_1
I0426 10:40:54.068590  7867 net.cpp:150] Setting up conv12_1
I0426 10:40:54.068604  7867 net.cpp:157] Top shape: 4 128 4 4 (8192)
I0426 10:40:54.068609  7867 net.cpp:165] Memory required for data: 302119968
I0426 10:40:54.068616  7867 layer_factory.hpp:77] Creating layer conv12_1/bn
I0426 10:40:54.068624  7867 net.cpp:100] Creating Layer conv12_1/bn
I0426 10:40:54.068629  7867 net.cpp:434] conv12_1/bn <- conv12_1
I0426 10:40:54.068646  7867 net.cpp:395] conv12_1/bn -> conv12_1 (in-place)
I0426 10:40:54.068850  7867 net.cpp:150] Setting up conv12_1/bn
I0426 10:40:54.068857  7867 net.cpp:157] Top shape: 4 128 4 4 (8192)
I0426 10:40:54.068861  7867 net.cpp:165] Memory required for data: 302152736
I0426 10:40:54.068868  7867 layer_factory.hpp:77] Creating layer conv12_1/scale
I0426 10:40:54.068876  7867 net.cpp:100] Creating Layer conv12_1/scale
I0426 10:40:54.068879  7867 net.cpp:434] conv12_1/scale <- conv12_1
I0426 10:40:54.068886  7867 net.cpp:395] conv12_1/scale -> conv12_1 (in-place)
I0426 10:40:54.068923  7867 layer_factory.hpp:77] Creating layer conv12_1/scale
I0426 10:40:54.069026  7867 net.cpp:150] Setting up conv12_1/scale
I0426 10:40:54.069033  7867 net.cpp:157] Top shape: 4 128 4 4 (8192)
I0426 10:40:54.069036  7867 net.cpp:165] Memory required for data: 302185504
I0426 10:40:54.069042  7867 layer_factory.hpp:77] Creating layer conv12_1/relu
I0426 10:40:54.069048  7867 net.cpp:100] Creating Layer conv12_1/relu
I0426 10:40:54.069052  7867 net.cpp:434] conv12_1/relu <- conv12_1
I0426 10:40:54.069057  7867 net.cpp:395] conv12_1/relu -> conv12_1 (in-place)
I0426 10:40:54.069214  7867 net.cpp:150] Setting up conv12_1/relu
I0426 10:40:54.069224  7867 net.cpp:157] Top shape: 4 128 4 4 (8192)
I0426 10:40:54.069228  7867 net.cpp:165] Memory required for data: 302218272
I0426 10:40:54.069231  7867 layer_factory.hpp:77] Creating layer conv12_2
I0426 10:40:54.069239  7867 net.cpp:100] Creating Layer conv12_2
I0426 10:40:54.069244  7867 net.cpp:434] conv12_2 <- conv12_1
I0426 10:40:54.069250  7867 net.cpp:408] conv12_2 -> conv12_2
I0426 10:40:54.073748  7867 net.cpp:150] Setting up conv12_2
I0426 10:40:54.073766  7867 net.cpp:157] Top shape: 4 256 2 2 (4096)
I0426 10:40:54.073770  7867 net.cpp:165] Memory required for data: 302234656
I0426 10:40:54.073777  7867 layer_factory.hpp:77] Creating layer conv12_2/bn
I0426 10:40:54.073786  7867 net.cpp:100] Creating Layer conv12_2/bn
I0426 10:40:54.073791  7867 net.cpp:434] conv12_2/bn <- conv12_2
I0426 10:40:54.073796  7867 net.cpp:395] conv12_2/bn -> conv12_2 (in-place)
I0426 10:40:54.073984  7867 net.cpp:150] Setting up conv12_2/bn
I0426 10:40:54.073992  7867 net.cpp:157] Top shape: 4 256 2 2 (4096)
I0426 10:40:54.073995  7867 net.cpp:165] Memory required for data: 302251040
I0426 10:40:54.074002  7867 layer_factory.hpp:77] Creating layer conv12_2/scale
I0426 10:40:54.074008  7867 net.cpp:100] Creating Layer conv12_2/scale
I0426 10:40:54.074012  7867 net.cpp:434] conv12_2/scale <- conv12_2
I0426 10:40:54.074018  7867 net.cpp:395] conv12_2/scale -> conv12_2 (in-place)
I0426 10:40:54.074055  7867 layer_factory.hpp:77] Creating layer conv12_2/scale
I0426 10:40:54.074170  7867 net.cpp:150] Setting up conv12_2/scale
I0426 10:40:54.074177  7867 net.cpp:157] Top shape: 4 256 2 2 (4096)
I0426 10:40:54.074182  7867 net.cpp:165] Memory required for data: 302267424
I0426 10:40:54.074188  7867 layer_factory.hpp:77] Creating layer conv12_2/relu
I0426 10:40:54.074194  7867 net.cpp:100] Creating Layer conv12_2/relu
I0426 10:40:54.074199  7867 net.cpp:434] conv12_2/relu <- conv12_2
I0426 10:40:54.074203  7867 net.cpp:395] conv12_2/relu -> conv12_2 (in-place)
I0426 10:40:54.074594  7867 net.cpp:150] Setting up conv12_2/relu
I0426 10:40:54.074605  7867 net.cpp:157] Top shape: 4 256 2 2 (4096)
I0426 10:40:54.074609  7867 net.cpp:165] Memory required for data: 302283808
I0426 10:40:54.074612  7867 layer_factory.hpp:77] Creating layer conv12_2_conv12_2/relu_0_split
I0426 10:40:54.074618  7867 net.cpp:100] Creating Layer conv12_2_conv12_2/relu_0_split
I0426 10:40:54.074623  7867 net.cpp:434] conv12_2_conv12_2/relu_0_split <- conv12_2
I0426 10:40:54.074630  7867 net.cpp:408] conv12_2_conv12_2/relu_0_split -> conv12_2_conv12_2/relu_0_split_0
I0426 10:40:54.074640  7867 net.cpp:408] conv12_2_conv12_2/relu_0_split -> conv12_2_conv12_2/relu_0_split_1
I0426 10:40:54.074645  7867 net.cpp:408] conv12_2_conv12_2/relu_0_split -> conv12_2_conv12_2/relu_0_split_2
I0426 10:40:54.074651  7867 net.cpp:408] conv12_2_conv12_2/relu_0_split -> conv12_2_conv12_2/relu_0_split_3
I0426 10:40:54.074730  7867 net.cpp:150] Setting up conv12_2_conv12_2/relu_0_split
I0426 10:40:54.074738  7867 net.cpp:157] Top shape: 4 256 2 2 (4096)
I0426 10:40:54.074741  7867 net.cpp:157] Top shape: 4 256 2 2 (4096)
I0426 10:40:54.074745  7867 net.cpp:157] Top shape: 4 256 2 2 (4096)
I0426 10:40:54.074749  7867 net.cpp:157] Top shape: 4 256 2 2 (4096)
I0426 10:40:54.074754  7867 net.cpp:165] Memory required for data: 302349344
I0426 10:40:54.074759  7867 layer_factory.hpp:77] Creating layer conv13_1
I0426 10:40:54.074766  7867 net.cpp:100] Creating Layer conv13_1
I0426 10:40:54.074771  7867 net.cpp:434] conv13_1 <- conv12_2_conv12_2/relu_0_split_0
I0426 10:40:54.074777  7867 net.cpp:408] conv13_1 -> conv13_1
I0426 10:40:54.076031  7867 net.cpp:150] Setting up conv13_1
I0426 10:40:54.076045  7867 net.cpp:157] Top shape: 4 64 2 2 (1024)
I0426 10:40:54.076050  7867 net.cpp:165] Memory required for data: 302353440
I0426 10:40:54.076056  7867 layer_factory.hpp:77] Creating layer conv13_1/bn
I0426 10:40:54.076062  7867 net.cpp:100] Creating Layer conv13_1/bn
I0426 10:40:54.076067  7867 net.cpp:434] conv13_1/bn <- conv13_1
I0426 10:40:54.076072  7867 net.cpp:395] conv13_1/bn -> conv13_1 (in-place)
I0426 10:40:54.076283  7867 net.cpp:150] Setting up conv13_1/bn
I0426 10:40:54.076290  7867 net.cpp:157] Top shape: 4 64 2 2 (1024)
I0426 10:40:54.076294  7867 net.cpp:165] Memory required for data: 302357536
I0426 10:40:54.076300  7867 layer_factory.hpp:77] Creating layer conv13_1/scale
I0426 10:40:54.076313  7867 net.cpp:100] Creating Layer conv13_1/scale
I0426 10:40:54.076318  7867 net.cpp:434] conv13_1/scale <- conv13_1
I0426 10:40:54.076321  7867 net.cpp:395] conv13_1/scale -> conv13_1 (in-place)
I0426 10:40:54.076359  7867 layer_factory.hpp:77] Creating layer conv13_1/scale
I0426 10:40:54.076472  7867 net.cpp:150] Setting up conv13_1/scale
I0426 10:40:54.076478  7867 net.cpp:157] Top shape: 4 64 2 2 (1024)
I0426 10:40:54.076483  7867 net.cpp:165] Memory required for data: 302361632
I0426 10:40:54.076488  7867 layer_factory.hpp:77] Creating layer conv13_1/relu
I0426 10:40:54.076493  7867 net.cpp:100] Creating Layer conv13_1/relu
I0426 10:40:54.076498  7867 net.cpp:434] conv13_1/relu <- conv13_1
I0426 10:40:54.076501  7867 net.cpp:395] conv13_1/relu -> conv13_1 (in-place)
I0426 10:40:54.076639  7867 net.cpp:150] Setting up conv13_1/relu
I0426 10:40:54.076648  7867 net.cpp:157] Top shape: 4 64 2 2 (1024)
I0426 10:40:54.076653  7867 net.cpp:165] Memory required for data: 302365728
I0426 10:40:54.076656  7867 layer_factory.hpp:77] Creating layer conv13_2
I0426 10:40:54.076664  7867 net.cpp:100] Creating Layer conv13_2
I0426 10:40:54.076669  7867 net.cpp:434] conv13_2 <- conv13_1
I0426 10:40:54.076674  7867 net.cpp:408] conv13_2 -> conv13_2
I0426 10:40:54.078500  7867 net.cpp:150] Setting up conv13_2
I0426 10:40:54.078512  7867 net.cpp:157] Top shape: 4 128 1 1 (512)
I0426 10:40:54.078517  7867 net.cpp:165] Memory required for data: 302367776
I0426 10:40:54.078523  7867 layer_factory.hpp:77] Creating layer conv13_2/bn
I0426 10:40:54.078529  7867 net.cpp:100] Creating Layer conv13_2/bn
I0426 10:40:54.078536  7867 net.cpp:434] conv13_2/bn <- conv13_2
I0426 10:40:54.078539  7867 net.cpp:395] conv13_2/bn -> conv13_2 (in-place)
I0426 10:40:54.078738  7867 net.cpp:150] Setting up conv13_2/bn
I0426 10:40:54.078747  7867 net.cpp:157] Top shape: 4 128 1 1 (512)
I0426 10:40:54.078749  7867 net.cpp:165] Memory required for data: 302369824
I0426 10:40:54.078755  7867 layer_factory.hpp:77] Creating layer conv13_2/scale
I0426 10:40:54.078773  7867 net.cpp:100] Creating Layer conv13_2/scale
I0426 10:40:54.078778  7867 net.cpp:434] conv13_2/scale <- conv13_2
I0426 10:40:54.078783  7867 net.cpp:395] conv13_2/scale -> conv13_2 (in-place)
I0426 10:40:54.078822  7867 layer_factory.hpp:77] Creating layer conv13_2/scale
I0426 10:40:54.078933  7867 net.cpp:150] Setting up conv13_2/scale
I0426 10:40:54.078940  7867 net.cpp:157] Top shape: 4 128 1 1 (512)
I0426 10:40:54.078944  7867 net.cpp:165] Memory required for data: 302371872
I0426 10:40:54.078963  7867 layer_factory.hpp:77] Creating layer conv13_2/relu
I0426 10:40:54.078970  7867 net.cpp:100] Creating Layer conv13_2/relu
I0426 10:40:54.078975  7867 net.cpp:434] conv13_2/relu <- conv13_2
I0426 10:40:54.078980  7867 net.cpp:395] conv13_2/relu -> conv13_2 (in-place)
I0426 10:40:54.079363  7867 net.cpp:150] Setting up conv13_2/relu
I0426 10:40:54.079375  7867 net.cpp:157] Top shape: 4 128 1 1 (512)
I0426 10:40:54.079378  7867 net.cpp:165] Memory required for data: 302373920
I0426 10:40:54.079382  7867 layer_factory.hpp:77] Creating layer conv13_2_conv13_2/relu_0_split
I0426 10:40:54.079390  7867 net.cpp:100] Creating Layer conv13_2_conv13_2/relu_0_split
I0426 10:40:54.079393  7867 net.cpp:434] conv13_2_conv13_2/relu_0_split <- conv13_2
I0426 10:40:54.079401  7867 net.cpp:408] conv13_2_conv13_2/relu_0_split -> conv13_2_conv13_2/relu_0_split_0
I0426 10:40:54.079407  7867 net.cpp:408] conv13_2_conv13_2/relu_0_split -> conv13_2_conv13_2/relu_0_split_1
I0426 10:40:54.079414  7867 net.cpp:408] conv13_2_conv13_2/relu_0_split -> conv13_2_conv13_2/relu_0_split_2
I0426 10:40:54.079473  7867 net.cpp:150] Setting up conv13_2_conv13_2/relu_0_split
I0426 10:40:54.079479  7867 net.cpp:157] Top shape: 4 128 1 1 (512)
I0426 10:40:54.079483  7867 net.cpp:157] Top shape: 4 128 1 1 (512)
I0426 10:40:54.079488  7867 net.cpp:157] Top shape: 4 128 1 1 (512)
I0426 10:40:54.079491  7867 net.cpp:165] Memory required for data: 302380064
I0426 10:40:54.079495  7867 layer_factory.hpp:77] Creating layer fire5_mbox_loc
I0426 10:40:54.079504  7867 net.cpp:100] Creating Layer fire5_mbox_loc
I0426 10:40:54.079510  7867 net.cpp:434] fire5_mbox_loc <- fire5/concat_fire5/concat_0_split_1
I0426 10:40:54.079516  7867 net.cpp:408] fire5_mbox_loc -> fire5_mbox_loc
I0426 10:40:54.081035  7867 net.cpp:150] Setting up fire5_mbox_loc
I0426 10:40:54.081048  7867 net.cpp:157] Top shape: 4 16 37 37 (87616)
I0426 10:40:54.081053  7867 net.cpp:165] Memory required for data: 302730528
I0426 10:40:54.081059  7867 layer_factory.hpp:77] Creating layer fire5_mbox_loc_perm
I0426 10:40:54.081068  7867 net.cpp:100] Creating Layer fire5_mbox_loc_perm
I0426 10:40:54.081073  7867 net.cpp:434] fire5_mbox_loc_perm <- fire5_mbox_loc
I0426 10:40:54.081079  7867 net.cpp:408] fire5_mbox_loc_perm -> fire5_mbox_loc_perm
I0426 10:40:54.081188  7867 net.cpp:150] Setting up fire5_mbox_loc_perm
I0426 10:40:54.081195  7867 net.cpp:157] Top shape: 4 37 37 16 (87616)
I0426 10:40:54.081199  7867 net.cpp:165] Memory required for data: 303080992
I0426 10:40:54.081204  7867 layer_factory.hpp:77] Creating layer fire5_mbox_loc_flat
I0426 10:40:54.081212  7867 net.cpp:100] Creating Layer fire5_mbox_loc_flat
I0426 10:40:54.081216  7867 net.cpp:434] fire5_mbox_loc_flat <- fire5_mbox_loc_perm
I0426 10:40:54.081223  7867 net.cpp:408] fire5_mbox_loc_flat -> fire5_mbox_loc_flat
I0426 10:40:54.081246  7867 net.cpp:150] Setting up fire5_mbox_loc_flat
I0426 10:40:54.081254  7867 net.cpp:157] Top shape: 4 21904 (87616)
I0426 10:40:54.081257  7867 net.cpp:165] Memory required for data: 303431456
I0426 10:40:54.081261  7867 layer_factory.hpp:77] Creating layer fire5_mbox_conf
I0426 10:40:54.081269  7867 net.cpp:100] Creating Layer fire5_mbox_conf
I0426 10:40:54.081274  7867 net.cpp:434] fire5_mbox_conf <- fire5/concat_fire5/concat_0_split_2
I0426 10:40:54.081280  7867 net.cpp:408] fire5_mbox_conf -> fire5_mbox_conf
I0426 10:40:54.083068  7867 net.cpp:150] Setting up fire5_mbox_conf
I0426 10:40:54.083081  7867 net.cpp:157] Top shape: 4 28 37 37 (153328)
I0426 10:40:54.083086  7867 net.cpp:165] Memory required for data: 304044768
I0426 10:40:54.083092  7867 layer_factory.hpp:77] Creating layer fire5_mbox_conf_perm
I0426 10:40:54.083106  7867 net.cpp:100] Creating Layer fire5_mbox_conf_perm
I0426 10:40:54.083112  7867 net.cpp:434] fire5_mbox_conf_perm <- fire5_mbox_conf
I0426 10:40:54.083117  7867 net.cpp:408] fire5_mbox_conf_perm -> fire5_mbox_conf_perm
I0426 10:40:54.083214  7867 net.cpp:150] Setting up fire5_mbox_conf_perm
I0426 10:40:54.083220  7867 net.cpp:157] Top shape: 4 37 37 28 (153328)
I0426 10:40:54.083237  7867 net.cpp:165] Memory required for data: 304658080
I0426 10:40:54.083241  7867 layer_factory.hpp:77] Creating layer fire5_mbox_conf_flat
I0426 10:40:54.083254  7867 net.cpp:100] Creating Layer fire5_mbox_conf_flat
I0426 10:40:54.083261  7867 net.cpp:434] fire5_mbox_conf_flat <- fire5_mbox_conf_perm
I0426 10:40:54.083264  7867 net.cpp:408] fire5_mbox_conf_flat -> fire5_mbox_conf_flat
I0426 10:40:54.083288  7867 net.cpp:150] Setting up fire5_mbox_conf_flat
I0426 10:40:54.083294  7867 net.cpp:157] Top shape: 4 38332 (153328)
I0426 10:40:54.083297  7867 net.cpp:165] Memory required for data: 305271392
I0426 10:40:54.083300  7867 layer_factory.hpp:77] Creating layer fire5_mbox_priorbox
I0426 10:40:54.083314  7867 net.cpp:100] Creating Layer fire5_mbox_priorbox
I0426 10:40:54.083319  7867 net.cpp:434] fire5_mbox_priorbox <- fire5/concat_fire5/concat_0_split_3
I0426 10:40:54.083324  7867 net.cpp:434] fire5_mbox_priorbox <- data_data_0_split_1
I0426 10:40:54.083331  7867 net.cpp:408] fire5_mbox_priorbox -> fire5_mbox_priorbox
I0426 10:40:54.083364  7867 net.cpp:150] Setting up fire5_mbox_priorbox
I0426 10:40:54.083371  7867 net.cpp:157] Top shape: 1 2 21904 (43808)
I0426 10:40:54.083375  7867 net.cpp:165] Memory required for data: 305446624
I0426 10:40:54.083380  7867 layer_factory.hpp:77] Creating layer fire9_mbox_loc
I0426 10:40:54.083393  7867 net.cpp:100] Creating Layer fire9_mbox_loc
I0426 10:40:54.083398  7867 net.cpp:434] fire9_mbox_loc <- fire9/concat_fire9/concat_0_split_1
I0426 10:40:54.083405  7867 net.cpp:408] fire9_mbox_loc -> fire9_mbox_loc
I0426 10:40:54.086117  7867 net.cpp:150] Setting up fire9_mbox_loc
I0426 10:40:54.086132  7867 net.cpp:157] Top shape: 4 24 18 18 (31104)
I0426 10:40:54.086136  7867 net.cpp:165] Memory required for data: 305571040
I0426 10:40:54.086143  7867 layer_factory.hpp:77] Creating layer fire9_mbox_loc_perm
I0426 10:40:54.086151  7867 net.cpp:100] Creating Layer fire9_mbox_loc_perm
I0426 10:40:54.086158  7867 net.cpp:434] fire9_mbox_loc_perm <- fire9_mbox_loc
I0426 10:40:54.086163  7867 net.cpp:408] fire9_mbox_loc_perm -> fire9_mbox_loc_perm
I0426 10:40:54.086284  7867 net.cpp:150] Setting up fire9_mbox_loc_perm
I0426 10:40:54.086292  7867 net.cpp:157] Top shape: 4 18 18 24 (31104)
I0426 10:40:54.086295  7867 net.cpp:165] Memory required for data: 305695456
I0426 10:40:54.086300  7867 layer_factory.hpp:77] Creating layer fire9_mbox_loc_flat
I0426 10:40:54.086307  7867 net.cpp:100] Creating Layer fire9_mbox_loc_flat
I0426 10:40:54.086311  7867 net.cpp:434] fire9_mbox_loc_flat <- fire9_mbox_loc_perm
I0426 10:40:54.086316  7867 net.cpp:408] fire9_mbox_loc_flat -> fire9_mbox_loc_flat
I0426 10:40:54.086339  7867 net.cpp:150] Setting up fire9_mbox_loc_flat
I0426 10:40:54.086345  7867 net.cpp:157] Top shape: 4 7776 (31104)
I0426 10:40:54.086349  7867 net.cpp:165] Memory required for data: 305819872
I0426 10:40:54.086354  7867 layer_factory.hpp:77] Creating layer fire9_mbox_conf
I0426 10:40:54.086361  7867 net.cpp:100] Creating Layer fire9_mbox_conf
I0426 10:40:54.086366  7867 net.cpp:434] fire9_mbox_conf <- fire9/concat_fire9/concat_0_split_2
I0426 10:40:54.086372  7867 net.cpp:408] fire9_mbox_conf -> fire9_mbox_conf
I0426 10:40:54.090669  7867 net.cpp:150] Setting up fire9_mbox_conf
I0426 10:40:54.090688  7867 net.cpp:157] Top shape: 4 42 18 18 (54432)
I0426 10:40:54.090692  7867 net.cpp:165] Memory required for data: 306037600
I0426 10:40:54.090699  7867 layer_factory.hpp:77] Creating layer fire9_mbox_conf_perm
I0426 10:40:54.090708  7867 net.cpp:100] Creating Layer fire9_mbox_conf_perm
I0426 10:40:54.090714  7867 net.cpp:434] fire9_mbox_conf_perm <- fire9_mbox_conf
I0426 10:40:54.090720  7867 net.cpp:408] fire9_mbox_conf_perm -> fire9_mbox_conf_perm
I0426 10:40:54.090828  7867 net.cpp:150] Setting up fire9_mbox_conf_perm
I0426 10:40:54.090837  7867 net.cpp:157] Top shape: 4 18 18 42 (54432)
I0426 10:40:54.090839  7867 net.cpp:165] Memory required for data: 306255328
I0426 10:40:54.090842  7867 layer_factory.hpp:77] Creating layer fire9_mbox_conf_flat
I0426 10:40:54.090868  7867 net.cpp:100] Creating Layer fire9_mbox_conf_flat
I0426 10:40:54.090873  7867 net.cpp:434] fire9_mbox_conf_flat <- fire9_mbox_conf_perm
I0426 10:40:54.090878  7867 net.cpp:408] fire9_mbox_conf_flat -> fire9_mbox_conf_flat
I0426 10:40:54.090900  7867 net.cpp:150] Setting up fire9_mbox_conf_flat
I0426 10:40:54.090906  7867 net.cpp:157] Top shape: 4 13608 (54432)
I0426 10:40:54.090909  7867 net.cpp:165] Memory required for data: 306473056
I0426 10:40:54.090914  7867 layer_factory.hpp:77] Creating layer fire9_mbox_priorbox
I0426 10:40:54.090919  7867 net.cpp:100] Creating Layer fire9_mbox_priorbox
I0426 10:40:54.090925  7867 net.cpp:434] fire9_mbox_priorbox <- fire9/concat_fire9/concat_0_split_3
I0426 10:40:54.090931  7867 net.cpp:434] fire9_mbox_priorbox <- data_data_0_split_2
I0426 10:40:54.090937  7867 net.cpp:408] fire9_mbox_priorbox -> fire9_mbox_priorbox
I0426 10:40:54.090962  7867 net.cpp:150] Setting up fire9_mbox_priorbox
I0426 10:40:54.090968  7867 net.cpp:157] Top shape: 1 2 7776 (15552)
I0426 10:40:54.090971  7867 net.cpp:165] Memory required for data: 306535264
I0426 10:40:54.090975  7867 layer_factory.hpp:77] Creating layer fire10_mbox_loc
I0426 10:40:54.090982  7867 net.cpp:100] Creating Layer fire10_mbox_loc
I0426 10:40:54.090987  7867 net.cpp:434] fire10_mbox_loc <- fire10/concat_fire10/concat_0_split_1
I0426 10:40:54.090993  7867 net.cpp:408] fire10_mbox_loc -> fire10_mbox_loc
I0426 10:40:54.094200  7867 net.cpp:150] Setting up fire10_mbox_loc
I0426 10:40:54.094218  7867 net.cpp:157] Top shape: 4 24 9 9 (7776)
I0426 10:40:54.094221  7867 net.cpp:165] Memory required for data: 306566368
I0426 10:40:54.094228  7867 layer_factory.hpp:77] Creating layer fire10_mbox_loc_perm
I0426 10:40:54.094235  7867 net.cpp:100] Creating Layer fire10_mbox_loc_perm
I0426 10:40:54.094241  7867 net.cpp:434] fire10_mbox_loc_perm <- fire10_mbox_loc
I0426 10:40:54.094249  7867 net.cpp:408] fire10_mbox_loc_perm -> fire10_mbox_loc_perm
I0426 10:40:54.094358  7867 net.cpp:150] Setting up fire10_mbox_loc_perm
I0426 10:40:54.094365  7867 net.cpp:157] Top shape: 4 9 9 24 (7776)
I0426 10:40:54.094368  7867 net.cpp:165] Memory required for data: 306597472
I0426 10:40:54.094372  7867 layer_factory.hpp:77] Creating layer fire10_mbox_loc_flat
I0426 10:40:54.094378  7867 net.cpp:100] Creating Layer fire10_mbox_loc_flat
I0426 10:40:54.094383  7867 net.cpp:434] fire10_mbox_loc_flat <- fire10_mbox_loc_perm
I0426 10:40:54.094388  7867 net.cpp:408] fire10_mbox_loc_flat -> fire10_mbox_loc_flat
I0426 10:40:54.094410  7867 net.cpp:150] Setting up fire10_mbox_loc_flat
I0426 10:40:54.094415  7867 net.cpp:157] Top shape: 4 1944 (7776)
I0426 10:40:54.094419  7867 net.cpp:165] Memory required for data: 306628576
I0426 10:40:54.094422  7867 layer_factory.hpp:77] Creating layer fire10_mbox_conf
I0426 10:40:54.094430  7867 net.cpp:100] Creating Layer fire10_mbox_conf
I0426 10:40:54.094435  7867 net.cpp:434] fire10_mbox_conf <- fire10/concat_fire10/concat_0_split_2
I0426 10:40:54.094441  7867 net.cpp:408] fire10_mbox_conf -> fire10_mbox_conf
I0426 10:40:54.099186  7867 net.cpp:150] Setting up fire10_mbox_conf
I0426 10:40:54.099216  7867 net.cpp:157] Top shape: 4 42 9 9 (13608)
I0426 10:40:54.099220  7867 net.cpp:165] Memory required for data: 306683008
I0426 10:40:54.099237  7867 layer_factory.hpp:77] Creating layer fire10_mbox_conf_perm
I0426 10:40:54.099254  7867 net.cpp:100] Creating Layer fire10_mbox_conf_perm
I0426 10:40:54.099265  7867 net.cpp:434] fire10_mbox_conf_perm <- fire10_mbox_conf
I0426 10:40:54.099277  7867 net.cpp:408] fire10_mbox_conf_perm -> fire10_mbox_conf_perm
I0426 10:40:54.099428  7867 net.cpp:150] Setting up fire10_mbox_conf_perm
I0426 10:40:54.099439  7867 net.cpp:157] Top shape: 4 9 9 42 (13608)
I0426 10:40:54.099442  7867 net.cpp:165] Memory required for data: 306737440
I0426 10:40:54.099447  7867 layer_factory.hpp:77] Creating layer fire10_mbox_conf_flat
I0426 10:40:54.099457  7867 net.cpp:100] Creating Layer fire10_mbox_conf_flat
I0426 10:40:54.099465  7867 net.cpp:434] fire10_mbox_conf_flat <- fire10_mbox_conf_perm
I0426 10:40:54.099515  7867 net.cpp:408] fire10_mbox_conf_flat -> fire10_mbox_conf_flat
I0426 10:40:54.099560  7867 net.cpp:150] Setting up fire10_mbox_conf_flat
I0426 10:40:54.099570  7867 net.cpp:157] Top shape: 4 3402 (13608)
I0426 10:40:54.099575  7867 net.cpp:165] Memory required for data: 306791872
I0426 10:40:54.099582  7867 layer_factory.hpp:77] Creating layer fire10_mbox_priorbox
I0426 10:40:54.099596  7867 net.cpp:100] Creating Layer fire10_mbox_priorbox
I0426 10:40:54.099604  7867 net.cpp:434] fire10_mbox_priorbox <- fire10/concat_fire10/concat_0_split_3
I0426 10:40:54.099613  7867 net.cpp:434] fire10_mbox_priorbox <- data_data_0_split_3
I0426 10:40:54.099624  7867 net.cpp:408] fire10_mbox_priorbox -> fire10_mbox_priorbox
I0426 10:40:54.099666  7867 net.cpp:150] Setting up fire10_mbox_priorbox
I0426 10:40:54.099675  7867 net.cpp:157] Top shape: 1 2 1944 (3888)
I0426 10:40:54.099681  7867 net.cpp:165] Memory required for data: 306807424
I0426 10:40:54.099687  7867 layer_factory.hpp:77] Creating layer fire11_mbox_loc
I0426 10:40:54.099704  7867 net.cpp:100] Creating Layer fire11_mbox_loc
I0426 10:40:54.099712  7867 net.cpp:434] fire11_mbox_loc <- fire11/concat_fire11/concat_0_split_1
I0426 10:40:54.099723  7867 net.cpp:408] fire11_mbox_loc -> fire11_mbox_loc
I0426 10:40:54.103288  7867 net.cpp:150] Setting up fire11_mbox_loc
I0426 10:40:54.103305  7867 net.cpp:157] Top shape: 4 24 4 4 (1536)
I0426 10:40:54.103309  7867 net.cpp:165] Memory required for data: 306813568
I0426 10:40:54.103318  7867 layer_factory.hpp:77] Creating layer fire11_mbox_loc_perm
I0426 10:40:54.103329  7867 net.cpp:100] Creating Layer fire11_mbox_loc_perm
I0426 10:40:54.103338  7867 net.cpp:434] fire11_mbox_loc_perm <- fire11_mbox_loc
I0426 10:40:54.103348  7867 net.cpp:408] fire11_mbox_loc_perm -> fire11_mbox_loc_perm
I0426 10:40:54.103471  7867 net.cpp:150] Setting up fire11_mbox_loc_perm
I0426 10:40:54.103482  7867 net.cpp:157] Top shape: 4 4 4 24 (1536)
I0426 10:40:54.103484  7867 net.cpp:165] Memory required for data: 306819712
I0426 10:40:54.103487  7867 layer_factory.hpp:77] Creating layer fire11_mbox_loc_flat
I0426 10:40:54.103497  7867 net.cpp:100] Creating Layer fire11_mbox_loc_flat
I0426 10:40:54.103503  7867 net.cpp:434] fire11_mbox_loc_flat <- fire11_mbox_loc_perm
I0426 10:40:54.103513  7867 net.cpp:408] fire11_mbox_loc_flat -> fire11_mbox_loc_flat
I0426 10:40:54.103551  7867 net.cpp:150] Setting up fire11_mbox_loc_flat
I0426 10:40:54.103559  7867 net.cpp:157] Top shape: 4 384 (1536)
I0426 10:40:54.103562  7867 net.cpp:165] Memory required for data: 306825856
I0426 10:40:54.103566  7867 layer_factory.hpp:77] Creating layer fire11_mbox_conf
I0426 10:40:54.103577  7867 net.cpp:100] Creating Layer fire11_mbox_conf
I0426 10:40:54.103585  7867 net.cpp:434] fire11_mbox_conf <- fire11/concat_fire11/concat_0_split_2
I0426 10:40:54.103592  7867 net.cpp:408] fire11_mbox_conf -> fire11_mbox_conf
I0426 10:40:54.108068  7867 net.cpp:150] Setting up fire11_mbox_conf
I0426 10:40:54.108086  7867 net.cpp:157] Top shape: 4 42 4 4 (2688)
I0426 10:40:54.108089  7867 net.cpp:165] Memory required for data: 306836608
I0426 10:40:54.108098  7867 layer_factory.hpp:77] Creating layer fire11_mbox_conf_perm
I0426 10:40:54.108108  7867 net.cpp:100] Creating Layer fire11_mbox_conf_perm
I0426 10:40:54.108117  7867 net.cpp:434] fire11_mbox_conf_perm <- fire11_mbox_conf
I0426 10:40:54.108126  7867 net.cpp:408] fire11_mbox_conf_perm -> fire11_mbox_conf_perm
I0426 10:40:54.108247  7867 net.cpp:150] Setting up fire11_mbox_conf_perm
I0426 10:40:54.108258  7867 net.cpp:157] Top shape: 4 4 4 42 (2688)
I0426 10:40:54.108260  7867 net.cpp:165] Memory required for data: 306847360
I0426 10:40:54.108264  7867 layer_factory.hpp:77] Creating layer fire11_mbox_conf_flat
I0426 10:40:54.108271  7867 net.cpp:100] Creating Layer fire11_mbox_conf_flat
I0426 10:40:54.108279  7867 net.cpp:434] fire11_mbox_conf_flat <- fire11_mbox_conf_perm
I0426 10:40:54.108286  7867 net.cpp:408] fire11_mbox_conf_flat -> fire11_mbox_conf_flat
I0426 10:40:54.108338  7867 net.cpp:150] Setting up fire11_mbox_conf_flat
I0426 10:40:54.108369  7867 net.cpp:157] Top shape: 4 672 (2688)
I0426 10:40:54.108373  7867 net.cpp:165] Memory required for data: 306858112
I0426 10:40:54.108377  7867 layer_factory.hpp:77] Creating layer fire11_mbox_priorbox
I0426 10:40:54.108387  7867 net.cpp:100] Creating Layer fire11_mbox_priorbox
I0426 10:40:54.108395  7867 net.cpp:434] fire11_mbox_priorbox <- fire11/concat_fire11/concat_0_split_3
I0426 10:40:54.108404  7867 net.cpp:434] fire11_mbox_priorbox <- data_data_0_split_4
I0426 10:40:54.108414  7867 net.cpp:408] fire11_mbox_priorbox -> fire11_mbox_priorbox
I0426 10:40:54.108453  7867 net.cpp:150] Setting up fire11_mbox_priorbox
I0426 10:40:54.108463  7867 net.cpp:157] Top shape: 1 2 384 (768)
I0426 10:40:54.108467  7867 net.cpp:165] Memory required for data: 306861184
I0426 10:40:54.108474  7867 layer_factory.hpp:77] Creating layer conv12_2_mbox_loc
I0426 10:40:54.108487  7867 net.cpp:100] Creating Layer conv12_2_mbox_loc
I0426 10:40:54.108496  7867 net.cpp:434] conv12_2_mbox_loc <- conv12_2_conv12_2/relu_0_split_1
I0426 10:40:54.108506  7867 net.cpp:408] conv12_2_mbox_loc -> conv12_2_mbox_loc
I0426 10:40:54.110265  7867 net.cpp:150] Setting up conv12_2_mbox_loc
I0426 10:40:54.110278  7867 net.cpp:157] Top shape: 4 24 2 2 (384)
I0426 10:40:54.110285  7867 net.cpp:165] Memory required for data: 306862720
I0426 10:40:54.110296  7867 layer_factory.hpp:77] Creating layer conv12_2_mbox_loc_perm
I0426 10:40:54.110306  7867 net.cpp:100] Creating Layer conv12_2_mbox_loc_perm
I0426 10:40:54.110313  7867 net.cpp:434] conv12_2_mbox_loc_perm <- conv12_2_mbox_loc
I0426 10:40:54.110319  7867 net.cpp:408] conv12_2_mbox_loc_perm -> conv12_2_mbox_loc_perm
I0426 10:40:54.110430  7867 net.cpp:150] Setting up conv12_2_mbox_loc_perm
I0426 10:40:54.110440  7867 net.cpp:157] Top shape: 4 2 2 24 (384)
I0426 10:40:54.110443  7867 net.cpp:165] Memory required for data: 306864256
I0426 10:40:54.110446  7867 layer_factory.hpp:77] Creating layer conv12_2_mbox_loc_flat
I0426 10:40:54.110455  7867 net.cpp:100] Creating Layer conv12_2_mbox_loc_flat
I0426 10:40:54.110461  7867 net.cpp:434] conv12_2_mbox_loc_flat <- conv12_2_mbox_loc_perm
I0426 10:40:54.110471  7867 net.cpp:408] conv12_2_mbox_loc_flat -> conv12_2_mbox_loc_flat
I0426 10:40:54.110514  7867 net.cpp:150] Setting up conv12_2_mbox_loc_flat
I0426 10:40:54.110523  7867 net.cpp:157] Top shape: 4 96 (384)
I0426 10:40:54.110527  7867 net.cpp:165] Memory required for data: 306865792
I0426 10:40:54.110530  7867 layer_factory.hpp:77] Creating layer conv12_2_mbox_conf
I0426 10:40:54.110540  7867 net.cpp:100] Creating Layer conv12_2_mbox_conf
I0426 10:40:54.110548  7867 net.cpp:434] conv12_2_mbox_conf <- conv12_2_conv12_2/relu_0_split_2
I0426 10:40:54.110558  7867 net.cpp:408] conv12_2_mbox_conf -> conv12_2_mbox_conf
I0426 10:40:54.113057  7867 net.cpp:150] Setting up conv12_2_mbox_conf
I0426 10:40:54.113070  7867 net.cpp:157] Top shape: 4 42 2 2 (672)
I0426 10:40:54.113075  7867 net.cpp:165] Memory required for data: 306868480
I0426 10:40:54.113081  7867 layer_factory.hpp:77] Creating layer conv12_2_mbox_conf_perm
I0426 10:40:54.113091  7867 net.cpp:100] Creating Layer conv12_2_mbox_conf_perm
I0426 10:40:54.113099  7867 net.cpp:434] conv12_2_mbox_conf_perm <- conv12_2_mbox_conf
I0426 10:40:54.113111  7867 net.cpp:408] conv12_2_mbox_conf_perm -> conv12_2_mbox_conf_perm
I0426 10:40:54.113242  7867 net.cpp:150] Setting up conv12_2_mbox_conf_perm
I0426 10:40:54.113252  7867 net.cpp:157] Top shape: 4 2 2 42 (672)
I0426 10:40:54.113255  7867 net.cpp:165] Memory required for data: 306871168
I0426 10:40:54.113258  7867 layer_factory.hpp:77] Creating layer conv12_2_mbox_conf_flat
I0426 10:40:54.113267  7867 net.cpp:100] Creating Layer conv12_2_mbox_conf_flat
I0426 10:40:54.113274  7867 net.cpp:434] conv12_2_mbox_conf_flat <- conv12_2_mbox_conf_perm
I0426 10:40:54.113281  7867 net.cpp:408] conv12_2_mbox_conf_flat -> conv12_2_mbox_conf_flat
I0426 10:40:54.113312  7867 net.cpp:150] Setting up conv12_2_mbox_conf_flat
I0426 10:40:54.113322  7867 net.cpp:157] Top shape: 4 168 (672)
I0426 10:40:54.113345  7867 net.cpp:165] Memory required for data: 306873856
I0426 10:40:54.113354  7867 layer_factory.hpp:77] Creating layer conv12_2_mbox_priorbox
I0426 10:40:54.113364  7867 net.cpp:100] Creating Layer conv12_2_mbox_priorbox
I0426 10:40:54.113373  7867 net.cpp:434] conv12_2_mbox_priorbox <- conv12_2_conv12_2/relu_0_split_3
I0426 10:40:54.113380  7867 net.cpp:434] conv12_2_mbox_priorbox <- data_data_0_split_5
I0426 10:40:54.113390  7867 net.cpp:408] conv12_2_mbox_priorbox -> conv12_2_mbox_priorbox
I0426 10:40:54.113435  7867 net.cpp:150] Setting up conv12_2_mbox_priorbox
I0426 10:40:54.113445  7867 net.cpp:157] Top shape: 1 2 96 (192)
I0426 10:40:54.113451  7867 net.cpp:165] Memory required for data: 306874624
I0426 10:40:54.113457  7867 layer_factory.hpp:77] Creating layer conv13_2_mbox_loc
I0426 10:40:54.113469  7867 net.cpp:100] Creating Layer conv13_2_mbox_loc
I0426 10:40:54.113477  7867 net.cpp:434] conv13_2_mbox_loc <- conv13_2_conv13_2/relu_0_split_0
I0426 10:40:54.113488  7867 net.cpp:408] conv13_2_mbox_loc -> conv13_2_mbox_loc
I0426 10:40:54.114873  7867 net.cpp:150] Setting up conv13_2_mbox_loc
I0426 10:40:54.114889  7867 net.cpp:157] Top shape: 4 16 1 1 (64)
I0426 10:40:54.114897  7867 net.cpp:165] Memory required for data: 306874880
I0426 10:40:54.114907  7867 layer_factory.hpp:77] Creating layer conv13_2_mbox_loc_perm
I0426 10:40:54.114917  7867 net.cpp:100] Creating Layer conv13_2_mbox_loc_perm
I0426 10:40:54.114926  7867 net.cpp:434] conv13_2_mbox_loc_perm <- conv13_2_mbox_loc
I0426 10:40:54.114935  7867 net.cpp:408] conv13_2_mbox_loc_perm -> conv13_2_mbox_loc_perm
I0426 10:40:54.115061  7867 net.cpp:150] Setting up conv13_2_mbox_loc_perm
I0426 10:40:54.115069  7867 net.cpp:157] Top shape: 4 1 1 16 (64)
I0426 10:40:54.115075  7867 net.cpp:165] Memory required for data: 306875136
I0426 10:40:54.115082  7867 layer_factory.hpp:77] Creating layer conv13_2_mbox_loc_flat
I0426 10:40:54.115092  7867 net.cpp:100] Creating Layer conv13_2_mbox_loc_flat
I0426 10:40:54.115100  7867 net.cpp:434] conv13_2_mbox_loc_flat <- conv13_2_mbox_loc_perm
I0426 10:40:54.115109  7867 net.cpp:408] conv13_2_mbox_loc_flat -> conv13_2_mbox_loc_flat
I0426 10:40:54.115144  7867 net.cpp:150] Setting up conv13_2_mbox_loc_flat
I0426 10:40:54.115154  7867 net.cpp:157] Top shape: 4 16 (64)
I0426 10:40:54.115159  7867 net.cpp:165] Memory required for data: 306875392
I0426 10:40:54.115166  7867 layer_factory.hpp:77] Creating layer conv13_2_mbox_conf
I0426 10:40:54.115186  7867 net.cpp:100] Creating Layer conv13_2_mbox_conf
I0426 10:40:54.115193  7867 net.cpp:434] conv13_2_mbox_conf <- conv13_2_conv13_2/relu_0_split_1
I0426 10:40:54.115203  7867 net.cpp:408] conv13_2_mbox_conf -> conv13_2_mbox_conf
I0426 10:40:54.116708  7867 net.cpp:150] Setting up conv13_2_mbox_conf
I0426 10:40:54.116721  7867 net.cpp:157] Top shape: 4 28 1 1 (112)
I0426 10:40:54.116729  7867 net.cpp:165] Memory required for data: 306875840
I0426 10:40:54.116751  7867 layer_factory.hpp:77] Creating layer conv13_2_mbox_conf_perm
I0426 10:40:54.116763  7867 net.cpp:100] Creating Layer conv13_2_mbox_conf_perm
I0426 10:40:54.116771  7867 net.cpp:434] conv13_2_mbox_conf_perm <- conv13_2_mbox_conf
I0426 10:40:54.116782  7867 net.cpp:408] conv13_2_mbox_conf_perm -> conv13_2_mbox_conf_perm
I0426 10:40:54.116904  7867 net.cpp:150] Setting up conv13_2_mbox_conf_perm
I0426 10:40:54.116912  7867 net.cpp:157] Top shape: 4 1 1 28 (112)
I0426 10:40:54.116919  7867 net.cpp:165] Memory required for data: 306876288
I0426 10:40:54.116925  7867 layer_factory.hpp:77] Creating layer conv13_2_mbox_conf_flat
I0426 10:40:54.116942  7867 net.cpp:100] Creating Layer conv13_2_mbox_conf_flat
I0426 10:40:54.116950  7867 net.cpp:434] conv13_2_mbox_conf_flat <- conv13_2_mbox_conf_perm
I0426 10:40:54.116960  7867 net.cpp:408] conv13_2_mbox_conf_flat -> conv13_2_mbox_conf_flat
I0426 10:40:54.116997  7867 net.cpp:150] Setting up conv13_2_mbox_conf_flat
I0426 10:40:54.117004  7867 net.cpp:157] Top shape: 4 28 (112)
I0426 10:40:54.117012  7867 net.cpp:165] Memory required for data: 306876736
I0426 10:40:54.117033  7867 layer_factory.hpp:77] Creating layer conv13_2_mbox_priorbox
I0426 10:40:54.117044  7867 net.cpp:100] Creating Layer conv13_2_mbox_priorbox
I0426 10:40:54.117053  7867 net.cpp:434] conv13_2_mbox_priorbox <- conv13_2_conv13_2/relu_0_split_2
I0426 10:40:54.117061  7867 net.cpp:434] conv13_2_mbox_priorbox <- data_data_0_split_6
I0426 10:40:54.117071  7867 net.cpp:408] conv13_2_mbox_priorbox -> conv13_2_mbox_priorbox
I0426 10:40:54.117116  7867 net.cpp:150] Setting up conv13_2_mbox_priorbox
I0426 10:40:54.117125  7867 net.cpp:157] Top shape: 1 2 16 (32)
I0426 10:40:54.117131  7867 net.cpp:165] Memory required for data: 306876864
I0426 10:40:54.117138  7867 layer_factory.hpp:77] Creating layer mbox_loc
I0426 10:40:54.117149  7867 net.cpp:100] Creating Layer mbox_loc
I0426 10:40:54.117158  7867 net.cpp:434] mbox_loc <- fire5_mbox_loc_flat
I0426 10:40:54.117167  7867 net.cpp:434] mbox_loc <- fire9_mbox_loc_flat
I0426 10:40:54.117177  7867 net.cpp:434] mbox_loc <- fire10_mbox_loc_flat
I0426 10:40:54.117184  7867 net.cpp:434] mbox_loc <- fire11_mbox_loc_flat
I0426 10:40:54.117192  7867 net.cpp:434] mbox_loc <- conv12_2_mbox_loc_flat
I0426 10:40:54.117202  7867 net.cpp:434] mbox_loc <- conv13_2_mbox_loc_flat
I0426 10:40:54.117209  7867 net.cpp:408] mbox_loc -> mbox_loc
I0426 10:40:54.117249  7867 net.cpp:150] Setting up mbox_loc
I0426 10:40:54.117256  7867 net.cpp:157] Top shape: 4 32120 (128480)
I0426 10:40:54.117264  7867 net.cpp:165] Memory required for data: 307390784
I0426 10:40:54.117270  7867 layer_factory.hpp:77] Creating layer mbox_conf
I0426 10:40:54.117280  7867 net.cpp:100] Creating Layer mbox_conf
I0426 10:40:54.117288  7867 net.cpp:434] mbox_conf <- fire5_mbox_conf_flat
I0426 10:40:54.117296  7867 net.cpp:434] mbox_conf <- fire9_mbox_conf_flat
I0426 10:40:54.117305  7867 net.cpp:434] mbox_conf <- fire10_mbox_conf_flat
I0426 10:40:54.117313  7867 net.cpp:434] mbox_conf <- fire11_mbox_conf_flat
I0426 10:40:54.117321  7867 net.cpp:434] mbox_conf <- conv12_2_mbox_conf_flat
I0426 10:40:54.117329  7867 net.cpp:434] mbox_conf <- conv13_2_mbox_conf_flat
I0426 10:40:54.117338  7867 net.cpp:408] mbox_conf -> mbox_conf
I0426 10:40:54.117372  7867 net.cpp:150] Setting up mbox_conf
I0426 10:40:54.117382  7867 net.cpp:157] Top shape: 4 56210 (224840)
I0426 10:40:54.117388  7867 net.cpp:165] Memory required for data: 308290144
I0426 10:40:54.117394  7867 layer_factory.hpp:77] Creating layer mbox_priorbox
I0426 10:40:54.117404  7867 net.cpp:100] Creating Layer mbox_priorbox
I0426 10:40:54.117411  7867 net.cpp:434] mbox_priorbox <- fire5_mbox_priorbox
I0426 10:40:54.117420  7867 net.cpp:434] mbox_priorbox <- fire9_mbox_priorbox
I0426 10:40:54.117429  7867 net.cpp:434] mbox_priorbox <- fire10_mbox_priorbox
I0426 10:40:54.117436  7867 net.cpp:434] mbox_priorbox <- fire11_mbox_priorbox
I0426 10:40:54.117444  7867 net.cpp:434] mbox_priorbox <- conv12_2_mbox_priorbox
I0426 10:40:54.117451  7867 net.cpp:434] mbox_priorbox <- conv13_2_mbox_priorbox
I0426 10:40:54.117460  7867 net.cpp:408] mbox_priorbox -> mbox_priorbox
I0426 10:40:54.117494  7867 net.cpp:150] Setting up mbox_priorbox
I0426 10:40:54.117503  7867 net.cpp:157] Top shape: 1 2 32120 (64240)
I0426 10:40:54.117509  7867 net.cpp:165] Memory required for data: 308547104
I0426 10:40:54.117516  7867 layer_factory.hpp:77] Creating layer mbox_loss
I0426 10:40:54.117532  7867 net.cpp:100] Creating Layer mbox_loss
I0426 10:40:54.117539  7867 net.cpp:434] mbox_loss <- mbox_loc
I0426 10:40:54.117547  7867 net.cpp:434] mbox_loss <- mbox_conf
I0426 10:40:54.117555  7867 net.cpp:434] mbox_loss <- mbox_priorbox
…
name: "squeezenet-ssd"
state {
  phase: TEST
}
layer {
  name: "data"
  type: "AnnotatedData"
  top: "data"
  top: "label"
  include {
    phase: TEST
  }
  transform_param {
    scale: 0.007843
    mean_value: 127.5
    mean_value: 127.5
    mean_value: 127.5
    resize_param {
      prob: 1
      resize_mode: WARP
      height: 300
      width: 300
      interp_mode: LINEAR
    }
  }
  data_param {
    source: "test_lmdb/"
    batch_size: 2
    backend: LMDB
  }
  annotated_data_param {
    batch_sampler {
    }
    label_map_file: "labelmap.prototxt"
  }
}
layer {
  name: "conv1"
  type: "Convolution"
  bottom: "data"
  top: "conv1"
  param {
    lr_mult: 0.1
    decay_mult: 0.1
  }
  convolution_param {
    num_output: 64
    bias_term: false
    kernel_size: 3
    stride: 2
    weight_filler {
      type: "msra"
    }
  }
}
layer {
  name: "relu_conv1"
  type: "ReLU"
  bottom: "conv1"
  top: "conv1"
}
layer {
  name: "pool1"
  type: "Pooling"
  bottom: "conv1"
  top: "pool1"
  pooling_param {
    pool: MAX
    kernel_size: 3
    stride: 2
  }
}
layer {
  name: "fire2/squeeze1x1"
  type: "Convolution"
  bottom: "pool1"
  top: "fire2/squeeze1x1"
  param {
    lr_mult: 0.1
    decay_mult: 0.1
  }
  convolution_param {
    num_output: 16
    bias_term: false
    kernel_size: 1
    weight_filler {
      type: "msra"
    }
  }
}
layer {
  name: "fire2/relu_squeeze1x1"
  type: "ReLU"
  bottom: "fire2/squeeze1x1"
  top: "fire2/squeeze1x1"
}
layer {
  name: "fire2/expand1x1"
  type: "Convolution"
  bottom: "fire2/squeeze1x1"
  top: "fire2/expand1x1"
  param {
    lr_mult: 0.1
    decay_mult: 0.1
  }
  convolution_param {
    num_output: 64
    bias_term: false
    kernel_size: 1
    weight_filler {
      type: "msra"
    }
  }
}
layer {
  name: "fire2/relu_expand1x1"
  type: "ReLU"
  bottom: "fire2/expand1x1"
  top: "fire2/expand1x1"
}
layer {
  name: "fire2/expand3x3"
  type: "Convolution"
  bottom: "fire2/squeeze1x1"
  top: "fire2/expand3x3"
  param {
    lr_mult: 0.1
    decay_mult: 0.1
  }
  convolution_param {
    num_output: 64
    bias_term: false
    pad: 1
    kernel_size: 3
    weight_filler {
      type: "msra"
    }
  }
}
layer {
  name: "fire2/relu_expand3x3"
  type: "ReLU"
  bottom: "fire2/expand3x3"
  top: "fire2/expand3x3"
}
layer {
  name: "fire2/concat"
  type: "Concat"
  bottom: "fire2/expand1x1"
  bottom: "fire2/expand3x3"
  top: "fire2/concat"
}
layer {
  name: "fire3/squeeze1x1"
  type: "Convolution"
  bottom: "fire2/concat"
  top: "fire3/squeeze1x1"
  param {
    lr_mult: 0.1
    decay_mult: 0.1
  }
  convolution_param {
    num_output: 16
    bias_term: false
    kernel_size: 1
    weight_filler {
      type: "msra"
    }
  }
}
layer {
  name: "fire3/relu_squeeze1x1"
  type: "ReLU"
  bottom: "fire3/squeeze1x1"
  top: "fire3/squeeze1x1"
}
layer {
  name: "fire3/expand1x1"
  type: "Convolution"
  bottom: "fire3/squeeze1x1"
  top: "fire3/expand1x1"
  param {
    lr_mult: 0.1
    decay_mult: 0.1
  }
  convolution_param {
    num_output: 64
    bias_term: false
    kernel_size: 1
    weight_filler {
      type: "msra"
    }
  }
}
layer {
  name: "fire3/relu_expand1x1"
  type: "ReLU"
  bottom: "fire3/expand1x1"
  top: "fire3/expand1x1"
}
layer {
  name: "fire3/expand3x3"
  type: "Convolution"
  bottom: "fire3/squeeze1x1"
  top: "fire3/expand3x3"
  param {
    lr_mult: 0.1
    decay_mult: 0.1
  }
  convolution_param {
    num_output: 64
    bias_term: false
    pad: 1
    kernel_size: 3
    weight_filler {
      type: "msra"
    }
  }
}
layer {
  name: "fire3/relu_expand3x3"
  type: "ReLU"
  bottom: "fire3/expand3x3"
  top: "fire3/expand3x3"
}
layer {
  name: "fire3/concat"
  type: "Concat"
  bottom: "fire3/expand1x1"
  bottom: "fire3/expand3x3"
  top: "fire3/concat"
}
layer {
  name: "pool3"
  type: "Pooling"
  bottom: "fire3/concat"
  top: "pool3"
  pooling_param {
    pool: MAX
    kernel_size: 3
    stride: 2
  }
}
layer {
  name: "fire4/squeeze1x1"
  type: "Convolution"
  bottom: "pool3"
  top: "fire4/squeeze1x1"
  param {
    lr_mult: 0.1
    decay_mult: 0.1
  }
  convolution_param {
    num_output: 32
    bias_term: false
    kernel_size: 1
    weight_filler {
      type: "msra"
    }
  }
}
layer {
  name: "fire4/relu_squeeze1x1"
  type: "ReLU"
  bottom: "fire4/squeeze1x1"
  top: "fire4/squeeze1x1"
}
layer {
  name: "fire4/expand1x1"
  type: "Convolution"
  bottom: "fire4/squeeze1x1"
  top: "fire4/expand1x1"
  param {
    lr_mult: 0.1
    decay_mult: 0.1
  }
  convolution_param {
    num_output: 128
    bias_term: false
    kernel_size: 1
    weight_filler {
      type: "msra"
    }
  }
}
layer {
  name: "fire4/relu_expand1x1"
  type: "ReLU"
  bottom: "fire4/expand1x1"
  top: "fire4/expand1x1"
}
layer {
  name: "fire4/expand3x3"
  type: "Convolution"
  bottom: "fire4/squeeze1x1"
  top: "fire4/expand3x3"
  param {
    lr_mult: 0.1
    decay_mult: 0.1
  }
  convolution_param {
    num_output: 128
    bias_term: false
    pad: 1
    kernel_size: 3
    weight_filler {
      type: "msra"
    }
  }
}
layer {
  name: "fire4/relu_expand3x3"
  type: "ReLU"
  bottom: "fire4/expand3x3"
  top: "fire4/expand3x3"
}
layer {
  name: "fire4/concat"
  type: "Concat"
  bottom: "fire4/expand1x1"
  bottom: "fire4/expand3x3"
  top: "fire4/concat"
}
layer {
  name: "fire5/squeeze1x1"
  type: "Convolution"
  bottom: "fire4/concat"
  top: "fire5/squeeze1x1"
  param {
    lr_mult: 0.1
    decay_mult: 0.1
  }
  convolution_param {
    num_output: 32
    bias_term: false
    kernel_size: 1
    weight_filler {
      type: "msra"
    }
  }
}
layer {
  name: "fire5/relu_squeeze1x1"
  type: "ReLU"
  bottom: "fire5/squeeze1x1"
  top: "fire5/squeeze1x1"
}
layer {
  name: "fire5/expand1x1"
  type: "Convolution"
  bottom: "fire5/squeeze1x1"
  top: "fire5/expand1x1"
  param {
    lr_mult: 0.1
    decay_mult: 0.1
  }
  convolution_param {
    num_output: 128
    bias_term: false
    kernel_size: 1
    weight_filler {
      type: "msra"
    }
  }
}
layer {
  name: "fire5/expand1x1/bn"
  type: "BatchNorm"
  bottom: "fire5/expand1x1"
  top: "fire5/expand1x1"
}
layer {
  name: "fire5/expand1x1/scale"
  type: "Scale"
  bottom: "fire5/expand1x1"
  top: "fire5/expand1x1"
  param {
    lr_mult: 0.1
    decay_mult: 0
  }
  param {
    lr_mult: 0.2
    decay_mult: 0
  }
  scale_param {
    filler {
      value: 1
    }
    bias_term: true
    bias_filler {
      value: 0
    }
  }
}
layer {
  name: "fire5/relu_expand1x1"
  type: "ReLU"
  bottom: "fire5/expand1x1"
  top: "fire5/expand1x1"
}
layer {
  name: "fire5/expand3x3"
  type: "Convolution"
  bottom: "fire5/squeeze1x1"
  top: "fire5/expand3x3"
  param {
    lr_mult: 0.1
    decay_mult: 0.1
  }
  convolution_param {
    num_output: 128
    bias_term: false
    pad: 1
    kernel_size: 3
    weight_filler {
      type: "msra"
    }
  }
}
layer {
  name: "fire5/expand3x3/bn"
  type: "BatchNorm"
  bottom: "fire5/expand3x3"
  top: "fire5/expand3x3"
}
layer {
  name: "fire5/expand3x3/scale"
  type: "Scale"
  bottom: "fire5/expand3x3"
  top: "fire5/expand3x3"
  param {
    lr_mult: 0.1
    decay_mult: 0
  }
  param {
    lr_mult: 0.2
    decay_mult: 0
  }
  scale_param {
    filler {
      value: 1
    }
    bias_term: true
    bias_filler {
      value: 0
    }
  }
}
layer {
  name: "fire5/relu_expand3x3"
  type: "ReLU"
  bottom: "fire5/expand3x3"
  top: "fire5/expand3x3"
}
layer {
  name: "fire5/concat"
  type: "Concat"
  bottom: "fire5/expand1x1"
  bottom: "fire5/expand3x3"
  top: "fire5/concat"
}
layer {
  name: "pool5"
  type: "Pooling"
  bottom: "fire5/concat"
  top: "pool5"
  pooling_param {
    pool: MAX
    kernel_size: 3
    stride: 2
  }
}
layer {
  name: "fire6/squeeze1x1"
  type: "Convolution"
  bottom: "pool5"
  top: "fire6/squeeze1x1"
  param {
    lr_mult: 0.1
    decay_mult: 0.1
  }
  convolution_param {
    num_output: 48
    bias_term: false
    kernel_size: 1
    weight_filler {
      type: "msra"
    }
  }
}
layer {
  name: "fire6/relu_squeeze1x1"
  type: "ReLU"
  bottom: "fire6/squeeze1x1"
  top: "fire6/squeeze1x1"
}
layer {
  name: "fire6/expand1x1"
  type: "Convolution"
  bottom: "fire6/squeeze1x1"
  top: "fire6/expand1x1"
  param {
    lr_mult: 0.1
    decay_mult: 0.1
  }
  convolution_param {
    num_output: 192
    bias_term: false
    kernel_size: 1
    weight_filler {
      type: "msra"
    }
  }
}
layer {
  name: "fire6/relu_expand1x1"
  type: "ReLU"
  bottom: "fire6/expand1x1"
  top: "fire6/expand1x1"
}
layer {
  name: "fire6/expand3x3"
  type: "Convolution"
  bottom: "fire6/squeeze1x1"
  top: "fire6/expand3x3"
  param {
    lr_mult: 0.1
    decay_mult: 0.1
  }
  convolution_param {
    num_output: 192
    bias_term: false
    pad: 1
    kernel_size: 3
    weight_filler {
      type: "msra"
    }
  }
}
layer {
  name: "fire6/relu_expand3x3"
  type: "ReLU"
  bottom: "fire6/expand3x3"
  top: "fire6/expand3x3"
}
layer {
  name: "fire6/concat"
  type: "Concat"
  bottom: "fire6/expand1x1"
  bottom: "fire6/expand3x3"
  top: "fire6/concat"
}
layer {
  name: "fire7/squeeze1x1"
  type: "Convolution"
  bottom: "fire6/concat"
  top: "fire7/squeeze1x1"
  param {
    lr_mult: 0.1
    decay_mult: 0.1
  }
  convolution_param {
    num_output: 48
    bias_term: false
    kernel_size: 1
    weight_filler {
      type: "msra"
    }
  }
}
layer {
  name: "fire7/relu_squeeze1x1"
  type: "ReLU"
  bottom: "fire7/squeeze1x1"
  top: "fire7/squeeze1x1"
}
layer {
  name: "fire7/expand1x1"
  type: "Convolution"
  bottom: "fire7/squeeze1x1"
  top: "fire7/expand1x1"
  param {
    lr_mult: 0.1
    decay_mult: 0.1
  }
  convolution_param {
    num_output: 192
    bias_term: false
    kernel_size: 1
    weight_filler {
      type: "msra"
    }
  }
}
layer {
  name: "fire7/relu_expand1x1"
  type: "ReLU"
  bottom: "fire7/expand1x1"
  top: "fire7/expand1x1"
}
layer {
  name: "fire7/expand3x3"
  type: "Convolution"
  bottom: "fire7/squeeze1x1"
  top: "fire7/expand3x3"
  param {
    lr_mult: 0.1
    decay_mult: 0.1
  }
  convolution_param {
    num_output: 192
    bias_term: false
    pad: 1
    kernel_size: 3
    weight_filler {
      type: "msra"
    }
  }
}
layer {
  name: "fire7/relu_expand3x3"
  type: "ReLU"
  bottom: "fire7/expand3x3"
  top: "fire7/expand3x3"
}
layer {
  name: "fire7/concat"
  type: "Concat"
  bottom: "fire7/expand1x1"
  bottom: "fire7/expand3x3"
  top: "fire7/concat"
}
layer {
  name: "fire8/squeeze1x1"
  type: "Convolution"
  bottom: "fire7/concat"
  top: "fire8/squeeze1x1"
  param {
    lr_mult: 0.1
    decay_mult: 0.1
  }
  convolution_param {
    num_output: 64
    bias_term: false
    kernel_size: 1
    weight_filler {
      type: "msra"
    }
  }
}
layer {
  name: "fire8/relu_squeeze1x1"
  type: "ReLU"
  bottom: "fire8/squeeze1x1"
  top: "fire8/squeeze1x1"
}
layer {
  name: "fire8/expand1x1"
  type: "Convolution"
  bottom: "fire8/squeeze1x1"
  top: "fire8/expand1x1"
  param {
    lr_mult: 0.1
    decay_mult: 0.1
  }
  convolution_param {
    num_output: 256
    bias_term: false
    kernel_size: 1
    weight_filler {
      type: "msra"
    }
  }
}
layer {
  name: "fire8/relu_expand1x1"
  type: "ReLU"
  bottom: "fire8/expand1x1"
  top: "fire8/expand1x1"
}
layer {
  name: "fire8/expand3x3"
  type: "Convolution"
  bottom: "fire8/squeeze1x1"
  top: "fire8/expand3x3"
  param {
    lr_mult: 0.1
    decay_mult: 0.1
  }
  convolution_param {
    num_output: 256
    bias_term: false
    pad: 1
    kernel_size: 3
    weight_filler {
      type: "msra"
    }
  }
}
layer {
  name: "fire8/relu_expand3x3"
  type: "ReLU"
  bottom: "fire8/expand3x3"
  top: "fire8/expand3x3"
}
layer {
  name: "fire8/concat"
  type: "Concat"
  bottom: "fire8/expand1x1"
  bottom: "fire8/expand3x3"
  top: "fire8/concat"
}
layer {
  name: "fire9/squeeze1x1"
  type: "Convolution"
  bottom: "fire8/concat"
  top: "fire9/squeeze1x1"
  param {
    lr_mult: 0.1
    decay_mult: 0.1
  }
  convolution_param {
    num_output: 64
    bias_term: false
    kernel_size: 1
    weight_filler {
      type: "msra"
    }
  }
}
layer {
  name: "fire9/relu_squeeze1x1"
  type: "ReLU"
  bottom: "fire9/squeeze1x1"
  top: "fire9/squeeze1x1"
}
layer {
  name: "fire9/expand1x1"
  type: "Convolution"
  bottom: "fire9/squeeze1x1"
  top: "fire9/expand1x1"
  param {
    lr_mult: 0.1
    decay_mult: 0.1
  }
  convolution_param {
    num_output: 256
    bias_term: false
    kernel_size: 1
    weight_filler {
      type: "msra"
    }
  }
}
layer {
  name: "fire9/expand1x1/bn"
  type: "BatchNorm"
  bottom: "fire9/expand1x1"
  top: "fire9/expand1x1"
}
layer {
  name: "fire9/expand1x1/scale"
  type: "Scale"
  bottom: "fire9/expand1x1"
  top: "fire9/expand1x1"
  param {
    lr_mult: 0.1
    decay_mult: 0
  }
  param {
    lr_mult: 0.2
    decay_mult: 0
  }
  scale_param {
    filler {
      value: 1
    }
    bias_term: true
    bias_filler {
      value: 0
    }
  }
}
layer {
  name: "fire9/relu_expand1x1"
  type: "ReLU"
  bottom: "fire9/expand1x1"
  top: "fire9/expand1x1"
}
layer {
  name: "fire9/expand3x3"
  type: "Convolution"
  bottom: "fire9/squeeze1x1"
  top: "fire9/expand3x3"
  param {
    lr_mult: 0.1
    decay_mult: 0.1
  }
  convolution_param {
    num_output: 256
    bias_term: false
    pad: 1
    kernel_size: 3
    weight_filler {
      type: "msra"
    }
  }
}
layer {
  name: "fire9/expand3x3/bn"
  type: "BatchNorm"
  bottom: "fire9/expand3x3"
  top: "fire9/expand3x3"
}
layer {
  name: "fire9/expand3x3/scale"
  type: "Scale"
  bottom: "fire9/expand3x3"
  top: "fire9/expand3x3"
  param {
    lr_mult: 0.1
    decay_mult: 0
  }
  param {
    lr_mult: 0.2
    decay_mult: 0
  }
  scale_param {
    filler {
      value: 1
    }
    bias_term: true
    bias_filler {
      value: 0
    }
  }
}
layer {
  name: "fire9/relu_expand3x3"
  type: "ReLU"
  bottom: "fire9/expand3x3"
  top: "fire9/expand3x3"
}
layer {
  name: "fire9/concat"
  type: "Concat"
  bottom: "fire9/expand1x1"
  bottom: "fire9/expand3x3"
  top: "fire9/concat"
}
layer {
  name: "pool9"
  type: "Pooling"
  bottom: "fire9/concat"
  top: "pool9"
  pooling_param {
    pool: MAX
    kernel_size: 3
    stride: 2
  }
}
layer {
  name: "fire10/squeeze1x1"
  type: "Convolution"
  bottom: "pool9"
  top: "fire10/squeeze1x1"
  param {
    lr_mult: 0.1
    decay_mult: 0.1
  }
  convolution_param {
    num_output: 96
    bias_term: false
    kernel_size: 1
    weight_filler {
      type: "msra"
    }
  }
}
layer {
  name: "fire10/squeeze1x1/bn"
  type: "BatchNorm"
  bottom: "fire10/squeeze1x1"
  top: "fire10/squeeze1x1"
}
layer {
  name: "fire10/squeeze1x1/scale"
  type: "Scale"
  bottom: "fire10/squeeze1x1"
  top: "fire10/squeeze1x1"
…
I0426 10:40:54.208413  7867 net.cpp:434] pool10 <- fire10/concat_fire10/concat_0_split_0
I0426 10:40:54.208422  7867 net.cpp:408] pool10 -> pool10
I0426 10:40:54.208485  7867 net.cpp:150] Setting up pool10
I0426 10:40:54.208493  7867 net.cpp:157] Top shape: 2 768 4 4 (24576)
I0426 10:40:54.208499  7867 net.cpp:165] Memory required for data: 150085152
I0426 10:40:54.208504  7867 layer_factory.hpp:77] Creating layer fire11/squeeze1x1
I0426 10:40:54.208514  7867 net.cpp:100] Creating Layer fire11/squeeze1x1
I0426 10:40:54.208520  7867 net.cpp:434] fire11/squeeze1x1 <- pool10
I0426 10:40:54.208528  7867 net.cpp:408] fire11/squeeze1x1 -> fire11/squeeze1x1
I0426 10:40:54.210927  7867 net.cpp:150] Setting up fire11/squeeze1x1
I0426 10:40:54.210945  7867 net.cpp:157] Top shape: 2 96 4 4 (3072)
I0426 10:40:54.210949  7867 net.cpp:165] Memory required for data: 150097440
I0426 10:40:54.210958  7867 layer_factory.hpp:77] Creating layer fire11/squeeze1x1/bn
I0426 10:40:54.210968  7867 net.cpp:100] Creating Layer fire11/squeeze1x1/bn
I0426 10:40:54.210973  7867 net.cpp:434] fire11/squeeze1x1/bn <- fire11/squeeze1x1
I0426 10:40:54.210979  7867 net.cpp:395] fire11/squeeze1x1/bn -> fire11/squeeze1x1 (in-place)
I0426 10:40:54.211299  7867 net.cpp:150] Setting up fire11/squeeze1x1/bn
I0426 10:40:54.211308  7867 net.cpp:157] Top shape: 2 96 4 4 (3072)
I0426 10:40:54.211313  7867 net.cpp:165] Memory required for data: 150109728
I0426 10:40:54.211325  7867 layer_factory.hpp:77] Creating layer fire11/squeeze1x1/scale
I0426 10:40:54.211334  7867 net.cpp:100] Creating Layer fire11/squeeze1x1/scale
I0426 10:40:54.211338  7867 net.cpp:434] fire11/squeeze1x1/scale <- fire11/squeeze1x1
I0426 10:40:54.211344  7867 net.cpp:395] fire11/squeeze1x1/scale -> fire11/squeeze1x1 (in-place)
I0426 10:40:54.211400  7867 layer_factory.hpp:77] Creating layer fire11/squeeze1x1/scale
I0426 10:40:54.211580  7867 net.cpp:150] Setting up fire11/squeeze1x1/scale
I0426 10:40:54.211592  7867 net.cpp:157] Top shape: 2 96 4 4 (3072)
I0426 10:40:54.211596  7867 net.cpp:165] Memory required for data: 150122016
I0426 10:40:54.211606  7867 layer_factory.hpp:77] Creating layer fire11/relu_squeeze1x1
I0426 10:40:54.211622  7867 net.cpp:100] Creating Layer fire11/relu_squeeze1x1
I0426 10:40:54.211628  7867 net.cpp:434] fire11/relu_squeeze1x1 <- fire11/squeeze1x1
I0426 10:40:54.211635  7867 net.cpp:395] fire11/relu_squeeze1x1 -> fire11/squeeze1x1 (in-place)
I0426 10:40:54.212240  7867 net.cpp:150] Setting up fire11/relu_squeeze1x1
I0426 10:40:54.212255  7867 net.cpp:157] Top shape: 2 96 4 4 (3072)
I0426 10:40:54.212260  7867 net.cpp:165] Memory required for data: 150134304
I0426 10:40:54.212265  7867 layer_factory.hpp:77] Creating layer fire11/squeeze1x1_fire11/relu_squeeze1x1_0_split
I0426 10:40:54.212272  7867 net.cpp:100] Creating Layer fire11/squeeze1x1_fire11/relu_squeeze1x1_0_split
I0426 10:40:54.212278  7867 net.cpp:434] fire11/squeeze1x1_fire11/relu_squeeze1x1_0_split <- fire11/squeeze1x1
I0426 10:40:54.212286  7867 net.cpp:408] fire11/squeeze1x1_fire11/relu_squeeze1x1_0_split -> fire11/squeeze1x1_fire11/relu_squeeze1x1_0_split_0
I0426 10:40:54.212296  7867 net.cpp:408] fire11/squeeze1x1_fire11/relu_squeeze1x1_0_split -> fire11/squeeze1x1_fire11/relu_squeeze1x1_0_split_1
I0426 10:40:54.212352  7867 net.cpp:150] Setting up fire11/squeeze1x1_fire11/relu_squeeze1x1_0_split
I0426 10:40:54.212360  7867 net.cpp:157] Top shape: 2 96 4 4 (3072)
I0426 10:40:54.212366  7867 net.cpp:157] Top shape: 2 96 4 4 (3072)
I0426 10:40:54.212370  7867 net.cpp:165] Memory required for data: 150158880
I0426 10:40:54.212393  7867 layer_factory.hpp:77] Creating layer fire11/expand1x1
I0426 10:40:54.212404  7867 net.cpp:100] Creating Layer fire11/expand1x1
I0426 10:40:54.212409  7867 net.cpp:434] fire11/expand1x1 <- fire11/squeeze1x1_fire11/relu_squeeze1x1_0_split_0
I0426 10:40:54.212417  7867 net.cpp:408] fire11/expand1x1 -> fire11/expand1x1
I0426 10:40:54.214823  7867 net.cpp:150] Setting up fire11/expand1x1
I0426 10:40:54.214839  7867 net.cpp:157] Top shape: 2 384 4 4 (12288)
I0426 10:40:54.214845  7867 net.cpp:165] Memory required for data: 150208032
I0426 10:40:54.214854  7867 layer_factory.hpp:77] Creating layer fire11/expand1x1/bn
I0426 10:40:54.214862  7867 net.cpp:100] Creating Layer fire11/expand1x1/bn
I0426 10:40:54.214869  7867 net.cpp:434] fire11/expand1x1/bn <- fire11/expand1x1
I0426 10:40:54.214875  7867 net.cpp:395] fire11/expand1x1/bn -> fire11/expand1x1 (in-place)
I0426 10:40:54.215160  7867 net.cpp:150] Setting up fire11/expand1x1/bn
I0426 10:40:54.215169  7867 net.cpp:157] Top shape: 2 384 4 4 (12288)
I0426 10:40:54.215174  7867 net.cpp:165] Memory required for data: 150257184
I0426 10:40:54.215183  7867 layer_factory.hpp:77] Creating layer fire11/expand1x1/scale
I0426 10:40:54.215190  7867 net.cpp:100] Creating Layer fire11/expand1x1/scale
I0426 10:40:54.215196  7867 net.cpp:434] fire11/expand1x1/scale <- fire11/expand1x1
I0426 10:40:54.215204  7867 net.cpp:395] fire11/expand1x1/scale -> fire11/expand1x1 (in-place)
I0426 10:40:54.215251  7867 layer_factory.hpp:77] Creating layer fire11/expand1x1/scale
I0426 10:40:54.215432  7867 net.cpp:150] Setting up fire11/expand1x1/scale
I0426 10:40:54.215442  7867 net.cpp:157] Top shape: 2 384 4 4 (12288)
I0426 10:40:54.215447  7867 net.cpp:165] Memory required for data: 150306336
I0426 10:40:54.215456  7867 layer_factory.hpp:77] Creating layer fire11/relu_expand1x1
I0426 10:40:54.215462  7867 net.cpp:100] Creating Layer fire11/relu_expand1x1
I0426 10:40:54.215468  7867 net.cpp:434] fire11/relu_expand1x1 <- fire11/expand1x1
I0426 10:40:54.215474  7867 net.cpp:395] fire11/relu_expand1x1 -> fire11/expand1x1 (in-place)
I0426 10:40:54.215926  7867 net.cpp:150] Setting up fire11/relu_expand1x1
I0426 10:40:54.215940  7867 net.cpp:157] Top shape: 2 384 4 4 (12288)
I0426 10:40:54.215945  7867 net.cpp:165] Memory required for data: 150355488
I0426 10:40:54.215950  7867 layer_factory.hpp:77] Creating layer fire11/expand3x3
I0426 10:40:54.215965  7867 net.cpp:100] Creating Layer fire11/expand3x3
I0426 10:40:54.215973  7867 net.cpp:434] fire11/expand3x3 <- fire11/squeeze1x1_fire11/relu_squeeze1x1_0_split_1
I0426 10:40:54.215986  7867 net.cpp:408] fire11/expand3x3 -> fire11/expand3x3
I0426 10:40:54.221868  7867 net.cpp:150] Setting up fire11/expand3x3
I0426 10:40:54.221884  7867 net.cpp:157] Top shape: 2 384 4 4 (12288)
I0426 10:40:54.221890  7867 net.cpp:165] Memory required for data: 150404640
I0426 10:40:54.221897  7867 layer_factory.hpp:77] Creating layer fire11/expand3x3/bn
I0426 10:40:54.221905  7867 net.cpp:100] Creating Layer fire11/expand3x3/bn
I0426 10:40:54.221911  7867 net.cpp:434] fire11/expand3x3/bn <- fire11/expand3x3
I0426 10:40:54.221918  7867 net.cpp:395] fire11/expand3x3/bn -> fire11/expand3x3 (in-place)
I0426 10:40:54.222196  7867 net.cpp:150] Setting up fire11/expand3x3/bn
I0426 10:40:54.222205  7867 net.cpp:157] Top shape: 2 384 4 4 (12288)
I0426 10:40:54.222209  7867 net.cpp:165] Memory required for data: 150453792
I0426 10:40:54.222216  7867 layer_factory.hpp:77] Creating layer fire11/expand3x3/scale
I0426 10:40:54.222224  7867 net.cpp:100] Creating Layer fire11/expand3x3/scale
I0426 10:40:54.222230  7867 net.cpp:434] fire11/expand3x3/scale <- fire11/expand3x3
I0426 10:40:54.222236  7867 net.cpp:395] fire11/expand3x3/scale -> fire11/expand3x3 (in-place)
I0426 10:40:54.222290  7867 layer_factory.hpp:77] Creating layer fire11/expand3x3/scale
I0426 10:40:54.222438  7867 net.cpp:150] Setting up fire11/expand3x3/scale
I0426 10:40:54.222447  7867 net.cpp:157] Top shape: 2 384 4 4 (12288)
I0426 10:40:54.222452  7867 net.cpp:165] Memory required for data: 150502944
I0426 10:40:54.222479  7867 layer_factory.hpp:77] Creating layer fire11/relu_expand3x3
I0426 10:40:54.222494  7867 net.cpp:100] Creating Layer fire11/relu_expand3x3
I0426 10:40:54.222499  7867 net.cpp:434] fire11/relu_expand3x3 <- fire11/expand3x3
I0426 10:40:54.222506  7867 net.cpp:395] fire11/relu_expand3x3 -> fire11/expand3x3 (in-place)
I0426 10:40:54.222703  7867 net.cpp:150] Setting up fire11/relu_expand3x3
I0426 10:40:54.222714  7867 net.cpp:157] Top shape: 2 384 4 4 (12288)
I0426 10:40:54.222718  7867 net.cpp:165] Memory required for data: 150552096
I0426 10:40:54.222723  7867 layer_factory.hpp:77] Creating layer fire11/concat
I0426 10:40:54.222728  7867 net.cpp:100] Creating Layer fire11/concat
I0426 10:40:54.222733  7867 net.cpp:434] fire11/concat <- fire11/expand1x1
I0426 10:40:54.222740  7867 net.cpp:434] fire11/concat <- fire11/expand3x3
I0426 10:40:54.222746  7867 net.cpp:408] fire11/concat -> fire11/concat
I0426 10:40:54.222780  7867 net.cpp:150] Setting up fire11/concat
I0426 10:40:54.222789  7867 net.cpp:157] Top shape: 2 768 4 4 (24576)
I0426 10:40:54.222792  7867 net.cpp:165] Memory required for data: 150650400
I0426 10:40:54.222797  7867 layer_factory.hpp:77] Creating layer fire11/concat_fire11/concat_0_split
I0426 10:40:54.222805  7867 net.cpp:100] Creating Layer fire11/concat_fire11/concat_0_split
I0426 10:40:54.222810  7867 net.cpp:434] fire11/concat_fire11/concat_0_split <- fire11/concat
I0426 10:40:54.222815  7867 net.cpp:408] fire11/concat_fire11/concat_0_split -> fire11/concat_fire11/concat_0_split_0
I0426 10:40:54.222823  7867 net.cpp:408] fire11/concat_fire11/concat_0_split -> fire11/concat_fire11/concat_0_split_1
I0426 10:40:54.222831  7867 net.cpp:408] fire11/concat_fire11/concat_0_split -> fire11/concat_fire11/concat_0_split_2
I0426 10:40:54.222836  7867 net.cpp:408] fire11/concat_fire11/concat_0_split -> fire11/concat_fire11/concat_0_split_3
I0426 10:40:54.222915  7867 net.cpp:150] Setting up fire11/concat_fire11/concat_0_split
I0426 10:40:54.222923  7867 net.cpp:157] Top shape: 2 768 4 4 (24576)
I0426 10:40:54.222929  7867 net.cpp:157] Top shape: 2 768 4 4 (24576)
I0426 10:40:54.222934  7867 net.cpp:157] Top shape: 2 768 4 4 (24576)
I0426 10:40:54.222939  7867 net.cpp:157] Top shape: 2 768 4 4 (24576)
I0426 10:40:54.222944  7867 net.cpp:165] Memory required for data: 151043616
I0426 10:40:54.222949  7867 layer_factory.hpp:77] Creating layer conv12_1
I0426 10:40:54.222956  7867 net.cpp:100] Creating Layer conv12_1
I0426 10:40:54.222962  7867 net.cpp:434] conv12_1 <- fire11/concat_fire11/concat_0_split_0
I0426 10:40:54.222968  7867 net.cpp:408] conv12_1 -> conv12_1
I0426 10:40:54.225512  7867 net.cpp:150] Setting up conv12_1
I0426 10:40:54.225530  7867 net.cpp:157] Top shape: 2 128 4 4 (4096)
I0426 10:40:54.225535  7867 net.cpp:165] Memory required for data: 151060000
I0426 10:40:54.225543  7867 layer_factory.hpp:77] Creating layer conv12_1/bn
I0426 10:40:54.225551  7867 net.cpp:100] Creating Layer conv12_1/bn
I0426 10:40:54.225558  7867 net.cpp:434] conv12_1/bn <- conv12_1
I0426 10:40:54.225564  7867 net.cpp:395] conv12_1/bn -> conv12_1 (in-place)
I0426 10:40:54.225853  7867 net.cpp:150] Setting up conv12_1/bn
I0426 10:40:54.225862  7867 net.cpp:157] Top shape: 2 128 4 4 (4096)
I0426 10:40:54.225867  7867 net.cpp:165] Memory required for data: 151076384
I0426 10:40:54.225873  7867 layer_factory.hpp:77] Creating layer conv12_1/scale
I0426 10:40:54.225881  7867 net.cpp:100] Creating Layer conv12_1/scale
I0426 10:40:54.225886  7867 net.cpp:434] conv12_1/scale <- conv12_1
I0426 10:40:54.225893  7867 net.cpp:395] conv12_1/scale -> conv12_1 (in-place)
I0426 10:40:54.225944  7867 layer_factory.hpp:77] Creating layer conv12_1/scale
I0426 10:40:54.226110  7867 net.cpp:150] Setting up conv12_1/scale
I0426 10:40:54.226119  7867 net.cpp:157] Top shape: 2 128 4 4 (4096)
I0426 10:40:54.226122  7867 net.cpp:165] Memory required for data: 151092768
I0426 10:40:54.226128  7867 layer_factory.hpp:77] Creating layer conv12_1/relu
I0426 10:40:54.226135  7867 net.cpp:100] Creating Layer conv12_1/relu
I0426 10:40:54.226156  7867 net.cpp:434] conv12_1/relu <- conv12_1
I0426 10:40:54.226162  7867 net.cpp:395] conv12_1/relu -> conv12_1 (in-place)
I0426 10:40:54.226635  7867 net.cpp:150] Setting up conv12_1/relu
I0426 10:40:54.226649  7867 net.cpp:157] Top shape: 2 128 4 4 (4096)
I0426 10:40:54.226653  7867 net.cpp:165] Memory required for data: 151109152
I0426 10:40:54.226657  7867 layer_factory.hpp:77] Creating layer conv12_2
I0426 10:40:54.226667  7867 net.cpp:100] Creating Layer conv12_2
I0426 10:40:54.226672  7867 net.cpp:434] conv12_2 <- conv12_1
I0426 10:40:54.226678  7867 net.cpp:408] conv12_2 -> conv12_2
I0426 10:40:54.232077  7867 net.cpp:150] Setting up conv12_2
I0426 10:40:54.232101  7867 net.cpp:157] Top shape: 2 256 2 2 (2048)
I0426 10:40:54.232105  7867 net.cpp:165] Memory required for data: 151117344
I0426 10:40:54.232113  7867 layer_factory.hpp:77] Creating layer conv12_2/bn
I0426 10:40:54.232122  7867 net.cpp:100] Creating Layer conv12_2/bn
I0426 10:40:54.232127  7867 net.cpp:434] conv12_2/bn <- conv12_2
I0426 10:40:54.232133  7867 net.cpp:395] conv12_2/bn -> conv12_2 (in-place)
I0426 10:40:54.232404  7867 net.cpp:150] Setting up conv12_2/bn
I0426 10:40:54.232412  7867 net.cpp:157] Top shape: 2 256 2 2 (2048)
I0426 10:40:54.232416  7867 net.cpp:165] Memory required for data: 151125536
I0426 10:40:54.232424  7867 layer_factory.hpp:77] Creating layer conv12_2/scale
I0426 10:40:54.232431  7867 net.cpp:100] Creating Layer conv12_2/scale
I0426 10:40:54.232436  7867 net.cpp:434] conv12_2/scale <- conv12_2
I0426 10:40:54.232442  7867 net.cpp:395] conv12_2/scale -> conv12_2 (in-place)
I0426 10:40:54.232493  7867 layer_factory.hpp:77] Creating layer conv12_2/scale
I0426 10:40:54.232653  7867 net.cpp:150] Setting up conv12_2/scale
I0426 10:40:54.232667  7867 net.cpp:157] Top shape: 2 256 2 2 (2048)
I0426 10:40:54.232673  7867 net.cpp:165] Memory required for data: 151133728
I0426 10:40:54.232692  7867 layer_factory.hpp:77] Creating layer conv12_2/relu
I0426 10:40:54.232700  7867 net.cpp:100] Creating Layer conv12_2/relu
I0426 10:40:54.232704  7867 net.cpp:434] conv12_2/relu <- conv12_2
I0426 10:40:54.232709  7867 net.cpp:395] conv12_2/relu -> conv12_2 (in-place)
I0426 10:40:54.232908  7867 net.cpp:150] Setting up conv12_2/relu
I0426 10:40:54.232918  7867 net.cpp:157] Top shape: 2 256 2 2 (2048)
I0426 10:40:54.232921  7867 net.cpp:165] Memory required for data: 151141920
I0426 10:40:54.232925  7867 layer_factory.hpp:77] Creating layer conv12_2_conv12_2/relu_0_split
I0426 10:40:54.232931  7867 net.cpp:100] Creating Layer conv12_2_conv12_2/relu_0_split
I0426 10:40:54.232936  7867 net.cpp:434] conv12_2_conv12_2/relu_0_split <- conv12_2
I0426 10:40:54.232942  7867 net.cpp:408] conv12_2_conv12_2/relu_0_split -> conv12_2_conv12_2/relu_0_split_0
I0426 10:40:54.232950  7867 net.cpp:408] conv12_2_conv12_2/relu_0_split -> conv12_2_conv12_2/relu_0_split_1
I0426 10:40:54.232956  7867 net.cpp:408] conv12_2_conv12_2/relu_0_split -> conv12_2_conv12_2/relu_0_split_2
I0426 10:40:54.232962  7867 net.cpp:408] conv12_2_conv12_2/relu_0_split -> conv12_2_conv12_2/relu_0_split_3
I0426 10:40:54.233055  7867 net.cpp:150] Setting up conv12_2_conv12_2/relu_0_split
I0426 10:40:54.233062  7867 net.cpp:157] Top shape: 2 256 2 2 (2048)
I0426 10:40:54.233068  7867 net.cpp:157] Top shape: 2 256 2 2 (2048)
I0426 10:40:54.233073  7867 net.cpp:157] Top shape: 2 256 2 2 (2048)
I0426 10:40:54.233078  7867 net.cpp:157] Top shape: 2 256 2 2 (2048)
I0426 10:40:54.233083  7867 net.cpp:165] Memory required for data: 151174688
I0426 10:40:54.233088  7867 layer_factory.hpp:77] Creating layer conv13_1
I0426 10:40:54.233096  7867 net.cpp:100] Creating Layer conv13_1
I0426 10:40:54.233101  7867 net.cpp:434] conv13_1 <- conv12_2_conv12_2/relu_0_split_0
I0426 10:40:54.233108  7867 net.cpp:408] conv13_1 -> conv13_1
I0426 10:40:54.234678  7867 net.cpp:150] Setting up conv13_1
I0426 10:40:54.234692  7867 net.cpp:157] Top shape: 2 64 2 2 (512)
I0426 10:40:54.234697  7867 net.cpp:165] Memory required for data: 151176736
I0426 10:40:54.234724  7867 layer_factory.hpp:77] Creating layer conv13_1/bn
I0426 10:40:54.234732  7867 net.cpp:100] Creating Layer conv13_1/bn
I0426 10:40:54.234738  7867 net.cpp:434] conv13_1/bn <- conv13_1
I0426 10:40:54.234745  7867 net.cpp:395] conv13_1/bn -> conv13_1 (in-place)
I0426 10:40:54.235036  7867 net.cpp:150] Setting up conv13_1/bn
I0426 10:40:54.235045  7867 net.cpp:157] Top shape: 2 64 2 2 (512)
I0426 10:40:54.235049  7867 net.cpp:165] Memory required for data: 151178784
I0426 10:40:54.235055  7867 layer_factory.hpp:77] Creating layer conv13_1/scale
I0426 10:40:54.235062  7867 net.cpp:100] Creating Layer conv13_1/scale
I0426 10:40:54.235067  7867 net.cpp:434] conv13_1/scale <- conv13_1
I0426 10:40:54.235074  7867 net.cpp:395] conv13_1/scale -> conv13_1 (in-place)
I0426 10:40:54.235126  7867 layer_factory.hpp:77] Creating layer conv13_1/scale
I0426 10:40:54.235291  7867 net.cpp:150] Setting up conv13_1/scale
I0426 10:40:54.235299  7867 net.cpp:157] Top shape: 2 64 2 2 (512)
I0426 10:40:54.235302  7867 net.cpp:165] Memory required for data: 151180832
I0426 10:40:54.235308  7867 layer_factory.hpp:77] Creating layer conv13_1/relu
I0426 10:40:54.235313  7867 net.cpp:100] Creating Layer conv13_1/relu
I0426 10:40:54.235318  7867 net.cpp:434] conv13_1/relu <- conv13_1
I0426 10:40:54.235323  7867 net.cpp:395] conv13_1/relu -> conv13_1 (in-place)
I0426 10:40:54.235743  7867 net.cpp:150] Setting up conv13_1/relu
I0426 10:40:54.235754  7867 net.cpp:157] Top shape: 2 64 2 2 (512)
I0426 10:40:54.235759  7867 net.cpp:165] Memory required for data: 151182880
I0426 10:40:54.235762  7867 layer_factory.hpp:77] Creating layer conv13_2
I0426 10:40:54.235779  7867 net.cpp:100] Creating Layer conv13_2
I0426 10:40:54.235783  7867 net.cpp:434] conv13_2 <- conv13_1
I0426 10:40:54.235790  7867 net.cpp:408] conv13_2 -> conv13_2
I0426 10:40:54.238889  7867 net.cpp:150] Setting up conv13_2
I0426 10:40:54.238914  7867 net.cpp:157] Top shape: 2 128 1 1 (256)
I0426 10:40:54.238919  7867 net.cpp:165] Memory required for data: 151183904
I0426 10:40:54.238926  7867 layer_factory.hpp:77] Creating layer conv13_2/bn
I0426 10:40:54.238936  7867 net.cpp:100] Creating Layer conv13_2/bn
I0426 10:40:54.238941  7867 net.cpp:434] conv13_2/bn <- conv13_2
I0426 10:40:54.238947  7867 net.cpp:395] conv13_2/bn -> conv13_2 (in-place)
I0426 10:40:54.239783  7867 net.cpp:150] Setting up conv13_2/bn
I0426 10:40:54.239799  7867 net.cpp:157] Top shape: 2 128 1 1 (256)
I0426 10:40:54.239801  7867 net.cpp:165] Memory required for data: 151184928
I0426 10:40:54.239810  7867 layer_factory.hpp:77] Creating layer conv13_2/scale
I0426 10:40:54.239841  7867 net.cpp:100] Creating Layer conv13_2/scale
I0426 10:40:54.239847  7867 net.cpp:434] conv13_2/scale <- conv13_2
I0426 10:40:54.239853  7867 net.cpp:395] conv13_2/scale -> conv13_2 (in-place)
I0426 10:40:54.239908  7867 layer_factory.hpp:77] Creating layer conv13_2/scale
I0426 10:40:54.240000  7867 net.cpp:150] Setting up conv13_2/scale
I0426 10:40:54.240007  7867 net.cpp:157] Top shape: 2 128 1 1 (256)
I0426 10:40:54.240010  7867 net.cpp:165] Memory required for data: 151185952
I0426 10:40:54.240018  7867 layer_factory.hpp:77] Creating layer conv13_2/relu
I0426 10:40:54.240026  7867 net.cpp:100] Creating Layer conv13_2/relu
I0426 10:40:54.240031  7867 net.cpp:434] conv13_2/relu <- conv13_2
I0426 10:40:54.240036  7867 net.cpp:395] conv13_2/relu -> conv13_2 (in-place)
I0426 10:40:54.240511  7867 net.cpp:150] Setting up conv13_2/relu
I0426 10:40:54.240523  7867 net.cpp:157] Top shape: 2 128 1 1 (256)
I0426 10:40:54.240528  7867 net.cpp:165] Memory required for data: 151186976
I0426 10:40:54.240533  7867 layer_factory.hpp:77] Creating layer conv13_2_conv13_2/relu_0_split
I0426 10:40:54.240540  7867 net.cpp:100] Creating Layer conv13_2_conv13_2/relu_0_split
I0426 10:40:54.240545  7867 net.cpp:434] conv13_2_conv13_2/relu_0_split <- conv13_2
I0426 10:40:54.240552  7867 net.cpp:408] conv13_2_conv13_2/relu_0_split -> conv13_2_conv13_2/relu_0_split_0
I0426 10:40:54.240561  7867 net.cpp:408] conv13_2_conv13_2/relu_0_split -> conv13_2_conv13_2/relu_0_split_1
I0426 10:40:54.240592  7867 net.cpp:408] conv13_2_conv13_2/relu_0_split -> conv13_2_conv13_2/relu_0_split_2
I0426 10:40:54.240643  7867 net.cpp:150] Setting up conv13_2_conv13_2/relu_0_split
I0426 10:40:54.240650  7867 net.cpp:157] Top shape: 2 128 1 1 (256)
I0426 10:40:54.240655  7867 net.cpp:157] Top shape: 2 128 1 1 (256)
I0426 10:40:54.240660  7867 net.cpp:157] Top shape: 2 128 1 1 (256)
I0426 10:40:54.240664  7867 net.cpp:165] Memory required for data: 151190048
I0426 10:40:54.240669  7867 layer_factory.hpp:77] Creating layer fire5_mbox_loc
I0426 10:40:54.240686  7867 net.cpp:100] Creating Layer fire5_mbox_loc
I0426 10:40:54.240692  7867 net.cpp:434] fire5_mbox_loc <- fire5/concat_fire5/concat_0_split_1
I0426 10:40:54.240700  7867 net.cpp:408] fire5_mbox_loc -> fire5_mbox_loc
I0426 10:40:54.242609  7867 net.cpp:150] Setting up fire5_mbox_loc
I0426 10:40:54.242624  7867 net.cpp:157] Top shape: 2 16 37 37 (43808)
I0426 10:40:54.242630  7867 net.cpp:165] Memory required for data: 151365280
I0426 10:40:54.242642  7867 layer_factory.hpp:77] Creating layer fire5_mbox_loc_perm
I0426 10:40:54.242655  7867 net.cpp:100] Creating Layer fire5_mbox_loc_perm
I0426 10:40:54.242663  7867 net.cpp:434] fire5_mbox_loc_perm <- fire5_mbox_loc
I0426 10:40:54.242673  7867 net.cpp:408] fire5_mbox_loc_perm -> fire5_mbox_loc_perm
I0426 10:40:54.242775  7867 net.cpp:150] Setting up fire5_mbox_loc_perm
I0426 10:40:54.242784  7867 net.cpp:157] Top shape: 2 37 37 16 (43808)
I0426 10:40:54.242787  7867 net.cpp:165] Memory required for data: 151540512
I0426 10:40:54.242792  7867 layer_factory.hpp:77] Creating layer fire5_mbox_loc_flat
I0426 10:40:54.242799  7867 net.cpp:100] Creating Layer fire5_mbox_loc_flat
I0426 10:40:54.242805  7867 net.cpp:434] fire5_mbox_loc_flat <- fire5_mbox_loc_perm
I0426 10:40:54.242811  7867 net.cpp:408] fire5_mbox_loc_flat -> fire5_mbox_loc_flat
I0426 10:40:54.242833  7867 net.cpp:150] Setting up fire5_mbox_loc_flat
I0426 10:40:54.242839  7867 net.cpp:157] Top shape: 2 21904 (43808)
I0426 10:40:54.242844  7867 net.cpp:165] Memory required for data: 151715744
I0426 10:40:54.242848  7867 layer_factory.hpp:77] Creating layer fire5_mbox_conf
I0426 10:40:54.242857  7867 net.cpp:100] Creating Layer fire5_mbox_conf
I0426 10:40:54.242863  7867 net.cpp:434] fire5_mbox_conf <- fire5/concat_fire5/concat_0_split_2
I0426 10:40:54.242869  7867 net.cpp:408] fire5_mbox_conf -> fire5_mbox_conf
I0426 10:40:54.245146  7867 net.cpp:150] Setting up fire5_mbox_conf
I0426 10:40:54.245162  7867 net.cpp:157] Top shape: 2 28 37 37 (76664)
I0426 10:40:54.245167  7867 net.cpp:165] Memory required for data: 152022400
I0426 10:40:54.245174  7867 layer_factory.hpp:77] Creating layer fire5_mbox_conf_perm
I0426 10:40:54.245182  7867 net.cpp:100] Creating Layer fire5_mbox_conf_perm
I0426 10:40:54.245189  7867 net.cpp:434] fire5_mbox_conf_perm <- fire5_mbox_conf
I0426 10:40:54.245196  7867 net.cpp:408] fire5_mbox_conf_perm -> fire5_mbox_conf_perm
I0426 10:40:54.245295  7867 net.cpp:150] Setting up fire5_mbox_conf_perm
I0426 10:40:54.245302  7867 net.cpp:157] Top shape: 2 37 37 28 (76664)
I0426 10:40:54.245306  7867 net.cpp:165] Memory required for data: 152329056
I0426 10:40:54.245311  7867 layer_factory.hpp:77] Creating layer fire5_mbox_conf_flat
I0426 10:40:54.245317  7867 net.cpp:100] Creating Layer fire5_mbox_conf_flat
I0426 10:40:54.245322  7867 net.cpp:434] fire5_mbox_conf_flat <- fire5_mbox_conf_perm
I0426 10:40:54.245327  7867 net.cpp:408] fire5_mbox_conf_flat -> fire5_mbox_conf_flat
I0426 10:40:54.245347  7867 net.cpp:150] Setting up fire5_mbox_conf_flat
I0426 10:40:54.245352  7867 net.cpp:157] Top shape: 2 38332 (76664)
I0426 10:40:54.245355  7867 net.cpp:165] Memory required for data: 152635712
I0426 10:40:54.245358  7867 layer_factory.hpp:77] Creating layer fire5_mbox_priorbox
I0426 10:40:54.245365  7867 net.cpp:100] Creating Layer fire5_mbox_priorbox
I0426 10:40:54.245370  7867 net.cpp:434] fire5_mbox_priorbox <- fire5/concat_fire5/concat_0_split_3
I0426 10:40:54.245375  7867 net.cpp:434] fire5_mbox_priorbox <- data_data_0_split_1
I0426 10:40:54.245399  7867 net.cpp:408] fire5_mbox_priorbox -> fire5_mbox_priorbox
I0426 10:40:54.245424  7867 net.cpp:150] Setting up fire5_mbox_priorbox
I0426 10:40:54.245430  7867 net.cpp:157] Top shape: 1 2 21904 (43808)
I0426 10:40:54.245434  7867 net.cpp:165] Memory required for data: 152810944
I0426 10:40:54.245438  7867 layer_factory.hpp:77] Creating layer fire9_mbox_loc
I0426 10:40:54.245447  7867 net.cpp:100] Creating Layer fire9_mbox_loc
I0426 10:40:54.245452  7867 net.cpp:434] fire9_mbox_loc <- fire9/concat_fire9/concat_0_split_1
I0426 10:40:54.245458  7867 net.cpp:408] fire9_mbox_loc -> fire9_mbox_loc
I0426 10:40:54.247766  7867 net.cpp:150] Setting up fire9_mbox_loc
I0426 10:40:54.247778  7867 net.cpp:157] Top shape: 2 24 18 18 (15552)
I0426 10:40:54.247783  7867 net.cpp:165] Memory required for data: 152873152
I0426 10:40:54.247792  7867 layer_factory.hpp:77] Creating layer fire9_mbox_loc_perm
I0426 10:40:54.247799  7867 net.cpp:100] Creating Layer fire9_mbox_loc_perm
I0426 10:40:54.247804  7867 net.cpp:434] fire9_mbox_loc_perm <- fire9_mbox_loc
I0426 10:40:54.247810  7867 net.cpp:408] fire9_mbox_loc_perm -> fire9_mbox_loc_perm
I0426 10:40:54.247890  7867 net.cpp:150] Setting up fire9_mbox_loc_perm
I0426 10:40:54.247897  7867 net.cpp:157] Top shape: 2 18 18 24 (15552)
I0426 10:40:54.247900  7867 net.cpp:165] Memory required for data: 152935360
I0426 10:40:54.247905  7867 layer_factory.hpp:77] Creating layer fire9_mbox_loc_flat
I0426 10:40:54.247910  7867 net.cpp:100] Creating Layer fire9_mbox_loc_flat
I0426 10:40:54.247913  7867 net.cpp:434] fire9_mbox_loc_flat <- fire9_mbox_loc_perm
I0426 10:40:54.247920  7867 net.cpp:408] fire9_mbox_loc_flat -> fire9_mbox_loc_flat
I0426 10:40:54.247937  7867 net.cpp:150] Setting up fire9_mbox_loc_flat
I0426 10:40:54.247943  7867 net.cpp:157] Top shape: 2 7776 (15552)
I0426 10:40:54.247946  7867 net.cpp:165] Memory required for data: 152997568
I0426 10:40:54.247951  7867 layer_factory.hpp:77] Creating layer fire9_mbox_conf
I0426 10:40:54.247958  7867 net.cpp:100] Creating Layer fire9_mbox_conf
I0426 10:40:54.247963  7867 net.cpp:434] fire9_mbox_conf <- fire9/concat_fire9/concat_0_split_2
I0426 10:40:54.247978  7867 net.cpp:408] fire9_mbox_conf -> fire9_mbox_conf
I0426 10:40:54.251667  7867 net.cpp:150] Setting up fire9_mbox_conf
I0426 10:40:54.251682  7867 net.cpp:157] Top shape: 2 42 18 18 (27216)
I0426 10:40:54.251687  7867 net.cpp:165] Memory required for data: 153106432
I0426 10:40:54.251694  7867 layer_factory.hpp:77] Creating layer fire9_mbox_conf_perm
I0426 10:40:54.251701  7867 net.cpp:100] Creating Layer fire9_mbox_conf_perm
I0426 10:40:54.251708  7867 net.cpp:434] fire9_mbox_conf_perm <- fire9_mbox_conf
I0426 10:40:54.251713  7867 net.cpp:408] fire9_mbox_conf_perm -> fire9_mbox_conf_perm
I0426 10:40:54.251794  7867 net.cpp:150] Setting up fire9_mbox_conf_perm
I0426 10:40:54.251801  7867 net.cpp:157] Top shape: 2 18 18 42 (27216)
I0426 10:40:54.251804  7867 net.cpp:165] Memory required for data: 153215296
I0426 10:40:54.251808  7867 layer_factory.hpp:77] Creating layer fire9_mbox_conf_flat
I0426 10:40:54.251813  7867 net.cpp:100] Creating Layer fire9_mbox_conf_flat
I0426 10:40:54.251818  7867 net.cpp:434] fire9_mbox_conf_flat <- fire9_mbox_conf_perm
I0426 10:40:54.251823  7867 net.cpp:408] fire9_mbox_conf_flat -> fire9_mbox_conf_flat
I0426 10:40:54.251842  7867 net.cpp:150] Setting up fire9_mbox_conf_flat
I0426 10:40:54.251847  7867 net.cpp:157] Top shape: 2 13608 (27216)
I0426 10:40:54.251850  7867 net.cpp:165] Memory required for data: 153324160
I0426 10:40:54.251853  7867 layer_factory.hpp:77] Creating layer fire9_mbox_priorbox
I0426 10:40:54.251858  7867 net.cpp:100] Creating Layer fire9_mbox_priorbox
I0426 10:40:54.251863  7867 net.cpp:434] fire9_mbox_priorbox <- fire9/concat_fire9/concat_0_split_3
I0426 10:40:54.251869  7867 net.cpp:434] fire9_mbox_priorbox <- data_data_0_split_2
I0426 10:40:54.251875  7867 net.cpp:408] fire9_mbox_priorbox -> fire9_mbox_priorbox
I0426 10:40:54.251895  7867 net.cpp:150] Setting up fire9_mbox_priorbox
I0426 10:40:54.251917  7867 net.cpp:157] Top shape: 1 2 7776 (15552)
I0426 10:40:54.251921  7867 net.cpp:165] Memory required for data: 153386368
I0426 10:40:54.251925  7867 layer_factory.hpp:77] Creating layer fire10_mbox_loc
I0426 10:40:54.251935  7867 net.cpp:100] Creating Layer fire10_mbox_loc
I0426 10:40:54.251940  7867 net.cpp:434] fire10_mbox_loc <- fire10/concat_fire10/concat_0_split_1
I0426 10:40:54.251945  7867 net.cpp:408] fire10_mbox_loc -> fire10_mbox_loc
I0426 10:40:54.255457  7867 net.cpp:150] Setting up fire10_mbox_loc
I0426 10:40:54.255470  7867 net.cpp:157] Top shape: 2 24 9 9 (3888)
I0426 10:40:54.255475  7867 net.cpp:165] Memory required for data: 153401920
I0426 10:40:54.255482  7867 layer_factory.hpp:77] Creating layer fire10_mbox_loc_perm
I0426 10:40:54.255491  7867 net.cpp:100] Creating Layer fire10_mbox_loc_perm
I0426 10:40:54.255496  7867 net.cpp:434] fire10_mbox_loc_perm <- fire10_mbox_loc
I0426 10:40:54.255501  7867 net.cpp:408] fire10_mbox_loc_perm -> fire10_mbox_loc_perm
I0426 10:40:54.255590  7867 net.cpp:150] Setting up fire10_mbox_loc_perm
I0426 10:40:54.255596  7867 net.cpp:157] Top shape: 2 9 9 24 (3888)
I0426 10:40:54.255600  7867 net.cpp:165] Memory required for data: 153417472
I0426 10:40:54.255604  7867 layer_factory.hpp:77] Creating layer fire10_mbox_loc_flat
I0426 10:40:54.255610  7867 net.cpp:100] Creating Layer fire10_mbox_loc_flat
I0426 10:40:54.255615  7867 net.cpp:434] fire10_mbox_loc_flat <- fire10_mbox_loc_perm
I0426 10:40:54.255620  7867 net.cpp:408] fire10_mbox_loc_flat -> fire10_mbox_loc_flat
I0426 10:40:54.255640  7867 net.cpp:150] Setting up fire10_mbox_loc_flat
I0426 10:40:54.255645  7867 net.cpp:157] Top shape: 2 1944 (3888)
I0426 10:40:54.255648  7867 net.cpp:165] Memory required for data: 153433024
I0426 10:40:54.255652  7867 layer_factory.hpp:77] Creating layer fire10_mbox_conf
I0426 10:40:54.255661  7867 net.cpp:100] Creating Layer fire10_mbox_conf
I0426 10:40:54.255666  7867 net.cpp:434] fire10_mbox_conf <- fire10/concat_fire10/concat_0_split_2
I0426 10:40:54.255671  7867 net.cpp:408] fire10_mbox_conf -> fire10_mbox_conf
I0426 10:40:54.260295  7867 net.cpp:150] Setting up fire10_mbox_conf
I0426 10:40:54.260308  7867 net.cpp:157] Top shape: 2 42 9 9 (6804)
I0426 10:40:54.260313  7867 net.cpp:165] Memory required for data: 153460240
I0426 10:40:54.260321  7867 layer_factory.hpp:77] Creating layer fire10_mbox_conf_perm
I0426 10:40:54.260329  7867 net.cpp:100] Creating Layer fire10_mbox_conf_perm
I0426 10:40:54.260334  7867 net.cpp:434] fire10_mbox_conf_perm <- fire10_mbox_conf
I0426 10:40:54.260339  7867 net.cpp:408] fire10_mbox_conf_perm -> fire10_mbox_conf_perm
I0426 10:40:54.260435  7867 net.cpp:150] Setting up fire10_mbox_conf_perm
I0426 10:40:54.260442  7867 net.cpp:157] Top shape: 2 9 9 42 (6804)
I0426 10:40:54.260447  7867 net.cpp:165] Memory required for data: 153487456
I0426 10:40:54.260450  7867 layer_factory.hpp:77] Creating layer fire10_mbox_conf_flat
I0426 10:40:54.260462  7867 net.cpp:100] Creating Layer fire10_mbox_conf_flat
I0426 10:40:54.260468  7867 net.cpp:434] fire10_mbox_conf_flat <- fire10_mbox_conf_perm
I0426 10:40:54.260473  7867 net.cpp:408] fire10_mbox_conf_flat -> fire10_mbox_conf_flat
I0426 10:40:54.260491  7867 net.cpp:150] Setting up fire10_mbox_conf_flat
I0426 10:40:54.260498  7867 net.cpp:157] Top shape: 2 3402 (6804)
I0426 10:40:54.260501  7867 net.cpp:165] Memory required for data: 153514672
I0426 10:40:54.260505  7867 layer_factory.hpp:77] Creating layer fire10_mbox_priorbox
I0426 10:40:54.260512  7867 net.cpp:100] Creating Layer fire10_mbox_priorbox
I0426 10:40:54.260517  7867 net.cpp:434] fire10_mbox_priorbox <- fire10/concat_fire10/concat_0_split_3
I0426 10:40:54.260522  7867 net.cpp:434] fire10_mbox_priorbox <- data_data_0_split_3
I0426 10:40:54.260529  7867 net.cpp:408] fire10_mbox_priorbox -> fire10_mbox_priorbox
I0426 10:40:54.260550  7867 net.cpp:150] Setting up fire10_mbox_priorbox
I0426 10:40:54.260555  7867 net.cpp:157] Top shape: 1 2 1944 (3888)
I0426 10:40:54.260558  7867 net.cpp:165] Memory required for data: 153530224
I0426 10:40:54.260577  7867 layer_factory.hpp:77] Creating layer fire11_mbox_loc
I0426 10:40:54.260586  7867 net.cpp:100] Creating Layer fire11_mbox_loc
I0426 10:40:54.260591  7867 net.cpp:434] fire11_mbox_loc <- fire11/concat_fire11/concat_0_split_1
I0426 10:40:54.260596  7867 net.cpp:408] fire11_mbox_loc -> fire11_mbox_loc
I0426 10:40:54.263764  7867 net.cpp:150] Setting up fire11_mbox_loc
I0426 10:40:54.263777  7867 net.cpp:157] Top shape: 2 24 4 4 (768)
I0426 10:40:54.263782  7867 net.cpp:165] Memory required for data: 153533296
I0426 10:40:54.263787  7867 layer_factory.hpp:77] Creating layer fire11_mbox_loc_perm
I0426 10:40:54.263795  7867 net.cpp:100] Creating Layer fire11_mbox_loc_perm
I0426 10:40:54.263800  7867 net.cpp:434] fire11_mbox_loc_perm <- fire11_mbox_loc
I0426 10:40:54.263805  7867 net.cpp:408] fire11_mbox_loc_perm -> fire11_mbox_loc_perm
I0426 10:40:54.263895  7867 net.cpp:150] Setting up fire11_mbox_loc_perm
I0426 10:40:54.263902  7867 net.cpp:157] Top shape: 2 4 4 24 (768)
I0426 10:40:54.263906  7867 net.cpp:165] Memory required for data: 153536368
I0426 10:40:54.263911  7867 layer_factory.hpp:77] Creating layer fire11_mbox_loc_flat
I0426 10:40:54.263916  7867 net.cpp:100] Creating Layer fire11_mbox_loc_flat
I0426 10:40:54.263921  7867 net.cpp:434] fire11_mbox_loc_flat <- fire11_mbox_loc_perm
I0426 10:40:54.263926  7867 net.cpp:408] fire11_mbox_loc_flat -> fire11_mbox_loc_flat
I0426 10:40:54.263943  7867 net.cpp:150] Setting up fire11_mbox_loc_flat
I0426 10:40:54.263948  7867 net.cpp:157] Top shape: 2 384 (768)
I0426 10:40:54.263952  7867 net.cpp:165] Memory required for data: 153539440
I0426 10:40:54.263957  7867 layer_factory.hpp:77] Creating layer fire11_mbox_conf
I0426 10:40:54.263963  7867 net.cpp:100] Creating Layer fire11_mbox_conf
I0426 10:40:54.263968  7867 net.cpp:434] fire11_mbox_conf <- fire11/concat_fire11/concat_0_split_2
I0426 10:40:54.263973  7867 net.cpp:408] fire11_mbox_conf -> fire11_mbox_conf
I0426 10:40:54.268239  7867 net.cpp:150] Setting up fire11_mbox_conf
I0426 10:40:54.268252  7867 net.cpp:157] Top shape: 2 42 4 4 (1344)
I0426 10:40:54.268255  7867 net.cpp:165] Memory required for data: 153544816
I0426 10:40:54.268261  7867 layer_factory.hpp:77] Creating layer fire11_mbox_conf_perm
I0426 10:40:54.268268  7867 net.cpp:100] Creating Layer fire11_mbox_conf_perm
I0426 10:40:54.268273  7867 net.cpp:434] fire11_mbox_conf_perm <- fire11_mbox_conf
I0426 10:40:54.268278  7867 net.cpp:408] fire11_mbox_conf_perm -> fire11_mbox_conf_perm
I0426 10:40:54.268363  7867 net.cpp:150] Setting up fire11_mbox_conf_perm
I0426 10:40:54.268369  7867 net.cpp:157] Top shape: 2 4 4 42 (1344)
I0426 10:40:54.268373  7867 net.cpp:165] Memory required for data: 153550192
I0426 10:40:54.268378  7867 layer_factory.hpp:77] Creating layer fire11_mbox_conf_flat
I0426 10:40:54.268383  7867 net.cpp:100] Creating Layer fire11_mbox_conf_flat
I0426 10:40:54.268388  7867 net.cpp:434] fire11_mbox_conf_flat <- fire11_mbox_conf_perm
I0426 10:40:54.268393  7867 net.cpp:408] fire11_mbox_conf_flat -> fire11_mbox_conf_flat
I0426 10:40:54.268434  7867 net.cpp:150] Setting up fire11_mbox_conf_flat
I0426 10:40:54.268440  7867 net.cpp:157] Top shape: 2 672 (1344)
I0426 10:40:54.268443  7867 net.cpp:165] Memory required for data: 153555568
I0426 10:40:54.268447  7867 layer_factory.hpp:77] Creating layer fire11_mbox_priorbox
I0426 10:40:54.268452  7867 net.cpp:100] Creating Layer fire11_mbox_priorbox
I0426 10:40:54.268457  7867 net.cpp:434] fire11_mbox_priorbox <- fire11/concat_fire11/concat_0_split_3
I0426 10:40:54.268462  7867 net.cpp:434] fire11_mbox_priorbox <- data_data_0_split_4
I0426 10:40:54.268467  7867 net.cpp:408] fire11_mbox_priorbox -> fire11_mbox_priorbox
I0426 10:40:54.268487  7867 net.cpp:150] Setting up fire11_mbox_priorbox
I0426 10:40:54.268492  7867 net.cpp:157] Top shape: 1 2 384 (768)
I0426 10:40:54.268496  7867 net.cpp:165] Memory required for data: 153558640
I0426 10:40:54.268501  7867 layer_factory.hpp:77] Creating layer conv12_2_mbox_loc
I0426 10:40:54.268508  7867 net.cpp:100] Creating Layer conv12_2_mbox_loc
I0426 10:40:54.268527  7867 net.cpp:434] conv12_2_mbox_loc <- conv12_2_conv12_2/relu_0_split_1
I0426 10:40:54.268533  7867 net.cpp:408] conv12_2_mbox_loc -> conv12_2_mbox_loc
I0426 10:40:54.270165  7867 net.cpp:150] Setting up conv12_2_mbox_loc
I0426 10:40:54.270179  7867 net.cpp:157] Top shape: 2 24 2 2 (192)
I0426 10:40:54.270184  7867 net.cpp:165] Memory required for data: 153559408
I0426 10:40:54.270190  7867 layer_factory.hpp:77] Creating layer conv12_2_mbox_loc_perm
I0426 10:40:54.270197  7867 net.cpp:100] Creating Layer conv12_2_mbox_loc_perm
I0426 10:40:54.270201  7867 net.cpp:434] conv12_2_mbox_loc_perm <- conv12_2_mbox_loc
I0426 10:40:54.270207  7867 net.cpp:408] conv12_2_mbox_loc_perm -> conv12_2_mbox_loc_perm
I0426 10:40:54.270313  7867 net.cpp:150] Setting up conv12_2_mbox_loc_perm
I0426 10:40:54.270323  7867 net.cpp:157] Top shape: 2 2 2 24 (192)
I0426 10:40:54.270328  7867 net.cpp:165] Memory required for data: 153560176
I0426 10:40:54.270330  7867 layer_factory.hpp:77] Creating layer conv12_2_mbox_loc_flat
I0426 10:40:54.270336  7867 net.cpp:100] Creating Layer conv12_2_mbox_loc_flat
I0426 10:40:54.270341  7867 net.cpp:434] conv12_2_mbox_loc_flat <- conv12_2_mbox_loc_perm
I0426 10:40:54.270346  7867 net.cpp:408] conv12_2_mbox_loc_flat -> conv12_2_mbox_loc_flat
I0426 10:40:54.270364  7867 net.cpp:150] Setting up conv12_2_mbox_loc_flat
I0426 10:40:54.270372  7867 net.cpp:157] Top shape: 2 96 (192)
I0426 10:40:54.270377  7867 net.cpp:165] Memory required for data: 153560944
I0426 10:40:54.270382  7867 layer_factory.hpp:77] Creating layer conv12_2_mbox_conf
I0426 10:40:54.270397  7867 net.cpp:100] Creating Layer conv12_2_mbox_conf
I0426 10:40:54.270402  7867 net.cpp:434] conv12_2_mbox_conf <- conv12_2_conv12_2/relu_0_split_2
I0426 10:40:54.270411  7867 net.cpp:408] conv12_2_mbox_conf -> conv12_2_mbox_conf
I0426 10:40:54.273262  7867 net.cpp:150] Setting up conv12_2_mbox_conf
I0426 10:40:54.273288  7867 net.cpp:157] Top shape: 2 42 2 2 (336)
I0426 10:40:54.273294  7867 net.cpp:165] Memory required for data: 153562288
I0426 10:40:54.273308  7867 layer_factory.hpp:77] Creating layer conv12_2_mbox_conf_perm
I0426 10:40:54.273322  7867 net.cpp:100] Creating Layer conv12_2_mbox_conf_perm
I0426 10:40:54.273331  7867 net.cpp:434] conv12_2_mbox_conf_perm <- conv12_2_mbox_conf
I0426 10:40:54.273341  7867 net.cpp:408] conv12_2_mbox_conf_perm -> conv12_2_mbox_conf_perm
I0426 10:40:54.273453  7867 net.cpp:150] Setting up conv12_2_mbox_conf_perm
I0426 10:40:54.273465  7867 net.cpp:157] Top shape: 2 2 2 42 (336)
I0426 10:40:54.273470  7867 net.cpp:165] Memory required for data: 153563632
I0426 10:40:54.273475  7867 layer_factory.hpp:77] Creating layer conv12_2_mbox_conf_flat
I0426 10:40:54.273488  7867 net.cpp:100] Creating Layer conv12_2_mbox_conf_flat
I0426 10:40:54.273494  7867 net.cpp:434] conv12_2_mbox_conf_flat <- conv12_2_mbox_conf_perm
I0426 10:40:54.273501  7867 net.cpp:408] conv12_2_mbox_conf_flat -> conv12_2_mbox_conf_flat
I0426 10:40:54.273531  7867 net.cpp:150] Setting up conv12_2_mbox_conf_flat
I0426 10:40:54.273537  7867 net.cpp:157] Top shape: 2 168 (336)
I0426 10:40:54.273541  7867 net.cpp:165] Memory required for data: 153564976
I0426 10:40:54.273545  7867 layer_factory.hpp:77] Creating layer conv12_2_mbox_priorbox
I0426 10:40:54.273551  7867 net.cpp:100] Creating Layer conv12_2_mbox_priorbox
I0426 10:40:54.273556  7867 net.cpp:434] conv12_2_mbox_priorbox <- conv12_2_conv12_2/relu_0_split_3
I0426 10:40:54.273561  7867 net.cpp:434] conv12_2_mbox_priorbox <- data_data_0_split_5
I0426 10:40:54.273567  7867 net.cpp:408] conv12_2_mbox_priorbox -> conv12_2_mbox_priorbox
I0426 10:40:54.273602  7867 net.cpp:150] Setting up conv12_2_mbox_priorbox
I0426 10:40:54.273607  7867 net.cpp:157] Top shape: 1 2 96 (192)
I0426 10:40:54.273610  7867 net.cpp:165] Memory required for data: 153565744
I0426 10:40:54.273614  7867 layer_factory.hpp:77] Creating layer conv13_2_mbox_loc
I0426 10:40:54.273625  7867 net.cpp:100] Creating Layer conv13_2_mbox_loc
I0426 10:40:54.273629  7867 net.cpp:434] conv13_2_mbox_loc <- conv13_2_conv13_2/relu_0_split_0
I0426 10:40:54.273669  7867 net.cpp:408] conv13_2_mbox_loc -> conv13_2_mbox_loc
I0426 10:40:54.275264  7867 net.cpp:150] Setting up conv13_2_mbox_loc
I0426 10:40:54.275277  7867 net.cpp:157] Top shape: 2 16 1 1 (32)
I0426 10:40:54.275281  7867 net.cpp:165] Memory required for data: 153565872
I0426 10:40:54.275288  7867 layer_factory.hpp:77] Creating layer conv13_2_mbox_loc_perm
I0426 10:40:54.275302  7867 net.cpp:100] Creating Layer conv13_2_mbox_loc_perm
I0426 10:40:54.275307  7867 net.cpp:434] conv13_2_mbox_loc_perm <- conv13_2_mbox_loc
I0426 10:40:54.275312  7867 net.cpp:408] conv13_2_mbox_loc_perm -> conv13_2_mbox_loc_perm
I0426 10:40:54.275389  7867 net.cpp:150] Setting up conv13_2_mbox_loc_perm
I0426 10:40:54.275395  7867 net.cpp:157] Top shape: 2 1 1 16 (32)
I0426 10:40:54.275398  7867 net.cpp:165] Memory required for data: 153566000
I0426 10:40:54.275403  7867 layer_factory.hpp:77] Creating layer conv13_2_mbox_loc_flat
I0426 10:40:54.275408  7867 net.cpp:100] Creating Layer conv13_2_mbox_loc_flat
I0426 10:40:54.275413  7867 net.cpp:434] conv13_2_mbox_loc_flat <- conv13_2_mbox_loc_perm
I0426 10:40:54.275418  7867 net.cpp:408] conv13_2_mbox_loc_flat -> conv13_2_mbox_loc_flat
I0426 10:40:54.275435  7867 net.cpp:150] Setting up conv13_2_mbox_loc_flat
I0426 10:40:54.275447  7867 net.cpp:157] Top shape: 2 16 (32)
I0426 10:40:54.275450  7867 net.cpp:165] Memory required for data: 153566128
I0426 10:40:54.275454  7867 layer_factory.hpp:77] Creating layer conv13_2_mbox_conf
I0426 10:40:54.275461  7867 net.cpp:100] Creating Layer conv13_2_mbox_conf
I0426 10:40:54.275465  7867 net.cpp:434] conv13_2_mbox_conf <- conv13_2_conv13_2/relu_0_split_1
I0426 10:40:54.275471  7867 net.cpp:408] conv13_2_mbox_conf -> conv13_2_mbox_conf
I0426 10:40:54.276875  7867 net.cpp:150] Setting up conv13_2_mbox_conf
I0426 10:40:54.276886  7867 net.cpp:157] Top shape: 2 28 1 1 (56)
I0426 10:40:54.276890  7867 net.cpp:165] Memory required for data: 153566352
I0426 10:40:54.276906  7867 layer_factory.hpp:77] Creating layer conv13_2_mbox_conf_perm
I0426 10:40:54.276912  7867 net.cpp:100] Creating Layer conv13_2_mbox_conf_perm
I0426 10:40:54.276916  7867 net.cpp:434] conv13_2_mbox_conf_perm <- conv13_2_mbox_conf
I0426 10:40:54.276921  7867 net.cpp:408] conv13_2_mbox_conf_perm -> conv13_2_mbox_conf_perm
I0426 10:40:54.277004  7867 net.cpp:150] Setting up conv13_2_mbox_conf_perm
I0426 10:40:54.277010  7867 net.cpp:157] Top shape: 2 1 1 28 (56)
I0426 10:40:54.277014  7867 net.cpp:165] Memory required for data: 153566576
I0426 10:40:54.277019  7867 layer_factory.hpp:77] Creating layer conv13_2_mbox_conf_flat
I0426 10:40:54.277024  7867 net.cpp:100] Creating Layer conv13_2_mbox_conf_flat
I0426 10:40:54.277029  7867 net.cpp:434] conv13_2_mbox_conf_flat <- conv13_2_mbox_conf_perm
I0426 10:40:54.277034  7867 net.cpp:408] conv13_2_mbox_conf_flat -> conv13_2_mbox_conf_flat
I0426 10:40:54.277050  7867 net.cpp:150] Setting up conv13_2_mbox_conf_flat
I0426 10:40:54.277055  7867 net.cpp:157] Top shape: 2 28 (56)
I0426 10:40:54.277060  7867 net.cpp:165] Memory required for data: 153566800
I0426 10:40:54.277062  7867 layer_factory.hpp:77] Creating layer conv13_2_mbox_priorbox
I0426 10:40:54.277068  7867 net.cpp:100] Creating Layer conv13_2_mbox_priorbox
I0426 10:40:54.277072  7867 net.cpp:434] conv13_2_mbox_priorbox <- conv13_2_conv13_2/relu_0_split_2
I0426 10:40:54.277077  7867 net.cpp:434] conv13_2_mbox_priorbox <- data_data_0_split_6
I0426 10:40:54.277082  7867 net.cpp:408] conv13_2_mbox_priorbox -> conv13_2_mbox_priorbox
I0426 10:40:54.277101  7867 net.cpp:150] Setting up conv13_2_mbox_priorbox
I0426 10:40:54.277107  7867 net.cpp:157] Top shape: 1 2 16 (32)
I0426 10:40:54.277109  7867 net.cpp:165] Memory required for data: 153566928
I0426 10:40:54.277113  7867 layer_factory.hpp:77] Creating layer mbox_loc
I0426 10:40:54.277119  7867 net.cpp:100] Creating Layer mbox_loc
I0426 10:40:54.277124  7867 net.cpp:434] mbox_loc <- fire5_mbox_loc_flat
I0426 10:40:54.277129  7867 net.cpp:434] mbox_loc <- fire9_mbox_loc_flat
I0426 10:40:54.277134  7867 net.cpp:434] mbox_loc <- fire10_mbox_loc_flat
I0426 10:40:54.277151  7867 net.cpp:434] mbox_loc <- fire11_mbox_loc_flat
I0426 10:40:54.277156  7867 net.cpp:434] mbox_loc <- conv12_2_mbox_loc_flat
I0426 10:40:54.277160  7867 net.cpp:434] mbox_loc <- conv13_2_mbox_loc_flat
I0426 10:40:54.277165  7867 net.cpp:408] mbox_loc -> mbox_loc
I0426 10:40:54.277186  7867 net.cpp:150] Setting up mbox_loc
I0426 10:40:54.277192  7867 net.cpp:157] Top shape: 2 32120 (64240)
I0426 10:40:54.277195  7867 net.cpp:165] Memory required for data: 153823888
I0426 10:40:54.277199  7867 layer_factory.hpp:77] Creating layer mbox_conf
I0426 10:40:54.277204  7867 net.cpp:100] Creating Layer mbox_conf
I0426 10:40:54.277209  7867 net.cpp:434] mbox_conf <- fire5_mbox_conf_flat
I0426 10:40:54.277215  7867 net.cpp:434] mbox_conf <- fire9_mbox_conf_flat
I0426 10:40:54.277218  7867 net.cpp:434] mbox_conf <- fire10_mbox_conf_flat
I0426 10:40:54.277223  7867 net.cpp:434] mbox_conf <- fire11_mbox_conf_flat
I0426 10:40:54.277227  7867 net.cpp:434] mbox_conf <- conv12_2_mbox_conf_flat
I0426 10:40:54.277232  7867 net.cpp:434] mbox_conf <- conv13_2_mbox_conf_flat
I0426 10:40:54.277236  7867 net.cpp:408] mbox_conf -> mbox_conf
I0426 10:40:54.277254  7867 net.cpp:150] Setting up mbox_conf
I0426 10:40:54.277259  7867 net.cpp:157] Top shape: 2 56210 (112420)
I0426 10:40:54.277263  7867 net.cpp:165] Memory required for data: 154273568
I0426 10:40:54.277267  7867 layer_factory.hpp:77] Creating layer mbox_priorbox
I0426 10:40:54.277271  7867 net.cpp:100] Creating Layer mbox_priorbox
I0426 10:40:54.277276  7867 net.cpp:434] mbox_priorbox <- fire5_mbox_priorbox
I0426 10:40:54.277281  7867 net.cpp:434] mbox_priorbox <- fire9_mbox_priorbox
I0426 10:40:54.277284  7867 net.cpp:434] mbox_priorbox <- fire10_mbox_priorbox
I0426 10:40:54.277289  7867 net.cpp:434] mbox_priorbox <- fire11_mbox_priorbox
I0426 10:40:54.277293  7867 net.cpp:434] mbox_priorbox <- conv12_2_mbox_priorbox
I0426 10:40:54.277297  7867 net.cpp:434] mbox_priorbox <- conv13_2_mbox_priorbox
I0426 10:40:54.277302  7867 net.cpp:408] mbox_priorbox -> mbox_priorbox
I0426 10:40:54.277319  7867 net.cpp:150] Setting up mbox_priorbox
I0426 10:40:54.277324  7867 net.cpp:157] Top shape: 1 2 32120 (64240)
I0426 10:40:54.277328  7867 net.cpp:165] Memory required for data: 154530528
I0426 10:40:54.277333  7867 layer_factory.hpp:77] Creating layer mbox_conf_reshape
I0426 10:40:54.277338  7867 net.cpp:100] Creating Layer mbox_conf_reshape
I0426 10:40:54.277343  7867 net.cpp:434] mbox_conf_reshape <- mbox_conf
I0426 10:40:54.277348  7867 net.cpp:408] mbox_conf_reshape -> mbox_conf_reshape
I0426 10:40:54.277372  7867 net.cpp:150] Setting up mbox_conf_reshape
I0426 10:40:54.277379  7867 net.cpp:157] Top shape: 2 8030 7 (112420)
I0426 10:40:54.277381  7867 net.cpp:165] Memory required for data: 154980208
I0426 10:40:54.277385  7867 layer_factory.hpp:77] Creating layer mbox_conf_softmax
I0426 10:40:54.277391  7867 net.cpp:100] Creating Layer mbox_conf_softmax
I0426 10:40:54.277395  7867 net.cpp:434] mbox_conf_softmax <- mbox_conf_reshape
I0426 10:40:54.277400  7867 net.cpp:408] mbox_conf_softmax -> mbox_conf_softmax
I0426 10:40:54.277601  7867 net.cpp:150] Setting up mbox_conf_softmax
I0426 10:40:54.277609  7867 net.cpp:157] Top shape: 2 8030 7 (112420)
I0426 10:40:54.277612  7867 net.cpp:165] Memory required for data: 155429888
I0426 10:40:54.277617  7867 layer_factory.hpp:77] Creating layer mbox_conf_flatten
I0426 10:40:54.277622  7867 net.cpp:100] Creating Layer mbox_conf_flatten
I0426 10:40:54.277627  7867 net.cpp:434] mbox_conf_flatten <- mbox_conf_softmax
I0426 10:40:54.277632  7867 net.cpp:408] mbox_conf_flatten -> mbox_conf_flatten
I0426 10:40:54.277657  7867 net.cpp:150] Setting up mbox_conf_flatten
I0426 10:40:54.277662  7867 net.cpp:157] Top shape: 2 56210 (112420)
I0426 10:40:54.277667  7867 net.cpp:165] Memory required for data: 155879568
I0426 10:40:54.277669  7867 layer_factory.hpp:77] Creating layer detection_out
I0426 10:40:54.277679  7867 net.cpp:100] Creating Layer detection_out
I0426 10:40:54.277684  7867 net.cpp:434] detection_out <- mbox_loc
I0426 10:40:54.277698  7867 net.cpp:434] detection_out <- mbox_conf_flatten
I0426 10:40:54.277701  7867 net.cpp:434] detection_out <- mbox_priorbox
I0426 10:40:54.277714  7867 net.cpp:408] detection_out -> detection_out
I0426 10:40:54.277760  7867 net.cpp:150] Setting up detection_out
I0426 10:40:54.277765  7867 net.cpp:157] Top shape: 1 1 1 7 (7)
I0426 10:40:54.277768  7867 net.cpp:165] Memory required for data: 155879596
I0426 10:40:54.277773  7867 layer_factory.hpp:77] Creating layer detection_eval
I0426 10:40:54.277779  7867 net.cpp:100] Creating Layer detection_eval
I0426 10:40:54.277783  7867 net.cpp:434] detection_eval <- detection_out
I0426 10:40:54.277788  7867 net.cpp:434] detection_eval <- label
I0426 10:40:54.277793  7867 net.cpp:408] detection_eval -> detection_eval
I0426 10:40:54.277823  7867 net.cpp:150] Setting up detection_eval
I0426 10:40:54.277829  7867 net.cpp:157] Top shape: 1 1 7 5 (35)
I0426 10:40:54.277832  7867 net.cpp:165] Memory required for data: 155879736
I0426 10:40:54.277837  7867 net.cpp:228] detection_eval does not need backward computation.
I0426 10:40:54.277842  7867 net.cpp:228] detection_out does not need backward computation.
I0426 10:40:54.277845  7867 net.cpp:228] mbox_conf_flatten does not need backward computation.
I0426 10:40:54.277849  7867 net.cpp:228] mbox_conf_softmax does not need backward computation.
…
