…
    batch_sampler {
      sampler {
        min_scale: 0.3
        max_scale: 1
        min_aspect_ratio: 0.5
        max_aspect_ratio: 2
      }
      sample_constraint {
        min_jaccard_overlap: 0.9
      }
      max_sample: 1
      max_trials: 50
    }
    batch_sampler {
      sampler {
        min_scale: 0.3
        max_scale: 1
        min_aspect_ratio: 0.5
        max_aspect_ratio: 2
      }
      sample_constraint {
        max_jaccard_overlap: 1
      }
      max_sample: 1
      max_trials: 50
    }
    label_map_file: "labelmap.prototxt"
  }
}
layer {
  name: "Conv"
  type: "Convolution"
  bottom: "data"
  top: "Conv"
  param {
    lr_mult: 1
    decay_mult: 1
  }
  convolution_param {
    num_output: 32
    bias_term: false
    pad: 1
    kernel_size: 3
    stride: 2
    weight_filler {
      type: "msra"
    }
  }
}
layer {
  name: "Conv/bn"
  type: "BatchNorm"
  bottom: "Conv"
  top: "Conv"
}
layer {
  name: "Conv/scale"
  type: "Scale"
  bottom: "Conv"
  top: "Conv"
  param {
    lr_mult: 1
    decay_mult: 0
  }
  param {
    lr_mult: 2
    decay_mult: 0
  }
  scale_param {
    filler {
      value: 1
    }
    bias_term: true
    bias_filler {
      value: 0
    }
  }
}
layer {
  name: "Conv/relu"
  type: "ReLU"
  bottom: "Conv"
  top: "Conv"
}
layer {
  name: "conv/depthwise"
  type: "Convolution"
  bottom: "Conv"
  top: "conv/depthwise"
  param {
    lr_mult: 1
    decay_mult: 1
  }
  convolution_param {
    num_output: 32
    bias_term: false
    pad: 1
    kernel_size: 3
    group: 32
    weight_filler {
      type: "msra"
    }
    engine: CAFFE
  }
}
layer {
  name: "conv/depthwise/bn"
  type: "BatchNorm"
  bottom: "conv/depthwise"
  top: "conv/depthwise"
}
layer {
  name: "conv/depthwise/scale"
  type: "Scale"
  bottom: "conv/depthwise"
  top: "conv/depthwise"
  param {
    lr_mult: 1
    decay_mult: 0
  }
  param {
    lr_mult: 2
    decay_mult: 0
  }
  scale_param {
    filler {
      value: 1
    }
    bias_term: true
    bias_filler {
      value: 0
    }
  }
}
layer {
  name: "conv/depthwise/relu"
  type: "ReLU"
  bottom: "conv/depthwise"
  top: "conv/depthwise"
}
layer {
  name: "conv/project"
  type: "Convolution"
  bottom: "conv/depthwise"
  top: "conv/project"
  param {
    lr_mult: 1
    decay_mult: 1
  }
  convolution_param {
    num_output: 16
    bias_term: false
    kernel_size: 1
    weight_filler {
      type: "msra"
    }
  }
}
layer {
  name: "conv/project/bn"
  type: "BatchNorm"
  bottom: "conv/project"
  top: "conv/project"
}
layer {
  name: "conv/project/scale"
  type: "Scale"
  bottom: "conv/project"
  top: "conv/project"
  param {
    lr_mult: 1
    decay_mult: 0
  }
  param {
    lr_mult: 2
    decay_mult: 0
  }
  scale_param {
    filler {
      value: 1
    }
    bias_term: true
    bias_filler {
      value: 0
    }
  }
}
layer {
  name: "conv_1/expand"
  type: "Convolution"
  bottom: "conv/project"
  top: "conv_1/expand"
  param {
    lr_mult: 1
    decay_mult: 1
  }
  convolution_param {
    num_output: 96
    bias_term: false
    kernel_size: 1
    weight_filler {
      type: "msra"
    }
  }
}
layer {
  name: "conv_1/expand/bn"
  type: "BatchNorm"
  bottom: "conv_1/expand"
  top: "conv_1/expand"
}
layer {
  name: "conv_1/expand/scale"
  type: "Scale"
  bottom: "conv_1/expand"
  top: "conv_1/expand"
  param {
    lr_mult: 1
    decay_mult: 0
  }
  param {
    lr_mult: 2
    decay_mult: 0
  }
  scale_param {
    filler {
      value: 1
    }
    bias_term: true
    bias_filler {
      value: 0
    }
  }
}
layer {
  name: "conv_1/expand/relu"
  type: "ReLU"
  bottom: "conv_1/expand"
  top: "conv_1/expand"
}
layer {
  name: "conv_1/depthwise"
  type: "Convolution"
  bottom: "conv_1/expand"
  top: "conv_1/depthwise"
  param {
    lr_mult: 1
    decay_mult: 1
  }
  convolution_param {
    num_output: 96
    bias_term: false
    pad: 1
    kernel_size: 3
    group: 96
    stride: 2
    weight_filler {
      type: "msra"
    }
    engine: CAFFE
  }
}
layer {
  name: "conv_1/depthwise/bn"
  type: "BatchNorm"
  bottom: "conv_1/depthwise"
  top: "conv_1/depthwise"
}
layer {
  name: "conv_1/depthwise/scale"
  type: "Scale"
  bottom: "conv_1/depthwise"
  top: "conv_1/depthwise"
  param {
    lr_mult: 1
    decay_mult: 0
  }
  param {
    lr_mult: 2
    decay_mult: 0
  }
  scale_param {
    filler {
      value: 1
    }
    bias_term: true
    bias_filler {
      value: 0
    }
  }
}
layer {
  name: "conv_1/depthwise/relu"
  type: "ReLU"
  bottom: "conv_1/depthwise"
  top: "conv_1/depthwise"
}
layer {
  name: "conv_1/project"
  type: "Convolution"
  bottom: "conv_1/depthwise"
  top: "conv_1/project"
  param {
    lr_mult: 1
    decay_mult: 1
  }
  convolution_param {
    num_output: 24
    bias_term: false
    kernel_size: 1
    weight_filler {
      type: "msra"
    }
  }
}
layer {
  name: "conv_1/project/bn"
  type: "BatchNorm"
  bottom: "conv_1/project"
  top: "conv_1/project"
}
layer {
  name: "conv_1/project/scale"
  type: "Scale"
  bottom: "conv_1/project"
  top: "conv_1/project"
  param {
    lr_mult: 1
    decay_mult: 0
  }
  param {
    lr_mult: 2
    decay_mult: 0
  }
  scale_param {
    filler {
      value: 1
    }
    bias_term: true
    bias_filler {
      value: 0
    }
  }
}
layer {
  name: "conv_2/expand"
  type: "Convolution"
  bottom: "conv_1/project"
  top: "conv_2/expand"
  param {
    lr_mult: 1
    decay_mult: 1
  }
  convolution_param {
    num_output: 144
    bias_term: false
    kernel_size: 1
    weight_filler {
      type: "msra"
    }
  }
}
layer {
  name: "conv_2/expand/bn"
  type: "BatchNorm"
  bottom: "conv_2/expand"
  top: "conv_2/expand"
}
layer {
  name: "conv_2/expand/scale"
  type: "Scale"
  bottom: "conv_2/expand"
  top: "conv_2/expand"
  param {
    lr_mult: 1
    decay_mult: 0
  }
  param {
    lr_mult: 2
    decay_mult: 0
  }
  scale_param {
    filler {
      value: 1
    }
    bias_term: true
    bias_filler {
      value: 0
    }
  }
}
layer {
  name: "conv_2/expand/relu"
  type: "ReLU"
  bottom: "conv_2/expand"
  top: "conv_2/expand"
}
layer {
  name: "conv_2/depthwise"
  type: "Convolution"
  bottom: "conv_2/expand"
  top: "conv_2/depthwise"
  param {
    lr_mult: 1
    decay_mult: 1
  }
  convolution_param {
    num_output: 144
    bias_term: false
    pad: 1
    kernel_size: 3
    group: 144
    weight_filler {
      type: "msra"
    }
    engine: CAFFE
  }
}
layer {
  name: "conv_2/depthwise/bn"
  type: "BatchNorm"
  bottom: "conv_2/depthwise"
  top: "conv_2/depthwise"
}
layer {
  name: "conv_2/depthwise/scale"
  type: "Scale"
  bottom: "conv_2/depthwise"
  top: "conv_2/depthwise"
  param {
    lr_mult: 1
    decay_mult: 0
  }
  param {
    lr_mult: 2
    decay_mult: 0
  }
  scale_param {
    filler {
      value: 1
    }
    bias_term: true
    bias_filler {
      value: 0
    }
  }
}
layer {
  name: "conv_2/depthwise/relu"
  type: "ReLU"
  bottom: "conv_2/depthwise"
  top: "conv_2/depthwise"
}
layer {
  name: "conv_2/project"
  type: "Convolution"
  bottom: "conv_2/depthwise"
  top: "conv_2/project"
  param {
    lr_mult: 1
    decay_mult: 1
  }
  convolution_param {
    num_output: 24
    bias_term: false
    kernel_size: 1
    weight_filler {
      type: "msra"
    }
  }
}
layer {
  name: "conv_2/project/bn"
  type: "BatchNorm"
  bottom: "conv_2/project"
  top: "conv_2/project"
}
layer {
  name: "conv_2/project/scale"
  type: "Scale"
  bottom: "conv_2/project"
  top: "conv_2/project"
  param {
    lr_mult: 1
    decay_mult: 0
  }
  param {
    lr_mult: 2
    decay_mult: 0
  }
  scale_param {
    filler {
      value: 1
    }
    bias_term: true
    bias_filler {
      value: 0
    }
  }
}
layer {
  name: "conv_2project/sum"
  type: "Eltwise"
  bottom: "conv_1/project"
  bottom: "conv_2/project"
  top: "conv_2project"
}
layer {
  name: "conv_3/expand"
  type: "Convolution"
  bottom: "conv_2project"
  top: "conv_3/expand"
  param {
    lr_mult: 1
    decay_mult: 1
  }
  convolution_param {
    num_output: 144
    bias_term: false
    kernel_size: 1
    weight_filler {
      type: "msra"
    }
  }
}
layer {
  name: "conv_3/expand/bn"
  type: "BatchNorm"
  bottom: "conv_3/expand"
  top: "conv_3/expand"
}
layer {
  name: "conv_3/expand/scale"
  type: "Scale"
  bottom: "conv_3/expand"
  top: "conv_3/expand"
  param {
    lr_mult: 1
    decay_mult: 0
  }
  param {
    lr_mult: 2
    decay_mult: 0
  }
  scale_param {
    filler {
      value: 1
    }
    bias_term: true
    bias_filler {
      value: 0
    }
  }
}
layer {
  name: "conv_3/expand/relu"
  type: "ReLU"
  bottom: "conv_3/expand"
  top: "conv_3/expand"
}
layer {
  name: "conv_3/depthwise"
  type: "Convolution"
  bottom: "conv_3/expand"
  top: "conv_3/depthwise"
  param {
    lr_mult: 1
    decay_mult: 1
  }
  convolution_param {
    num_output: 144
    bias_term: false
    pad: 1
    kernel_size: 3
    group: 144
    stride: 2
    weight_filler {
      type: "msra"
    }
    engine: CAFFE
  }
}
layer {
  name: "conv_3/depthwise/bn"
  type: "BatchNorm"
  bottom: "conv_3/depthwise"
  top: "conv_3/depthwise"
}
layer {
  name: "conv_3/depthwise/scale"
  type: "Scale"
  bottom: "conv_3/depthwise"
  top: "conv_3/depthwise"
  param {
    lr_mult: 1
    decay_mult: 0
  }
  param {
    lr_mult: 2
    decay_mult: 0
  }
  scale_param {
    filler {
      value: 1
    }
    bias_term: true
    bias_filler {
      value: 0
    }
  }
}
layer {
  name: "conv_3/depthwise/relu"
  type: "ReLU"
  bottom: "conv_3/depthwise"
  top: "conv_3/depthwise"
}
layer {
  name: "conv_3/project"
  type: "Convolution"
  bottom: "conv_3/depthwise"
  top: "conv_3/project"
  param {
    lr_mult: 1
    decay_mult: 1
  }
  convolution_param {
    num_output: 32
    bias_term: false
    kernel_size: 1
    weight_filler {
      type: "msra"
    }
  }
}
layer {
  name: "conv_3/project/bn"
  type: "BatchNorm"
  bottom: "conv_3/project"
  top: "conv_3/project"
}
layer {
  name: "conv_3/project/scale"
  type: "Scale"
  bottom: "conv_3/project"
  top: "conv_3/project"
  param {
    lr_mult: 1
    decay_mult: 0
  }
  param {
    lr_mult: 2
    decay_mult: 0
  }
  scale_param {
    filler {
      value: 1
    }
    bias_term: true
    bias_filler {
      value: 0
    }
  }
}
layer {
  name: "conv_4/expand"
  type: "Convolution"
  bottom: "conv_3/project"
  top: "conv_4/expand"
  param {
    lr_mult: 1
    decay_mult: 1
  }
  convolution_param {
    num_output: 192
    bias_term: false
    kernel_size: 1
    weight_filler {
      type: "msra"
    }
  }
}
layer {
  name: "conv_4/expand/bn"
  type: "BatchNorm"
  bottom: "conv_4/expand"
  top: "conv_4/expand"
}
layer {
  name: "conv_4/expand/scale"
  type: "Scale"
  bottom: "conv_4/expand"
  top: "conv_4/expand"
  param {
    lr_mult: 1
    decay_mult: 0
  }
  param {
    lr_mult: 2
    decay_mult: 0
  }
  scale_param {
    filler {
      value: 1
    }
    bias_term: true
    bias_filler {
      value: 0
    }
  }
}
layer {
  name: "conv_4/expand/relu"
  type: "ReLU"
  bottom: "conv_4/expand"
  top: "conv_4/expand"
}
layer {
  name: "conv_4/depthwise"
  type: "Convolution"
  bottom: "conv_4/expand"
  top: "conv_4/depthwise"
  param {
    lr_mult: 1
    decay_mult: 1
  }
  convolution_param {
    num_output: 192
    bias_term: false
    pad: 1
    kernel_size: 3
    group: 192
    weight_filler {
      type: "msra"
    }
    engine: CAFFE
  }
}
layer {
  name: "conv_4/depthwise/bn"
  type: "BatchNorm"
  bottom: "conv_4/depthwise"
  top: "conv_4/depthwise"
}
layer {
  name: "conv_4/depthwise/scale"
  type: "Scale"
  bottom: "conv_4/depthwise"
  top: "conv_4/depthwise"
  param {
    lr_mult: 1
    decay_mult: 0
  }
  param {
    lr_mult: 2
    decay_mult: 0
  }
  scale_param {
    filler {
      value: 1
    }
    bias_term: true
    bias_filler {
      value: 0
    }
  }
}
layer {
  name: "conv_4/depthwise/relu"
  type: "ReLU"
  bottom: "conv_4/depthwise"
  top: "conv_4/depthwise"
}
layer {
  name: "conv_4/project"
  type: "Convolution"
  bottom: "conv_4/depthwise"
  top: "conv_4/project"
  param {
    lr_mult: 1
    decay_mult: 1
  }
  convolution_param {
    num_output: 32
    bias_term: false
    kernel_size: 1
    weight_filler {
      type: "msra"
    }
  }
}
layer {
  name: "conv_4/project/bn"
  type: "BatchNorm"
  bottom: "conv_4/project"
  top: "conv_4/project"
}
layer {
  name: "conv_4/project/scale"
  type: "Scale"
  bottom: "conv_4/project"
  top: "conv_4/project"
  param {
    lr_mult: 1
    decay_mult: 0
  }
  param {
    lr_mult: 2
    decay_mult: 0
  }
  scale_param {
    filler {
      value: 1
    }
    bias_term: true
    bias_filler {
      value: 0
    }
  }
}
layer {
  name: "conv_4project/sum"
  type: "Eltwise"
  bottom: "conv_3/project"
  bottom: "conv_4/project"
  top: "conv_4project"
}
layer {
  name: "conv_5/expand"
  type: "Convolution"
  bottom: "conv_4project"
  top: "conv_5/expand"
  param {
    lr_mult: 1
    decay_mult: 1
  }
  convolution_param {
    num_output: 192
    bias_term: false
    kernel_size: 1
    weight_filler {
      type: "msra"
    }
  }
}
layer {
  name: "conv_5/expand/bn"
  type: "BatchNorm"
  bottom: "conv_5/expand"
  top: "conv_5/expand"
}
layer {
  name: "conv_5/expand/scale"
  type: "Scale"
  bottom: "conv_5/expand"
  top: "conv_5/expand"
  param {
    lr_mult: 1
    decay_mult: 0
  }
  param {
    lr_mult: 2
    decay_mult: 0
  }
  scale_param {
    filler {
      value: 1
    }
    bias_term: true
    bias_filler {
      value: 0
    }
  }
}
layer {
  name: "conv_5/expand/relu"
  type: "ReLU"
  bottom: "conv_5/expand"
  top: "conv_5/expand"
}
layer {
  name: "conv_5/depthwise"
  type: "Convolution"
  bottom: "conv_5/expand"
  top: "conv_5/depthwise"
  param {
    lr_mult: 1
    decay_mult: 1
  }
  convolution_param {
    num_output: 192
    bias_term: false
    pad: 1
    kernel_size: 3
    group: 192
    weight_filler {
      type: "msra"
    }
    engine: CAFFE
  }
}
layer {
  name: "conv_5/depthwise/bn"
  type: "BatchNorm"
  bottom: "conv_5/depthwise"
  top: "conv_5/depthwise"
}
layer {
  name: "conv_5/depthwise/scale"
  type: "Scale"
  bottom: "conv_5/depthwise"
  top: "conv_5/depthwise"
  param {
    lr_mult: 1
    decay_mult: 0
  }
  param {
    lr_mult: 2
    decay_mult: 0
  }
  scale_param {
    filler {
      value: 1
    }
    bias_term: true
    bias_filler {
      value: 0
    }
  }
}
layer {
  name: "conv_5/depthwise/relu"
  type: "ReLU"
  bottom: "conv_5/depthwise"
  top: "conv_5/depthwise"
}
layer {
  name: "conv_5/project"
  type: "Convolution"
  bottom: "conv_5/depthwise"
  top: "conv_5/project"
  param {
    lr_mult: 1
    decay_mult: 1
  }
  convolution_param {
    num_output: 32
    bias_term: false
    kernel_size: 1
    weight_filler {
      type: "msra"
    }
  }
}
layer {
  name: "conv_5/project/bn"
  type: "BatchNorm"
  bottom: "conv_5/project"
  top: "conv_5/project"
}
layer {
  name: "conv_5/project/scale"
  type: "Scale"
  bottom: "conv_5/project"
  top: "conv_5/project"
  param {
    lr_mult: 1
    decay_mult: 0
  }
  param {
    lr_mult: 2
    decay_mult: 0
  }
  scale_param {
    filler {
      value: 1
    }
    bias_term: true
    bias_filler {
      value: 0
    }
  }
}
layer {
  name: "conv_5project/sum"
  type: "Eltwise"
  bottom: "conv_4project"
  bottom: "conv_5/project"
  top: "conv_5project"
}
layer {
  name: "conv_6/expand"
  type: "Convolution"
  bottom: "conv_5project"
  top: "conv_6/expand"
  param {
    lr_mult: 1
    decay_mult: 1
  }
  convolution_param {
    num_output: 192
    bias_term: false
    kernel_size: 1
    weight_filler {
      type: "msra"
    }
  }
}
layer {
  name: "conv_6/expand/bn"
  type: "BatchNorm"
  bottom: "conv_6/expand"
  top: "conv_6/expand"
}
layer {
  name: "conv_6/expand/scale"
  type: "Scale"
  bottom: "conv_6/expand"
  top: "conv_6/expand"
  param {
    lr_mult: 1
    decay_mult: 0
  }
  param {
    lr_mult: 2
    decay_mult: 0
  }
  scale_param {
    filler {
      value: 1
    }
    bias_term: true
    bias_filler {
      value: 0
    }
  }
}
layer {
  name: "conv_6/expand/relu"
  type: "ReLU"
  bottom: "conv_6/expand"
  top: "conv_6/expand"
}
layer {
  name: "conv_6/depthwise"
  type: "Convolution"
  bottom: "conv_6/expand"
  top: "conv_6/depthwise"
  param {
    lr_mult: 1
    decay_mult: 1
  }
  convolution_param {
    num_output: 192
    bias_term: false
    pad: 1
    kernel_size: 3
    group: 192
    stride: 2
    weight_filler {
      type: "msra"
    }
    engine: CAFFE
  }
}
layer {
  name: "conv_6/depthwise/bn"
  type: "BatchNorm"
  bottom: "conv_6/depthwise"
  top: "conv_6/depthwise"
}
layer {
  name: "conv_6/depthwise/scale"
  type: "Scale"
  bottom: "conv_6/depthwise"
  top: "conv_6/depthwise"
  param {
    lr_mult: 1
    decay_mult: 0
  }
  param {
    lr_mult: 2
    decay_mult: 0
  }
  scale_param {
    filler {
      value: 1
    }
    bias_term: true
    bias_filler {
      value: 0
    }
  }
}
layer {
  name: "conv_6/depthwise/relu"
  type: "ReLU"
  bottom: "conv_6/depthwise"
  top: "conv_6/depthwise"
}
layer {
  name: "conv_6/project"
  type: "Convolution"
  bottom: "conv_6/depthwise"
  top: "conv_6/project"
  param {
    lr_mult: 1
    decay_mult: 1
  }
  convolution_param {
    num_output: 64
    bias_term: false
    kernel_size: 1
    weight_filler {
      type: "msra"
    }
  }
}
layer {
  name: "conv_6/project/bn"
  type: "BatchNorm"
  bottom: "conv_6/project"
  top: "conv_6/project"
}
layer {
  name: "conv_6/project/scale"
  type: "Scale"
  bottom: "conv_6/project"
  top: "conv_6/project"
  param {
    lr_mult: 1
    decay_mult: 0
  }
  param {
    lr_mult: 2
    decay_mult: 0
  }
  scale_param {
    filler {
      value: 1
    }
    bias_term: true
    bias_filler {
      value: 0
    }
  }
}
layer {
  name: "conv_7/expand"
  type: "Convolution"
  bottom: "conv_6/project"
  top: "conv_7/expand"
  param {
    lr_mult: 1
    decay_mult: 1
  }
  convolution_param {
    num_output: 384
    bias_term: false
    kernel_size: 1
    weight_filler {
      type: "msra"
    }
  }
}
layer {
  name: "conv_7/expand/bn"
  type: "BatchNorm"
  bottom: "conv_7/expand"
  top: "conv_7/expand"
}
layer {
  name: "conv_7/expand/scale"
  type: "Scale"
  bottom: "conv_7/expand"
  top: "conv_7/expand"
  param {
    lr_mult: 1
    decay_mult: 0
  }
  param {
    lr_mult: 2
    decay_mult: 0
  }
  scale_param {
    filler {
      value: 1
    }
    bias_term: true
    bias_filler {
      value: 0
    }
  }
}
layer {
  name: "conv_7/expand/relu"
  type: "ReLU"
  bottom: "conv_7/expand"
  top: "conv_7/expand"
}
layer {
  name: "conv_7/depthwise"
  type: "Convolution"
  bottom: "conv_7/expand"
  top: "conv_7/depthwise"
  param {
    lr_mult: 1
    decay_mult: 1
  }
  convolution_param {
    num_output: 384
    bias_term: false
    pad: 1
    kernel_size: 3
    group: 384
    weight_filler {
      type: "msra"
    }
    engine: CAFFE
  }
}
layer {
  name: "conv_7/depthwise/bn"
  type: "BatchNorm"
  bottom: "conv_7/depthwise"
  top: "conv_7/depthwise"
}
layer {
  name: "conv_7/depthwise/scale"
  type: "Scale"
  bottom: "conv_7/depthwise"
  top: "conv_7/depthwise"
  param {
    lr_mult: 1
    decay_mult: 0
  }
  param {
    lr_mult: 2
    decay_mult: 0
  }
  scale_param {
    filler {
      value: 1
    }
    bias_term: true
    bias_filler {
      value: 0
    }
  }
}
layer {
  name: "conv_7/depthwise/relu"
  type: "ReLU"
  bottom: "conv_7/depthwise"
  top: "conv_7/depthwise"
}
layer {
  name: "conv_7/project"
  type: "Convolution"
  bottom: "conv_7/depthwise"
  top: "conv_7/project"
  param {
    lr_mult: 1
    decay_mult: 1
  }
  convolution_param {
    num_output: 64
    bias_term: false
    kernel_size: 1
    weight_filler {
      type: "msra"
    }
  }
}
layer {
  name: "conv_7/project/bn"
  type: "BatchNorm"
  bottom: "conv_7/project"
  top: "conv_7/project"
}
layer {
  name: "conv_7/project/scale"
  type: "Scale"
  bottom: "conv_7/project"
  top: "conv_7/project"
  param {
    lr_mult: 1
    decay_mult: 0
  }
  param {
    lr_mult: 2
    decay_mult: 0
  }
  scale_param {
    filler {
      value: 1
    }
    bias_term: true
    bias_filler {
      value: 0
    }
  }
}
layer {
  name: "conv_7project/sum"
  type: "Eltwise"
  bottom: "conv_6/project"
  bottom: "conv_7/project"
  top: "conv_7project"
}
layer {
  name: "conv_8/expand"
  type: "Convolution"
  bottom: "conv_7project"
  top: "conv_8/expand"
  param {
    lr_mult: 1
    decay_mult: 1
  }
  convolution_param {
    num_output: 384
    bias_term: false
    kernel_size: 1
    weight_filler {
      type: "msra"
    }
  }
}
layer {
  name: "conv_8/expand/bn"
  type: "BatchNorm"
  bottom: "conv_8/expand"
  top: "conv_8/expand"
}
layer {
  name: "conv_8/expand/scale"
  type: "Scale"
  bottom: "conv_8/expand"
  top: "conv_8/expand"
  param {
    lr_mult: 1
    decay_mult: 0
  }
  param {
    lr_mult: 2
    decay_mult: 0
  }
  scale_param {
    filler {
      value: 1
    }
    bias_term: true
    bias_filler {
      value: 0
    }
  }
}
layer {
  name: "conv_8/expand/relu"
  type: "ReLU"
  bottom: "conv_8/expand"
  top: "conv_8/expand"
}
layer {
  name: "conv_8/depthwise"
  type: "Convolution"
  bottom: "conv_8/expand"
  top: "conv_8/depthwise"
  param {
    lr_mult: 1
    decay_mult: 1
  }
  convolution_param {
    num_output: 384
    bias_term: false
    pad: 1
    kernel_size: 3
    group: 384
    weight_filler {
      type: "msra"
    }
    engine: CAFFE
  }
}
layer {
  name: "conv_8/depthwise/bn"
  type: "BatchNorm"
  bottom: "conv_8/depthwise"
  top: "conv_8/depthwise"
}
layer {
  name: "conv_8/depthwise/scale"
  type: "Scale"
  bottom: "conv_8/depthwise"
  top: "conv_8/depthwise"
  param {
    lr_mult: 1
    decay_mult: 0
  }
  param {
    lr_mult: 2
    decay_mult: 0
  }
  scale_param {
    filler {
      value: 1
    }
    bias_term: true
    bias_filler {
      value: 0
    }
  }
}
layer {
  name: "conv_8/depthwise/relu"
  type: "ReLU"
  bottom: "conv_8/depthwise"
  top: "conv_8/depthwise"
}
layer {
  name: "conv_8/project"
  type: "Convolution"
  bottom: "conv_8/depthwise"
  top: "conv_8/project"
  param {
    lr_mult: 1
    decay_mult: 1
  }
  convolution_param {
    num_output: 64
    bias_term: false
    kernel_size: 1
    weight_filler {
      type: "msra"
    }
  }
}
layer {
  name: "conv_8/project/bn"
  type: "BatchNorm"
  bottom: "conv_8/project"
  top: "conv_8/project"
}
layer {
  name: "conv_8/project/scale"
  type: "Scale"
  bottom: "conv_8/project"
  top: "conv_8/project"
  param {
    lr_mult: 1
    decay_mult: 0
  }
  param {
    lr_mult: 2
    decay_mult: 0
  }
  scale_param {
    filler {
      value: 1
    }
    bias_term: true
    bias_filler {
      value: 0
    }
  }
}
layer {
  name: "conv_8project/sum"
  type: "Eltwise"
  bottom: "conv_7project"
  bottom: "conv_8/project"
  top: "conv_8project"
}
layer {
  name: "conv_9/expand"
  type: "Convolution"
  bottom: "conv_8project"
  top: "conv_9/expand"
  param {
    lr_mult: 1
    decay_mult: 1
  }
  convolution_param {
    num_output: 384
    bias_term: false
    kernel_size: 1
    weight_filler {
      type: "msra"
    }
  }
}
layer {
  name: "conv_9/expand/bn"
  type: "BatchNorm"
  bottom: "conv_9/expand"
  top: "conv_9/expand"
}
layer {
  name: "conv_9/expand/scale"
  type: "Scale"
  bottom: "conv_9/expand"
  top: "conv_9/expand"
  param {
    lr_mult: 1
    decay_mult: 0
  }
  param {
    lr_mult: 2
    decay_mult: 0
  }
  scale_param {
    filler {
      value: 1
    }
    bias_term: true
    bias_filler {
      value: 0
    }
  }
}
layer {
  name: "conv_9/expand/relu"
  type: "ReLU"
  bottom: "conv_9/expand"
  top: "conv_9/expand"
}
layer {
  name: "conv_9/depthwise"
  type: "Convolution"
  bottom: "conv_9/expand"
  top: "conv_9/depthwise"
  param {
    lr_mult: 1
    decay_mult: 1
  }
  convolution_param {
    num_output: 384
    bias_term: false
    pad: 1
    kernel_size: 3
    group: 384
    weight_filler {
      type: "msra"
    }
    engine: CAFFE
  }
}
layer {
  name: "conv_9/depthwise/bn"
  type: "BatchNorm"
  bottom: "conv_9/depthwise"
  top: "conv_9/depthwise"
}
layer {
  name: "conv_9/depthwise/scale"
  type: "Scale"
  bottom: "conv_9/depthwise"
  top: "conv_9/depthwise"
  param {
    lr_mult: 1
    decay_mult: 0
  }
  param {
    lr_mult: 2
    decay_mult: 0
  }
  scale_param {
    filler {
      value: 1
    }
    bias_term: true
    bias_filler {
      value: 0
    }
  }
}
layer {
  name: "conv_9/depthwise/relu"
  type: "ReLU"
  bottom: "conv_9/depthwise"
  top: "conv_9/depthwise"
}
layer {
  name: "conv_9/project"
  type: "Convolution"
  bottom: "conv_9/depthwise"
  top: "conv_9/project"
  param {
    lr_mult: 1
    decay_mult: 1
  }
  convolution_param {
    num_output: 64
    bias_term: false
    kernel_size: 1
    weight_filler {
      type: "msra"
    }
  }
}
layer {
  name: "conv_9/project/bn"
  type: "BatchNorm"
  bottom: "conv_9/project"
  top: "conv_9/project"
}
layer {
  name: "conv_9/project/scale"
  type: "Scale"
  bottom: "conv_9/project"
  top: "conv_9/project"
  param {
    lr_mult: 1
    decay_mult: 0
  }
  param {
    lr_mult: 2
    decay_mult: 0
  }
  scale_param {
    filler {
      value: 1
    }
    bias_term: true
    bias_filler {
      value: 0
    }
  }
}
layer {
  name: "conv_9project/sum"
  type: "Eltwise"
  bottom: "conv_8project"
  bottom: "conv_9/project"
  top: "conv_9project"
}
layer {
  name: "conv_10/expand"
  type: "Convolution"
  bottom: "conv_9project"
  top: "conv_10/expand"
  param {
    lr_mult: 1
    decay_mult: 1
  }
  convolution_param {
    num_output: 384
    bias_term: false
    kernel_size: 1
    weight_filler {
      type: "msra"
    }
  }
}
layer {
  name: "conv_10/expand/bn"
  type: "BatchNorm"
  bottom: "conv_10/expand"
  top: "conv_10/expand"
}
layer {
  name: "conv_10/expand/scale"
  type: "Scale"
  bottom: "conv_10/expand"
  top: "conv_10/expand"
  param {
    lr_mult: 1
    decay_mult: 0
  }
  param {
    lr_mult: 2
    decay_mult: 0
  }
  scale_param {
    filler {
      value: 1
    }
    bias_term: true
    bias_filler {
      value: 0
    }
  }
}
layer {
  name: "conv_10/expand/relu"
  type: "ReLU"
  bottom: "conv_10/expand"
  top: "conv_10/expand"
}
layer {
  name: "conv_10/depthwise"
  type: "Convolution"
  bottom: "conv_10/expand"
  top: "conv_10/depthwise"
  param {
    lr_mult: 1
    decay_mult: 1
  }
  convolution_param {
    num_output: 384
    bias_term: false
    pad: 1
    kernel_size: 3
    group: 384
    weight_filler {
      type: "msra"
    }
    engine: CAFFE
  }
}
layer {
  name: "conv_10/depthwise/bn"
  type: "BatchNorm"
  bottom: "conv_10/depthwise"
  top: "conv_10/depthwise"
}
layer {
  name: "conv_10/depthwise/scale"
  type: "Scale"
  bottom: "conv_10/depthwise"
  top: "conv_10/depthwise"
  param {
    lr_mult: 1
    decay_mult: 0
  }
  param {
    lr_mult: 2
    decay_mult: 0
  }
  scale_param {
    filler {
      value: 1
    }
    bias_term: true
    bias_filler {
      value: 0
    }
  }
}
layer {
  name: "conv_10/depthwise/relu"
  type: "ReLU"
  bottom: "conv_10/depthwise"
  top: "conv_10/depthwise"
}
layer {
  name: "conv_10/project"
  type: "Convolution"
  bottom: "conv_10/depthwise"
  top: "conv_10/project"
  param {
    lr_mult: 1
    decay_mult: 1
  }
  convolution_param {
    num_output: 96
    bias_term: false
    kernel_size: 1
    weight_filler {
      type: "msra"
    }
  }
}
layer {
  name: "conv_10/project/bn"
  type: "BatchNorm"
  bottom: "conv_10/project"
  top: "conv_10/project"
}
layer {
  name: "conv_10/project/scale"
  type: "Scale"
  bottom: "conv_10/project"
  top: "conv_10/project"
  param {
    lr_mult: 1
    decay_mult: 0
  }
  param {
    lr_mult: 2
    decay_mult: 0
  }
  scale_param {
    filler {
      value: 1
    }
    bias_term: true
    bias_filler {
      value: 0
    }
  }
}
layer {
  name: "conv_11/expand"
  type: "Convolution"
  bottom: "conv_10/project"
  top:
I0421 21:58:06.505836  5043 layer_factory.hpp:77] Creating layer data
I0421 21:58:06.505972  5043 net.cpp:100] Creating Layer data
I0421 21:58:06.505985  5043 net.cpp:408] data -> data
I0421 21:58:06.506016  5043 net.cpp:408] data -> label
I0421 21:58:06.506744  5055 db_lmdb.cpp:35] Opened lmdb trainval_lmdb
I0421 21:58:06.518733  5043 annotated_data_layer.cpp:62] output data size: 2,3,300,300
I0421 21:58:06.522892  5043 net.cpp:150] Setting up data
I0421 21:58:06.522925  5043 net.cpp:157] Top shape: 2 3 300 300 (540000)
I0421 21:58:06.522935  5043 net.cpp:157] Top shape: 1 1 1 8 (8)
I0421 21:58:06.522951  5043 net.cpp:165] Memory required for data: 2160032
I0421 21:58:06.522965  5043 layer_factory.hpp:77] Creating layer data_data_0_split
I0421 21:58:06.522982  5043 net.cpp:100] Creating Layer data_data_0_split
I0421 21:58:06.522992  5043 net.cpp:434] data_data_0_split <- data
I0421 21:58:06.523011  5043 net.cpp:408] data_data_0_split -> data_data_0_split_0
I0421 21:58:06.523036  5043 net.cpp:408] data_data_0_split -> data_data_0_split_1
I0421 21:58:06.523056  5043 net.cpp:408] data_data_0_split -> data_data_0_split_2
I0421 21:58:06.523087  5043 net.cpp:408] data_data_0_split -> data_data_0_split_3
I0421 21:58:06.523097  5043 net.cpp:408] data_data_0_split -> data_data_0_split_4
I0421 21:58:06.523106  5043 net.cpp:408] data_data_0_split -> data_data_0_split_5
I0421 21:58:06.523114  5043 net.cpp:408] data_data_0_split -> data_data_0_split_6
I0421 21:58:06.523203  5043 net.cpp:150] Setting up data_data_0_split
I0421 21:58:06.523214  5043 net.cpp:157] Top shape: 2 3 300 300 (540000)
I0421 21:58:06.523233  5043 net.cpp:157] Top shape: 2 3 300 300 (540000)
I0421 21:58:06.523264  5043 net.cpp:157] Top shape: 2 3 300 300 (540000)
I0421 21:58:06.523272  5043 net.cpp:157] Top shape: 2 3 300 300 (540000)
I0421 21:58:06.523278  5043 net.cpp:157] Top shape: 2 3 300 300 (540000)
I0421 21:58:06.523284  5043 net.cpp:157] Top shape: 2 3 300 300 (540000)
I0421 21:58:06.523293  5043 net.cpp:157] Top shape: 2 3 300 300 (540000)
I0421 21:58:06.523298  5043 net.cpp:165] Memory required for data: 17280032
I0421 21:58:06.523303  5043 layer_factory.hpp:77] Creating layer Conv
I0421 21:58:06.523322  5043 net.cpp:100] Creating Layer Conv
I0421 21:58:06.523330  5043 net.cpp:434] Conv <- data_data_0_split_0
I0421 21:58:06.523339  5043 net.cpp:408] Conv -> Conv
I0421 21:58:06.825713  5043 net.cpp:150] Setting up Conv
I0421 21:58:06.825750  5043 net.cpp:157] Top shape: 2 32 150 150 (1440000)
I0421 21:58:06.825755  5043 net.cpp:165] Memory required for data: 23040032
I0421 21:58:06.825780  5043 layer_factory.hpp:77] Creating layer Conv/bn
I0421 21:58:06.825791  5043 net.cpp:100] Creating Layer Conv/bn
I0421 21:58:06.825796  5043 net.cpp:434] Conv/bn <- Conv
I0421 21:58:06.825803  5043 net.cpp:395] Conv/bn -> Conv (in-place)
I0421 21:58:06.826449  5043 net.cpp:150] Setting up Conv/bn
I0421 21:58:06.826472  5043 net.cpp:157] Top shape: 2 32 150 150 (1440000)
I0421 21:58:06.826474  5043 net.cpp:165] Memory required for data: 28800032
I0421 21:58:06.826496  5043 layer_factory.hpp:77] Creating layer Conv/scale
I0421 21:58:06.826508  5043 net.cpp:100] Creating Layer Conv/scale
I0421 21:58:06.826512  5043 net.cpp:434] Conv/scale <- Conv
I0421 21:58:06.826517  5043 net.cpp:395] Conv/scale -> Conv (in-place)
I0421 21:58:06.826575  5043 layer_factory.hpp:77] Creating layer Conv/scale
I0421 21:58:06.826735  5043 net.cpp:150] Setting up Conv/scale
I0421 21:58:06.826742  5043 net.cpp:157] Top shape: 2 32 150 150 (1440000)
I0421 21:58:06.826756  5043 net.cpp:165] Memory required for data: 34560032
I0421 21:58:06.826761  5043 layer_factory.hpp:77] Creating layer Conv/relu
I0421 21:58:06.826778  5043 net.cpp:100] Creating Layer Conv/relu
I0421 21:58:06.826783  5043 net.cpp:434] Conv/relu <- Conv
I0421 21:58:06.826786  5043 net.cpp:395] Conv/relu -> Conv (in-place)
I0421 21:58:06.827143  5043 net.cpp:150] Setting up Conv/relu
I0421 21:58:06.827153  5043 net.cpp:157] Top shape: 2 32 150 150 (1440000)
I0421 21:58:06.827167  5043 net.cpp:165] Memory required for data: 40320032
I0421 21:58:06.827172  5043 layer_factory.hpp:77] Creating layer conv/depthwise
I0421 21:58:06.827190  5043 net.cpp:100] Creating Layer conv/depthwise
I0421 21:58:06.827195  5043 net.cpp:434] conv/depthwise <- Conv
I0421 21:58:06.827203  5043 net.cpp:408] conv/depthwise -> conv/depthwise
I0421 21:58:06.827370  5043 net.cpp:150] Setting up conv/depthwise
I0421 21:58:06.827378  5043 net.cpp:157] Top shape: 2 32 150 150 (1440000)
I0421 21:58:06.827395  5043 net.cpp:165] Memory required for data: 46080032
I0421 21:58:06.827401  5043 layer_factory.hpp:77] Creating layer conv/depthwise/bn
I0421 21:58:06.827407  5043 net.cpp:100] Creating Layer conv/depthwise/bn
I0421 21:58:06.827411  5043 net.cpp:434] conv/depthwise/bn <- conv/depthwise
I0421 21:58:06.827416  5043 net.cpp:395] conv/depthwise/bn -> conv/depthwise (in-place)
I0421 21:58:06.827575  5043 net.cpp:150] Setting up conv/depthwise/bn
I0421 21:58:06.827581  5043 net.cpp:157] Top shape: 2 32 150 150 (1440000)
I0421 21:58:06.827595  5043 net.cpp:165] Memory required for data: 51840032
I0421 21:58:06.827603  5043 layer_factory.hpp:77] Creating layer conv/depthwise/scale
I0421 21:58:06.827610  5043 net.cpp:100] Creating Layer conv/depthwise/scale
I0421 21:58:06.827615  5043 net.cpp:434] conv/depthwise/scale <- conv/depthwise
I0421 21:58:06.827625  5043 net.cpp:395] conv/depthwise/scale -> conv/depthwise (in-place)
I0421 21:58:06.827653  5043 layer_factory.hpp:77] Creating layer conv/depthwise/scale
I0421 21:58:06.827795  5043 net.cpp:150] Setting up conv/depthwise/scale
I0421 21:58:06.827802  5043 net.cpp:157] Top shape: 2 32 150 150 (1440000)
I0421 21:58:06.827836  5043 net.cpp:165] Memory required for data: 57600032
I0421 21:58:06.827842  5043 layer_factory.hpp:77] Creating layer conv/depthwise/relu
I0421 21:58:06.827847  5043 net.cpp:100] Creating Layer conv/depthwise/relu
I0421 21:58:06.827852  5043 net.cpp:434] conv/depthwise/relu <- conv/depthwise
I0421 21:58:06.827855  5043 net.cpp:395] conv/depthwise/relu -> conv/depthwise (in-place)
I0421 21:58:06.827989  5043 net.cpp:150] Setting up conv/depthwise/relu
I0421 21:58:06.827997  5043 net.cpp:157] Top shape: 2 32 150 150 (1440000)
I0421 21:58:06.828011  5043 net.cpp:165] Memory required for data: 63360032
I0421 21:58:06.828014  5043 layer_factory.hpp:77] Creating layer conv/project
I0421 21:58:06.828021  5043 net.cpp:100] Creating Layer conv/project
I0421 21:58:06.828024  5043 net.cpp:434] conv/project <- conv/depthwise
I0421 21:58:06.828028  5043 net.cpp:408] conv/project -> conv/project
I0421 21:58:06.828981  5043 net.cpp:150] Setting up conv/project
I0421 21:58:06.828994  5043 net.cpp:157] Top shape: 2 16 150 150 (720000)
I0421 21:58:06.828997  5043 net.cpp:165] Memory required for data: 66240032
I0421 21:58:06.829002  5043 layer_factory.hpp:77] Creating layer conv/project/bn
I0421 21:58:06.829010  5043 net.cpp:100] Creating Layer conv/project/bn
I0421 21:58:06.829013  5043 net.cpp:434] conv/project/bn <- conv/project
I0421 21:58:06.829018  5043 net.cpp:395] conv/project/bn -> conv/project (in-place)
I0421 21:58:06.829193  5043 net.cpp:150] Setting up conv/project/bn
I0421 21:58:06.829201  5043 net.cpp:157] Top shape: 2 16 150 150 (720000)
I0421 21:58:06.829205  5043 net.cpp:165] Memory required for data: 69120032
I0421 21:58:06.829211  5043 layer_factory.hpp:77] Creating layer conv/project/scale
I0421 21:58:06.829217  5043 net.cpp:100] Creating Layer conv/project/scale
I0421 21:58:06.829221  5043 net.cpp:434] conv/project/scale <- conv/project
I0421 21:58:06.829226  5043 net.cpp:395] conv/project/scale -> conv/project (in-place)
I0421 21:58:06.829260  5043 layer_factory.hpp:77] Creating layer conv/project/scale
I0421 21:58:06.829377  5043 net.cpp:150] Setting up conv/project/scale
I0421 21:58:06.829385  5043 net.cpp:157] Top shape: 2 16 150 150 (720000)
I0421 21:58:06.829387  5043 net.cpp:165] Memory required for data: 72000032
I0421 21:58:06.829394  5043 layer_factory.hpp:77] Creating layer conv_1/expand
I0421 21:58:06.829406  5043 net.cpp:100] Creating Layer conv_1/expand
I0421 21:58:06.829411  5043 net.cpp:434] conv_1/expand <- conv/project
I0421 21:58:06.829416  5043 net.cpp:408] conv_1/expand -> conv_1/expand
I0421 21:58:06.830857  5043 net.cpp:150] Setting up conv_1/expand
I0421 21:58:06.830869  5043 net.cpp:157] Top shape: 2 96 150 150 (4320000)
I0421 21:58:06.830874  5043 net.cpp:165] Memory required for data: 89280032
I0421 21:58:06.830879  5043 layer_factory.hpp:77] Creating layer conv_1/expand/bn
I0421 21:58:06.830886  5043 net.cpp:100] Creating Layer conv_1/expand/bn
I0421 21:58:06.830890  5043 net.cpp:434] conv_1/expand/bn <- conv_1/expand
I0421 21:58:06.830896  5043 net.cpp:395] conv_1/expand/bn -> conv_1/expand (in-place)
I0421 21:58:06.831060  5043 net.cpp:150] Setting up conv_1/expand/bn
I0421 21:58:06.831068  5043 net.cpp:157] Top shape: 2 96 150 150 (4320000)
I0421 21:58:06.831070  5043 net.cpp:165] Memory required for data: 106560032
I0421 21:58:06.831077  5043 layer_factory.hpp:77] Creating layer conv_1/expand/scale
I0421 21:58:06.831084  5043 net.cpp:100] Creating Layer conv_1/expand/scale
I0421 21:58:06.831087  5043 net.cpp:434] conv_1/expand/scale <- conv_1/expand
I0421 21:58:06.831092  5043 net.cpp:395] conv_1/expand/scale -> conv_1/expand (in-place)
I0421 21:58:06.831120  5043 layer_factory.hpp:77] Creating layer conv_1/expand/scale
I0421 21:58:06.831687  5043 net.cpp:150] Setting up conv_1/expand/scale
I0421 21:58:06.831698  5043 net.cpp:157] Top shape: 2 96 150 150 (4320000)
I0421 21:58:06.831702  5043 net.cpp:165] Memory required for data: 123840032
I0421 21:58:06.831708  5043 layer_factory.hpp:77] Creating layer conv_1/expand/relu
I0421 21:58:06.831717  5043 net.cpp:100] Creating Layer conv_1/expand/relu
I0421 21:58:06.831733  5043 net.cpp:434] conv_1/expand/relu <- conv_1/expand
I0421 21:58:06.831739  5043 net.cpp:395] conv_1/expand/relu -> conv_1/expand (in-place)
I0421 21:58:06.832083  5043 net.cpp:150] Setting up conv_1/expand/relu
I0421 21:58:06.832095  5043 net.cpp:157] Top shape: 2 96 150 150 (4320000)
I0421 21:58:06.832099  5043 net.cpp:165] Memory required for data: 141120032
I0421 21:58:06.832103  5043 layer_factory.hpp:77] Creating layer conv_1/depthwise
I0421 21:58:06.832111  5043 net.cpp:100] Creating Layer conv_1/depthwise
I0421 21:58:06.832115  5043 net.cpp:434] conv_1/depthwise <- conv_1/expand
I0421 21:58:06.832121  5043 net.cpp:408] conv_1/depthwise -> conv_1/depthwise
I0421 21:58:06.832281  5043 net.cpp:150] Setting up conv_1/depthwise
I0421 21:58:06.832288  5043 net.cpp:157] Top shape: 2 96 75 75 (1080000)
I0421 21:58:06.832293  5043 net.cpp:165] Memory required for data: 145440032
I0421 21:58:06.832298  5043 layer_factory.hpp:77] Creating layer conv_1/depthwise/bn
I0421 21:58:06.832303  5043 net.cpp:100] Creating Layer conv_1/depthwise/bn
I0421 21:58:06.832307  5043 net.cpp:434] conv_1/depthwise/bn <- conv_1/depthwise
I0421 21:58:06.832311  5043 net.cpp:395] conv_1/depthwise/bn -> conv_1/depthwise (in-place)
I0421 21:58:06.832924  5043 net.cpp:150] Setting up conv_1/depthwise/bn
I0421 21:58:06.832936  5043 net.cpp:157] Top shape: 2 96 75 75 (1080000)
I0421 21:58:06.832949  5043 net.cpp:165] Memory required for data: 149760032
I0421 21:58:06.832957  5043 layer_factory.hpp:77] Creating layer conv_1/depthwise/scale
I0421 21:58:06.832964  5043 net.cpp:100] Creating Layer conv_1/depthwise/scale
I0421 21:58:06.832967  5043 net.cpp:434] conv_1/depthwise/scale <- conv_1/depthwise
I0421 21:58:06.832973  5043 net.cpp:395] conv_1/depthwise/scale -> conv_1/depthwise (in-place)
I0421 21:58:06.833004  5043 layer_factory.hpp:77] Creating layer conv_1/depthwise/scale
I0421 21:58:06.833112  5043 net.cpp:150] Setting up conv_1/depthwise/scale
I0421 21:58:06.833118  5043 net.cpp:157] Top shape: 2 96 75 75 (1080000)
I0421 21:58:06.833132  5043 net.cpp:165] Memory required for data: 154080032
I0421 21:58:06.833137  5043 layer_factory.hpp:77] Creating layer conv_1/depthwise/relu
I0421 21:58:06.833142  5043 net.cpp:100] Creating Layer conv_1/depthwise/relu
I0421 21:58:06.833145  5043 net.cpp:434] conv_1/depthwise/relu <- conv_1/depthwise
I0421 21:58:06.833149  5043 net.cpp:395] conv_1/depthwise/relu -> conv_1/depthwise (in-place)
I0421 21:58:06.833286  5043 net.cpp:150] Setting up conv_1/depthwise/relu
I0421 21:58:06.833293  5043 net.cpp:157] Top shape: 2 96 75 75 (1080000)
I0421 21:58:06.833297  5043 net.cpp:165] Memory required for data: 158400032
I0421 21:58:06.833302  5043 layer_factory.hpp:77] Creating layer conv_1/project
I0421 21:58:06.833315  5043 net.cpp:100] Creating Layer conv_1/project
I0421 21:58:06.833320  5043 net.cpp:434] conv_1/project <- conv_1/depthwise
I0421 21:58:06.833325  5043 net.cpp:408] conv_1/project -> conv_1/project
I0421 21:58:06.834506  5043 net.cpp:150] Setting up conv_1/project
I0421 21:58:06.834517  5043 net.cpp:157] Top shape: 2 24 75 75 (270000)
I0421 21:58:06.834522  5043 net.cpp:165] Memory required for data: 159480032
I0421 21:58:06.834527  5043 layer_factory.hpp:77] Creating layer conv_1/project/bn
I0421 21:58:06.834533  5043 net.cpp:100] Creating Layer conv_1/project/bn
I0421 21:58:06.834538  5043 net.cpp:434] conv_1/project/bn <- conv_1/project
I0421 21:58:06.834542  5043 net.cpp:395] conv_1/project/bn -> conv_1/project (in-place)
I0421 21:58:06.834724  5043 net.cpp:150] Setting up conv_1/project/bn
I0421 21:58:06.834731  5043 net.cpp:157] Top shape: 2 24 75 75 (270000)
I0421 21:58:06.834734  5043 net.cpp:165] Memory required for data: 160560032
I0421 21:58:06.834744  5043 layer_factory.hpp:77] Creating layer conv_1/project/scale
I0421 21:58:06.834751  5043 net.cpp:100] Creating Layer conv_1/project/scale
I0421 21:58:06.834755  5043 net.cpp:434] conv_1/project/scale <- conv_1/project
I0421 21:58:06.834760  5043 net.cpp:395] conv_1/project/scale -> conv_1/project (in-place)
I0421 21:58:06.834811  5043 layer_factory.hpp:77] Creating layer conv_1/project/scale
I0421 21:58:06.834905  5043 net.cpp:150] Setting up conv_1/project/scale
I0421 21:58:06.834913  5043 net.cpp:157] Top shape: 2 24 75 75 (270000)
I0421 21:58:06.834916  5043 net.cpp:165] Memory required for data: 161640032
I0421 21:58:06.834923  5043 layer_factory.hpp:77] Creating layer conv_1/project_conv_1/project/scale_0_split
I0421 21:58:06.834928  5043 net.cpp:100] Creating Layer conv_1/project_conv_1/project/scale_0_split
I0421 21:58:06.834933  5043 net.cpp:434] conv_1/project_conv_1/project/scale_0_split <- conv_1/project
I0421 21:58:06.834938  5043 net.cpp:408] conv_1/project_conv_1/project/scale_0_split -> conv_1/project_conv_1/project/scale_0_split_0
I0421 21:58:06.834944  5043 net.cpp:408] conv_1/project_conv_1/project/scale_0_split -> conv_1/project_conv_1/project/scale_0_split_1
I0421 21:58:06.834972  5043 net.cpp:150] Setting up conv_1/project_conv_1/project/scale_0_split
I0421 21:58:06.834977  5043 net.cpp:157] Top shape: 2 24 75 75 (270000)
I0421 21:58:06.834982  5043 net.cpp:157] Top shape: 2 24 75 75 (270000)
I0421 21:58:06.834985  5043 net.cpp:165] Memory required for data: 163800032
I0421 21:58:06.834990  5043 layer_factory.hpp:77] Creating layer conv_2/expand
I0421 21:58:06.834996  5043 net.cpp:100] Creating Layer conv_2/expand
I0421 21:58:06.835000  5043 net.cpp:434] conv_2/expand <- conv_1/project_conv_1/project/scale_0_split_0
I0421 21:58:06.835005  5043 net.cpp:408] conv_2/expand -> conv_2/expand
I0421 21:58:06.836024  5043 net.cpp:150] Setting up conv_2/expand
I0421 21:58:06.836036  5043 net.cpp:157] Top shape: 2 144 75 75 (1620000)
I0421 21:58:06.836040  5043 net.cpp:165] Memory required for data: 170280032
I0421 21:58:06.836046  5043 layer_factory.hpp:77] Creating layer conv_2/expand/bn
I0421 21:58:06.836052  5043 net.cpp:100] Creating Layer conv_2/expand/bn
I0421 21:58:06.836057  5043 net.cpp:434] conv_2/expand/bn <- conv_2/expand
I0421 21:58:06.836062  5043 net.cpp:395] conv_2/expand/bn -> conv_2/expand (in-place)
I0421 21:58:06.836220  5043 net.cpp:150] Setting up conv_2/expand/bn
I0421 21:58:06.836226  5043 net.cpp:157] Top shape: 2 144 75 75 (1620000)
I0421 21:58:06.836230  5043 net.cpp:165] Memory required for data: 176760032
I0421 21:58:06.836236  5043 layer_factory.hpp:77] Creating layer conv_2/expand/scale
I0421 21:58:06.836242  5043 net.cpp:100] Creating Layer conv_2/expand/scale
I0421 21:58:06.836246  5043 net.cpp:434] conv_2/expand/scale <- conv_2/expand
I0421 21:58:06.836251  5043 net.cpp:395] conv_2/expand/scale -> conv_2/expand (in-place)
I0421 21:58:06.836279  5043 layer_factory.hpp:77] Creating layer conv_2/expand/scale
I0421 21:58:06.836374  5043 net.cpp:150] Setting up conv_2/expand/scale
I0421 21:58:06.836380  5043 net.cpp:157] Top shape: 2 144 75 75 (1620000)
I0421 21:58:06.836385  5043 net.cpp:165] Memory required for data: 183240032
I0421 21:58:06.836390  5043 layer_factory.hpp:77] Creating layer conv_2/expand/relu
I0421 21:58:06.836395  5043 net.cpp:100] Creating Layer conv_2/expand/relu
I0421 21:58:06.836400  5043 net.cpp:434] conv_2/expand/relu <- conv_2/expand
I0421 21:58:06.836403  5043 net.cpp:395] conv_2/expand/relu -> conv_2/expand (in-place)
I0421 21:58:06.836783  5043 net.cpp:150] Setting up conv_2/expand/relu
I0421 21:58:06.836794  5043 net.cpp:157] Top shape: 2 144 75 75 (1620000)
I0421 21:58:06.836798  5043 net.cpp:165] Memory required for data: 189720032
I0421 21:58:06.836802  5043 layer_factory.hpp:77] Creating layer conv_2/depthwise
I0421 21:58:06.836810  5043 net.cpp:100] Creating Layer conv_2/depthwise
I0421 21:58:06.836814  5043 net.cpp:434] conv_2/depthwise <- conv_2/expand
I0421 21:58:06.836819  5043 net.cpp:408] conv_2/depthwise -> conv_2/depthwise
I0421 21:58:06.836978  5043 net.cpp:150] Setting up conv_2/depthwise
I0421 21:58:06.836985  5043 net.cpp:157] Top shape: 2 144 75 75 (1620000)
I0421 21:58:06.836988  5043 net.cpp:165] Memory required for data: 196200032
I0421 21:58:06.836994  5043 layer_factory.hpp:77] Creating layer conv_2/depthwise/bn
I0421 21:58:06.837008  5043 net.cpp:100] Creating Layer conv_2/depthwise/bn
I0421 21:58:06.837013  5043 net.cpp:434] conv_2/depthwise/bn <- conv_2/depthwise
I0421 21:58:06.837018  5043 net.cpp:395] conv_2/depthwise/bn -> conv_2/depthwise (in-place)
I0421 21:58:06.837172  5043 net.cpp:150] Setting up conv_2/depthwise/bn
I0421 21:58:06.837179  5043 net.cpp:157] Top shape: 2 144 75 75 (1620000)
I0421 21:58:06.837182  5043 net.cpp:165] Memory required for data: 202680032
I0421 21:58:06.837189  5043 layer_factory.hpp:77] Creating layer conv_2/depthwise/scale
I0421 21:58:06.837195  5043 net.cpp:100] Creating Layer conv_2/depthwise/scale
I0421 21:58:06.837199  5043 net.cpp:434] conv_2/depthwise/scale <- conv_2/depthwise
I0421 21:58:06.837204  5043 net.cpp:395] conv_2/depthwise/scale -> conv_2/depthwise (in-place)
I0421 21:58:06.837231  5043 layer_factory.hpp:77] Creating layer conv_2/depthwise/scale
I0421 21:58:06.837317  5043 net.cpp:150] Setting up conv_2/depthwise/scale
I0421 21:58:06.837323  5043 net.cpp:157] Top shape: 2 144 75 75 (1620000)
I0421 21:58:06.837327  5043 net.cpp:165] Memory required for data: 209160032
I0421 21:58:06.837332  5043 layer_factory.hpp:77] Creating layer conv_2/depthwise/relu
I0421 21:58:06.837340  5043 net.cpp:100] Creating Layer conv_2/depthwise/relu
I0421 21:58:06.837344  5043 net.cpp:434] conv_2/depthwise/relu <- conv_2/depthwise
I0421 21:58:06.837349  5043 net.cpp:395] conv_2/depthwise/relu -> conv_2/depthwise (in-place)
I0421 21:58:06.837710  5043 net.cpp:150] Setting up conv_2/depthwise/relu
I0421 21:58:06.837721  5043 net.cpp:157] Top shape: 2 144 75 75 (1620000)
I0421 21:58:06.837725  5043 net.cpp:165] Memory required for data: 215640032
I0421 21:58:06.837729  5043 layer_factory.hpp:77] Creating layer conv_2/project
I0421 21:58:06.837738  5043 net.cpp:100] Creating Layer conv_2/project
I0421 21:58:06.837741  5043 net.cpp:434] conv_2/project <- conv_2/depthwise
I0421 21:58:06.837747  5043 net.cpp:408] conv_2/project -> conv_2/project
I0421 21:58:06.838762  5043 net.cpp:150] Setting up conv_2/project
I0421 21:58:06.838773  5043 net.cpp:157] Top shape: 2 24 75 75 (270000)
I0421 21:58:06.838778  5043 net.cpp:165] Memory required for data: 216720032
I0421 21:58:06.838783  5043 layer_factory.hpp:77] Creating layer conv_2/project/bn
I0421 21:58:06.838789  5043 net.cpp:100] Creating Layer conv_2/project/bn
I0421 21:58:06.838794  5043 net.cpp:434] conv_2/project/bn <- conv_2/project
I0421 21:58:06.838799  5043 net.cpp:395] conv_2/project/bn -> conv_2/project (in-place)
I0421 21:58:06.838980  5043 net.cpp:150] Setting up conv_2/project/bn
I0421 21:58:06.838986  5043 net.cpp:157] Top shape: 2 24 75 75 (270000)
I0421 21:58:06.838990  5043 net.cpp:165] Memory required for data: 217800032
I0421 21:58:06.838997  5043 layer_factory.hpp:77] Creating layer conv_2/project/scale
I0421 21:58:06.839004  5043 net.cpp:100] Creating Layer conv_2/project/scale
I0421 21:58:06.839007  5043 net.cpp:434] conv_2/project/scale <- conv_2/project
I0421 21:58:06.839012  5043 net.cpp:395] conv_2/project/scale -> conv_2/project (in-place)
I0421 21:58:06.839041  5043 layer_factory.hpp:77] Creating layer conv_2/project/scale
I0421 21:58:06.839140  5043 net.cpp:150] Setting up conv_2/project/scale
I0421 21:58:06.839148  5043 net.cpp:157] Top shape: 2 24 75 75 (270000)
I0421 21:58:06.839150  5043 net.cpp:165] Memory required for data: 218880032
I0421 21:58:06.839156  5043 layer_factory.hpp:77] Creating layer conv_2project/sum
I0421 21:58:06.839161  5043 net.cpp:100] Creating Layer conv_2project/sum
I0421 21:58:06.839166  5043 net.cpp:434] conv_2project/sum <- conv_1/project_conv_1/project/scale_0_split_1
I0421 21:58:06.839170  5043 net.cpp:434] conv_2project/sum <- conv_2/project
I0421 21:58:06.839175  5043 net.cpp:408] conv_2project/sum -> conv_2project
I0421 21:58:06.839196  5043 net.cpp:150] Setting up conv_2project/sum
I0421 21:58:06.839201  5043 net.cpp:157] Top shape: 2 24 75 75 (270000)
I0421 21:58:06.839205  5043 net.cpp:165] Memory required for data: 219960032
I0421 21:58:06.839210  5043 layer_factory.hpp:77] Creating layer conv_3/expand
I0421 21:58:06.839228  5043 net.cpp:100] Creating Layer conv_3/expand
I0421 21:58:06.839233  5043 net.cpp:434] conv_3/expand <- conv_2project
I0421 21:58:06.839238  5043 net.cpp:408] conv_3/expand -> conv_3/expand
I0421 21:58:06.840270  5043 net.cpp:150] Setting up conv_3/expand
I0421 21:58:06.840284  5043 net.cpp:157] Top shape: 2 144 75 75 (1620000)
I0421 21:58:06.840301  5043 net.cpp:165] Memory required for data: 226440032
I0421 21:58:06.840307  5043 layer_factory.hpp:77] Creating layer conv_3/expand/bn
I0421 21:58:06.840314  5043 net.cpp:100] Creating Layer conv_3/expand/bn
I0421 21:58:06.840319  5043 net.cpp:434] conv_3/expand/bn <- conv_3/expand
I0421 21:58:06.840324  5043 net.cpp:395] conv_3/expand/bn -> conv_3/expand (in-place)
I0421 21:58:06.840492  5043 net.cpp:150] Setting up conv_3/expand/bn
I0421 21:58:06.840497  5043 net.cpp:157] Top shape: 2 144 75 75 (1620000)
I0421 21:58:06.840513  5043 net.cpp:165] Memory required for data: 232920032
I0421 21:58:06.840520  5043 layer_factory.hpp:77] Creating layer conv_3/expand/scale
I0421 21:58:06.840526  5043 net.cpp:100] Creating Layer conv_3/expand/scale
I0421 21:58:06.840530  5043 net.cpp:434] conv_3/expand/scale <- conv_3/expand
I0421 21:58:06.840539  5043 net.cpp:395] conv_3/expand/scale -> conv_3/expand (in-place)
I0421 21:58:06.840569  5043 layer_factory.hpp:77] Creating layer conv_3/expand/scale
I0421 21:58:06.840710  5043 net.cpp:150] Setting up conv_3/expand/scale
I0421 21:58:06.840718  5043 net.cpp:157] Top shape: 2 144 75 75 (1620000)
I0421 21:58:06.840720  5043 net.cpp:165] Memory required for data: 239400032
I0421 21:58:06.840739  5043 layer_factory.hpp:77] Creating layer conv_3/expand/relu
I0421 21:58:06.840744  5043 net.cpp:100] Creating Layer conv_3/expand/relu
I0421 21:58:06.840749  5043 net.cpp:434] conv_3/expand/relu <- conv_3/expand
I0421 21:58:06.840754  5043 net.cpp:395] conv_3/expand/relu -> conv_3/expand (in-place)
I0421 21:58:06.840893  5043 net.cpp:150] Setting up conv_3/expand/relu
I0421 21:58:06.840903  5043 net.cpp:157] Top shape: 2 144 75 75 (1620000)
I0421 21:58:06.840905  5043 net.cpp:165] Memory required for data: 245880032
I0421 21:58:06.840909  5043 layer_factory.hpp:77] Creating layer conv_3/depthwise
I0421 21:58:06.840917  5043 net.cpp:100] Creating Layer conv_3/depthwise
I0421 21:58:06.840921  5043 net.cpp:434] conv_3/depthwise <- conv_3/expand
I0421 21:58:06.840926  5043 net.cpp:408] conv_3/depthwise -> conv_3/depthwise
I0421 21:58:06.841097  5043 net.cpp:150] Setting up conv_3/depthwise
I0421 21:58:06.841104  5043 net.cpp:157] Top shape: 2 144 38 38 (415872)
I0421 21:58:06.841120  5043 net.cpp:165] Memory required for data: 247543520
I0421 21:58:06.841125  5043 layer_factory.hpp:77] Creating layer conv_3/depthwise/bn
I0421 21:58:06.841135  5043 net.cpp:100] Creating Layer conv_3/depthwise/bn
I0421 21:58:06.841140  5043 net.cpp:434] conv_3/depthwise/bn <- conv_3/depthwise
I0421 21:58:06.841145  5043 net.cpp:395] conv_3/depthwise/bn -> conv_3/depthwise (in-place)
I0421 21:58:06.841300  5043 net.cpp:150] Setting up conv_3/depthwise/bn
I0421 21:58:06.841306  5043 net.cpp:157] Top shape: 2 144 38 38 (415872)
I0421 21:58:06.841321  5043 net.cpp:165] Memory required for data: 249207008
I0421 21:58:06.841327  5043 layer_factory.hpp:77] Creating layer conv_3/depthwise/scale
I0421 21:58:06.841333  5043 net.cpp:100] Creating Layer conv_3/depthwise/scale
I0421 21:58:06.841337  5043 net.cpp:434] conv_3/depthwise/scale <- conv_3/depthwise
I0421 21:58:06.841342  5043 net.cpp:395] conv_3/depthwise/scale -> conv_3/depthwise (in-place)
I0421 21:58:06.841389  5043 layer_factory.hpp:77] Creating layer conv_3/depthwise/scale
I0421 21:58:06.841509  5043 net.cpp:150] Setting up conv_3/depthwise/scale
I0421 21:58:06.841516  5043 net.cpp:157] Top shape: 2 144 38 38 (415872)
I0421 21:58:06.841531  5043 net.cpp:165] Memory required for data: 250870496
I0421 21:58:06.841542  5043 layer_factory.hpp:77] Creating layer conv_3/depthwise/relu
I0421 21:58:06.841548  5043 net.cpp:100] Creating Layer conv_3/depthwise/relu
I0421 21:58:06.841552  5043 net.cpp:434] conv_3/depthwise/relu <- conv_3/depthwise
I0421 21:58:06.841568  5043 net.cpp:395] conv_3/depthwise/relu -> conv_3/depthwise (in-place)
I0421 21:58:06.841938  5043 net.cpp:150] Setting up conv_3/depthwise/relu
I0421 21:58:06.841949  5043 net.cpp:157] Top shape: 2 144 38 38 (415872)
I0421 21:58:06.841953  5043 net.cpp:165] Memory required for data: 252533984
I0421 21:58:06.841956  5043 layer_factory.hpp:77] Creating layer conv_3/project
I0421 21:58:06.841962  5043 net.cpp:100] Creating Layer conv_3/project
I0421 21:58:06.841966  5043 net.cpp:434] conv_3/project <- conv_3/depthwise
I0421 21:58:06.841972  5043 net.cpp:408] conv_3/project -> conv_3/project
I0421 21:58:06.843123  5043 net.cpp:150] Setting up conv_3/project
I0421 21:58:06.843134  5043 net.cpp:157] Top shape: 2 32 38 38 (92416)
I0421 21:58:06.843148  5043 net.cpp:165] Memory required for data: 252903648
I0421 21:58:06.843154  5043 layer_factory.hpp:77] Creating layer conv_3/project/bn
I0421 21:58:06.843160  5043 net.cpp:100] Creating Layer conv_3/project/bn
I0421 21:58:06.843165  5043 net.cpp:434] conv_3/project/bn <- conv_3/project
I0421 21:58:06.843169  5043 net.cpp:395] conv_3/project/bn -> conv_3/project (in-place)
I0421 21:58:06.843349  5043 net.cpp:150] Setting up conv_3/project/bn
I0421 21:58:06.843356  5043 net.cpp:157] Top shape: 2 32 38 38 (92416)
I0421 21:58:06.843369  5043 net.cpp:165] Memory required for data: 253273312
I0421 21:58:06.843375  5043 layer_factory.hpp:77] Creating layer conv_3/project/scale
I0421 21:58:06.843381  5043 net.cpp:100] Creating Layer conv_3/project/scale
I0421 21:58:06.843385  5043 net.cpp:434] conv_3/project/scale <- conv_3/project
I0421 21:58:06.843389  5043 net.cpp:395] conv_3/project/scale -> conv_3/project (in-place)
I0421 21:58:06.843418  5043 layer_factory.hpp:77] Creating layer conv_3/project/scale
I0421 21:58:06.843515  5043 net.cpp:150] Setting up conv_3/project/scale
I0421 21:58:06.843521  5043 net.cpp:157] Top shape: 2 32 38 38 (92416)
I0421 21:58:06.843534  5043 net.cpp:165] Memory required for data: 253642976
I0421 21:58:06.843539  5043 layer_factory.hpp:77] Creating layer conv_3/project_conv_3/project/scale_0_split
I0421 21:58:06.843545  5043 net.cpp:100] Creating Layer conv_3/project_conv_3/project/scale_0_split
I0421 21:58:06.843549  5043 net.cpp:434] conv_3/project_conv_3/project/scale_0_split <- conv_3/project
I0421 21:58:06.843554  5043 net.cpp:408] conv_3/project_conv_3/project/scale_0_split -> conv_3/project_conv_3/project/scale_0_split_0
I0421 21:58:06.843559  5043 net.cpp:408] conv_3/project_conv_3/project/scale_0_split -> conv_3/project_conv_3/project/scale_0_split_1
I0421 21:58:06.843592  5043 net.cpp:150] Setting up conv_3/project_conv_3/project/scale_0_split
I0421 21:58:06.843598  5043 net.cpp:157] Top shape: 2 32 38 38 (92416)
I0421 21:58:06.843602  5043 net.cpp:157] Top shape: 2 32 38 38 (92416)
I0421 21:58:06.843606  5043 net.cpp:165] Memory required for data: 254382304
I0421 21:58:06.843611  5043 layer_factory.hpp:77] Creating layer conv_4/expand
I0421 21:58:06.843616  5043 net.cpp:100] Creating Layer conv_4/expand
I0421 21:58:06.843621  5043 net.cpp:434] conv_4/expand <- conv_3/project_conv_3/project/scale_0_split_0
I0421 21:58:06.843626  5043 net.cpp:408] conv_4/expand -> conv_4/expand
I0421 21:58:06.844619  5043 net.cpp:150] Setting up conv_4/expand
I0421 21:58:06.844630  5043 net.cpp:157] Top shape: 2 192 38 38 (554496)
I0421 21:58:06.844635  5043 net.cpp:165] Memory required for data: 256600288
I0421 21:58:06.844640  5043 layer_factory.hpp:77] Creating layer conv_4/expand/bn
I0421 21:58:06.844646  5043 net.cpp:100] Creating Layer conv_4/expand/bn
I0421 21:58:06.844650  5043 net.cpp:434] conv_4/expand/bn <- conv_4/expand
I0421 21:58:06.844655  5043 net.cpp:395] conv_4/expand/bn -> conv_4/expand (in-place)
I0421 21:58:06.844823  5043 net.cpp:150] Setting up conv_4/expand/bn
I0421 21:58:06.844830  5043 net.cpp:157] Top shape: 2 192 38 38 (554496)
I0421 21:58:06.844833  5043 net.cpp:165] Memory required for data: 258818272
I0421 21:58:06.844840  5043 layer_factory.hpp:77] Creating layer conv_4/expand/scale
I0421 21:58:06.844856  5043 net.cpp:100] Creating Layer conv_4/expand/scale
I0421 21:58:06.844861  5043 net.cpp:434] conv_4/expand/scale <- conv_4/expand
I0421 21:58:06.844866  5043 net.cpp:395] conv_4/expand/scale -> conv_4/expand (in-place)
I0421 21:58:06.844907  5043 layer_factory.hpp:77] Creating layer conv_4/expand/scale
I0421 21:58:06.845005  5043 net.cpp:150] Setting up conv_4/expand/scale
I0421 21:58:06.845011  5043 net.cpp:157] Top shape: 2 192 38 38 (554496)
I0421 21:58:06.845015  5043 net.cpp:165] Memory required for data: 261036256
I0421 21:58:06.845021  5043 layer_factory.hpp:77] Creating layer conv_4/expand/relu
I0421 21:58:06.845026  5043 net.cpp:100] Creating Layer conv_4/expand/relu
I0421 21:58:06.845031  5043 net.cpp:434] conv_4/expand/relu <- conv_4/expand
I0421 21:58:06.845034  5043 net.cpp:395] conv_4/expand/relu -> conv_4/expand (in-place)
I0421 21:58:06.845167  5043 net.cpp:150] Setting up conv_4/expand/relu
I0421 21:58:06.845175  5043 net.cpp:157] Top shape: 2 192 38 38 (554496)
I0421 21:58:06.845178  5043 net.cpp:165] Memory required for data: 263254240
I0421 21:58:06.845182  5043 layer_factory.hpp:77] Creating layer conv_4/depthwise
I0421 21:58:06.845191  5043 net.cpp:100] Creating Layer conv_4/depthwise
I0421 21:58:06.845194  5043 net.cpp:434] conv_4/depthwise <- conv_4/expand
I0421 21:58:06.845199  5043 net.cpp:408] conv_4/depthwise -> conv_4/depthwise
I0421 21:58:06.845384  5043 net.cpp:150] Setting up conv_4/depthwise
I0421 21:58:06.845391  5043 net.cpp:157] Top shape: 2 192 38 38 (554496)
I0421 21:58:06.845394  5043 net.cpp:165] Memory required for data: 265472224
I0421 21:58:06.845399  5043 layer_factory.hpp:77] Creating layer conv_4/depthwise/bn
I0421 21:58:06.845405  5043 net.cpp:100] Creating Layer conv_4/depthwise/bn
I0421 21:58:06.845409  5043 net.cpp:434] conv_4/depthwise/bn <- conv_4/depthwise
I0421 21:58:06.845413  5043 net.cpp:395] conv_4/depthwise/bn -> conv_4/depthwise (in-place)
I0421 21:58:06.845567  5043 net.cpp:150] Setting up conv_4/depthwise/bn
I0421 21:58:06.845573  5043 net.cpp:157] Top shape: 2 192 38 38 (554496)
I0421 21:58:06.845577  5043 net.cpp:165] Memory required for data: 267690208
I0421 21:58:06.845583  5043 layer_factory.hpp:77] Creating layer conv_4/depthwise/scale
I0421 21:58:06.845602  5043 net.cpp:100] Creating Layer conv_4/depthwise/scale
I0421 21:58:06.845607  5043 net.cpp:434] conv_4/depthwise/scale <- conv_4/depthwise
I0421 21:58:06.845612  5043 net.cpp:395] conv_4/depthwise/scale -> conv_4/depthwise (in-place)
I0421 21:58:06.845647  5043 layer_factory.hpp:77] Creating layer conv_4/depthwise/scale
I0421 21:58:06.845737  5043 net.cpp:150] Setting up conv_4/depthwise/scale
I0421 21:58:06.845744  5043 net.cpp:157] Top shape: 2 192 38 38 (554496)
I0421 21:58:06.845747  5043 net.cpp:165] Memory required for data: 269908192
I0421 21:58:06.845753  5043 layer_factory.hpp:77] Creating layer conv_4/depthwise/relu
I0421 21:58:06.845758  5043 net.cpp:100] Creating Layer conv_4/depthwise/relu
I0421 21:58:06.845762  5043 net.cpp:434] conv_4/depthwise/relu <- conv_4/depthwise
I0421 21:58:06.845767  5043 net.cpp:395] conv_4/depthwise/relu -> conv_4/depthwise (in-place)
I0421 21:58:06.846159  5043 net.cpp:150] Setting up conv_4/depthwise/relu
I0421 21:58:06.846170  5043 net.cpp:157] Top shape: 2 192 38 38 (554496)
I0421 21:58:06.846174  5043 net.cpp:165] Memory required for data: 272126176
I0421 21:58:06.846179  5043 layer_factory.hpp:77] Creating layer conv_4/project
I0421 21:58:06.846186  5043 net.cpp:100] Creating Layer conv_4/project
I0421 21:58:06.846190  5043 net.cpp:434] conv_4/project <- conv_4/depthwise
I0421 21:58:06.846196  5043 net.cpp:408] conv_4/project -> conv_4/project
I0421 21:58:06.847266  5043 net.cpp:150] Setting up conv_4/project
I0421 21:58:06.847278  5043 net.cpp:157] Top shape: 2 32 38 38 (92416)
I0421 21:58:06.847292  5043 net.cpp:165] Memory required for data: 272495840
I0421 21:58:06.847298  5043 layer_factory.hpp:77] Creating layer conv_4/project/bn
I0421 21:58:06.847304  5043 net.cpp:100] Creating Layer conv_4/project/bn
I0421 21:58:06.847318  5043 net.cpp:434] conv_4/project/bn <- conv_4/project
I0421 21:58:06.847324  5043 net.cpp:395] conv_4/project/bn -> conv_4/project (in-place)
I0421 21:58:06.847506  5043 net.cpp:150] Setting up conv_4/project/bn
I0421 21:58:06.847512  5043 net.cpp:157] Top shape: 2 32 38 38 (92416)
I0421 21:58:06.847525  5043 net.cpp:165] Memory required for data: 272865504
I0421 21:58:06.847532  5043 layer_factory.hpp:77] Creating layer conv_4/project/scale
I0421 21:58:06.847538  5043 net.cpp:100] Creating Layer conv_4/project/scale
I0421 21:58:06.847543  5043 net.cpp:434] conv_4/project/scale <- conv_4/project
I0421 21:58:06.847548  5043 net.cpp:395] conv_4/project/scale -> conv_4/project (in-place)
I0421 21:58:06.847589  5043 layer_factory.hpp:77] Creating layer conv_4/project/scale
I0421 21:58:06.847703  5043 net.cpp:150] Setting up conv_4/project/scale
I0421 21:58:06.847710  5043 net.cpp:157] Top shape: 2 32 38 38 (92416)
I0421 21:58:06.847723  5043 net.cpp:165] Memory required for data: 273235168
I0421 21:58:06.847729  5043 layer_factory.hpp:77] Creating layer conv_4project/sum
I0421 21:58:06.847734  5043 net.cpp:100] Creating Layer conv_4project/sum
I0421 21:58:06.847739  5043 net.cpp:434] conv_4project/sum <- conv_3/project_conv_3/project/scale_0_split_1
I0421 21:58:06.847743  5043 net.cpp:434] conv_4project/sum <- conv_4/project
I0421 21:58:06.847748  5043 net.cpp:408] conv_4project/sum -> conv_4project
I0421 21:58:06.847769  5043 net.cpp:150] Setting up conv_4project/sum
I0421 21:58:06.847784  5043 net.cpp:157] Top shape: 2 32 38 38 (92416)
I0421 21:58:06.847786  5043 net.cpp:165] Memory required for data: 273604832
I0421 21:58:06.847790  5043 layer_factory.hpp:77] Creating layer conv_4project_conv_4project/sum_0_split
I0421 21:58:06.847805  5043 net.cpp:100] Creating Layer conv_4project_conv_4project/sum_0_split
I0421 21:58:06.847810  5043 net.cpp:434] conv_4project_conv_4project/sum_0_split <- conv_4project
I0421 21:58:06.847813  5043 net.cpp:408] conv_4project_conv_4project/sum_0_split -> conv_4project_conv_4project/sum_0_split_0
I0421 21:58:06.847820  5043 net.cpp:408] conv_4project_conv_4project/sum_0_split -> conv_4project_conv_4project/sum_0_split_1
I0421 21:58:06.847846  5043 net.cpp:150] Setting up conv_4project_conv_4project/sum_0_split
I0421 21:58:06.847852  5043 net.cpp:157] Top shape: 2 32 38 38 (92416)
I0421 21:58:06.847856  5043 net.cpp:157] Top shape: 2 32 38 38 (92416)
I0421 21:58:06.847859  5043 net.cpp:165] Memory required for data: 274344160
I0421 21:58:06.847863  5043 layer_factory.hpp:77] Creating layer conv_5/expand
I0421 21:58:06.847869  5043 net.cpp:100] Creating Layer conv_5/expand
I0421 21:58:06.847873  5043 net.cpp:434] conv_5/expand <- conv_4project_conv_4project/sum_0_split_0
I0421 21:58:06.847878  5043 net.cpp:408] conv_5/expand -> conv_5/expand
I0421 21:58:06.848920  5043 net.cpp:150] Setting up conv_5/expand
I0421 21:58:06.848932  5043 net.cpp:157] Top shape: 2 192 38 38 (554496)
I0421 21:58:06.848937  5043 net.cpp:165] Memory required for data: 276562144
I0421 21:58:06.848940  5043 layer_factory.hpp:77] Creating layer conv_5/expand/bn
I0421 21:58:06.848948  5043 net.cpp:100] Creating Layer conv_5/expand/bn
I0421 21:58:06.848951  5043 net.cpp:434] conv_5/expand/bn <- conv_5/expand
I0421 21:58:06.848956  5043 net.cpp:395] conv_5/expand/bn -> conv_5/expand (in-place)
I0421 21:58:06.849122  5043 net.cpp:150] Setting up conv_5/expand/bn
I0421 21:58:06.849128  5043 net.cpp:157] Top shape: 2 192 38 38 (554496)
I0421 21:58:06.849130  5043 net.cpp:165] Memory required for data: 278780128
I0421 21:58:06.849136  5043 layer_factory.hpp:77] Creating layer conv_5/expand/scale
I0421 21:58:06.849148  5043 net.cpp:100] Creating Layer conv_5/expand/scale
I0421 21:58:06.849153  5043 net.cpp:434] conv_5/expand/scale <- conv_5/expand
I0421 21:58:06.849156  5043 net.cpp:395] conv_5/expand/scale -> conv_5/expand (in-place)
I0421 21:58:06.849187  5043 layer_factory.hpp:77] Creating layer conv_5/expand/scale
I0421 21:58:06.849288  5043 net.cpp:150] Setting up conv_5/expand/scale
I0421 21:58:06.849313  5043 net.cpp:157] Top shape: 2 192 38 38 (554496)
I0421 21:58:06.849318  5043 net.cpp:165] Memory required for data: 280998112
I0421 21:58:06.849324  5043 layer_factory.hpp:77] Creating layer conv_5/expand/relu
I0421 21:58:06.849329  5043 net.cpp:100] Creating Layer conv_5/expand/relu
I0421 21:58:06.849334  5043 net.cpp:434] conv_5/expand/relu <- conv_5/expand
I0421 21:58:06.849339  5043 net.cpp:395] conv_5/expand/relu -> conv_5/expand (in-place)
I0421 21:58:06.849690  5043 net.cpp:150] Setting up conv_5/expand/relu
I0421 21:58:06.849701  5043 net.cpp:157] Top shape: 2 192 38 38 (554496)
I0421 21:58:06.849705  5043 net.cpp:165] Memory required for data: 283216096
I0421 21:58:06.849709  5043 layer_factory.hpp:77] Creating layer conv_5/depthwise
I0421 21:58:06.849716  5043 net.cpp:100] Creating Layer conv_5/depthwise
I0421 21:58:06.849721  5043 net.cpp:434] conv_5/depthwise <- conv_5/expand
I0421 21:58:06.849726  5043 net.cpp:408] conv_5/depthwise -> conv_5/depthwise
I0421 21:58:06.849906  5043 net.cpp:150] Setting up conv_5/depthwise
I0421 21:58:06.849913  5043 net.cpp:157] Top shape: 2 192 38 38 (554496)
I0421 21:58:06.849916  5043 net.cpp:165] Memory required for data: 285434080
I0421 21:58:06.849921  5043 layer_factory.hpp:77] Creating layer conv_5/depthwise/bn
I0421 21:58:06.849927  5043 net.cpp:100] Creating Layer conv_5/depthwise/bn
I0421 21:58:06.849931  5043 net.cpp:434] conv_5/depthwise/bn <- conv_5/depthwise
I0421 21:58:06.849936  5043 net.cpp:395] conv_5/depthwise/bn -> conv_5/depthwise (in-place)
I0421 21:58:06.850093  5043 net.cpp:150] Setting up conv_5/depthwise/bn
I0421 21:58:06.850100  5043 net.cpp:157] Top shape: 2 192 38 38 (554496)
I0421 21:58:06.850103  5043 net.cpp:165] Memory required for data: 287652064
I0421 21:58:06.850109  5043 layer_factory.hpp:77] Creating layer conv_5/depthwise/scale
I0421 21:58:06.850116  5043 net.cpp:100] Creating Layer conv_5/depthwise/scale
I0421 21:58:06.850119  5043 net.cpp:434] conv_5/depthwise/scale <- conv_5/depthwise
I0421 21:58:06.850124  5043 net.cpp:395] conv_5/depthwise/scale -> conv_5/depthwise (in-place)
I0421 21:58:06.850153  5043 layer_factory.hpp:77] Creating layer conv_5/depthwise/scale
I0421 21:58:06.850250  5043 net.cpp:150] Setting up conv_5/depthwise/scale
I0421 21:58:06.850255  5043 net.cpp:157] Top shape: 2 192 38 38 (554496)
I0421 21:58:06.850260  5043 net.cpp:165] Memory required for data: 289870048
I0421 21:58:06.850265  5043 layer_factory.hpp:77] Creating layer conv_5/depthwise/relu
I0421 21:58:06.850270  5043 net.cpp:100] Creating Layer conv_5/depthwise/relu
I0421 21:58:06.850275  5043 net.cpp:434] conv_5/depthwise/relu <- conv_5/depthwise
I0421 21:58:06.850278  5043 net.cpp:395] conv_5/depthwise/relu -> conv_5/depthwise (in-place)
I0421 21:58:06.850415  5043 net.cpp:150] Setting up conv_5/depthwise/relu
I0421 21:58:06.850423  5043 net.cpp:157] Top shape: 2 192 38 38 (554496)
I0421 21:58:06.850427  5043 net.cpp:165] Memory required for data: 292088032
I0421 21:58:06.850431  5043 layer_factory.hpp:77] Creating layer conv_5/project
I0421 21:58:06.850442  5043 net.cpp:100] Creating Layer conv_5/project
I0421 21:58:06.850447  5043 net.cpp:434] conv_5/project <- conv_5/depthwise
I0421 21:58:06.850451  5043 net.cpp:408] conv_5/project -> conv_5/project
I0421 21:58:06.851454  5043 net.cpp:150] Setting up conv_5/project
I0421 21:58:06.851465  5043 net.cpp:157] Top shape: 2 32 38 38 (92416)
I0421 21:58:06.851469  5043 net.cpp:165] Memory required for data: 292457696
I0421 21:58:06.851474  5043 layer_factory.hpp:77] Creating layer conv_5/project/bn
I0421 21:58:06.851478  5043 net.cpp:100] Creating Layer conv_5/project/bn
I0421 21:58:06.851482  5043 net.cpp:434] conv_5/project/bn <- conv_5/project
I0421 21:58:06.851487  5043 net.cpp:395] conv_5/project/bn -> conv_5/project (in-place)
I0421 21:58:06.851656  5043 net.cpp:150] Setting up conv_5/project/bn
I0421 21:58:06.851662  5043 net.cpp:157] Top shape: 2 32 38 38 (92416)
I0421 21:58:06.851666  5043 net.cpp:165] Memory required for data: 292827360
I0421 21:58:06.851672  5043 layer_factory.hpp:77] Creating layer conv_5/project/scale
I0421 21:58:06.851687  5043 net.cpp:100] Creating Layer conv_5/project/scale
I0421 21:58:06.851691  5043 net.cpp:434] conv_5/project/scale <- conv_5/project
I0421 21:58:06.851696  5043 net.cpp:395] conv_5/project/scale -> conv_5/project (in-place)
I0421 21:58:06.851737  5043 layer_factory.hpp:77] Creating layer conv_5/project/scale
I0421 21:58:06.851838  5043 net.cpp:150] Setting up conv_5/project/scale
I0421 21:58:06.851845  5043 net.cpp:157] Top shape: 2 32 38 38 (92416)
I0421 21:58:06.851848  5043 net.cpp:165] Memory required for data: 293197024
I0421 21:58:06.851855  5043 layer_factory.hpp:77] Creating layer conv_5project/sum
I0421 21:58:06.851860  5043 net.cpp:100] Creating Layer conv_5project/sum
I0421 21:58:06.851864  5043 net.cpp:434] conv_5project/sum <- conv_4project_conv_4project/sum_0_split_1
I0421 21:58:06.851868  5043 net.cpp:434] conv_5project/sum <- conv_5/project
I0421 21:58:06.851873  5043 net.cpp:408] conv_5project/sum -> conv_5project
I0421 21:58:06.851892  5043 net.cpp:150] Setting up conv_5project/sum
I0421 21:58:06.851897  5043 net.cpp:157] Top shape: 2 32 38 38 (92416)
I0421 21:58:06.851902  5043 net.cpp:165] Memory required for data: 293566688
I0421 21:58:06.851904  5043 layer_factory.hpp:77] Creating layer conv_6/expand
I0421 21:58:06.851917  5043 net.cpp:100] Creating Layer conv_6/expand
I0421 21:58:06.851922  5043 net.cpp:434] conv_6/expand <- conv_5project
I0421 21:58:06.851925  5043 net.cpp:408] conv_6/expand -> conv_6/expand
I0421 21:58:06.852944  5043 net.cpp:150] Setting up conv_6/expand
I0421 21:58:06.852957  5043 net.cpp:157] Top shape: 2 192 38 38 (554496)
I0421 21:58:06.852960  5043 net.cpp:165] Memory required for data: 295784672
I0421 21:58:06.852967  5043 layer_factory.hpp:77] Creating layer conv_6/expand/bn
I0421 21:58:06.852972  5043 net.cpp:100] Creating Layer conv_6/expand/bn
I0421 21:58:06.852977  5043 net.cpp:434] conv_6/expand/bn <- conv_6/expand
I0421 21:58:06.852982  5043 net.cpp:395] conv_6/expand/bn -> conv_6/expand (in-place)
I0421 21:58:06.853152  5043 net.cpp:150] Setting up conv_6/expand/bn
I0421 21:58:06.853159  5043 net.cpp:157] Top shape: 2 192 38 38 (554496)
I0421 21:58:06.853163  5043 net.cpp:165] Memory required for data: 298002656
I0421 21:58:06.853169  5043 layer_factory.hpp:77] Creating layer conv_6/expand/scale
I0421 21:58:06.853175  5043 net.cpp:100] Creating Layer conv_6/expand/scale
I0421 21:58:06.853179  5043 net.cpp:434] conv_6/expand/scale <- conv_6/expand
I0421 21:58:06.853184  5043 net.cpp:395] conv_6/expand/scale -> conv_6/expand (in-place)
I0421 21:58:06.853215  5043 layer_factory.hpp:77] Creating layer conv_6/expand/scale
I0421 21:58:06.853317  5043 net.cpp:150] Setting up conv_6/expand/scale
I0421 21:58:06.853323  5043 net.cpp:157] Top shape: 2 192 38 38 (554496)
I0421 21:58:06.853327  5043 net.cpp:165] Memory required for data: 300220640
I0421 21:58:06.853333  5043 layer_factory.hpp:77] Creating layer conv_6/expand/relu
I0421 21:58:06.853343  5043 net.cpp:100] Creating Layer conv_6/expand/relu
I0421 21:58:06.853348  5043 net.cpp:434] conv_6/expand/relu <- conv_6/expand
I0421 21:58:06.853351  5043 net.cpp:395] conv_6/expand/relu -> conv_6/expand (in-place)
I0421 21:58:06.853718  5043 net.cpp:150] Setting up conv_6/expand/relu
I0421 21:58:06.853729  5043 net.cpp:157] Top shape: 2 192 38 38 (554496)
I0421 21:58:06.853734  5043 net.cpp:165] Memory required for data: 302438624
I0421 21:58:06.853737  5043 layer_factory.hpp:77] Creating layer conv_6/depthwise
I0421 21:58:06.853745  5043 net.cpp:100] Creating Layer conv_6/depthwise
I0421 21:58:06.853750  5043 net.cpp:434] conv_6/depthwise <- conv_6/expand
I0421 21:58:06.853755  5043 net.cpp:408] conv_6/depthwise -> conv_6/depthwise
I0421 21:58:06.853937  5043 net.cpp:150] Setting up conv_6/depthwise
I0421 21:58:06.853946  5043 net.cpp:157] Top shape: 2 192 19 19 (138624)
I0421 21:58:06.853952  5043 net.cpp:165] Memory required for data: 302993120
I0421 21:58:06.853960  5043 layer_factory.hpp:77] Creating layer conv_6/depthwise/bn
I0421 21:58:06.853968  5043 net.cpp:100] Creating Layer conv_6/depthwise/bn
I0421 21:58:06.853983  5043 net.cpp:434] conv_6/depthwise/bn <- conv_6/depthwise
I0421 21:58:06.853991  5043 net.cpp:395] conv_6/depthwise/bn -> conv_6/depthwise (in-place)
I0421 21:58:06.854189  5043 net.cpp:150] Setting up conv_6/depthwise/bn
I0421 21:58:06.854198  5043 net.cpp:157] Top shape: 2 192 19 19 (138624)
I0421 21:58:06.854204  5043 net.cpp:165] Memory required for data: 303547616
I0421 21:58:06.854213  5043 layer_factory.hpp:77] Creating layer conv_6/depthwise/scale
I0421 21:58:06.854221  5043 net.cpp:100] Creating Layer conv_6/depthwise/scale
I0421 21:58:06.854226  5043 net.cpp:434] conv_6/depthwise/scale <- conv_6/depthwise
I0421 21:58:06.854233  5043 net.cpp:395] conv_6/depthwise/scale -> conv_6/depthwise (in-place)
I0421 21:58:06.854274  5043 layer_factory.hpp:77] Creating layer conv_6/depthwise/scale
I0421 21:58:06.854379  5043 net.cpp:150] Setting up conv_6/depthwise/scale
I0421 21:58:06.854387  5043 net.cpp:157] Top shape: 2 192 19 19 (138624)
I0421 21:58:06.854393  5043 net.cpp:165] Memory required for data: 304102112
I0421 21:58:06.854400  5043 layer_factory.hpp:77] Creating layer conv_6/depthwise/relu
I0421 21:58:06.854406  5043 net.cpp:100] Creating Layer conv_6/depthwise/relu
I0421 21:58:06.854411  5043 net.cpp:434] conv_6/depthwise/relu <- conv_6/depthwise
I0421 21:58:06.854418  5043 net.cpp:395] conv_6/depthwise/relu -> conv_6/depthwise (in-place)
I0421 21:58:06.854560  5043 net.cpp:150] Setting up conv_6/depthwise/relu
I0421 21:58:06.854569  5043 net.cpp:157] Top shape: 2 192 19 19 (138624)
I0421 21:58:06.854574  5043 net.cpp:165] Memory required for data: 304656608
I0421 21:58:06.854580  5043 layer_factory.hpp:77] Creating layer conv_6/project
I0421 21:58:06.854589  5043 net.cpp:100] Creating Layer conv_6/project
I0421 21:58:06.854594  5043 net.cpp:434] conv_6/project <- conv_6/depthwise
I0421 21:58:06.854602  5043 net.cpp:408] conv_6/project -> conv_6/project
I0421 21:58:06.855744  5043 net.cpp:150] Setting up conv_6/project
I0421 21:58:06.855758  5043 net.cpp:157] Top shape: 2 64 19 19 (46208)
I0421 21:58:06.855764  5043 net.cpp:165] Memory required for data: 304841440
I0421 21:58:06.855773  5043 layer_factory.hpp:77] Creating layer conv_6/project/bn
I0421 21:58:06.855782  5043 net.cpp:100] Creating Layer conv_6/project/bn
I0421 21:58:06.855787  5043 net.cpp:434] conv_6/project/bn <- conv_6/project
I0421 21:58:06.855794  5043 net.cpp:395] conv_6/project/bn -> conv_6/project (in-place)
I0421 21:58:06.855970  5043 net.cpp:150] Setting up conv_6/project/bn
I0421 21:58:06.855979  5043 net.cpp:157] Top shape: 2 64 19 19 (46208)
I0421 21:58:06.855984  5043 net.cpp:165] Memory required for data: 305026272
I0421 21:58:06.855994  5043 layer_factory.hpp:77] Creating layer conv_6/project/scale
I0421 21:58:06.856003  5043 net.cpp:100] Creating Layer conv_6/project/scale
I0421 21:58:06.856007  5043 net.cpp:434] conv_6/project/scale <- conv_6/project
I0421 21:58:06.856015  5043 net.cpp:395] conv_6/project/scale -> conv_6/project (in-place)
I0421 21:58:06.856051  5043 layer_factory.hpp:77] Creating layer conv_6/project/scale
I0421 21:58:06.856159  5043 net.cpp:150] Setting up conv_6/project/scale
I0421 21:58:06.856168  5043 net.cpp:157] Top shape: 2 64 19 19 (46208)
I0421 21:58:06.856173  5043 net.cpp:165] Memory required for data: 305211104
I0421 21:58:06.856181  5043 layer_factory.hpp:77] Creating layer conv_6/project_conv_6/project/scale_0_split
I0421 21:58:06.856189  5043 net.cpp:100] Creating Layer conv_6/project_conv_6/project/scale_0_split
I0421 21:58:06.856194  5043 net.cpp:434] conv_6/project_conv_6/project/scale_0_split <- conv_6/project
I0421 21:58:06.856202  5043 net.cpp:408] conv_6/project_conv_6/project/scale_0_split -> conv_6/project_conv_6/project/scale_0_split_0
I0421 21:58:06.856211  5043 net.cpp:408] conv_6/project_conv_6/project/scale_0_split -> conv_6/project_conv_6/project/scale_0_split_1
I0421 21:58:06.856245  5043 net.cpp:150] Setting up conv_6/project_conv_6/project/scale_0_split
I0421 21:58:06.856250  5043 net.cpp:157] Top shape: 2 64 19 19 (46208)
I0421 21:58:06.856266  5043 net.cpp:157] Top shape: 2 64 19 19 (46208)
I0421 21:58:06.856271  5043 net.cpp:165] Memory required for data: 305580768
I0421 21:58:06.856274  5043 layer_factory.hpp:77] Creating layer conv_7/expand
I0421 21:58:06.856284  5043 net.cpp:100] Creating Layer conv_7/expand
I0421 21:58:06.856289  5043 net.cpp:434] conv_7/expand <- conv_6/project_conv_6/project/scale_0_split_0
I0421 21:58:06.856294  5043 net.cpp:408] conv_7/expand -> conv_7/expand
I0421 21:58:06.857630  5043 net.cpp:150] Setting up conv_7/expand
I0421 21:58:06.857645  5043 net.cpp:157] Top shape: 2 384 19 19 (277248)
I0421 21:58:06.857648  5043 net.cpp:165] Memory required for data: 306689760
I0421 21:58:06.857656  5043 layer_factory.hpp:77] Creating layer conv_7/expand/bn
I0421 21:58:06.857667  5043 net.cpp:100] Creating Layer conv_7/expand/bn
I0421 21:58:06.857673  5043 net.cpp:434] conv_7/expand/bn <- conv_7/expand
I0421 21:58:06.857686  5043 net.cpp:395] conv_7/expand/bn -> conv_7/expand (in-place)
I0421 21:58:06.857857  5043 net.cpp:150] Setting up conv_7/expand/bn
I0421 21:58:06.857864  5043 net.cpp:157] Top shape: 2 384 19 19 (277248)
I0421 21:58:06.857868  5043 net.cpp:165] Memory required for data: 307798752
I0421 21:58:06.857883  5043 layer_factory.hpp:77] Creating layer conv_7/expand/scale
I0421 21:58:06.857890  5043 net.cpp:100] Creating Layer conv_7/expand/scale
I0421 21:58:06.857895  5043 net.cpp:434] conv_7/expand/scale <- conv_7/expand
I0421 21:58:06.857900  5043 net.cpp:395] conv_7/expand/scale -> conv_7/expand (in-place)
I0421 21:58:06.857935  5043 layer_factory.hpp:77] Creating layer conv_7/expand/scale
I0421 21:58:06.858024  5043 net.cpp:150] Setting up conv_7/expand/scale
I0421 21:58:06.858031  5043 net.cpp:157] Top shape: 2 384 19 19 (277248)
I0421 21:58:06.858034  5043 net.cpp:165] Memory required for data: 308907744
I0421 21:58:06.858039  5043 layer_factory.hpp:77] Creating layer conv_7/expand/relu
I0421 21:58:06.858045  5043 net.cpp:100] Creating Layer conv_7/expand/relu
I0421 21:58:06.858049  5043 net.cpp:434] conv_7/expand/relu <- conv_7/expand
I0421 21:58:06.858054  5043 net.cpp:395] conv_7/expand/relu -> conv_7/expand (in-place)
I0421 21:58:06.858413  5043 net.cpp:150] Setting up conv_7/expand/relu
I0421 21:58:06.858424  5043 net.cpp:157] Top shape: 2 384 19 19 (277248)
I0421 21:58:06.858428  5043 net.cpp:165] Memory required for data: 310016736
I0421 21:58:06.858433  5043 layer_factory.hpp:77] Creating layer conv_7/depthwise
I0421 21:58:06.858445  5043 net.cpp:100] Creating Layer conv_7/depthwise
I0421 21:58:06.858450  5043 net.cpp:434] conv_7/depthwise <- conv_7/expand
I0421 21:58:06.858455  5043 net.cpp:408] conv_7/depthwise -> conv_7/depthwise
I0421 21:58:06.858667  5043 net.cpp:150] Setting up conv_7/depthwise
I0421 21:58:06.858675  5043 net.cpp:157] Top shape: 2 384 19 19 (277248)
I0421 21:58:06.858677  5043 net.cpp:165] Memory required for data: 311125728
I0421 21:58:06.858683  5043 layer_factory.hpp:77] Creating layer conv_7/depthwise/bn
I0421 21:58:06.858688  5043 net.cpp:100] Creating Layer conv_7/depthwise/bn
I0421 21:58:06.858693  5043 net.cpp:434] conv_7/depthwise/bn <- conv_7/depthwise
I0421 21:58:06.858697  5043 net.cpp:395] conv_7/depthwise/bn -> conv_7/depthwise (in-place)
I0421 21:58:06.858865  5043 net.cpp:150] Setting up conv_7/depthwise/bn
I0421 21:58:06.858871  5043 net.cpp:157] Top shape: 2 384 19 19 (277248)
I0421 21:58:06.858875  5043 net.cpp:165] Memory required for data: 312234720
I0421 21:58:06.858880  5043 layer_factory.hpp:77] Creating layer conv_7/depthwise/scale
I0421 21:58:06.858886  5043 net.cpp:100] Creating Layer conv_7/depthwise/scale
I0421 21:58:06.858891  5043 net.cpp:434] conv_7/depthwise/scale <- conv_7/depthwise
I0421 21:58:06.858899  5043 net.cpp:395] conv_7/depthwise/scale -> conv_7/depthwise (in-place)
I0421 21:58:06.858932  5043 layer_factory.hpp:77] Creating layer conv_7/depthwise/scale
I0421 21:58:06.859021  5043 net.cpp:150] Setting up conv_7/depthwise/scale
I0421 21:58:06.859027  5043 net.cpp:157] Top shape: 2 384 19 19 (277248)
I0421 21:58:06.859043  5043 net.cpp:165] Memory required for data: 313343712
I0421 21:58:06.859050  5043 layer_factory.hpp:77] Creating layer conv_7/depthwise/relu
I0421 21:58:06.859055  5043 net.cpp:100] Creating Layer conv_7/depthwise/relu
I0421 21:58:06.859060  5043 net.cpp:434] conv_7/depthwise/relu <- conv_7/depthwise
I0421 21:58:06.859064  5043 net.cpp:395] conv_7/depthwise/relu -> conv_7/depthwise (in-place)
I0421 21:58:06.859405  5043 net.cpp:150] Setting up conv_7/depthwise/relu
I0421 21:58:06.859416  5043 net.cpp:157] Top shape: 2 384 19 19 (277248)
I0421 21:58:06.859419  5043 net.cpp:165] Memory required for data: 314452704
I0421 21:58:06.859423  5043 layer_factory.hpp:77] Creating layer conv_7/project
I0421 21:58:06.859431  5043 net.cpp:100] Creating Layer conv_7/project
I0421 21:58:06.859436  5043 net.cpp:434] conv_7/project <- conv_7/depthwise
I0421 21:58:06.859441  5043 net.cpp:408] conv_7/project -> conv_7/project
I0421 21:58:06.861095  5043 net.cpp:150] Setting up conv_7/project
I0421 21:58:06.861107  5043 net.cpp:157] Top shape: 2 64 19 19 (46208)
I0421 21:58:06.861111  5043 net.cpp:165] Memory required for data: 314637536
I0421 21:58:06.861117  5043 layer_factory.hpp:77] Creating layer conv_7/project/bn
I0421 21:58:06.861124  5043 net.cpp:100] Creating Layer conv_7/project/bn
I0421 21:58:06.861129  5043 net.cpp:434] conv_7/project/bn <- conv_7/project
I0421 21:58:06.861133  5043 net.cpp:395] conv_7/project/bn -> conv_7/project (in-place)
I0421 21:58:06.861312  5043 net.cpp:150] Setting up conv_7/project/bn
I0421 21:58:06.861320  5043 net.cpp:157] Top shape: 2 64 19 19 (46208)
I0421 21:58:06.861323  5043 net.cpp:165] Memory required for data: 314822368
I0421 21:58:06.861330  5043 layer_factory.hpp:77] Creating layer conv_7/project/scale
I0421 21:58:06.861336  5043 net.cpp:100] Creating Layer conv_7/project/scale
I0421 21:58:06.861340  5043 net.cpp:434] conv_7/project/scale <- conv_7/project
I0421 21:58:06.861346  5043 net.cpp:395] conv_7/project/scale -> conv_7/project (in-place)
I0421 21:58:06.861377  5043 layer_factory.hpp:77] Creating layer conv_7/project/scale
I0421 21:58:06.861479  5043 net.cpp:150] Setting up conv_7/project/scale
I0421 21:58:06.861486  5043 net.cpp:157] Top shape: 2 64 19 19 (46208)
I0421 21:58:06.861490  5043 net.cpp:165] Memory required for data: 315007200
I0421 21:58:06.861495  5043 layer_factory.hpp:77] Creating layer conv_7project/sum
I0421 21:58:06.861500  5043 net.cpp:100] Creating Layer conv_7project/sum
I0421 21:58:06.861505  5043 net.cpp:434] conv_7project/sum <- conv_6/project_conv_6/project/scale_0_split_1
I0421 21:58:06.861510  5043 net.cpp:434] conv_7project/sum <- conv_7/project
I0421 21:58:06.861515  5043 net.cpp:408] conv_7project/sum -> conv_7project
I0421 21:58:06.861534  5043 net.cpp:150] Setting up conv_7project/sum
I0421 21:58:06.861539  5043 net.cpp:157] Top shape: 2 64 19 19 (46208)
I0421 21:58:06.861543  5043 net.cpp:165] Memory required for data: 315192032
I0421 21:58:06.861547  5043 layer_factory.hpp:77] Creating layer conv_7project_conv_7project/sum_0_split
I0421 21:58:06.861552  5043 net.cpp:100] Creating Layer conv_7project_conv_7project/sum_0_split
I0421 21:58:06.861557  5043 net.cpp:434] conv_7project_conv_7project/sum_0_split <- conv_7project
I0421 21:58:06.861562  5043 net.cpp:408] conv_7project_conv_7project/sum_0_split -> conv_7project_conv_7project/sum_0_split_0
I0421 21:58:06.861567  5043 net.cpp:408] conv_7project_conv_7project/sum_0_split -> conv_7project_conv_7project/sum_0_split_1
I0421 21:58:06.861601  5043 net.cpp:150] Setting up conv_7project_conv_7project/sum_0_split
I0421 21:58:06.861608  5043 net.cpp:157] Top shape: 2 64 19 19 (46208)
I0421 21:58:06.861613  5043 net.cpp:157] Top shape: 2 64 19 19 (46208)
I0421 21:58:06.861615  5043 net.cpp:165] Memory required for data: 315561696
I0421 21:58:06.861619  5043 layer_factory.hpp:77] Creating layer conv_8/expand
I0421 21:58:06.861626  5043 net.cpp:100] Creating Layer conv_8/expand
I0421 21:58:06.861630  5043 net.cpp:434] conv_8/expand <- conv_7project_conv_7project/sum_0_split_0
I0421 21:58:06.861635  5043 net.cpp:408] conv_8/expand -> conv_8/expand
I0421 21:58:06.862879  5043 net.cpp:150] Setting up conv_8/expand
I0421 21:58:06.862891  5043 net.cpp:157] Top shape: 2 384 19 19 (277248)
I0421 21:58:06.862896  5043 net.cpp:165] Memory required for data: 316670688
I0421 21:58:06.862901  5043 layer_factory.hpp:77] Creating layer conv_8/expand/bn
I0421 21:58:06.862907  5043 net.cpp:100] Creating Layer conv_8/expand/bn
I0421 21:58:06.862912  5043 net.cpp:434] conv_8/expand/bn <- conv_8/expand
I0421 21:58:06.862917  5043 net.cpp:395] conv_8/expand/bn -> conv_8/expand (in-place)
I0421 21:58:06.863085  5043 net.cpp:150] Setting up conv_8/expand/bn
I0421 21:58:06.863091  5043 net.cpp:157] Top shape: 2 384 19 19 (277248)
I0421 21:58:06.863095  5043 net.cpp:165] Memory required for data: 317779680
I0421 21:58:06.863101  5043 layer_factory.hpp:77] Creating layer conv_8/expand/scale
I0421 21:58:06.863108  5043 net.cpp:100] Creating Layer conv_8/expand/scale
I0421 21:58:06.863112  5043 net.cpp:434] conv_8/expand/scale <- conv_8/expand
I0421 21:58:06.863116  5043 net.cpp:395] conv_8/expand/scale -> conv_8/expand (in-place)
I0421 21:58:06.863150  5043 layer_factory.hpp:77] Creating layer conv_8/expand/scale
I0421 21:58:06.863247  5043 net.cpp:150] Setting up conv_8/expand/scale
I0421 21:58:06.863255  5043 net.cpp:157] Top shape: 2 384 19 19 (277248)
I0421 21:58:06.863258  5043 net.cpp:165] Memory required for data: 318888672
I0421 21:58:06.863263  5043 layer_factory.hpp:77] Creating layer conv_8/expand/relu
I0421 21:58:06.863270  5043 net.cpp:100] Creating Layer conv_8/expand/relu
I0421 21:58:06.863273  5043 net.cpp:434] conv_8/expand/relu <- conv_8/expand
I0421 21:58:06.863277  5043 net.cpp:395] conv_8/expand/relu -> conv_8/expand (in-place)
I0421 21:58:06.863437  5043 net.cpp:150] Setting up conv_8/expand/relu
I0421 21:58:06.863446  5043 net.cpp:157] Top shape: 2 384 19 19 (277248)
I0421 21:58:06.863449  5043 net.cpp:165] Memory required for data: 319997664
I0421 21:58:06.863453  5043 layer_factory.hpp:77] Creating layer conv_8/depthwise
I0421 21:58:06.863461  5043 net.cpp:100] Creating Layer conv_8/depthwise
I0421 21:58:06.863466  5043 net.cpp:434] conv_8/depthwise <- conv_8/expand
I0421 21:58:06.863471  5043 net.cpp:408] conv_8/depthwise -> conv_8/depthwise
I0421 21:58:06.863679  5043 net.cpp:150] Setting up conv_8/depthwise
I0421 21:58:06.863687  5043 net.cpp:157] Top shape: 2 384 19 19 (277248)
I0421 21:58:06.863692  5043 net.cpp:165] Memory required for data: 321106656
I0421 21:58:06.863696  5043 layer_factory.hpp:77] Creating layer conv_8/depthwise/bn
I0421 21:58:06.863701  5043 net.cpp:100] Creating Layer conv_8/depthwise/bn
I0421 21:58:06.863706  5043 net.cpp:434] conv_8/depthwise/bn <- conv_8/depthwise
I0421 21:58:06.863710  5043 net.cpp:395] conv_8/depthwise/bn -> conv_8/depthwise (in-place)
I0421 21:58:06.863873  5043 net.cpp:150] Setting up conv_8/depthwise/bn
I0421 21:58:06.863879  5043 net.cpp:157] Top shape: 2 384 19 19 (277248)
I0421 21:58:06.863883  5043 net.cpp:165] Memory required for data: 322215648
I0421 21:58:06.863889  5043 layer_factory.hpp:77] Creating layer conv_8/depthwise/scale
I0421 21:58:06.863895  5043 net.cpp:100] Creating Layer conv_8/depthwise/scale
I0421 21:58:06.863899  5043 net.cpp:434] conv_8/depthwise/scale <- conv_8/depthwise
I0421 21:58:06.863911  5043 net.cpp:395] conv_8/depthwise/scale -> conv_8/depthwise (in-place)
I0421 21:58:06.863945  5043 layer_factory.hpp:77] Creating layer conv_8/depthwise/scale
I0421 21:58:06.864038  5043 net.cpp:150] Setting up conv_8/depthwise/scale
I0421 21:58:06.864044  5043 net.cpp:157] Top shape: 2 384 19 19 (277248)
I0421 21:58:06.864048  5043 net.cpp:165] Memory required for data: 323324640
I0421 21:58:06.864053  5043 layer_factory.hpp:77] Creating layer conv_8/depthwise/relu
I0421 21:58:06.864061  5043 net.cpp:100] Creating Layer conv_8/depthwise/relu
I0421 21:58:06.864068  5043 net.cpp:434] conv_8/depthwise/relu <- conv_8/depthwise
I0421 21:58:06.864078  5043 net.cpp:395] conv_8/depthwise/relu -> conv_8/depthwise (in-place)
I0421 21:58:06.864431  5043 net.cpp:150] Setting up conv_8/depthwise/relu
I0421 21:58:06.864450  5043 net.cpp:157] Top shape: 2 384 19 19 (277248)
I0421 21:58:06.864455  5043 net.cpp:165] Memory required for data: 324433632
I0421 21:58:06.864459  5043 layer_factory.hpp:77] Creating layer conv_8/project
I0421 21:58:06.864466  5043 net.cpp:100] Creating Layer conv_8/project
I0421 21:58:06.864471  5043 net.cpp:434] conv_8/project <- conv_8/depthwise
I0421 21:58:06.864477  5043 net.cpp:408] conv_8/project -> conv_8/project
I0421 21:58:06.865706  5043 net.cpp:150] Setting up conv_8/project
I0421 21:58:06.865718  5043 net.cpp:157] Top shape: 2 64 19 19 (46208)
I0421 21:58:06.865721  5043 net.cpp:165] Memory required for data: 324618464
I0421 21:58:06.865726  5043 layer_factory.hpp:77] Creating layer conv_8/project/bn
I0421 21:58:06.865732  5043 net.cpp:100] Creating Layer conv_8/project/bn
I0421 21:58:06.865737  5043 net.cpp:434] conv_8/project/bn <- conv_8/project
I0421 21:58:06.865741  5043 net.cpp:395] conv_8/project/bn -> conv_8/project (in-place)
I0421 21:58:06.865921  5043 net.cpp:150] Setting up conv_8/project/bn
I0421 21:58:06.865927  5043 net.cpp:157] Top shape: 2 64 19 19 (46208)
I0421 21:58:06.865931  5043 net.cpp:165] Memory required for data: 324803296
I0421 21:58:06.865936  5043 layer_factory.hpp:77] Creating layer conv_8/project/scale
I0421 21:58:06.865942  5043 net.cpp:100] Creating Layer conv_8/project/scale
I0421 21:58:06.865945  5043 net.cpp:434] conv_8/project/scale <- conv_8/project
I0421 21:58:06.865950  5043 net.cpp:395] conv_8/project/scale -> conv_8/project (in-place)
I0421 21:58:06.865990  5043 layer_factory.hpp:77] Creating layer conv_8/project/scale
I0421 21:58:06.866093  5043 net.cpp:150] Setting up conv_8/project/scale
I0421 21:58:06.866101  5043 net.cpp:157] Top shape: 2 64 19 19 (46208)
I0421 21:58:06.866103  5043 net.cpp:165] Memory required for data: 324988128
I0421 21:58:06.866108  5043 layer_factory.hpp:77] Creating layer conv_8project/sum
I0421 21:58:06.866112  5043 net.cpp:100] Creating Layer conv_8project/sum
I0421 21:58:06.866117  5043 net.cpp:434] conv_8project/sum <- conv_7project_conv_7project/sum_0_split_1
I0421 21:58:06.866122  5043 net.cpp:434] conv_8project/sum <- conv_8/project
I0421 21:58:06.866127  5043 net.cpp:408] conv_8project/sum -> conv_8project
I0421 21:58:06.866145  5043 net.cpp:150] Setting up conv_8project/sum
I0421 21:58:06.866150  5043 net.cpp:157] Top shape: 2 64 19 19 (46208)
I0421 21:58:06.866154  5043 net.cpp:165] Memory required for data: 325172960
I0421 21:58:06.866158  5043 layer_factory.hpp:77] Creating layer conv_8project_conv_8project/sum_0_split
I0421 21:58:06.866163  5043 net.cpp:100] Creating Layer conv_8project_conv_8project/sum_0_split
I0421 21:58:06.866168  5043 net.cpp:434] conv_8project_conv_8project/sum_0_split <- conv_8project
I0421 21:58:06.866173  5043 net.cpp:408] conv_8project_conv_8project/sum_0_split -> conv_8project_conv_8project/sum_0_split_0
I0421 21:58:06.866178  5043 net.cpp:408] conv_8project_conv_8project/sum_0_split -> conv_8project_conv_8project/sum_0_split_1
I0421 21:58:06.866205  5043 net.cpp:150] Setting up conv_8project_conv_8project/sum_0_split
I0421 21:58:06.866211  5043 net.cpp:157] Top shape: 2 64 19 19 (46208)
I0421 21:58:06.866215  5043 net.cpp:157] Top shape: 2 64 19 19 (46208)
I0421 21:58:06.866219  5043 net.cpp:165] Memory required for data: 325542624
I0421 21:58:06.866222  5043 layer_factory.hpp:77] Creating layer conv_9/expand
I0421 21:58:06.866230  5043 net.cpp:100] Creating Layer conv_9/expand
I0421 21:58:06.866233  5043 net.cpp:434] conv_9/expand <- conv_8project_conv_8project/sum_0_split_0
I0421 21:58:06.866238  5043 net.cpp:408] conv_9/expand -> conv_9/expand
I0421 21:58:06.867430  5043 net.cpp:150] Setting up conv_9/expand
I0421 21:58:06.867442  5043 net.cpp:157] Top shape: 2 384 19 19 (277248)
I0421 21:58:06.867446  5043 net.cpp:165] Memory required for data: 326651616
I0421 21:58:06.867452  5043 layer_factory.hpp:77] Creating layer conv_9/expand/bn
I0421 21:58:06.867458  5043 net.cpp:100] Creating Layer conv_9/expand/bn
I0421 21:58:06.867471  5043 net.cpp:434] conv_9/expand/bn <- conv_9/expand
I0421 21:58:06.867477  5043 net.cpp:395] conv_9/expand/bn -> conv_9/expand (in-place)
I0421 21:58:06.867660  5043 net.cpp:150] Setting up conv_9/expand/bn
I0421 21:58:06.867667  5043 net.cpp:157] Top shape: 2 384 19 19 (277248)
I0421 21:58:06.867671  5043 net.cpp:165] Memory required for data: 327760608
I0421 21:58:06.867678  5043 layer_factory.hpp:77] Creating layer conv_9/expand/scale
I0421 21:58:06.867691  5043 net.cpp:100] Creating Layer conv_9/expand/scale
I0421 21:58:06.867696  5043 net.cpp:434] conv_9/expand/scale <- conv_9/expand
I0421 21:58:06.867699  5043 net.cpp:395] conv_9/expand/scale -> conv_9/expand (in-place)
I0421 21:58:06.867739  5043 layer_factory.hpp:77] Creating layer conv_9/expand/scale
I0421 21:58:06.867827  5043 net.cpp:150] Setting up conv_9/expand/scale
I0421 21:58:06.867835  5043 net.cpp:157] Top shape: 2 384 19 19 (277248)
I0421 21:58:06.867837  5043 net.cpp:165] Memory required for data: 328869600
I0421 21:58:06.867843  5043 layer_factory.hpp:77] Creating layer conv_9/expand/relu
I0421 21:58:06.867849  5043 net.cpp:100] Creating Layer conv_9/expand/relu
I0421 21:58:06.867853  5043 net.cpp:434] conv_9/expand/relu <- conv_9/expand
I0421 21:58:06.867857  5043 net.cpp:395] conv_9/expand/relu -> conv_9/expand (in-place)
I0421 21:58:06.868001  5043 net.cpp:150] Setting up conv_9/expand/relu
I0421 21:58:06.868010  5043 net.cpp:157] Top shape: 2 384 19 19 (277248)
I0421 21:58:06.868013  5043 net.cpp:165] Memory required for data: 329978592
I0421 21:58:06.868017  5043 layer_factory.hpp:77] Creating layer conv_9/depthwise
I0421 21:58:06.868024  5043 net.cpp:100] Creating Layer conv_9/depthwise
I0421 21:58:06.868028  5043 net.cpp:434] conv_9/depthwise <- conv_9/expand
I0421 21:58:06.868033  5043 net.cpp:408] conv_9/depthwise -> conv_9/depthwise
I0421 21:58:06.868229  5043 net.cpp:150] Setting up conv_9/depthwise
I0421 21:58:06.868237  5043 net.cpp:157] Top shape: 2 384 19 19 (277248)
I0421 21:58:06.868240  5043 net.cpp:165] Memory required for data: 331087584
I0421 21:58:06.868245  5043 layer_factory.hpp:77] Creating layer conv_9/depthwise/bn
I0421 21:58:06.868250  5043 net.cpp:100] Creating Layer conv_9/depthwise/bn
I0421 21:58:06.868254  5043 net.cpp:434] conv_9/depthwise/bn <- conv_9/depthwise
I0421 21:58:06.868259  5043 net.cpp:395] conv_9/depthwise/bn -> conv_9/depthwise (in-place)
I0421 21:58:06.868427  5043 net.cpp:150] Setting up conv_9/depthwise/bn
I0421 21:58:06.868432  5043 net.cpp:157] Top shape: 2 384 19 19 (277248)
I0421 21:58:06.868436  5043 net.cpp:165] Memory required for data: 332196576
I0421 21:58:06.868443  5043 layer_factory.hpp:77] Creating layer conv_9/depthwise/scale
I0421 21:58:06.868448  5043 net.cpp:100] Creating Layer conv_9/depthwise/scale
I0421 21:58:06.868453  5043 net.cpp:434] conv_9/depthwise/scale <- conv_9/depthwise
I0421 21:58:06.868458  5043 net.cpp:395] conv_9/depthwise/scale -> conv_9/depthwise (in-place)
I0421 21:58:06.868489  5043 layer_factory.hpp:77] Creating layer conv_9/depthwise/scale
I0421 21:58:06.868592  5043 net.cpp:150] Setting up conv_9/depthwise/scale
I0421 21:58:06.868598  5043 net.cpp:157] Top shape: 2 384 19 19 (277248)
I0421 21:58:06.868602  5043 net.cpp:165] Memory required for data: 333305568
I0421 21:58:06.868608  5043 layer_factory.hpp:77] Creating layer conv_9/depthwise/relu
I0421 21:58:06.868613  5043 net.cpp:100] Creating Layer conv_9/depthwise/relu
I0421 21:58:06.868618  5043 net.cpp:434] conv_9/depthwise/relu <- conv_9/depthwise
I0421 21:58:06.868623  5043 net.cpp:395] conv_9/depthwise/relu -> conv_9/depthwise (in-place)
I0421 21:58:06.868954  5043 net.cpp:150] Setting up conv_9/depthwise/relu
I0421 21:58:06.868965  5043 net.cpp:157] Top shape: 2 384 19 19 (277248)
I0421 21:58:06.868969  5043 net.cpp:165] Memory required for data: 334414560
I0421 21:58:06.868973  5043 layer_factory.hpp:77] Creating layer conv_9/project
I0421 21:58:06.868980  5043 net.cpp:100] Creating Layer conv_9/project
I0421 21:58:06.868985  5043 net.cpp:434] conv_9/project <- conv_9/depthwise
I0421 21:58:06.868999  5043 net.cpp:408] conv_9/project -> conv_9/project
I0421 21:58:06.870199  5043 net.cpp:150] Setting up conv_9/project
I0421 21:58:06.870211  5043 net.cpp:157] Top shape: 2 64 19 19 (46208)
I0421 21:58:06.870215  5043 net.cpp:165] Memory required for data: 334599392
I0421 21:58:06.870221  5043 layer_factory.hpp:77] Creating layer conv_9/project/bn
I0421 21:58:06.870227  5043 net.cpp:100] Creating Layer conv_9/project/bn
I0421 21:58:06.870231  5043 net.cpp:434] conv_9/project/bn <- conv_9/project
I0421 21:58:06.870236  5043 net.cpp:395] conv_9/project/bn -> conv_9/project (in-place)
I0421 21:58:06.870415  5043 net.cpp:150] Setting up conv_9/project/bn
I0421 21:58:06.870421  5043 net.cpp:157] Top shape: 2 64 19 19 (46208)
I0421 21:58:06.870424  5043 net.cpp:165] Memory required for data: 334784224
I0421 21:58:06.870430  5043 layer_factory.hpp:77] Creating layer conv_9/project/scale
I0421 21:58:06.870442  5043 net.cpp:100] Creating Layer conv_9/project/scale
I0421 21:58:06.870446  5043 net.cpp:434] conv_9/project/scale <- conv_9/project
I0421 21:58:06.870450  5043 net.cpp:395] conv_9/project/scale -> conv_9/project (in-place)
I0421 21:58:06.870483  5043 layer_factory.hpp:77] Creating layer conv_9/project/scale
I0421 21:58:06.870577  5043 net.cpp:150] Setting up conv_9/project/scale
I0421 21:58:06.870584  5043 net.cpp:157] Top shape: 2 64 19 19 (46208)
I0421 21:58:06.870586  5043 net.cpp:165] Memory required for data: 334969056
I0421 21:58:06.870591  5043 layer_factory.hpp:77] Creating layer conv_9project/sum
I0421 21:58:06.870596  5043 net.cpp:100] Creating Layer conv_9project/sum
I0421 21:58:06.870600  5043 net.cpp:434] conv_9project/sum <- conv_8project_conv_8project/sum_0_split_1
I0421 21:58:06.870605  5043 net.cpp:434] conv_9project/sum <- conv_9/project
I0421 21:58:06.870610  5043 net.cpp:408] conv_9project/sum -> conv_9project
I0421 21:58:06.870636  5043 net.cpp:150] Setting up conv_9project/sum
I0421 21:58:06.870642  5043 net.cpp:157] Top shape: 2 64 19 19 (46208)
I0421 21:58:06.870645  5043 net.cpp:165] Memory required for data: 335153888
I0421 21:58:06.870649  5043 layer_factory.hpp:77] Creating layer conv_10/expand
I0421 21:58:06.870661  5043 net.cpp:100] Creating Layer conv_10/expand
I0421 21:58:06.870664  5043 net.cpp:434] conv_10/expand <- conv_9project
I0421 21:58:06.870669  5043 net.cpp:408] conv_10/expand -> conv_10/expand
I0421 21:58:06.871897  5043 net.cpp:150] Setting up conv_10/expand
I0421 21:58:06.871911  5043 net.cpp:157] Top shape: 2 384 19 19 (277248)
I0421 21:58:06.871914  5043 net.cpp:165] Memory required for data: 336262880
I0421 21:58:06.871919  5043 layer_factory.hpp:77] Creating layer conv_10/expand/bn
I0421 21:58:06.871927  5043 net.cpp:100] Creating Layer conv_10/expand/bn
I0421 21:58:06.871930  5043 net.cpp:434] conv_10/expand/bn <- conv_10/expand
I0421 21:58:06.871935  5043 net.cpp:395] conv_10/expand/bn -> conv_10/expand (in-place)
I0421 21:58:06.872108  5043 net.cpp:150] Setting up conv_10/expand/bn
I0421 21:58:06.872114  5043 net.cpp:157] Top shape: 2 384 19 19 (277248)
I0421 21:58:06.872117  5043 net.cpp:165] Memory required for data: 337371872
I0421 21:58:06.872123  5043 layer_factory.hpp:77] Creating layer conv_10/expand/scale
I0421 21:58:06.872129  5043 net.cpp:100] Creating Layer conv_10/expand/scale
I0421 21:58:06.872133  5043 net.cpp:434] conv_10/expand/scale <- conv_10/expand
I0421 21:58:06.872138  5043 net.cpp:395] conv_10/expand/scale -> conv_10/expand (in-place)
I0421 21:58:06.872177  5043 layer_factory.hpp:77] Creating layer conv_10/expand/scale
I0421 21:58:06.872272  5043 net.cpp:150] Setting up conv_10/expand/scale
I0421 21:58:06.872284  5043 net.cpp:157] Top shape: 2 384 19 19 (277248)
I0421 21:58:06.872294  5043 net.cpp:165] Memory required for data: 338480864
I0421 21:58:06.872304  5043 layer_factory.hpp:77] Creating layer conv_10/expand/relu
I0421 21:58:06.872309  5043 net.cpp:100] Creating Layer conv_10/expand/relu
I0421 21:58:06.872313  5043 net.cpp:434] conv_10/expand/relu <- conv_10/expand
I0421 21:58:06.872318  5043 net.cpp:395] conv_10/expand/relu -> conv_10/expand (in-place)
I0421 21:58:06.872669  5043 net.cpp:150] Setting up conv_10/expand/relu
I0421 21:58:06.872680  5043 net.cpp:157] Top shape: 2 384 19 19 (277248)
I0421 21:58:06.872684  5043 net.cpp:165] Memory required for data: 339589856
I0421 21:58:06.872686  5043 layer_factory.hpp:77] Creating layer conv_10/depthwise
I0421 21:58:06.872710  5043 net.cpp:100] Creating Layer conv_10/depthwise
I0421 21:58:06.872725  5043 net.cpp:434] conv_10/depthwise <- conv_10/expand
I0421 21:58:06.872730  5043 net.cpp:408] conv_10/depthwise -> conv_10/depthwise
I0421 21:58:06.872946  5043 net.cpp:150] Setting up conv_10/depthwise
I0421 21:58:06.872953  5043 net.cpp:157] Top shape: 2 384 19 19 (277248)
I0421 21:58:06.872956  5043 net.cpp:165] Memory required for data: 340698848
I0421 21:58:06.872961  5043 layer_factory.hpp:77] Creating layer conv_10/depthwise/bn
I0421 21:58:06.872965  5043 net.cpp:100] Creating Layer conv_10/depthwise/bn
I0421 21:58:06.872969  5043 net.cpp:434] conv_10/depthwise/bn <- conv_10/depthwise
I0421 21:58:06.872973  5043 net.cpp:395] conv_10/depthwise/bn -> conv_10/depthwise (in-place)
I0421 21:58:06.873139  5043 net.cpp:150] Setting up conv_10/depthwise/bn
I0421 21:58:06.873145  5043 net.cpp:157] Top shape: 2 384 19 19 (277248)
I0421 21:58:06.873148  5043 net.cpp:165] Memory required for data: 341807840
I0421 21:58:06.873153  5043 layer_factory.hpp:77] Creating layer conv_10/depthwise/scale
I0421 21:58:06.873159  5043 net.cpp:100] Creating Layer conv_10/depthwise/scale
I0421 21:58:06.873163  5043 net.cpp:434] conv_10/depthwise/scale <- conv_10/depthwise
I0421 21:58:06.873167  5043 net.cpp:395] conv_10/depthwise/scale -> conv_10/depthwise (in-place)
I0421 21:58:06.873199  5043 layer_factory.hpp:77] Creating layer conv_10/depthwise/scale
I0421 21:58:06.873301  5043 net.cpp:150] Setting up conv_10/depthwise/scale
I0421 21:58:06.873308  5043 net.cpp:157] Top shape: 2 384 19 19 (277248)
I0421 21:58:06.873311  5043 net.cpp:165] Memory required for data: 342916832
I0421 21:58:06.873316  5043 layer_factory.hpp:77] Creating layer conv_10/depthwise/relu
I0421 21:58:06.873327  5043 net.cpp:100] Creating Layer conv_10/depthwise/relu
I0421 21:58:06.873332  5043 net.cpp:434] conv_10/depthwise/relu <- conv_10/depthwise
I0421 21:58:06.873335  5043 net.cpp:395] conv_10/depthwise/relu -> conv_10/depthwise (in-place)
I0421 21:58:06.873473  5043 net.cpp:150] Setting up conv_10/depthwise/relu
I0421 21:58:06.873481  5043 net.cpp:157] Top shape: 2 384 19 19 (277248)
I0421 21:58:06.873484  5043 net.cpp:165] Memory required for data: 344025824
I0421 21:58:06.873487  5043 layer_factory.hpp:77] Creating layer conv_10/project
I0421 21:58:06.873494  5043 net.cpp:100] Creating Layer conv_10/project
I0421 21:58:06.873498  5043 net.cpp:434] conv_10/project <- conv_10/depthwise
I0421 21:58:06.873504  5043 net.cpp:408] conv_10/project -> conv_10/project
I0421 21:58:06.874817  5043 net.cpp:150] Setting up conv_10/project
I0421 21:58:06.874830  5043 net.cpp:157] Top shape: 2 96 19 19 (69312)
I0421 21:58:06.874833  5043 net.cpp:165] Memory required for data: 344303072
I0421 21:58:06.874840  5043 layer_factory.hpp:77] Creating layer conv_10/project/bn
I0421 21:58:06.874850  5043 net.cpp:100] Creating Layer conv_10/project/bn
I0421 21:58:06.874855  5043 net.cpp:434] conv_10/project/bn <- conv_10/project
I0421 21:58:06.874860  5043 net.cpp:395] conv_10/project/bn -> conv_10/project (in-place)
I0421 21:58:06.875057  5043 net.cpp:150] Setting up conv_10/project/bn
I0421 21:58:06.875064  5043 net.cpp:157] Top shape: 2 96 19 19 (69312)
I0421 21:58:06.875077  5043 net.cpp:165] Memory required for data: 344580320
I0421 21:58:06.875084  5043 layer_factory.hpp:77] Creating layer conv_10/project/scale
I0421 21:58:06.875090  5043 net.cpp:100] Creating Layer conv_10/project/scale
I0421 21:58:06.875093  5043 net.cpp:434] conv_10/project/scale <- conv_10/project
I0421 21:58:06.875098  5043 net.cpp:395] conv_10/project/scale -> conv_10/project (in-place)
I0421 21:58:06.875131  5043 layer_factory.hpp:77] Creating layer conv_10/project/scale
I0421 21:58:06.875236  5043 net.cpp:150] Setting up conv_10/project/scale
I0421 21:58:06.875252  5043 net.cpp:157] Top shape: 2 96 19 19 (69312)
I0421 21:58:06.875255  5043 net.cpp:165] Memory required for data: 344857568
I0421 21:58:06.875262  5043 layer_factory.hpp:77] Creating layer conv_10/project_conv_10/project/scale_0_split
I0421 21:58:06.875267  5043 net.cpp:100] Creating Layer conv_10/project_conv_10/project/scale_0_split
I0421 21:58:06.875272  5043 net.cpp:434] conv_10/project_conv_10/project/scale_0_split <- conv_10/project
I0421 21:58:06.875277  5043 net.cpp:408] conv_10/project_conv_10/project/scale_0_split -> conv_10/project_conv_10/project/scale_0_split_0
I0421 21:58:06.875283  5043 net.cpp:408] conv_10/project_conv_10/project/scale_0_split -> conv_10/project_conv_10/project/scale_0_split_1
I0421 21:58:06.875320  5043 net.cpp:150] Setting up conv_10/project_conv_10/project/scale_0_split
I0421 21:58:06.875327  5043 net.cpp:157] Top shape: 2 96 19 19 (69312)
I0421 21:58:06.875331  5043 net.cpp:157] Top shape: 2 96 19 19 (69312)
I0421 21:58:06.875335  5043 net.cpp:165] Memory required for data: 345412064
I0421 21:58:06.875339  5043 layer_factory.hpp:77] Creating layer conv_11/expand
I0421 21:58:06.875345  5043 net.cpp:100] Creating Layer conv_11/expand
I0421 21:58:06.875350  5043 net.cpp:434] conv_11/expand <- conv_10/project_conv_10/project/scale_0_split_0
I0421 21:58:06.875355  5043 net.cpp:408] conv_11/expand -> conv_11/expand
I0421 21:58:06.877374  5043 net.cpp:150] Setting up conv_11/expand
I0421 21:58:06.877388  5043 net.cpp:157] Top shape: 2 576 19 19 (415872)
I0421 21:58:06.877393  5043 net.cpp:165] Memory required for data: 347075552
I0421 21:58:06.877398  5043 layer_factory.hpp:77] Creating layer conv_11/expand/bn
I0421 21:58:06.877404  5043 net.cpp:100] Creating Layer conv_11/expand/bn
I0421 21:58:06.877409  5043 net.cpp:434] conv_11/expand/bn <- conv_11/expand
I0421 21:58:06.877414  5043 net.cpp:395] conv_11/expand/bn -> conv_11/expand (in-place)
I0421 21:58:06.877605  5043 net.cpp:150] Setting up conv_11/expand/bn
I0421 21:58:06.877614  5043 net.cpp:157] Top shape: 2 576 19 19 (415872)
I0421 21:58:06.877616  5043 net.cpp:165] Memory required for data: 348739040
I0421 21:58:06.877624  5043 layer_factory.hpp:77] Creating layer conv_11/expand/scale
I0421 21:58:06.877630  5043 net.cpp:100] Creating Layer conv_11/expand/scale
I0421 21:58:06.877635  5043 net.cpp:434] conv_11/expand/scale <- conv_11/expand
I0421 21:58:06.877640  5043 net.cpp:395] conv_11/expand/scale -> conv_11/expand (in-place)
I0421 21:58:06.877674  5043 layer_factory.hpp:77] Creating layer conv_11/expand/scale
I0421 21:58:06.877785  5043 net.cpp:150] Setting up conv_11/expand/scale
I0421 21:58:06.877792  5043 net.cpp:157] Top shape: 2 576 19 19 (415872)
I0421 21:58:06.877796  5043 net.cpp:165] Memory required for data: 350402528
I0421 21:58:06.877801  5043 layer_factory.hpp:77] Creating layer conv_11/expand/relu
I0421 21:58:06.877807  5043 net.cpp:100] Creating Layer conv_11/expand/relu
I0421 21:58:06.877811  5043 net.cpp:434] conv_11/expand/relu <- conv_11/expand
I0421 21:58:06.877816  5043 net.cpp:395] conv_11/expand/relu -> conv_11/expand (in-place)
I0421 21:58:06.878151  5043 net.cpp:150] Setting up conv_11/expand/relu
I0421 21:58:06.878162  5043 net.cpp:157] Top shape: 2 576 19 19 (415872)
I0421 21:58:06.878165  5043 net.cpp:165] Memory required for data: 352066016
I0421 21:58:06.878170  5043 layer_factory.hpp:77] Creating layer conv_11/depthwise
I0421 21:58:06.878177  5043 net.cpp:100] Creating Layer conv_11/depthwise
I0421 21:58:06.878182  5043 net.cpp:434] conv_11/depthwise <- conv_11/expand
I0421 21:58:06.878187  5043 net.cpp:408] conv_11/depthwise -> conv_11/depthwise
I0421 21:58:06.878407  5043 net.cpp:150] Setting up conv_11/depthwise
I0421 21:58:06.878413  5043 net.cpp:157] Top shape: 2 576 19 19 (415872)
I0421 21:58:06.878417  5043 net.cpp:165] Memory required for data: 353729504
I0421 21:58:06.878422  5043 layer_factory.hpp:77] Creating layer conv_11/depthwise/bn
I0421 21:58:06.878427  5043 net.cpp:100] Creating Layer conv_11/depthwise/bn
I0421 21:58:06.878442  5043 net.cpp:434] conv_11/depthwise/bn <- conv_11/depthwise
I0421 21:58:06.878448  5043 net.cpp:395] conv_11/depthwise/bn -> conv_11/depthwise (in-place)
I0421 21:58:06.878639  5043 net.cpp:150] Setting up conv_11/depthwise/bn
I0421 21:58:06.878645  5043 net.cpp:157] Top shape: 2 576 19 19 (415872)
I0421 21:58:06.878649  5043 net.cpp:165] Memory required for data: 355392992
I0421 21:58:06.878655  5043 layer_factory.hpp:77] Creating layer conv_11/depthwise/scale
I0421 21:58:06.878661  5043 net.cpp:100] Creating Layer conv_11/depthwise/scale
I0421 21:58:06.878666  5043 net.cpp:434] conv_11/depthwise/scale <- conv_11/depthwise
I0421 21:58:06.878670  5043 net.cpp:395] conv_11/depthwise/scale -> conv_11/depthwise (in-place)
I0421 21:58:06.878705  5043 layer_factory.hpp:77] Creating layer conv_11/depthwise/scale
I0421 21:58:06.878811  5043 net.cpp:150] Setting up conv_11/depthwise/scale
I0421 21:58:06.878818  5043 net.cpp:157] Top shape: 2 576 19 19 (415872)
I0421 21:58:06.878821  5043 net.cpp:165] Memory required for data: 357056480
I0421 21:58:06.878828  5043 layer_factory.hpp:77] Creating layer conv_11/depthwise/relu
I0421 21:58:06.878832  5043 net.cpp:100] Creating Layer conv_11/depthwise/relu
I0421 21:58:06.878837  5043 net.cpp:434] conv_11/depthwise/relu <- conv_11/depthwise
I0421 21:58:06.878841  5043 net.cpp:395] conv_11/depthwise/relu -> conv_11/depthwise (in-place)
I0421 21:58:06.878973  5043 net.cpp:150] Setting up conv_11/depthwise/relu
I0421 21:58:06.878980  5043 net.cpp:157] Top shape: 2 576 19 19 (415872)
I0421 21:58:06.878984  5043 net.cpp:165] Memory required for data: 358719968
I0421 21:58:06.878989  5043 layer_factory.hpp:77] Creating layer conv_11/project
I0421 21:58:06.878996  5043 net.cpp:100] Creating Layer conv_11/project
I0421 21:58:06.879000  5043 net.cpp:434] conv_11/project <- conv_11/depthwise
I0421 21:58:06.879005  5043 net.cpp:408] conv_11/project -> conv_11/project
I0421 21:58:06.880671  5043 net.cpp:150] Setting up conv_11/project
I0421 21:58:06.880683  5043 net.cpp:157] Top shape: 2 96 19 19 (69312)
I0421 21:58:06.880687  5043 net.cpp:165] Memory required for data: 358997216
I0421 21:58:06.880693  5043 layer_factory.hpp:77] Creating layer conv_11/project/bn
I0421 21:58:06.880700  5043 net.cpp:100] Creating Layer conv_11/project/bn
I0421 21:58:06.880704  5043 net.cpp:434] conv_11/project/bn <- conv_11/project
I0421 21:58:06.880709  5043 net.cpp:395] conv_11/project/bn -> conv_11/project (in-place)
I0421 21:58:06.880904  5043 net.cpp:150] Setting up conv_11/project/bn
I0421 21:58:06.880911  5043 net.cpp:157] Top shape: 2 96 19 19 (69312)
I0421 21:58:06.880914  5043 net.cpp:165] Memory required for data: 359274464
I0421 21:58:06.880921  5043 layer_factory.hpp:77] Creating layer conv_11/project/scale
I0421 21:58:06.880928  5043 net.cpp:100] Creating Layer conv_11/project/scale
I0421 21:58:06.880931  5043 net.cpp:434] conv_11/project/scale <- conv_11/project
I0421 21:58:06.880936  5043 net.cpp:395] conv_11/project/scale -> conv_11/project (in-place)
I0421 21:58:06.880970  5043 layer_factory.hpp:77] Creating layer conv_11/project/scale
I0421 21:58:06.881085  5043 net.cpp:150] Setting up conv_11/project/scale
I0421 21:58:06.881093  5043 net.cpp:157] Top shape: 2 96 19 19 (69312)
I0421 21:58:06.881095  5043 net.cpp:165] Memory required for data: 359551712
I0421 21:58:06.881101  5043 layer_factory.hpp:77] Creating layer conv_11project/sum
I0421 21:58:06.881106  5043 net.cpp:100] Creating Layer conv_11project/sum
I0421 21:58:06.881110  5043 net.cpp:434] conv_11project/sum <- conv_10/project_conv_10/project/scale_0_split_1
I0421 21:58:06.881115  5043 net.cpp:434] conv_11project/sum <- conv_11/project
I0421 21:58:06.881129  5043 net.cpp:408] conv_11project/sum -> conv_11project
I0421 21:58:06.881150  5043 net.cpp:150] Setting up conv_11project/sum
I0421 21:58:06.881155  5043 net.cpp:157] Top shape: 2 96 19 19 (69312)
I0421 21:58:06.881160  5043 net.cpp:165] Memory required for data: 359828960
I0421 21:58:06.881163  5043 layer_factory.hpp:77] Creating layer conv_11project_conv_11project/sum_0_split
I0421 21:58:06.881176  5043 net.cpp:100] Creating Layer conv_11project_conv_11project/sum_0_split
I0421 21:58:06.881181  5043 net.cpp:434] conv_11project_conv_11project/sum_0_split <- conv_11project
I0421 21:58:06.881186  5043 net.cpp:408] conv_11project_conv_11project/sum_0_split -> conv_11project_conv_11project/sum_0_split_0
I0421 21:58:06.881192  5043 net.cpp:408] conv_11project_conv_11project/sum_0_split -> conv_11project_conv_11project/sum_0_split_1
I0421 21:58:06.881233  5043 net.cpp:150] Setting up conv_11project_conv_11project/sum_0_split
I0421 21:58:06.881239  5043 net.cpp:157] Top shape: 2 96 19 19 (69312)
I0421 21:58:06.881253  5043 net.cpp:157] Top shape: 2 96 19 19 (69312)
I0421 21:58:06.881258  5043 net.cpp:165] Memory required for data: 360383456
I0421 21:58:06.881261  5043 layer_factory.hpp:77] Creating layer conv_12/expand
I0421 21:58:06.881268  5043 net.cpp:100] Creating Layer conv_12/expand
I0421 21:58:06.881273  5043 net.cpp:434] conv_12/expand <- conv_11project_conv_11project/sum_0_split_0
I0421 21:58:06.881278  5043 net.cpp:408] conv_12/expand -> conv_12/expand
I0421 21:58:06.882781  5043 net.cpp:150] Setting up conv_12/expand
I0421 21:58:06.882792  5043 net.cpp:157] Top shape: 2 576 19 19 (415872)
I0421 21:58:06.882797  5043 net.cpp:165] Memory required for data: 362046944
I0421 21:58:06.882802  5043 layer_factory.hpp:77] Creating layer conv_12/expand/bn
I0421 21:58:06.882808  5043 net.cpp:100] Creating Layer conv_12/expand/bn
I0421 21:58:06.882812  5043 net.cpp:434] conv_12/expand/bn <- conv_12/expand
I0421 21:58:06.882817  5043 net.cpp:395] conv_12/expand/bn -> conv_12/expand (in-place)
I0421 21:58:06.883008  5043 net.cpp:150] Setting up conv_12/expand/bn
I0421 21:58:06.883014  5043 net.cpp:157] Top shape: 2 576 19 19 (415872)
I0421 21:58:06.883018  5043 net.cpp:165] Memory required for data: 363710432
I0421 21:58:06.883024  5043 layer_factory.hpp:77] Creating layer conv_12/expand/scale
I0421 21:58:06.883030  5043 net.cpp:100] Creating Layer conv_12/expand/scale
I0421 21:58:06.883034  5043 net.cpp:434] conv_12/expand/scale <- conv_12/expand
I0421 21:58:06.883039  5043 net.cpp:395] conv_12/expand/scale -> conv_12/expand (in-place)
I0421 21:58:06.883074  5043 layer_factory.hpp:77] Creating layer conv_12/expand/scale
I0421 21:58:06.883178  5043 net.cpp:150] Setting up conv_12/expand/scale
I0421 21:58:06.883185  5043 net.cpp:157] Top shape: 2 576 19 19 (415872)
I0421 21:58:06.883188  5043 net.cpp:165] Memory required for data: 365373920
I0421 21:58:06.883194  5043 layer_factory.hpp:77] Creating layer conv_12/expand/relu
I0421 21:58:06.883199  5043 net.cpp:100] Creating Layer conv_12/expand/relu
I0421 21:58:06.883204  5043 net.cpp:434] conv_12/expand/relu <- conv_12/expand
I0421 21:58:06.883208  5043 net.cpp:395] conv_12/expand/relu -> conv_12/expand (in-place)
I0421 21:58:06.883555  5043 net.cpp:150] Setting up conv_12/expand/relu
I0421 21:58:06.883565  5043 net.cpp:157] Top shape: 2 576 19 19 (415872)
I0421 21:58:06.883570  5043 net.cpp:165] Memory required for data: 367037408
I0421 21:58:06.883574  5043 layer_factory.hpp:77] Creating layer conv_12/depthwise
I0421 21:58:06.883582  5043 net.cpp:100] Creating Layer conv_12/depthwise
I0421 21:58:06.883586  5043 net.cpp:434] conv_12/depthwise <- conv_12/expand
I0421 21:58:06.883592  5043 net.cpp:408] conv_12/depthwise -> conv_12/depthwise
I0421 21:58:06.883843  5043 net.cpp:150] Setting up conv_12/depthwise
I0421 21:58:06.883850  5043 net.cpp:157] Top shape: 2 576 19 19 (415872)
I0421 21:58:06.883853  5043 net.cpp:165] Memory required for data: 368700896
I0421 21:58:06.883869  5043 layer_factory.hpp:77] Creating layer conv_12/depthwise/bn
I0421 21:58:06.883874  5043 net.cpp:100] Creating Layer conv_12/depthwise/bn
I0421 21:58:06.883879  5043 net.cpp:434] conv_12/depthwise/bn <- conv_12/depthwise
I0421 21:58:06.883883  5043 net.cpp:395] conv_12/depthwise/bn -> conv_12/depthwise (in-place)
I0421 21:58:06.884065  5043 net.cpp:150] Setting up conv_12/depthwise/bn
I0421 21:58:06.884071  5043 net.cpp:157] Top shape: 2 576 19 19 (415872)
I0421 21:58:06.884083  5043 net.cpp:165] Memory required for data: 370364384
I0421 21:58:06.884090  5043 layer_factory.hpp:77] Creating layer conv_12/depthwise/scale
I0421 21:58:06.884097  5043 net.cpp:100] Creating Layer conv_12/depthwise/scale
I0421 21:58:06.884101  5043 net.cpp:434] conv_12/depthwise/scale <- conv_12/depthwise
I0421 21:58:06.884106  5043 net.cpp:395] conv_12/depthwise/scale -> conv_12/depthwise (in-place)
I0421 21:58:06.884142  5043 layer_factory.hpp:77] Creating layer conv_12/depthwise/scale
I0421 21:58:06.884248  5043 net.cpp:150] Setting up conv_12/depthwise/scale
I0421 21:58:06.884255  5043 net.cpp:157] Top shape: 2 576 19 19 (415872)
I0421 21:58:06.884259  5043 net.cpp:165] Memory required for data: 372027872
I0421 21:58:06.884265  5043 layer_factory.hpp:77] Creating layer conv_12/depthwise/relu
I0421 21:58:06.884270  5043 net.cpp:100] Creating Layer conv_12/depthwise/relu
I0421 21:58:06.884274  5043 net.cpp:434] conv_12/depthwise/relu <- conv_12/depthwise
I0421 21:58:06.884279  5043 net.cpp:395] conv_12/depthwise/relu -> conv_12/depthwise (in-place)
I0421 21:58:06.884627  5043 net.cpp:150] Setting up conv_12/depthwise/relu
I0421 21:58:06.884639  5043 net.cpp:157] Top shape: 2 576 19 19 (415872)
I0421 21:58:06.884641  5043 net.cpp:165] Memory required for data: 373691360
I0421 21:58:06.884646  5043 layer_factory.hpp:77] Creating layer conv_12/project
I0421 21:58:06.884660  5043 net.cpp:100] Creating Layer conv_12/project
I0421 21:58:06.884665  5043 net.cpp:434] conv_12/project <- conv_12/depthwise
I0421 21:58:06.884671  5043 net.cpp:408] conv_12/project -> conv_12/project
I0421 21:58:06.886157  5043 net.cpp:150] Setting up conv_12/project
I0421 21:58:06.886169  5043 net.cpp:157] Top shape: 2 96 19 19 (69312)
I0421 21:58:06.886173  5043 net.cpp:165] Memory required for data: 373968608
I0421 21:58:06.886179  5043 layer_factory.hpp:77] Creating layer conv_12/project/bn
I0421 21:58:06.886186  5043 net.cpp:100] Creating Layer conv_12/project/bn
I0421 21:58:06.886190  5043 net.cpp:434] conv_12/project/bn <- conv_12/project
I0421 21:58:06.886195  5043 net.cpp:395] conv_12/project/bn -> conv_12/project (in-place)
I0421 21:58:06.886379  5043 net.cpp:150] Setting up conv_12/project/bn
I0421 21:58:06.886384  5043 net.cpp:157] Top shape: 2 96 19 19 (69312)
I0421 21:58:06.886389  5043 net.cpp:165] Memory required for data: 374245856
I0421 21:58:06.886394  5043 layer_factory.hpp:77] Creating layer conv_12/project/scale
I0421 21:58:06.886401  5043 net.cpp:100] Creating Layer conv_12/project/scale
I0421 21:58:06.886405  5043 net.cpp:434] conv_12/project/scale <- conv_12/project
I0421 21:58:06.886410  5043 net.cpp:395] conv_12/project/scale -> conv_12/project (in-place)
I0421 21:58:06.886442  5043 layer_factory.hpp:77] Creating layer conv_12/project/scale
I0421 21:58:06.886549  5043 net.cpp:150] Setting up conv_12/project/scale
I0421 21:58:06.886556  5043 net.cpp:157] Top shape: 2 96 19 19 (69312)
I0421 21:58:06.886559  5043 net.cpp:165] Memory required for data: 374523104
I0421 21:58:06.886565  5043 layer_factory.hpp:77] Creating layer conv_12project/sum
I0421 21:58:06.886570  5043 net.cpp:100] Creating Layer conv_12project/sum
I0421 21:58:06.886575  5043 net.cpp:434] conv_12project/sum <- conv_11project_conv_11project/sum_0_split_1
I0421 21:58:06.886579  5043 net.cpp:434] conv_12project/sum <- conv_12/project
I0421 21:58:06.886584  5043 net.cpp:408] conv_12project/sum -> conv_12project
I0421 21:58:06.886605  5043 net.cpp:150] Setting up conv_12project/sum
I0421 21:58:06.886610  5043 net.cpp:157] Top shape: 2 96 19 19 (69312)
I0421 21:58:06.886613  5043 net.cpp:165] Memory required for data: 374800352
I0421 21:58:06.886617  5043 layer_factory.hpp:77] Creating layer conv_13/expand
I0421 21:58:06.886624  5043 net.cpp:100] Creating Layer conv_13/expand
I0421 21:58:06.886628  5043 net.cpp:434] conv_13/expand <- conv_12project
I0421 21:58:06.886633  5043 net.cpp:408] conv_13/expand -> conv_13/expand
I0421 21:58:06.888686  5043 net.cpp:150] Setting up conv_13/expand
I0421 21:58:06.888702  5043 net.cpp:157] Top shape: 2 576 19 19 (415872)
I0421 21:58:06.888727  5043 net.cpp:165] Memory required for data: 376463840
I0421 21:58:06.888743  5043 layer_factory.hpp:77] Creating layer conv_13/expand/bn
I0421 21:58:06.888751  5043 net.cpp:100] Creating Layer conv_13/expand/bn
I0421 21:58:06.888754  5043 net.cpp:434] conv_13/expand/bn <- conv_13/expand
I0421 21:58:06.888761  5043 net.cpp:395] conv_13/expand/bn -> conv_13/expand (in-place)
I0421 21:58:06.888955  5043 net.cpp:150] Setting up conv_13/expand/bn
I0421 21:58:06.888962  5043 net.cpp:157] Top shape: 2 576 19 19 (415872)
I0421 21:58:06.888975  5043 net.cpp:165] Memory required for data: 378127328
I0421 21:58:06.888981  5043 layer_factory.hpp:77] Creating layer conv_13/expand/scale
I0421 21:58:06.888988  5043 net.cpp:100] Creating Layer conv_13/expand/scale
I0421 21:58:06.888991  5043 net.cpp:434] conv_13/expand/scale <- conv_13/expand
I0421 21:58:06.888995  5043 net.cpp:395] conv_13/expand/scale -> conv_13/expand (in-place)
I0421 21:58:06.889034  5043 layer_factory.hpp:77] Creating layer conv_13/expand/scale
I0421 21:58:06.889145  5043 net.cpp:150] Setting up conv_13/expand/scale
I0421 21:58:06.889153  5043 net.cpp:157] Top shape: 2 576 19 19 (415872)
I0421 21:58:06.889155  5043 net.cpp:165] Memory required for data: 379790816
I0421 21:58:06.889159  5043 layer_factory.hpp:77] Creating layer conv_13/expand/relu
I0421 21:58:06.889164  5043 net.cpp:100] Creating Layer conv_13/expand/relu
I0421 21:58:06.889168  5043 net.cpp:434] conv_13/expand/relu <- conv_13/expand
I0421 21:58:06.889173  5043 net.cpp:395] conv_13/expand/relu -> conv_13/expand (in-place)
I0421 21:58:06.889309  5043 net.cpp:150] Setting up conv_13/expand/relu
I0421 21:58:06.889317  5043 net.cpp:157] Top shape: 2 576 19 19 (415872)
I0421 21:58:06.889320  5043 net.cpp:165] Memory required for data: 381454304
I0421 21:58:06.889323  5043 layer_factory.hpp:77] Creating layer conv_13/expand_conv_13/expand/relu_0_split
I0421 21:58:06.889328  5043 net.cpp:100] Creating Layer conv_13/expand_conv_13/expand/relu_0_split
I0421 21:58:06.889333  5043 net.cpp:434] conv_13/expand_conv_13/expand/relu_0_split <- conv_13/expand
I0421 21:58:06.889339  5043 net.cpp:408] conv_13/expand_conv_13/expand/relu_0_split -> conv_13/expand_conv_13/expand/relu_0_split_0
I0421 21:58:06.889345  5043 net.cpp:408] conv_13/expand_conv_13/expand/relu_0_split -> conv_13/expand_conv_13/expand/relu_0_split_1
I0421 21:58:06.889350  5043 net.cpp:408] conv_13/expand_conv_13/expand/relu_0_split -> conv_13/expand_conv_13/expand/relu_0_split_2
I0421 21:58:06.889356  5043 net.cpp:408] conv_13/expand_conv_13/expand/relu_0_split -> conv_13/expand_conv_13/expand/relu_0_split_3
I0421 21:58:06.889423  5043 net.cpp:150] Setting up conv_13/expand_conv_13/expand/relu_0_split
I0421 21:58:06.889430  5043 net.cpp:157] Top shape: 2 576 19 19 (415872)
I0421 21:58:06.889434  5043 net.cpp:157] Top shape: 2 576 19 19 (415872)
I0421 21:58:06.889438  5043 net.cpp:157] Top shape: 2 576 19 19 (415872)
I0421 21:58:06.889442  5043 net.cpp:157] Top shape: 2 576 19 19 (415872)
I0421 21:58:06.889446  5043 net.cpp:165] Memory required for data: 388108256
I0421 21:58:06.889451  5043 layer_factory.hpp:77] Creating layer conv_13/depthwise
I0421 21:58:06.889457  5043 net.cpp:100] Creating Layer conv_13/depthwise
I0421 21:58:06.889461  5043 net.cpp:434] conv_13/depthwise <- conv_13/expand_conv_13/expand/relu_0_split_0
I0421 21:58:06.889467  5043 net.cpp:408] conv_13/depthwise -> conv_13/depthwise
I0421 21:58:06.889716  5043 net.cpp:150] Setting up conv_13/depthwise
I0421 21:58:06.889727  5043 net.cpp:157] Top shape: 2 576 10 10 (115200)
I0421 21:58:06.889732  5043 net.cpp:165] Memory required for data: 388569056
I0421 21:58:06.889740  5043 layer_factory.hpp:77] Creating layer conv_13/depthwise/bn
I0421 21:58:06.889749  5043 net.cpp:100] Creating Layer conv_13/depthwise/bn
I0421 21:58:06.889753  5043 net.cpp:434] conv_13/depthwise/bn <- conv_13/depthwise
I0421 21:58:06.889760  5043 net.cpp:395] conv_13/depthwise/bn -> conv_13/depthwise (in-place)
I0421 21:58:06.889947  5043 net.cpp:150] Setting up conv_13/depthwise/bn
I0421 21:58:06.889966  5043 net.cpp:157] Top shape: 2 576 10 10 (115200)
I0421 21:58:06.889971  5043 net.cpp:165] Memory required for data: 389029856
I0421 21:58:06.889981  5043 layer_factory.hpp:77] Creating layer conv_13/depthwise/scale
I0421 21:58:06.889987  5043 net.cpp:100] Creating Layer conv_13/depthwise/scale
I0421 21:58:06.889992  5043 net.cpp:434] conv_13/depthwise/scale <- conv_13/depthwise
I0421 21:58:06.889998  5043 net.cpp:395] conv_13/depthwise/scale -> conv_13/depthwise (in-place)
I0421 21:58:06.890038  5043 layer_factory.hpp:77] Creating layer conv_13/depthwise/scale
I0421 21:58:06.890147  5043 net.cpp:150] Setting up conv_13/depthwise/scale
I0421 21:58:06.890156  5043 net.cpp:157] Top shape: 2 576 10 10 (115200)
I0421 21:58:06.890159  5043 net.cpp:165] Memory required for data: 389490656
I0421 21:58:06.890167  5043 layer_factory.hpp:77] Creating layer conv_13/depthwise/relu
I0421 21:58:06.890173  5043 net.cpp:100] Creating Layer conv_13/depthwise/relu
I0421 21:58:06.890178  5043 net.cpp:434] conv_13/depthwise/relu <- conv_13/depthwise
I0421 21:58:06.890184  5043 net.cpp:395] conv_13/depthwise/relu -> conv_13/depthwise (in-place)
I0421 21:58:06.890583  5043 net.cpp:150] Setting up conv_13/depthwise/relu
I0421 21:58:06.890595  5043 net.cpp:157] Top shape: 2 576 10 10 (115200)
I0421 21:58:06.890601  5043 net.cpp:165] Memory required for data: 389951456
I0421 21:58:06.890607  5043 layer_factory.hpp:77] Creating layer conv_13/project
I0421 21:58:06.890616  5043 net.cpp:100] Creating Layer conv_13/project
I0421 21:58:06.890621  5043 net.cpp:434] conv_13/project <- conv_13/depthwise
I0421 21:58:06.890626  5043 net.cpp:408] conv_13/project -> conv_13/project
I0421 21:58:06.893298  5043 net.cpp:150] Setting up conv_13/project
I0421 21:58:06.893324  5043 net.cpp:157] Top shape: 2 160 10 10 (32000)
I0421 21:58:06.893327  5043 net.cpp:165] Memory required for data: 390079456
I0421 21:58:06.893354  5043 layer_factory.hpp:77] Creating layer conv_13/project/bn
I0421 21:58:06.893380  5043 net.cpp:100] Creating Layer conv_13/project/bn
I0421 21:58:06.893386  5043 net.cpp:434] conv_13/project/bn <- conv_13/project
I0421 21:58:06.893393  5043 net.cpp:395] conv_13/project/bn -> conv_13/project (in-place)
I0421 21:58:06.893627  5043 net.cpp:150] Setting up conv_13/project/bn
I0421 21:58:06.893638  5043 net.cpp:157] Top shape: 2 160 10 10 (32000)
I0421 21:58:06.893643  5043 net.cpp:165] Memory required for data: 390207456
I0421 21:58:06.893652  5043 layer_factory.hpp:77] Creating layer conv_13/project/scale
I0421 21:58:06.893667  5043 net.cpp:100] Creating Layer conv_13/project/scale
I0421 21:58:06.893672  5043 net.cpp:434] conv_13/project/scale <- conv_13/project
I0421 21:58:06.893681  5043 net.cpp:395] conv_13/project/scale -> conv_13/project (in-place)
I0421 21:58:06.893724  5043 layer_factory.hpp:77] Creating layer conv_13/project/scale
I0421 21:58:06.893833  5043 net.cpp:150] Setting up conv_13/project/scale
I0421 21:58:06.893842  5043 net.cpp:157] Top shape: 2 160 10 10 (32000)
I0421 21:58:06.893846  5043 net.cpp:165] Memory required for data: 390335456
I0421 21:58:06.893854  5043 layer_factory.hpp:77] Creating layer conv_13/project_conv_13/project/scale_0_split
I0421 21:58:06.893862  5043 net.cpp:100] Creating Layer conv_13/project_conv_13/project/scale_0_split
I0421 21:58:06.893878  5043 net.cpp:434] conv_13/project_conv_13/project/scale_0_split <- conv_13/project
I0421 21:58:06.893887  5043 net.cpp:408] conv_13/project_conv_13/project/scale_0_split -> conv_13/project_conv_13/project/scale_0_split_0
I0421 21:58:06.893895  5043 net.cpp:408] conv_13/project_conv_13/project/scale_0_split -> conv_13/project_conv_13/project/scale_0_split_1
I0421 21:58:06.893940  5043 net.cpp:150] Setting up conv_13/project_conv_13/project/scale_0_split
I0421 21:58:06.893946  5043 net.cpp:157] Top shape: 2 160 10 10 (32000)
I0421 21:58:06.893960  5043 net.cpp:157] Top shape: 2 160 10 10 (32000)
I0421 21:58:06.893965  5043 net.cpp:165] Memory required for data: 390591456
I0421 21:58:06.893967  5043 layer_factory.hpp:77] Creating layer conv_14/expand
I0421 21:58:06.894019  5043 net.cpp:100] Creating Layer conv_14/expand
I0421 21:58:06.894026  5043 net.cpp:434] conv_14/expand <- conv_13/project_conv_13/project/scale_0_split_0
I0421 21:58:06.894031  5043 net.cpp:408] conv_14/expand -> conv_14/expand
I0421 21:58:06.896369  5043 net.cpp:150] Setting up conv_14/expand
I0421 21:58:06.896381  5043 net.cpp:157] Top shape: 2 960 10 10 (192000)
I0421 21:58:06.896384  5043 net.cpp:165] Memory required for data: 391359456
I0421 21:58:06.896389  5043 layer_factory.hpp:77] Creating layer conv_14/expand/bn
I0421 21:58:06.896396  5043 net.cpp:100] Creating Layer conv_14/expand/bn
I0421 21:58:06.896400  5043 net.cpp:434] conv_14/expand/bn <- conv_14/expand
I0421 21:58:06.896405  5043 net.cpp:395] conv_14/expand/bn -> conv_14/expand (in-place)
I0421 21:58:06.896607  5043 net.cpp:150] Setting up conv_14/expand/bn
I0421 21:58:06.896615  5043 net.cpp:157] Top shape: 2 960 10 10 (192000)
I0421 21:58:06.896618  5043 net.cpp:165] Memory required for data: 392127456
I0421 21:58:06.896625  5043 layer_factory.hpp:77] Creating layer conv_14/expand/scale
I0421 21:58:06.896631  5043 net.cpp:100] Creating Layer conv_14/expand/scale
I0421 21:58:06.896636  5043 net.cpp:434] conv_14/expand/scale <- conv_14/expand
I0421 21:58:06.896641  5043 net.cpp:395] conv_14/expand/scale -> conv_14/expand (in-place)
I0421 21:58:06.896677  5043 layer_factory.hpp:77] Creating layer conv_14/expand/scale
I0421 21:58:06.896778  5043 net.cpp:150] Setting up conv_14/expand/scale
I0421 21:58:06.896785  5043 net.cpp:157] Top shape: 2 960 10 10 (192000)
I0421 21:58:06.896788  5043 net.cpp:165] Memory required for data: 392895456
I0421 21:58:06.896808  5043 layer_factory.hpp:77] Creating layer conv_14/expand/relu
I0421 21:58:06.896814  5043 net.cpp:100] Creating Layer conv_14/expand/relu
I0421 21:58:06.896819  5043 net.cpp:434] conv_14/expand/relu <- conv_14/expand
I0421 21:58:06.896823  5043 net.cpp:395] conv_14/expand/relu -> conv_14/expand (in-place)
I0421 21:58:06.896970  5043 net.cpp:150] Setting up conv_14/expand/relu
I0421 21:58:06.896978  5043 net.cpp:157] Top shape: 2 960 10 10 (192000)
I0421 21:58:06.896982  5043 net.cpp:165] Memory required for data: 393663456
I0421 21:58:06.896986  5043 layer_factory.hpp:77] Creating layer conv_14/depthwise
I0421 21:58:06.896993  5043 net.cpp:100] Creating Layer conv_14/depthwise
I0421 21:58:06.896997  5043 net.cpp:434] conv_14/depthwise <- conv_14/expand
I0421 21:58:06.897003  5043 net.cpp:408] conv_14/depthwise -> conv_14/depthwise
I0421 21:58:06.897260  5043 net.cpp:150] Setting up conv_14/depthwise
I0421 21:58:06.897267  5043 net.cpp:157] Top shape: 2 960 10 10 (192000)
I0421 21:58:06.897271  5043 net.cpp:165] Memory required for data: 394431456
I0421 21:58:06.897275  5043 layer_factory.hpp:77] Creating layer conv_14/depthwise/bn
I0421 21:58:06.897286  5043 net.cpp:100] Creating Layer conv_14/depthwise/bn
I0421 21:58:06.897291  5043 net.cpp:434] conv_14/depthwise/bn <- conv_14/depthwise
I0421 21:58:06.897296  5043 net.cpp:395] conv_14/depthwise/bn -> conv_14/depthwise (in-place)
I0421 21:58:06.897485  5043 net.cpp:150] Setting up conv_14/depthwise/bn
I0421 21:58:06.897490  5043 net.cpp:157] Top shape: 2 960 10 10 (192000)
I0421 21:58:06.897495  5043 net.cpp:165] Memory required for data: 395199456
I0421 21:58:06.897500  5043 layer_factory.hpp:77] Creating layer conv_14/depthwise/scale
I0421 21:58:06.897506  5043 net.cpp:100] Creating Layer conv_14/depthwise/scale
I0421 21:58:06.897511  5043 net.cpp:434] conv_14/depthwise/scale <- conv_14/depthwise
I0421 21:58:06.897516  5043 net.cpp:395] conv_14/depthwise/scale -> conv_14/depthwise (in-place)
I0421 21:58:06.897552  5043 layer_factory.hpp:77] Creating layer conv_14/depthwise/scale
I0421 21:58:06.897657  5043 net.cpp:150] Setting up conv_14/depthwise/scale
I0421 21:58:06.897665  5043 net.cpp:157] Top shape: 2 960 10 10 (192000)
I0421 21:58:06.897668  5043 net.cpp:165] Memory required for data: 395967456
I0421 21:58:06.897675  5043 layer_factory.hpp:77] Creating layer conv_14/depthwise/relu
I0421 21:58:06.897689  5043 net.cpp:100] Creating Layer conv_14/depthwise/relu
I0421 21:58:06.897693  5043 net.cpp:434] conv_14/depthwise/relu <- conv_14/depthwise
I0421 21:58:06.897698  5043 net.cpp:395] conv_14/depthwise/relu -> conv_14/depthwise (in-place)
I0421 21:58:06.898051  5043 net.cpp:150] Setting up conv_14/depthwise/relu
I0421 21:58:06.898061  5043 net.cpp:157] Top shape: 2 960 10 10 (192000)
I0421 21:58:06.898066  5043 net.cpp:165] Memory required for data: 396735456
I0421 21:58:06.898070  5043 layer_factory.hpp:77] Creating layer conv_14/project
I0421 21:58:06.898095  5043 net.cpp:100] Creating Layer conv_14/project
I0421 21:58:06.898102  5043 net.cpp:434] conv_14/project <- conv_14/depthwise
I0421 21:58:06.898111  5043 net.cpp:408] conv_14/project -> conv_14/project
I0421 21:58:06.901157  5043 net.cpp:150] Setting up conv_14/project
I0421 21:58:06.901181  5043 net.cpp:157] Top shape: 2 160 10 10 (32000)
I0421 21:58:06.901185  5043 net.cpp:165] Memory required for data: 396863456
I0421 21:58:06.901193  5043 layer_factory.hpp:77] Creating layer conv_14/project/bn
I0421 21:58:06.901203  5043 net.cpp:100] Creating Layer conv_14/project/bn
I0421 21:58:06.901209  5043 net.cpp:434] conv_14/project/bn <- conv_14/project
I0421 21:58:06.901217  5043 net.cpp:395] conv_14/project/bn -> conv_14/project (in-place)
I0421 21:58:06.901450  5043 net.cpp:150] Setting up conv_14/project/bn
I0421 21:58:06.901460  5043 net.cpp:157] Top shape: 2 160 10 10 (32000)
I0421 21:58:06.901464  5043 net.cpp:165] Memory required for data: 396991456
I0421 21:58:06.901473  5043 layer_factory.hpp:77] Creating layer conv_14/project/scale
I0421 21:58:06.901480  5043 net.cpp:100] Creating Layer conv_14/project/scale
I0421 21:58:06.901485  5043 net.cpp:434] conv_14/project/scale <- conv_14/project
I0421 21:58:06.901491  5043 net.cpp:395] conv_14/project/scale -> conv_14/project (in-place)
I0421 21:58:06.901533  5043 layer_factory.hpp:77] Creating layer conv_14/project/scale
I0421 21:58:06.901675  5043 net.cpp:150] Setting up conv_14/project/scale
I0421 21:58:06.901684  5043 net.cpp:157] Top shape: 2 160 10 10 (32000)
I0421 21:58:06.901700  5043 net.cpp:165] Memory required for data: 397119456
I0421 21:58:06.901705  5043 layer_factory.hpp:77] Creating layer conv_14project/sum
I0421 21:58:06.901710  5043 net.cpp:100] Creating Layer conv_14project/sum
I0421 21:58:06.901715  5043 net.cpp:434] conv_14project/sum <- conv_13/project_conv_13/project/scale_0_split_1
I0421 21:58:06.901720  5043 net.cpp:434] conv_14project/sum <- conv_14/project
I0421 21:58:06.901723  5043 net.cpp:408] conv_14project/sum -> conv_14project
I0421 21:58:06.901746  5043 net.cpp:150] Setting up conv_14project/sum
I0421 21:58:06.901751  5043 net.cpp:157] Top shape: 2 160 10 10 (32000)
I0421 21:58:06.901754  5043 net.cpp:165] Memory required for data: 397247456
I0421 21:58:06.901758  5043 layer_factory.hpp:77] Creating layer conv_14project_conv_14project/sum_0_split
I0421 21:58:06.901764  5043 net.cpp:100] Creating Layer conv_14project_conv_14project/sum_0_split
I0421 21:58:06.901768  5043 net.cpp:434] conv_14project_conv_14project/sum_0_split <- conv_14project
I0421 21:58:06.901773  5043 net.cpp:408] conv_14project_conv_14project/sum_0_split -> conv_14project_conv_14project/sum_0_split_0
I0421 21:58:06.901779  5043 net.cpp:408] conv_14project_conv_14project/sum_0_split -> conv_14project_conv_14project/sum_0_split_1
I0421 21:58:06.901809  5043 net.cpp:150] Setting up conv_14project_conv_14project/sum_0_split
I0421 21:58:06.901815  5043 net.cpp:157] Top shape: 2 160 10 10 (32000)
I0421 21:58:06.901820  5043 net.cpp:157] Top shape: 2 160 10 10 (32000)
I0421 21:58:06.901823  5043 net.cpp:165] Memory required for data: 397503456
I0421 21:58:06.901829  5043 layer_factory.hpp:77] Creating layer conv_15/expand
I0421 21:58:06.901837  5043 net.cpp:100] Creating Layer conv_15/expand
I0421 21:58:06.901841  5043 net.cpp:434] conv_15/expand <- conv_14project_conv_14project/sum_0_split_0
I0421 21:58:06.901855  5043 net.cpp:408] conv_15/expand -> conv_15/expand
I0421 21:58:06.904785  5043 net.cpp:150] Setting up conv_15/expand
I0421 21:58:06.904817  5043 net.cpp:157] Top shape: 2 960 10 10 (192000)
I0421 21:58:06.904822  5043 net.cpp:165] Memory required for data: 398271456
I0421 21:58:06.904829  5043 layer_factory.hpp:77] Creating layer conv_15/expand/bn
I0421 21:58:06.904835  5043 net.cpp:100] Creating Layer conv_15/expand/bn
I0421 21:58:06.904840  5043 net.cpp:434] conv_15/expand/bn <- conv_15/expand
I0421 21:58:06.904846  5043 net.cpp:395] conv_15/expand/bn -> conv_15/expand (in-place)
I0421 21:58:06.905046  5043 net.cpp:150] Setting up conv_15/expand/bn
I0421 21:58:06.905052  5043 net.cpp:157] Top shape: 2 960 10 10 (192000)
I0421 21:58:06.905056  5043 net.cpp:165] Memory required for data: 399039456
I0421 21:58:06.905063  5043 layer_factory.hpp:77] Creating layer conv_15/expand/scale
I0421 21:58:06.905071  5043 net.cpp:100] Creating Layer conv_15/expand/scale
I0421 21:58:06.905076  5043 net.cpp:434] conv_15/expand/scale <- conv_15/expand
I0421 21:58:06.905081  5043 net.cpp:395] conv_15/expand/scale -> conv_15/expand (in-place)
I0421 21:58:06.905129  5043 layer_factory.hpp:77] Creating layer conv_15/expand/scale
I0421 21:58:06.905234  5043 net.cpp:150] Setting up conv_15/expand/scale
I0421 21:58:06.905241  5043 net.cpp:157] Top shape: 2 960 10 10 (192000)
I0421 21:58:06.905244  5043 net.cpp:165] Memory required for data: 399807456
I0421 21:58:06.905251  5043 layer_factory.hpp:77] Creating layer conv_15/expand/relu
I0421 21:58:06.905261  5043 net.cpp:100] Creating Layer conv_15/expand/relu
I0421 21:58:06.905266  5043 net.cpp:434] conv_15/expand/relu <- conv_15/expand
I0421 21:58:06.905270  5043 net.cpp:395] conv_15/expand/relu -> conv_15/expand (in-place)
I0421 21:58:06.905625  5043 net.cpp:150] Setting up conv_15/expand/relu
I0421 21:58:06.905643  5043 net.cpp:157] Top shape: 2 960 10 10 (192000)
I0421 21:58:06.905647  5043 net.cpp:165] Memory required for data: 400575456
I0421 21:58:06.905652  5043 layer_factory.hpp:77] Creating layer conv_15/depthwise
I0421 21:58:06.905660  5043 net.cpp:100] Creating Layer conv_15/depthwise
I0421 21:58:06.905664  5043 net.cpp:434] conv_15/depthwise <- conv_15/expand
I0421 21:58:06.905670  5043 net.cpp:408] conv_15/depthwise -> conv_15/depthwise
I0421 21:58:06.905942  5043 net.cpp:150] Setting up conv_15/depthwise
I0421 21:58:06.905949  5043 net.cpp:157] Top shape: 2 960 10 10 (192000)
I0421 21:58:06.905952  5043 net.cpp:165] Memory required for data: 401343456
I0421 21:58:06.905957  5043 layer_factory.hpp:77] Creating layer conv_15/depthwise/bn
I0421 21:58:06.905963  5043 net.cpp:100] Creating Layer conv_15/depthwise/bn
I0421 21:58:06.905967  5043 net.cpp:434] conv_15/depthwise/bn <- conv_15/depthwise
I0421 21:58:06.905972  5043 net.cpp:395] conv_15/depthwise/bn -> conv_15/depthwise (in-place)
I0421 21:58:06.906160  5043 net.cpp:150] Setting up conv_15/depthwise/bn
I0421 21:58:06.906167  5043 net.cpp:157] Top shape: 2 960 10 10 (192000)
I0421 21:58:06.906170  5043 net.cpp:165] Memory required for data: 402111456
I0421 21:58:06.906177  5043 layer_factory.hpp:77] Creating layer conv_15/depthwise/scale
I0421 21:58:06.906183  5043 net.cpp:100] Creating Layer conv_15/depthwise/scale
I0421 21:58:06.906188  5043 net.cpp:434] conv_15/depthwise/scale <- conv_15/depthwise
I0421 21:58:06.906193  5043 net.cpp:395] conv_15/depthwise/scale -> conv_15/depthwise (in-place)
I0421 21:58:06.906229  5043 layer_factory.hpp:77] Creating layer conv_15/depthwise/scale
I0421 21:58:06.906338  5043 net.cpp:150] Setting up conv_15/depthwise/scale
I0421 21:58:06.906345  5043 net.cpp:157] Top shape: 2 960 10 10 (192000)
I0421 21:58:06.906348  5043 net.cpp:165] Memory required for data: 402879456
I0421 21:58:06.906354  5043 layer_factory.hpp:77] Creating layer conv_15/depthwise/relu
I0421 21:58:06.906359  5043 net.cpp:100] Creating Layer conv_15/depthwise/relu
I0421 21:58:06.906363  5043 net.cpp:434] conv_15/depthwise/relu <- conv_15/depthwise
I0421 21:58:06.906368  5043 net.cpp:395] conv_15/depthwise/relu -> conv_15/depthwise (in-place)
I0421 21:58:06.906508  5043 net.cpp:150] Setting up conv_15/depthwise/relu
I0421 21:58:06.906525  5043 net.cpp:157] Top shape: 2 960 10 10 (192000)
I0421 21:58:06.906529  5043 net.cpp:165] Memory required for data: 403647456
I0421 21:58:06.906534  5043 layer_factory.hpp:77] Creating layer conv_15/project
I0421 21:58:06.906541  5043 net.cpp:100] Creating Layer conv_15/project
I0421 21:58:06.906546  5043 net.cpp:434] conv_15/project <- conv_15/depthwise
I0421 21:58:06.906551  5043 net.cpp:408] conv_15/project -> conv_15/project
I0421 21:58:06.910392  5043 net.cpp:150] Setting up conv_15/project
I0421 21:58:06.910413  5043 net.cpp:157] Top shape: 2 160 10 10 (32000)
I0421 21:58:06.910418  5043 net.cpp:165] Memory required for data: 403775456
I0421 21:58:06.910424  5043 layer_factory.hpp:77] Creating layer conv_15/project/bn
I0421 21:58:06.910434  5043 net.cpp:100] Creating Layer conv_15/project/bn
I0421 21:58:06.910439  5043 net.cpp:434] conv_15/project/bn <- conv_15/project
I0421 21:58:06.910444  5043 net.cpp:395] conv_15/project/bn -> conv_15/project (in-place)
I0421 21:58:06.910662  5043 net.cpp:150] Setting up conv_15/project/bn
I0421 21:58:06.910670  5043 net.cpp:157] Top shape: 2 160 10 10 (32000)
I0421 21:58:06.910673  5043 net.cpp:165] Memory required for data: 403903456
I0421 21:58:06.910679  5043 layer_factory.hpp:77] Creating layer conv_15/project/scale
I0421 21:58:06.910686  5043 net.cpp:100] Creating Layer conv_15/project/scale
I0421 21:58:06.910691  5043 net.cpp:434] conv_15/project/scale <- conv_15/project
I0421 21:58:06.910697  5043 net.cpp:395] conv_15/project/scale -> conv_15/project (in-place)
I0421 21:58:06.910738  5043 layer_factory.hpp:77] Creating layer conv_15/project/scale
I0421 21:58:06.910902  5043 net.cpp:150] Setting up conv_15/project/scale
I0421 21:58:06.910917  5043 net.cpp:157] Top shape: 2 160 10 10 (32000)
I0421 21:58:06.910923  5043 net.cpp:165] Memory required for data: 404031456
I0421 21:58:06.910933  5043 layer_factory.hpp:77] Creating layer conv_15project/sum
I0421 21:58:06.910943  5043 net.cpp:100] Creating Layer conv_15project/sum
I0421 21:58:06.910951  5043 net.cpp:434] conv_15project/sum <- conv_14project_conv_14project/sum_0_split_1
I0421 21:58:06.910959  5043 net.cpp:434] conv_15project/sum <- conv_15/project
I0421 21:58:06.910967  5043 net.cpp:408] conv_15project/sum -> conv_15project
I0421 21:58:06.911006  5043 net.cpp:150] Setting up conv_15project/sum
I0421 21:58:06.911018  5043 net.cpp:157] Top shape: 2 160 10 10 (32000)
I0421 21:58:06.911025  5043 net.cpp:165] Memory required for data: 404159456
I0421 21:58:06.911031  5043 layer_factory.hpp:77] Creating layer conv_16/expand
I0421 21:58:06.911041  5043 net.cpp:100] Creating Layer conv_16/expand
I0421 21:58:06.911046  5043 net.cpp:434] conv_16/expand <- conv_15project
I0421 21:58:06.911056  5043 net.cpp:408] conv_16/expand -> conv_16/expand
I0421 21:58:06.914136  5043 net.cpp:150] Setting up conv_16/expand
I0421 21:58:06.914153  5043 net.cpp:157] Top shape: 2 960 10 10 (192000)
I0421 21:58:06.914160  5043 net.cpp:165] Memory required for data: 404927456
I0421 21:58:06.914170  5043 layer_factory.hpp:77] Creating layer conv_16/expand/bn
I0421 21:58:06.914180  5043 net.cpp:100] Creating Layer conv_16/expand/bn
I0421 21:58:06.914186  5043 net.cpp:434] conv_16/expand/bn <- conv_16/expand
I0421 21:58:06.914193  5043 net.cpp:395] conv_16/expand/bn -> conv_16/expand (in-place)
I0421 21:58:06.914398  5043 net.cpp:150] Setting up conv_16/expand/bn
I0421 21:58:06.914407  5043 net.cpp:157] Top shape: 2 960 10 10 (192000)
I0421 21:58:06.914412  5043 net.cpp:165] Memory required for data: 405695456
I0421 21:58:06.914422  5043 layer_factory.hpp:77] Creating layer conv_16/expand/scale
I0421 21:58:06.914430  5043 net.cpp:100] Creating Layer conv_16/expand/scale
I0421 21:58:06.914436  5043 net.cpp:434] conv_16/expand/scale <- conv_16/expand
I0421 21:58:06.914449  5043 net.cpp:395] conv_16/expand/scale -> conv_16/expand (in-place)
I0421 21:58:06.914491  5043 layer_factory.hpp:77] Creating layer conv_16/expand/scale
I0421 21:58:06.914603  5043 net.cpp:150] Setting up conv_16/expand/scale
I0421 21:58:06.914609  5043 net.cpp:157] Top shape: 2 960 10 10 (192000)
I0421 21:58:06.914630  5043 net.cpp:165] Memory required for data: 406463456
I0421 21:58:06.914636  5043 layer_factory.hpp:77] Creating layer conv_16/expand/relu
I0421 21:58:06.914643  5043 net.cpp:100] Creating Layer conv_16/expand/relu
I0421 21:58:06.914646  5043 net.cpp:434] conv_16/expand/relu <- conv_16/expand
I0421 21:58:06.914650  5043 net.cpp:395] conv_16/expand/relu -> conv_16/expand (in-place)
I0421 21:58:06.915022  5043 net.cpp:150] Setting up conv_16/expand/relu
I0421 21:58:06.915035  5043 net.cpp:157] Top shape: 2 960 10 10 (192000)
I0421 21:58:06.915041  5043 net.cpp:165] Memory required for data: 407231456
I0421 21:58:06.915047  5043 layer_factory.hpp:77] Creating layer conv_16/depthwise
I0421 21:58:06.915060  5043 net.cpp:100] Creating Layer conv_16/depthwise
I0421 21:58:06.915066  5043 net.cpp:434] conv_16/depthwise <- conv_16/expand
I0421 21:58:06.915073  5043 net.cpp:408] conv_16/depthwise -> conv_16/depthwise
I0421 21:58:06.915343  5043 net.cpp:150] Setting up conv_16/depthwise
I0421 21:58:06.915350  5043 net.cpp:157] Top shape: 2 960 10 10 (192000)
I0421 21:58:06.915354  5043 net.cpp:165] Memory required for data: 407999456
I0421 21:58:06.915359  5043 layer_factory.hpp:77] Creating layer conv_16/depthwise/bn
I0421 21:58:06.915364  5043 net.cpp:100] Creating Layer conv_16/depthwise/bn
I0421 21:58:06.915367  5043 net.cpp:434] conv_16/depthwise/bn <- conv_16/depthwise
I0421 21:58:06.915372  5043 net.cpp:395] conv_16/depthwise/bn -> conv_16/depthwise (in-place)
I0421 21:58:06.915570  5043 net.cpp:150] Setting up conv_16/depthwise/bn
I0421 21:58:06.915576  5043 net.cpp:157] Top shape: 2 960 10 10 (192000)
I0421 21:58:06.915593  5043 net.cpp:165] Memory required for data: 408767456
…
I0421 21:58:07.133757  5043 net.cpp:150] Setting up layer_19_2_3/bn
I0421 21:58:07.133767  5043 net.cpp:157] Top shape: 3 256 3 3 (6912)
I0421 21:58:07.133772  5043 net.cpp:165] Memory required for data: 631924160
I0421 21:58:07.133783  5043 layer_factory.hpp:77] Creating layer layer_19_2_3/scale
I0421 21:58:07.133795  5043 net.cpp:100] Creating Layer layer_19_2_3/scale
I0421 21:58:07.133818  5043 net.cpp:434] layer_19_2_3/scale <- layer_19_2_3
I0421 21:58:07.133828  5043 net.cpp:395] layer_19_2_3/scale -> layer_19_2_3 (in-place)
I0421 21:58:07.133874  5043 layer_factory.hpp:77] Creating layer layer_19_2_3/scale
I0421 21:58:07.133973  5043 net.cpp:150] Setting up layer_19_2_3/scale
I0421 21:58:07.133982  5043 net.cpp:157] Top shape: 3 256 3 3 (6912)
I0421 21:58:07.133988  5043 net.cpp:165] Memory required for data: 631951808
I0421 21:58:07.133997  5043 layer_factory.hpp:77] Creating layer layer_19_2_3/relu
I0421 21:58:07.134006  5043 net.cpp:100] Creating Layer layer_19_2_3/relu
I0421 21:58:07.134013  5043 net.cpp:434] layer_19_2_3/relu <- layer_19_2_3
I0421 21:58:07.134021  5043 net.cpp:395] layer_19_2_3/relu -> layer_19_2_3 (in-place)
I0421 21:58:07.134215  5043 net.cpp:150] Setting up layer_19_2_3/relu
I0421 21:58:07.134225  5043 net.cpp:157] Top shape: 3 256 3 3 (6912)
I0421 21:58:07.134232  5043 net.cpp:165] Memory required for data: 631979456
I0421 21:58:07.134238  5043 layer_factory.hpp:77] Creating layer layer_19_2_3_layer_19_2_3/relu_0_split
I0421 21:58:07.134248  5043 net.cpp:100] Creating Layer layer_19_2_3_layer_19_2_3/relu_0_split
I0421 21:58:07.134254  5043 net.cpp:434] layer_19_2_3_layer_19_2_3/relu_0_split <- layer_19_2_3
I0421 21:58:07.134263  5043 net.cpp:408] layer_19_2_3_layer_19_2_3/relu_0_split -> layer_19_2_3_layer_19_2_3/relu_0_split_0
I0421 21:58:07.134275  5043 net.cpp:408] layer_19_2_3_layer_19_2_3/relu_0_split -> layer_19_2_3_layer_19_2_3/relu_0_split_1
I0421 21:58:07.134285  5043 net.cpp:408] layer_19_2_3_layer_19_2_3/relu_0_split -> layer_19_2_3_layer_19_2_3/relu_0_split_2
I0421 21:58:07.134294  5043 net.cpp:408] layer_19_2_3_layer_19_2_3/relu_0_split -> layer_19_2_3_layer_19_2_3/relu_0_split_3
I0421 21:58:07.134371  5043 net.cpp:150] Setting up layer_19_2_3_layer_19_2_3/relu_0_split
I0421 21:58:07.134378  5043 net.cpp:157] Top shape: 3 256 3 3 (6912)
I0421 21:58:07.134384  5043 net.cpp:157] Top shape: 3 256 3 3 (6912)
I0421 21:58:07.134392  5043 net.cpp:157] Top shape: 3 256 3 3 (6912)
I0421 21:58:07.134398  5043 net.cpp:157] Top shape: 3 256 3 3 (6912)
I0421 21:58:07.134404  5043 net.cpp:165] Memory required for data: 632090048
I0421 21:58:07.134410  5043 layer_factory.hpp:77] Creating layer layer_19_1_4
I0421 21:58:07.134421  5043 net.cpp:100] Creating Layer layer_19_1_4
I0421 21:58:07.134429  5043 net.cpp:434] layer_19_1_4 <- layer_19_2_3_layer_19_2_3/relu_0_split_0
I0421 21:58:07.134438  5043 net.cpp:408] layer_19_1_4 -> layer_19_1_4
I0421 21:58:07.135890  5043 net.cpp:150] Setting up layer_19_1_4
I0421 21:58:07.135901  5043 net.cpp:157] Top shape: 3 128 3 3 (3456)
I0421 21:58:07.135905  5043 net.cpp:165] Memory required for data: 632103872
I0421 21:58:07.135910  5043 layer_factory.hpp:77] Creating layer layer_19_1_4/bn
I0421 21:58:07.135917  5043 net.cpp:100] Creating Layer layer_19_1_4/bn
I0421 21:58:07.135924  5043 net.cpp:434] layer_19_1_4/bn <- layer_19_1_4
I0421 21:58:07.135931  5043 net.cpp:395] layer_19_1_4/bn -> layer_19_1_4 (in-place)
I0421 21:58:07.136117  5043 net.cpp:150] Setting up layer_19_1_4/bn
I0421 21:58:07.136126  5043 net.cpp:157] Top shape: 3 128 3 3 (3456)
I0421 21:58:07.136138  5043 net.cpp:165] Memory required for data: 632117696
I0421 21:58:07.136145  5043 layer_factory.hpp:77] Creating layer layer_19_1_4/scale
I0421 21:58:07.136154  5043 net.cpp:100] Creating Layer layer_19_1_4/scale
I0421 21:58:07.136160  5043 net.cpp:434] layer_19_1_4/scale <- layer_19_1_4
I0421 21:58:07.136168  5043 net.cpp:395] layer_19_1_4/scale -> layer_19_1_4 (in-place)
I0421 21:58:07.136245  5043 layer_factory.hpp:77] Creating layer layer_19_1_4/scale
I0421 21:58:07.136366  5043 net.cpp:150] Setting up layer_19_1_4/scale
I0421 21:58:07.136375  5043 net.cpp:157] Top shape: 3 128 3 3 (3456)
I0421 21:58:07.136387  5043 net.cpp:165] Memory required for data: 632131520
I0421 21:58:07.136396  5043 layer_factory.hpp:77] Creating layer layer_19_1_4/relu
I0421 21:58:07.136404  5043 net.cpp:100] Creating Layer layer_19_1_4/relu
I0421 21:58:07.136411  5043 net.cpp:434] layer_19_1_4/relu <- layer_19_1_4
I0421 21:58:07.136435  5043 net.cpp:395] layer_19_1_4/relu -> layer_19_1_4 (in-place)
I0421 21:58:07.136837  5043 net.cpp:150] Setting up layer_19_1_4/relu
I0421 21:58:07.136849  5043 net.cpp:157] Top shape: 3 128 3 3 (3456)
I0421 21:58:07.136854  5043 net.cpp:165] Memory required for data: 632145344
I0421 21:58:07.136862  5043 layer_factory.hpp:77] Creating layer layer_19_2_4/depthwise
I0421 21:58:07.136873  5043 net.cpp:100] Creating Layer layer_19_2_4/depthwise
I0421 21:58:07.136880  5043 net.cpp:434] layer_19_2_4/depthwise <- layer_19_1_4
I0421 21:58:07.136889  5043 net.cpp:408] layer_19_2_4/depthwise -> layer_19_2_4/depthwise
I0421 21:58:07.137094  5043 net.cpp:150] Setting up layer_19_2_4/depthwise
I0421 21:58:07.137104  5043 net.cpp:157] Top shape: 3 128 2 2 (1536)
I0421 21:58:07.137109  5043 net.cpp:165] Memory required for data: 632151488
I0421 21:58:07.137117  5043 layer_factory.hpp:77] Creating layer layer_19_2_4/depthwise/bn
I0421 21:58:07.137125  5043 net.cpp:100] Creating Layer layer_19_2_4/depthwise/bn
I0421 21:58:07.137132  5043 net.cpp:434] layer_19_2_4/depthwise/bn <- layer_19_2_4/depthwise
I0421 21:58:07.137140  5043 net.cpp:395] layer_19_2_4/depthwise/bn -> layer_19_2_4/depthwise (in-place)
I0421 21:58:07.137310  5043 net.cpp:150] Setting up layer_19_2_4/depthwise/bn
I0421 21:58:07.137318  5043 net.cpp:157] Top shape: 3 128 2 2 (1536)
I0421 21:58:07.137320  5043 net.cpp:165] Memory required for data: 632157632
I0421 21:58:07.137326  5043 layer_factory.hpp:77] Creating layer layer_19_2_4/depthwise/scale
I0421 21:58:07.137336  5043 net.cpp:100] Creating Layer layer_19_2_4/depthwise/scale
I0421 21:58:07.137342  5043 net.cpp:434] layer_19_2_4/depthwise/scale <- layer_19_2_4/depthwise
I0421 21:58:07.137351  5043 net.cpp:395] layer_19_2_4/depthwise/scale -> layer_19_2_4/depthwise (in-place)
I0421 21:58:07.137393  5043 layer_factory.hpp:77] Creating layer layer_19_2_4/depthwise/scale
I0421 21:58:07.137500  5043 net.cpp:150] Setting up layer_19_2_4/depthwise/scale
I0421 21:58:07.137508  5043 net.cpp:157] Top shape: 3 128 2 2 (1536)
I0421 21:58:07.137513  5043 net.cpp:165] Memory required for data: 632163776
I0421 21:58:07.137522  5043 layer_factory.hpp:77] Creating layer layer_19_2_4/depthwise/relu
I0421 21:58:07.137531  5043 net.cpp:100] Creating Layer layer_19_2_4/depthwise/relu
I0421 21:58:07.137538  5043 net.cpp:434] layer_19_2_4/depthwise/relu <- layer_19_2_4/depthwise
I0421 21:58:07.137547  5043 net.cpp:395] layer_19_2_4/depthwise/relu -> layer_19_2_4/depthwise (in-place)
I0421 21:58:07.138161  5043 net.cpp:150] Setting up layer_19_2_4/depthwise/relu
I0421 21:58:07.138173  5043 net.cpp:157] Top shape: 3 128 2 2 (1536)
I0421 21:58:07.138176  5043 net.cpp:165] Memory required for data: 632169920
I0421 21:58:07.138180  5043 layer_factory.hpp:77] Creating layer layer_19_2_4
I0421 21:58:07.138190  5043 net.cpp:100] Creating Layer layer_19_2_4
I0421 21:58:07.138196  5043 net.cpp:434] layer_19_2_4 <- layer_19_2_4/depthwise
I0421 21:58:07.138203  5043 net.cpp:408] layer_19_2_4 -> layer_19_2_4
I0421 21:58:07.139612  5043 net.cpp:150] Setting up layer_19_2_4
I0421 21:58:07.139624  5043 net.cpp:157] Top shape: 3 256 2 2 (3072)
I0421 21:58:07.139627  5043 net.cpp:165] Memory required for data: 632182208
I0421 21:58:07.139632  5043 layer_factory.hpp:77] Creating layer layer_19_2_4/bn
I0421 21:58:07.139641  5043 net.cpp:100] Creating Layer layer_19_2_4/bn
I0421 21:58:07.139648  5043 net.cpp:434] layer_19_2_4/bn <- layer_19_2_4
I0421 21:58:07.139655  5043 net.cpp:395] layer_19_2_4/bn -> layer_19_2_4 (in-place)
I0421 21:58:07.139832  5043 net.cpp:150] Setting up layer_19_2_4/bn
I0421 21:58:07.139842  5043 net.cpp:157] Top shape: 3 256 2 2 (3072)
I0421 21:58:07.139847  5043 net.cpp:165] Memory required for data: 632194496
I0421 21:58:07.139858  5043 layer_factory.hpp:77] Creating layer layer_19_2_4/scale
I0421 21:58:07.139880  5043 net.cpp:100] Creating Layer layer_19_2_4/scale
I0421 21:58:07.139888  5043 net.cpp:434] layer_19_2_4/scale <- layer_19_2_4
I0421 21:58:07.139892  5043 net.cpp:395] layer_19_2_4/scale -> layer_19_2_4 (in-place)
I0421 21:58:07.139951  5043 layer_factory.hpp:77] Creating layer layer_19_2_4/scale
I0421 21:58:07.140049  5043 net.cpp:150] Setting up layer_19_2_4/scale
I0421 21:58:07.140058  5043 net.cpp:157] Top shape: 3 256 2 2 (3072)
I0421 21:58:07.140064  5043 net.cpp:165] Memory required for data: 632206784
I0421 21:58:07.140074  5043 layer_factory.hpp:77] Creating layer layer_19_2_4/relu
I0421 21:58:07.140081  5043 net.cpp:100] Creating Layer layer_19_2_4/relu
I0421 21:58:07.140089  5043 net.cpp:434] layer_19_2_4/relu <- layer_19_2_4
I0421 21:58:07.140096  5043 net.cpp:395] layer_19_2_4/relu -> layer_19_2_4 (in-place)
I0421 21:58:07.140264  5043 net.cpp:150] Setting up layer_19_2_4/relu
I0421 21:58:07.140274  5043 net.cpp:157] Top shape: 3 256 2 2 (3072)
I0421 21:58:07.140278  5043 net.cpp:165] Memory required for data: 632219072
I0421 21:58:07.140285  5043 layer_factory.hpp:77] Creating layer layer_19_2_4_layer_19_2_4/relu_0_split
I0421 21:58:07.140295  5043 net.cpp:100] Creating Layer layer_19_2_4_layer_19_2_4/relu_0_split
I0421 21:58:07.140302  5043 net.cpp:434] layer_19_2_4_layer_19_2_4/relu_0_split <- layer_19_2_4
I0421 21:58:07.140311  5043 net.cpp:408] layer_19_2_4_layer_19_2_4/relu_0_split -> layer_19_2_4_layer_19_2_4/relu_0_split_0
I0421 21:58:07.140321  5043 net.cpp:408] layer_19_2_4_layer_19_2_4/relu_0_split -> layer_19_2_4_layer_19_2_4/relu_0_split_1
I0421 21:58:07.140331  5043 net.cpp:408] layer_19_2_4_layer_19_2_4/relu_0_split -> layer_19_2_4_layer_19_2_4/relu_0_split_2
I0421 21:58:07.140341  5043 net.cpp:408] layer_19_2_4_layer_19_2_4/relu_0_split -> layer_19_2_4_layer_19_2_4/relu_0_split_3
I0421 21:58:07.140409  5043 net.cpp:150] Setting up layer_19_2_4_layer_19_2_4/relu_0_split
I0421 21:58:07.140417  5043 net.cpp:157] Top shape: 3 256 2 2 (3072)
I0421 21:58:07.140424  5043 net.cpp:157] Top shape: 3 256 2 2 (3072)
I0421 21:58:07.140431  5043 net.cpp:157] Top shape: 3 256 2 2 (3072)
I0421 21:58:07.140437  5043 net.cpp:157] Top shape: 3 256 2 2 (3072)
I0421 21:58:07.140444  5043 net.cpp:165] Memory required for data: 632268224
I0421 21:58:07.140450  5043 layer_factory.hpp:77] Creating layer layer_19_1_5
I0421 21:58:07.140460  5043 net.cpp:100] Creating Layer layer_19_1_5
I0421 21:58:07.140467  5043 net.cpp:434] layer_19_1_5 <- layer_19_2_4_layer_19_2_4/relu_0_split_0
I0421 21:58:07.140476  5043 net.cpp:408] layer_19_1_5 -> layer_19_1_5
I0421 21:58:07.141738  5043 net.cpp:150] Setting up layer_19_1_5
I0421 21:58:07.141752  5043 net.cpp:157] Top shape: 3 64 2 2 (768)
I0421 21:58:07.141757  5043 net.cpp:165] Memory required for data: 632271296
I0421 21:58:07.141767  5043 layer_factory.hpp:77] Creating layer layer_19_1_5/bn
I0421 21:58:07.141775  5043 net.cpp:100] Creating Layer layer_19_1_5/bn
I0421 21:58:07.141782  5043 net.cpp:434] layer_19_1_5/bn <- layer_19_1_5
I0421 21:58:07.141790  5043 net.cpp:395] layer_19_1_5/bn -> layer_19_1_5 (in-place)
I0421 21:58:07.141976  5043 net.cpp:150] Setting up layer_19_1_5/bn
I0421 21:58:07.141984  5043 net.cpp:157] Top shape: 3 64 2 2 (768)
I0421 21:58:07.141990  5043 net.cpp:165] Memory required for data: 632274368
I0421 21:58:07.142000  5043 layer_factory.hpp:77] Creating layer layer_19_1_5/scale
I0421 21:58:07.142038  5043 net.cpp:100] Creating Layer layer_19_1_5/scale
I0421 21:58:07.142045  5043 net.cpp:434] layer_19_1_5/scale <- layer_19_1_5
I0421 21:58:07.142052  5043 net.cpp:395] layer_19_1_5/scale -> layer_19_1_5 (in-place)
I0421 21:58:07.142097  5043 layer_factory.hpp:77] Creating layer layer_19_1_5/scale
I0421 21:58:07.142201  5043 net.cpp:150] Setting up layer_19_1_5/scale
I0421 21:58:07.142210  5043 net.cpp:157] Top shape: 3 64 2 2 (768)
I0421 21:58:07.142215  5043 net.cpp:165] Memory required for data: 632277440
I0421 21:58:07.142225  5043 layer_factory.hpp:77] Creating layer layer_19_1_5/relu
I0421 21:58:07.142233  5043 net.cpp:100] Creating Layer layer_19_1_5/relu
I0421 21:58:07.142241  5043 net.cpp:434] layer_19_1_5/relu <- layer_19_1_5
I0421 21:58:07.142248  5043 net.cpp:395] layer_19_1_5/relu -> layer_19_1_5 (in-place)
I0421 21:58:07.142666  5043 net.cpp:150] Setting up layer_19_1_5/relu
I0421 21:58:07.142678  5043 net.cpp:157] Top shape: 3 64 2 2 (768)
I0421 21:58:07.142680  5043 net.cpp:165] Memory required for data: 632280512
I0421 21:58:07.142684  5043 layer_factory.hpp:77] Creating layer layer_19_2_5/depthwise
I0421 21:58:07.142691  5043 net.cpp:100] Creating Layer layer_19_2_5/depthwise
I0421 21:58:07.142699  5043 net.cpp:434] layer_19_2_5/depthwise <- layer_19_1_5
I0421 21:58:07.142706  5043 net.cpp:408] layer_19_2_5/depthwise -> layer_19_2_5/depthwise
I0421 21:58:07.142904  5043 net.cpp:150] Setting up layer_19_2_5/depthwise
I0421 21:58:07.142913  5043 net.cpp:157] Top shape: 3 64 1 1 (192)
I0421 21:58:07.142916  5043 net.cpp:165] Memory required for data: 632281280
I0421 21:58:07.142920  5043 layer_factory.hpp:77] Creating layer layer_19_2_5/depthwise/bn
I0421 21:58:07.142928  5043 net.cpp:100] Creating Layer layer_19_2_5/depthwise/bn
I0421 21:58:07.142935  5043 net.cpp:434] layer_19_2_5/depthwise/bn <- layer_19_2_5/depthwise
I0421 21:58:07.142943  5043 net.cpp:395] layer_19_2_5/depthwise/bn -> layer_19_2_5/depthwise (in-place)
I0421 21:58:07.143118  5043 net.cpp:150] Setting up layer_19_2_5/depthwise/bn
I0421 21:58:07.143127  5043 net.cpp:157] Top shape: 3 64 1 1 (192)
I0421 21:58:07.143132  5043 net.cpp:165] Memory required for data: 632282048
I0421 21:58:07.143142  5043 layer_factory.hpp:77] Creating layer layer_19_2_5/depthwise/scale
I0421 21:58:07.143152  5043 net.cpp:100] Creating Layer layer_19_2_5/depthwise/scale
I0421 21:58:07.143159  5043 net.cpp:434] layer_19_2_5/depthwise/scale <- layer_19_2_5/depthwise
I0421 21:58:07.143175  5043 net.cpp:395] layer_19_2_5/depthwise/scale -> layer_19_2_5/depthwise (in-place)
I0421 21:58:07.143229  5043 layer_factory.hpp:77] Creating layer layer_19_2_5/depthwise/scale
I0421 21:58:07.143333  5043 net.cpp:150] Setting up layer_19_2_5/depthwise/scale
I0421 21:58:07.143342  5043 net.cpp:157] Top shape: 3 64 1 1 (192)
I0421 21:58:07.143347  5043 net.cpp:165] Memory required for data: 632282816
I0421 21:58:07.143357  5043 layer_factory.hpp:77] Creating layer layer_19_2_5/depthwise/relu
I0421 21:58:07.143365  5043 net.cpp:100] Creating Layer layer_19_2_5/depthwise/relu
I0421 21:58:07.143373  5043 net.cpp:434] layer_19_2_5/depthwise/relu <- layer_19_2_5/depthwise
I0421 21:58:07.143379  5043 net.cpp:395] layer_19_2_5/depthwise/relu -> layer_19_2_5/depthwise (in-place)
I0421 21:58:07.143549  5043 net.cpp:150] Setting up layer_19_2_5/depthwise/relu
I0421 21:58:07.143558  5043 net.cpp:157] Top shape: 3 64 1 1 (192)
I0421 21:58:07.143564  5043 net.cpp:165] Memory required for data: 632283584
I0421 21:58:07.143570  5043 layer_factory.hpp:77] Creating layer layer_19_2_5
I0421 21:58:07.143581  5043 net.cpp:100] Creating Layer layer_19_2_5
I0421 21:58:07.143589  5043 net.cpp:434] layer_19_2_5 <- layer_19_2_5/depthwise
I0421 21:58:07.143597  5043 net.cpp:408] layer_19_2_5 -> layer_19_2_5
I0421 21:58:07.144836  5043 net.cpp:150] Setting up layer_19_2_5
I0421 21:58:07.144850  5043 net.cpp:157] Top shape: 3 128 1 1 (384)
I0421 21:58:07.144855  5043 net.cpp:165] Memory required for data: 632285120
I0421 21:58:07.144865  5043 layer_factory.hpp:77] Creating layer layer_19_2_5/bn
I0421 21:58:07.144873  5043 net.cpp:100] Creating Layer layer_19_2_5/bn
I0421 21:58:07.144881  5043 net.cpp:434] layer_19_2_5/bn <- layer_19_2_5
I0421 21:58:07.144888  5043 net.cpp:395] layer_19_2_5/bn -> layer_19_2_5 (in-place)
I0421 21:58:07.145061  5043 net.cpp:150] Setting up layer_19_2_5/bn
I0421 21:58:07.145069  5043 net.cpp:157] Top shape: 3 128 1 1 (384)
I0421 21:58:07.145074  5043 net.cpp:165] Memory required for data: 632286656
I0421 21:58:07.145086  5043 layer_factory.hpp:77] Creating layer layer_19_2_5/scale
I0421 21:58:07.145095  5043 net.cpp:100] Creating Layer layer_19_2_5/scale
I0421 21:58:07.145102  5043 net.cpp:434] layer_19_2_5/scale <- layer_19_2_5
I0421 21:58:07.145110  5043 net.cpp:395] layer_19_2_5/scale -> layer_19_2_5 (in-place)
I0421 21:58:07.145164  5043 layer_factory.hpp:77] Creating layer layer_19_2_5/scale
I0421 21:58:07.145285  5043 net.cpp:150] Setting up layer_19_2_5/scale
I0421 21:58:07.145295  5043 net.cpp:157] Top shape: 3 128 1 1 (384)
I0421 21:58:07.145300  5043 net.cpp:165] Memory required for data: 632288192
I0421 21:58:07.145309  5043 layer_factory.hpp:77] Creating layer layer_19_2_5/relu
I0421 21:58:07.145318  5043 net.cpp:100] Creating Layer layer_19_2_5/relu
I0421 21:58:07.145325  5043 net.cpp:434] layer_19_2_5/relu <- layer_19_2_5
I0421 21:58:07.145332  5043 net.cpp:395] layer_19_2_5/relu -> layer_19_2_5 (in-place)
I0421 21:58:07.145741  5043 net.cpp:150] Setting up layer_19_2_5/relu
I0421 21:58:07.145753  5043 net.cpp:157] Top shape: 3 128 1 1 (384)
I0421 21:58:07.145758  5043 net.cpp:165] Memory required for data: 632289728
I0421 21:58:07.145764  5043 layer_factory.hpp:77] Creating layer layer_19_2_5_layer_19_2_5/relu_0_split
I0421 21:58:07.145773  5043 net.cpp:100] Creating Layer layer_19_2_5_layer_19_2_5/relu_0_split
I0421 21:58:07.145781  5043 net.cpp:434] layer_19_2_5_layer_19_2_5/relu_0_split <- layer_19_2_5
I0421 21:58:07.145790  5043 net.cpp:408] layer_19_2_5_layer_19_2_5/relu_0_split -> layer_19_2_5_layer_19_2_5/relu_0_split_0
I0421 21:58:07.145802  5043 net.cpp:408] layer_19_2_5_layer_19_2_5/relu_0_split -> layer_19_2_5_layer_19_2_5/relu_0_split_1
I0421 21:58:07.145812  5043 net.cpp:408] layer_19_2_5_layer_19_2_5/relu_0_split -> layer_19_2_5_layer_19_2_5/relu_0_split_2
I0421 21:58:07.145864  5043 net.cpp:150] Setting up layer_19_2_5_layer_19_2_5/relu_0_split
I0421 21:58:07.145872  5043 net.cpp:157] Top shape: 3 128 1 1 (384)
I0421 21:58:07.145879  5043 net.cpp:157] Top shape: 3 128 1 1 (384)
I0421 21:58:07.145886  5043 net.cpp:157] Top shape: 3 128 1 1 (384)
I0421 21:58:07.145891  5043 net.cpp:165] Memory required for data: 632294336
I0421 21:58:07.145898  5043 layer_factory.hpp:77] Creating layer conv_13/expand_mbox_loc
I0421 21:58:07.145910  5043 net.cpp:100] Creating Layer conv_13/expand_mbox_loc
I0421 21:58:07.145918  5043 net.cpp:434] conv_13/expand_mbox_loc <- conv_13/expand_conv_13/expand/relu_0_split_1
I0421 21:58:07.145928  5043 net.cpp:408] conv_13/expand_mbox_loc -> conv_13/expand_mbox_loc
I0421 21:58:07.147660  5043 net.cpp:150] Setting up conv_13/expand_mbox_loc
I0421 21:58:07.147672  5043 net.cpp:157] Top shape: 3 12 19 19 (12996)
I0421 21:58:07.147678  5043 net.cpp:165] Memory required for data: 632346320
I0421 21:58:07.147688  5043 layer_factory.hpp:77] Creating layer conv_13/expand_mbox_loc_perm
I0421 21:58:07.147698  5043 net.cpp:100] Creating Layer conv_13/expand_mbox_loc_perm
I0421 21:58:07.147706  5043 net.cpp:434] conv_13/expand_mbox_loc_perm <- conv_13/expand_mbox_loc
I0421 21:58:07.147716  5043 net.cpp:408] conv_13/expand_mbox_loc_perm -> conv_13/expand_mbox_loc_perm
I0421 21:58:07.147811  5043 net.cpp:150] Setting up conv_13/expand_mbox_loc_perm
I0421 21:58:07.147819  5043 net.cpp:157] Top shape: 3 19 19 12 (12996)
I0421 21:58:07.147825  5043 net.cpp:165] Memory required for data: 632398304
I0421 21:58:07.147830  5043 layer_factory.hpp:77] Creating layer conv_13/expand_mbox_loc_flat
I0421 21:58:07.147840  5043 net.cpp:100] Creating Layer conv_13/expand_mbox_loc_flat
I0421 21:58:07.147847  5043 net.cpp:434] conv_13/expand_mbox_loc_flat <- conv_13/expand_mbox_loc_perm
I0421 21:58:07.147856  5043 net.cpp:408] conv_13/expand_mbox_loc_flat -> conv_13/expand_mbox_loc_flat
I0421 21:58:07.147895  5043 net.cpp:150] Setting up conv_13/expand_mbox_loc_flat
I0421 21:58:07.147903  5043 net.cpp:157] Top shape: 3 4332 (12996)
I0421 21:58:07.147909  5043 net.cpp:165] Memory required for data: 632450288
I0421 21:58:07.147915  5043 layer_factory.hpp:77] Creating layer conv_13/expand_mbox_conf_retrain
I0421 21:58:07.147933  5043 net.cpp:100] Creating Layer conv_13/expand_mbox_conf_retrain
I0421 21:58:07.147941  5043 net.cpp:434] conv_13/expand_mbox_conf_retrain <- conv_13/expand_conv_13/expand/relu_0_split_2
I0421 21:58:07.147949  5043 net.cpp:408] conv_13/expand_mbox_conf_retrain -> conv_13/expand_mbox_conf_retrain
I0421 21:58:07.150111  5043 net.cpp:150] Setting up conv_13/expand_mbox_conf_retrain
I0421 21:58:07.150136  5043 net.cpp:157] Top shape: 3 21 19 19 (22743)
I0421 21:58:07.150141  5043 net.cpp:165] Memory required for data: 632541260
I0421 21:58:07.150146  5043 layer_factory.hpp:77] Creating layer conv_13/expand_mbox_conf_perm
I0421 21:58:07.150156  5043 net.cpp:100] Creating Layer conv_13/expand_mbox_conf_perm
I0421 21:58:07.150162  5043 net.cpp:434] conv_13/expand_mbox_conf_perm <- conv_13/expand_mbox_conf_retrain
I0421 21:58:07.150172  5043 net.cpp:408] conv_13/expand_mbox_conf_perm -> conv_13/expand_mbox_conf_perm
I0421 21:58:07.150267  5043 net.cpp:150] Setting up conv_13/expand_mbox_conf_perm
I0421 21:58:07.150276  5043 net.cpp:157] Top shape: 3 19 19 21 (22743)
I0421 21:58:07.150281  5043 net.cpp:165] Memory required for data: 632632232
I0421 21:58:07.150288  5043 layer_factory.hpp:77] Creating layer conv_13/expand_mbox_conf_flat
I0421 21:58:07.150297  5043 net.cpp:100] Creating Layer conv_13/expand_mbox_conf_flat
I0421 21:58:07.150305  5043 net.cpp:434] conv_13/expand_mbox_conf_flat <- conv_13/expand_mbox_conf_perm
I0421 21:58:07.150313  5043 net.cpp:408] conv_13/expand_mbox_conf_flat -> conv_13/expand_mbox_conf_flat
I0421 21:58:07.150343  5043 net.cpp:150] Setting up conv_13/expand_mbox_conf_flat
I0421 21:58:07.150352  5043 net.cpp:157] Top shape: 3 7581 (22743)
I0421 21:58:07.150357  5043 net.cpp:165] Memory required for data: 632723204
I0421 21:58:07.150363  5043 layer_factory.hpp:77] Creating layer conv_13/expand_mbox_priorbox
I0421 21:58:07.150373  5043 net.cpp:100] Creating Layer conv_13/expand_mbox_priorbox
I0421 21:58:07.150382  5043 net.cpp:434] conv_13/expand_mbox_priorbox <- conv_13/expand_conv_13/expand/relu_0_split_3
I0421 21:58:07.150389  5043 net.cpp:434] conv_13/expand_mbox_priorbox <- data_data_0_split_1
I0421 21:58:07.150398  5043 net.cpp:408] conv_13/expand_mbox_priorbox -> conv_13/expand_mbox_priorbox
I0421 21:58:07.150431  5043 net.cpp:150] Setting up conv_13/expand_mbox_priorbox
I0421 21:58:07.150439  5043 net.cpp:157] Top shape: 1 2 4332 (8664)
I0421 21:58:07.150444  5043 net.cpp:165] Memory required for data: 632757860
I0421 21:58:07.150450  5043 layer_factory.hpp:77] Creating layer Conv_1_mbox_loc
I0421 21:58:07.150461  5043 net.cpp:100] Creating Layer Conv_1_mbox_loc
I0421 21:58:07.150470  5043 net.cpp:434] Conv_1_mbox_loc <- Conv_1_Conv_1/relu_0_split_1
I0421 21:58:07.150480  5043 net.cpp:408] Conv_1_mbox_loc -> Conv_1_mbox_loc
I0421 21:58:07.154786  5043 net.cpp:150] Setting up Conv_1_mbox_loc
I0421 21:58:07.154803  5043 net.cpp:157] Top shape: 3 24 10 10 (7200)
I0421 21:58:07.154809  5043 net.cpp:165] Memory required for data: 632786660
I0421 21:58:07.154819  5043 layer_factory.hpp:77] Creating layer Conv_1_mbox_loc_perm
I0421 21:58:07.154830  5043 net.cpp:100] Creating Layer Conv_1_mbox_loc_perm
I0421 21:58:07.154836  5043 net.cpp:434] Conv_1_mbox_loc_perm <- Conv_1_mbox_loc
I0421 21:58:07.154842  5043 net.cpp:408] Conv_1_mbox_loc_perm -> Conv_1_mbox_loc_perm
I0421 21:58:07.154945  5043 net.cpp:150] Setting up Conv_1_mbox_loc_perm
I0421 21:58:07.154953  5043 net.cpp:157] Top shape: 3 10 10 24 (7200)
I0421 21:58:07.154956  5043 net.cpp:165] Memory required for data: 632815460
I0421 21:58:07.154959  5043 layer_factory.hpp:77] Creating layer Conv_1_mbox_loc_flat
I0421 21:58:07.154976  5043 net.cpp:100] Creating Layer Conv_1_mbox_loc_flat
I0421 21:58:07.154983  5043 net.cpp:434] Conv_1_mbox_loc_flat <- Conv_1_mbox_loc_perm
I0421 21:58:07.154991  5043 net.cpp:408] Conv_1_mbox_loc_flat -> Conv_1_mbox_loc_flat
I0421 21:58:07.155058  5043 net.cpp:150] Setting up Conv_1_mbox_loc_flat
I0421 21:58:07.155066  5043 net.cpp:157] Top shape: 3 2400 (7200)
I0421 21:58:07.155068  5043 net.cpp:165] Memory required for data: 632844260
I0421 21:58:07.155071  5043 layer_factory.hpp:77] Creating layer Conv_1_mbox_conf_retrain
I0421 21:58:07.155094  5043 net.cpp:100] Creating Layer Conv_1_mbox_conf_retrain
I0421 21:58:07.155112  5043 net.cpp:434] Conv_1_mbox_conf_retrain <- Conv_1_Conv_1/relu_0_split_2
I0421 21:58:07.155120  5043 net.cpp:408] Conv_1_mbox_conf_retrain -> Conv_1_mbox_conf_retrain
I0421 21:58:07.161552  5043 net.cpp:150] Setting up Conv_1_mbox_conf_retrain
I0421 21:58:07.161578  5043 net.cpp:157] Top shape: 3 42 10 10 (12600)
I0421 21:58:07.161586  5043 net.cpp:165] Memory required for data: 632894660
I0421 21:58:07.161620  5043 layer_factory.hpp:77] Creating layer Conv_1_mbox_conf_perm
I0421 21:58:07.161643  5043 net.cpp:100] Creating Layer Conv_1_mbox_conf_perm
I0421 21:58:07.161650  5043 net.cpp:434] Conv_1_mbox_conf_perm <- Conv_1_mbox_conf_retrain
I0421 21:58:07.161659  5043 net.cpp:408] Conv_1_mbox_conf_perm -> Conv_1_mbox_conf_perm
I0421 21:58:07.161785  5043 net.cpp:150] Setting up Conv_1_mbox_conf_perm
I0421 21:58:07.161795  5043 net.cpp:157] Top shape: 3 10 10 42 (12600)
I0421 21:58:07.161801  5043 net.cpp:165] Memory required for data: 632945060
I0421 21:58:07.161808  5043 layer_factory.hpp:77] Creating layer Conv_1_mbox_conf_flat
I0421 21:58:07.161815  5043 net.cpp:100] Creating Layer Conv_1_mbox_conf_flat
I0421 21:58:07.161821  5043 net.cpp:434] Conv_1_mbox_conf_flat <- Conv_1_mbox_conf_perm
I0421 21:58:07.161829  5043 net.cpp:408] Conv_1_mbox_conf_flat -> Conv_1_mbox_conf_flat
I0421 21:58:07.161855  5043 net.cpp:150] Setting up Conv_1_mbox_conf_flat
I0421 21:58:07.161864  5043 net.cpp:157] Top shape: 3 4200 (12600)
I0421 21:58:07.161870  5043 net.cpp:165] Memory required for data: 632995460
I0421 21:58:07.161875  5043 layer_factory.hpp:77] Creating layer Conv_1_mbox_priorbox
I0421 21:58:07.161883  5043 net.cpp:100] Creating Layer Conv_1_mbox_priorbox
I0421 21:58:07.161900  5043 net.cpp:434] Conv_1_mbox_priorbox <- Conv_1_Conv_1/relu_0_split_3
I0421 21:58:07.161908  5043 net.cpp:434] Conv_1_mbox_priorbox <- data_data_0_split_2
I0421 21:58:07.161916  5043 net.cpp:408] Conv_1_mbox_priorbox -> Conv_1_mbox_priorbox
I0421 21:58:07.161960  5043 net.cpp:150] Setting up Conv_1_mbox_priorbox
I0421 21:58:07.161968  5043 net.cpp:157] Top shape: 1 2 2400 (4800)
I0421 21:58:07.161974  5043 net.cpp:165] Memory required for data: 633014660
I0421 21:58:07.161980  5043 layer_factory.hpp:77] Creating layer layer_19_2_2_mbox_loc
I0421 21:58:07.161993  5043 net.cpp:100] Creating Layer layer_19_2_2_mbox_loc
I0421 21:58:07.161999  5043 net.cpp:434] layer_19_2_2_mbox_loc <- layer_19_2_2_layer_19_2_2/relu_0_split_1
I0421 21:58:07.162008  5043 net.cpp:408] layer_19_2_2_mbox_loc -> layer_19_2_2_mbox_loc
I0421 21:58:07.165906  5043 net.cpp:150] Setting up layer_19_2_2_mbox_loc
I0421 21:58:07.165962  5043 net.cpp:157] Top shape: 3 24 5 5 (1800)
I0421 21:58:07.165967  5043 net.cpp:165] Memory required for data: 633021860
I0421 21:58:07.165978  5043 layer_factory.hpp:77] Creating layer layer_19_2_2_mbox_loc_perm
I0421 21:58:07.165992  5043 net.cpp:100] Creating Layer layer_19_2_2_mbox_loc_perm
I0421 21:58:07.166002  5043 net.cpp:434] layer_19_2_2_mbox_loc_perm <- layer_19_2_2_mbox_loc
I0421 21:58:07.166014  5043 net.cpp:408] layer_19_2_2_mbox_loc_perm -> layer_19_2_2_mbox_loc_perm
I0421 21:58:07.166142  5043 net.cpp:150] Setting up layer_19_2_2_mbox_loc_perm
I0421 21:58:07.166152  5043 net.cpp:157] Top shape: 3 5 5 24 (1800)
I0421 21:58:07.166167  5043 net.cpp:165] Memory required for data: 633029060
I0421 21:58:07.166170  5043 layer_factory.hpp:77] Creating layer layer_19_2_2_mbox_loc_flat
I0421 21:58:07.166180  5043 net.cpp:100] Creating Layer layer_19_2_2_mbox_loc_flat
I0421 21:58:07.166188  5043 net.cpp:434] layer_19_2_2_mbox_loc_flat <- layer_19_2_2_mbox_loc_perm
I0421 21:58:07.166196  5043 net.cpp:408] layer_19_2_2_mbox_loc_flat -> layer_19_2_2_mbox_loc_flat
I0421 21:58:07.166239  5043 net.cpp:150] Setting up layer_19_2_2_mbox_loc_flat
I0421 21:58:07.166247  5043 net.cpp:157] Top shape: 3 600 (1800)
I0421 21:58:07.166262  5043 net.cpp:165] Memory required for data: 633036260
I0421 21:58:07.166266  5043 layer_factory.hpp:77] Creating layer layer_19_2_2_mbox_conf_retrain
I0421 21:58:07.166278  5043 net.cpp:100] Creating Layer layer_19_2_2_mbox_conf_retrain
I0421 21:58:07.166285  5043 net.cpp:434] layer_19_2_2_mbox_conf_retrain <- layer_19_2_2_layer_19_2_2/relu_0_split_2
I0421 21:58:07.166318  5043 net.cpp:408] layer_19_2_2_mbox_conf_retrain -> layer_19_2_2_mbox_conf_retrain
I0421 21:58:07.170300  5043 net.cpp:150] Setting up layer_19_2_2_mbox_conf_retrain
I0421 21:58:07.170322  5043 net.cpp:157] Top shape: 3 42 5 5 (3150)
I0421 21:58:07.170326  5043 net.cpp:165] Memory required for data: 633048860
I0421 21:58:07.170334  5043 layer_factory.hpp:77] Creating layer layer_19_2_2_mbox_conf_perm
I0421 21:58:07.170346  5043 net.cpp:100] Creating Layer layer_19_2_2_mbox_conf_perm
I0421 21:58:07.170353  5043 net.cpp:434] layer_19_2_2_mbox_conf_perm <- layer_19_2_2_mbox_conf_retrain
I0421 21:58:07.170362  5043 net.cpp:408] layer_19_2_2_mbox_conf_perm -> layer_19_2_2_mbox_conf_perm
I0421 21:58:07.170471  5043 net.cpp:150] Setting up layer_19_2_2_mbox_conf_perm
I0421 21:58:07.170480  5043 net.cpp:157] Top shape: 3 5 5 42 (3150)
I0421 21:58:07.170482  5043 net.cpp:165] Memory required for data: 633061460
I0421 21:58:07.170485  5043 layer_factory.hpp:77] Creating layer layer_19_2_2_mbox_conf_flat
I0421 21:58:07.170491  5043 net.cpp:100] Creating Layer layer_19_2_2_mbox_conf_flat
I0421 21:58:07.170497  5043 net.cpp:434] layer_19_2_2_mbox_conf_flat <- layer_19_2_2_mbox_conf_perm
I0421 21:58:07.170506  5043 net.cpp:408] layer_19_2_2_mbox_conf_flat -> layer_19_2_2_mbox_conf_flat
I0421 21:58:07.170534  5043 net.cpp:150] Setting up layer_19_2_2_mbox_conf_flat
I0421 21:58:07.170543  5043 net.cpp:157] Top shape: 3 1050 (3150)
I0421 21:58:07.170547  5043 net.cpp:165] Memory required for data: 633074060
I0421 21:58:07.170549  5043 layer_factory.hpp:77] Creating layer layer_19_2_2_mbox_priorbox
I0421 21:58:07.170558  5043 net.cpp:100] Creating Layer layer_19_2_2_mbox_priorbox
I0421 21:58:07.170577  5043 net.cpp:434] layer_19_2_2_mbox_priorbox <- layer_19_2_2_layer_19_2_2/relu_0_split_3
I0421 21:58:07.170584  5043 net.cpp:434] layer_19_2_2_mbox_priorbox <- data_data_0_split_3
I0421 21:58:07.170593  5043 net.cpp:408] layer_19_2_2_mbox_priorbox -> layer_19_2_2_mbox_priorbox
I0421 21:58:07.170637  5043 net.cpp:150] Setting up layer_19_2_2_mbox_priorbox
I0421 21:58:07.170644  5043 net.cpp:157] Top shape: 1 2 600 (1200)
I0421 21:58:07.170657  5043 net.cpp:165] Memory required for data: 633078860
I0421 21:58:07.170660  5043 layer_factory.hpp:77] Creating layer layer_19_2_3_mbox_loc
I0421 21:58:07.170672  5043 net.cpp:100] Creating Layer layer_19_2_3_mbox_loc
I0421 21:58:07.170688  5043 net.cpp:434] layer_19_2_3_mbox_loc <- layer_19_2_3_layer_19_2_3/relu_0_split_1
I0421 21:58:07.170696  5043 net.cpp:408] layer_19_2_3_mbox_loc -> layer_19_2_3_mbox_loc
I0421 21:58:07.172897  5043 net.cpp:150] Setting up layer_19_2_3_mbox_loc
I0421 21:58:07.172910  5043 net.cpp:157] Top shape: 3 24 3 3 (648)
I0421 21:58:07.172924  5043 net.cpp:165] Memory required for data: 633081452
I0421 21:58:07.172933  5043 layer_factory.hpp:77] Creating layer layer_19_2_3_mbox_loc_perm
I0421 21:58:07.172952  5043 net.cpp:100] Creating Layer layer_19_2_3_mbox_loc_perm
I0421 21:58:07.172960  5043 net.cpp:434] layer_19_2_3_mbox_loc_perm <- layer_19_2_3_mbox_loc
I0421 21:58:07.172968  5043 net.cpp:408] layer_19_2_3_mbox_loc_perm -> layer_19_2_3_mbox_loc_perm
I0421 21:58:07.173065  5043 net.cpp:150] Setting up layer_19_2_3_mbox_loc_perm
I0421 21:58:07.173074  5043 net.cpp:157] Top shape: 3 3 3 24 (648)
I0421 21:58:07.173079  5043 net.cpp:165] Memory required for data: 633084044
I0421 21:58:07.173084  5043 layer_factory.hpp:77] Creating layer layer_19_2_3_mbox_loc_flat
I0421 21:58:07.173100  5043 net.cpp:100] Creating Layer layer_19_2_3_mbox_loc_flat
I0421 21:58:07.173108  5043 net.cpp:434] layer_19_2_3_mbox_loc_flat <- layer_19_2_3_mbox_loc_perm
I0421 21:58:07.173116  5043 net.cpp:408] layer_19_2_3_mbox_loc_flat -> layer_19_2_3_mbox_loc_flat
I0421 21:58:07.173151  5043 net.cpp:150] Setting up layer_19_2_3_mbox_loc_flat
I0421 21:58:07.173158  5043 net.cpp:157] Top shape: 3 216 (648)
I0421 21:58:07.173163  5043 net.cpp:165] Memory required for data: 633086636
I0421 21:58:07.173169  5043 layer_factory.hpp:77] Creating layer layer_19_2_3_mbox_conf_retrain
I0421 21:58:07.173199  5043 net.cpp:100] Creating Layer layer_19_2_3_mbox_conf_retrain
I0421 21:58:07.173207  5043 net.cpp:434] layer_19_2_3_mbox_conf_retrain <- layer_19_2_3_layer_19_2_3/relu_0_split_2
I0421 21:58:07.173216  5043 net.cpp:408] layer_19_2_3_mbox_conf_retrain -> layer_19_2_3_mbox_conf_retrain
I0421 21:58:07.175235  5043 net.cpp:150] Setting up layer_19_2_3_mbox_conf_retrain
I0421 21:58:07.175246  5043 net.cpp:157] Top shape: 3 42 3 3 (1134)
I0421 21:58:07.175261  5043 net.cpp:165] Memory required for data: 633091172
I0421 21:58:07.175269  5043 layer_factory.hpp:77] Creating layer layer_19_2_3_mbox_conf_perm
I0421 21:58:07.175289  5043 net.cpp:100] Creating Layer layer_19_2_3_mbox_conf_perm
I0421 21:58:07.175297  5043 net.cpp:434] layer_19_2_3_mbox_conf_perm <- layer_19_2_3_mbox_conf_retrain
I0421 21:58:07.175305  5043 net.cpp:408] layer_19_2_3_mbox_conf_perm -> layer_19_2_3_mbox_conf_perm
I0421 21:58:07.175400  5043 net.cpp:150] Setting up layer_19_2_3_mbox_conf_perm
I0421 21:58:07.175408  5043 net.cpp:157] Top shape: 3 3 3 42 (1134)
I0421 21:58:07.175413  5043 net.cpp:165] Memory required for data: 633095708
I0421 21:58:07.175418  5043 layer_factory.hpp:77] Creating layer layer_19_2_3_mbox_conf_flat
I0421 21:58:07.175426  5043 net.cpp:100] Creating Layer layer_19_2_3_mbox_conf_flat
I0421 21:58:07.175433  5043 net.cpp:434] layer_19_2_3_mbox_conf_flat <- layer_19_2_3_mbox_conf_perm
I0421 21:58:07.175442  5043 net.cpp:408] layer_19_2_3_mbox_conf_flat -> layer_19_2_3_mbox_conf_flat
I0421 21:58:07.175472  5043 net.cpp:150] Setting up layer_19_2_3_mbox_conf_flat
I0421 21:58:07.175478  5043 net.cpp:157] Top shape: 3 378 (1134)
I0421 21:58:07.175483  5043 net.cpp:165] Memory required for data: 633100244
I0421 21:58:07.175489  5043 layer_factory.hpp:77] Creating layer layer_19_2_3_mbox_priorbox
I0421 21:58:07.175506  5043 net.cpp:100] Creating Layer layer_19_2_3_mbox_priorbox
I0421 21:58:07.175514  5043 net.cpp:434] layer_19_2_3_mbox_priorbox <- layer_19_2_3_layer_19_2_3/relu_0_split_3
I0421 21:58:07.175521  5043 net.cpp:434] layer_19_2_3_mbox_priorbox <- data_data_0_split_4
I0421 21:58:07.175529  5043 net.cpp:408] layer_19_2_3_mbox_priorbox -> layer_19_2_3_mbox_priorbox
I0421 21:58:07.175559  5043 net.cpp:150] Setting up layer_19_2_3_mbox_priorbox
I0421 21:58:07.175566  5043 net.cpp:157] Top shape: 1 2 216 (432)
I0421 21:58:07.175571  5043 net.cpp:165] Memory required for data: 633101972
I0421 21:58:07.175577  5043 layer_factory.hpp:77] Creating layer layer_19_2_4_mbox_loc
I0421 21:58:07.175588  5043 net.cpp:100] Creating Layer layer_19_2_4_mbox_loc
I0421 21:58:07.175595  5043 net.cpp:434] layer_19_2_4_mbox_loc <- layer_19_2_4_layer_19_2_4/relu_0_split_1
I0421 21:58:07.175604  5043 net.cpp:408] layer_19_2_4_mbox_loc -> layer_19_2_4_mbox_loc
I0421 21:58:07.177240  5043 net.cpp:150] Setting up layer_19_2_4_mbox_loc
I0421 21:58:07.177253  5043 net.cpp:157] Top shape: 3 24 2 2 (288)
I0421 21:58:07.177259  5043 net.cpp:165] Memory required for data: 633103124
I0421 21:58:07.177269  5043 layer_factory.hpp:77] Creating layer layer_19_2_4_mbox_loc_perm
I0421 21:58:07.177278  5043 net.cpp:100] Creating Layer layer_19_2_4_mbox_loc_perm
I0421 21:58:07.177285  5043 net.cpp:434] layer_19_2_4_mbox_loc_perm <- layer_19_2_4_mbox_loc
I0421 21:58:07.177294  5043 net.cpp:408] layer_19_2_4_mbox_loc_perm -> layer_19_2_4_mbox_loc_perm
I0421 21:58:07.177395  5043 net.cpp:150] Setting up layer_19_2_4_mbox_loc_perm
I0421 21:58:07.177403  5043 net.cpp:157] Top shape: 3 2 2 24 (288)
I0421 21:58:07.177408  5043 net.cpp:165] Memory required for data: 633104276
I0421 21:58:07.177414  5043 layer_factory.hpp:77] Creating layer layer_19_2_4_mbox_loc_flat
I0421 21:58:07.177423  5043 net.cpp:100] Creating Layer layer_19_2_4_mbox_loc_flat
I0421 21:58:07.177430  5043 net.cpp:434] layer_19_2_4_mbox_loc_flat <- layer_19_2_4_mbox_loc_perm
I0421 21:58:07.177438  5043 net.cpp:408] layer_19_2_4_mbox_loc_flat -> layer_19_2_4_mbox_loc_flat
I0421 21:58:07.177485  5043 net.cpp:150] Setting up layer_19_2_4_mbox_loc_flat
I0421 21:58:07.177495  5043 net.cpp:157] Top shape: 3 96 (288)
I0421 21:58:07.177515  5043 net.cpp:165] Memory required for data: 633105428
I0421 21:58:07.177521  5043 layer_factory.hpp:77] Creating layer layer_19_2_4_mbox_conf_retrain
I0421 21:58:07.177533  5043 net.cpp:100] Creating Layer layer_19_2_4_mbox_conf_retrain
I0421 21:58:07.177541  5043 net.cpp:434] layer_19_2_4_mbox_conf_retrain <- layer_19_2_4_layer_19_2_4/relu_0_split_2
I0421 21:58:07.177551  5043 net.cpp:408] layer_19_2_4_mbox_conf_retrain -> layer_19_2_4_mbox_conf_retrain
I0421 21:58:07.179744  5043 net.cpp:150] Setting up layer_19_2_4_mbox_conf_retrain
I0421 21:58:07.179760  5043 net.cpp:157] Top shape: 3 42 2 2 (504)
I0421 21:58:07.179766  5043 net.cpp:165] Memory required for data: 633107444
I0421 21:58:07.179776  5043 layer_factory.hpp:77] Creating layer layer_19_2_4_mbox_conf_perm
I0421 21:58:07.179786  5043 net.cpp:100] Creating Layer layer_19_2_4_mbox_conf_perm
I0421 21:58:07.179792  5043 net.cpp:434] layer_19_2_4_mbox_conf_perm <- layer_19_2_4_mbox_conf_retrain
I0421 21:58:07.179798  5043 net.cpp:408] layer_19_2_4_mbox_conf_perm -> layer_19_2_4_mbox_conf_perm
I0421 21:58:07.179893  5043 net.cpp:150] Setting up layer_19_2_4_mbox_conf_perm
I0421 21:58:07.179899  5043 net.cpp:157] Top shape: 3 2 2 42 (504)
I0421 21:58:07.179903  5043 net.cpp:165] Memory required for data: 633109460
I0421 21:58:07.179906  5043 layer_factory.hpp:77] Creating layer layer_19_2_4_mbox_conf_flat
I0421 21:58:07.179913  5043 net.cpp:100] Creating Layer layer_19_2_4_mbox_conf_flat
I0421 21:58:07.179916  5043 net.cpp:434] layer_19_2_4_mbox_conf_flat <- layer_19_2_4_mbox_conf_perm
I0421 21:58:07.179922  5043 net.cpp:408] layer_19_2_4_mbox_conf_flat -> layer_19_2_4_mbox_conf_flat
I0421 21:58:07.179941  5043 net.cpp:150] Setting up layer_19_2_4_mbox_conf_flat
I0421 21:58:07.179946  5043 net.cpp:157] Top shape: 3 168 (504)
I0421 21:58:07.179950  5043 net.cpp:165] Memory required for data: 633111476
I0421 21:58:07.179953  5043 layer_factory.hpp:77] Creating layer layer_19_2_4_mbox_priorbox
I0421 21:58:07.179960  5043 net.cpp:100] Creating Layer layer_19_2_4_mbox_priorbox
I0421 21:58:07.179965  5043 net.cpp:434] layer_19_2_4_mbox_priorbox <- layer_19_2_4_layer_19_2_4/relu_0_split_3
I0421 21:58:07.179970  5043 net.cpp:434] layer_19_2_4_mbox_priorbox <- data_data_0_split_5
I0421 21:58:07.179975  5043 net.cpp:408] layer_19_2_4_mbox_priorbox -> layer_19_2_4_mbox_priorbox
I0421 21:58:07.179997  5043 net.cpp:150] Setting up layer_19_2_4_mbox_priorbox
I0421 21:58:07.180003  5043 net.cpp:157] Top shape: 1 2 96 (192)
I0421 21:58:07.180006  5043 net.cpp:165] Memory required for data: 633112244
I0421 21:58:07.180011  5043 layer_factory.hpp:77] Creating layer layer_19_2_5_mbox_loc
I0421 21:58:07.180025  5043 net.cpp:100] Creating Layer layer_19_2_5_mbox_loc
I0421 21:58:07.180030  5043 net.cpp:434] layer_19_2_5_mbox_loc <- layer_19_2_5_layer_19_2_5/relu_0_split_0
I0421 21:58:07.180035  5043 net.cpp:408] layer_19_2_5_mbox_loc -> layer_19_2_5_mbox_loc
I0421 21:58:07.181447  5043 net.cpp:150] Setting up layer_19_2_5_mbox_loc
I0421 21:58:07.181460  5043 net.cpp:157] Top shape: 3 24 1 1 (72)
I0421 21:58:07.181464  5043 net.cpp:165] Memory required for data: 633112532
I0421 21:58:07.181470  5043 layer_factory.hpp:77] Creating layer layer_19_2_5_mbox_loc_perm
I0421 21:58:07.181483  5043 net.cpp:100] Creating Layer layer_19_2_5_mbox_loc_perm
I0421 21:58:07.181488  5043 net.cpp:434] layer_19_2_5_mbox_loc_perm <- layer_19_2_5_mbox_loc
I0421 21:58:07.181493  5043 net.cpp:408] layer_19_2_5_mbox_loc_perm -> layer_19_2_5_mbox_loc_perm
I0421 21:58:07.181586  5043 net.cpp:150] Setting up layer_19_2_5_mbox_loc_perm
I0421 21:58:07.181598  5043 net.cpp:157] Top shape: 3 1 1 24 (72)
I0421 21:58:07.181602  5043 net.cpp:165] Memory required for data: 633112820
I0421 21:58:07.181607  5043 layer_factory.hpp:77] Creating layer layer_19_2_5_mbox_loc_flat
I0421 21:58:07.181612  5043 net.cpp:100] Creating Layer layer_19_2_5_mbox_loc_flat
I0421 21:58:07.181617  5043 net.cpp:434] layer_19_2_5_mbox_loc_flat <- layer_19_2_5_mbox_loc_perm
I0421 21:58:07.181622  5043 net.cpp:408] layer_19_2_5_mbox_loc_flat -> layer_19_2_5_mbox_loc_flat
I0421 21:58:07.181653  5043 net.cpp:150] Setting up layer_19_2_5_mbox_loc_flat
I0421 21:58:07.181660  5043 net.cpp:157] Top shape: 3 24 (72)
I0421 21:58:07.181663  5043 net.cpp:165] Memory required for data: 633113108
I0421 21:58:07.181668  5043 layer_factory.hpp:77] Creating layer layer_19_2_5_mbox_conf_retrain
I0421 21:58:07.181674  5043 net.cpp:100] Creating Layer layer_19_2_5_mbox_conf_retrain
I0421 21:58:07.181679  5043 net.cpp:434] layer_19_2_5_mbox_conf_retrain <- layer_19_2_5_layer_19_2_5/relu_0_split_1
I0421 21:58:07.181685  5043 net.cpp:408] layer_19_2_5_mbox_conf_retrain -> layer_19_2_5_mbox_conf_retrain
I0421 21:58:07.183313  5043 net.cpp:150] Setting up layer_19_2_5_mbox_conf_retrain
I0421 21:58:07.183331  5043 net.cpp:157] Top shape: 3 42 1 1 (126)
I0421 21:58:07.183336  5043 net.cpp:165] Memory required for data: 633113612
I0421 21:58:07.183343  5043 layer_factory.hpp:77] Creating layer layer_19_2_5_mbox_conf_perm
I0421 21:58:07.183352  5043 net.cpp:100] Creating Layer layer_19_2_5_mbox_conf_perm
I0421 21:58:07.183357  5043 net.cpp:434] layer_19_2_5_mbox_conf_perm <- layer_19_2_5_mbox_conf_retrain
I0421 21:58:07.183364  5043 net.cpp:408] layer_19_2_5_mbox_conf_perm -> layer_19_2_5_mbox_conf_perm
I0421 21:58:07.183461  5043 net.cpp:150] Setting up layer_19_2_5_mbox_conf_perm
I0421 21:58:07.183468  5043 net.cpp:157] Top shape: 3 1 1 42 (126)
I0421 21:58:07.183471  5043 net.cpp:165] Memory required for data: 633114116
I0421 21:58:07.183475  5043 layer_factory.hpp:77] Creating layer layer_19_2_5_mbox_conf_flat
I0421 21:58:07.183482  5043 net.cpp:100] Creating Layer layer_19_2_5_mbox_conf_flat
I0421 21:58:07.183486  5043 net.cpp:434] layer_19_2_5_mbox_conf_flat <- layer_19_2_5_mbox_conf_perm
I0421 21:58:07.183491  5043 net.cpp:408] layer_19_2_5_mbox_conf_flat -> layer_19_2_5_mbox_conf_flat
I0421 21:58:07.183511  5043 net.cpp:150] Setting up layer_19_2_5_mbox_conf_flat
I0421 21:58:07.183516  5043 net.cpp:157] Top shape: 3 42 (126)
I0421 21:58:07.183521  5043 net.cpp:165] Memory required for data: 633114620
I0421 21:58:07.183524  5043 layer_factory.hpp:77] Creating layer layer_19_2_5_mbox_priorbox
I0421 21:58:07.183531  5043 net.cpp:100] Creating Layer layer_19_2_5_mbox_priorbox
I0421 21:58:07.183535  5043 net.cpp:434] layer_19_2_5_mbox_priorbox <- layer_19_2_5_layer_19_2_5/relu_0_split_2
I0421 21:58:07.183540  5043 net.cpp:434] layer_19_2_5_mbox_priorbox <- data_data_0_split_6
I0421 21:58:07.183545  5043 net.cpp:408] layer_19_2_5_mbox_priorbox -> layer_19_2_5_mbox_priorbox
I0421 21:58:07.183569  5043 net.cpp:150] Setting up layer_19_2_5_mbox_priorbox
I0421 21:58:07.183575  5043 net.cpp:157] Top shape: 1 2 24 (48)
I0421 21:58:07.183578  5043 net.cpp:165] Memory required for data: 633114812
I0421 21:58:07.183583  5043 layer_factory.hpp:77] Creating layer mbox_loc
I0421 21:58:07.183589  5043 net.cpp:100] Creating Layer mbox_loc
I0421 21:58:07.183594  5043 net.cpp:434] mbox_loc <- conv_13/expand_mbox_loc_flat
I0421 21:58:07.183600  5043 net.cpp:434] mbox_loc <- Conv_1_mbox_loc_flat
I0421 21:58:07.183605  5043 net.cpp:434] mbox_loc <- layer_19_2_2_mbox_loc_flat
I0421 21:58:07.183610  5043 net.cpp:434] mbox_loc <- layer_19_2_3_mbox_loc_flat
I0421 21:58:07.183615  5043 net.cpp:434] mbox_loc <- layer_19_2_4_mbox_loc_flat
I0421 21:58:07.183619  5043 net.cpp:434] mbox_loc <- layer_19_2_5_mbox_loc_flat
I0421 21:58:07.183624  5043 net.cpp:408] mbox_loc -> mbox_loc
I0421 21:58:07.183650  5043 net.cpp:150] Setting up mbox_loc
I0421 21:58:07.183656  5043 net.cpp:157] Top shape: 3 7668 (23004)
I0421 21:58:07.183660  5043 net.cpp:165] Memory required for data: 633206828
I0421 21:58:07.183663  5043 layer_factory.hpp:77] Creating layer mbox_conf
I0421 21:58:07.183670  5043 net.cpp:100] Creating Layer mbox_conf
I0421 21:58:07.183673  5043 net.cpp:434] mbox_conf <- conv_13/expand_mbox_conf_flat
I0421 21:58:07.183678  5043 net.cpp:434] mbox_conf <- Conv_1_mbox_conf_flat
I0421 21:58:07.183683  5043 net.cpp:434] mbox_conf <- layer_19_2_2_mbox_conf_flat
I0421 21:58:07.183687  5043 net.cpp:434] mbox_conf <- layer_19_2_3_mbox_conf_flat
I0421 21:58:07.183706  5043 net.cpp:434] mbox_conf <- layer_19_2_4_mbox_conf_flat
I0421 21:58:07.183712  5043 net.cpp:434] mbox_conf <- layer_19_2_5_mbox_conf_flat
I0421 21:58:07.183717  5043 net.cpp:408] mbox_conf -> mbox_conf
I0421 21:58:07.183738  5043 net.cpp:150] Setting up mbox_conf
I0421 21:58:07.183743  5043 net.cpp:157] Top shape: 3 13419 (40257)
I0421 21:58:07.183748  5043 net.cpp:165] Memory required for data: 633367856
I0421 21:58:07.183751  5043 layer_factory.hpp:77] Creating layer mbox_priorbox
I0421 21:58:07.183756  5043 net.cpp:100] Creating Layer mbox_priorbox
I0421 21:58:07.183760  5043 net.cpp:434] mbox_priorbox <- conv_13/expand_mbox_priorbox
I0421 21:58:07.183765  5043 net.cpp:434] mbox_priorbox <- Conv_1_mbox_priorbox
I0421 21:58:07.183770  5043 net.cpp:434] mbox_priorbox <- layer_19_2_2_mbox_priorbox
I0421 21:58:07.183775  5043 net.cpp:434] mbox_priorbox <- layer_19_2_3_mbox_priorbox
I0421 21:58:07.183779  5043 net.cpp:434] mbox_priorbox <- layer_19_2_4_mbox_priorbox
I0421 21:58:07.183784  5043 net.cpp:434] mbox_priorbox <- layer_19_2_5_mbox_priorbox
I0421 21:58:07.183789  5043 net.cpp:408] mbox_priorbox -> mbox_priorbox
I0421 21:58:07.183807  5043 net.cpp:150] Setting up mbox_priorbox
I0421 21:58:07.183812  5043 net.cpp:157] Top shape: 1 2 7668 (15336)
I0421 21:58:07.183816  5043 net.cpp:165] Memory required for data: 633429200
I0421 21:58:07.183820  5043 layer_factory.hpp:77] Creating layer mbox_conf_reshape
I0421 21:58:07.183827  5043 net.cpp:100] Creating Layer mbox_conf_reshape
I0421 21:58:07.183831  5043 net.cpp:434] mbox_conf_reshape <- mbox_conf
I0421 21:58:07.183836  5043 net.cpp:408] mbox_conf_reshape -> mbox_conf_reshape
I0421 21:58:07.183863  5043 net.cpp:150] Setting up mbox_conf_reshape
I0421 21:58:07.183868  5043 net.cpp:157] Top shape: 3 1917 7 (40257)
I0421 21:58:07.183872  5043 net.cpp:165] Memory required for data: 633590228
I0421 21:58:07.183876  5043 layer_factory.hpp:77] Creating layer mbox_conf_softmax
I0421 21:58:07.183882  5043 net.cpp:100] Creating Layer mbox_conf_softmax
I0421 21:58:07.183887  5043 net.cpp:434] mbox_conf_softmax <- mbox_conf_reshape
I0421 21:58:07.183892  5043 net.cpp:408] mbox_conf_softmax -> mbox_conf_softmax
I0421 21:58:07.184351  5043 net.cpp:150] Setting up mbox_conf_softmax
I0421 21:58:07.184363  5043 net.cpp:157] Top shape: 3 1917 7 (40257)
I0421 21:58:07.184367  5043 net.cpp:165] Memory required for data: 633751256
I0421 21:58:07.184371  5043 layer_factory.hpp:77] Creating layer mbox_conf_flatten
I0421 21:58:07.184377  5043 net.cpp:100] Creating Layer mbox_conf_flatten
I0421 21:58:07.184382  5043 net.cpp:434] mbox_conf_flatten <- mbox_conf_softmax
I0421 21:58:07.184387  5043 net.cpp:408] mbox_conf_flatten -> mbox_conf_flatten
I0421 21:58:07.184409  5043 net.cpp:150] Setting up mbox_conf_flatten
I0421 21:58:07.184414  5043 net.cpp:157] Top shape: 3 13419 (40257)
I0421 21:58:07.184417  5043 net.cpp:165] Memory required for data: 633912284
I0421 21:58:07.184420  5043 layer_factory.hpp:77] Creating layer detection_out
I0421 21:58:07.184430  5043 net.cpp:100] Creating Layer detection_out
I0421 21:58:07.184434  5043 net.cpp:434] detection_out <- mbox_loc
I0421 21:58:07.184439  5043 net.cpp:434] detection_out <- mbox_conf_flatten
I0421 21:58:07.184443  5043 net.cpp:434] detection_out <- mbox_priorbox
I0421 21:58:07.184455  5043 net.cpp:408] detection_out -> detection_out
I0421 21:58:07.184502  5043 net.cpp:150] Setting up detection_out
I0421 21:58:07.184509  5043 net.cpp:157] Top shape: 1 1 1 7 (7)
I0421 21:58:07.184511  5043 net.cpp:165] Memory required for data: 633912312
I0421 21:58:07.184515  5043 layer_factory.hpp:77] Creating layer detection_eval
I0421 21:58:07.184522  5043 net.cpp:100] Creating Layer detection_eval
I0421 21:58:07.184526  5043 net.cpp:434] detection_eval <- detection_out
I0421 21:58:07.184530  5043 net.cpp:434] detection_eval <- label
I0421 21:58:07.184535  5043 net.cpp:408] detection_eval -> detection_eval
I0421 21:58:07.184571  5043 net.cpp:150] Setting up detection_eval
I0421 21:58:07.184584  5043 net.cpp:157] Top shape: 1 1 7 5 (35)
I0421 21:58:07.184589  5043 net.cpp:165] Memory required for data: 633912452
I0421 21:58:07.184593  5043 net.cpp:228] detection_eval does not need backward computation.
I0421 21:58:07.184598  5043 net.cpp:228] detection_out does not need backward computation.
I0421 21:58:07.184602  5043 net.cpp:228] mbox_conf_flatten does not need backward computation.
I0421 21:58:07.184607  5043 net.cpp:228] mbox_conf_softmax does not need backward computation.
…
