…
    batch_sampler {
      sampler {
        min_scale: 0.3
        max_scale: 1
        min_aspect_ratio: 0.5
        max_aspect_ratio: 2
      }
      sample_constraint {
        min_jaccard_overlap: 0.9
      }
      max_sample: 1
      max_trials: 50
    }
    batch_sampler {
      sampler {
        min_scale: 0.3
        max_scale: 1
        min_aspect_ratio: 0.5
        max_aspect_ratio: 2
      }
      sample_constraint {
        max_jaccard_overlap: 1
      }
      max_sample: 1
      max_trials: 50
    }
    label_map_file: "labelmap.prototxt"
  }
}
layer {
  name: "conv1"
  type: "Convolution"
  bottom: "data"
  top: "conv1"
  param {
    lr_mult: 1
    decay_mult: 1
  }
  param {
    lr_mult: 2
    decay_mult: 0
  }
  convolution_param {
    num_output: 57
    pad: 0
    kernel_size: 3
    stride: 2
    weight_filler {
      type: "xavier"
    }
    bias_filler {
      type: "constant"
      value: 0
    }
  }
}
layer {
  name: "relu1_1"
  type: "ReLU"
  bottom: "conv1"
  top: "conv1"
}
layer {
  name: "pool1"
  type: "Pooling"
  bottom: "conv1"
  top: "pool1"
  pooling_param {
    pool: MAX
    kernel_size: 3
    stride: 2
  }
}
layer {
  name: "fire1/squeeze1x1"
  type: "Convolution"
  bottom: "pool1"
  top: "fire1/squeeze1x1"
  convolution_param {
    num_output: 15
    kernel_size: 1
    weight_filler {
      type: "xavier"
    }
  }
}
layer {
  name: "fire1/relu_squeeze1x1"
  type: "ReLU"
  bottom: "fire1/squeeze1x1"
  top: "fire1/squeeze1x1"
}
layer {
  name: "fire1/expand1x1"
  type: "Convolution"
  bottom: "fire1/squeeze1x1"
  top: "fire1/expand1x1"
  convolution_param {
    num_output: 49
    kernel_size: 1
    weight_filler {
      type: "xavier"
    }
  }
}
layer {
  name: "fire1/relu_expand1x1"
  type: "ReLU"
  bottom: "fire1/expand1x1"
  top: "fire1/expand1x1"
}
layer {
  name: "fire1/expand3x3"
  type: "Convolution"
  bottom: "fire1/squeeze1x1"
  top: "fire1/expand3x3"
  convolution_param {
    num_output: 53
    pad: 1
    kernel_size: 3
    weight_filler {
      type: "xavier"
    }
  }
}
layer {
  name: "fire1/relu_expand3x3"
  type: "ReLU"
  bottom: "fire1/expand3x3"
  top: "fire1/expand3x3"
}
layer {
  name: "fire1/concat"
  type: "Concat"
  bottom: "fire1/expand1x1"
  bottom: "fire1/expand3x3"
  top: "fire1/concat"
}
layer {
  name: "fire2/squeeze1x1"
  type: "Convolution"
  bottom: "fire1/concat"
  top: "fire2/squeeze1x1"
  convolution_param {
    num_output: 15
    kernel_size: 1
    weight_filler {
      type: "xavier"
    }
  }
}
layer {
  name: "fire2/relu_squeeze1x1"
  type: "ReLU"
  bottom: "fire2/squeeze1x1"
  top: "fire2/squeeze1x1"
}
layer {
  name: "fire2/expand1x1"
  type: "Convolution"
  bottom: "fire2/squeeze1x1"
  top: "fire2/expand1x1"
  convolution_param {
    num_output: 54
    kernel_size: 1
    weight_filler {
      type: "xavier"
    }
  }
}
layer {
  name: "fire2/relu_expand1x1"
  type: "ReLU"
  bottom: "fire2/expand1x1"
  top: "fire2/expand1x1"
}
layer {
  name: "fire2/expand3x3"
  type: "Convolution"
  bottom: "fire2/squeeze1x1"
  top: "fire2/expand3x3"
  convolution_param {
    num_output: 52
    pad: 1
    kernel_size: 3
    weight_filler {
      type: "xavier"
    }
  }
}
layer {
  name: "fire2/relu_expand3x3"
  type: "ReLU"
  bottom: "fire2/expand3x3"
  top: "fire2/expand3x3"
}
layer {
  name: "fire2/concat"
  type: "Concat"
  bottom: "fire2/expand1x1"
  bottom: "fire2/expand3x3"
  top: "fire2/concat"
}
layer {
  name: "pool3"
  type: "Pooling"
  bottom: "fire2/concat"
  top: "pool3"
  pooling_param {
    pool: MAX
    kernel_size: 3
    stride: 2
  }
}
layer {
  name: "fire3/squeeze1x1"
  type: "Convolution"
  bottom: "pool3"
  top: "fire3/squeeze1x1"
  convolution_param {
    num_output: 29
    kernel_size: 1
    weight_filler {
      type: "xavier"
    }
  }
}
layer {
  name: "fire3/relu_squeeze1x1"
  type: "ReLU"
  bottom: "fire3/squeeze1x1"
  top: "fire3/squeeze1x1"
}
layer {
  name: "fire3/expand1x1"
  type: "Convolution"
  bottom: "fire3/squeeze1x1"
  top: "fire3/expand1x1"
  convolution_param {
    num_output: 92
    kernel_size: 1
    weight_filler {
      type: "xavier"
    }
  }
}
layer {
  name: "fire3/relu_expand1x1"
  type: "ReLU"
  bottom: "fire3/expand1x1"
  top: "fire3/expand1x1"
}
layer {
  name: "fire3/expand3x3"
  type: "Convolution"
  bottom: "fire3/squeeze1x1"
  top: "fire3/expand3x3"
  convolution_param {
    num_output: 94
    pad: 1
    kernel_size: 3
    weight_filler {
      type: "xavier"
    }
  }
}
layer {
  name: "fire3/relu_expand3x3"
  type: "ReLU"
  bottom: "fire3/expand3x3"
  top: "fire3/expand3x3"
}
layer {
  name: "fire3/concat"
  type: "Concat"
  bottom: "fire3/expand1x1"
  bottom: "fire3/expand3x3"
  top: "fire3/concat"
}
layer {
  name: "fire4/squeeze1x1"
  type: "Convolution"
  bottom: "fire3/concat"
  top: "fire4/squeeze1x1"
  convolution_param {
    num_output: 29
    kernel_size: 1
    weight_filler {
      type: "xavier"
    }
  }
}
layer {
  name: "fire4/relu_squeeze1x1"
  type: "ReLU"
  bottom: "fire4/squeeze1x1"
  top: "fire4/squeeze1x1"
}
layer {
  name: "fire4/expand1x1"
  type: "Convolution"
  bottom: "fire4/squeeze1x1"
  top: "fire4/expand1x1"
  convolution_param {
    num_output: 90
    kernel_size: 1
    weight_filler {
      type: "xavier"
    }
  }
}
layer {
  name: "fire4/relu_expand1x1"
  type: "ReLU"
  bottom: "fire4/expand1x1"
  top: "fire4/expand1x1"
}
layer {
  name: "fire4/expand3x3"
  type: "Convolution"
  bottom: "fire4/squeeze1x1"
  top: "fire4/expand3x3"
  convolution_param {
    num_output: 83
    pad: 1
    kernel_size: 3
    weight_filler {
      type: "xavier"
    }
  }
}
layer {
  name: "fire4/relu_expand3x3"
  type: "ReLU"
  bottom: "fire4/expand3x3"
  top: "fire4/expand3x3"
}
layer {
  name: "fire4/concat"
  type: "Concat"
  bottom: "fire4/expand1x1"
  bottom: "fire4/expand3x3"
  top: "fire4/concat"
}
layer {
  name: "pool5"
  type: "Pooling"
  bottom: "fire4/concat"
  top: "pool5"
  pooling_param {
    pool: MAX
    kernel_size: 3
    stride: 2
  }
}
layer {
  name: "fire5/squeeze1x1"
  type: "Convolution"
  bottom: "pool5"
  top: "fire5/squeeze1x1"
  convolution_param {
    num_output: 44
    kernel_size: 1
    weight_filler {
      type: "xavier"
    }
  }
}
layer {
  name: "fire5/relu_squeeze1x1"
  type: "ReLU"
  bottom: "fire5/squeeze1x1"
  top: "fire5/squeeze1x1"
}
layer {
  name: "fire5/expand1x1"
  type: "Convolution"
  bottom: "fire5/squeeze1x1"
  top: "fire5/expand1x1"
  convolution_param {
    num_output: 166
    kernel_size: 1
    weight_filler {
      type: "xavier"
    }
  }
}
layer {
  name: "fire5/relu_expand1x1"
  type: "ReLU"
  bottom: "fire5/expand1x1"
  top: "fire5/expand1x1"
}
layer {
  name: "fire5/expand3x3"
  type: "Convolution"
  bottom: "fire5/squeeze1x1"
  top: "fire5/expand3x3"
  convolution_param {
    num_output: 161
    pad: 1
    kernel_size: 3
    weight_filler {
      type: "xavier"
    }
  }
}
layer {
  name: "fire5/relu_expand3x3"
  type: "ReLU"
  bottom: "fire5/expand3x3"
  top: "fire5/expand3x3"
}
layer {
  name: "fire5/concat"
  type: "Concat"
  bottom: "fire5/expand1x1"
  bottom: "fire5/expand3x3"
  top: "fire5/concat"
}
layer {
  name: "fire6/squeeze1x1"
  type: "Convolution"
  bottom: "fire5/concat"
  top: "fire6/squeeze1x1"
  convolution_param {
    num_output: 45
    kernel_size: 1
    weight_filler {
      type: "xavier"
    }
  }
}
layer {
  name: "fire6/relu_squeeze1x1"
  type: "ReLU"
  bottom: "fire6/squeeze1x1"
  top: "fire6/squeeze1x1"
}
layer {
  name: "fire6/expand1x1"
  type: "Convolution"
  bottom: "fire6/squeeze1x1"
  top: "fire6/expand1x1"
  convolution_param {
    num_output: 155
    kernel_size: 1
    weight_filler {
      type: "xavier"
    }
  }
}
layer {
  name: "fire6/relu_expand1x1"
  type: "ReLU"
  bottom: "fire6/expand1x1"
  top: "fire6/expand1x1"
}
layer {
  name: "fire6/expand3x3"
  type: "Convolution"
  bottom: "fire6/squeeze1x1"
  top: "fire6/expand3x3"
  convolution_param {
    num_output: 146
    pad: 1
    kernel_size: 3
    weight_filler {
      type: "xavier"
    }
  }
}
layer {
  name: "fire6/relu_expand3x3"
  type: "ReLU"
  bottom: "fire6/expand3x3"
  top: "fire6/expand3x3"
}
layer {
  name: "fire6/concat"
  type: "Concat"
  bottom: "fire6/expand1x1"
  bottom: "fire6/expand3x3"
  top: "fire6/concat"
}
layer {
  name: "fire7/squeeze1x1"
  type: "Convolution"
  bottom: "fire6/concat"
  top: "fire7/squeeze1x1"
  convolution_param {
    num_output: 49
    kernel_size: 1
    weight_filler {
      type: "xavier"
    }
  }
}
layer {
  name: "fire7/relu_squeeze1x1"
  type: "ReLU"
  bottom: "fire7/squeeze1x1"
  top: "fire7/squeeze1x1"
}
layer {
  name: "fire7/expand1x1"
  type: "Convolution"
  bottom: "fire7/squeeze1x1"
  top: "fire7/expand1x1"
  convolution_param {
    num_output: 163
    kernel_size: 1
    weight_filler {
      type: "xavier"
    }
  }
}
layer {
  name: "fire7/relu_expand1x1"
  type: "ReLU"
  bottom: "fire7/expand1x1"
  top: "fire7/expand1x1"
}
layer {
  name: "fire7/expand3x3"
  type: "Convolution"
  bottom: "fire7/squeeze1x1"
  top: "fire7/expand3x3"
  convolution_param {
    num_output: 171
    pad: 1
    kernel_size: 3
    weight_filler {
      type: "xavier"
    }
  }
}
layer {
  name: "fire7/relu_expand3x3"
  type: "ReLU"
  bottom: "fire7/expand3x3"
  top: "fire7/expand3x3"
}
layer {
  name: "fire7/concat"
  type: "Concat"
  bottom: "fire7/expand1x1"
  bottom: "fire7/expand3x3"
  top: "fire7/concat"
}
layer {
  name: "fire8/squeeze1x1"
  type: "Convolution"
  bottom: "fire7/concat"
  top: "fire8/squeeze1x1"
  convolution_param {
    num_output: 25
    kernel_size: 1
    weight_filler {
      type: "xavier"
    }
  }
}
layer {
  name: "fire8/relu_squeeze1x1"
  type: "ReLU"
  bottom: "fire8/squeeze1x1"
  top: "fire8/squeeze1x1"
}
layer {
  name: "fire8/expand1x1"
  type: "Convolution"
  bottom: "fire8/squeeze1x1"
  top: "fire8/expand1x1"
  convolution_param {
    num_output: 29
    kernel_size: 1
    weight_filler {
      type: "xavier"
    }
  }
}
layer {
  name: "fire8/relu_expand1x1"
  type: "ReLU"
  bottom: "fire8/expand1x1"
  top: "fire8/expand1x1"
}
layer {
  name: "fire8/expand3x3"
  type: "Convolution"
  bottom: "fire8/squeeze1x1"
  top: "fire8/expand3x3"
  convolution_param {
    num_output: 54
    pad: 1
    kernel_size: 3
    weight_filler {
      type: "xavier"
    }
  }
}
layer {
  name: "fire8/relu_expand3x3"
  type: "ReLU"
  bottom: "fire8/expand3x3"
  top: "fire8/expand3x3"
}
layer {
  name: "fire8/concat"
  type: "Concat"
  bottom: "fire8/expand1x1"
  bottom: "fire8/expand3x3"
  top: "fire8/concat"
}
layer {
  name: "pool9"
  type: "Pooling"
  bottom: "fire8/concat"
  top: "pool9"
  pooling_param {
    pool: MAX
    kernel_size: 3
    stride: 2
  }
}
layer {
  name: "fire9/squeeze1x1"
  type: "Convolution"
  bottom: "pool9"
  top: "fire9/squeeze1x1"
  convolution_param {
    num_output: 37
    kernel_size: 1
    weight_filler {
      type: "xavier"
    }
  }
}
layer {
  name: "fire9/relu_squeeze1x1"
  type: "ReLU"
  bottom: "fire9/squeeze1x1"
  top: "fire9/squeeze1x1"
}
layer {
  name: "fire9/expand1x1"
  type: "Convolution"
  bottom: "fire9/squeeze1x1"
  top: "fire9/expand1x1"
  convolution_param {
    num_output: 45
    kernel_size: 1
    weight_filler {
      type: "xavier"
    }
  }
}
layer {
  name: "fire9/relu_expand1x1"
  type: "ReLU"
  bottom: "fire9/expand1x1"
  top: "fire9/expand1x1"
}
layer {
  name: "fire9/expand3x3"
  type: "Convolution"
  bottom: "fire9/squeeze1x1"
  top: "fire9/expand3x3"
  convolution_param {
    num_output: 56
    pad: 1
    kernel_size: 3
    weight_filler {
      type: "xavier"
    }
  }
}
layer {
  name: "fire9/relu_expand3x3"
  type: "ReLU"
  bottom: "fire9/expand3x3"
  top: "fire9/expand3x3"
}
layer {
  name: "fire9/concat"
  type: "Concat"
  bottom: "fire9/expand1x1"
  bottom: "fire9/expand3x3"
  top: "fire9/concat"
}
layer {
  name: "pool10"
  type: "Pooling"
  bottom: "fire9/concat"
  top: "pool10"
  pooling_param {
    pool: MAX
    kernel_size: 3
    stride: 2
  }
}
layer {
  name: "fire10/squeeze1x1"
  type: "Convolution"
  bottom: "pool10"
  top: "fire10/squeeze1x1"
  convolution_param {
    num_output: 38
    kernel_size: 1
    weight_filler {
      type: "xavier"
    }
  }
}
layer {
  name: "fire10/relu_squeeze1x1"
  type: "ReLU"
  bottom: "fire10/squeeze1x1"
  top: "fire10/squeeze1x1"
}
layer {
  name: "fire10/expand1x1"
  type: "Convolution"
  bottom: "fire10/squeeze1x1"
  top: "fire10/expand1x1"
  convolution_param {
    num_output: 41
    kernel_size: 1
    weight_filler {
      type: "xavier"
    }
  }
}
layer {
  name: "fire10/relu_expand1x1"
  type: "ReLU"
  bottom: "fire10/expand1x1"
  top: "fire10/expand1x1"
}
layer {
  name: "fire10/expand3x3"
  type: "Convolution"
  bottom: "fire10/squeeze1x1"
  top: "fire10/expand3x3"
  convolution_param {
    num_output: 44
    pad: 1
    kernel_size: 3
    weight_filler {
      type: "xavier"
    }
  }
}
layer {
  name: "fire10/relu_expand3x3"
  type: "ReLU"
  bottom: "fire10/expand3x3"
  top: "fire10/expand3x3"
}
layer {
  name: "fire10/concat"
  type: "Concat"
  bottom: "fire10/expand1x1"
  bottom: "fire10/expand3x3"
  top: "fire10/concat"
}
layer {
  name: "conv12_1"
  type: "Convolution"
  bottom: "fire10/concat"
  top: "conv12_1"
  param {
    lr_mult: 1
    decay_mult: 1
  }
  param {
    lr_mult: 2
    decay_mult: 0
  }
  convolution_param {
    num_output: 51
    pad: 3
    kernel_size: 3
    stride: 2
    weight_filler {
      type: "xavier"
    }
    bias_filler {
      type: "constant"
      value: 0
    }
  }
}
layer {
  name: "relu122_1"
  type: "ReLU"
  bottom: "conv12_1"
  top: "conv12_1"
}
layer {
  name: "conv12_2"
  type: "Convolution"
  bottom: "conv12_1"
  top: "conv12_2"
  param {
    lr_mult: 1
    decay_mult: 1
  }
  param {
    lr_mult: 2
    decay_mult: 0
  }
  convolution_param {
    num_output: 46
    pad: 0
    kernel_size: 3
    weight_filler {
      type: "xavier"
    }
    bias_filler {
      type: "constant"
      value: 0
    }
  }
}
layer {
  name: "relu12_2"
  type: "ReLU"
  bottom: "conv12_2"
  top: "conv12_2"
}
layer {
  name: "conv13_1"
  type: "Convolution"
  bottom: "conv12_2"
  top: "conv13_1"
  param {
    lr_mult: 1
    decay_mult: 1
  }
  param {
    lr_mult: 2
    decay_mult: 0
  }
  convolution_param {
    num_output: 55
    pad: 1
    kernel_size: 3
    weight_filler {
      type: "xavier"
    }
    bias_filler {
      type: "constant"
      value: 0
    }
  }
}
layer {
  name: "relu13_1"
  type: "ReLU"
  bottom: "conv13_1"
  top: "conv13_1"
}
layer {
  name: "conv13_2"
  type: "Convolution"
  bottom: "conv13_1"
  top: "conv13_2"
  param {
    lr_mult: 1
    decay_mult: 1
  }
  param {
    lr_mult: 2
    decay_mult: 0
  }
  convolution_param {
    num_output: 85
    pad: 1
    kernel_size: 3
    stride: 2
    weight_filler {
      type: "xavier"
    }
    bias_filler {
      type: "constant"
      value: 0
    }
  }
}
layer {
  name: "fire4_norm"
  type: "Normalize"
  bottom: "fire4/concat"
  top: "fire4_norm"
  norm_param {
    across_spatial: false
    scale_filler {
      type: "constant"
      value: 20
    }
    channel_shared: false
  }
}
layer {
  name: "fire4_mbox_loc"
  type: "Convolution"
  bottom: "fire4_norm"
  top: "fire4_mbox_loc"
  param {
    lr_mult: 1
    decay_mult: 1
  }
  param {
    lr_mult: 2
    decay_mult: 0
  }
  convolution_param {
    num_output: 16
    pad: 1
    kernel_size: 3
    stride: 1
    weight_filler {
      type: "xavier"
    }
    bias_filler {
      type: "constant"
      value: 0
    }
  }
}
layer {
  name: "fire4_mbox_loc_perm"
  type: "Permute"
  bottom: "fire4_mbox_loc"
  top: "fire4_mbox_loc_perm"
  permute_param {
    order: 0
    order: 2
    order: 3
    order: 1
  }
}
layer {
  name: "fire4_mbox_loc_flat"
  type: "Flatten"
  bottom: "fire4_mbox_loc_perm"
  top: "fire4_mbox_loc_flat"
  flatten_param {
    axis: 1
  }
}
layer {
  name: "fire4_mbox_conf"
  type: "Convolution"
  bottom: "fire4_norm"
  top: "fire4_mbox_conf"
  param {
    lr_mult: 1
    decay_mult: 1
  }
  param {
    lr_mult: 2
    decay_mult: 0
  }
  convolution_param {
    num_output: 28
    pad: 1
    kernel_size: 3
    stride: 1
    weight_filler {
      type: "xavier"
    }
    bias_filler {
      type: "constant"
      value: 0
    }
  }
}
layer {
  name: "fire4_mbox_conf_perm"
  type: "Permute"
  bottom: "fire4_mbox_conf"
  top: "fire4_mbox_conf_perm"
  permute_param {
    order: 0
    order: 2
    order: 3
    order: 1
  }
}
layer {
  name: "fire4_mbox_conf_flat"
  type: "Flatten"
  bottom: "fire4_mbox_conf_perm"
  top: "fire4_mbox_conf_flat"
  flatten_param {
    axis: 1
  }
}
layer {
  name: "fire4_mbox_priorbox"
  type: "PriorBox"
  bottom: "fire4_norm"
  bottom: "data"
  top: "fire4_mbox_priorbox"
  prior_box_param {
    min_size: 30
    max_size: 60
    aspect_ratio: 2
    flip: true
    clip: false
    variance: 0.1
    variance: 0.1
    variance: 0.2
    variance: 0.2
    step: 8
    offset: 0.5
  }
}
layer {
  name: "fire8_norm"
  type: "Normalize"
  bottom: "fire8/concat"
  top: "fire8_norm"
  norm_param {
    across_spatial: false
    scale_filler {
      type: "constant"
      value: 20
    }
    channel_shared: false
  }
}
layer {
  name: "fire8_mbox_loc"
  type: "Convolution"
  bottom: "fire8_norm"
  top: "fire8_mbox_loc"
  param {
    lr_mult: 1
    decay_mult: 1
  }
  param {
    lr_mult: 2
    decay_mult: 0
  }
  convolution_param {
    num_output: 24
    pad: 1
    kernel_size: 3
    stride: 1
    weight_filler {
      type: "xavier"
    }
    bias_filler {
      type: "constant"
      value: 0
    }
  }
}
layer {
  name: "fire8_mbox_loc_perm"
  type: "Permute"
  bottom: "fire8_mbox_loc"
  top: "fire8_mbox_loc_perm"
  permute_param {
    order: 0
    order: 2
    order: 3
    order: 1
  }
}
layer {
  name: "fire8_mbox_loc_flat"
  type: "Flatten"
  bottom: "fire8_mbox_loc_perm"
  top: "fire8_mbox_loc_flat"
  flatten_param {
    axis: 1
  }
}
layer {
  name: "fire8_mbox_conf"
  type: "Convolution"
  bottom: "fire8_norm"
  top: "fire8_mbox_conf"
  param {
    lr_mult: 1
    decay_mult: 1
  }
  param {
    lr_mult: 2
    decay_mult: 0
  }
  convolution_param {
    num_output: 42
    pad: 1
    kernel_size: 3
    stride: 1
    weight_filler {
      type: "xavier"
    }
    bias_filler {
      type: "constant"
      value: 0
    }
  }
}
layer {
  name: "fire8_mbox_conf_perm"
  type: "Permute"
  bottom: "fire8_mbox_conf"
  top: "fire8_mbox_conf_perm"
  permute_param {
    order: 0
    order: 2
    order: 3
    order: 1
  }
}
layer {
  name: "fire8_mbox_conf_flat"
  type: "Flatten"
  bottom: "fire8_mbox_conf_perm"
  top: "fire8_mbox_conf_flat"
  flatten_param {
    axis: 1
  }
}
layer {
  name: "fire8_mbox_priorbox"
  type: "PriorBox"
  bottom: "fire8_norm"
  bottom: "data"
  top: "fire8_mbox_priorbox"
  prior_box_param {
    min_size: 60
    max_size: 111
    aspect_ratio: 2
    aspect_ratio: 3
    flip: true
    clip: false
    variance: 0.1
    variance: 0.1
    variance: 0.2
    variance: 0.2
    step: 16
    offset: 0.5
  }
}
layer {
  name: "fire9_mbox_loc"
  type: "Convolution"
  bottom: "fire9/concat"
  top: "fire9_mbox_loc"
  param {
    lr_mult: 1
    decay_mult: 1
  }
  param {
    lr_mult: 2
    decay_mult: 0
  }
  convolution_param {
    num_output: 24
    pad: 1
    kernel_size: 3
    stride: 1
    weight_filler {
      type: "xavier"
    }
    bias_filler {
      type: "constant"
      value: 0
    }
  }
}
layer {
  name: "fire9_mbox_loc_perm"
  type: "Permute"
  bottom: "fire9_mbox_loc"
  top: "fire9_mbox_loc_perm"
  permute_param {
    order: 0
    order: 2
    order: 3
    order: 1
  }
}
layer {
  name: "fire9_mbox_loc_flat"
  type: "Flatten"
  bottom: "fire9_mbox_loc_perm"
  top: "fire9_mbox_loc_flat"
  flatten_param {
    axis: 1
  }
}
layer {
  name: "fire9_mbox_conf"
  type: "Convolution"
  bottom: "fire9/concat"
  top: "fire9_mbox_conf"
  param {
    lr_mult: 1
    decay_mult: 1
  }
  param {
    lr_mult: 2
    decay_mult: 0
  }
  convolution_param {
    num_output: 42
    pad: 1
    kernel_size: 3
    stride: 1
    weight_filler {
      type: "xavier"
    }
    bias_filler {
      type: "constant"
      value: 0
    }
  }
}
layer {
  name: "fire9_mbox_conf_perm"
  type: "Permute"
  bottom: "fire9_mbox_conf"
  top: "fire9_mbox_conf_perm"
  permute_param {
    order: 0
    order: 2
    order: 3
    order: 1
  }
}
layer {
  name: "fire9_mbox_conf_flat"
  type: "Flatten"
  bottom: "fire9_mbox_conf_perm"
  top: "fire9_mbox_conf_flat"
  flatten_param {
    axis: 1
  }
}
layer {
  name: "fire9_mbox_priorbox"
  type: "PriorBox"
  bottom: "fire9/concat"
  bottom: "data"
  top: "fire9_mbox_priorbox"
  prior_box_param {
    min_size: 111
    max_size: 162
    aspect_ratio: 2
    aspect_ratio: 3
    flip: true
    clip: false
    variance: 0.1
    variance: 0.1
    variance: 0.2
    variance: 0.2
    step: 34
    offset: 0.5
  }
}
layer {
  name: "fire10_mbox_loc"
  type: "Convolution"
  bottom: "fire10/concat"
  top: "fire10_mbox_loc"
  param {
    lr_mult: 1
    decay_mult: 1
  }
  param {
    lr_mult: 2
    decay_mult: 0
  }
  convolution_param {
    num_output: 24
    pad: 1
    kernel_size: 3
    stride: 1
    weight_filler {
      type: "xavier"
    }
    bias_filler {
      type: "constant"
      value: 0
    }
  }
}
layer {
  name: "fire10_mbox_loc_perm"
  type: "Permute"
  bottom: "fire10_mbox_loc"
  top: "fire10_mbox_loc_perm"
  permute_param {
    order: 0
    order: 2
    order: 3
    order: 1
  }
}
layer {
  name: "fire10_mbox_loc_flat"
  type: "Flatten"
  bottom: "fire10_mbox_loc_perm"
  top: "fire10_mbox_loc_flat"
  flatten_param {
    axis: 1
  }
}
layer {
  name: "fire10_mbox_conf"
  type: "Convolution"
  bottom: "fire10/concat"
  top: "fire10_mbox_conf"
  param {
    lr_mult: 1
    decay_mult: 1
  }
  param {
    lr_mult: 2
    decay_mult: 0
  }
  convolution_param {
    num_output: 42
    pad: 1
    kernel_size: 3
    stride: 1
    weight_filler {
      type: "xavier"
    }
    bias_filler {
      type: "constant"
      value: 0
    }
  }
}
layer {
  name: "fire10_mbox_conf_perm"
  type: "Permute"
  bottom: "fire10_mbox_conf"
  top: "fire10_mbox_conf_perm"
  permute_param {
    order: 0
    order: 2
    order: 3
    order: 1
  }
}
layer {
  name: "fire10_mbox_conf_flat"
  type: "Flatten"
  bottom: "fire10_mbox_conf_perm"
  top: "fire10_mbox_conf_flat"
  flatten_param {
    axis: 1
  }
}
layer {
  name: "fire10_mbox_priorbox"
  type: "PriorBox"
  bottom: "fire10/concat"
  bottom: "data"
  top: "fire10_mbox_priorbox"
  prior_box_param {
    min_size: 162
    max_size: 213
    aspect_ratio: 2
    aspect_ratio: 3
    flip: true
    clip: false
    variance: 0.1
    variance: 0.1
    variance: 0.2
    variance: 0.2
    step: 75
    offset: 0.5
  }
}
layer {
  name: "conv12_2_mbox_loc"
  type: "Convolution"
  bottom: "conv12_2"
  top: "conv12_2_mbox_loc"
  param {
    lr_mult: 1
    decay_mult: 1
  }
  param {
    lr_mult: 2
    decay_mult: 0
  }
  convolution_param {
    num_output: 24
    pad: 1
    kernel_size: 3
    stride: 1
    weight_filler {
      type: "xavier"
    }
    bias_filler {
      type: "constant"
      value: 0
    }
  }
}
layer {
  name: "conv12_2_mbox_loc_perm"
  type: "Permute"
  bottom: "conv12_2_mbox_loc"
  top: "conv12_2_mbox_loc_perm"
  permute_param {
    order: 0
    order: 2
    order: 3
    order: 1
  }
}
layer {
  name: "conv12_2_mbox_loc_flat"
  type: "Flatten"
  bottom: "conv12_2_mbox_loc_perm"
  top: "conv12_2_mbox_loc_flat"
  flatten_param {
    axis: 1
  }
}
layer {
  name: "conv12_2_mbox_conf"
  type: "Convolution"
  bottom: "conv12_2"
  top: "conv12_2_mbox_conf"
  param {
    lr_mult: 1
    decay_mult: 1
  }
  param {
    lr_mult: 2
    decay_mult: 0
  }
  convolution_param {
    num_output: 42
    pad: 1
    kernel_size: 3
    stride: 1
    weight_filler {
      type: "xavier"
    }
    bias_filler {
      type: "constant"
      value: 0
    }
  }
}
layer {
  name: "conv12_2_mbox_conf_perm"
  type: "Permute"
  bottom: "conv12_2_mbox_conf"
  top: "conv12_2_mbox_conf_perm"
  permute_param {
    order: 0
    order: 2
    order: 3
    order: 1
  }
}
layer {
  name: "conv12_2_mbox_conf_flat"
  type: "Flatten"
  bottom: "conv12_2_mbox_conf_perm"
  top: "conv12_2_mbox_conf_flat"
  flatten_param {
    axis: 1
  }
}
layer {
  name: "conv12_2_mbox_priorbox"
  type: "PriorBox"
  bottom: "conv12_2"
  bottom: "data"
  top: "conv12_2_mbox_priorbox"
  prior_box_param {
    min_size: 213
    max_size: 264
    aspect_ratio: 2
    aspect_ratio: 3
    flip: true
    clip: false
    variance: 0.1
    variance: 0.1
    variance: 0.2
    variance: 0.2
    step: 150
    offset: 0.5
  }
}
layer {
  name: "conv13_2_mbox_loc"
  type: "Convolution"
  bottom: "conv13_2"
  top: "conv13_2_mbox_loc"
  param {
    lr_mult: 1
    decay_mult: 1
  }
  param {
    lr_mult: 2
    decay_mult: 0
  }
  convolution_param {
    num_output: 16
    pad: 1
    kernel_size: 3
    stride: 1
    weight_filler {
      type: "xavier"
    }
    bias_filler {
      type: "constant"
      value: 0
    }
  }
}
layer {
  name: "conv13_2_mbox_loc_perm"
  type: "Permute"
  bottom: "conv13_2_mbox_loc"
  top: "conv13_2_mbox_loc_perm"
  permute_param {
    order: 0
    order: 2
    order: 3
    order: 1
  }
}
layer {
  name: "conv13_2_mbox_loc_flat"
  type: "Flatten"
  bottom: "conv13_2_mbox_loc_perm"
  top: "conv13_2_mbox_loc_flat"
  flatten_param {
    axis: 1
  }
}
layer {
  name: "conv13_2_mbox_conf"
  type: "Convolution"
  bottom: "conv13_2"
  top: "conv13_2_mbox_conf"
  param {
    lr_mult: 1
    decay_mult: 1
  }
  param {
    lr_mult: 2
    decay_mult: 0
  }
  convolution_param {
    num_output: 28
    pad: 1
    kernel_size: 3
    stride: 1
    weight_filler {
      type: "xavier"
    }
    bias_filler {
      type: "constant"
      value: 0
    }
  }
}
layer {
  name: "conv13_2_mbox_conf_perm"
  type: "Permute"
  bottom: "conv13_2_mbox_conf"
  top: "conv13_2_mbox_conf_perm"
  permute_param {
    order: 0
    order: 2
    order: 3
    order: 1
  }
}
layer {
  name: "conv13_2_mbox_conf_flat"
  type: "Flatten"
  bottom: "conv13_2_mbox_conf_perm"
  top: "conv13_2_mbox_conf_flat"
  flatten_param {
    axis: 1
  }
}
layer {
  name: "conv13_2_mbox_priorbox"
  type: "PriorBox"
  bottom: "conv13_2"
  bottom: "data"
  top: "conv13_2_mbox_priorbox"
  prior_box_param {
    min_size: 264
    max_size: 315
    aspect_ratio: 2
    flip: true
    clip: false
    variance: 0.1
    variance: 0.1
    variance: 0.2
    variance: 0.2
    step: 300
    offset: 0.5
  }
}
layer {
  name: "mbox_loc"
  type: "Concat"
  bottom: "fire4_mbox_loc_flat"
  bottom: "fire8_mbox_loc_flat"
  bottom: "fire9_mbox_loc_flat"
  bottom: "fire10_mbox_loc_flat"
  bottom: "conv12_2_mbox_loc_flat"
  bottom: "conv13_2_mbox_loc_flat"
  top: "mbox_loc"
  concat_param {
    axis: 1
  }
}
layer {
  name: "mbox_conf"
  type: "Concat"
  bottom: "fire4_mbox_conf_flat"
  bottom: "fire8_mbox_conf_flat"
  bottom: "fire9_mbox_conf_flat"
  bottom: "fire10_mbox_conf_flat"
  bottom: "conv12_2_mbox_conf_flat"
  bottom: "conv13_2_mbox_conf_flat"
  top: "mbox_conf"
  concat_param {
    axis: 1
  }
}
layer {
  name: "mbox_priorbox"
  type: "Concat"
  bottom: "fire4_mbox_priorbox"
  bottom: "fire8_mbox_priorbox"
  bottom: "fire9_mbox_priorbox"
  bottom: "fire10_mbox_priorbox"
  bottom: "conv12_2_mbox_priorbox"
  bottom: "conv13_2_mbox_priorbox"
  top: "mbox_priorbox"
  concat_param {
    axis: 2
  }
}
layer {
  name: "mbox_loss"
  type: "MultiBoxLoss"
  bottom: "mbox_loc"
  bottom: "mbox_conf"
  bottom: "mbox_priorbox"
  bottom: "label"
  top: "mbox_loss"
  include {
    phase: TRAIN
  }
  propagate_down: true
  propagate_down: true
  propagate_down: false
  propagate_down: false
  loss_param {
    normalization: VALID
  }
  multibox_loss_param {
    loc_loss_type: SMOOTH_L
I0405 14:04:55.285249 23648 layer_factory.hpp:77] Creating layer data
I0405 14:04:55.285403 23648 net.cpp:100] Creating Layer data
I0405 14:04:55.285423 23648 net.cpp:408] data -> data
I0405 14:04:55.285457 23648 net.cpp:408] data -> label
I0405 14:04:55.286300 23662 db_lmdb.cpp:35] Opened lmdb trainval_lmdb
I0405 14:04:55.299175 23648 annotated_data_layer.cpp:62] output data size: 8,3,300,300
I0405 14:04:55.312235 23648 net.cpp:150] Setting up data
I0405 14:04:55.312264 23648 net.cpp:157] Top shape: 8 3 300 300 (2160000)
I0405 14:04:55.312271 23648 net.cpp:157] Top shape: 1 1 1 8 (8)
I0405 14:04:55.312275 23648 net.cpp:165] Memory required for data: 8640032
I0405 14:04:55.312286 23648 layer_factory.hpp:77] Creating layer data_data_0_split
I0405 14:04:55.312299 23648 net.cpp:100] Creating Layer data_data_0_split
I0405 14:04:55.312305 23648 net.cpp:434] data_data_0_split <- data
I0405 14:04:55.312317 23648 net.cpp:408] data_data_0_split -> data_data_0_split_0
I0405 14:04:55.312327 23648 net.cpp:408] data_data_0_split -> data_data_0_split_1
I0405 14:04:55.312335 23648 net.cpp:408] data_data_0_split -> data_data_0_split_2
I0405 14:04:55.312342 23648 net.cpp:408] data_data_0_split -> data_data_0_split_3
I0405 14:04:55.312348 23648 net.cpp:408] data_data_0_split -> data_data_0_split_4
I0405 14:04:55.312361 23648 net.cpp:408] data_data_0_split -> data_data_0_split_5
I0405 14:04:55.312366 23648 net.cpp:408] data_data_0_split -> data_data_0_split_6
I0405 14:04:55.312439 23648 net.cpp:150] Setting up data_data_0_split
I0405 14:04:55.312446 23648 net.cpp:157] Top shape: 8 3 300 300 (2160000)
I0405 14:04:55.312450 23648 net.cpp:157] Top shape: 8 3 300 300 (2160000)
I0405 14:04:55.312455 23648 net.cpp:157] Top shape: 8 3 300 300 (2160000)
I0405 14:04:55.312459 23648 net.cpp:157] Top shape: 8 3 300 300 (2160000)
I0405 14:04:55.312463 23648 net.cpp:157] Top shape: 8 3 300 300 (2160000)
I0405 14:04:55.312469 23648 net.cpp:157] Top shape: 8 3 300 300 (2160000)
I0405 14:04:55.312490 23648 net.cpp:157] Top shape: 8 3 300 300 (2160000)
I0405 14:04:55.312494 23648 net.cpp:165] Memory required for data: 69120032
I0405 14:04:55.312500 23648 layer_factory.hpp:77] Creating layer conv1
I0405 14:04:55.312515 23648 net.cpp:100] Creating Layer conv1
I0405 14:04:55.312520 23648 net.cpp:434] conv1 <- data_data_0_split_0
I0405 14:04:55.312525 23648 net.cpp:408] conv1 -> conv1
I0405 14:04:55.674870 23648 net.cpp:150] Setting up conv1
I0405 14:04:55.674901 23648 net.cpp:157] Top shape: 8 57 149 149 (10123656)
I0405 14:04:55.674906 23648 net.cpp:165] Memory required for data: 109614656
I0405 14:04:55.674926 23648 layer_factory.hpp:77] Creating layer relu1_1
I0405 14:04:55.674940 23648 net.cpp:100] Creating Layer relu1_1
I0405 14:04:55.674947 23648 net.cpp:434] relu1_1 <- conv1
I0405 14:04:55.674953 23648 net.cpp:395] relu1_1 -> conv1 (in-place)
I0405 14:04:55.675364 23648 net.cpp:150] Setting up relu1_1
I0405 14:04:55.675379 23648 net.cpp:157] Top shape: 8 57 149 149 (10123656)
I0405 14:04:55.675384 23648 net.cpp:165] Memory required for data: 150109280
I0405 14:04:55.675388 23648 layer_factory.hpp:77] Creating layer pool1
I0405 14:04:55.675402 23648 net.cpp:100] Creating Layer pool1
I0405 14:04:55.675408 23648 net.cpp:434] pool1 <- conv1
I0405 14:04:55.675416 23648 net.cpp:408] pool1 -> pool1
I0405 14:04:55.675469 23648 net.cpp:150] Setting up pool1
I0405 14:04:55.675478 23648 net.cpp:157] Top shape: 8 57 74 74 (2497056)
I0405 14:04:55.675483 23648 net.cpp:165] Memory required for data: 160097504
I0405 14:04:55.675489 23648 layer_factory.hpp:77] Creating layer fire1/squeeze1x1
I0405 14:04:55.675501 23648 net.cpp:100] Creating Layer fire1/squeeze1x1
I0405 14:04:55.675508 23648 net.cpp:434] fire1/squeeze1x1 <- pool1
I0405 14:04:55.675515 23648 net.cpp:408] fire1/squeeze1x1 -> fire1/squeeze1x1
I0405 14:04:55.677891 23648 net.cpp:150] Setting up fire1/squeeze1x1
I0405 14:04:55.677907 23648 net.cpp:157] Top shape: 8 15 74 74 (657120)
I0405 14:04:55.677911 23648 net.cpp:165] Memory required for data: 162725984
I0405 14:04:55.677922 23648 layer_factory.hpp:77] Creating layer fire1/relu_squeeze1x1
I0405 14:04:55.677932 23648 net.cpp:100] Creating Layer fire1/relu_squeeze1x1
I0405 14:04:55.677937 23648 net.cpp:434] fire1/relu_squeeze1x1 <- fire1/squeeze1x1
I0405 14:04:55.677943 23648 net.cpp:395] fire1/relu_squeeze1x1 -> fire1/squeeze1x1 (in-place)
I0405 14:04:55.678112 23648 net.cpp:150] Setting up fire1/relu_squeeze1x1
I0405 14:04:55.678123 23648 net.cpp:157] Top shape: 8 15 74 74 (657120)
I0405 14:04:55.678128 23648 net.cpp:165] Memory required for data: 165354464
I0405 14:04:55.678131 23648 layer_factory.hpp:77] Creating layer fire1/squeeze1x1_fire1/relu_squeeze1x1_0_split
I0405 14:04:55.678145 23648 net.cpp:100] Creating Layer fire1/squeeze1x1_fire1/relu_squeeze1x1_0_split
I0405 14:04:55.678151 23648 net.cpp:434] fire1/squeeze1x1_fire1/relu_squeeze1x1_0_split <- fire1/squeeze1x1
I0405 14:04:55.678156 23648 net.cpp:408] fire1/squeeze1x1_fire1/relu_squeeze1x1_0_split -> fire1/squeeze1x1_fire1/relu_squeeze1x1_0_split_0
I0405 14:04:55.678165 23648 net.cpp:408] fire1/squeeze1x1_fire1/relu_squeeze1x1_0_split -> fire1/squeeze1x1_fire1/relu_squeeze1x1_0_split_1
I0405 14:04:55.678205 23648 net.cpp:150] Setting up fire1/squeeze1x1_fire1/relu_squeeze1x1_0_split
I0405 14:04:55.678211 23648 net.cpp:157] Top shape: 8 15 74 74 (657120)
I0405 14:04:55.678216 23648 net.cpp:157] Top shape: 8 15 74 74 (657120)
I0405 14:04:55.678220 23648 net.cpp:165] Memory required for data: 170611424
I0405 14:04:55.678223 23648 layer_factory.hpp:77] Creating layer fire1/expand1x1
I0405 14:04:55.678234 23648 net.cpp:100] Creating Layer fire1/expand1x1
I0405 14:04:55.678241 23648 net.cpp:434] fire1/expand1x1 <- fire1/squeeze1x1_fire1/relu_squeeze1x1_0_split_0
I0405 14:04:55.678247 23648 net.cpp:408] fire1/expand1x1 -> fire1/expand1x1
I0405 14:04:55.679467 23648 net.cpp:150] Setting up fire1/expand1x1
I0405 14:04:55.679483 23648 net.cpp:157] Top shape: 8 49 74 74 (2146592)
I0405 14:04:55.679488 23648 net.cpp:165] Memory required for data: 179197792
I0405 14:04:55.679519 23648 layer_factory.hpp:77] Creating layer fire1/relu_expand1x1
I0405 14:04:55.679528 23648 net.cpp:100] Creating Layer fire1/relu_expand1x1
I0405 14:04:55.679534 23648 net.cpp:434] fire1/relu_expand1x1 <- fire1/expand1x1
I0405 14:04:55.679540 23648 net.cpp:395] fire1/relu_expand1x1 -> fire1/expand1x1 (in-place)
I0405 14:04:55.679946 23648 net.cpp:150] Setting up fire1/relu_expand1x1
I0405 14:04:55.679960 23648 net.cpp:157] Top shape: 8 49 74 74 (2146592)
I0405 14:04:55.679965 23648 net.cpp:165] Memory required for data: 187784160
I0405 14:04:55.679970 23648 layer_factory.hpp:77] Creating layer fire1/expand3x3
I0405 14:04:55.679980 23648 net.cpp:100] Creating Layer fire1/expand3x3
I0405 14:04:55.679986 23648 net.cpp:434] fire1/expand3x3 <- fire1/squeeze1x1_fire1/relu_squeeze1x1_0_split_1
I0405 14:04:55.679991 23648 net.cpp:408] fire1/expand3x3 -> fire1/expand3x3
I0405 14:04:55.681252 23648 net.cpp:150] Setting up fire1/expand3x3
I0405 14:04:55.681268 23648 net.cpp:157] Top shape: 8 53 74 74 (2321824)
I0405 14:04:55.681274 23648 net.cpp:165] Memory required for data: 197071456
I0405 14:04:55.681282 23648 layer_factory.hpp:77] Creating layer fire1/relu_expand3x3
I0405 14:04:55.681289 23648 net.cpp:100] Creating Layer fire1/relu_expand3x3
I0405 14:04:55.681294 23648 net.cpp:434] fire1/relu_expand3x3 <- fire1/expand3x3
I0405 14:04:55.681300 23648 net.cpp:395] fire1/relu_expand3x3 -> fire1/expand3x3 (in-place)
I0405 14:04:55.681471 23648 net.cpp:150] Setting up fire1/relu_expand3x3
I0405 14:04:55.681483 23648 net.cpp:157] Top shape: 8 53 74 74 (2321824)
I0405 14:04:55.681488 23648 net.cpp:165] Memory required for data: 206358752
I0405 14:04:55.681493 23648 layer_factory.hpp:77] Creating layer fire1/concat
I0405 14:04:55.681499 23648 net.cpp:100] Creating Layer fire1/concat
I0405 14:04:55.681504 23648 net.cpp:434] fire1/concat <- fire1/expand1x1
I0405 14:04:55.681510 23648 net.cpp:434] fire1/concat <- fire1/expand3x3
I0405 14:04:55.681516 23648 net.cpp:408] fire1/concat -> fire1/concat
I0405 14:04:55.681545 23648 net.cpp:150] Setting up fire1/concat
I0405 14:04:55.681553 23648 net.cpp:157] Top shape: 8 102 74 74 (4468416)
I0405 14:04:55.681556 23648 net.cpp:165] Memory required for data: 224232416
I0405 14:04:55.681560 23648 layer_factory.hpp:77] Creating layer fire2/squeeze1x1
I0405 14:04:55.681569 23648 net.cpp:100] Creating Layer fire2/squeeze1x1
I0405 14:04:55.681574 23648 net.cpp:434] fire2/squeeze1x1 <- fire1/concat
I0405 14:04:55.681581 23648 net.cpp:408] fire2/squeeze1x1 -> fire2/squeeze1x1
I0405 14:04:55.682793 23648 net.cpp:150] Setting up fire2/squeeze1x1
I0405 14:04:55.682808 23648 net.cpp:157] Top shape: 8 15 74 74 (657120)
I0405 14:04:55.682814 23648 net.cpp:165] Memory required for data: 226860896
I0405 14:04:55.682824 23648 layer_factory.hpp:77] Creating layer fire2/relu_squeeze1x1
I0405 14:04:55.682832 23648 net.cpp:100] Creating Layer fire2/relu_squeeze1x1
I0405 14:04:55.682837 23648 net.cpp:434] fire2/relu_squeeze1x1 <- fire2/squeeze1x1
I0405 14:04:55.682844 23648 net.cpp:395] fire2/relu_squeeze1x1 -> fire2/squeeze1x1 (in-place)
I0405 14:04:55.683238 23648 net.cpp:150] Setting up fire2/relu_squeeze1x1
I0405 14:04:55.683250 23648 net.cpp:157] Top shape: 8 15 74 74 (657120)
I0405 14:04:55.683255 23648 net.cpp:165] Memory required for data: 229489376
I0405 14:04:55.683261 23648 layer_factory.hpp:77] Creating layer fire2/squeeze1x1_fire2/relu_squeeze1x1_0_split
I0405 14:04:55.683269 23648 net.cpp:100] Creating Layer fire2/squeeze1x1_fire2/relu_squeeze1x1_0_split
I0405 14:04:55.683274 23648 net.cpp:434] fire2/squeeze1x1_fire2/relu_squeeze1x1_0_split <- fire2/squeeze1x1
I0405 14:04:55.683281 23648 net.cpp:408] fire2/squeeze1x1_fire2/relu_squeeze1x1_0_split -> fire2/squeeze1x1_fire2/relu_squeeze1x1_0_split_0
I0405 14:04:55.683290 23648 net.cpp:408] fire2/squeeze1x1_fire2/relu_squeeze1x1_0_split -> fire2/squeeze1x1_fire2/relu_squeeze1x1_0_split_1
I0405 14:04:55.683331 23648 net.cpp:150] Setting up fire2/squeeze1x1_fire2/relu_squeeze1x1_0_split
I0405 14:04:55.683351 23648 net.cpp:157] Top shape: 8 15 74 74 (657120)
I0405 14:04:55.683358 23648 net.cpp:157] Top shape: 8 15 74 74 (657120)
I0405 14:04:55.683362 23648 net.cpp:165] Memory required for data: 234746336
I0405 14:04:55.683367 23648 layer_factory.hpp:77] Creating layer fire2/expand1x1
I0405 14:04:55.683379 23648 net.cpp:100] Creating Layer fire2/expand1x1
I0405 14:04:55.683385 23648 net.cpp:434] fire2/expand1x1 <- fire2/squeeze1x1_fire2/relu_squeeze1x1_0_split_0
I0405 14:04:55.683393 23648 net.cpp:408] fire2/expand1x1 -> fire2/expand1x1
I0405 14:04:55.684641 23648 net.cpp:150] Setting up fire2/expand1x1
I0405 14:04:55.684657 23648 net.cpp:157] Top shape: 8 54 74 74 (2365632)
I0405 14:04:55.684662 23648 net.cpp:165] Memory required for data: 244208864
I0405 14:04:55.684670 23648 layer_factory.hpp:77] Creating layer fire2/relu_expand1x1
I0405 14:04:55.684677 23648 net.cpp:100] Creating Layer fire2/relu_expand1x1
I0405 14:04:55.684682 23648 net.cpp:434] fire2/relu_expand1x1 <- fire2/expand1x1
I0405 14:04:55.684689 23648 net.cpp:395] fire2/relu_expand1x1 -> fire2/expand1x1 (in-place)
I0405 14:04:55.685072 23648 net.cpp:150] Setting up fire2/relu_expand1x1
I0405 14:04:55.685086 23648 net.cpp:157] Top shape: 8 54 74 74 (2365632)
I0405 14:04:55.685091 23648 net.cpp:165] Memory required for data: 253671392
I0405 14:04:55.685096 23648 layer_factory.hpp:77] Creating layer fire2/expand3x3
I0405 14:04:55.685106 23648 net.cpp:100] Creating Layer fire2/expand3x3
I0405 14:04:55.685111 23648 net.cpp:434] fire2/expand3x3 <- fire2/squeeze1x1_fire2/relu_squeeze1x1_0_split_1
I0405 14:04:55.685118 23648 net.cpp:408] fire2/expand3x3 -> fire2/expand3x3
I0405 14:04:55.686436 23648 net.cpp:150] Setting up fire2/expand3x3
I0405 14:04:55.686458 23648 net.cpp:157] Top shape: 8 52 74 74 (2278016)
I0405 14:04:55.686466 23648 net.cpp:165] Memory required for data: 262783456
I0405 14:04:55.686480 23648 layer_factory.hpp:77] Creating layer fire2/relu_expand3x3
I0405 14:04:55.686491 23648 net.cpp:100] Creating Layer fire2/relu_expand3x3
I0405 14:04:55.686498 23648 net.cpp:434] fire2/relu_expand3x3 <- fire2/expand3x3
I0405 14:04:55.686508 23648 net.cpp:395] fire2/relu_expand3x3 -> fire2/expand3x3 (in-place)
I0405 14:04:55.686885 23648 net.cpp:150] Setting up fire2/relu_expand3x3
I0405 14:04:55.686906 23648 net.cpp:157] Top shape: 8 52 74 74 (2278016)
I0405 14:04:55.686914 23648 net.cpp:165] Memory required for data: 271895520
I0405 14:04:55.686923 23648 layer_factory.hpp:77] Creating layer fire2/concat
I0405 14:04:55.686934 23648 net.cpp:100] Creating Layer fire2/concat
I0405 14:04:55.686944 23648 net.cpp:434] fire2/concat <- fire2/expand1x1
I0405 14:04:55.686952 23648 net.cpp:434] fire2/concat <- fire2/expand3x3
I0405 14:04:55.686962 23648 net.cpp:408] fire2/concat -> fire2/concat
I0405 14:04:55.687006 23648 net.cpp:150] Setting up fire2/concat
I0405 14:04:55.687021 23648 net.cpp:157] Top shape: 8 106 74 74 (4643648)
I0405 14:04:55.687027 23648 net.cpp:165] Memory required for data: 290470112
I0405 14:04:55.687034 23648 layer_factory.hpp:77] Creating layer pool3
I0405 14:04:55.687047 23648 net.cpp:100] Creating Layer pool3
I0405 14:04:55.687053 23648 net.cpp:434] pool3 <- fire2/concat
I0405 14:04:55.687063 23648 net.cpp:408] pool3 -> pool3
I0405 14:04:55.687104 23648 net.cpp:150] Setting up pool3
I0405 14:04:55.687111 23648 net.cpp:157] Top shape: 8 106 37 37 (1160912)
I0405 14:04:55.687116 23648 net.cpp:165] Memory required for data: 295113760
I0405 14:04:55.687121 23648 layer_factory.hpp:77] Creating layer fire3/squeeze1x1
I0405 14:04:55.687130 23648 net.cpp:100] Creating Layer fire3/squeeze1x1
I0405 14:04:55.687135 23648 net.cpp:434] fire3/squeeze1x1 <- pool3
I0405 14:04:55.687153 23648 net.cpp:408] fire3/squeeze1x1 -> fire3/squeeze1x1
I0405 14:04:55.688940 23648 net.cpp:150] Setting up fire3/squeeze1x1
I0405 14:04:55.688956 23648 net.cpp:157] Top shape: 8 29 37 37 (317608)
I0405 14:04:55.688961 23648 net.cpp:165] Memory required for data: 296384192
I0405 14:04:55.688971 23648 layer_factory.hpp:77] Creating layer fire3/relu_squeeze1x1
I0405 14:04:55.688999 23648 net.cpp:100] Creating Layer fire3/relu_squeeze1x1
I0405 14:04:55.689005 23648 net.cpp:434] fire3/relu_squeeze1x1 <- fire3/squeeze1x1
I0405 14:04:55.689013 23648 net.cpp:395] fire3/relu_squeeze1x1 -> fire3/squeeze1x1 (in-place)
I0405 14:04:55.689410 23648 net.cpp:150] Setting up fire3/relu_squeeze1x1
I0405 14:04:55.689426 23648 net.cpp:157] Top shape: 8 29 37 37 (317608)
I0405 14:04:55.689433 23648 net.cpp:165] Memory required for data: 297654624
I0405 14:04:55.689440 23648 layer_factory.hpp:77] Creating layer fire3/squeeze1x1_fire3/relu_squeeze1x1_0_split
I0405 14:04:55.689450 23648 net.cpp:100] Creating Layer fire3/squeeze1x1_fire3/relu_squeeze1x1_0_split
I0405 14:04:55.689456 23648 net.cpp:434] fire3/squeeze1x1_fire3/relu_squeeze1x1_0_split <- fire3/squeeze1x1
I0405 14:04:55.689466 23648 net.cpp:408] fire3/squeeze1x1_fire3/relu_squeeze1x1_0_split -> fire3/squeeze1x1_fire3/relu_squeeze1x1_0_split_0
I0405 14:04:55.689484 23648 net.cpp:408] fire3/squeeze1x1_fire3/relu_squeeze1x1_0_split -> fire3/squeeze1x1_fire3/relu_squeeze1x1_0_split_1
I0405 14:04:55.689529 23648 net.cpp:150] Setting up fire3/squeeze1x1_fire3/relu_squeeze1x1_0_split
I0405 14:04:55.689539 23648 net.cpp:157] Top shape: 8 29 37 37 (317608)
I0405 14:04:55.689546 23648 net.cpp:157] Top shape: 8 29 37 37 (317608)
I0405 14:04:55.689551 23648 net.cpp:165] Memory required for data: 300195488
I0405 14:04:55.689558 23648 layer_factory.hpp:77] Creating layer fire3/expand1x1
I0405 14:04:55.689568 23648 net.cpp:100] Creating Layer fire3/expand1x1
I0405 14:04:55.689574 23648 net.cpp:434] fire3/expand1x1 <- fire3/squeeze1x1_fire3/relu_squeeze1x1_0_split_0
I0405 14:04:55.689584 23648 net.cpp:408] fire3/expand1x1 -> fire3/expand1x1
I0405 14:04:55.691018 23648 net.cpp:150] Setting up fire3/expand1x1
I0405 14:04:55.691035 23648 net.cpp:157] Top shape: 8 92 37 37 (1007584)
I0405 14:04:55.691041 23648 net.cpp:165] Memory required for data: 304225824
I0405 14:04:55.691054 23648 layer_factory.hpp:77] Creating layer fire3/relu_expand1x1
I0405 14:04:55.691062 23648 net.cpp:100] Creating Layer fire3/relu_expand1x1
I0405 14:04:55.691067 23648 net.cpp:434] fire3/relu_expand1x1 <- fire3/expand1x1
I0405 14:04:55.691074 23648 net.cpp:395] fire3/relu_expand1x1 -> fire3/expand1x1 (in-place)
I0405 14:04:55.691241 23648 net.cpp:150] Setting up fire3/relu_expand1x1
I0405 14:04:55.691252 23648 net.cpp:157] Top shape: 8 92 37 37 (1007584)
I0405 14:04:55.691256 23648 net.cpp:165] Memory required for data: 308256160
I0405 14:04:55.691262 23648 layer_factory.hpp:77] Creating layer fire3/expand3x3
I0405 14:04:55.691272 23648 net.cpp:100] Creating Layer fire3/expand3x3
I0405 14:04:55.691277 23648 net.cpp:434] fire3/expand3x3 <- fire3/squeeze1x1_fire3/relu_squeeze1x1_0_split_1
I0405 14:04:55.691284 23648 net.cpp:408] fire3/expand3x3 -> fire3/expand3x3
I0405 14:04:55.692680 23648 net.cpp:150] Setting up fire3/expand3x3
I0405 14:04:55.692697 23648 net.cpp:157] Top shape: 8 94 37 37 (1029488)
I0405 14:04:55.692701 23648 net.cpp:165] Memory required for data: 312374112
I0405 14:04:55.692709 23648 layer_factory.hpp:77] Creating layer fire3/relu_expand3x3
I0405 14:04:55.692716 23648 net.cpp:100] Creating Layer fire3/relu_expand3x3
I0405 14:04:55.692723 23648 net.cpp:434] fire3/relu_expand3x3 <- fire3/expand3x3
I0405 14:04:55.692729 23648 net.cpp:395] fire3/relu_expand3x3 -> fire3/expand3x3 (in-place)
I0405 14:04:55.693138 23648 net.cpp:150] Setting up fire3/relu_expand3x3
I0405 14:04:55.693151 23648 net.cpp:157] Top shape: 8 94 37 37 (1029488)
I0405 14:04:55.693156 23648 net.cpp:165] Memory required for data: 316492064
I0405 14:04:55.693161 23648 layer_factory.hpp:77] Creating layer fire3/concat
I0405 14:04:55.693169 23648 net.cpp:100] Creating Layer fire3/concat
I0405 14:04:55.693174 23648 net.cpp:434] fire3/concat <- fire3/expand1x1
I0405 14:04:55.693181 23648 net.cpp:434] fire3/concat <- fire3/expand3x3
I0405 14:04:55.693186 23648 net.cpp:408] fire3/concat -> fire3/concat
I0405 14:04:55.693220 23648 net.cpp:150] Setting up fire3/concat
I0405 14:04:55.693229 23648 net.cpp:157] Top shape: 8 186 37 37 (2037072)
I0405 14:04:55.693255 23648 net.cpp:165] Memory required for data: 324640352
I0405 14:04:55.693264 23648 layer_factory.hpp:77] Creating layer fire4/squeeze1x1
I0405 14:04:55.693284 23648 net.cpp:100] Creating Layer fire4/squeeze1x1
I0405 14:04:55.693291 23648 net.cpp:434] fire4/squeeze1x1 <- fire3/concat
I0405 14:04:55.693301 23648 net.cpp:408] fire4/squeeze1x1 -> fire4/squeeze1x1
I0405 14:04:55.694555 23648 net.cpp:150] Setting up fire4/squeeze1x1
I0405 14:04:55.694572 23648 net.cpp:157] Top shape: 8 29 37 37 (317608)
I0405 14:04:55.694579 23648 net.cpp:165] Memory required for data: 325910784
I0405 14:04:55.694591 23648 layer_factory.hpp:77] Creating layer fire4/relu_squeeze1x1
I0405 14:04:55.694610 23648 net.cpp:100] Creating Layer fire4/relu_squeeze1x1
I0405 14:04:55.694617 23648 net.cpp:434] fire4/relu_squeeze1x1 <- fire4/squeeze1x1
I0405 14:04:55.694623 23648 net.cpp:395] fire4/relu_squeeze1x1 -> fire4/squeeze1x1 (in-place)
I0405 14:04:55.695024 23648 net.cpp:150] Setting up fire4/relu_squeeze1x1
I0405 14:04:55.695037 23648 net.cpp:157] Top shape: 8 29 37 37 (317608)
I0405 14:04:55.695042 23648 net.cpp:165] Memory required for data: 327181216
I0405 14:04:55.695047 23648 layer_factory.hpp:77] Creating layer fire4/squeeze1x1_fire4/relu_squeeze1x1_0_split
I0405 14:04:55.695060 23648 net.cpp:100] Creating Layer fire4/squeeze1x1_fire4/relu_squeeze1x1_0_split
I0405 14:04:55.695065 23648 net.cpp:434] fire4/squeeze1x1_fire4/relu_squeeze1x1_0_split <- fire4/squeeze1x1
I0405 14:04:55.695072 23648 net.cpp:408] fire4/squeeze1x1_fire4/relu_squeeze1x1_0_split -> fire4/squeeze1x1_fire4/relu_squeeze1x1_0_split_0
I0405 14:04:55.695080 23648 net.cpp:408] fire4/squeeze1x1_fire4/relu_squeeze1x1_0_split -> fire4/squeeze1x1_fire4/relu_squeeze1x1_0_split_1
I0405 14:04:55.695123 23648 net.cpp:150] Setting up fire4/squeeze1x1_fire4/relu_squeeze1x1_0_split
I0405 14:04:55.695132 23648 net.cpp:157] Top shape: 8 29 37 37 (317608)
I0405 14:04:55.695137 23648 net.cpp:157] Top shape: 8 29 37 37 (317608)
I0405 14:04:55.695142 23648 net.cpp:165] Memory required for data: 329722080
I0405 14:04:55.695147 23648 layer_factory.hpp:77] Creating layer fire4/expand1x1
I0405 14:04:55.695155 23648 net.cpp:100] Creating Layer fire4/expand1x1
I0405 14:04:55.695163 23648 net.cpp:434] fire4/expand1x1 <- fire4/squeeze1x1_fire4/relu_squeeze1x1_0_split_0
I0405 14:04:55.695173 23648 net.cpp:408] fire4/expand1x1 -> fire4/expand1x1
I0405 14:04:55.696408 23648 net.cpp:150] Setting up fire4/expand1x1
I0405 14:04:55.696424 23648 net.cpp:157] Top shape: 8 90 37 37 (985680)
I0405 14:04:55.696432 23648 net.cpp:165] Memory required for data: 333664800
I0405 14:04:55.696444 23648 layer_factory.hpp:77] Creating layer fire4/relu_expand1x1
I0405 14:04:55.696454 23648 net.cpp:100] Creating Layer fire4/relu_expand1x1
I0405 14:04:55.696461 23648 net.cpp:434] fire4/relu_expand1x1 <- fire4/expand1x1
I0405 14:04:55.696470 23648 net.cpp:395] fire4/relu_expand1x1 -> fire4/expand1x1 (in-place)
I0405 14:04:55.696640 23648 net.cpp:150] Setting up fire4/relu_expand1x1
I0405 14:04:55.696651 23648 net.cpp:157] Top shape: 8 90 37 37 (985680)
I0405 14:04:55.696655 23648 net.cpp:165] Memory required for data: 337607520
I0405 14:04:55.696660 23648 layer_factory.hpp:77] Creating layer fire4/expand3x3
I0405 14:04:55.696669 23648 net.cpp:100] Creating Layer fire4/expand3x3
I0405 14:04:55.696676 23648 net.cpp:434] fire4/expand3x3 <- fire4/squeeze1x1_fire4/relu_squeeze1x1_0_split_1
I0405 14:04:55.696683 23648 net.cpp:408] fire4/expand3x3 -> fire4/expand3x3
I0405 14:04:55.698086 23648 net.cpp:150] Setting up fire4/expand3x3
I0405 14:04:55.698113 23648 net.cpp:157] Top shape: 8 83 37 37 (909016)
I0405 14:04:55.698119 23648 net.cpp:165] Memory required for data: 341243584
I0405 14:04:55.698132 23648 layer_factory.hpp:77] Creating layer fire4/relu_expand3x3
I0405 14:04:55.698141 23648 net.cpp:100] Creating Layer fire4/relu_expand3x3
I0405 14:04:55.698148 23648 net.cpp:434] fire4/relu_expand3x3 <- fire4/expand3x3
I0405 14:04:55.698155 23648 net.cpp:395] fire4/relu_expand3x3 -> fire4/expand3x3 (in-place)
I0405 14:04:55.698626 23648 net.cpp:150] Setting up fire4/relu_expand3x3
I0405 14:04:55.698640 23648 net.cpp:157] Top shape: 8 83 37 37 (909016)
I0405 14:04:55.698644 23648 net.cpp:165] Memory required for data: 344879648
I0405 14:04:55.698652 23648 layer_factory.hpp:77] Creating layer fire4/concat
I0405 14:04:55.698662 23648 net.cpp:100] Creating Layer fire4/concat
I0405 14:04:55.698668 23648 net.cpp:434] fire4/concat <- fire4/expand1x1
I0405 14:04:55.698673 23648 net.cpp:434] fire4/concat <- fire4/expand3x3
I0405 14:04:55.698679 23648 net.cpp:408] fire4/concat -> fire4/concat
I0405 14:04:55.698710 23648 net.cpp:150] Setting up fire4/concat
I0405 14:04:55.698719 23648 net.cpp:157] Top shape: 8 173 37 37 (1894696)
I0405 14:04:55.698722 23648 net.cpp:165] Memory required for data: 352458432
I0405 14:04:55.698727 23648 layer_factory.hpp:77] Creating layer fire4/concat_fire4/concat_0_split
I0405 14:04:55.698734 23648 net.cpp:100] Creating Layer fire4/concat_fire4/concat_0_split
I0405 14:04:55.698740 23648 net.cpp:434] fire4/concat_fire4/concat_0_split <- fire4/concat
I0405 14:04:55.698745 23648 net.cpp:408] fire4/concat_fire4/concat_0_split -> fire4/concat_fire4/concat_0_split_0
I0405 14:04:55.698752 23648 net.cpp:408] fire4/concat_fire4/concat_0_split -> fire4/concat_fire4/concat_0_split_1
I0405 14:04:55.698792 23648 net.cpp:150] Setting up fire4/concat_fire4/concat_0_split
I0405 14:04:55.698801 23648 net.cpp:157] Top shape: 8 173 37 37 (1894696)
I0405 14:04:55.698806 23648 net.cpp:157] Top shape: 8 173 37 37 (1894696)
I0405 14:04:55.698809 23648 net.cpp:165] Memory required for data: 367616000
I0405 14:04:55.698814 23648 layer_factory.hpp:77] Creating layer pool5
I0405 14:04:55.698822 23648 net.cpp:100] Creating Layer pool5
I0405 14:04:55.698829 23648 net.cpp:434] pool5 <- fire4/concat_fire4/concat_0_split_0
I0405 14:04:55.698839 23648 net.cpp:408] pool5 -> pool5
I0405 14:04:55.698879 23648 net.cpp:150] Setting up pool5
I0405 14:04:55.698887 23648 net.cpp:157] Top shape: 8 173 18 18 (448416)
I0405 14:04:55.698894 23648 net.cpp:165] Memory required for data: 369409664
I0405 14:04:55.698901 23648 layer_factory.hpp:77] Creating layer fire5/squeeze1x1
I0405 14:04:55.698915 23648 net.cpp:100] Creating Layer fire5/squeeze1x1
I0405 14:04:55.698920 23648 net.cpp:434] fire5/squeeze1x1 <- pool5
I0405 14:04:55.698930 23648 net.cpp:408] fire5/squeeze1x1 -> fire5/squeeze1x1
I0405 14:04:55.700248 23648 net.cpp:150] Setting up fire5/squeeze1x1
I0405 14:04:55.700265 23648 net.cpp:157] Top shape: 8 44 18 18 (114048)
I0405 14:04:55.700273 23648 net.cpp:165] Memory required for data: 369865856
I0405 14:04:55.700286 23648 layer_factory.hpp:77] Creating layer fire5/relu_squeeze1x1
I0405 14:04:55.700295 23648 net.cpp:100] Creating Layer fire5/relu_squeeze1x1
I0405 14:04:55.700302 23648 net.cpp:434] fire5/relu_squeeze1x1 <- fire5/squeeze1x1
I0405 14:04:55.700311 23648 net.cpp:395] fire5/relu_squeeze1x1 -> fire5/squeeze1x1 (in-place)
I0405 14:04:55.700505 23648 net.cpp:150] Setting up fire5/relu_squeeze1x1
I0405 14:04:55.700518 23648 net.cpp:157] Top shape: 8 44 18 18 (114048)
I0405 14:04:55.700525 23648 net.cpp:165] Memory required for data: 370322048
I0405 14:04:55.700531 23648 layer_factory.hpp:77] Creating layer fire5/squeeze1x1_fire5/relu_squeeze1x1_0_split
I0405 14:04:55.700541 23648 net.cpp:100] Creating Layer fire5/squeeze1x1_fire5/relu_squeeze1x1_0_split
I0405 14:04:55.700546 23648 net.cpp:434] fire5/squeeze1x1_fire5/relu_squeeze1x1_0_split <- fire5/squeeze1x1
I0405 14:04:55.700556 23648 net.cpp:408] fire5/squeeze1x1_fire5/relu_squeeze1x1_0_split -> fire5/squeeze1x1_fire5/relu_squeeze1x1_0_split_0
I0405 14:04:55.700564 23648 net.cpp:408] fire5/squeeze1x1_fire5/relu_squeeze1x1_0_split -> fire5/squeeze1x1_fire5/relu_squeeze1x1_0_split_1
I0405 14:04:55.700606 23648 net.cpp:150] Setting up fire5/squeeze1x1_fire5/relu_squeeze1x1_0_split
I0405 14:04:55.700616 23648 net.cpp:157] Top shape: 8 44 18 18 (114048)
I0405 14:04:55.700623 23648 net.cpp:157] Top shape: 8 44 18 18 (114048)
I0405 14:04:55.700628 23648 net.cpp:165] Memory required for data: 371234432
I0405 14:04:55.700647 23648 layer_factory.hpp:77] Creating layer fire5/expand1x1
I0405 14:04:55.700660 23648 net.cpp:100] Creating Layer fire5/expand1x1
I0405 14:04:55.700667 23648 net.cpp:434] fire5/expand1x1 <- fire5/squeeze1x1_fire5/relu_squeeze1x1_0_split_0
I0405 14:04:55.700675 23648 net.cpp:408] fire5/expand1x1 -> fire5/expand1x1
I0405 14:04:55.701972 23648 net.cpp:150] Setting up fire5/expand1x1
I0405 14:04:55.701988 23648 net.cpp:157] Top shape: 8 166 18 18 (430272)
I0405 14:04:55.701995 23648 net.cpp:165] Memory required for data: 372955520
I0405 14:04:55.702005 23648 layer_factory.hpp:77] Creating layer fire5/relu_expand1x1
I0405 14:04:55.702013 23648 net.cpp:100] Creating Layer fire5/relu_expand1x1
I0405 14:04:55.702020 23648 net.cpp:434] fire5/relu_expand1x1 <- fire5/expand1x1
I0405 14:04:55.702028 23648 net.cpp:395] fire5/relu_expand1x1 -> fire5/expand1x1 (in-place)
I0405 14:04:55.702513 23648 net.cpp:150] Setting up fire5/relu_expand1x1
I0405 14:04:55.702533 23648 net.cpp:157] Top shape: 8 166 18 18 (430272)
I0405 14:04:55.702539 23648 net.cpp:165] Memory required for data: 374676608
I0405 14:04:55.702545 23648 layer_factory.hpp:77] Creating layer fire5/expand3x3
I0405 14:04:55.702560 23648 net.cpp:100] Creating Layer fire5/expand3x3
I0405 14:04:55.702569 23648 net.cpp:434] fire5/expand3x3 <- fire5/squeeze1x1_fire5/relu_squeeze1x1_0_split_1
I0405 14:04:55.702579 23648 net.cpp:408] fire5/expand3x3 -> fire5/expand3x3
I0405 14:04:55.704984 23648 net.cpp:150] Setting up fire5/expand3x3
I0405 14:04:55.705008 23648 net.cpp:157] Top shape: 8 161 18 18 (417312)
I0405 14:04:55.705013 23648 net.cpp:165] Memory required for data: 376345856
I0405 14:04:55.705021 23648 layer_factory.hpp:77] Creating layer fire5/relu_expand3x3
I0405 14:04:55.705039 23648 net.cpp:100] Creating Layer fire5/relu_expand3x3
I0405 14:04:55.705046 23648 net.cpp:434] fire5/relu_expand3x3 <- fire5/expand3x3
I0405 14:04:55.705054 23648 net.cpp:395] fire5/relu_expand3x3 -> fire5/expand3x3 (in-place)
I0405 14:04:55.705505 23648 net.cpp:150] Setting up fire5/relu_expand3x3
I0405 14:04:55.705521 23648 net.cpp:157] Top shape: 8 161 18 18 (417312)
I0405 14:04:55.705526 23648 net.cpp:165] Memory required for data: 378015104
I0405 14:04:55.705530 23648 layer_factory.hpp:77] Creating layer fire5/concat
I0405 14:04:55.705538 23648 net.cpp:100] Creating Layer fire5/concat
I0405 14:04:55.705546 23648 net.cpp:434] fire5/concat <- fire5/expand1x1
I0405 14:04:55.705555 23648 net.cpp:434] fire5/concat <- fire5/expand3x3
I0405 14:04:55.705564 23648 net.cpp:408] fire5/concat -> fire5/concat
I0405 14:04:55.705611 23648 net.cpp:150] Setting up fire5/concat
I0405 14:04:55.705622 23648 net.cpp:157] Top shape: 8 327 18 18 (847584)
I0405 14:04:55.705628 23648 net.cpp:165] Memory required for data: 381405440
I0405 14:04:55.705636 23648 layer_factory.hpp:77] Creating layer fire6/squeeze1x1
I0405 14:04:55.705651 23648 net.cpp:100] Creating Layer fire6/squeeze1x1
I0405 14:04:55.705659 23648 net.cpp:434] fire6/squeeze1x1 <- fire5/concat
I0405 14:04:55.705683 23648 net.cpp:408] fire6/squeeze1x1 -> fire6/squeeze1x1
I0405 14:04:55.707311 23648 net.cpp:150] Setting up fire6/squeeze1x1
I0405 14:04:55.707334 23648 net.cpp:157] Top shape: 8 45 18 18 (116640)
I0405 14:04:55.707339 23648 net.cpp:165] Memory required for data: 381872000
I0405 14:04:55.707356 23648 layer_factory.hpp:77] Creating layer fire6/relu_squeeze1x1
I0405 14:04:55.707370 23648 net.cpp:100] Creating Layer fire6/relu_squeeze1x1
I0405 14:04:55.707379 23648 net.cpp:434] fire6/relu_squeeze1x1 <- fire6/squeeze1x1
I0405 14:04:55.707391 23648 net.cpp:395] fire6/relu_squeeze1x1 -> fire6/squeeze1x1 (in-place)
I0405 14:04:55.707631 23648 net.cpp:150] Setting up fire6/relu_squeeze1x1
I0405 14:04:55.707646 23648 net.cpp:157] Top shape: 8 45 18 18 (116640)
I0405 14:04:55.707661 23648 net.cpp:165] Memory required for data: 382338560
I0405 14:04:55.707670 23648 layer_factory.hpp:77] Creating layer fire6/squeeze1x1_fire6/relu_squeeze1x1_0_split
I0405 14:04:55.707686 23648 net.cpp:100] Creating Layer fire6/squeeze1x1_fire6/relu_squeeze1x1_0_split
I0405 14:04:55.707722 23648 net.cpp:434] fire6/squeeze1x1_fire6/relu_squeeze1x1_0_split <- fire6/squeeze1x1
I0405 14:04:55.707736 23648 net.cpp:408] fire6/squeeze1x1_fire6/relu_squeeze1x1_0_split -> fire6/squeeze1x1_fire6/relu_squeeze1x1_0_split_0
I0405 14:04:55.707751 23648 net.cpp:408] fire6/squeeze1x1_fire6/relu_squeeze1x1_0_split -> fire6/squeeze1x1_fire6/relu_squeeze1x1_0_split_1
I0405 14:04:55.707820 23648 net.cpp:150] Setting up fire6/squeeze1x1_fire6/relu_squeeze1x1_0_split
I0405 14:04:55.707831 23648 net.cpp:157] Top shape: 8 45 18 18 (116640)
I0405 14:04:55.707840 23648 net.cpp:157] Top shape: 8 45 18 18 (116640)
I0405 14:04:55.707849 23648 net.cpp:165] Memory required for data: 383271680
I0405 14:04:55.707856 23648 layer_factory.hpp:77] Creating layer fire6/expand1x1
I0405 14:04:55.707872 23648 net.cpp:100] Creating Layer fire6/expand1x1
I0405 14:04:55.707882 23648 net.cpp:434] fire6/expand1x1 <- fire6/squeeze1x1_fire6/relu_squeeze1x1_0_split_0
I0405 14:04:55.707895 23648 net.cpp:408] fire6/expand1x1 -> fire6/expand1x1
I0405 14:04:55.709329 23648 net.cpp:150] Setting up fire6/expand1x1
I0405 14:04:55.709347 23648 net.cpp:157] Top shape: 8 155 18 18 (401760)
I0405 14:04:55.709354 23648 net.cpp:165] Memory required for data: 384878720
I0405 14:04:55.709368 23648 layer_factory.hpp:77] Creating layer fire6/relu_expand1x1
I0405 14:04:55.709381 23648 net.cpp:100] Creating Layer fire6/relu_expand1x1
I0405 14:04:55.709391 23648 net.cpp:434] fire6/relu_expand1x1 <- fire6/expand1x1
I0405 14:04:55.709403 23648 net.cpp:395] fire6/relu_expand1x1 -> fire6/expand1x1 (in-place)
I0405 14:04:55.709877 23648 net.cpp:150] Setting up fire6/relu_expand1x1
I0405 14:04:55.709892 23648 net.cpp:157] Top shape: 8 155 18 18 (401760)
I0405 14:04:55.709900 23648 net.cpp:165] Memory required for data: 386485760
I0405 14:04:55.709909 23648 layer_factory.hpp:77] Creating layer fire6/expand3x3
I0405 14:04:55.709925 23648 net.cpp:100] Creating Layer fire6/expand3x3
I0405 14:04:55.709936 23648 net.cpp:434] fire6/expand3x3 <- fire6/squeeze1x1_fire6/relu_squeeze1x1_0_split_1
I0405 14:04:55.709949 23648 net.cpp:408] fire6/expand3x3 -> fire6/expand3x3
I0405 14:04:55.712277 23648 net.cpp:150] Setting up fire6/expand3x3
I0405 14:04:55.712296 23648 net.cpp:157] Top shape: 8 146 18 18 (378432)
I0405 14:04:55.712303 23648 net.cpp:165] Memory required for data: 387999488
I0405 14:04:55.712316 23648 layer_factory.hpp:77] Creating layer fire6/relu_expand3x3
I0405 14:04:55.712329 23648 net.cpp:100] Creating Layer fire6/relu_expand3x3
I0405 14:04:55.712339 23648 net.cpp:434] fire6/relu_expand3x3 <- fire6/expand3x3
I0405 14:04:55.712350 23648 net.cpp:395] fire6/relu_expand3x3 -> fire6/expand3x3 (in-place)
I0405 14:04:55.712584 23648 net.cpp:150] Setting up fire6/relu_expand3x3
I0405 14:04:55.712597 23648 net.cpp:157] Top shape: 8 146 18 18 (378432)
I0405 14:04:55.712604 23648 net.cpp:165] Memory required for data: 389513216
I0405 14:04:55.712613 23648 layer_factory.hpp:77] Creating layer fire6/concat
I0405 14:04:55.712625 23648 net.cpp:100] Creating Layer fire6/concat
I0405 14:04:55.712635 23648 net.cpp:434] fire6/concat <- fire6/expand1x1
I0405 14:04:55.712644 23648 net.cpp:434] fire6/concat <- fire6/expand3x3
I0405 14:04:55.712656 23648 net.cpp:408] fire6/concat -> fire6/concat
I0405 14:04:55.712700 23648 net.cpp:150] Setting up fire6/concat
I0405 14:04:55.712712 23648 net.cpp:157] Top shape: 8 301 18 18 (780192)
I0405 14:04:55.712718 23648 net.cpp:165] Memory required for data: 392633984
I0405 14:04:55.712726 23648 layer_factory.hpp:77] Creating layer fire7/squeeze1x1
I0405 14:04:55.712751 23648 net.cpp:100] Creating Layer fire7/squeeze1x1
I0405 14:04:55.712762 23648 net.cpp:434] fire7/squeeze1x1 <- fire6/concat
I0405 14:04:55.712774 23648 net.cpp:408] fire7/squeeze1x1 -> fire7/squeeze1x1
I0405 14:04:55.714263 23648 net.cpp:150] Setting up fire7/squeeze1x1
I0405 14:04:55.714280 23648 net.cpp:157] Top shape: 8 49 18 18 (127008)
I0405 14:04:55.714289 23648 net.cpp:165] Memory required for data: 393142016
I0405 14:04:55.714329 23648 layer_factory.hpp:77] Creating layer fire7/relu_squeeze1x1
I0405 14:04:55.714342 23648 net.cpp:100] Creating Layer fire7/relu_squeeze1x1
I0405 14:04:55.714354 23648 net.cpp:434] fire7/relu_squeeze1x1 <- fire7/squeeze1x1
I0405 14:04:55.714365 23648 net.cpp:395] fire7/relu_squeeze1x1 -> fire7/squeeze1x1 (in-place)
I0405 14:04:55.714864 23648 net.cpp:150] Setting up fire7/relu_squeeze1x1
I0405 14:04:55.714879 23648 net.cpp:157] Top shape: 8 49 18 18 (127008)
I0405 14:04:55.714886 23648 net.cpp:165] Memory required for data: 393650048
I0405 14:04:55.714895 23648 layer_factory.hpp:77] Creating layer fire7/squeeze1x1_fire7/relu_squeeze1x1_0_split
I0405 14:04:55.714906 23648 net.cpp:100] Creating Layer fire7/squeeze1x1_fire7/relu_squeeze1x1_0_split
I0405 14:04:55.714915 23648 net.cpp:434] fire7/squeeze1x1_fire7/relu_squeeze1x1_0_split <- fire7/squeeze1x1
I0405 14:04:55.714927 23648 net.cpp:408] fire7/squeeze1x1_fire7/relu_squeeze1x1_0_split -> fire7/squeeze1x1_fire7/relu_squeeze1x1_0_split_0
I0405 14:04:55.714942 23648 net.cpp:408] fire7/squeeze1x1_fire7/relu_squeeze1x1_0_split -> fire7/squeeze1x1_fire7/relu_squeeze1x1_0_split_1
I0405 14:04:55.715003 23648 net.cpp:150] Setting up fire7/squeeze1x1_fire7/relu_squeeze1x1_0_split
I0405 14:04:55.715015 23648 net.cpp:157] Top shape: 8 49 18 18 (127008)
I0405 14:04:55.715024 23648 net.cpp:157] Top shape: 8 49 18 18 (127008)
I0405 14:04:55.715032 23648 net.cpp:165] Memory required for data: 394666112
I0405 14:04:55.715040 23648 layer_factory.hpp:77] Creating layer fire7/expand1x1
I0405 14:04:55.715055 23648 net.cpp:100] Creating Layer fire7/expand1x1
I0405 14:04:55.715066 23648 net.cpp:434] fire7/expand1x1 <- fire7/squeeze1x1_fire7/relu_squeeze1x1_0_split_0
I0405 14:04:55.715080 23648 net.cpp:408] fire7/expand1x1 -> fire7/expand1x1
I0405 14:04:55.716492 23648 net.cpp:150] Setting up fire7/expand1x1
I0405 14:04:55.716509 23648 net.cpp:157] Top shape: 8 163 18 18 (422496)
I0405 14:04:55.716517 23648 net.cpp:165] Memory required for data: 396356096
I0405 14:04:55.716531 23648 layer_factory.hpp:77] Creating layer fire7/relu_expand1x1
I0405 14:04:55.716542 23648 net.cpp:100] Creating Layer fire7/relu_expand1x1
I0405 14:04:55.716552 23648 net.cpp:434] fire7/relu_expand1x1 <- fire7/expand1x1
I0405 14:04:55.716563 23648 net.cpp:395] fire7/relu_expand1x1 -> fire7/expand1x1 (in-place)
I0405 14:04:55.717015 23648 net.cpp:150] Setting up fire7/relu_expand1x1
I0405 14:04:55.717031 23648 net.cpp:157] Top shape: 8 163 18 18 (422496)
I0405 14:04:55.717038 23648 net.cpp:165] Memory required for data: 398046080
I0405 14:04:55.717046 23648 layer_factory.hpp:77] Creating layer fire7/expand3x3
I0405 14:04:55.717061 23648 net.cpp:100] Creating Layer fire7/expand3x3
I0405 14:04:55.717072 23648 net.cpp:434] fire7/expand3x3 <- fire7/squeeze1x1_fire7/relu_squeeze1x1_0_split_1
I0405 14:04:55.717083 23648 net.cpp:408] fire7/expand3x3 -> fire7/expand3x3
I0405 14:04:55.719792 23648 net.cpp:150] Setting up fire7/expand3x3
I0405 14:04:55.719811 23648 net.cpp:157] Top shape: 8 171 18 18 (443232)
I0405 14:04:55.719820 23648 net.cpp:165] Memory required for data: 399819008
I0405 14:04:55.719833 23648 layer_factory.hpp:77] Creating layer fire7/relu_expand3x3
I0405 14:04:55.719846 23648 net.cpp:100] Creating Layer fire7/relu_expand3x3
I0405 14:04:55.719856 23648 net.cpp:434] fire7/relu_expand3x3 <- fire7/expand3x3
I0405 14:04:55.719867 23648 net.cpp:395] fire7/relu_expand3x3 -> fire7/expand3x3 (in-place)
I0405 14:04:55.720077 23648 net.cpp:150] Setting up fire7/relu_expand3x3
I0405 14:04:55.720091 23648 net.cpp:157] Top shape: 8 171 18 18 (443232)
I0405 14:04:55.720098 23648 net.cpp:165] Memory required for data: 401591936
I0405 14:04:55.720106 23648 layer_factory.hpp:77] Creating layer fire7/concat
I0405 14:04:55.720118 23648 net.cpp:100] Creating Layer fire7/concat
I0405 14:04:55.720127 23648 net.cpp:434] fire7/concat <- fire7/expand1x1
I0405 14:04:55.720137 23648 net.cpp:434] fire7/concat <- fire7/expand3x3
I0405 14:04:55.720149 23648 net.cpp:408] fire7/concat -> fire7/concat
I0405 14:04:55.720214 23648 net.cpp:150] Setting up fire7/concat
I0405 14:04:55.720227 23648 net.cpp:157] Top shape: 8 334 18 18 (865728)
I0405 14:04:55.720233 23648 net.cpp:165] Memory required for data: 405054848
I0405 14:04:55.720242 23648 layer_factory.hpp:77] Creating layer fire8/squeeze1x1
I0405 14:04:55.720275 23648 net.cpp:100] Creating Layer fire8/squeeze1x1
I0405 14:04:55.720284 23648 net.cpp:434] fire8/squeeze1x1 <- fire7/concat
I0405 14:04:55.720295 23648 net.cpp:408] fire8/squeeze1x1 -> fire8/squeeze1x1
I0405 14:04:55.721726 23648 net.cpp:150] Setting up fire8/squeeze1x1
I0405 14:04:55.721743 23648 net.cpp:157] Top shape: 8 25 18 18 (64800)
I0405 14:04:55.721751 23648 net.cpp:165] Memory required for data: 405314048
I0405 14:04:55.721765 23648 layer_factory.hpp:77] Creating layer fire8/relu_squeeze1x1
I0405 14:04:55.721778 23648 net.cpp:100] Creating Layer fire8/relu_squeeze1x1
I0405 14:04:55.721787 23648 net.cpp:434] fire8/relu_squeeze1x1 <- fire8/squeeze1x1
I0405 14:04:55.721798 23648 net.cpp:395] fire8/relu_squeeze1x1 -> fire8/squeeze1x1 (in-place)
I0405 14:04:55.722244 23648 net.cpp:150] Setting up fire8/relu_squeeze1x1
I0405 14:04:55.722259 23648 net.cpp:157] Top shape: 8 25 18 18 (64800)
I0405 14:04:55.722266 23648 net.cpp:165] Memory required for data: 405573248
I0405 14:04:55.722275 23648 layer_factory.hpp:77] Creating layer fire8/squeeze1x1_fire8/relu_squeeze1x1_0_split
I0405 14:04:55.722286 23648 net.cpp:100] Creating Layer fire8/squeeze1x1_fire8/relu_squeeze1x1_0_split
I0405 14:04:55.722296 23648 net.cpp:434] fire8/squeeze1x1_fire8/relu_squeeze1x1_0_split <- fire8/squeeze1x1
I0405 14:04:55.722307 23648 net.cpp:408] fire8/squeeze1x1_fire8/relu_squeeze1x1_0_split -> fire8/squeeze1x1_fire8/relu_squeeze1x1_0_split_0
I0405 14:04:55.722323 23648 net.cpp:408] fire8/squeeze1x1_fire8/relu_squeeze1x1_0_split -> fire8/squeeze1x1_fire8/relu_squeeze1x1_0_split_1
I0405 14:04:55.722383 23648 net.cpp:150] Setting up fire8/squeeze1x1_fire8/relu_squeeze1x1_0_split
I0405 14:04:55.722394 23648 net.cpp:157] Top shape: 8 25 18 18 (64800)
I0405 14:04:55.722403 23648 net.cpp:157] Top shape: 8 25 18 18 (64800)
I0405 14:04:55.722410 23648 net.cpp:165] Memory required for data: 406091648
I0405 14:04:55.722419 23648 layer_factory.hpp:77] Creating layer fire8/expand1x1
I0405 14:04:55.722432 23648 net.cpp:100] Creating Layer fire8/expand1x1
I0405 14:04:55.722441 23648 net.cpp:434] fire8/expand1x1 <- fire8/squeeze1x1_fire8/relu_squeeze1x1_0_split_0
I0405 14:04:55.722453 23648 net.cpp:408] fire8/expand1x1 -> fire8/expand1x1
I0405 14:04:55.724120 23648 net.cpp:150] Setting up fire8/expand1x1
I0405 14:04:55.724140 23648 net.cpp:157] Top shape: 8 29 18 18 (75168)
I0405 14:04:55.724146 23648 net.cpp:165] Memory required for data: 406392320
I0405 14:04:55.724159 23648 layer_factory.hpp:77] Creating layer fire8/relu_expand1x1
I0405 14:04:55.724169 23648 net.cpp:100] Creating Layer fire8/relu_expand1x1
I0405 14:04:55.724179 23648 net.cpp:434] fire8/relu_expand1x1 <- fire8/expand1x1
I0405 14:04:55.724187 23648 net.cpp:395] fire8/relu_expand1x1 -> fire8/expand1x1 (in-place)
I0405 14:04:55.724400 23648 net.cpp:150] Setting up fire8/relu_expand1x1
I0405 14:04:55.724412 23648 net.cpp:157] Top shape: 8 29 18 18 (75168)
I0405 14:04:55.724417 23648 net.cpp:165] Memory required for data: 406692992
I0405 14:04:55.724422 23648 layer_factory.hpp:77] Creating layer fire8/expand3x3
I0405 14:04:55.724433 23648 net.cpp:100] Creating Layer fire8/expand3x3
I0405 14:04:55.724440 23648 net.cpp:434] fire8/expand3x3 <- fire8/squeeze1x1_fire8/relu_squeeze1x1_0_split_1
I0405 14:04:55.724448 23648 net.cpp:408] fire8/expand3x3 -> fire8/expand3x3
I0405 14:04:55.726094 23648 net.cpp:150] Setting up fire8/expand3x3
I0405 14:04:55.726109 23648 net.cpp:157] Top shape: 8 54 18 18 (139968)
I0405 14:04:55.726114 23648 net.cpp:165] Memory required for data: 407252864
I0405 14:04:55.726121 23648 layer_factory.hpp:77] Creating layer fire8/relu_expand3x3
I0405 14:04:55.726130 23648 net.cpp:100] Creating Layer fire8/relu_expand3x3
I0405 14:04:55.726136 23648 net.cpp:434] fire8/relu_expand3x3 <- fire8/expand3x3
I0405 14:04:55.726160 23648 net.cpp:395] fire8/relu_expand3x3 -> fire8/expand3x3 (in-place)
I0405 14:04:55.726593 23648 net.cpp:150] Setting up fire8/relu_expand3x3
I0405 14:04:55.726606 23648 net.cpp:157] Top shape: 8 54 18 18 (139968)
I0405 14:04:55.726611 23648 net.cpp:165] Memory required for data: 407812736
I0405 14:04:55.726617 23648 layer_factory.hpp:77] Creating layer fire8/concat
I0405 14:04:55.726625 23648 net.cpp:100] Creating Layer fire8/concat
I0405 14:04:55.726631 23648 net.cpp:434] fire8/concat <- fire8/expand1x1
I0405 14:04:55.726637 23648 net.cpp:434] fire8/concat <- fire8/expand3x3
I0405 14:04:55.726644 23648 net.cpp:408] fire8/concat -> fire8/concat
I0405 14:04:55.726676 23648 net.cpp:150] Setting up fire8/concat
I0405 14:04:55.726685 23648 net.cpp:157] Top shape: 8 83 18 18 (215136)
I0405 14:04:55.726689 23648 net.cpp:165] Memory required for data: 408673280
I0405 14:04:55.726694 23648 layer_factory.hpp:77] Creating layer fire8/concat_fire8/concat_0_split
I0405 14:04:55.726701 23648 net.cpp:100] Creating Layer fire8/concat_fire8/concat_0_split
I0405 14:04:55.726707 23648 net.cpp:434] fire8/concat_fire8/concat_0_split <- fire8/concat
I0405 14:04:55.726713 23648 net.cpp:408] fire8/concat_fire8/concat_0_split -> fire8/concat_fire8/concat_0_split_0
I0405 14:04:55.726722 23648 net.cpp:408] fire8/concat_fire8/concat_0_split -> fire8/concat_fire8/concat_0_split_1
I0405 14:04:55.726778 23648 net.cpp:150] Setting up fire8/concat_fire8/concat_0_split
I0405 14:04:55.726785 23648 net.cpp:157] Top shape: 8 83 18 18 (215136)
I0405 14:04:55.726790 23648 net.cpp:157] Top shape: 8 83 18 18 (215136)
I0405 14:04:55.726794 23648 net.cpp:165] Memory required for data: 410394368
I0405 14:04:55.726799 23648 layer_factory.hpp:77] Creating layer pool9
I0405 14:04:55.726806 23648 net.cpp:100] Creating Layer pool9
I0405 14:04:55.726812 23648 net.cpp:434] pool9 <- fire8/concat_fire8/concat_0_split_0
I0405 14:04:55.726817 23648 net.cpp:408] pool9 -> pool9
I0405 14:04:55.726857 23648 net.cpp:150] Setting up pool9
I0405 14:04:55.726866 23648 net.cpp:157] Top shape: 8 83 9 9 (53784)
I0405 14:04:55.726869 23648 net.cpp:165] Memory required for data: 410609504
I0405 14:04:55.726876 23648 layer_factory.hpp:77] Creating layer fire9/squeeze1x1
I0405 14:04:55.726884 23648 net.cpp:100] Creating Layer fire9/squeeze1x1
I0405 14:04:55.726891 23648 net.cpp:434] fire9/squeeze1x1 <- pool9
I0405 14:04:55.726897 23648 net.cpp:408] fire9/squeeze1x1 -> fire9/squeeze1x1
I0405 14:04:55.728257 23648 net.cpp:150] Setting up fire9/squeeze1x1
I0405 14:04:55.728273 23648 net.cpp:157] Top shape: 8 37 9 9 (23976)
I0405 14:04:55.728278 23648 net.cpp:165] Memory required for data: 410705408
I0405 14:04:55.728287 23648 layer_factory.hpp:77] Creating layer fire9/relu_squeeze1x1
I0405 14:04:55.728296 23648 net.cpp:100] Creating Layer fire9/relu_squeeze1x1
I0405 14:04:55.728302 23648 net.cpp:434] fire9/relu_squeeze1x1 <- fire9/squeeze1x1
I0405 14:04:55.728307 23648 net.cpp:395] fire9/relu_squeeze1x1 -> fire9/squeeze1x1 (in-place)
I0405 14:04:55.728726 23648 net.cpp:150] Setting up fire9/relu_squeeze1x1
I0405 14:04:55.728741 23648 net.cpp:157] Top shape: 8 37 9 9 (23976)
I0405 14:04:55.728746 23648 net.cpp:165] Memory required for data: 410801312
I0405 14:04:55.728752 23648 layer_factory.hpp:77] Creating layer fire9/squeeze1x1_fire9/relu_squeeze1x1_0_split
I0405 14:04:55.728766 23648 net.cpp:100] Creating Layer fire9/squeeze1x1_fire9/relu_squeeze1x1_0_split
I0405 14:04:55.728772 23648 net.cpp:434] fire9/squeeze1x1_fire9/relu_squeeze1x1_0_split <- fire9/squeeze1x1
I0405 14:04:55.728780 23648 net.cpp:408] fire9/squeeze1x1_fire9/relu_squeeze1x1_0_split -> fire9/squeeze1x1_fire9/relu_squeeze1x1_0_split_0
I0405 14:04:55.728788 23648 net.cpp:408] fire9/squeeze1x1_fire9/relu_squeeze1x1_0_split -> fire9/squeeze1x1_fire9/relu_squeeze1x1_0_split_1
I0405 14:04:55.728843 23648 net.cpp:150] Setting up fire9/squeeze1x1_fire9/relu_squeeze1x1_0_split
I0405 14:04:55.728852 23648 net.cpp:157] Top shape: 8 37 9 9 (23976)
I0405 14:04:55.728858 23648 net.cpp:157] Top shape: 8 37 9 9 (23976)
I0405 14:04:55.728874 23648 net.cpp:165] Memory required for data: 410993120
I0405 14:04:55.728880 23648 layer_factory.hpp:77] Creating layer fire9/expand1x1
I0405 14:04:55.728889 23648 net.cpp:100] Creating Layer fire9/expand1x1
I0405 14:04:55.728895 23648 net.cpp:434] fire9/expand1x1 <- fire9/squeeze1x1_fire9/relu_squeeze1x1_0_split_0
I0405 14:04:55.728902 23648 net.cpp:408] fire9/expand1x1 -> fire9/expand1x1
I0405 14:04:55.730284 23648 net.cpp:150] Setting up fire9/expand1x1
I0405 14:04:55.730300 23648 net.cpp:157] Top shape: 8 45 9 9 (29160)
I0405 14:04:55.730305 23648 net.cpp:165] Memory required for data: 411109760
I0405 14:04:55.730312 23648 layer_factory.hpp:77] Creating layer fire9/relu_expand1x1
I0405 14:04:55.730320 23648 net.cpp:100] Creating Layer fire9/relu_expand1x1
I0405 14:04:55.730326 23648 net.cpp:434] fire9/relu_expand1x1 <- fire9/expand1x1
I0405 14:04:55.730331 23648 net.cpp:395] fire9/relu_expand1x1 -> fire9/expand1x1 (in-place)
I0405 14:04:55.730494 23648 net.cpp:150] Setting up fire9/relu_expand1x1
I0405 14:04:55.730504 23648 net.cpp:157] Top shape: 8 45 9 9 (29160)
I0405 14:04:55.730509 23648 net.cpp:165] Memory required for data: 411226400
I0405 14:04:55.730515 23648 layer_factory.hpp:77] Creating layer fire9/expand3x3
I0405 14:04:55.730523 23648 net.cpp:100] Creating Layer fire9/expand3x3
I0405 14:04:55.730530 23648 net.cpp:434] fire9/expand3x3 <- fire9/squeeze1x1_fire9/relu_squeeze1x1_0_split_1
I0405 14:04:55.730537 23648 net.cpp:408] fire9/expand3x3 -> fire9/expand3x3
I0405 14:04:55.732189 23648 net.cpp:150] Setting up fire9/expand3x3
I0405 14:04:55.732205 23648 net.cpp:157] Top shape: 8 56 9 9 (36288)
I0405 14:04:55.732210 23648 net.cpp:165] Memory required for data: 411371552
I0405 14:04:55.732218 23648 layer_factory.hpp:77] Creating layer fire9/relu_expand3x3
I0405 14:04:55.732226 23648 net.cpp:100] Creating Layer fire9/relu_expand3x3
I0405 14:04:55.732233 23648 net.cpp:434] fire9/relu_expand3x3 <- fire9/expand3x3
I0405 14:04:55.732239 23648 net.cpp:395] fire9/relu_expand3x3 -> fire9/expand3x3 (in-place)
I0405 14:04:55.732676 23648 net.cpp:150] Setting up fire9/relu_expand3x3
I0405 14:04:55.732692 23648 net.cpp:157] Top shape: 8 56 9 9 (36288)
I0405 14:04:55.732697 23648 net.cpp:165] Memory required for data: 411516704
I0405 14:04:55.732702 23648 layer_factory.hpp:77] Creating layer fire9/concat
I0405 14:04:55.732709 23648 net.cpp:100] Creating Layer fire9/concat
I0405 14:04:55.732714 23648 net.cpp:434] fire9/concat <- fire9/expand1x1
I0405 14:04:55.732720 23648 net.cpp:434] fire9/concat <- fire9/expand3x3
I0405 14:04:55.732726 23648 net.cpp:408] fire9/concat -> fire9/concat
I0405 14:04:55.732758 23648 net.cpp:150] Setting up fire9/concat
I0405 14:04:55.732765 23648 net.cpp:157] Top shape: 8 101 9 9 (65448)
I0405 14:04:55.732769 23648 net.cpp:165] Memory required for data: 411778496
I0405 14:04:55.732772 23648 layer_factory.hpp:77] Creating layer fire9/concat_fire9/concat_0_split
I0405 14:04:55.732779 23648 net.cpp:100] Creating Layer fire9/concat_fire9/concat_0_split
I0405 14:04:55.732784 23648 net.cpp:434] fire9/concat_fire9/concat_0_split <- fire9/concat
I0405 14:04:55.732797 23648 net.cpp:408] fire9/concat_fire9/concat_0_split -> fire9/concat_fire9/concat_0_split_0
I0405 14:04:55.732806 23648 net.cpp:408] fire9/concat_fire9/concat_0_split -> fire9/concat_fire9/concat_0_split_1
I0405 14:04:55.732813 23648 net.cpp:408] fire9/concat_fire9/concat_0_split -> fire9/concat_fire9/concat_0_split_2
I0405 14:04:55.732820 23648 net.cpp:408] fire9/concat_fire9/concat_0_split -> fire9/concat_fire9/concat_0_split_3
I0405 14:04:55.732892 23648 net.cpp:150] Setting up fire9/concat_fire9/concat_0_split
I0405 14:04:55.732899 23648 net.cpp:157] Top shape: 8 101 9 9 (65448)
I0405 14:04:55.732905 23648 net.cpp:157] Top shape: 8 101 9 9 (65448)
I0405 14:04:55.732910 23648 net.cpp:157] Top shape: 8 101 9 9 (65448)
I0405 14:04:55.732915 23648 net.cpp:157] Top shape: 8 101 9 9 (65448)
I0405 14:04:55.732919 23648 net.cpp:165] Memory required for data: 412825664
I0405 14:04:55.732924 23648 layer_factory.hpp:77] Creating layer pool10
I0405 14:04:55.732945 23648 net.cpp:100] Creating Layer pool10
I0405 14:04:55.732951 23648 net.cpp:434] pool10 <- fire9/concat_fire9/concat_0_split_0
I0405 14:04:55.732959 23648 net.cpp:408] pool10 -> pool10
I0405 14:04:55.733006 23648 net.cpp:150] Setting up pool10
I0405 14:04:55.733014 23648 net.cpp:157] Top shape: 8 101 4 4 (12928)
I0405 14:04:55.733019 23648 net.cpp:165] Memory required for data: 412877376
I0405 14:04:55.733024 23648 layer_factory.hpp:77] Creating layer fire10/squeeze1x1
I0405 14:04:55.733042 23648 net.cpp:100] Creating Layer fire10/squeeze1x1
I0405 14:04:55.733048 23648 net.cpp:434] fire10/squeeze1x1 <- pool10
I0405 14:04:55.733055 23648 net.cpp:408] fire10/squeeze1x1 -> fire10/squeeze1x1
I0405 14:04:55.734400 23648 net.cpp:150] Setting up fire10/squeeze1x1
I0405 14:04:55.734416 23648 net.cpp:157] Top shape: 8 38 4 4 (4864)
I0405 14:04:55.734422 23648 net.cpp:165] Memory required for data: 412896832
I0405 14:04:55.734431 23648 layer_factory.hpp:77] Creating layer fire10/relu_squeeze1x1
I0405 14:04:55.734438 23648 net.cpp:100] Creating Layer fire10/relu_squeeze1x1
I0405 14:04:55.734444 23648 net.cpp:434] fire10/relu_squeeze1x1 <- fire10/squeeze1x1
I0405 14:04:55.734452 23648 net.cpp:395] fire10/relu_squeeze1x1 -> fire10/squeeze1x1 (in-place)
I0405 14:04:55.734637 23648 net.cpp:150] Setting up fire10/relu_squeeze1x1
I0405 14:04:55.734647 23648 net.cpp:157] Top shape: 8 38 4 4 (4864)
I0405 14:04:55.734652 23648 net.cpp:165] Memory required for data: 412916288
I0405 14:04:55.734658 23648 layer_factory.hpp:77] Creating layer fire10/squeeze1x1_fire10/relu_squeeze1x1_0_split
I0405 14:04:55.734665 23648 net.cpp:100] Creating Layer fire10/squeeze1x1_fire10/relu_squeeze1x1_0_split
I0405 14:04:55.734671 23648 net.cpp:434] fire10/squeeze1x1_fire10/relu_squeeze1x1_0_split <- fire10/squeeze1x1
I0405 14:04:55.734678 23648 net.cpp:408] fire10/squeeze1x1_fire10/relu_squeeze1x1_0_split -> fire10/squeeze1x1_fire10/relu_squeeze1x1_0_split_0
I0405 14:04:55.734685 23648 net.cpp:408] fire10/squeeze1x1_fire10/relu_squeeze1x1_0_split -> fire10/squeeze1x1_fire10/relu_squeeze1x1_0_split_1
I0405 14:04:55.734731 23648 net.cpp:150] Setting up fire10/squeeze1x1_fire10/relu_squeeze1x1_0_split
I0405 14:04:55.734738 23648 net.cpp:157] Top shape: 8 38 4 4 (4864)
I0405 14:04:55.734745 23648 net.cpp:157] Top shape: 8 38 4 4 (4864)
I0405 14:04:55.734748 23648 net.cpp:165] Memory required for data: 412955200
I0405 14:04:55.734753 23648 layer_factory.hpp:77] Creating layer fire10/expand1x1
I0405 14:04:55.734762 23648 net.cpp:100] Creating Layer fire10/expand1x1
I0405 14:04:55.734768 23648 net.cpp:434] fire10/expand1x1 <- fire10/squeeze1x1_fire10/relu_squeeze1x1_0_split_0
I0405 14:04:55.734776 23648 net.cpp:408] fire10/expand1x1 -> fire10/expand1x1
I0405 14:04:55.736269 23648 net.cpp:150] Setting up fire10/expand1x1
I0405 14:04:55.736286 23648 net.cpp:157] Top shape: 8 41 4 4 (5248)
I0405 14:04:55.736291 23648 net.cpp:165] Memory required for data: 412976192
I0405 14:04:55.736300 23648 layer_factory.hpp:77] Creating layer fire10/relu_expand1x1
I0405 14:04:55.736308 23648 net.cpp:100] Creating Layer fire10/relu_expand1x1
I0405 14:04:55.736315 23648 net.cpp:434] fire10/relu_expand1x1 <- fire10/expand1x1
I0405 14:04:55.736321 23648 net.cpp:395] fire10/relu_expand1x1 -> fire10/expand1x1 (in-place)
I0405 14:04:55.736841 23648 net.cpp:150] Setting up fire10/relu_expand1x1
I0405 14:04:55.736862 23648 net.cpp:157] Top shape: 8 41 4 4 (5248)
I0405 14:04:55.736871 23648 net.cpp:165] Memory required for data: 412997184
I0405 14:04:55.736881 23648 layer_factory.hpp:77] Creating layer fire10/expand3x3
I0405 14:04:55.736896 23648 net.cpp:100] Creating Layer fire10/expand3x3
I0405 14:04:55.736907 23648 net.cpp:434] fire10/expand3x3 <- fire10/squeeze1x1_fire10/relu_squeeze1x1_0_split_1
I0405 14:04:55.736917 23648 net.cpp:408] fire10/expand3x3 -> fire10/expand3x3
I0405 14:04:55.738768 23648 net.cpp:150] Setting up fire10/expand3x3
I0405 14:04:55.738817 23648 net.cpp:157] Top shape: 8 44 4 4 (5632)
I0405 14:04:55.738871 23648 net.cpp:165] Memory required for data: 413019712
I0405 14:04:55.738899 23648 layer_factory.hpp:77] Creating layer fire10/relu_expand3x3
I0405 14:04:55.738915 23648 net.cpp:100] Creating Layer fire10/relu_expand3x3
I0405 14:04:55.738926 23648 net.cpp:434] fire10/relu_expand3x3 <- fire10/expand3x3
I0405 14:04:55.738939 23648 net.cpp:395] fire10/relu_expand3x3 -> fire10/expand3x3 (in-place)
I0405 14:04:55.739518 23648 net.cpp:150] Setting up fire10/relu_expand3x3
I0405 14:04:55.739537 23648 net.cpp:157] Top shape: 8 44 4 4 (5632)
I0405 14:04:55.739542 23648 net.cpp:165] Memory required for data: 413042240
I0405 14:04:55.739548 23648 layer_factory.hpp:77] Creating layer fire10/concat
I0405 14:04:55.739557 23648 net.cpp:100] Creating Layer fire10/concat
I0405 14:04:55.739564 23648 net.cpp:434] fire10/concat <- fire10/expand1x1
I0405 14:04:55.739572 23648 net.cpp:434] fire10/concat <- fire10/expand3x3
I0405 14:04:55.739578 23648 net.cpp:408] fire10/concat -> fire10/concat
I0405 14:04:55.739620 23648 net.cpp:150] Setting up fire10/concat
I0405 14:04:55.739629 23648 net.cpp:157] Top shape: 8 85 4 4 (10880)
I0405 14:04:55.739634 23648 net.cpp:165] Memory required for data: 413085760
I0405 14:04:55.739639 23648 layer_factory.hpp:77] Creating layer fire10/concat_fire10/concat_0_split
I0405 14:04:55.739645 23648 net.cpp:100] Creating Layer fire10/concat_fire10/concat_0_split
I0405 14:04:55.739651 23648 net.cpp:434] fire10/concat_fire10/concat_0_split <- fire10/concat
I0405 14:04:55.739661 23648 net.cpp:408] fire10/concat_fire10/concat_0_split -> fire10/concat_fire10/concat_0_split_0
I0405 14:04:55.739671 23648 net.cpp:408] fire10/concat_fire10/concat_0_split -> fire10/concat_fire10/concat_0_split_1
I0405 14:04:55.739682 23648 net.cpp:408] fire10/concat_fire10/concat_0_split -> fire10/concat_fire10/concat_0_split_2
I0405 14:04:55.739692 23648 net.cpp:408] fire10/concat_fire10/concat_0_split -> fire10/concat_fire10/concat_0_split_3
I0405 14:04:55.739854 23648 net.cpp:150] Setting up fire10/concat_fire10/concat_0_split
I0405 14:04:55.739871 23648 net.cpp:157] Top shape: 8 85 4 4 (10880)
I0405 14:04:55.739878 23648 net.cpp:157] Top shape: 8 85 4 4 (10880)
I0405 14:04:55.739886 23648 net.cpp:157] Top shape: 8 85 4 4 (10880)
I0405 14:04:55.739894 23648 net.cpp:157] Top shape: 8 85 4 4 (10880)
I0405 14:04:55.739900 23648 net.cpp:165] Memory required for data: 413259840
I0405 14:04:55.739909 23648 layer_factory.hpp:77] Creating layer conv12_1
I0405 14:04:55.739938 23648 net.cpp:100] Creating Layer conv12_1
I0405 14:04:55.739948 23648 net.cpp:434] conv12_1 <- fire10/concat_fire10/concat_0_split_0
I0405 14:04:55.739959 23648 net.cpp:408] conv12_1 -> conv12_1
I0405 14:04:55.742003 23648 net.cpp:150] Setting up conv12_1
I0405 14:04:55.742020 23648 net.cpp:157] Top shape: 8 51 4 4 (6528)
I0405 14:04:55.742024 23648 net.cpp:165] Memory required for data: 413285952
I0405 14:04:55.742035 23648 layer_factory.hpp:77] Creating layer relu122_1
I0405 14:04:55.742044 23648 net.cpp:100] Creating Layer relu122_1
I0405 14:04:55.742050 23648 net.cpp:434] relu122_1 <- conv12_1
I0405 14:04:55.742055 23648 net.cpp:395] relu122_1 -> conv12_1 (in-place)
I0405 14:04:55.742236 23648 net.cpp:150] Setting up relu122_1
I0405 14:04:55.742247 23648 net.cpp:157] Top shape: 8 51 4 4 (6528)
I0405 14:04:55.742250 23648 net.cpp:165] Memory required for data: 413312064
I0405 14:04:55.742255 23648 layer_factory.hpp:77] Creating layer conv12_2
I0405 14:04:55.742265 23648 net.cpp:100] Creating Layer conv12_2
I0405 14:04:55.742271 23648 net.cpp:434] conv12_2 <- conv12_1
I0405 14:04:55.742278 23648 net.cpp:408] conv12_2 -> conv12_2
I0405 14:04:55.744603 23648 net.cpp:150] Setting up conv12_2
I0405 14:04:55.744621 23648 net.cpp:157] Top shape: 8 46 2 2 (1472)
I0405 14:04:55.744624 23648 net.cpp:165] Memory required for data: 413317952
I0405 14:04:55.744642 23648 layer_factory.hpp:77] Creating layer relu12_2
I0405 14:04:55.744649 23648 net.cpp:100] Creating Layer relu12_2
I0405 14:04:55.744657 23648 net.cpp:434] relu12_2 <- conv12_2
I0405 14:04:55.744663 23648 net.cpp:395] relu12_2 -> conv12_2 (in-place)
I0405 14:04:55.745128 23648 net.cpp:150] Setting up relu12_2
I0405 14:04:55.745143 23648 net.cpp:157] Top shape: 8 46 2 2 (1472)
I0405 14:04:55.745147 23648 net.cpp:165] Memory required for data: 413323840
I0405 14:04:55.745153 23648 layer_factory.hpp:77] Creating layer conv12_2_relu12_2_0_split
I0405 14:04:55.745162 23648 net.cpp:100] Creating Layer conv12_2_relu12_2_0_split
I0405 14:04:55.745167 23648 net.cpp:434] conv12_2_relu12_2_0_split <- conv12_2
I0405 14:04:55.745175 23648 net.cpp:408] conv12_2_relu12_2_0_split -> conv12_2_relu12_2_0_split_0
I0405 14:04:55.745184 23648 net.cpp:408] conv12_2_relu12_2_0_split -> conv12_2_relu12_2_0_split_1
I0405 14:04:55.745191 23648 net.cpp:408] conv12_2_relu12_2_0_split -> conv12_2_relu12_2_0_split_2
I0405 14:04:55.745198 23648 net.cpp:408] conv12_2_relu12_2_0_split -> conv12_2_relu12_2_0_split_3
I0405 14:04:55.745299 23648 net.cpp:150] Setting up conv12_2_relu12_2_0_split
I0405 14:04:55.745311 23648 net.cpp:157] Top shape: 8 46 2 2 (1472)
I0405 14:04:55.745317 23648 net.cpp:157] Top shape: 8 46 2 2 (1472)
I0405 14:04:55.745322 23648 net.cpp:157] Top shape: 8 46 2 2 (1472)
I0405 14:04:55.745328 23648 net.cpp:157] Top shape: 8 46 2 2 (1472)
I0405 14:04:55.745332 23648 net.cpp:165] Memory required for data: 413347392
I0405 14:04:55.745338 23648 layer_factory.hpp:77] Creating layer conv13_1
I0405 14:04:55.745349 23648 net.cpp:100] Creating Layer conv13_1
I0405 14:04:55.745355 23648 net.cpp:434] conv13_1 <- conv12_2_relu12_2_0_split_0
I0405 14:04:55.745362 23648 net.cpp:408] conv13_1 -> conv13_1
I0405 14:04:55.746903 23648 net.cpp:150] Setting up conv13_1
I0405 14:04:55.746922 23648 net.cpp:157] Top shape: 8 55 2 2 (1760)
I0405 14:04:55.746927 23648 net.cpp:165] Memory required for data: 413354432
I0405 14:04:55.746935 23648 layer_factory.hpp:77] Creating layer relu13_1
I0405 14:04:55.746954 23648 net.cpp:100] Creating Layer relu13_1
I0405 14:04:55.746961 23648 net.cpp:434] relu13_1 <- conv13_1
I0405 14:04:55.746968 23648 net.cpp:395] relu13_1 -> conv13_1 (in-place)
I0405 14:04:55.747143 23648 net.cpp:150] Setting up relu13_1
I0405 14:04:55.747154 23648 net.cpp:157] Top shape: 8 55 2 2 (1760)
I0405 14:04:55.747159 23648 net.cpp:165] Memory required for data: 413361472
I0405 14:04:55.747164 23648 layer_factory.hpp:77] Creating layer conv13_2
I0405 14:04:55.747175 23648 net.cpp:100] Creating Layer conv13_2
I0405 14:04:55.747181 23648 net.cpp:434] conv13_2 <- conv13_1
I0405 14:04:55.747189 23648 net.cpp:408] conv13_2 -> conv13_2
I0405 14:04:55.748894 23648 net.cpp:150] Setting up conv13_2
I0405 14:04:55.748911 23648 net.cpp:157] Top shape: 8 85 1 1 (680)
I0405 14:04:55.748915 23648 net.cpp:165] Memory required for data: 413364192
I0405 14:04:55.748924 23648 layer_factory.hpp:77] Creating layer conv13_2_conv13_2_0_split
I0405 14:04:55.748931 23648 net.cpp:100] Creating Layer conv13_2_conv13_2_0_split
I0405 14:04:55.748937 23648 net.cpp:434] conv13_2_conv13_2_0_split <- conv13_2
I0405 14:04:55.748944 23648 net.cpp:408] conv13_2_conv13_2_0_split -> conv13_2_conv13_2_0_split_0
I0405 14:04:55.748953 23648 net.cpp:408] conv13_2_conv13_2_0_split -> conv13_2_conv13_2_0_split_1
I0405 14:04:55.748960 23648 net.cpp:408] conv13_2_conv13_2_0_split -> conv13_2_conv13_2_0_split_2
I0405 14:04:55.749017 23648 net.cpp:150] Setting up conv13_2_conv13_2_0_split
I0405 14:04:55.749023 23648 net.cpp:157] Top shape: 8 85 1 1 (680)
I0405 14:04:55.749029 23648 net.cpp:157] Top shape: 8 85 1 1 (680)
I0405 14:04:55.749034 23648 net.cpp:157] Top shape: 8 85 1 1 (680)
I0405 14:04:55.749039 23648 net.cpp:165] Memory required for data: 413372352
I0405 14:04:55.749044 23648 layer_factory.hpp:77] Creating layer fire4_norm
I0405 14:04:55.749053 23648 net.cpp:100] Creating Layer fire4_norm
I0405 14:04:55.749059 23648 net.cpp:434] fire4_norm <- fire4/concat_fire4/concat_0_split_1
I0405 14:04:55.749066 23648 net.cpp:408] fire4_norm -> fire4_norm
I0405 14:04:55.749250 23648 net.cpp:150] Setting up fire4_norm
I0405 14:04:55.749259 23648 net.cpp:157] Top shape: 8 173 37 37 (1894696)
I0405 14:04:55.749279 23648 net.cpp:165] Memory required for data: 420951136
I0405 14:04:55.749286 23648 layer_factory.hpp:77] Creating layer fire4_norm_fire4_norm_0_split
I0405 14:04:55.749292 23648 net.cpp:100] Creating Layer fire4_norm_fire4_norm_0_split
I0405 14:04:55.749299 23648 net.cpp:434] fire4_norm_fire4_norm_0_split <- fire4_norm
I0405 14:04:55.749305 23648 net.cpp:408] fire4_norm_fire4_norm_0_split -> fire4_norm_fire4_norm_0_split_0
I0405 14:04:55.749313 23648 net.cpp:408] fire4_norm_fire4_norm_0_split -> fire4_norm_fire4_norm_0_split_1
I0405 14:04:55.749320 23648 net.cpp:408] fire4_norm_fire4_norm_0_split -> fire4_norm_fire4_norm_0_split_2
I0405 14:04:55.749375 23648 net.cpp:150] Setting up fire4_norm_fire4_norm_0_split
I0405 14:04:55.749382 23648 net.cpp:157] Top shape: 8 173 37 37 (1894696)
I0405 14:04:55.749387 23648 net.cpp:157] Top shape: 8 173 37 37 (1894696)
I0405 14:04:55.749392 23648 net.cpp:157] Top shape: 8 173 37 37 (1894696)
I0405 14:04:55.749395 23648 net.cpp:165] Memory required for data: 443687488
I0405 14:04:55.749399 23648 layer_factory.hpp:77] Creating layer fire4_mbox_loc
I0405 14:04:55.749409 23648 net.cpp:100] Creating Layer fire4_mbox_loc
I0405 14:04:55.749414 23648 net.cpp:434] fire4_mbox_loc <- fire4_norm_fire4_norm_0_split_0
I0405 14:04:55.749420 23648 net.cpp:408] fire4_mbox_loc -> fire4_mbox_loc
I0405 14:04:55.750927 23648 net.cpp:150] Setting up fire4_mbox_loc
I0405 14:04:55.750943 23648 net.cpp:157] Top shape: 8 16 37 37 (175232)
I0405 14:04:55.750947 23648 net.cpp:165] Memory required for data: 444388416
I0405 14:04:55.750957 23648 layer_factory.hpp:77] Creating layer fire4_mbox_loc_perm
I0405 14:04:55.750965 23648 net.cpp:100] Creating Layer fire4_mbox_loc_perm
I0405 14:04:55.750972 23648 net.cpp:434] fire4_mbox_loc_perm <- fire4_mbox_loc
I0405 14:04:55.750978 23648 net.cpp:408] fire4_mbox_loc_perm -> fire4_mbox_loc_perm
I0405 14:04:55.751103 23648 net.cpp:150] Setting up fire4_mbox_loc_perm
I0405 14:04:55.751112 23648 net.cpp:157] Top shape: 8 37 37 16 (175232)
I0405 14:04:55.751116 23648 net.cpp:165] Memory required for data: 445089344
I0405 14:04:55.751121 23648 layer_factory.hpp:77] Creating layer fire4_mbox_loc_flat
I0405 14:04:55.751128 23648 net.cpp:100] Creating Layer fire4_mbox_loc_flat
I0405 14:04:55.751134 23648 net.cpp:434] fire4_mbox_loc_flat <- fire4_mbox_loc_perm
I0405 14:04:55.751140 23648 net.cpp:408] fire4_mbox_loc_flat -> fire4_mbox_loc_flat
I0405 14:04:55.751169 23648 net.cpp:150] Setting up fire4_mbox_loc_flat
I0405 14:04:55.751178 23648 net.cpp:157] Top shape: 8 21904 (175232)
I0405 14:04:55.751181 23648 net.cpp:165] Memory required for data: 445790272
I0405 14:04:55.751186 23648 layer_factory.hpp:77] Creating layer fire4_mbox_conf
I0405 14:04:55.751196 23648 net.cpp:100] Creating Layer fire4_mbox_conf
I0405 14:04:55.751202 23648 net.cpp:434] fire4_mbox_conf <- fire4_norm_fire4_norm_0_split_1
I0405 14:04:55.751209 23648 net.cpp:408] fire4_mbox_conf -> fire4_mbox_conf
I0405 14:04:55.752858 23648 net.cpp:150] Setting up fire4_mbox_conf
I0405 14:04:55.752874 23648 net.cpp:157] Top shape: 8 28 37 37 (306656)
I0405 14:04:55.752878 23648 net.cpp:165] Memory required for data: 447016896
I0405 14:04:55.752887 23648 layer_factory.hpp:77] Creating layer fire4_mbox_conf_perm
I0405 14:04:55.752894 23648 net.cpp:100] Creating Layer fire4_mbox_conf_perm
I0405 14:04:55.752902 23648 net.cpp:434] fire4_mbox_conf_perm <- fire4_mbox_conf
I0405 14:04:55.752910 23648 net.cpp:408] fire4_mbox_conf_perm -> fire4_mbox_conf_perm
I0405 14:04:55.753034 23648 net.cpp:150] Setting up fire4_mbox_conf_perm
I0405 14:04:55.753043 23648 net.cpp:157] Top shape: 8 37 37 28 (306656)
I0405 14:04:55.753047 23648 net.cpp:165] Memory required for data: 448243520
I0405 14:04:55.753051 23648 layer_factory.hpp:77] Creating layer fire4_mbox_conf_flat
I0405 14:04:55.753057 23648 net.cpp:100] Creating Layer fire4_mbox_conf_flat
I0405 14:04:55.753062 23648 net.cpp:434] fire4_mbox_conf_flat <- fire4_mbox_conf_perm
I0405 14:04:55.753069 23648 net.cpp:408] fire4_mbox_conf_flat -> fire4_mbox_conf_flat
I0405 14:04:55.753113 23648 net.cpp:150] Setting up fire4_mbox_conf_flat
I0405 14:04:55.753121 23648 net.cpp:157] Top shape: 8 38332 (306656)
I0405 14:04:55.753125 23648 net.cpp:165] Memory required for data: 449470144
I0405 14:04:55.753130 23648 layer_factory.hpp:77] Creating layer fire4_mbox_priorbox
I0405 14:04:55.753139 23648 net.cpp:100] Creating Layer fire4_mbox_priorbox
I0405 14:04:55.753144 23648 net.cpp:434] fire4_mbox_priorbox <- fire4_norm_fire4_norm_0_split_2
I0405 14:04:55.753151 23648 net.cpp:434] fire4_mbox_priorbox <- data_data_0_split_1
I0405 14:04:55.753159 23648 net.cpp:408] fire4_mbox_priorbox -> fire4_mbox_priorbox
I0405 14:04:55.753190 23648 net.cpp:150] Setting up fire4_mbox_priorbox
I0405 14:04:55.753196 23648 net.cpp:157] Top shape: 1 2 21904 (43808)
I0405 14:04:55.753201 23648 net.cpp:165] Memory required for data: 449645376
I0405 14:04:55.753204 23648 layer_factory.hpp:77] Creating layer fire8_norm
I0405 14:04:55.753211 23648 net.cpp:100] Creating Layer fire8_norm
I0405 14:04:55.753218 23648 net.cpp:434] fire8_norm <- fire8/concat_fire8/concat_0_split_1
I0405 14:04:55.753226 23648 net.cpp:408] fire8_norm -> fire8_norm
I0405 14:04:55.753414 23648 net.cpp:150] Setting up fire8_norm
I0405 14:04:55.753423 23648 net.cpp:157] Top shape: 8 83 18 18 (215136)
I0405 14:04:55.753427 23648 net.cpp:165] Memory required for data: 450505920
I0405 14:04:55.753432 23648 layer_factory.hpp:77] Creating layer fire8_norm_fire8_norm_0_split
I0405 14:04:55.753438 23648 net.cpp:100] Creating Layer fire8_norm_fire8_norm_0_split
I0405 14:04:55.753443 23648 net.cpp:434] fire8_norm_fire8_norm_0_split <- fire8_norm
I0405 14:04:55.753450 23648 net.cpp:408] fire8_norm_fire8_norm_0_split -> fire8_norm_fire8_norm_0_split_0
I0405 14:04:55.753458 23648 net.cpp:408] fire8_norm_fire8_norm_0_split -> fire8_norm_fire8_norm_0_split_1
I0405 14:04:55.753465 23648 net.cpp:408] fire8_norm_fire8_norm_0_split -> fire8_norm_fire8_norm_0_split_2
I0405 14:04:55.753515 23648 net.cpp:150] Setting up fire8_norm_fire8_norm_0_split
I0405 14:04:55.753522 23648 net.cpp:157] Top shape: 8 83 18 18 (215136)
I0405 14:04:55.753526 23648 net.cpp:157] Top shape: 8 83 18 18 (215136)
I0405 14:04:55.753530 23648 net.cpp:157] Top shape: 8 83 18 18 (215136)
I0405 14:04:55.753535 23648 net.cpp:165] Memory required for data: 453087552
I0405 14:04:55.753540 23648 layer_factory.hpp:77] Creating layer fire8_mbox_loc
I0405 14:04:55.753548 23648 net.cpp:100] Creating Layer fire8_mbox_loc
I0405 14:04:55.753556 23648 net.cpp:434] fire8_mbox_loc <- fire8_norm_fire8_norm_0_split_0
I0405 14:04:55.753562 23648 net.cpp:408] fire8_mbox_loc -> fire8_mbox_loc
I0405 14:04:55.755272 23648 net.cpp:150] Setting up fire8_mbox_loc
I0405 14:04:55.755287 23648 net.cpp:157] Top shape: 8 24 18 18 (62208)
I0405 14:04:55.755293 23648 net.cpp:165] Memory required for data: 453336384
I0405 14:04:55.755301 23648 layer_factory.hpp:77] Creating layer fire8_mbox_loc_perm
I0405 14:04:55.755311 23648 net.cpp:100] Creating Layer fire8_mbox_loc_perm
I0405 14:04:55.755316 23648 net.cpp:434] fire8_mbox_loc_perm <- fire8_mbox_loc
I0405 14:04:55.755323 23648 net.cpp:408] fire8_mbox_loc_perm -> fire8_mbox_loc_perm
I0405 14:04:55.755456 23648 net.cpp:150] Setting up fire8_mbox_loc_perm
I0405 14:04:55.755465 23648 net.cpp:157] Top shape: 8 18 18 24 (62208)
I0405 14:04:55.755470 23648 net.cpp:165] Memory required for data: 453585216
I0405 14:04:55.755475 23648 layer_factory.hpp:77] Creating layer fire8_mbox_loc_flat
I0405 14:04:55.755481 23648 net.cpp:100] Creating Layer fire8_mbox_loc_flat
I0405 14:04:55.755487 23648 net.cpp:434] fire8_mbox_loc_flat <- fire8_mbox_loc_perm
I0405 14:04:55.755493 23648 net.cpp:408] fire8_mbox_loc_flat -> fire8_mbox_loc_flat
I0405 14:04:55.755520 23648 net.cpp:150] Setting up fire8_mbox_loc_flat
I0405 14:04:55.755527 23648 net.cpp:157] Top shape: 8 7776 (62208)
I0405 14:04:55.755532 23648 net.cpp:165] Memory required for data: 453834048
I0405 14:04:55.755537 23648 layer_factory.hpp:77] Creating layer fire8_mbox_conf
I0405 14:04:55.755548 23648 net.cpp:100] Creating Layer fire8_mbox_conf
I0405 14:04:55.755564 23648 net.cpp:434] fire8_mbox_conf <- fire8_norm_fire8_norm_0_split_1
I0405 14:04:55.755573 23648 net.cpp:408] fire8_mbox_conf -> fire8_mbox_conf
I0405 14:04:55.757378 23648 net.cpp:150] Setting up fire8_mbox_conf
I0405 14:04:55.757395 23648 net.cpp:157] Top shape: 8 42 18 18 (108864)
I0405 14:04:55.757400 23648 net.cpp:165] Memory required for data: 454269504
I0405 14:04:55.757407 23648 layer_factory.hpp:77] Creating layer fire8_mbox_conf_perm
I0405 14:04:55.757447 23648 net.cpp:100] Creating Layer fire8_mbox_conf_perm
I0405 14:04:55.757457 23648 net.cpp:434] fire8_mbox_conf_perm <- fire8_mbox_conf
I0405 14:04:55.757465 23648 net.cpp:408] fire8_mbox_conf_perm -> fire8_mbox_conf_perm
I0405 14:04:55.757608 23648 net.cpp:150] Setting up fire8_mbox_conf_perm
I0405 14:04:55.757619 23648 net.cpp:157] Top shape: 8 18 18 42 (108864)
I0405 14:04:55.757622 23648 net.cpp:165] Memory required for data: 454704960
I0405 14:04:55.757627 23648 layer_factory.hpp:77] Creating layer fire8_mbox_conf_flat
I0405 14:04:55.757633 23648 net.cpp:100] Creating Layer fire8_mbox_conf_flat
I0405 14:04:55.757643 23648 net.cpp:434] fire8_mbox_conf_flat <- fire8_mbox_conf_perm
I0405 14:04:55.757652 23648 net.cpp:408] fire8_mbox_conf_flat -> fire8_mbox_conf_flat
I0405 14:04:55.757686 23648 net.cpp:150] Setting up fire8_mbox_conf_flat
I0405 14:04:55.757694 23648 net.cpp:157] Top shape: 8 13608 (108864)
I0405 14:04:55.757699 23648 net.cpp:165] Memory required for data: 455140416
I0405 14:04:55.757704 23648 layer_factory.hpp:77] Creating layer fire8_mbox_priorbox
I0405 14:04:55.757711 23648 net.cpp:100] Creating Layer fire8_mbox_priorbox
I0405 14:04:55.757717 23648 net.cpp:434] fire8_mbox_priorbox <- fire8_norm_fire8_norm_0_split_2
I0405 14:04:55.757725 23648 net.cpp:434] fire8_mbox_priorbox <- data_data_0_split_2
I0405 14:04:55.757730 23648 net.cpp:408] fire8_mbox_priorbox -> fire8_mbox_priorbox
I0405 14:04:55.757761 23648 net.cpp:150] Setting up fire8_mbox_priorbox
I0405 14:04:55.757767 23648 net.cpp:157] Top shape: 1 2 7776 (15552)
I0405 14:04:55.757772 23648 net.cpp:165] Memory required for data: 455202624
I0405 14:04:55.757777 23648 layer_factory.hpp:77] Creating layer fire9_mbox_loc
I0405 14:04:55.757787 23648 net.cpp:100] Creating Layer fire9_mbox_loc
I0405 14:04:55.757797 23648 net.cpp:434] fire9_mbox_loc <- fire9/concat_fire9/concat_0_split_1
I0405 14:04:55.757805 23648 net.cpp:408] fire9_mbox_loc -> fire9_mbox_loc
I0405 14:04:55.759650 23648 net.cpp:150] Setting up fire9_mbox_loc
I0405 14:04:55.759666 23648 net.cpp:157] Top shape: 8 24 9 9 (15552)
I0405 14:04:55.759672 23648 net.cpp:165] Memory required for data: 455264832
I0405 14:04:55.759681 23648 layer_factory.hpp:77] Creating layer fire9_mbox_loc_perm
I0405 14:04:55.759692 23648 net.cpp:100] Creating Layer fire9_mbox_loc_perm
I0405 14:04:55.759698 23648 net.cpp:434] fire9_mbox_loc_perm <- fire9_mbox_loc
I0405 14:04:55.759706 23648 net.cpp:408] fire9_mbox_loc_perm -> fire9_mbox_loc_perm
I0405 14:04:55.759853 23648 net.cpp:150] Setting up fire9_mbox_loc_perm
I0405 14:04:55.759863 23648 net.cpp:157] Top shape: 8 9 9 24 (15552)
I0405 14:04:55.759868 23648 net.cpp:165] Memory required for data: 455327040
I0405 14:04:55.759874 23648 layer_factory.hpp:77] Creating layer fire9_mbox_loc_flat
I0405 14:04:55.759881 23648 net.cpp:100] Creating Layer fire9_mbox_loc_flat
I0405 14:04:55.759887 23648 net.cpp:434] fire9_mbox_loc_flat <- fire9_mbox_loc_perm
I0405 14:04:55.759894 23648 net.cpp:408] fire9_mbox_loc_flat -> fire9_mbox_loc_flat
I0405 14:04:55.759924 23648 net.cpp:150] Setting up fire9_mbox_loc_flat
I0405 14:04:55.759932 23648 net.cpp:157] Top shape: 8 1944 (15552)
I0405 14:04:55.759938 23648 net.cpp:165] Memory required for data: 455389248
I0405 14:04:55.759943 23648 layer_factory.hpp:77] Creating layer fire9_mbox_conf
I0405 14:04:55.759959 23648 net.cpp:100] Creating Layer fire9_mbox_conf
I0405 14:04:55.759966 23648 net.cpp:434] fire9_mbox_conf <- fire9/concat_fire9/concat_0_split_2
I0405 14:04:55.759974 23648 net.cpp:408] fire9_mbox_conf -> fire9_mbox_conf
I0405 14:04:55.762703 23648 net.cpp:150] Setting up fire9_mbox_conf
I0405 14:04:55.762723 23648 net.cpp:157] Top shape: 8 42 9 9 (27216)
I0405 14:04:55.762728 23648 net.cpp:165] Memory required for data: 455498112
I0405 14:04:55.762738 23648 layer_factory.hpp:77] Creating layer fire9_mbox_conf_perm
I0405 14:04:55.762748 23648 net.cpp:100] Creating Layer fire9_mbox_conf_perm
I0405 14:04:55.762755 23648 net.cpp:434] fire9_mbox_conf_perm <- fire9_mbox_conf
I0405 14:04:55.762763 23648 net.cpp:408] fire9_mbox_conf_perm -> fire9_mbox_conf_perm
I0405 14:04:55.762910 23648 net.cpp:150] Setting up fire9_mbox_conf_perm
I0405 14:04:55.762919 23648 net.cpp:157] Top shape: 8 9 9 42 (27216)
I0405 14:04:55.762924 23648 net.cpp:165] Memory required for data: 455606976
I0405 14:04:55.762928 23648 layer_factory.hpp:77] Creating layer fire9_mbox_conf_flat
I0405 14:04:55.762936 23648 net.cpp:100] Creating Layer fire9_mbox_conf_flat
I0405 14:04:55.762943 23648 net.cpp:434] fire9_mbox_conf_flat <- fire9_mbox_conf_perm
I0405 14:04:55.762950 23648 net.cpp:408] fire9_mbox_conf_flat -> fire9_mbox_conf_flat
I0405 14:04:55.762984 23648 net.cpp:150] Setting up fire9_mbox_conf_flat
I0405 14:04:55.762991 23648 net.cpp:157] Top shape: 8 3402 (27216)
I0405 14:04:55.762995 23648 net.cpp:165] Memory required for data: 455715840
I0405 14:04:55.763000 23648 layer_factory.hpp:77] Creating layer fire9_mbox_priorbox
I0405 14:04:55.763007 23648 net.cpp:100] Creating Layer fire9_mbox_priorbox
I0405 14:04:55.763015 23648 net.cpp:434] fire9_mbox_priorbox <- fire9/concat_fire9/concat_0_split_3
I0405 14:04:55.763022 23648 net.cpp:434] fire9_mbox_priorbox <- data_data_0_split_3
I0405 14:04:55.763031 23648 net.cpp:408] fire9_mbox_priorbox -> fire9_mbox_priorbox
I0405 14:04:55.763077 23648 net.cpp:150] Setting up fire9_mbox_priorbox
I0405 14:04:55.763085 23648 net.cpp:157] Top shape: 1 2 1944 (3888)
I0405 14:04:55.763090 23648 net.cpp:165] Memory required for data: 455731392
I0405 14:04:55.763097 23648 layer_factory.hpp:77] Creating layer fire10_mbox_loc
I0405 14:04:55.763108 23648 net.cpp:100] Creating Layer fire10_mbox_loc
I0405 14:04:55.763115 23648 net.cpp:434] fire10_mbox_loc <- fire10/concat_fire10/concat_0_split_1
I0405 14:04:55.763126 23648 net.cpp:408] fire10_mbox_loc -> fire10_mbox_loc
I0405 14:04:55.765240 23648 net.cpp:150] Setting up fire10_mbox_loc
I0405 14:04:55.765275 23648 net.cpp:157] Top shape: 8 24 4 4 (3072)
I0405 14:04:55.765281 23648 net.cpp:165] Memory required for data: 455743680
I0405 14:04:55.765291 23648 layer_factory.hpp:77] Creating layer fire10_mbox_loc_perm
I0405 14:04:55.765316 23648 net.cpp:100] Creating Layer fire10_mbox_loc_perm
I0405 14:04:55.765323 23648 net.cpp:434] fire10_mbox_loc_perm <- fire10_mbox_loc
I0405 14:04:55.765331 23648 net.cpp:408] fire10_mbox_loc_perm -> fire10_mbox_loc_perm
I0405 14:04:55.765486 23648 net.cpp:150] Setting up fire10_mbox_loc_perm
I0405 14:04:55.765496 23648 net.cpp:157] Top shape: 8 4 4 24 (3072)
I0405 14:04:55.765501 23648 net.cpp:165] Memory required for data: 455755968
I0405 14:04:55.765506 23648 layer_factory.hpp:77] Creating layer fire10_mbox_loc_flat
I0405 14:04:55.765514 23648 net.cpp:100] Creating Layer fire10_mbox_loc_flat
I0405 14:04:55.765519 23648 net.cpp:434] fire10_mbox_loc_flat <- fire10_mbox_loc_perm
I0405 14:04:55.765527 23648 net.cpp:408] fire10_mbox_loc_flat -> fire10_mbox_loc_flat
I0405 14:04:55.765569 23648 net.cpp:150] Setting up fire10_mbox_loc_flat
I0405 14:04:55.765578 23648 net.cpp:157] Top shape: 8 384 (3072)
I0405 14:04:55.765583 23648 net.cpp:165] Memory required for data: 455768256
I0405 14:04:55.765588 23648 layer_factory.hpp:77] Creating layer fire10_mbox_conf
I0405 14:04:55.765599 23648 net.cpp:100] Creating Layer fire10_mbox_conf
I0405 14:04:55.765606 23648 net.cpp:434] fire10_mbox_conf <- fire10/concat_fire10/concat_0_split_2
I0405 14:04:55.765615 23648 net.cpp:408] fire10_mbox_conf -> fire10_mbox_conf
I0405 14:04:55.767478 23648 net.cpp:150] Setting up fire10_mbox_conf
I0405 14:04:55.767498 23648 net.cpp:157] Top shape: 8 42 4 4 (5376)
I0405 14:04:55.767504 23648 net.cpp:165] Memory required for data: 455789760
I0405 14:04:55.767535 23648 layer_factory.hpp:77] Creating layer fire10_mbox_conf_perm
I0405 14:04:55.767545 23648 net.cpp:100] Creating Layer fire10_mbox_conf_perm
I0405 14:04:55.767554 23648 net.cpp:434] fire10_mbox_conf_perm <- fire10_mbox_conf
I0405 14:04:55.767561 23648 net.cpp:408] fire10_mbox_conf_perm -> fire10_mbox_conf_perm
I0405 14:04:55.767705 23648 net.cpp:150] Setting up fire10_mbox_conf_perm
I0405 14:04:55.767715 23648 net.cpp:157] Top shape: 8 4 4 42 (5376)
I0405 14:04:55.767721 23648 net.cpp:165] Memory required for data: 455811264
I0405 14:04:55.767727 23648 layer_factory.hpp:77] Creating layer fire10_mbox_conf_flat
I0405 14:04:55.767735 23648 net.cpp:100] Creating Layer fire10_mbox_conf_flat
I0405 14:04:55.767742 23648 net.cpp:434] fire10_mbox_conf_flat <- fire10_mbox_conf_perm
I0405 14:04:55.767750 23648 net.cpp:408] fire10_mbox_conf_flat -> fire10_mbox_conf_flat
I0405 14:04:55.767782 23648 net.cpp:150] Setting up fire10_mbox_conf_flat
I0405 14:04:55.767791 23648 net.cpp:157] Top shape: 8 672 (5376)
I0405 14:04:55.767796 23648 net.cpp:165] Memory required for data: 455832768
I0405 14:04:55.767802 23648 layer_factory.hpp:77] Creating layer fire10_mbox_priorbox
I0405 14:04:55.767815 23648 net.cpp:100] Creating Layer fire10_mbox_priorbox
I0405 14:04:55.767822 23648 net.cpp:434] fire10_mbox_priorbox <- fire10/concat_fire10/concat_0_split_3
I0405 14:04:55.767830 23648 net.cpp:434] fire10_mbox_priorbox <- data_data_0_split_4
I0405 14:04:55.767838 23648 net.cpp:408] fire10_mbox_priorbox -> fire10_mbox_priorbox
I0405 14:04:55.767874 23648 net.cpp:150] Setting up fire10_mbox_priorbox
I0405 14:04:55.767882 23648 net.cpp:157] Top shape: 1 2 384 (768)
I0405 14:04:55.767889 23648 net.cpp:165] Memory required for data: 455835840
I0405 14:04:55.767894 23648 layer_factory.hpp:77] Creating layer conv12_2_mbox_loc
I0405 14:04:55.767904 23648 net.cpp:100] Creating Layer conv12_2_mbox_loc
I0405 14:04:55.767911 23648 net.cpp:434] conv12_2_mbox_loc <- conv12_2_relu12_2_0_split_1
I0405 14:04:55.767921 23648 net.cpp:408] conv12_2_mbox_loc -> conv12_2_mbox_loc
I0405 14:04:55.769631 23648 net.cpp:150] Setting up conv12_2_mbox_loc
I0405 14:04:55.769650 23648 net.cpp:157] Top shape: 8 24 2 2 (768)
I0405 14:04:55.769656 23648 net.cpp:165] Memory required for data: 455838912
I0405 14:04:55.769665 23648 layer_factory.hpp:77] Creating layer conv12_2_mbox_loc_perm
I0405 14:04:55.769675 23648 net.cpp:100] Creating Layer conv12_2_mbox_loc_perm
I0405 14:04:55.769680 23648 net.cpp:434] conv12_2_mbox_loc_perm <- conv12_2_mbox_loc
I0405 14:04:55.769690 23648 net.cpp:408] conv12_2_mbox_loc_perm -> conv12_2_mbox_loc_perm
I0405 14:04:55.769842 23648 net.cpp:150] Setting up conv12_2_mbox_loc_perm
I0405 14:04:55.769853 23648 net.cpp:157] Top shape: 8 2 2 24 (768)
I0405 14:04:55.769858 23648 net.cpp:165] Memory required for data: 455841984
I0405 14:04:55.769862 23648 layer_factory.hpp:77] Creating layer conv12_2_mbox_loc_flat
I0405 14:04:55.769870 23648 net.cpp:100] Creating Layer conv12_2_mbox_loc_flat
I0405 14:04:55.769876 23648 net.cpp:434] conv12_2_mbox_loc_flat <- conv12_2_mbox_loc_perm
I0405 14:04:55.769883 23648 net.cpp:408] conv12_2_mbox_loc_flat -> conv12_2_mbox_loc_flat
I0405 14:04:55.769917 23648 net.cpp:150] Setting up conv12_2_mbox_loc_flat
I0405 14:04:55.769924 23648 net.cpp:157] Top shape: 8 96 (768)
I0405 14:04:55.769929 23648 net.cpp:165] Memory required for data: 455845056
I0405 14:04:55.769935 23648 layer_factory.hpp:77] Creating layer conv12_2_mbox_conf
I0405 14:04:55.769945 23648 net.cpp:100] Creating Layer conv12_2_mbox_conf
I0405 14:04:55.769953 23648 net.cpp:434] conv12_2_mbox_conf <- conv12_2_relu12_2_0_split_2
I0405 14:04:55.769960 23648 net.cpp:408] conv12_2_mbox_conf -> conv12_2_mbox_conf
I0405 14:04:55.772133 23648 net.cpp:150] Setting up conv12_2_mbox_conf
I0405 14:04:55.772181 23648 net.cpp:157] Top shape: 8 42 2 2 (1344)
I0405 14:04:55.772187 23648 net.cpp:165] Memory required for data: 455850432
I0405 14:04:55.772209 23648 layer_factory.hpp:77] Creating layer conv12_2_mbox_conf_perm
I0405 14:04:55.772251 23648 net.cpp:100] Creating Layer conv12_2_mbox_conf_perm
I0405 14:04:55.772261 23648 net.cpp:434] conv12_2_mbox_conf_perm <- conv12_2_mbox_conf
I0405 14:04:55.772270 23648 net.cpp:408] conv12_2_mbox_conf_perm -> conv12_2_mbox_conf_perm
I0405 14:04:55.772459 23648 net.cpp:150] Setting up conv12_2_mbox_conf_perm
I0405 14:04:55.772472 23648 net.cpp:157] Top shape: 8 2 2 42 (1344)
I0405 14:04:55.772476 23648 net.cpp:165] Memory required for data: 455855808
I0405 14:04:55.772480 23648 layer_factory.hpp:77] Creating layer conv12_2_mbox_conf_flat
I0405 14:04:55.772497 23648 net.cpp:100] Creating Layer conv12_2_mbox_conf_flat
I0405 14:04:55.772523 23648 net.cpp:434] conv12_2_mbox_conf_flat <- conv12_2_mbox_conf_perm
I0405 14:04:55.772537 23648 net.cpp:408] conv12_2_mbox_conf_flat -> conv12_2_mbox_conf_flat
I0405 14:04:55.772584 23648 net.cpp:150] Setting up conv12_2_mbox_conf_flat
I0405 14:04:55.772598 23648 net.cpp:157] Top shape: 8 168 (1344)
I0405 14:04:55.772604 23648 net.cpp:165] Memory required for data: 455861184
I0405 14:04:55.772614 23648 layer_factory.hpp:77] Creating layer conv12_2_mbox_priorbox
I0405 14:04:55.772627 23648 net.cpp:100] Creating Layer conv12_2_mbox_priorbox
I0405 14:04:55.772634 23648 net.cpp:434] conv12_2_mbox_priorbox <- conv12_2_relu12_2_0_split_3
I0405 14:04:55.772642 23648 net.cpp:434] conv12_2_mbox_priorbox <- data_data_0_split_5
I0405 14:04:55.772651 23648 net.cpp:408] conv12_2_mbox_priorbox -> conv12_2_mbox_priorbox
I0405 14:04:55.772692 23648 net.cpp:150] Setting up conv12_2_mbox_priorbox
I0405 14:04:55.772701 23648 net.cpp:157] Top shape: 1 2 96 (192)
I0405 14:04:55.772706 23648 net.cpp:165] Memory required for data: 455861952
I0405 14:04:55.772712 23648 layer_factory.hpp:77] Creating layer conv13_2_mbox_loc
I0405 14:04:55.772725 23648 net.cpp:100] Creating Layer conv13_2_mbox_loc
I0405 14:04:55.772732 23648 net.cpp:434] conv13_2_mbox_loc <- conv13_2_conv13_2_0_split_0
I0405 14:04:55.772740 23648 net.cpp:408] conv13_2_mbox_loc -> conv13_2_mbox_loc
I0405 14:04:55.774832 23648 net.cpp:150] Setting up conv13_2_mbox_loc
I0405 14:04:55.774889 23648 net.cpp:157] Top shape: 8 16 1 1 (128)
I0405 14:04:55.774897 23648 net.cpp:165] Memory required for data: 455862464
I0405 14:04:55.774917 23648 layer_factory.hpp:77] Creating layer conv13_2_mbox_loc_perm
I0405 14:04:55.774940 23648 net.cpp:100] Creating Layer conv13_2_mbox_loc_perm
I0405 14:04:55.774951 23648 net.cpp:434] conv13_2_mbox_loc_perm <- conv13_2_mbox_loc
I0405 14:04:55.774966 23648 net.cpp:408] conv13_2_mbox_loc_perm -> conv13_2_mbox_loc_perm
I0405 14:04:55.775127 23648 net.cpp:150] Setting up conv13_2_mbox_loc_perm
I0405 14:04:55.775137 23648 net.cpp:157] Top shape: 8 1 1 16 (128)
I0405 14:04:55.775142 23648 net.cpp:165] Memory required for data: 455862976
I0405 14:04:55.775148 23648 layer_factory.hpp:77] Creating layer conv13_2_mbox_loc_flat
I0405 14:04:55.775157 23648 net.cpp:100] Creating Layer conv13_2_mbox_loc_flat
I0405 14:04:55.775164 23648 net.cpp:434] conv13_2_mbox_loc_flat <- conv13_2_mbox_loc_perm
I0405 14:04:55.775182 23648 net.cpp:408] conv13_2_mbox_loc_flat -> conv13_2_mbox_loc_flat
I0405 14:04:55.775218 23648 net.cpp:150] Setting up conv13_2_mbox_loc_flat
I0405 14:04:55.775225 23648 net.cpp:157] Top shape: 8 16 (128)
I0405 14:04:55.775230 23648 net.cpp:165] Memory required for data: 455863488
I0405 14:04:55.775235 23648 layer_factory.hpp:77] Creating layer conv13_2_mbox_conf
I0405 14:04:55.775249 23648 net.cpp:100] Creating Layer conv13_2_mbox_conf
I0405 14:04:55.775255 23648 net.cpp:434] conv13_2_mbox_conf <- conv13_2_conv13_2_0_split_1
I0405 14:04:55.775264 23648 net.cpp:408] conv13_2_mbox_conf -> conv13_2_mbox_conf
I0405 14:04:55.777096 23648 net.cpp:150] Setting up conv13_2_mbox_conf
I0405 14:04:55.777114 23648 net.cpp:157] Top shape: 8 28 1 1 (224)
I0405 14:04:55.777120 23648 net.cpp:165] Memory required for data: 455864384
I0405 14:04:55.777130 23648 layer_factory.hpp:77] Creating layer conv13_2_mbox_conf_perm
I0405 14:04:55.777140 23648 net.cpp:100] Creating Layer conv13_2_mbox_conf_perm
I0405 14:04:55.777169 23648 net.cpp:434] conv13_2_mbox_conf_perm <- conv13_2_mbox_conf
I0405 14:04:55.777179 23648 net.cpp:408] conv13_2_mbox_conf_perm -> conv13_2_mbox_conf_perm
I0405 14:04:55.777317 23648 net.cpp:150] Setting up conv13_2_mbox_conf_perm
I0405 14:04:55.777326 23648 net.cpp:157] Top shape: 8 1 1 28 (224)
I0405 14:04:55.777330 23648 net.cpp:165] Memory required for data: 455865280
I0405 14:04:55.777335 23648 layer_factory.hpp:77] Creating layer conv13_2_mbox_conf_flat
I0405 14:04:55.777343 23648 net.cpp:100] Creating Layer conv13_2_mbox_conf_flat
I0405 14:04:55.777348 23648 net.cpp:434] conv13_2_mbox_conf_flat <- conv13_2_mbox_conf_perm
I0405 14:04:55.777355 23648 net.cpp:408] conv13_2_mbox_conf_flat -> conv13_2_mbox_conf_flat
I0405 14:04:55.777395 23648 net.cpp:150] Setting up conv13_2_mbox_conf_flat
I0405 14:04:55.777403 23648 net.cpp:157] Top shape: 8 28 (224)
I0405 14:04:55.777407 23648 net.cpp:165] Memory required for data: 455866176
I0405 14:04:55.777412 23648 layer_factory.hpp:77] Creating layer conv13_2_mbox_priorbox
I0405 14:04:55.777421 23648 net.cpp:100] Creating Layer conv13_2_mbox_priorbox
I0405 14:04:55.777427 23648 net.cpp:434] conv13_2_mbox_priorbox <- conv13_2_conv13_2_0_split_2
I0405 14:04:55.777432 23648 net.cpp:434] conv13_2_mbox_priorbox <- data_data_0_split_6
I0405 14:04:55.777441 23648 net.cpp:408] conv13_2_mbox_priorbox -> conv13_2_mbox_priorbox
I0405 14:04:55.777474 23648 net.cpp:150] Setting up conv13_2_mbox_priorbox
I0405 14:04:55.777482 23648 net.cpp:157] Top shape: 1 2 16 (32)
I0405 14:04:55.777487 23648 net.cpp:165] Memory required for data: 455866304
I0405 14:04:55.777493 23648 layer_factory.hpp:77] Creating layer mbox_loc
I0405 14:04:55.777501 23648 net.cpp:100] Creating Layer mbox_loc
I0405 14:04:55.777508 23648 net.cpp:434] mbox_loc <- fire4_mbox_loc_flat
I0405 14:04:55.777516 23648 net.cpp:434] mbox_loc <- fire8_mbox_loc_flat
I0405 14:04:55.777523 23648 net.cpp:434] mbox_loc <- fire9_mbox_loc_flat
I0405 14:04:55.777530 23648 net.cpp:434] mbox_loc <- fire10_mbox_loc_flat
I0405 14:04:55.777537 23648 net.cpp:434] mbox_loc <- conv12_2_mbox_loc_flat
I0405 14:04:55.777544 23648 net.cpp:434] mbox_loc <- conv13_2_mbox_loc_flat
I0405 14:04:55.777551 23648 net.cpp:408] mbox_loc -> mbox_loc
I0405 14:04:55.777586 23648 net.cpp:150] Setting up mbox_loc
I0405 14:04:55.777595 23648 net.cpp:157] Top shape: 8 32120 (256960)
I0405 14:04:55.777600 23648 net.cpp:165] Memory required for data: 456894144
I0405 14:04:55.777606 23648 layer_factory.hpp:77] Creating layer mbox_conf
I0405 14:04:55.777612 23648 net.cpp:100] Creating Layer mbox_conf
I0405 14:04:55.777619 23648 net.cpp:434] mbox_conf <- fire4_mbox_conf_flat
I0405 14:04:55.777626 23648 net.cpp:434] mbox_conf <- fire8_mbox_conf_flat
I0405 14:04:55.777637 23648 net.cpp:434] mbox_conf <- fire9_mbox_conf_flat
I0405 14:04:55.777643 23648 net.cpp:434] mbox_conf <- fire10_mbox_conf_flat
I0405 14:04:55.777650 23648 net.cpp:434] mbox_conf <- conv12_2_mbox_conf_flat
I0405 14:04:55.777657 23648 net.cpp:434] mbox_conf <- conv13_2_mbox_conf_flat
I0405 14:04:55.777663 23648 net.cpp:408] mbox_conf -> mbox_conf
I0405 14:04:55.777694 23648 net.cpp:150] Setting up mbox_conf
I0405 14:04:55.777703 23648 net.cpp:157] Top shape: 8 56210 (449680)
I0405 14:04:55.777707 23648 net.cpp:165] Memory required for data: 458692864
I0405 14:04:55.777714 23648 layer_factory.hpp:77] Creating layer mbox_priorbox
I0405 14:04:55.777721 23648 net.cpp:100] Creating Layer mbox_priorbox
I0405 14:04:55.777727 23648 net.cpp:434] mbox_priorbox <- fire4_mbox_priorbox
I0405 14:04:55.777734 23648 net.cpp:434] mbox_priorbox <- fire8_mbox_priorbox
I0405 14:04:55.777740 23648 net.cpp:434] mbox_priorbox <- fire9_mbox_priorbox
I0405 14:04:55.777746 23648 net.cpp:434] mbox_priorbox <- fire10_mbox_priorbox
I0405 14:04:55.777753 23648 net.cpp:434] mbox_priorbox <- conv12_2_mbox_priorbox
I0405 14:04:55.777760 23648 net.cpp:434] mbox_priorbox <- conv13_2_mbox_priorbox
I0405 14:04:55.777766 23648 net.cpp:408] mbox_priorbox -> mbox_priorbox
I0405 14:04:55.777796 23648 net.cpp:150] Setting up mbox_priorbox
I0405 14:04:55.777815 23648 net.cpp:157] Top shape: 1 2 32120 (64240)
I0405 14:04:55.777820 23648 net.cpp:165] Memory required for data: 458949824
I0405 14:04:55.777827 23648 layer_factory.hpp:77] Creating layer mbox_loss
I0405 14:04:55.777839 23648 net.cpp:100] Creating Layer mbox_loss
I0405 14:04:55.777846 23648 net.cpp:434] mbox_loss <- mbox_loc
I0405 14:04:55.777853 23648 net.cpp:434] mbox_loss <- mbox_conf
I0405 14:04:55.777859 23648 net.cpp:434] mbox_loss <- mbox_priorbox
…
I0405 14:04:55.782126 23648 net.cpp:58] Initializing net from parameters: 
name: "tiny_SSD_300x300_train"
state {
  phase: TEST
}
layer {
  name: "data"
  type: "AnnotatedData"
  top: "data"
  top: "label"
  include {
    phase: TEST
  }
  transform_param {
    mean_value: 104
    mean_value: 117
    mean_value: 123
    resize_param {
      prob: 1
      resize_mode: WARP
      height: 300
      width: 300
      interp_mode: LINEAR
    }
  }
  data_param {
    source: "test_lmdb/"
    batch_size: 2
    backend: LMDB
  }
  annotated_data_param {
    batch_sampler {
    }
    label_map_file: "labelmap.prototxt"
  }
}
layer {
  name: "conv1"
  type: "Convolution"
  bottom: "data"
  top: "conv1"
  param {
    lr_mult: 1
    decay_mult: 1
  }
  param {
    lr_mult: 2
    decay_mult: 0
  }
  convolution_param {
    num_output: 57
    pad: 0
    kernel_size: 3
    stride: 2
    weight_filler {
      type: "xavier"
    }
    bias_filler {
      type: "constant"
      value: 0
    }
  }
}
layer {
  name: "relu1_1"
  type: "ReLU"
  bottom: "conv1"
  top: "conv1"
}
layer {
  name: "pool1"
  type: "Pooling"
  bottom: "conv1"
  top: "pool1"
  pooling_param {
    pool: MAX
    kernel_size: 3
    stride: 2
  }
}
layer {
  name: "fire1/squeeze1x1"
  type: "Convolution"
  bottom: "pool1"
  top: "fire1/squeeze1x1"
  convolution_param {
    num_output: 15
    kernel_size: 1
    weight_filler {
      type: "xavier"
    }
  }
}
layer {
  name: "fire1/relu_squeeze1x1"
  type: "ReLU"
  bottom: "fire1/squeeze1x1"
  top: "fire1/squeeze1x1"
}
layer {
  name: "fire1/expand1x1"
  type: "Convolution"
  bottom: "fire1/squeeze1x1"
  top: "fire1/expand1x1"
  convolution_param {
    num_output: 49
    kernel_size: 1
    weight_filler {
      type: "xavier"
    }
  }
}
layer {
  name: "fire1/relu_expand1x1"
  type: "ReLU"
  bottom: "fire1/expand1x1"
  top: "fire1/expand1x1"
}
layer {
  name: "fire1/expand3x3"
  type: "Convolution"
  bottom: "fire1/squeeze1x1"
  top: "fire1/expand3x3"
  convolution_param {
    num_output: 53
    pad: 1
    kernel_size: 3
    weight_filler {
      type: "xavier"
    }
  }
}
layer {
  name: "fire1/relu_expand3x3"
  type: "ReLU"
  bottom: "fire1/expand3x3"
  top: "fire1/expand3x3"
}
layer {
  name: "fire1/concat"
  type: "Concat"
  bottom: "fire1/expand1x1"
  bottom: "fire1/expand3x3"
  top: "fire1/concat"
}
layer {
  name: "fire2/squeeze1x1"
  type: "Convolution"
  bottom: "fire1/concat"
  top: "fire2/squeeze1x1"
  convolution_param {
    num_output: 15
    kernel_size: 1
    weight_filler {
      type: "xavier"
    }
  }
}
layer {
  name: "fire2/relu_squeeze1x1"
  type: "ReLU"
  bottom: "fire2/squeeze1x1"
  top: "fire2/squeeze1x1"
}
layer {
  name: "fire2/expand1x1"
  type: "Convolution"
  bottom: "fire2/squeeze1x1"
  top: "fire2/expand1x1"
  convolution_param {
    num_output: 54
    kernel_size: 1
    weight_filler {
      type: "xavier"
    }
  }
}
layer {
  name: "fire2/relu_expand1x1"
  type: "ReLU"
  bottom: "fire2/expand1x1"
  top: "fire2/expand1x1"
}
layer {
  name: "fire2/expand3x3"
  type: "Convolution"
  bottom: "fire2/squeeze1x1"
  top: "fire2/expand3x3"
  convolution_param {
    num_output: 52
    pad: 1
    kernel_size: 3
    weight_filler {
      type: "xavier"
    }
  }
}
layer {
  name: "fire2/relu_expand3x3"
  type: "ReLU"
  bottom: "fire2/expand3x3"
  top: "fire2/expand3x3"
}
layer {
  name: "fire2/concat"
  type: "Concat"
  bottom: "fire2/expand1x1"
  bottom: "fire2/expand3x3"
  top: "fire2/concat"
}
layer {
  name: "pool3"
  type: "Pooling"
  bottom: "fire2/concat"
  top: "pool3"
  pooling_param {
    pool: MAX
    kernel_size: 3
    stride: 2
  }
}
layer {
  name: "fire3/squeeze1x1"
  type: "Convolution"
  bottom: "pool3"
  top: "fire3/squeeze1x1"
  convolution_param {
    num_output: 29
    kernel_size: 1
    weight_filler {
      type: "xavier"
    }
  }
}
layer {
  name: "fire3/relu_squeeze1x1"
  type: "ReLU"
  bottom: "fire3/squeeze1x1"
  top: "fire3/squeeze1x1"
}
layer {
  name: "fire3/expand1x1"
  type: "Convolution"
  bottom: "fire3/squeeze1x1"
  top: "fire3/expand1x1"
  convolution_param {
    num_output: 92
    kernel_size: 1
    weight_filler {
      type: "xavier"
    }
  }
}
layer {
  name: "fire3/relu_expand1x1"
  type: "ReLU"
  bottom: "fire3/expand1x1"
  top: "fire3/expand1x1"
}
layer {
  name: "fire3/expand3x3"
  type: "Convolution"
  bottom: "fire3/squeeze1x1"
  top: "fire3/expand3x3"
  convolution_param {
    num_output: 94
    pad: 1
    kernel_size: 3
    weight_filler {
      type: "xavier"
    }
  }
}
layer {
  name: "fire3/relu_expand3x3"
  type: "ReLU"
  bottom: "fire3/expand3x3"
  top: "fire3/expand3x3"
}
layer {
  name: "fire3/concat"
  type: "Concat"
  bottom: "fire3/expand1x1"
  bottom: "fire3/expand3x3"
  top: "fire3/concat"
}
layer {
  name: "fire4/squeeze1x1"
  type: "Convolution"
  bottom: "fire3/concat"
  top: "fire4/squeeze1x1"
  convolution_param {
    num_output: 29
    kernel_size: 1
    weight_filler {
      type: "xavier"
    }
  }
}
layer {
  name: "fire4/relu_squeeze1x1"
  type: "ReLU"
  bottom: "fire4/squeeze1x1"
  top: "fire4/squeeze1x1"
}
layer {
  name: "fire4/expand1x1"
  type: "Convolution"
  bottom: "fire4/squeeze1x1"
  top: "fire4/expand1x1"
  convolution_param {
    num_output: 90
    kernel_size: 1
    weight_filler {
      type: "xavier"
    }
  }
}
layer {
  name: "fire4/relu_expand1x1"
  type: "ReLU"
  bottom: "fire4/expand1x1"
  top: "fire4/expand1x1"
}
layer {
  name: "fire4/expand3x3"
  type: "Convolution"
  bottom: "fire4/squeeze1x1"
  top: "fire4/expand3x3"
  convolution_param {
    num_output: 83
    pad: 1
    kernel_size: 3
    weight_filler {
      type: "xavier"
    }
  }
}
layer {
  name: "fire4/relu_expand3x3"
  type: "ReLU"
  bottom: "fire4/expand3x3"
  top: "fire4/expand3x3"
}
layer {
  name: "fire4/concat"
  type: "Concat"
  bottom: "fire4/expand1x1"
  bottom: "fire4/expand3x3"
  top: "fire4/concat"
}
layer {
  name: "pool5"
  type: "Pooling"
  bottom: "fire4/concat"
  top: "pool5"
  pooling_param {
    pool: MAX
    kernel_size: 3
    stride: 2
  }
}
layer {
  name: "fire5/squeeze1x1"
  type: "Convolution"
  bottom: "pool5"
  top: "fire5/squeeze1x1"
  convolution_param {
    num_output: 44
    kernel_size: 1
    weight_filler {
      type: "xavier"
    }
  }
}
layer {
  name: "fire5/relu_squeeze1x1"
  type: "ReLU"
  bottom: "fire5/squeeze1x1"
  top: "fire5/squeeze1x1"
}
layer {
  name: "fire5/expand1x1"
  type: "Convolution"
  bottom: "fire5/squeeze1x1"
  top: "fire5/expand1x1"
  convolution_param {
    num_output: 166
    kernel_size: 1
    weight_filler {
      type: "xavier"
    }
  }
}
layer {
  name: "fire5/relu_expand1x1"
  type: "ReLU"
  bottom: "fire5/expand1x1"
  top: "fire5/expand1x1"
}
layer {
  name: "fire5/expand3x3"
  type: "Convolution"
  bottom: "fire5/squeeze1x1"
  top: "fire5/expand3x3"
  convolution_param {
    num_output: 161
    pad: 1
    kernel_size: 3
    weight_filler {
      type: "xavier"
    }
  }
}
layer {
  name: "fire5/relu_expand3x3"
  type: "ReLU"
  bottom: "fire5/expand3x3"
  top: "fire5/expand3x3"
}
layer {
  name: "fire5/concat"
  type: "Concat"
  bottom: "fire5/expand1x1"
  bottom: "fire5/expand3x3"
  top: "fire5/concat"
}
layer {
  name: "fire6/squeeze1x1"
  type: "Convolution"
  bottom: "fire5/concat"
  top: "fire6/squeeze1x1"
  convolution_param {
    num_output: 45
    kernel_size: 1
    weight_filler {
      type: "xavier"
    }
  }
}
layer {
  name: "fire6/relu_squeeze1x1"
  type: "ReLU"
  bottom: "fire6/squeeze1x1"
  top: "fire6/squeeze1x1"
}
layer {
  name: "fire6/expand1x1"
  type: "Convolution"
  bottom: "fire6/squeeze1x1"
  top: "fire6/expand1x1"
  convolution_param {
    num_output: 155
    kernel_size: 1
    weight_filler {
      type: "xavier"
    }
  }
}
layer {
  name: "fire6/relu_expand1x1"
  type: "ReLU"
  bottom: "fire6/expand1x1"
  top: "fire6/expand1x1"
}
layer {
  name: "fire6/expand3x3"
  type: "Convolution"
  bottom: "fire6/squeeze1x1"
  top: "fire6/expand3x3"
  convolution_param {
    num_output: 146
    pad: 1
    kernel_size: 3
    weight_filler {
      type: "xavier"
    }
  }
}
layer {
  name: "fire6/relu_expand3x3"
  type: "ReLU"
  bottom: "fire6/expand3x3"
  top: "fire6/expand3x3"
}
layer {
  name: "fire6/concat"
  type: "Concat"
  bottom: "fire6/expand1x1"
  bottom: "fire6/expand3x3"
  top: "fire6/concat"
}
layer {
  name: "fire7/squeeze1x1"
  type: "Convolution"
  bottom: "fire6/concat"
  top: "fire7/squeeze1x1"
  convolution_param {
    num_output: 49
    kernel_size: 1
    weight_filler {
      type: "xavier"
    }
  }
}
layer {
  name: "fire7/relu_squeeze1x1"
  type: "ReLU"
  bottom: "fire7/squeeze1x1"
  top: "fire7/squeeze1x1"
}
layer {
  name: "fire7/expand1x1"
  type: "Convolution"
  bottom: "fire7/squeeze1x1"
  top: "fire7/expand1x1"
  convolution_param {
    num_output: 163
    kernel_size: 1
    weight_filler {
      type: "xavier"
    }
  }
}
layer {
  name: "fire7/relu_expand1x1"
  type: "ReLU"
  bottom: "fire7/expand1x1"
  top: "fire7/expand1x1"
}
layer {
  name: "fire7/expand3x3"
  type: "Convolution"
  bottom: "fire7/squeeze1x1"
  top: "fire7/expand3x3"
  convolution_param {
    num_output: 171
    pad: 1
    kernel_size: 3
    weight_filler {
      type: "xavier"
    }
  }
}
layer {
  name: "fire7/relu_expand3x3"
  type: "ReLU"
  bottom: "fire7/expand3x3"
  top: "fire7/expand3x3"
}
layer {
  name: "fire7/concat"
  type: "Concat"
  bottom: "fire7/expand1x1"
  bottom: "fire7/expand3x3"
  top: "fire7/concat"
}
layer {
  name: "fire8/squeeze1x1"
  type: "Convolution"
  bottom: "fire7/concat"
  top: "fire8/squeeze1x1"
  convolution_param {
    num_output: 25
    kernel_size: 1
    weight_filler {
      type: "xavier"
    }
  }
}
layer {
  name: "fire8/relu_squeeze1x1"
  type: "ReLU"
  bottom: "fire8/squeeze1x1"
  top: "fire8/squeeze1x1"
}
layer {
  name: "fire8/expand1x1"
  type: "Convolution"
  bottom: "fire8/squeeze1x1"
  top: "fire8/expand1x1"
  convolution_param {
    num_output: 29
    kernel_size: 1
    weight_filler {
      type: "xavier"
    }
  }
}
layer {
  name: "fire8/relu_expand1x1"
  type: "ReLU"
  bottom: "fire8/expand1x1"
  top: "fire8/expand1x1"
}
layer {
  name: "fire8/expand3x3"
  type: "Convolution"
  bottom: "fire8/squeeze1x1"
  top: "fire8/expand3x3"
  convolution_param {
    num_output: 54
    pad: 1
    kernel_size: 3
    weight_filler {
      type: "xavier"
    }
  }
}
layer {
  name: "fire8/relu_expand3x3"
  type: "ReLU"
  bottom: "fire8/expand3x3"
  top: "fire8/expand3x3"
}
layer {
  name: "fire8/concat"
  type: "Concat"
  bottom: "fire8/expand1x1"
  bottom: "fire8/expand3x3"
  top: "fire8/concat"
}
layer {
  name: "pool9"
  type: "Pooling"
  bottom: "fire8/concat"
  top: "pool9"
  pooling_param {
    pool: MAX
    kernel_size: 3
    stride: 2
  }
}
layer {
  name: "fire9/squeeze1x1"
  type: "Convolution"
  bottom: "pool9"
  top: "fire9/squeeze1x1"
  convolution_param {
    num_output: 37
    kernel_size: 1
    weight_filler {
      type: "xavier"
    }
  }
}
layer {
  name: "fire9/relu_squeeze1x1"
  type: "ReLU"
  bottom: "fire9/squeeze1x1"
  top: "fire9/squeeze1x1"
}
layer {
  name: "fire9/expand1x1"
  type: "Convolution"
  bottom: "fire9/squeeze1x1"
  top: "fire9/expand1x1"
  convolution_param {
    num_output: 45
    kernel_size: 1
    weight_filler {
      type: "xavier"
    }
  }
}
layer {
  name: "fire9/relu_expand1x1"
  type: "ReLU"
  bottom: "fire9/expand1x1"
  top: "fire9/expand1x1"
}
layer {
  name: "fire9/expand3x3"
  type: "Convolution"
  bottom: "fire9/squeeze1x1"
  top: "fire9/expand3x3"
  convolution_param {
    num_output: 56
    pad: 1
    kernel_size: 3
    weight_filler {
      type: "xavier"
    }
  }
}
layer {
  name: "fire9/relu_expand3x3"
  type: "ReLU"
  bottom: "fire9/expand3x3"
  top: "fire9/expand3x3"
}
layer {
  name: "fire9/concat"
  type: "Concat"
  bottom: "fire9/expand1x1"
  bottom: "fire9/expand3x3"
  top: "fire9/concat"
}
layer {
  name: "pool10"
  type: "Pooling"
  bottom: "fire9/concat"
  top: "pool10"
  pooling_param {
    pool: MAX
    kernel_size: 3
    stride: 2
  }
}
layer {
  name: "fire10/squeeze1x1"
  type: "Convolution"
  bottom: "pool10"
  top: "fire10/squeeze1x1"
  convolution_param {
    num_output: 38
    kernel_size: 1
    weight_filler {
      type: "xavier"
    }
  }
}
layer {
  name: "fire10/relu_squeeze1x1"
  type: "ReLU"
  bottom: "fire10/squeeze1x1"
  top: "fire10/squeeze1x1"
}
layer {
  name: "fire10/expand1x1"
  type: "Convolution"
  bottom: "fire10/squeeze1x1"
  top: "fire10/expand1x1"
  convolution_param {
    num_output: 41
    kernel_size: 1
    weight_filler {
      type: "xavier"
    }
  }
}
layer {
  name: "fire10/relu_expand1x1"
  type: "ReLU"
  bottom: "fire10/expand1x1"
  top: "fire10/expand1x1"
}
layer {
  name: "fire10/expand3x3"
  type: "Convolution"
  bottom: "fire10/squeeze1x1"
  top: "fire10/expand3x3"
  convolution_param {
    num_output: 44
    pad: 1
    kernel_size: 3
    weight_filler {
      type: "xavier"
    }
  }
}
layer {
  name: "fire10/relu_expand3x3"
  type: "ReLU"
  bottom: "fire10/expand3x3"
  top: "fire10/expand3x3"
}
layer {
  name: "fire10/concat"
  type: "Concat"
  bottom: "fire10/expand1x1"
  bottom: "fire10/expand3x3"
  top: "fire10/concat"
}
layer {
  name: "conv12_1"
  type: "Convolution"
  bottom: "fire10/concat"
  top: "conv12_1"
  param {
    lr_mult: 1
    decay_mult: 1
  }
  param {
    lr_mult: 2
    decay_mult: 0
  }
  convolution_param {
    num_output: 51
    pad: 3
    kernel_size: 3
    stride: 2
    weight_filler {
      type: "xavier"
    }
    bias_filler {
      type: "constant"
      value: 0
    }
  }
}
layer {
  name: "relu122_1"
  type: "ReLU"
  bottom: "conv12_1"
  top: "conv12_1"
}
layer {
  name: "conv12_2"
  type: "Convolution"
  bottom: "conv12_1"
  top: "conv12_2"
  param {
    lr_mult: 1
    decay_mult: 1
  }
  param {
    lr_mult: 2
    decay_mult: 0
  }
  convolution_param {
    num_output: 46
    pad: 0
    kernel_size: 3
    weight_filler {
      type: "xavier"
    }
    bias_filler {
      type: "constant"
      value: 0
    }
  }
}
layer {
  name: "relu12_2"
  type: "ReLU"
  bottom: "conv12_2"
  top: "conv12_2"
}
layer {
  name: "conv13_1"
  type: "Convolution"
  bottom: "conv12_2"
  top: "conv13_1"
  param {
    lr_mult: 1
    decay_mult: 1
  }
  param {
    lr_mult: 2
    decay_mult: 0
  }
  convolution_param {
    num_output: 55
    pad: 1
    kernel_size: 3
    weight_filler {
      type: "xavier"
    }
    bias_filler {
      type: "constant"
      value: 0
    }
  }
}
layer {
  name: "relu13_1"
  type: "ReLU"
  bottom: "conv13_1"
  top: "conv13_1"
}
layer {
  name: "conv13_2"
  type: "Convolution"
  bottom: "conv13_1"
  top: "conv13_2"
  param {
    lr_mult: 1
    decay_mult: 1
  }
  param {
    lr_mult: 2
    decay_mult: 0
  }
  convolution_param {
    num_output: 85
    pad: 1
    kernel_size: 3
    stride: 2
    weight_filler {
      type: "xavier"
    }
    bias_filler {
      type: "constant"
      value: 0
    }
  }
}
layer {
  name: "fire4_norm"
  type: "Normalize"
  bottom: "fire4/concat"
  top: "fire4_norm"
  norm_param {
    across_spatial: false
    scale_filler {
      type: "constant"
      value: 20
    }
    channel_shared: false
  }
}
layer {
  name: "fire4_mbox_loc"
  type: "Convolution"
  bottom: "fire4_norm"
  top: "fire4_mbox_loc"
  param {
    lr_mult: 1
    decay_mult: 1
  }
  param {
    lr_mult: 2
    decay_mult: 0
  }
  convolution_param {
    num_output: 16
    pad: 1
    kernel_size: 3
    stride: 1
    weight_filler {
      type: "xavier"
    }
    bias_filler {
      type: "constant"
      value: 0
    }
  }
}
layer {
  name: "fire4_mbox_loc_perm"
  type: "Permute"
  bottom: "fire4_mbox_loc"
  top: "fire4_mbox_loc_perm"
  permute_param {
    order: 0
    order: 2
    order: 3
    order: 1
  }
}
layer {
  name: "fire4_mbox_loc_flat"
  type: "Flatten"
  bottom: "fire4_mbox_loc_perm"
  top: "fire4_mbox_loc_flat"
  flatten_param {
    axis: 1
  }
}
layer {
  name: "fire4_mbox_conf"
  type: "Convolution"
  bottom: "fire4_norm"
  top: "fire4_mbox_conf"
  param {
    lr_mult: 1
    decay_mult: 1
  }
  param {
    lr_mult: 2
    decay_mult: 0
  }
  convolution_param {
    num_output: 28
    pad: 1
    kernel_size: 3
    stride: 1
    weight_filler {
      type: "xavier"
    }
    bias_filler {
      type: "constant"
      value: 0
    }
  }
}
layer {
  name: "fire4_mbox_conf_perm"
  type: "Permute"
  bottom: "fire4_mbox_conf"
  top: "fire4_mbox_conf_perm"
  permute_param {
    order: 0
    order: 2
    order: 3
    order: 1
  }
}
layer {
  name: "fire4_mbox_conf_flat"
  type: "Flatten"
  bottom: "fire4_mbox_conf_perm"
  top: "fire4_mbox_conf_flat"
  flatten_param {
    axis: 1
  }
}
layer {
  name: "fire4_mbox_priorbox"
  type: "PriorBox"
  bottom: "fire4_norm"
  bottom: "data"
  top: "fire4_mbox_priorbox"
  prior_box_param {
    min_size: 30
    max_size: 60
    aspect_ratio: 2
    flip: true
    clip: false
    variance: 0.1
    variance: 0.1
    variance: 0.2
    variance: 0.2
    step: 8
    offset: 0.5
  }
}
layer {
  name: "fire8_norm"
  type: "Normalize"
  bottom: "fire8/concat"
  top: "fire8_norm"
  norm_param {
    across_spatial: false
    scale_filler {
      type: "constant"
      value: 20
    }
    channel_shared: false
  }
}
layer {
  name: "fire8_mbox_loc"
  type: "Convolution"
  bottom: "fire8_norm"
  top: "fire8_mbox_loc"
  param {
    lr_mult: 1
    decay_mult: 1
  }
  param {
    lr_mult: 2
    decay_mult: 0
  }
  convolution_param {
    num_output: 24
    pad: 1
    kernel_size: 3
    stride: 1
    weight_filler {
      type: "xavier"
    }
    bias_filler {
      type: "constant"
      value: 0
    }
  }
}
layer {
  name: "fire8_mbox_loc_perm"
  type: "Permute"
  bottom: "fire8_mbox_loc"
  top: "fire8_mbox_loc_perm"
  permute_param {
    order: 0
    order: 2
    order: 3
    order: 1
  }
}
layer {
  name: "fire8_mbox_loc_flat"
  type: "Flatten"
  bottom: "fire8_mbox_loc_perm"
  top: "fire8_mbox_loc_flat"
  flatten_param {
    axis: 1
  }
}
layer {
  name: "fire8_mbox_conf"
  type: "Convolution"
  bottom: "fire8_norm"
  top: "fire8_mbox_conf"
  param {
    lr_mult: 1
    decay_mult: 1
  }
  param {
    lr_mult: 2
    decay_mult: 0
  }
  convolution_param {
    num_output: 42
    pad: 1
    kernel_size: 3
    stride: 1
    weight_filler {
      type: "xavier"
    }
    bias_filler {
      type: "constant"
      value: 0
    }
  }
}
layer {
  name: "fire8_mbox_conf_perm"
  type: "Permute"
  bottom: "fire8_mbox_conf"
  top: "fire8_mbox_conf_perm"
  permute_param {
    order: 0
    order: 2
    order: 3
    order: 1
  }
}
layer {
  name: "fire8_mbox_conf_flat"
  type: "Flatten"
  bottom: "fire8_mbox_conf_perm"
  top: "fire8_mbox_conf_flat"
  flatten_param {
    axis: 1
  }
}
layer {
  name: "fire8_mbox_priorbox"
  type: "PriorBox"
  bottom: "fire8_norm"
  bottom: "data"
  top: "fire8_mbox_priorbox"
  prior_box_param {
    min_size: 60
    max_size: 111
    aspect_ratio: 2
    aspect_ratio: 3
    flip: true
    clip: false
    variance: 0.1
    variance: 0.1
    variance: 0.2
    variance: 0.2
    step: 16
    offset: 0.5
  }
}
layer {
  name: "fire9_mbox_loc"
  type: "Convolution"
  bottom: "fire9/concat"
  top: "fire9_mbox_loc"
  param {
    lr_mult: 1
    decay_mult: 1
  }
  param {
    lr_mult: 2
    decay_mult: 0
  }
  convolution_param {
    num_output: 24
    pad: 1
    kernel_size: 3
    stride: 1
    weight_filler {
      type: "xavier"
    }
    bias_filler {
      type: "constant"
      value: 0
    }
  }
}
layer {
  name: "fire9_mbox_loc_perm"
  type: "Permute"
  bottom: "fire9_mbox_loc"
  top: "fire9_mbox_loc_perm"
  permute_param {
    order: 0
    order: 2
    order: 3
    order: 1
  }
}
layer {
  name: "fire9_mbox_loc_flat"
  type: "Flatten"
  bottom: "fire9_mbox_loc_perm"
  top: "fire9_mbox_loc_flat"
  flatten_param {
    axis: 1
  }
}
layer {
  name: "fire9_mbox_conf"
  type: "Convolution"
  bottom: "fire9/concat"
  top: "fire9_mbox_conf"
  param {
    lr_mult: 1
    decay_mult: 1
  }
  param {
    lr_mult: 2
    decay_mult: 0
  }
  convolution_param {
    num_output: 42
    pad: 1
    kernel_size: 3
    stride: 1
    weight_filler {
      type: "xavier"
    }
    bias_filler {
      type: "constant"
      value: 0
    }
  }
}
layer {
  name: "fire9_mbox_conf_perm"
  type: "Permute"
  bottom: "fire9_mbox_conf"
  top: "fire9_mbox_conf_perm"
  permute_param {
    order: 0
    order: 2
    order: 3
    order: 1
  }
}
layer {
  name: "fire9_mbox_conf_flat"
  type: "Flatten"
  bottom: "fire9_mbox_conf_perm"
  top: "fire9_mbox_conf_flat"
  flatten_param {
    axis: 1
  }
}
layer {
  name: "fire9_mbox_priorbox"
  type: "PriorBox"
  bottom: "fire9/concat"
  bottom: "data"
  top: "fire9_mbox_priorbox"
  prior_box_param {
    min_size: 111
    max_size: 162
    aspect_ratio: 2
    aspect_ratio: 3
    flip: true
    clip: false
    variance: 0.1
    variance: 0.1
    variance: 0.2
    variance: 0.2
    step: 34
    offset: 0.5
  }
}
layer {
  name: "fire10_mbox_loc"
  type: "Convolution"
  bottom: "fire10/concat"
  top: "fire10_mbox_loc"
  param {
    lr_mult: 1
    decay_mult: 1
  }
  param {
    lr_mult: 2
    decay_mult: 0
  }
  convolution_param {
    num_output: 24
    pad: 1
    kernel_size: 3
    stride: 1
    weight_filler {
      type: "xavier"
    }
    bias_filler {
      type: "constant"
      value: 0
    }
  }
}
layer {
  name: "fire10_mbox_loc_perm"
  type: "Permute"
  bottom: "fire10_mbox_loc"
  top: "fire10_mbox_loc_perm"
  permute_param {
    order: 0
    order: 2
    order: 3
    order: 1
  }
}
layer {
  name: "fire10_mbox_loc_flat"
  type: "Flatten"
  bottom: "fire10_mbox_loc_perm"
  top: "fire10_mbox_loc_flat"
  flatten_param {
    axis: 1
  }
}
layer {
  name: "fire10_mbox_conf"
  type: "Convolution"
  bottom: "fire10/concat"
  top: "fire10_mbox_conf"
  param {
    lr_mult: 1
    decay_mult: 1
  }
  param {
    lr_mult: 2
    decay_mult: 0
  }
  convolution_param {
    num_output: 42
    pad: 1
    kernel_size: 3
    stride: 1
    weight_filler {
      type: "xavier"
    }
    bias_filler {
      type: "constant"
      value: 0
    }
  }
}
layer {
  name: "fire10_mbox_conf_perm"
  type: "Permute"
  bottom: "fire10_mbox_conf"
  top: "fire10_mbox_conf_perm"
  permute_param {
    order: 0
    order: 2
    order: 3
    order: 1
  }
}
layer {
  name: "fire10_mbox_conf_flat"
  type: "Flatten"
  bottom: "fire10_mbox_conf_perm"
  top: "fire10_mbox_conf_flat"
  flatten_param {
    axis: 1
  }
}
layer {
  name: "fire10_mbox_priorbox"
  type: "PriorBox"
  bottom: "fire10/concat"
  bottom: "data"
  top: "fire10_mbox_priorbox"
  prior_box_param {
    min_size: 162
    max_size: 213
    aspect_ratio: 2
    aspect_ratio: 3
    flip: true
    clip: false
    variance: 0.1
    variance: 0.1
    variance: 0.2
    variance: 0.2
    step: 75
    offset: 0.5
  }
}
layer {
  name: "conv12_2_mbox_loc"
  type: "Convolution"
  bottom: "conv12_2"
  top: "conv12_2_mbox_loc"
  param {
    lr_mult: 1
    decay_mult: 1
  }
  param {
    lr_mult: 2
    decay_mult: 0
  }
  convolution_param {
    num_output: 24
    pad: 1
    kernel_size: 3
    stride: 1
    weight_filler {
      type: "xavier"
    }
    bias_filler {
      type: "constant"
      value: 0
    }
  }
}
layer {
  name: "conv12_2_mbox_loc_perm"
  type: "Permute"
  bottom: "conv12_2_mbox_loc"
  top: "conv12_2_mbox_loc_perm"
  permute_param {
    order: 0
    order: 2
    order: 3
    order: 1
  }
}
layer {
  name: "conv12_2_mbox_loc_flat"
  type: "Flatten"
  bottom: "conv12_2_mbox_loc_perm"
  top: "conv12_2_mbox_loc_flat"
  flatten_param {
    axis: 1
  }
}
layer {
  name: "conv12_2_mbox_conf"
  type: "Convolution"
  bottom: "conv12_2"
  top: "conv12_2_mbox_conf"
  param {
    lr_mult: 1
    decay_mult: 1
  }
  param {
    lr_mult: 2
    decay_mult: 0
  }
  convolution_param {
    num_output: 42
    pad: 1
    kernel_size: 3
    stride: 1
    weight_filler {
      type: "xavier"
    }
    bias_filler {
      type: "constant"
      value: 0
    }
  }
}
layer {
  name: "conv12_2_mbox_conf_perm"
  type: "Permute"
  bottom: "conv12_2_mbox_conf"
  top: "conv12_2_mbox_conf_perm"
  permute_param {
    order: 0
    order: 2
    order: 3
    order: 1
  }
}
layer {
  name: "conv12_2_mbox_conf_flat"
  type: "Flatten"
  bottom: "conv12_2_mbox_conf_perm"
  top: "conv12_2_mbox_conf_flat"
  flatten_param {
    axis: 1
  }
}
layer {
  name: "conv12_2_mbox_priorbox"
  type: "PriorBox"
  bottom: "conv12_2"
  bottom: "data"
  top: "conv12_2_mbox_priorbox"
  prior_box_param {
    min_size: 213
    max_size: 264
    aspect_ratio: 2
    aspect_ratio: 3
    flip: true
    clip: false
    variance: 0.1
    variance: 0.1
    variance: 0.2
    variance: 0.2
    step: 150
    offset: 0.5
  }
}
layer {
  name: "conv13_2_mbox_loc"
  type: "Convolution"
  bottom: "conv13_2"
  top: "conv13_2_mbox_loc"
  param {
    lr_mult: 1
    decay_mult: 1
  }
  param {
    lr_mult: 2
    decay_mult: 0
  }
  convolution_param {
    num_output: 16
    pad: 1
    kernel_size: 3
    stride: 1
    weight_filler {
      type: "xavier"
    }
    bias_filler {
      type: "constant"
      value: 0
    }
  }
}
layer {
  name: "conv13_2_mbox_loc_perm"
  type: "Permute"
  bottom: "conv13_2_mbox_loc"
  top: "conv13_2_mbox_loc_perm"
  permute_param {
    order: 0
    order: 2
    order: 3
    order: 1
  }
}
layer {
  name: "conv13_2_mbox_loc_flat"
  type: "Flatten"
  bottom: "conv13_2_mbox_loc_perm"
  top: "conv13_2_mbox_loc_flat"
  flatten_param {
    axis: 1
  }
}
layer {
  name: "conv13_2_mbox_conf"
  type: "Convolution"
  bottom: "conv13_2"
  top: "conv13_2_mbox_conf"
  param {
    lr_mult: 1
    decay_mult: 1
  }
  param {
    lr_mult: 2
    decay_mult: 0
  }
  convolution_param {
    num_output: 28
    pad: 1
    kernel_size: 3
    stride: 1
    weight_filler {
      type: "xavier"
    }
    bias_filler {
      type: "constant"
      value: 0
    }
  }
}
layer {
  name: "conv13_2_mbox_conf_perm"
  type: "Permute"
  bottom: "conv13_2_mbox_conf"
  top: "conv13_2_mbox_conf_perm"
  permute_param {
    order: 0
    order: 2
    order: 3
    order: 1
  }
}
layer {
  name: "conv13_2_mbox_conf_flat"
  type: "Flatten"
  bottom: "conv13_2_mbox_conf_perm"
  top: "conv13_2_mbox_conf_flat"
  flatten_param {
    axis: 1
  }
}
layer {
  name: "conv13_2_mbox_priorbox"
  type: "PriorBox"
  bottom: "conv13_2"
  bottom: "data"
  top: "conv13_2_mbox_priorbox"
  prior_box_param {
    min_size: 264
    max_size: 315
    aspect_ratio: 2
    flip: true
    clip: false
    variance: 0.1
    variance: 0.1
    variance: 0.2
    variance: 0.2
    step: 300
    offset: 0.5
  }
}
layer {
  name: "mbox_loc"
  type: "Concat"
  bottom: "fire4_mbox_loc_flat"
  bottom: "fire8_mbox_loc_flat"
  bottom: "fire9_mbox_loc_flat"
  bottom: "fire10_mbox_loc_flat"
  bottom: "conv12_2_mbox_loc_flat"
  bottom: "conv13_2_mbox_loc_flat"
  top: "mbox_loc"
  concat_param {
    axis: 1
  }
}
layer {
  name: "mbox_conf"
  type: "Concat"
  bottom: "fire4_mbox_conf_flat"
  bottom: "fire8_mbox_conf_flat"
  bottom: "fire9_mbox_conf_flat"
  bottom: "fire10_mbox_conf_flat"
  bottom: "conv12_2_mbox_conf_flat"
  bottom: "conv13_2_mbox_conf_flat"
  top: "mbox_conf"
  concat_param {
    axis: 1
  }
}
layer {
  name: "mbox_priorbox"
  type: "Concat"
  bottom: "fire4_mbox_priorbox"
  bottom: "fire8_mbox_priorbox"
  bottom: "fire9_mbox_priorbox"
  bottom: "fire10_mbox_priorbox"
  bottom: "conv12_2_mbox_priorbox"
  bottom: "conv13_2_mbox_priorbox"
  top: "mbox_priorbox"
  concat_param {
    axis: 2
  }
}
layer {
  name: "mbox_conf_reshape"
  type: "Reshape"
  bottom: "mbox_conf"
  top: "mbox_conf_reshape"
  reshape_param {
    shape {
      dim: 0
      dim: -1
      dim: 7
    }
  }
}
layer {
  name: "mbox_conf_softmax"
  type: "Softmax"
  bottom: "mbox_conf_reshape"
  top: "mbox_conf_softmax"
  softmax_param {
    axis: 2
  }
}
layer {
  name: "mbox_conf_flatten"
  type: "Flatten"
  bottom: "mbox_conf_softmax"
  top: "mbox_conf_flatten"
  flatten_param {
    axis: 1
  }
}
layer {
  name: "detection_out"
  type: "DetectionOutput"
  bottom: "mbox_loc"
  bottom: "mbox_conf_flatten"
  bottom: "mbox_priorbox"
  top: "detection_out"
  include {
    phase: TEST
  }
  detection_output_param {
    num_classes: 7
    share_location: true
    background_label_id: 0
    nms_param {
      nms_threshold: 0.45
      top_k: 400
    }
    code_type: CENTER_SIZE
    keep_top_k: 200
    confidence_threshold: 0.01
  }
}
layer {
  name: "detection_eval"
  type: "DetectionEvaluate"
  bottom: "detection_out"
  bottom: "label"
  top: "detection_eval"
  include {
    phase: TEST
  }
  detection_evaluate_param {
    num_classes: 7
    background_label_id: 0
    overlap_threshold: 0.5
    evaluate_difficult_gt: false
  }
}
I0405 14:04:55.783782 23648 layer_factory.hpp:77] Creating layer data
I0405 14:04:55.783872 23648 net.cpp:100] Creating Layer data
I0405 14:04:55.783885 23648 net.cpp:408] data -> data
I0405 14:04:55.783898 23648 net.cpp:408] data -> label
I0405 14:04:55.784921 23672 db_lmdb.cpp:35] Opened lmdb test_lmdb/
I0405 14:04:55.788143 23648 annotated_data_layer.cpp:62] output data size: 2,3,300,300
I0405 14:04:55.793437 23648 net.cpp:150] Setting up data
I0405 14:04:55.793465 23648 net.cpp:157] Top shape: 2 3 300 300 (540000)
I0405 14:04:55.793471 23648 net.cpp:157] Top shape: 1 1 1 8 (8)
I0405 14:04:55.793479 23648 net.cpp:165] Memory required for data: 2160032
I0405 14:04:55.793490 23648 layer_factory.hpp:77] Creating layer data_data_0_split
I0405 14:04:55.793509 23648 net.cpp:100] Creating Layer data_data_0_split
I0405 14:04:55.793516 23648 net.cpp:434] data_data_0_split <- data
I0405 14:04:55.793529 23648 net.cpp:408] data_data_0_split -> data_data_0_split_0
…
I0405 14:04:55.864823 23648 net.cpp:408] fire9/squeeze1x1 -> fire9/squeeze1x1
I0405 14:04:55.866832 23648 net.cpp:150] Setting up fire9/squeeze1x1
I0405 14:04:55.866849 23648 net.cpp:157] Top shape: 2 37 9 9 (5994)
I0405 14:04:55.866855 23648 net.cpp:165] Memory required for data: 102676376
I0405 14:04:55.866865 23648 layer_factory.hpp:77] Creating layer fire9/relu_squeeze1x1
I0405 14:04:55.866875 23648 net.cpp:100] Creating Layer fire9/relu_squeeze1x1
I0405 14:04:55.866881 23648 net.cpp:434] fire9/relu_squeeze1x1 <- fire9/squeeze1x1
I0405 14:04:55.866889 23648 net.cpp:395] fire9/relu_squeeze1x1 -> fire9/squeeze1x1 (in-place)
I0405 14:04:55.867377 23648 net.cpp:150] Setting up fire9/relu_squeeze1x1
I0405 14:04:55.867393 23648 net.cpp:157] Top shape: 2 37 9 9 (5994)
I0405 14:04:55.867398 23648 net.cpp:165] Memory required for data: 102700352
I0405 14:04:55.867403 23648 layer_factory.hpp:77] Creating layer fire9/squeeze1x1_fire9/relu_squeeze1x1_0_split
I0405 14:04:55.867413 23648 net.cpp:100] Creating Layer fire9/squeeze1x1_fire9/relu_squeeze1x1_0_split
I0405 14:04:55.867419 23648 net.cpp:434] fire9/squeeze1x1_fire9/relu_squeeze1x1_0_split <- fire9/squeeze1x1
I0405 14:04:55.867427 23648 net.cpp:408] fire9/squeeze1x1_fire9/relu_squeeze1x1_0_split -> fire9/squeeze1x1_fire9/relu_squeeze1x1_0_split_0
I0405 14:04:55.867460 23648 net.cpp:408] fire9/squeeze1x1_fire9/relu_squeeze1x1_0_split -> fire9/squeeze1x1_fire9/relu_squeeze1x1_0_split_1
I0405 14:04:55.867524 23648 net.cpp:150] Setting up fire9/squeeze1x1_fire9/relu_squeeze1x1_0_split
I0405 14:04:55.867533 23648 net.cpp:157] Top shape: 2 37 9 9 (5994)
I0405 14:04:55.867539 23648 net.cpp:157] Top shape: 2 37 9 9 (5994)
I0405 14:04:55.867544 23648 net.cpp:165] Memory required for data: 102748304
I0405 14:04:55.867549 23648 layer_factory.hpp:77] Creating layer fire9/expand1x1
I0405 14:04:55.867560 23648 net.cpp:100] Creating Layer fire9/expand1x1
I0405 14:04:55.867566 23648 net.cpp:434] fire9/expand1x1 <- fire9/squeeze1x1_fire9/relu_squeeze1x1_0_split_0
I0405 14:04:55.867574 23648 net.cpp:408] fire9/expand1x1 -> fire9/expand1x1
I0405 14:04:55.869204 23648 net.cpp:150] Setting up fire9/expand1x1
I0405 14:04:55.869222 23648 net.cpp:157] Top shape: 2 45 9 9 (7290)
I0405 14:04:55.869228 23648 net.cpp:165] Memory required for data: 102777464
I0405 14:04:55.869238 23648 layer_factory.hpp:77] Creating layer fire9/relu_expand1x1
I0405 14:04:55.869247 23648 net.cpp:100] Creating Layer fire9/relu_expand1x1
I0405 14:04:55.869253 23648 net.cpp:434] fire9/relu_expand1x1 <- fire9/expand1x1
I0405 14:04:55.869261 23648 net.cpp:395] fire9/relu_expand1x1 -> fire9/expand1x1 (in-place)
I0405 14:04:55.869743 23648 net.cpp:150] Setting up fire9/relu_expand1x1
I0405 14:04:55.869758 23648 net.cpp:157] Top shape: 2 45 9 9 (7290)
I0405 14:04:55.869765 23648 net.cpp:165] Memory required for data: 102806624
I0405 14:04:55.869771 23648 layer_factory.hpp:77] Creating layer fire9/expand3x3
I0405 14:04:55.869781 23648 net.cpp:100] Creating Layer fire9/expand3x3
I0405 14:04:55.869787 23648 net.cpp:434] fire9/expand3x3 <- fire9/squeeze1x1_fire9/relu_squeeze1x1_0_split_1
I0405 14:04:55.869796 23648 net.cpp:408] fire9/expand3x3 -> fire9/expand3x3
I0405 14:04:55.871800 23648 net.cpp:150] Setting up fire9/expand3x3
I0405 14:04:55.871819 23648 net.cpp:157] Top shape: 2 56 9 9 (9072)
I0405 14:04:55.871824 23648 net.cpp:165] Memory required for data: 102842912
I0405 14:04:55.871834 23648 layer_factory.hpp:77] Creating layer fire9/relu_expand3x3
I0405 14:04:55.871842 23648 net.cpp:100] Creating Layer fire9/relu_expand3x3
I0405 14:04:55.871850 23648 net.cpp:434] fire9/relu_expand3x3 <- fire9/expand3x3
I0405 14:04:55.871856 23648 net.cpp:395] fire9/relu_expand3x3 -> fire9/expand3x3 (in-place)
I0405 14:04:55.872385 23648 net.cpp:150] Setting up fire9/relu_expand3x3
I0405 14:04:55.872400 23648 net.cpp:157] Top shape: 2 56 9 9 (9072)
I0405 14:04:55.872406 23648 net.cpp:165] Memory required for data: 102879200
I0405 14:04:55.872411 23648 layer_factory.hpp:77] Creating layer fire9/concat
I0405 14:04:55.872419 23648 net.cpp:100] Creating Layer fire9/concat
I0405 14:04:55.872426 23648 net.cpp:434] fire9/concat <- fire9/expand1x1
I0405 14:04:55.872432 23648 net.cpp:434] fire9/concat <- fire9/expand3x3
I0405 14:04:55.872438 23648 net.cpp:408] fire9/concat -> fire9/concat
I0405 14:04:55.872480 23648 net.cpp:150] Setting up fire9/concat
I0405 14:04:55.872488 23648 net.cpp:157] Top shape: 2 101 9 9 (16362)
I0405 14:04:55.872493 23648 net.cpp:165] Memory required for data: 102944648
I0405 14:04:55.872498 23648 layer_factory.hpp:77] Creating layer fire9/concat_fire9/concat_0_split
I0405 14:04:55.872505 23648 net.cpp:100] Creating Layer fire9/concat_fire9/concat_0_split
I0405 14:04:55.872511 23648 net.cpp:434] fire9/concat_fire9/concat_0_split <- fire9/concat
I0405 14:04:55.872517 23648 net.cpp:408] fire9/concat_fire9/concat_0_split -> fire9/concat_fire9/concat_0_split_0
I0405 14:04:55.872525 23648 net.cpp:408] fire9/concat_fire9/concat_0_split -> fire9/concat_fire9/concat_0_split_1
I0405 14:04:55.872534 23648 net.cpp:408] fire9/concat_fire9/concat_0_split -> fire9/concat_fire9/concat_0_split_2
I0405 14:04:55.872540 23648 net.cpp:408] fire9/concat_fire9/concat_0_split -> fire9/concat_fire9/concat_0_split_3
I0405 14:04:55.872627 23648 net.cpp:150] Setting up fire9/concat_fire9/concat_0_split
I0405 14:04:55.872656 23648 net.cpp:157] Top shape: 2 101 9 9 (16362)
I0405 14:04:55.872663 23648 net.cpp:157] Top shape: 2 101 9 9 (16362)
I0405 14:04:55.872668 23648 net.cpp:157] Top shape: 2 101 9 9 (16362)
I0405 14:04:55.872674 23648 net.cpp:157] Top shape: 2 101 9 9 (16362)
I0405 14:04:55.872678 23648 net.cpp:165] Memory required for data: 103206440
I0405 14:04:55.872684 23648 layer_factory.hpp:77] Creating layer pool10
I0405 14:04:55.872691 23648 net.cpp:100] Creating Layer pool10
I0405 14:04:55.872697 23648 net.cpp:434] pool10 <- fire9/concat_fire9/concat_0_split_0
I0405 14:04:55.872704 23648 net.cpp:408] pool10 -> pool10
I0405 14:04:55.872757 23648 net.cpp:150] Setting up pool10
I0405 14:04:55.872766 23648 net.cpp:157] Top shape: 2 101 4 4 (3232)
I0405 14:04:55.872771 23648 net.cpp:165] Memory required for data: 103219368
I0405 14:04:55.872776 23648 layer_factory.hpp:77] Creating layer fire10/squeeze1x1
I0405 14:04:55.872786 23648 net.cpp:100] Creating Layer fire10/squeeze1x1
I0405 14:04:55.872792 23648 net.cpp:434] fire10/squeeze1x1 <- pool10
I0405 14:04:55.872807 23648 net.cpp:408] fire10/squeeze1x1 -> fire10/squeeze1x1
I0405 14:04:55.874457 23648 net.cpp:150] Setting up fire10/squeeze1x1
I0405 14:04:55.874475 23648 net.cpp:157] Top shape: 2 38 4 4 (1216)
I0405 14:04:55.874480 23648 net.cpp:165] Memory required for data: 103224232
I0405 14:04:55.874490 23648 layer_factory.hpp:77] Creating layer fire10/relu_squeeze1x1
I0405 14:04:55.874497 23648 net.cpp:100] Creating Layer fire10/relu_squeeze1x1
I0405 14:04:55.874505 23648 net.cpp:434] fire10/relu_squeeze1x1 <- fire10/squeeze1x1
I0405 14:04:55.874511 23648 net.cpp:395] fire10/relu_squeeze1x1 -> fire10/squeeze1x1 (in-place)
I0405 14:04:55.874728 23648 net.cpp:150] Setting up fire10/relu_squeeze1x1
I0405 14:04:55.874740 23648 net.cpp:157] Top shape: 2 38 4 4 (1216)
I0405 14:04:55.874745 23648 net.cpp:165] Memory required for data: 103229096
I0405 14:04:55.874750 23648 layer_factory.hpp:77] Creating layer fire10/squeeze1x1_fire10/relu_squeeze1x1_0_split
I0405 14:04:55.874758 23648 net.cpp:100] Creating Layer fire10/squeeze1x1_fire10/relu_squeeze1x1_0_split
I0405 14:04:55.874764 23648 net.cpp:434] fire10/squeeze1x1_fire10/relu_squeeze1x1_0_split <- fire10/squeeze1x1
I0405 14:04:55.874771 23648 net.cpp:408] fire10/squeeze1x1_fire10/relu_squeeze1x1_0_split -> fire10/squeeze1x1_fire10/relu_squeeze1x1_0_split_0
I0405 14:04:55.874779 23648 net.cpp:408] fire10/squeeze1x1_fire10/relu_squeeze1x1_0_split -> fire10/squeeze1x1_fire10/relu_squeeze1x1_0_split_1
I0405 14:04:55.874840 23648 net.cpp:150] Setting up fire10/squeeze1x1_fire10/relu_squeeze1x1_0_split
I0405 14:04:55.874848 23648 net.cpp:157] Top shape: 2 38 4 4 (1216)
I0405 14:04:55.874855 23648 net.cpp:157] Top shape: 2 38 4 4 (1216)
I0405 14:04:55.874858 23648 net.cpp:165] Memory required for data: 103238824
I0405 14:04:55.874863 23648 layer_factory.hpp:77] Creating layer fire10/expand1x1
I0405 14:04:55.874873 23648 net.cpp:100] Creating Layer fire10/expand1x1
I0405 14:04:55.874879 23648 net.cpp:434] fire10/expand1x1 <- fire10/squeeze1x1_fire10/relu_squeeze1x1_0_split_0
I0405 14:04:55.874887 23648 net.cpp:408] fire10/expand1x1 -> fire10/expand1x1
I0405 14:04:55.876653 23648 net.cpp:150] Setting up fire10/expand1x1
I0405 14:04:55.876682 23648 net.cpp:157] Top shape: 2 41 4 4 (1312)
I0405 14:04:55.876687 23648 net.cpp:165] Memory required for data: 103244072
I0405 14:04:55.876698 23648 layer_factory.hpp:77] Creating layer fire10/relu_expand1x1
I0405 14:04:55.876708 23648 net.cpp:100] Creating Layer fire10/relu_expand1x1
I0405 14:04:55.876715 23648 net.cpp:434] fire10/relu_expand1x1 <- fire10/expand1x1
I0405 14:04:55.876724 23648 net.cpp:395] fire10/relu_expand1x1 -> fire10/expand1x1 (in-place)
I0405 14:04:55.877199 23648 net.cpp:150] Setting up fire10/relu_expand1x1
I0405 14:04:55.877213 23648 net.cpp:157] Top shape: 2 41 4 4 (1312)
I0405 14:04:55.877218 23648 net.cpp:165] Memory required for data: 103249320
I0405 14:04:55.877224 23648 layer_factory.hpp:77] Creating layer fire10/expand3x3
I0405 14:04:55.877259 23648 net.cpp:100] Creating Layer fire10/expand3x3
I0405 14:04:55.877266 23648 net.cpp:434] fire10/expand3x3 <- fire10/squeeze1x1_fire10/relu_squeeze1x1_0_split_1
I0405 14:04:55.877275 23648 net.cpp:408] fire10/expand3x3 -> fire10/expand3x3
I0405 14:04:55.878962 23648 net.cpp:150] Setting up fire10/expand3x3
I0405 14:04:55.878978 23648 net.cpp:157] Top shape: 2 44 4 4 (1408)
I0405 14:04:55.878984 23648 net.cpp:165] Memory required for data: 103254952
I0405 14:04:55.878993 23648 layer_factory.hpp:77] Creating layer fire10/relu_expand3x3
I0405 14:04:55.879010 23648 net.cpp:100] Creating Layer fire10/relu_expand3x3
I0405 14:04:55.879017 23648 net.cpp:434] fire10/relu_expand3x3 <- fire10/expand3x3
I0405 14:04:55.879024 23648 net.cpp:395] fire10/relu_expand3x3 -> fire10/expand3x3 (in-place)
I0405 14:04:55.879498 23648 net.cpp:150] Setting up fire10/relu_expand3x3
I0405 14:04:55.879513 23648 net.cpp:157] Top shape: 2 44 4 4 (1408)
I0405 14:04:55.879516 23648 net.cpp:165] Memory required for data: 103260584
I0405 14:04:55.879520 23648 layer_factory.hpp:77] Creating layer fire10/concat
I0405 14:04:55.879529 23648 net.cpp:100] Creating Layer fire10/concat
I0405 14:04:55.879535 23648 net.cpp:434] fire10/concat <- fire10/expand1x1
I0405 14:04:55.879542 23648 net.cpp:434] fire10/concat <- fire10/expand3x3
I0405 14:04:55.879549 23648 net.cpp:408] fire10/concat -> fire10/concat
I0405 14:04:55.879590 23648 net.cpp:150] Setting up fire10/concat
I0405 14:04:55.879597 23648 net.cpp:157] Top shape: 2 85 4 4 (2720)
I0405 14:04:55.879602 23648 net.cpp:165] Memory required for data: 103271464
I0405 14:04:55.879607 23648 layer_factory.hpp:77] Creating layer fire10/concat_fire10/concat_0_split
I0405 14:04:55.879623 23648 net.cpp:100] Creating Layer fire10/concat_fire10/concat_0_split
I0405 14:04:55.879629 23648 net.cpp:434] fire10/concat_fire10/concat_0_split <- fire10/concat
I0405 14:04:55.879637 23648 net.cpp:408] fire10/concat_fire10/concat_0_split -> fire10/concat_fire10/concat_0_split_0
I0405 14:04:55.879645 23648 net.cpp:408] fire10/concat_fire10/concat_0_split -> fire10/concat_fire10/concat_0_split_1
I0405 14:04:55.879652 23648 net.cpp:408] fire10/concat_fire10/concat_0_split -> fire10/concat_fire10/concat_0_split_2
I0405 14:04:55.879659 23648 net.cpp:408] fire10/concat_fire10/concat_0_split -> fire10/concat_fire10/concat_0_split_3
I0405 14:04:55.879752 23648 net.cpp:150] Setting up fire10/concat_fire10/concat_0_split
I0405 14:04:55.879761 23648 net.cpp:157] Top shape: 2 85 4 4 (2720)
I0405 14:04:55.879765 23648 net.cpp:157] Top shape: 2 85 4 4 (2720)
I0405 14:04:55.879770 23648 net.cpp:157] Top shape: 2 85 4 4 (2720)
I0405 14:04:55.879776 23648 net.cpp:157] Top shape: 2 85 4 4 (2720)
I0405 14:04:55.879779 23648 net.cpp:165] Memory required for data: 103314984
I0405 14:04:55.879786 23648 layer_factory.hpp:77] Creating layer conv12_1
I0405 14:04:55.879799 23648 net.cpp:100] Creating Layer conv12_1
I0405 14:04:55.879808 23648 net.cpp:434] conv12_1 <- fire10/concat_fire10/concat_0_split_0
I0405 14:04:55.879819 23648 net.cpp:408] conv12_1 -> conv12_1
I0405 14:04:55.881705 23648 net.cpp:150] Setting up conv12_1
I0405 14:04:55.881722 23648 net.cpp:157] Top shape: 2 51 4 4 (1632)
I0405 14:04:55.881728 23648 net.cpp:165] Memory required for data: 103321512
I0405 14:04:55.881738 23648 layer_factory.hpp:77] Creating layer relu122_1
I0405 14:04:55.881747 23648 net.cpp:100] Creating Layer relu122_1
I0405 14:04:55.881753 23648 net.cpp:434] relu122_1 <- conv12_1
I0405 14:04:55.881759 23648 net.cpp:395] relu122_1 -> conv12_1 (in-place)
I0405 14:04:55.881995 23648 net.cpp:150] Setting up relu122_1
I0405 14:04:55.882007 23648 net.cpp:157] Top shape: 2 51 4 4 (1632)
I0405 14:04:55.882012 23648 net.cpp:165] Memory required for data: 103328040
I0405 14:04:55.882019 23648 layer_factory.hpp:77] Creating layer conv12_2
I0405 14:04:55.882030 23648 net.cpp:100] Creating Layer conv12_2
I0405 14:04:55.882035 23648 net.cpp:434] conv12_2 <- conv12_1
I0405 14:04:55.882043 23648 net.cpp:408] conv12_2 -> conv12_2
I0405 14:04:55.884155 23648 net.cpp:150] Setting up conv12_2
I0405 14:04:55.884172 23648 net.cpp:157] Top shape: 2 46 2 2 (368)
I0405 14:04:55.884178 23648 net.cpp:165] Memory required for data: 103329512
I0405 14:04:55.884196 23648 layer_factory.hpp:77] Creating layer relu12_2
I0405 14:04:55.884207 23648 net.cpp:100] Creating Layer relu12_2
I0405 14:04:55.884212 23648 net.cpp:434] relu12_2 <- conv12_2
I0405 14:04:55.884219 23648 net.cpp:395] relu12_2 -> conv12_2 (in-place)
I0405 14:04:55.884737 23648 net.cpp:150] Setting up relu12_2
I0405 14:04:55.884753 23648 net.cpp:157] Top shape: 2 46 2 2 (368)
I0405 14:04:55.884759 23648 net.cpp:165] Memory required for data: 103330984
I0405 14:04:55.884765 23648 layer_factory.hpp:77] Creating layer conv12_2_relu12_2_0_split
I0405 14:04:55.884774 23648 net.cpp:100] Creating Layer conv12_2_relu12_2_0_split
I0405 14:04:55.884780 23648 net.cpp:434] conv12_2_relu12_2_0_split <- conv12_2
I0405 14:04:55.884788 23648 net.cpp:408] conv12_2_relu12_2_0_split -> conv12_2_relu12_2_0_split_0
I0405 14:04:55.884798 23648 net.cpp:408] conv12_2_relu12_2_0_split -> conv12_2_relu12_2_0_split_1
I0405 14:04:55.884805 23648 net.cpp:408] conv12_2_relu12_2_0_split -> conv12_2_relu12_2_0_split_2
I0405 14:04:55.884814 23648 net.cpp:408] conv12_2_relu12_2_0_split -> conv12_2_relu12_2_0_split_3
I0405 14:04:55.884934 23648 net.cpp:150] Setting up conv12_2_relu12_2_0_split
I0405 14:04:55.884944 23648 net.cpp:157] Top shape: 2 46 2 2 (368)
I0405 14:04:55.884950 23648 net.cpp:157] Top shape: 2 46 2 2 (368)
I0405 14:04:55.884956 23648 net.cpp:157] Top shape: 2 46 2 2 (368)
I0405 14:04:55.884961 23648 net.cpp:157] Top shape: 2 46 2 2 (368)
I0405 14:04:55.884966 23648 net.cpp:165] Memory required for data: 103336872
I0405 14:04:55.884973 23648 layer_factory.hpp:77] Creating layer conv13_1
I0405 14:04:55.884991 23648 net.cpp:100] Creating Layer conv13_1
I0405 14:04:55.884999 23648 net.cpp:434] conv13_1 <- conv12_2_relu12_2_0_split_0
I0405 14:04:55.885006 23648 net.cpp:408] conv13_1 -> conv13_1
I0405 14:04:55.887251 23648 net.cpp:150] Setting up conv13_1
I0405 14:04:55.887275 23648 net.cpp:157] Top shape: 2 55 2 2 (440)
I0405 14:04:55.887281 23648 net.cpp:165] Memory required for data: 103338632
I0405 14:04:55.887292 23648 layer_factory.hpp:77] Creating layer relu13_1
I0405 14:04:55.887303 23648 net.cpp:100] Creating Layer relu13_1
I0405 14:04:55.887310 23648 net.cpp:434] relu13_1 <- conv13_1
I0405 14:04:55.887318 23648 net.cpp:395] relu13_1 -> conv13_1 (in-place)
I0405 14:04:55.887576 23648 net.cpp:150] Setting up relu13_1
I0405 14:04:55.887590 23648 net.cpp:157] Top shape: 2 55 2 2 (440)
I0405 14:04:55.887595 23648 net.cpp:165] Memory required for data: 103340392
I0405 14:04:55.887601 23648 layer_factory.hpp:77] Creating layer conv13_2
I0405 14:04:55.887614 23648 net.cpp:100] Creating Layer conv13_2
I0405 14:04:55.887620 23648 net.cpp:434] conv13_2 <- conv13_1
I0405 14:04:55.887629 23648 net.cpp:408] conv13_2 -> conv13_2
I0405 14:04:55.889794 23648 net.cpp:150] Setting up conv13_2
I0405 14:04:55.889822 23648 net.cpp:157] Top shape: 2 85 1 1 (170)
I0405 14:04:55.889828 23648 net.cpp:165] Memory required for data: 103341072
I0405 14:04:55.889839 23648 layer_factory.hpp:77] Creating layer conv13_2_conv13_2_0_split
I0405 14:04:55.889850 23648 net.cpp:100] Creating Layer conv13_2_conv13_2_0_split
I0405 14:04:55.889858 23648 net.cpp:434] conv13_2_conv13_2_0_split <- conv13_2
I0405 14:04:55.889866 23648 net.cpp:408] conv13_2_conv13_2_0_split -> conv13_2_conv13_2_0_split_0
I0405 14:04:55.889876 23648 net.cpp:408] conv13_2_conv13_2_0_split -> conv13_2_conv13_2_0_split_1
I0405 14:04:55.889884 23648 net.cpp:408] conv13_2_conv13_2_0_split -> conv13_2_conv13_2_0_split_2
I0405 14:04:55.889961 23648 net.cpp:150] Setting up conv13_2_conv13_2_0_split
I0405 14:04:55.889969 23648 net.cpp:157] Top shape: 2 85 1 1 (170)
I0405 14:04:55.889976 23648 net.cpp:157] Top shape: 2 85 1 1 (170)
I0405 14:04:55.889981 23648 net.cpp:157] Top shape: 2 85 1 1 (170)
I0405 14:04:55.889986 23648 net.cpp:165] Memory required for data: 103343112
I0405 14:04:55.890013 23648 layer_factory.hpp:77] Creating layer fire4_norm
I0405 14:04:55.890024 23648 net.cpp:100] Creating Layer fire4_norm
I0405 14:04:55.890033 23648 net.cpp:434] fire4_norm <- fire4/concat_fire4/concat_0_split_1
I0405 14:04:55.890040 23648 net.cpp:408] fire4_norm -> fire4_norm
I0405 14:04:55.890333 23648 net.cpp:150] Setting up fire4_norm
I0405 14:04:55.890344 23648 net.cpp:157] Top shape: 2 173 37 37 (473674)
I0405 14:04:55.890350 23648 net.cpp:165] Memory required for data: 105237808
I0405 14:04:55.890358 23648 layer_factory.hpp:77] Creating layer fire4_norm_fire4_norm_0_split
I0405 14:04:55.890367 23648 net.cpp:100] Creating Layer fire4_norm_fire4_norm_0_split
I0405 14:04:55.890373 23648 net.cpp:434] fire4_norm_fire4_norm_0_split <- fire4_norm
I0405 14:04:55.890380 23648 net.cpp:408] fire4_norm_fire4_norm_0_split -> fire4_norm_fire4_norm_0_split_0
I0405 14:04:55.890389 23648 net.cpp:408] fire4_norm_fire4_norm_0_split -> fire4_norm_fire4_norm_0_split_1
I0405 14:04:55.890398 23648 net.cpp:408] fire4_norm_fire4_norm_0_split -> fire4_norm_fire4_norm_0_split_2
I0405 14:04:55.890470 23648 net.cpp:150] Setting up fire4_norm_fire4_norm_0_split
I0405 14:04:55.890478 23648 net.cpp:157] Top shape: 2 173 37 37 (473674)
I0405 14:04:55.890485 23648 net.cpp:157] Top shape: 2 173 37 37 (473674)
I0405 14:04:55.890491 23648 net.cpp:157] Top shape: 2 173 37 37 (473674)
I0405 14:04:55.890496 23648 net.cpp:165] Memory required for data: 110921896
I0405 14:04:55.890501 23648 layer_factory.hpp:77] Creating layer fire4_mbox_loc
I0405 14:04:55.890513 23648 net.cpp:100] Creating Layer fire4_mbox_loc
I0405 14:04:55.890521 23648 net.cpp:434] fire4_mbox_loc <- fire4_norm_fire4_norm_0_split_0
I0405 14:04:55.890530 23648 net.cpp:408] fire4_mbox_loc -> fire4_mbox_loc
I0405 14:04:55.893206 23648 net.cpp:150] Setting up fire4_mbox_loc
I0405 14:04:55.893231 23648 net.cpp:157] Top shape: 2 16 37 37 (43808)
I0405 14:04:55.893237 23648 net.cpp:165] Memory required for data: 111097128
I0405 14:04:55.893249 23648 layer_factory.hpp:77] Creating layer fire4_mbox_loc_perm
I0405 14:04:55.893260 23648 net.cpp:100] Creating Layer fire4_mbox_loc_perm
I0405 14:04:55.893267 23648 net.cpp:434] fire4_mbox_loc_perm <- fire4_mbox_loc
I0405 14:04:55.893275 23648 net.cpp:408] fire4_mbox_loc_perm -> fire4_mbox_loc_perm
I0405 14:04:55.893470 23648 net.cpp:150] Setting up fire4_mbox_loc_perm
I0405 14:04:55.893481 23648 net.cpp:157] Top shape: 2 37 37 16 (43808)
I0405 14:04:55.893487 23648 net.cpp:165] Memory required for data: 111272360
I0405 14:04:55.893497 23648 layer_factory.hpp:77] Creating layer fire4_mbox_loc_flat
I0405 14:04:55.893510 23648 net.cpp:100] Creating Layer fire4_mbox_loc_flat
I0405 14:04:55.893518 23648 net.cpp:434] fire4_mbox_loc_flat <- fire4_mbox_loc_perm
I0405 14:04:55.893529 23648 net.cpp:408] fire4_mbox_loc_flat -> fire4_mbox_loc_flat
I0405 14:04:55.893604 23648 net.cpp:150] Setting up fire4_mbox_loc_flat
I0405 14:04:55.893615 23648 net.cpp:157] Top shape: 2 21904 (43808)
I0405 14:04:55.893623 23648 net.cpp:165] Memory required for data: 111447592
I0405 14:04:55.893631 23648 layer_factory.hpp:77] Creating layer fire4_mbox_conf
I0405 14:04:55.893646 23648 net.cpp:100] Creating Layer fire4_mbox_conf
I0405 14:04:55.893654 23648 net.cpp:434] fire4_mbox_conf <- fire4_norm_fire4_norm_0_split_1
I0405 14:04:55.893666 23648 net.cpp:408] fire4_mbox_conf -> fire4_mbox_conf
I0405 14:04:55.896860 23648 net.cpp:150] Setting up fire4_mbox_conf
I0405 14:04:55.896883 23648 net.cpp:157] Top shape: 2 28 37 37 (76664)
I0405 14:04:55.896893 23648 net.cpp:165] Memory required for data: 111754248
I0405 14:04:55.896908 23648 layer_factory.hpp:77] Creating layer fire4_mbox_conf_perm
I0405 14:04:55.896919 23648 net.cpp:100] Creating Layer fire4_mbox_conf_perm
I0405 14:04:55.896929 23648 net.cpp:434] fire4_mbox_conf_perm <- fire4_mbox_conf
I0405 14:04:55.896939 23648 net.cpp:408] fire4_mbox_conf_perm -> fire4_mbox_conf_perm
I0405 14:04:55.897120 23648 net.cpp:150] Setting up fire4_mbox_conf_perm
I0405 14:04:55.897130 23648 net.cpp:157] Top shape: 2 37 37 28 (76664)
I0405 14:04:55.897157 23648 net.cpp:165] Memory required for data: 112060904
I0405 14:04:55.897163 23648 layer_factory.hpp:77] Creating layer fire4_mbox_conf_flat
I0405 14:04:55.897172 23648 net.cpp:100] Creating Layer fire4_mbox_conf_flat
I0405 14:04:55.897179 23648 net.cpp:434] fire4_mbox_conf_flat <- fire4_mbox_conf_perm
I0405 14:04:55.897187 23648 net.cpp:408] fire4_mbox_conf_flat -> fire4_mbox_conf_flat
I0405 14:04:55.897225 23648 net.cpp:150] Setting up fire4_mbox_conf_flat
I0405 14:04:55.897235 23648 net.cpp:157] Top shape: 2 38332 (76664)
I0405 14:04:55.897240 23648 net.cpp:165] Memory required for data: 112367560
I0405 14:04:55.897245 23648 layer_factory.hpp:77] Creating layer fire4_mbox_priorbox
I0405 14:04:55.897255 23648 net.cpp:100] Creating Layer fire4_mbox_priorbox
I0405 14:04:55.897261 23648 net.cpp:434] fire4_mbox_priorbox <- fire4_norm_fire4_norm_0_split_2
I0405 14:04:55.897271 23648 net.cpp:434] fire4_mbox_priorbox <- data_data_0_split_1
I0405 14:04:55.897281 23648 net.cpp:408] fire4_mbox_priorbox -> fire4_mbox_priorbox
I0405 14:04:55.897323 23648 net.cpp:150] Setting up fire4_mbox_priorbox
I0405 14:04:55.897332 23648 net.cpp:157] Top shape: 1 2 21904 (43808)
I0405 14:04:55.897337 23648 net.cpp:165] Memory required for data: 112542792
I0405 14:04:55.897343 23648 layer_factory.hpp:77] Creating layer fire8_norm
I0405 14:04:55.897352 23648 net.cpp:100] Creating Layer fire8_norm
I0405 14:04:55.897361 23648 net.cpp:434] fire8_norm <- fire8/concat_fire8/concat_0_split_1
I0405 14:04:55.897368 23648 net.cpp:408] fire8_norm -> fire8_norm
I0405 14:04:55.897647 23648 net.cpp:150] Setting up fire8_norm
I0405 14:04:55.897660 23648 net.cpp:157] Top shape: 2 83 18 18 (53784)
I0405 14:04:55.897668 23648 net.cpp:165] Memory required for data: 112757928
I0405 14:04:55.897680 23648 layer_factory.hpp:77] Creating layer fire8_norm_fire8_norm_0_split
I0405 14:04:55.897692 23648 net.cpp:100] Creating Layer fire8_norm_fire8_norm_0_split
I0405 14:04:55.897701 23648 net.cpp:434] fire8_norm_fire8_norm_0_split <- fire8_norm
I0405 14:04:55.897711 23648 net.cpp:408] fire8_norm_fire8_norm_0_split -> fire8_norm_fire8_norm_0_split_0
I0405 14:04:55.897723 23648 net.cpp:408] fire8_norm_fire8_norm_0_split -> fire8_norm_fire8_norm_0_split_1
I0405 14:04:55.897733 23648 net.cpp:408] fire8_norm_fire8_norm_0_split -> fire8_norm_fire8_norm_0_split_2
I0405 14:04:55.897811 23648 net.cpp:150] Setting up fire8_norm_fire8_norm_0_split
I0405 14:04:55.897820 23648 net.cpp:157] Top shape: 2 83 18 18 (53784)
I0405 14:04:55.897826 23648 net.cpp:157] Top shape: 2 83 18 18 (53784)
I0405 14:04:55.897832 23648 net.cpp:157] Top shape: 2 83 18 18 (53784)
I0405 14:04:55.897837 23648 net.cpp:165] Memory required for data: 113403336
I0405 14:04:55.897845 23648 layer_factory.hpp:77] Creating layer fire8_mbox_loc
I0405 14:04:55.897858 23648 net.cpp:100] Creating Layer fire8_mbox_loc
I0405 14:04:55.897866 23648 net.cpp:434] fire8_mbox_loc <- fire8_norm_fire8_norm_0_split_0
I0405 14:04:55.897878 23648 net.cpp:408] fire8_mbox_loc -> fire8_mbox_loc
I0405 14:04:55.900002 23648 net.cpp:150] Setting up fire8_mbox_loc
I0405 14:04:55.900020 23648 net.cpp:157] Top shape: 2 24 18 18 (15552)
I0405 14:04:55.900027 23648 net.cpp:165] Memory required for data: 113465544
I0405 14:04:55.900039 23648 layer_factory.hpp:77] Creating layer fire8_mbox_loc_perm
I0405 14:04:55.900053 23648 net.cpp:100] Creating Layer fire8_mbox_loc_perm
I0405 14:04:55.900063 23648 net.cpp:434] fire8_mbox_loc_perm <- fire8_mbox_loc
I0405 14:04:55.900074 23648 net.cpp:408] fire8_mbox_loc_perm -> fire8_mbox_loc_perm
I0405 14:04:55.900275 23648 net.cpp:150] Setting up fire8_mbox_loc_perm
I0405 14:04:55.900288 23648 net.cpp:157] Top shape: 2 18 18 24 (15552)
I0405 14:04:55.900296 23648 net.cpp:165] Memory required for data: 113527752
I0405 14:04:55.900305 23648 layer_factory.hpp:77] Creating layer fire8_mbox_loc_flat
I0405 14:04:55.900315 23648 net.cpp:100] Creating Layer fire8_mbox_loc_flat
I0405 14:04:55.900324 23648 net.cpp:434] fire8_mbox_loc_flat <- fire8_mbox_loc_perm
I0405 14:04:55.900334 23648 net.cpp:408] fire8_mbox_loc_flat -> fire8_mbox_loc_flat
I0405 14:04:55.900400 23648 net.cpp:150] Setting up fire8_mbox_loc_flat
I0405 14:04:55.900413 23648 net.cpp:157] Top shape: 2 7776 (15552)
I0405 14:04:55.900421 23648 net.cpp:165] Memory required for data: 113589960
I0405 14:04:55.900430 23648 layer_factory.hpp:77] Creating layer fire8_mbox_conf
I0405 14:04:55.900444 23648 net.cpp:100] Creating Layer fire8_mbox_conf
I0405 14:04:55.900452 23648 net.cpp:434] fire8_mbox_conf <- fire8_norm_fire8_norm_0_split_1
I0405 14:04:55.900465 23648 net.cpp:408] fire8_mbox_conf -> fire8_mbox_conf
I0405 14:04:55.902629 23648 net.cpp:150] Setting up fire8_mbox_conf
I0405 14:04:55.902649 23648 net.cpp:157] Top shape: 2 42 18 18 (27216)
I0405 14:04:55.902658 23648 net.cpp:165] Memory required for data: 113698824
I0405 14:04:55.902671 23648 layer_factory.hpp:77] Creating layer fire8_mbox_conf_perm
I0405 14:04:55.902683 23648 net.cpp:100] Creating Layer fire8_mbox_conf_perm
I0405 14:04:55.902691 23648 net.cpp:434] fire8_mbox_conf_perm <- fire8_mbox_conf
I0405 14:04:55.902703 23648 net.cpp:408] fire8_mbox_conf_perm -> fire8_mbox_conf_perm
I0405 14:04:55.902889 23648 net.cpp:150] Setting up fire8_mbox_conf_perm
I0405 14:04:55.902901 23648 net.cpp:157] Top shape: 2 18 18 42 (27216)
I0405 14:04:55.902909 23648 net.cpp:165] Memory required for data: 113807688
I0405 14:04:55.902917 23648 layer_factory.hpp:77] Creating layer fire8_mbox_conf_flat
I0405 14:04:55.902928 23648 net.cpp:100] Creating Layer fire8_mbox_conf_flat
I0405 14:04:55.902936 23648 net.cpp:434] fire8_mbox_conf_flat <- fire8_mbox_conf_perm
I0405 14:04:55.902947 23648 net.cpp:408] fire8_mbox_conf_flat -> fire8_mbox_conf_flat
I0405 14:04:55.902987 23648 net.cpp:150] Setting up fire8_mbox_conf_flat
I0405 14:04:55.902998 23648 net.cpp:157] Top shape: 2 13608 (27216)
I0405 14:04:55.903005 23648 net.cpp:165] Memory required for data: 113916552
I0405 14:04:55.903013 23648 layer_factory.hpp:77] Creating layer fire8_mbox_priorbox
I0405 14:04:55.903024 23648 net.cpp:100] Creating Layer fire8_mbox_priorbox
I0405 14:04:55.903033 23648 net.cpp:434] fire8_mbox_priorbox <- fire8_norm_fire8_norm_0_split_2
I0405 14:04:55.903043 23648 net.cpp:434] fire8_mbox_priorbox <- data_data_0_split_2
I0405 14:04:55.903051 23648 net.cpp:408] fire8_mbox_priorbox -> fire8_mbox_priorbox
I0405 14:04:55.903105 23648 net.cpp:150] Setting up fire8_mbox_priorbox
I0405 14:04:55.903115 23648 net.cpp:157] Top shape: 1 2 7776 (15552)
I0405 14:04:55.903123 23648 net.cpp:165] Memory required for data: 113978760
I0405 14:04:55.903132 23648 layer_factory.hpp:77] Creating layer fire9_mbox_loc
I0405 14:04:55.903146 23648 net.cpp:100] Creating Layer fire9_mbox_loc
I0405 14:04:55.903153 23648 net.cpp:434] fire9_mbox_loc <- fire9/concat_fire9/concat_0_split_1
I0405 14:04:55.903167 23648 net.cpp:408] fire9_mbox_loc -> fire9_mbox_loc
I0405 14:04:55.905437 23648 net.cpp:150] Setting up fire9_mbox_loc
I0405 14:04:55.905457 23648 net.cpp:157] Top shape: 2 24 9 9 (3888)
I0405 14:04:55.905467 23648 net.cpp:165] Memory required for data: 113994312
I0405 14:04:55.905481 23648 layer_factory.hpp:77] Creating layer fire9_mbox_loc_perm
I0405 14:04:55.905493 23648 net.cpp:100] Creating Layer fire9_mbox_loc_perm
I0405 14:04:55.905503 23648 net.cpp:434] fire9_mbox_loc_perm <- fire9_mbox_loc
I0405 14:04:55.905514 23648 net.cpp:408] fire9_mbox_loc_perm -> fire9_mbox_loc_perm
I0405 14:04:55.905709 23648 net.cpp:150] Setting up fire9_mbox_loc_perm
I0405 14:04:55.905720 23648 net.cpp:157] Top shape: 2 9 9 24 (3888)
I0405 14:04:55.905725 23648 net.cpp:165] Memory required for data: 114009864
I0405 14:04:55.905731 23648 layer_factory.hpp:77] Creating layer fire9_mbox_loc_flat
I0405 14:04:55.905740 23648 net.cpp:100] Creating Layer fire9_mbox_loc_flat
I0405 14:04:55.905746 23648 net.cpp:434] fire9_mbox_loc_flat <- fire9_mbox_loc_perm
I0405 14:04:55.905756 23648 net.cpp:408] fire9_mbox_loc_flat -> fire9_mbox_loc_flat
I0405 14:04:55.905797 23648 net.cpp:150] Setting up fire9_mbox_loc_flat
I0405 14:04:55.905805 23648 net.cpp:157] Top shape: 2 1944 (3888)
I0405 14:04:55.905827 23648 net.cpp:165] Memory required for data: 114025416
I0405 14:04:55.905834 23648 layer_factory.hpp:77] Creating layer fire9_mbox_conf
I0405 14:04:55.905848 23648 net.cpp:100] Creating Layer fire9_mbox_conf
I0405 14:04:55.905855 23648 net.cpp:434] fire9_mbox_conf <- fire9/concat_fire9/concat_0_split_2
I0405 14:04:55.905864 23648 net.cpp:408] fire9_mbox_conf -> fire9_mbox_conf
I0405 14:04:55.908288 23648 net.cpp:150] Setting up fire9_mbox_conf
I0405 14:04:55.908306 23648 net.cpp:157] Top shape: 2 42 9 9 (6804)
I0405 14:04:55.908313 23648 net.cpp:165] Memory required for data: 114052632
I0405 14:04:55.908321 23648 layer_factory.hpp:77] Creating layer fire9_mbox_conf_perm
I0405 14:04:55.908332 23648 net.cpp:100] Creating Layer fire9_mbox_conf_perm
I0405 14:04:55.908339 23648 net.cpp:434] fire9_mbox_conf_perm <- fire9_mbox_conf
I0405 14:04:55.908349 23648 net.cpp:408] fire9_mbox_conf_perm -> fire9_mbox_conf_perm
I0405 14:04:55.908541 23648 net.cpp:150] Setting up fire9_mbox_conf_perm
I0405 14:04:55.908553 23648 net.cpp:157] Top shape: 2 9 9 42 (6804)
I0405 14:04:55.908558 23648 net.cpp:165] Memory required for data: 114079848
I0405 14:04:55.908565 23648 layer_factory.hpp:77] Creating layer fire9_mbox_conf_flat
I0405 14:04:55.908573 23648 net.cpp:100] Creating Layer fire9_mbox_conf_flat
I0405 14:04:55.908581 23648 net.cpp:434] fire9_mbox_conf_flat <- fire9_mbox_conf_perm
I0405 14:04:55.908589 23648 net.cpp:408] fire9_mbox_conf_flat -> fire9_mbox_conf_flat
I0405 14:04:55.908639 23648 net.cpp:150] Setting up fire9_mbox_conf_flat
I0405 14:04:55.908649 23648 net.cpp:157] Top shape: 2 3402 (6804)
I0405 14:04:55.908654 23648 net.cpp:165] Memory required for data: 114107064
I0405 14:04:55.908658 23648 layer_factory.hpp:77] Creating layer fire9_mbox_priorbox
I0405 14:04:55.908677 23648 net.cpp:100] Creating Layer fire9_mbox_priorbox
I0405 14:04:55.908684 23648 net.cpp:434] fire9_mbox_priorbox <- fire9/concat_fire9/concat_0_split_3
I0405 14:04:55.908691 23648 net.cpp:434] fire9_mbox_priorbox <- data_data_0_split_3
I0405 14:04:55.908700 23648 net.cpp:408] fire9_mbox_priorbox -> fire9_mbox_priorbox
I0405 14:04:55.908744 23648 net.cpp:150] Setting up fire9_mbox_priorbox
I0405 14:04:55.908754 23648 net.cpp:157] Top shape: 1 2 1944 (3888)
I0405 14:04:55.908759 23648 net.cpp:165] Memory required for data: 114122616
I0405 14:04:55.908766 23648 layer_factory.hpp:77] Creating layer fire10_mbox_loc
I0405 14:04:55.908777 23648 net.cpp:100] Creating Layer fire10_mbox_loc
I0405 14:04:55.908785 23648 net.cpp:434] fire10_mbox_loc <- fire10/concat_fire10/concat_0_split_1
I0405 14:04:55.908794 23648 net.cpp:408] fire10_mbox_loc -> fire10_mbox_loc
I0405 14:04:55.911100 23648 net.cpp:150] Setting up fire10_mbox_loc
I0405 14:04:55.911119 23648 net.cpp:157] Top shape: 2 24 4 4 (768)
I0405 14:04:55.911126 23648 net.cpp:165] Memory required for data: 114125688
I0405 14:04:55.911136 23648 layer_factory.hpp:77] Creating layer fire10_mbox_loc_perm
I0405 14:04:55.911164 23648 net.cpp:100] Creating Layer fire10_mbox_loc_perm
I0405 14:04:55.911173 23648 net.cpp:434] fire10_mbox_loc_perm <- fire10_mbox_loc
I0405 14:04:55.911182 23648 net.cpp:408] fire10_mbox_loc_perm -> fire10_mbox_loc_perm
I0405 14:04:55.911394 23648 net.cpp:150] Setting up fire10_mbox_loc_perm
I0405 14:04:55.911406 23648 net.cpp:157] Top shape: 2 4 4 24 (768)
I0405 14:04:55.911412 23648 net.cpp:165] Memory required for data: 114128760
I0405 14:04:55.911418 23648 layer_factory.hpp:77] Creating layer fire10_mbox_loc_flat
I0405 14:04:55.911427 23648 net.cpp:100] Creating Layer fire10_mbox_loc_flat
I0405 14:04:55.911435 23648 net.cpp:434] fire10_mbox_loc_flat <- fire10_mbox_loc_perm
I0405 14:04:55.911443 23648 net.cpp:408] fire10_mbox_loc_flat -> fire10_mbox_loc_flat
I0405 14:04:55.911484 23648 net.cpp:150] Setting up fire10_mbox_loc_flat
I0405 14:04:55.911492 23648 net.cpp:157] Top shape: 2 384 (768)
I0405 14:04:55.911499 23648 net.cpp:165] Memory required for data: 114131832
I0405 14:04:55.911504 23648 layer_factory.hpp:77] Creating layer fire10_mbox_conf
I0405 14:04:55.911525 23648 net.cpp:100] Creating Layer fire10_mbox_conf
I0405 14:04:55.911550 23648 net.cpp:434] fire10_mbox_conf <- fire10/concat_fire10/concat_0_split_2
I0405 14:04:55.911561 23648 net.cpp:408] fire10_mbox_conf -> fire10_mbox_conf
I0405 14:04:55.913938 23648 net.cpp:150] Setting up fire10_mbox_conf
I0405 14:04:55.913956 23648 net.cpp:157] Top shape: 2 42 4 4 (1344)
I0405 14:04:55.913964 23648 net.cpp:165] Memory required for data: 114137208
I0405 14:04:55.913975 23648 layer_factory.hpp:77] Creating layer fire10_mbox_conf_perm
I0405 14:04:55.913985 23648 net.cpp:100] Creating Layer fire10_mbox_conf_perm
I0405 14:04:55.913993 23648 net.cpp:434] fire10_mbox_conf_perm <- fire10_mbox_conf
I0405 14:04:55.914003 23648 net.cpp:408] fire10_mbox_conf_perm -> fire10_mbox_conf_perm
I0405 14:04:55.914216 23648 net.cpp:150] Setting up fire10_mbox_conf_perm
I0405 14:04:55.914227 23648 net.cpp:157] Top shape: 2 4 4 42 (1344)
I0405 14:04:55.914232 23648 net.cpp:165] Memory required for data: 114142584
I0405 14:04:55.914238 23648 layer_factory.hpp:77] Creating layer fire10_mbox_conf_flat
I0405 14:04:55.914247 23648 net.cpp:100] Creating Layer fire10_mbox_conf_flat
I0405 14:04:55.914254 23648 net.cpp:434] fire10_mbox_conf_flat <- fire10_mbox_conf_perm
I0405 14:04:55.914263 23648 net.cpp:408] fire10_mbox_conf_flat -> fire10_mbox_conf_flat
I0405 14:04:55.914307 23648 net.cpp:150] Setting up fire10_mbox_conf_flat
I0405 14:04:55.914316 23648 net.cpp:157] Top shape: 2 672 (1344)
I0405 14:04:55.914321 23648 net.cpp:165] Memory required for data: 114147960
I0405 14:04:55.914327 23648 layer_factory.hpp:77] Creating layer fire10_mbox_priorbox
I0405 14:04:55.914337 23648 net.cpp:100] Creating Layer fire10_mbox_priorbox
I0405 14:04:55.914345 23648 net.cpp:434] fire10_mbox_priorbox <- fire10/concat_fire10/concat_0_split_3
I0405 14:04:55.914353 23648 net.cpp:434] fire10_mbox_priorbox <- data_data_0_split_4
I0405 14:04:55.914362 23648 net.cpp:408] fire10_mbox_priorbox -> fire10_mbox_priorbox
I0405 14:04:55.914409 23648 net.cpp:150] Setting up fire10_mbox_priorbox
I0405 14:04:55.914419 23648 net.cpp:157] Top shape: 1 2 384 (768)
I0405 14:04:55.914423 23648 net.cpp:165] Memory required for data: 114151032
I0405 14:04:55.914429 23648 layer_factory.hpp:77] Creating layer conv12_2_mbox_loc
I0405 14:04:55.914443 23648 net.cpp:100] Creating Layer conv12_2_mbox_loc
I0405 14:04:55.914449 23648 net.cpp:434] conv12_2_mbox_loc <- conv12_2_relu12_2_0_split_1
I0405 14:04:55.914458 23648 net.cpp:408] conv12_2_mbox_loc -> conv12_2_mbox_loc
I0405 14:04:55.916492 23648 net.cpp:150] Setting up conv12_2_mbox_loc
I0405 14:04:55.916525 23648 net.cpp:157] Top shape: 2 24 2 2 (192)
I0405 14:04:55.916532 23648 net.cpp:165] Memory required for data: 114151800
I0405 14:04:55.916544 23648 layer_factory.hpp:77] Creating layer conv12_2_mbox_loc_perm
I0405 14:04:55.916558 23648 net.cpp:100] Creating Layer conv12_2_mbox_loc_perm
I0405 14:04:55.916565 23648 net.cpp:434] conv12_2_mbox_loc_perm <- conv12_2_mbox_loc
I0405 14:04:55.916575 23648 net.cpp:408] conv12_2_mbox_loc_perm -> conv12_2_mbox_loc_perm
I0405 14:04:55.916754 23648 net.cpp:150] Setting up conv12_2_mbox_loc_perm
I0405 14:04:55.916764 23648 net.cpp:157] Top shape: 2 2 2 24 (192)
I0405 14:04:55.916769 23648 net.cpp:165] Memory required for data: 114152568
I0405 14:04:55.916774 23648 layer_factory.hpp:77] Creating layer conv12_2_mbox_loc_flat
I0405 14:04:55.916781 23648 net.cpp:100] Creating Layer conv12_2_mbox_loc_flat
I0405 14:04:55.916788 23648 net.cpp:434] conv12_2_mbox_loc_flat <- conv12_2_mbox_loc_perm
I0405 14:04:55.916795 23648 net.cpp:408] conv12_2_mbox_loc_flat -> conv12_2_mbox_loc_flat
I0405 14:04:55.916834 23648 net.cpp:150] Setting up conv12_2_mbox_loc_flat
I0405 14:04:55.916843 23648 net.cpp:157] Top shape: 2 96 (192)
I0405 14:04:55.916848 23648 net.cpp:165] Memory required for data: 114153336
I0405 14:04:55.916854 23648 layer_factory.hpp:77] Creating layer conv12_2_mbox_conf
I0405 14:04:55.916867 23648 net.cpp:100] Creating Layer conv12_2_mbox_conf
I0405 14:04:55.916874 23648 net.cpp:434] conv12_2_mbox_conf <- conv12_2_relu12_2_0_split_2
I0405 14:04:55.916908 23648 net.cpp:408] conv12_2_mbox_conf -> conv12_2_mbox_conf
I0405 14:04:55.919229 23648 net.cpp:150] Setting up conv12_2_mbox_conf
I0405 14:04:55.919248 23648 net.cpp:157] Top shape: 2 42 2 2 (336)
I0405 14:04:55.919255 23648 net.cpp:165] Memory required for data: 114154680
I0405 14:04:55.919266 23648 layer_factory.hpp:77] Creating layer conv12_2_mbox_conf_perm
I0405 14:04:55.919276 23648 net.cpp:100] Creating Layer conv12_2_mbox_conf_perm
I0405 14:04:55.919283 23648 net.cpp:434] conv12_2_mbox_conf_perm <- conv12_2_mbox_conf
I0405 14:04:55.919292 23648 net.cpp:408] conv12_2_mbox_conf_perm -> conv12_2_mbox_conf_perm
I0405 14:04:55.919481 23648 net.cpp:150] Setting up conv12_2_mbox_conf_perm
I0405 14:04:55.919490 23648 net.cpp:157] Top shape: 2 2 2 42 (336)
I0405 14:04:55.919497 23648 net.cpp:165] Memory required for data: 114156024
I0405 14:04:55.919502 23648 layer_factory.hpp:77] Creating layer conv12_2_mbox_conf_flat
I0405 14:04:55.919510 23648 net.cpp:100] Creating Layer conv12_2_mbox_conf_flat
I0405 14:04:55.919517 23648 net.cpp:434] conv12_2_mbox_conf_flat <- conv12_2_mbox_conf_perm
I0405 14:04:55.919525 23648 net.cpp:408] conv12_2_mbox_conf_flat -> conv12_2_mbox_conf_flat
I0405 14:04:55.919564 23648 net.cpp:150] Setting up conv12_2_mbox_conf_flat
I0405 14:04:55.919571 23648 net.cpp:157] Top shape: 2 168 (336)
I0405 14:04:55.919577 23648 net.cpp:165] Memory required for data: 114157368
I0405 14:04:55.919582 23648 layer_factory.hpp:77] Creating layer conv12_2_mbox_priorbox
I0405 14:04:55.919592 23648 net.cpp:100] Creating Layer conv12_2_mbox_priorbox
I0405 14:04:55.919598 23648 net.cpp:434] conv12_2_mbox_priorbox <- conv12_2_relu12_2_0_split_3
I0405 14:04:55.919606 23648 net.cpp:434] conv12_2_mbox_priorbox <- data_data_0_split_5
I0405 14:04:55.919625 23648 net.cpp:408] conv12_2_mbox_priorbox -> conv12_2_mbox_priorbox
I0405 14:04:55.919667 23648 net.cpp:150] Setting up conv12_2_mbox_priorbox
I0405 14:04:55.919677 23648 net.cpp:157] Top shape: 1 2 96 (192)
I0405 14:04:55.919682 23648 net.cpp:165] Memory required for data: 114158136
I0405 14:04:55.919688 23648 layer_factory.hpp:77] Creating layer conv13_2_mbox_loc
I0405 14:04:55.919699 23648 net.cpp:100] Creating Layer conv13_2_mbox_loc
I0405 14:04:55.919708 23648 net.cpp:434] conv13_2_mbox_loc <- conv13_2_conv13_2_0_split_0
I0405 14:04:55.919715 23648 net.cpp:408] conv13_2_mbox_loc -> conv13_2_mbox_loc
I0405 14:04:55.922230 23648 net.cpp:150] Setting up conv13_2_mbox_loc
I0405 14:04:55.922255 23648 net.cpp:157] Top shape: 2 16 1 1 (32)
I0405 14:04:55.922261 23648 net.cpp:165] Memory required for data: 114158264
I0405 14:04:55.922271 23648 layer_factory.hpp:77] Creating layer conv13_2_mbox_loc_perm
I0405 14:04:55.922282 23648 net.cpp:100] Creating Layer conv13_2_mbox_loc_perm
I0405 14:04:55.922289 23648 net.cpp:434] conv13_2_mbox_loc_perm <- conv13_2_mbox_loc
I0405 14:04:55.922297 23648 net.cpp:408] conv13_2_mbox_loc_perm -> conv13_2_mbox_loc_perm
I0405 14:04:55.922505 23648 net.cpp:150] Setting up conv13_2_mbox_loc_perm
I0405 14:04:55.922515 23648 net.cpp:157] Top shape: 2 1 1 16 (32)
I0405 14:04:55.922520 23648 net.cpp:165] Memory required for data: 114158392
I0405 14:04:55.922524 23648 layer_factory.hpp:77] Creating layer conv13_2_mbox_loc_flat
I0405 14:04:55.922533 23648 net.cpp:100] Creating Layer conv13_2_mbox_loc_flat
I0405 14:04:55.922539 23648 net.cpp:434] conv13_2_mbox_loc_flat <- conv13_2_mbox_loc_perm
I0405 14:04:55.922546 23648 net.cpp:408] conv13_2_mbox_loc_flat -> conv13_2_mbox_loc_flat
I0405 14:04:55.922602 23648 net.cpp:150] Setting up conv13_2_mbox_loc_flat
I0405 14:04:55.922619 23648 net.cpp:157] Top shape: 2 16 (32)
I0405 14:04:55.922626 23648 net.cpp:165] Memory required for data: 114158520
I0405 14:04:55.922636 23648 layer_factory.hpp:77] Creating layer conv13_2_mbox_conf
I0405 14:04:55.922653 23648 net.cpp:100] Creating Layer conv13_2_mbox_conf
I0405 14:04:55.922663 23648 net.cpp:434] conv13_2_mbox_conf <- conv13_2_conv13_2_0_split_1
I0405 14:04:55.922677 23648 net.cpp:408] conv13_2_mbox_conf -> conv13_2_mbox_conf
I0405 14:04:55.925863 23648 net.cpp:150] Setting up conv13_2_mbox_conf
I0405 14:04:55.925909 23648 net.cpp:157] Top shape: 2 28 1 1 (56)
I0405 14:04:55.925920 23648 net.cpp:165] Memory required for data: 114158744
I0405 14:04:55.925940 23648 layer_factory.hpp:77] Creating layer conv13_2_mbox_conf_perm
I0405 14:04:55.925959 23648 net.cpp:100] Creating Layer conv13_2_mbox_conf_perm
I0405 14:04:55.925971 23648 net.cpp:434] conv13_2_mbox_conf_perm <- conv13_2_mbox_conf
I0405 14:04:55.925985 23648 net.cpp:408] conv13_2_mbox_conf_perm -> conv13_2_mbox_conf_perm
I0405 14:04:55.926327 23648 net.cpp:150] Setting up conv13_2_mbox_conf_perm
I0405 14:04:55.926344 23648 net.cpp:157] Top shape: 2 1 1 28 (56)
I0405 14:04:55.926352 23648 net.cpp:165] Memory required for data: 114158968
I0405 14:04:55.926358 23648 layer_factory.hpp:77] Creating layer conv13_2_mbox_conf_flat
I0405 14:04:55.926369 23648 net.cpp:100] Creating Layer conv13_2_mbox_conf_flat
I0405 14:04:55.926376 23648 net.cpp:434] conv13_2_mbox_conf_flat <- conv13_2_mbox_conf_perm
I0405 14:04:55.926384 23648 net.cpp:408] conv13_2_mbox_conf_flat -> conv13_2_mbox_conf_flat
I0405 14:04:55.926426 23648 net.cpp:150] Setting up conv13_2_mbox_conf_flat
I0405 14:04:55.926435 23648 net.cpp:157] Top shape: 2 28 (56)
I0405 14:04:55.926440 23648 net.cpp:165] Memory required for data: 114159192
I0405 14:04:55.926446 23648 layer_factory.hpp:77] Creating layer conv13_2_mbox_priorbox
I0405 14:04:55.926457 23648 net.cpp:100] Creating Layer conv13_2_mbox_priorbox
I0405 14:04:55.926465 23648 net.cpp:434] conv13_2_mbox_priorbox <- conv13_2_conv13_2_0_split_2
I0405 14:04:55.926476 23648 net.cpp:434] conv13_2_mbox_priorbox <- data_data_0_split_6
I0405 14:04:55.926486 23648 net.cpp:408] conv13_2_mbox_priorbox -> conv13_2_mbox_priorbox
I0405 14:04:55.926533 23648 net.cpp:150] Setting up conv13_2_mbox_priorbox
I0405 14:04:55.926544 23648 net.cpp:157] Top shape: 1 2 16 (32)
I0405 14:04:55.926551 23648 net.cpp:165] Memory required for data: 114159320
I0405 14:04:55.926558 23648 layer_factory.hpp:77] Creating layer mbox_loc
I0405 14:04:55.926569 23648 net.cpp:100] Creating Layer mbox_loc
I0405 14:04:55.926578 23648 net.cpp:434] mbox_loc <- fire4_mbox_loc_flat
I0405 14:04:55.926587 23648 net.cpp:434] mbox_loc <- fire8_mbox_loc_flat
I0405 14:04:55.926596 23648 net.cpp:434] mbox_loc <- fire9_mbox_loc_flat
I0405 14:04:55.926604 23648 net.cpp:434] mbox_loc <- fire10_mbox_loc_flat
I0405 14:04:55.926614 23648 net.cpp:434] mbox_loc <- conv12_2_mbox_loc_flat
I0405 14:04:55.926621 23648 net.cpp:434] mbox_loc <- conv13_2_mbox_loc_flat
I0405 14:04:55.926631 23648 net.cpp:408] mbox_loc -> mbox_loc
I0405 14:04:55.926673 23648 net.cpp:150] Setting up mbox_loc
I0405 14:04:55.926684 23648 net.cpp:157] Top shape: 2 32120 (64240)
I0405 14:04:55.926692 23648 net.cpp:165] Memory required for data: 114416280
I0405 14:04:55.926699 23648 layer_factory.hpp:77] Creating layer mbox_conf
I0405 14:04:55.926707 23648 net.cpp:100] Creating Layer mbox_conf
I0405 14:04:55.926713 23648 net.cpp:434] mbox_conf <- fire4_mbox_conf_flat
I0405 14:04:55.926722 23648 net.cpp:434] mbox_conf <- fire8_mbox_conf_flat
I0405 14:04:55.926728 23648 net.cpp:434] mbox_conf <- fire9_mbox_conf_flat
I0405 14:04:55.926734 23648 net.cpp:434] mbox_conf <- fire10_mbox_conf_flat
I0405 14:04:55.926741 23648 net.cpp:434] mbox_conf <- conv12_2_mbox_conf_flat
I0405 14:04:55.926748 23648 net.cpp:434] mbox_conf <- conv13_2_mbox_conf_flat
I0405 14:04:55.926755 23648 net.cpp:408] mbox_conf -> mbox_conf
I0405 14:04:55.926793 23648 net.cpp:150] Setting up mbox_conf
I0405 14:04:55.926801 23648 net.cpp:157] Top shape: 2 56210 (112420)
I0405 14:04:55.926806 23648 net.cpp:165] Memory required for data: 114865960
I0405 14:04:55.926812 23648 layer_factory.hpp:77] Creating layer mbox_priorbox
I0405 14:04:55.926829 23648 net.cpp:100] Creating Layer mbox_priorbox
I0405 14:04:55.926836 23648 net.cpp:434] mbox_priorbox <- fire4_mbox_priorbox
I0405 14:04:55.926843 23648 net.cpp:434] mbox_priorbox <- fire8_mbox_priorbox
I0405 14:04:55.926849 23648 net.cpp:434] mbox_priorbox <- fire9_mbox_priorbox
I0405 14:04:55.926877 23648 net.cpp:434] mbox_priorbox <- fire10_mbox_priorbox
I0405 14:04:55.926884 23648 net.cpp:434] mbox_priorbox <- conv12_2_mbox_priorbox
I0405 14:04:55.926890 23648 net.cpp:434] mbox_priorbox <- conv13_2_mbox_priorbox
I0405 14:04:55.926898 23648 net.cpp:408] mbox_priorbox -> mbox_priorbox
I0405 14:04:55.926935 23648 net.cpp:150] Setting up mbox_priorbox
I0405 14:04:55.926944 23648 net.cpp:157] Top shape: 1 2 32120 (64240)
I0405 14:04:55.926950 23648 net.cpp:165] Memory required for data: 115122920
I0405 14:04:55.926955 23648 layer_factory.hpp:77] Creating layer mbox_conf_reshape
I0405 14:04:55.926965 23648 net.cpp:100] Creating Layer mbox_conf_reshape
I0405 14:04:55.926971 23648 net.cpp:434] mbox_conf_reshape <- mbox_conf
I0405 14:04:55.926982 23648 net.cpp:408] mbox_conf_reshape -> mbox_conf_reshape
I0405 14:04:55.927028 23648 net.cpp:150] Setting up mbox_conf_reshape
I0405 14:04:55.927037 23648 net.cpp:157] Top shape: 2 8030 7 (112420)
I0405 14:04:55.927043 23648 net.cpp:165] Memory required for data: 115572600
I0405 14:04:55.927048 23648 layer_factory.hpp:77] Creating layer mbox_conf_softmax
I0405 14:04:55.927067 23648 net.cpp:100] Creating Layer mbox_conf_softmax
I0405 14:04:55.927074 23648 net.cpp:434] mbox_conf_softmax <- mbox_conf_reshape
I0405 14:04:55.927081 23648 net.cpp:408] mbox_conf_softmax -> mbox_conf_softmax
I0405 14:04:55.927779 23648 net.cpp:150] Setting up mbox_conf_softmax
I0405 14:04:55.927796 23648 net.cpp:157] Top shape: 2 8030 7 (112420)
I0405 14:04:55.927803 23648 net.cpp:165] Memory required for data: 116022280
I0405 14:04:55.927809 23648 layer_factory.hpp:77] Creating layer mbox_conf_flatten
I0405 14:04:55.927819 23648 net.cpp:100] Creating Layer mbox_conf_flatten
I0405 14:04:55.927826 23648 net.cpp:434] mbox_conf_flatten <- mbox_conf_softmax
I0405 14:04:55.927834 23648 net.cpp:408] mbox_conf_flatten -> mbox_conf_flatten
I0405 14:04:55.927873 23648 net.cpp:150] Setting up mbox_conf_flatten
I0405 14:04:55.927882 23648 net.cpp:157] Top shape: 2 56210 (112420)
I0405 14:04:55.927887 23648 net.cpp:165] Memory required for data: 116471960
I0405 14:04:55.927893 23648 layer_factory.hpp:77] Creating layer detection_out
I0405 14:04:55.927917 23648 net.cpp:100] Creating Layer detection_out
I0405 14:04:55.927924 23648 net.cpp:434] detection_out <- mbox_loc
I0405 14:04:55.927930 23648 net.cpp:434] detection_out <- mbox_conf_flatten
I0405 14:04:55.927937 23648 net.cpp:434] detection_out <- mbox_priorbox
I0405 14:04:55.927944 23648 net.cpp:408] detection_out -> detection_out
I0405 14:04:55.928040 23648 net.cpp:150] Setting up detection_out
I0405 14:04:55.928050 23648 net.cpp:157] Top shape: 1 1 1 7 (7)
I0405 14:04:55.928056 23648 net.cpp:165] Memory required for data: 116471988
I0405 14:04:55.928061 23648 layer_factory.hpp:77] Creating layer detection_eval
I0405 14:04:55.928071 23648 net.cpp:100] Creating Layer detection_eval
I0405 14:04:55.928076 23648 net.cpp:434] detection_eval <- detection_out
I0405 14:04:55.928086 23648 net.cpp:434] detection_eval <- label
I0405 14:04:55.928095 23648 net.cpp:408] detection_eval -> detection_eval
I0405 14:04:55.928177 23648 net.cpp:150] Setting up detection_eval
I0405 14:04:55.928196 23648 net.cpp:157] Top shape: 1 1 7 5 (35)
I0405 14:04:55.928205 23648 net.cpp:165] Memory required for data: 116472128
I0405 14:04:55.928213 23648 net.cpp:228] detection_eval does not need backward computation.
I0405 14:04:55.928225 23648 net.cpp:228] detection_out does not need backward computation.
I0405 14:04:55.928234 23648 net.cpp:228] mbox_conf_flatten does not need backward computation.
I0405 14:04:55.928244 23648 net.cpp:228] mbox_conf_softmax does not need backward computation.
…
