…
    batch_sampler {
      sampler {
        min_scale: 0.3
        max_scale: 1
        min_aspect_ratio: 0.5
        max_aspect_ratio: 2
      }
      sample_constraint {
        min_jaccard_overlap: 0.9
      }
      max_sample: 1
      max_trials: 50
    }
    batch_sampler {
      sampler {
        min_scale: 0.3
        max_scale: 1
        min_aspect_ratio: 0.5
        max_aspect_ratio: 2
      }
      sample_constraint {
        max_jaccard_overlap: 1
      }
      max_sample: 1
      max_trials: 50
    }
    label_map_file: "labelmap.prototxt"
  }
}
layer {
  name: "conv1"
  type: "Convolution"
  bottom: "data"
  top: "conv1"
  param {
    lr_mult: 1
    decay_mult: 1
  }
  param {
    lr_mult: 2
    decay_mult: 0
  }
  convolution_param {
    num_output: 57
    pad: 0
    kernel_size: 3
    stride: 2
    weight_filler {
      type: "xavier"
    }
    bias_filler {
      type: "constant"
      value: 0
    }
  }
}
layer {
  name: "relu1_1"
  type: "ReLU"
  bottom: "conv1"
  top: "conv1"
}
layer {
  name: "pool1"
  type: "Pooling"
  bottom: "conv1"
  top: "pool1"
  pooling_param {
    pool: MAX
    kernel_size: 3
    stride: 2
  }
}
layer {
  name: "fire1/squeeze1x1"
  type: "Convolution"
  bottom: "pool1"
  top: "fire1/squeeze1x1"
  convolution_param {
    num_output: 15
    kernel_size: 1
    weight_filler {
      type: "xavier"
    }
  }
}
layer {
  name: "fire1/relu_squeeze1x1"
  type: "ReLU"
  bottom: "fire1/squeeze1x1"
  top: "fire1/squeeze1x1"
}
layer {
  name: "fire1/expand1x1"
  type: "Convolution"
  bottom: "fire1/squeeze1x1"
  top: "fire1/expand1x1"
  convolution_param {
    num_output: 49
    kernel_size: 1
    weight_filler {
      type: "xavier"
    }
  }
}
layer {
  name: "fire1/relu_expand1x1"
  type: "ReLU"
  bottom: "fire1/expand1x1"
  top: "fire1/expand1x1"
}
layer {
  name: "fire1/expand3x3"
  type: "Convolution"
  bottom: "fire1/squeeze1x1"
  top: "fire1/expand3x3"
  convolution_param {
    num_output: 53
    pad: 1
    kernel_size: 3
    weight_filler {
      type: "xavier"
    }
  }
}
layer {
  name: "fire1/relu_expand3x3"
  type: "ReLU"
  bottom: "fire1/expand3x3"
  top: "fire1/expand3x3"
}
layer {
  name: "fire1/concat"
  type: "Concat"
  bottom: "fire1/expand1x1"
  bottom: "fire1/expand3x3"
  top: "fire1/concat"
}
layer {
  name: "fire2/squeeze1x1"
  type: "Convolution"
  bottom: "fire1/concat"
  top: "fire2/squeeze1x1"
  convolution_param {
    num_output: 15
    kernel_size: 1
    weight_filler {
      type: "xavier"
    }
  }
}
layer {
  name: "fire2/relu_squeeze1x1"
  type: "ReLU"
  bottom: "fire2/squeeze1x1"
  top: "fire2/squeeze1x1"
}
layer {
  name: "fire2/expand1x1"
  type: "Convolution"
  bottom: "fire2/squeeze1x1"
  top: "fire2/expand1x1"
  convolution_param {
    num_output: 54
    kernel_size: 1
    weight_filler {
      type: "xavier"
    }
  }
}
layer {
  name: "fire2/relu_expand1x1"
  type: "ReLU"
  bottom: "fire2/expand1x1"
  top: "fire2/expand1x1"
}
layer {
  name: "fire2/expand3x3"
  type: "Convolution"
  bottom: "fire2/squeeze1x1"
  top: "fire2/expand3x3"
  convolution_param {
    num_output: 52
    pad: 1
    kernel_size: 3
    weight_filler {
      type: "xavier"
    }
  }
}
layer {
  name: "fire2/relu_expand3x3"
  type: "ReLU"
  bottom: "fire2/expand3x3"
  top: "fire2/expand3x3"
}
layer {
  name: "fire2/concat"
  type: "Concat"
  bottom: "fire2/expand1x1"
  bottom: "fire2/expand3x3"
  top: "fire2/concat"
}
layer {
  name: "pool3"
  type: "Pooling"
  bottom: "fire2/concat"
  top: "pool3"
  pooling_param {
    pool: MAX
    kernel_size: 3
    stride: 2
  }
}
layer {
  name: "fire3/squeeze1x1"
  type: "Convolution"
  bottom: "pool3"
  top: "fire3/squeeze1x1"
  convolution_param {
    num_output: 29
    kernel_size: 1
    weight_filler {
      type: "xavier"
    }
  }
}
layer {
  name: "fire3/relu_squeeze1x1"
  type: "ReLU"
  bottom: "fire3/squeeze1x1"
  top: "fire3/squeeze1x1"
}
layer {
  name: "fire3/expand1x1"
  type: "Convolution"
  bottom: "fire3/squeeze1x1"
  top: "fire3/expand1x1"
  convolution_param {
    num_output: 92
    kernel_size: 1
    weight_filler {
      type: "xavier"
    }
  }
}
layer {
  name: "fire3/relu_expand1x1"
  type: "ReLU"
  bottom: "fire3/expand1x1"
  top: "fire3/expand1x1"
}
layer {
  name: "fire3/expand3x3"
  type: "Convolution"
  bottom: "fire3/squeeze1x1"
  top: "fire3/expand3x3"
  convolution_param {
    num_output: 94
    pad: 1
    kernel_size: 3
    weight_filler {
      type: "xavier"
    }
  }
}
layer {
  name: "fire3/relu_expand3x3"
  type: "ReLU"
  bottom: "fire3/expand3x3"
  top: "fire3/expand3x3"
}
layer {
  name: "fire3/concat"
  type: "Concat"
  bottom: "fire3/expand1x1"
  bottom: "fire3/expand3x3"
  top: "fire3/concat"
}
layer {
  name: "fire4/squeeze1x1"
  type: "Convolution"
  bottom: "fire3/concat"
  top: "fire4/squeeze1x1"
  convolution_param {
    num_output: 29
    kernel_size: 1
    weight_filler {
      type: "xavier"
    }
  }
}
layer {
  name: "fire4/relu_squeeze1x1"
  type: "ReLU"
  bottom: "fire4/squeeze1x1"
  top: "fire4/squeeze1x1"
}
layer {
  name: "fire4/expand1x1"
  type: "Convolution"
  bottom: "fire4/squeeze1x1"
  top: "fire4/expand1x1"
  convolution_param {
    num_output: 90
    kernel_size: 1
    weight_filler {
      type: "xavier"
    }
  }
}
layer {
  name: "fire4/relu_expand1x1"
  type: "ReLU"
  bottom: "fire4/expand1x1"
  top: "fire4/expand1x1"
}
layer {
  name: "fire4/expand3x3"
  type: "Convolution"
  bottom: "fire4/squeeze1x1"
  top: "fire4/expand3x3"
  convolution_param {
    num_output: 83
    pad: 1
    kernel_size: 3
    weight_filler {
      type: "xavier"
    }
  }
}
layer {
  name: "fire4/relu_expand3x3"
  type: "ReLU"
  bottom: "fire4/expand3x3"
  top: "fire4/expand3x3"
}
layer {
  name: "fire4/concat"
  type: "Concat"
  bottom: "fire4/expand1x1"
  bottom: "fire4/expand3x3"
  top: "fire4/concat"
}
layer {
  name: "pool5"
  type: "Pooling"
  bottom: "fire4/concat"
  top: "pool5"
  pooling_param {
    pool: MAX
    kernel_size: 3
    stride: 2
  }
}
layer {
  name: "fire5/squeeze1x1"
  type: "Convolution"
  bottom: "pool5"
  top: "fire5/squeeze1x1"
  convolution_param {
    num_output: 44
    kernel_size: 1
    weight_filler {
      type: "xavier"
    }
  }
}
layer {
  name: "fire5/relu_squeeze1x1"
  type: "ReLU"
  bottom: "fire5/squeeze1x1"
  top: "fire5/squeeze1x1"
}
layer {
  name: "fire5/expand1x1"
  type: "Convolution"
  bottom: "fire5/squeeze1x1"
  top: "fire5/expand1x1"
  convolution_param {
    num_output: 166
    kernel_size: 1
    weight_filler {
      type: "xavier"
    }
  }
}
layer {
  name: "fire5/relu_expand1x1"
  type: "ReLU"
  bottom: "fire5/expand1x1"
  top: "fire5/expand1x1"
}
layer {
  name: "fire5/expand3x3"
  type: "Convolution"
  bottom: "fire5/squeeze1x1"
  top: "fire5/expand3x3"
  convolution_param {
    num_output: 161
    pad: 1
    kernel_size: 3
    weight_filler {
      type: "xavier"
    }
  }
}
layer {
  name: "fire5/relu_expand3x3"
  type: "ReLU"
  bottom: "fire5/expand3x3"
  top: "fire5/expand3x3"
}
layer {
  name: "fire5/concat"
  type: "Concat"
  bottom: "fire5/expand1x1"
  bottom: "fire5/expand3x3"
  top: "fire5/concat"
}
layer {
  name: "fire6/squeeze1x1"
  type: "Convolution"
  bottom: "fire5/concat"
  top: "fire6/squeeze1x1"
  convolution_param {
    num_output: 45
    kernel_size: 1
    weight_filler {
      type: "xavier"
    }
  }
}
layer {
  name: "fire6/relu_squeeze1x1"
  type: "ReLU"
  bottom: "fire6/squeeze1x1"
  top: "fire6/squeeze1x1"
}
layer {
  name: "fire6/expand1x1"
  type: "Convolution"
  bottom: "fire6/squeeze1x1"
  top: "fire6/expand1x1"
  convolution_param {
    num_output: 155
    kernel_size: 1
    weight_filler {
      type: "xavier"
    }
  }
}
layer {
  name: "fire6/relu_expand1x1"
  type: "ReLU"
  bottom: "fire6/expand1x1"
  top: "fire6/expand1x1"
}
layer {
  name: "fire6/expand3x3"
  type: "Convolution"
  bottom: "fire6/squeeze1x1"
  top: "fire6/expand3x3"
  convolution_param {
    num_output: 146
    pad: 1
    kernel_size: 3
    weight_filler {
      type: "xavier"
    }
  }
}
layer {
  name: "fire6/relu_expand3x3"
  type: "ReLU"
  bottom: "fire6/expand3x3"
  top: "fire6/expand3x3"
}
layer {
  name: "fire6/concat"
  type: "Concat"
  bottom: "fire6/expand1x1"
  bottom: "fire6/expand3x3"
  top: "fire6/concat"
}
layer {
  name: "fire7/squeeze1x1"
  type: "Convolution"
  bottom: "fire6/concat"
  top: "fire7/squeeze1x1"
  convolution_param {
    num_output: 49
    kernel_size: 1
    weight_filler {
      type: "xavier"
    }
  }
}
layer {
  name: "fire7/relu_squeeze1x1"
  type: "ReLU"
  bottom: "fire7/squeeze1x1"
  top: "fire7/squeeze1x1"
}
layer {
  name: "fire7/expand1x1"
  type: "Convolution"
  bottom: "fire7/squeeze1x1"
  top: "fire7/expand1x1"
  convolution_param {
    num_output: 163
    kernel_size: 1
    weight_filler {
      type: "xavier"
    }
  }
}
layer {
  name: "fire7/relu_expand1x1"
  type: "ReLU"
  bottom: "fire7/expand1x1"
  top: "fire7/expand1x1"
}
layer {
  name: "fire7/expand3x3"
  type: "Convolution"
  bottom: "fire7/squeeze1x1"
  top: "fire7/expand3x3"
  convolution_param {
    num_output: 171
    pad: 1
    kernel_size: 3
    weight_filler {
      type: "xavier"
    }
  }
}
layer {
  name: "fire7/relu_expand3x3"
  type: "ReLU"
  bottom: "fire7/expand3x3"
  top: "fire7/expand3x3"
}
layer {
  name: "fire7/concat"
  type: "Concat"
  bottom: "fire7/expand1x1"
  bottom: "fire7/expand3x3"
  top: "fire7/concat"
}
layer {
  name: "fire8/squeeze1x1"
  type: "Convolution"
  bottom: "fire7/concat"
  top: "fire8/squeeze1x1"
  convolution_param {
    num_output: 25
    kernel_size: 1
    weight_filler {
      type: "xavier"
    }
  }
}
layer {
  name: "fire8/relu_squeeze1x1"
  type: "ReLU"
  bottom: "fire8/squeeze1x1"
  top: "fire8/squeeze1x1"
}
layer {
  name: "fire8/expand1x1"
  type: "Convolution"
  bottom: "fire8/squeeze1x1"
  top: "fire8/expand1x1"
  convolution_param {
    num_output: 29
    kernel_size: 1
    weight_filler {
      type: "xavier"
    }
  }
}
layer {
  name: "fire8/relu_expand1x1"
  type: "ReLU"
  bottom: "fire8/expand1x1"
  top: "fire8/expand1x1"
}
layer {
  name: "fire8/expand3x3"
  type: "Convolution"
  bottom: "fire8/squeeze1x1"
  top: "fire8/expand3x3"
  convolution_param {
    num_output: 54
    pad: 1
    kernel_size: 3
    weight_filler {
      type: "xavier"
    }
  }
}
layer {
  name: "fire8/relu_expand3x3"
  type: "ReLU"
  bottom: "fire8/expand3x3"
  top: "fire8/expand3x3"
}
layer {
  name: "fire8/concat"
  type: "Concat"
  bottom: "fire8/expand1x1"
  bottom: "fire8/expand3x3"
  top: "fire8/concat"
}
layer {
  name: "pool9"
  type: "Pooling"
  bottom: "fire8/concat"
  top: "pool9"
  pooling_param {
    pool: MAX
    kernel_size: 3
    stride: 2
  }
}
layer {
  name: "fire9/squeeze1x1"
  type: "Convolution"
  bottom: "pool9"
  top: "fire9/squeeze1x1"
  convolution_param {
    num_output: 37
    kernel_size: 1
    weight_filler {
      type: "xavier"
    }
  }
}
layer {
  name: "fire9/relu_squeeze1x1"
  type: "ReLU"
  bottom: "fire9/squeeze1x1"
  top: "fire9/squeeze1x1"
}
layer {
  name: "fire9/expand1x1"
  type: "Convolution"
  bottom: "fire9/squeeze1x1"
  top: "fire9/expand1x1"
  convolution_param {
    num_output: 45
    kernel_size: 1
    weight_filler {
      type: "xavier"
    }
  }
}
layer {
  name: "fire9/relu_expand1x1"
  type: "ReLU"
  bottom: "fire9/expand1x1"
  top: "fire9/expand1x1"
}
layer {
  name: "fire9/expand3x3"
  type: "Convolution"
  bottom: "fire9/squeeze1x1"
  top: "fire9/expand3x3"
  convolution_param {
    num_output: 56
    pad: 1
    kernel_size: 3
    weight_filler {
      type: "xavier"
    }
  }
}
layer {
  name: "fire9/relu_expand3x3"
  type: "ReLU"
  bottom: "fire9/expand3x3"
  top: "fire9/expand3x3"
}
layer {
  name: "fire9/concat"
  type: "Concat"
  bottom: "fire9/expand1x1"
  bottom: "fire9/expand3x3"
  top: "fire9/concat"
}
layer {
  name: "pool10"
  type: "Pooling"
  bottom: "fire9/concat"
  top: "pool10"
  pooling_param {
    pool: MAX
    kernel_size: 3
    stride: 2
  }
}
layer {
  name: "fire10/squeeze1x1"
  type: "Convolution"
  bottom: "pool10"
  top: "fire10/squeeze1x1"
  convolution_param {
    num_output: 38
    kernel_size: 1
    weight_filler {
      type: "xavier"
    }
  }
}
layer {
  name: "fire10/relu_squeeze1x1"
  type: "ReLU"
  bottom: "fire10/squeeze1x1"
  top: "fire10/squeeze1x1"
}
layer {
  name: "fire10/expand1x1"
  type: "Convolution"
  bottom: "fire10/squeeze1x1"
  top: "fire10/expand1x1"
  convolution_param {
    num_output: 41
    kernel_size: 1
    weight_filler {
      type: "xavier"
    }
  }
}
layer {
  name: "fire10/relu_expand1x1"
  type: "ReLU"
  bottom: "fire10/expand1x1"
  top: "fire10/expand1x1"
}
layer {
  name: "fire10/expand3x3"
  type: "Convolution"
  bottom: "fire10/squeeze1x1"
  top: "fire10/expand3x3"
  convolution_param {
    num_output: 44
    pad: 1
    kernel_size: 3
    weight_filler {
      type: "xavier"
    }
  }
}
layer {
  name: "fire10/relu_expand3x3"
  type: "ReLU"
  bottom: "fire10/expand3x3"
  top: "fire10/expand3x3"
}
layer {
  name: "fire10/concat"
  type: "Concat"
  bottom: "fire10/expand1x1"
  bottom: "fire10/expand3x3"
  top: "fire10/concat"
}
layer {
  name: "conv12_1"
  type: "Convolution"
  bottom: "fire10/concat"
  top: "conv12_1"
  param {
    lr_mult: 1
    decay_mult: 1
  }
  param {
    lr_mult: 2
    decay_mult: 0
  }
  convolution_param {
    num_output: 51
    pad: 3
    kernel_size: 3
    stride: 2
    weight_filler {
      type: "xavier"
    }
    bias_filler {
      type: "constant"
      value: 0
    }
  }
}
layer {
  name: "relu122_1"
  type: "ReLU"
  bottom: "conv12_1"
  top: "conv12_1"
}
layer {
  name: "conv12_2"
  type: "Convolution"
  bottom: "conv12_1"
  top: "conv12_2"
  param {
    lr_mult: 1
    decay_mult: 1
  }
  param {
    lr_mult: 2
    decay_mult: 0
  }
  convolution_param {
    num_output: 46
    pad: 0
    kernel_size: 3
    weight_filler {
      type: "xavier"
    }
    bias_filler {
      type: "constant"
      value: 0
    }
  }
}
layer {
  name: "relu12_2"
  type: "ReLU"
  bottom: "conv12_2"
  top: "conv12_2"
}
layer {
  name: "conv13_1"
  type: "Convolution"
  bottom: "conv12_2"
  top: "conv13_1"
  param {
    lr_mult: 1
    decay_mult: 1
  }
  param {
    lr_mult: 2
    decay_mult: 0
  }
  convolution_param {
    num_output: 55
    pad: 1
    kernel_size: 3
    weight_filler {
      type: "xavier"
    }
    bias_filler {
      type: "constant"
      value: 0
    }
  }
}
layer {
  name: "relu13_1"
  type: "ReLU"
  bottom: "conv13_1"
  top: "conv13_1"
}
layer {
  name: "conv13_2"
  type: "Convolution"
  bottom: "conv13_1"
  top: "conv13_2"
  param {
    lr_mult: 1
    decay_mult: 1
  }
  param {
    lr_mult: 2
    decay_mult: 0
  }
  convolution_param {
    num_output: 85
    pad: 1
    kernel_size: 3
    stride: 2
    weight_filler {
      type: "xavier"
    }
    bias_filler {
      type: "constant"
      value: 0
    }
  }
}
layer {
  name: "fire4_norm"
  type: "Normalize"
  bottom: "fire4/concat"
  top: "fire4_norm"
  norm_param {
    across_spatial: false
    scale_filler {
      type: "constant"
      value: 20
    }
    channel_shared: false
  }
}
layer {
  name: "fire4_mbox_loc"
  type: "Convolution"
  bottom: "fire4_norm"
  top: "fire4_mbox_loc"
  param {
    lr_mult: 1
    decay_mult: 1
  }
  param {
    lr_mult: 2
    decay_mult: 0
  }
  convolution_param {
    num_output: 16
    pad: 1
    kernel_size: 3
    stride: 1
    weight_filler {
      type: "xavier"
    }
    bias_filler {
      type: "constant"
      value: 0
    }
  }
}
layer {
  name: "fire4_mbox_loc_perm"
  type: "Permute"
  bottom: "fire4_mbox_loc"
  top: "fire4_mbox_loc_perm"
  permute_param {
    order: 0
    order: 2
    order: 3
    order: 1
  }
}
layer {
  name: "fire4_mbox_loc_flat"
  type: "Flatten"
  bottom: "fire4_mbox_loc_perm"
  top: "fire4_mbox_loc_flat"
  flatten_param {
    axis: 1
  }
}
layer {
  name: "fire4_mbox_conf"
  type: "Convolution"
  bottom: "fire4_norm"
  top: "fire4_mbox_conf"
  param {
    lr_mult: 1
    decay_mult: 1
  }
  param {
    lr_mult: 2
    decay_mult: 0
  }
  convolution_param {
    num_output: 28
    pad: 1
    kernel_size: 3
    stride: 1
    weight_filler {
      type: "xavier"
    }
    bias_filler {
      type: "constant"
      value: 0
    }
  }
}
layer {
  name: "fire4_mbox_conf_perm"
  type: "Permute"
  bottom: "fire4_mbox_conf"
  top: "fire4_mbox_conf_perm"
  permute_param {
    order: 0
    order: 2
    order: 3
    order: 1
  }
}
layer {
  name: "fire4_mbox_conf_flat"
  type: "Flatten"
  bottom: "fire4_mbox_conf_perm"
  top: "fire4_mbox_conf_flat"
  flatten_param {
    axis: 1
  }
}
layer {
  name: "fire4_mbox_priorbox"
  type: "PriorBox"
  bottom: "fire4_norm"
  bottom: "data"
  top: "fire4_mbox_priorbox"
  prior_box_param {
    min_size: 30
    max_size: 60
    aspect_ratio: 2
    flip: true
    clip: false
    variance: 0.1
    variance: 0.1
    variance: 0.2
    variance: 0.2
    step: 8
    offset: 0.5
  }
}
layer {
  name: "fire8_norm"
  type: "Normalize"
  bottom: "fire8/concat"
  top: "fire8_norm"
  norm_param {
    across_spatial: false
    scale_filler {
      type: "constant"
      value: 20
    }
    channel_shared: false
  }
}
layer {
  name: "fire8_mbox_loc"
  type: "Convolution"
  bottom: "fire8_norm"
  top: "fire8_mbox_loc"
  param {
    lr_mult: 1
    decay_mult: 1
  }
  param {
    lr_mult: 2
    decay_mult: 0
  }
  convolution_param {
    num_output: 24
    pad: 1
    kernel_size: 3
    stride: 1
    weight_filler {
      type: "xavier"
    }
    bias_filler {
      type: "constant"
      value: 0
    }
  }
}
layer {
  name: "fire8_mbox_loc_perm"
  type: "Permute"
  bottom: "fire8_mbox_loc"
  top: "fire8_mbox_loc_perm"
  permute_param {
    order: 0
    order: 2
    order: 3
    order: 1
  }
}
layer {
  name: "fire8_mbox_loc_flat"
  type: "Flatten"
  bottom: "fire8_mbox_loc_perm"
  top: "fire8_mbox_loc_flat"
  flatten_param {
    axis: 1
  }
}
layer {
  name: "fire8_mbox_conf"
  type: "Convolution"
  bottom: "fire8_norm"
  top: "fire8_mbox_conf"
  param {
    lr_mult: 1
    decay_mult: 1
  }
  param {
    lr_mult: 2
    decay_mult: 0
  }
  convolution_param {
    num_output: 42
    pad: 1
    kernel_size: 3
    stride: 1
    weight_filler {
      type: "xavier"
    }
    bias_filler {
      type: "constant"
      value: 0
    }
  }
}
layer {
  name: "fire8_mbox_conf_perm"
  type: "Permute"
  bottom: "fire8_mbox_conf"
  top: "fire8_mbox_conf_perm"
  permute_param {
    order: 0
    order: 2
    order: 3
    order: 1
  }
}
layer {
  name: "fire8_mbox_conf_flat"
  type: "Flatten"
  bottom: "fire8_mbox_conf_perm"
  top: "fire8_mbox_conf_flat"
  flatten_param {
    axis: 1
  }
}
layer {
  name: "fire8_mbox_priorbox"
  type: "PriorBox"
  bottom: "fire8_norm"
  bottom: "data"
  top: "fire8_mbox_priorbox"
  prior_box_param {
    min_size: 60
    max_size: 111
    aspect_ratio: 2
    aspect_ratio: 3
    flip: true
    clip: false
    variance: 0.1
    variance: 0.1
    variance: 0.2
    variance: 0.2
    step: 16
    offset: 0.5
  }
}
layer {
  name: "fire9_mbox_loc"
  type: "Convolution"
  bottom: "fire9/concat"
  top: "fire9_mbox_loc"
  param {
    lr_mult: 1
    decay_mult: 1
  }
  param {
    lr_mult: 2
    decay_mult: 0
  }
  convolution_param {
    num_output: 24
    pad: 1
    kernel_size: 3
    stride: 1
    weight_filler {
      type: "xavier"
    }
    bias_filler {
      type: "constant"
      value: 0
    }
  }
}
layer {
  name: "fire9_mbox_loc_perm"
  type: "Permute"
  bottom: "fire9_mbox_loc"
  top: "fire9_mbox_loc_perm"
  permute_param {
    order: 0
    order: 2
    order: 3
    order: 1
  }
}
layer {
  name: "fire9_mbox_loc_flat"
  type: "Flatten"
  bottom: "fire9_mbox_loc_perm"
  top: "fire9_mbox_loc_flat"
  flatten_param {
    axis: 1
  }
}
layer {
  name: "fire9_mbox_conf"
  type: "Convolution"
  bottom: "fire9/concat"
  top: "fire9_mbox_conf"
  param {
    lr_mult: 1
    decay_mult: 1
  }
  param {
    lr_mult: 2
    decay_mult: 0
  }
  convolution_param {
    num_output: 42
    pad: 1
    kernel_size: 3
    stride: 1
    weight_filler {
      type: "xavier"
    }
    bias_filler {
      type: "constant"
      value: 0
    }
  }
}
layer {
  name: "fire9_mbox_conf_perm"
  type: "Permute"
  bottom: "fire9_mbox_conf"
  top: "fire9_mbox_conf_perm"
  permute_param {
    order: 0
    order: 2
    order: 3
    order: 1
  }
}
layer {
  name: "fire9_mbox_conf_flat"
  type: "Flatten"
  bottom: "fire9_mbox_conf_perm"
  top: "fire9_mbox_conf_flat"
  flatten_param {
    axis: 1
  }
}
layer {
  name: "fire9_mbox_priorbox"
  type: "PriorBox"
  bottom: "fire9/concat"
  bottom: "data"
  top: "fire9_mbox_priorbox"
  prior_box_param {
    min_size: 111
    max_size: 162
    aspect_ratio: 2
    aspect_ratio: 3
    flip: true
    clip: false
    variance: 0.1
    variance: 0.1
    variance: 0.2
    variance: 0.2
    step: 34
    offset: 0.5
  }
}
layer {
  name: "fire10_mbox_loc"
  type: "Convolution"
  bottom: "fire10/concat"
  top: "fire10_mbox_loc"
  param {
    lr_mult: 1
    decay_mult: 1
  }
  param {
    lr_mult: 2
    decay_mult: 0
  }
  convolution_param {
    num_output: 24
    pad: 1
    kernel_size: 3
    stride: 1
    weight_filler {
      type: "xavier"
    }
    bias_filler {
      type: "constant"
      value: 0
    }
  }
}
layer {
  name: "fire10_mbox_loc_perm"
  type: "Permute"
  bottom: "fire10_mbox_loc"
  top: "fire10_mbox_loc_perm"
  permute_param {
    order: 0
    order: 2
    order: 3
    order: 1
  }
}
layer {
  name: "fire10_mbox_loc_flat"
  type: "Flatten"
  bottom: "fire10_mbox_loc_perm"
  top: "fire10_mbox_loc_flat"
  flatten_param {
    axis: 1
  }
}
layer {
  name: "fire10_mbox_conf"
  type: "Convolution"
  bottom: "fire10/concat"
  top: "fire10_mbox_conf"
  param {
    lr_mult: 1
    decay_mult: 1
  }
  param {
    lr_mult: 2
    decay_mult: 0
  }
  convolution_param {
    num_output: 42
    pad: 1
    kernel_size: 3
    stride: 1
    weight_filler {
      type: "xavier"
    }
    bias_filler {
      type: "constant"
      value: 0
    }
  }
}
layer {
  name: "fire10_mbox_conf_perm"
  type: "Permute"
  bottom: "fire10_mbox_conf"
  top: "fire10_mbox_conf_perm"
  permute_param {
    order: 0
    order: 2
    order: 3
    order: 1
  }
}
layer {
  name: "fire10_mbox_conf_flat"
  type: "Flatten"
  bottom: "fire10_mbox_conf_perm"
  top: "fire10_mbox_conf_flat"
  flatten_param {
    axis: 1
  }
}
layer {
  name: "fire10_mbox_priorbox"
  type: "PriorBox"
  bottom: "fire10/concat"
  bottom: "data"
  top: "fire10_mbox_priorbox"
  prior_box_param {
    min_size: 162
    max_size: 213
    aspect_ratio: 2
    aspect_ratio: 3
    flip: true
    clip: false
    variance: 0.1
    variance: 0.1
    variance: 0.2
    variance: 0.2
    step: 75
    offset: 0.5
  }
}
layer {
  name: "conv12_2_mbox_loc"
  type: "Convolution"
  bottom: "conv12_2"
  top: "conv12_2_mbox_loc"
  param {
    lr_mult: 1
    decay_mult: 1
  }
  param {
    lr_mult: 2
    decay_mult: 0
  }
  convolution_param {
    num_output: 24
    pad: 1
    kernel_size: 3
    stride: 1
    weight_filler {
      type: "xavier"
    }
    bias_filler {
      type: "constant"
      value: 0
    }
  }
}
layer {
  name: "conv12_2_mbox_loc_perm"
  type: "Permute"
  bottom: "conv12_2_mbox_loc"
  top: "conv12_2_mbox_loc_perm"
  permute_param {
    order: 0
    order: 2
    order: 3
    order: 1
  }
}
layer {
  name: "conv12_2_mbox_loc_flat"
  type: "Flatten"
  bottom: "conv12_2_mbox_loc_perm"
  top: "conv12_2_mbox_loc_flat"
  flatten_param {
    axis: 1
  }
}
layer {
  name: "conv12_2_mbox_conf"
  type: "Convolution"
  bottom: "conv12_2"
  top: "conv12_2_mbox_conf"
  param {
    lr_mult: 1
    decay_mult: 1
  }
  param {
    lr_mult: 2
    decay_mult: 0
  }
  convolution_param {
    num_output: 42
    pad: 1
    kernel_size: 3
    stride: 1
    weight_filler {
      type: "xavier"
    }
    bias_filler {
      type: "constant"
      value: 0
    }
  }
}
layer {
  name: "conv12_2_mbox_conf_perm"
  type: "Permute"
  bottom: "conv12_2_mbox_conf"
  top: "conv12_2_mbox_conf_perm"
  permute_param {
    order: 0
    order: 2
    order: 3
    order: 1
  }
}
layer {
  name: "conv12_2_mbox_conf_flat"
  type: "Flatten"
  bottom: "conv12_2_mbox_conf_perm"
  top: "conv12_2_mbox_conf_flat"
  flatten_param {
    axis: 1
  }
}
layer {
  name: "conv12_2_mbox_priorbox"
  type: "PriorBox"
  bottom: "conv12_2"
  bottom: "data"
  top: "conv12_2_mbox_priorbox"
  prior_box_param {
    min_size: 213
    max_size: 264
    aspect_ratio: 2
    aspect_ratio: 3
    flip: true
    clip: false
    variance: 0.1
    variance: 0.1
    variance: 0.2
    variance: 0.2
    step: 150
    offset: 0.5
  }
}
layer {
  name: "conv13_2_mbox_loc"
  type: "Convolution"
  bottom: "conv13_2"
  top: "conv13_2_mbox_loc"
  param {
    lr_mult: 1
    decay_mult: 1
  }
  param {
    lr_mult: 2
    decay_mult: 0
  }
  convolution_param {
    num_output: 16
    pad: 1
    kernel_size: 3
    stride: 1
    weight_filler {
      type: "xavier"
    }
    bias_filler {
      type: "constant"
      value: 0
    }
  }
}
layer {
  name: "conv13_2_mbox_loc_perm"
  type: "Permute"
  bottom: "conv13_2_mbox_loc"
  top: "conv13_2_mbox_loc_perm"
  permute_param {
    order: 0
    order: 2
    order: 3
    order: 1
  }
}
layer {
  name: "conv13_2_mbox_loc_flat"
  type: "Flatten"
  bottom: "conv13_2_mbox_loc_perm"
  top: "conv13_2_mbox_loc_flat"
  flatten_param {
    axis: 1
  }
}
layer {
  name: "conv13_2_mbox_conf"
  type: "Convolution"
  bottom: "conv13_2"
  top: "conv13_2_mbox_conf"
  param {
    lr_mult: 1
    decay_mult: 1
  }
  param {
    lr_mult: 2
    decay_mult: 0
  }
  convolution_param {
    num_output: 28
    pad: 1
    kernel_size: 3
    stride: 1
    weight_filler {
      type: "xavier"
    }
    bias_filler {
      type: "constant"
      value: 0
    }
  }
}
layer {
  name: "conv13_2_mbox_conf_perm"
  type: "Permute"
  bottom: "conv13_2_mbox_conf"
  top: "conv13_2_mbox_conf_perm"
  permute_param {
    order: 0
    order: 2
    order: 3
    order: 1
  }
}
layer {
  name: "conv13_2_mbox_conf_flat"
  type: "Flatten"
  bottom: "conv13_2_mbox_conf_perm"
  top: "conv13_2_mbox_conf_flat"
  flatten_param {
    axis: 1
  }
}
layer {
  name: "conv13_2_mbox_priorbox"
  type: "PriorBox"
  bottom: "conv13_2"
  bottom: "data"
  top: "conv13_2_mbox_priorbox"
  prior_box_param {
    min_size: 264
    max_size: 315
    aspect_ratio: 2
    flip: true
    clip: false
    variance: 0.1
    variance: 0.1
    variance: 0.2
    variance: 0.2
    step: 300
    offset: 0.5
  }
}
layer {
  name: "mbox_loc"
  type: "Concat"
  bottom: "fire4_mbox_loc_flat"
  bottom: "fire8_mbox_loc_flat"
  bottom: "fire9_mbox_loc_flat"
  bottom: "fire10_mbox_loc_flat"
  bottom: "conv12_2_mbox_loc_flat"
  bottom: "conv13_2_mbox_loc_flat"
  top: "mbox_loc"
  concat_param {
    axis: 1
  }
}
layer {
  name: "mbox_conf"
  type: "Concat"
  bottom: "fire4_mbox_conf_flat"
  bottom: "fire8_mbox_conf_flat"
  bottom: "fire9_mbox_conf_flat"
  bottom: "fire10_mbox_conf_flat"
  bottom: "conv12_2_mbox_conf_flat"
  bottom: "conv13_2_mbox_conf_flat"
  top: "mbox_conf"
  concat_param {
    axis: 1
  }
}
layer {
  name: "mbox_priorbox"
  type: "Concat"
  bottom: "fire4_mbox_priorbox"
  bottom: "fire8_mbox_priorbox"
  bottom: "fire9_mbox_priorbox"
  bottom: "fire10_mbox_priorbox"
  bottom: "conv12_2_mbox_priorbox"
  bottom: "conv13_2_mbox_priorbox"
  top: "mbox_priorbox"
  concat_param {
    axis: 2
  }
}
layer {
  name: "mbox_loss"
  type: "MultiBoxLoss"
  bottom: "mbox_loc"
  bottom: "mbox_conf"
  bottom: "mbox_priorbox"
  bottom: "label"
  top: "mbox_loss"
  include {
    phase: TRAIN
  }
  propagate_down: true
  propagate_down: true
  propagate_down: false
  propagate_down: false
  loss_param {
    normalization: VALID
  }
  multibox_loss_param {
    loc_loss_type: SMOOTH_L
I0405 21:44:36.039477  3807 layer_factory.hpp:77] Creating layer data
I0405 21:44:36.039604  3807 net.cpp:100] Creating Layer data
I0405 21:44:36.039616  3807 net.cpp:408] data -> data
I0405 21:44:36.039645  3807 net.cpp:408] data -> label
I0405 21:44:36.040408  3821 db_lmdb.cpp:35] Opened lmdb trainval_lmdb
I0405 21:44:36.053490  3807 annotated_data_layer.cpp:62] output data size: 4,3,300,300
I0405 21:44:36.060377  3807 net.cpp:150] Setting up data
I0405 21:44:36.060415  3807 net.cpp:157] Top shape: 4 3 300 300 (1080000)
I0405 21:44:36.060422  3807 net.cpp:157] Top shape: 1 1 1 8 (8)
I0405 21:44:36.060426  3807 net.cpp:165] Memory required for data: 4320032
I0405 21:44:36.060436  3807 layer_factory.hpp:77] Creating layer data_data_0_split
I0405 21:44:36.060448  3807 net.cpp:100] Creating Layer data_data_0_split
I0405 21:44:36.060454  3807 net.cpp:434] data_data_0_split <- data
I0405 21:44:36.060467  3807 net.cpp:408] data_data_0_split -> data_data_0_split_0
I0405 21:44:36.060477  3807 net.cpp:408] data_data_0_split -> data_data_0_split_1
I0405 21:44:36.060483  3807 net.cpp:408] data_data_0_split -> data_data_0_split_2
I0405 21:44:36.060490  3807 net.cpp:408] data_data_0_split -> data_data_0_split_3
I0405 21:44:36.060495  3807 net.cpp:408] data_data_0_split -> data_data_0_split_4
I0405 21:44:36.060501  3807 net.cpp:408] data_data_0_split -> data_data_0_split_5
I0405 21:44:36.060506  3807 net.cpp:408] data_data_0_split -> data_data_0_split_6
I0405 21:44:36.060575  3807 net.cpp:150] Setting up data_data_0_split
I0405 21:44:36.060581  3807 net.cpp:157] Top shape: 4 3 300 300 (1080000)
I0405 21:44:36.060586  3807 net.cpp:157] Top shape: 4 3 300 300 (1080000)
I0405 21:44:36.060591  3807 net.cpp:157] Top shape: 4 3 300 300 (1080000)
I0405 21:44:36.060595  3807 net.cpp:157] Top shape: 4 3 300 300 (1080000)
I0405 21:44:36.060600  3807 net.cpp:157] Top shape: 4 3 300 300 (1080000)
I0405 21:44:36.060605  3807 net.cpp:157] Top shape: 4 3 300 300 (1080000)
I0405 21:44:36.060626  3807 net.cpp:157] Top shape: 4 3 300 300 (1080000)
I0405 21:44:36.060631  3807 net.cpp:165] Memory required for data: 34560032
I0405 21:44:36.060634  3807 layer_factory.hpp:77] Creating layer conv1
I0405 21:44:36.060652  3807 net.cpp:100] Creating Layer conv1
I0405 21:44:36.060657  3807 net.cpp:434] conv1 <- data_data_0_split_0
I0405 21:44:36.060663  3807 net.cpp:408] conv1 -> conv1
I0405 21:44:36.356972  3807 net.cpp:150] Setting up conv1
I0405 21:44:36.357008  3807 net.cpp:157] Top shape: 4 57 149 149 (5061828)
I0405 21:44:36.357014  3807 net.cpp:165] Memory required for data: 54807344
I0405 21:44:36.357031  3807 layer_factory.hpp:77] Creating layer relu1_1
I0405 21:44:36.357041  3807 net.cpp:100] Creating Layer relu1_1
I0405 21:44:36.357048  3807 net.cpp:434] relu1_1 <- conv1
I0405 21:44:36.357055  3807 net.cpp:395] relu1_1 -> conv1 (in-place)
I0405 21:44:36.357408  3807 net.cpp:150] Setting up relu1_1
I0405 21:44:36.357419  3807 net.cpp:157] Top shape: 4 57 149 149 (5061828)
I0405 21:44:36.357432  3807 net.cpp:165] Memory required for data: 75054656
I0405 21:44:36.357436  3807 layer_factory.hpp:77] Creating layer pool1
I0405 21:44:36.357445  3807 net.cpp:100] Creating Layer pool1
I0405 21:44:36.357450  3807 net.cpp:434] pool1 <- conv1
I0405 21:44:36.357455  3807 net.cpp:408] pool1 -> pool1
I0405 21:44:36.357494  3807 net.cpp:150] Setting up pool1
I0405 21:44:36.357501  3807 net.cpp:157] Top shape: 4 57 74 74 (1248528)
I0405 21:44:36.357504  3807 net.cpp:165] Memory required for data: 80048768
I0405 21:44:36.357509  3807 layer_factory.hpp:77] Creating layer fire1/squeeze1x1
I0405 21:44:36.357518  3807 net.cpp:100] Creating Layer fire1/squeeze1x1
I0405 21:44:36.357522  3807 net.cpp:434] fire1/squeeze1x1 <- pool1
I0405 21:44:36.357527  3807 net.cpp:408] fire1/squeeze1x1 -> fire1/squeeze1x1
I0405 21:44:36.359416  3807 net.cpp:150] Setting up fire1/squeeze1x1
I0405 21:44:36.359428  3807 net.cpp:157] Top shape: 4 15 74 74 (328560)
I0405 21:44:36.359433  3807 net.cpp:165] Memory required for data: 81363008
I0405 21:44:36.359442  3807 layer_factory.hpp:77] Creating layer fire1/relu_squeeze1x1
I0405 21:44:36.359449  3807 net.cpp:100] Creating Layer fire1/relu_squeeze1x1
I0405 21:44:36.359453  3807 net.cpp:434] fire1/relu_squeeze1x1 <- fire1/squeeze1x1
I0405 21:44:36.359459  3807 net.cpp:395] fire1/relu_squeeze1x1 -> fire1/squeeze1x1 (in-place)
I0405 21:44:36.359592  3807 net.cpp:150] Setting up fire1/relu_squeeze1x1
I0405 21:44:36.359601  3807 net.cpp:157] Top shape: 4 15 74 74 (328560)
I0405 21:44:36.359606  3807 net.cpp:165] Memory required for data: 82677248
I0405 21:44:36.359608  3807 layer_factory.hpp:77] Creating layer fire1/squeeze1x1_fire1/relu_squeeze1x1_0_split
I0405 21:44:36.359616  3807 net.cpp:100] Creating Layer fire1/squeeze1x1_fire1/relu_squeeze1x1_0_split
I0405 21:44:36.359619  3807 net.cpp:434] fire1/squeeze1x1_fire1/relu_squeeze1x1_0_split <- fire1/squeeze1x1
I0405 21:44:36.359624  3807 net.cpp:408] fire1/squeeze1x1_fire1/relu_squeeze1x1_0_split -> fire1/squeeze1x1_fire1/relu_squeeze1x1_0_split_0
I0405 21:44:36.359632  3807 net.cpp:408] fire1/squeeze1x1_fire1/relu_squeeze1x1_0_split -> fire1/squeeze1x1_fire1/relu_squeeze1x1_0_split_1
I0405 21:44:36.359661  3807 net.cpp:150] Setting up fire1/squeeze1x1_fire1/relu_squeeze1x1_0_split
I0405 21:44:36.359668  3807 net.cpp:157] Top shape: 4 15 74 74 (328560)
I0405 21:44:36.359671  3807 net.cpp:157] Top shape: 4 15 74 74 (328560)
I0405 21:44:36.359674  3807 net.cpp:165] Memory required for data: 85305728
I0405 21:44:36.359678  3807 layer_factory.hpp:77] Creating layer fire1/expand1x1
I0405 21:44:36.359688  3807 net.cpp:100] Creating Layer fire1/expand1x1
I0405 21:44:36.359691  3807 net.cpp:434] fire1/expand1x1 <- fire1/squeeze1x1_fire1/relu_squeeze1x1_0_split_0
I0405 21:44:36.359696  3807 net.cpp:408] fire1/expand1x1 -> fire1/expand1x1
I0405 21:44:36.360687  3807 net.cpp:150] Setting up fire1/expand1x1
I0405 21:44:36.360705  3807 net.cpp:157] Top shape: 4 49 74 74 (1073296)
I0405 21:44:36.360709  3807 net.cpp:165] Memory required for data: 89598912
I0405 21:44:36.360734  3807 layer_factory.hpp:77] Creating layer fire1/relu_expand1x1
I0405 21:44:36.360741  3807 net.cpp:100] Creating Layer fire1/relu_expand1x1
I0405 21:44:36.360745  3807 net.cpp:434] fire1/relu_expand1x1 <- fire1/expand1x1
I0405 21:44:36.360751  3807 net.cpp:395] fire1/relu_expand1x1 -> fire1/expand1x1 (in-place)
I0405 21:44:36.361088  3807 net.cpp:150] Setting up fire1/relu_expand1x1
I0405 21:44:36.361099  3807 net.cpp:157] Top shape: 4 49 74 74 (1073296)
I0405 21:44:36.361102  3807 net.cpp:165] Memory required for data: 93892096
I0405 21:44:36.361105  3807 layer_factory.hpp:77] Creating layer fire1/expand3x3
I0405 21:44:36.361117  3807 net.cpp:100] Creating Layer fire1/expand3x3
I0405 21:44:36.361122  3807 net.cpp:434] fire1/expand3x3 <- fire1/squeeze1x1_fire1/relu_squeeze1x1_0_split_1
I0405 21:44:36.361127  3807 net.cpp:408] fire1/expand3x3 -> fire1/expand3x3
I0405 21:44:36.362152  3807 net.cpp:150] Setting up fire1/expand3x3
I0405 21:44:36.362164  3807 net.cpp:157] Top shape: 4 53 74 74 (1160912)
I0405 21:44:36.362167  3807 net.cpp:165] Memory required for data: 98535744
I0405 21:44:36.362174  3807 layer_factory.hpp:77] Creating layer fire1/relu_expand3x3
I0405 21:44:36.362179  3807 net.cpp:100] Creating Layer fire1/relu_expand3x3
I0405 21:44:36.362184  3807 net.cpp:434] fire1/relu_expand3x3 <- fire1/expand3x3
I0405 21:44:36.362188  3807 net.cpp:395] fire1/relu_expand3x3 -> fire1/expand3x3 (in-place)
I0405 21:44:36.362408  3807 net.cpp:150] Setting up fire1/relu_expand3x3
I0405 21:44:36.362418  3807 net.cpp:157] Top shape: 4 53 74 74 (1160912)
I0405 21:44:36.362422  3807 net.cpp:165] Memory required for data: 103179392
I0405 21:44:36.362426  3807 layer_factory.hpp:77] Creating layer fire1/concat
I0405 21:44:36.362432  3807 net.cpp:100] Creating Layer fire1/concat
I0405 21:44:36.362437  3807 net.cpp:434] fire1/concat <- fire1/expand1x1
I0405 21:44:36.362442  3807 net.cpp:434] fire1/concat <- fire1/expand3x3
I0405 21:44:36.362447  3807 net.cpp:408] fire1/concat -> fire1/concat
I0405 21:44:36.362471  3807 net.cpp:150] Setting up fire1/concat
I0405 21:44:36.362478  3807 net.cpp:157] Top shape: 4 102 74 74 (2234208)
I0405 21:44:36.362481  3807 net.cpp:165] Memory required for data: 112116224
I0405 21:44:36.362484  3807 layer_factory.hpp:77] Creating layer fire2/squeeze1x1
I0405 21:44:36.362491  3807 net.cpp:100] Creating Layer fire2/squeeze1x1
I0405 21:44:36.362495  3807 net.cpp:434] fire2/squeeze1x1 <- fire1/concat
I0405 21:44:36.362500  3807 net.cpp:408] fire2/squeeze1x1 -> fire2/squeeze1x1
I0405 21:44:36.363485  3807 net.cpp:150] Setting up fire2/squeeze1x1
I0405 21:44:36.363497  3807 net.cpp:157] Top shape: 4 15 74 74 (328560)
I0405 21:44:36.363500  3807 net.cpp:165] Memory required for data: 113430464
I0405 21:44:36.363507  3807 layer_factory.hpp:77] Creating layer fire2/relu_squeeze1x1
I0405 21:44:36.363514  3807 net.cpp:100] Creating Layer fire2/relu_squeeze1x1
I0405 21:44:36.363518  3807 net.cpp:434] fire2/relu_squeeze1x1 <- fire2/squeeze1x1
I0405 21:44:36.363523  3807 net.cpp:395] fire2/relu_squeeze1x1 -> fire2/squeeze1x1 (in-place)
I0405 21:44:36.363857  3807 net.cpp:150] Setting up fire2/relu_squeeze1x1
I0405 21:44:36.363867  3807 net.cpp:157] Top shape: 4 15 74 74 (328560)
I0405 21:44:36.363871  3807 net.cpp:165] Memory required for data: 114744704
I0405 21:44:36.363874  3807 layer_factory.hpp:77] Creating layer fire2/squeeze1x1_fire2/relu_squeeze1x1_0_split
I0405 21:44:36.363881  3807 net.cpp:100] Creating Layer fire2/squeeze1x1_fire2/relu_squeeze1x1_0_split
I0405 21:44:36.363885  3807 net.cpp:434] fire2/squeeze1x1_fire2/relu_squeeze1x1_0_split <- fire2/squeeze1x1
I0405 21:44:36.363891  3807 net.cpp:408] fire2/squeeze1x1_fire2/relu_squeeze1x1_0_split -> fire2/squeeze1x1_fire2/relu_squeeze1x1_0_split_0
I0405 21:44:36.363898  3807 net.cpp:408] fire2/squeeze1x1_fire2/relu_squeeze1x1_0_split -> fire2/squeeze1x1_fire2/relu_squeeze1x1_0_split_1
I0405 21:44:36.363929  3807 net.cpp:150] Setting up fire2/squeeze1x1_fire2/relu_squeeze1x1_0_split
I0405 21:44:36.363946  3807 net.cpp:157] Top shape: 4 15 74 74 (328560)
I0405 21:44:36.363951  3807 net.cpp:157] Top shape: 4 15 74 74 (328560)
I0405 21:44:36.363955  3807 net.cpp:165] Memory required for data: 117373184
I0405 21:44:36.363958  3807 layer_factory.hpp:77] Creating layer fire2/expand1x1
I0405 21:44:36.363967  3807 net.cpp:100] Creating Layer fire2/expand1x1
I0405 21:44:36.363971  3807 net.cpp:434] fire2/expand1x1 <- fire2/squeeze1x1_fire2/relu_squeeze1x1_0_split_0
I0405 21:44:36.363979  3807 net.cpp:408] fire2/expand1x1 -> fire2/expand1x1
I0405 21:44:36.365141  3807 net.cpp:150] Setting up fire2/expand1x1
I0405 21:44:36.365154  3807 net.cpp:157] Top shape: 4 54 74 74 (1182816)
I0405 21:44:36.365159  3807 net.cpp:165] Memory required for data: 122104448
I0405 21:44:36.365165  3807 layer_factory.hpp:77] Creating layer fire2/relu_expand1x1
I0405 21:44:36.365172  3807 net.cpp:100] Creating Layer fire2/relu_expand1x1
I0405 21:44:36.365177  3807 net.cpp:434] fire2/relu_expand1x1 <- fire2/expand1x1
I0405 21:44:36.365182  3807 net.cpp:395] fire2/relu_expand1x1 -> fire2/expand1x1 (in-place)
I0405 21:44:36.365556  3807 net.cpp:150] Setting up fire2/relu_expand1x1
I0405 21:44:36.365569  3807 net.cpp:157] Top shape: 4 54 74 74 (1182816)
I0405 21:44:36.365576  3807 net.cpp:165] Memory required for data: 126835712
I0405 21:44:36.365582  3807 layer_factory.hpp:77] Creating layer fire2/expand3x3
I0405 21:44:36.365594  3807 net.cpp:100] Creating Layer fire2/expand3x3
I0405 21:44:36.365600  3807 net.cpp:434] fire2/expand3x3 <- fire2/squeeze1x1_fire2/relu_squeeze1x1_0_split_1
I0405 21:44:36.365607  3807 net.cpp:408] fire2/expand3x3 -> fire2/expand3x3
I0405 21:44:36.366948  3807 net.cpp:150] Setting up fire2/expand3x3
I0405 21:44:36.366973  3807 net.cpp:157] Top shape: 4 52 74 74 (1139008)
I0405 21:44:36.366979  3807 net.cpp:165] Memory required for data: 131391744
I0405 21:44:36.367002  3807 layer_factory.hpp:77] Creating layer fire2/relu_expand3x3
I0405 21:44:36.367010  3807 net.cpp:100] Creating Layer fire2/relu_expand3x3
I0405 21:44:36.367017  3807 net.cpp:434] fire2/relu_expand3x3 <- fire2/expand3x3
I0405 21:44:36.367025  3807 net.cpp:395] fire2/relu_expand3x3 -> fire2/expand3x3 (in-place)
I0405 21:44:36.367242  3807 net.cpp:150] Setting up fire2/relu_expand3x3
I0405 21:44:36.367252  3807 net.cpp:157] Top shape: 4 52 74 74 (1139008)
I0405 21:44:36.367256  3807 net.cpp:165] Memory required for data: 135947776
I0405 21:44:36.367259  3807 layer_factory.hpp:77] Creating layer fire2/concat
I0405 21:44:36.367266  3807 net.cpp:100] Creating Layer fire2/concat
I0405 21:44:36.367270  3807 net.cpp:434] fire2/concat <- fire2/expand1x1
I0405 21:44:36.367274  3807 net.cpp:434] fire2/concat <- fire2/expand3x3
I0405 21:44:36.367280  3807 net.cpp:408] fire2/concat -> fire2/concat
I0405 21:44:36.367306  3807 net.cpp:150] Setting up fire2/concat
I0405 21:44:36.367312  3807 net.cpp:157] Top shape: 4 106 74 74 (2321824)
I0405 21:44:36.367316  3807 net.cpp:165] Memory required for data: 145235072
I0405 21:44:36.367321  3807 layer_factory.hpp:77] Creating layer pool3
I0405 21:44:36.367326  3807 net.cpp:100] Creating Layer pool3
I0405 21:44:36.367331  3807 net.cpp:434] pool3 <- fire2/concat
I0405 21:44:36.367336  3807 net.cpp:408] pool3 -> pool3
I0405 21:44:36.367365  3807 net.cpp:150] Setting up pool3
I0405 21:44:36.367372  3807 net.cpp:157] Top shape: 4 106 37 37 (580456)
I0405 21:44:36.367375  3807 net.cpp:165] Memory required for data: 147556896
I0405 21:44:36.367379  3807 layer_factory.hpp:77] Creating layer fire3/squeeze1x1
I0405 21:44:36.367386  3807 net.cpp:100] Creating Layer fire3/squeeze1x1
I0405 21:44:36.367390  3807 net.cpp:434] fire3/squeeze1x1 <- pool3
I0405 21:44:36.367395  3807 net.cpp:408] fire3/squeeze1x1 -> fire3/squeeze1x1
I0405 21:44:36.368909  3807 net.cpp:150] Setting up fire3/squeeze1x1
I0405 21:44:36.368928  3807 net.cpp:157] Top shape: 4 29 37 37 (158804)
I0405 21:44:36.368933  3807 net.cpp:165] Memory required for data: 148192112
I0405 21:44:36.368942  3807 layer_factory.hpp:77] Creating layer fire3/relu_squeeze1x1
I0405 21:44:36.368963  3807 net.cpp:100] Creating Layer fire3/relu_squeeze1x1
I0405 21:44:36.368969  3807 net.cpp:434] fire3/relu_squeeze1x1 <- fire3/squeeze1x1
I0405 21:44:36.368975  3807 net.cpp:395] fire3/relu_squeeze1x1 -> fire3/squeeze1x1 (in-place)
I0405 21:44:36.369345  3807 net.cpp:150] Setting up fire3/relu_squeeze1x1
I0405 21:44:36.369357  3807 net.cpp:157] Top shape: 4 29 37 37 (158804)
I0405 21:44:36.369361  3807 net.cpp:165] Memory required for data: 148827328
I0405 21:44:36.369365  3807 layer_factory.hpp:77] Creating layer fire3/squeeze1x1_fire3/relu_squeeze1x1_0_split
I0405 21:44:36.369372  3807 net.cpp:100] Creating Layer fire3/squeeze1x1_fire3/relu_squeeze1x1_0_split
I0405 21:44:36.369377  3807 net.cpp:434] fire3/squeeze1x1_fire3/relu_squeeze1x1_0_split <- fire3/squeeze1x1
I0405 21:44:36.369383  3807 net.cpp:408] fire3/squeeze1x1_fire3/relu_squeeze1x1_0_split -> fire3/squeeze1x1_fire3/relu_squeeze1x1_0_split_0
I0405 21:44:36.369390  3807 net.cpp:408] fire3/squeeze1x1_fire3/relu_squeeze1x1_0_split -> fire3/squeeze1x1_fire3/relu_squeeze1x1_0_split_1
I0405 21:44:36.369436  3807 net.cpp:150] Setting up fire3/squeeze1x1_fire3/relu_squeeze1x1_0_split
I0405 21:44:36.369442  3807 net.cpp:157] Top shape: 4 29 37 37 (158804)
I0405 21:44:36.369446  3807 net.cpp:157] Top shape: 4 29 37 37 (158804)
I0405 21:44:36.369449  3807 net.cpp:165] Memory required for data: 150097760
I0405 21:44:36.369453  3807 layer_factory.hpp:77] Creating layer fire3/expand1x1
I0405 21:44:36.369462  3807 net.cpp:100] Creating Layer fire3/expand1x1
I0405 21:44:36.369467  3807 net.cpp:434] fire3/expand1x1 <- fire3/squeeze1x1_fire3/relu_squeeze1x1_0_split_0
I0405 21:44:36.369472  3807 net.cpp:408] fire3/expand1x1 -> fire3/expand1x1
I0405 21:44:36.370568  3807 net.cpp:150] Setting up fire3/expand1x1
I0405 21:44:36.370579  3807 net.cpp:157] Top shape: 4 92 37 37 (503792)
I0405 21:44:36.370584  3807 net.cpp:165] Memory required for data: 152112928
I0405 21:44:36.370595  3807 layer_factory.hpp:77] Creating layer fire3/relu_expand1x1
I0405 21:44:36.370604  3807 net.cpp:100] Creating Layer fire3/relu_expand1x1
I0405 21:44:36.370607  3807 net.cpp:434] fire3/relu_expand1x1 <- fire3/expand1x1
I0405 21:44:36.370612  3807 net.cpp:395] fire3/relu_expand1x1 -> fire3/expand1x1 (in-place)
I0405 21:44:36.370749  3807 net.cpp:150] Setting up fire3/relu_expand1x1
I0405 21:44:36.370757  3807 net.cpp:157] Top shape: 4 92 37 37 (503792)
I0405 21:44:36.370761  3807 net.cpp:165] Memory required for data: 154128096
I0405 21:44:36.370765  3807 layer_factory.hpp:77] Creating layer fire3/expand3x3
I0405 21:44:36.370774  3807 net.cpp:100] Creating Layer fire3/expand3x3
I0405 21:44:36.370779  3807 net.cpp:434] fire3/expand3x3 <- fire3/squeeze1x1_fire3/relu_squeeze1x1_0_split_1
I0405 21:44:36.370784  3807 net.cpp:408] fire3/expand3x3 -> fire3/expand3x3
I0405 21:44:36.371982  3807 net.cpp:150] Setting up fire3/expand3x3
I0405 21:44:36.371996  3807 net.cpp:157] Top shape: 4 94 37 37 (514744)
I0405 21:44:36.372000  3807 net.cpp:165] Memory required for data: 156187072
I0405 21:44:36.372009  3807 layer_factory.hpp:77] Creating layer fire3/relu_expand3x3
I0405 21:44:36.372014  3807 net.cpp:100] Creating Layer fire3/relu_expand3x3
I0405 21:44:36.372020  3807 net.cpp:434] fire3/relu_expand3x3 <- fire3/expand3x3
I0405 21:44:36.372025  3807 net.cpp:395] fire3/relu_expand3x3 -> fire3/expand3x3 (in-place)
I0405 21:44:36.372376  3807 net.cpp:150] Setting up fire3/relu_expand3x3
I0405 21:44:36.372390  3807 net.cpp:157] Top shape: 4 94 37 37 (514744)
I0405 21:44:36.372395  3807 net.cpp:165] Memory required for data: 158246048
I0405 21:44:36.372402  3807 layer_factory.hpp:77] Creating layer fire3/concat
I0405 21:44:36.372411  3807 net.cpp:100] Creating Layer fire3/concat
I0405 21:44:36.372417  3807 net.cpp:434] fire3/concat <- fire3/expand1x1
I0405 21:44:36.372426  3807 net.cpp:434] fire3/concat <- fire3/expand3x3
I0405 21:44:36.372431  3807 net.cpp:408] fire3/concat -> fire3/concat
I0405 21:44:36.372460  3807 net.cpp:150] Setting up fire3/concat
I0405 21:44:36.372467  3807 net.cpp:157] Top shape: 4 186 37 37 (1018536)
I0405 21:44:36.372490  3807 net.cpp:165] Memory required for data: 162320192
I0405 21:44:36.372496  3807 layer_factory.hpp:77] Creating layer fire4/squeeze1x1
I0405 21:44:36.372506  3807 net.cpp:100] Creating Layer fire4/squeeze1x1
I0405 21:44:36.372511  3807 net.cpp:434] fire4/squeeze1x1 <- fire3/concat
I0405 21:44:36.372519  3807 net.cpp:408] fire4/squeeze1x1 -> fire4/squeeze1x1
I0405 21:44:36.373625  3807 net.cpp:150] Setting up fire4/squeeze1x1
I0405 21:44:36.373638  3807 net.cpp:157] Top shape: 4 29 37 37 (158804)
I0405 21:44:36.373644  3807 net.cpp:165] Memory required for data: 162955408
I0405 21:44:36.373654  3807 layer_factory.hpp:77] Creating layer fire4/relu_squeeze1x1
I0405 21:44:36.373663  3807 net.cpp:100] Creating Layer fire4/relu_squeeze1x1
I0405 21:44:36.373668  3807 net.cpp:434] fire4/relu_squeeze1x1 <- fire4/squeeze1x1
I0405 21:44:36.373677  3807 net.cpp:395] fire4/relu_squeeze1x1 -> fire4/squeeze1x1 (in-place)
I0405 21:44:36.374047  3807 net.cpp:150] Setting up fire4/relu_squeeze1x1
I0405 21:44:36.374059  3807 net.cpp:157] Top shape: 4 29 37 37 (158804)
I0405 21:44:36.374065  3807 net.cpp:165] Memory required for data: 163590624
I0405 21:44:36.374073  3807 layer_factory.hpp:77] Creating layer fire4/squeeze1x1_fire4/relu_squeeze1x1_0_split
I0405 21:44:36.374091  3807 net.cpp:100] Creating Layer fire4/squeeze1x1_fire4/relu_squeeze1x1_0_split
I0405 21:44:36.374097  3807 net.cpp:434] fire4/squeeze1x1_fire4/relu_squeeze1x1_0_split <- fire4/squeeze1x1
I0405 21:44:36.374105  3807 net.cpp:408] fire4/squeeze1x1_fire4/relu_squeeze1x1_0_split -> fire4/squeeze1x1_fire4/relu_squeeze1x1_0_split_0
I0405 21:44:36.374114  3807 net.cpp:408] fire4/squeeze1x1_fire4/relu_squeeze1x1_0_split -> fire4/squeeze1x1_fire4/relu_squeeze1x1_0_split_1
I0405 21:44:36.374155  3807 net.cpp:150] Setting up fire4/squeeze1x1_fire4/relu_squeeze1x1_0_split
I0405 21:44:36.374163  3807 net.cpp:157] Top shape: 4 29 37 37 (158804)
I0405 21:44:36.374171  3807 net.cpp:157] Top shape: 4 29 37 37 (158804)
I0405 21:44:36.374176  3807 net.cpp:165] Memory required for data: 164861056
I0405 21:44:36.374181  3807 layer_factory.hpp:77] Creating layer fire4/expand1x1
I0405 21:44:36.374188  3807 net.cpp:100] Creating Layer fire4/expand1x1
I0405 21:44:36.374193  3807 net.cpp:434] fire4/expand1x1 <- fire4/squeeze1x1_fire4/relu_squeeze1x1_0_split_0
I0405 21:44:36.374198  3807 net.cpp:408] fire4/expand1x1 -> fire4/expand1x1
I0405 21:44:36.375269  3807 net.cpp:150] Setting up fire4/expand1x1
I0405 21:44:36.375283  3807 net.cpp:157] Top shape: 4 90 37 37 (492840)
I0405 21:44:36.375289  3807 net.cpp:165] Memory required for data: 166832416
I0405 21:44:36.375298  3807 layer_factory.hpp:77] Creating layer fire4/relu_expand1x1
I0405 21:44:36.375306  3807 net.cpp:100] Creating Layer fire4/relu_expand1x1
I0405 21:44:36.375313  3807 net.cpp:434] fire4/relu_expand1x1 <- fire4/expand1x1
I0405 21:44:36.375319  3807 net.cpp:395] fire4/relu_expand1x1 -> fire4/expand1x1 (in-place)
I0405 21:44:36.375468  3807 net.cpp:150] Setting up fire4/relu_expand1x1
I0405 21:44:36.375478  3807 net.cpp:157] Top shape: 4 90 37 37 (492840)
I0405 21:44:36.375484  3807 net.cpp:165] Memory required for data: 168803776
I0405 21:44:36.375489  3807 layer_factory.hpp:77] Creating layer fire4/expand3x3
I0405 21:44:36.375500  3807 net.cpp:100] Creating Layer fire4/expand3x3
I0405 21:44:36.375505  3807 net.cpp:434] fire4/expand3x3 <- fire4/squeeze1x1_fire4/relu_squeeze1x1_0_split_1
I0405 21:44:36.375512  3807 net.cpp:408] fire4/expand3x3 -> fire4/expand3x3
I0405 21:44:36.376662  3807 net.cpp:150] Setting up fire4/expand3x3
I0405 21:44:36.376675  3807 net.cpp:157] Top shape: 4 83 37 37 (454508)
I0405 21:44:36.376679  3807 net.cpp:165] Memory required for data: 170621808
I0405 21:44:36.376687  3807 layer_factory.hpp:77] Creating layer fire4/relu_expand3x3
I0405 21:44:36.376693  3807 net.cpp:100] Creating Layer fire4/relu_expand3x3
I0405 21:44:36.376698  3807 net.cpp:434] fire4/relu_expand3x3 <- fire4/expand3x3
I0405 21:44:36.376703  3807 net.cpp:395] fire4/relu_expand3x3 -> fire4/expand3x3 (in-place)
I0405 21:44:36.377079  3807 net.cpp:150] Setting up fire4/relu_expand3x3
I0405 21:44:36.377090  3807 net.cpp:157] Top shape: 4 83 37 37 (454508)
I0405 21:44:36.377094  3807 net.cpp:165] Memory required for data: 172439840
I0405 21:44:36.377099  3807 layer_factory.hpp:77] Creating layer fire4/concat
I0405 21:44:36.377105  3807 net.cpp:100] Creating Layer fire4/concat
I0405 21:44:36.377110  3807 net.cpp:434] fire4/concat <- fire4/expand1x1
I0405 21:44:36.377115  3807 net.cpp:434] fire4/concat <- fire4/expand3x3
I0405 21:44:36.377120  3807 net.cpp:408] fire4/concat -> fire4/concat
I0405 21:44:36.377143  3807 net.cpp:150] Setting up fire4/concat
I0405 21:44:36.377149  3807 net.cpp:157] Top shape: 4 173 37 37 (947348)
I0405 21:44:36.377152  3807 net.cpp:165] Memory required for data: 176229232
I0405 21:44:36.377156  3807 layer_factory.hpp:77] Creating layer fire4/concat_fire4/concat_0_split
I0405 21:44:36.377162  3807 net.cpp:100] Creating Layer fire4/concat_fire4/concat_0_split
I0405 21:44:36.377166  3807 net.cpp:434] fire4/concat_fire4/concat_0_split <- fire4/concat
I0405 21:44:36.377171  3807 net.cpp:408] fire4/concat_fire4/concat_0_split -> fire4/concat_fire4/concat_0_split_0
I0405 21:44:36.377179  3807 net.cpp:408] fire4/concat_fire4/concat_0_split -> fire4/concat_fire4/concat_0_split_1
I0405 21:44:36.377207  3807 net.cpp:150] Setting up fire4/concat_fire4/concat_0_split
I0405 21:44:36.377213  3807 net.cpp:157] Top shape: 4 173 37 37 (947348)
I0405 21:44:36.377218  3807 net.cpp:157] Top shape: 4 173 37 37 (947348)
I0405 21:44:36.377221  3807 net.cpp:165] Memory required for data: 183808016
I0405 21:44:36.377224  3807 layer_factory.hpp:77] Creating layer pool5
I0405 21:44:36.377230  3807 net.cpp:100] Creating Layer pool5
I0405 21:44:36.377234  3807 net.cpp:434] pool5 <- fire4/concat_fire4/concat_0_split_0
I0405 21:44:36.377239  3807 net.cpp:408] pool5 -> pool5
I0405 21:44:36.377267  3807 net.cpp:150] Setting up pool5
I0405 21:44:36.377272  3807 net.cpp:157] Top shape: 4 173 18 18 (224208)
I0405 21:44:36.377275  3807 net.cpp:165] Memory required for data: 184704848
I0405 21:44:36.377279  3807 layer_factory.hpp:77] Creating layer fire5/squeeze1x1
I0405 21:44:36.377290  3807 net.cpp:100] Creating Layer fire5/squeeze1x1
I0405 21:44:36.377295  3807 net.cpp:434] fire5/squeeze1x1 <- pool5
I0405 21:44:36.377300  3807 net.cpp:408] fire5/squeeze1x1 -> fire5/squeeze1x1
I0405 21:44:36.378383  3807 net.cpp:150] Setting up fire5/squeeze1x1
I0405 21:44:36.378396  3807 net.cpp:157] Top shape: 4 44 18 18 (57024)
I0405 21:44:36.378399  3807 net.cpp:165] Memory required for data: 184932944
I0405 21:44:36.378406  3807 layer_factory.hpp:77] Creating layer fire5/relu_squeeze1x1
I0405 21:44:36.378412  3807 net.cpp:100] Creating Layer fire5/relu_squeeze1x1
I0405 21:44:36.378417  3807 net.cpp:434] fire5/relu_squeeze1x1 <- fire5/squeeze1x1
I0405 21:44:36.378422  3807 net.cpp:395] fire5/relu_squeeze1x1 -> fire5/squeeze1x1 (in-place)
I0405 21:44:36.378608  3807 net.cpp:150] Setting up fire5/relu_squeeze1x1
I0405 21:44:36.378624  3807 net.cpp:157] Top shape: 4 44 18 18 (57024)
I0405 21:44:36.378628  3807 net.cpp:165] Memory required for data: 185161040
I0405 21:44:36.378631  3807 layer_factory.hpp:77] Creating layer fire5/squeeze1x1_fire5/relu_squeeze1x1_0_split
I0405 21:44:36.378638  3807 net.cpp:100] Creating Layer fire5/squeeze1x1_fire5/relu_squeeze1x1_0_split
I0405 21:44:36.378643  3807 net.cpp:434] fire5/squeeze1x1_fire5/relu_squeeze1x1_0_split <- fire5/squeeze1x1
I0405 21:44:36.378648  3807 net.cpp:408] fire5/squeeze1x1_fire5/relu_squeeze1x1_0_split -> fire5/squeeze1x1_fire5/relu_squeeze1x1_0_split_0
I0405 21:44:36.378661  3807 net.cpp:408] fire5/squeeze1x1_fire5/relu_squeeze1x1_0_split -> fire5/squeeze1x1_fire5/relu_squeeze1x1_0_split_1
I0405 21:44:36.378695  3807 net.cpp:150] Setting up fire5/squeeze1x1_fire5/relu_squeeze1x1_0_split
I0405 21:44:36.378700  3807 net.cpp:157] Top shape: 4 44 18 18 (57024)
I0405 21:44:36.378705  3807 net.cpp:157] Top shape: 4 44 18 18 (57024)
I0405 21:44:36.378706  3807 net.cpp:165] Memory required for data: 185617232
I0405 21:44:36.378723  3807 layer_factory.hpp:77] Creating layer fire5/expand1x1
I0405 21:44:36.378731  3807 net.cpp:100] Creating Layer fire5/expand1x1
I0405 21:44:36.378736  3807 net.cpp:434] fire5/expand1x1 <- fire5/squeeze1x1_fire5/relu_squeeze1x1_0_split_0
I0405 21:44:36.378741  3807 net.cpp:408] fire5/expand1x1 -> fire5/expand1x1
I0405 21:44:36.379889  3807 net.cpp:150] Setting up fire5/expand1x1
I0405 21:44:36.379904  3807 net.cpp:157] Top shape: 4 166 18 18 (215136)
I0405 21:44:36.379909  3807 net.cpp:165] Memory required for data: 186477776
I0405 21:44:36.379915  3807 layer_factory.hpp:77] Creating layer fire5/relu_expand1x1
I0405 21:44:36.379922  3807 net.cpp:100] Creating Layer fire5/relu_expand1x1
I0405 21:44:36.379927  3807 net.cpp:434] fire5/relu_expand1x1 <- fire5/expand1x1
I0405 21:44:36.379932  3807 net.cpp:395] fire5/relu_expand1x1 -> fire5/expand1x1 (in-place)
I0405 21:44:36.380290  3807 net.cpp:150] Setting up fire5/relu_expand1x1
I0405 21:44:36.380300  3807 net.cpp:157] Top shape: 4 166 18 18 (215136)
I0405 21:44:36.380304  3807 net.cpp:165] Memory required for data: 187338320
I0405 21:44:36.380309  3807 layer_factory.hpp:77] Creating layer fire5/expand3x3
I0405 21:44:36.380317  3807 net.cpp:100] Creating Layer fire5/expand3x3
I0405 21:44:36.380321  3807 net.cpp:434] fire5/expand3x3 <- fire5/squeeze1x1_fire5/relu_squeeze1x1_0_split_1
I0405 21:44:36.380328  3807 net.cpp:408] fire5/expand3x3 -> fire5/expand3x3
I0405 21:44:36.382061  3807 net.cpp:150] Setting up fire5/expand3x3
I0405 21:44:36.382072  3807 net.cpp:157] Top shape: 4 161 18 18 (208656)
I0405 21:44:36.382076  3807 net.cpp:165] Memory required for data: 188172944
I0405 21:44:36.382083  3807 layer_factory.hpp:77] Creating layer fire5/relu_expand3x3
I0405 21:44:36.382097  3807 net.cpp:100] Creating Layer fire5/relu_expand3x3
I0405 21:44:36.382103  3807 net.cpp:434] fire5/relu_expand3x3 <- fire5/expand3x3
I0405 21:44:36.382108  3807 net.cpp:395] fire5/relu_expand3x3 -> fire5/expand3x3 (in-place)
I0405 21:44:36.382462  3807 net.cpp:150] Setting up fire5/relu_expand3x3
I0405 21:44:36.382472  3807 net.cpp:157] Top shape: 4 161 18 18 (208656)
I0405 21:44:36.382477  3807 net.cpp:165] Memory required for data: 189007568
I0405 21:44:36.382480  3807 layer_factory.hpp:77] Creating layer fire5/concat
I0405 21:44:36.382486  3807 net.cpp:100] Creating Layer fire5/concat
I0405 21:44:36.382491  3807 net.cpp:434] fire5/concat <- fire5/expand1x1
I0405 21:44:36.382496  3807 net.cpp:434] fire5/concat <- fire5/expand3x3
I0405 21:44:36.382501  3807 net.cpp:408] fire5/concat -> fire5/concat
I0405 21:44:36.382525  3807 net.cpp:150] Setting up fire5/concat
I0405 21:44:36.382531  3807 net.cpp:157] Top shape: 4 327 18 18 (423792)
I0405 21:44:36.382535  3807 net.cpp:165] Memory required for data: 190702736
I0405 21:44:36.382539  3807 layer_factory.hpp:77] Creating layer fire6/squeeze1x1
I0405 21:44:36.382547  3807 net.cpp:100] Creating Layer fire6/squeeze1x1
I0405 21:44:36.382552  3807 net.cpp:434] fire6/squeeze1x1 <- fire5/concat
I0405 21:44:36.382557  3807 net.cpp:408] fire6/squeeze1x1 -> fire6/squeeze1x1
I0405 21:44:36.383687  3807 net.cpp:150] Setting up fire6/squeeze1x1
I0405 21:44:36.383698  3807 net.cpp:157] Top shape: 4 45 18 18 (58320)
I0405 21:44:36.383703  3807 net.cpp:165] Memory required for data: 190936016
I0405 21:44:36.383713  3807 layer_factory.hpp:77] Creating layer fire6/relu_squeeze1x1
I0405 21:44:36.383719  3807 net.cpp:100] Creating Layer fire6/relu_squeeze1x1
I0405 21:44:36.383724  3807 net.cpp:434] fire6/relu_squeeze1x1 <- fire6/squeeze1x1
I0405 21:44:36.383729  3807 net.cpp:395] fire6/relu_squeeze1x1 -> fire6/squeeze1x1 (in-place)
I0405 21:44:36.383867  3807 net.cpp:150] Setting up fire6/relu_squeeze1x1
I0405 21:44:36.383877  3807 net.cpp:157] Top shape: 4 45 18 18 (58320)
I0405 21:44:36.383882  3807 net.cpp:165] Memory required for data: 191169296
I0405 21:44:36.383885  3807 layer_factory.hpp:77] Creating layer fire6/squeeze1x1_fire6/relu_squeeze1x1_0_split
I0405 21:44:36.383893  3807 net.cpp:100] Creating Layer fire6/squeeze1x1_fire6/relu_squeeze1x1_0_split
I0405 21:44:36.383915  3807 net.cpp:434] fire6/squeeze1x1_fire6/relu_squeeze1x1_0_split <- fire6/squeeze1x1
I0405 21:44:36.383922  3807 net.cpp:408] fire6/squeeze1x1_fire6/relu_squeeze1x1_0_split -> fire6/squeeze1x1_fire6/relu_squeeze1x1_0_split_0
I0405 21:44:36.383929  3807 net.cpp:408] fire6/squeeze1x1_fire6/relu_squeeze1x1_0_split -> fire6/squeeze1x1_fire6/relu_squeeze1x1_0_split_1
I0405 21:44:36.383978  3807 net.cpp:150] Setting up fire6/squeeze1x1_fire6/relu_squeeze1x1_0_split
I0405 21:44:36.383988  3807 net.cpp:157] Top shape: 4 45 18 18 (58320)
I0405 21:44:36.383996  3807 net.cpp:157] Top shape: 4 45 18 18 (58320)
I0405 21:44:36.384002  3807 net.cpp:165] Memory required for data: 191635856
I0405 21:44:36.384008  3807 layer_factory.hpp:77] Creating layer fire6/expand1x1
I0405 21:44:36.384016  3807 net.cpp:100] Creating Layer fire6/expand1x1
I0405 21:44:36.384021  3807 net.cpp:434] fire6/expand1x1 <- fire6/squeeze1x1_fire6/relu_squeeze1x1_0_split_0
I0405 21:44:36.384027  3807 net.cpp:408] fire6/expand1x1 -> fire6/expand1x1
I0405 21:44:36.385157  3807 net.cpp:150] Setting up fire6/expand1x1
I0405 21:44:36.385171  3807 net.cpp:157] Top shape: 4 155 18 18 (200880)
I0405 21:44:36.385176  3807 net.cpp:165] Memory required for data: 192439376
I0405 21:44:36.385185  3807 layer_factory.hpp:77] Creating layer fire6/relu_expand1x1
I0405 21:44:36.385191  3807 net.cpp:100] Creating Layer fire6/relu_expand1x1
I0405 21:44:36.385196  3807 net.cpp:434] fire6/relu_expand1x1 <- fire6/expand1x1
I0405 21:44:36.385202  3807 net.cpp:395] fire6/relu_expand1x1 -> fire6/expand1x1 (in-place)
I0405 21:44:36.385565  3807 net.cpp:150] Setting up fire6/relu_expand1x1
I0405 21:44:36.385576  3807 net.cpp:157] Top shape: 4 155 18 18 (200880)
I0405 21:44:36.385581  3807 net.cpp:165] Memory required for data: 193242896
I0405 21:44:36.385584  3807 layer_factory.hpp:77] Creating layer fire6/expand3x3
I0405 21:44:36.385593  3807 net.cpp:100] Creating Layer fire6/expand3x3
I0405 21:44:36.385598  3807 net.cpp:434] fire6/expand3x3 <- fire6/squeeze1x1_fire6/relu_squeeze1x1_0_split_1
I0405 21:44:36.385604  3807 net.cpp:408] fire6/expand3x3 -> fire6/expand3x3
I0405 21:44:36.387192  3807 net.cpp:150] Setting up fire6/expand3x3
I0405 21:44:36.387207  3807 net.cpp:157] Top shape: 4 146 18 18 (189216)
I0405 21:44:36.387212  3807 net.cpp:165] Memory required for data: 193999760
I0405 21:44:36.387220  3807 layer_factory.hpp:77] Creating layer fire6/relu_expand3x3
I0405 21:44:36.387228  3807 net.cpp:100] Creating Layer fire6/relu_expand3x3
I0405 21:44:36.387233  3807 net.cpp:434] fire6/relu_expand3x3 <- fire6/expand3x3
I0405 21:44:36.387238  3807 net.cpp:395] fire6/relu_expand3x3 -> fire6/expand3x3 (in-place)
I0405 21:44:36.387390  3807 net.cpp:150] Setting up fire6/relu_expand3x3
I0405 21:44:36.387399  3807 net.cpp:157] Top shape: 4 146 18 18 (189216)
I0405 21:44:36.387403  3807 net.cpp:165] Memory required for data: 194756624
I0405 21:44:36.387408  3807 layer_factory.hpp:77] Creating layer fire6/concat
I0405 21:44:36.387413  3807 net.cpp:100] Creating Layer fire6/concat
I0405 21:44:36.387418  3807 net.cpp:434] fire6/concat <- fire6/expand1x1
I0405 21:44:36.387423  3807 net.cpp:434] fire6/concat <- fire6/expand3x3
I0405 21:44:36.387428  3807 net.cpp:408] fire6/concat -> fire6/concat
I0405 21:44:36.387451  3807 net.cpp:150] Setting up fire6/concat
I0405 21:44:36.387457  3807 net.cpp:157] Top shape: 4 301 18 18 (390096)
I0405 21:44:36.387461  3807 net.cpp:165] Memory required for data: 196317008
I0405 21:44:36.387465  3807 layer_factory.hpp:77] Creating layer fire7/squeeze1x1
I0405 21:44:36.387480  3807 net.cpp:100] Creating Layer fire7/squeeze1x1
I0405 21:44:36.387485  3807 net.cpp:434] fire7/squeeze1x1 <- fire6/concat
I0405 21:44:36.387490  3807 net.cpp:408] fire7/squeeze1x1 -> fire7/squeeze1x1
I0405 21:44:36.388710  3807 net.cpp:150] Setting up fire7/squeeze1x1
I0405 21:44:36.388725  3807 net.cpp:157] Top shape: 4 49 18 18 (63504)
I0405 21:44:36.388728  3807 net.cpp:165] Memory required for data: 196571024
I0405 21:44:36.388759  3807 layer_factory.hpp:77] Creating layer fire7/relu_squeeze1x1
I0405 21:44:36.388767  3807 net.cpp:100] Creating Layer fire7/relu_squeeze1x1
I0405 21:44:36.388772  3807 net.cpp:434] fire7/relu_squeeze1x1 <- fire7/squeeze1x1
I0405 21:44:36.388778  3807 net.cpp:395] fire7/relu_squeeze1x1 -> fire7/squeeze1x1 (in-place)
I0405 21:44:36.389137  3807 net.cpp:150] Setting up fire7/relu_squeeze1x1
I0405 21:44:36.389148  3807 net.cpp:157] Top shape: 4 49 18 18 (63504)
I0405 21:44:36.389153  3807 net.cpp:165] Memory required for data: 196825040
I0405 21:44:36.389156  3807 layer_factory.hpp:77] Creating layer fire7/squeeze1x1_fire7/relu_squeeze1x1_0_split
I0405 21:44:36.389163  3807 net.cpp:100] Creating Layer fire7/squeeze1x1_fire7/relu_squeeze1x1_0_split
I0405 21:44:36.389168  3807 net.cpp:434] fire7/squeeze1x1_fire7/relu_squeeze1x1_0_split <- fire7/squeeze1x1
I0405 21:44:36.389174  3807 net.cpp:408] fire7/squeeze1x1_fire7/relu_squeeze1x1_0_split -> fire7/squeeze1x1_fire7/relu_squeeze1x1_0_split_0
I0405 21:44:36.389180  3807 net.cpp:408] fire7/squeeze1x1_fire7/relu_squeeze1x1_0_split -> fire7/squeeze1x1_fire7/relu_squeeze1x1_0_split_1
I0405 21:44:36.389223  3807 net.cpp:150] Setting up fire7/squeeze1x1_fire7/relu_squeeze1x1_0_split
I0405 21:44:36.389230  3807 net.cpp:157] Top shape: 4 49 18 18 (63504)
I0405 21:44:36.389235  3807 net.cpp:157] Top shape: 4 49 18 18 (63504)
I0405 21:44:36.389238  3807 net.cpp:165] Memory required for data: 197333072
I0405 21:44:36.389242  3807 layer_factory.hpp:77] Creating layer fire7/expand1x1
I0405 21:44:36.389250  3807 net.cpp:100] Creating Layer fire7/expand1x1
I0405 21:44:36.389255  3807 net.cpp:434] fire7/expand1x1 <- fire7/squeeze1x1_fire7/relu_squeeze1x1_0_split_0
I0405 21:44:36.389259  3807 net.cpp:408] fire7/expand1x1 -> fire7/expand1x1
I0405 21:44:36.390339  3807 net.cpp:150] Setting up fire7/expand1x1
I0405 21:44:36.390352  3807 net.cpp:157] Top shape: 4 163 18 18 (211248)
I0405 21:44:36.390355  3807 net.cpp:165] Memory required for data: 198178064
I0405 21:44:36.390362  3807 layer_factory.hpp:77] Creating layer fire7/relu_expand1x1
I0405 21:44:36.390367  3807 net.cpp:100] Creating Layer fire7/relu_expand1x1
I0405 21:44:36.390372  3807 net.cpp:434] fire7/relu_expand1x1 <- fire7/expand1x1
I0405 21:44:36.390377  3807 net.cpp:395] fire7/relu_expand1x1 -> fire7/expand1x1 (in-place)
I0405 21:44:36.390725  3807 net.cpp:150] Setting up fire7/relu_expand1x1
I0405 21:44:36.390736  3807 net.cpp:157] Top shape: 4 163 18 18 (211248)
I0405 21:44:36.390740  3807 net.cpp:165] Memory required for data: 199023056
I0405 21:44:36.390743  3807 layer_factory.hpp:77] Creating layer fire7/expand3x3
I0405 21:44:36.390751  3807 net.cpp:100] Creating Layer fire7/expand3x3
I0405 21:44:36.390755  3807 net.cpp:434] fire7/expand3x3 <- fire7/squeeze1x1_fire7/relu_squeeze1x1_0_split_1
I0405 21:44:36.390761  3807 net.cpp:408] fire7/expand3x3 -> fire7/expand3x3
I0405 21:44:36.392886  3807 net.cpp:150] Setting up fire7/expand3x3
I0405 21:44:36.392899  3807 net.cpp:157] Top shape: 4 171 18 18 (221616)
I0405 21:44:36.392904  3807 net.cpp:165] Memory required for data: 199909520
I0405 21:44:36.392910  3807 layer_factory.hpp:77] Creating layer fire7/relu_expand3x3
I0405 21:44:36.392925  3807 net.cpp:100] Creating Layer fire7/relu_expand3x3
I0405 21:44:36.392930  3807 net.cpp:434] fire7/relu_expand3x3 <- fire7/expand3x3
I0405 21:44:36.392935  3807 net.cpp:395] fire7/relu_expand3x3 -> fire7/expand3x3 (in-place)
I0405 21:44:36.393084  3807 net.cpp:150] Setting up fire7/relu_expand3x3
I0405 21:44:36.393092  3807 net.cpp:157] Top shape: 4 171 18 18 (221616)
I0405 21:44:36.393096  3807 net.cpp:165] Memory required for data: 200795984
I0405 21:44:36.393100  3807 layer_factory.hpp:77] Creating layer fire7/concat
I0405 21:44:36.393106  3807 net.cpp:100] Creating Layer fire7/concat
I0405 21:44:36.393110  3807 net.cpp:434] fire7/concat <- fire7/expand1x1
I0405 21:44:36.393115  3807 net.cpp:434] fire7/concat <- fire7/expand3x3
I0405 21:44:36.393119  3807 net.cpp:408] fire7/concat -> fire7/concat
I0405 21:44:36.393144  3807 net.cpp:150] Setting up fire7/concat
I0405 21:44:36.393163  3807 net.cpp:157] Top shape: 4 334 18 18 (432864)
I0405 21:44:36.393167  3807 net.cpp:165] Memory required for data: 202527440
I0405 21:44:36.393172  3807 layer_factory.hpp:77] Creating layer fire8/squeeze1x1
I0405 21:44:36.393190  3807 net.cpp:100] Creating Layer fire8/squeeze1x1
I0405 21:44:36.393194  3807 net.cpp:434] fire8/squeeze1x1 <- fire7/concat
I0405 21:44:36.393199  3807 net.cpp:408] fire8/squeeze1x1 -> fire8/squeeze1x1
I0405 21:44:36.394301  3807 net.cpp:150] Setting up fire8/squeeze1x1
I0405 21:44:36.394313  3807 net.cpp:157] Top shape: 4 25 18 18 (32400)
I0405 21:44:36.394317  3807 net.cpp:165] Memory required for data: 202657040
I0405 21:44:36.394323  3807 layer_factory.hpp:77] Creating layer fire8/relu_squeeze1x1
I0405 21:44:36.394330  3807 net.cpp:100] Creating Layer fire8/relu_squeeze1x1
I0405 21:44:36.394335  3807 net.cpp:434] fire8/relu_squeeze1x1 <- fire8/squeeze1x1
I0405 21:44:36.394340  3807 net.cpp:395] fire8/relu_squeeze1x1 -> fire8/squeeze1x1 (in-place)
I0405 21:44:36.394726  3807 net.cpp:150] Setting up fire8/relu_squeeze1x1
I0405 21:44:36.394737  3807 net.cpp:157] Top shape: 4 25 18 18 (32400)
I0405 21:44:36.394740  3807 net.cpp:165] Memory required for data: 202786640
I0405 21:44:36.394744  3807 layer_factory.hpp:77] Creating layer fire8/squeeze1x1_fire8/relu_squeeze1x1_0_split
I0405 21:44:36.394752  3807 net.cpp:100] Creating Layer fire8/squeeze1x1_fire8/relu_squeeze1x1_0_split
I0405 21:44:36.394755  3807 net.cpp:434] fire8/squeeze1x1_fire8/relu_squeeze1x1_0_split <- fire8/squeeze1x1
I0405 21:44:36.394762  3807 net.cpp:408] fire8/squeeze1x1_fire8/relu_squeeze1x1_0_split -> fire8/squeeze1x1_fire8/relu_squeeze1x1_0_split_0
I0405 21:44:36.394768  3807 net.cpp:408] fire8/squeeze1x1_fire8/relu_squeeze1x1_0_split -> fire8/squeeze1x1_fire8/relu_squeeze1x1_0_split_1
I0405 21:44:36.394807  3807 net.cpp:150] Setting up fire8/squeeze1x1_fire8/relu_squeeze1x1_0_split
I0405 21:44:36.394814  3807 net.cpp:157] Top shape: 4 25 18 18 (32400)
I0405 21:44:36.394819  3807 net.cpp:157] Top shape: 4 25 18 18 (32400)
I0405 21:44:36.394822  3807 net.cpp:165] Memory required for data: 203045840
I0405 21:44:36.394825  3807 layer_factory.hpp:77] Creating layer fire8/expand1x1
I0405 21:44:36.394834  3807 net.cpp:100] Creating Layer fire8/expand1x1
I0405 21:44:36.394837  3807 net.cpp:434] fire8/expand1x1 <- fire8/squeeze1x1_fire8/relu_squeeze1x1_0_split_0
I0405 21:44:36.394842  3807 net.cpp:408] fire8/expand1x1 -> fire8/expand1x1
I0405 21:44:36.396088  3807 net.cpp:150] Setting up fire8/expand1x1
I0405 21:44:36.396101  3807 net.cpp:157] Top shape: 4 29 18 18 (37584)
I0405 21:44:36.396104  3807 net.cpp:165] Memory required for data: 203196176
I0405 21:44:36.396111  3807 layer_factory.hpp:77] Creating layer fire8/relu_expand1x1
I0405 21:44:36.396116  3807 net.cpp:100] Creating Layer fire8/relu_expand1x1
I0405 21:44:36.396121  3807 net.cpp:434] fire8/relu_expand1x1 <- fire8/expand1x1
I0405 21:44:36.396126  3807 net.cpp:395] fire8/relu_expand1x1 -> fire8/expand1x1 (in-place)
I0405 21:44:36.396266  3807 net.cpp:150] Setting up fire8/relu_expand1x1
I0405 21:44:36.396275  3807 net.cpp:157] Top shape: 4 29 18 18 (37584)
I0405 21:44:36.396280  3807 net.cpp:165] Memory required for data: 203346512
I0405 21:44:36.396283  3807 layer_factory.hpp:77] Creating layer fire8/expand3x3
I0405 21:44:36.396291  3807 net.cpp:100] Creating Layer fire8/expand3x3
I0405 21:44:36.396296  3807 net.cpp:434] fire8/expand3x3 <- fire8/squeeze1x1_fire8/relu_squeeze1x1_0_split_1
I0405 21:44:36.396301  3807 net.cpp:408] fire8/expand3x3 -> fire8/expand3x3
I0405 21:44:36.397605  3807 net.cpp:150] Setting up fire8/expand3x3
I0405 21:44:36.397617  3807 net.cpp:157] Top shape: 4 54 18 18 (69984)
I0405 21:44:36.397621  3807 net.cpp:165] Memory required for data: 203626448
I0405 21:44:36.397629  3807 layer_factory.hpp:77] Creating layer fire8/relu_expand3x3
I0405 21:44:36.397634  3807 net.cpp:100] Creating Layer fire8/relu_expand3x3
I0405 21:44:36.397639  3807 net.cpp:434] fire8/relu_expand3x3 <- fire8/expand3x3
I0405 21:44:36.397660  3807 net.cpp:395] fire8/relu_expand3x3 -> fire8/expand3x3 (in-place)
I0405 21:44:36.398015  3807 net.cpp:150] Setting up fire8/relu_expand3x3
I0405 21:44:36.398026  3807 net.cpp:157] Top shape: 4 54 18 18 (69984)
I0405 21:44:36.398030  3807 net.cpp:165] Memory required for data: 203906384
I0405 21:44:36.398035  3807 layer_factory.hpp:77] Creating layer fire8/concat
I0405 21:44:36.398046  3807 net.cpp:100] Creating Layer fire8/concat
I0405 21:44:36.398051  3807 net.cpp:434] fire8/concat <- fire8/expand1x1
I0405 21:44:36.398054  3807 net.cpp:434] fire8/concat <- fire8/expand3x3
I0405 21:44:36.398061  3807 net.cpp:408] fire8/concat -> fire8/concat
I0405 21:44:36.398085  3807 net.cpp:150] Setting up fire8/concat
I0405 21:44:36.398092  3807 net.cpp:157] Top shape: 4 83 18 18 (107568)
I0405 21:44:36.398094  3807 net.cpp:165] Memory required for data: 204336656
I0405 21:44:36.398097  3807 layer_factory.hpp:77] Creating layer fire8/concat_fire8/concat_0_split
I0405 21:44:36.398102  3807 net.cpp:100] Creating Layer fire8/concat_fire8/concat_0_split
I0405 21:44:36.398106  3807 net.cpp:434] fire8/concat_fire8/concat_0_split <- fire8/concat
I0405 21:44:36.398111  3807 net.cpp:408] fire8/concat_fire8/concat_0_split -> fire8/concat_fire8/concat_0_split_0
I0405 21:44:36.398118  3807 net.cpp:408] fire8/concat_fire8/concat_0_split -> fire8/concat_fire8/concat_0_split_1
I0405 21:44:36.398154  3807 net.cpp:150] Setting up fire8/concat_fire8/concat_0_split
I0405 21:44:36.398159  3807 net.cpp:157] Top shape: 4 83 18 18 (107568)
I0405 21:44:36.398164  3807 net.cpp:157] Top shape: 4 83 18 18 (107568)
I0405 21:44:36.398166  3807 net.cpp:165] Memory required for data: 205197200
I0405 21:44:36.398170  3807 layer_factory.hpp:77] Creating layer pool9
I0405 21:44:36.398176  3807 net.cpp:100] Creating Layer pool9
I0405 21:44:36.398180  3807 net.cpp:434] pool9 <- fire8/concat_fire8/concat_0_split_0
I0405 21:44:36.398185  3807 net.cpp:408] pool9 -> pool9
I0405 21:44:36.398216  3807 net.cpp:150] Setting up pool9
I0405 21:44:36.398221  3807 net.cpp:157] Top shape: 4 83 9 9 (26892)
I0405 21:44:36.398226  3807 net.cpp:165] Memory required for data: 205304768
I0405 21:44:36.398228  3807 layer_factory.hpp:77] Creating layer fire9/squeeze1x1
I0405 21:44:36.398236  3807 net.cpp:100] Creating Layer fire9/squeeze1x1
I0405 21:44:36.398239  3807 net.cpp:434] fire9/squeeze1x1 <- pool9
I0405 21:44:36.398244  3807 net.cpp:408] fire9/squeeze1x1 -> fire9/squeeze1x1
I0405 21:44:36.399348  3807 net.cpp:150] Setting up fire9/squeeze1x1
I0405 21:44:36.399363  3807 net.cpp:157] Top shape: 4 37 9 9 (11988)
I0405 21:44:36.399369  3807 net.cpp:165] Memory required for data: 205352720
I0405 21:44:36.399374  3807 layer_factory.hpp:77] Creating layer fire9/relu_squeeze1x1
I0405 21:44:36.399380  3807 net.cpp:100] Creating Layer fire9/relu_squeeze1x1
I0405 21:44:36.399385  3807 net.cpp:434] fire9/relu_squeeze1x1 <- fire9/squeeze1x1
I0405 21:44:36.399390  3807 net.cpp:395] fire9/relu_squeeze1x1 -> fire9/squeeze1x1 (in-place)
I0405 21:44:36.399732  3807 net.cpp:150] Setting up fire9/relu_squeeze1x1
I0405 21:44:36.399744  3807 net.cpp:157] Top shape: 4 37 9 9 (11988)
I0405 21:44:36.399749  3807 net.cpp:165] Memory required for data: 205400672
I0405 21:44:36.399752  3807 layer_factory.hpp:77] Creating layer fire9/squeeze1x1_fire9/relu_squeeze1x1_0_split
I0405 21:44:36.399758  3807 net.cpp:100] Creating Layer fire9/squeeze1x1_fire9/relu_squeeze1x1_0_split
I0405 21:44:36.399763  3807 net.cpp:434] fire9/squeeze1x1_fire9/relu_squeeze1x1_0_split <- fire9/squeeze1x1
I0405 21:44:36.399768  3807 net.cpp:408] fire9/squeeze1x1_fire9/relu_squeeze1x1_0_split -> fire9/squeeze1x1_fire9/relu_squeeze1x1_0_split_0
I0405 21:44:36.399775  3807 net.cpp:408] fire9/squeeze1x1_fire9/relu_squeeze1x1_0_split -> fire9/squeeze1x1_fire9/relu_squeeze1x1_0_split_1
I0405 21:44:36.399812  3807 net.cpp:150] Setting up fire9/squeeze1x1_fire9/relu_squeeze1x1_0_split
I0405 21:44:36.399818  3807 net.cpp:157] Top shape: 4 37 9 9 (11988)
I0405 21:44:36.399823  3807 net.cpp:157] Top shape: 4 37 9 9 (11988)
I0405 21:44:36.399837  3807 net.cpp:165] Memory required for data: 205496576
I0405 21:44:36.399842  3807 layer_factory.hpp:77] Creating layer fire9/expand1x1
I0405 21:44:36.399848  3807 net.cpp:100] Creating Layer fire9/expand1x1
I0405 21:44:36.399852  3807 net.cpp:434] fire9/expand1x1 <- fire9/squeeze1x1_fire9/relu_squeeze1x1_0_split_0
I0405 21:44:36.399858  3807 net.cpp:408] fire9/expand1x1 -> fire9/expand1x1
I0405 21:44:36.400979  3807 net.cpp:150] Setting up fire9/expand1x1
I0405 21:44:36.400990  3807 net.cpp:157] Top shape: 4 45 9 9 (14580)
I0405 21:44:36.400995  3807 net.cpp:165] Memory required for data: 205554896
I0405 21:44:36.401001  3807 layer_factory.hpp:77] Creating layer fire9/relu_expand1x1
I0405 21:44:36.401007  3807 net.cpp:100] Creating Layer fire9/relu_expand1x1
I0405 21:44:36.401011  3807 net.cpp:434] fire9/relu_expand1x1 <- fire9/expand1x1
I0405 21:44:36.401016  3807 net.cpp:395] fire9/relu_expand1x1 -> fire9/expand1x1 (in-place)
I0405 21:44:36.401146  3807 net.cpp:150] Setting up fire9/relu_expand1x1
I0405 21:44:36.401154  3807 net.cpp:157] Top shape: 4 45 9 9 (14580)
I0405 21:44:36.401163  3807 net.cpp:165] Memory required for data: 205613216
I0405 21:44:36.401171  3807 layer_factory.hpp:77] Creating layer fire9/expand3x3
I0405 21:44:36.401187  3807 net.cpp:100] Creating Layer fire9/expand3x3
I0405 21:44:36.401196  3807 net.cpp:434] fire9/expand3x3 <- fire9/squeeze1x1_fire9/relu_squeeze1x1_0_split_1
I0405 21:44:36.401216  3807 net.cpp:408] fire9/expand3x3 -> fire9/expand3x3
I0405 21:44:36.402638  3807 net.cpp:150] Setting up fire9/expand3x3
I0405 21:44:36.402652  3807 net.cpp:157] Top shape: 4 56 9 9 (18144)
I0405 21:44:36.402657  3807 net.cpp:165] Memory required for data: 205685792
I0405 21:44:36.402663  3807 layer_factory.hpp:77] Creating layer fire9/relu_expand3x3
I0405 21:44:36.402669  3807 net.cpp:100] Creating Layer fire9/relu_expand3x3
I0405 21:44:36.402674  3807 net.cpp:434] fire9/relu_expand3x3 <- fire9/expand3x3
I0405 21:44:36.402680  3807 net.cpp:395] fire9/relu_expand3x3 -> fire9/expand3x3 (in-place)
I0405 21:44:36.403045  3807 net.cpp:150] Setting up fire9/relu_expand3x3
I0405 21:44:36.403057  3807 net.cpp:157] Top shape: 4 56 9 9 (18144)
I0405 21:44:36.403061  3807 net.cpp:165] Memory required for data: 205758368
I0405 21:44:36.403066  3807 layer_factory.hpp:77] Creating layer fire9/concat
I0405 21:44:36.403072  3807 net.cpp:100] Creating Layer fire9/concat
I0405 21:44:36.403076  3807 net.cpp:434] fire9/concat <- fire9/expand1x1
I0405 21:44:36.403082  3807 net.cpp:434] fire9/concat <- fire9/expand3x3
I0405 21:44:36.403087  3807 net.cpp:408] fire9/concat -> fire9/concat
I0405 21:44:36.403121  3807 net.cpp:150] Setting up fire9/concat
I0405 21:44:36.403128  3807 net.cpp:157] Top shape: 4 101 9 9 (32724)
I0405 21:44:36.403132  3807 net.cpp:165] Memory required for data: 205889264
I0405 21:44:36.403136  3807 layer_factory.hpp:77] Creating layer fire9/concat_fire9/concat_0_split
I0405 21:44:36.403142  3807 net.cpp:100] Creating Layer fire9/concat_fire9/concat_0_split
I0405 21:44:36.403147  3807 net.cpp:434] fire9/concat_fire9/concat_0_split <- fire9/concat
I0405 21:44:36.403152  3807 net.cpp:408] fire9/concat_fire9/concat_0_split -> fire9/concat_fire9/concat_0_split_0
I0405 21:44:36.403158  3807 net.cpp:408] fire9/concat_fire9/concat_0_split -> fire9/concat_fire9/concat_0_split_1
I0405 21:44:36.403173  3807 net.cpp:408] fire9/concat_fire9/concat_0_split -> fire9/concat_fire9/concat_0_split_2
I0405 21:44:36.403179  3807 net.cpp:408] fire9/concat_fire9/concat_0_split -> fire9/concat_fire9/concat_0_split_3
I0405 21:44:36.403234  3807 net.cpp:150] Setting up fire9/concat_fire9/concat_0_split
I0405 21:44:36.403239  3807 net.cpp:157] Top shape: 4 101 9 9 (32724)
I0405 21:44:36.403244  3807 net.cpp:157] Top shape: 4 101 9 9 (32724)
I0405 21:44:36.403246  3807 net.cpp:157] Top shape: 4 101 9 9 (32724)
I0405 21:44:36.403251  3807 net.cpp:157] Top shape: 4 101 9 9 (32724)
I0405 21:44:36.403254  3807 net.cpp:165] Memory required for data: 206412848
I0405 21:44:36.403259  3807 layer_factory.hpp:77] Creating layer pool10
I0405 21:44:36.403275  3807 net.cpp:100] Creating Layer pool10
I0405 21:44:36.403280  3807 net.cpp:434] pool10 <- fire9/concat_fire9/concat_0_split_0
I0405 21:44:36.403285  3807 net.cpp:408] pool10 -> pool10
I0405 21:44:36.403317  3807 net.cpp:150] Setting up pool10
I0405 21:44:36.403323  3807 net.cpp:157] Top shape: 4 101 4 4 (6464)
I0405 21:44:36.403326  3807 net.cpp:165] Memory required for data: 206438704
I0405 21:44:36.403329  3807 layer_factory.hpp:77] Creating layer fire10/squeeze1x1
I0405 21:44:36.403337  3807 net.cpp:100] Creating Layer fire10/squeeze1x1
I0405 21:44:36.403342  3807 net.cpp:434] fire10/squeeze1x1 <- pool10
I0405 21:44:36.403347  3807 net.cpp:408] fire10/squeeze1x1 -> fire10/squeeze1x1
I0405 21:44:36.404522  3807 net.cpp:150] Setting up fire10/squeeze1x1
I0405 21:44:36.404534  3807 net.cpp:157] Top shape: 4 38 4 4 (2432)
I0405 21:44:36.404538  3807 net.cpp:165] Memory required for data: 206448432
I0405 21:44:36.404546  3807 layer_factory.hpp:77] Creating layer fire10/relu_squeeze1x1
I0405 21:44:36.404551  3807 net.cpp:100] Creating Layer fire10/relu_squeeze1x1
I0405 21:44:36.404556  3807 net.cpp:434] fire10/relu_squeeze1x1 <- fire10/squeeze1x1
I0405 21:44:36.404561  3807 net.cpp:395] fire10/relu_squeeze1x1 -> fire10/squeeze1x1 (in-place)
I0405 21:44:36.404700  3807 net.cpp:150] Setting up fire10/relu_squeeze1x1
I0405 21:44:36.404708  3807 net.cpp:157] Top shape: 4 38 4 4 (2432)
I0405 21:44:36.404712  3807 net.cpp:165] Memory required for data: 206458160
I0405 21:44:36.404716  3807 layer_factory.hpp:77] Creating layer fire10/squeeze1x1_fire10/relu_squeeze1x1_0_split
I0405 21:44:36.404722  3807 net.cpp:100] Creating Layer fire10/squeeze1x1_fire10/relu_squeeze1x1_0_split
I0405 21:44:36.404727  3807 net.cpp:434] fire10/squeeze1x1_fire10/relu_squeeze1x1_0_split <- fire10/squeeze1x1
I0405 21:44:36.404732  3807 net.cpp:408] fire10/squeeze1x1_fire10/relu_squeeze1x1_0_split -> fire10/squeeze1x1_fire10/relu_squeeze1x1_0_split_0
I0405 21:44:36.404738  3807 net.cpp:408] fire10/squeeze1x1_fire10/relu_squeeze1x1_0_split -> fire10/squeeze1x1_fire10/relu_squeeze1x1_0_split_1
I0405 21:44:36.404774  3807 net.cpp:150] Setting up fire10/squeeze1x1_fire10/relu_squeeze1x1_0_split
I0405 21:44:36.404779  3807 net.cpp:157] Top shape: 4 38 4 4 (2432)
I0405 21:44:36.404784  3807 net.cpp:157] Top shape: 4 38 4 4 (2432)
I0405 21:44:36.404788  3807 net.cpp:165] Memory required for data: 206477616
I0405 21:44:36.404791  3807 layer_factory.hpp:77] Creating layer fire10/expand1x1
I0405 21:44:36.404798  3807 net.cpp:100] Creating Layer fire10/expand1x1
I0405 21:44:36.404803  3807 net.cpp:434] fire10/expand1x1 <- fire10/squeeze1x1_fire10/relu_squeeze1x1_0_split_0
I0405 21:44:36.404808  3807 net.cpp:408] fire10/expand1x1 -> fire10/expand1x1
I0405 21:44:36.405885  3807 net.cpp:150] Setting up fire10/expand1x1
I0405 21:44:36.405897  3807 net.cpp:157] Top shape: 4 41 4 4 (2624)
I0405 21:44:36.405901  3807 net.cpp:165] Memory required for data: 206488112
I0405 21:44:36.405908  3807 layer_factory.hpp:77] Creating layer fire10/relu_expand1x1
I0405 21:44:36.405915  3807 net.cpp:100] Creating Layer fire10/relu_expand1x1
I0405 21:44:36.405920  3807 net.cpp:434] fire10/relu_expand1x1 <- fire10/expand1x1
I0405 21:44:36.405925  3807 net.cpp:395] fire10/relu_expand1x1 -> fire10/expand1x1 (in-place)
I0405 21:44:36.406271  3807 net.cpp:150] Setting up fire10/relu_expand1x1
I0405 21:44:36.406282  3807 net.cpp:157] Top shape: 4 41 4 4 (2624)
I0405 21:44:36.406286  3807 net.cpp:165] Memory required for data: 206498608
I0405 21:44:36.406291  3807 layer_factory.hpp:77] Creating layer fire10/expand3x3
I0405 21:44:36.406298  3807 net.cpp:100] Creating Layer fire10/expand3x3
I0405 21:44:36.406303  3807 net.cpp:434] fire10/expand3x3 <- fire10/squeeze1x1_fire10/relu_squeeze1x1_0_split_1
I0405 21:44:36.406309  3807 net.cpp:408] fire10/expand3x3 -> fire10/expand3x3
I0405 21:44:36.407688  3807 net.cpp:150] Setting up fire10/expand3x3
I0405 21:44:36.407701  3807 net.cpp:157] Top shape: 4 44 4 4 (2816)
I0405 21:44:36.407706  3807 net.cpp:165] Memory required for data: 206509872
I0405 21:44:36.407722  3807 layer_factory.hpp:77] Creating layer fire10/relu_expand3x3
I0405 21:44:36.407730  3807 net.cpp:100] Creating Layer fire10/relu_expand3x3
I0405 21:44:36.407735  3807 net.cpp:434] fire10/relu_expand3x3 <- fire10/expand3x3
I0405 21:44:36.407740  3807 net.cpp:395] fire10/relu_expand3x3 -> fire10/expand3x3 (in-place)
I0405 21:44:36.408110  3807 net.cpp:150] Setting up fire10/relu_expand3x3
I0405 21:44:36.408123  3807 net.cpp:157] Top shape: 4 44 4 4 (2816)
I0405 21:44:36.408126  3807 net.cpp:165] Memory required for data: 206521136
I0405 21:44:36.408130  3807 layer_factory.hpp:77] Creating layer fire10/concat
I0405 21:44:36.408138  3807 net.cpp:100] Creating Layer fire10/concat
I0405 21:44:36.408143  3807 net.cpp:434] fire10/concat <- fire10/expand1x1
I0405 21:44:36.408147  3807 net.cpp:434] fire10/concat <- fire10/expand3x3
I0405 21:44:36.408154  3807 net.cpp:408] fire10/concat -> fire10/concat
I0405 21:44:36.408180  3807 net.cpp:150] Setting up fire10/concat
I0405 21:44:36.408190  3807 net.cpp:157] Top shape: 4 85 4 4 (5440)
I0405 21:44:36.408195  3807 net.cpp:165] Memory required for data: 206542896
I0405 21:44:36.408198  3807 layer_factory.hpp:77] Creating layer fire10/concat_fire10/concat_0_split
I0405 21:44:36.408213  3807 net.cpp:100] Creating Layer fire10/concat_fire10/concat_0_split
I0405 21:44:36.408218  3807 net.cpp:434] fire10/concat_fire10/concat_0_split <- fire10/concat
I0405 21:44:36.408226  3807 net.cpp:408] fire10/concat_fire10/concat_0_split -> fire10/concat_fire10/concat_0_split_0
I0405 21:44:36.408236  3807 net.cpp:408] fire10/concat_fire10/concat_0_split -> fire10/concat_fire10/concat_0_split_1
I0405 21:44:36.408246  3807 net.cpp:408] fire10/concat_fire10/concat_0_split -> fire10/concat_fire10/concat_0_split_2
I0405 21:44:36.408254  3807 net.cpp:408] fire10/concat_fire10/concat_0_split -> fire10/concat_fire10/concat_0_split_3
I0405 21:44:36.408346  3807 net.cpp:150] Setting up fire10/concat_fire10/concat_0_split
I0405 21:44:36.408354  3807 net.cpp:157] Top shape: 4 85 4 4 (5440)
I0405 21:44:36.408358  3807 net.cpp:157] Top shape: 4 85 4 4 (5440)
I0405 21:44:36.408363  3807 net.cpp:157] Top shape: 4 85 4 4 (5440)
I0405 21:44:36.408367  3807 net.cpp:157] Top shape: 4 85 4 4 (5440)
I0405 21:44:36.408371  3807 net.cpp:165] Memory required for data: 206629936
I0405 21:44:36.408376  3807 layer_factory.hpp:77] Creating layer conv12_1
I0405 21:44:36.408385  3807 net.cpp:100] Creating Layer conv12_1
I0405 21:44:36.408390  3807 net.cpp:434] conv12_1 <- fire10/concat_fire10/concat_0_split_0
I0405 21:44:36.408396  3807 net.cpp:408] conv12_1 -> conv12_1
I0405 21:44:36.410087  3807 net.cpp:150] Setting up conv12_1
I0405 21:44:36.410099  3807 net.cpp:157] Top shape: 4 51 4 4 (3264)
I0405 21:44:36.410104  3807 net.cpp:165] Memory required for data: 206642992
I0405 21:44:36.410110  3807 layer_factory.hpp:77] Creating layer relu122_1
I0405 21:44:36.410116  3807 net.cpp:100] Creating Layer relu122_1
I0405 21:44:36.410121  3807 net.cpp:434] relu122_1 <- conv12_1
I0405 21:44:36.410126  3807 net.cpp:395] relu122_1 -> conv12_1 (in-place)
I0405 21:44:36.410260  3807 net.cpp:150] Setting up relu122_1
I0405 21:44:36.410269  3807 net.cpp:157] Top shape: 4 51 4 4 (3264)
I0405 21:44:36.410274  3807 net.cpp:165] Memory required for data: 206656048
I0405 21:44:36.410277  3807 layer_factory.hpp:77] Creating layer conv12_2
I0405 21:44:36.410290  3807 net.cpp:100] Creating Layer conv12_2
I0405 21:44:36.410295  3807 net.cpp:434] conv12_2 <- conv12_1
I0405 21:44:36.410300  3807 net.cpp:408] conv12_2 -> conv12_2
I0405 21:44:36.412144  3807 net.cpp:150] Setting up conv12_2
I0405 21:44:36.412156  3807 net.cpp:157] Top shape: 4 46 2 2 (736)
I0405 21:44:36.412161  3807 net.cpp:165] Memory required for data: 206658992
I0405 21:44:36.412173  3807 layer_factory.hpp:77] Creating layer relu12_2
I0405 21:44:36.412179  3807 net.cpp:100] Creating Layer relu12_2
I0405 21:44:36.412184  3807 net.cpp:434] relu12_2 <- conv12_2
I0405 21:44:36.412189  3807 net.cpp:395] relu12_2 -> conv12_2 (in-place)
I0405 21:44:36.412546  3807 net.cpp:150] Setting up relu12_2
I0405 21:44:36.412557  3807 net.cpp:157] Top shape: 4 46 2 2 (736)
I0405 21:44:36.412561  3807 net.cpp:165] Memory required for data: 206661936
I0405 21:44:36.412565  3807 layer_factory.hpp:77] Creating layer conv12_2_relu12_2_0_split
I0405 21:44:36.412571  3807 net.cpp:100] Creating Layer conv12_2_relu12_2_0_split
I0405 21:44:36.412575  3807 net.cpp:434] conv12_2_relu12_2_0_split <- conv12_2
I0405 21:44:36.412581  3807 net.cpp:408] conv12_2_relu12_2_0_split -> conv12_2_relu12_2_0_split_0
I0405 21:44:36.412587  3807 net.cpp:408] conv12_2_relu12_2_0_split -> conv12_2_relu12_2_0_split_1
I0405 21:44:36.412593  3807 net.cpp:408] conv12_2_relu12_2_0_split -> conv12_2_relu12_2_0_split_2
I0405 21:44:36.412598  3807 net.cpp:408] conv12_2_relu12_2_0_split -> conv12_2_relu12_2_0_split_3
I0405 21:44:36.412662  3807 net.cpp:150] Setting up conv12_2_relu12_2_0_split
I0405 21:44:36.412669  3807 net.cpp:157] Top shape: 4 46 2 2 (736)
I0405 21:44:36.412673  3807 net.cpp:157] Top shape: 4 46 2 2 (736)
I0405 21:44:36.412678  3807 net.cpp:157] Top shape: 4 46 2 2 (736)
I0405 21:44:36.412681  3807 net.cpp:157] Top shape: 4 46 2 2 (736)
I0405 21:44:36.412685  3807 net.cpp:165] Memory required for data: 206673712
I0405 21:44:36.412689  3807 layer_factory.hpp:77] Creating layer conv13_1
I0405 21:44:36.412696  3807 net.cpp:100] Creating Layer conv13_1
I0405 21:44:36.412700  3807 net.cpp:434] conv13_1 <- conv12_2_relu12_2_0_split_0
I0405 21:44:36.412706  3807 net.cpp:408] conv13_1 -> conv13_1
I0405 21:44:36.414098  3807 net.cpp:150] Setting up conv13_1
I0405 21:44:36.414109  3807 net.cpp:157] Top shape: 4 55 2 2 (880)
I0405 21:44:36.414113  3807 net.cpp:165] Memory required for data: 206677232
I0405 21:44:36.414120  3807 layer_factory.hpp:77] Creating layer relu13_1
I0405 21:44:36.414132  3807 net.cpp:100] Creating Layer relu13_1
I0405 21:44:36.414137  3807 net.cpp:434] relu13_1 <- conv13_1
I0405 21:44:36.414142  3807 net.cpp:395] relu13_1 -> conv13_1 (in-place)
I0405 21:44:36.414285  3807 net.cpp:150] Setting up relu13_1
I0405 21:44:36.414294  3807 net.cpp:157] Top shape: 4 55 2 2 (880)
I0405 21:44:36.414297  3807 net.cpp:165] Memory required for data: 206680752
I0405 21:44:36.414302  3807 layer_factory.hpp:77] Creating layer conv13_2
I0405 21:44:36.414309  3807 net.cpp:100] Creating Layer conv13_2
I0405 21:44:36.414314  3807 net.cpp:434] conv13_2 <- conv13_1
I0405 21:44:36.414319  3807 net.cpp:408] conv13_2 -> conv13_2
I0405 21:44:36.415583  3807 net.cpp:150] Setting up conv13_2
I0405 21:44:36.415596  3807 net.cpp:157] Top shape: 4 85 1 1 (340)
I0405 21:44:36.415599  3807 net.cpp:165] Memory required for data: 206682112
I0405 21:44:36.415606  3807 layer_factory.hpp:77] Creating layer conv13_2_conv13_2_0_split
I0405 21:44:36.415619  3807 net.cpp:100] Creating Layer conv13_2_conv13_2_0_split
I0405 21:44:36.415624  3807 net.cpp:434] conv13_2_conv13_2_0_split <- conv13_2
I0405 21:44:36.415629  3807 net.cpp:408] conv13_2_conv13_2_0_split -> conv13_2_conv13_2_0_split_0
I0405 21:44:36.415637  3807 net.cpp:408] conv13_2_conv13_2_0_split -> conv13_2_conv13_2_0_split_1
I0405 21:44:36.415642  3807 net.cpp:408] conv13_2_conv13_2_0_split -> conv13_2_conv13_2_0_split_2
I0405 21:44:36.415685  3807 net.cpp:150] Setting up conv13_2_conv13_2_0_split
I0405 21:44:36.415691  3807 net.cpp:157] Top shape: 4 85 1 1 (340)
I0405 21:44:36.415695  3807 net.cpp:157] Top shape: 4 85 1 1 (340)
I0405 21:44:36.415699  3807 net.cpp:157] Top shape: 4 85 1 1 (340)
I0405 21:44:36.415704  3807 net.cpp:165] Memory required for data: 206686192
I0405 21:44:36.415707  3807 layer_factory.hpp:77] Creating layer fire4_norm
I0405 21:44:36.415714  3807 net.cpp:100] Creating Layer fire4_norm
I0405 21:44:36.415719  3807 net.cpp:434] fire4_norm <- fire4/concat_fire4/concat_0_split_1
I0405 21:44:36.415725  3807 net.cpp:408] fire4_norm -> fire4_norm
I0405 21:44:36.415868  3807 net.cpp:150] Setting up fire4_norm
I0405 21:44:36.415874  3807 net.cpp:157] Top shape: 4 173 37 37 (947348)
I0405 21:44:36.415879  3807 net.cpp:165] Memory required for data: 210475584
I0405 21:44:36.415892  3807 layer_factory.hpp:77] Creating layer fire4_norm_fire4_norm_0_split
I0405 21:44:36.415899  3807 net.cpp:100] Creating Layer fire4_norm_fire4_norm_0_split
I0405 21:44:36.415904  3807 net.cpp:434] fire4_norm_fire4_norm_0_split <- fire4_norm
I0405 21:44:36.415908  3807 net.cpp:408] fire4_norm_fire4_norm_0_split -> fire4_norm_fire4_norm_0_split_0
I0405 21:44:36.415915  3807 net.cpp:408] fire4_norm_fire4_norm_0_split -> fire4_norm_fire4_norm_0_split_1
I0405 21:44:36.415920  3807 net.cpp:408] fire4_norm_fire4_norm_0_split -> fire4_norm_fire4_norm_0_split_2
I0405 21:44:36.415959  3807 net.cpp:150] Setting up fire4_norm_fire4_norm_0_split
I0405 21:44:36.415966  3807 net.cpp:157] Top shape: 4 173 37 37 (947348)
I0405 21:44:36.415969  3807 net.cpp:157] Top shape: 4 173 37 37 (947348)
I0405 21:44:36.415973  3807 net.cpp:157] Top shape: 4 173 37 37 (947348)
I0405 21:44:36.415977  3807 net.cpp:165] Memory required for data: 221843760
I0405 21:44:36.415982  3807 layer_factory.hpp:77] Creating layer fire4_mbox_loc
I0405 21:44:36.415988  3807 net.cpp:100] Creating Layer fire4_mbox_loc
I0405 21:44:36.415992  3807 net.cpp:434] fire4_mbox_loc <- fire4_norm_fire4_norm_0_split_0
I0405 21:44:36.415997  3807 net.cpp:408] fire4_mbox_loc -> fire4_mbox_loc
I0405 21:44:36.417222  3807 net.cpp:150] Setting up fire4_mbox_loc
I0405 21:44:36.417233  3807 net.cpp:157] Top shape: 4 16 37 37 (87616)
I0405 21:44:36.417237  3807 net.cpp:165] Memory required for data: 222194224
I0405 21:44:36.417244  3807 layer_factory.hpp:77] Creating layer fire4_mbox_loc_perm
I0405 21:44:36.417258  3807 net.cpp:100] Creating Layer fire4_mbox_loc_perm
I0405 21:44:36.417263  3807 net.cpp:434] fire4_mbox_loc_perm <- fire4_mbox_loc
I0405 21:44:36.417268  3807 net.cpp:408] fire4_mbox_loc_perm -> fire4_mbox_loc_perm
I0405 21:44:36.417369  3807 net.cpp:150] Setting up fire4_mbox_loc_perm
I0405 21:44:36.417376  3807 net.cpp:157] Top shape: 4 37 37 16 (87616)
I0405 21:44:36.417381  3807 net.cpp:165] Memory required for data: 222544688
I0405 21:44:36.417384  3807 layer_factory.hpp:77] Creating layer fire4_mbox_loc_flat
I0405 21:44:36.417390  3807 net.cpp:100] Creating Layer fire4_mbox_loc_flat
I0405 21:44:36.417394  3807 net.cpp:434] fire4_mbox_loc_flat <- fire4_mbox_loc_perm
I0405 21:44:36.417400  3807 net.cpp:408] fire4_mbox_loc_flat -> fire4_mbox_loc_flat
I0405 21:44:36.417423  3807 net.cpp:150] Setting up fire4_mbox_loc_flat
I0405 21:44:36.417428  3807 net.cpp:157] Top shape: 4 21904 (87616)
I0405 21:44:36.417433  3807 net.cpp:165] Memory required for data: 222895152
I0405 21:44:36.417435  3807 layer_factory.hpp:77] Creating layer fire4_mbox_conf
I0405 21:44:36.417443  3807 net.cpp:100] Creating Layer fire4_mbox_conf
I0405 21:44:36.417448  3807 net.cpp:434] fire4_mbox_conf <- fire4_norm_fire4_norm_0_split_1
I0405 21:44:36.417454  3807 net.cpp:408] fire4_mbox_conf -> fire4_mbox_conf
I0405 21:44:36.418790  3807 net.cpp:150] Setting up fire4_mbox_conf
I0405 21:44:36.418803  3807 net.cpp:157] Top shape: 4 28 37 37 (153328)
I0405 21:44:36.418807  3807 net.cpp:165] Memory required for data: 223508464
I0405 21:44:36.418814  3807 layer_factory.hpp:77] Creating layer fire4_mbox_conf_perm
I0405 21:44:36.418820  3807 net.cpp:100] Creating Layer fire4_mbox_conf_perm
I0405 21:44:36.418825  3807 net.cpp:434] fire4_mbox_conf_perm <- fire4_mbox_conf
I0405 21:44:36.418831  3807 net.cpp:408] fire4_mbox_conf_perm -> fire4_mbox_conf_perm
I0405 21:44:36.418954  3807 net.cpp:150] Setting up fire4_mbox_conf_perm
I0405 21:44:36.418964  3807 net.cpp:157] Top shape: 4 37 37 28 (153328)
I0405 21:44:36.418968  3807 net.cpp:165] Memory required for data: 224121776
I0405 21:44:36.418972  3807 layer_factory.hpp:77] Creating layer fire4_mbox_conf_flat
I0405 21:44:36.418978  3807 net.cpp:100] Creating Layer fire4_mbox_conf_flat
I0405 21:44:36.418983  3807 net.cpp:434] fire4_mbox_conf_flat <- fire4_mbox_conf_perm
I0405 21:44:36.418995  3807 net.cpp:408] fire4_mbox_conf_flat -> fire4_mbox_conf_flat
I0405 21:44:36.419019  3807 net.cpp:150] Setting up fire4_mbox_conf_flat
I0405 21:44:36.419036  3807 net.cpp:157] Top shape: 4 38332 (153328)
I0405 21:44:36.419040  3807 net.cpp:165] Memory required for data: 224735088
I0405 21:44:36.419044  3807 layer_factory.hpp:77] Creating layer fire4_mbox_priorbox
I0405 21:44:36.419050  3807 net.cpp:100] Creating Layer fire4_mbox_priorbox
I0405 21:44:36.419055  3807 net.cpp:434] fire4_mbox_priorbox <- fire4_norm_fire4_norm_0_split_2
I0405 21:44:36.419060  3807 net.cpp:434] fire4_mbox_priorbox <- data_data_0_split_1
I0405 21:44:36.419066  3807 net.cpp:408] fire4_mbox_priorbox -> fire4_mbox_priorbox
I0405 21:44:36.419092  3807 net.cpp:150] Setting up fire4_mbox_priorbox
I0405 21:44:36.419100  3807 net.cpp:157] Top shape: 1 2 21904 (43808)
I0405 21:44:36.419102  3807 net.cpp:165] Memory required for data: 224910320
I0405 21:44:36.419106  3807 layer_factory.hpp:77] Creating layer fire8_norm
I0405 21:44:36.419113  3807 net.cpp:100] Creating Layer fire8_norm
I0405 21:44:36.419118  3807 net.cpp:434] fire8_norm <- fire8/concat_fire8/concat_0_split_1
I0405 21:44:36.419124  3807 net.cpp:408] fire8_norm -> fire8_norm
I0405 21:44:36.419286  3807 net.cpp:150] Setting up fire8_norm
I0405 21:44:36.419292  3807 net.cpp:157] Top shape: 4 83 18 18 (107568)
I0405 21:44:36.419296  3807 net.cpp:165] Memory required for data: 225340592
I0405 21:44:36.419301  3807 layer_factory.hpp:77] Creating layer fire8_norm_fire8_norm_0_split
I0405 21:44:36.419307  3807 net.cpp:100] Creating Layer fire8_norm_fire8_norm_0_split
I0405 21:44:36.419312  3807 net.cpp:434] fire8_norm_fire8_norm_0_split <- fire8_norm
I0405 21:44:36.419317  3807 net.cpp:408] fire8_norm_fire8_norm_0_split -> fire8_norm_fire8_norm_0_split_0
I0405 21:44:36.419323  3807 net.cpp:408] fire8_norm_fire8_norm_0_split -> fire8_norm_fire8_norm_0_split_1
I0405 21:44:36.419329  3807 net.cpp:408] fire8_norm_fire8_norm_0_split -> fire8_norm_fire8_norm_0_split_2
I0405 21:44:36.419370  3807 net.cpp:150] Setting up fire8_norm_fire8_norm_0_split
I0405 21:44:36.419376  3807 net.cpp:157] Top shape: 4 83 18 18 (107568)
I0405 21:44:36.419380  3807 net.cpp:157] Top shape: 4 83 18 18 (107568)
I0405 21:44:36.419384  3807 net.cpp:157] Top shape: 4 83 18 18 (107568)
I0405 21:44:36.419389  3807 net.cpp:165] Memory required for data: 226631408
I0405 21:44:36.419391  3807 layer_factory.hpp:77] Creating layer fire8_mbox_loc
I0405 21:44:36.419400  3807 net.cpp:100] Creating Layer fire8_mbox_loc
I0405 21:44:36.419404  3807 net.cpp:434] fire8_mbox_loc <- fire8_norm_fire8_norm_0_split_0
I0405 21:44:36.419409  3807 net.cpp:408] fire8_mbox_loc -> fire8_mbox_loc
I0405 21:44:36.420905  3807 net.cpp:150] Setting up fire8_mbox_loc
I0405 21:44:36.420920  3807 net.cpp:157] Top shape: 4 24 18 18 (31104)
I0405 21:44:36.420925  3807 net.cpp:165] Memory required for data: 226755824
I0405 21:44:36.420933  3807 layer_factory.hpp:77] Creating layer fire8_mbox_loc_perm
I0405 21:44:36.420941  3807 net.cpp:100] Creating Layer fire8_mbox_loc_perm
I0405 21:44:36.420946  3807 net.cpp:434] fire8_mbox_loc_perm <- fire8_mbox_loc
I0405 21:44:36.420953  3807 net.cpp:408] fire8_mbox_loc_perm -> fire8_mbox_loc_perm
I0405 21:44:36.421068  3807 net.cpp:150] Setting up fire8_mbox_loc_perm
I0405 21:44:36.421077  3807 net.cpp:157] Top shape: 4 18 18 24 (31104)
I0405 21:44:36.421080  3807 net.cpp:165] Memory required for data: 226880240
I0405 21:44:36.421085  3807 layer_factory.hpp:77] Creating layer fire8_mbox_loc_flat
I0405 21:44:36.421092  3807 net.cpp:100] Creating Layer fire8_mbox_loc_flat
I0405 21:44:36.421097  3807 net.cpp:434] fire8_mbox_loc_flat <- fire8_mbox_loc_perm
I0405 21:44:36.421102  3807 net.cpp:408] fire8_mbox_loc_flat -> fire8_mbox_loc_flat
I0405 21:44:36.421124  3807 net.cpp:150] Setting up fire8_mbox_loc_flat
I0405 21:44:36.421130  3807 net.cpp:157] Top shape: 4 7776 (31104)
I0405 21:44:36.421133  3807 net.cpp:165] Memory required for data: 227004656
I0405 21:44:36.421135  3807 layer_factory.hpp:77] Creating layer fire8_mbox_conf
I0405 21:44:36.421144  3807 net.cpp:100] Creating Layer fire8_mbox_conf
I0405 21:44:36.421149  3807 net.cpp:434] fire8_mbox_conf <- fire8_norm_fire8_norm_0_split_1
I0405 21:44:36.421169  3807 net.cpp:408] fire8_mbox_conf -> fire8_mbox_conf
I0405 21:44:36.422797  3807 net.cpp:150] Setting up fire8_mbox_conf
I0405 21:44:36.422811  3807 net.cpp:157] Top shape: 4 42 18 18 (54432)
I0405 21:44:36.422827  3807 net.cpp:165] Memory required for data: 227222384
I0405 21:44:36.422835  3807 layer_factory.hpp:77] Creating layer fire8_mbox_conf_perm
I0405 21:44:36.422845  3807 net.cpp:100] Creating Layer fire8_mbox_conf_perm
I0405 21:44:36.422850  3807 net.cpp:434] fire8_mbox_conf_perm <- fire8_mbox_conf
I0405 21:44:36.422857  3807 net.cpp:408] fire8_mbox_conf_perm -> fire8_mbox_conf_perm
I0405 21:44:36.422957  3807 net.cpp:150] Setting up fire8_mbox_conf_perm
I0405 21:44:36.422966  3807 net.cpp:157] Top shape: 4 18 18 42 (54432)
I0405 21:44:36.422968  3807 net.cpp:165] Memory required for data: 227440112
I0405 21:44:36.422972  3807 layer_factory.hpp:77] Creating layer fire8_mbox_conf_flat
I0405 21:44:36.422978  3807 net.cpp:100] Creating Layer fire8_mbox_conf_flat
I0405 21:44:36.422983  3807 net.cpp:434] fire8_mbox_conf_flat <- fire8_mbox_conf_perm
I0405 21:44:36.422988  3807 net.cpp:408] fire8_mbox_conf_flat -> fire8_mbox_conf_flat
I0405 21:44:36.423009  3807 net.cpp:150] Setting up fire8_mbox_conf_flat
I0405 21:44:36.423015  3807 net.cpp:157] Top shape: 4 13608 (54432)
I0405 21:44:36.423017  3807 net.cpp:165] Memory required for data: 227657840
I0405 21:44:36.423020  3807 layer_factory.hpp:77] Creating layer fire8_mbox_priorbox
I0405 21:44:36.423027  3807 net.cpp:100] Creating Layer fire8_mbox_priorbox
I0405 21:44:36.423032  3807 net.cpp:434] fire8_mbox_priorbox <- fire8_norm_fire8_norm_0_split_2
I0405 21:44:36.423038  3807 net.cpp:434] fire8_mbox_priorbox <- data_data_0_split_2
I0405 21:44:36.423061  3807 net.cpp:408] fire8_mbox_priorbox -> fire8_mbox_priorbox
I0405 21:44:36.423086  3807 net.cpp:150] Setting up fire8_mbox_priorbox
I0405 21:44:36.423092  3807 net.cpp:157] Top shape: 1 2 7776 (15552)
I0405 21:44:36.423095  3807 net.cpp:165] Memory required for data: 227720048
I0405 21:44:36.423099  3807 layer_factory.hpp:77] Creating layer fire9_mbox_loc
I0405 21:44:36.423117  3807 net.cpp:100] Creating Layer fire9_mbox_loc
I0405 21:44:36.423121  3807 net.cpp:434] fire9_mbox_loc <- fire9/concat_fire9/concat_0_split_1
I0405 21:44:36.423128  3807 net.cpp:408] fire9_mbox_loc -> fire9_mbox_loc
I0405 21:44:36.424556  3807 net.cpp:150] Setting up fire9_mbox_loc
I0405 21:44:36.424568  3807 net.cpp:157] Top shape: 4 24 9 9 (7776)
I0405 21:44:36.424572  3807 net.cpp:165] Memory required for data: 227751152
I0405 21:44:36.424579  3807 layer_factory.hpp:77] Creating layer fire9_mbox_loc_perm
I0405 21:44:36.424585  3807 net.cpp:100] Creating Layer fire9_mbox_loc_perm
I0405 21:44:36.424590  3807 net.cpp:434] fire9_mbox_loc_perm <- fire9_mbox_loc
I0405 21:44:36.424595  3807 net.cpp:408] fire9_mbox_loc_perm -> fire9_mbox_loc_perm
I0405 21:44:36.424691  3807 net.cpp:150] Setting up fire9_mbox_loc_perm
I0405 21:44:36.424697  3807 net.cpp:157] Top shape: 4 9 9 24 (7776)
I0405 21:44:36.424701  3807 net.cpp:165] Memory required for data: 227782256
I0405 21:44:36.424705  3807 layer_factory.hpp:77] Creating layer fire9_mbox_loc_flat
I0405 21:44:36.424710  3807 net.cpp:100] Creating Layer fire9_mbox_loc_flat
I0405 21:44:36.424715  3807 net.cpp:434] fire9_mbox_loc_flat <- fire9_mbox_loc_perm
I0405 21:44:36.424720  3807 net.cpp:408] fire9_mbox_loc_flat -> fire9_mbox_loc_flat
I0405 21:44:36.424753  3807 net.cpp:150] Setting up fire9_mbox_loc_flat
I0405 21:44:36.424760  3807 net.cpp:157] Top shape: 4 1944 (7776)
I0405 21:44:36.424763  3807 net.cpp:165] Memory required for data: 227813360
I0405 21:44:36.424767  3807 layer_factory.hpp:77] Creating layer fire9_mbox_conf
I0405 21:44:36.424774  3807 net.cpp:100] Creating Layer fire9_mbox_conf
I0405 21:44:36.424779  3807 net.cpp:434] fire9_mbox_conf <- fire9/concat_fire9/concat_0_split_2
I0405 21:44:36.424784  3807 net.cpp:408] fire9_mbox_conf -> fire9_mbox_conf
I0405 21:44:36.426765  3807 net.cpp:150] Setting up fire9_mbox_conf
I0405 21:44:36.426792  3807 net.cpp:157] Top shape: 4 42 9 9 (13608)
I0405 21:44:36.426797  3807 net.cpp:165] Memory required for data: 227867792
I0405 21:44:36.426805  3807 layer_factory.hpp:77] Creating layer fire9_mbox_conf_perm
I0405 21:44:36.426811  3807 net.cpp:100] Creating Layer fire9_mbox_conf_perm
I0405 21:44:36.426816  3807 net.cpp:434] fire9_mbox_conf_perm <- fire9_mbox_conf
I0405 21:44:36.426821  3807 net.cpp:408] fire9_mbox_conf_perm -> fire9_mbox_conf_perm
I0405 21:44:36.426918  3807 net.cpp:150] Setting up fire9_mbox_conf_perm
I0405 21:44:36.426925  3807 net.cpp:157] Top shape: 4 9 9 42 (13608)
I0405 21:44:36.426928  3807 net.cpp:165] Memory required for data: 227922224
I0405 21:44:36.426933  3807 layer_factory.hpp:77] Creating layer fire9_mbox_conf_flat
I0405 21:44:36.426939  3807 net.cpp:100] Creating Layer fire9_mbox_conf_flat
I0405 21:44:36.426944  3807 net.cpp:434] fire9_mbox_conf_flat <- fire9_mbox_conf_perm
I0405 21:44:36.426949  3807 net.cpp:408] fire9_mbox_conf_flat -> fire9_mbox_conf_flat
I0405 21:44:36.426970  3807 net.cpp:150] Setting up fire9_mbox_conf_flat
I0405 21:44:36.426975  3807 net.cpp:157] Top shape: 4 3402 (13608)
I0405 21:44:36.426978  3807 net.cpp:165] Memory required for data: 227976656
I0405 21:44:36.426982  3807 layer_factory.hpp:77] Creating layer fire9_mbox_priorbox
I0405 21:44:36.426988  3807 net.cpp:100] Creating Layer fire9_mbox_priorbox
I0405 21:44:36.426992  3807 net.cpp:434] fire9_mbox_priorbox <- fire9/concat_fire9/concat_0_split_3
I0405 21:44:36.426998  3807 net.cpp:434] fire9_mbox_priorbox <- data_data_0_split_3
I0405 21:44:36.427003  3807 net.cpp:408] fire9_mbox_priorbox -> fire9_mbox_priorbox
I0405 21:44:36.427026  3807 net.cpp:150] Setting up fire9_mbox_priorbox
I0405 21:44:36.427031  3807 net.cpp:157] Top shape: 1 2 1944 (3888)
I0405 21:44:36.427036  3807 net.cpp:165] Memory required for data: 227992208
I0405 21:44:36.427038  3807 layer_factory.hpp:77] Creating layer fire10_mbox_loc
I0405 21:44:36.427053  3807 net.cpp:100] Creating Layer fire10_mbox_loc
I0405 21:44:36.427058  3807 net.cpp:434] fire10_mbox_loc <- fire10/concat_fire10/concat_0_split_1
I0405 21:44:36.427064  3807 net.cpp:408] fire10_mbox_loc -> fire10_mbox_loc
I0405 21:44:36.428678  3807 net.cpp:150] Setting up fire10_mbox_loc
I0405 21:44:36.428689  3807 net.cpp:157] Top shape: 4 24 4 4 (1536)
I0405 21:44:36.428694  3807 net.cpp:165] Memory required for data: 227998352
I0405 21:44:36.428700  3807 layer_factory.hpp:77] Creating layer fire10_mbox_loc_perm
I0405 21:44:36.428723  3807 net.cpp:100] Creating Layer fire10_mbox_loc_perm
I0405 21:44:36.428730  3807 net.cpp:434] fire10_mbox_loc_perm <- fire10_mbox_loc
I0405 21:44:36.428735  3807 net.cpp:408] fire10_mbox_loc_perm -> fire10_mbox_loc_perm
I0405 21:44:36.428849  3807 net.cpp:150] Setting up fire10_mbox_loc_perm
I0405 21:44:36.428863  3807 net.cpp:157] Top shape: 4 4 4 24 (1536)
I0405 21:44:36.428872  3807 net.cpp:165] Memory required for data: 228004496
I0405 21:44:36.428881  3807 layer_factory.hpp:77] Creating layer fire10_mbox_loc_flat
I0405 21:44:36.428890  3807 net.cpp:100] Creating Layer fire10_mbox_loc_flat
I0405 21:44:36.428896  3807 net.cpp:434] fire10_mbox_loc_flat <- fire10_mbox_loc_perm
I0405 21:44:36.428903  3807 net.cpp:408] fire10_mbox_loc_flat -> fire10_mbox_loc_flat
I0405 21:44:36.428936  3807 net.cpp:150] Setting up fire10_mbox_loc_flat
I0405 21:44:36.428946  3807 net.cpp:157] Top shape: 4 384 (1536)
I0405 21:44:36.428951  3807 net.cpp:165] Memory required for data: 228010640
I0405 21:44:36.428957  3807 layer_factory.hpp:77] Creating layer fire10_mbox_conf
I0405 21:44:36.428967  3807 net.cpp:100] Creating Layer fire10_mbox_conf
I0405 21:44:36.428972  3807 net.cpp:434] fire10_mbox_conf <- fire10/concat_fire10/concat_0_split_2
I0405 21:44:36.428978  3807 net.cpp:408] fire10_mbox_conf -> fire10_mbox_conf
I0405 21:44:36.430474  3807 net.cpp:150] Setting up fire10_mbox_conf
I0405 21:44:36.430486  3807 net.cpp:157] Top shape: 4 42 4 4 (2688)
I0405 21:44:36.430490  3807 net.cpp:165] Memory required for data: 228021392
I0405 21:44:36.430507  3807 layer_factory.hpp:77] Creating layer fire10_mbox_conf_perm
I0405 21:44:36.430514  3807 net.cpp:100] Creating Layer fire10_mbox_conf_perm
I0405 21:44:36.430519  3807 net.cpp:434] fire10_mbox_conf_perm <- fire10_mbox_conf
I0405 21:44:36.430526  3807 net.cpp:408] fire10_mbox_conf_perm -> fire10_mbox_conf_perm
I0405 21:44:36.430622  3807 net.cpp:150] Setting up fire10_mbox_conf_perm
I0405 21:44:36.430629  3807 net.cpp:157] Top shape: 4 4 4 42 (2688)
I0405 21:44:36.430631  3807 net.cpp:165] Memory required for data: 228032144
I0405 21:44:36.430635  3807 layer_factory.hpp:77] Creating layer fire10_mbox_conf_flat
I0405 21:44:36.430640  3807 net.cpp:100] Creating Layer fire10_mbox_conf_flat
I0405 21:44:36.430644  3807 net.cpp:434] fire10_mbox_conf_flat <- fire10_mbox_conf_perm
I0405 21:44:36.430649  3807 net.cpp:408] fire10_mbox_conf_flat -> fire10_mbox_conf_flat
I0405 21:44:36.430671  3807 net.cpp:150] Setting up fire10_mbox_conf_flat
I0405 21:44:36.430676  3807 net.cpp:157] Top shape: 4 672 (2688)
I0405 21:44:36.430680  3807 net.cpp:165] Memory required for data: 228042896
I0405 21:44:36.430682  3807 layer_factory.hpp:77] Creating layer fire10_mbox_priorbox
I0405 21:44:36.430687  3807 net.cpp:100] Creating Layer fire10_mbox_priorbox
I0405 21:44:36.430691  3807 net.cpp:434] fire10_mbox_priorbox <- fire10/concat_fire10/concat_0_split_3
I0405 21:44:36.430696  3807 net.cpp:434] fire10_mbox_priorbox <- data_data_0_split_4
I0405 21:44:36.430701  3807 net.cpp:408] fire10_mbox_priorbox -> fire10_mbox_priorbox
I0405 21:44:36.430724  3807 net.cpp:150] Setting up fire10_mbox_priorbox
I0405 21:44:36.430730  3807 net.cpp:157] Top shape: 1 2 384 (768)
I0405 21:44:36.430732  3807 net.cpp:165] Memory required for data: 228045968
I0405 21:44:36.430735  3807 layer_factory.hpp:77] Creating layer conv12_2_mbox_loc
I0405 21:44:36.430742  3807 net.cpp:100] Creating Layer conv12_2_mbox_loc
I0405 21:44:36.430747  3807 net.cpp:434] conv12_2_mbox_loc <- conv12_2_relu12_2_0_split_1
I0405 21:44:36.430752  3807 net.cpp:408] conv12_2_mbox_loc -> conv12_2_mbox_loc
I0405 21:44:36.431906  3807 net.cpp:150] Setting up conv12_2_mbox_loc
I0405 21:44:36.431918  3807 net.cpp:157] Top shape: 4 24 2 2 (384)
I0405 21:44:36.431922  3807 net.cpp:165] Memory required for data: 228047504
I0405 21:44:36.431929  3807 layer_factory.hpp:77] Creating layer conv12_2_mbox_loc_perm
I0405 21:44:36.431936  3807 net.cpp:100] Creating Layer conv12_2_mbox_loc_perm
I0405 21:44:36.431941  3807 net.cpp:434] conv12_2_mbox_loc_perm <- conv12_2_mbox_loc
I0405 21:44:36.431946  3807 net.cpp:408] conv12_2_mbox_loc_perm -> conv12_2_mbox_loc_perm
I0405 21:44:36.432045  3807 net.cpp:150] Setting up conv12_2_mbox_loc_perm
I0405 21:44:36.432051  3807 net.cpp:157] Top shape: 4 2 2 24 (384)
I0405 21:44:36.432055  3807 net.cpp:165] Memory required for data: 228049040
I0405 21:44:36.432060  3807 layer_factory.hpp:77] Creating layer conv12_2_mbox_loc_flat
I0405 21:44:36.432070  3807 net.cpp:100] Creating Layer conv12_2_mbox_loc_flat
I0405 21:44:36.432075  3807 net.cpp:434] conv12_2_mbox_loc_flat <- conv12_2_mbox_loc_perm
I0405 21:44:36.432080  3807 net.cpp:408] conv12_2_mbox_loc_flat -> conv12_2_mbox_loc_flat
I0405 21:44:36.432101  3807 net.cpp:150] Setting up conv12_2_mbox_loc_flat
I0405 21:44:36.432107  3807 net.cpp:157] Top shape: 4 96 (384)
I0405 21:44:36.432111  3807 net.cpp:165] Memory required for data: 228050576
I0405 21:44:36.432116  3807 layer_factory.hpp:77] Creating layer conv12_2_mbox_conf
I0405 21:44:36.432122  3807 net.cpp:100] Creating Layer conv12_2_mbox_conf
I0405 21:44:36.432126  3807 net.cpp:434] conv12_2_mbox_conf <- conv12_2_relu12_2_0_split_2
I0405 21:44:36.432132  3807 net.cpp:408] conv12_2_mbox_conf -> conv12_2_mbox_conf
I0405 21:44:36.433571  3807 net.cpp:150] Setting up conv12_2_mbox_conf
I0405 21:44:36.433583  3807 net.cpp:157] Top shape: 4 42 2 2 (672)
I0405 21:44:36.433588  3807 net.cpp:165] Memory required for data: 228053264
I0405 21:44:36.433594  3807 layer_factory.hpp:77] Creating layer conv12_2_mbox_conf_perm
I0405 21:44:36.433600  3807 net.cpp:100] Creating Layer conv12_2_mbox_conf_perm
I0405 21:44:36.433615  3807 net.cpp:434] conv12_2_mbox_conf_perm <- conv12_2_mbox_conf
I0405 21:44:36.433621  3807 net.cpp:408] conv12_2_mbox_conf_perm -> conv12_2_mbox_conf_perm
I0405 21:44:36.433727  3807 net.cpp:150] Setting up conv12_2_mbox_conf_perm
I0405 21:44:36.433740  3807 net.cpp:157] Top shape: 4 2 2 42 (672)
I0405 21:44:36.433748  3807 net.cpp:165] Memory required for data: 228055952
I0405 21:44:36.433758  3807 layer_factory.hpp:77] Creating layer conv12_2_mbox_conf_flat
I0405 21:44:36.433775  3807 net.cpp:100] Creating Layer conv12_2_mbox_conf_flat
I0405 21:44:36.433780  3807 net.cpp:434] conv12_2_mbox_conf_flat <- conv12_2_mbox_conf_perm
I0405 21:44:36.433786  3807 net.cpp:408] conv12_2_mbox_conf_flat -> conv12_2_mbox_conf_flat
I0405 21:44:36.433809  3807 net.cpp:150] Setting up conv12_2_mbox_conf_flat
I0405 21:44:36.433815  3807 net.cpp:157] Top shape: 4 168 (672)
I0405 21:44:36.433818  3807 net.cpp:165] Memory required for data: 228058640
I0405 21:44:36.433822  3807 layer_factory.hpp:77] Creating layer conv12_2_mbox_priorbox
I0405 21:44:36.433828  3807 net.cpp:100] Creating Layer conv12_2_mbox_priorbox
I0405 21:44:36.433832  3807 net.cpp:434] conv12_2_mbox_priorbox <- conv12_2_relu12_2_0_split_3
I0405 21:44:36.433837  3807 net.cpp:434] conv12_2_mbox_priorbox <- data_data_0_split_5
I0405 21:44:36.433843  3807 net.cpp:408] conv12_2_mbox_priorbox -> conv12_2_mbox_priorbox
I0405 21:44:36.433866  3807 net.cpp:150] Setting up conv12_2_mbox_priorbox
I0405 21:44:36.433871  3807 net.cpp:157] Top shape: 1 2 96 (192)
I0405 21:44:36.433876  3807 net.cpp:165] Memory required for data: 228059408
I0405 21:44:36.433878  3807 layer_factory.hpp:77] Creating layer conv13_2_mbox_loc
I0405 21:44:36.433887  3807 net.cpp:100] Creating Layer conv13_2_mbox_loc
I0405 21:44:36.433890  3807 net.cpp:434] conv13_2_mbox_loc <- conv13_2_conv13_2_0_split_0
I0405 21:44:36.433897  3807 net.cpp:408] conv13_2_mbox_loc -> conv13_2_mbox_loc
I0405 21:44:36.435317  3807 net.cpp:150] Setting up conv13_2_mbox_loc
I0405 21:44:36.435328  3807 net.cpp:157] Top shape: 4 16 1 1 (64)
I0405 21:44:36.435333  3807 net.cpp:165] Memory required for data: 228059664
I0405 21:44:36.435339  3807 layer_factory.hpp:77] Creating layer conv13_2_mbox_loc_perm
I0405 21:44:36.435346  3807 net.cpp:100] Creating Layer conv13_2_mbox_loc_perm
I0405 21:44:36.435350  3807 net.cpp:434] conv13_2_mbox_loc_perm <- conv13_2_mbox_loc
I0405 21:44:36.435356  3807 net.cpp:408] conv13_2_mbox_loc_perm -> conv13_2_mbox_loc_perm
I0405 21:44:36.435459  3807 net.cpp:150] Setting up conv13_2_mbox_loc_perm
I0405 21:44:36.435467  3807 net.cpp:157] Top shape: 4 1 1 16 (64)
I0405 21:44:36.435470  3807 net.cpp:165] Memory required for data: 228059920
I0405 21:44:36.435473  3807 layer_factory.hpp:77] Creating layer conv13_2_mbox_loc_flat
I0405 21:44:36.435478  3807 net.cpp:100] Creating Layer conv13_2_mbox_loc_flat
I0405 21:44:36.435483  3807 net.cpp:434] conv13_2_mbox_loc_flat <- conv13_2_mbox_loc_perm
I0405 21:44:36.435488  3807 net.cpp:408] conv13_2_mbox_loc_flat -> conv13_2_mbox_loc_flat
I0405 21:44:36.435509  3807 net.cpp:150] Setting up conv13_2_mbox_loc_flat
I0405 21:44:36.435515  3807 net.cpp:157] Top shape: 4 16 (64)
I0405 21:44:36.435518  3807 net.cpp:165] Memory required for data: 228060176
I0405 21:44:36.435523  3807 layer_factory.hpp:77] Creating layer conv13_2_mbox_conf
I0405 21:44:36.435529  3807 net.cpp:100] Creating Layer conv13_2_mbox_conf
I0405 21:44:36.435534  3807 net.cpp:434] conv13_2_mbox_conf <- conv13_2_conv13_2_0_split_1
I0405 21:44:36.435539  3807 net.cpp:408] conv13_2_mbox_conf -> conv13_2_mbox_conf
I0405 21:44:36.436964  3807 net.cpp:150] Setting up conv13_2_mbox_conf
I0405 21:44:36.436975  3807 net.cpp:157] Top shape: 4 28 1 1 (112)
I0405 21:44:36.436978  3807 net.cpp:165] Memory required for data: 228060624
I0405 21:44:36.436985  3807 layer_factory.hpp:77] Creating layer conv13_2_mbox_conf_perm
I0405 21:44:36.436992  3807 net.cpp:100] Creating Layer conv13_2_mbox_conf_perm
I0405 21:44:36.437007  3807 net.cpp:434] conv13_2_mbox_conf_perm <- conv13_2_mbox_conf
I0405 21:44:36.437022  3807 net.cpp:408] conv13_2_mbox_conf_perm -> conv13_2_mbox_conf_perm
I0405 21:44:36.437124  3807 net.cpp:150] Setting up conv13_2_mbox_conf_perm
I0405 21:44:36.437131  3807 net.cpp:157] Top shape: 4 1 1 28 (112)
I0405 21:44:36.437134  3807 net.cpp:165] Memory required for data: 228061072
I0405 21:44:36.437137  3807 layer_factory.hpp:77] Creating layer conv13_2_mbox_conf_flat
I0405 21:44:36.437153  3807 net.cpp:100] Creating Layer conv13_2_mbox_conf_flat
I0405 21:44:36.437157  3807 net.cpp:434] conv13_2_mbox_conf_flat <- conv13_2_mbox_conf_perm
I0405 21:44:36.437162  3807 net.cpp:408] conv13_2_mbox_conf_flat -> conv13_2_mbox_conf_flat
I0405 21:44:36.437194  3807 net.cpp:150] Setting up conv13_2_mbox_conf_flat
I0405 21:44:36.437201  3807 net.cpp:157] Top shape: 4 28 (112)
I0405 21:44:36.437203  3807 net.cpp:165] Memory required for data: 228061520
I0405 21:44:36.437207  3807 layer_factory.hpp:77] Creating layer conv13_2_mbox_priorbox
I0405 21:44:36.437212  3807 net.cpp:100] Creating Layer conv13_2_mbox_priorbox
I0405 21:44:36.437216  3807 net.cpp:434] conv13_2_mbox_priorbox <- conv13_2_conv13_2_0_split_2
I0405 21:44:36.437222  3807 net.cpp:434] conv13_2_mbox_priorbox <- data_data_0_split_6
I0405 21:44:36.437227  3807 net.cpp:408] conv13_2_mbox_priorbox -> conv13_2_mbox_priorbox
I0405 21:44:36.437248  3807 net.cpp:150] Setting up conv13_2_mbox_priorbox
I0405 21:44:36.437254  3807 net.cpp:157] Top shape: 1 2 16 (32)
I0405 21:44:36.437258  3807 net.cpp:165] Memory required for data: 228061648
I0405 21:44:36.437261  3807 layer_factory.hpp:77] Creating layer mbox_loc
I0405 21:44:36.437268  3807 net.cpp:100] Creating Layer mbox_loc
I0405 21:44:36.437271  3807 net.cpp:434] mbox_loc <- fire4_mbox_loc_flat
I0405 21:44:36.437286  3807 net.cpp:434] mbox_loc <- fire8_mbox_loc_flat
I0405 21:44:36.437291  3807 net.cpp:434] mbox_loc <- fire9_mbox_loc_flat
I0405 21:44:36.437295  3807 net.cpp:434] mbox_loc <- fire10_mbox_loc_flat
I0405 21:44:36.437300  3807 net.cpp:434] mbox_loc <- conv12_2_mbox_loc_flat
I0405 21:44:36.437304  3807 net.cpp:434] mbox_loc <- conv13_2_mbox_loc_flat
I0405 21:44:36.437309  3807 net.cpp:408] mbox_loc -> mbox_loc
I0405 21:44:36.437343  3807 net.cpp:150] Setting up mbox_loc
I0405 21:44:36.437350  3807 net.cpp:157] Top shape: 4 32120 (128480)
I0405 21:44:36.437361  3807 net.cpp:165] Memory required for data: 228575568
I0405 21:44:36.437366  3807 layer_factory.hpp:77] Creating layer mbox_conf
I0405 21:44:36.437371  3807 net.cpp:100] Creating Layer mbox_conf
I0405 21:44:36.437374  3807 net.cpp:434] mbox_conf <- fire4_mbox_conf_flat
I0405 21:44:36.437379  3807 net.cpp:434] mbox_conf <- fire8_mbox_conf_flat
I0405 21:44:36.437383  3807 net.cpp:434] mbox_conf <- fire9_mbox_conf_flat
I0405 21:44:36.437388  3807 net.cpp:434] mbox_conf <- fire10_mbox_conf_flat
I0405 21:44:36.437392  3807 net.cpp:434] mbox_conf <- conv12_2_mbox_conf_flat
I0405 21:44:36.437397  3807 net.cpp:434] mbox_conf <- conv13_2_mbox_conf_flat
I0405 21:44:36.437402  3807 net.cpp:408] mbox_conf -> mbox_conf
I0405 21:44:36.437423  3807 net.cpp:150] Setting up mbox_conf
I0405 21:44:36.437428  3807 net.cpp:157] Top shape: 4 56210 (224840)
I0405 21:44:36.437433  3807 net.cpp:165] Memory required for data: 229474928
I0405 21:44:36.437436  3807 layer_factory.hpp:77] Creating layer mbox_priorbox
I0405 21:44:36.437441  3807 net.cpp:100] Creating Layer mbox_priorbox
I0405 21:44:36.437445  3807 net.cpp:434] mbox_priorbox <- fire4_mbox_priorbox
I0405 21:44:36.437450  3807 net.cpp:434] mbox_priorbox <- fire8_mbox_priorbox
I0405 21:44:36.437454  3807 net.cpp:434] mbox_priorbox <- fire9_mbox_priorbox
I0405 21:44:36.437459  3807 net.cpp:434] mbox_priorbox <- fire10_mbox_priorbox
I0405 21:44:36.437463  3807 net.cpp:434] mbox_priorbox <- conv12_2_mbox_priorbox
I0405 21:44:36.437467  3807 net.cpp:434] mbox_priorbox <- conv13_2_mbox_priorbox
I0405 21:44:36.437472  3807 net.cpp:408] mbox_priorbox -> mbox_priorbox
I0405 21:44:36.437492  3807 net.cpp:150] Setting up mbox_priorbox
I0405 21:44:36.437499  3807 net.cpp:157] Top shape: 1 2 32120 (64240)
I0405 21:44:36.437510  3807 net.cpp:165] Memory required for data: 229731888
I0405 21:44:36.437513  3807 layer_factory.hpp:77] Creating layer mbox_loss
I0405 21:44:36.437523  3807 net.cpp:100] Creating Layer mbox_loss
I0405 21:44:36.437527  3807 net.cpp:434] mbox_loss <- mbox_loc
I0405 21:44:36.437532  3807 net.cpp:434] mbox_loss <- mbox_conf
I0405 21:44:36.437536  3807 net.cpp:434] mbox_loss <- mbox_priorbox
…
I0405 21:44:36.440526  3807 net.cpp:58] Initializing net from parameters:
name: "tiny_SSD_300x300_train"
state {
  phase: TEST
}
layer {
  name: "data"
  type: "AnnotatedData"
  top: "data"
  top: "label"
  include {
    phase: TEST
  }
  transform_param {
    mean_value: 104
    mean_value: 117
    mean_value: 123
    resize_param {
      prob: 1
      resize_mode: WARP
      height: 300
      width: 300
      interp_mode: LINEAR
    }
  }
  data_param {
    source: "test_lmdb/"
    batch_size: 2
    backend: LMDB
  }
  annotated_data_param {
    batch_sampler {
    }
    label_map_file: "labelmap.prototxt"
  }
}
layer {
  name: "conv1"
  type: "Convolution"
  bottom: "data"
  top: "conv1"
  param {
    lr_mult: 1
    decay_mult: 1
  }
  param {
    lr_mult: 2
    decay_mult: 0
  }
  convolution_param {
    num_output: 57
    pad: 0
    kernel_size: 3
    stride: 2
    weight_filler {
      type: "xavier"
    }
    bias_filler {
      type: "constant"
      value: 0
    }
  }
}
layer {
  name: "relu1_1"
  type: "ReLU"
  bottom: "conv1"
  top: "conv1"
}
layer {
  name: "pool1"
  type: "Pooling"
  bottom: "conv1"
  top: "pool1"
  pooling_param {
    pool: MAX
    kernel_size: 3
    stride: 2
  }
}
layer {
  name: "fire1/squeeze1x1"
  type: "Convolution"
  bottom: "pool1"
  top: "fire1/squeeze1x1"
  convolution_param {
    num_output: 15
    kernel_size: 1
    weight_filler {
      type: "xavier"
    }
  }
}
layer {
  name: "fire1/relu_squeeze1x1"
  type: "ReLU"
  bottom: "fire1/squeeze1x1"
  top: "fire1/squeeze1x1"
}
layer {
  name: "fire1/expand1x1"
  type: "Convolution"
  bottom: "fire1/squeeze1x1"
  top: "fire1/expand1x1"
  convolution_param {
    num_output: 49
    kernel_size: 1
    weight_filler {
      type: "xavier"
    }
  }
}
layer {
  name: "fire1/relu_expand1x1"
  type: "ReLU"
  bottom: "fire1/expand1x1"
  top: "fire1/expand1x1"
}
layer {
  name: "fire1/expand3x3"
  type: "Convolution"
  bottom: "fire1/squeeze1x1"
  top: "fire1/expand3x3"
  convolution_param {
    num_output: 53
    pad: 1
    kernel_size: 3
    weight_filler {
      type: "xavier"
    }
  }
}
layer {
  name: "fire1/relu_expand3x3"
  type: "ReLU"
  bottom: "fire1/expand3x3"
  top: "fire1/expand3x3"
}
layer {
  name: "fire1/concat"
  type: "Concat"
  bottom: "fire1/expand1x1"
  bottom: "fire1/expand3x3"
  top: "fire1/concat"
}
layer {
  name: "fire2/squeeze1x1"
  type: "Convolution"
  bottom: "fire1/concat"
  top: "fire2/squeeze1x1"
  convolution_param {
    num_output: 15
    kernel_size: 1
    weight_filler {
      type: "xavier"
    }
  }
}
layer {
  name: "fire2/relu_squeeze1x1"
  type: "ReLU"
  bottom: "fire2/squeeze1x1"
  top: "fire2/squeeze1x1"
}
layer {
  name: "fire2/expand1x1"
  type: "Convolution"
  bottom: "fire2/squeeze1x1"
  top: "fire2/expand1x1"
  convolution_param {
    num_output: 54
    kernel_size: 1
    weight_filler {
      type: "xavier"
    }
  }
}
layer {
  name: "fire2/relu_expand1x1"
  type: "ReLU"
  bottom: "fire2/expand1x1"
  top: "fire2/expand1x1"
}
layer {
  name: "fire2/expand3x3"
  type: "Convolution"
  bottom: "fire2/squeeze1x1"
  top: "fire2/expand3x3"
  convolution_param {
    num_output: 52
    pad: 1
    kernel_size: 3
    weight_filler {
      type: "xavier"
    }
  }
}
layer {
  name: "fire2/relu_expand3x3"
  type: "ReLU"
  bottom: "fire2/expand3x3"
  top: "fire2/expand3x3"
}
layer {
  name: "fire2/concat"
  type: "Concat"
  bottom: "fire2/expand1x1"
  bottom: "fire2/expand3x3"
  top: "fire2/concat"
}
layer {
  name: "pool3"
  type: "Pooling"
  bottom: "fire2/concat"
  top: "pool3"
  pooling_param {
    pool: MAX
    kernel_size: 3
    stride: 2
  }
}
layer {
  name: "fire3/squeeze1x1"
  type: "Convolution"
  bottom: "pool3"
  top: "fire3/squeeze1x1"
  convolution_param {
    num_output: 29
    kernel_size: 1
    weight_filler {
      type: "xavier"
    }
  }
}
layer {
  name: "fire3/relu_squeeze1x1"
  type: "ReLU"
  bottom: "fire3/squeeze1x1"
  top: "fire3/squeeze1x1"
}
layer {
  name: "fire3/expand1x1"
  type: "Convolution"
  bottom: "fire3/squeeze1x1"
  top: "fire3/expand1x1"
  convolution_param {
    num_output: 92
    kernel_size: 1
    weight_filler {
      type: "xavier"
    }
  }
}
layer {
  name: "fire3/relu_expand1x1"
  type: "ReLU"
  bottom: "fire3/expand1x1"
  top: "fire3/expand1x1"
}
layer {
  name: "fire3/expand3x3"
  type: "Convolution"
  bottom: "fire3/squeeze1x1"
  top: "fire3/expand3x3"
  convolution_param {
    num_output: 94
    pad: 1
    kernel_size: 3
    weight_filler {
      type: "xavier"
    }
  }
}
layer {
  name: "fire3/relu_expand3x3"
  type: "ReLU"
  bottom: "fire3/expand3x3"
  top: "fire3/expand3x3"
}
layer {
  name: "fire3/concat"
  type: "Concat"
  bottom: "fire3/expand1x1"
  bottom: "fire3/expand3x3"
  top: "fire3/concat"
}
layer {
  name: "fire4/squeeze1x1"
  type: "Convolution"
  bottom: "fire3/concat"
  top: "fire4/squeeze1x1"
  convolution_param {
    num_output: 29
    kernel_size: 1
    weight_filler {
      type: "xavier"
    }
  }
}
layer {
  name: "fire4/relu_squeeze1x1"
  type: "ReLU"
  bottom: "fire4/squeeze1x1"
  top: "fire4/squeeze1x1"
}
layer {
  name: "fire4/expand1x1"
  type: "Convolution"
  bottom: "fire4/squeeze1x1"
  top: "fire4/expand1x1"
  convolution_param {
    num_output: 90
    kernel_size: 1
    weight_filler {
      type: "xavier"
    }
  }
}
layer {
  name: "fire4/relu_expand1x1"
  type: "ReLU"
  bottom: "fire4/expand1x1"
  top: "fire4/expand1x1"
}
layer {
  name: "fire4/expand3x3"
  type: "Convolution"
  bottom: "fire4/squeeze1x1"
  top: "fire4/expand3x3"
  convolution_param {
    num_output: 83
    pad: 1
    kernel_size: 3
    weight_filler {
      type: "xavier"
    }
  }
}
layer {
  name: "fire4/relu_expand3x3"
  type: "ReLU"
  bottom: "fire4/expand3x3"
  top: "fire4/expand3x3"
}
layer {
  name: "fire4/concat"
  type: "Concat"
  bottom: "fire4/expand1x1"
  bottom: "fire4/expand3x3"
  top: "fire4/concat"
}
layer {
  name: "pool5"
  type: "Pooling"
  bottom: "fire4/concat"
  top: "pool5"
  pooling_param {
    pool: MAX
    kernel_size: 3
    stride: 2
  }
}
layer {
  name: "fire5/squeeze1x1"
  type: "Convolution"
  bottom: "pool5"
  top: "fire5/squeeze1x1"
  convolution_param {
    num_output: 44
    kernel_size: 1
    weight_filler {
      type: "xavier"
    }
  }
}
layer {
  name: "fire5/relu_squeeze1x1"
  type: "ReLU"
  bottom: "fire5/squeeze1x1"
  top: "fire5/squeeze1x1"
}
layer {
  name: "fire5/expand1x1"
  type: "Convolution"
  bottom: "fire5/squeeze1x1"
  top: "fire5/expand1x1"
  convolution_param {
    num_output: 166
    kernel_size: 1
    weight_filler {
      type: "xavier"
    }
  }
}
layer {
  name: "fire5/relu_expand1x1"
  type: "ReLU"
  bottom: "fire5/expand1x1"
  top: "fire5/expand1x1"
}
layer {
  name: "fire5/expand3x3"
  type: "Convolution"
  bottom: "fire5/squeeze1x1"
  top: "fire5/expand3x3"
  convolution_param {
    num_output: 161
    pad: 1
    kernel_size: 3
    weight_filler {
      type: "xavier"
    }
  }
}
layer {
  name: "fire5/relu_expand3x3"
  type: "ReLU"
  bottom: "fire5/expand3x3"
  top: "fire5/expand3x3"
}
layer {
  name: "fire5/concat"
  type: "Concat"
  bottom: "fire5/expand1x1"
  bottom: "fire5/expand3x3"
  top: "fire5/concat"
}
layer {
  name: "fire6/squeeze1x1"
  type: "Convolution"
  bottom: "fire5/concat"
  top: "fire6/squeeze1x1"
  convolution_param {
    num_output: 45
    kernel_size: 1
    weight_filler {
      type: "xavier"
    }
  }
}
layer {
  name: "fire6/relu_squeeze1x1"
  type: "ReLU"
  bottom: "fire6/squeeze1x1"
  top: "fire6/squeeze1x1"
}
layer {
  name: "fire6/expand1x1"
  type: "Convolution"
  bottom: "fire6/squeeze1x1"
  top: "fire6/expand1x1"
  convolution_param {
    num_output: 155
    kernel_size: 1
    weight_filler {
      type: "xavier"
    }
  }
}
layer {
  name: "fire6/relu_expand1x1"
  type: "ReLU"
  bottom: "fire6/expand1x1"
  top: "fire6/expand1x1"
}
layer {
  name: "fire6/expand3x3"
  type: "Convolution"
  bottom: "fire6/squeeze1x1"
  top: "fire6/expand3x3"
  convolution_param {
    num_output: 146
    pad: 1
    kernel_size: 3
    weight_filler {
      type: "xavier"
    }
  }
}
layer {
  name: "fire6/relu_expand3x3"
  type: "ReLU"
  bottom: "fire6/expand3x3"
  top: "fire6/expand3x3"
}
layer {
  name: "fire6/concat"
  type: "Concat"
  bottom: "fire6/expand1x1"
  bottom: "fire6/expand3x3"
  top: "fire6/concat"
}
layer {
  name: "fire7/squeeze1x1"
  type: "Convolution"
  bottom: "fire6/concat"
  top: "fire7/squeeze1x1"
  convolution_param {
    num_output: 49
    kernel_size: 1
    weight_filler {
      type: "xavier"
    }
  }
}
layer {
  name: "fire7/relu_squeeze1x1"
  type: "ReLU"
  bottom: "fire7/squeeze1x1"
  top: "fire7/squeeze1x1"
}
layer {
  name: "fire7/expand1x1"
  type: "Convolution"
  bottom: "fire7/squeeze1x1"
  top: "fire7/expand1x1"
  convolution_param {
    num_output: 163
    kernel_size: 1
    weight_filler {
      type: "xavier"
    }
  }
}
layer {
  name: "fire7/relu_expand1x1"
  type: "ReLU"
  bottom: "fire7/expand1x1"
  top: "fire7/expand1x1"
}
layer {
  name: "fire7/expand3x3"
  type: "Convolution"
  bottom: "fire7/squeeze1x1"
  top: "fire7/expand3x3"
  convolution_param {
    num_output: 171
    pad: 1
    kernel_size: 3
    weight_filler {
      type: "xavier"
    }
  }
}
layer {
  name: "fire7/relu_expand3x3"
  type: "ReLU"
  bottom: "fire7/expand3x3"
  top: "fire7/expand3x3"
}
layer {
  name: "fire7/concat"
  type: "Concat"
  bottom: "fire7/expand1x1"
  bottom: "fire7/expand3x3"
  top: "fire7/concat"
}
layer {
  name: "fire8/squeeze1x1"
  type: "Convolution"
  bottom: "fire7/concat"
  top: "fire8/squeeze1x1"
  convolution_param {
    num_output: 25
    kernel_size: 1
    weight_filler {
      type: "xavier"
    }
  }
}
layer {
  name: "fire8/relu_squeeze1x1"
  type: "ReLU"
  bottom: "fire8/squeeze1x1"
  top: "fire8/squeeze1x1"
}
layer {
  name: "fire8/expand1x1"
  type: "Convolution"
  bottom: "fire8/squeeze1x1"
  top: "fire8/expand1x1"
  convolution_param {
    num_output: 29
    kernel_size: 1
    weight_filler {
      type: "xavier"
    }
  }
}
layer {
  name: "fire8/relu_expand1x1"
  type: "ReLU"
  bottom: "fire8/expand1x1"
  top: "fire8/expand1x1"
}
layer {
  name: "fire8/expand3x3"
  type: "Convolution"
  bottom: "fire8/squeeze1x1"
  top: "fire8/expand3x3"
  convolution_param {
    num_output: 54
    pad: 1
    kernel_size: 3
    weight_filler {
      type: "xavier"
    }
  }
}
layer {
  name: "fire8/relu_expand3x3"
  type: "ReLU"
  bottom: "fire8/expand3x3"
  top: "fire8/expand3x3"
}
layer {
  name: "fire8/concat"
  type: "Concat"
  bottom: "fire8/expand1x1"
  bottom: "fire8/expand3x3"
  top: "fire8/concat"
}
layer {
  name: "pool9"
  type: "Pooling"
  bottom: "fire8/concat"
  top: "pool9"
  pooling_param {
    pool: MAX
    kernel_size: 3
    stride: 2
  }
}
layer {
  name: "fire9/squeeze1x1"
  type: "Convolution"
  bottom: "pool9"
  top: "fire9/squeeze1x1"
  convolution_param {
    num_output: 37
    kernel_size: 1
    weight_filler {
      type: "xavier"
    }
  }
}
layer {
  name: "fire9/relu_squeeze1x1"
  type: "ReLU"
  bottom: "fire9/squeeze1x1"
  top: "fire9/squeeze1x1"
}
layer {
  name: "fire9/expand1x1"
  type: "Convolution"
  bottom: "fire9/squeeze1x1"
  top: "fire9/expand1x1"
  convolution_param {
    num_output: 45
    kernel_size: 1
    weight_filler {
      type: "xavier"
    }
  }
}
layer {
  name: "fire9/relu_expand1x1"
  type: "ReLU"
  bottom: "fire9/expand1x1"
  top: "fire9/expand1x1"
}
layer {
  name: "fire9/expand3x3"
  type: "Convolution"
  bottom: "fire9/squeeze1x1"
  top: "fire9/expand3x3"
  convolution_param {
    num_output: 56
    pad: 1
    kernel_size: 3
    weight_filler {
      type: "xavier"
    }
  }
}
layer {
  name: "fire9/relu_expand3x3"
  type: "ReLU"
  bottom: "fire9/expand3x3"
  top: "fire9/expand3x3"
}
layer {
  name: "fire9/concat"
  type: "Concat"
  bottom: "fire9/expand1x1"
  bottom: "fire9/expand3x3"
  top: "fire9/concat"
}
layer {
  name: "pool10"
  type: "Pooling"
  bottom: "fire9/concat"
  top: "pool10"
  pooling_param {
    pool: MAX
    kernel_size: 3
    stride: 2
  }
}
layer {
  name: "fire10/squeeze1x1"
  type: "Convolution"
  bottom: "pool10"
  top: "fire10/squeeze1x1"
  convolution_param {
    num_output: 38
    kernel_size: 1
    weight_filler {
      type: "xavier"
    }
  }
}
layer {
  name: "fire10/relu_squeeze1x1"
  type: "ReLU"
  bottom: "fire10/squeeze1x1"
  top: "fire10/squeeze1x1"
}
layer {
  name: "fire10/expand1x1"
  type: "Convolution"
  bottom: "fire10/squeeze1x1"
  top: "fire10/expand1x1"
  convolution_param {
    num_output: 41
    kernel_size: 1
    weight_filler {
      type: "xavier"
    }
  }
}
layer {
  name: "fire10/relu_expand1x1"
  type: "ReLU"
  bottom: "fire10/expand1x1"
  top: "fire10/expand1x1"
}
layer {
  name: "fire10/expand3x3"
  type: "Convolution"
  bottom: "fire10/squeeze1x1"
  top: "fire10/expand3x3"
  convolution_param {
    num_output: 44
    pad: 1
    kernel_size: 3
    weight_filler {
      type: "xavier"
    }
  }
}
layer {
  name: "fire10/relu_expand3x3"
  type: "ReLU"
  bottom: "fire10/expand3x3"
  top: "fire10/expand3x3"
}
layer {
  name: "fire10/concat"
  type: "Concat"
  bottom: "fire10/expand1x1"
  bottom: "fire10/expand3x3"
  top: "fire10/concat"
}
layer {
  name: "conv12_1"
  type: "Convolution"
  bottom: "fire10/concat"
  top: "conv12_1"
  param {
    lr_mult: 1
    decay_mult: 1
  }
  param {
    lr_mult: 2
    decay_mult: 0
  }
  convolution_param {
    num_output: 51
    pad: 3
    kernel_size: 3
    stride: 2
    weight_filler {
      type: "xavier"
    }
    bias_filler {
      type: "constant"
      value: 0
    }
  }
}
layer {
  name: "relu122_1"
  type: "ReLU"
  bottom: "conv12_1"
  top: "conv12_1"
}
layer {
  name: "conv12_2"
  type: "Convolution"
  bottom: "conv12_1"
  top: "conv12_2"
  param {
    lr_mult: 1
    decay_mult: 1
  }
  param {
    lr_mult: 2
    decay_mult: 0
  }
  convolution_param {
    num_output: 46
    pad: 0
    kernel_size: 3
    weight_filler {
      type: "xavier"
    }
    bias_filler {
      type: "constant"
      value: 0
    }
  }
}
layer {
  name: "relu12_2"
  type: "ReLU"
  bottom: "conv12_2"
  top: "conv12_2"
}
layer {
  name: "conv13_1"
  type: "Convolution"
  bottom: "conv12_2"
  top: "conv13_1"
  param {
    lr_mult: 1
    decay_mult: 1
  }
  param {
    lr_mult: 2
    decay_mult: 0
  }
  convolution_param {
    num_output: 55
    pad: 1
    kernel_size: 3
    weight_filler {
      type: "xavier"
    }
    bias_filler {
      type: "constant"
      value: 0
    }
  }
}
layer {
  name: "relu13_1"
  type: "ReLU"
  bottom: "conv13_1"
  top: "conv13_1"
}
layer {
  name: "conv13_2"
  type: "Convolution"
  bottom: "conv13_1"
  top: "conv13_2"
  param {
    lr_mult: 1
    decay_mult: 1
  }
  param {
    lr_mult: 2
    decay_mult: 0
  }
  convolution_param {
    num_output: 85
    pad: 1
    kernel_size: 3
    stride: 2
    weight_filler {
      type: "xavier"
    }
    bias_filler {
      type: "constant"
      value: 0
    }
  }
}
layer {
  name: "fire4_norm"
  type: "Normalize"
  bottom: "fire4/concat"
  top: "fire4_norm"
  norm_param {
    across_spatial: false
    scale_filler {
      type: "constant"
      value: 20
    }
    channel_shared: false
  }
}
layer {
  name: "fire4_mbox_loc"
  type: "Convolution"
  bottom: "fire4_norm"
  top: "fire4_mbox_loc"
  param {
    lr_mult: 1
    decay_mult: 1
  }
  param {
    lr_mult: 2
    decay_mult: 0
  }
  convolution_param {
    num_output: 16
    pad: 1
    kernel_size: 3
    stride: 1
    weight_filler {
      type: "xavier"
    }
    bias_filler {
      type: "constant"
      value: 0
    }
  }
}
layer {
  name: "fire4_mbox_loc_perm"
  type: "Permute"
  bottom: "fire4_mbox_loc"
  top: "fire4_mbox_loc_perm"
  permute_param {
    order: 0
    order: 2
    order: 3
    order: 1
  }
}
layer {
  name: "fire4_mbox_loc_flat"
  type: "Flatten"
  bottom: "fire4_mbox_loc_perm"
  top: "fire4_mbox_loc_flat"
  flatten_param {
    axis: 1
  }
}
layer {
  name: "fire4_mbox_conf"
  type: "Convolution"
  bottom: "fire4_norm"
  top: "fire4_mbox_conf"
  param {
    lr_mult: 1
    decay_mult: 1
  }
  param {
    lr_mult: 2
    decay_mult: 0
  }
  convolution_param {
    num_output: 28
    pad: 1
    kernel_size: 3
    stride: 1
    weight_filler {
      type: "xavier"
    }
    bias_filler {
      type: "constant"
      value: 0
    }
  }
}
layer {
  name: "fire4_mbox_conf_perm"
  type: "Permute"
  bottom: "fire4_mbox_conf"
  top: "fire4_mbox_conf_perm"
  permute_param {
    order: 0
    order: 2
    order: 3
    order: 1
  }
}
layer {
  name: "fire4_mbox_conf_flat"
  type: "Flatten"
  bottom: "fire4_mbox_conf_perm"
  top: "fire4_mbox_conf_flat"
  flatten_param {
    axis: 1
  }
}
layer {
  name: "fire4_mbox_priorbox"
  type: "PriorBox"
  bottom: "fire4_norm"
  bottom: "data"
  top: "fire4_mbox_priorbox"
  prior_box_param {
    min_size: 30
    max_size: 60
    aspect_ratio: 2
    flip: true
    clip: false
    variance: 0.1
    variance: 0.1
    variance: 0.2
    variance: 0.2
    step: 8
    offset: 0.5
  }
}
layer {
  name: "fire8_norm"
  type: "Normalize"
  bottom: "fire8/concat"
  top: "fire8_norm"
  norm_param {
    across_spatial: false
    scale_filler {
      type: "constant"
      value: 20
    }
    channel_shared: false
  }
}
layer {
  name: "fire8_mbox_loc"
  type: "Convolution"
  bottom: "fire8_norm"
  top: "fire8_mbox_loc"
  param {
    lr_mult: 1
    decay_mult: 1
  }
  param {
    lr_mult: 2
    decay_mult: 0
  }
  convolution_param {
    num_output: 24
    pad: 1
    kernel_size: 3
    stride: 1
    weight_filler {
      type: "xavier"
    }
    bias_filler {
      type: "constant"
      value: 0
    }
  }
}
layer {
  name: "fire8_mbox_loc_perm"
  type: "Permute"
  bottom: "fire8_mbox_loc"
  top: "fire8_mbox_loc_perm"
  permute_param {
    order: 0
    order: 2
    order: 3
    order: 1
  }
}
layer {
  name: "fire8_mbox_loc_flat"
  type: "Flatten"
  bottom: "fire8_mbox_loc_perm"
  top: "fire8_mbox_loc_flat"
  flatten_param {
    axis: 1
  }
}
layer {
  name: "fire8_mbox_conf"
  type: "Convolution"
  bottom: "fire8_norm"
  top: "fire8_mbox_conf"
  param {
    lr_mult: 1
    decay_mult: 1
  }
  param {
    lr_mult: 2
    decay_mult: 0
  }
  convolution_param {
    num_output: 42
    pad: 1
    kernel_size: 3
    stride: 1
    weight_filler {
      type: "xavier"
    }
    bias_filler {
      type: "constant"
      value: 0
    }
  }
}
layer {
  name: "fire8_mbox_conf_perm"
  type: "Permute"
  bottom: "fire8_mbox_conf"
  top: "fire8_mbox_conf_perm"
  permute_param {
    order: 0
    order: 2
    order: 3
    order: 1
  }
}
layer {
  name: "fire8_mbox_conf_flat"
  type: "Flatten"
  bottom: "fire8_mbox_conf_perm"
  top: "fire8_mbox_conf_flat"
  flatten_param {
    axis: 1
  }
}
layer {
  name: "fire8_mbox_priorbox"
  type: "PriorBox"
  bottom: "fire8_norm"
  bottom: "data"
  top: "fire8_mbox_priorbox"
  prior_box_param {
    min_size: 60
    max_size: 111
    aspect_ratio: 2
    aspect_ratio: 3
    flip: true
    clip: false
    variance: 0.1
    variance: 0.1
    variance: 0.2
    variance: 0.2
    step: 16
    offset: 0.5
  }
}
layer {
  name: "fire9_mbox_loc"
  type: "Convolution"
  bottom: "fire9/concat"
  top: "fire9_mbox_loc"
  param {
    lr_mult: 1
    decay_mult: 1
  }
  param {
    lr_mult: 2
    decay_mult: 0
  }
  convolution_param {
    num_output: 24
    pad: 1
    kernel_size: 3
    stride: 1
    weight_filler {
      type: "xavier"
    }
    bias_filler {
      type: "constant"
      value: 0
    }
  }
}
layer {
  name: "fire9_mbox_loc_perm"
  type: "Permute"
  bottom: "fire9_mbox_loc"
  top: "fire9_mbox_loc_perm"
  permute_param {
    order: 0
    order: 2
    order: 3
    order: 1
  }
}
layer {
  name: "fire9_mbox_loc_flat"
  type: "Flatten"
  bottom: "fire9_mbox_loc_perm"
  top: "fire9_mbox_loc_flat"
  flatten_param {
    axis: 1
  }
}
layer {
  name: "fire9_mbox_conf"
  type: "Convolution"
  bottom: "fire9/concat"
  top: "fire9_mbox_conf"
  param {
    lr_mult: 1
    decay_mult: 1
  }
  param {
    lr_mult: 2
    decay_mult: 0
  }
  convolution_param {
    num_output: 42
    pad: 1
    kernel_size: 3
    stride: 1
    weight_filler {
      type: "xavier"
    }
    bias_filler {
      type: "constant"
      value: 0
    }
  }
}
layer {
  name: "fire9_mbox_conf_perm"
  type: "Permute"
  bottom: "fire9_mbox_conf"
  top: "fire9_mbox_conf_perm"
  permute_param {
    order: 0
    order: 2
    order: 3
    order: 1
  }
}
layer {
  name: "fire9_mbox_conf_flat"
  type: "Flatten"
  bottom: "fire9_mbox_conf_perm"
  top: "fire9_mbox_conf_flat"
  flatten_param {
    axis: 1
  }
}
layer {
  name: "fire9_mbox_priorbox"
  type: "PriorBox"
  bottom: "fire9/concat"
  bottom: "data"
  top: "fire9_mbox_priorbox"
  prior_box_param {
    min_size: 111
    max_size: 162
    aspect_ratio: 2
    aspect_ratio: 3
    flip: true
    clip: false
    variance: 0.1
    variance: 0.1
    variance: 0.2
    variance: 0.2
    step: 34
    offset: 0.5
  }
}
layer {
  name: "fire10_mbox_loc"
  type: "Convolution"
  bottom: "fire10/concat"
  top: "fire10_mbox_loc"
  param {
    lr_mult: 1
    decay_mult: 1
  }
  param {
    lr_mult: 2
    decay_mult: 0
  }
  convolution_param {
    num_output: 24
    pad: 1
    kernel_size: 3
    stride: 1
    weight_filler {
      type: "xavier"
    }
    bias_filler {
      type: "constant"
      value: 0
    }
  }
}
layer {
  name: "fire10_mbox_loc_perm"
  type: "Permute"
  bottom: "fire10_mbox_loc"
  top: "fire10_mbox_loc_perm"
  permute_param {
    order: 0
    order: 2
    order: 3
    order: 1
  }
}
layer {
  name: "fire10_mbox_loc_flat"
  type: "Flatten"
  bottom: "fire10_mbox_loc_perm"
  top: "fire10_mbox_loc_flat"
  flatten_param {
    axis: 1
  }
}
layer {
  name: "fire10_mbox_conf"
  type: "Convolution"
  bottom: "fire10/concat"
  top: "fire10_mbox_conf"
  param {
    lr_mult: 1
    decay_mult: 1
  }
  param {
    lr_mult: 2
    decay_mult: 0
  }
  convolution_param {
    num_output: 42
    pad: 1
    kernel_size: 3
    stride: 1
    weight_filler {
      type: "xavier"
    }
    bias_filler {
      type: "constant"
      value: 0
    }
  }
}
layer {
  name: "fire10_mbox_conf_perm"
  type: "Permute"
  bottom: "fire10_mbox_conf"
  top: "fire10_mbox_conf_perm"
  permute_param {
    order: 0
    order: 2
    order: 3
    order: 1
  }
}
layer {
  name: "fire10_mbox_conf_flat"
  type: "Flatten"
  bottom: "fire10_mbox_conf_perm"
  top: "fire10_mbox_conf_flat"
  flatten_param {
    axis: 1
  }
}
layer {
  name: "fire10_mbox_priorbox"
  type: "PriorBox"
  bottom: "fire10/concat"
  bottom: "data"
  top: "fire10_mbox_priorbox"
  prior_box_param {
    min_size: 162
    max_size: 213
    aspect_ratio: 2
    aspect_ratio: 3
    flip: true
    clip: false
    variance: 0.1
    variance: 0.1
    variance: 0.2
    variance: 0.2
    step: 75
    offset: 0.5
  }
}
layer {
  name: "conv12_2_mbox_loc"
  type: "Convolution"
  bottom: "conv12_2"
  top: "conv12_2_mbox_loc"
  param {
    lr_mult: 1
    decay_mult: 1
  }
  param {
    lr_mult: 2
    decay_mult: 0
  }
  convolution_param {
    num_output: 24
    pad: 1
    kernel_size: 3
    stride: 1
    weight_filler {
      type: "xavier"
    }
    bias_filler {
      type: "constant"
      value: 0
    }
  }
}
layer {
  name: "conv12_2_mbox_loc_perm"
  type: "Permute"
  bottom: "conv12_2_mbox_loc"
  top: "conv12_2_mbox_loc_perm"
  permute_param {
    order: 0
    order: 2
    order: 3
    order: 1
  }
}
layer {
  name: "conv12_2_mbox_loc_flat"
  type: "Flatten"
  bottom: "conv12_2_mbox_loc_perm"
  top: "conv12_2_mbox_loc_flat"
  flatten_param {
    axis: 1
  }
}
layer {
  name: "conv12_2_mbox_conf"
  type: "Convolution"
  bottom: "conv12_2"
  top: "conv12_2_mbox_conf"
  param {
    lr_mult: 1
    decay_mult: 1
  }
  param {
    lr_mult: 2
    decay_mult: 0
  }
  convolution_param {
    num_output: 42
    pad: 1
    kernel_size: 3
    stride: 1
    weight_filler {
      type: "xavier"
    }
    bias_filler {
      type: "constant"
      value: 0
    }
  }
}
layer {
  name: "conv12_2_mbox_conf_perm"
  type: "Permute"
  bottom: "conv12_2_mbox_conf"
  top: "conv12_2_mbox_conf_perm"
  permute_param {
    order: 0
    order: 2
    order: 3
    order: 1
  }
}
layer {
  name: "conv12_2_mbox_conf_flat"
  type: "Flatten"
  bottom: "conv12_2_mbox_conf_perm"
  top: "conv12_2_mbox_conf_flat"
  flatten_param {
    axis: 1
  }
}
layer {
  name: "conv12_2_mbox_priorbox"
  type: "PriorBox"
  bottom: "conv12_2"
  bottom: "data"
  top: "conv12_2_mbox_priorbox"
  prior_box_param {
    min_size: 213
    max_size: 264
    aspect_ratio: 2
    aspect_ratio: 3
    flip: true
    clip: false
    variance: 0.1
    variance: 0.1
    variance: 0.2
    variance: 0.2
    step: 150
    offset: 0.5
  }
}
layer {
  name: "conv13_2_mbox_loc"
  type: "Convolution"
  bottom: "conv13_2"
  top: "conv13_2_mbox_loc"
  param {
    lr_mult: 1
    decay_mult: 1
  }
  param {
    lr_mult: 2
    decay_mult: 0
  }
  convolution_param {
    num_output: 16
    pad: 1
    kernel_size: 3
    stride: 1
    weight_filler {
      type: "xavier"
    }
    bias_filler {
      type: "constant"
      value: 0
    }
  }
}
layer {
  name: "conv13_2_mbox_loc_perm"
  type: "Permute"
  bottom: "conv13_2_mbox_loc"
  top: "conv13_2_mbox_loc_perm"
  permute_param {
    order: 0
    order: 2
    order: 3
    order: 1
  }
}
layer {
  name: "conv13_2_mbox_loc_flat"
  type: "Flatten"
  bottom: "conv13_2_mbox_loc_perm"
  top: "conv13_2_mbox_loc_flat"
  flatten_param {
    axis: 1
  }
}
layer {
  name: "conv13_2_mbox_conf"
  type: "Convolution"
  bottom: "conv13_2"
  top: "conv13_2_mbox_conf"
  param {
    lr_mult: 1
    decay_mult: 1
  }
  param {
    lr_mult: 2
    decay_mult: 0
  }
  convolution_param {
    num_output: 28
    pad: 1
    kernel_size: 3
    stride: 1
    weight_filler {
      type: "xavier"
    }
    bias_filler {
      type: "constant"
      value: 0
    }
  }
}
layer {
  name: "conv13_2_mbox_conf_perm"
  type: "Permute"
  bottom: "conv13_2_mbox_conf"
  top: "conv13_2_mbox_conf_perm"
  permute_param {
    order: 0
    order: 2
    order: 3
    order: 1
  }
}
layer {
  name: "conv13_2_mbox_conf_flat"
  type: "Flatten"
  bottom: "conv13_2_mbox_conf_perm"
  top: "conv13_2_mbox_conf_flat"
  flatten_param {
    axis: 1
  }
}
layer {
  name: "conv13_2_mbox_priorbox"
  type: "PriorBox"
  bottom: "conv13_2"
  bottom: "data"
  top: "conv13_2_mbox_priorbox"
  prior_box_param {
    min_size: 264
    max_size: 315
    aspect_ratio: 2
    flip: true
    clip: false
    variance: 0.1
    variance: 0.1
    variance: 0.2
    variance: 0.2
    step: 300
    offset: 0.5
  }
}
layer {
  name: "mbox_loc"
  type: "Concat"
  bottom: "fire4_mbox_loc_flat"
  bottom: "fire8_mbox_loc_flat"
  bottom: "fire9_mbox_loc_flat"
  bottom: "fire10_mbox_loc_flat"
  bottom: "conv12_2_mbox_loc_flat"
  bottom: "conv13_2_mbox_loc_flat"
  top: "mbox_loc"
  concat_param {
    axis: 1
  }
}
layer {
  name: "mbox_conf"
  type: "Concat"
  bottom: "fire4_mbox_conf_flat"
  bottom: "fire8_mbox_conf_flat"
  bottom: "fire9_mbox_conf_flat"
  bottom: "fire10_mbox_conf_flat"
  bottom: "conv12_2_mbox_conf_flat"
  bottom: "conv13_2_mbox_conf_flat"
  top: "mbox_conf"
  concat_param {
    axis: 1
  }
}
layer {
  name: "mbox_priorbox"
  type: "Concat"
  bottom: "fire4_mbox_priorbox"
  bottom: "fire8_mbox_priorbox"
  bottom: "fire9_mbox_priorbox"
  bottom: "fire10_mbox_priorbox"
  bottom: "conv12_2_mbox_priorbox"
  bottom: "conv13_2_mbox_priorbox"
  top: "mbox_priorbox"
  concat_param {
    axis: 2
  }
}
layer {
  name: "mbox_conf_reshape"
  type: "Reshape"
  bottom: "mbox_conf"
  top: "mbox_conf_reshape"
  reshape_param {
    shape {
      dim: 0
      dim: -1
      dim: 7
    }
  }
}
layer {
  name: "mbox_conf_softmax"
  type: "Softmax"
  bottom: "mbox_conf_reshape"
  top: "mbox_conf_softmax"
  softmax_param {
    axis: 2
  }
}
layer {
  name: "mbox_conf_flatten"
  type: "Flatten"
  bottom: "mbox_conf_softmax"
  top: "mbox_conf_flatten"
  flatten_param {
    axis: 1
  }
}
layer {
  name: "detection_out"
  type: "DetectionOutput"
  bottom: "mbox_loc"
  bottom: "mbox_conf_flatten"
  bottom: "mbox_priorbox"
  top: "detection_out"
  include {
    phase: TEST
  }
  detection_output_param {
    num_classes: 7
    share_location: true
    background_label_id: 0
    nms_param {
      nms_threshold: 0.45
      top_k: 400
    }
    code_type: CENTER_SIZE
    keep_top_k: 200
    confidence_threshold: 0.01
  }
}
layer {
  name: "detection_eval"
  type: "DetectionEvaluate"
  bottom: "detection_out"
  bottom: "label"
  top: "detection_eval"
  include {
    phase: TEST
  }
  detection_evaluate_param {
    num_classes: 7
    background_label_id: 0
    overlap_threshold: 0.5
    evaluate_difficult_gt: false
  }
}
I0405 21:44:36.441671  3807 layer_factory.hpp:77] Creating layer data
I0405 21:44:36.441735  3807 net.cpp:100] Creating Layer data
I0405 21:44:36.441743  3807 net.cpp:408] data -> data
I0405 21:44:36.441752  3807 net.cpp:408] data -> label
I0405 21:44:36.442484  3831 db_lmdb.cpp:35] Opened lmdb test_lmdb/
I0405 21:44:36.444854  3807 annotated_data_layer.cpp:62] output data size: 2,3,300,300
I0405 21:44:36.449108  3807 net.cpp:150] Setting up data
I0405 21:44:36.449129  3807 net.cpp:157] Top shape: 2 3 300 300 (540000)
I0405 21:44:36.449136  3807 net.cpp:157] Top shape: 1 1 1 8 (8)
I0405 21:44:36.449139  3807 net.cpp:165] Memory required for data: 2160032
I0405 21:44:36.449146  3807 layer_factory.hpp:77] Creating layer data_data_0_split
I0405 21:44:36.449157  3807 net.cpp:100] Creating Layer data_data_0_split
I0405 21:44:36.449162  3807 net.cpp:434] data_data_0_split <- data
I0405 21:44:36.449169  3807 net.cpp:408] data_data_0_split -> data_data_0_split_0
I0405 21:44:36.449179  3807 net.cpp:408] data_data_0_split -> data_data_0_split_1
…
I0405 21:44:36.495275  3807 net.cpp:408] fire9/squeeze1x1 -> fire9/squeeze1x1
I0405 21:44:36.496477  3807 net.cpp:150] Setting up fire9/squeeze1x1
I0405 21:44:36.496490  3807 net.cpp:157] Top shape: 2 37 9 9 (5994)
I0405 21:44:36.496493  3807 net.cpp:165] Memory required for data: 102676376
I0405 21:44:36.496500  3807 layer_factory.hpp:77] Creating layer fire9/relu_squeeze1x1
I0405 21:44:36.496513  3807 net.cpp:100] Creating Layer fire9/relu_squeeze1x1
I0405 21:44:36.496518  3807 net.cpp:434] fire9/relu_squeeze1x1 <- fire9/squeeze1x1
I0405 21:44:36.496523  3807 net.cpp:395] fire9/relu_squeeze1x1 -> fire9/squeeze1x1 (in-place)
I0405 21:44:36.497026  3807 net.cpp:150] Setting up fire9/relu_squeeze1x1
I0405 21:44:36.497037  3807 net.cpp:157] Top shape: 2 37 9 9 (5994)
I0405 21:44:36.497041  3807 net.cpp:165] Memory required for data: 102700352
I0405 21:44:36.497046  3807 layer_factory.hpp:77] Creating layer fire9/squeeze1x1_fire9/relu_squeeze1x1_0_split
I0405 21:44:36.497053  3807 net.cpp:100] Creating Layer fire9/squeeze1x1_fire9/relu_squeeze1x1_0_split
I0405 21:44:36.497057  3807 net.cpp:434] fire9/squeeze1x1_fire9/relu_squeeze1x1_0_split <- fire9/squeeze1x1
I0405 21:44:36.497063  3807 net.cpp:408] fire9/squeeze1x1_fire9/relu_squeeze1x1_0_split -> fire9/squeeze1x1_fire9/relu_squeeze1x1_0_split_0
I0405 21:44:36.497083  3807 net.cpp:408] fire9/squeeze1x1_fire9/relu_squeeze1x1_0_split -> fire9/squeeze1x1_fire9/relu_squeeze1x1_0_split_1
I0405 21:44:36.497138  3807 net.cpp:150] Setting up fire9/squeeze1x1_fire9/relu_squeeze1x1_0_split
I0405 21:44:36.497146  3807 net.cpp:157] Top shape: 2 37 9 9 (5994)
I0405 21:44:36.497150  3807 net.cpp:157] Top shape: 2 37 9 9 (5994)
I0405 21:44:36.497153  3807 net.cpp:165] Memory required for data: 102748304
I0405 21:44:36.497157  3807 layer_factory.hpp:77] Creating layer fire9/expand1x1
I0405 21:44:36.497165  3807 net.cpp:100] Creating Layer fire9/expand1x1
I0405 21:44:36.497169  3807 net.cpp:434] fire9/expand1x1 <- fire9/squeeze1x1_fire9/relu_squeeze1x1_0_split_0
I0405 21:44:36.497174  3807 net.cpp:408] fire9/expand1x1 -> fire9/expand1x1
I0405 21:44:36.498459  3807 net.cpp:150] Setting up fire9/expand1x1
I0405 21:44:36.498472  3807 net.cpp:157] Top shape: 2 45 9 9 (7290)
I0405 21:44:36.498476  3807 net.cpp:165] Memory required for data: 102777464
I0405 21:44:36.498483  3807 layer_factory.hpp:77] Creating layer fire9/relu_expand1x1
I0405 21:44:36.498491  3807 net.cpp:100] Creating Layer fire9/relu_expand1x1
I0405 21:44:36.498497  3807 net.cpp:434] fire9/relu_expand1x1 <- fire9/expand1x1
I0405 21:44:36.498504  3807 net.cpp:395] fire9/relu_expand1x1 -> fire9/expand1x1 (in-place)
I0405 21:44:36.498898  3807 net.cpp:150] Setting up fire9/relu_expand1x1
I0405 21:44:36.498910  3807 net.cpp:157] Top shape: 2 45 9 9 (7290)
I0405 21:44:36.498914  3807 net.cpp:165] Memory required for data: 102806624
I0405 21:44:36.498916  3807 layer_factory.hpp:77] Creating layer fire9/expand3x3
I0405 21:44:36.498931  3807 net.cpp:100] Creating Layer fire9/expand3x3
I0405 21:44:36.498937  3807 net.cpp:434] fire9/expand3x3 <- fire9/squeeze1x1_fire9/relu_squeeze1x1_0_split_1
I0405 21:44:36.498942  3807 net.cpp:408] fire9/expand3x3 -> fire9/expand3x3
I0405 21:44:36.500726  3807 net.cpp:150] Setting up fire9/expand3x3
I0405 21:44:36.500746  3807 net.cpp:157] Top shape: 2 56 9 9 (9072)
I0405 21:44:36.500751  3807 net.cpp:165] Memory required for data: 102842912
I0405 21:44:36.500759  3807 layer_factory.hpp:77] Creating layer fire9/relu_expand3x3
I0405 21:44:36.500767  3807 net.cpp:100] Creating Layer fire9/relu_expand3x3
I0405 21:44:36.500773  3807 net.cpp:434] fire9/relu_expand3x3 <- fire9/expand3x3
I0405 21:44:36.500778  3807 net.cpp:395] fire9/relu_expand3x3 -> fire9/expand3x3 (in-place)
I0405 21:44:36.501194  3807 net.cpp:150] Setting up fire9/relu_expand3x3
I0405 21:44:36.501207  3807 net.cpp:157] Top shape: 2 56 9 9 (9072)
I0405 21:44:36.501210  3807 net.cpp:165] Memory required for data: 102879200
I0405 21:44:36.501214  3807 layer_factory.hpp:77] Creating layer fire9/concat
I0405 21:44:36.501221  3807 net.cpp:100] Creating Layer fire9/concat
I0405 21:44:36.501226  3807 net.cpp:434] fire9/concat <- fire9/expand1x1
I0405 21:44:36.501231  3807 net.cpp:434] fire9/concat <- fire9/expand3x3
I0405 21:44:36.501236  3807 net.cpp:408] fire9/concat -> fire9/concat
I0405 21:44:36.501273  3807 net.cpp:150] Setting up fire9/concat
I0405 21:44:36.501281  3807 net.cpp:157] Top shape: 2 101 9 9 (16362)
I0405 21:44:36.501284  3807 net.cpp:165] Memory required for data: 102944648
I0405 21:44:36.501288  3807 layer_factory.hpp:77] Creating layer fire9/concat_fire9/concat_0_split
I0405 21:44:36.501294  3807 net.cpp:100] Creating Layer fire9/concat_fire9/concat_0_split
I0405 21:44:36.501299  3807 net.cpp:434] fire9/concat_fire9/concat_0_split <- fire9/concat
I0405 21:44:36.501304  3807 net.cpp:408] fire9/concat_fire9/concat_0_split -> fire9/concat_fire9/concat_0_split_0
I0405 21:44:36.501312  3807 net.cpp:408] fire9/concat_fire9/concat_0_split -> fire9/concat_fire9/concat_0_split_1
I0405 21:44:36.501317  3807 net.cpp:408] fire9/concat_fire9/concat_0_split -> fire9/concat_fire9/concat_0_split_2
I0405 21:44:36.501323  3807 net.cpp:408] fire9/concat_fire9/concat_0_split -> fire9/concat_fire9/concat_0_split_3
I0405 21:44:36.501399  3807 net.cpp:150] Setting up fire9/concat_fire9/concat_0_split
I0405 21:44:36.501425  3807 net.cpp:157] Top shape: 2 101 9 9 (16362)
I0405 21:44:36.501430  3807 net.cpp:157] Top shape: 2 101 9 9 (16362)
I0405 21:44:36.501432  3807 net.cpp:157] Top shape: 2 101 9 9 (16362)
I0405 21:44:36.501437  3807 net.cpp:157] Top shape: 2 101 9 9 (16362)
I0405 21:44:36.501441  3807 net.cpp:165] Memory required for data: 103206440
I0405 21:44:36.501446  3807 layer_factory.hpp:77] Creating layer pool10
I0405 21:44:36.501456  3807 net.cpp:100] Creating Layer pool10
I0405 21:44:36.501461  3807 net.cpp:434] pool10 <- fire9/concat_fire9/concat_0_split_0
I0405 21:44:36.501468  3807 net.cpp:408] pool10 -> pool10
I0405 21:44:36.501541  3807 net.cpp:150] Setting up pool10
I0405 21:44:36.501551  3807 net.cpp:157] Top shape: 2 101 4 4 (3232)
I0405 21:44:36.501557  3807 net.cpp:165] Memory required for data: 103219368
I0405 21:44:36.501565  3807 layer_factory.hpp:77] Creating layer fire10/squeeze1x1
I0405 21:44:36.501580  3807 net.cpp:100] Creating Layer fire10/squeeze1x1
I0405 21:44:36.501587  3807 net.cpp:434] fire10/squeeze1x1 <- pool10
I0405 21:44:36.501596  3807 net.cpp:408] fire10/squeeze1x1 -> fire10/squeeze1x1
I0405 21:44:36.502976  3807 net.cpp:150] Setting up fire10/squeeze1x1
I0405 21:44:36.502990  3807 net.cpp:157] Top shape: 2 38 4 4 (1216)
I0405 21:44:36.502992  3807 net.cpp:165] Memory required for data: 103224232
I0405 21:44:36.503000  3807 layer_factory.hpp:77] Creating layer fire10/relu_squeeze1x1
I0405 21:44:36.503008  3807 net.cpp:100] Creating Layer fire10/relu_squeeze1x1
I0405 21:44:36.503012  3807 net.cpp:434] fire10/relu_squeeze1x1 <- fire10/squeeze1x1
I0405 21:44:36.503018  3807 net.cpp:395] fire10/relu_squeeze1x1 -> fire10/squeeze1x1 (in-place)
I0405 21:44:36.503176  3807 net.cpp:150] Setting up fire10/relu_squeeze1x1
I0405 21:44:36.503185  3807 net.cpp:157] Top shape: 2 38 4 4 (1216)
I0405 21:44:36.503188  3807 net.cpp:165] Memory required for data: 103229096
I0405 21:44:36.503192  3807 layer_factory.hpp:77] Creating layer fire10/squeeze1x1_fire10/relu_squeeze1x1_0_split
I0405 21:44:36.503199  3807 net.cpp:100] Creating Layer fire10/squeeze1x1_fire10/relu_squeeze1x1_0_split
I0405 21:44:36.503203  3807 net.cpp:434] fire10/squeeze1x1_fire10/relu_squeeze1x1_0_split <- fire10/squeeze1x1
I0405 21:44:36.503208  3807 net.cpp:408] fire10/squeeze1x1_fire10/relu_squeeze1x1_0_split -> fire10/squeeze1x1_fire10/relu_squeeze1x1_0_split_0
I0405 21:44:36.503216  3807 net.cpp:408] fire10/squeeze1x1_fire10/relu_squeeze1x1_0_split -> fire10/squeeze1x1_fire10/relu_squeeze1x1_0_split_1
I0405 21:44:36.503268  3807 net.cpp:150] Setting up fire10/squeeze1x1_fire10/relu_squeeze1x1_0_split
I0405 21:44:36.503275  3807 net.cpp:157] Top shape: 2 38 4 4 (1216)
I0405 21:44:36.503279  3807 net.cpp:157] Top shape: 2 38 4 4 (1216)
I0405 21:44:36.503283  3807 net.cpp:165] Memory required for data: 103238824
I0405 21:44:36.503286  3807 layer_factory.hpp:77] Creating layer fire10/expand1x1
I0405 21:44:36.503294  3807 net.cpp:100] Creating Layer fire10/expand1x1
I0405 21:44:36.503298  3807 net.cpp:434] fire10/expand1x1 <- fire10/squeeze1x1_fire10/relu_squeeze1x1_0_split_0
I0405 21:44:36.503304  3807 net.cpp:408] fire10/expand1x1 -> fire10/expand1x1
I0405 21:44:36.504570  3807 net.cpp:150] Setting up fire10/expand1x1
I0405 21:44:36.504582  3807 net.cpp:157] Top shape: 2 41 4 4 (1312)
I0405 21:44:36.504587  3807 net.cpp:165] Memory required for data: 103244072
I0405 21:44:36.504595  3807 layer_factory.hpp:77] Creating layer fire10/relu_expand1x1
I0405 21:44:36.504601  3807 net.cpp:100] Creating Layer fire10/relu_expand1x1
I0405 21:44:36.504606  3807 net.cpp:434] fire10/relu_expand1x1 <- fire10/expand1x1
I0405 21:44:36.504611  3807 net.cpp:395] fire10/relu_expand1x1 -> fire10/expand1x1 (in-place)
I0405 21:44:36.505003  3807 net.cpp:150] Setting up fire10/relu_expand1x1
I0405 21:44:36.505014  3807 net.cpp:157] Top shape: 2 41 4 4 (1312)
I0405 21:44:36.505017  3807 net.cpp:165] Memory required for data: 103249320
I0405 21:44:36.505022  3807 layer_factory.hpp:77] Creating layer fire10/expand3x3
I0405 21:44:36.505041  3807 net.cpp:100] Creating Layer fire10/expand3x3
I0405 21:44:36.505048  3807 net.cpp:434] fire10/expand3x3 <- fire10/squeeze1x1_fire10/relu_squeeze1x1_0_split_1
I0405 21:44:36.505053  3807 net.cpp:408] fire10/expand3x3 -> fire10/expand3x3
I0405 21:44:36.506600  3807 net.cpp:150] Setting up fire10/expand3x3
I0405 21:44:36.506613  3807 net.cpp:157] Top shape: 2 44 4 4 (1408)
I0405 21:44:36.506616  3807 net.cpp:165] Memory required for data: 103254952
I0405 21:44:36.506623  3807 layer_factory.hpp:77] Creating layer fire10/relu_expand3x3
I0405 21:44:36.506628  3807 net.cpp:100] Creating Layer fire10/relu_expand3x3
I0405 21:44:36.506633  3807 net.cpp:434] fire10/relu_expand3x3 <- fire10/expand3x3
I0405 21:44:36.506639  3807 net.cpp:395] fire10/relu_expand3x3 -> fire10/expand3x3 (in-place)
I0405 21:44:36.507024  3807 net.cpp:150] Setting up fire10/relu_expand3x3
I0405 21:44:36.507035  3807 net.cpp:157] Top shape: 2 44 4 4 (1408)
I0405 21:44:36.507038  3807 net.cpp:165] Memory required for data: 103260584
I0405 21:44:36.507042  3807 layer_factory.hpp:77] Creating layer fire10/concat
I0405 21:44:36.507047  3807 net.cpp:100] Creating Layer fire10/concat
I0405 21:44:36.507052  3807 net.cpp:434] fire10/concat <- fire10/expand1x1
I0405 21:44:36.507056  3807 net.cpp:434] fire10/concat <- fire10/expand3x3
I0405 21:44:36.507061  3807 net.cpp:408] fire10/concat -> fire10/concat
I0405 21:44:36.507092  3807 net.cpp:150] Setting up fire10/concat
I0405 21:44:36.507098  3807 net.cpp:157] Top shape: 2 85 4 4 (2720)
I0405 21:44:36.507102  3807 net.cpp:165] Memory required for data: 103271464
I0405 21:44:36.507107  3807 layer_factory.hpp:77] Creating layer fire10/concat_fire10/concat_0_split
I0405 21:44:36.507112  3807 net.cpp:100] Creating Layer fire10/concat_fire10/concat_0_split
I0405 21:44:36.507117  3807 net.cpp:434] fire10/concat_fire10/concat_0_split <- fire10/concat
I0405 21:44:36.507124  3807 net.cpp:408] fire10/concat_fire10/concat_0_split -> fire10/concat_fire10/concat_0_split_0
I0405 21:44:36.507131  3807 net.cpp:408] fire10/concat_fire10/concat_0_split -> fire10/concat_fire10/concat_0_split_1
I0405 21:44:36.507136  3807 net.cpp:408] fire10/concat_fire10/concat_0_split -> fire10/concat_fire10/concat_0_split_2
I0405 21:44:36.507141  3807 net.cpp:408] fire10/concat_fire10/concat_0_split -> fire10/concat_fire10/concat_0_split_3
I0405 21:44:36.507215  3807 net.cpp:150] Setting up fire10/concat_fire10/concat_0_split
I0405 21:44:36.507222  3807 net.cpp:157] Top shape: 2 85 4 4 (2720)
I0405 21:44:36.507226  3807 net.cpp:157] Top shape: 2 85 4 4 (2720)
I0405 21:44:36.507230  3807 net.cpp:157] Top shape: 2 85 4 4 (2720)
I0405 21:44:36.507233  3807 net.cpp:157] Top shape: 2 85 4 4 (2720)
I0405 21:44:36.507236  3807 net.cpp:165] Memory required for data: 103314984
I0405 21:44:36.507241  3807 layer_factory.hpp:77] Creating layer conv12_1
I0405 21:44:36.507247  3807 net.cpp:100] Creating Layer conv12_1
I0405 21:44:36.507252  3807 net.cpp:434] conv12_1 <- fire10/concat_fire10/concat_0_split_0
I0405 21:44:36.507257  3807 net.cpp:408] conv12_1 -> conv12_1
I0405 21:44:36.508641  3807 net.cpp:150] Setting up conv12_1
I0405 21:44:36.508652  3807 net.cpp:157] Top shape: 2 51 4 4 (1632)
I0405 21:44:36.508656  3807 net.cpp:165] Memory required for data: 103321512
I0405 21:44:36.508663  3807 layer_factory.hpp:77] Creating layer relu122_1
I0405 21:44:36.508669  3807 net.cpp:100] Creating Layer relu122_1
I0405 21:44:36.508674  3807 net.cpp:434] relu122_1 <- conv12_1
I0405 21:44:36.508679  3807 net.cpp:395] relu122_1 -> conv12_1 (in-place)
I0405 21:44:36.508828  3807 net.cpp:150] Setting up relu122_1
I0405 21:44:36.508837  3807 net.cpp:157] Top shape: 2 51 4 4 (1632)
I0405 21:44:36.508841  3807 net.cpp:165] Memory required for data: 103328040
I0405 21:44:36.508846  3807 layer_factory.hpp:77] Creating layer conv12_2
I0405 21:44:36.508852  3807 net.cpp:100] Creating Layer conv12_2
I0405 21:44:36.508857  3807 net.cpp:434] conv12_2 <- conv12_1
I0405 21:44:36.508862  3807 net.cpp:408] conv12_2 -> conv12_2
I0405 21:44:36.510411  3807 net.cpp:150] Setting up conv12_2
I0405 21:44:36.510434  3807 net.cpp:157] Top shape: 2 46 2 2 (368)
I0405 21:44:36.510439  3807 net.cpp:165] Memory required for data: 103329512
I0405 21:44:36.510452  3807 layer_factory.hpp:77] Creating layer relu12_2
I0405 21:44:36.510459  3807 net.cpp:100] Creating Layer relu12_2
I0405 21:44:36.510463  3807 net.cpp:434] relu12_2 <- conv12_2
I0405 21:44:36.510468  3807 net.cpp:395] relu12_2 -> conv12_2 (in-place)
I0405 21:44:36.510849  3807 net.cpp:150] Setting up relu12_2
I0405 21:44:36.510860  3807 net.cpp:157] Top shape: 2 46 2 2 (368)
I0405 21:44:36.510864  3807 net.cpp:165] Memory required for data: 103330984
I0405 21:44:36.510869  3807 layer_factory.hpp:77] Creating layer conv12_2_relu12_2_0_split
I0405 21:44:36.510875  3807 net.cpp:100] Creating Layer conv12_2_relu12_2_0_split
I0405 21:44:36.510880  3807 net.cpp:434] conv12_2_relu12_2_0_split <- conv12_2
I0405 21:44:36.510885  3807 net.cpp:408] conv12_2_relu12_2_0_split -> conv12_2_relu12_2_0_split_0
I0405 21:44:36.510892  3807 net.cpp:408] conv12_2_relu12_2_0_split -> conv12_2_relu12_2_0_split_1
I0405 21:44:36.510898  3807 net.cpp:408] conv12_2_relu12_2_0_split -> conv12_2_relu12_2_0_split_2
I0405 21:44:36.510903  3807 net.cpp:408] conv12_2_relu12_2_0_split -> conv12_2_relu12_2_0_split_3
I0405 21:44:36.510982  3807 net.cpp:150] Setting up conv12_2_relu12_2_0_split
I0405 21:44:36.510989  3807 net.cpp:157] Top shape: 2 46 2 2 (368)
I0405 21:44:36.510993  3807 net.cpp:157] Top shape: 2 46 2 2 (368)
I0405 21:44:36.510998  3807 net.cpp:157] Top shape: 2 46 2 2 (368)
I0405 21:44:36.511003  3807 net.cpp:157] Top shape: 2 46 2 2 (368)
I0405 21:44:36.511005  3807 net.cpp:165] Memory required for data: 103336872
I0405 21:44:36.511009  3807 layer_factory.hpp:77] Creating layer conv13_1
I0405 21:44:36.511018  3807 net.cpp:100] Creating Layer conv13_1
I0405 21:44:36.511021  3807 net.cpp:434] conv13_1 <- conv12_2_relu12_2_0_split_0
I0405 21:44:36.511027  3807 net.cpp:408] conv13_1 -> conv13_1
I0405 21:44:36.512610  3807 net.cpp:150] Setting up conv13_1
I0405 21:44:36.512622  3807 net.cpp:157] Top shape: 2 55 2 2 (440)
I0405 21:44:36.512625  3807 net.cpp:165] Memory required for data: 103338632
I0405 21:44:36.512631  3807 layer_factory.hpp:77] Creating layer relu13_1
I0405 21:44:36.512637  3807 net.cpp:100] Creating Layer relu13_1
I0405 21:44:36.512641  3807 net.cpp:434] relu13_1 <- conv13_1
I0405 21:44:36.512646  3807 net.cpp:395] relu13_1 -> conv13_1 (in-place)
I0405 21:44:36.512807  3807 net.cpp:150] Setting up relu13_1
I0405 21:44:36.512816  3807 net.cpp:157] Top shape: 2 55 2 2 (440)
I0405 21:44:36.512820  3807 net.cpp:165] Memory required for data: 103340392
I0405 21:44:36.512825  3807 layer_factory.hpp:77] Creating layer conv13_2
I0405 21:44:36.512832  3807 net.cpp:100] Creating Layer conv13_2
I0405 21:44:36.512837  3807 net.cpp:434] conv13_2 <- conv13_1
I0405 21:44:36.512843  3807 net.cpp:408] conv13_2 -> conv13_2
I0405 21:44:36.514276  3807 net.cpp:150] Setting up conv13_2
I0405 21:44:36.514287  3807 net.cpp:157] Top shape: 2 85 1 1 (170)
I0405 21:44:36.514292  3807 net.cpp:165] Memory required for data: 103341072
I0405 21:44:36.514299  3807 layer_factory.hpp:77] Creating layer conv13_2_conv13_2_0_split
I0405 21:44:36.514305  3807 net.cpp:100] Creating Layer conv13_2_conv13_2_0_split
I0405 21:44:36.514309  3807 net.cpp:434] conv13_2_conv13_2_0_split <- conv13_2
I0405 21:44:36.514315  3807 net.cpp:408] conv13_2_conv13_2_0_split -> conv13_2_conv13_2_0_split_0
I0405 21:44:36.514323  3807 net.cpp:408] conv13_2_conv13_2_0_split -> conv13_2_conv13_2_0_split_1
I0405 21:44:36.514329  3807 net.cpp:408] conv13_2_conv13_2_0_split -> conv13_2_conv13_2_0_split_2
I0405 21:44:36.514382  3807 net.cpp:150] Setting up conv13_2_conv13_2_0_split
I0405 21:44:36.514389  3807 net.cpp:157] Top shape: 2 85 1 1 (170)
I0405 21:44:36.514392  3807 net.cpp:157] Top shape: 2 85 1 1 (170)
I0405 21:44:36.514396  3807 net.cpp:157] Top shape: 2 85 1 1 (170)
I0405 21:44:36.514400  3807 net.cpp:165] Memory required for data: 103343112
I0405 21:44:36.514403  3807 layer_factory.hpp:77] Creating layer fire4_norm
I0405 21:44:36.514422  3807 net.cpp:100] Creating Layer fire4_norm
I0405 21:44:36.514428  3807 net.cpp:434] fire4_norm <- fire4/concat_fire4/concat_0_split_1
I0405 21:44:36.514433  3807 net.cpp:408] fire4_norm -> fire4_norm
I0405 21:44:36.514621  3807 net.cpp:150] Setting up fire4_norm
I0405 21:44:36.514627  3807 net.cpp:157] Top shape: 2 173 37 37 (473674)
I0405 21:44:36.514631  3807 net.cpp:165] Memory required for data: 105237808
I0405 21:44:36.514634  3807 layer_factory.hpp:77] Creating layer fire4_norm_fire4_norm_0_split
I0405 21:44:36.514639  3807 net.cpp:100] Creating Layer fire4_norm_fire4_norm_0_split
I0405 21:44:36.514644  3807 net.cpp:434] fire4_norm_fire4_norm_0_split <- fire4_norm
I0405 21:44:36.514649  3807 net.cpp:408] fire4_norm_fire4_norm_0_split -> fire4_norm_fire4_norm_0_split_0
I0405 21:44:36.514655  3807 net.cpp:408] fire4_norm_fire4_norm_0_split -> fire4_norm_fire4_norm_0_split_1
I0405 21:44:36.514660  3807 net.cpp:408] fire4_norm_fire4_norm_0_split -> fire4_norm_fire4_norm_0_split_2
I0405 21:44:36.514709  3807 net.cpp:150] Setting up fire4_norm_fire4_norm_0_split
I0405 21:44:36.514715  3807 net.cpp:157] Top shape: 2 173 37 37 (473674)
I0405 21:44:36.514719  3807 net.cpp:157] Top shape: 2 173 37 37 (473674)
I0405 21:44:36.514722  3807 net.cpp:157] Top shape: 2 173 37 37 (473674)
I0405 21:44:36.514725  3807 net.cpp:165] Memory required for data: 110921896
I0405 21:44:36.514729  3807 layer_factory.hpp:77] Creating layer fire4_mbox_loc
I0405 21:44:36.514735  3807 net.cpp:100] Creating Layer fire4_mbox_loc
I0405 21:44:36.514740  3807 net.cpp:434] fire4_mbox_loc <- fire4_norm_fire4_norm_0_split_0
I0405 21:44:36.514745  3807 net.cpp:408] fire4_mbox_loc -> fire4_mbox_loc
I0405 21:44:36.516508  3807 net.cpp:150] Setting up fire4_mbox_loc
I0405 21:44:36.516520  3807 net.cpp:157] Top shape: 2 16 37 37 (43808)
I0405 21:44:36.516525  3807 net.cpp:165] Memory required for data: 111097128
I0405 21:44:36.516530  3807 layer_factory.hpp:77] Creating layer fire4_mbox_loc_perm
I0405 21:44:36.516538  3807 net.cpp:100] Creating Layer fire4_mbox_loc_perm
I0405 21:44:36.516542  3807 net.cpp:434] fire4_mbox_loc_perm <- fire4_mbox_loc
I0405 21:44:36.516556  3807 net.cpp:408] fire4_mbox_loc_perm -> fire4_mbox_loc_perm
I0405 21:44:36.516677  3807 net.cpp:150] Setting up fire4_mbox_loc_perm
I0405 21:44:36.516685  3807 net.cpp:157] Top shape: 2 37 37 16 (43808)
I0405 21:44:36.516688  3807 net.cpp:165] Memory required for data: 111272360
I0405 21:44:36.516692  3807 layer_factory.hpp:77] Creating layer fire4_mbox_loc_flat
I0405 21:44:36.516702  3807 net.cpp:100] Creating Layer fire4_mbox_loc_flat
I0405 21:44:36.516707  3807 net.cpp:434] fire4_mbox_loc_flat <- fire4_mbox_loc_perm
I0405 21:44:36.516712  3807 net.cpp:408] fire4_mbox_loc_flat -> fire4_mbox_loc_flat
I0405 21:44:36.516738  3807 net.cpp:150] Setting up fire4_mbox_loc_flat
I0405 21:44:36.516743  3807 net.cpp:157] Top shape: 2 21904 (43808)
I0405 21:44:36.516747  3807 net.cpp:165] Memory required for data: 111447592
I0405 21:44:36.516752  3807 layer_factory.hpp:77] Creating layer fire4_mbox_conf
I0405 21:44:36.516763  3807 net.cpp:100] Creating Layer fire4_mbox_conf
I0405 21:44:36.516768  3807 net.cpp:434] fire4_mbox_conf <- fire4_norm_fire4_norm_0_split_1
I0405 21:44:36.516774  3807 net.cpp:408] fire4_mbox_conf -> fire4_mbox_conf
I0405 21:44:36.518889  3807 net.cpp:150] Setting up fire4_mbox_conf
I0405 21:44:36.518903  3807 net.cpp:157] Top shape: 2 28 37 37 (76664)
I0405 21:44:36.518906  3807 net.cpp:165] Memory required for data: 111754248
I0405 21:44:36.518913  3807 layer_factory.hpp:77] Creating layer fire4_mbox_conf_perm
I0405 21:44:36.518921  3807 net.cpp:100] Creating Layer fire4_mbox_conf_perm
I0405 21:44:36.518930  3807 net.cpp:434] fire4_mbox_conf_perm <- fire4_mbox_conf
I0405 21:44:36.518944  3807 net.cpp:408] fire4_mbox_conf_perm -> fire4_mbox_conf_perm
I0405 21:44:36.519084  3807 net.cpp:150] Setting up fire4_mbox_conf_perm
I0405 21:44:36.519093  3807 net.cpp:157] Top shape: 2 37 37 28 (76664)
I0405 21:44:36.519095  3807 net.cpp:165] Memory required for data: 112060904
I0405 21:44:36.519111  3807 layer_factory.hpp:77] Creating layer fire4_mbox_conf_flat
I0405 21:44:36.519119  3807 net.cpp:100] Creating Layer fire4_mbox_conf_flat
I0405 21:44:36.519122  3807 net.cpp:434] fire4_mbox_conf_flat <- fire4_mbox_conf_perm
I0405 21:44:36.519127  3807 net.cpp:408] fire4_mbox_conf_flat -> fire4_mbox_conf_flat
I0405 21:44:36.519153  3807 net.cpp:150] Setting up fire4_mbox_conf_flat
I0405 21:44:36.519160  3807 net.cpp:157] Top shape: 2 38332 (76664)
I0405 21:44:36.519162  3807 net.cpp:165] Memory required for data: 112367560
I0405 21:44:36.519165  3807 layer_factory.hpp:77] Creating layer fire4_mbox_priorbox
I0405 21:44:36.519171  3807 net.cpp:100] Creating Layer fire4_mbox_priorbox
I0405 21:44:36.519176  3807 net.cpp:434] fire4_mbox_priorbox <- fire4_norm_fire4_norm_0_split_2
I0405 21:44:36.519181  3807 net.cpp:434] fire4_mbox_priorbox <- data_data_0_split_1
I0405 21:44:36.519186  3807 net.cpp:408] fire4_mbox_priorbox -> fire4_mbox_priorbox
I0405 21:44:36.519212  3807 net.cpp:150] Setting up fire4_mbox_priorbox
I0405 21:44:36.519218  3807 net.cpp:157] Top shape: 1 2 21904 (43808)
I0405 21:44:36.519222  3807 net.cpp:165] Memory required for data: 112542792
I0405 21:44:36.519227  3807 layer_factory.hpp:77] Creating layer fire8_norm
I0405 21:44:36.519239  3807 net.cpp:100] Creating Layer fire8_norm
I0405 21:44:36.519250  3807 net.cpp:434] fire8_norm <- fire8/concat_fire8/concat_0_split_1
I0405 21:44:36.519261  3807 net.cpp:408] fire8_norm -> fire8_norm
I0405 21:44:36.519460  3807 net.cpp:150] Setting up fire8_norm
I0405 21:44:36.519469  3807 net.cpp:157] Top shape: 2 83 18 18 (53784)
I0405 21:44:36.519472  3807 net.cpp:165] Memory required for data: 112757928
I0405 21:44:36.519477  3807 layer_factory.hpp:77] Creating layer fire8_norm_fire8_norm_0_split
I0405 21:44:36.519484  3807 net.cpp:100] Creating Layer fire8_norm_fire8_norm_0_split
I0405 21:44:36.519489  3807 net.cpp:434] fire8_norm_fire8_norm_0_split <- fire8_norm
I0405 21:44:36.519493  3807 net.cpp:408] fire8_norm_fire8_norm_0_split -> fire8_norm_fire8_norm_0_split_0
I0405 21:44:36.519500  3807 net.cpp:408] fire8_norm_fire8_norm_0_split -> fire8_norm_fire8_norm_0_split_1
I0405 21:44:36.519505  3807 net.cpp:408] fire8_norm_fire8_norm_0_split -> fire8_norm_fire8_norm_0_split_2
I0405 21:44:36.519593  3807 net.cpp:150] Setting up fire8_norm_fire8_norm_0_split
I0405 21:44:36.519600  3807 net.cpp:157] Top shape: 2 83 18 18 (53784)
I0405 21:44:36.519604  3807 net.cpp:157] Top shape: 2 83 18 18 (53784)
I0405 21:44:36.519608  3807 net.cpp:157] Top shape: 2 83 18 18 (53784)
I0405 21:44:36.519613  3807 net.cpp:165] Memory required for data: 113403336
I0405 21:44:36.519616  3807 layer_factory.hpp:77] Creating layer fire8_mbox_loc
I0405 21:44:36.519625  3807 net.cpp:100] Creating Layer fire8_mbox_loc
I0405 21:44:36.519629  3807 net.cpp:434] fire8_mbox_loc <- fire8_norm_fire8_norm_0_split_0
I0405 21:44:36.519635  3807 net.cpp:408] fire8_mbox_loc -> fire8_mbox_loc
I0405 21:44:36.521188  3807 net.cpp:150] Setting up fire8_mbox_loc
I0405 21:44:36.521200  3807 net.cpp:157] Top shape: 2 24 18 18 (15552)
I0405 21:44:36.521204  3807 net.cpp:165] Memory required for data: 113465544
I0405 21:44:36.521212  3807 layer_factory.hpp:77] Creating layer fire8_mbox_loc_perm
I0405 21:44:36.521219  3807 net.cpp:100] Creating Layer fire8_mbox_loc_perm
I0405 21:44:36.521224  3807 net.cpp:434] fire8_mbox_loc_perm <- fire8_mbox_loc
I0405 21:44:36.521229  3807 net.cpp:408] fire8_mbox_loc_perm -> fire8_mbox_loc_perm
I0405 21:44:36.521365  3807 net.cpp:150] Setting up fire8_mbox_loc_perm
I0405 21:44:36.521373  3807 net.cpp:157] Top shape: 2 18 18 24 (15552)
I0405 21:44:36.521376  3807 net.cpp:165] Memory required for data: 113527752
I0405 21:44:36.521379  3807 layer_factory.hpp:77] Creating layer fire8_mbox_loc_flat
I0405 21:44:36.521385  3807 net.cpp:100] Creating Layer fire8_mbox_loc_flat
I0405 21:44:36.521390  3807 net.cpp:434] fire8_mbox_loc_flat <- fire8_mbox_loc_perm
I0405 21:44:36.521395  3807 net.cpp:408] fire8_mbox_loc_flat -> fire8_mbox_loc_flat
I0405 21:44:36.521431  3807 net.cpp:150] Setting up fire8_mbox_loc_flat
I0405 21:44:36.521438  3807 net.cpp:157] Top shape: 2 7776 (15552)
I0405 21:44:36.521442  3807 net.cpp:165] Memory required for data: 113589960
I0405 21:44:36.521445  3807 layer_factory.hpp:77] Creating layer fire8_mbox_conf
I0405 21:44:36.521453  3807 net.cpp:100] Creating Layer fire8_mbox_conf
I0405 21:44:36.521458  3807 net.cpp:434] fire8_mbox_conf <- fire8_norm_fire8_norm_0_split_1
I0405 21:44:36.521464  3807 net.cpp:408] fire8_mbox_conf -> fire8_mbox_conf
I0405 21:44:36.523036  3807 net.cpp:150] Setting up fire8_mbox_conf
I0405 21:44:36.523047  3807 net.cpp:157] Top shape: 2 42 18 18 (27216)
I0405 21:44:36.523051  3807 net.cpp:165] Memory required for data: 113698824
I0405 21:44:36.523056  3807 layer_factory.hpp:77] Creating layer fire8_mbox_conf_perm
I0405 21:44:36.523063  3807 net.cpp:100] Creating Layer fire8_mbox_conf_perm
I0405 21:44:36.523067  3807 net.cpp:434] fire8_mbox_conf_perm <- fire8_mbox_conf
I0405 21:44:36.523073  3807 net.cpp:408] fire8_mbox_conf_perm -> fire8_mbox_conf_perm
I0405 21:44:36.523198  3807 net.cpp:150] Setting up fire8_mbox_conf_perm
I0405 21:44:36.523205  3807 net.cpp:157] Top shape: 2 18 18 42 (27216)
I0405 21:44:36.523208  3807 net.cpp:165] Memory required for data: 113807688
I0405 21:44:36.523211  3807 layer_factory.hpp:77] Creating layer fire8_mbox_conf_flat
I0405 21:44:36.523217  3807 net.cpp:100] Creating Layer fire8_mbox_conf_flat
I0405 21:44:36.523221  3807 net.cpp:434] fire8_mbox_conf_flat <- fire8_mbox_conf_perm
I0405 21:44:36.523227  3807 net.cpp:408] fire8_mbox_conf_flat -> fire8_mbox_conf_flat
I0405 21:44:36.523252  3807 net.cpp:150] Setting up fire8_mbox_conf_flat
I0405 21:44:36.523258  3807 net.cpp:157] Top shape: 2 13608 (27216)
I0405 21:44:36.523262  3807 net.cpp:165] Memory required for data: 113916552
I0405 21:44:36.523264  3807 layer_factory.hpp:77] Creating layer fire8_mbox_priorbox
I0405 21:44:36.523272  3807 net.cpp:100] Creating Layer fire8_mbox_priorbox
I0405 21:44:36.523275  3807 net.cpp:434] fire8_mbox_priorbox <- fire8_norm_fire8_norm_0_split_2
I0405 21:44:36.523281  3807 net.cpp:434] fire8_mbox_priorbox <- data_data_0_split_2
I0405 21:44:36.523288  3807 net.cpp:408] fire8_mbox_priorbox -> fire8_mbox_priorbox
I0405 21:44:36.523313  3807 net.cpp:150] Setting up fire8_mbox_priorbox
I0405 21:44:36.523319  3807 net.cpp:157] Top shape: 1 2 7776 (15552)
I0405 21:44:36.523322  3807 net.cpp:165] Memory required for data: 113978760
I0405 21:44:36.523325  3807 layer_factory.hpp:77] Creating layer fire9_mbox_loc
I0405 21:44:36.523332  3807 net.cpp:100] Creating Layer fire9_mbox_loc
I0405 21:44:36.523337  3807 net.cpp:434] fire9_mbox_loc <- fire9/concat_fire9/concat_0_split_1
I0405 21:44:36.523344  3807 net.cpp:408] fire9_mbox_loc -> fire9_mbox_loc
I0405 21:44:36.524866  3807 net.cpp:150] Setting up fire9_mbox_loc
I0405 21:44:36.524878  3807 net.cpp:157] Top shape: 2 24 9 9 (3888)
I0405 21:44:36.524883  3807 net.cpp:165] Memory required for data: 113994312
I0405 21:44:36.524889  3807 layer_factory.hpp:77] Creating layer fire9_mbox_loc_perm
I0405 21:44:36.524896  3807 net.cpp:100] Creating Layer fire9_mbox_loc_perm
I0405 21:44:36.524901  3807 net.cpp:434] fire9_mbox_loc_perm <- fire9_mbox_loc
I0405 21:44:36.524907  3807 net.cpp:408] fire9_mbox_loc_perm -> fire9_mbox_loc_perm
I0405 21:44:36.525037  3807 net.cpp:150] Setting up fire9_mbox_loc_perm
I0405 21:44:36.525044  3807 net.cpp:157] Top shape: 2 9 9 24 (3888)
I0405 21:44:36.525048  3807 net.cpp:165] Memory required for data: 114009864
I0405 21:44:36.525053  3807 layer_factory.hpp:77] Creating layer fire9_mbox_loc_flat
I0405 21:44:36.525058  3807 net.cpp:100] Creating Layer fire9_mbox_loc_flat
I0405 21:44:36.525063  3807 net.cpp:434] fire9_mbox_loc_flat <- fire9_mbox_loc_perm
I0405 21:44:36.525068  3807 net.cpp:408] fire9_mbox_loc_flat -> fire9_mbox_loc_flat
I0405 21:44:36.525094  3807 net.cpp:150] Setting up fire9_mbox_loc_flat
I0405 21:44:36.525099  3807 net.cpp:157] Top shape: 2 1944 (3888)
I0405 21:44:36.525104  3807 net.cpp:165] Memory required for data: 114025416
I0405 21:44:36.525117  3807 layer_factory.hpp:77] Creating layer fire9_mbox_conf
I0405 21:44:36.525131  3807 net.cpp:100] Creating Layer fire9_mbox_conf
I0405 21:44:36.525136  3807 net.cpp:434] fire9_mbox_conf <- fire9/concat_fire9/concat_0_split_2
I0405 21:44:36.525142  3807 net.cpp:408] fire9_mbox_conf -> fire9_mbox_conf
I0405 21:44:36.526769  3807 net.cpp:150] Setting up fire9_mbox_conf
I0405 21:44:36.526782  3807 net.cpp:157] Top shape: 2 42 9 9 (6804)
I0405 21:44:36.526785  3807 net.cpp:165] Memory required for data: 114052632
I0405 21:44:36.526793  3807 layer_factory.hpp:77] Creating layer fire9_mbox_conf_perm
I0405 21:44:36.526799  3807 net.cpp:100] Creating Layer fire9_mbox_conf_perm
I0405 21:44:36.526803  3807 net.cpp:434] fire9_mbox_conf_perm <- fire9_mbox_conf
I0405 21:44:36.526809  3807 net.cpp:408] fire9_mbox_conf_perm -> fire9_mbox_conf_perm
I0405 21:44:36.526933  3807 net.cpp:150] Setting up fire9_mbox_conf_perm
I0405 21:44:36.526940  3807 net.cpp:157] Top shape: 2 9 9 42 (6804)
I0405 21:44:36.526944  3807 net.cpp:165] Memory required for data: 114079848
I0405 21:44:36.526948  3807 layer_factory.hpp:77] Creating layer fire9_mbox_conf_flat
I0405 21:44:36.526954  3807 net.cpp:100] Creating Layer fire9_mbox_conf_flat
I0405 21:44:36.526959  3807 net.cpp:434] fire9_mbox_conf_flat <- fire9_mbox_conf_perm
I0405 21:44:36.526965  3807 net.cpp:408] fire9_mbox_conf_flat -> fire9_mbox_conf_flat
I0405 21:44:36.526990  3807 net.cpp:150] Setting up fire9_mbox_conf_flat
I0405 21:44:36.526996  3807 net.cpp:157] Top shape: 2 3402 (6804)
I0405 21:44:36.527000  3807 net.cpp:165] Memory required for data: 114107064
I0405 21:44:36.527004  3807 layer_factory.hpp:77] Creating layer fire9_mbox_priorbox
I0405 21:44:36.527010  3807 net.cpp:100] Creating Layer fire9_mbox_priorbox
I0405 21:44:36.527015  3807 net.cpp:434] fire9_mbox_priorbox <- fire9/concat_fire9/concat_0_split_3
I0405 21:44:36.527020  3807 net.cpp:434] fire9_mbox_priorbox <- data_data_0_split_3
I0405 21:44:36.527026  3807 net.cpp:408] fire9_mbox_priorbox -> fire9_mbox_priorbox
I0405 21:44:36.527052  3807 net.cpp:150] Setting up fire9_mbox_priorbox
I0405 21:44:36.527058  3807 net.cpp:157] Top shape: 1 2 1944 (3888)
I0405 21:44:36.527061  3807 net.cpp:165] Memory required for data: 114122616
I0405 21:44:36.527066  3807 layer_factory.hpp:77] Creating layer fire10_mbox_loc
I0405 21:44:36.527073  3807 net.cpp:100] Creating Layer fire10_mbox_loc
I0405 21:44:36.527077  3807 net.cpp:434] fire10_mbox_loc <- fire10/concat_fire10/concat_0_split_1
I0405 21:44:36.527083  3807 net.cpp:408] fire10_mbox_loc -> fire10_mbox_loc
I0405 21:44:36.528388  3807 net.cpp:150] Setting up fire10_mbox_loc
I0405 21:44:36.528400  3807 net.cpp:157] Top shape: 2 24 4 4 (768)
I0405 21:44:36.528404  3807 net.cpp:165] Memory required for data: 114125688
I0405 21:44:36.528411  3807 layer_factory.hpp:77] Creating layer fire10_mbox_loc_perm
I0405 21:44:36.528434  3807 net.cpp:100] Creating Layer fire10_mbox_loc_perm
I0405 21:44:36.528439  3807 net.cpp:434] fire10_mbox_loc_perm <- fire10_mbox_loc
I0405 21:44:36.528445  3807 net.cpp:408] fire10_mbox_loc_perm -> fire10_mbox_loc_perm
I0405 21:44:36.528571  3807 net.cpp:150] Setting up fire10_mbox_loc_perm
I0405 21:44:36.528578  3807 net.cpp:157] Top shape: 2 4 4 24 (768)
I0405 21:44:36.528583  3807 net.cpp:165] Memory required for data: 114128760
I0405 21:44:36.528586  3807 layer_factory.hpp:77] Creating layer fire10_mbox_loc_flat
I0405 21:44:36.528592  3807 net.cpp:100] Creating Layer fire10_mbox_loc_flat
I0405 21:44:36.528596  3807 net.cpp:434] fire10_mbox_loc_flat <- fire10_mbox_loc_perm
I0405 21:44:36.528602  3807 net.cpp:408] fire10_mbox_loc_flat -> fire10_mbox_loc_flat
I0405 21:44:36.528627  3807 net.cpp:150] Setting up fire10_mbox_loc_flat
I0405 21:44:36.528632  3807 net.cpp:157] Top shape: 2 384 (768)
I0405 21:44:36.528636  3807 net.cpp:165] Memory required for data: 114131832
I0405 21:44:36.528640  3807 layer_factory.hpp:77] Creating layer fire10_mbox_conf
I0405 21:44:36.528647  3807 net.cpp:100] Creating Layer fire10_mbox_conf
I0405 21:44:36.528663  3807 net.cpp:434] fire10_mbox_conf <- fire10/concat_fire10/concat_0_split_2
I0405 21:44:36.528671  3807 net.cpp:408] fire10_mbox_conf -> fire10_mbox_conf
I0405 21:44:36.530270  3807 net.cpp:150] Setting up fire10_mbox_conf
I0405 21:44:36.530282  3807 net.cpp:157] Top shape: 2 42 4 4 (1344)
I0405 21:44:36.530287  3807 net.cpp:165] Memory required for data: 114137208
I0405 21:44:36.530293  3807 layer_factory.hpp:77] Creating layer fire10_mbox_conf_perm
I0405 21:44:36.530300  3807 net.cpp:100] Creating Layer fire10_mbox_conf_perm
I0405 21:44:36.530304  3807 net.cpp:434] fire10_mbox_conf_perm <- fire10_mbox_conf
I0405 21:44:36.530310  3807 net.cpp:408] fire10_mbox_conf_perm -> fire10_mbox_conf_perm
I0405 21:44:36.530436  3807 net.cpp:150] Setting up fire10_mbox_conf_perm
I0405 21:44:36.530444  3807 net.cpp:157] Top shape: 2 4 4 42 (1344)
I0405 21:44:36.530447  3807 net.cpp:165] Memory required for data: 114142584
I0405 21:44:36.530452  3807 layer_factory.hpp:77] Creating layer fire10_mbox_conf_flat
I0405 21:44:36.530457  3807 net.cpp:100] Creating Layer fire10_mbox_conf_flat
I0405 21:44:36.530462  3807 net.cpp:434] fire10_mbox_conf_flat <- fire10_mbox_conf_perm
I0405 21:44:36.530467  3807 net.cpp:408] fire10_mbox_conf_flat -> fire10_mbox_conf_flat
I0405 21:44:36.530494  3807 net.cpp:150] Setting up fire10_mbox_conf_flat
I0405 21:44:36.530500  3807 net.cpp:157] Top shape: 2 672 (1344)
I0405 21:44:36.530503  3807 net.cpp:165] Memory required for data: 114147960
I0405 21:44:36.530508  3807 layer_factory.hpp:77] Creating layer fire10_mbox_priorbox
I0405 21:44:36.530514  3807 net.cpp:100] Creating Layer fire10_mbox_priorbox
I0405 21:44:36.530519  3807 net.cpp:434] fire10_mbox_priorbox <- fire10/concat_fire10/concat_0_split_3
I0405 21:44:36.530524  3807 net.cpp:434] fire10_mbox_priorbox <- data_data_0_split_4
I0405 21:44:36.530529  3807 net.cpp:408] fire10_mbox_priorbox -> fire10_mbox_priorbox
I0405 21:44:36.530555  3807 net.cpp:150] Setting up fire10_mbox_priorbox
I0405 21:44:36.530561  3807 net.cpp:157] Top shape: 1 2 384 (768)
I0405 21:44:36.530565  3807 net.cpp:165] Memory required for data: 114151032
I0405 21:44:36.530568  3807 layer_factory.hpp:77] Creating layer conv12_2_mbox_loc
I0405 21:44:36.530576  3807 net.cpp:100] Creating Layer conv12_2_mbox_loc
I0405 21:44:36.530580  3807 net.cpp:434] conv12_2_mbox_loc <- conv12_2_relu12_2_0_split_1
I0405 21:44:36.530586  3807 net.cpp:408] conv12_2_mbox_loc -> conv12_2_mbox_loc
I0405 21:44:36.531854  3807 net.cpp:150] Setting up conv12_2_mbox_loc
I0405 21:44:36.531867  3807 net.cpp:157] Top shape: 2 24 2 2 (192)
I0405 21:44:36.531870  3807 net.cpp:165] Memory required for data: 114151800
I0405 21:44:36.531877  3807 layer_factory.hpp:77] Creating layer conv12_2_mbox_loc_perm
I0405 21:44:36.531883  3807 net.cpp:100] Creating Layer conv12_2_mbox_loc_perm
I0405 21:44:36.531888  3807 net.cpp:434] conv12_2_mbox_loc_perm <- conv12_2_mbox_loc
I0405 21:44:36.531894  3807 net.cpp:408] conv12_2_mbox_loc_perm -> conv12_2_mbox_loc_perm
I0405 21:44:36.532006  3807 net.cpp:150] Setting up conv12_2_mbox_loc_perm
I0405 21:44:36.532012  3807 net.cpp:157] Top shape: 2 2 2 24 (192)
I0405 21:44:36.532016  3807 net.cpp:165] Memory required for data: 114152568
I0405 21:44:36.532019  3807 layer_factory.hpp:77] Creating layer conv12_2_mbox_loc_flat
I0405 21:44:36.532025  3807 net.cpp:100] Creating Layer conv12_2_mbox_loc_flat
I0405 21:44:36.532037  3807 net.cpp:434] conv12_2_mbox_loc_flat <- conv12_2_mbox_loc_perm
I0405 21:44:36.532048  3807 net.cpp:408] conv12_2_mbox_loc_flat -> conv12_2_mbox_loc_flat
I0405 21:44:36.532078  3807 net.cpp:150] Setting up conv12_2_mbox_loc_flat
I0405 21:44:36.532085  3807 net.cpp:157] Top shape: 2 96 (192)
I0405 21:44:36.532088  3807 net.cpp:165] Memory required for data: 114153336
I0405 21:44:36.532093  3807 layer_factory.hpp:77] Creating layer conv12_2_mbox_conf
I0405 21:44:36.532099  3807 net.cpp:100] Creating Layer conv12_2_mbox_conf
I0405 21:44:36.532104  3807 net.cpp:434] conv12_2_mbox_conf <- conv12_2_relu12_2_0_split_2
I0405 21:44:36.532109  3807 net.cpp:408] conv12_2_mbox_conf -> conv12_2_mbox_conf
I0405 21:44:36.533735  3807 net.cpp:150] Setting up conv12_2_mbox_conf
I0405 21:44:36.533753  3807 net.cpp:157] Top shape: 2 42 2 2 (336)
I0405 21:44:36.533758  3807 net.cpp:165] Memory required for data: 114154680
I0405 21:44:36.533766  3807 layer_factory.hpp:77] Creating layer conv12_2_mbox_conf_perm
I0405 21:44:36.533776  3807 net.cpp:100] Creating Layer conv12_2_mbox_conf_perm
I0405 21:44:36.533780  3807 net.cpp:434] conv12_2_mbox_conf_perm <- conv12_2_mbox_conf
I0405 21:44:36.533787  3807 net.cpp:408] conv12_2_mbox_conf_perm -> conv12_2_mbox_conf_perm
I0405 21:44:36.533936  3807 net.cpp:150] Setting up conv12_2_mbox_conf_perm
I0405 21:44:36.533943  3807 net.cpp:157] Top shape: 2 2 2 42 (336)
I0405 21:44:36.533957  3807 net.cpp:165] Memory required for data: 114156024
I0405 21:44:36.533962  3807 layer_factory.hpp:77] Creating layer conv12_2_mbox_conf_flat
I0405 21:44:36.533969  3807 net.cpp:100] Creating Layer conv12_2_mbox_conf_flat
I0405 21:44:36.533973  3807 net.cpp:434] conv12_2_mbox_conf_flat <- conv12_2_mbox_conf_perm
I0405 21:44:36.533979  3807 net.cpp:408] conv12_2_mbox_conf_flat -> conv12_2_mbox_conf_flat
I0405 21:44:36.534015  3807 net.cpp:150] Setting up conv12_2_mbox_conf_flat
I0405 21:44:36.534021  3807 net.cpp:157] Top shape: 2 168 (336)
I0405 21:44:36.534024  3807 net.cpp:165] Memory required for data: 114157368
I0405 21:44:36.534029  3807 layer_factory.hpp:77] Creating layer conv12_2_mbox_priorbox
I0405 21:44:36.534034  3807 net.cpp:100] Creating Layer conv12_2_mbox_priorbox
I0405 21:44:36.534039  3807 net.cpp:434] conv12_2_mbox_priorbox <- conv12_2_relu12_2_0_split_3
I0405 21:44:36.534044  3807 net.cpp:434] conv12_2_mbox_priorbox <- data_data_0_split_5
I0405 21:44:36.534050  3807 net.cpp:408] conv12_2_mbox_priorbox -> conv12_2_mbox_priorbox
I0405 21:44:36.534085  3807 net.cpp:150] Setting up conv12_2_mbox_priorbox
I0405 21:44:36.534090  3807 net.cpp:157] Top shape: 1 2 96 (192)
I0405 21:44:36.534095  3807 net.cpp:165] Memory required for data: 114158136
I0405 21:44:36.534098  3807 layer_factory.hpp:77] Creating layer conv13_2_mbox_loc
I0405 21:44:36.534113  3807 net.cpp:100] Creating Layer conv13_2_mbox_loc
I0405 21:44:36.534118  3807 net.cpp:434] conv13_2_mbox_loc <- conv13_2_conv13_2_0_split_0
I0405 21:44:36.534124  3807 net.cpp:408] conv13_2_mbox_loc -> conv13_2_mbox_loc
I0405 21:44:36.536017  3807 net.cpp:150] Setting up conv13_2_mbox_loc
I0405 21:44:36.536041  3807 net.cpp:157] Top shape: 2 16 1 1 (32)
I0405 21:44:36.536047  3807 net.cpp:165] Memory required for data: 114158264
I0405 21:44:36.536057  3807 layer_factory.hpp:77] Creating layer conv13_2_mbox_loc_perm
I0405 21:44:36.536067  3807 net.cpp:100] Creating Layer conv13_2_mbox_loc_perm
I0405 21:44:36.536072  3807 net.cpp:434] conv13_2_mbox_loc_perm <- conv13_2_mbox_loc
I0405 21:44:36.536079  3807 net.cpp:408] conv13_2_mbox_loc_perm -> conv13_2_mbox_loc_perm
I0405 21:44:36.536216  3807 net.cpp:150] Setting up conv13_2_mbox_loc_perm
I0405 21:44:36.536223  3807 net.cpp:157] Top shape: 2 1 1 16 (32)
I0405 21:44:36.536226  3807 net.cpp:165] Memory required for data: 114158392
I0405 21:44:36.536231  3807 layer_factory.hpp:77] Creating layer conv13_2_mbox_loc_flat
I0405 21:44:36.536237  3807 net.cpp:100] Creating Layer conv13_2_mbox_loc_flat
I0405 21:44:36.536242  3807 net.cpp:434] conv13_2_mbox_loc_flat <- conv13_2_mbox_loc_perm
I0405 21:44:36.536247  3807 net.cpp:408] conv13_2_mbox_loc_flat -> conv13_2_mbox_loc_flat
I0405 21:44:36.536273  3807 net.cpp:150] Setting up conv13_2_mbox_loc_flat
I0405 21:44:36.536279  3807 net.cpp:157] Top shape: 2 16 (32)
I0405 21:44:36.536283  3807 net.cpp:165] Memory required for data: 114158520
I0405 21:44:36.536286  3807 layer_factory.hpp:77] Creating layer conv13_2_mbox_conf
I0405 21:44:36.536295  3807 net.cpp:100] Creating Layer conv13_2_mbox_conf
I0405 21:44:36.536299  3807 net.cpp:434] conv13_2_mbox_conf <- conv13_2_conv13_2_0_split_1
I0405 21:44:36.536305  3807 net.cpp:408] conv13_2_mbox_conf -> conv13_2_mbox_conf
I0405 21:44:36.537930  3807 net.cpp:150] Setting up conv13_2_mbox_conf
I0405 21:44:36.537958  3807 net.cpp:157] Top shape: 2 28 1 1 (56)
I0405 21:44:36.537963  3807 net.cpp:165] Memory required for data: 114158744
I0405 21:44:36.537969  3807 layer_factory.hpp:77] Creating layer conv13_2_mbox_conf_perm
I0405 21:44:36.537976  3807 net.cpp:100] Creating Layer conv13_2_mbox_conf_perm
I0405 21:44:36.537981  3807 net.cpp:434] conv13_2_mbox_conf_perm <- conv13_2_mbox_conf
I0405 21:44:36.537986  3807 net.cpp:408] conv13_2_mbox_conf_perm -> conv13_2_mbox_conf_perm
I0405 21:44:36.538125  3807 net.cpp:150] Setting up conv13_2_mbox_conf_perm
I0405 21:44:36.538132  3807 net.cpp:157] Top shape: 2 1 1 28 (56)
I0405 21:44:36.538136  3807 net.cpp:165] Memory required for data: 114158968
I0405 21:44:36.538141  3807 layer_factory.hpp:77] Creating layer conv13_2_mbox_conf_flat
I0405 21:44:36.538146  3807 net.cpp:100] Creating Layer conv13_2_mbox_conf_flat
I0405 21:44:36.538151  3807 net.cpp:434] conv13_2_mbox_conf_flat <- conv13_2_mbox_conf_perm
I0405 21:44:36.538156  3807 net.cpp:408] conv13_2_mbox_conf_flat -> conv13_2_mbox_conf_flat
I0405 21:44:36.538182  3807 net.cpp:150] Setting up conv13_2_mbox_conf_flat
I0405 21:44:36.538187  3807 net.cpp:157] Top shape: 2 28 (56)
I0405 21:44:36.538192  3807 net.cpp:165] Memory required for data: 114159192
I0405 21:44:36.538194  3807 layer_factory.hpp:77] Creating layer conv13_2_mbox_priorbox
I0405 21:44:36.538202  3807 net.cpp:100] Creating Layer conv13_2_mbox_priorbox
I0405 21:44:36.538205  3807 net.cpp:434] conv13_2_mbox_priorbox <- conv13_2_conv13_2_0_split_2
I0405 21:44:36.538210  3807 net.cpp:434] conv13_2_mbox_priorbox <- data_data_0_split_6
I0405 21:44:36.538215  3807 net.cpp:408] conv13_2_mbox_priorbox -> conv13_2_mbox_priorbox
I0405 21:44:36.538245  3807 net.cpp:150] Setting up conv13_2_mbox_priorbox
I0405 21:44:36.538251  3807 net.cpp:157] Top shape: 1 2 16 (32)
I0405 21:44:36.538254  3807 net.cpp:165] Memory required for data: 114159320
I0405 21:44:36.538259  3807 layer_factory.hpp:77] Creating layer mbox_loc
I0405 21:44:36.538264  3807 net.cpp:100] Creating Layer mbox_loc
I0405 21:44:36.538269  3807 net.cpp:434] mbox_loc <- fire4_mbox_loc_flat
I0405 21:44:36.538275  3807 net.cpp:434] mbox_loc <- fire8_mbox_loc_flat
I0405 21:44:36.538280  3807 net.cpp:434] mbox_loc <- fire9_mbox_loc_flat
I0405 21:44:36.538285  3807 net.cpp:434] mbox_loc <- fire10_mbox_loc_flat
I0405 21:44:36.538290  3807 net.cpp:434] mbox_loc <- conv12_2_mbox_loc_flat
I0405 21:44:36.538295  3807 net.cpp:434] mbox_loc <- conv13_2_mbox_loc_flat
I0405 21:44:36.538300  3807 net.cpp:408] mbox_loc -> mbox_loc
I0405 21:44:36.538327  3807 net.cpp:150] Setting up mbox_loc
I0405 21:44:36.538333  3807 net.cpp:157] Top shape: 2 32120 (64240)
I0405 21:44:36.538336  3807 net.cpp:165] Memory required for data: 114416280
I0405 21:44:36.538341  3807 layer_factory.hpp:77] Creating layer mbox_conf
I0405 21:44:36.538345  3807 net.cpp:100] Creating Layer mbox_conf
I0405 21:44:36.538350  3807 net.cpp:434] mbox_conf <- fire4_mbox_conf_flat
I0405 21:44:36.538354  3807 net.cpp:434] mbox_conf <- fire8_mbox_conf_flat
I0405 21:44:36.538359  3807 net.cpp:434] mbox_conf <- fire9_mbox_conf_flat
I0405 21:44:36.538364  3807 net.cpp:434] mbox_conf <- fire10_mbox_conf_flat
I0405 21:44:36.538372  3807 net.cpp:434] mbox_conf <- conv12_2_mbox_conf_flat
I0405 21:44:36.538378  3807 net.cpp:434] mbox_conf <- conv13_2_mbox_conf_flat
I0405 21:44:36.538383  3807 net.cpp:408] mbox_conf -> mbox_conf
I0405 21:44:36.538408  3807 net.cpp:150] Setting up mbox_conf
I0405 21:44:36.538414  3807 net.cpp:157] Top shape: 2 56210 (112420)
I0405 21:44:36.538416  3807 net.cpp:165] Memory required for data: 114865960
I0405 21:44:36.538420  3807 layer_factory.hpp:77] Creating layer mbox_priorbox
I0405 21:44:36.538425  3807 net.cpp:100] Creating Layer mbox_priorbox
I0405 21:44:36.538429  3807 net.cpp:434] mbox_priorbox <- fire4_mbox_priorbox
I0405 21:44:36.538434  3807 net.cpp:434] mbox_priorbox <- fire8_mbox_priorbox
I0405 21:44:36.538442  3807 net.cpp:434] mbox_priorbox <- fire9_mbox_priorbox
I0405 21:44:36.538446  3807 net.cpp:434] mbox_priorbox <- fire10_mbox_priorbox
I0405 21:44:36.538460  3807 net.cpp:434] mbox_priorbox <- conv12_2_mbox_priorbox
I0405 21:44:36.538463  3807 net.cpp:434] mbox_priorbox <- conv13_2_mbox_priorbox
I0405 21:44:36.538468  3807 net.cpp:408] mbox_priorbox -> mbox_priorbox
I0405 21:44:36.538494  3807 net.cpp:150] Setting up mbox_priorbox
I0405 21:44:36.538501  3807 net.cpp:157] Top shape: 1 2 32120 (64240)
I0405 21:44:36.538503  3807 net.cpp:165] Memory required for data: 115122920
I0405 21:44:36.538507  3807 layer_factory.hpp:77] Creating layer mbox_conf_reshape
I0405 21:44:36.538514  3807 net.cpp:100] Creating Layer mbox_conf_reshape
I0405 21:44:36.538518  3807 net.cpp:434] mbox_conf_reshape <- mbox_conf
I0405 21:44:36.538523  3807 net.cpp:408] mbox_conf_reshape -> mbox_conf_reshape
I0405 21:44:36.538555  3807 net.cpp:150] Setting up mbox_conf_reshape
I0405 21:44:36.538561  3807 net.cpp:157] Top shape: 2 8030 7 (112420)
I0405 21:44:36.538565  3807 net.cpp:165] Memory required for data: 115572600
I0405 21:44:36.538569  3807 layer_factory.hpp:77] Creating layer mbox_conf_softmax
I0405 21:44:36.538575  3807 net.cpp:100] Creating Layer mbox_conf_softmax
I0405 21:44:36.538579  3807 net.cpp:434] mbox_conf_softmax <- mbox_conf_reshape
I0405 21:44:36.538584  3807 net.cpp:408] mbox_conf_softmax -> mbox_conf_softmax
I0405 21:44:36.539069  3807 net.cpp:150] Setting up mbox_conf_softmax
I0405 21:44:36.539081  3807 net.cpp:157] Top shape: 2 8030 7 (112420)
I0405 21:44:36.539085  3807 net.cpp:165] Memory required for data: 116022280
I0405 21:44:36.539090  3807 layer_factory.hpp:77] Creating layer mbox_conf_flatten
I0405 21:44:36.539096  3807 net.cpp:100] Creating Layer mbox_conf_flatten
I0405 21:44:36.539100  3807 net.cpp:434] mbox_conf_flatten <- mbox_conf_softmax
I0405 21:44:36.539106  3807 net.cpp:408] mbox_conf_flatten -> mbox_conf_flatten
I0405 21:44:36.539134  3807 net.cpp:150] Setting up mbox_conf_flatten
I0405 21:44:36.539139  3807 net.cpp:157] Top shape: 2 56210 (112420)
I0405 21:44:36.539144  3807 net.cpp:165] Memory required for data: 116471960
I0405 21:44:36.539147  3807 layer_factory.hpp:77] Creating layer detection_out
I0405 21:44:36.539157  3807 net.cpp:100] Creating Layer detection_out
I0405 21:44:36.539161  3807 net.cpp:434] detection_out <- mbox_loc
I0405 21:44:36.539166  3807 net.cpp:434] detection_out <- mbox_conf_flatten
I0405 21:44:36.539170  3807 net.cpp:434] detection_out <- mbox_priorbox
I0405 21:44:36.539182  3807 net.cpp:408] detection_out -> detection_out
I0405 21:44:36.539250  3807 net.cpp:150] Setting up detection_out
I0405 21:44:36.539258  3807 net.cpp:157] Top shape: 1 1 1 7 (7)
I0405 21:44:36.539260  3807 net.cpp:165] Memory required for data: 116471988
I0405 21:44:36.539264  3807 layer_factory.hpp:77] Creating layer detection_eval
I0405 21:44:36.539271  3807 net.cpp:100] Creating Layer detection_eval
I0405 21:44:36.539275  3807 net.cpp:434] detection_eval <- detection_out
I0405 21:44:36.539279  3807 net.cpp:434] detection_eval <- label
I0405 21:44:36.539284  3807 net.cpp:408] detection_eval -> detection_eval
I0405 21:44:36.539330  3807 net.cpp:150] Setting up detection_eval
I0405 21:44:36.539336  3807 net.cpp:157] Top shape: 1 1 7 5 (35)
I0405 21:44:36.539340  3807 net.cpp:165] Memory required for data: 116472128
I0405 21:44:36.539345  3807 net.cpp:228] detection_eval does not need backward computation.
I0405 21:44:36.539348  3807 net.cpp:228] detection_out does not need backward computation.
I0405 21:44:36.539353  3807 net.cpp:228] mbox_conf_flatten does not need backward computation.
I0405 21:44:36.539357  3807 net.cpp:228] mbox_conf_softmax does not need backward computation.
…
