…
    batch_sampler {
      sampler {
        min_scale: 0.3
        max_scale: 1
        min_aspect_ratio: 0.5
        max_aspect_ratio: 2
      }
      sample_constraint {
        min_jaccard_overlap: 0.9
      }
      max_sample: 1
      max_trials: 50
    }
    batch_sampler {
      sampler {
        min_scale: 0.3
        max_scale: 1
        min_aspect_ratio: 0.5
        max_aspect_ratio: 2
      }
      sample_constraint {
        max_jaccard_overlap: 1
      }
      max_sample: 1
      max_trials: 50
    }
    label_map_file: "labelmap.prototxt"
  }
}
layer {
  name: "conv1"
  type: "Convolution"
  bottom: "data"
  top: "conv1"
  param {
    lr_mult: 0.1
    decay_mult: 0.1
  }
  convolution_param {
    num_output: 57
    bias_term: false
    pad: 0
    kernel_size: 3
    stride: 2
    weight_filler {
      type: "msra"
    }
  }
}
layer {
  name: "relu1_1"
  type: "ReLU"
  bottom: "conv1"
  top: "conv1"
}
layer {
  name: "pool1"
  type: "Pooling"
  bottom: "conv1"
  top: "pool1"
  pooling_param {
    pool: MAX
    kernel_size: 3
    stride: 2
  }
}
layer {
  name: "fire1/squeeze1x1"
  type: "Convolution"
  bottom: "pool1"
  top: "fire1/squeeze1x1"
  convolution_param {
    num_output: 15
    bias_term: false
    kernel_size: 1
    weight_filler {
      type: "msra"
    }
  }
}
layer {
  name: "fire1/relu_squeeze1x1"
  type: "ReLU"
  bottom: "fire1/squeeze1x1"
  top: "fire1/squeeze1x1"
}
layer {
  name: "fire1/expand1x1"
  type: "Convolution"
  bottom: "fire1/squeeze1x1"
  top: "fire1/expand1x1"
  convolution_param {
    num_output: 49
    bias_term: false
    kernel_size: 1
    weight_filler {
      type: "msra"
    }
  }
}
layer {
  name: "fire1/relu_expand1x1"
  type: "ReLU"
  bottom: "fire1/expand1x1"
  top: "fire1/expand1x1"
}
layer {
  name: "fire1/expand3x3"
  type: "Convolution"
  bottom: "fire1/squeeze1x1"
  top: "fire1/expand3x3"
  convolution_param {
    num_output: 53
    bias_term: false
    pad: 1
    kernel_size: 3
    weight_filler {
      type: "msra"
    }
  }
}
layer {
  name: "fire1/relu_expand3x3"
  type: "ReLU"
  bottom: "fire1/expand3x3"
  top: "fire1/expand3x3"
}
layer {
  name: "fire1/concat"
  type: "Concat"
  bottom: "fire1/expand1x1"
  bottom: "fire1/expand3x3"
  top: "fire1/concat"
}
layer {
  name: "fire2/squeeze1x1"
  type: "Convolution"
  bottom: "fire1/concat"
  top: "fire2/squeeze1x1"
  convolution_param {
    num_output: 15
    bias_term: false
    kernel_size: 1
    weight_filler {
      type: "msra"
    }
  }
}
layer {
  name: "fire2/relu_squeeze1x1"
  type: "ReLU"
  bottom: "fire2/squeeze1x1"
  top: "fire2/squeeze1x1"
}
layer {
  name: "fire2/expand1x1"
  type: "Convolution"
  bottom: "fire2/squeeze1x1"
  top: "fire2/expand1x1"
  convolution_param {
    num_output: 54
    bias_term: false
    kernel_size: 1
    weight_filler {
      type: "msra"
    }
  }
}
layer {
  name: "fire2/relu_expand1x1"
  type: "ReLU"
  bottom: "fire2/expand1x1"
  top: "fire2/expand1x1"
}
layer {
  name: "fire2/expand3x3"
  type: "Convolution"
  bottom: "fire2/squeeze1x1"
  top: "fire2/expand3x3"
  convolution_param {
    num_output: 52
    bias_term: false
    pad: 1
    kernel_size: 3
    weight_filler {
      type: "msra"
    }
  }
}
layer {
  name: "fire2/relu_expand3x3"
  type: "ReLU"
  bottom: "fire2/expand3x3"
  top: "fire2/expand3x3"
}
layer {
  name: "fire2/concat"
  type: "Concat"
  bottom: "fire2/expand1x1"
  bottom: "fire2/expand3x3"
  top: "fire2/concat"
}
layer {
  name: "pool3"
  type: "Pooling"
  bottom: "fire2/concat"
  top: "pool3"
  pooling_param {
    pool: MAX
    kernel_size: 3
    stride: 2
  }
}
layer {
  name: "fire3/squeeze1x1"
  type: "Convolution"
  bottom: "pool3"
  top: "fire3/squeeze1x1"
  convolution_param {
    num_output: 29
    bias_term: false
    kernel_size: 1
    weight_filler {
      type: "msra"
    }
  }
}
layer {
  name: "fire3/relu_squeeze1x1"
  type: "ReLU"
  bottom: "fire3/squeeze1x1"
  top: "fire3/squeeze1x1"
}
layer {
  name: "fire3/expand1x1"
  type: "Convolution"
  bottom: "fire3/squeeze1x1"
  top: "fire3/expand1x1"
  convolution_param {
    num_output: 92
    bias_term: false
    kernel_size: 1
    weight_filler {
      type: "msra"
    }
  }
}
layer {
  name: "fire3/relu_expand1x1"
  type: "ReLU"
  bottom: "fire3/expand1x1"
  top: "fire3/expand1x1"
}
layer {
  name: "fire3/expand3x3"
  type: "Convolution"
  bottom: "fire3/squeeze1x1"
  top: "fire3/expand3x3"
  convolution_param {
    num_output: 94
    bias_term: false
    pad: 1
    kernel_size: 3
    weight_filler {
      type: "msra"
    }
  }
}
layer {
  name: "fire3/relu_expand3x3"
  type: "ReLU"
  bottom: "fire3/expand3x3"
  top: "fire3/expand3x3"
}
layer {
  name: "fire3/concat"
  type: "Concat"
  bottom: "fire3/expand1x1"
  bottom: "fire3/expand3x3"
  top: "fire3/concat"
}
layer {
  name: "fire4/squeeze1x1"
  type: "Convolution"
  bottom: "fire3/concat"
  top: "fire4/squeeze1x1"
  convolution_param {
    num_output: 29
    bias_term: false
    kernel_size: 1
    weight_filler {
      type: "msra"
    }
  }
}
layer {
  name: "fire4/relu_squeeze1x1"
  type: "ReLU"
  bottom: "fire4/squeeze1x1"
  top: "fire4/squeeze1x1"
}
layer {
  name: "fire4/expand1x1"
  type: "Convolution"
  bottom: "fire4/squeeze1x1"
  top: "fire4/expand1x1"
  convolution_param {
    num_output: 90
    bias_term: false
    kernel_size: 1
    weight_filler {
      type: "msra"
    }
  }
}
layer {
  name: "fire4/relu_expand1x1"
  type: "ReLU"
  bottom: "fire4/expand1x1"
  top: "fire4/expand1x1"
}
layer {
  name: "fire4/expand3x3"
  type: "Convolution"
  bottom: "fire4/squeeze1x1"
  top: "fire4/expand3x3"
  convolution_param {
    num_output: 83
    bias_term: false
    pad: 1
    kernel_size: 3
    weight_filler {
      type: "msra"
    }
  }
}
layer {
  name: "fire4/relu_expand3x3"
  type: "ReLU"
  bottom: "fire4/expand3x3"
  top: "fire4/expand3x3"
}
layer {
  name: "fire4/concat"
  type: "Concat"
  bottom: "fire4/expand1x1"
  bottom: "fire4/expand3x3"
  top: "fire4/concat"
}
layer {
  name: "pool5"
  type: "Pooling"
  bottom: "fire4/concat"
  top: "pool5"
  pooling_param {
    pool: MAX
    kernel_size: 3
    stride: 2
  }
}
layer {
  name: "fire5/squeeze1x1"
  type: "Convolution"
  bottom: "pool5"
  top: "fire5/squeeze1x1"
  convolution_param {
    num_output: 44
    bias_term: false
    kernel_size: 1
    weight_filler {
      type: "msra"
    }
  }
}
layer {
  name: "fire5/relu_squeeze1x1"
  type: "ReLU"
  bottom: "fire5/squeeze1x1"
  top: "fire5/squeeze1x1"
}
layer {
  name: "fire5/expand1x1"
  type: "Convolution"
  bottom: "fire5/squeeze1x1"
  top: "fire5/expand1x1"
  convolution_param {
    num_output: 166
    bias_term: false
    kernel_size: 1
    weight_filler {
      type: "msra"
    }
  }
}
layer {
  name: "fire5/relu_expand1x1"
  type: "ReLU"
  bottom: "fire5/expand1x1"
  top: "fire5/expand1x1"
}
layer {
  name: "fire5/expand3x3"
  type: "Convolution"
  bottom: "fire5/squeeze1x1"
  top: "fire5/expand3x3"
  convolution_param {
    num_output: 161
    bias_term: false
    pad: 1
    kernel_size: 3
    weight_filler {
      type: "msra"
    }
  }
}
layer {
  name: "fire5/relu_expand3x3"
  type: "ReLU"
  bottom: "fire5/expand3x3"
  top: "fire5/expand3x3"
}
layer {
  name: "fire5/concat"
  type: "Concat"
  bottom: "fire5/expand1x1"
  bottom: "fire5/expand3x3"
  top: "fire5/concat"
}
layer {
  name: "fire6/squeeze1x1"
  type: "Convolution"
  bottom: "fire5/concat"
  top: "fire6/squeeze1x1"
  convolution_param {
    num_output: 45
    bias_term: false
    kernel_size: 1
    weight_filler {
      type: "msra"
    }
  }
}
layer {
  name: "fire6/relu_squeeze1x1"
  type: "ReLU"
  bottom: "fire6/squeeze1x1"
  top: "fire6/squeeze1x1"
}
layer {
  name: "fire6/expand1x1"
  type: "Convolution"
  bottom: "fire6/squeeze1x1"
  top: "fire6/expand1x1"
  convolution_param {
    num_output: 155
    bias_term: false
    kernel_size: 1
    weight_filler {
      type: "msra"
    }
  }
}
layer {
  name: "fire6/relu_expand1x1"
  type: "ReLU"
  bottom: "fire6/expand1x1"
  top: "fire6/expand1x1"
}
layer {
  name: "fire6/expand3x3"
  type: "Convolution"
  bottom: "fire6/squeeze1x1"
  top: "fire6/expand3x3"
  convolution_param {
    num_output: 146
    bias_term: false
    pad: 1
    kernel_size: 3
    weight_filler {
      type: "msra"
    }
  }
}
layer {
  name: "fire6/relu_expand3x3"
  type: "ReLU"
  bottom: "fire6/expand3x3"
  top: "fire6/expand3x3"
}
layer {
  name: "fire6/concat"
  type: "Concat"
  bottom: "fire6/expand1x1"
  bottom: "fire6/expand3x3"
  top: "fire6/concat"
}
layer {
  name: "fire7/squeeze1x1"
  type: "Convolution"
  bottom: "fire6/concat"
  top: "fire7/squeeze1x1"
  convolution_param {
    num_output: 49
    bias_term: false
    kernel_size: 1
    weight_filler {
      type: "msra"
    }
  }
}
layer {
  name: "fire7/relu_squeeze1x1"
  type: "ReLU"
  bottom: "fire7/squeeze1x1"
  top: "fire7/squeeze1x1"
}
layer {
  name: "fire7/expand1x1"
  type: "Convolution"
  bottom: "fire7/squeeze1x1"
  top: "fire7/expand1x1"
  convolution_param {
    num_output: 163
    bias_term: false
    kernel_size: 1
    weight_filler {
      type: "msra"
    }
  }
}
layer {
  name: "fire7/relu_expand1x1"
  type: "ReLU"
  bottom: "fire7/expand1x1"
  top: "fire7/expand1x1"
}
layer {
  name: "fire7/expand3x3"
  type: "Convolution"
  bottom: "fire7/squeeze1x1"
  top: "fire7/expand3x3"
  convolution_param {
    num_output: 171
    bias_term: false
    pad: 1
    kernel_size: 3
    weight_filler {
      type: "msra"
    }
  }
}
layer {
  name: "fire7/relu_expand3x3"
  type: "ReLU"
  bottom: "fire7/expand3x3"
  top: "fire7/expand3x3"
}
layer {
  name: "fire7/concat"
  type: "Concat"
  bottom: "fire7/expand1x1"
  bottom: "fire7/expand3x3"
  top: "fire7/concat"
}
layer {
  name: "fire8/squeeze1x1"
  type: "Convolution"
  bottom: "fire7/concat"
  top: "fire8/squeeze1x1"
  convolution_param {
    num_output: 25
    bias_term: false
    kernel_size: 1
    weight_filler {
      type: "msra"
    }
  }
}
layer {
  name: "fire8/relu_squeeze1x1"
  type: "ReLU"
  bottom: "fire8/squeeze1x1"
  top: "fire8/squeeze1x1"
}
layer {
  name: "fire8/expand1x1"
  type: "Convolution"
  bottom: "fire8/squeeze1x1"
  top: "fire8/expand1x1"
  convolution_param {
    num_output: 29
    bias_term: false
    kernel_size: 1
    weight_filler {
      type: "msra"
    }
  }
}
layer {
  name: "fire8/relu_expand1x1"
  type: "ReLU"
  bottom: "fire8/expand1x1"
  top: "fire8/expand1x1"
}
layer {
  name: "fire8/expand3x3"
  type: "Convolution"
  bottom: "fire8/squeeze1x1"
  top: "fire8/expand3x3"
  convolution_param {
    num_output: 54
    bias_term: false
    pad: 1
    kernel_size: 3
    weight_filler {
      type: "msra"
    }
  }
}
layer {
  name: "fire8/relu_expand3x3"
  type: "ReLU"
  bottom: "fire8/expand3x3"
  top: "fire8/expand3x3"
}
layer {
  name: "fire8/concat"
  type: "Concat"
  bottom: "fire8/expand1x1"
  bottom: "fire8/expand3x3"
  top: "fire8/concat"
}
layer {
  name: "pool9"
  type: "Pooling"
  bottom: "fire8/concat"
  top: "pool9"
  pooling_param {
    pool: MAX
    kernel_size: 3
    stride: 2
  }
}
layer {
  name: "fire9/squeeze1x1"
  type: "Convolution"
  bottom: "pool9"
  top: "fire9/squeeze1x1"
  convolution_param {
    num_output: 37
    bias_term: false
    kernel_size: 1
    weight_filler {
      type: "msra"
    }
  }
}
layer {
  name: "fire9/relu_squeeze1x1"
  type: "ReLU"
  bottom: "fire9/squeeze1x1"
  top: "fire9/squeeze1x1"
}
layer {
  name: "fire9/expand1x1"
  type: "Convolution"
  bottom: "fire9/squeeze1x1"
  top: "fire9/expand1x1"
  convolution_param {
    num_output: 45
    bias_term: false
    kernel_size: 1
    weight_filler {
      type: "msra"
    }
  }
}
layer {
  name: "fire9/relu_expand1x1"
  type: "ReLU"
  bottom: "fire9/expand1x1"
  top: "fire9/expand1x1"
}
layer {
  name: "fire9/expand3x3"
  type: "Convolution"
  bottom: "fire9/squeeze1x1"
  top: "fire9/expand3x3"
  convolution_param {
    num_output: 56
    bias_term: false
    pad: 1
    kernel_size: 3
    weight_filler {
      type: "msra"
    }
  }
}
layer {
  name: "fire9/relu_expand3x3"
  type: "ReLU"
  bottom: "fire9/expand3x3"
  top: "fire9/expand3x3"
}
layer {
  name: "fire9/concat"
  type: "Concat"
  bottom: "fire9/expand1x1"
  bottom: "fire9/expand3x3"
  top: "fire9/concat"
}
layer {
  name: "pool10"
  type: "Pooling"
  bottom: "fire9/concat"
  top: "pool10"
  pooling_param {
    pool: MAX
    kernel_size: 3
    stride: 2
  }
}
layer {
  name: "fire10/squeeze1x1"
  type: "Convolution"
  bottom: "pool10"
  top: "fire10/squeeze1x1"
  convolution_param {
    num_output: 38
    bias_term: false
    kernel_size: 1
    weight_filler {
      type: "msra"
    }
  }
}
layer {
  name: "fire10/relu_squeeze1x1"
  type: "ReLU"
  bottom: "fire10/squeeze1x1"
  top: "fire10/squeeze1x1"
}
layer {
  name: "fire10/expand1x1"
  type: "Convolution"
  bottom: "fire10/squeeze1x1"
  top: "fire10/expand1x1"
  convolution_param {
    num_output: 41
    bias_term: false
    kernel_size: 1
    weight_filler {
      type: "msra"
    }
  }
}
layer {
  name: "fire10/relu_expand1x1"
  type: "ReLU"
  bottom: "fire10/expand1x1"
  top: "fire10/expand1x1"
}
layer {
  name: "fire10/expand3x3"
  type: "Convolution"
  bottom: "fire10/squeeze1x1"
  top: "fire10/expand3x3"
  convolution_param {
    num_output: 44
    bias_term: false
    pad: 1
    kernel_size: 3
    weight_filler {
      type: "msra"
    }
  }
}
layer {
  name: "fire10/relu_expand3x3"
  type: "ReLU"
  bottom: "fire10/expand3x3"
  top: "fire10/expand3x3"
}
layer {
  name: "fire10/concat"
  type: "Concat"
  bottom: "fire10/expand1x1"
  bottom: "fire10/expand3x3"
  top: "fire10/concat"
}
layer {
  name: "conv12_1"
  type: "Convolution"
  bottom: "fire10/concat"
  top: "conv12_1"
  param {
    lr_mult: 0.1
    decay_mult: 0.1
  }
  convolution_param {
    num_output: 51
    bias_term: false
    pad: 3
    kernel_size: 3
    stride: 2
    weight_filler {
      type: "msra"
    }
  }
}
layer {
  name: "relu122_1"
  type: "ReLU"
  bottom: "conv12_1"
  top: "conv12_1"
}
layer {
  name: "conv12_2"
  type: "Convolution"
  bottom: "conv12_1"
  top: "conv12_2"
  param {
    lr_mult: 0.1
    decay_mult: 0.1
  }
  convolution_param {
    num_output: 46
    bias_term: false
    pad: 0
    kernel_size: 3
    weight_filler {
      type: "msra"
    }
  }
}
layer {
  name: "relu12_2"
  type: "ReLU"
  bottom: "conv12_2"
  top: "conv12_2"
}
layer {
  name: "conv13_1"
  type: "Convolution"
  bottom: "conv12_2"
  top: "conv13_1"
  param {
    lr_mult: 0.1
    decay_mult: 0.1
  }
  convolution_param {
    num_output: 55
    bias_term: false
    pad: 1
    kernel_size: 3
    weight_filler {
      type: "msra"
    }
  }
}
layer {
  name: "relu13_1"
  type: "ReLU"
  bottom: "conv13_1"
  top: "conv13_1"
}
layer {
  name: "conv13_2"
  type: "Convolution"
  bottom: "conv13_1"
  top: "conv13_2"
  param {
    lr_mult: 0.1
    decay_mult: 0.1
  }
  convolution_param {
    num_output: 85
    bias_term: false
    pad: 1
    kernel_size: 3
    stride: 2
    weight_filler {
      type: "msra"
    }
  }
}
layer {
  name: "fire4_norm"
  type: "Normalize"
  bottom: "fire4/concat"
  top: "fire4_norm"
  norm_param {
    across_spatial: false
    scale_filler {
      type: "constant"
      value: 20
    }
    channel_shared: false
  }
}
layer {
  name: "fire4_mbox_loc"
  type: "Convolution"
  bottom: "fire4_norm"
  top: "fire4_mbox_loc"
  param {
    lr_mult: 0.1
    decay_mult: 0.1
  }
  param {
    lr_mult: 0.2
    decay_mult: 0
  }
  convolution_param {
    num_output: 16
    pad: 1
    kernel_size: 3
    stride: 1
    weight_filler {
      type: "msra"
    }
    bias_filler {
      type: "constant"
      value: 0
    }
  }
}
layer {
  name: "fire4_mbox_loc_perm"
  type: "Permute"
  bottom: "fire4_mbox_loc"
  top: "fire4_mbox_loc_perm"
  permute_param {
    order: 0
    order: 2
    order: 3
    order: 1
  }
}
layer {
  name: "fire4_mbox_loc_flat"
  type: "Flatten"
  bottom: "fire4_mbox_loc_perm"
  top: "fire4_mbox_loc_flat"
  flatten_param {
    axis: 1
  }
}
layer {
  name: "fire4_mbox_conf"
  type: "Convolution"
  bottom: "fire4_norm"
  top: "fire4_mbox_conf"
  param {
    lr_mult: 1
    decay_mult: 1
  }
  param {
    lr_mult: 2
    decay_mult: 0
  }
  convolution_param {
    num_output: 28
    pad: 1
    kernel_size: 3
    stride: 1
    weight_filler {
      type: "msra"
    }
    bias_filler {
      type: "constant"
      value: 0
    }
  }
}
layer {
  name: "fire4_mbox_conf_perm"
  type: "Permute"
  bottom: "fire4_mbox_conf"
  top: "fire4_mbox_conf_perm"
  permute_param {
    order: 0
    order: 2
    order: 3
    order: 1
  }
}
layer {
  name: "fire4_mbox_conf_flat"
  type: "Flatten"
  bottom: "fire4_mbox_conf_perm"
  top: "fire4_mbox_conf_flat"
  flatten_param {
    axis: 1
  }
}
layer {
  name: "fire4_mbox_priorbox"
  type: "PriorBox"
  bottom: "fire4_norm"
  bottom: "data"
  top: "fire4_mbox_priorbox"
  prior_box_param {
    min_size: 30
    max_size: 60
    aspect_ratio: 2
    flip: true
    clip: false
    variance: 0.1
    variance: 0.1
    variance: 0.2
    variance: 0.2
    step: 8
    offset: 0.5
  }
}
layer {
  name: "fire8_norm"
  type: "Normalize"
  bottom: "fire8/concat"
  top: "fire8_norm"
  norm_param {
    across_spatial: false
    scale_filler {
      type: "constant"
      value: 20
    }
    channel_shared: false
  }
}
layer {
  name: "fire8_mbox_loc"
  type: "Convolution"
  bottom: "fire8_norm"
  top: "fire8_mbox_loc"
  param {
    lr_mult: 0.1
    decay_mult: 0.1
  }
  param {
    lr_mult: 0.2
    decay_mult: 0
  }
  convolution_param {
    num_output: 24
    pad: 1
    kernel_size: 3
    stride: 1
    weight_filler {
      type: "msra"
    }
    bias_filler {
      type: "constant"
      value: 0
    }
  }
}
layer {
  name: "fire8_mbox_loc_perm"
  type: "Permute"
  bottom: "fire8_mbox_loc"
  top: "fire8_mbox_loc_perm"
  permute_param {
    order: 0
    order: 2
    order: 3
    order: 1
  }
}
layer {
  name: "fire8_mbox_loc_flat"
  type: "Flatten"
  bottom: "fire8_mbox_loc_perm"
  top: "fire8_mbox_loc_flat"
  flatten_param {
    axis: 1
  }
}
layer {
  name: "fire8_mbox_conf"
  type: "Convolution"
  bottom: "fire8_norm"
  top: "fire8_mbox_conf"
  param {
    lr_mult: 1
    decay_mult: 1
  }
  param {
    lr_mult: 2
    decay_mult: 0
  }
  convolution_param {
    num_output: 42
    pad: 1
    kernel_size: 3
    stride: 1
    weight_filler {
      type: "msra"
    }
    bias_filler {
      type: "constant"
      value: 0
    }
  }
}
layer {
  name: "fire8_mbox_conf_perm"
  type: "Permute"
  bottom: "fire8_mbox_conf"
  top: "fire8_mbox_conf_perm"
  permute_param {
    order: 0
    order: 2
    order: 3
    order: 1
  }
}
layer {
  name: "fire8_mbox_conf_flat"
  type: "Flatten"
  bottom: "fire8_mbox_conf_perm"
  top: "fire8_mbox_conf_flat"
  flatten_param {
    axis: 1
  }
}
layer {
  name: "fire8_mbox_priorbox"
  type: "PriorBox"
  bottom: "fire8_norm"
  bottom: "data"
  top: "fire8_mbox_priorbox"
  prior_box_param {
    min_size: 60
    max_size: 111
    aspect_ratio: 2
    aspect_ratio: 3
    flip: true
    clip: false
    variance: 0.1
    variance: 0.1
    variance: 0.2
    variance: 0.2
    step: 16
    offset: 0.5
  }
}
layer {
  name: "fire9_mbox_loc"
  type: "Convolution"
  bottom: "fire9/concat"
  top: "fire9_mbox_loc"
  param {
    lr_mult: 0.1
    decay_mult: 0.1
  }
  param {
    lr_mult: 0.2
    decay_mult: 0
  }
  convolution_param {
    num_output: 24
    pad: 1
    kernel_size: 3
    stride: 1
    weight_filler {
      type: "msra"
    }
    bias_filler {
      type: "constant"
      value: 0
    }
  }
}
layer {
  name: "fire9_mbox_loc_perm"
  type: "Permute"
  bottom: "fire9_mbox_loc"
  top: "fire9_mbox_loc_perm"
  permute_param {
    order: 0
    order: 2
    order: 3
    order: 1
  }
}
layer {
  name: "fire9_mbox_loc_flat"
  type: "Flatten"
  bottom: "fire9_mbox_loc_perm"
  top: "fire9_mbox_loc_flat"
  flatten_param {
    axis: 1
  }
}
layer {
  name: "fire9_mbox_conf"
  type: "Convolution"
  bottom: "fire9/concat"
  top: "fire9_mbox_conf"
  param {
    lr_mult: 1
    decay_mult: 1
  }
  param {
    lr_mult: 2
    decay_mult: 0
  }
  convolution_param {
    num_output: 42
    pad: 1
    kernel_size: 3
    stride: 1
    weight_filler {
      type: "msra"
    }
    bias_filler {
      type: "constant"
      value: 0
    }
  }
}
layer {
  name: "fire9_mbox_conf_perm"
  type: "Permute"
  bottom: "fire9_mbox_conf"
  top: "fire9_mbox_conf_perm"
  permute_param {
    order: 0
    order: 2
    order: 3
    order: 1
  }
}
layer {
  name: "fire9_mbox_conf_flat"
  type: "Flatten"
  bottom: "fire9_mbox_conf_perm"
  top: "fire9_mbox_conf_flat"
  flatten_param {
    axis: 1
  }
}
layer {
  name: "fire9_mbox_priorbox"
  type: "PriorBox"
  bottom: "fire9/concat"
  bottom: "data"
  top: "fire9_mbox_priorbox"
  prior_box_param {
    min_size: 111
    max_size: 162
    aspect_ratio: 2
    aspect_ratio: 3
    flip: true
    clip: false
    variance: 0.1
    variance: 0.1
    variance: 0.2
    variance: 0.2
    step: 34
    offset: 0.5
  }
}
layer {
  name: "fire10_mbox_loc"
  type: "Convolution"
  bottom: "fire10/concat"
  top: "fire10_mbox_loc"
  param {
    lr_mult: 0.1
    decay_mult: 0.1
  }
  param {
    lr_mult: 0.2
    decay_mult: 0
  }
  convolution_param {
    num_output: 24
    pad: 1
    kernel_size: 3
    stride: 1
    weight_filler {
      type: "msra"
    }
    bias_filler {
      type: "constant"
      value: 0
    }
  }
}
layer {
  name: "fire10_mbox_loc_perm"
  type: "Permute"
  bottom: "fire10_mbox_loc"
  top: "fire10_mbox_loc_perm"
  permute_param {
    order: 0
    order: 2
    order: 3
    order: 1
  }
}
layer {
  name: "fire10_mbox_loc_flat"
  type: "Flatten"
  bottom: "fire10_mbox_loc_perm"
  top: "fire10_mbox_loc_flat"
  flatten_param {
    axis: 1
  }
}
layer {
  name: "fire10_mbox_conf"
  type: "Convolution"
  bottom: "fire10/concat"
  top: "fire10_mbox_conf"
  param {
    lr_mult: 1
    decay_mult: 1
  }
  param {
    lr_mult: 2
    decay_mult: 0
  }
  convolution_param {
    num_output: 42
    pad: 1
    kernel_size: 3
    stride: 1
    weight_filler {
      type: "msra"
    }
    bias_filler {
      type: "constant"
      value: 0
    }
  }
}
layer {
  name: "fire10_mbox_conf_perm"
  type: "Permute"
  bottom: "fire10_mbox_conf"
  top: "fire10_mbox_conf_perm"
  permute_param {
    order: 0
    order: 2
    order: 3
    order: 1
  }
}
layer {
  name: "fire10_mbox_conf_flat"
  type: "Flatten"
  bottom: "fire10_mbox_conf_perm"
  top: "fire10_mbox_conf_flat"
  flatten_param {
    axis: 1
  }
}
layer {
  name: "fire10_mbox_priorbox"
  type: "PriorBox"
  bottom: "fire10/concat"
  bottom: "data"
  top: "fire10_mbox_priorbox"
  prior_box_param {
    min_size: 162
    max_size: 213
    aspect_ratio: 2
    aspect_ratio: 3
    flip: true
    clip: false
    variance: 0.1
    variance: 0.1
    variance: 0.2
    variance: 0.2
    step: 75
    offset: 0.5
  }
}
layer {
  name: "conv12_2_mbox_loc"
  type: "Convolution"
  bottom: "conv12_2"
  top: "conv12_2_mbox_loc"
  param {
    lr_mult: 0.1
    decay_mult: 0.1
  }
  param {
    lr_mult: 0.2
    decay_mult: 0
  }
  convolution_param {
    num_output: 24
    pad: 1
    kernel_size: 3
    stride: 1
    weight_filler {
      type: "msra"
    }
    bias_filler {
      type: "constant"
      value: 0
    }
  }
}
layer {
  name: "conv12_2_mbox_loc_perm"
  type: "Permute"
  bottom: "conv12_2_mbox_loc"
  top: "conv12_2_mbox_loc_perm"
  permute_param {
    order: 0
    order: 2
    order: 3
    order: 1
  }
}
layer {
  name: "conv12_2_mbox_loc_flat"
  type: "Flatten"
  bottom: "conv12_2_mbox_loc_perm"
  top: "conv12_2_mbox_loc_flat"
  flatten_param {
    axis: 1
  }
}
layer {
  name: "conv12_2_mbox_conf"
  type: "Convolution"
  bottom: "conv12_2"
  top: "conv12_2_mbox_conf"
  param {
    lr_mult: 1
    decay_mult: 1
  }
  param {
    lr_mult: 2
    decay_mult: 0
  }
  convolution_param {
    num_output: 42
    pad: 1
    kernel_size: 3
    stride: 1
    weight_filler {
      type: "msra"
    }
    bias_filler {
      type: "constant"
      value: 0
    }
  }
}
layer {
  name: "conv12_2_mbox_conf_perm"
  type: "Permute"
  bottom: "conv12_2_mbox_conf"
  top: "conv12_2_mbox_conf_perm"
  permute_param {
    order: 0
    order: 2
    order: 3
    order: 1
  }
}
layer {
  name: "conv12_2_mbox_conf_flat"
  type: "Flatten"
  bottom: "conv12_2_mbox_conf_perm"
  top: "conv12_2_mbox_conf_flat"
  flatten_param {
    axis: 1
  }
}
layer {
  name: "conv12_2_mbox_priorbox"
  type: "PriorBox"
  bottom: "conv12_2"
  bottom: "data"
  top: "conv12_2_mbox_priorbox"
  prior_box_param {
    min_size: 213
    max_size: 264
    aspect_ratio: 2
    aspect_ratio: 3
    flip: true
    clip: false
    variance: 0.1
    variance: 0.1
    variance: 0.2
    variance: 0.2
    step: 150
    offset: 0.5
  }
}
layer {
  name: "conv13_2_mbox_loc"
  type: "Convolution"
  bottom: "conv13_2"
  top: "conv13_2_mbox_loc"
  param {
    lr_mult: 0.1
    decay_mult: 0.1
  }
  param {
    lr_mult: 0.2
    decay_mult: 0
  }
  convolution_param {
    num_output: 16
    pad: 1
    kernel_size: 3
    stride: 1
    weight_filler {
      type: "msra"
    }
    bias_filler {
      type: "constant"
      value: 0
    }
  }
}
layer {
  name: "conv13_2_mbox_loc_perm"
  type: "Permute"
  bottom: "conv13_2_mbox_loc"
  top: "conv13_2_mbox_loc_perm"
  permute_param {
    order: 0
    order: 2
    order: 3
    order: 1
  }
}
layer {
  name: "conv13_2_mbox_loc_flat"
  type: "Flatten"
  bottom: "conv13_2_mbox_loc_perm"
  top: "conv13_2_mbox_loc_flat"
  flatten_param {
    axis: 1
  }
}
layer {
  name: "conv13_2_mbox_conf"
  type: "Convolution"
  bottom: "conv13_2"
  top: "conv13_2_mbox_conf"
  param {
    lr_mult: 1
    decay_mult: 1
  }
  param {
    lr_mult: 2
    decay_mult: 0
  }
  convolution_param {
    num_output: 28
    pad: 1
    kernel_size: 3
    stride: 1
    weight_filler {
      type: "msra"
    }
    bias_filler {
      type: "constant"
      value: 0
    }
  }
}
layer {
  name: "conv13_2_mbox_conf_perm"
  type: "Permute"
  bottom: "conv13_2_mbox_conf"
  top: "conv13_2_mbox_conf_perm"
  permute_param {
    order: 0
    order: 2
    order: 3
    order: 1
  }
}
layer {
  name: "conv13_2_mbox_conf_flat"
  type: "Flatten"
  bottom: "conv13_2_mbox_conf_perm"
  top: "conv13_2_mbox_conf_flat"
  flatten_param {
    axis: 1
  }
}
layer {
  name: "conv13_2_mbox_priorbox"
  type: "PriorBox"
  bottom: "conv13_2"
  bottom: "data"
  top: "conv13_2_mbox_priorbox"
  prior_box_param {
    min_size: 264
    max_size: 315
    aspect_ratio: 2
    flip: true
    clip: false
    variance: 0.1
    variance: 0.1
    variance: 0.2
    variance: 0.2
    step: 300
    offset: 0.5
  }
}
layer {
  name: "mbox_loc"
  type: "Concat"
  bottom: "fire4_mbox_loc_flat"
  bottom: "fire8_mbox_loc_flat"
  bottom: "fire9_mbox_loc_flat"
  bottom: "fire10_mbox_loc_flat"
  bottom: "conv12_2_mbox_loc_flat"
  bottom: "conv13_2_mbox_loc_flat"
  top: "mbox_loc"
  concat_param {
    axis: 1
  }
}
layer {
  name: "mbox_conf"
  type: "Concat"
  bottom: "fire4_mbox_conf_flat"
  bottom: "fire8_mbox_conf_flat"
  bottom: "fire9_mbox_conf_flat"
  bottom: "fire10_mbox_conf_flat"
  bottom: "conv12_2_mbox_conf_flat"
  bottom: "conv13_2_mbox_conf_flat"
  top: "mbox_conf"
  concat_param {
    axis: 1
  }
}
layer {
  name: "mbox_priorbox"
  type: "Concat"
  bottom: "fire4_mbox_priorbox"
  bottom: "fire8_mbox_priorbox"
  bottom: "fire9_mbox_priorbox"
  bottom: "fire10_mbox_priorbox"
  bottom: "conv12_2_mbox_priorbox"
  bottom: "conv13_2_mbox_priorbox"
  top: "mbox_priorbox"
  concat_param {
    axis: 2
  }
}
layer {
  name: "mbox_loss"
  type: "MultiBoxLoss"
  bottom: "mbox_loc"
  bottom: "mbox_conf"
  bottom: "mbox_priorbox"
  bottom: "label"
  top: "mbox_loss"
  include {
    phase: TRAIN
  }
  propagate
I0413 17:07:46.219724  9777 layer_factory.hpp:77] Creating layer data
I0413 17:07:46.219856  9777 net.cpp:100] Creating Layer data
I0413 17:07:46.219869  9777 net.cpp:408] data -> data
I0413 17:07:46.219899  9777 net.cpp:408] data -> label
I0413 17:07:46.220738  9792 db_lmdb.cpp:35] Opened lmdb trainval_lmdb
I0413 17:07:46.232475  9777 annotated_data_layer.cpp:62] output data size: 4,3,300,300
I0413 17:07:46.239938  9777 net.cpp:150] Setting up data
I0413 17:07:46.239976  9777 net.cpp:157] Top shape: 4 3 300 300 (1080000)
I0413 17:07:46.239984  9777 net.cpp:157] Top shape: 1 1 1 8 (8)
I0413 17:07:46.239989  9777 net.cpp:165] Memory required for data: 4320032
I0413 17:07:46.240002  9777 layer_factory.hpp:77] Creating layer data_data_0_split
I0413 17:07:46.240016  9777 net.cpp:100] Creating Layer data_data_0_split
I0413 17:07:46.240025  9777 net.cpp:434] data_data_0_split <- data
I0413 17:07:46.240038  9777 net.cpp:408] data_data_0_split -> data_data_0_split_0
I0413 17:07:46.240051  9777 net.cpp:408] data_data_0_split -> data_data_0_split_1
I0413 17:07:46.240061  9777 net.cpp:408] data_data_0_split -> data_data_0_split_2
I0413 17:07:46.240068  9777 net.cpp:408] data_data_0_split -> data_data_0_split_3
I0413 17:07:46.240075  9777 net.cpp:408] data_data_0_split -> data_data_0_split_4
I0413 17:07:46.240083  9777 net.cpp:408] data_data_0_split -> data_data_0_split_5
I0413 17:07:46.240090  9777 net.cpp:408] data_data_0_split -> data_data_0_split_6
I0413 17:07:46.240170  9777 net.cpp:150] Setting up data_data_0_split
I0413 17:07:46.240177  9777 net.cpp:157] Top shape: 4 3 300 300 (1080000)
I0413 17:07:46.240195  9777 net.cpp:157] Top shape: 4 3 300 300 (1080000)
I0413 17:07:46.240201  9777 net.cpp:157] Top shape: 4 3 300 300 (1080000)
I0413 17:07:46.240207  9777 net.cpp:157] Top shape: 4 3 300 300 (1080000)
I0413 17:07:46.240214  9777 net.cpp:157] Top shape: 4 3 300 300 (1080000)
I0413 17:07:46.240219  9777 net.cpp:157] Top shape: 4 3 300 300 (1080000)
I0413 17:07:46.240252  9777 net.cpp:157] Top shape: 4 3 300 300 (1080000)
I0413 17:07:46.240257  9777 net.cpp:165] Memory required for data: 34560032
I0413 17:07:46.240274  9777 layer_factory.hpp:77] Creating layer conv1
I0413 17:07:46.240290  9777 net.cpp:100] Creating Layer conv1
I0413 17:07:46.240305  9777 net.cpp:434] conv1 <- data_data_0_split_0
I0413 17:07:46.240315  9777 net.cpp:408] conv1 -> conv1
I0413 17:07:46.546063  9777 net.cpp:150] Setting up conv1
I0413 17:07:46.546097  9777 net.cpp:157] Top shape: 4 57 149 149 (5061828)
I0413 17:07:46.546103  9777 net.cpp:165] Memory required for data: 54807344
I0413 17:07:46.546118  9777 layer_factory.hpp:77] Creating layer relu1_1
I0413 17:07:46.546128  9777 net.cpp:100] Creating Layer relu1_1
I0413 17:07:46.546134  9777 net.cpp:434] relu1_1 <- conv1
I0413 17:07:46.546139  9777 net.cpp:395] relu1_1 -> conv1 (in-place)
I0413 17:07:46.546510  9777 net.cpp:150] Setting up relu1_1
I0413 17:07:46.546532  9777 net.cpp:157] Top shape: 4 57 149 149 (5061828)
I0413 17:07:46.546535  9777 net.cpp:165] Memory required for data: 75054656
I0413 17:07:46.546540  9777 layer_factory.hpp:77] Creating layer pool1
I0413 17:07:46.546550  9777 net.cpp:100] Creating Layer pool1
I0413 17:07:46.546555  9777 net.cpp:434] pool1 <- conv1
I0413 17:07:46.546561  9777 net.cpp:408] pool1 -> pool1
I0413 17:07:46.546612  9777 net.cpp:150] Setting up pool1
I0413 17:07:46.546618  9777 net.cpp:157] Top shape: 4 57 74 74 (1248528)
I0413 17:07:46.546631  9777 net.cpp:165] Memory required for data: 80048768
I0413 17:07:46.546634  9777 layer_factory.hpp:77] Creating layer fire1/squeeze1x1
I0413 17:07:46.546643  9777 net.cpp:100] Creating Layer fire1/squeeze1x1
I0413 17:07:46.546648  9777 net.cpp:434] fire1/squeeze1x1 <- pool1
I0413 17:07:46.546655  9777 net.cpp:408] fire1/squeeze1x1 -> fire1/squeeze1x1
I0413 17:07:46.548153  9777 net.cpp:150] Setting up fire1/squeeze1x1
I0413 17:07:46.548167  9777 net.cpp:157] Top shape: 4 15 74 74 (328560)
I0413 17:07:46.548171  9777 net.cpp:165] Memory required for data: 81363008
I0413 17:07:46.548179  9777 layer_factory.hpp:77] Creating layer fire1/relu_squeeze1x1
I0413 17:07:46.548187  9777 net.cpp:100] Creating Layer fire1/relu_squeeze1x1
I0413 17:07:46.548192  9777 net.cpp:434] fire1/relu_squeeze1x1 <- fire1/squeeze1x1
I0413 17:07:46.548197  9777 net.cpp:395] fire1/relu_squeeze1x1 -> fire1/squeeze1x1 (in-place)
I0413 17:07:46.548355  9777 net.cpp:150] Setting up fire1/relu_squeeze1x1
I0413 17:07:46.548367  9777 net.cpp:157] Top shape: 4 15 74 74 (328560)
I0413 17:07:46.548369  9777 net.cpp:165] Memory required for data: 82677248
I0413 17:07:46.548373  9777 layer_factory.hpp:77] Creating layer fire1/squeeze1x1_fire1/relu_squeeze1x1_0_split
I0413 17:07:46.548383  9777 net.cpp:100] Creating Layer fire1/squeeze1x1_fire1/relu_squeeze1x1_0_split
I0413 17:07:46.548390  9777 net.cpp:434] fire1/squeeze1x1_fire1/relu_squeeze1x1_0_split <- fire1/squeeze1x1
I0413 17:07:46.548398  9777 net.cpp:408] fire1/squeeze1x1_fire1/relu_squeeze1x1_0_split -> fire1/squeeze1x1_fire1/relu_squeeze1x1_0_split_0
I0413 17:07:46.548411  9777 net.cpp:408] fire1/squeeze1x1_fire1/relu_squeeze1x1_0_split -> fire1/squeeze1x1_fire1/relu_squeeze1x1_0_split_1
I0413 17:07:46.548449  9777 net.cpp:150] Setting up fire1/squeeze1x1_fire1/relu_squeeze1x1_0_split
I0413 17:07:46.548456  9777 net.cpp:157] Top shape: 4 15 74 74 (328560)
I0413 17:07:46.548463  9777 net.cpp:157] Top shape: 4 15 74 74 (328560)
I0413 17:07:46.548470  9777 net.cpp:165] Memory required for data: 85305728
I0413 17:07:46.548475  9777 layer_factory.hpp:77] Creating layer fire1/expand1x1
I0413 17:07:46.548488  9777 net.cpp:100] Creating Layer fire1/expand1x1
I0413 17:07:46.548494  9777 net.cpp:434] fire1/expand1x1 <- fire1/squeeze1x1_fire1/relu_squeeze1x1_0_split_0
I0413 17:07:46.548502  9777 net.cpp:408] fire1/expand1x1 -> fire1/expand1x1
I0413 17:07:46.549518  9777 net.cpp:150] Setting up fire1/expand1x1
I0413 17:07:46.549531  9777 net.cpp:157] Top shape: 4 49 74 74 (1073296)
I0413 17:07:46.549537  9777 net.cpp:165] Memory required for data: 89598912
I0413 17:07:46.549569  9777 layer_factory.hpp:77] Creating layer fire1/relu_expand1x1
I0413 17:07:46.549579  9777 net.cpp:100] Creating Layer fire1/relu_expand1x1
I0413 17:07:46.549585  9777 net.cpp:434] fire1/relu_expand1x1 <- fire1/expand1x1
I0413 17:07:46.549592  9777 net.cpp:395] fire1/relu_expand1x1 -> fire1/expand1x1 (in-place)
I0413 17:07:46.549964  9777 net.cpp:150] Setting up fire1/relu_expand1x1
I0413 17:07:46.549978  9777 net.cpp:157] Top shape: 4 49 74 74 (1073296)
I0413 17:07:46.549984  9777 net.cpp:165] Memory required for data: 93892096
I0413 17:07:46.549991  9777 layer_factory.hpp:77] Creating layer fire1/expand3x3
I0413 17:07:46.550001  9777 net.cpp:100] Creating Layer fire1/expand3x3
I0413 17:07:46.550007  9777 net.cpp:434] fire1/expand3x3 <- fire1/squeeze1x1_fire1/relu_squeeze1x1_0_split_1
I0413 17:07:46.550016  9777 net.cpp:408] fire1/expand3x3 -> fire1/expand3x3
I0413 17:07:46.552000  9777 net.cpp:150] Setting up fire1/expand3x3
I0413 17:07:46.552027  9777 net.cpp:157] Top shape: 4 53 74 74 (1160912)
I0413 17:07:46.552033  9777 net.cpp:165] Memory required for data: 98535744
I0413 17:07:46.552042  9777 layer_factory.hpp:77] Creating layer fire1/relu_expand3x3
I0413 17:07:46.552062  9777 net.cpp:100] Creating Layer fire1/relu_expand3x3
I0413 17:07:46.552067  9777 net.cpp:434] fire1/relu_expand3x3 <- fire1/expand3x3
I0413 17:07:46.552085  9777 net.cpp:395] fire1/relu_expand3x3 -> fire1/expand3x3 (in-place)
I0413 17:07:46.552261  9777 net.cpp:150] Setting up fire1/relu_expand3x3
I0413 17:07:46.552271  9777 net.cpp:157] Top shape: 4 53 74 74 (1160912)
I0413 17:07:46.552274  9777 net.cpp:165] Memory required for data: 103179392
I0413 17:07:46.552278  9777 layer_factory.hpp:77] Creating layer fire1/concat
I0413 17:07:46.552284  9777 net.cpp:100] Creating Layer fire1/concat
I0413 17:07:46.552289  9777 net.cpp:434] fire1/concat <- fire1/expand1x1
I0413 17:07:46.552304  9777 net.cpp:434] fire1/concat <- fire1/expand3x3
I0413 17:07:46.552312  9777 net.cpp:408] fire1/concat -> fire1/concat
I0413 17:07:46.552350  9777 net.cpp:150] Setting up fire1/concat
I0413 17:07:46.552357  9777 net.cpp:157] Top shape: 4 102 74 74 (2234208)
I0413 17:07:46.552361  9777 net.cpp:165] Memory required for data: 112116224
I0413 17:07:46.552363  9777 layer_factory.hpp:77] Creating layer fire2/squeeze1x1
I0413 17:07:46.552371  9777 net.cpp:100] Creating Layer fire2/squeeze1x1
I0413 17:07:46.552376  9777 net.cpp:434] fire2/squeeze1x1 <- fire1/concat
I0413 17:07:46.552381  9777 net.cpp:408] fire2/squeeze1x1 -> fire2/squeeze1x1
I0413 17:07:46.553421  9777 net.cpp:150] Setting up fire2/squeeze1x1
I0413 17:07:46.553433  9777 net.cpp:157] Top shape: 4 15 74 74 (328560)
I0413 17:07:46.553437  9777 net.cpp:165] Memory required for data: 113430464
I0413 17:07:46.553445  9777 layer_factory.hpp:77] Creating layer fire2/relu_squeeze1x1
I0413 17:07:46.553452  9777 net.cpp:100] Creating Layer fire2/relu_squeeze1x1
I0413 17:07:46.553457  9777 net.cpp:434] fire2/relu_squeeze1x1 <- fire2/squeeze1x1
I0413 17:07:46.553462  9777 net.cpp:395] fire2/relu_squeeze1x1 -> fire2/squeeze1x1 (in-place)
I0413 17:07:46.553808  9777 net.cpp:150] Setting up fire2/relu_squeeze1x1
I0413 17:07:46.553820  9777 net.cpp:157] Top shape: 4 15 74 74 (328560)
I0413 17:07:46.553823  9777 net.cpp:165] Memory required for data: 114744704
I0413 17:07:46.553828  9777 layer_factory.hpp:77] Creating layer fire2/squeeze1x1_fire2/relu_squeeze1x1_0_split
I0413 17:07:46.553834  9777 net.cpp:100] Creating Layer fire2/squeeze1x1_fire2/relu_squeeze1x1_0_split
I0413 17:07:46.553839  9777 net.cpp:434] fire2/squeeze1x1_fire2/relu_squeeze1x1_0_split <- fire2/squeeze1x1
I0413 17:07:46.553844  9777 net.cpp:408] fire2/squeeze1x1_fire2/relu_squeeze1x1_0_split -> fire2/squeeze1x1_fire2/relu_squeeze1x1_0_split_0
I0413 17:07:46.553851  9777 net.cpp:408] fire2/squeeze1x1_fire2/relu_squeeze1x1_0_split -> fire2/squeeze1x1_fire2/relu_squeeze1x1_0_split_1
I0413 17:07:46.553884  9777 net.cpp:150] Setting up fire2/squeeze1x1_fire2/relu_squeeze1x1_0_split
I0413 17:07:46.553889  9777 net.cpp:157] Top shape: 4 15 74 74 (328560)
I0413 17:07:46.553910  9777 net.cpp:157] Top shape: 4 15 74 74 (328560)
I0413 17:07:46.553913  9777 net.cpp:165] Memory required for data: 117373184
I0413 17:07:46.553918  9777 layer_factory.hpp:77] Creating layer fire2/expand1x1
I0413 17:07:46.553928  9777 net.cpp:100] Creating Layer fire2/expand1x1
I0413 17:07:46.553932  9777 net.cpp:434] fire2/expand1x1 <- fire2/squeeze1x1_fire2/relu_squeeze1x1_0_split_0
I0413 17:07:46.553946  9777 net.cpp:408] fire2/expand1x1 -> fire2/expand1x1
I0413 17:07:46.554965  9777 net.cpp:150] Setting up fire2/expand1x1
I0413 17:07:46.554976  9777 net.cpp:157] Top shape: 4 54 74 74 (1182816)
I0413 17:07:46.554980  9777 net.cpp:165] Memory required for data: 122104448
I0413 17:07:46.554986  9777 layer_factory.hpp:77] Creating layer fire2/relu_expand1x1
I0413 17:07:46.554994  9777 net.cpp:100] Creating Layer fire2/relu_expand1x1
I0413 17:07:46.554999  9777 net.cpp:434] fire2/relu_expand1x1 <- fire2/expand1x1
I0413 17:07:46.555004  9777 net.cpp:395] fire2/relu_expand1x1 -> fire2/expand1x1 (in-place)
I0413 17:07:46.555331  9777 net.cpp:150] Setting up fire2/relu_expand1x1
I0413 17:07:46.555342  9777 net.cpp:157] Top shape: 4 54 74 74 (1182816)
I0413 17:07:46.555346  9777 net.cpp:165] Memory required for data: 126835712
I0413 17:07:46.555351  9777 layer_factory.hpp:77] Creating layer fire2/expand3x3
I0413 17:07:46.555358  9777 net.cpp:100] Creating Layer fire2/expand3x3
I0413 17:07:46.555363  9777 net.cpp:434] fire2/expand3x3 <- fire2/squeeze1x1_fire2/relu_squeeze1x1_0_split_1
I0413 17:07:46.555368  9777 net.cpp:408] fire2/expand3x3 -> fire2/expand3x3
I0413 17:07:46.556419  9777 net.cpp:150] Setting up fire2/expand3x3
I0413 17:07:46.556442  9777 net.cpp:157] Top shape: 4 52 74 74 (1139008)
I0413 17:07:46.556447  9777 net.cpp:165] Memory required for data: 131391744
I0413 17:07:46.556458  9777 layer_factory.hpp:77] Creating layer fire2/relu_expand3x3
I0413 17:07:46.556466  9777 net.cpp:100] Creating Layer fire2/relu_expand3x3
I0413 17:07:46.556473  9777 net.cpp:434] fire2/relu_expand3x3 <- fire2/expand3x3
I0413 17:07:46.556479  9777 net.cpp:395] fire2/relu_expand3x3 -> fire2/expand3x3 (in-place)
I0413 17:07:46.556645  9777 net.cpp:150] Setting up fire2/relu_expand3x3
I0413 17:07:46.556654  9777 net.cpp:157] Top shape: 4 52 74 74 (1139008)
I0413 17:07:46.556658  9777 net.cpp:165] Memory required for data: 135947776
I0413 17:07:46.556663  9777 layer_factory.hpp:77] Creating layer fire2/concat
I0413 17:07:46.556668  9777 net.cpp:100] Creating Layer fire2/concat
I0413 17:07:46.556674  9777 net.cpp:434] fire2/concat <- fire2/expand1x1
I0413 17:07:46.556679  9777 net.cpp:434] fire2/concat <- fire2/expand3x3
I0413 17:07:46.556684  9777 net.cpp:408] fire2/concat -> fire2/concat
I0413 17:07:46.556705  9777 net.cpp:150] Setting up fire2/concat
I0413 17:07:46.556710  9777 net.cpp:157] Top shape: 4 106 74 74 (2321824)
I0413 17:07:46.556715  9777 net.cpp:165] Memory required for data: 145235072
I0413 17:07:46.556718  9777 layer_factory.hpp:77] Creating layer pool3
I0413 17:07:46.556725  9777 net.cpp:100] Creating Layer pool3
I0413 17:07:46.556730  9777 net.cpp:434] pool3 <- fire2/concat
I0413 17:07:46.556735  9777 net.cpp:408] pool3 -> pool3
I0413 17:07:46.556762  9777 net.cpp:150] Setting up pool3
I0413 17:07:46.556768  9777 net.cpp:157] Top shape: 4 106 37 37 (580456)
I0413 17:07:46.556772  9777 net.cpp:165] Memory required for data: 147556896
I0413 17:07:46.556776  9777 layer_factory.hpp:77] Creating layer fire3/squeeze1x1
I0413 17:07:46.556782  9777 net.cpp:100] Creating Layer fire3/squeeze1x1
I0413 17:07:46.556787  9777 net.cpp:434] fire3/squeeze1x1 <- pool3
I0413 17:07:46.556792  9777 net.cpp:408] fire3/squeeze1x1 -> fire3/squeeze1x1
I0413 17:07:46.558374  9777 net.cpp:150] Setting up fire3/squeeze1x1
I0413 17:07:46.558393  9777 net.cpp:157] Top shape: 4 29 37 37 (158804)
I0413 17:07:46.558396  9777 net.cpp:165] Memory required for data: 148192112
I0413 17:07:46.558403  9777 layer_factory.hpp:77] Creating layer fire3/relu_squeeze1x1
I0413 17:07:46.558411  9777 net.cpp:100] Creating Layer fire3/relu_squeeze1x1
I0413 17:07:46.558434  9777 net.cpp:434] fire3/relu_squeeze1x1 <- fire3/squeeze1x1
I0413 17:07:46.558439  9777 net.cpp:395] fire3/relu_squeeze1x1 -> fire3/squeeze1x1 (in-place)
I0413 17:07:46.558785  9777 net.cpp:150] Setting up fire3/relu_squeeze1x1
I0413 17:07:46.558797  9777 net.cpp:157] Top shape: 4 29 37 37 (158804)
I0413 17:07:46.558801  9777 net.cpp:165] Memory required for data: 148827328
I0413 17:07:46.558805  9777 layer_factory.hpp:77] Creating layer fire3/squeeze1x1_fire3/relu_squeeze1x1_0_split
I0413 17:07:46.558812  9777 net.cpp:100] Creating Layer fire3/squeeze1x1_fire3/relu_squeeze1x1_0_split
I0413 17:07:46.558817  9777 net.cpp:434] fire3/squeeze1x1_fire3/relu_squeeze1x1_0_split <- fire3/squeeze1x1
I0413 17:07:46.558822  9777 net.cpp:408] fire3/squeeze1x1_fire3/relu_squeeze1x1_0_split -> fire3/squeeze1x1_fire3/relu_squeeze1x1_0_split_0
I0413 17:07:46.558830  9777 net.cpp:408] fire3/squeeze1x1_fire3/relu_squeeze1x1_0_split -> fire3/squeeze1x1_fire3/relu_squeeze1x1_0_split_1
I0413 17:07:46.558864  9777 net.cpp:150] Setting up fire3/squeeze1x1_fire3/relu_squeeze1x1_0_split
I0413 17:07:46.558871  9777 net.cpp:157] Top shape: 4 29 37 37 (158804)
I0413 17:07:46.558876  9777 net.cpp:157] Top shape: 4 29 37 37 (158804)
I0413 17:07:46.558878  9777 net.cpp:165] Memory required for data: 150097760
I0413 17:07:46.558882  9777 layer_factory.hpp:77] Creating layer fire3/expand1x1
I0413 17:07:46.558890  9777 net.cpp:100] Creating Layer fire3/expand1x1
I0413 17:07:46.558894  9777 net.cpp:434] fire3/expand1x1 <- fire3/squeeze1x1_fire3/relu_squeeze1x1_0_split_0
I0413 17:07:46.558900  9777 net.cpp:408] fire3/expand1x1 -> fire3/expand1x1
I0413 17:07:46.560000  9777 net.cpp:150] Setting up fire3/expand1x1
I0413 17:07:46.560015  9777 net.cpp:157] Top shape: 4 92 37 37 (503792)
I0413 17:07:46.560020  9777 net.cpp:165] Memory required for data: 152112928
I0413 17:07:46.560030  9777 layer_factory.hpp:77] Creating layer fire3/relu_expand1x1
I0413 17:07:46.560037  9777 net.cpp:100] Creating Layer fire3/relu_expand1x1
I0413 17:07:46.560042  9777 net.cpp:434] fire3/relu_expand1x1 <- fire3/expand1x1
I0413 17:07:46.560047  9777 net.cpp:395] fire3/relu_expand1x1 -> fire3/expand1x1 (in-place)
I0413 17:07:46.560185  9777 net.cpp:150] Setting up fire3/relu_expand1x1
I0413 17:07:46.560194  9777 net.cpp:157] Top shape: 4 92 37 37 (503792)
I0413 17:07:46.560197  9777 net.cpp:165] Memory required for data: 154128096
I0413 17:07:46.560201  9777 layer_factory.hpp:77] Creating layer fire3/expand3x3
I0413 17:07:46.560210  9777 net.cpp:100] Creating Layer fire3/expand3x3
I0413 17:07:46.560215  9777 net.cpp:434] fire3/expand3x3 <- fire3/squeeze1x1_fire3/relu_squeeze1x1_0_split_1
I0413 17:07:46.560221  9777 net.cpp:408] fire3/expand3x3 -> fire3/expand3x3
I0413 17:07:46.562116  9777 net.cpp:150] Setting up fire3/expand3x3
I0413 17:07:46.562131  9777 net.cpp:157] Top shape: 4 94 37 37 (514744)
I0413 17:07:46.562135  9777 net.cpp:165] Memory required for data: 156187072
I0413 17:07:46.562144  9777 layer_factory.hpp:77] Creating layer fire3/relu_expand3x3
I0413 17:07:46.562150  9777 net.cpp:100] Creating Layer fire3/relu_expand3x3
I0413 17:07:46.562155  9777 net.cpp:434] fire3/relu_expand3x3 <- fire3/expand3x3
I0413 17:07:46.562161  9777 net.cpp:395] fire3/relu_expand3x3 -> fire3/expand3x3 (in-place)
I0413 17:07:46.562515  9777 net.cpp:150] Setting up fire3/relu_expand3x3
I0413 17:07:46.562526  9777 net.cpp:157] Top shape: 4 94 37 37 (514744)
I0413 17:07:46.562530  9777 net.cpp:165] Memory required for data: 158246048
I0413 17:07:46.562535  9777 layer_factory.hpp:77] Creating layer fire3/concat
I0413 17:07:46.562541  9777 net.cpp:100] Creating Layer fire3/concat
I0413 17:07:46.562546  9777 net.cpp:434] fire3/concat <- fire3/expand1x1
I0413 17:07:46.562551  9777 net.cpp:434] fire3/concat <- fire3/expand3x3
I0413 17:07:46.562556  9777 net.cpp:408] fire3/concat -> fire3/concat
I0413 17:07:46.562582  9777 net.cpp:150] Setting up fire3/concat
I0413 17:07:46.562587  9777 net.cpp:157] Top shape: 4 186 37 37 (1018536)
I0413 17:07:46.562608  9777 net.cpp:165] Memory required for data: 162320192
I0413 17:07:46.562611  9777 layer_factory.hpp:77] Creating layer fire4/squeeze1x1
I0413 17:07:46.562618  9777 net.cpp:100] Creating Layer fire4/squeeze1x1
I0413 17:07:46.562621  9777 net.cpp:434] fire4/squeeze1x1 <- fire3/concat
I0413 17:07:46.562628  9777 net.cpp:408] fire4/squeeze1x1 -> fire4/squeeze1x1
I0413 17:07:46.563655  9777 net.cpp:150] Setting up fire4/squeeze1x1
I0413 17:07:46.563668  9777 net.cpp:157] Top shape: 4 29 37 37 (158804)
I0413 17:07:46.563670  9777 net.cpp:165] Memory required for data: 162955408
I0413 17:07:46.563678  9777 layer_factory.hpp:77] Creating layer fire4/relu_squeeze1x1
I0413 17:07:46.563683  9777 net.cpp:100] Creating Layer fire4/relu_squeeze1x1
I0413 17:07:46.563688  9777 net.cpp:434] fire4/relu_squeeze1x1 <- fire4/squeeze1x1
I0413 17:07:46.563694  9777 net.cpp:395] fire4/relu_squeeze1x1 -> fire4/squeeze1x1 (in-place)
I0413 17:07:46.564043  9777 net.cpp:150] Setting up fire4/relu_squeeze1x1
I0413 17:07:46.564054  9777 net.cpp:157] Top shape: 4 29 37 37 (158804)
I0413 17:07:46.564057  9777 net.cpp:165] Memory required for data: 163590624
I0413 17:07:46.564062  9777 layer_factory.hpp:77] Creating layer fire4/squeeze1x1_fire4/relu_squeeze1x1_0_split
I0413 17:07:46.564074  9777 net.cpp:100] Creating Layer fire4/squeeze1x1_fire4/relu_squeeze1x1_0_split
I0413 17:07:46.564079  9777 net.cpp:434] fire4/squeeze1x1_fire4/relu_squeeze1x1_0_split <- fire4/squeeze1x1
I0413 17:07:46.564083  9777 net.cpp:408] fire4/squeeze1x1_fire4/relu_squeeze1x1_0_split -> fire4/squeeze1x1_fire4/relu_squeeze1x1_0_split_0
I0413 17:07:46.564090  9777 net.cpp:408] fire4/squeeze1x1_fire4/relu_squeeze1x1_0_split -> fire4/squeeze1x1_fire4/relu_squeeze1x1_0_split_1
I0413 17:07:46.564126  9777 net.cpp:150] Setting up fire4/squeeze1x1_fire4/relu_squeeze1x1_0_split
I0413 17:07:46.564133  9777 net.cpp:157] Top shape: 4 29 37 37 (158804)
I0413 17:07:46.564137  9777 net.cpp:157] Top shape: 4 29 37 37 (158804)
I0413 17:07:46.564141  9777 net.cpp:165] Memory required for data: 164861056
I0413 17:07:46.564144  9777 layer_factory.hpp:77] Creating layer fire4/expand1x1
I0413 17:07:46.564152  9777 net.cpp:100] Creating Layer fire4/expand1x1
I0413 17:07:46.564155  9777 net.cpp:434] fire4/expand1x1 <- fire4/squeeze1x1_fire4/relu_squeeze1x1_0_split_0
I0413 17:07:46.564160  9777 net.cpp:408] fire4/expand1x1 -> fire4/expand1x1
I0413 17:07:46.565181  9777 net.cpp:150] Setting up fire4/expand1x1
I0413 17:07:46.565193  9777 net.cpp:157] Top shape: 4 90 37 37 (492840)
I0413 17:07:46.565197  9777 net.cpp:165] Memory required for data: 166832416
I0413 17:07:46.565204  9777 layer_factory.hpp:77] Creating layer fire4/relu_expand1x1
I0413 17:07:46.565210  9777 net.cpp:100] Creating Layer fire4/relu_expand1x1
I0413 17:07:46.565215  9777 net.cpp:434] fire4/relu_expand1x1 <- fire4/expand1x1
I0413 17:07:46.565220  9777 net.cpp:395] fire4/relu_expand1x1 -> fire4/expand1x1 (in-place)
I0413 17:07:46.565362  9777 net.cpp:150] Setting up fire4/relu_expand1x1
I0413 17:07:46.565371  9777 net.cpp:157] Top shape: 4 90 37 37 (492840)
I0413 17:07:46.565374  9777 net.cpp:165] Memory required for data: 168803776
I0413 17:07:46.565378  9777 layer_factory.hpp:77] Creating layer fire4/expand3x3
I0413 17:07:46.565385  9777 net.cpp:100] Creating Layer fire4/expand3x3
I0413 17:07:46.565390  9777 net.cpp:434] fire4/expand3x3 <- fire4/squeeze1x1_fire4/relu_squeeze1x1_0_split_1
I0413 17:07:46.565395  9777 net.cpp:408] fire4/expand3x3 -> fire4/expand3x3
I0413 17:07:46.566565  9777 net.cpp:150] Setting up fire4/expand3x3
I0413 17:07:46.566578  9777 net.cpp:157] Top shape: 4 83 37 37 (454508)
I0413 17:07:46.566582  9777 net.cpp:165] Memory required for data: 170621808
I0413 17:07:46.566589  9777 layer_factory.hpp:77] Creating layer fire4/relu_expand3x3
I0413 17:07:46.566596  9777 net.cpp:100] Creating Layer fire4/relu_expand3x3
I0413 17:07:46.566601  9777 net.cpp:434] fire4/relu_expand3x3 <- fire4/expand3x3
I0413 17:07:46.566606  9777 net.cpp:395] fire4/relu_expand3x3 -> fire4/expand3x3 (in-place)
I0413 17:07:46.567004  9777 net.cpp:150] Setting up fire4/relu_expand3x3
I0413 17:07:46.567018  9777 net.cpp:157] Top shape: 4 83 37 37 (454508)
I0413 17:07:46.567020  9777 net.cpp:165] Memory required for data: 172439840
I0413 17:07:46.567024  9777 layer_factory.hpp:77] Creating layer fire4/concat
I0413 17:07:46.567031  9777 net.cpp:100] Creating Layer fire4/concat
I0413 17:07:46.567039  9777 net.cpp:434] fire4/concat <- fire4/expand1x1
I0413 17:07:46.567046  9777 net.cpp:434] fire4/concat <- fire4/expand3x3
I0413 17:07:46.567054  9777 net.cpp:408] fire4/concat -> fire4/concat
I0413 17:07:46.567090  9777 net.cpp:150] Setting up fire4/concat
I0413 17:07:46.567097  9777 net.cpp:157] Top shape: 4 173 37 37 (947348)
I0413 17:07:46.567101  9777 net.cpp:165] Memory required for data: 176229232
I0413 17:07:46.567103  9777 layer_factory.hpp:77] Creating layer fire4/concat_fire4/concat_0_split
I0413 17:07:46.567109  9777 net.cpp:100] Creating Layer fire4/concat_fire4/concat_0_split
I0413 17:07:46.567131  9777 net.cpp:434] fire4/concat_fire4/concat_0_split <- fire4/concat
I0413 17:07:46.567142  9777 net.cpp:408] fire4/concat_fire4/concat_0_split -> fire4/concat_fire4/concat_0_split_0
I0413 17:07:46.567149  9777 net.cpp:408] fire4/concat_fire4/concat_0_split -> fire4/concat_fire4/concat_0_split_1
I0413 17:07:46.567193  9777 net.cpp:150] Setting up fire4/concat_fire4/concat_0_split
I0413 17:07:46.567200  9777 net.cpp:157] Top shape: 4 173 37 37 (947348)
I0413 17:07:46.567204  9777 net.cpp:157] Top shape: 4 173 37 37 (947348)
I0413 17:07:46.567207  9777 net.cpp:165] Memory required for data: 183808016
I0413 17:07:46.567210  9777 layer_factory.hpp:77] Creating layer pool5
I0413 17:07:46.567217  9777 net.cpp:100] Creating Layer pool5
I0413 17:07:46.567220  9777 net.cpp:434] pool5 <- fire4/concat_fire4/concat_0_split_0
I0413 17:07:46.567225  9777 net.cpp:408] pool5 -> pool5
I0413 17:07:46.567255  9777 net.cpp:150] Setting up pool5
I0413 17:07:46.567260  9777 net.cpp:157] Top shape: 4 173 18 18 (224208)
I0413 17:07:46.567262  9777 net.cpp:165] Memory required for data: 184704848
I0413 17:07:46.567265  9777 layer_factory.hpp:77] Creating layer fire5/squeeze1x1
I0413 17:07:46.567281  9777 net.cpp:100] Creating Layer fire5/squeeze1x1
I0413 17:07:46.567293  9777 net.cpp:434] fire5/squeeze1x1 <- pool5
I0413 17:07:46.567302  9777 net.cpp:408] fire5/squeeze1x1 -> fire5/squeeze1x1
I0413 17:07:46.568502  9777 net.cpp:150] Setting up fire5/squeeze1x1
I0413 17:07:46.568519  9777 net.cpp:157] Top shape: 4 44 18 18 (57024)
I0413 17:07:46.568526  9777 net.cpp:165] Memory required for data: 184932944
I0413 17:07:46.568536  9777 layer_factory.hpp:77] Creating layer fire5/relu_squeeze1x1
I0413 17:07:46.568547  9777 net.cpp:100] Creating Layer fire5/relu_squeeze1x1
I0413 17:07:46.568553  9777 net.cpp:434] fire5/relu_squeeze1x1 <- fire5/squeeze1x1
I0413 17:07:46.568560  9777 net.cpp:395] fire5/relu_squeeze1x1 -> fire5/squeeze1x1 (in-place)
I0413 17:07:46.568763  9777 net.cpp:150] Setting up fire5/relu_squeeze1x1
I0413 17:07:46.568775  9777 net.cpp:157] Top shape: 4 44 18 18 (57024)
I0413 17:07:46.568781  9777 net.cpp:165] Memory required for data: 185161040
I0413 17:07:46.568786  9777 layer_factory.hpp:77] Creating layer fire5/squeeze1x1_fire5/relu_squeeze1x1_0_split
I0413 17:07:46.568795  9777 net.cpp:100] Creating Layer fire5/squeeze1x1_fire5/relu_squeeze1x1_0_split
I0413 17:07:46.568804  9777 net.cpp:434] fire5/squeeze1x1_fire5/relu_squeeze1x1_0_split <- fire5/squeeze1x1
I0413 17:07:46.568812  9777 net.cpp:408] fire5/squeeze1x1_fire5/relu_squeeze1x1_0_split -> fire5/squeeze1x1_fire5/relu_squeeze1x1_0_split_0
I0413 17:07:46.568822  9777 net.cpp:408] fire5/squeeze1x1_fire5/relu_squeeze1x1_0_split -> fire5/squeeze1x1_fire5/relu_squeeze1x1_0_split_1
I0413 17:07:46.568871  9777 net.cpp:150] Setting up fire5/squeeze1x1_fire5/relu_squeeze1x1_0_split
I0413 17:07:46.568881  9777 net.cpp:157] Top shape: 4 44 18 18 (57024)
I0413 17:07:46.568886  9777 net.cpp:157] Top shape: 4 44 18 18 (57024)
I0413 17:07:46.568889  9777 net.cpp:165] Memory required for data: 185617232
I0413 17:07:46.568907  9777 layer_factory.hpp:77] Creating layer fire5/expand1x1
I0413 17:07:46.568915  9777 net.cpp:100] Creating Layer fire5/expand1x1
I0413 17:07:46.568920  9777 net.cpp:434] fire5/expand1x1 <- fire5/squeeze1x1_fire5/relu_squeeze1x1_0_split_0
I0413 17:07:46.568925  9777 net.cpp:408] fire5/expand1x1 -> fire5/expand1x1
I0413 17:07:46.570034  9777 net.cpp:150] Setting up fire5/expand1x1
I0413 17:07:46.570046  9777 net.cpp:157] Top shape: 4 166 18 18 (215136)
I0413 17:07:46.570050  9777 net.cpp:165] Memory required for data: 186477776
I0413 17:07:46.570057  9777 layer_factory.hpp:77] Creating layer fire5/relu_expand1x1
I0413 17:07:46.570063  9777 net.cpp:100] Creating Layer fire5/relu_expand1x1
I0413 17:07:46.570068  9777 net.cpp:434] fire5/relu_expand1x1 <- fire5/expand1x1
I0413 17:07:46.570073  9777 net.cpp:395] fire5/relu_expand1x1 -> fire5/expand1x1 (in-place)
I0413 17:07:46.570415  9777 net.cpp:150] Setting up fire5/relu_expand1x1
I0413 17:07:46.570426  9777 net.cpp:157] Top shape: 4 166 18 18 (215136)
I0413 17:07:46.570430  9777 net.cpp:165] Memory required for data: 187338320
I0413 17:07:46.570435  9777 layer_factory.hpp:77] Creating layer fire5/expand3x3
I0413 17:07:46.570442  9777 net.cpp:100] Creating Layer fire5/expand3x3
I0413 17:07:46.570446  9777 net.cpp:434] fire5/expand3x3 <- fire5/squeeze1x1_fire5/relu_squeeze1x1_0_split_1
I0413 17:07:46.570452  9777 net.cpp:408] fire5/expand3x3 -> fire5/expand3x3
I0413 17:07:46.572438  9777 net.cpp:150] Setting up fire5/expand3x3
I0413 17:07:46.572449  9777 net.cpp:157] Top shape: 4 161 18 18 (208656)
I0413 17:07:46.572453  9777 net.cpp:165] Memory required for data: 188172944
I0413 17:07:46.572459  9777 layer_factory.hpp:77] Creating layer fire5/relu_expand3x3
I0413 17:07:46.572466  9777 net.cpp:100] Creating Layer fire5/relu_expand3x3
I0413 17:07:46.572471  9777 net.cpp:434] fire5/relu_expand3x3 <- fire5/expand3x3
I0413 17:07:46.572476  9777 net.cpp:395] fire5/relu_expand3x3 -> fire5/expand3x3 (in-place)
I0413 17:07:46.572815  9777 net.cpp:150] Setting up fire5/relu_expand3x3
I0413 17:07:46.572826  9777 net.cpp:157] Top shape: 4 161 18 18 (208656)
I0413 17:07:46.572830  9777 net.cpp:165] Memory required for data: 189007568
I0413 17:07:46.572834  9777 layer_factory.hpp:77] Creating layer fire5/concat
I0413 17:07:46.572840  9777 net.cpp:100] Creating Layer fire5/concat
I0413 17:07:46.572845  9777 net.cpp:434] fire5/concat <- fire5/expand1x1
I0413 17:07:46.572850  9777 net.cpp:434] fire5/concat <- fire5/expand3x3
I0413 17:07:46.572855  9777 net.cpp:408] fire5/concat -> fire5/concat
I0413 17:07:46.572880  9777 net.cpp:150] Setting up fire5/concat
I0413 17:07:46.572885  9777 net.cpp:157] Top shape: 4 327 18 18 (423792)
I0413 17:07:46.572888  9777 net.cpp:165] Memory required for data: 190702736
I0413 17:07:46.572892  9777 layer_factory.hpp:77] Creating layer fire6/squeeze1x1
I0413 17:07:46.572899  9777 net.cpp:100] Creating Layer fire6/squeeze1x1
I0413 17:07:46.572903  9777 net.cpp:434] fire6/squeeze1x1 <- fire5/concat
I0413 17:07:46.572908  9777 net.cpp:408] fire6/squeeze1x1 -> fire6/squeeze1x1
I0413 17:07:46.574085  9777 net.cpp:150] Setting up fire6/squeeze1x1
I0413 17:07:46.574100  9777 net.cpp:157] Top shape: 4 45 18 18 (58320)
I0413 17:07:46.574103  9777 net.cpp:165] Memory required for data: 190936016
I0413 17:07:46.574115  9777 layer_factory.hpp:77] Creating layer fire6/relu_squeeze1x1
I0413 17:07:46.574121  9777 net.cpp:100] Creating Layer fire6/relu_squeeze1x1
I0413 17:07:46.574126  9777 net.cpp:434] fire6/relu_squeeze1x1 <- fire6/squeeze1x1
I0413 17:07:46.574134  9777 net.cpp:395] fire6/relu_squeeze1x1 -> fire6/squeeze1x1 (in-place)
I0413 17:07:46.574276  9777 net.cpp:150] Setting up fire6/relu_squeeze1x1
I0413 17:07:46.574285  9777 net.cpp:157] Top shape: 4 45 18 18 (58320)
I0413 17:07:46.574290  9777 net.cpp:165] Memory required for data: 191169296
I0413 17:07:46.574295  9777 layer_factory.hpp:77] Creating layer fire6/squeeze1x1_fire6/relu_squeeze1x1_0_split
I0413 17:07:46.574301  9777 net.cpp:100] Creating Layer fire6/squeeze1x1_fire6/relu_squeeze1x1_0_split
I0413 17:07:46.574322  9777 net.cpp:434] fire6/squeeze1x1_fire6/relu_squeeze1x1_0_split <- fire6/squeeze1x1
I0413 17:07:46.574331  9777 net.cpp:408] fire6/squeeze1x1_fire6/relu_squeeze1x1_0_split -> fire6/squeeze1x1_fire6/relu_squeeze1x1_0_split_0
I0413 17:07:46.574342  9777 net.cpp:408] fire6/squeeze1x1_fire6/relu_squeeze1x1_0_split -> fire6/squeeze1x1_fire6/relu_squeeze1x1_0_split_1
I0413 17:07:46.574391  9777 net.cpp:150] Setting up fire6/squeeze1x1_fire6/relu_squeeze1x1_0_split
I0413 17:07:46.574403  9777 net.cpp:157] Top shape: 4 45 18 18 (58320)
I0413 17:07:46.574409  9777 net.cpp:157] Top shape: 4 45 18 18 (58320)
I0413 17:07:46.574414  9777 net.cpp:165] Memory required for data: 191635856
I0413 17:07:46.574419  9777 layer_factory.hpp:77] Creating layer fire6/expand1x1
I0413 17:07:46.574429  9777 net.cpp:100] Creating Layer fire6/expand1x1
I0413 17:07:46.574435  9777 net.cpp:434] fire6/expand1x1 <- fire6/squeeze1x1_fire6/relu_squeeze1x1_0_split_0
I0413 17:07:46.574443  9777 net.cpp:408] fire6/expand1x1 -> fire6/expand1x1
I0413 17:07:46.575716  9777 net.cpp:150] Setting up fire6/expand1x1
I0413 17:07:46.575731  9777 net.cpp:157] Top shape: 4 155 18 18 (200880)
I0413 17:07:46.575747  9777 net.cpp:165] Memory required for data: 192439376
I0413 17:07:46.575754  9777 layer_factory.hpp:77] Creating layer fire6/relu_expand1x1
I0413 17:07:46.575762  9777 net.cpp:100] Creating Layer fire6/relu_expand1x1
I0413 17:07:46.575767  9777 net.cpp:434] fire6/relu_expand1x1 <- fire6/expand1x1
I0413 17:07:46.575773  9777 net.cpp:395] fire6/relu_expand1x1 -> fire6/expand1x1 (in-place)
I0413 17:07:46.576210  9777 net.cpp:150] Setting up fire6/relu_expand1x1
I0413 17:07:46.576226  9777 net.cpp:157] Top shape: 4 155 18 18 (200880)
I0413 17:07:46.576232  9777 net.cpp:165] Memory required for data: 193242896
I0413 17:07:46.576239  9777 layer_factory.hpp:77] Creating layer fire6/expand3x3
I0413 17:07:46.576251  9777 net.cpp:100] Creating Layer fire6/expand3x3
I0413 17:07:46.576256  9777 net.cpp:434] fire6/expand3x3 <- fire6/squeeze1x1_fire6/relu_squeeze1x1_0_split_1
I0413 17:07:46.576262  9777 net.cpp:408] fire6/expand3x3 -> fire6/expand3x3
I0413 17:07:46.578297  9777 net.cpp:150] Setting up fire6/expand3x3
I0413 17:07:46.578321  9777 net.cpp:157] Top shape: 4 146 18 18 (189216)
I0413 17:07:46.578326  9777 net.cpp:165] Memory required for data: 193999760
I0413 17:07:46.578336  9777 layer_factory.hpp:77] Creating layer fire6/relu_expand3x3
I0413 17:07:46.578346  9777 net.cpp:100] Creating Layer fire6/relu_expand3x3
I0413 17:07:46.578351  9777 net.cpp:434] fire6/relu_expand3x3 <- fire6/expand3x3
I0413 17:07:46.578358  9777 net.cpp:395] fire6/relu_expand3x3 -> fire6/expand3x3 (in-place)
I0413 17:07:46.578514  9777 net.cpp:150] Setting up fire6/relu_expand3x3
I0413 17:07:46.578523  9777 net.cpp:157] Top shape: 4 146 18 18 (189216)
I0413 17:07:46.578527  9777 net.cpp:165] Memory required for data: 194756624
I0413 17:07:46.578531  9777 layer_factory.hpp:77] Creating layer fire6/concat
I0413 17:07:46.578537  9777 net.cpp:100] Creating Layer fire6/concat
I0413 17:07:46.578542  9777 net.cpp:434] fire6/concat <- fire6/expand1x1
I0413 17:07:46.578547  9777 net.cpp:434] fire6/concat <- fire6/expand3x3
I0413 17:07:46.578552  9777 net.cpp:408] fire6/concat -> fire6/concat
I0413 17:07:46.578580  9777 net.cpp:150] Setting up fire6/concat
I0413 17:07:46.578586  9777 net.cpp:157] Top shape: 4 301 18 18 (390096)
I0413 17:07:46.578590  9777 net.cpp:165] Memory required for data: 196317008
I0413 17:07:46.578594  9777 layer_factory.hpp:77] Creating layer fire7/squeeze1x1
I0413 17:07:46.578601  9777 net.cpp:100] Creating Layer fire7/squeeze1x1
I0413 17:07:46.578605  9777 net.cpp:434] fire7/squeeze1x1 <- fire6/concat
I0413 17:07:46.578610  9777 net.cpp:408] fire7/squeeze1x1 -> fire7/squeeze1x1
I0413 17:07:46.579769  9777 net.cpp:150] Setting up fire7/squeeze1x1
I0413 17:07:46.579782  9777 net.cpp:157] Top shape: 4 49 18 18 (63504)
I0413 17:07:46.579785  9777 net.cpp:165] Memory required for data: 196571024
I0413 17:07:46.579792  9777 layer_factory.hpp:77] Creating layer fire7/relu_squeeze1x1
I0413 17:07:46.579816  9777 net.cpp:100] Creating Layer fire7/relu_squeeze1x1
I0413 17:07:46.579823  9777 net.cpp:434] fire7/relu_squeeze1x1 <- fire7/squeeze1x1
I0413 17:07:46.579828  9777 net.cpp:395] fire7/relu_squeeze1x1 -> fire7/squeeze1x1 (in-place)
I0413 17:07:46.580214  9777 net.cpp:150] Setting up fire7/relu_squeeze1x1
I0413 17:07:46.580226  9777 net.cpp:157] Top shape: 4 49 18 18 (63504)
I0413 17:07:46.580230  9777 net.cpp:165] Memory required for data: 196825040
I0413 17:07:46.580235  9777 layer_factory.hpp:77] Creating layer fire7/squeeze1x1_fire7/relu_squeeze1x1_0_split
I0413 17:07:46.580240  9777 net.cpp:100] Creating Layer fire7/squeeze1x1_fire7/relu_squeeze1x1_0_split
I0413 17:07:46.580245  9777 net.cpp:434] fire7/squeeze1x1_fire7/relu_squeeze1x1_0_split <- fire7/squeeze1x1
I0413 17:07:46.580250  9777 net.cpp:408] fire7/squeeze1x1_fire7/relu_squeeze1x1_0_split -> fire7/squeeze1x1_fire7/relu_squeeze1x1_0_split_0
I0413 17:07:46.580258  9777 net.cpp:408] fire7/squeeze1x1_fire7/relu_squeeze1x1_0_split -> fire7/squeeze1x1_fire7/relu_squeeze1x1_0_split_1
I0413 17:07:46.580323  9777 net.cpp:150] Setting up fire7/squeeze1x1_fire7/relu_squeeze1x1_0_split
I0413 17:07:46.580333  9777 net.cpp:157] Top shape: 4 49 18 18 (63504)
I0413 17:07:46.580340  9777 net.cpp:157] Top shape: 4 49 18 18 (63504)
I0413 17:07:46.580345  9777 net.cpp:165] Memory required for data: 197333072
I0413 17:07:46.580351  9777 layer_factory.hpp:77] Creating layer fire7/expand1x1
I0413 17:07:46.580361  9777 net.cpp:100] Creating Layer fire7/expand1x1
I0413 17:07:46.580366  9777 net.cpp:434] fire7/expand1x1 <- fire7/squeeze1x1_fire7/relu_squeeze1x1_0_split_0
I0413 17:07:46.580374  9777 net.cpp:408] fire7/expand1x1 -> fire7/expand1x1
I0413 17:07:46.581483  9777 net.cpp:150] Setting up fire7/expand1x1
I0413 17:07:46.581496  9777 net.cpp:157] Top shape: 4 163 18 18 (211248)
I0413 17:07:46.581502  9777 net.cpp:165] Memory required for data: 198178064
I0413 17:07:46.581511  9777 layer_factory.hpp:77] Creating layer fire7/relu_expand1x1
I0413 17:07:46.581518  9777 net.cpp:100] Creating Layer fire7/relu_expand1x1
I0413 17:07:46.581524  9777 net.cpp:434] fire7/relu_expand1x1 <- fire7/expand1x1
I0413 17:07:46.581531  9777 net.cpp:395] fire7/relu_expand1x1 -> fire7/expand1x1 (in-place)
I0413 17:07:46.581878  9777 net.cpp:150] Setting up fire7/relu_expand1x1
I0413 17:07:46.581890  9777 net.cpp:157] Top shape: 4 163 18 18 (211248)
I0413 17:07:46.581895  9777 net.cpp:165] Memory required for data: 199023056
I0413 17:07:46.581902  9777 layer_factory.hpp:77] Creating layer fire7/expand3x3
I0413 17:07:46.581910  9777 net.cpp:100] Creating Layer fire7/expand3x3
I0413 17:07:46.581917  9777 net.cpp:434] fire7/expand3x3 <- fire7/squeeze1x1_fire7/relu_squeeze1x1_0_split_1
I0413 17:07:46.581924  9777 net.cpp:408] fire7/expand3x3 -> fire7/expand3x3
I0413 17:07:46.584439  9777 net.cpp:150] Setting up fire7/expand3x3
I0413 17:07:46.584457  9777 net.cpp:157] Top shape: 4 171 18 18 (221616)
I0413 17:07:46.584465  9777 net.cpp:165] Memory required for data: 199909520
I0413 17:07:46.584475  9777 layer_factory.hpp:77] Creating layer fire7/relu_expand3x3
I0413 17:07:46.584486  9777 net.cpp:100] Creating Layer fire7/relu_expand3x3
I0413 17:07:46.584493  9777 net.cpp:434] fire7/relu_expand3x3 <- fire7/expand3x3
I0413 17:07:46.584502  9777 net.cpp:395] fire7/relu_expand3x3 -> fire7/expand3x3 (in-place)
I0413 17:07:46.584710  9777 net.cpp:150] Setting up fire7/relu_expand3x3
I0413 17:07:46.584723  9777 net.cpp:157] Top shape: 4 171 18 18 (221616)
I0413 17:07:46.584729  9777 net.cpp:165] Memory required for data: 200795984
I0413 17:07:46.584735  9777 layer_factory.hpp:77] Creating layer fire7/concat
I0413 17:07:46.584744  9777 net.cpp:100] Creating Layer fire7/concat
I0413 17:07:46.584751  9777 net.cpp:434] fire7/concat <- fire7/expand1x1
I0413 17:07:46.584758  9777 net.cpp:434] fire7/concat <- fire7/expand3x3
I0413 17:07:46.584766  9777 net.cpp:408] fire7/concat -> fire7/concat
I0413 17:07:46.584802  9777 net.cpp:150] Setting up fire7/concat
I0413 17:07:46.584830  9777 net.cpp:157] Top shape: 4 334 18 18 (432864)
I0413 17:07:46.584836  9777 net.cpp:165] Memory required for data: 202527440
I0413 17:07:46.584841  9777 layer_factory.hpp:77] Creating layer fire8/squeeze1x1
I0413 17:07:46.584858  9777 net.cpp:100] Creating Layer fire8/squeeze1x1
I0413 17:07:46.584864  9777 net.cpp:434] fire8/squeeze1x1 <- fire7/concat
I0413 17:07:46.584869  9777 net.cpp:408] fire8/squeeze1x1 -> fire8/squeeze1x1
I0413 17:07:46.585999  9777 net.cpp:150] Setting up fire8/squeeze1x1
I0413 17:07:46.586012  9777 net.cpp:157] Top shape: 4 25 18 18 (32400)
I0413 17:07:46.586016  9777 net.cpp:165] Memory required for data: 202657040
I0413 17:07:46.586022  9777 layer_factory.hpp:77] Creating layer fire8/relu_squeeze1x1
I0413 17:07:46.586030  9777 net.cpp:100] Creating Layer fire8/relu_squeeze1x1
I0413 17:07:46.586035  9777 net.cpp:434] fire8/relu_squeeze1x1 <- fire8/squeeze1x1
I0413 17:07:46.586040  9777 net.cpp:395] fire8/relu_squeeze1x1 -> fire8/squeeze1x1 (in-place)
I0413 17:07:46.586418  9777 net.cpp:150] Setting up fire8/relu_squeeze1x1
I0413 17:07:46.586429  9777 net.cpp:157] Top shape: 4 25 18 18 (32400)
I0413 17:07:46.586433  9777 net.cpp:165] Memory required for data: 202786640
I0413 17:07:46.586437  9777 layer_factory.hpp:77] Creating layer fire8/squeeze1x1_fire8/relu_squeeze1x1_0_split
I0413 17:07:46.586443  9777 net.cpp:100] Creating Layer fire8/squeeze1x1_fire8/relu_squeeze1x1_0_split
I0413 17:07:46.586448  9777 net.cpp:434] fire8/squeeze1x1_fire8/relu_squeeze1x1_0_split <- fire8/squeeze1x1
I0413 17:07:46.586453  9777 net.cpp:408] fire8/squeeze1x1_fire8/relu_squeeze1x1_0_split -> fire8/squeeze1x1_fire8/relu_squeeze1x1_0_split_0
I0413 17:07:46.586460  9777 net.cpp:408] fire8/squeeze1x1_fire8/relu_squeeze1x1_0_split -> fire8/squeeze1x1_fire8/relu_squeeze1x1_0_split_1
I0413 17:07:46.586503  9777 net.cpp:150] Setting up fire8/squeeze1x1_fire8/relu_squeeze1x1_0_split
I0413 17:07:46.586508  9777 net.cpp:157] Top shape: 4 25 18 18 (32400)
I0413 17:07:46.586513  9777 net.cpp:157] Top shape: 4 25 18 18 (32400)
I0413 17:07:46.586518  9777 net.cpp:165] Memory required for data: 203045840
I0413 17:07:46.586521  9777 layer_factory.hpp:77] Creating layer fire8/expand1x1
I0413 17:07:46.586527  9777 net.cpp:100] Creating Layer fire8/expand1x1
I0413 17:07:46.586532  9777 net.cpp:434] fire8/expand1x1 <- fire8/squeeze1x1_fire8/relu_squeeze1x1_0_split_0
I0413 17:07:46.586537  9777 net.cpp:408] fire8/expand1x1 -> fire8/expand1x1
I0413 17:07:46.587793  9777 net.cpp:150] Setting up fire8/expand1x1
I0413 17:07:46.587805  9777 net.cpp:157] Top shape: 4 29 18 18 (37584)
I0413 17:07:46.587810  9777 net.cpp:165] Memory required for data: 203196176
I0413 17:07:46.587816  9777 layer_factory.hpp:77] Creating layer fire8/relu_expand1x1
I0413 17:07:46.587822  9777 net.cpp:100] Creating Layer fire8/relu_expand1x1
I0413 17:07:46.587827  9777 net.cpp:434] fire8/relu_expand1x1 <- fire8/expand1x1
I0413 17:07:46.587832  9777 net.cpp:395] fire8/relu_expand1x1 -> fire8/expand1x1 (in-place)
I0413 17:07:46.587975  9777 net.cpp:150] Setting up fire8/relu_expand1x1
I0413 17:07:46.587985  9777 net.cpp:157] Top shape: 4 29 18 18 (37584)
I0413 17:07:46.587987  9777 net.cpp:165] Memory required for data: 203346512
I0413 17:07:46.587991  9777 layer_factory.hpp:77] Creating layer fire8/expand3x3
I0413 17:07:46.588003  9777 net.cpp:100] Creating Layer fire8/expand3x3
I0413 17:07:46.588008  9777 net.cpp:434] fire8/expand3x3 <- fire8/squeeze1x1_fire8/relu_squeeze1x1_0_split_1
I0413 17:07:46.588012  9777 net.cpp:408] fire8/expand3x3 -> fire8/expand3x3
I0413 17:07:46.589334  9777 net.cpp:150] Setting up fire8/expand3x3
I0413 17:07:46.589345  9777 net.cpp:157] Top shape: 4 54 18 18 (69984)
I0413 17:07:46.589349  9777 net.cpp:165] Memory required for data: 203626448
I0413 17:07:46.589354  9777 layer_factory.hpp:77] Creating layer fire8/relu_expand3x3
I0413 17:07:46.589360  9777 net.cpp:100] Creating Layer fire8/relu_expand3x3
I0413 17:07:46.589365  9777 net.cpp:434] fire8/relu_expand3x3 <- fire8/expand3x3
I0413 17:07:46.589382  9777 net.cpp:395] fire8/relu_expand3x3 -> fire8/expand3x3 (in-place)
I0413 17:07:46.589725  9777 net.cpp:150] Setting up fire8/relu_expand3x3
I0413 17:07:46.589736  9777 net.cpp:157] Top shape: 4 54 18 18 (69984)
I0413 17:07:46.589740  9777 net.cpp:165] Memory required for data: 203906384
I0413 17:07:46.589742  9777 layer_factory.hpp:77] Creating layer fire8/concat
I0413 17:07:46.589749  9777 net.cpp:100] Creating Layer fire8/concat
I0413 17:07:46.589753  9777 net.cpp:434] fire8/concat <- fire8/expand1x1
I0413 17:07:46.589757  9777 net.cpp:434] fire8/concat <- fire8/expand3x3
I0413 17:07:46.589762  9777 net.cpp:408] fire8/concat -> fire8/concat
I0413 17:07:46.589787  9777 net.cpp:150] Setting up fire8/concat
I0413 17:07:46.589793  9777 net.cpp:157] Top shape: 4 83 18 18 (107568)
I0413 17:07:46.589797  9777 net.cpp:165] Memory required for data: 204336656
I0413 17:07:46.589800  9777 layer_factory.hpp:77] Creating layer fire8/concat_fire8/concat_0_split
I0413 17:07:46.589807  9777 net.cpp:100] Creating Layer fire8/concat_fire8/concat_0_split
I0413 17:07:46.589810  9777 net.cpp:434] fire8/concat_fire8/concat_0_split <- fire8/concat
I0413 17:07:46.589815  9777 net.cpp:408] fire8/concat_fire8/concat_0_split -> fire8/concat_fire8/concat_0_split_0
I0413 17:07:46.589821  9777 net.cpp:408] fire8/concat_fire8/concat_0_split -> fire8/concat_fire8/concat_0_split_1
I0413 17:07:46.589860  9777 net.cpp:150] Setting up fire8/concat_fire8/concat_0_split
I0413 17:07:46.589866  9777 net.cpp:157] Top shape: 4 83 18 18 (107568)
I0413 17:07:46.589871  9777 net.cpp:157] Top shape: 4 83 18 18 (107568)
I0413 17:07:46.589875  9777 net.cpp:165] Memory required for data: 205197200
I0413 17:07:46.589879  9777 layer_factory.hpp:77] Creating layer pool9
I0413 17:07:46.589884  9777 net.cpp:100] Creating Layer pool9
I0413 17:07:46.589890  9777 net.cpp:434] pool9 <- fire8/concat_fire8/concat_0_split_0
I0413 17:07:46.589895  9777 net.cpp:408] pool9 -> pool9
I0413 17:07:46.589924  9777 net.cpp:150] Setting up pool9
I0413 17:07:46.589931  9777 net.cpp:157] Top shape: 4 83 9 9 (26892)
I0413 17:07:46.589934  9777 net.cpp:165] Memory required for data: 205304768
I0413 17:07:46.589937  9777 layer_factory.hpp:77] Creating layer fire9/squeeze1x1
I0413 17:07:46.589944  9777 net.cpp:100] Creating Layer fire9/squeeze1x1
I0413 17:07:46.589948  9777 net.cpp:434] fire9/squeeze1x1 <- pool9
I0413 17:07:46.589953  9777 net.cpp:408] fire9/squeeze1x1 -> fire9/squeeze1x1
I0413 17:07:46.590981  9777 net.cpp:150] Setting up fire9/squeeze1x1
I0413 17:07:46.590992  9777 net.cpp:157] Top shape: 4 37 9 9 (11988)
I0413 17:07:46.590996  9777 net.cpp:165] Memory required for data: 205352720
I0413 17:07:46.591002  9777 layer_factory.hpp:77] Creating layer fire9/relu_squeeze1x1
I0413 17:07:46.591008  9777 net.cpp:100] Creating Layer fire9/relu_squeeze1x1
I0413 17:07:46.591013  9777 net.cpp:434] fire9/relu_squeeze1x1 <- fire9/squeeze1x1
I0413 17:07:46.591018  9777 net.cpp:395] fire9/relu_squeeze1x1 -> fire9/squeeze1x1 (in-place)
I0413 17:07:46.591372  9777 net.cpp:150] Setting up fire9/relu_squeeze1x1
I0413 17:07:46.591383  9777 net.cpp:157] Top shape: 4 37 9 9 (11988)
I0413 17:07:46.591387  9777 net.cpp:165] Memory required for data: 205400672
I0413 17:07:46.591392  9777 layer_factory.hpp:77] Creating layer fire9/squeeze1x1_fire9/relu_squeeze1x1_0_split
I0413 17:07:46.591398  9777 net.cpp:100] Creating Layer fire9/squeeze1x1_fire9/relu_squeeze1x1_0_split
I0413 17:07:46.591403  9777 net.cpp:434] fire9/squeeze1x1_fire9/relu_squeeze1x1_0_split <- fire9/squeeze1x1
I0413 17:07:46.591409  9777 net.cpp:408] fire9/squeeze1x1_fire9/relu_squeeze1x1_0_split -> fire9/squeeze1x1_fire9/relu_squeeze1x1_0_split_0
I0413 17:07:46.591415  9777 net.cpp:408] fire9/squeeze1x1_fire9/relu_squeeze1x1_0_split -> fire9/squeeze1x1_fire9/relu_squeeze1x1_0_split_1
I0413 17:07:46.591450  9777 net.cpp:150] Setting up fire9/squeeze1x1_fire9/relu_squeeze1x1_0_split
I0413 17:07:46.591457  9777 net.cpp:157] Top shape: 4 37 9 9 (11988)
I0413 17:07:46.591461  9777 net.cpp:157] Top shape: 4 37 9 9 (11988)
I0413 17:07:46.591475  9777 net.cpp:165] Memory required for data: 205496576
I0413 17:07:46.591480  9777 layer_factory.hpp:77] Creating layer fire9/expand1x1
I0413 17:07:46.591485  9777 net.cpp:100] Creating Layer fire9/expand1x1
I0413 17:07:46.591490  9777 net.cpp:434] fire9/expand1x1 <- fire9/squeeze1x1_fire9/relu_squeeze1x1_0_split_0
I0413 17:07:46.591495  9777 net.cpp:408] fire9/expand1x1 -> fire9/expand1x1
I0413 17:07:46.592550  9777 net.cpp:150] Setting up fire9/expand1x1
I0413 17:07:46.592562  9777 net.cpp:157] Top shape: 4 45 9 9 (14580)
I0413 17:07:46.592566  9777 net.cpp:165] Memory required for data: 205554896
I0413 17:07:46.592572  9777 layer_factory.hpp:77] Creating layer fire9/relu_expand1x1
I0413 17:07:46.592579  9777 net.cpp:100] Creating Layer fire9/relu_expand1x1
I0413 17:07:46.592584  9777 net.cpp:434] fire9/relu_expand1x1 <- fire9/expand1x1
I0413 17:07:46.592589  9777 net.cpp:395] fire9/relu_expand1x1 -> fire9/expand1x1 (in-place)
I0413 17:07:46.592737  9777 net.cpp:150] Setting up fire9/relu_expand1x1
I0413 17:07:46.592746  9777 net.cpp:157] Top shape: 4 45 9 9 (14580)
I0413 17:07:46.592751  9777 net.cpp:165] Memory required for data: 205613216
I0413 17:07:46.592754  9777 layer_factory.hpp:77] Creating layer fire9/expand3x3
I0413 17:07:46.592761  9777 net.cpp:100] Creating Layer fire9/expand3x3
I0413 17:07:46.592766  9777 net.cpp:434] fire9/expand3x3 <- fire9/squeeze1x1_fire9/relu_squeeze1x1_0_split_1
I0413 17:07:46.592772  9777 net.cpp:408] fire9/expand3x3 -> fire9/expand3x3
I0413 17:07:46.594126  9777 net.cpp:150] Setting up fire9/expand3x3
I0413 17:07:46.594138  9777 net.cpp:157] Top shape: 4 56 9 9 (18144)
I0413 17:07:46.594142  9777 net.cpp:165] Memory required for data: 205685792
I0413 17:07:46.594148  9777 layer_factory.hpp:77] Creating layer fire9/relu_expand3x3
I0413 17:07:46.594156  9777 net.cpp:100] Creating Layer fire9/relu_expand3x3
I0413 17:07:46.594159  9777 net.cpp:434] fire9/relu_expand3x3 <- fire9/expand3x3
I0413 17:07:46.594164  9777 net.cpp:395] fire9/relu_expand3x3 -> fire9/expand3x3 (in-place)
I0413 17:07:46.594516  9777 net.cpp:150] Setting up fire9/relu_expand3x3
I0413 17:07:46.594527  9777 net.cpp:157] Top shape: 4 56 9 9 (18144)
I0413 17:07:46.594532  9777 net.cpp:165] Memory required for data: 205758368
I0413 17:07:46.594535  9777 layer_factory.hpp:77] Creating layer fire9/concat
I0413 17:07:46.594542  9777 net.cpp:100] Creating Layer fire9/concat
I0413 17:07:46.594547  9777 net.cpp:434] fire9/concat <- fire9/expand1x1
I0413 17:07:46.594552  9777 net.cpp:434] fire9/concat <- fire9/expand3x3
I0413 17:07:46.594557  9777 net.cpp:408] fire9/concat -> fire9/concat
I0413 17:07:46.594580  9777 net.cpp:150] Setting up fire9/concat
I0413 17:07:46.594586  9777 net.cpp:157] Top shape: 4 101 9 9 (32724)
I0413 17:07:46.594590  9777 net.cpp:165] Memory required for data: 205889264
I0413 17:07:46.594594  9777 layer_factory.hpp:77] Creating layer fire9/concat_fire9/concat_0_split
I0413 17:07:46.594599  9777 net.cpp:100] Creating Layer fire9/concat_fire9/concat_0_split
I0413 17:07:46.594604  9777 net.cpp:434] fire9/concat_fire9/concat_0_split <- fire9/concat
I0413 17:07:46.594610  9777 net.cpp:408] fire9/concat_fire9/concat_0_split -> fire9/concat_fire9/concat_0_split_0
I0413 17:07:46.594616  9777 net.cpp:408] fire9/concat_fire9/concat_0_split -> fire9/concat_fire9/concat_0_split_1
I0413 17:07:46.594622  9777 net.cpp:408] fire9/concat_fire9/concat_0_split -> fire9/concat_fire9/concat_0_split_2
I0413 17:07:46.594627  9777 net.cpp:408] fire9/concat_fire9/concat_0_split -> fire9/concat_fire9/concat_0_split_3
I0413 17:07:46.594683  9777 net.cpp:150] Setting up fire9/concat_fire9/concat_0_split
I0413 17:07:46.594696  9777 net.cpp:157] Top shape: 4 101 9 9 (32724)
I0413 17:07:46.594700  9777 net.cpp:157] Top shape: 4 101 9 9 (32724)
I0413 17:07:46.594704  9777 net.cpp:157] Top shape: 4 101 9 9 (32724)
I0413 17:07:46.594708  9777 net.cpp:157] Top shape: 4 101 9 9 (32724)
I0413 17:07:46.594712  9777 net.cpp:165] Memory required for data: 206412848
I0413 17:07:46.594717  9777 layer_factory.hpp:77] Creating layer pool10
I0413 17:07:46.594733  9777 net.cpp:100] Creating Layer pool10
I0413 17:07:46.594738  9777 net.cpp:434] pool10 <- fire9/concat_fire9/concat_0_split_0
I0413 17:07:46.594743  9777 net.cpp:408] pool10 -> pool10
I0413 17:07:46.594774  9777 net.cpp:150] Setting up pool10
I0413 17:07:46.594781  9777 net.cpp:157] Top shape: 4 101 4 4 (6464)
I0413 17:07:46.594784  9777 net.cpp:165] Memory required for data: 206438704
I0413 17:07:46.594787  9777 layer_factory.hpp:77] Creating layer fire10/squeeze1x1
I0413 17:07:46.594794  9777 net.cpp:100] Creating Layer fire10/squeeze1x1
I0413 17:07:46.594799  9777 net.cpp:434] fire10/squeeze1x1 <- pool10
I0413 17:07:46.594807  9777 net.cpp:408] fire10/squeeze1x1 -> fire10/squeeze1x1
I0413 17:07:46.596030  9777 net.cpp:150] Setting up fire10/squeeze1x1
I0413 17:07:46.596046  9777 net.cpp:157] Top shape: 4 38 4 4 (2432)
I0413 17:07:46.596051  9777 net.cpp:165] Memory required for data: 206448432
I0413 17:07:46.596058  9777 layer_factory.hpp:77] Creating layer fire10/relu_squeeze1x1
I0413 17:07:46.596065  9777 net.cpp:100] Creating Layer fire10/relu_squeeze1x1
I0413 17:07:46.596071  9777 net.cpp:434] fire10/relu_squeeze1x1 <- fire10/squeeze1x1
I0413 17:07:46.596076  9777 net.cpp:395] fire10/relu_squeeze1x1 -> fire10/squeeze1x1 (in-place)
I0413 17:07:46.596334  9777 net.cpp:150] Setting up fire10/relu_squeeze1x1
I0413 17:07:46.596345  9777 net.cpp:157] Top shape: 4 38 4 4 (2432)
I0413 17:07:46.596349  9777 net.cpp:165] Memory required for data: 206458160
I0413 17:07:46.596354  9777 layer_factory.hpp:77] Creating layer fire10/squeeze1x1_fire10/relu_squeeze1x1_0_split
I0413 17:07:46.596364  9777 net.cpp:100] Creating Layer fire10/squeeze1x1_fire10/relu_squeeze1x1_0_split
I0413 17:07:46.596369  9777 net.cpp:434] fire10/squeeze1x1_fire10/relu_squeeze1x1_0_split <- fire10/squeeze1x1
I0413 17:07:46.596375  9777 net.cpp:408] fire10/squeeze1x1_fire10/relu_squeeze1x1_0_split -> fire10/squeeze1x1_fire10/relu_squeeze1x1_0_split_0
I0413 17:07:46.596382  9777 net.cpp:408] fire10/squeeze1x1_fire10/relu_squeeze1x1_0_split -> fire10/squeeze1x1_fire10/relu_squeeze1x1_0_split_1
I0413 17:07:46.596431  9777 net.cpp:150] Setting up fire10/squeeze1x1_fire10/relu_squeeze1x1_0_split
I0413 17:07:46.596439  9777 net.cpp:157] Top shape: 4 38 4 4 (2432)
I0413 17:07:46.596443  9777 net.cpp:157] Top shape: 4 38 4 4 (2432)
I0413 17:07:46.596447  9777 net.cpp:165] Memory required for data: 206477616
I0413 17:07:46.596452  9777 layer_factory.hpp:77] Creating layer fire10/expand1x1
I0413 17:07:46.596460  9777 net.cpp:100] Creating Layer fire10/expand1x1
I0413 17:07:46.596465  9777 net.cpp:434] fire10/expand1x1 <- fire10/squeeze1x1_fire10/relu_squeeze1x1_0_split_0
I0413 17:07:46.596479  9777 net.cpp:408] fire10/expand1x1 -> fire10/expand1x1
I0413 17:07:46.597698  9777 net.cpp:150] Setting up fire10/expand1x1
I0413 17:07:46.597710  9777 net.cpp:157] Top shape: 4 41 4 4 (2624)
I0413 17:07:46.597714  9777 net.cpp:165] Memory required for data: 206488112
I0413 17:07:46.597721  9777 layer_factory.hpp:77] Creating layer fire10/relu_expand1x1
I0413 17:07:46.597728  9777 net.cpp:100] Creating Layer fire10/relu_expand1x1
I0413 17:07:46.597733  9777 net.cpp:434] fire10/relu_expand1x1 <- fire10/expand1x1
I0413 17:07:46.597738  9777 net.cpp:395] fire10/relu_expand1x1 -> fire10/expand1x1 (in-place)
I0413 17:07:46.598089  9777 net.cpp:150] Setting up fire10/relu_expand1x1
I0413 17:07:46.598099  9777 net.cpp:157] Top shape: 4 41 4 4 (2624)
I0413 17:07:46.598104  9777 net.cpp:165] Memory required for data: 206498608
I0413 17:07:46.598107  9777 layer_factory.hpp:77] Creating layer fire10/expand3x3
I0413 17:07:46.598115  9777 net.cpp:100] Creating Layer fire10/expand3x3
I0413 17:07:46.598120  9777 net.cpp:434] fire10/expand3x3 <- fire10/squeeze1x1_fire10/relu_squeeze1x1_0_split_1
I0413 17:07:46.598126  9777 net.cpp:408] fire10/expand3x3 -> fire10/expand3x3
I0413 17:07:46.599493  9777 net.cpp:150] Setting up fire10/expand3x3
I0413 17:07:46.599504  9777 net.cpp:157] Top shape: 4 44 4 4 (2816)
I0413 17:07:46.599509  9777 net.cpp:165] Memory required for data: 206509872
I0413 17:07:46.599527  9777 layer_factory.hpp:77] Creating layer fire10/relu_expand3x3
I0413 17:07:46.599540  9777 net.cpp:100] Creating Layer fire10/relu_expand3x3
I0413 17:07:46.599546  9777 net.cpp:434] fire10/relu_expand3x3 <- fire10/expand3x3
I0413 17:07:46.599551  9777 net.cpp:395] fire10/relu_expand3x3 -> fire10/expand3x3 (in-place)
I0413 17:07:46.599905  9777 net.cpp:150] Setting up fire10/relu_expand3x3
I0413 17:07:46.599916  9777 net.cpp:157] Top shape: 4 44 4 4 (2816)
I0413 17:07:46.599920  9777 net.cpp:165] Memory required for data: 206521136
I0413 17:07:46.599925  9777 layer_factory.hpp:77] Creating layer fire10/concat
I0413 17:07:46.599938  9777 net.cpp:100] Creating Layer fire10/concat
I0413 17:07:46.599943  9777 net.cpp:434] fire10/concat <- fire10/expand1x1
I0413 17:07:46.599948  9777 net.cpp:434] fire10/concat <- fire10/expand3x3
I0413 17:07:46.599953  9777 net.cpp:408] fire10/concat -> fire10/concat
I0413 17:07:46.599993  9777 net.cpp:150] Setting up fire10/concat
I0413 17:07:46.600000  9777 net.cpp:157] Top shape: 4 85 4 4 (5440)
I0413 17:07:46.600013  9777 net.cpp:165] Memory required for data: 206542896
I0413 17:07:46.600016  9777 layer_factory.hpp:77] Creating layer fire10/concat_fire10/concat_0_split
I0413 17:07:46.600023  9777 net.cpp:100] Creating Layer fire10/concat_fire10/concat_0_split
I0413 17:07:46.600025  9777 net.cpp:434] fire10/concat_fire10/concat_0_split <- fire10/concat
I0413 17:07:46.600030  9777 net.cpp:408] fire10/concat_fire10/concat_0_split -> fire10/concat_fire10/concat_0_split_0
I0413 17:07:46.600036  9777 net.cpp:408] fire10/concat_fire10/concat_0_split -> fire10/concat_fire10/concat_0_split_1
I0413 17:07:46.600041  9777 net.cpp:408] fire10/concat_fire10/concat_0_split -> fire10/concat_fire10/concat_0_split_2
I0413 17:07:46.600046  9777 net.cpp:408] fire10/concat_fire10/concat_0_split -> fire10/concat_fire10/concat_0_split_3
I0413 17:07:46.600098  9777 net.cpp:150] Setting up fire10/concat_fire10/concat_0_split
I0413 17:07:46.600105  9777 net.cpp:157] Top shape: 4 85 4 4 (5440)
I0413 17:07:46.600108  9777 net.cpp:157] Top shape: 4 85 4 4 (5440)
I0413 17:07:46.600112  9777 net.cpp:157] Top shape: 4 85 4 4 (5440)
I0413 17:07:46.600116  9777 net.cpp:157] Top shape: 4 85 4 4 (5440)
I0413 17:07:46.600121  9777 net.cpp:165] Memory required for data: 206629936
I0413 17:07:46.600123  9777 layer_factory.hpp:77] Creating layer conv12_1
I0413 17:07:46.600131  9777 net.cpp:100] Creating Layer conv12_1
I0413 17:07:46.600136  9777 net.cpp:434] conv12_1 <- fire10/concat_fire10/concat_0_split_0
I0413 17:07:46.600142  9777 net.cpp:408] conv12_1 -> conv12_1
I0413 17:07:46.601702  9777 net.cpp:150] Setting up conv12_1
I0413 17:07:46.601714  9777 net.cpp:157] Top shape: 4 51 4 4 (3264)
I0413 17:07:46.601718  9777 net.cpp:165] Memory required for data: 206642992
I0413 17:07:46.601724  9777 layer_factory.hpp:77] Creating layer relu122_1
I0413 17:07:46.601730  9777 net.cpp:100] Creating Layer relu122_1
I0413 17:07:46.601734  9777 net.cpp:434] relu122_1 <- conv12_1
I0413 17:07:46.601740  9777 net.cpp:395] relu122_1 -> conv12_1 (in-place)
I0413 17:07:46.601879  9777 net.cpp:150] Setting up relu122_1
I0413 17:07:46.601887  9777 net.cpp:157] Top shape: 4 51 4 4 (3264)
I0413 17:07:46.601891  9777 net.cpp:165] Memory required for data: 206656048
I0413 17:07:46.601894  9777 layer_factory.hpp:77] Creating layer conv12_2
I0413 17:07:46.601902  9777 net.cpp:100] Creating Layer conv12_2
I0413 17:07:46.601907  9777 net.cpp:434] conv12_2 <- conv12_1
I0413 17:07:46.601912  9777 net.cpp:408] conv12_2 -> conv12_2
I0413 17:07:46.603451  9777 net.cpp:150] Setting up conv12_2
I0413 17:07:46.603463  9777 net.cpp:157] Top shape: 4 46 2 2 (736)
I0413 17:07:46.603466  9777 net.cpp:165] Memory required for data: 206658992
I0413 17:07:46.603477  9777 layer_factory.hpp:77] Creating layer relu12_2
I0413 17:07:46.603482  9777 net.cpp:100] Creating Layer relu12_2
I0413 17:07:46.603487  9777 net.cpp:434] relu12_2 <- conv12_2
I0413 17:07:46.603492  9777 net.cpp:395] relu12_2 -> conv12_2 (in-place)
I0413 17:07:46.603863  9777 net.cpp:150] Setting up relu12_2
I0413 17:07:46.603873  9777 net.cpp:157] Top shape: 4 46 2 2 (736)
I0413 17:07:46.603878  9777 net.cpp:165] Memory required for data: 206661936
I0413 17:07:46.603880  9777 layer_factory.hpp:77] Creating layer conv12_2_relu12_2_0_split
I0413 17:07:46.603888  9777 net.cpp:100] Creating Layer conv12_2_relu12_2_0_split
I0413 17:07:46.603891  9777 net.cpp:434] conv12_2_relu12_2_0_split <- conv12_2
I0413 17:07:46.603896  9777 net.cpp:408] conv12_2_relu12_2_0_split -> conv12_2_relu12_2_0_split_0
I0413 17:07:46.603904  9777 net.cpp:408] conv12_2_relu12_2_0_split -> conv12_2_relu12_2_0_split_1
I0413 17:07:46.603909  9777 net.cpp:408] conv12_2_relu12_2_0_split -> conv12_2_relu12_2_0_split_2
I0413 17:07:46.603914  9777 net.cpp:408] conv12_2_relu12_2_0_split -> conv12_2_relu12_2_0_split_3
I0413 17:07:46.603971  9777 net.cpp:150] Setting up conv12_2_relu12_2_0_split
I0413 17:07:46.603976  9777 net.cpp:157] Top shape: 4 46 2 2 (736)
I0413 17:07:46.603981  9777 net.cpp:157] Top shape: 4 46 2 2 (736)
I0413 17:07:46.603984  9777 net.cpp:157] Top shape: 4 46 2 2 (736)
I0413 17:07:46.603989  9777 net.cpp:157] Top shape: 4 46 2 2 (736)
I0413 17:07:46.603992  9777 net.cpp:165] Memory required for data: 206673712
I0413 17:07:46.603996  9777 layer_factory.hpp:77] Creating layer conv13_1
I0413 17:07:46.604009  9777 net.cpp:100] Creating Layer conv13_1
I0413 17:07:46.604014  9777 net.cpp:434] conv13_1 <- conv12_2_relu12_2_0_split_0
I0413 17:07:46.604020  9777 net.cpp:408] conv13_1 -> conv13_1
I0413 17:07:46.605921  9777 net.cpp:150] Setting up conv13_1
I0413 17:07:46.605932  9777 net.cpp:157] Top shape: 4 55 2 2 (880)
I0413 17:07:46.605937  9777 net.cpp:165] Memory required for data: 206677232
I0413 17:07:46.605943  9777 layer_factory.hpp:77] Creating layer relu13_1
I0413 17:07:46.605949  9777 net.cpp:100] Creating Layer relu13_1
I0413 17:07:46.605954  9777 net.cpp:434] relu13_1 <- conv13_1
I0413 17:07:46.605959  9777 net.cpp:395] relu13_1 -> conv13_1 (in-place)
I0413 17:07:46.606102  9777 net.cpp:150] Setting up relu13_1
I0413 17:07:46.606112  9777 net.cpp:157] Top shape: 4 55 2 2 (880)
I0413 17:07:46.606115  9777 net.cpp:165] Memory required for data: 206680752
I0413 17:07:46.606119  9777 layer_factory.hpp:77] Creating layer conv13_2
I0413 17:07:46.606127  9777 net.cpp:100] Creating Layer conv13_2
I0413 17:07:46.606132  9777 net.cpp:434] conv13_2 <- conv13_1
I0413 17:07:46.606137  9777 net.cpp:408] conv13_2 -> conv13_2
I0413 17:07:46.607530  9777 net.cpp:150] Setting up conv13_2
I0413 17:07:46.607542  9777 net.cpp:157] Top shape: 4 85 1 1 (340)
I0413 17:07:46.607547  9777 net.cpp:165] Memory required for data: 206682112
I0413 17:07:46.607553  9777 layer_factory.hpp:77] Creating layer conv13_2_conv13_2_0_split
I0413 17:07:46.607559  9777 net.cpp:100] Creating Layer conv13_2_conv13_2_0_split
I0413 17:07:46.607564  9777 net.cpp:434] conv13_2_conv13_2_0_split <- conv13_2
I0413 17:07:46.607570  9777 net.cpp:408] conv13_2_conv13_2_0_split -> conv13_2_conv13_2_0_split_0
I0413 17:07:46.607579  9777 net.cpp:408] conv13_2_conv13_2_0_split -> conv13_2_conv13_2_0_split_1
I0413 17:07:46.607587  9777 net.cpp:408] conv13_2_conv13_2_0_split -> conv13_2_conv13_2_0_split_2
I0413 17:07:46.607667  9777 net.cpp:150] Setting up conv13_2_conv13_2_0_split
I0413 17:07:46.607676  9777 net.cpp:157] Top shape: 4 85 1 1 (340)
I0413 17:07:46.607681  9777 net.cpp:157] Top shape: 4 85 1 1 (340)
I0413 17:07:46.607686  9777 net.cpp:157] Top shape: 4 85 1 1 (340)
I0413 17:07:46.607688  9777 net.cpp:165] Memory required for data: 206686192
I0413 17:07:46.607692  9777 layer_factory.hpp:77] Creating layer fire4_norm
I0413 17:07:46.607699  9777 net.cpp:100] Creating Layer fire4_norm
I0413 17:07:46.607705  9777 net.cpp:434] fire4_norm <- fire4/concat_fire4/concat_0_split_1
I0413 17:07:46.607712  9777 net.cpp:408] fire4_norm -> fire4_norm
I0413 17:07:46.607867  9777 net.cpp:150] Setting up fire4_norm
I0413 17:07:46.607874  9777 net.cpp:157] Top shape: 4 173 37 37 (947348)
I0413 17:07:46.607878  9777 net.cpp:165] Memory required for data: 210475584
I0413 17:07:46.607897  9777 layer_factory.hpp:77] Creating layer fire4_norm_fire4_norm_0_split
I0413 17:07:46.607903  9777 net.cpp:100] Creating Layer fire4_norm_fire4_norm_0_split
I0413 17:07:46.607908  9777 net.cpp:434] fire4_norm_fire4_norm_0_split <- fire4_norm
I0413 17:07:46.607913  9777 net.cpp:408] fire4_norm_fire4_norm_0_split -> fire4_norm_fire4_norm_0_split_0
I0413 17:07:46.607918  9777 net.cpp:408] fire4_norm_fire4_norm_0_split -> fire4_norm_fire4_norm_0_split_1
I0413 17:07:46.607924  9777 net.cpp:408] fire4_norm_fire4_norm_0_split -> fire4_norm_fire4_norm_0_split_2
I0413 17:07:46.607967  9777 net.cpp:150] Setting up fire4_norm_fire4_norm_0_split
I0413 17:07:46.607973  9777 net.cpp:157] Top shape: 4 173 37 37 (947348)
I0413 17:07:46.607976  9777 net.cpp:157] Top shape: 4 173 37 37 (947348)
I0413 17:07:46.607980  9777 net.cpp:157] Top shape: 4 173 37 37 (947348)
I0413 17:07:46.607985  9777 net.cpp:165] Memory required for data: 221843760
I0413 17:07:46.607988  9777 layer_factory.hpp:77] Creating layer fire4_mbox_loc
I0413 17:07:46.607995  9777 net.cpp:100] Creating Layer fire4_mbox_loc
I0413 17:07:46.608000  9777 net.cpp:434] fire4_mbox_loc <- fire4_norm_fire4_norm_0_split_0
I0413 17:07:46.608006  9777 net.cpp:408] fire4_mbox_loc -> fire4_mbox_loc
I0413 17:07:46.609606  9777 net.cpp:150] Setting up fire4_mbox_loc
I0413 17:07:46.609633  9777 net.cpp:157] Top shape: 4 16 37 37 (87616)
I0413 17:07:46.609637  9777 net.cpp:165] Memory required for data: 222194224
I0413 17:07:46.609644  9777 layer_factory.hpp:77] Creating layer fire4_mbox_loc_perm
I0413 17:07:46.609652  9777 net.cpp:100] Creating Layer fire4_mbox_loc_perm
I0413 17:07:46.609658  9777 net.cpp:434] fire4_mbox_loc_perm <- fire4_mbox_loc
I0413 17:07:46.609664  9777 net.cpp:408] fire4_mbox_loc_perm -> fire4_mbox_loc_perm
I0413 17:07:46.609761  9777 net.cpp:150] Setting up fire4_mbox_loc_perm
I0413 17:07:46.609768  9777 net.cpp:157] Top shape: 4 37 37 16 (87616)
I0413 17:07:46.609772  9777 net.cpp:165] Memory required for data: 222544688
I0413 17:07:46.609776  9777 layer_factory.hpp:77] Creating layer fire4_mbox_loc_flat
I0413 17:07:46.609782  9777 net.cpp:100] Creating Layer fire4_mbox_loc_flat
I0413 17:07:46.609787  9777 net.cpp:434] fire4_mbox_loc_flat <- fire4_mbox_loc_perm
I0413 17:07:46.609793  9777 net.cpp:408] fire4_mbox_loc_flat -> fire4_mbox_loc_flat
I0413 17:07:46.609823  9777 net.cpp:150] Setting up fire4_mbox_loc_flat
I0413 17:07:46.609829  9777 net.cpp:157] Top shape: 4 21904 (87616)
I0413 17:07:46.609833  9777 net.cpp:165] Memory required for data: 222895152
I0413 17:07:46.609836  9777 layer_factory.hpp:77] Creating layer fire4_mbox_conf
I0413 17:07:46.609851  9777 net.cpp:100] Creating Layer fire4_mbox_conf
I0413 17:07:46.609856  9777 net.cpp:434] fire4_mbox_conf <- fire4_norm_fire4_norm_0_split_1
I0413 17:07:46.609863  9777 net.cpp:408] fire4_mbox_conf -> fire4_mbox_conf
I0413 17:07:46.611587  9777 net.cpp:150] Setting up fire4_mbox_conf
I0413 17:07:46.611606  9777 net.cpp:157] Top shape: 4 28 37 37 (153328)
I0413 17:07:46.611610  9777 net.cpp:165] Memory required for data: 223508464
I0413 17:07:46.611618  9777 layer_factory.hpp:77] Creating layer fire4_mbox_conf_perm
I0413 17:07:46.611629  9777 net.cpp:100] Creating Layer fire4_mbox_conf_perm
I0413 17:07:46.611634  9777 net.cpp:434] fire4_mbox_conf_perm <- fire4_mbox_conf
I0413 17:07:46.611640  9777 net.cpp:408] fire4_mbox_conf_perm -> fire4_mbox_conf_perm
I0413 17:07:46.611738  9777 net.cpp:150] Setting up fire4_mbox_conf_perm
I0413 17:07:46.611745  9777 net.cpp:157] Top shape: 4 37 37 28 (153328)
I0413 17:07:46.611748  9777 net.cpp:165] Memory required for data: 224121776
I0413 17:07:46.611753  9777 layer_factory.hpp:77] Creating layer fire4_mbox_conf_flat
I0413 17:07:46.611759  9777 net.cpp:100] Creating Layer fire4_mbox_conf_flat
I0413 17:07:46.611764  9777 net.cpp:434] fire4_mbox_conf_flat <- fire4_mbox_conf_perm
I0413 17:07:46.611769  9777 net.cpp:408] fire4_mbox_conf_flat -> fire4_mbox_conf_flat
I0413 17:07:46.611791  9777 net.cpp:150] Setting up fire4_mbox_conf_flat
I0413 17:07:46.611815  9777 net.cpp:157] Top shape: 4 38332 (153328)
I0413 17:07:46.611819  9777 net.cpp:165] Memory required for data: 224735088
I0413 17:07:46.611824  9777 layer_factory.hpp:77] Creating layer fire4_mbox_priorbox
I0413 17:07:46.611830  9777 net.cpp:100] Creating Layer fire4_mbox_priorbox
I0413 17:07:46.611835  9777 net.cpp:434] fire4_mbox_priorbox <- fire4_norm_fire4_norm_0_split_2
I0413 17:07:46.611841  9777 net.cpp:434] fire4_mbox_priorbox <- data_data_0_split_1
I0413 17:07:46.611846  9777 net.cpp:408] fire4_mbox_priorbox -> fire4_mbox_priorbox
I0413 17:07:46.611876  9777 net.cpp:150] Setting up fire4_mbox_priorbox
I0413 17:07:46.611882  9777 net.cpp:157] Top shape: 1 2 21904 (43808)
I0413 17:07:46.611886  9777 net.cpp:165] Memory required for data: 224910320
I0413 17:07:46.611889  9777 layer_factory.hpp:77] Creating layer fire8_norm
I0413 17:07:46.611896  9777 net.cpp:100] Creating Layer fire8_norm
I0413 17:07:46.611901  9777 net.cpp:434] fire8_norm <- fire8/concat_fire8/concat_0_split_1
I0413 17:07:46.611907  9777 net.cpp:408] fire8_norm -> fire8_norm
I0413 17:07:46.612071  9777 net.cpp:150] Setting up fire8_norm
I0413 17:07:46.612077  9777 net.cpp:157] Top shape: 4 83 18 18 (107568)
I0413 17:07:46.612082  9777 net.cpp:165] Memory required for data: 225340592
I0413 17:07:46.612087  9777 layer_factory.hpp:77] Creating layer fire8_norm_fire8_norm_0_split
I0413 17:07:46.612097  9777 net.cpp:100] Creating Layer fire8_norm_fire8_norm_0_split
I0413 17:07:46.612102  9777 net.cpp:434] fire8_norm_fire8_norm_0_split <- fire8_norm
I0413 17:07:46.612107  9777 net.cpp:408] fire8_norm_fire8_norm_0_split -> fire8_norm_fire8_norm_0_split_0
I0413 17:07:46.612113  9777 net.cpp:408] fire8_norm_fire8_norm_0_split -> fire8_norm_fire8_norm_0_split_1
I0413 17:07:46.612119  9777 net.cpp:408] fire8_norm_fire8_norm_0_split -> fire8_norm_fire8_norm_0_split_2
I0413 17:07:46.612159  9777 net.cpp:150] Setting up fire8_norm_fire8_norm_0_split
I0413 17:07:46.612165  9777 net.cpp:157] Top shape: 4 83 18 18 (107568)
I0413 17:07:46.612170  9777 net.cpp:157] Top shape: 4 83 18 18 (107568)
I0413 17:07:46.612174  9777 net.cpp:157] Top shape: 4 83 18 18 (107568)
I0413 17:07:46.612177  9777 net.cpp:165] Memory required for data: 226631408
I0413 17:07:46.612181  9777 layer_factory.hpp:77] Creating layer fire8_mbox_loc
I0413 17:07:46.612190  9777 net.cpp:100] Creating Layer fire8_mbox_loc
I0413 17:07:46.612195  9777 net.cpp:434] fire8_mbox_loc <- fire8_norm_fire8_norm_0_split_0
I0413 17:07:46.612200  9777 net.cpp:408] fire8_mbox_loc -> fire8_mbox_loc
I0413 17:07:46.613723  9777 net.cpp:150] Setting up fire8_mbox_loc
I0413 17:07:46.613735  9777 net.cpp:157] Top shape: 4 24 18 18 (31104)
I0413 17:07:46.613739  9777 net.cpp:165] Memory required for data: 226755824
I0413 17:07:46.613746  9777 layer_factory.hpp:77] Creating layer fire8_mbox_loc_perm
I0413 17:07:46.613754  9777 net.cpp:100] Creating Layer fire8_mbox_loc_perm
I0413 17:07:46.613759  9777 net.cpp:434] fire8_mbox_loc_perm <- fire8_mbox_loc
I0413 17:07:46.613765  9777 net.cpp:408] fire8_mbox_loc_perm -> fire8_mbox_loc_perm
I0413 17:07:46.613857  9777 net.cpp:150] Setting up fire8_mbox_loc_perm
I0413 17:07:46.613863  9777 net.cpp:157] Top shape: 4 18 18 24 (31104)
I0413 17:07:46.613867  9777 net.cpp:165] Memory required for data: 226880240
I0413 17:07:46.613869  9777 layer_factory.hpp:77] Creating layer fire8_mbox_loc_flat
I0413 17:07:46.613875  9777 net.cpp:100] Creating Layer fire8_mbox_loc_flat
I0413 17:07:46.613879  9777 net.cpp:434] fire8_mbox_loc_flat <- fire8_mbox_loc_perm
I0413 17:07:46.613884  9777 net.cpp:408] fire8_mbox_loc_flat -> fire8_mbox_loc_flat
I0413 17:07:46.613905  9777 net.cpp:150] Setting up fire8_mbox_loc_flat
I0413 17:07:46.613910  9777 net.cpp:157] Top shape: 4 7776 (31104)
I0413 17:07:46.613914  9777 net.cpp:165] Memory required for data: 227004656
I0413 17:07:46.613916  9777 layer_factory.hpp:77] Creating layer fire8_mbox_conf
I0413 17:07:46.613924  9777 net.cpp:100] Creating Layer fire8_mbox_conf
I0413 17:07:46.613927  9777 net.cpp:434] fire8_mbox_conf <- fire8_norm_fire8_norm_0_split_1
I0413 17:07:46.613945  9777 net.cpp:408] fire8_mbox_conf -> fire8_mbox_conf
I0413 17:07:46.615558  9777 net.cpp:150] Setting up fire8_mbox_conf
I0413 17:07:46.615571  9777 net.cpp:157] Top shape: 4 42 18 18 (54432)
I0413 17:07:46.615576  9777 net.cpp:165] Memory required for data: 227222384
I0413 17:07:46.615581  9777 layer_factory.hpp:77] Creating layer fire8_mbox_conf_perm
I0413 17:07:46.615588  9777 net.cpp:100] Creating Layer fire8_mbox_conf_perm
I0413 17:07:46.615593  9777 net.cpp:434] fire8_mbox_conf_perm <- fire8_mbox_conf
I0413 17:07:46.615599  9777 net.cpp:408] fire8_mbox_conf_perm -> fire8_mbox_conf_perm
I0413 17:07:46.615690  9777 net.cpp:150] Setting up fire8_mbox_conf_perm
I0413 17:07:46.615696  9777 net.cpp:157] Top shape: 4 18 18 42 (54432)
I0413 17:07:46.615700  9777 net.cpp:165] Memory required for data: 227440112
I0413 17:07:46.615705  9777 layer_factory.hpp:77] Creating layer fire8_mbox_conf_flat
I0413 17:07:46.615710  9777 net.cpp:100] Creating Layer fire8_mbox_conf_flat
I0413 17:07:46.615715  9777 net.cpp:434] fire8_mbox_conf_flat <- fire8_mbox_conf_perm
I0413 17:07:46.615720  9777 net.cpp:408] fire8_mbox_conf_flat -> fire8_mbox_conf_flat
I0413 17:07:46.615741  9777 net.cpp:150] Setting up fire8_mbox_conf_flat
I0413 17:07:46.615746  9777 net.cpp:157] Top shape: 4 13608 (54432)
I0413 17:07:46.615749  9777 net.cpp:165] Memory required for data: 227657840
I0413 17:07:46.615753  9777 layer_factory.hpp:77] Creating layer fire8_mbox_priorbox
I0413 17:07:46.615759  9777 net.cpp:100] Creating Layer fire8_mbox_priorbox
I0413 17:07:46.615763  9777 net.cpp:434] fire8_mbox_priorbox <- fire8_norm_fire8_norm_0_split_2
I0413 17:07:46.615768  9777 net.cpp:434] fire8_mbox_priorbox <- data_data_0_split_2
I0413 17:07:46.615773  9777 net.cpp:408] fire8_mbox_priorbox -> fire8_mbox_priorbox
I0413 17:07:46.615795  9777 net.cpp:150] Setting up fire8_mbox_priorbox
I0413 17:07:46.615802  9777 net.cpp:157] Top shape: 1 2 7776 (15552)
I0413 17:07:46.615805  9777 net.cpp:165] Memory required for data: 227720048
I0413 17:07:46.615808  9777 layer_factory.hpp:77] Creating layer fire9_mbox_loc
I0413 17:07:46.615816  9777 net.cpp:100] Creating Layer fire9_mbox_loc
I0413 17:07:46.615820  9777 net.cpp:434] fire9_mbox_loc <- fire9/concat_fire9/concat_0_split_1
I0413 17:07:46.615826  9777 net.cpp:408] fire9_mbox_loc -> fire9_mbox_loc
I0413 17:07:46.617314  9777 net.cpp:150] Setting up fire9_mbox_loc
I0413 17:07:46.617326  9777 net.cpp:157] Top shape: 4 24 9 9 (7776)
I0413 17:07:46.617331  9777 net.cpp:165] Memory required for data: 227751152
I0413 17:07:46.617337  9777 layer_factory.hpp:77] Creating layer fire9_mbox_loc_perm
I0413 17:07:46.617344  9777 net.cpp:100] Creating Layer fire9_mbox_loc_perm
I0413 17:07:46.617348  9777 net.cpp:434] fire9_mbox_loc_perm <- fire9_mbox_loc
I0413 17:07:46.617354  9777 net.cpp:408] fire9_mbox_loc_perm -> fire9_mbox_loc_perm
I0413 17:07:46.617455  9777 net.cpp:150] Setting up fire9_mbox_loc_perm
I0413 17:07:46.617462  9777 net.cpp:157] Top shape: 4 9 9 24 (7776)
I0413 17:07:46.617465  9777 net.cpp:165] Memory required for data: 227782256
I0413 17:07:46.617468  9777 layer_factory.hpp:77] Creating layer fire9_mbox_loc_flat
I0413 17:07:46.617475  9777 net.cpp:100] Creating Layer fire9_mbox_loc_flat
I0413 17:07:46.617478  9777 net.cpp:434] fire9_mbox_loc_flat <- fire9_mbox_loc_perm
I0413 17:07:46.617483  9777 net.cpp:408] fire9_mbox_loc_flat -> fire9_mbox_loc_flat
I0413 17:07:46.617504  9777 net.cpp:150] Setting up fire9_mbox_loc_flat
I0413 17:07:46.617511  9777 net.cpp:157] Top shape: 4 1944 (7776)
I0413 17:07:46.617513  9777 net.cpp:165] Memory required for data: 227813360
I0413 17:07:46.617517  9777 layer_factory.hpp:77] Creating layer fire9_mbox_conf
I0413 17:07:46.617524  9777 net.cpp:100] Creating Layer fire9_mbox_conf
I0413 17:07:46.617528  9777 net.cpp:434] fire9_mbox_conf <- fire9/concat_fire9/concat_0_split_2
I0413 17:07:46.617534  9777 net.cpp:408] fire9_mbox_conf -> fire9_mbox_conf
I0413 17:07:46.619153  9777 net.cpp:150] Setting up fire9_mbox_conf
I0413 17:07:46.619179  9777 net.cpp:157] Top shape: 4 42 9 9 (13608)
I0413 17:07:46.619184  9777 net.cpp:165] Memory required for data: 227867792
I0413 17:07:46.619189  9777 layer_factory.hpp:77] Creating layer fire9_mbox_conf_perm
I0413 17:07:46.619196  9777 net.cpp:100] Creating Layer fire9_mbox_conf_perm
I0413 17:07:46.619202  9777 net.cpp:434] fire9_mbox_conf_perm <- fire9_mbox_conf
I0413 17:07:46.619207  9777 net.cpp:408] fire9_mbox_conf_perm -> fire9_mbox_conf_perm
I0413 17:07:46.619315  9777 net.cpp:150] Setting up fire9_mbox_conf_perm
I0413 17:07:46.619323  9777 net.cpp:157] Top shape: 4 9 9 42 (13608)
I0413 17:07:46.619325  9777 net.cpp:165] Memory required for data: 227922224
I0413 17:07:46.619328  9777 layer_factory.hpp:77] Creating layer fire9_mbox_conf_flat
I0413 17:07:46.619334  9777 net.cpp:100] Creating Layer fire9_mbox_conf_flat
I0413 17:07:46.619338  9777 net.cpp:434] fire9_mbox_conf_flat <- fire9_mbox_conf_perm
I0413 17:07:46.619344  9777 net.cpp:408] fire9_mbox_conf_flat -> fire9_mbox_conf_flat
I0413 17:07:46.619365  9777 net.cpp:150] Setting up fire9_mbox_conf_flat
I0413 17:07:46.619370  9777 net.cpp:157] Top shape: 4 3402 (13608)
I0413 17:07:46.619374  9777 net.cpp:165] Memory required for data: 227976656
I0413 17:07:46.619377  9777 layer_factory.hpp:77] Creating layer fire9_mbox_priorbox
I0413 17:07:46.619385  9777 net.cpp:100] Creating Layer fire9_mbox_priorbox
I0413 17:07:46.619388  9777 net.cpp:434] fire9_mbox_priorbox <- fire9/concat_fire9/concat_0_split_3
I0413 17:07:46.619393  9777 net.cpp:434] fire9_mbox_priorbox <- data_data_0_split_3
I0413 17:07:46.619398  9777 net.cpp:408] fire9_mbox_priorbox -> fire9_mbox_priorbox
I0413 17:07:46.619421  9777 net.cpp:150] Setting up fire9_mbox_priorbox
I0413 17:07:46.619427  9777 net.cpp:157] Top shape: 1 2 1944 (3888)
I0413 17:07:46.619431  9777 net.cpp:165] Memory required for data: 227992208
I0413 17:07:46.619434  9777 layer_factory.hpp:77] Creating layer fire10_mbox_loc
I0413 17:07:46.619441  9777 net.cpp:100] Creating Layer fire10_mbox_loc
I0413 17:07:46.619446  9777 net.cpp:434] fire10_mbox_loc <- fire10/concat_fire10/concat_0_split_1
I0413 17:07:46.619451  9777 net.cpp:408] fire10_mbox_loc -> fire10_mbox_loc
I0413 17:07:46.621104  9777 net.cpp:150] Setting up fire10_mbox_loc
I0413 17:07:46.621115  9777 net.cpp:157] Top shape: 4 24 4 4 (1536)
I0413 17:07:46.621119  9777 net.cpp:165] Memory required for data: 227998352
I0413 17:07:46.621126  9777 layer_factory.hpp:77] Creating layer fire10_mbox_loc_perm
I0413 17:07:46.621145  9777 net.cpp:100] Creating Layer fire10_mbox_loc_perm
I0413 17:07:46.621150  9777 net.cpp:434] fire10_mbox_loc_perm <- fire10_mbox_loc
I0413 17:07:46.621155  9777 net.cpp:408] fire10_mbox_loc_perm -> fire10_mbox_loc_perm
I0413 17:07:46.621265  9777 net.cpp:150] Setting up fire10_mbox_loc_perm
I0413 17:07:46.621273  9777 net.cpp:157] Top shape: 4 4 4 24 (1536)
I0413 17:07:46.621275  9777 net.cpp:165] Memory required for data: 228004496
I0413 17:07:46.621279  9777 layer_factory.hpp:77] Creating layer fire10_mbox_loc_flat
I0413 17:07:46.621284  9777 net.cpp:100] Creating Layer fire10_mbox_loc_flat
I0413 17:07:46.621289  9777 net.cpp:434] fire10_mbox_loc_flat <- fire10_mbox_loc_perm
I0413 17:07:46.621294  9777 net.cpp:408] fire10_mbox_loc_flat -> fire10_mbox_loc_flat
I0413 17:07:46.621315  9777 net.cpp:150] Setting up fire10_mbox_loc_flat
I0413 17:07:46.621320  9777 net.cpp:157] Top shape: 4 384 (1536)
I0413 17:07:46.621323  9777 net.cpp:165] Memory required for data: 228010640
I0413 17:07:46.621326  9777 layer_factory.hpp:77] Creating layer fire10_mbox_conf
I0413 17:07:46.621337  9777 net.cpp:100] Creating Layer fire10_mbox_conf
I0413 17:07:46.621345  9777 net.cpp:434] fire10_mbox_conf <- fire10/concat_fire10/concat_0_split_2
I0413 17:07:46.621350  9777 net.cpp:408] fire10_mbox_conf -> fire10_mbox_conf
I0413 17:07:46.623414  9777 net.cpp:150] Setting up fire10_mbox_conf
I0413 17:07:46.623426  9777 net.cpp:157] Top shape: 4 42 4 4 (2688)
I0413 17:07:46.623430  9777 net.cpp:165] Memory required for data: 228021392
I0413 17:07:46.623437  9777 layer_factory.hpp:77] Creating layer fire10_mbox_conf_perm
I0413 17:07:46.623455  9777 net.cpp:100] Creating Layer fire10_mbox_conf_perm
I0413 17:07:46.623461  9777 net.cpp:434] fire10_mbox_conf_perm <- fire10_mbox_conf
I0413 17:07:46.623466  9777 net.cpp:408] fire10_mbox_conf_perm -> fire10_mbox_conf_perm
I0413 17:07:46.623569  9777 net.cpp:150] Setting up fire10_mbox_conf_perm
I0413 17:07:46.623575  9777 net.cpp:157] Top shape: 4 4 4 42 (2688)
I0413 17:07:46.623579  9777 net.cpp:165] Memory required for data: 228032144
I0413 17:07:46.623582  9777 layer_factory.hpp:77] Creating layer fire10_mbox_conf_flat
I0413 17:07:46.623587  9777 net.cpp:100] Creating Layer fire10_mbox_conf_flat
I0413 17:07:46.623592  9777 net.cpp:434] fire10_mbox_conf_flat <- fire10_mbox_conf_perm
I0413 17:07:46.623597  9777 net.cpp:408] fire10_mbox_conf_flat -> fire10_mbox_conf_flat
I0413 17:07:46.623618  9777 net.cpp:150] Setting up fire10_mbox_conf_flat
I0413 17:07:46.623625  9777 net.cpp:157] Top shape: 4 672 (2688)
I0413 17:07:46.623627  9777 net.cpp:165] Memory required for data: 228042896
I0413 17:07:46.623631  9777 layer_factory.hpp:77] Creating layer fire10_mbox_priorbox
I0413 17:07:46.623637  9777 net.cpp:100] Creating Layer fire10_mbox_priorbox
I0413 17:07:46.623641  9777 net.cpp:434] fire10_mbox_priorbox <- fire10/concat_fire10/concat_0_split_3
I0413 17:07:46.623646  9777 net.cpp:434] fire10_mbox_priorbox <- data_data_0_split_4
I0413 17:07:46.623657  9777 net.cpp:408] fire10_mbox_priorbox -> fire10_mbox_priorbox
I0413 17:07:46.623682  9777 net.cpp:150] Setting up fire10_mbox_priorbox
I0413 17:07:46.623687  9777 net.cpp:157] Top shape: 1 2 384 (768)
I0413 17:07:46.623692  9777 net.cpp:165] Memory required for data: 228045968
I0413 17:07:46.623695  9777 layer_factory.hpp:77] Creating layer conv12_2_mbox_loc
I0413 17:07:46.623703  9777 net.cpp:100] Creating Layer conv12_2_mbox_loc
I0413 17:07:46.623708  9777 net.cpp:434] conv12_2_mbox_loc <- conv12_2_relu12_2_0_split_1
I0413 17:07:46.623713  9777 net.cpp:408] conv12_2_mbox_loc -> conv12_2_mbox_loc
I0413 17:07:46.624915  9777 net.cpp:150] Setting up conv12_2_mbox_loc
I0413 17:07:46.624927  9777 net.cpp:157] Top shape: 4 24 2 2 (384)
I0413 17:07:46.624931  9777 net.cpp:165] Memory required for data: 228047504
I0413 17:07:46.624938  9777 layer_factory.hpp:77] Creating layer conv12_2_mbox_loc_perm
I0413 17:07:46.624944  9777 net.cpp:100] Creating Layer conv12_2_mbox_loc_perm
I0413 17:07:46.624949  9777 net.cpp:434] conv12_2_mbox_loc_perm <- conv12_2_mbox_loc
I0413 17:07:46.624960  9777 net.cpp:408] conv12_2_mbox_loc_perm -> conv12_2_mbox_loc_perm
I0413 17:07:46.625058  9777 net.cpp:150] Setting up conv12_2_mbox_loc_perm
I0413 17:07:46.625066  9777 net.cpp:157] Top shape: 4 2 2 24 (384)
I0413 17:07:46.625067  9777 net.cpp:165] Memory required for data: 228049040
I0413 17:07:46.625072  9777 layer_factory.hpp:77] Creating layer conv12_2_mbox_loc_flat
I0413 17:07:46.625077  9777 net.cpp:100] Creating Layer conv12_2_mbox_loc_flat
I0413 17:07:46.625080  9777 net.cpp:434] conv12_2_mbox_loc_flat <- conv12_2_mbox_loc_perm
I0413 17:07:46.625085  9777 net.cpp:408] conv12_2_mbox_loc_flat -> conv12_2_mbox_loc_flat
I0413 17:07:46.625108  9777 net.cpp:150] Setting up conv12_2_mbox_loc_flat
I0413 17:07:46.625123  9777 net.cpp:157] Top shape: 4 96 (384)
I0413 17:07:46.625126  9777 net.cpp:165] Memory required for data: 228050576
I0413 17:07:46.625139  9777 layer_factory.hpp:77] Creating layer conv12_2_mbox_conf
I0413 17:07:46.625146  9777 net.cpp:100] Creating Layer conv12_2_mbox_conf
I0413 17:07:46.625151  9777 net.cpp:434] conv12_2_mbox_conf <- conv12_2_relu12_2_0_split_2
I0413 17:07:46.625156  9777 net.cpp:408] conv12_2_mbox_conf -> conv12_2_mbox_conf
I0413 17:07:46.626585  9777 net.cpp:150] Setting up conv12_2_mbox_conf
I0413 17:07:46.626597  9777 net.cpp:157] Top shape: 4 42 2 2 (672)
I0413 17:07:46.626610  9777 net.cpp:165] Memory required for data: 228053264
I0413 17:07:46.626617  9777 layer_factory.hpp:77] Creating layer conv12_2_mbox_conf_perm
I0413 17:07:46.626623  9777 net.cpp:100] Creating Layer conv12_2_mbox_conf_perm
I0413 17:07:46.626639  9777 net.cpp:434] conv12_2_mbox_conf_perm <- conv12_2_mbox_conf
I0413 17:07:46.626646  9777 net.cpp:408] conv12_2_mbox_conf_perm -> conv12_2_mbox_conf_perm
I0413 17:07:46.626740  9777 net.cpp:150] Setting up conv12_2_mbox_conf_perm
I0413 17:07:46.626747  9777 net.cpp:157] Top shape: 4 2 2 42 (672)
I0413 17:07:46.626750  9777 net.cpp:165] Memory required for data: 228055952
I0413 17:07:46.626754  9777 layer_factory.hpp:77] Creating layer conv12_2_mbox_conf_flat
I0413 17:07:46.626760  9777 net.cpp:100] Creating Layer conv12_2_mbox_conf_flat
I0413 17:07:46.626765  9777 net.cpp:434] conv12_2_mbox_conf_flat <- conv12_2_mbox_conf_perm
I0413 17:07:46.626770  9777 net.cpp:408] conv12_2_mbox_conf_flat -> conv12_2_mbox_conf_flat
I0413 17:07:46.626791  9777 net.cpp:150] Setting up conv12_2_mbox_conf_flat
I0413 17:07:46.626796  9777 net.cpp:157] Top shape: 4 168 (672)
I0413 17:07:46.626808  9777 net.cpp:165] Memory required for data: 228058640
I0413 17:07:46.626812  9777 layer_factory.hpp:77] Creating layer conv12_2_mbox_priorbox
I0413 17:07:46.626827  9777 net.cpp:100] Creating Layer conv12_2_mbox_priorbox
I0413 17:07:46.626832  9777 net.cpp:434] conv12_2_mbox_priorbox <- conv12_2_relu12_2_0_split_3
I0413 17:07:46.626837  9777 net.cpp:434] conv12_2_mbox_priorbox <- data_data_0_split_5
I0413 17:07:46.626842  9777 net.cpp:408] conv12_2_mbox_priorbox -> conv12_2_mbox_priorbox
I0413 17:07:46.626880  9777 net.cpp:150] Setting up conv12_2_mbox_priorbox
I0413 17:07:46.626886  9777 net.cpp:157] Top shape: 1 2 96 (192)
I0413 17:07:46.626890  9777 net.cpp:165] Memory required for data: 228059408
I0413 17:07:46.626904  9777 layer_factory.hpp:77] Creating layer conv13_2_mbox_loc
I0413 17:07:46.626910  9777 net.cpp:100] Creating Layer conv13_2_mbox_loc
I0413 17:07:46.626915  9777 net.cpp:434] conv13_2_mbox_loc <- conv13_2_conv13_2_0_split_0
I0413 17:07:46.626920  9777 net.cpp:408] conv13_2_mbox_loc -> conv13_2_mbox_loc
I0413 17:07:46.628358  9777 net.cpp:150] Setting up conv13_2_mbox_loc
I0413 17:07:46.628371  9777 net.cpp:157] Top shape: 4 16 1 1 (64)
I0413 17:07:46.628374  9777 net.cpp:165] Memory required for data: 228059664
I0413 17:07:46.628381  9777 layer_factory.hpp:77] Creating layer conv13_2_mbox_loc_perm
I0413 17:07:46.628388  9777 net.cpp:100] Creating Layer conv13_2_mbox_loc_perm
I0413 17:07:46.628393  9777 net.cpp:434] conv13_2_mbox_loc_perm <- conv13_2_mbox_loc
I0413 17:07:46.628398  9777 net.cpp:408] conv13_2_mbox_loc_perm -> conv13_2_mbox_loc_perm
I0413 17:07:46.628495  9777 net.cpp:150] Setting up conv13_2_mbox_loc_perm
I0413 17:07:46.628501  9777 net.cpp:157] Top shape: 4 1 1 16 (64)
I0413 17:07:46.628504  9777 net.cpp:165] Memory required for data: 228059920
I0413 17:07:46.628507  9777 layer_factory.hpp:77] Creating layer conv13_2_mbox_loc_flat
I0413 17:07:46.628515  9777 net.cpp:100] Creating Layer conv13_2_mbox_loc_flat
I0413 17:07:46.628518  9777 net.cpp:434] conv13_2_mbox_loc_flat <- conv13_2_mbox_loc_perm
I0413 17:07:46.628523  9777 net.cpp:408] conv13_2_mbox_loc_flat -> conv13_2_mbox_loc_flat
I0413 17:07:46.628545  9777 net.cpp:150] Setting up conv13_2_mbox_loc_flat
I0413 17:07:46.628551  9777 net.cpp:157] Top shape: 4 16 (64)
I0413 17:07:46.628554  9777 net.cpp:165] Memory required for data: 228060176
I0413 17:07:46.628558  9777 layer_factory.hpp:77] Creating layer conv13_2_mbox_conf
I0413 17:07:46.628566  9777 net.cpp:100] Creating Layer conv13_2_mbox_conf
I0413 17:07:46.628569  9777 net.cpp:434] conv13_2_mbox_conf <- conv13_2_conv13_2_0_split_1
I0413 17:07:46.628576  9777 net.cpp:408] conv13_2_mbox_conf -> conv13_2_mbox_conf
I0413 17:07:46.630079  9777 net.cpp:150] Setting up conv13_2_mbox_conf
I0413 17:07:46.630090  9777 net.cpp:157] Top shape: 4 28 1 1 (112)
I0413 17:07:46.630093  9777 net.cpp:165] Memory required for data: 228060624
I0413 17:07:46.630100  9777 layer_factory.hpp:77] Creating layer conv13_2_mbox_conf_perm
I0413 17:07:46.630111  9777 net.cpp:100] Creating Layer conv13_2_mbox_conf_perm
I0413 17:07:46.630116  9777 net.cpp:434] conv13_2_mbox_conf_perm <- conv13_2_mbox_conf
I0413 17:07:46.630131  9777 net.cpp:408] conv13_2_mbox_conf_perm -> conv13_2_mbox_conf_perm
I0413 17:07:46.630229  9777 net.cpp:150] Setting up conv13_2_mbox_conf_perm
I0413 17:07:46.630236  9777 net.cpp:157] Top shape: 4 1 1 28 (112)
I0413 17:07:46.630239  9777 net.cpp:165] Memory required for data: 228061072
I0413 17:07:46.630242  9777 layer_factory.hpp:77] Creating layer conv13_2_mbox_conf_flat
I0413 17:07:46.630247  9777 net.cpp:100] Creating Layer conv13_2_mbox_conf_flat
I0413 17:07:46.630252  9777 net.cpp:434] conv13_2_mbox_conf_flat <- conv13_2_mbox_conf_perm
I0413 17:07:46.630257  9777 net.cpp:408] conv13_2_mbox_conf_flat -> conv13_2_mbox_conf_flat
I0413 17:07:46.630278  9777 net.cpp:150] Setting up conv13_2_mbox_conf_flat
I0413 17:07:46.630285  9777 net.cpp:157] Top shape: 4 28 (112)
I0413 17:07:46.630287  9777 net.cpp:165] Memory required for data: 228061520
I0413 17:07:46.630291  9777 layer_factory.hpp:77] Creating layer conv13_2_mbox_priorbox
I0413 17:07:46.630297  9777 net.cpp:100] Creating Layer conv13_2_mbox_priorbox
I0413 17:07:46.630301  9777 net.cpp:434] conv13_2_mbox_priorbox <- conv13_2_conv13_2_0_split_2
I0413 17:07:46.630306  9777 net.cpp:434] conv13_2_mbox_priorbox <- data_data_0_split_6
I0413 17:07:46.630311  9777 net.cpp:408] conv13_2_mbox_priorbox -> conv13_2_mbox_priorbox
I0413 17:07:46.630334  9777 net.cpp:150] Setting up conv13_2_mbox_priorbox
I0413 17:07:46.630339  9777 net.cpp:157] Top shape: 1 2 16 (32)
I0413 17:07:46.630343  9777 net.cpp:165] Memory required for data: 228061648
I0413 17:07:46.630347  9777 layer_factory.hpp:77] Creating layer mbox_loc
I0413 17:07:46.630353  9777 net.cpp:100] Creating Layer mbox_loc
I0413 17:07:46.630358  9777 net.cpp:434] mbox_loc <- fire4_mbox_loc_flat
I0413 17:07:46.630363  9777 net.cpp:434] mbox_loc <- fire8_mbox_loc_flat
I0413 17:07:46.630367  9777 net.cpp:434] mbox_loc <- fire9_mbox_loc_flat
I0413 17:07:46.630373  9777 net.cpp:434] mbox_loc <- fire10_mbox_loc_flat
I0413 17:07:46.630376  9777 net.cpp:434] mbox_loc <- conv12_2_mbox_loc_flat
I0413 17:07:46.630381  9777 net.cpp:434] mbox_loc <- conv13_2_mbox_loc_flat
I0413 17:07:46.630385  9777 net.cpp:408] mbox_loc -> mbox_loc
I0413 17:07:46.630410  9777 net.cpp:150] Setting up mbox_loc
I0413 17:07:46.630416  9777 net.cpp:157] Top shape: 4 32120 (128480)
I0413 17:07:46.630420  9777 net.cpp:165] Memory required for data: 228575568
I0413 17:07:46.630424  9777 layer_factory.hpp:77] Creating layer mbox_conf
I0413 17:07:46.630429  9777 net.cpp:100] Creating Layer mbox_conf
I0413 17:07:46.630434  9777 net.cpp:434] mbox_conf <- fire4_mbox_conf_flat
I0413 17:07:46.630439  9777 net.cpp:434] mbox_conf <- fire8_mbox_conf_flat
I0413 17:07:46.630444  9777 net.cpp:434] mbox_conf <- fire9_mbox_conf_flat
I0413 17:07:46.630447  9777 net.cpp:434] mbox_conf <- fire10_mbox_conf_flat
I0413 17:07:46.630452  9777 net.cpp:434] mbox_conf <- conv12_2_mbox_conf_flat
I0413 17:07:46.630456  9777 net.cpp:434] mbox_conf <- conv13_2_mbox_conf_flat
I0413 17:07:46.630461  9777 net.cpp:408] mbox_conf -> mbox_conf
I0413 17:07:46.630482  9777 net.cpp:150] Setting up mbox_conf
I0413 17:07:46.630488  9777 net.cpp:157] Top shape: 4 56210 (224840)
I0413 17:07:46.630491  9777 net.cpp:165] Memory required for data: 229474928
I0413 17:07:46.630496  9777 layer_factory.hpp:77] Creating layer mbox_priorbox
I0413 17:07:46.630501  9777 net.cpp:100] Creating Layer mbox_priorbox
I0413 17:07:46.630506  9777 net.cpp:434] mbox_priorbox <- fire4_mbox_priorbox
I0413 17:07:46.630509  9777 net.cpp:434] mbox_priorbox <- fire8_mbox_priorbox
I0413 17:07:46.630514  9777 net.cpp:434] mbox_priorbox <- fire9_mbox_priorbox
I0413 17:07:46.630518  9777 net.cpp:434] mbox_priorbox <- fire10_mbox_priorbox
I0413 17:07:46.630523  9777 net.cpp:434] mbox_priorbox <- conv12_2_mbox_priorbox
I0413 17:07:46.630527  9777 net.cpp:434] mbox_priorbox <- conv13_2_mbox_priorbox
I0413 17:07:46.630532  9777 net.cpp:408] mbox_priorbox -> mbox_priorbox
I0413 17:07:46.630559  9777 net.cpp:150] Setting up mbox_priorbox
I0413 17:07:46.630565  9777 net.cpp:157] Top shape: 1 2 32120 (64240)
I0413 17:07:46.630576  9777 net.cpp:165] Memory required for data: 229731888
I0413 17:07:46.630580  9777 layer_factory.hpp:77] Creating layer mbox_loss
I0413 17:07:46.630589  9777 net.cpp:100] Creating Layer mbox_loss
I0413 17:07:46.630594  9777 net.cpp:434] mbox_loss <- mbox_loc
I0413 17:07:46.630599  9777 net.cpp:434] mbox_loss <- mbox_conf
I0413 17:07:46.630602  9777 net.cpp:434] mbox_loss <- mbox_priorbox
…
name: "tiny_SSD_300x300_train"
state {
  phase: TEST
}
layer {
  name: "data"
  type: "AnnotatedData"
  top: "data"
  top: "label"
  include {
    phase: TEST
  }
  transform_param {
    scale: 0.007843
    mean_value: 127.5
    mean_value: 127.5
    mean_value: 127.5
    resize_param {
      prob: 1
      resize_mode: WARP
      height: 300
      width: 300
      interp_mode: LINEAR
    }
  }
  data_param {
    source: "test_lmdb/"
    batch_size: 2
    backend: LMDB
  }
  annotated_data_param {
    batch_sampler {
    }
    label_map_file: "labelmap.prototxt"
  }
}
layer {
  name: "conv1"
  type: "Convolution"
  bottom: "data"
  top: "conv1"
  param {
    lr_mult: 0.1
    decay_mult: 0.1
  }
  convolution_param {
    num_output: 57
    bias_term: false
    pad: 0
    kernel_size: 3
    stride: 2
    weight_filler {
      type: "msra"
    }
  }
}
layer {
  name: "relu1_1"
  type: "ReLU"
  bottom: "conv1"
  top: "conv1"
}
layer {
  name: "pool1"
  type: "Pooling"
  bottom: "conv1"
  top: "pool1"
  pooling_param {
    pool: MAX
    kernel_size: 3
    stride: 2
  }
}
layer {
  name: "fire1/squeeze1x1"
  type: "Convolution"
  bottom: "pool1"
  top: "fire1/squeeze1x1"
  convolution_param {
    num_output: 15
    bias_term: false
    kernel_size: 1
    weight_filler {
      type: "msra"
    }
  }
}
layer {
  name: "fire1/relu_squeeze1x1"
  type: "ReLU"
  bottom: "fire1/squeeze1x1"
  top: "fire1/squeeze1x1"
}
layer {
  name: "fire1/expand1x1"
  type: "Convolution"
  bottom: "fire1/squeeze1x1"
  top: "fire1/expand1x1"
  convolution_param {
    num_output: 49
    bias_term: false
    kernel_size: 1
    weight_filler {
      type: "msra"
    }
  }
}
layer {
  name: "fire1/relu_expand1x1"
  type: "ReLU"
  bottom: "fire1/expand1x1"
  top: "fire1/expand1x1"
}
layer {
  name: "fire1/expand3x3"
  type: "Convolution"
  bottom: "fire1/squeeze1x1"
  top: "fire1/expand3x3"
  convolution_param {
    num_output: 53
    bias_term: false
    pad: 1
    kernel_size: 3
    weight_filler {
      type: "msra"
    }
  }
}
layer {
  name: "fire1/relu_expand3x3"
  type: "ReLU"
  bottom: "fire1/expand3x3"
  top: "fire1/expand3x3"
}
layer {
  name: "fire1/concat"
  type: "Concat"
  bottom: "fire1/expand1x1"
  bottom: "fire1/expand3x3"
  top: "fire1/concat"
}
layer {
  name: "fire2/squeeze1x1"
  type: "Convolution"
  bottom: "fire1/concat"
  top: "fire2/squeeze1x1"
  convolution_param {
    num_output: 15
    bias_term: false
    kernel_size: 1
    weight_filler {
      type: "msra"
    }
  }
}
layer {
  name: "fire2/relu_squeeze1x1"
  type: "ReLU"
  bottom: "fire2/squeeze1x1"
  top: "fire2/squeeze1x1"
}
layer {
  name: "fire2/expand1x1"
  type: "Convolution"
  bottom: "fire2/squeeze1x1"
  top: "fire2/expand1x1"
  convolution_param {
    num_output: 54
    bias_term: false
    kernel_size: 1
    weight_filler {
      type: "msra"
    }
  }
}
layer {
  name: "fire2/relu_expand1x1"
  type: "ReLU"
  bottom: "fire2/expand1x1"
  top: "fire2/expand1x1"
}
layer {
  name: "fire2/expand3x3"
  type: "Convolution"
  bottom: "fire2/squeeze1x1"
  top: "fire2/expand3x3"
  convolution_param {
    num_output: 52
    bias_term: false
    pad: 1
    kernel_size: 3
    weight_filler {
      type: "msra"
    }
  }
}
layer {
  name: "fire2/relu_expand3x3"
  type: "ReLU"
  bottom: "fire2/expand3x3"
  top: "fire2/expand3x3"
}
layer {
  name: "fire2/concat"
  type: "Concat"
  bottom: "fire2/expand1x1"
  bottom: "fire2/expand3x3"
  top: "fire2/concat"
}
layer {
  name: "pool3"
  type: "Pooling"
  bottom: "fire2/concat"
  top: "pool3"
  pooling_param {
    pool: MAX
    kernel_size: 3
    stride: 2
  }
}
layer {
  name: "fire3/squeeze1x1"
  type: "Convolution"
  bottom: "pool3"
  top: "fire3/squeeze1x1"
  convolution_param {
    num_output: 29
    bias_term: false
    kernel_size: 1
    weight_filler {
      type: "msra"
    }
  }
}
layer {
  name: "fire3/relu_squeeze1x1"
  type: "ReLU"
  bottom: "fire3/squeeze1x1"
  top: "fire3/squeeze1x1"
}
layer {
  name: "fire3/expand1x1"
  type: "Convolution"
  bottom: "fire3/squeeze1x1"
  top: "fire3/expand1x1"
  convolution_param {
    num_output: 92
    bias_term: false
    kernel_size: 1
    weight_filler {
      type: "msra"
    }
  }
}
layer {
  name: "fire3/relu_expand1x1"
  type: "ReLU"
  bottom: "fire3/expand1x1"
  top: "fire3/expand1x1"
}
layer {
  name: "fire3/expand3x3"
  type: "Convolution"
  bottom: "fire3/squeeze1x1"
  top: "fire3/expand3x3"
  convolution_param {
    num_output: 94
    bias_term: false
    pad: 1
    kernel_size: 3
    weight_filler {
      type: "msra"
    }
  }
}
layer {
  name: "fire3/relu_expand3x3"
  type: "ReLU"
  bottom: "fire3/expand3x3"
  top: "fire3/expand3x3"
}
layer {
  name: "fire3/concat"
  type: "Concat"
  bottom: "fire3/expand1x1"
  bottom: "fire3/expand3x3"
  top: "fire3/concat"
}
layer {
  name: "fire4/squeeze1x1"
  type: "Convolution"
  bottom: "fire3/concat"
  top: "fire4/squeeze1x1"
  convolution_param {
    num_output: 29
    bias_term: false
    kernel_size: 1
    weight_filler {
      type: "msra"
    }
  }
}
layer {
  name: "fire4/relu_squeeze1x1"
  type: "ReLU"
  bottom: "fire4/squeeze1x1"
  top: "fire4/squeeze1x1"
}
layer {
  name: "fire4/expand1x1"
  type: "Convolution"
  bottom: "fire4/squeeze1x1"
  top: "fire4/expand1x1"
  convolution_param {
    num_output: 90
    bias_term: false
    kernel_size: 1
    weight_filler {
      type: "msra"
    }
  }
}
layer {
  name: "fire4/relu_expand1x1"
  type: "ReLU"
  bottom: "fire4/expand1x1"
  top: "fire4/expand1x1"
}
layer {
  name: "fire4/expand3x3"
  type: "Convolution"
  bottom: "fire4/squeeze1x1"
  top: "fire4/expand3x3"
  convolution_param {
    num_output: 83
    bias_term: false
    pad: 1
    kernel_size: 3
    weight_filler {
      type: "msra"
    }
  }
}
layer {
  name: "fire4/relu_expand3x3"
  type: "ReLU"
  bottom: "fire4/expand3x3"
  top: "fire4/expand3x3"
}
layer {
  name: "fire4/concat"
  type: "Concat"
  bottom: "fire4/expand1x1"
  bottom: "fire4/expand3x3"
  top: "fire4/concat"
}
layer {
  name: "pool5"
  type: "Pooling"
  bottom: "fire4/concat"
  top: "pool5"
  pooling_param {
    pool: MAX
    kernel_size: 3
    stride: 2
  }
}
layer {
  name: "fire5/squeeze1x1"
  type: "Convolution"
  bottom: "pool5"
  top: "fire5/squeeze1x1"
  convolution_param {
    num_output: 44
    bias_term: false
    kernel_size: 1
    weight_filler {
      type: "msra"
    }
  }
}
layer {
  name: "fire5/relu_squeeze1x1"
  type: "ReLU"
  bottom: "fire5/squeeze1x1"
  top: "fire5/squeeze1x1"
}
layer {
  name: "fire5/expand1x1"
  type: "Convolution"
  bottom: "fire5/squeeze1x1"
  top: "fire5/expand1x1"
  convolution_param {
    num_output: 166
    bias_term: false
    kernel_size: 1
    weight_filler {
      type: "msra"
    }
  }
}
layer {
  name: "fire5/relu_expand1x1"
  type: "ReLU"
  bottom: "fire5/expand1x1"
  top: "fire5/expand1x1"
}
layer {
  name: "fire5/expand3x3"
  type: "Convolution"
  bottom: "fire5/squeeze1x1"
  top: "fire5/expand3x3"
  convolution_param {
    num_output: 161
    bias_term: false
    pad: 1
    kernel_size: 3
    weight_filler {
      type: "msra"
    }
  }
}
layer {
  name: "fire5/relu_expand3x3"
  type: "ReLU"
  bottom: "fire5/expand3x3"
  top: "fire5/expand3x3"
}
layer {
  name: "fire5/concat"
  type: "Concat"
  bottom: "fire5/expand1x1"
  bottom: "fire5/expand3x3"
  top: "fire5/concat"
}
layer {
  name: "fire6/squeeze1x1"
  type: "Convolution"
  bottom: "fire5/concat"
  top: "fire6/squeeze1x1"
  convolution_param {
    num_output: 45
    bias_term: false
    kernel_size: 1
    weight_filler {
      type: "msra"
    }
  }
}
layer {
  name: "fire6/relu_squeeze1x1"
  type: "ReLU"
  bottom: "fire6/squeeze1x1"
  top: "fire6/squeeze1x1"
}
layer {
  name: "fire6/expand1x1"
  type: "Convolution"
  bottom: "fire6/squeeze1x1"
  top: "fire6/expand1x1"
  convolution_param {
    num_output: 155
    bias_term: false
    kernel_size: 1
    weight_filler {
      type: "msra"
    }
  }
}
layer {
  name: "fire6/relu_expand1x1"
  type: "ReLU"
  bottom: "fire6/expand1x1"
  top: "fire6/expand1x1"
}
layer {
  name: "fire6/expand3x3"
  type: "Convolution"
  bottom: "fire6/squeeze1x1"
  top: "fire6/expand3x3"
  convolution_param {
    num_output: 146
    bias_term: false
    pad: 1
    kernel_size: 3
    weight_filler {
      type: "msra"
    }
  }
}
layer {
  name: "fire6/relu_expand3x3"
  type: "ReLU"
  bottom: "fire6/expand3x3"
  top: "fire6/expand3x3"
}
layer {
  name: "fire6/concat"
  type: "Concat"
  bottom: "fire6/expand1x1"
  bottom: "fire6/expand3x3"
  top: "fire6/concat"
}
layer {
  name: "fire7/squeeze1x1"
  type: "Convolution"
  bottom: "fire6/concat"
  top: "fire7/squeeze1x1"
  convolution_param {
    num_output: 49
    bias_term: false
    kernel_size: 1
    weight_filler {
      type: "msra"
    }
  }
}
layer {
  name: "fire7/relu_squeeze1x1"
  type: "ReLU"
  bottom: "fire7/squeeze1x1"
  top: "fire7/squeeze1x1"
}
layer {
  name: "fire7/expand1x1"
  type: "Convolution"
  bottom: "fire7/squeeze1x1"
  top: "fire7/expand1x1"
  convolution_param {
    num_output: 163
    bias_term: false
    kernel_size: 1
    weight_filler {
      type: "msra"
    }
  }
}
layer {
  name: "fire7/relu_expand1x1"
  type: "ReLU"
  bottom: "fire7/expand1x1"
  top: "fire7/expand1x1"
}
layer {
  name: "fire7/expand3x3"
  type: "Convolution"
  bottom: "fire7/squeeze1x1"
  top: "fire7/expand3x3"
  convolution_param {
    num_output: 171
    bias_term: false
    pad: 1
    kernel_size: 3
    weight_filler {
      type: "msra"
    }
  }
}
layer {
  name: "fire7/relu_expand3x3"
  type: "ReLU"
  bottom: "fire7/expand3x3"
  top: "fire7/expand3x3"
}
layer {
  name: "fire7/concat"
  type: "Concat"
  bottom: "fire7/expand1x1"
  bottom: "fire7/expand3x3"
  top: "fire7/concat"
}
layer {
  name: "fire8/squeeze1x1"
  type: "Convolution"
  bottom: "fire7/concat"
  top: "fire8/squeeze1x1"
  convolution_param {
    num_output: 25
    bias_term: false
    kernel_size: 1
    weight_filler {
      type: "msra"
    }
  }
}
layer {
  name: "fire8/relu_squeeze1x1"
  type: "ReLU"
  bottom: "fire8/squeeze1x1"
  top: "fire8/squeeze1x1"
}
layer {
  name: "fire8/expand1x1"
  type: "Convolution"
  bottom: "fire8/squeeze1x1"
  top: "fire8/expand1x1"
  convolution_param {
    num_output: 29
    bias_term: false
    kernel_size: 1
    weight_filler {
      type: "msra"
    }
  }
}
layer {
  name: "fire8/relu_expand1x1"
  type: "ReLU"
  bottom: "fire8/expand1x1"
  top: "fire8/expand1x1"
}
layer {
  name: "fire8/expand3x3"
  type: "Convolution"
  bottom: "fire8/squeeze1x1"
  top: "fire8/expand3x3"
  convolution_param {
    num_output: 54
    bias_term: false
    pad: 1
    kernel_size: 3
    weight_filler {
      type: "msra"
    }
  }
}
layer {
  name: "fire8/relu_expand3x3"
  type: "ReLU"
  bottom: "fire8/expand3x3"
  top: "fire8/expand3x3"
}
layer {
  name: "fire8/concat"
  type: "Concat"
  bottom: "fire8/expand1x1"
  bottom: "fire8/expand3x3"
  top: "fire8/concat"
}
layer {
  name: "pool9"
  type: "Pooling"
  bottom: "fire8/concat"
  top: "pool9"
  pooling_param {
    pool: MAX
    kernel_size: 3
    stride: 2
  }
}
layer {
  name: "fire9/squeeze1x1"
  type: "Convolution"
  bottom: "pool9"
  top: "fire9/squeeze1x1"
  convolution_param {
    num_output: 37
    bias_term: false
    kernel_size: 1
    weight_filler {
      type: "msra"
    }
  }
}
layer {
  name: "fire9/relu_squeeze1x1"
  type: "ReLU"
  bottom: "fire9/squeeze1x1"
  top: "fire9/squeeze1x1"
}
layer {
  name: "fire9/expand1x1"
  type: "Convolution"
  bottom: "fire9/squeeze1x1"
  top: "fire9/expand1x1"
  convolution_param {
    num_output: 45
    bias_term: false
    kernel_size: 1
    weight_filler {
      type: "msra"
    }
  }
}
layer {
  name: "fire9/relu_expand1x1"
  type: "ReLU"
  bottom: "fire9/expand1x1"
  top: "fire9/expand1x1"
}
layer {
  name: "fire9/expand3x3"
  type: "Convolution"
  bottom: "fire9/squeeze1x1"
  top: "fire9/expand3x3"
  convolution_param {
    num_output: 56
    bias_term: false
    pad: 1
    kernel_size: 3
    weight_filler {
      type: "msra"
    }
  }
}
layer {
  name: "fire9/relu_expand3x3"
  type: "ReLU"
  bottom: "fire9/expand3x3"
  top: "fire9/expand3x3"
}
layer {
  name: "fire9/concat"
  type: "Concat"
  bottom: "fire9/expand1x1"
  bottom: "fire9/expand3x3"
  top: "fire9/concat"
}
layer {
  name: "pool10"
  type: "Pooling"
  bottom: "fire9/concat"
  top: "pool10"
  pooling_param {
    pool: MAX
    kernel_size: 3
    stride: 2
  }
}
layer {
  name: "fire10/squeeze1x1"
  type: "Convolution"
  bottom: "pool10"
  top: "fire10/squeeze1x1"
  convolution_param {
    num_output: 38
    bias_term: false
    kernel_size: 1
    weight_filler {
      type: "msra"
    }
  }
}
layer {
  name: "fire10/relu_squeeze1x1"
  type: "ReLU"
  bottom: "fire10/squeeze1x1"
  top: "fire10/squeeze1x1"
}
layer {
  name: "fire10/expand1x1"
  type: "Convolution"
  bottom: "fire10/squeeze1x1"
  top: "fire10/expand1x1"
  convolution_param {
    num_output: 41
    bias_term: false
    kernel_size: 1
    weight_filler {
      type: "msra"
    }
  }
}
layer {
  name: "fire10/relu_expand1x1"
  type: "ReLU"
  bottom: "fire10/expand1x1"
  top: "fire10/expand1x1"
}
layer {
  name: "fire10/expand3x3"
  type: "Convolution"
  bottom: "fire10/squeeze1x1"
  top: "fire10/expand3x3"
  convolution_param {
    num_output: 44
    bias_term: false
    pad: 1
    kernel_size: 3
    weight_filler {
      type: "msra"
    }
  }
}
layer {
  name: "fire10/relu_expand3x3"
  type: "ReLU"
  bottom: "fire10/expand3x3"
  top: "fire10/expand3x3"
}
layer {
  name: "fire10/concat"
  type: "Concat"
  bottom: "fire10/expand1x1"
  bottom: "fire10/expand3x3"
  top: "fire10/concat"
}
layer {
  name: "conv12_1"
  type: "Convolution"
  bottom: "fire10/concat"
  top: "conv12_1"
  param {
    lr_mult: 0.1
    decay_mult: 0.1
  }
  convolution_param {
    num_output: 51
    bias_term: false
    pad: 3
    kernel_size: 3
    stride: 2
    weight_filler {
      type: "msra"
    }
  }
}
layer {
  name: "relu122_1"
  type: "ReLU"
  bottom: "conv12_1"
  top: "conv12_1"
}
layer {
  name: "conv12_2"
  type: "Convolution"
  bottom: "conv12_1"
  top: "conv12_2"
  param {
    lr_mult: 0.1
    decay_mult: 0.1
  }
  convolution_param {
    num_output: 46
    bias_term: false
    pad: 0
    kernel_size: 3
    weight_filler {
      type: "msra"
    }
  }
}
layer {
  name: "relu12_2"
  type: "ReLU"
  bottom: "conv12_2"
  top: "conv12_2"
}
layer {
  name: "conv13_1"
  type: "Convolution"
  bottom: "conv12_2"
  top: "conv13_1"
  param {
    lr_mult: 0.1
    decay_mult: 0.1
  }
  convolution_param {
    num_output: 55
    bias_term: false
    pad: 1
    kernel_size: 3
    weight_filler {
      type: "msra"
    }
  }
}
layer {
  name: "relu13_1"
  type: "ReLU"
  bottom: "conv13_1"
  top: "conv13_1"
}
layer {
  name: "conv13_2"
  type: "Convolution"
  bottom: "conv13_1"
  top: "conv13_2"
  param {
    lr_mult: 0.1
    decay_mult: 0.1
  }
  convolution_param {
    num_output: 85
    bias_term: false
    pad: 1
    kernel_size: 3
    stride: 2
    weight_filler {
      type: "msra"
    }
  }
}
layer {
  name: "fire4_norm"
  type: "Normalize"
  bottom: "fire4/concat"
  top: "fire4_norm"
  norm_param {
    across_spatial: false
    scale_filler {
      type: "constant"
      value: 20
    }
    channel_shared: false
  }
}
layer {
  name: "fire4_mbox_loc"
  type: "Convolution"
  bottom: "fire4_norm"
  top: "fire4_mbox_loc"
  param {
    lr_mult: 0.1
    decay_mult: 0.1
  }
  param {
    lr_mult: 0.2
    decay_mult: 0
  }
  convolution_param {
    num_output: 16
    pad: 1
    kernel_size: 3
    stride: 1
    weight_filler {
      type: "msra"
    }
    bias_filler {
      type: "constant"
      value: 0
    }
  }
}
layer {
  name: "fire4_mbox_loc_perm"
  type: "Permute"
  bottom: "fire4_mbox_loc"
  top: "fire4_mbox_loc_perm"
  permute_param {
    order: 0
    order: 2
    order: 3
    order: 1
  }
}
layer {
  name: "fire4_mbox_loc_flat"
  type: "Flatten"
  bottom: "fire4_mbox_loc_perm"
  top: "fire4_mbox_loc_flat"
  flatten_param {
    axis: 1
  }
}
layer {
  name: "fire4_mbox_conf"
  type: "Convolution"
  bottom: "fire4_norm"
  top: "fire4_mbox_conf"
  param {
    lr_mult: 1
    decay_mult: 1
  }
  param {
    lr_mult: 2
    decay_mult: 0
  }
  convolution_param {
    num_output: 28
    pad: 1
    kernel_size: 3
    stride: 1
    weight_filler {
      type: "msra"
    }
    bias_filler {
      type: "constant"
      value: 0
    }
  }
}
layer {
  name: "fire4_mbox_conf_perm"
  type: "Permute"
  bottom: "fire4_mbox_conf"
  top: "fire4_mbox_conf_perm"
  permute_param {
    order: 0
    order: 2
    order: 3
    order: 1
  }
}
layer {
  name: "fire4_mbox_conf_flat"
  type: "Flatten"
  bottom: "fire4_mbox_conf_perm"
  top: "fire4_mbox_conf_flat"
  flatten_param {
    axis: 1
  }
}
layer {
  name: "fire4_mbox_priorbox"
  type: "PriorBox"
  bottom: "fire4_norm"
  bottom: "data"
  top: "fire4_mbox_priorbox"
  prior_box_param {
    min_size: 30
    max_size: 60
    aspect_ratio: 2
    flip: true
    clip: false
    variance: 0.1
    variance: 0.1
    variance: 0.2
    variance: 0.2
    step: 8
    offset: 0.5
  }
}
layer {
  name: "fire8_norm"
  type: "Normalize"
  bottom: "fire8/concat"
  top: "fire8_norm"
  norm_param {
    across_spatial: false
    scale_filler {
      type: "constant"
      value: 20
    }
    channel_shared: false
  }
}
layer {
  name: "fire8_mbox_loc"
  type: "Convolution"
  bottom: "fire8_norm"
  top: "fire8_mbox_loc"
  param {
    lr_mult: 0.1
    decay_mult: 0.1
  }
  param {
    lr_mult: 0.2
    decay_mult: 0
  }
  convolution_param {
    num_output: 24
    pad: 1
    kernel_size: 3
    stride: 1
    weight_filler {
      type: "msra"
    }
    bias_filler {
      type: "constant"
      value: 0
    }
  }
}
layer {
  name: "fire8_mbox_loc_perm"
  type: "Permute"
  bottom: "fire8_mbox_loc"
  top: "fire8_mbox_loc_perm"
  permute_param {
    order: 0
    order: 2
    order: 3
    order: 1
  }
}
layer {
  name: "fire8_mbox_loc_flat"
  type: "Flatten"
  bottom: "fire8_mbox_loc_perm"
  top: "fire8_mbox_loc_flat"
  flatten_param {
    axis: 1
  }
}
layer {
  name: "fire8_mbox_conf"
  type: "Convolution"
  bottom: "fire8_norm"
  top: "fire8_mbox_conf"
  param {
    lr_mult: 1
    decay_mult: 1
  }
  param {
    lr_mult: 2
    decay_mult: 0
  }
  convolution_param {
    num_output: 42
    pad: 1
    kernel_size: 3
    stride: 1
    weight_filler {
      type: "msra"
    }
    bias_filler {
      type: "constant"
      value: 0
    }
  }
}
layer {
  name: "fire8_mbox_conf_perm"
  type: "Permute"
  bottom: "fire8_mbox_conf"
  top: "fire8_mbox_conf_perm"
  permute_param {
    order: 0
    order: 2
    order: 3
    order: 1
  }
}
layer {
  name: "fire8_mbox_conf_flat"
  type: "Flatten"
  bottom: "fire8_mbox_conf_perm"
  top: "fire8_mbox_conf_flat"
  flatten_param {
    axis: 1
  }
}
layer {
  name: "fire8_mbox_priorbox"
  type: "PriorBox"
  bottom: "fire8_norm"
  bottom: "data"
  top: "fire8_mbox_priorbox"
  prior_box_param {
    min_size: 60
    max_size: 111
    aspect_ratio: 2
    aspect_ratio: 3
    flip: true
    clip: false
    variance: 0.1
    variance: 0.1
    variance: 0.2
    variance: 0.2
    step: 16
    offset: 0.5
  }
}
layer {
  name: "fire9_mbox_loc"
  type: "Convolution"
  bottom: "fire9/concat"
  top: "fire9_mbox_loc"
  param {
    lr_mult: 0.1
    decay_mult: 0.1
  }
  param {
    lr_mult: 0.2
    decay_mult: 0
  }
  convolution_param {
    num_output: 24
    pad: 1
    kernel_size: 3
    stride: 1
    weight_filler {
      type: "msra"
    }
    bias_filler {
      type: "constant"
      value: 0
    }
  }
}
layer {
  name: "fire9_mbox_loc_perm"
  type: "Permute"
  bottom: "fire9_mbox_loc"
  top: "fire9_mbox_loc_perm"
  permute_param {
    order: 0
    order: 2
    order: 3
    order: 1
  }
}
layer {
  name: "fire9_mbox_loc_flat"
  type: "Flatten"
  bottom: "fire9_mbox_loc_perm"
  top: "fire9_mbox_loc_flat"
  flatten_param {
    axis: 1
  }
}
layer {
  name: "fire9_mbox_conf"
  type: "Convolution"
  bottom: "fire9/concat"
  top: "fire9_mbox_conf"
  param {
    lr_mult: 1
    decay_mult: 1
  }
  param {
    lr_mult: 2
    decay_mult: 0
  }
  convolution_param {
    num_output: 42
    pad: 1
    kernel_size: 3
    stride: 1
    weight_filler {
      type: "msra"
    }
    bias_filler {
      type: "constant"
      value: 0
    }
  }
}
layer {
  name: "fire9_mbox_conf_perm"
  type: "Permute"
  bottom: "fire9_mbox_conf"
  top: "fire9_mbox_conf_perm"
  permute_param {
    order: 0
    order: 2
    order: 3
    order: 1
  }
}
layer {
  name: "fire9_mbox_conf_flat"
  type: "Flatten"
  bottom: "fire9_mbox_conf_perm"
  top: "fire9_mbox_conf_flat"
  flatten_param {
    axis: 1
  }
}
layer {
  name: "fire9_mbox_priorbox"
  type: "PriorBox"
  bottom: "fire9/concat"
  bottom: "data"
  top: "fire9_mbox_priorbox"
  prior_box_param {
    min_size: 111
    max_size: 162
    aspect_ratio: 2
    aspect_ratio: 3
    flip: true
    clip: false
    variance: 0.1
    variance: 0.1
    variance: 0.2
    variance: 0.2
    step: 34
    offset: 0.5
  }
}
layer {
  name: "fire10_mbox_loc"
  type: "Convolution"
  bottom: "fire10/concat"
  top: "fire10_mbox_loc"
  param {
    lr_mult: 0.1
    decay_mult: 0.1
  }
  param {
    lr_mult: 0.2
    decay_mult: 0
  }
  convolution_param {
    num_output: 24
    pad: 1
    kernel_size: 3
    stride: 1
    weight_filler {
      type: "msra"
    }
    bias_filler {
      type: "constant"
      value: 0
    }
  }
}
layer {
  name: "fire10_mbox_loc_perm"
  type: "Permute"
  bottom: "fire10_mbox_loc"
  top: "fire10_mbox_loc_perm"
  permute_param {
    order: 0
    order: 2
    order: 3
    order: 1
  }
}
layer {
  name: "fire10_mbox_loc_flat"
  type: "Flatten"
  bottom: "fire10_mbox_loc_perm"
  top: "fire10_mbox_loc_flat"
  flatten_param {
    axis: 1
  }
}
layer {
  name: "fire10_mbox_conf"
  type: "Convolution"
  bottom: "fire10/concat"
  top: "fire10_mbox_conf"
  param {
    lr_mult: 1
    decay_mult: 1
  }
  param {
    lr_mult: 2
    decay_mult: 0
  }
  convolution_param {
    num_output: 42
    pad: 1
    kernel_size: 3
    stride: 1
    weight_filler {
      type: "msra"
    }
    bias_filler {
      type: "constant"
      value: 0
    }
  }
}
layer {
  name: "fire10_mbox_conf_perm"
  type: "Permute"
  bottom: "fire10_mbox_conf"
  top: "fire10_mbox_conf_perm"
  permute_param {
    order: 0
    order: 2
    order: 3
    order: 1
  }
}
layer {
  name: "fire10_mbox_conf_flat"
  type: "Flatten"
  bottom: "fire10_mbox_conf_perm"
  top: "fire10_mbox_conf_flat"
  flatten_param {
    axis: 1
  }
}
layer {
  name: "fire10_mbox_priorbox"
  type: "PriorBox"
  bottom: "fire10/concat"
  bottom: "data"
  top: "fire10_mbox_priorbox"
  prior_box_param {
    min_size: 162
    max_size: 213
    aspect_ratio: 2
    aspect_ratio: 3
    flip: true
    clip: false
    variance: 0.1
    variance: 0.1
    variance: 0.2
    variance: 0.2
    step: 75
    offset: 0.5
  }
}
layer {
  name: "conv12_2_mbox_loc"
  type: "Convolution"
  bottom: "conv12_2"
  top: "conv12_2_mbox_loc"
  param {
    lr_mult: 0.1
    decay_mult: 0.1
  }
  param {
    lr_mult: 0.2
    decay_mult: 0
  }
  convolution_param {
    num_output: 24
    pad: 1
    kernel_size: 3
    stride: 1
    weight_filler {
      type: "msra"
    }
    bias_filler {
      type: "constant"
      value: 0
    }
  }
}
layer {
  name: "conv12_2_mbox_loc_perm"
  type: "Permute"
  bottom: "conv12_2_mbox_loc"
  top: "conv12_2_mbox_loc_perm"
  permute_param {
    order: 0
    order: 2
    order: 3
    order: 1
  }
}
layer {
  name: "conv12_2_mbox_loc_flat"
  type: "Flatten"
  bottom: "conv12_2_mbox_loc_perm"
  top: "conv12_2_mbox_loc_flat"
  flatten_param {
    axis: 1
  }
}
layer {
  name: "conv12_2_mbox_conf"
  type: "Convolution"
  bottom: "conv12_2"
  top: "conv12_2_mbox_conf"
  param {
    lr_mult: 1
    decay_mult: 1
  }
  param {
    lr_mult: 2
    decay_mult: 0
  }
  convolution_param {
    num_output: 42
    pad: 1
    kernel_size: 3
    stride: 1
    weight_filler {
      type: "msra"
    }
    bias_filler {
      type: "constant"
      value: 0
    }
  }
}
layer {
  name: "conv12_2_mbox_conf_perm"
  type: "Permute"
  bottom: "conv12_2_mbox_conf"
  top: "conv12_2_mbox_conf_perm"
  permute_param {
    order: 0
    order: 2
    order: 3
    order: 1
  }
}
layer {
  name: "conv12_2_mbox_conf_flat"
  type: "Flatten"
  bottom: "conv12_2_mbox_conf_perm"
  top: "conv12_2_mbox_conf_flat"
  flatten_param {
    axis: 1
  }
}
layer {
  name: "conv12_2_mbox_priorbox"
  type: "PriorBox"
  bottom: "conv12_2"
  bottom: "data"
  top: "conv12_2_mbox_priorbox"
  prior_box_param {
    min_size: 213
    max_size: 264
    aspect_ratio: 2
    aspect_ratio: 3
    flip: true
    clip: false
    variance: 0.1
    variance: 0.1
    variance: 0.2
    variance: 0.2
    step: 150
    offset: 0.5
  }
}
layer {
  name: "conv13_2_mbox_loc"
  type: "Convolution"
  bottom: "conv13_2"
  top: "conv13_2_mbox_loc"
  param {
    lr_mult: 0.1
    decay_mult: 0.1
  }
  param {
    lr_mult: 0.2
    decay_mult: 0
  }
  convolution_param {
    num_output: 16
    pad: 1
    kernel_size: 3
    stride: 1
    weight_filler {
      type: "msra"
    }
    bias_filler {
      type: "constant"
      value: 0
    }
  }
}
layer {
  name: "conv13_2_mbox_loc_perm"
  type: "Permute"
  bottom: "conv13_2_mbox_loc"
  top: "conv13_2_mbox_loc_perm"
  permute_param {
    order: 0
    order: 2
    order: 3
    order: 1
  }
}
layer {
  name: "conv13_2_mbox_loc_flat"
  type: "Flatten"
  bottom: "conv13_2_mbox_loc_perm"
  top: "conv13_2_mbox_loc_flat"
  flatten_param {
    axis: 1
  }
}
layer {
  name: "conv13_2_mbox_conf"
  type: "Convolution"
  bottom: "conv13_2"
  top: "conv13_2_mbox_conf"
  param {
    lr_mult: 1
    decay_mult: 1
  }
  param {
    lr_mult: 2
    decay_mult: 0
  }
  convolution_param {
    num_output: 28
    pad: 1
    kernel_size: 3
    stride: 1
    weight_filler {
      type: "msra"
    }
    bias_filler {
      type: "constant"
      value: 0
    }
  }
}
layer {
  name: "conv13_2_mbox_conf_perm"
  type: "Permute"
  bottom: "conv13_2_mbox_conf"
  top: "conv13_2_mbox_conf_perm"
  permute_param {
    order: 0
    order: 2
    order: 3
    order: 1
  }
}
layer {
  name: "conv13_2_mbox_conf_flat"
  type: "Flatten"
  bottom: "conv13_2_mbox_conf_perm"
  top: "conv13_2_mbox_conf_flat"
  flatten_param {
    axis: 1
  }
}
layer {
  name: "conv13_2_mbox_priorbox"
  type: "PriorBox"
  bottom: "conv13_2"
  bottom: "data"
  top: "conv13_2_mbox_priorbox"
  prior_box_param {
    min_size: 264
    max_size: 315
    aspect_ratio: 2
    flip: true
    clip: false
    variance: 0.1
    variance: 0.1
    variance: 0.2
    variance: 0.2
    step: 300
    offset: 0.5
  }
}
layer {
  name: "mbox_loc"
  type: "Concat"
  bottom: "fire4_mbox_loc_flat"
  bottom: "fire8_mbox_loc_flat"
  bottom: "fire9_mbox_loc_flat"
  bottom: "fire10_mbox_loc_flat"
  bottom: "conv12_2_mbox_loc_flat"
  bottom: "conv13_2_mbox_loc_flat"
  top: "mbox_loc"
  concat_param {
    axis: 1
  }
}
layer {
  name: "mbox_conf"
  type: "Concat"
  bottom: "fire4_mbox_conf_flat"
  bottom: "fire8_mbox_conf_flat"
  bottom: "fire9_mbox_conf_flat"
  bottom: "fire10_mbox_conf_flat"
  bottom: "conv12_2_mbox_conf_flat"
  bottom: "conv13_2_mbox_conf_flat"
  top: "mbox_conf"
  concat_param {
    axis: 1
  }
}
layer {
  name: "mbox_priorbox"
  type: "Concat"
  bottom: "fire4_mbox_priorbox"
  bottom: "fire8_mbox_priorbox"
  bottom: "fire9_mbox_priorbox"
  bottom: "fire10_mbox_priorbox"
  bottom: "conv12_2_mbox_priorbox"
  bottom: "conv13_2_mbox_priorbox"
  top: "mbox_priorbox"
  concat_param {
    axis: 2
  }
}
layer {
  name: "mbox_conf_reshape"
  type: "Reshape"
  bottom: "mbox_conf"
  top: "mbox_conf_reshape"
  reshape_param {
    shape {
      dim: 0
      dim: -1
      dim: 7
    }
  }
}
layer {
  name: "mbox_conf_softmax"
  type: "Softmax"
  bottom: "mbox_conf_reshape"
  top: "mbox_conf_softmax"
  softmax_param {
    axis: 2
  }
}
layer {
  name: "mbox_conf_flatten"
  type: "Flatten"
  bottom: "mbox_conf_softmax"
  top: "mbox_conf_flatten"
  flatten_param {
    axis: 1
  }
}
layer {
  name: "detection_out"
  type: "DetectionOutput"
  bottom: "mbox_loc"
  bottom: "mbox_conf_flatten"
  bottom: "mbox_priorbox"
  top: "detection_out"
  include {
    phase: TEST
  }
  detection_output_param {
    num_classes: 7
    share_location: true
    background_label_id: 0
    nms_param {
      nms_threshold: 0.45
      top_k: 400
    }
    code_type: CENTER_SIZE
    keep_top_k: 200
    confidence_threshold: 0.01
  }
}
layer {
  name: "detection_eval"
  type: "DetectionEvaluate"
  bottom: "detection_out"
  bottom: "label"
  top: "detection_eval"
  include {
    phase: TEST
  }
  detection_evaluate_param {
    num_classes: 7
    background_label_id: 0
    overlap_threshold: 0.5
    evaluate_difficult_gt: false
  }
}
I0413 17:07:46.634723  9777 layer_factory.hpp:77] Creating layer data
I0413 17:07:46.634779  9777 net.cpp:100] Creating Layer data
I0413 17:07:46.634788  9777 net.cpp:408] data -> data
I0413 17:07:46.634798  9777 net.cpp:408] data -> label
I0413 17:07:46.635572  9803 db_lmdb.cpp:35] Opened lmdb test_lmdb/
I0413 17:07:46.637364  9777 annotated_data_layer.cpp:62] output data size: 2,3,300,300
I0413 17:07:46.641767  9777 net.cpp:150] Setting up data
I0413 17:07:46.641793  9777 net.cpp:157] Top shape: 2 3 300 300 (540000)
I0413 17:07:46.641798  9777 net.cpp:157] Top shape: 1 1 1 8 (8)
I0413 17:07:46.641801  9777 net.cpp:165] Memory required for data: 2160032
I0413 17:07:46.641808  9777 layer_factory.hpp:77] Creating layer data_data_0_split
I0413 17:07:46.641819  9777 net.cpp:100] Creating Layer data_data_0_split
I0413 17:07:46.641822  9777 net.cpp:434] data_data_0_split <- data
I0413 17:07:46.641829  9777 net.cpp:408] data_data_0_split -> data_data_0_split_0
…
I0413 17:07:46.689242  9777 net.cpp:408] fire9/squeeze1x1 -> fire9/squeeze1x1
I0413 17:07:46.690412  9777 net.cpp:150] Setting up fire9/squeeze1x1
I0413 17:07:46.690424  9777 net.cpp:157] Top shape: 2 37 9 9 (5994)
I0413 17:07:46.690428  9777 net.cpp:165] Memory required for data: 102676376
I0413 17:07:46.690434  9777 layer_factory.hpp:77] Creating layer fire9/relu_squeeze1x1
I0413 17:07:46.690440  9777 net.cpp:100] Creating Layer fire9/relu_squeeze1x1
I0413 17:07:46.690445  9777 net.cpp:434] fire9/relu_squeeze1x1 <- fire9/squeeze1x1
I0413 17:07:46.690450  9777 net.cpp:395] fire9/relu_squeeze1x1 -> fire9/squeeze1x1 (in-place)
I0413 17:07:46.690862  9777 net.cpp:150] Setting up fire9/relu_squeeze1x1
I0413 17:07:46.690873  9777 net.cpp:157] Top shape: 2 37 9 9 (5994)
I0413 17:07:46.690877  9777 net.cpp:165] Memory required for data: 102700352
I0413 17:07:46.690881  9777 layer_factory.hpp:77] Creating layer fire9/squeeze1x1_fire9/relu_squeeze1x1_0_split
I0413 17:07:46.690887  9777 net.cpp:100] Creating Layer fire9/squeeze1x1_fire9/relu_squeeze1x1_0_split
I0413 17:07:46.690892  9777 net.cpp:434] fire9/squeeze1x1_fire9/relu_squeeze1x1_0_split <- fire9/squeeze1x1
I0413 17:07:46.690912  9777 net.cpp:408] fire9/squeeze1x1_fire9/relu_squeeze1x1_0_split -> fire9/squeeze1x1_fire9/relu_squeeze1x1_0_split_0
I0413 17:07:46.690918  9777 net.cpp:408] fire9/squeeze1x1_fire9/relu_squeeze1x1_0_split -> fire9/squeeze1x1_fire9/relu_squeeze1x1_0_split_1
I0413 17:07:46.690969  9777 net.cpp:150] Setting up fire9/squeeze1x1_fire9/relu_squeeze1x1_0_split
I0413 17:07:46.690976  9777 net.cpp:157] Top shape: 2 37 9 9 (5994)
I0413 17:07:46.690981  9777 net.cpp:157] Top shape: 2 37 9 9 (5994)
I0413 17:07:46.690984  9777 net.cpp:165] Memory required for data: 102748304
I0413 17:07:46.690989  9777 layer_factory.hpp:77] Creating layer fire9/expand1x1
I0413 17:07:46.690995  9777 net.cpp:100] Creating Layer fire9/expand1x1
I0413 17:07:46.690999  9777 net.cpp:434] fire9/expand1x1 <- fire9/squeeze1x1_fire9/relu_squeeze1x1_0_split_0
I0413 17:07:46.691005  9777 net.cpp:408] fire9/expand1x1 -> fire9/expand1x1
I0413 17:07:46.692165  9777 net.cpp:150] Setting up fire9/expand1x1
I0413 17:07:46.692176  9777 net.cpp:157] Top shape: 2 45 9 9 (7290)
I0413 17:07:46.692180  9777 net.cpp:165] Memory required for data: 102777464
I0413 17:07:46.692188  9777 layer_factory.hpp:77] Creating layer fire9/relu_expand1x1
I0413 17:07:46.692193  9777 net.cpp:100] Creating Layer fire9/relu_expand1x1
I0413 17:07:46.692198  9777 net.cpp:434] fire9/relu_expand1x1 <- fire9/expand1x1
I0413 17:07:46.692203  9777 net.cpp:395] fire9/relu_expand1x1 -> fire9/expand1x1 (in-place)
I0413 17:07:46.692567  9777 net.cpp:150] Setting up fire9/relu_expand1x1
I0413 17:07:46.692579  9777 net.cpp:157] Top shape: 2 45 9 9 (7290)
I0413 17:07:46.692582  9777 net.cpp:165] Memory required for data: 102806624
I0413 17:07:46.692586  9777 layer_factory.hpp:77] Creating layer fire9/expand3x3
I0413 17:07:46.692593  9777 net.cpp:100] Creating Layer fire9/expand3x3
I0413 17:07:46.692600  9777 net.cpp:434] fire9/expand3x3 <- fire9/squeeze1x1_fire9/relu_squeeze1x1_0_split_1
I0413 17:07:46.692605  9777 net.cpp:408] fire9/expand3x3 -> fire9/expand3x3
I0413 17:07:46.693930  9777 net.cpp:150] Setting up fire9/expand3x3
I0413 17:07:46.693943  9777 net.cpp:157] Top shape: 2 56 9 9 (9072)
I0413 17:07:46.693945  9777 net.cpp:165] Memory required for data: 102842912
I0413 17:07:46.693951  9777 layer_factory.hpp:77] Creating layer fire9/relu_expand3x3
I0413 17:07:46.693958  9777 net.cpp:100] Creating Layer fire9/relu_expand3x3
I0413 17:07:46.693962  9777 net.cpp:434] fire9/relu_expand3x3 <- fire9/expand3x3
I0413 17:07:46.693967  9777 net.cpp:395] fire9/relu_expand3x3 -> fire9/expand3x3 (in-place)
I0413 17:07:46.694340  9777 net.cpp:150] Setting up fire9/relu_expand3x3
I0413 17:07:46.694351  9777 net.cpp:157] Top shape: 2 56 9 9 (9072)
I0413 17:07:46.694355  9777 net.cpp:165] Memory required for data: 102879200
I0413 17:07:46.694358  9777 layer_factory.hpp:77] Creating layer fire9/concat
I0413 17:07:46.694365  9777 net.cpp:100] Creating Layer fire9/concat
I0413 17:07:46.694370  9777 net.cpp:434] fire9/concat <- fire9/expand1x1
I0413 17:07:46.694375  9777 net.cpp:434] fire9/concat <- fire9/expand3x3
I0413 17:07:46.694380  9777 net.cpp:408] fire9/concat -> fire9/concat
I0413 17:07:46.694408  9777 net.cpp:150] Setting up fire9/concat
I0413 17:07:46.694414  9777 net.cpp:157] Top shape: 2 101 9 9 (16362)
I0413 17:07:46.694418  9777 net.cpp:165] Memory required for data: 102944648
I0413 17:07:46.694422  9777 layer_factory.hpp:77] Creating layer fire9/concat_fire9/concat_0_split
I0413 17:07:46.694428  9777 net.cpp:100] Creating Layer fire9/concat_fire9/concat_0_split
I0413 17:07:46.694432  9777 net.cpp:434] fire9/concat_fire9/concat_0_split <- fire9/concat
I0413 17:07:46.694437  9777 net.cpp:408] fire9/concat_fire9/concat_0_split -> fire9/concat_fire9/concat_0_split_0
I0413 17:07:46.694443  9777 net.cpp:408] fire9/concat_fire9/concat_0_split -> fire9/concat_fire9/concat_0_split_1
I0413 17:07:46.694449  9777 net.cpp:408] fire9/concat_fire9/concat_0_split -> fire9/concat_fire9/concat_0_split_2
I0413 17:07:46.694454  9777 net.cpp:408] fire9/concat_fire9/concat_0_split -> fire9/concat_fire9/concat_0_split_3
I0413 17:07:46.694540  9777 net.cpp:150] Setting up fire9/concat_fire9/concat_0_split
I0413 17:07:46.694547  9777 net.cpp:157] Top shape: 2 101 9 9 (16362)
I0413 17:07:46.694551  9777 net.cpp:157] Top shape: 2 101 9 9 (16362)
I0413 17:07:46.694555  9777 net.cpp:157] Top shape: 2 101 9 9 (16362)
I0413 17:07:46.694559  9777 net.cpp:157] Top shape: 2 101 9 9 (16362)
I0413 17:07:46.694562  9777 net.cpp:165] Memory required for data: 103206440
I0413 17:07:46.694566  9777 layer_factory.hpp:77] Creating layer pool10
I0413 17:07:46.694572  9777 net.cpp:100] Creating Layer pool10
I0413 17:07:46.694577  9777 net.cpp:434] pool10 <- fire9/concat_fire9/concat_0_split_0
I0413 17:07:46.694582  9777 net.cpp:408] pool10 -> pool10
I0413 17:07:46.694620  9777 net.cpp:150] Setting up pool10
I0413 17:07:46.694627  9777 net.cpp:157] Top shape: 2 101 4 4 (3232)
I0413 17:07:46.694630  9777 net.cpp:165] Memory required for data: 103219368
I0413 17:07:46.694634  9777 layer_factory.hpp:77] Creating layer fire10/squeeze1x1
I0413 17:07:46.694641  9777 net.cpp:100] Creating Layer fire10/squeeze1x1
I0413 17:07:46.694645  9777 net.cpp:434] fire10/squeeze1x1 <- pool10
I0413 17:07:46.694650  9777 net.cpp:408] fire10/squeeze1x1 -> fire10/squeeze1x1
I0413 17:07:46.695857  9777 net.cpp:150] Setting up fire10/squeeze1x1
I0413 17:07:46.695868  9777 net.cpp:157] Top shape: 2 38 4 4 (1216)
I0413 17:07:46.695873  9777 net.cpp:165] Memory required for data: 103224232
I0413 17:07:46.695878  9777 layer_factory.hpp:77] Creating layer fire10/relu_squeeze1x1
I0413 17:07:46.695884  9777 net.cpp:100] Creating Layer fire10/relu_squeeze1x1
I0413 17:07:46.695890  9777 net.cpp:434] fire10/relu_squeeze1x1 <- fire10/squeeze1x1
I0413 17:07:46.695894  9777 net.cpp:395] fire10/relu_squeeze1x1 -> fire10/squeeze1x1 (in-place)
I0413 17:07:46.696039  9777 net.cpp:150] Setting up fire10/relu_squeeze1x1
I0413 17:07:46.696048  9777 net.cpp:157] Top shape: 2 38 4 4 (1216)
I0413 17:07:46.696053  9777 net.cpp:165] Memory required for data: 103229096
I0413 17:07:46.696056  9777 layer_factory.hpp:77] Creating layer fire10/squeeze1x1_fire10/relu_squeeze1x1_0_split
I0413 17:07:46.696064  9777 net.cpp:100] Creating Layer fire10/squeeze1x1_fire10/relu_squeeze1x1_0_split
I0413 17:07:46.696069  9777 net.cpp:434] fire10/squeeze1x1_fire10/relu_squeeze1x1_0_split <- fire10/squeeze1x1
I0413 17:07:46.696074  9777 net.cpp:408] fire10/squeeze1x1_fire10/relu_squeeze1x1_0_split -> fire10/squeeze1x1_fire10/relu_squeeze1x1_0_split_0
I0413 17:07:46.696081  9777 net.cpp:408] fire10/squeeze1x1_fire10/relu_squeeze1x1_0_split -> fire10/squeeze1x1_fire10/relu_squeeze1x1_0_split_1
I0413 17:07:46.696123  9777 net.cpp:150] Setting up fire10/squeeze1x1_fire10/relu_squeeze1x1_0_split
I0413 17:07:46.696130  9777 net.cpp:157] Top shape: 2 38 4 4 (1216)
I0413 17:07:46.696133  9777 net.cpp:157] Top shape: 2 38 4 4 (1216)
I0413 17:07:46.696137  9777 net.cpp:165] Memory required for data: 103238824
I0413 17:07:46.696141  9777 layer_factory.hpp:77] Creating layer fire10/expand1x1
I0413 17:07:46.696153  9777 net.cpp:100] Creating Layer fire10/expand1x1
I0413 17:07:46.696157  9777 net.cpp:434] fire10/expand1x1 <- fire10/squeeze1x1_fire10/relu_squeeze1x1_0_split_0
I0413 17:07:46.696163  9777 net.cpp:408] fire10/expand1x1 -> fire10/expand1x1
I0413 17:07:46.697314  9777 net.cpp:150] Setting up fire10/expand1x1
I0413 17:07:46.697326  9777 net.cpp:157] Top shape: 2 41 4 4 (1312)
I0413 17:07:46.697330  9777 net.cpp:165] Memory required for data: 103244072
I0413 17:07:46.697336  9777 layer_factory.hpp:77] Creating layer fire10/relu_expand1x1
I0413 17:07:46.697342  9777 net.cpp:100] Creating Layer fire10/relu_expand1x1
I0413 17:07:46.697347  9777 net.cpp:434] fire10/relu_expand1x1 <- fire10/expand1x1
I0413 17:07:46.697352  9777 net.cpp:395] fire10/relu_expand1x1 -> fire10/expand1x1 (in-place)
I0413 17:07:46.697718  9777 net.cpp:150] Setting up fire10/relu_expand1x1
I0413 17:07:46.697729  9777 net.cpp:157] Top shape: 2 41 4 4 (1312)
I0413 17:07:46.697746  9777 net.cpp:165] Memory required for data: 103249320
I0413 17:07:46.697749  9777 layer_factory.hpp:77] Creating layer fire10/expand3x3
I0413 17:07:46.697757  9777 net.cpp:100] Creating Layer fire10/expand3x3
I0413 17:07:46.697762  9777 net.cpp:434] fire10/expand3x3 <- fire10/squeeze1x1_fire10/relu_squeeze1x1_0_split_1
I0413 17:07:46.697767  9777 net.cpp:408] fire10/expand3x3 -> fire10/expand3x3
I0413 17:07:46.699261  9777 net.cpp:150] Setting up fire10/expand3x3
I0413 17:07:46.699273  9777 net.cpp:157] Top shape: 2 44 4 4 (1408)
I0413 17:07:46.699277  9777 net.cpp:165] Memory required for data: 103254952
I0413 17:07:46.699285  9777 layer_factory.hpp:77] Creating layer fire10/relu_expand3x3
I0413 17:07:46.699296  9777 net.cpp:100] Creating Layer fire10/relu_expand3x3
I0413 17:07:46.699301  9777 net.cpp:434] fire10/relu_expand3x3 <- fire10/expand3x3
I0413 17:07:46.699306  9777 net.cpp:395] fire10/relu_expand3x3 -> fire10/expand3x3 (in-place)
I0413 17:07:46.699679  9777 net.cpp:150] Setting up fire10/relu_expand3x3
I0413 17:07:46.699690  9777 net.cpp:157] Top shape: 2 44 4 4 (1408)
I0413 17:07:46.699694  9777 net.cpp:165] Memory required for data: 103260584
I0413 17:07:46.699698  9777 layer_factory.hpp:77] Creating layer fire10/concat
I0413 17:07:46.699709  9777 net.cpp:100] Creating Layer fire10/concat
I0413 17:07:46.699714  9777 net.cpp:434] fire10/concat <- fire10/expand1x1
I0413 17:07:46.699719  9777 net.cpp:434] fire10/concat <- fire10/expand3x3
I0413 17:07:46.699724  9777 net.cpp:408] fire10/concat -> fire10/concat
I0413 17:07:46.699755  9777 net.cpp:150] Setting up fire10/concat
I0413 17:07:46.699761  9777 net.cpp:157] Top shape: 2 85 4 4 (2720)
I0413 17:07:46.699765  9777 net.cpp:165] Memory required for data: 103271464
I0413 17:07:46.699769  9777 layer_factory.hpp:77] Creating layer fire10/concat_fire10/concat_0_split
I0413 17:07:46.699775  9777 net.cpp:100] Creating Layer fire10/concat_fire10/concat_0_split
I0413 17:07:46.699779  9777 net.cpp:434] fire10/concat_fire10/concat_0_split <- fire10/concat
I0413 17:07:46.699784  9777 net.cpp:408] fire10/concat_fire10/concat_0_split -> fire10/concat_fire10/concat_0_split_0
I0413 17:07:46.699790  9777 net.cpp:408] fire10/concat_fire10/concat_0_split -> fire10/concat_fire10/concat_0_split_1
I0413 17:07:46.699796  9777 net.cpp:408] fire10/concat_fire10/concat_0_split -> fire10/concat_fire10/concat_0_split_2
I0413 17:07:46.699801  9777 net.cpp:408] fire10/concat_fire10/concat_0_split -> fire10/concat_fire10/concat_0_split_3
I0413 17:07:46.699874  9777 net.cpp:150] Setting up fire10/concat_fire10/concat_0_split
I0413 17:07:46.699882  9777 net.cpp:157] Top shape: 2 85 4 4 (2720)
I0413 17:07:46.699887  9777 net.cpp:157] Top shape: 2 85 4 4 (2720)
I0413 17:07:46.699892  9777 net.cpp:157] Top shape: 2 85 4 4 (2720)
I0413 17:07:46.699895  9777 net.cpp:157] Top shape: 2 85 4 4 (2720)
I0413 17:07:46.699906  9777 net.cpp:165] Memory required for data: 103314984
I0413 17:07:46.699910  9777 layer_factory.hpp:77] Creating layer conv12_1
I0413 17:07:46.699919  9777 net.cpp:100] Creating Layer conv12_1
I0413 17:07:46.699924  9777 net.cpp:434] conv12_1 <- fire10/concat_fire10/concat_0_split_0
I0413 17:07:46.699930  9777 net.cpp:408] conv12_1 -> conv12_1
I0413 17:07:46.702023  9777 net.cpp:150] Setting up conv12_1
I0413 17:07:46.702036  9777 net.cpp:157] Top shape: 2 51 4 4 (1632)
I0413 17:07:46.702040  9777 net.cpp:165] Memory required for data: 103321512
I0413 17:07:46.702047  9777 layer_factory.hpp:77] Creating layer relu122_1
I0413 17:07:46.702054  9777 net.cpp:100] Creating Layer relu122_1
I0413 17:07:46.702059  9777 net.cpp:434] relu122_1 <- conv12_1
I0413 17:07:46.702064  9777 net.cpp:395] relu122_1 -> conv12_1 (in-place)
I0413 17:07:46.702219  9777 net.cpp:150] Setting up relu122_1
I0413 17:07:46.702226  9777 net.cpp:157] Top shape: 2 51 4 4 (1632)
I0413 17:07:46.702230  9777 net.cpp:165] Memory required for data: 103328040
I0413 17:07:46.702234  9777 layer_factory.hpp:77] Creating layer conv12_2
I0413 17:07:46.702249  9777 net.cpp:100] Creating Layer conv12_2
I0413 17:07:46.702265  9777 net.cpp:434] conv12_2 <- conv12_1
I0413 17:07:46.702271  9777 net.cpp:408] conv12_2 -> conv12_2
I0413 17:07:46.703788  9777 net.cpp:150] Setting up conv12_2
I0413 17:07:46.703799  9777 net.cpp:157] Top shape: 2 46 2 2 (368)
I0413 17:07:46.703804  9777 net.cpp:165] Memory required for data: 103329512
I0413 17:07:46.703814  9777 layer_factory.hpp:77] Creating layer relu12_2
I0413 17:07:46.703821  9777 net.cpp:100] Creating Layer relu12_2
I0413 17:07:46.703825  9777 net.cpp:434] relu12_2 <- conv12_2
I0413 17:07:46.703830  9777 net.cpp:395] relu12_2 -> conv12_2 (in-place)
I0413 17:07:46.704210  9777 net.cpp:150] Setting up relu12_2
I0413 17:07:46.704221  9777 net.cpp:157] Top shape: 2 46 2 2 (368)
I0413 17:07:46.704226  9777 net.cpp:165] Memory required for data: 103330984
I0413 17:07:46.704229  9777 layer_factory.hpp:77] Creating layer conv12_2_relu12_2_0_split
I0413 17:07:46.704236  9777 net.cpp:100] Creating Layer conv12_2_relu12_2_0_split
I0413 17:07:46.704241  9777 net.cpp:434] conv12_2_relu12_2_0_split <- conv12_2
I0413 17:07:46.704246  9777 net.cpp:408] conv12_2_relu12_2_0_split -> conv12_2_relu12_2_0_split_0
I0413 17:07:46.704252  9777 net.cpp:408] conv12_2_relu12_2_0_split -> conv12_2_relu12_2_0_split_1
I0413 17:07:46.704257  9777 net.cpp:408] conv12_2_relu12_2_0_split -> conv12_2_relu12_2_0_split_2
I0413 17:07:46.704263  9777 net.cpp:408] conv12_2_relu12_2_0_split -> conv12_2_relu12_2_0_split_3
I0413 17:07:46.704344  9777 net.cpp:150] Setting up conv12_2_relu12_2_0_split
I0413 17:07:46.704350  9777 net.cpp:157] Top shape: 2 46 2 2 (368)
I0413 17:07:46.704355  9777 net.cpp:157] Top shape: 2 46 2 2 (368)
I0413 17:07:46.704360  9777 net.cpp:157] Top shape: 2 46 2 2 (368)
I0413 17:07:46.704363  9777 net.cpp:157] Top shape: 2 46 2 2 (368)
I0413 17:07:46.704366  9777 net.cpp:165] Memory required for data: 103336872
I0413 17:07:46.704370  9777 layer_factory.hpp:77] Creating layer conv13_1
I0413 17:07:46.704377  9777 net.cpp:100] Creating Layer conv13_1
I0413 17:07:46.704382  9777 net.cpp:434] conv13_1 <- conv12_2_relu12_2_0_split_0
I0413 17:07:46.704387  9777 net.cpp:408] conv13_1 -> conv13_1
I0413 17:07:46.705966  9777 net.cpp:150] Setting up conv13_1
I0413 17:07:46.705978  9777 net.cpp:157] Top shape: 2 55 2 2 (440)
I0413 17:07:46.705982  9777 net.cpp:165] Memory required for data: 103338632
I0413 17:07:46.705988  9777 layer_factory.hpp:77] Creating layer relu13_1
I0413 17:07:46.705994  9777 net.cpp:100] Creating Layer relu13_1
I0413 17:07:46.705998  9777 net.cpp:434] relu13_1 <- conv13_1
I0413 17:07:46.706003  9777 net.cpp:395] relu13_1 -> conv13_1 (in-place)
I0413 17:07:46.706157  9777 net.cpp:150] Setting up relu13_1
I0413 17:07:46.706166  9777 net.cpp:157] Top shape: 2 55 2 2 (440)
I0413 17:07:46.706169  9777 net.cpp:165] Memory required for data: 103340392
I0413 17:07:46.706173  9777 layer_factory.hpp:77] Creating layer conv13_2
I0413 17:07:46.706181  9777 net.cpp:100] Creating Layer conv13_2
I0413 17:07:46.706184  9777 net.cpp:434] conv13_2 <- conv13_1
I0413 17:07:46.706189  9777 net.cpp:408] conv13_2 -> conv13_2
I0413 17:07:46.707690  9777 net.cpp:150] Setting up conv13_2
I0413 17:07:46.707701  9777 net.cpp:157] Top shape: 2 85 1 1 (170)
I0413 17:07:46.707705  9777 net.cpp:165] Memory required for data: 103341072
I0413 17:07:46.707711  9777 layer_factory.hpp:77] Creating layer conv13_2_conv13_2_0_split
I0413 17:07:46.707717  9777 net.cpp:100] Creating Layer conv13_2_conv13_2_0_split
I0413 17:07:46.707722  9777 net.cpp:434] conv13_2_conv13_2_0_split <- conv13_2
I0413 17:07:46.707734  9777 net.cpp:408] conv13_2_conv13_2_0_split -> conv13_2_conv13_2_0_split_0
I0413 17:07:46.707741  9777 net.cpp:408] conv13_2_conv13_2_0_split -> conv13_2_conv13_2_0_split_1
I0413 17:07:46.707747  9777 net.cpp:408] conv13_2_conv13_2_0_split -> conv13_2_conv13_2_0_split_2
I0413 17:07:46.707800  9777 net.cpp:150] Setting up conv13_2_conv13_2_0_split
I0413 17:07:46.707806  9777 net.cpp:157] Top shape: 2 85 1 1 (170)
I0413 17:07:46.707810  9777 net.cpp:157] Top shape: 2 85 1 1 (170)
I0413 17:07:46.707814  9777 net.cpp:157] Top shape: 2 85 1 1 (170)
I0413 17:07:46.707828  9777 net.cpp:165] Memory required for data: 103343112
I0413 17:07:46.707832  9777 layer_factory.hpp:77] Creating layer fire4_norm
I0413 17:07:46.707839  9777 net.cpp:100] Creating Layer fire4_norm
I0413 17:07:46.707844  9777 net.cpp:434] fire4_norm <- fire4/concat_fire4/concat_0_split_1
I0413 17:07:46.707850  9777 net.cpp:408] fire4_norm -> fire4_norm
I0413 17:07:46.708063  9777 net.cpp:150] Setting up fire4_norm
I0413 17:07:46.708070  9777 net.cpp:157] Top shape: 2 173 37 37 (473674)
I0413 17:07:46.708083  9777 net.cpp:165] Memory required for data: 105237808
I0413 17:07:46.708087  9777 layer_factory.hpp:77] Creating layer fire4_norm_fire4_norm_0_split
I0413 17:07:46.708102  9777 net.cpp:100] Creating Layer fire4_norm_fire4_norm_0_split
I0413 17:07:46.708106  9777 net.cpp:434] fire4_norm_fire4_norm_0_split <- fire4_norm
I0413 17:07:46.708112  9777 net.cpp:408] fire4_norm_fire4_norm_0_split -> fire4_norm_fire4_norm_0_split_0
I0413 17:07:46.708117  9777 net.cpp:408] fire4_norm_fire4_norm_0_split -> fire4_norm_fire4_norm_0_split_1
I0413 17:07:46.708132  9777 net.cpp:408] fire4_norm_fire4_norm_0_split -> fire4_norm_fire4_norm_0_split_2
I0413 17:07:46.708212  9777 net.cpp:150] Setting up fire4_norm_fire4_norm_0_split
I0413 17:07:46.708220  9777 net.cpp:157] Top shape: 2 173 37 37 (473674)
I0413 17:07:46.708232  9777 net.cpp:157] Top shape: 2 173 37 37 (473674)
I0413 17:07:46.708236  9777 net.cpp:157] Top shape: 2 173 37 37 (473674)
I0413 17:07:46.708240  9777 net.cpp:165] Memory required for data: 110921896
I0413 17:07:46.708245  9777 layer_factory.hpp:77] Creating layer fire4_mbox_loc
I0413 17:07:46.708251  9777 net.cpp:100] Creating Layer fire4_mbox_loc
I0413 17:07:46.708256  9777 net.cpp:434] fire4_mbox_loc <- fire4_norm_fire4_norm_0_split_0
I0413 17:07:46.708261  9777 net.cpp:408] fire4_mbox_loc -> fire4_mbox_loc
I0413 17:07:46.710108  9777 net.cpp:150] Setting up fire4_mbox_loc
I0413 17:07:46.710120  9777 net.cpp:157] Top shape: 2 16 37 37 (43808)
I0413 17:07:46.710125  9777 net.cpp:165] Memory required for data: 111097128
I0413 17:07:46.710131  9777 layer_factory.hpp:77] Creating layer fire4_mbox_loc_perm
I0413 17:07:46.710139  9777 net.cpp:100] Creating Layer fire4_mbox_loc_perm
I0413 17:07:46.710144  9777 net.cpp:434] fire4_mbox_loc_perm <- fire4_mbox_loc
I0413 17:07:46.710150  9777 net.cpp:408] fire4_mbox_loc_perm -> fire4_mbox_loc_perm
I0413 17:07:46.710264  9777 net.cpp:150] Setting up fire4_mbox_loc_perm
I0413 17:07:46.710271  9777 net.cpp:157] Top shape: 2 37 37 16 (43808)
I0413 17:07:46.710274  9777 net.cpp:165] Memory required for data: 111272360
I0413 17:07:46.710278  9777 layer_factory.hpp:77] Creating layer fire4_mbox_loc_flat
I0413 17:07:46.710284  9777 net.cpp:100] Creating Layer fire4_mbox_loc_flat
I0413 17:07:46.710289  9777 net.cpp:434] fire4_mbox_loc_flat <- fire4_mbox_loc_perm
I0413 17:07:46.710294  9777 net.cpp:408] fire4_mbox_loc_flat -> fire4_mbox_loc_flat
I0413 17:07:46.710319  9777 net.cpp:150] Setting up fire4_mbox_loc_flat
I0413 17:07:46.710325  9777 net.cpp:157] Top shape: 2 21904 (43808)
I0413 17:07:46.710328  9777 net.cpp:165] Memory required for data: 111447592
I0413 17:07:46.710332  9777 layer_factory.hpp:77] Creating layer fire4_mbox_conf
I0413 17:07:46.710340  9777 net.cpp:100] Creating Layer fire4_mbox_conf
I0413 17:07:46.710345  9777 net.cpp:434] fire4_mbox_conf <- fire4_norm_fire4_norm_0_split_1
I0413 17:07:46.710350  9777 net.cpp:408] fire4_mbox_conf -> fire4_mbox_conf
I0413 17:07:46.712157  9777 net.cpp:150] Setting up fire4_mbox_conf
I0413 17:07:46.712168  9777 net.cpp:157] Top shape: 2 28 37 37 (76664)
I0413 17:07:46.712172  9777 net.cpp:165] Memory required for data: 111754248
I0413 17:07:46.712179  9777 layer_factory.hpp:77] Creating layer fire4_mbox_conf_perm
I0413 17:07:46.712186  9777 net.cpp:100] Creating Layer fire4_mbox_conf_perm
I0413 17:07:46.712191  9777 net.cpp:434] fire4_mbox_conf_perm <- fire4_mbox_conf
I0413 17:07:46.712196  9777 net.cpp:408] fire4_mbox_conf_perm -> fire4_mbox_conf_perm
I0413 17:07:46.712332  9777 net.cpp:150] Setting up fire4_mbox_conf_perm
I0413 17:07:46.712352  9777 net.cpp:157] Top shape: 2 37 37 28 (76664)
I0413 17:07:46.712355  9777 net.cpp:165] Memory required for data: 112060904
I0413 17:07:46.712359  9777 layer_factory.hpp:77] Creating layer fire4_mbox_conf_flat
I0413 17:07:46.712366  9777 net.cpp:100] Creating Layer fire4_mbox_conf_flat
I0413 17:07:46.712370  9777 net.cpp:434] fire4_mbox_conf_flat <- fire4_mbox_conf_perm
I0413 17:07:46.712376  9777 net.cpp:408] fire4_mbox_conf_flat -> fire4_mbox_conf_flat
I0413 17:07:46.712402  9777 net.cpp:150] Setting up fire4_mbox_conf_flat
I0413 17:07:46.712409  9777 net.cpp:157] Top shape: 2 38332 (76664)
I0413 17:07:46.712412  9777 net.cpp:165] Memory required for data: 112367560
I0413 17:07:46.712416  9777 layer_factory.hpp:77] Creating layer fire4_mbox_priorbox
I0413 17:07:46.712424  9777 net.cpp:100] Creating Layer fire4_mbox_priorbox
I0413 17:07:46.712427  9777 net.cpp:434] fire4_mbox_priorbox <- fire4_norm_fire4_norm_0_split_2
I0413 17:07:46.712432  9777 net.cpp:434] fire4_mbox_priorbox <- data_data_0_split_1
I0413 17:07:46.712445  9777 net.cpp:408] fire4_mbox_priorbox -> fire4_mbox_priorbox
I0413 17:07:46.712473  9777 net.cpp:150] Setting up fire4_mbox_priorbox
I0413 17:07:46.712481  9777 net.cpp:157] Top shape: 1 2 21904 (43808)
I0413 17:07:46.712483  9777 net.cpp:165] Memory required for data: 112542792
I0413 17:07:46.712487  9777 layer_factory.hpp:77] Creating layer fire8_norm
I0413 17:07:46.712493  9777 net.cpp:100] Creating Layer fire8_norm
I0413 17:07:46.712498  9777 net.cpp:434] fire8_norm <- fire8/concat_fire8/concat_0_split_1
I0413 17:07:46.712503  9777 net.cpp:408] fire8_norm -> fire8_norm
I0413 17:07:46.712692  9777 net.cpp:150] Setting up fire8_norm
I0413 17:07:46.712698  9777 net.cpp:157] Top shape: 2 83 18 18 (53784)
I0413 17:07:46.712702  9777 net.cpp:165] Memory required for data: 112757928
I0413 17:07:46.712707  9777 layer_factory.hpp:77] Creating layer fire8_norm_fire8_norm_0_split
I0413 17:07:46.712713  9777 net.cpp:100] Creating Layer fire8_norm_fire8_norm_0_split
I0413 17:07:46.712718  9777 net.cpp:434] fire8_norm_fire8_norm_0_split <- fire8_norm
I0413 17:07:46.712723  9777 net.cpp:408] fire8_norm_fire8_norm_0_split -> fire8_norm_fire8_norm_0_split_0
I0413 17:07:46.712728  9777 net.cpp:408] fire8_norm_fire8_norm_0_split -> fire8_norm_fire8_norm_0_split_1
I0413 17:07:46.712735  9777 net.cpp:408] fire8_norm_fire8_norm_0_split -> fire8_norm_fire8_norm_0_split_2
I0413 17:07:46.712791  9777 net.cpp:150] Setting up fire8_norm_fire8_norm_0_split
I0413 17:07:46.712798  9777 net.cpp:157] Top shape: 2 83 18 18 (53784)
I0413 17:07:46.712802  9777 net.cpp:157] Top shape: 2 83 18 18 (53784)
I0413 17:07:46.712806  9777 net.cpp:157] Top shape: 2 83 18 18 (53784)
I0413 17:07:46.712810  9777 net.cpp:165] Memory required for data: 113403336
I0413 17:07:46.712813  9777 layer_factory.hpp:77] Creating layer fire8_mbox_loc
I0413 17:07:46.712821  9777 net.cpp:100] Creating Layer fire8_mbox_loc
I0413 17:07:46.712826  9777 net.cpp:434] fire8_mbox_loc <- fire8_norm_fire8_norm_0_split_0
I0413 17:07:46.712831  9777 net.cpp:408] fire8_mbox_loc -> fire8_mbox_loc
I0413 17:07:46.714728  9777 net.cpp:150] Setting up fire8_mbox_loc
I0413 17:07:46.714745  9777 net.cpp:157] Top shape: 2 24 18 18 (15552)
I0413 17:07:46.714749  9777 net.cpp:165] Memory required for data: 113465544
I0413 17:07:46.714776  9777 layer_factory.hpp:77] Creating layer fire8_mbox_loc_perm
I0413 17:07:46.714800  9777 net.cpp:100] Creating Layer fire8_mbox_loc_perm
I0413 17:07:46.714805  9777 net.cpp:434] fire8_mbox_loc_perm <- fire8_mbox_loc
I0413 17:07:46.714812  9777 net.cpp:408] fire8_mbox_loc_perm -> fire8_mbox_loc_perm
I0413 17:07:46.714957  9777 net.cpp:150] Setting up fire8_mbox_loc_perm
I0413 17:07:46.714964  9777 net.cpp:157] Top shape: 2 18 18 24 (15552)
I0413 17:07:46.714979  9777 net.cpp:165] Memory required for data: 113527752
I0413 17:07:46.714983  9777 layer_factory.hpp:77] Creating layer fire8_mbox_loc_flat
I0413 17:07:46.714989  9777 net.cpp:100] Creating Layer fire8_mbox_loc_flat
I0413 17:07:46.715008  9777 net.cpp:434] fire8_mbox_loc_flat <- fire8_mbox_loc_perm
I0413 17:07:46.715015  9777 net.cpp:408] fire8_mbox_loc_flat -> fire8_mbox_loc_flat
I0413 17:07:46.715044  9777 net.cpp:150] Setting up fire8_mbox_loc_flat
I0413 17:07:46.715050  9777 net.cpp:157] Top shape: 2 7776 (15552)
I0413 17:07:46.715054  9777 net.cpp:165] Memory required for data: 113589960
I0413 17:07:46.715059  9777 layer_factory.hpp:77] Creating layer fire8_mbox_conf
I0413 17:07:46.715072  9777 net.cpp:100] Creating Layer fire8_mbox_conf
I0413 17:07:46.715077  9777 net.cpp:434] fire8_mbox_conf <- fire8_norm_fire8_norm_0_split_1
I0413 17:07:46.715083  9777 net.cpp:408] fire8_mbox_conf -> fire8_mbox_conf
I0413 17:07:46.717077  9777 net.cpp:150] Setting up fire8_mbox_conf
I0413 17:07:46.717095  9777 net.cpp:157] Top shape: 2 42 18 18 (27216)
I0413 17:07:46.717099  9777 net.cpp:165] Memory required for data: 113698824
I0413 17:07:46.717109  9777 layer_factory.hpp:77] Creating layer fire8_mbox_conf_perm
I0413 17:07:46.717118  9777 net.cpp:100] Creating Layer fire8_mbox_conf_perm
I0413 17:07:46.717124  9777 net.cpp:434] fire8_mbox_conf_perm <- fire8_mbox_conf
I0413 17:07:46.717133  9777 net.cpp:408] fire8_mbox_conf_perm -> fire8_mbox_conf_perm
I0413 17:07:46.717272  9777 net.cpp:150] Setting up fire8_mbox_conf_perm
I0413 17:07:46.717278  9777 net.cpp:157] Top shape: 2 18 18 42 (27216)
I0413 17:07:46.717283  9777 net.cpp:165] Memory required for data: 113807688
I0413 17:07:46.717286  9777 layer_factory.hpp:77] Creating layer fire8_mbox_conf_flat
I0413 17:07:46.717293  9777 net.cpp:100] Creating Layer fire8_mbox_conf_flat
I0413 17:07:46.717298  9777 net.cpp:434] fire8_mbox_conf_flat <- fire8_mbox_conf_perm
I0413 17:07:46.717304  9777 net.cpp:408] fire8_mbox_conf_flat -> fire8_mbox_conf_flat
I0413 17:07:46.717332  9777 net.cpp:150] Setting up fire8_mbox_conf_flat
I0413 17:07:46.717339  9777 net.cpp:157] Top shape: 2 13608 (27216)
I0413 17:07:46.717342  9777 net.cpp:165] Memory required for data: 113916552
I0413 17:07:46.717346  9777 layer_factory.hpp:77] Creating layer fire8_mbox_priorbox
I0413 17:07:46.717355  9777 net.cpp:100] Creating Layer fire8_mbox_priorbox
I0413 17:07:46.717360  9777 net.cpp:434] fire8_mbox_priorbox <- fire8_norm_fire8_norm_0_split_2
I0413 17:07:46.717365  9777 net.cpp:434] fire8_mbox_priorbox <- data_data_0_split_2
I0413 17:07:46.717370  9777 net.cpp:408] fire8_mbox_priorbox -> fire8_mbox_priorbox
I0413 17:07:46.717403  9777 net.cpp:150] Setting up fire8_mbox_priorbox
I0413 17:07:46.717411  9777 net.cpp:157] Top shape: 1 2 7776 (15552)
I0413 17:07:46.717414  9777 net.cpp:165] Memory required for data: 113978760
I0413 17:07:46.717418  9777 layer_factory.hpp:77] Creating layer fire9_mbox_loc
I0413 17:07:46.717437  9777 net.cpp:100] Creating Layer fire9_mbox_loc
I0413 17:07:46.717442  9777 net.cpp:434] fire9_mbox_loc <- fire9/concat_fire9/concat_0_split_1
I0413 17:07:46.717447  9777 net.cpp:408] fire9_mbox_loc -> fire9_mbox_loc
I0413 17:07:46.719673  9777 net.cpp:150] Setting up fire9_mbox_loc
I0413 17:07:46.719686  9777 net.cpp:157] Top shape: 2 24 9 9 (3888)
I0413 17:07:46.719691  9777 net.cpp:165] Memory required for data: 113994312
I0413 17:07:46.719698  9777 layer_factory.hpp:77] Creating layer fire9_mbox_loc_perm
I0413 17:07:46.719705  9777 net.cpp:100] Creating Layer fire9_mbox_loc_perm
I0413 17:07:46.719710  9777 net.cpp:434] fire9_mbox_loc_perm <- fire9_mbox_loc
I0413 17:07:46.719717  9777 net.cpp:408] fire9_mbox_loc_perm -> fire9_mbox_loc_perm
I0413 17:07:46.719847  9777 net.cpp:150] Setting up fire9_mbox_loc_perm
I0413 17:07:46.719854  9777 net.cpp:157] Top shape: 2 9 9 24 (3888)
I0413 17:07:46.719857  9777 net.cpp:165] Memory required for data: 114009864
I0413 17:07:46.719861  9777 layer_factory.hpp:77] Creating layer fire9_mbox_loc_flat
I0413 17:07:46.719866  9777 net.cpp:100] Creating Layer fire9_mbox_loc_flat
I0413 17:07:46.719871  9777 net.cpp:434] fire9_mbox_loc_flat <- fire9_mbox_loc_perm
I0413 17:07:46.719877  9777 net.cpp:408] fire9_mbox_loc_flat -> fire9_mbox_loc_flat
I0413 17:07:46.719900  9777 net.cpp:150] Setting up fire9_mbox_loc_flat
I0413 17:07:46.719921  9777 net.cpp:157] Top shape: 2 1944 (3888)
I0413 17:07:46.719924  9777 net.cpp:165] Memory required for data: 114025416
I0413 17:07:46.719928  9777 layer_factory.hpp:77] Creating layer fire9_mbox_conf
I0413 17:07:46.719936  9777 net.cpp:100] Creating Layer fire9_mbox_conf
I0413 17:07:46.719941  9777 net.cpp:434] fire9_mbox_conf <- fire9/concat_fire9/concat_0_split_2
I0413 17:07:46.719946  9777 net.cpp:408] fire9_mbox_conf -> fire9_mbox_conf
I0413 17:07:46.721735  9777 net.cpp:150] Setting up fire9_mbox_conf
I0413 17:07:46.721747  9777 net.cpp:157] Top shape: 2 42 9 9 (6804)
I0413 17:07:46.721751  9777 net.cpp:165] Memory required for data: 114052632
I0413 17:07:46.721758  9777 layer_factory.hpp:77] Creating layer fire9_mbox_conf_perm
I0413 17:07:46.721765  9777 net.cpp:100] Creating Layer fire9_mbox_conf_perm
I0413 17:07:46.721771  9777 net.cpp:434] fire9_mbox_conf_perm <- fire9_mbox_conf
I0413 17:07:46.721784  9777 net.cpp:408] fire9_mbox_conf_perm -> fire9_mbox_conf_perm
I0413 17:07:46.721918  9777 net.cpp:150] Setting up fire9_mbox_conf_perm
I0413 17:07:46.721935  9777 net.cpp:157] Top shape: 2 9 9 42 (6804)
I0413 17:07:46.721938  9777 net.cpp:165] Memory required for data: 114079848
I0413 17:07:46.721941  9777 layer_factory.hpp:77] Creating layer fire9_mbox_conf_flat
I0413 17:07:46.721946  9777 net.cpp:100] Creating Layer fire9_mbox_conf_flat
I0413 17:07:46.721952  9777 net.cpp:434] fire9_mbox_conf_flat <- fire9_mbox_conf_perm
I0413 17:07:46.721961  9777 net.cpp:408] fire9_mbox_conf_flat -> fire9_mbox_conf_flat
I0413 17:07:46.722000  9777 net.cpp:150] Setting up fire9_mbox_conf_flat
I0413 17:07:46.722018  9777 net.cpp:157] Top shape: 2 3402 (6804)
I0413 17:07:46.722023  9777 net.cpp:165] Memory required for data: 114107064
I0413 17:07:46.722029  9777 layer_factory.hpp:77] Creating layer fire9_mbox_priorbox
I0413 17:07:46.722039  9777 net.cpp:100] Creating Layer fire9_mbox_priorbox
I0413 17:07:46.722045  9777 net.cpp:434] fire9_mbox_priorbox <- fire9/concat_fire9/concat_0_split_3
I0413 17:07:46.722062  9777 net.cpp:434] fire9_mbox_priorbox <- data_data_0_split_3
I0413 17:07:46.722080  9777 net.cpp:408] fire9_mbox_priorbox -> fire9_mbox_priorbox
I0413 17:07:46.722118  9777 net.cpp:150] Setting up fire9_mbox_priorbox
I0413 17:07:46.722124  9777 net.cpp:157] Top shape: 1 2 1944 (3888)
I0413 17:07:46.722137  9777 net.cpp:165] Memory required for data: 114122616
I0413 17:07:46.722141  9777 layer_factory.hpp:77] Creating layer fire10_mbox_loc
I0413 17:07:46.722149  9777 net.cpp:100] Creating Layer fire10_mbox_loc
I0413 17:07:46.722154  9777 net.cpp:434] fire10_mbox_loc <- fire10/concat_fire10/concat_0_split_1
I0413 17:07:46.722163  9777 net.cpp:408] fire10_mbox_loc -> fire10_mbox_loc
I0413 17:07:46.723572  9777 net.cpp:150] Setting up fire10_mbox_loc
I0413 17:07:46.723582  9777 net.cpp:157] Top shape: 2 24 4 4 (768)
I0413 17:07:46.723597  9777 net.cpp:165] Memory required for data: 114125688
I0413 17:07:46.723603  9777 layer_factory.hpp:77] Creating layer fire10_mbox_loc_perm
I0413 17:07:46.723639  9777 net.cpp:100] Creating Layer fire10_mbox_loc_perm
I0413 17:07:46.723644  9777 net.cpp:434] fire10_mbox_loc_perm <- fire10_mbox_loc
I0413 17:07:46.723660  9777 net.cpp:408] fire10_mbox_loc_perm -> fire10_mbox_loc_perm
I0413 17:07:46.723804  9777 net.cpp:150] Setting up fire10_mbox_loc_perm
I0413 17:07:46.723814  9777 net.cpp:157] Top shape: 2 4 4 24 (768)
I0413 17:07:46.723819  9777 net.cpp:165] Memory required for data: 114128760
I0413 17:07:46.723824  9777 layer_factory.hpp:77] Creating layer fire10_mbox_loc_flat
I0413 17:07:46.723832  9777 net.cpp:100] Creating Layer fire10_mbox_loc_flat
I0413 17:07:46.723839  9777 net.cpp:434] fire10_mbox_loc_flat <- fire10_mbox_loc_perm
I0413 17:07:46.723846  9777 net.cpp:408] fire10_mbox_loc_flat -> fire10_mbox_loc_flat
I0413 17:07:46.723875  9777 net.cpp:150] Setting up fire10_mbox_loc_flat
I0413 17:07:46.723883  9777 net.cpp:157] Top shape: 2 384 (768)
I0413 17:07:46.723887  9777 net.cpp:165] Memory required for data: 114131832
I0413 17:07:46.723904  9777 layer_factory.hpp:77] Creating layer fire10_mbox_conf
I0413 17:07:46.723915  9777 net.cpp:100] Creating Layer fire10_mbox_conf
I0413 17:07:46.723922  9777 net.cpp:434] fire10_mbox_conf <- fire10/concat_fire10/concat_0_split_2
I0413 17:07:46.723929  9777 net.cpp:408] fire10_mbox_conf -> fire10_mbox_conf
I0413 17:07:46.725661  9777 net.cpp:150] Setting up fire10_mbox_conf
I0413 17:07:46.725674  9777 net.cpp:157] Top shape: 2 42 4 4 (1344)
I0413 17:07:46.725680  9777 net.cpp:165] Memory required for data: 114137208
I0413 17:07:46.725690  9777 layer_factory.hpp:77] Creating layer fire10_mbox_conf_perm
I0413 17:07:46.725697  9777 net.cpp:100] Creating Layer fire10_mbox_conf_perm
I0413 17:07:46.725703  9777 net.cpp:434] fire10_mbox_conf_perm <- fire10_mbox_conf
I0413 17:07:46.725721  9777 net.cpp:408] fire10_mbox_conf_perm -> fire10_mbox_conf_perm
I0413 17:07:46.725868  9777 net.cpp:150] Setting up fire10_mbox_conf_perm
I0413 17:07:46.725877  9777 net.cpp:157] Top shape: 2 4 4 42 (1344)
I0413 17:07:46.725889  9777 net.cpp:165] Memory required for data: 114142584
I0413 17:07:46.725893  9777 layer_factory.hpp:77] Creating layer fire10_mbox_conf_flat
I0413 17:07:46.725899  9777 net.cpp:100] Creating Layer fire10_mbox_conf_flat
I0413 17:07:46.725905  9777 net.cpp:434] fire10_mbox_conf_flat <- fire10_mbox_conf_perm
I0413 17:07:46.725921  9777 net.cpp:408] fire10_mbox_conf_flat -> fire10_mbox_conf_flat
I0413 17:07:46.725950  9777 net.cpp:150] Setting up fire10_mbox_conf_flat
I0413 17:07:46.725957  9777 net.cpp:157] Top shape: 2 672 (1344)
I0413 17:07:46.725962  9777 net.cpp:165] Memory required for data: 114147960
I0413 17:07:46.725967  9777 layer_factory.hpp:77] Creating layer fire10_mbox_priorbox
I0413 17:07:46.725975  9777 net.cpp:100] Creating Layer fire10_mbox_priorbox
I0413 17:07:46.725991  9777 net.cpp:434] fire10_mbox_priorbox <- fire10/concat_fire10/concat_0_split_3
I0413 17:07:46.725997  9777 net.cpp:434] fire10_mbox_priorbox <- data_data_0_split_4
I0413 17:07:46.726003  9777 net.cpp:408] fire10_mbox_priorbox -> fire10_mbox_priorbox
I0413 17:07:46.726040  9777 net.cpp:150] Setting up fire10_mbox_priorbox
I0413 17:07:46.726047  9777 net.cpp:157] Top shape: 1 2 384 (768)
I0413 17:07:46.726059  9777 net.cpp:165] Memory required for data: 114151032
I0413 17:07:46.726063  9777 layer_factory.hpp:77] Creating layer conv12_2_mbox_loc
I0413 17:07:46.726070  9777 net.cpp:100] Creating Layer conv12_2_mbox_loc
I0413 17:07:46.726075  9777 net.cpp:434] conv12_2_mbox_loc <- conv12_2_relu12_2_0_split_1
I0413 17:07:46.726083  9777 net.cpp:408] conv12_2_mbox_loc -> conv12_2_mbox_loc
I0413 17:07:46.727854  9777 net.cpp:150] Setting up conv12_2_mbox_loc
I0413 17:07:46.727869  9777 net.cpp:157] Top shape: 2 24 2 2 (192)
I0413 17:07:46.727874  9777 net.cpp:165] Memory required for data: 114151800
I0413 17:07:46.727885  9777 layer_factory.hpp:77] Creating layer conv12_2_mbox_loc_perm
I0413 17:07:46.727893  9777 net.cpp:100] Creating Layer conv12_2_mbox_loc_perm
I0413 17:07:46.727898  9777 net.cpp:434] conv12_2_mbox_loc_perm <- conv12_2_mbox_loc
I0413 17:07:46.727906  9777 net.cpp:408] conv12_2_mbox_loc_perm -> conv12_2_mbox_loc_perm
I0413 17:07:46.728031  9777 net.cpp:150] Setting up conv12_2_mbox_loc_perm
I0413 17:07:46.728040  9777 net.cpp:157] Top shape: 2 2 2 24 (192)
I0413 17:07:46.728045  9777 net.cpp:165] Memory required for data: 114152568
I0413 17:07:46.728051  9777 layer_factory.hpp:77] Creating layer conv12_2_mbox_loc_flat
I0413 17:07:46.728060  9777 net.cpp:100] Creating Layer conv12_2_mbox_loc_flat
I0413 17:07:46.728065  9777 net.cpp:434] conv12_2_mbox_loc_flat <- conv12_2_mbox_loc_perm
I0413 17:07:46.728077  9777 net.cpp:408] conv12_2_mbox_loc_flat -> conv12_2_mbox_loc_flat
I0413 17:07:46.728106  9777 net.cpp:150] Setting up conv12_2_mbox_loc_flat
I0413 17:07:46.728114  9777 net.cpp:157] Top shape: 2 96 (192)
I0413 17:07:46.728119  9777 net.cpp:165] Memory required for data: 114153336
I0413 17:07:46.728126  9777 layer_factory.hpp:77] Creating layer conv12_2_mbox_conf
I0413 17:07:46.728134  9777 net.cpp:100] Creating Layer conv12_2_mbox_conf
I0413 17:07:46.728153  9777 net.cpp:434] conv12_2_mbox_conf <- conv12_2_relu12_2_0_split_2
I0413 17:07:46.728159  9777 net.cpp:408] conv12_2_mbox_conf -> conv12_2_mbox_conf
I0413 17:07:46.729768  9777 net.cpp:150] Setting up conv12_2_mbox_conf
I0413 17:07:46.729780  9777 net.cpp:157] Top shape: 2 42 2 2 (336)
I0413 17:07:46.729784  9777 net.cpp:165] Memory required for data: 114154680
I0413 17:07:46.729791  9777 layer_factory.hpp:77] Creating layer conv12_2_mbox_conf_perm
I0413 17:07:46.729797  9777 net.cpp:100] Creating Layer conv12_2_mbox_conf_perm
I0413 17:07:46.729802  9777 net.cpp:434] conv12_2_mbox_conf_perm <- conv12_2_mbox_conf
I0413 17:07:46.729809  9777 net.cpp:408] conv12_2_mbox_conf_perm -> conv12_2_mbox_conf_perm
I0413 17:07:46.729928  9777 net.cpp:150] Setting up conv12_2_mbox_conf_perm
I0413 17:07:46.729933  9777 net.cpp:157] Top shape: 2 2 2 42 (336)
I0413 17:07:46.729938  9777 net.cpp:165] Memory required for data: 114156024
I0413 17:07:46.729941  9777 layer_factory.hpp:77] Creating layer conv12_2_mbox_conf_flat
I0413 17:07:46.729950  9777 net.cpp:100] Creating Layer conv12_2_mbox_conf_flat
I0413 17:07:46.729956  9777 net.cpp:434] conv12_2_mbox_conf_flat <- conv12_2_mbox_conf_perm
I0413 17:07:46.729964  9777 net.cpp:408] conv12_2_mbox_conf_flat -> conv12_2_mbox_conf_flat
I0413 17:07:46.729992  9777 net.cpp:150] Setting up conv12_2_mbox_conf_flat
I0413 17:07:46.730000  9777 net.cpp:157] Top shape: 2 168 (336)
I0413 17:07:46.730005  9777 net.cpp:165] Memory required for data: 114157368
I0413 17:07:46.730010  9777 layer_factory.hpp:77] Creating layer conv12_2_mbox_priorbox
I0413 17:07:46.730018  9777 net.cpp:100] Creating Layer conv12_2_mbox_priorbox
I0413 17:07:46.730024  9777 net.cpp:434] conv12_2_mbox_priorbox <- conv12_2_relu12_2_0_split_3
I0413 17:07:46.730031  9777 net.cpp:434] conv12_2_mbox_priorbox <- data_data_0_split_5
I0413 17:07:46.730038  9777 net.cpp:408] conv12_2_mbox_priorbox -> conv12_2_mbox_priorbox
I0413 17:07:46.730075  9777 net.cpp:150] Setting up conv12_2_mbox_priorbox
I0413 17:07:46.730083  9777 net.cpp:157] Top shape: 1 2 96 (192)
I0413 17:07:46.730088  9777 net.cpp:165] Memory required for data: 114158136
I0413 17:07:46.730094  9777 layer_factory.hpp:77] Creating layer conv13_2_mbox_loc
I0413 17:07:46.730104  9777 net.cpp:100] Creating Layer conv13_2_mbox_loc
I0413 17:07:46.730110  9777 net.cpp:434] conv13_2_mbox_loc <- conv13_2_conv13_2_0_split_0
I0413 17:07:46.730118  9777 net.cpp:408] conv13_2_mbox_loc -> conv13_2_mbox_loc
I0413 17:07:46.731928  9777 net.cpp:150] Setting up conv13_2_mbox_loc
I0413 17:07:46.731942  9777 net.cpp:157] Top shape: 2 16 1 1 (32)
I0413 17:07:46.731948  9777 net.cpp:165] Memory required for data: 114158264
I0413 17:07:46.731958  9777 layer_factory.hpp:77] Creating layer conv13_2_mbox_loc_perm
I0413 17:07:46.731966  9777 net.cpp:100] Creating Layer conv13_2_mbox_loc_perm
I0413 17:07:46.731972  9777 net.cpp:434] conv13_2_mbox_loc_perm <- conv13_2_mbox_loc
I0413 17:07:46.731979  9777 net.cpp:408] conv13_2_mbox_loc_perm -> conv13_2_mbox_loc_perm
I0413 17:07:46.732111  9777 net.cpp:150] Setting up conv13_2_mbox_loc_perm
I0413 17:07:46.732120  9777 net.cpp:157] Top shape: 2 1 1 16 (32)
I0413 17:07:46.732125  9777 net.cpp:165] Memory required for data: 114158392
I0413 17:07:46.732131  9777 layer_factory.hpp:77] Creating layer conv13_2_mbox_loc_flat
I0413 17:07:46.732139  9777 net.cpp:100] Creating Layer conv13_2_mbox_loc_flat
I0413 17:07:46.732146  9777 net.cpp:434] conv13_2_mbox_loc_flat <- conv13_2_mbox_loc_perm
I0413 17:07:46.732152  9777 net.cpp:408] conv13_2_mbox_loc_flat -> conv13_2_mbox_loc_flat
I0413 17:07:46.732180  9777 net.cpp:150] Setting up conv13_2_mbox_loc_flat
I0413 17:07:46.732187  9777 net.cpp:157] Top shape: 2 16 (32)
I0413 17:07:46.732193  9777 net.cpp:165] Memory required for data: 114158520
I0413 17:07:46.732199  9777 layer_factory.hpp:77] Creating layer conv13_2_mbox_conf
I0413 17:07:46.732208  9777 net.cpp:100] Creating Layer conv13_2_mbox_conf
I0413 17:07:46.732213  9777 net.cpp:434] conv13_2_mbox_conf <- conv13_2_conv13_2_0_split_1
I0413 17:07:46.732230  9777 net.cpp:408] conv13_2_mbox_conf -> conv13_2_mbox_conf
I0413 17:07:46.733894  9777 net.cpp:150] Setting up conv13_2_mbox_conf
I0413 17:07:46.733906  9777 net.cpp:157] Top shape: 2 28 1 1 (56)
I0413 17:07:46.733911  9777 net.cpp:165] Memory required for data: 114158744
I0413 17:07:46.733918  9777 layer_factory.hpp:77] Creating layer conv13_2_mbox_conf_perm
I0413 17:07:46.733937  9777 net.cpp:100] Creating Layer conv13_2_mbox_conf_perm
I0413 17:07:46.733943  9777 net.cpp:434] conv13_2_mbox_conf_perm <- conv13_2_mbox_conf
I0413 17:07:46.733952  9777 net.cpp:408] conv13_2_mbox_conf_perm -> conv13_2_mbox_conf_perm
I0413 17:07:46.734082  9777 net.cpp:150] Setting up conv13_2_mbox_conf_perm
I0413 17:07:46.734091  9777 net.cpp:157] Top shape: 2 1 1 28 (56)
I0413 17:07:46.734096  9777 net.cpp:165] Memory required for data: 114158968
I0413 17:07:46.734102  9777 layer_factory.hpp:77] Creating layer conv13_2_mbox_conf_flat
I0413 17:07:46.734108  9777 net.cpp:100] Creating Layer conv13_2_mbox_conf_flat
I0413 17:07:46.734114  9777 net.cpp:434] conv13_2_mbox_conf_flat <- conv13_2_mbox_conf_perm
I0413 17:07:46.734119  9777 net.cpp:408] conv13_2_mbox_conf_flat -> conv13_2_mbox_conf_flat
I0413 17:07:46.734145  9777 net.cpp:150] Setting up conv13_2_mbox_conf_flat
I0413 17:07:46.734151  9777 net.cpp:157] Top shape: 2 28 (56)
I0413 17:07:46.734154  9777 net.cpp:165] Memory required for data: 114159192
I0413 17:07:46.734158  9777 layer_factory.hpp:77] Creating layer conv13_2_mbox_priorbox
I0413 17:07:46.734170  9777 net.cpp:100] Creating Layer conv13_2_mbox_priorbox
I0413 17:07:46.734174  9777 net.cpp:434] conv13_2_mbox_priorbox <- conv13_2_conv13_2_0_split_2
I0413 17:07:46.734179  9777 net.cpp:434] conv13_2_mbox_priorbox <- data_data_0_split_6
I0413 17:07:46.734184  9777 net.cpp:408] conv13_2_mbox_priorbox -> conv13_2_mbox_priorbox
I0413 17:07:46.734210  9777 net.cpp:150] Setting up conv13_2_mbox_priorbox
I0413 17:07:46.734216  9777 net.cpp:157] Top shape: 1 2 16 (32)
I0413 17:07:46.734220  9777 net.cpp:165] Memory required for data: 114159320
I0413 17:07:46.734223  9777 layer_factory.hpp:77] Creating layer mbox_loc
I0413 17:07:46.734230  9777 net.cpp:100] Creating Layer mbox_loc
I0413 17:07:46.734235  9777 net.cpp:434] mbox_loc <- fire4_mbox_loc_flat
I0413 17:07:46.734239  9777 net.cpp:434] mbox_loc <- fire8_mbox_loc_flat
I0413 17:07:46.734243  9777 net.cpp:434] mbox_loc <- fire9_mbox_loc_flat
I0413 17:07:46.734248  9777 net.cpp:434] mbox_loc <- fire10_mbox_loc_flat
I0413 17:07:46.734252  9777 net.cpp:434] mbox_loc <- conv12_2_mbox_loc_flat
I0413 17:07:46.734258  9777 net.cpp:434] mbox_loc <- conv13_2_mbox_loc_flat
I0413 17:07:46.734266  9777 net.cpp:408] mbox_loc -> mbox_loc
I0413 17:07:46.734295  9777 net.cpp:150] Setting up mbox_loc
I0413 17:07:46.734302  9777 net.cpp:157] Top shape: 2 32120 (64240)
I0413 17:07:46.734308  9777 net.cpp:165] Memory required for data: 114416280
I0413 17:07:46.734313  9777 layer_factory.hpp:77] Creating layer mbox_conf
I0413 17:07:46.734328  9777 net.cpp:100] Creating Layer mbox_conf
I0413 17:07:46.734333  9777 net.cpp:434] mbox_conf <- fire4_mbox_conf_flat
I0413 17:07:46.734339  9777 net.cpp:434] mbox_conf <- fire8_mbox_conf_flat
I0413 17:07:46.734345  9777 net.cpp:434] mbox_conf <- fire9_mbox_conf_flat
I0413 17:07:46.734351  9777 net.cpp:434] mbox_conf <- fire10_mbox_conf_flat
I0413 17:07:46.734357  9777 net.cpp:434] mbox_conf <- conv12_2_mbox_conf_flat
I0413 17:07:46.734364  9777 net.cpp:434] mbox_conf <- conv13_2_mbox_conf_flat
I0413 17:07:46.734370  9777 net.cpp:408] mbox_conf -> mbox_conf
I0413 17:07:46.734403  9777 net.cpp:150] Setting up mbox_conf
I0413 17:07:46.734411  9777 net.cpp:157] Top shape: 2 56210 (112420)
I0413 17:07:46.734416  9777 net.cpp:165] Memory required for data: 114865960
I0413 17:07:46.734421  9777 layer_factory.hpp:77] Creating layer mbox_priorbox
I0413 17:07:46.734428  9777 net.cpp:100] Creating Layer mbox_priorbox
I0413 17:07:46.734434  9777 net.cpp:434] mbox_priorbox <- fire4_mbox_priorbox
I0413 17:07:46.734450  9777 net.cpp:434] mbox_priorbox <- fire8_mbox_priorbox
I0413 17:07:46.734457  9777 net.cpp:434] mbox_priorbox <- fire9_mbox_priorbox
I0413 17:07:46.734462  9777 net.cpp:434] mbox_priorbox <- fire10_mbox_priorbox
I0413 17:07:46.734468  9777 net.cpp:434] mbox_priorbox <- conv12_2_mbox_priorbox
I0413 17:07:46.734473  9777 net.cpp:434] mbox_priorbox <- conv13_2_mbox_priorbox
I0413 17:07:46.734480  9777 net.cpp:408] mbox_priorbox -> mbox_priorbox
I0413 17:07:46.734515  9777 net.cpp:150] Setting up mbox_priorbox
I0413 17:07:46.734524  9777 net.cpp:157] Top shape: 1 2 32120 (64240)
I0413 17:07:46.734529  9777 net.cpp:165] Memory required for data: 115122920
I0413 17:07:46.734534  9777 layer_factory.hpp:77] Creating layer mbox_conf_reshape
I0413 17:07:46.734542  9777 net.cpp:100] Creating Layer mbox_conf_reshape
I0413 17:07:46.734547  9777 net.cpp:434] mbox_conf_reshape <- mbox_conf
I0413 17:07:46.734555  9777 net.cpp:408] mbox_conf_reshape -> mbox_conf_reshape
I0413 17:07:46.734589  9777 net.cpp:150] Setting up mbox_conf_reshape
I0413 17:07:46.734597  9777 net.cpp:157] Top shape: 2 8030 7 (112420)
I0413 17:07:46.734602  9777 net.cpp:165] Memory required for data: 115572600
I0413 17:07:46.734608  9777 layer_factory.hpp:77] Creating layer mbox_conf_softmax
I0413 17:07:46.734616  9777 net.cpp:100] Creating Layer mbox_conf_softmax
I0413 17:07:46.734622  9777 net.cpp:434] mbox_conf_softmax <- mbox_conf_reshape
I0413 17:07:46.734627  9777 net.cpp:408] mbox_conf_softmax -> mbox_conf_softmax
I0413 17:07:46.735091  9777 net.cpp:150] Setting up mbox_conf_softmax
I0413 17:07:46.735103  9777 net.cpp:157] Top shape: 2 8030 7 (112420)
I0413 17:07:46.735110  9777 net.cpp:165] Memory required for data: 116022280
I0413 17:07:46.735116  9777 layer_factory.hpp:77] Creating layer mbox_conf_flatten
I0413 17:07:46.735123  9777 net.cpp:100] Creating Layer mbox_conf_flatten
I0413 17:07:46.735138  9777 net.cpp:434] mbox_conf_flatten <- mbox_conf_softmax
I0413 17:07:46.735146  9777 net.cpp:408] mbox_conf_flatten -> mbox_conf_flatten
I0413 17:07:46.735174  9777 net.cpp:150] Setting up mbox_conf_flatten
I0413 17:07:46.735182  9777 net.cpp:157] Top shape: 2 56210 (112420)
I0413 17:07:46.735186  9777 net.cpp:165] Memory required for data: 116471960
I0413 17:07:46.735193  9777 layer_factory.hpp:77] Creating layer detection_out
I0413 17:07:46.735209  9777 net.cpp:100] Creating Layer detection_out
I0413 17:07:46.735215  9777 net.cpp:434] detection_out <- mbox_loc
I0413 17:07:46.735221  9777 net.cpp:434] detection_out <- mbox_conf_flatten
I0413 17:07:46.735227  9777 net.cpp:434] detection_out <- mbox_priorbox
I0413 17:07:46.735235  9777 net.cpp:408] detection_out -> detection_out
I0413 17:07:46.735298  9777 net.cpp:150] Setting up detection_out
I0413 17:07:46.735306  9777 net.cpp:157] Top shape: 1 1 1 7 (7)
I0413 17:07:46.735311  9777 net.cpp:165] Memory required for data: 116471988
I0413 17:07:46.735317  9777 layer_factory.hpp:77] Creating layer detection_eval
I0413 17:07:46.735325  9777 net.cpp:100] Creating Layer detection_eval
I0413 17:07:46.735330  9777 net.cpp:434] detection_eval <- detection_out
I0413 17:07:46.735337  9777 net.cpp:434] detection_eval <- label
I0413 17:07:46.735343  9777 net.cpp:408] detection_eval -> detection_eval
I0413 17:07:46.735389  9777 net.cpp:150] Setting up detection_eval
I0413 17:07:46.735397  9777 net.cpp:157] Top shape: 1 1 7 5 (35)
I0413 17:07:46.735402  9777 net.cpp:165] Memory required for data: 116472128
I0413 17:07:46.735409  9777 net.cpp:228] detection_eval does not need backward computation.
I0413 17:07:46.735414  9777 net.cpp:228] detection_out does not need backward computation.
I0413 17:07:46.735420  9777 net.cpp:228] mbox_conf_flatten does not need backward computation.
I0413 17:07:46.735425  9777 net.cpp:228] mbox_conf_softmax does not need backward computation.
…
